Mindset augmented trained networks (pth)/segmentation_pointnet_P7shake05.pth (torch, 78746 bytes, 18 tensors)

base_pointnet.conv_1_a.weight f4 [64, 1, 3]
00000000: 3bae aabe 02bf e0bd ecc4 fbbd 4ac5 b53e
00000010: 8283 463e 6b6d 4cbe 0989 c03e 9cdf 2ebe
00000020: 2eb0 cebd d845 683e aaf8 46be b5b5 f6be
00000030: 80b8 7b3b 5052 e7be e9cd cf3e ccf0 0b3e
00000040: 1d5d aebc 0a1a ba3d 419e 8e3e 1d11 39be
00000050: 5842 4d3e 743c 4fbe ff09 a63e 07bc a2bd
00000060: 9af8 99be f36a 3abe f239 c5be 5a9a 9a3e
00000070: 0b1d abbd 3a1a a8bd 8da3 a73e 4894 da3e
00000080: 04f5 aa3d c664 1cbe 6ed6 d3be 2335 b53e
00000090: 5368 083e b02c 03bf b399 e7be 0ded 42bb
000000a0: 9b63 803d 8bf6 7cbd 7f41 d9be e0dd b83b
000000b0: 8a24 23be 2ec3 69be 4e6d 0bbe 9a16 9f3e
000000c0: 8e1f d43e 61f0 26be 2ca1 bd3e c4b3 54bc
000000d0: 3c8b 013d 1f4a f5bc 0bf4 9a3d 678f 6fbd
000000e0: 92b7 fbbd fa37 c7bd 2dfc 8bbe baf1 d53e
000000f0: c4d9 593d b33d a8b9 d9ee 47be cf4f c1bd
00000100: 7f3f a9be e44f d73e b779 0b3f 5cfe 213d
00000110: 4e89 923e 9437 13bf 4840 7dbd af77 19bf
00000120: d829 dabe 1212 2b3e e0e4 05be df9b f13e
00000130: 52a5 a63e 83c7 cd3d 65f4 77be 44ab f3be
00000140: 8b93 8fbe 0b09 f0bd abd8 72bd 2b3d fbbe
00000150: 2e7d 6abd 23b8 963b 243e abbe cdb0 eb3e
00000160: 1066 09bf 85a5 c6bd a940 e1ba 7b46 81bd
00000170: 404b b73d a17b c6bd 7238 eb3d 03c9 04bf
00000180: 9bbb fe3c ebfd 49bd abbc 74bc cebe b33d
00000190: 1a26 0a3c a76a 8cbd 6ac9 153e 4641 6bbe
000001a0: af72 ffbd b001 c8be aba6 27bf 8a8c eabe
000001b0: 90ad c4be 148a ae3e c316 24bc 6bc4 a63e
000001c0: 3c57 06bd d3ef 863e 25c0 883e f8d5 173d
000001d0: e53d d53e c742 9abe 412e b0be c758 bd3d
000001e0: d265 913e 26d5 f93e a075 b33e d580 78be
000001f0: 2d68 593e 029a 43bd d20d 75bd 9235 ebbe
00000200: 2cbc c13e e32f f0bd 76dd b3be 100a b53e
00000210: 5b9a fdbe 3636 f63e 9f6b 44bd ff58 1c3d
00000220: 2eb3 8f3e f6fb 023f 9be6 953e 040b c2bd
00000230: 2f9e e23d 8f3a 583e a672 b23e d213 c7be
00000240: 147d 3a3c 4afc 94be 0706 9e3d 6be9 dbbc
00000250: dbe0 b93d 13f8 36bd d9c0 113f 6a1e c9bd
00000260: 91ee 433e 8e97 463d 57ba 1cbe 4f8d 3c3e
00000270: 8a05 073e ae76 dd3e 6421 cabe b7f4 3dbd
00000280: 19ef 97be c03d 693e b511 22bb 3025 0ebf
00000290: 87ea f23e 8dc0 a5be eb1b 583e aa91 2bbe
000002a0: ca9f 61be 0e50 0d3d 01a7 bc3d 7b7b 233c
000002b0: 9028 983e 91bd 04bf b749 ce3e e8a1 a93d
000002c0: 0f03 73be 03b2 173f 187e 8e3d af1f 953e
000002d0: 35a9 b83e 6120 343e 127b d53d b7a9 e13e
000002e0: 5e50 94bb dc03 69bc cf0f c0bd 37e2 353e
000002f0: 1c83 1fbe a0c1 243a 0cb9 3ebc 0591 d0be
-0.33336052 -0.10973932 -0.12293419 0.35502082 0.19386104 -0.19963615 0.3760455 -0.17077488
-0.10092197 0.22682893 -0.19430795 -0.48185506 0.003840953 -0.45179987 0.40586784 0.13666075
-0.021284634 0.09086998 0.27855113 -0.18072934 0.2004484 -0.20237905 0.324295 -0.079460196
-0.3007248 -0.1820486 -0.3852077 0.30195886 -0.08355149 -0.08208127 0.32741967 0.42691255
0.08347514 -0.15272817 -0.41374534 0.35392103 0.13321047 -0.5124006 -0.4523445 -0.0029743344
0.06268998 -0.06175856 -0.42432782 0.005641684 -0.15931907 -0.22828361 -0.13615915 0.3107193
0.41430324 -0.16302635 0.37037027 -0.012982313 0.031626925 -0.02994257 0.07566079 -0.05848637
-0.12290873 -0.097274736 -0.27340832 0.41785985 0.053186193 -0.00032089427 -0.19524707 -0.094390504
-0.33056256 0.4205314 0.544826 0.039549217 0.2862038 -0.5750668 -0.06182888 -0.5994825
-0.4261005 0.16706112 -0.1307559 0.47189233 0.32548004 0.100478195 -0.24214323 -0.47591603
-0.28042254 -0.11720475 -0.059288662 -0.49070105 -0.057248287 0.0045995875 -0.33445847 0.46033326
-0.5367136 -0.09699539 -0.0017185408 -0.06312271 0.089499 -0.09691549 0.114853755 -0.5186922
0.031095317 -0.04931442 -0.01493756 0.087766275 0.008431936 -0.0685628 0.14627615 -0.22974119
-0.12473046 -0.39063787 -0.6548869 -0.45810348 -0.38413668 0.3408972 -0.010015192 0.3257173
-0.032798037 0.26354846 0.26709095 0.03706929 0.41648784 -0.30129072 -0.3441029 0.092454486
0.28397995 0.48795432 0.35050678 -0.24267896 0.21231146 -0.047754295 -0.059827633 -0.45939308
0.37838876 -0.11727884 -0.351299 0.3535924 -0.49531826 0.48088235 -0.047954198 0.03817081
0.2806639 0.5116571 0.292775 -0.09474757 0.110653274 0.21116088 0.34853095 -0.3888231
0.01138236 -0.2909873 0.077159934 -0.0268447 0.09076091 -0.044670176 0.5693489 -0.09820254
0.19133975 0.048484378 -0.15305458 0.1841328 0.13185707 0.43254608 -0.394786 -0.046375956
-0.29674605 0.22777462 -0.0024729792 -0.55525494 0.47444555 -0.32373467 0.211044 -0.16754785
-0.22033611 0.034500174 0.09211541 0.0099781705 0.29718447 -0.51851755 0.40290615 0.08282834
-0.23731636 0.59256 0.06957644 0.29125735 0.36066595 0.17590477 0.104238644 0.44074795
-0.004526182 -0.014222112 -0.09378015 0.17762075 -0.15577358 0.0006284956 -0.011640798 -0.4073564

base_pointnet.conv_1_a.bias f4 [64]
00000000: ac69 8cbe 8ab4 e6be 6669 54be ebe9 f5be
00000010: 7e90 17be 46e1 3f3e c135 09bf 82fa 623e
00000020: 8c0c 963e da07 cebe a925 0bbd 752b a6be
00000030: 2f78 4fbe 6dc8 0dbf 7a35 623d 4fb1 e8be
00000040: 6b22 1f3d bcd7 10bf 3ed5 4abe 879a 8b3e
00000050: 3058 f8be fa10 13be 5505 7fbe c77a e4be
00000060: d99b e1be 8eb5 4a3e 7dcc 023f dc22 cabc
00000070: 86b5 d4be 1070 ad3e 59d9 8d3e 2557 f53e
00000080: 185f 1a3f 1dd6 8c3e b19a 573e efa6 dabe
00000090: 60a4 1c3e 5d12 d73e dc04 0ebf 3ec5 06bf
000000a0: 16c3 03bf 9fcf de3e 2bb8 e93d 0a9e f63d
000000b0: 1453 42bd 1c2f c7bd 4ac6 f4be d349 10be
000000c0: 16cc aa3e 684b d5be e605 d93e af6d 7ebe
000000d0: eea4 adbd 37ea bd3e 3a59 a43d f501 8b3d
000000e0: 9f45 c63e d6ea f1be b3b4 d43d 822b 82be
000000f0: cc21 82be 78a8 96be 664b f83e ae8e 363d
-0.2742437 -0.45059615 -0.20743331 -0.48030028 -0.14801213 0.18738279 -0.53597647 0.22165874
0.29306448 -0.40240365 -0.033971462 -0.3245503 -0.2026069 -0.5538395 0.05522678 -0.45447776
0.038851183 -0.56579185 -0.19807908 0.27266333 -0.48504782 -0.14361945 -0.24904378 -0.44624922
-0.44064215 0.1979582 0.51093274 -0.024674825 -0.4154474 0.3387456 0.27704886 0.47918049
0.6030135 0.27507105 0.21055104 -0.42705485 0.15297079 0.42006198 -0.55476165 -0.5264472
-0.5146955 0.43517777 0.114120804 0.12041862 -0.04744251 -0.09725782 -0.47807533 -0.14090662
0.3335883 -0.41659093 0.42387313 -0.24846528 -0.084787235 0.37092754 0.08024831 0.06787483
0.38724992 -0.47249478 0.10386028 -0.2542382 -0.2541641 -0.29425406 0.48495024 0.044569664

base_pointnet.conv_1_b.weight f4 [64, 1, 3]
00000000: dd81 113f d1a1 bf3d cc18 453e f9f7 b7be
00000010: b33b 7a3f bea4 69be 10cf a4bf 6cc0 f8be
00000020: e5b4 a93e f565 8a3e c254 193f 4503 f8be
00000030: d67d ecbe 2355 c7bd 9de6 ff3d a74d b5be
00000040: d24b 05bf f54e 68bf 463e 48bf 7c2c 0dbf
00000050: 99a1 843d fa82 233f d7cf 7dbe 072b 86be
00000060: 6bd8 5e3f e969 3abf ba0d 9e3d a029 44bf
00000070: 8789 46bf af31 653f d10b 14be d49d 3a3f
00000080: d0cb 113f 665d 61be 1119 013f ea86 1abf
00000090: aa98 c1be 2bf1 0fbe f2f6 82be 560c 4ebe
000000a0: 7a7a 43bf d4f1 f5be bac5 083f df90 453f
000000b0: 538c 4d3e 7e77 41bf 99ba f2be 4ea9 0e3f
000000c0: 0230 93be 502f b63e 9b70 f53e a4e8 373f
000000d0: a0e1 31bf 3288 0cbe 0365 84bf 804c 033e
000000e0: e5a0 613c 3483 403f 7883 24be d612 6abf
000000f0: 1a28 243e f669 f33e 68e8 a73e 2c41 2ebf
00000100: 3271 0d3f 8f5e 813f a005 883f 0d6f 453f
00000110: 7a75 633f a741 ab3e 08f8 3d3f c93e 06bf
00000120: c5a5 a93e 3658 4d3e f77c 563f 88ec 70be
00000130: ed14 d9be 60e9 77bf a07e 0fbf 4d2a 913e
00000140: 86b6 00bf d191 063d b231 0ebf 5242 5bbf
00000150: 476c 5ebe 0dbe f2be 4cde 4a3f 8535 69bf
00000160: 8f34 e23e 2b6a 6b3d c20d 283f 4a5f e43e
00000170: 3937 83be 6b5c c6bd dd8b 0f3f 4898 d9bc
00000180: b894 d5be ae74 303f 6166 8a3e a75c cbbe
00000190: a279 503f c957 64bd 04fe 5b3f 7469 1b3f
000001a0: 3506 333f 11b5 343f 7dcb a9be f298 c2bd
000001b0: bca5 77be 44a3 a43e c8d7 65be 104e 0dbf
000001c0: 114d f83e 7b08 d9be 1be9 333f f3a1 ecbe
000001d0: 0c53 ebbd b452 23bf 2bc1 dabe 9344 c03e
000001e0: 24b3 973d 2ca3 513f fc25 c1bc 01b0 8b3e
000001f0: 90bd b2be 1070 3a3f 8e57 dbbe 475f a93e
00000200: 57cd 113f 18e5 02bf a0de 0ebe a54b 923d
00000210: a420 323f cc34 e03e daef cdbe 5a9f 513e
00000220: 3dbc 7e3d 0dbb ddbd 3e37 1a3f c27c 8abe
00000230: 68ac 55bf ab01 4e3f 9e53 6cbe f058 30bf
00000240: aa33 20be d4db 3cbf 20fe ca3e ab17 da3e
00000250: f5c6 ae3d 381b 013f aab4 30be 0848 8ebe
00000260: facb 19bf c975 5abf 2078 ef3e dced 11bf
00000270: 8a7c a83d c945 3d3f 93e9 debe 2e7e 98be
00000280: 2834 04be ee05 a53e f9fb 3e3f 73da 043f
00000290: 2e72 e23e 5e03 4a3f da28 f83e 2d2b dc3e
000002a0: 4c51 f33d 035f bc3e 8586 0fbf 9320 b6bd
000002b0: b4c0 533f 9dbe 30bf 7341 61bf 47db ffba
000002c0: 2a1b 61bf 5c01 cd3e 4aa5 02be bb08 95be
000002d0: 60ec eebe 9495 223e 91dd 12bf 3a89 433e
000002e0: bb90 2ebe 25e0 40bf ae7a 483e 0c92 433f
000002f0: 0193 603f 278e 20be 4774 053f 45bc 1ebf
0.5683878 0.09357036 0.1924774 -0.35931376 0.97747344 -0.2281675 -1.287569 -0.48584306
0.33145824 0.27030912 0.59894955 -0.48439994 -0.46189755 -0.097330354 0.12495158 -0.35410807
-0.5206882 -0.9074548 -0.7822002 -0.55146 0.06476135 0.6387173 -0.24786316 -0.26204702
0.8704898 -0.72817856 0.07717462 -0.76626015 -0.775536 0.89528936 -0.14457633 0.72897077
0.5695162 -0.22008285 0.50428873 -0.6036211 -0.37811786 -0.14056842 -0.2557903 -0.20121893
-0.7635876 -0.48036063 0.53426707 0.7717418 0.2007306 -0.75572956 -0.47407988 0.5572709
-0.28747565 0.35582972 0.47937474 0.71839356 -0.694849 -0.1372383 -1.0343326 0.12822151
0.01377127 0.752002 -0.16065776 -0.9143499 0.16030923 0.4754178 0.327945 -0.68068194
0.5525085 1.0106982 1.0626717 0.77122575 0.8885113 0.33448526 0.7420659 -0.5243955
0.33134285 0.20053181 0.8378443 -0.2352773 -0.42398778 -0.96840477 -0.5605259 0.28352585
-0.5027851 0.032853905 -0.5554458 -0.8564807 -0.21720992 -0.47410622 0.7924545 -0.9109729
0.44180724 0.057474297 0.6564599 0.4460395 -0.2562807 -0.09685596 0.5607279 -0.026561871
-0.41715026 0.6892804 0.27031234 -0.39719126 0.81435597 -0.05574778 0.8593447 0.60707784
0.69931346 0.70588785 -0.33163062 -0.09501828 -0.24184316 0.32155812 -0.22445595 -0.5519724
0.48496297 -0.42389283 0.70277566 -0.46217307 -0.11490449 -0.6379807 -0.427255 0.37552318
0.07407215 0.81889606 -0.023577683 0.27282718 -0.3491025 0.72827244 -0.42840236 0.33080503
0.5695395 -0.5113082 -0.13952112 0.07143334 0.69581056 0.4379028 -0.40222055 0.20470944
0.062191237 -0.10826693 0.6024054 -0.27048308 -0.83466196 0.80471295 -0.23078772 -0.6888571
-0.15644708 -0.7377293 0.39647007 0.42596182 0.08534042 0.5043216 -0.17256418 -0.2778933
-0.6007687 -0.85335976 0.46771336 -0.5700357 0.08226879 0.7393461 -0.43537578 -0.29783767
-0.12910521 0.32231086 0.7460323 0.5189583 0.44227737 0.7891139 0.48468667 0.4300169
0.118807405 0.36791238 -0.56064636 -0.08892932 0.82715917 -0.6904085 -0.8799049 -0.0019520306
-0.87932074 0.400401 -0.12758365 -0.29108223 -0.46664715 0.15877372 -0.57369334 0.19095317
-0.17047398 -0.7534202 0.19578049 0.76394725 0.8772431 -0.15679227 0.5213055 -0.62006027

base_pointnet.conv_1_b.bias f4 [64]
00000000: 8e44 3c3e 65cf 0a3e 999c 89be ee57 f93e
00000010: 62b4 b1bd e606 ea3e 9a71 c3bd a0e2 063d
00000020: ba79 64be 6464 93be 517d d3be 708d 973d
00000030: 8f25 ff3d 9298 5ebe 360d 033e 418c 343e
00000040: c6c6 5ebe 2283 983e 131a de3e 2767 a53e
00000050: d4e9 15bf 00d8 f53e 6903 cb3e 7211 c83d
00000060: f225 0e3f d0f7 81bd 24d7 e33d e717 bebe
00000070: 6ff5 ee3e cb94 813e c8b9 133f c86e a4be
00000080: d69c f3be 2f96 a4be 2e62 93bd d90c 8d3d
00000090: bb4e aabd 29df 073f 0620 083e a90e 9fbe
000000a0: c22b 1dbe d431 bbbd b0b2 d43e f417 8cbe
000000b0: cf4d 0abf a157 21be 32d1 61bd a138 153e
000000c0: daf9 0bbe 1b50 383e 58e7 c5be a24f de3d
000000d0: 035e 87be cbee 463e 7660 933e 3484 bfbe
000000e0: 6596 4bbd 1e67 4cbe 2f8f c6be f702 d4be
000000f0: 3b24 3bbd 7b60 c1bd 87cf d9ba 6c1d 03be
0.18385527 0.13555677 -0.26877287 0.48699898 -0.086769834 0.45708388 -0.09543152 0.03293097
-0.2231206 -0.2878753 -0.41306546 0.07400024 0.124583356 -0.21737888 0.12798008 0.17631628
-0.21755514 0.29787546 0.43379268 0.32305261 -0.5855992 0.48016357 0.3965104 0.097689524
0.5552665 -0.063460946 0.11125019 -0.3712761 0.46671626 0.25308833 0.57705355 -0.3211577
-0.47580594 -0.3214583 -0.07196461 0.06887216 -0.08315798 0.5307489 0.13293466 -0.31065872
-0.15348724 -0.09140363 0.41542578 -0.27362025 -0.54024976 -0.15756084 -0.055131145 0.14572383
-0.1366953 0.17999308 -0.38653064 0.108550325 -0.26438913 0.1942703 0.2878453 -0.3740555
-0.049703974 -0.19961211 -0.38781115 -0.41408512 -0.04568885 -0.0944223 -0.0016617634 -0.12804192

base_pointnet.conv_2.weight f4 [64, 64, 3]
00000000: bb0b 8d3c 13f0 ce3c 07f3 57bc 5e04 fc3b
00000010: c778 673c 03d6 38bd 47af 6f3c e5cf 7abd
00000020: 1b1f 85bc 0b7e d3bd 2a3c 58bd 357f f13d
00000030: 5506 233e aec1 5ebc 694c 0c3e 5482 973d
00000040: fe1f 00bd dbb2 25bd a4dc 21bb 1c71 0d3d
00000050: b011 043e b091 aebd 815e 0d3c 3080 b43d
00000060: cbd0 05be 8ab0 5f3d 40e1 9bbd f9d1 373d
00000070: 6522 563e d7c6 9abd 2fb5 24bc 5124 a0bc
00000080: c88e de3a a217 bfbc e70f d7bd 3a32 8f3d
00000090: 7bc0 453d 08a8 0bbe fe07 c3bc 2f61 86bd
000000a0: 9185 0abe 70fe 30bd be11 8dbc 5875 1ebd
000000b0: 6e5e 64bd f5b0 8e3c 8c82 753d 98f8 96bc
000000c0: 250a b23c ecda 5c3d 6d2e 953d 0af4 313e
000000d0: 5d12 2d3e 203f 1a3e 0775 36bb 25f5 b53b
000000e0: 756b 0abe d063 96bc 9cf8 ddbd 9043 b5be
000000f0: 730c 903d ee8d e23c c662 1bbe c8e5 8dbd
00000100: 172c 1c3c 9274 6bbc a99f 24bd d6ff b63a
00000110: dfb1 c63d 31d2 3bbc 515e 8f3c 6a52 8cbd
00000120: 8d70 c73b 9187 103d fd58 06be e977 903c
00000130: 220e 3e3d f767 923d fc33 2b3c 6aa2 fbbd
00000140: c133 38bc 987e e83c 71b1 a5bd 47d3 9c3d
00000150: bfdb d3bc 3bdf bb3b de6e 27be 66ad 05bd
00000160: 270e 503c 94a4 103e dcad b3bd eacd 3ebe
00000170: c5c1 61bd b747 a4bd a10f c3bb d058 5dbd
00000180: 4595 3c3d 5b20 70bd 6e33 1ebe f417 f1bc
00000190: c883 2abd 2551 553d ef8e db3d f8cc 153d
000001a0: e78c 5ebc 993c e3bd 2040 85bd d231 eebc
000001b0: 9f3a 6a3d ba37 bf3e 6fde 4d3e d175 7f3d
000001c0: df3f 793c 8f48 8b3d bf38 f8bc 2b80 313d
000001d0: c328 0b3d 197d 8cbd 5393 0dbd 861e 83bc
000001e0: c9d9 663d 5975 bdbc 4f49 89bc 881c fc3d
000001f0: 3ad8 33bd b9ee babd edc5 e5bc 7c5a 57be
00000200: d890 5d3e 1326 fbbd 3187 c43b 6769 973d
00000210: 6f41 21be 3fe8 41bd 9145 37be edc1 08bd
00000220: 4877 ac3d 09a6 f63d ae0c d9bc 94d3 54bd
00000230: 34e5 8e3c 1dc0 65bd c7f6 21be 7eeb 373d
00000240: 33ba cabd 9574 d23d f86b d4bd 1b17 16be
00000250: b47a bcbd 4775 223e 40d9 15bc 3f91 fa3c
00000260: 2445 4dbc 00e5 613b c739 8fbd e12c 853c
00000270: acea 99bd c2b4 e1bc 5d29 4bbd 339c 87bd
00000280: 47d6 0e3e f2c1 d8bc cd7e b9bd b7e9 60be
00000290: 42f5 7f3c 48c0 013d 172c 0dbd fd07 56bc
000002a0: abad 613d 63fb 20bc 019a de3d d41f 7c3c
000002b0: be00 43bd dba0 79bd 28ec 6fbd 51db 36be
000002c0: 9898 20be eef9 d43c 393d 843d 1bec d93d
000002d0: 4959 3d3d a911 933d 4c86 e1bc 59bc 99bd
000002e0: 230e 293c 6dc5 313d 08af 843e 1989 143d
000002f0: 82a2 043d 4052 9cbd c8a5 35bd 0901 923d
00000300: 8b01 d7ba 9743 93bd 851a 1fbd 7cbe db3d
00000310: 26af 913c 9872 4a37 f250 0c3d 2883 5a3d
00000320: eeb1 61bd 1cde 903d 9c6c 22be 4549 4f3d
00000330: f629 26be 69e6 51be 3011 dcbd bbce 913d
00000340: 9817 003e 76a8 4ebc a614 05bd c78d a43d
00000350: 98c8 283d 8041 93bc 5fe7 1c3d d18a 6cbd
00000360: 925a 5c3d 77ae 78bd 5826 6a3d d9d1 993b
00000370: 8964 a0bd 3768 a43d 0be0 bb3d e486 a6bd
00000380: e4c6 333d 7e5c 8bbd d7e6 173d cdb6 8c3d
00000390: 2d6b e33c a302 21be 8d12 213d 52ba 723e
000003a0: c09d 0b3e 26b2 e6bc 1eca 62bd 9f7d 303d
000003b0: a55d 5fbd 6d17 be3c eb31 99be e50c 2e3e
000003c0: ec6a 213c 4314 34bc 3a0a c83d 8d67 4bbd
000003d0: e831 36be cd22 9c3c 8c13 33bd 9a1a 0fbe
000003e0: c3f3 933c 1e11 10bd 3890 37be 5fba d5be
000003f0: aac7 10be 1044 04be 86a3 63bd b493 2fbd
0.017217508 0.02526096 -0.013180501 0.0076909503 0.014127917 -0.045125972 0.014629192 -0.06123342
-0.016250184 -0.10326775 -0.052791752 0.11791841 0.15920384 -0.0135959815 0.13701023 0.07397905
-0.03128051 -0.040453773 -0.0024698162 0.034531698 0.12897372 -0.085238814 0.0086284885 0.08813512
-0.1306793 0.05461172 -0.076113224 0.04487798 0.20911558 -0.07557457 -0.010052963 -0.019548567
0.0016979808 -0.023326699 -0.1050108 0.06992002 0.048279267 -0.13638318 -0.023807522 -0.06561505
-0.13527514 -0.0432114 -0.017220374 -0.038686126 -0.055754118 0.017418364 0.059938952 -0.018429086
0.021733353 0.053919718 0.07284246 0.1737825 0.16901536 0.15063143 -0.002784075 0.005552905
-0.13517554 -0.018358141 -0.10838434 -0.3540311 0.070336245 0.027655568 -0.15174398 -0.06928593
0.009531996 -0.014371054 -0.040191326 0.0013961743 0.09701895 -0.011463688 0.017501028 -0.06851657
0.006086415 0.035285536 -0.13119884 0.017635303 0.046400197 0.07148736 0.010449406 -0.122868374
-0.011242808 0.028380677 -0.08090485 0.076574855 -0.025861619 0.0057333983 -0.16350886 -0.03263607
0.012698687 0.14125282 -0.087733954 -0.18633237 -0.055116434 -0.08021491 -0.005952791 -0.054039776
0.046040792 -0.058624607 -0.15449306 -0.029430367 -0.041629583 0.05207934 0.10720622 0.036572427
-0.013583398 -0.110955425 -0.065063715 -0.02907649 0.05718481 0.37347203 0.20104383 0.062368218
0.015212982 0.06800949 -0.030300496 0.04333512 0.03397442 -0.06859798 -0.034564327 -0.016005766
0.05636004 -0.023127245 -0.01675859 0.123101294 -0.04390738 -0.09127564 -0.02804848 -0.21030611
0.21637285 -0.122631215 0.0059975614 0.07393151 -0.15747617 -0.047340628 -0.17897631 -0.033388067
0.084211886 0.120433874 -0.026495304 -0.05195959 0.017443277 -0.056091417 -0.15816794 0.044902317
-0.09898796 0.102761425 -0.10372156 -0.14657252 -0.09203091 0.1586505 -0.009146035 0.030586837
-0.012528691 0.003446877 -0.06993442 0.016256751 -0.07515463 -0.027552012 -0.049599994 -0.066215895
0.13948928 -0.026459668 -0.090573885 -0.21964155 0.015622439 0.031677514 -0.034465875 -0.013063428
0.055097263 -0.00982556 0.10869218 0.015388448 -0.04760813 -0.06094442 -0.058574826 -0.178571
-0.1568321 0.025998082 0.0645699 0.10640737 0.046227727 0.07181103 -0.027529858 -0.075066276
0.010318312 0.04340117 0.25914788 0.03626356 0.032381542 -0.076328754 -0.044347554 0.07129104
-0.0016403658 -0.07190626 -0.03884365 0.107296914 0.017783713 1.2066819e-05 0.034256883 0.053347737
-0.055101328 0.07073614 -0.15861744 0.050606985 -0.16226944 -0.20498051 -0.10745466 0.07119509
0.12509 -0.012613406 -0.032490395 0.080348544 0.041206926 -0.017975569 0.03830659 -0.057749573
0.053797312 -0.060713258 0.057165474 0.0046942052 -0.078316756 0.0802769 0.09173592 -0.08131197
0.04389085 -0.06804751 0.03708538 0.06870804 0.027761066 -0.15723662 0.039324332 0.23703888
0.13634396 -0.02816112 -0.055368535 0.04308855 -0.054532666 0.02320453 -0.29920897 0.16997106
0.009852152 -0.010991159 0.097675756 -0.0496593 -0.17792475 0.019059563 -0.043719813 -0.13974991
0.01806057 -0.035172574 -0.17926109 -0.41743752 -0.14138666 -0.12916589 -0.05557587 -0.04286547

base_pointnet.conv_2.bias f4 [64]
00000000: ce36 66bd 83b5 e23c ace0 993d 1113 efbb
00000010: 1c36 33bd f08d 8ebd 7d9d 87bd ea6e 89bc
00000020: 6995 3d3d 3e66 16bd 080f 4dbd bee0 efbd
00000030: e269 1cbd 4dce 98bd cd13 2e3d 0387 4cbd
00000040: 7249 cdbd 2415 073b 32f5 b53d 9d96 20bd
00000050: f753 0bbd 4a59 9ebd 86f6 c83c 31ff 023d
00000060: 0b9e 63bd d618 99bc 86a2 41bd 1eb6 5abc
00000070: 1926 20be 57f9 823d 0b7e 903d 7a1d 503d
00000080: 6af6 583d 79ba 90bc 2431 86bd 3dd1 37bd
00000090: 0125 80bd 8fb9 42bc 06f3 82bd ff5a f33c
000000a0: fc65 df3d 57cb 123c a386 37bd e2d2 9c3d
000000b0: e6fc 15be 8808 e4bb e600 e63c 5963 883d
000000c0: 92a5 afbd eb45 04bd a83c 843d 2173 8cbc
000000d0: 3605 0abc 6b46 2e3d 8c8e fdba fa54 a23d
000000e0: 871c 12bc 3a63 22bd 1e09 8e3d fe7d cdbd
000000f0: 2b86 bc3d 042e d63c 259c 983d 5f33 46bc
-0.05620461 0.027674442 0.07513556 -0.007295974 -0.043752775 -0.06960666 -0.066218354 -0.01677652
0.046285067 -0.0367186 -0.050063163 -0.11712788 -0.038186915 -0.07461224 0.042499352 -0.049933445
-0.10023774 0.0020611966 0.08884658 -0.039206136 -0.034015622 -0.07731874 0.024531614 0.03198165
-0.055570643 -0.0186886 -0.047274135 -0.013349084 -0.15639533 0.06395214 0.07055291 0.05080936
0.052969374 -0.017667042 -0.065523416 -0.04487728 -0.06257058 -0.011885061 -0.06394009 0.029706476
0.10908124 0.008959613 -0.044806134 0.0765741 -0.14647254 -0.006959025 0.0280766 0.06659574
-0.08576502 -0.03229324 0.06456882 -0.017144741 -0.008424094 0.042547625 -0.001934485 0.07926364
-0.008917934 -0.03964541 0.06935333 -0.10033797 0.09205278 0.026144989 0.07451657 -0.012097209

base_pointnet.bn_1.weight f4 [64]
00000000: bf28 193f beae 1c3f a1af 7d3f 5580 4d3f
00000010: 4e50 a33f 752b 6b3f db7d 473f 2a0c 643f
00000020: 87ab 173f 5bb1 643f 9938 2c3f 014a 583f
00000030: b823 0e3f 0757 9c3f 754e 2c3f 1722 a03f
00000040: 173e 363f d33b 903f b334 843f 262e d83f
00000050: bd1e 8a3f d9c3 c43f 26ab 3c3f ec7f 383f
00000060: d8b7 443f 3401 1a3f c7d1 363f 6680 1f3f
00000070: 357e 1c3f 8673 613f e7d5 953f 633e 203f
00000080: 73bc 963f 9c9e 8d3f a42a 833f 091a 1c3f
00000090: b979 a33f e898 293f c5fa 433f 5a0a 1f3f
000000a0: 18b6 0b3f 6e61 bf3f 04bf a03f db6e 673f
000000b0: a3bb bd3f 3a10 123f 1166 473f a744 5f3f
000000c0: 14f1 243f 3a4b 873f 8fef 143f a96b 933f
000000d0: 834b 5a3f 00c0 593f 469b d83f bb15 643f
000000e0: 491e 753f 65b8 7a3f 953d 6a3f 60cc 1a3f
000000f0: 89e8 083f 3007 2e3f 6214 a53f 71e4 183f
0.598278 0.61204135 0.99096113 0.80273944 1.2758882 0.91863185 0.77926415 0.8908106
0.59246105 0.8933312 0.6727386 0.8448792 0.5552325 1.2214059 0.67307216 1.2510403
0.7118849 1.1268257 1.0328583 1.6889083 1.079063 1.5372268 0.7369865 0.72070193
0.76843023 0.60158086 0.71413845 0.62305295 0.61130077 0.880669 1.1705903 0.62595195
1.177626 1.1064029 1.0247388 0.60977226 1.2771522 0.6624894 0.7655452 0.6212517
0.5457473 1.4951608 1.2558293 0.9040353 1.4822887 0.5705601 0.77890116 0.8721413
0.64430356 1.0569832 0.5817804 1.151723 0.8527147 0.85058594 1.6922386 0.8909566
0.95749336 0.97937614 0.91500217 0.604681 0.5347982 0.6797972 1.2896845 0.59723574

base_pointnet.bn_1.bias f4 [64]
00000000: 4acb b23a 6073 2ebe fd7c c3bc 367c d9be
00000010: c24a e63d a413 81be 0689 4bbc 15a5 ddbd
00000020: 3c39 3bbe 83f2 9cbc bbbe 32be 5b7b 33be
00000030: d7f7 babe c176 2d3c 7ae8 65be 7010 3c3d
00000040: 5366 06be 5240 abbd 2ac8 00bf 092d 473e
00000050: 886e 29bf 6fbc 9e3d d860 fcbe 7f2d adbe
00000060: 5f81 00bc f78d e0be 8c46 aabc 0faf 9bbe
00000070: 2543 67be fe5c 96bd 5932 3abe dd33 adbe
00000080: 7cac 19be b84d 8ebd f238 35be a335 0cbe
00000090: 7f1a 5abe 6051 79be 34c0 16be efd3 15be
000000a0: 1b40 20be 75e6 5dbe 7eb4 8abc 90b4 49be
000000b0: d9d9 623c 63f5 aabc ccbd 31bd 8961 fbbd
000000c0: eab1 32be 1092 05be 7941 fabd 7e66 fe3c
000000d0: 0c2a febd aad5 82be efdc 1fbd c302 0ebe
000000e0: 91cf 6bbe 1881 d1be 47e2 84be c5ff 48be
000000f0: acdb bebc 0fe3 61be 78b8 9ebd 0a17 92bd
0.0013640907 -0.170362 -0.02386331 -0.42477578 0.11244728 -0.25210297 -0.012422806 -0.108225025
-0.18283552 -0.019158607 -0.1745557 -0.17527525 -0.36517212 0.010587395 -0.22451964 0.045914114
-0.13124971 -0.083618775 -0.50305426 0.19450773 -0.6618428 0.077507846 -0.49292636 -0.33823773
-0.0078433445 -0.4385831 -0.020785592 -0.30406997 -0.22584207 -0.073419556 -0.18183269 -0.3382863
-0.15007204 -0.069484174 -0.17697504 -0.13692336 -0.2129917 -0.24347448 -0.14721757 -0.14631628
-0.15649454 -0.21669944 -0.016931769 -0.19697785 0.013845884 -0.020868963 -0.043393895 -0.12274463
-0.17450681 -0.13044 -0.12219519 0.031054731 -0.124103636 -0.25553638 -0.039029058 -0.13868241
-0.23028399 -0.40918803 -0.25953886 -0.19628818 -0.023298107 -0.22059272 -0.07750028 -0.071333006

base_pointnet.bn_1.running_mean f4 [64]
00000000: 543a 98c1 ce33 5441 4bec adbe 912a 83c1
00000010: 565f 3cc0 6f18 8b40 c57c ea40 57ab 2940
00000020: 2dfa fcc1 a53a 1d40 c96d 0442 4d04 0dc1
00000030: fe2f 05c2 144d 77c0 44f2 8cc1 8420 60c0
00000040: 9fa3 bc41 b66b 67bf c472 b8c0 1873 dd3f
00000050: ae76 8dc0 11a2 0040 a8f1 1642 8a68 32c2
00000060: 425f 2ec1 c746 ee41 d60e 19c2 e32f e1c1
00000070: 9c7d 63c1 6b98 f6c0 9da9 6240 408e 8bc1
00000080: e00e 05bb eccd d23f cdf4 59c0 042a 5fc2
00000090: 8c6b c3bf 9e3e a241 aa81 d341 c20e b6c1
000000a0: 5d39 2c42 79c8 47bf 2549 78c0 f42d b6c0
000000b0: 6b00 bbbe 2d01 fa41 1730 1841 2ef7 c040
000000c0: 8d9f 0ac1 0979 3340 3a26 ae41 e6e7 243f
000000d0: 94f1 db40 bc45 83c0 48bb 293f 3212 d3c0
000000e0: b4a9 3bc0 8bcd 04c1 1290 9840 60b0 0842
000000f0: fd46 ab41 a01f 5441 045c f63f f1c8 81c1
-19.02848 13.262648 -0.3396934 -16.395784 -2.9433188 4.3467326 7.3277307 2.6510828
-31.622156 2.4567044 33.107212 -8.81355 -33.296867 -3.8640795 -17.618294 -3.5019846
23.579893 -0.9039873 -5.7640095 1.7300749 -4.4207373 2.0098917 37.735992 -44.60209
-10.898256 29.78456 -38.26449 -28.148382 -14.218166 -7.7061057 3.5416024 -17.444458
-0.0020303056 1.6469092 -3.4055665 -55.79103 -1.5267196 20.280575 26.438313 -22.757206
43.05602 -0.7804027 -3.8794644 -5.6931095 -0.36523756 31.250574 9.511741 6.0301733
-8.663953 2.8042624 21.768665 0.6441635 6.8732395 -4.1022625 0.66301394 -6.595971
-2.9322329 -8.300181 4.7675867 34.17224 21.409662 13.257721 1.9246831 -16.223116

base_pointnet.bn_1.running_var f4 [64]
00000000: cdcf b742 d387 9942 e1f3 cc41 eb0f cf42
00000010: 2c98 4c42 1f36 4d41 2fbd d441 6165 3841
00000020: da97 5a43 51e7 9441 a509 7543 cd59 8942
00000030: 70a7 7e43 ea0d b740 0000 bc42 030b 2342
00000040: 82c2 fa42 601b c63f 49a6 3041 7c31 2a42
00000050: 44ee 3141 17eb 6b42 c61f 8e43 74fb da43
00000060: 4e05 4742 bf86 7643 8420 a143 903b 2743
00000070: b651 5742 e0e6 5042 cd79 8340 04b6 bf42
00000080: 0f10 ce3f 3bef 5940 1a48 aa41 f169 2944
00000090: 46d4 9f41 acc1 af42 13f5 1f43 0aad 0343
000000a0: 5750 c943 279a 0841 4afa 7942 34a9 4c42
000000b0: 183b 0442 7c08 6343 45d6 0342 773e 9742
000000c0: 7418 c441 99d7 5140 9c86 0643 6295 0c41
000000d0: 2f84 8d42 ea5c d441 bba9 9e42 7b97 cf41
000000e0: aa13 3a41 0763 8142 73ce 7a42 4e94 8b43
000000f0: 7a55 f542 4627 8f42 d5b8 1841 0540 9042
91.90586 76.76528 25.619081 103.53109 51.148605 12.825713 26.592375 11.524751
218.59317 18.612947 245.03767 68.67539 254.65405 5.7204485 94.0 40.760754
125.3799 1.5477104 11.040597 42.548325 11.12067 58.97958 284.24823 437.96448
49.75518 246.52635 322.25403 167.23267 53.829796 52.225464 4.1086183 95.8555
1.6098651 3.4052265 21.285206 677.65533 19.97865 87.878265 159.95732 131.67593
402.62766 8.537635 62.494423 51.165237 33.05771 227.03314 32.959248 75.622
24.51194 3.278784 134.52582 8.78647 70.75817 26.545368 79.331505 25.948965
11.629801 64.69341 62.70161 279.15863 122.66695 71.576706 9.545125 72.12504

base_pointnet.bn_2.weight f4 [64]
00000000: 0fcd 953f d304 9d3f 8d29 903f e888 923f
00000010: 3038 8d3f 024a a33f 3665 883f ecd1 ad3f
00000020: 33ce 933f 48fe 873f b1e0 913f 096d ae3f
00000030: 8785 903f 89ca 9f3f cbaa 953f b4ba 8b3f
00000040: 3d3b 983f 6084 893f 1195 a13f 4e89 8c3f
00000050: 0580 823f 3fa2 8c3f b805 973f d169 ee3f
00000060: 38af 983f 1efc 883f 48a2 b93f 0b05 8d3f
00000070: 02a3 a93f 9211 993f 4d88 8b3f 3b3b 8d3f
00000080: 3bb3 a03f ed5d a93f 1bc8 8f3f 2839 8c3f
00000090: 3b1b 9a3f 29da 8f3f ae97 853f 3510 8c3f
000000a0: 0bb5 883f f319 843f 3d95 b73f 8974 943f
000000b0: 8e68 8e3f 4e00 a13f 29ba 913f 9cf7 a43f
000000c0: 66f4 a33f d62c 943f 245d 8f3f 4cf9 883f
000000d0: c5e0 a33f 39ed 923f da75 963f 887f 9c3f
000000e0: 20ae a63f 1faf a73f 4580 a73f 4d0e 8d3f
000000f0: 7263 b93f ae8a 973f b955 9f3f 3063 953f
1.1703204 1.2267097 1.126268 1.144803 1.1032772 1.275696 1.0655887 1.3579688
1.1547302 1.0624475 1.1396695 1.3627025 1.1290749 1.2483684 1.1692747 1.0916352
1.1893078 1.0743523 1.2623616 1.0979402 1.0195318 1.0987014 1.179862 1.8626043
1.1928473 1.070194 1.4502649 1.1017164 1.3252871 1.1958487 1.0900971 1.1033701
1.2554697 1.3231789 1.1232942 1.0954943 1.203956 1.1238452 1.0436914 1.0942446
1.068025 1.0320419 1.4342419 1.1598064 1.1125658 1.2578218 1.1384937 1.2888064
1.280896 1.1576183 1.1200299 1.0701079 1.2802969 1.1478645 1.1754715 1.222642
1.3021889 1.3100318 1.308602 1.1019989 1.4483473 1.1839197 1.2448035 1.1670895

base_pointnet.bn_2.bias f4 [64]
00000000: c539 81bd 3474 873d 8863 cebc 9ece 9c3c
00000010: e37f 44b8 a2c3 c0bd b0d2 9dbc 10f1 86bb
00000020: 6230 6e3b 4449 cc3c 9ab5 17bd b860 3cbe
00000030: e1fc e3bc 13b6 903c 0091 08bd 02ed 62bd
00000040: 28ad 2cbe 6385 cf3c 51e3 5fbd 098c a4bd
00000050: c140 d1bc 3df5 03bc cfb1 2bbd 36c9 edbd
00000060: 49d1 74bd e97f 273d ce99 35bd 8cb8 12bd
00000070: e803 d7bd 9f1c 5b3d 429c 96bd 173b ab3c
00000080: 5a0b f1bd c6dc d9bd 7a78 d0bc 7e0a 263c
00000090: 4c50 31bd e593 af3c 2457 fe3b bf87 03be
000000a0: a07a b3bd 0522 0cbd 1076 57bd 6190 9abd
000000b0: 7e31 f33c 53c8 9ebd 32db b5bd 37bc 013b
000000c0: ea98 b7bd 910a 8dbd 6c56 b9bb e3f4 8f3c
000000d0: fde3 10bd 09cd d7bd 5623 3dbd 0b96 2fbd
000000e0: 587f 003c 499d 17be 301f bebd 674a f6bc
000000f0: ea23 cfbd 8279 1bbd f4dd 91bc a681 f03c
-0.06309847 0.06613961 -0.025193945 0.019141492 -4.6849145e-05 -0.09412314 -0.019265503 -0.0041180924
0.0036344756 0.02493728 -0.037038423 -0.1839627 -0.027830543 0.017664945 -0.033341408 -0.05540181
-0.16862929 0.025332158 -0.054660145 -0.08034522 -0.025543572 -0.008054075 -0.04191762 -0.116106436
-0.059769902 0.04089347 -0.044336133 -0.03582053 -0.10498792 0.053494092 -0.073540226 0.0209022
-0.11769743 -0.10637812 -0.025448073 0.0101343375 -0.043289468 0.021432826 0.007761853 -0.12844752
-0.08763623 -0.03421213 -0.052602828 -0.07547069 0.029686686 -0.077530526 -0.08879699 0.0019796023
-0.08964713 -0.06886781 -0.0056560542 0.017572826 -0.035373677 -0.10537154 -0.046176277 -0.0428677
0.007842861 -0.14806093 -0.09283292 -0.030064775 -0.10114272 -0.037957676 -0.01780603 0.029358696

base_pointnet.bn_2.running_mean f4 [64]
00000000: 9963 1ebf b403 b1be 76aa acbf c23d 4cbd
00000010: 4815 77bf 0562 1fbd 7d8e c93c d455 b5bf
00000020: 131d d03e bbcd fe3e 0b7d 193f 4aec 023f
00000030: 64b0 46be 0c30 a5be cb35 2c3f debc 1c3f
00000040: 6ef3 a03d a2a1 16bd 7a4c 9cbf 9d88 83bd
00000050: 0d45 87bf 5560 a43f 801d 573d 9b33 f83e
00000060: 7c1f 3b3e cdde 4abf edab d33e 2cc4 2abf
00000070: 3de0 b5be 093c 8abf 5790 84bc 33b4 95bf
00000080: fa03 633d f6e2 b7be cc22 933e 62b0 81bf
00000090: 183a f03e 9aca dbbf e36d 2fbf 92ad 253f
000000a0: 8d60 603e b878 483d 58e6 fbbe ab1a 383f
000000b0: e128 1ebf 3ad2 673f 24c1 25be e8f5 3bbc
000000c0: db39 b5bf b1a6 0bbe 5f93 2b3f e42b 133e
000000d0: c9af 623e 4f85 4bbf 9789 f5be 60ef 85bf
000000e0: 9887 1ebe f0fe 453f 911d 863f 9287 103f
000000f0: 193f 3ebe 24c6 3c3f 4758 59bf caf1 8fbe
-0.61870724 -0.34573138 -1.348952 -0.049863584 -0.9651685 -0.038911838 0.024604077 -1.4166818
0.40647182 0.49766335 0.59956425 0.511418 -0.19403225 -0.3226322 0.6726958 0.6122569
0.078589305 -0.03677524 -1.2210839 -0.06422541 -1.0567948 1.2841898 0.052518368 0.48476872
0.18273729 -0.79246217 0.41342106 -0.66705585 -0.35522643 -1.0799571 -0.016182108 -1.1695617
0.055423714 -0.35915345 0.28737485 -1.0131953 0.46919322 -1.7171204 -0.6852705 0.6471797
0.21911831 0.04894325 -0.49199176 0.7191569 -0.61781126 0.90555155 -0.16186959 -0.011472203
-1.4158281 -0.13637806 0.67021745 0.14372212 0.22137369 -0.7950029 -0.47956535 -1.0463676
-0.15481412 0.7734213 1.0477773 0.56456864 -0.18578757 0.7373984 -0.84900326 -0.28114158

base_pointnet.bn_2.running_var f4 [64]
00000000: a7a3 763d e5a4 113e e814 783e 03b8 a33d
00000010: 0fe6 c93d 8870 9e3d 4af5 133e 256b b73d
00000020: ee2f ae3e 506a f53e 6216 7f3d 4e56 833d
00000030: a78f 173e 230e 8f3d 51f7 a13d 6dc4 8c3d
00000040: b79a b63d 729a 033e eac1 cb3d f7ce fb3d
00000050: 1820 f63e 5efc 193f 9289 793d 5983 3d3d
00000060: 7863 793d 83bf df3d 27a3 8a3d e2bc c23d
00000070: 39cd 1b3d 7cf9 cb3d 1341 9b3e 7b84 903d
00000080: 1f10 663d 1af9 8d3d d92e 673d 80fe ef3d
00000090: 79a8 d33d 2b8a 283e 8c65 6a3e 5536 a83d
000000a0: 776e c43d fec9 403e 58ee 3d3d 7b83 f43d
000000b0: 4546 003e 225e e23d af67 253e 5572 bb3d
000000c0: adf7 6a3d f215 d03d 65a8 223d e28b ef3d
000000d0: 723f 7d3d c176 d43d 8c7e a23d b3f6 233e
000000e0: 60db f63d 1cac a63d 535d 853d 86ea 843d
000000f0: ff7a 4f3d 7425 293e d51b aa3d 6355 d63d
0.060214665 0.14223059 0.24226725 0.07994082 0.09858333 0.077363074 0.14449039 0.08955983
0.34020942 0.47932673 0.062277205 0.06412946 0.14800893 0.06985118 0.079085 0.06873403
0.08916228 0.12851885 0.099490955 0.12295335 0.4807136 0.60150707 0.060922213 0.04626784
0.060885876 0.109252 0.067694 0.09508683 0.038037512 0.09959695 0.30323085 0.07056519
0.056167718 0.06932278 0.05644116 0.11718464 0.10334868 0.16458957 0.228903 0.08213488
0.09591382 0.18827054 0.04636988 0.119391404 0.12526806 0.11053111 0.16152833 0.091526665
0.05736511 0.10160436 0.039711375 0.116966024 0.061828084 0.10374213 0.07934293 0.16012077
0.12053561 0.08138296 0.06511941 0.06490044 0.050654408 0.16518193 0.0830609 0.10465505

fc_1.weight f4 [64, 66]
00000000: 1695 8a3e d1a7 78bf e3d5 df3d 9f8c 49bd
00000010: a94a 0bbd e906 1d3e 335a 82be d9e5 3ebe
00000020: bc53 16bc fc48 0a3d 6853 ed3d 1f23 15be
00000030: 2f61 ffbd 3e5a f23d 1a0e 1dbe afdc 1dbe
00000040: 9ef1 113e c51f 4d3d 1d7c 0cbe 09e7 95bc
00000050: ef02 323b c446 0f3e b432 67bd 1dc7 f5bd
00000060: 1b6c 23be 8b94 05be d809 66bd a52a 6d3d
00000070: 5652 d73a fb7b 68bd 8170 463e 10fa 2bbd
00000080: 80c4 cd3b 6d23 dd3d 59eb 0abe 4fef ecbd
00000090: 7a6d 573d c2f7 753d 2533 2a3e 2aa6 64bd
000000a0: c094 433d 6587 09be 6b19 07be 5742 1e3d
000000b0: 90b3 973e 47c3 5bbe b26c b0bd d3b1 61bd
000000c0: bc2e c8bd be5c 48bc 5369 76be 4674 9abc
000000d0: 0588 083d c379 4abe 2d2e 99bd 04bc 073e
000000e0: ee68 9cbd 11a2 aebc 280c b03d e324 06be
000000f0: 3394 113e abcc b53d 68ed 6cbd 4386 883d
00000100: 503d 31be d458 e0bc e29e 99bd 62a4 bf3d
00000110: 63fc debd 35f6 d33c 1140 05bd f806 233c
00000120: ce0d debd edad f53d 7e96 babd 1fe2 8cbd
00000130: 03c8 973c 5991 573d f444 c3bd 5631 f03c
00000140: b6e4 763c 0443 cfbc acf8 e8bd 7e14 b43d
00000150: 448a 38bb f41b 9bbd 2f5a f9bd 2a94 c3bd
00000160: 2aa0 583c ef11 113d 92f3 e0bd 3f4b b4bc
00000170: de69 333c b3d9 2b3c 251a ddbb 71dc 1e3a
00000180: b389 d83c a296 c5bc 4e49 db3d 481f a13d
00000190: 25d9 ed3c 00aa ecbb e768 e83d cd24 983d
000001a0: 7a2a ec3b a5c7 a7bd 34e8 933d 72b4 81bd
000001b0: ab49 b43d e7e6 a5bd 3a36 763d 9318 a13b
000001c0: 86da 9a3d 9057 a5bc a78c d7bd 1eb0 1bbd
000001d0: 326f b9bd 225f c73d 0a2f cd3d 2ac3 babc
000001e0: 0ff5 e5bc e998 bfbd d7ae 5e3d bf52 b5bd
000001f0: 433f debd b44c 213d 9781 5a3d fdee 39bd
00000200: 4829 43bd b2b2 09bd 1163 c43d ca7d 843d
00000210: cd2b c03d 7533 343f 78dc a63d cc68 bfbd
00000220: b51d dbbc 98da c0bd 9d08 8dbd a9cb b03d
00000230: 8151 01bd 1fbf f13d f787 b23c 40f2 023e
00000240: f24c afbc ae48 1b3e dd9d 233d db18 673d
00000250: aa28 ed3c 3c33 593c 70cf a9bd bcf9 e4bd
00000260: d970 68be 2a61 2f3c 3e72 88bd 2470 d83d
00000270: 6ccc 79bd 7ad9 7c3d 3cb6 febd 327b b83c
00000280: ce82 4d3e ce3e 5cbc e392 db3d 4f08 d93d
00000290: e008 87bc 22f8 5f3c f41f f8bd a480 943d
000002a0: b9cc 093c 9382 883d 6ab0 aa3d 7ed3 943d
000002b0: 67ab 43bd f6da 823d c623 aabd 298c 1f3e
000002c0: 7977 de3d 7f31 e43c c36e ba3c d826 b33d
000002d0: 1cf4 833d f5da e33c 46a6 6d3d f316 20bd
000002e0: 1c51 c93d 1e4a eb3d 2ed3 93bd 49ae 783d
000002f0: 6697 4d3e 8ddc 2f3e 75d2 823d 70a0 38be
00000300: 6b76 be3d b3fc 1fbe 94aa 2fbe c306 09be
00000310: 2429 103c 5645 c73d 2be5 bd3d d9c5 2a3f
00000320: 4860 a43d 3a8c d23c 2e33 a3bd 3be3 53bd
00000330: 9f9a 9f3d ba2b 7b3d 80c6 cabc 4eed de3d
00000340: a0f0 3f3d 05a5 b0bd fdd4 db3d 3ddd 903d
00000350: 4818 1b3e da82 0bbd 22df a63d 6841 eabd
00000360: 2e91 79bd fa18 84bd e4b7 52be 926b b6bd
00000370: 34ad 44bd aa89 033e ca07 ff3d ffa5 ea3d
00000380: e0bc 853d 5aa8 d1bd ded1 b43d dc07 633d
00000390: dd52 3a3e 7317 013e d53a e23c 507a 173d
000003a0: 773e 08be 04f3 f13d 1915 d3bd 9a78 5fba
000003b0: 8997 623d ce04 acbc bb75 acbd be4b c23d
000003c0: 5f81 5bbd a398 3c3d c2d1 b23d 50ab 2b3d
000003d0: 2c1a 8fbc b817 ac3d d2aa 7c3d 03ad 1abd
000003e0: 494f bf3d 51ff 273c 22ed 2b3d 6c8d bfbc
000003f0: 874b 82be 3508 9bbd 9218 8cbc 263c 8dbd
0.2706687 -0.9713107 0.109294675 -0.049206372 -0.03400675 0.15334667 -0.25459442 -0.18642367
-0.009175237 0.03376101 0.11588174 -0.14564179 -0.12469708 0.118336186 -0.1533741 -0.15416215
0.14252326 0.050079126 -0.1371922 -0.018298643 0.0027162393 0.13991839 -0.05644484 -0.120008685
-0.15959208 -0.13044946 -0.05616173 0.057901997 0.0016427736 -0.056758862 0.19378854 -0.041986525
0.006279528 0.107977726 -0.1356634 -0.11569082 0.05259464 0.060050733 0.16621073 -0.05582253
0.04774928 -0.13430555 -0.1319329 0.038637485 0.29629183 -0.21461211 -0.08614482 -0.055101227
-0.09774539 -0.012229143 -0.24063616 -0.018854272 0.033332843 -0.19773011 -0.074795105 0.13255316
-0.07637201 -0.021317514 0.085960686 -0.13100009 0.1421669 0.08876928 -0.057843596 0.066662334
-0.17308545 -0.027386107 -0.075010076 0.093575254 -0.10887983 0.025874237 -0.0325318 0.009950392
-0.10842477 0.11996064 -0.09110735 -0.06879067 0.01852799 0.05262885 -0.09534636 0.0293204
0.015069177 -0.02530051 -0.113755554 0.08792971 -0.0028158585 -0.07573691 -0.12175404 -0.095497444
0.01322178 0.035417493 -0.10983957 -0.022008536 0.010950534 0.010488915 -0.0067475014 0.000606007
0.026432848 -0.024119679 0.10707341 0.078672945 0.029034207 -0.007222414 0.113481335 0.07428894
0.007207212 -0.08192376 0.072220236 -0.06333245 0.088031135 -0.08100682 0.06011031 0.0049162596
0.07561211 -0.020183355 -0.10524874 -0.038009755 -0.09054412 0.09734942 0.100187376 -0.02279814
-0.028070955 -0.09355337 0.05436596 -0.08853673 -0.1085191 0.03937979 0.053346243 -0.045393933
-0.04764679 -0.033617683 0.09589208 0.06469305 0.09383354 0.7039102 0.0814752 -0.0934616
-0.026747564 -0.094166934 -0.068864085 0.08632595 -0.03157187 0.118040316 0.021793349 0.12787724
-0.021398995 0.15164444 0.039945472 0.05642019 0.028950054 0.013256844 -0.08291519 -0.111804456
-0.22699298 0.010704318 -0.06662415 0.10568264 -0.060985968 0.06173084 -0.12437102 0.022519682
0.2006943 -0.013442708 0.10721376 0.10597288 -0.016483724 0.013669999 -0.121154696 0.07251099
0.008410626 0.0666553 0.083344296 0.072669014 -0.047770884 0.0638942 -0.083076045 0.1558081
0.10862631 0.027855633 0.022757893 0.08747643 0.064430445 0.027814368 0.0580199 -0.039084386
0.098299235 0.11488746 -0.07218014 0.060713086 0.20077285 0.17173977 0.06387798 -0.18029952
0.0929993 -0.15623741 -0.17154914 -0.13381486 0.008798871 0.09730022 0.09272226 0.6670814
0.08026177 0.02570163 -0.07968746 -0.051730376 0.077931635 0.061320998 -0.024752855 0.10885106
0.046860337 -0.08625225 0.10733984 0.07073448 0.15145981 -0.034060337 0.08148028 -0.114382565
-0.06092947 -0.064500764 -0.20577961 -0.08907236 -0.048016742 0.12845483 0.124526575 0.114574425
0.06530166 -0.10237189 0.088290915 0.055427417 0.18195672 0.12606601 0.027615944 0.03698188
-0.13305078 0.1181393 -0.103067584 -0.0008524746 0.055320296 -0.020998385 -0.08420893 0.09487103
-0.053590175 0.046044003 0.087314144 0.041911423 -0.017468534 0.084029615 0.061686344 -0.037762653
0.09341294 0.010253743 0.041974194 -0.023382865 -0.25448248 -0.07569925 -0.01710156 -0.06896238

fc_1.bias f4 [64]
00000000: 9af2 543d f047 a3bd c448 1dbc e90a 1abd
00000010: 1c16 1b3d 40db 9cbd bfff b0bd 5088 85bd
00000020: cc65 cc3d b347 9a3d 640a debd a98a 65bd
00000030: 7ef6 d0bc c589 c2bc 8c13 d3bd abfb e03d
00000040: 9634 d83d 2901 4d3d 431e 67bd f0b8 06be
00000050: 30c8 2bbd 3536 e83d 6b67 793d 98bb 5ebd
00000060: ffde cdbd ddea 393c da2f 11be 78be 16bc
00000070: a0ba 043e 7c66 43bd d0fd c6bc 1862 28bd
00000080: 5213 90bd e818 533d 56ff 44b9 3e28 af3b
00000090: 0217 19bd 7f06 b13d d012 cbbd 35b1 d2bd
000000a0: f30a a23d 8831 cfbd 7ad9 5ebd 883d 203e
000000b0: 9903 493d 27bf 18bd 0b97 543e e6cc 233c
000000c0: 5d71 983c fd1b 99bd f833 2d3d 9f92 89bd
000000d0: 9996 1f3d f125 c5bd a7c2 eebd 09e2 c5bd
000000e0: 3cbb 2bbd edc1 f0bd 2ba4 5d3c e56d 3f3e
000000f0: 2f2a 93bc 7907 edbd 4636 413c a99b 163e
0.051989175 -0.07972705 -0.009599868 -0.03760806 0.037862882 -0.07659006 -0.0864253 -0.0652014
0.09980354 0.07533207 -0.108418256 -0.05604044 -0.025508162 -0.023747334 -0.10306463 0.10985502
0.10556905 0.050049935 -0.056425344 -0.13156486 -0.04193896 0.11338464 0.060889643 -0.054378122
-0.10052299 0.0113475 -0.1417841 -0.009200685 0.12961817 -0.04770516 -0.02429095 -0.041109174
-0.07034935 0.051537424 -0.00018787137 0.0053453734 -0.037375458 0.08643817 -0.099156976 -0.10287706
0.07912245 -0.10116869 -0.05440662 0.15648472 0.049075697 -0.037291672 0.20760743 0.009997582
0.018608743 -0.074760415 0.04228589 -0.06717419 0.03896198 -0.096263774 -0.11658221 -0.096622534
-0.041926607 -0.117557384 0.01352791 0.18694265 -0.01796445 -0.11573691 0.011792725 0.14707817

fc_2.weight f4 [3, 64]
00000000: f820 4dbf 9684 d63d dc15 893e 88a8 2b3e
00000010: e3d8 1340 c2d6 e0bd 98e7 aa3d 138a 66c0
00000020: 671f 703f a2a5 e9bf 4f8f a4bd b09c 803f
00000030: c27c 8a3f fe7e 843d 16ca acbd 8aae ff3f
00000040: 1d1e c03f b9b7 c2bf fdcc 81be d8cb c6bd
00000050: 8fb1 58c0 f162 ffbf a569 0340 9241 333d
00000060: 81fb f53d e027 49bd 0279 a83b 1645 5b3f
00000070: 23a1 3fbe 44a3 90bd 3391 90bc 5365 afbf
00000080: cfdc 883d 016d edbd 80b3 3bbe aaa9 47be
00000090: 6cdd 7d3e 5cc1 c3be fc00 9cc0 19a2 443f
000000a0: 9673 ad3f a2d9 c23d 15ed 08bd 08ac ad40
000000b0: a52b 313f 6326 30bd 56bd dd3f f540 b33d
000000c0: 4c3d dcbd 2c47 5f3e af4b 4bbe 4dda f2bb
000000d0: 58cd cd3f 46da 9f3f 897e 8a3c 7f3e e03d
000000e0: 019b 89be a0a2 fabc 073b 853e 1f8e 363e
000000f0: e38d d83d 3446 97bd bae1 153e 681c 313f
00000100: 25bf 6a3f 8828 77bd dd24 f03c 53d5 8e3d
00000110: e38d e4bf 9cb4 cb3d a509 e53d d5bb 4040
00000120: 4c7a 893f d48b 923f beb8 123c 3708 08c0
00000130: 0635 373f b0b7 8bbc 04ec c93d c079 85c0
00000140: 77a2 f7bf 8e95 513d d456 863e 4806 563b
00000150: cb88 7b40 3392 af3f f220 fc3e ac44 04bd
00000160: afdf b5bd 7a82 a03d 4e19 953a a061 ac3e
00000170: 1c67 89bc 0826 24bd 2dbd bcbe 9b68 923e
00000180: 7e74 4d3e 12a6 983d 4a68 bd3e 1a53 96bf
00000190: 1caf ec3d 945b 683e 7ce0 ea40 a21d 32c0
000001a0: 3d8c 1b3f 3154 533d 0e0b 6aba 7261 b1c0
000001b0: 9761 02c0 c007 7b3d 9dae 793e 4706 8e3d
000001c0: 1f8f 84bd 3f92 c4bd b42a fcbf 57a3 efbd
000001d0: 5ca6 66c0 c102 18c0 49d9 a73d cddd 02bc
000001e0: 8daa d93d e0da f4bb 75ac a2be 785f 9d3f
000001f0: 7699 5abd 7117 883c 7c45 f23c c9c8 2840
00000200: 45f3 9b3e d008 9f3c 1fe5 11be 3f08 d7bd
00000210: b123 25c0 4805 803c 4ec4 9f3d 58da 0540
00000220: 0089 c6c0 5b5d 9b3f 19f9 94bd 72d2 473e
00000230: be57 80c0 e220 babd 4609 953d 912f 1440
00000240: 5755 133f 4b90 be3f b9a1 1a3e 9806 c33d
00000250: 65ca c93f ba94 803f 1290 c3bf 139a 293d
00000260: 02bd a9bd e013 6e3d d410 f73d f0d7 9dbf
00000270: 91a1 803e 566a 90bd 7305 4c3e c8e3 ba3f
00000280: 55fa 4dbe 4b40 a9bc 6108 adbd 2399 b53e
00000290: 09d7 30be 3b8a 1d3e 18a2 5340 417f 9e3f
000002a0: 5479 aec0 34c2 e4bc 9188 debc e39a 18c0
000002b0: 112d c83f ad91 2d3d 4d50 80c0 bdde d43d
000002c0: 07ec 513d 10ed 973d cc26 e73f a91c 903d
000002d0: d9b1 8f3d cf7c 29bf a22d b63d f791 36ba
000002e0: 1372 8ebd 6241 903d 73fa 703d 03fc 6dc0
000002f0: eb43 213d 9c59 ebbd b46f 06be a460 f5bf
-0.8012843 0.104745075 0.2677449 0.16763508 2.3101127 -0.10978462 0.08344954 -3.6021774
0.93797916 -1.8253672 -0.080351464 1.0047817 1.0819323 0.06469534 -0.08436982 1.997514
1.500919 -1.5212318 -0.25351706 -0.09706849 -3.3858373 -1.995207 2.053323 0.043763705
0.12010861 -0.049110293 0.0051413784 0.8565229 -0.18713813 -0.070623904 -0.017647361 -1.3702797
0.06682741 -0.115930565 -0.18330193 -0.19498315 0.24791497 -0.3823346 -4.87512 0.7680984
1.3550899 0.095141664 -0.033429224 5.42725 0.6920722 -0.04300536 1.7323406 0.08752624
-0.10753879 0.21804494 -0.1985309 -0.0074112774 1.6078291 1.2488487 0.01690604 0.1094942
-0.2687607 -0.030595124 0.26021597 0.17827652 0.10573938 -0.07386437 0.14636889 0.6918397
0.91697913 -0.060341388 0.029314453 0.06974282 -1.78558 0.09946558 0.1118348 3.0114644
1.0740447 1.1448922 0.008955179 -2.1255014 0.7156528 -0.017055362 0.098594695 -4.171112
-1.9346455 0.051168017 0.2623812 0.0032657553 3.9302242 1.3716491 0.49243885 -0.032292053
-0.08880555 0.078373864 0.0011375339 0.33668232 -0.0167728 -0.040075332 -0.3686308 0.28595433
0.2006397 0.074535504 0.3699363 -1.174411 0.11556837 0.22691184 7.339903 -2.7830586
0.6076086 0.051593963 -0.0008928039 -5.543145 -2.0372064 0.061286688 0.24383016 0.06934791
-0.06472611 -0.09598207 -1.9700532 -0.117010765 -3.6039038 -2.375168 0.08195741 -0.007987452
0.10628233 -0.007472381 -0.317722 1.229476 -0.053369008 0.01661274 0.029574148 2.637255
0.30459037 0.019413382 -0.14247559 -0.1049962 -2.5803034 0.015627518 0.07801114 2.0914516
-6.2042236 1.2137865 -0.07274074 0.19513872 -4.0107107 -0.09088303 0.072771594 2.3154032
0.57552093 1.4887785 0.15100755 0.09522742 1.5764891 1.0045388 -1.5278342 0.041406702
-0.082880035 0.058124423 0.120637566 -1.2331524 0.25123265 -0.07051532 0.19923954 1.4600763
-0.20115025 -0.02066054 -0.08448864 0.35468397 -0.1726953 0.15384762 3.3067684 1.2382585
-5.4523106 -0.027924635 -0.02716473 -2.3844535 1.5638753 0.042375255 -4.0098023 0.103940465
0.051250484 0.07418263 1.8058715 0.070367165 0.070163436 -0.6620607 0.088954225 -0.00069644995
-0.06955352 0.07043721 0.058832597 -3.7185066 0.039371412 -0.11491701 -0.13128549 -1.9170117

fc_2.bias f4 [3]
00000000: d6be dcbd f455 a6bc 4fe9 d63d
-0.107785866 -0.020304658 0.10493719
