Mindset augmented trained networks (pth)/segmentation_pointnet_fmeanpstorefake.pth (torch, 79146 bytes, 18 tensors)

base_pointnet.conv_1_a.weight f4 [64, 1, 3]
-0.17746454 0.19874446 0.06000337 0.55023956 -0.050526764 -0.54509515 0.2954801 -0.4194007
-0.024867874 0.12200113 0.48320845 -0.29670882 0.030260047 -0.021210501 -0.28065935 0.24477272
0.031163376 -0.47291726 0.23308083 -0.57919145 -0.33879167 0.3580888 -0.41286966 0.20704897
0.3252727 0.45116833 -0.17325008 -0.43215448 -0.009123958 0.3838315 -0.406722 0.41574553
0.013527957 0.3487614 -0.34757563 0.16465959 0.017289566 0.111390926 -0.16212732 -0.35354233
-0.14051066 -0.23226267 -0.15923369 -0.24591564 0.37043545 -0.11410352 0.22271347 -0.07785659
0.0043233116 -0.18118617 0.11660116 0.2896462 0.12535627 0.11492479 -0.3015383 -0.26010832
-0.008854778 0.27454975 0.4370991 -0.58264226 0.33770695 0.17448378 -0.26181218 -0.59546435
0.11957527 -0.002933502 0.35649323 0.04353028 0.098776005 0.15014115 0.05628514 -0.23661731
0.06576243 0.04962001 -0.048431657 0.021513484 0.2651964 -0.044639137 0.32954782 0.08712322
0.1727152 -0.1984583 0.2076697 -0.25369117 -0.6106443 0.44038028 0.23509224 -0.2630945
-0.31317684 0.3210146 -0.11043504 0.282017 -0.16666019 -0.09446432 -0.04221171 -0.57046187
0.009679486 0.22540669 -0.27654082 -0.0016868943 0.42422593 -0.2075392 -0.4465732 0.3675409
-0.0980627 0.13462295 0.2505482 -0.06340249 -0.3713262 -0.092750974 -0.20825392 0.37027484
0.09452556 -0.52273285 0.20781986 -0.43555835 0.24300452 -0.10082846 0.15512927 0.04823735
-0.22608979 -0.42852142 0.57061 0.37589407 0.3301714 -0.18042386 0.44309932 0.11933047
-0.32210404 -0.24153048 0.42013377 -0.45931497 -0.4079831 0.08873283 0.23967713 0.2334112
-0.275587 -0.46288988 0.5960159 -0.19063345 0.5062442 -0.055383045 0.06707624 -0.021991579
-0.3050335 -0.32179213 0.49752373 0.39405242 0.36603427 -0.5080324 -0.19086576 0.38482022
-0.23360817 -0.48988938 0.48980707 0.06589778 -0.20477007 -0.5194732 -0.3998811 -0.22863099
0.30858916 -0.25778767 -0.039080508 0.091506556 0.059192713 0.35309544 -0.37084186 0.3270746
-0.51598936 0.33132756 0.3450931 -0.24166259 -0.32455742 0.006254828 0.43392923 -0.5876113
0.2860886 0.33466905 -0.3892636 -0.07740619 -0.22430319 -0.12199862 0.5874917 0.36735067
0.05849427 -0.5649012 0.33827865 0.04477201 0.28951177 0.45290655 -0.2640214 0.051674563
00000000: 44b9 35be ab83 4b3e 18c6 753d 80dc 0c3f
00000010: 27f5 4ebd 5b8b 0bbf 2b49 973e b0bb d6be
00000020: b6b7 cbbc badb f93d 1967 f73e 38ea 97be
00000030: ebe3 f73c a5c1 adbc 95b2 8fbe b3a5 7a3e
00000040: 564a ff3c 3622 f2be beac 6e3e e445 14bf
00000050: 1a76 adbe 6a57 b73e a763 d3be a504 543e
00000060: 258a a63e 89ff e63e 7868 31be 5a43 ddbe
00000070: a77c 15bc 9085 c43e de3d d0be 99dc d43e
00000080: 5da4 5d3c db90 b23e 6ff5 b1be 869c 283e
00000090: d9a2 8d3c ed20 e43d b404 26be 8003 b5be
000000a0: 07e2 0fbe 44d6 6dbe 280e 23be 4fd1 7bbe
000000b0: b7a9 bd3e 1baf e9bd 000f 643e 4773 9fbd
000000c0: 91aa 8d3b de88 39be 97cc ee3d 824c 943e
000000d0: 655d 003e b05d eb3d 3a63 9abe eb2c 85be
000000e0: a113 11bc c991 8c3e 74cb df3e 0b28 15bf
000000f0: ede7 ac3e e0ab 323e 3f0c 86be 5a70 18bf
00000100: e1e3 f43d ff3f 40bb 4886 b63e cf4c 323d
00000110: 134b ca3d 9abe 193e 3f8b 663d cf4b 72be
00000120: 74ae 863d 5a3e 4b3d 4660 46bd 0c3d b03c
00000130: d3c7 873e 87d7 36bd 7eba a83e a96d b23d
00000140: 41dc 303e a738 4bbe 5ea7 543e cfe3 81be
00000150: 2f53 1cbf 8679 e13e 05bc 703e 53b4 86be
00000160: b758 a0be 075c a43e c42b e2bd 8864 903e
00000170: f8a8 2abe 8276 c1bd 30e6 2cbd ca09 12bf
00000180: b596 1e3c 03d1 663e c296 8dbe c81a ddba
00000190: 2434 d93e 2885 54be 3ea5 e4be 522e bc3e
000001a0: 19d5 c8bd 99da 093e db47 803e 2ad9 81bd
000001b0: 781e bebe 39f4 bdbd 8440 55be aa94 bd3e
000001c0: 9e96 c13d d2d1 05bf bbce 543e 8101 dfbe
000001d0: 2dd6 783e 277f cebd 35da 1e3e 8794 453d
000001e0: 1584 67be 2967 dbbe 7f13 123f 3075 c03e
000001f0: 3a0c a93e 08c1 38be eadd e23e 8963 f43d
00000200: d2ea a4be c453 77be c61b d73e 552b ebbe
00000210: 29e3 d0be 8fb9 b53d ec6d 753e 5803 6f3e
00000220: bd19 8dbe e7ff ecbe 7f94 183f 6a35 43be
00000230: 3899 013f 55d9 62bd 455f 893d af27 b4bc
00000240: 5a2d 9cbe f0c1 a4be 6ebb fe3e 3dc1 c93e
00000250: d868 bb3e 690e 02bf 5072 43be 2807 c53e
00000260: fb36 6fbe c8d2 fabe fec7 fa3e 6af5 863d
00000270: 3faf 51be 32fc 04bf 37bd ccbe 3e1e 6abe
00000280: 66ff 9d3e bffc 83be e212 20bd ca67 bb3d
00000290: 0f74 723d edc8 b43e fcde bdbe 5276 a73e
000002a0: e117 04bf c4a3 a93e 0bb0 b03e 6676 77be
000002b0: 642c a6be 4df5 cc3b f92b de3e b26d 16bf
000002c0: 347a 923e be59 ab3e 8f4d c7be 2387 9ebd
000002d0: bcaf 65be 6ada f9bd db65 163f 6315 bc3e
000002e0: b097 6f3d 5d9d 10bf dc32 ad3e db62 373d
000002f0: e33a 943e 5ee3 e73e d02d 87be b5a8 533d

base_pointnet.conv_1_a.bias f4 [64]
0.09746309 0.2429369 -0.11100291 0.3344828 -0.29285827 0.25971112 0.047368594 0.33663163
0.0068893284 0.5552472 -0.22834137 0.17345908 0.54465085 -0.33246195 0.29436305 0.1711599
-0.37476635 0.42547223 0.048382405 -0.56460565 0.3290063 0.22976366 -0.4860197 0.048531745
0.4129252 0.54126775 -0.001117832 -0.25984344 -0.3125986 -0.072778806 -0.10575899 -0.27833447
0.55603474 0.5413389 0.39569435 -0.45028302 0.25878888 -0.06480174 -0.0901144 -0.10929997
0.4375418 -0.20946921 0.24977924 0.033493787 0.051822975 -0.0812795 -0.19913031 -0.39832464
-0.061288897 -0.036036037 0.5944538 0.08260104 -0.50141114 0.21778998 -0.100434914 -0.54179966
0.40173233 -0.1615393 -0.3969494 -0.2271908 0.36959338 -0.1927584 -0.40339392 -0.1128338
00000000: bb9a c73d 73c4 783e 7e55 e3bd 5441 ab3e
00000010: 85f1 95be dbf8 843e 9205 423d fb5a ac3e
00000020: e0bf e13b ae24 0e3f 52d2 69be 429f 313e
00000030: 3d6e 0b3f 7438 aabe c1b6 963e 8a44 2f3e
00000040: 60e1 bfbe 7fd7 d93e a12c 463d ff89 10bf
00000050: 8473 a83e 2a47 6b3e 93d7 f8be 39c9 463d
00000060: ef6a d33e 8690 0a3f 3884 92ba 330a 85be
00000070: ec0c a0be 0e0d 95bd 2b98 d8bd db81 8ebe
00000080: 4b58 0e3f 3095 0a3f 7398 ca3e 7f8b e6be
00000090: fa7f 843e c6b6 84bd e68d b8bd aad8 dfbd
000000a0: 7b05 e03e 197f 56be 21c6 7f3e c830 093d
000000b0: 5444 543d de75 a6bd d1e8 4bbe 35f1 cbbe
000000c0: 110a 7bbd 869a 13bd 202e 183f bc2a a93d
000000d0: 7b5c 00bf 5604 5f3e d2b0 cdbd 62b3 0abf
000000e0: dcaf cd3e 8f6a 25be f43c cbbe b4a4 68be
000000f0: 583b bd3e 7562 45be a689 cebe 6815 e7bd

base_pointnet.conv_1_b.weight f4 [64, 1, 3]
0.37116846 -0.88865614 -0.16474845 0.27545682 0.62620145 0.6299437 -0.2500419 -0.5735938
-0.19637384 -0.5505491 0.0021548534 -0.2468898 0.6726643 0.26972076 0.12711954 0.5830659
0.41308185 0.69294596 0.2487 -0.115238115 -0.87029564 -0.25091702 -0.37812492 1.090682
-0.6521322 0.46292737 -0.14855048 -0.463329 -0.06135248 0.51330227 -0.6441179 0.09009285
-0.34936112 -0.4821606 -0.92152846 -0.72949237 0.6247927 0.92613643 -0.08633383 0.42368352
-0.5088833 -0.20412178 0.05200123 -0.37536952 0.60041374 -0.03516514 -0.33566847 -0.73915344
0.3438051 0.16880403 -0.5358868 -0.9969112 0.84321934 0.2902388 0.056293204 0.4425923
0.089198306 -0.060480233 -0.9421377 -1.1248477 -0.81690615 0.038120847 1.1045343 -0.34924278
0.00651695 -0.37194172 0.04399453 0.1598362 0.867272 0.5448302 -0.5248753 0.5753794
0.24760675 -0.43643695 0.5153151 -0.40226093 -0.41202542 0.8426248 -0.024683626 -0.008565419
-0.8467198 0.46364453 0.7811896 0.1273844 0.5180792 0.29615813 0.253888 -0.32104975
-0.65529233 -0.13316004 0.99220586 -0.21622324 -0.760079 0.69100976 0.014981454 0.015287942
-0.5458854 -0.5706816 -0.9580985 0.15033881 0.40136558 -0.45335865 -0.29282224 -0.56984407
-0.4532116 -0.62680227 -0.24795383 0.22715792 0.1224272 -0.27551672 -0.6455001 0.3939127
0.43351278 1.0045648 0.2142148 -0.09396498 0.42481068 0.4096432 -0.5523936 -1.1283969
-0.37186924 0.39634332 0.02546089 0.017813208 -0.011029786 -0.25533414 0.014169661 -0.056342307
-0.123496406 0.19568364 -0.031816017 0.38341296 0.73701155 0.29485136 -0.6620912 -0.4271353
0.7525876 0.42797577 -0.17535986 -0.5354269 0.22966747 0.250329 0.8909467 -0.09522938
-0.3276265 0.4790065 0.5529343 -0.40191108 0.23571351 -0.84463763 -1.1253971 0.32034263
0.3959799 -0.12207347 -0.046579484 -0.69942766 -0.52196276 -0.07646961 -0.3022147 0.22617261
0.38772336 0.85216063 -0.56054807 -0.56758416 -0.3263425 -0.7852616 -0.5759079 0.014212555
-0.27213565 -0.1022885 -0.87415904 0.42505625 -0.32800815 0.7754719 0.3872304 -0.3426614
-0.6463225 0.28573272 -0.38620064 0.6084156 -0.3053969 -0.054471638 -0.2847958 0.43106896
-0.028829098 0.11809641 1.2346313 0.11624763 0.72345096 -0.28032088 0.18056414 0.10914241
00000000: cb09 be3e f87e 63bf d1b3 28be ad08 8d3e
00000010: bd4e 203f fe43 213f 7e05 80be 0bd7 12bf
00000020: 3916 49be c9f0 0cbf 7138 0d3b aed0 7cbe
00000030: ba33 2c3f d718 8a3e a02b 023e cf43 153f
00000040: 777f d33e e864 313f 36ab 7e3e f601 ecbd
00000050: b2cb 5ebf 3278 80be 9799 c1be 789b 8b3f
00000060: 23f2 26bf d104 ed3e 9e1d 18be 7539 edbe
00000070: bd4c 7bbd c767 033f e9e4 24bf 9a82 b83d
00000080: 76df b2be c1dd f6be 4ae9 6bbf 03c0 3abf
00000090: 6af2 1f3f 4717 6d3f cbcf b0bd 0ced d83e
000000a0: 2d46 02bf 4d05 51be 3eff 543d 6f30 c0be
000000b0: b7b4 193f 5209 10bd bddc abbe 2939 3dbf
000000c0: 3907 b03e f7da 2c3e e12f 09bf 9335 7fbf
000000d0: 39dd 573f 2e9a 943e b493 663d 759b e23e
000000e0: 9aad b63d 1fba 77bd f02f 71bf 02fb 8fbf
000000f0: c320 51bf 9b24 1c3d 6161 8d3f f3cf b2be
00000100: 248c d53b 256f bebe 9c33 343d 1aac 233e
00000110: 8a05 5e3f fe79 0b3f 3a5e 06bf 104c 133f
00000120: a08c 7d3e aa74 dfbe b1eb 033f 25f5 cdbe
00000130: fff4 d2be 42b6 573f 5135 cabc f955 0cbc
00000140: a1c2 58bf d162 ed3e 0bfc 473f 0e71 023e
00000150: d7a0 043f 0aa2 973e 9cfd 813e a260 a4be
00000160: 3dc1 27bf 1b5b 08be 3401 7e3f a069 5dbe
00000170: 8a94 42bf 04e6 303f c674 753c 477a 7a3c
00000180: 25bf 0bbf 3018 12bf f145 75bf 6bf2 193e
00000190: ca7f cd3e a01e e8be ccec 95be 4de1 11bf
000001a0: 5a0b e8be 1d76 20bf 9ce7 7dbe 169c 683e
000001b0: 1dbb fa3d 8710 8dbe 7f3f 25bf edae c93e
000001c0: 63f5 dd3e 9495 803f 205b 5b3e b670 c0bd
000001d0: c980 d93e c1bc d13e ab69 0dbf 4f6f 90bf
000001e0: a565 bebe 83ed ca3e 5b93 d03c 01ed 913c
000001f0: 47b6 34bc 28bb 82be de27 683c 31c7 66bd
00000200: afeb fcbd 4b61 483e 8351 02bd b44e c43e
00000210: caac 3c3f c2f6 963e cf7e 29bf 7ab1 dabe
00000220: 95a9 403f a41f db3e 8991 33be bd11 09bf
00000230: f32d 6b3e 1f2b 803e 1515 643f 9f07 c3bd
00000240: a9be a7be 5740 f53e 1a8d 0d3f 4ac7 cdbe
00000250: e25e 713e 2c3a 58bf 030d 90bf f303 a43e
00000260: e1bd ca3e a801 fabd 21ca 3ebd b10d 33bf
00000270: 5a9f 05bf 199c 9cbd e3bb 9abe cb99 673e
00000280: ad83 c63e 3327 5a3f 1480 0fbf 324d 11bf
00000290: 5d16 a7be e706 49bf b36e 13bf c7db 683c
000002a0: 5d55 8bbe a27c d1bd e3c8 5fbf f9a0 d93e
000002b0: aff0 a7be 5485 463f 1043 c63e 5171 afbe
000002c0: 6475 25bf 8f4b 923e 17bc c5be 20c1 1b3f
000002d0: fc5c 9cbe a71d 5fbd c1d0 91be 12b5 dc3e
000002e0: 002b ecbc 88dc f13d 6608 9e3f 3d13 ee3d
000002f0: 1534 393f 3886 8fbe cee5 383e 0e86 df3d

base_pointnet.conv_1_b.bias f4 [64]
-0.44477597 0.031191705 -0.11983825 0.37091452 -0.37199178 -0.26103657 -0.4981186 0.1699151
-0.46666664 -0.48936808 -0.16458508 0.48182502 -0.16213034 -0.2436572 -0.34818438 -0.23474523
0.116759904 0.400819 -0.054351855 -0.091675416 -0.5506148 0.5501096 -0.44758883 -0.5447826
0.33465567 -0.20996265 -0.09544704 0.25463083 0.3324299 0.17245209 -0.5011887 0.35664746
-0.41173255 -0.36660114 0.45682785 -0.3315945 0.45958966 0.39016658 -0.34475222 0.2929999
0.121497 0.07747039 -0.43520132 0.19075051 0.32076302 0.31837717 -0.050257534 -0.5157319
-0.3527008 0.17868175 0.261531 -0.25981238 -0.5424463 0.10518487 0.15574667 -0.01596801
-0.306272 -0.14620595 -0.2605674 0.19466108 0.33736733 -0.09909758 -0.19818382 -0.46447557
00000000: adb9 e3be bf85 ff3c c26d f5bd 82e8 bd3e
00000010: b575 bebe 96a6 85be 6709 ffbe 39fe 2d3e
00000020: eeee eebe 748e fabe fe88 28be c5b1 f63e
00000030: 7f05 26be 4681 79be 3945 b2be 0e61 70be
00000040: d11f ef3d 2638 cd3e 0da0 5ebd 52c0 bbbd
00000050: 17f5 0cbf fcd3 0c3f 5d2a e5be df76 0bbf
00000060: fd57 ab3e 7300 57be bd79 c3bd f95e 823e
00000070: 4034 aa3e 4897 303e e74d 00bf 7f9a b63e
00000080: 9cce d2be 25b3 bbbe 57e5 e93e c1c6 a9be
00000090: 564f eb3e eac3 c73e 5d83 b0be 1504 963e
000000a0: 6bd3 f83d cca8 9e3d b5d2 debe 1a54 433e
000000b0: 0d3b a43e 5502 a33e d8da 4dbd 0107 04bf
000000c0: 3395 b4be 59f8 363e 64e7 853e 2106 85be
000000d0: c3dd 0abf 2a6b d73d 0e7c 1f3e 58cf 82bc
000000e0: afcf 9cbe 03b7 15be 1769 85be 3c55 473e
000000f0: 69bb ac3e acf3 cabd b3f0 4abe becf edbe

base_pointnet.conv_2.weight f4 [64, 64, 3]
0.02747334 0.05989482 0.12461228 0.08405259 0.05249347 0.15097839 0.028700598 -0.09690585
-0.03581189 -0.069654115 0.028425362 -0.083198376 -0.03544579 0.062231775 0.06824808 -0.041209474
0.030818632 -0.007379813 0.040972613 -0.13211691 -0.005810688 -0.048458982 -0.011182967 -0.05176626
-0.1103267 -0.041706204 0.024480348 0.018204551 -0.004959251 -0.048697464 0.021902313 -0.04445142
0.030579487 -0.07284546 -0.01790008 -0.08485157 -0.03100484 -0.064857125 -0.02342046 -0.037037466
0.020882202 -0.07689471 -0.008339246 0.0069640977 -0.1454942 0.07517093 -0.07131142 -0.12237036
0.07806206 0.035366382 0.13738322 -0.057224818 -0.008675444 0.014342575 -0.04198998 0.016160209
0.07245153 -0.07959486 -0.24105343 -0.015648365 0.00294288 0.021479864 -0.046028957 -0.042658187
0.025066115 0.041933287 -0.0019413247 0.043136526 0.050926156 -0.045241866 0.044347648 -0.08297707
0.057787113 0.037048765 -0.04582378 -0.04884602 -0.08932587 -0.017299214 -0.019741371 0.0799934
-0.059755802 -0.059249856 0.07062939 0.031352963 -0.0055931415 0.112654544 -0.010200179 -0.014827547
-0.035938982 -0.1198583 0.04586185 -0.18313247 0.12060807 0.04402668 -0.0386069 0.06617695
0.090411514 -0.06473127 -0.10542654 0.038234457 -0.010779037 -0.040994305 -0.029382745 -0.061575957
-0.03402709 0.021151498 -0.030944008 -0.034884244 -0.059010927 0.017742353 -0.005731049 0.113279365
0.14542672 0.10604148 0.026188966 0.05121646 0.08150095 0.06720663 -0.0054119914 0.038321074
0.07333419 0.1591237 0.14544182 0.014602481 0.05456326 0.008112687 -0.02973901 0.04990574
-0.04753689 0.0014736229 0.054172754 0.06338553 -0.02096828 0.037670862 0.029026387 0.05161655
0.06183259 0.056700233 -0.09232956 0.041991718 -0.056761824 0.030603295 0.008466546 -0.06886957
-0.07582023 0.034107044 -0.06080831 -0.07416328 -0.0802808 -0.047175482 -0.00057552825 0.0960694
0.07831971 -0.080839865 -0.00083441404 -0.060128484 -0.0259936 -0.023397347 -0.011327614 -0.007496029
0.19096406 -0.03824697 0.13253237 -0.005869822 -0.06665406 -0.043821268 -0.047593694 -0.016594661
-0.17759337 -0.07790135 -0.062124785 -0.018108897 -0.054806773 0.05227176 0.029433113 -0.0005364573
-0.01097968 -0.040312562 -0.07531485 0.03803121 -0.02220172 -0.013861412 0.061012715 0.17304206
0.071346015 -0.0044175074 -0.022125538 -0.044827435 0.08488874 -0.0099109765 -0.0218333 0.060448907
-0.05591836 0.049608454 0.13413094 0.06421278 0.08410606 0.07101167 -0.018080024 -0.040851016
0.053932276 -0.024890948 0.029106852 -0.04170438 -0.09901466 -0.058209464 -0.010457068 -0.01740791
0.06303316 0.038295347 0.03595515 -0.051387135 -0.09140507 0.070885785 0.050947677 0.028351905
-0.037913714 0.06320336 0.036472652 -0.14470357 -0.18411793 -0.17842124 0.0897618 0.11289838
0.17296186 -0.028955402 -0.085980356 -0.059222993 -0.098886624 -0.13571572 -0.01656516 -0.003663973
0.0077112224 -0.01544603 -0.13307293 -0.056351624 0.047448467 -0.13099612 -0.08936866 -0.12348119
-0.06553793 -0.008978094 -0.056090556 -0.03935304 -0.036776584 -0.012207344 0.06463224 0.00141917
0.07361466 -0.056976587 -0.14365299 -0.080499455 0.028294573 0.019000473 -0.0237688 0.06780147
00000000: c50f e13c 4554 753d b934 ff3d c423 ac3d
00000010: 6503 573d 149a 1a3e 841d eb3c 9376 c6bd
00000020: 7daf 12bd d1a6 8ebd 4edc e83c e963 aabd
00000030: 9b2f 11bd bfe6 7e3d a6c5 8b3d 44cb 28bd
00000040: 5b77 fc3c 5cd2 f1bb e6d2 273d a849 07be
00000050: 9567 bebb ed7c 46bd c338 37bc dc08 54bd
00000060: f7f2 e1bd 20d4 2abd 038b c83c b621 953c
00000070: 3681 a2bb fe76 47bd 7b6c b33c b112 36bd
00000080: d581 fa3c 0030 95bd 30a3 92bc a9c6 adbd
00000090: ddfd fdbc d0d3 84bd 44dc bfbc 99b4 17bd
000000a0: 2711 ab3c f97a 9dbd 55a1 08bc 1633 e43b
000000b0: 6efc 14be 37f3 993d b90b 92bd 509d fabd
000000c0: 00df 9f3d 57dc 103d 30ae 0c3e 9264 6abd
000000d0: 7323 0ebc 1ffd 6a3c affd 2bbd 6a62 843c
000000e0: 7861 943d a102 a3bd b6d6 76be 0031 80bc
000000f0: 55dd 403b 8af6 af3c dc88 3cbd 5aba 2ebd
00000100: 7457 cd3c 3dc2 2b3d 0c74 feba edaf 303d
00000110: f297 503d 894f 39bd e1a5 353d e2ef a9bd
00000120: 2eb2 6c3d 72c0 173d b7b1 3bbd c412 48bd
00000130: 7bf0 b6bd 15b7 8dbc a8b8 a1bc 94d3 a33d
00000140: 80c2 74bd faaf 72bd 24a6 903d f76b 003d
00000150: ac46 b7bb 6db7 e63d a71e 27bc 3def 72bc
00000160: c134 13bd 4578 f5bd a3d9 3b3d 1487 3bbe
00000170: 5d01 f73d 5255 343d 4522 1ebd c887 873d
00000180: ac29 b93d d491 84bd dfe9 d7bd bc9b 1c3d
00000190: 8f9a 30bc a5e9 27bd 15b4 f0bc 1237 7cbd
000001a0: fd5f 0bbd e845 ad3c 4a7e fdbc c8e2 0ebd
000001b0: 71b5 71bd 6958 913c 86cb bbbb 03ff e73d
000001c0: beea 143e 472c d93d 3e8a d63c 5ac8 513d
000001d0: f8e9 a63d a1a3 893d 1357 b1bb 8ff6 1c3d
000001e0: 3c30 963d 53f1 223e b3ee 143e 3f3f 6f3c
000001f0: ba7d 5f3d 13eb 043c 399f f3bc f669 4c3d
00000200: 0bb6 42bd 9426 c13a 40e4 5d3d 46d0 813d
00000210: acc5 abbc c34c 1a3d bfc8 ed3c e06b 533d
00000220: 2b44 7d3d 813e 683d 4817 bdbd 82ff 2b3d
00000230: 167f 68bd c3b3 fa3c 45b7 0a3c 7d0b 8dbd
00000240: a347 9bbd d4b3 0b3d 2212 79bd ebe2 97bd
00000250: 436a a4bd 143b 41bd 0cdf 16ba 09c0 c43d
00000260: 1666 a03d 5f8f a5bd 94bc 5aba 4949 76bd
00000270: 88f0 d4bc cbab bfbc 7597 39bc 40a1 f5bb
00000280: 158c 433e dba8 1cbd 91b6 073e a357 c0bb
00000290: ec81 88bd ee7d 33bd 9bf1 42bd 87f1 87bc
000002a0: 09db 35be be8a 9fbd 8f76 7ebd 1c59 94bc
000002b0: 117d 60bd ea1a 563d b61d f13c 0aa1 0cba
000002c0: 1ee4 33bc c91e 25bd ac3e 9abd 9dc6 1b3d
000002d0: 62e0 b5bc fa1a 63bc 78e8 793d f031 313e
000002e0: dc1d 923d bdc0 90bb 9e40 b5bc f99c 37bd
000002f0: 26da ad3d a661 22bc c0db b2bc 4699 773d
00000300: a60a 65bd 3c32 4b3d 9f59 093e fd81 833d
00000310: cc3f ac3d 916e 913d 8f1c 94bc 6553 27bd
00000320: 17e8 5c3d 1ae8 cbbc 7e71 ee3c 36d2 2abd
00000330: 33c8 cabd 0c6d 6ebd 1f54 2bbc 099b 8ebc
00000340: 8817 813d 95db 1c3d b545 133d 517b 52bd
00000350: 9532 bbbd 912c 913d 83ae 503d 4142 e83c
00000360: 694b 1bbd c370 813d 5964 153d 2c2d 14be
00000370: 6989 3cbe 0fb4 36be 09d5 b73d 4437 e73d
00000380: ea1c 313e e133 edbc 7816 b0bd cf93 72bd
00000390: 1285 cabd 10f9 0abe a9b3 87bc 441f 70bb
000003a0: 6cae fc3b 5811 7dbc 4544 08be f6d0 66bd
000003b0: 5359 423d d923 06be ea06 b7bd b5e3 fcbd
000003c0: c038 86bd db18 13bc 36bf 65bd a730 21bd
000003d0: 0ba3 16bd 5001 48bc e85d 843d 7103 ba3a
000003e0: 48c3 963d 4860 69bd c519 13be e6dc a4bd
000003f0: 05ca e73c e1a6 9b3c c9b6 c2bc 7fdb 8a3d

base_pointnet.conv_2.bias f4 [64]
0.04752593 -0.05133329 0.035797164 0.010535738 -0.03605821 0.017352525 0.06501721 0.099388964
0.027309118 -0.007746927 -0.026581474 0.031586554 -0.092006125 0.050901216 -0.024310507 0.07005856
-0.0097823655 0.035306934 0.019784722 -0.0020798184 -0.051396623 0.034003526 0.017013822 0.026404552
-0.019395871 -0.007879072 0.0015622182 -0.013552096 -0.050332274 -0.079505466 -0.033220116 -0.0003967888
0.028548045 -0.09362943 0.033918858 0.09773595 -0.11843189 -0.09774144 0.0061986055 0.023852533
0.064982414 -0.0018323398 -0.017864618 0.041243095 0.0664348 -0.014572047 0.050065637 0.03341457
0.04044568 0.049986936 0.030055309 -0.045292255 -0.0033782425 0.012070401 0.03238583 -0.03867412
-0.035908163 0.04133634 0.0234026 -0.031559955 -0.026834214 -0.062135812 0.08340513 -0.059016656
00000000: 8daa 423d db42 52bd 0ca0 123d 179e 2c3c
00000010: c6b1 13bd e226 8e3c be27 853d 718c cb3d
00000020: 5fb7 df3c efd9 fdbb 64c1 d9bc e760 013d
00000030: b56d bcbd cb7d 503d d426 c7bc dd7a 8f3d
00000040: 3746 20bc 019e 103d 9213 a23c 904d 08bb
00000050: 4485 52bd 4847 0b3d 9260 8b3c 5c4e d83c
00000060: 17e4 9ebc 3917 01bc 58c3 cc3a 9c09 5ebc
00000070: 3729 4ebd c3d3 a2bd d111 08bd 1708 d0b9
00000080: 97dd e93c c9c0 bfbd 80ee 0a3d c929 c83d
00000090: 6b8c f2bd aa2c c8bd ac1d cb3b 6366 c33c
000000a0: 8015 853d 1f2b f0ba d258 92bc 85ee 283d
000000b0: f80e 883d 98bf 6ebc a011 4d3d b7dd 083d
000000c0: 5faa 253d 1abf 4c3d 8d36 f63c 5f84 39bd
000000d0: 8165 5dbb eec2 453c 01a7 043d c168 1ebd
000000e0: 7014 13bd 4b50 293d cfb6 bf3c 0345 01bd
000000f0: 6dd3 dbbc 1f82 7ebd 4fd0 aa3d 73bb 71bd

base_pointnet.bn_1.weight f4 [64]
1.0165889 1.1177198 0.9403841 0.92091864 0.8671328 1.1084955 0.9272123 0.94510406
0.86372083 1.2535206 1.2768414 0.9686534 1.0628198 0.91929233 1.145978 1.1457508
1.0085354 0.77770543 0.90725154 1.0310713 0.9776117 0.8880903 0.8976101 1.0905807
0.9445698 0.92757386 0.90596795 0.9558964 1.0186033 0.9165806 1.1362977 0.83894044
0.98687637 0.83806086 0.98076653 0.90505785 0.8563437 1.0680124 1.0690476 0.99233997
1.2026955 0.76389027 0.9241737 0.96458566 1.1921198 0.9261142 0.86619747 0.9725979
1.1684386 0.9672176 1.0359821 1.0176394 0.93695027 1.0053715 1.0564471 0.84425575
1.0166446 0.8863445 0.87594885 0.91237885 0.812113 1.1200128 0.93357444 0.912619
00000000: 961f 823f 7111 8f3f 03bd 703f 53c1 6b3f
00000010: 6afc 5d3f 2ee3 8d3f c95d 6d3f 57f2 713f
00000020: cf1c 5d3f 5d73 a03f 8a6f a33f abf9 773f
00000030: 7b0a 883f be56 6b3f 68af 923f f6a7 923f
00000040: b017 813f b417 473f a341 683f 25fa 833f
00000050: c344 7a3f e359 633f c7c9 653f 2698 8b3f
00000060: 54cf 713f 7b75 6d3f 84ed 673f a0b5 743f
00000070: 9861 823f 07a5 6a3f 3472 913f cdc4 563f
00000080: eea3 7c3f 288b 563f 8413 7b3f dfb1 673f
00000090: 5739 5b3f a1b4 883f 8dd6 883f fe09 7e3f
000000a0: edf1 993f 508e 433f a696 6c3f 16ef 763f
000000b0: 6297 983f d215 6d3f 1ebf 5d3f 2dfc 783f
000000c0: 658f 953f 939b 773f 109b 843f 0242 823f
000000d0: f9db 6f3f 03b0 803f a939 873f 2521 583f
000000e0: 6921 823f 79e7 623f 2f3e 603f a991 693f
000000f0: a3e6 4f3f 945c 8f3f bcfe 6e3f 66a1 693f

base_pointnet.bn_1.bias f4 [64]
0.26933873 0.095419616 -0.053346343 -0.06903591 -0.52069384 -0.03190201 -0.01052768 -0.14970583
-0.045973327 -0.19365525 -0.03905723 -0.06890877 0.02325781 0.000993055 0.16184345 -0.02956327
-0.026720172 -0.13303813 -0.12850481 0.05863496 0.0016114602 -0.120620385 0.057647046 0.14012969
-0.14164469 0.008139453 -0.048216306 -0.11900326 -0.09521807 0.11316129 0.14097461 -0.18589255
-0.2932955 0.07708734 -0.13949436 0.06096997 -0.021222634 0.2468872 -0.033832897 -0.12102153
-0.36688048 -0.27070546 0.032127503 -0.29237542 -0.19723651 -0.21943952 -0.059092995 0.52411103
0.15997225 0.11350748 0.024708364 -0.07660367 -0.05303035 -0.43185148 0.4477257 -0.039231073
-0.17310862 -0.07553667 -0.08095384 0.10801788 -0.21171334 -0.24036166 -0.058302846 0.007242351
00000000: c4e6 893e 5c6b c33d b281 5abd b362 8dbd
00000010: 314c 05bf afab 02bd 4a7c 2cbc 7c4c 19be
00000020: 874e 3cbd 904d 46be 79fa 1fbd 0b20 8dbd
00000030: 2a87 be3c 6529 823a 4aba 253e ac2e f2bc
00000040: 43e4 dabc 263b 08be c496 03be 362b 703d
00000050: a237 d33a d207 f7bd 4f1f 6c3d 287e 0f3e
00000060: 4e0b 11be 575b 053c 767e 45bd fbb7 f3bd
00000070: b101 c3bd 1bc1 e73d a65b 103e 9e5a 3ebe
00000080: d42a 96be f8df 9d3d 9cd7 0ebe a6bb 793d
00000090: 17db adbc 00d0 7c3e 5d94 0abd 23da f7bd
000000a0: c2d7 bbbe e899 8abe 2198 033d 3bb2 95be
000000b0: 5ef8 49be c1b4 60be 7f0b 72bd 242c 063f
000000c0: c4cf 233e 9c76 e83d 3269 ca3c 63e2 9cbd
000000d0: 5a36 59bd a31b ddbe 4e3c e53e c3b0 20bd
000000e0: 6343 31be f8b2 9abd 20cb a5bd 7a38 dd3d
000000f0: 62cb 58be 5e21 76be f7ce 6ebd 3e51 ed3b

base_pointnet.bn_1.running_mean f4 [64]
1.3555801 1.5367489 -8.3079 10.53759 -8.419313 -3.780103 -27.764978 6.7026477
21.12289 -1.8484259 -1.0868442 1.820065 2.3916817 -27.946367 -0.7601112 -1.1548741
-2.5882404 20.62567 -19.764093 -0.48633513 9.573441 -18.07566 19.629282 -0.42062414
3.8725474 9.417334 19.669647 -5.8593373 5.2947693 -11.738239 -0.19147624 -24.503721
-5.8093743 8.548474 -8.138817 9.746309 -25.695816 1.9323235 1.0058708 1.364347
-2.473826 18.711285 8.131043 -8.688474 -1.4563551 -17.097994 32.0035 1.0536721
-3.6115284 7.2163606 -1.2433305 0.9076443 -44.70901 -2.8347886 1.0742067 7.625527
3.8247564 -19.178673 2.4475434 -4.2152505 8.359426 -4.521181 28.618769 7.9709954
00000000: a683 ad3f 30b4 c43f 29ed 04c1 f899 2841
00000010: 82b5 06c1 35ed 71c0 ad1e dec1 177c d640
00000020: aefb a841 3899 ecbf b61d 8bbf e4f7 e83f
00000030: 5011 1940 2992 dfc1 a696 42bf ead2 93bf
00000040: bba5 25c0 5f01 a541 dd1c 9ec1 eb00 f9be
00000050: d02c 1941 f49a 90c1 c508 9d41 0c5c d7be
00000060: d1d7 7740 66ad 1641 705b 9d41 b17f bbc0
00000070: c06e a940 d4cf 3bc1 5912 44be 9f07 c4c1
00000080: 65e6 b9c0 8dc6 0841 9838 02c1 e2f0 1b41
00000090: 0891 cdc1 6056 f73f 60c0 803f eca2 ae3f
000000a0: 2a53 1ec0 b6b0 9541 c118 0241 fd03 0bc1
000000b0: d869 babf b1c8 88c1 9603 0042 bade 863f
000000c0: 4823 67c0 6dec e640 7425 9fbf 605b 683f
000000d0: 07d6 32c2 2d6d 35c0 9b7f 893f 5104 f440
000000e0: cfc8 7440 ec6d 99c1 8da4 1c40 55e3 86c0
000000f0: 35c0 0541 84ad 90c0 3df3 e441 6512 ff40

base_pointnet.bn_1.running_var f4 [64]
10.562865 110.24186 36.315536 65.73153 26.134857 56.523266 188.9594 36.64725
138.66357 64.6839 35.846462 29.814228 8.907977 154.80084 37.362328 8.345462
6.478589 84.73882 98.415474 110.5642 56.175888 110.547104 89.67849 15.887551
3.7771652 23.906887 93.46795 23.23024 85.13362 69.1132 13.47729 154.15764
27.37357 37.904007 46.477097 34.797256 142.2908 78.80954 26.382914 8.601714
90.45086 114.56762 72.551506 55.845314 40.099876 108.4145 248.70966 3.0071442
82.93225 111.31768 23.261686 52.588978 387.23987 23.29535 5.412919 47.284103
77.90774 93.72044 53.841496 32.985794 80.087814 86.66102 166.10059 41.96299
00000000: 7f01 2941 d57b dc42 1c43 1142 8b76 8342
00000010: 3014 d141 d317 6242 9bf5 3c43 c996 1242
00000020: e0a9 0a43 285e 8142 c762 0f42 8a83 ee41
00000030: 1387 0e41 04cd 1a43 0673 1542 0387 0541
00000040: 9a50 cf40 477a a942 b9d4 c442 df20 dd42
00000050: 1cb4 6042 1e18 dd42 635b b342 6933 7e41
00000060: 13bd 7140 4e41 bf41 97ef ba42 88d7 b941
00000070: 6a44 aa42 f539 8a42 fba2 5741 5b28 1a43
00000080: 12fd da41 b49d 1742 8ce8 3942 6430 0b42
00000090: 724a 0e43 7c9e 9d42 3510 d341 9fa0 0941
000000a0: d7e6 b442 9f22 e542 5f1a 9142 9a61 5f42
000000b0: 4666 2042 39d4 d842 acb5 7843 0d75 4040
000000c0: 50dd a542 a7a2 de42 ef17 ba41 1d5b 5242
000000d0: b49e c143 e05c ba41 a236 ad40 ec22 3d42
000000e0: c3d0 9b42 de70 bb42 b15d 5742 74f1 0342
000000f0: f62c a042 7152 ad42 c019 2643 1ada 2742

base_pointnet.bn_2.weight f4 [64]
1.5271232 1.5066868 1.5821923 1.5487559 1.8112514 1.374795 1.5917685 1.5438777
1.6668669 1.5180652 1.525885 1.911201 1.5765263 1.8140945 1.6252111 1.6170105
1.3964012 1.3946525 1.4388394 1.43835 1.8828031 1.9813799 1.5261471 1.4404794
1.5051329 1.486495 1.3882074 1.4978334 1.7537006 1.7007036 1.3353027 1.4809638
1.3487527 1.5638707 1.5036597 1.3992267 1.9604255 1.7093822 1.6310481 1.605968
1.7425182 1.2264621 1.7298665 1.651199 1.5042952 1.4730659 1.255966 1.443612
1.7750136 1.3190384 1.6883612 1.7752944 1.6838788 1.7355784 1.407799 1.6604781
1.6457415 1.8309588 1.5556419 1.9407731 1.5024434 1.4862677 1.3635055 1.4920862
00000000: c678 c33f 1ddb c03f 4785 ca3f a23d c63f
00000010: 16d7 e73f 48f9 af3f 12bf cb3f c99d c53f
00000020: e55b d53f f64f c23f 3350 c33f 3ca2 f43f
00000030: 9dcb c93f 4034 e83f eb06 d03f 33fa ce3f
00000040: 46bd b23f f983 b23f e42b b83f da1b b83f
00000050: b1ff f03f db9d fd3f ca58 c33f a161 b83f
00000060: 32a8 c03f 7845 be3f c8b0 b13f 01b9 bf3f
00000070: 4379 e03f a8b0 d93f 33eb aa3f 3990 bd3f
00000080: eea3 ac3f ea2c c83f ec77 c03f dc19 b33f
00000090: 39ef fa3f 09cd da3f 2fc6 d03f 5c90 cd3f
000000a0: d60a df3f b6fc 9c3f 446c dd3f 7d5a d33f
000000b0: bf8c c03f 6c8d bc3f 7ec3 a03f 47c8 b83f
000000c0: a533 e33f 40d6 a83f 381c d83f d93c e33f
000000d0: 5789 d73f 6f27 de3f c232 b43f 8c8a d43f
000000e0: a8a7 d23f dc5c ea3f 461f c73f 416b f83f
000000f0: 1150 c03f 053e be3f 5987 ae3f aefc be3f

base_pointnet.bn_2.bias f4 [64]
0.27318186 0.37937543 0.07775915 0.18367928 -0.20555674 0.06102298 0.013496207 0.32431555
0.09597489 0.007293293 0.13151436 0.1635758 -0.0030986825 -0.12020387 0.25676727 0.126325
0.17609492 0.27106678 -0.012199163 0.054912344 0.119297124 -0.0052550803 0.09253078 0.09432275
0.18936391 0.08042683 0.19498996 -0.05010612 -0.18542191 -0.16845725 0.10273404 0.13554275
0.16481312 0.06485872 0.20315284 0.07139653 0.107727766 0.033838768 0.2854224 0.16661857
0.1330767 0.13787287 0.4111389 0.036425274 0.035819083 0.22824891 0.048095547 0.13449831
0.11933435 0.11665739 0.10562807 0.010493837 0.2021898 0.010924246 0.14663664 0.017440526
-0.10908314 -0.50495094 -0.14222439 -0.16990049 0.07594313 0.15437861 0.20341255 0.035115466
00000000: 7ede 8b3e 7f3d c23e 3040 9f3d 6c16 3c3e
00000010: 777d 52be 3bf3 793d 321f 5d3c b00c a63e
00000020: 7c8e c43d 93fc ee3b b3ab 063e 6a80 273e
00000030: 4413 4bbb 722d f6bd 0077 833e 575b 013e
00000040: 3a52 343e 44c9 8a3e 00df 47bc c4eb 603d
00000050: 0d52 f43d cf32 acbb c780 bd3d 492c c13d
00000060: 9de8 413e d2b6 a43d 73ab 473e 133c 4dbd
00000070: 3edf 3dbe 0f80 2cbe 3966 d23d b8cb 0a3e
00000080: c5c4 283e a6d4 843d 4c07 503e 5838 923d
00000090: 60a0 dc3d 859a 0a3d e322 923e 0f9e 2a3e
000000a0: 4245 083e 8c2e 0d3e cc80 d23e ab32 153d
000000b0: 08b7 123d 15ba 693e d6ff 443d edb9 093e
000000c0: 9165 f43d 12ea ee3d 8853 d83d 58ee 2b3c
000000d0: d80a 4f3e 9cfb 323c ea27 163e 6fdf 8e3c
000000e0: fb66 dfbd 7744 01bf 45a3 11be 65fa 2dbe
000000f0: 1288 9b3d 6d15 1e3e 614b 503e 3cd5 0f3d

base_pointnet.bn_2.running_mean f4 [64]
-0.13169555 -0.09625731 -0.078927904 -0.50324595 0.19654581 -0.07507245 0.23601405 -0.5883351
0.12819876 0.3275032 -0.006412453 -0.10572449 -0.20190431 0.19923732 -0.40400326 -0.04601814
-0.1877761 -0.15196434 -0.0066300207 -0.40050188 0.017887468 0.26358333 0.005493097 0.34770635
-0.120876804 0.26470003 -0.18114002 -0.24965274 0.32678208 0.196132 -0.058193427 -0.13118137
-0.0814644 -0.150185 -0.46437767 -0.5268763 -0.13984226 0.030332478 -0.62826276 0.43534064
-0.1903227 -0.025227882 -0.11408574 -0.098923504 0.11197432 -0.08291078 -0.06594623 -0.056916982
-0.026299559 0.004847693 0.15115067 0.12341341 0.043302294 -0.08003321 -0.37784055 -0.0069785416
0.101173185 0.18568684 0.12654893 0.18462427 -0.12513018 -0.32969028 -0.15415853 -0.08400545
00000000: 33db 06be 8d22 c5bd f4a4 a1bd bad4 00bf
00000010: 4e43 493e 96bf 99bd abad 713e 219d 16bf
00000020: 8946 033e 80ae a73e 8e1f d2bb 1586 d8bd
00000030: 01c0 4ebe de04 4c3e 84d9 cebe 847d 3cbd
00000040: 6148 40be 8a9c 1bbe a540 d9bb 950e cdbe
00000050: bd88 923c 65f4 863e 70ff b33b 9106 b23e
00000060: 428e f7bd c386 873e c57c 39be f8a4 7fbe
00000070: fb4f a73e d4d6 483e 3b5c 6ebd 6954 06be
00000080: cfd6 a6bd 19ca 19be e9c2 edbe 5de1 06bf
00000090: cf32 0fbe d17b f83c d4d5 20bf f8e4 de3e
000000a0: f4e3 42be b4aa cebc c9a5 e9bd 6898 cabd
000000b0: cb52 e53d 21cd a9bd d10e 87bd c821 69bd
000000c0: 2c72 d7bc 65d9 9e3b 3ec7 1a3e 2bc0 fc3d
000000d0: bf5d 313d 74e8 a3bd 5174 c1be 40ac e4bb
000000e0: e333 cf3d b124 3e3e 0b96 013e 250e 3d3e
000000f0: 2022 00be 2acd a8be bcdb 1dbe 0d0b acbd

base_pointnet.bn_2.running_var f4 [64]
0.112034924 0.05988804 0.012343176 0.04325217 0.011540132 0.025678262 0.042680997 0.2085477
0.04196708 0.02359145 0.059682727 0.027353115 0.009488077 0.014793227 0.066091105 0.01411902
0.043679677 0.033218313 0.026048971 0.021864306 0.014730163 0.023997039 0.024991002 0.01810073
0.039230272 0.026134802 0.024080398 0.03599101 0.009916467 0.019434419 0.05963559 0.042185955
0.06152458 0.02616733 0.12570961 0.12043204 0.0089274645 0.016336942 0.056937404 0.044316284
0.021879524 0.026485614 0.068296224 0.037106585 0.023773462 0.05372195 0.07155666 0.032966163
0.08048847 0.029337538 0.016882284 0.012035328 0.05105347 0.018377375 0.063734636 0.045360748
0.010691065 0.0088666985 0.0394205 0.011017562 0.020029927 0.06491369 0.04174195 0.028499572
00000000: 9172 e53d 294d 753d 083b 4a3c 3029 313d
00000010: d212 3d3c 385b d23c 45d2 2e3d 878d 553e
00000020: ace5 2b3d db42 c13c e075 743d a413 e03c
00000030: e173 1b3c 4b5f 723c c65a 873d 7653 673c
00000040: 76e9 323d ed0f 083d a764 d53c c61c b33c
00000050: c856 713c 7095 c43c eeb9 cc3c fb47 943c
00000060: ecaf 203d a718 d63c 4144 c53c 4f6b 133d
00000070: ad78 223c ee34 9f3c 7344 743d 2ecb 2c3d
00000080: 3301 7c3d de5c d63c 05ba 003e 13a5 f63d
00000090: 8044 123c 0dd5 853c 3237 693d fe84 353d
000000a0: b03c b33c 5cf8 d83c e4de 8b3d 13fd 173d
000000b0: 90c0 c23c 8c0b 5c3d 4c8c 923d 8707 073d
000000c0: 24d7 a43d 4755 f03c b74c 8a3c d32f 453c
000000d0: 711d 513d 268c 963c 4e87 823d 31cc 393d
000000e0: 9429 2f3c a145 113c 6477 213d 0183 343c
000000f0: cd15 a43c 78f1 843d 9bf9 2a3d ef77 e93c

fc_1.weight f4 [64, 66]
-0.28453642 -1.0343714 0.2997536 0.67688674 0.30414954 0.012924932 -0.25254706 0.025352426
0.5569777 0.454926 0.082171224 0.34286845 0.2982461 0.28788605 -0.037717987 -0.18558788
0.35448876 0.3315253 0.62614805 0.33108965 0.03769552 0.21646462 0.05317072 0.022816949
0.55826193 0.30887032 0.39125967 0.20063487 0.5253634 -0.23082142 -0.37672362 -0.20180428
0.49370745 0.43427715 -0.11420473 0.30453733 0.26018938 0.17514734 0.29337314 0.50294113
0.24520598 0.13005081 -0.15902553 0.708025 0.38768154 0.12739804 0.57384306 0.25744048
-0.0036830867 0.2081471 0.09771927 -0.09306195 0.2973719 -0.4335097 0.2772149 0.23997772
0.29654732 0.18778224 -0.2714076 -0.4223846 -0.21377575 -0.38354304 0.10681777 0.2613975
0.19957097 0.17078449 0.12500787 -0.22501156 0.04328294 0.010136943 0.1864018 0.2854831
-0.0030938091 -0.13083073 0.3097424 0.14414081 -0.23692332 0.26237148 0.31758276 -0.115678325
0.2882847 0.14379933 -0.15699358 0.2992454 0.18943806 0.05278383 -0.010937865 -0.037943967
-0.220297 -0.44236758 -0.18706577 -0.16571109 -0.11555387 0.09236963 0.34172168 -0.02530363
0.2675349 -0.13281666 0.0142588625 0.067141876 0.0037524437 0.034262042 -0.21471612 0.14335944
0.12093989 0.17522712 -0.047011994 0.07647345 -0.3840507 0.08292293 0.16549015 -0.20253153
0.056340713 0.06618993 0.11270921 0.27769345 0.17892893 0.048482157 0.11793879 0.24588178
0.07802004 -0.3498212 0.37556544 -0.06378519 -0.13104469 -0.30613637 -0.3899936 -0.078903586
0.15970796 -0.23212776 0.05172954 0.28292778 0.06110099 0.39214692 0.16196696 0.21717402
0.0737308 0.15992637 -0.0020462389 0.38798478 0.09742728 0.367285 0.06636367 -0.10737446
0.08917493 0.42056787 -0.054774113 -0.058905046 0.042757556 -0.11135929 0.110261716 0.07452057
0.13925208 -0.013107303 0.20103654 0.3323797 0.07736101 -0.115797944 0.108954445 -0.08951105
0.12551783 -0.21743308 -0.19918846 -0.10275202 -0.10758982 0.09435766 0.16374351 0.07384437
-0.025170593 0.06629511 0.19659434 0.21524093 0.35836223 0.23650748 0.1505377 0.21789111
0.15254238 0.36241728 0.12014939 0.060133826 -0.07590218 -0.04580677 -0.11435343 0.018780664
-0.025297958 -0.04931052 0.3169254 0.31047544 0.02259791 0.12902826 -0.13887687 0.10611758
0.21114291 0.08855906 0.1820677 0.36730155 0.14765924 0.025807023 -0.027932657 1.0054082
-0.095937796 -0.13984834 0.35811257 0.12379316 -0.8473272 -0.18783644 0.26942033 -0.17677617
-0.35922578 -0.015476253 0.09094011 0.23451726 0.06561602 -0.34053755 -0.38073382 0.36581916
-0.06028862 -0.13660538 -0.20967445 0.08446822 -0.5281587 0.05092144 0.4169695 0.24329443
0.21883379 0.24420185 -0.048325717 -0.084912844 -0.37281322 -0.5266176 0.16808118 0.16173904
-0.12169357 0.18457046 0.0862544 0.23475946 -0.1471364 0.0070259413 -0.27002984 0.032088876
-0.32761425 -0.05323046 0.24854238 0.30564985 0.045761522 -0.13101673 -0.05907776 0.14945729
0.019973667 -0.3188196 0.41858083 -0.15457734 0.33027214 -0.10718636 -0.11266433 0.08085647
00000000: c2ae 91be 4866 84bf 4e79 993e 7348 2d3f
00000010: 7db9 9b3e 18c3 533c d94d 81be e4af cf3c
00000020: 1796 0e3f 10ec e83e 6349 a83d 748c af3e
00000030: b6b3 983e cd65 933e 2d7e 1abd c00a 3ebe
00000040: 8d7f b53e afbd a93e 3d4b 203f 9584 a93e
00000050: 9e66 1a3d e7a8 5d3e 8ac9 593d 9cea ba3c
00000060: 41ea 0e3f 4024 9e3e 3053 c83e 3a73 4d3e
00000070: 377e 063f 735c 6cbe ebe1 c0be c8a5 4ebe
00000080: 39c7 fc3e 9359 de3e 2be4 e9bd 51ec 9b3e
00000090: 8b37 853e d359 333e 0135 963e c0c0 003f
000000a0: 4717 7b3e 0a2c 053e 97d7 22be 2041 353f
000000b0: 327e c63e a274 023e 61e7 123f 3dcf 833e
000000c0: f15f 71bb 8324 553e 0a21 c83d 4397 bebd
000000d0: 2141 983e fcf4 ddbe 1def 8d3e b8bc 753e
000000e0: 0dd5 973e fd49 403e f0f5 8abe cb42 d8be
000000f0: 08e8 5abe c15f c4be 46c3 da3d e5d5 853e
00000100: 555c 4c3e 21e2 2e3e 1002 003e 6e69 66be
00000110: 7449 313d 6c15 263c 1de0 3e3e d72a 923e
00000120: 81c1 4abb 7ef8 05be 8e96 9e3e a699 133e
00000130: 079c 72be 8e55 863e 359a a23e c2e8 ecbd
00000140: 0d9a 933e 2240 133e edc2 20be b136 993e
00000150: 0dfc 413e db33 583d bb34 33bc 226b 1bbd
00000160: 8995 61be 017e e2be 2b8e 3fbe 2bb0 29be
00000170: 82a7 ecbd 4a2c bd3d 25f6 ae3e 8f49 cfbc
00000180: 56fa 883e 1701 08be 019e 693c ae81 893d
00000190: 8feb 753b 5b56 0c3d 8bde 5bbe d1cc 123e
000001a0: 55af f73d bd6e 333e a68f 40bd 1d9e 9c3d
000001b0: 4ba2 c4be 7fd3 a93d 4076 293e 6d64 4fbe
000001c0: 85c5 663d 968e 873d 16d4 e63d d62d 8e3e
000001d0: 2539 373e 3a95 463d e489 f13d 6fc8 7b3e
000001e0: f9c8 9f3d c41b b3be 1d4a c03e cfa1 82bd
000001f0: 9430 06be e8bd 9cbe 3ead c7be 3498 a1bd
00000200: 7c8a 233e e6b2 6dbe 5be2 533d e9db 903e
00000210: 0845 7a3d 7bc7 c83e abda 253e de62 5e3e
00000220: 2c00 973d bdc3 233e 311a 06bb f1a5 c63e
00000230: f487 c73d c80c bc3e ade9 873d 24e7 dbbd
00000240: 58a1 b63d ac54 d73e d25a 60bd 6b46 71bd
00000250: 8c22 2f3d 5710 e4bd e5d0 e13d 3e9e 983d
00000260: 1998 0e3e 03c0 56bc 86dc 4d3e ac2d aa3e
00000270: 736f 9e3d 7927 edbd 8223 df3d 9251 b7bd
00000280: bf87 003e c7a6 5ebe 0ff8 4bbe a76f d2bd
00000290: 0d58 dcbd 973e c13d 61ac 273e b83b 973d
000002a0: 8f32 cebc bbc5 873d 0750 493e 1e68 5c3e
000002b0: 417b b73e 042f 723e 8e26 1a3e d91e 5f3e
000002c0: 1234 1c3e c28e b93e e210 f63d e34e 763d
000002d0: 9a72 9bbd e19f 3bbd 2232 eabd e8d9 993c
000002e0: aa3d cfbc d4f9 49bd 0c44 a23e a3f6 9e3e
000002f0: 411f b93c fc1f 043e bd35 0ebe 2c54 d93d
00000300: d935 583e 745e b53d f56f 3a3e f30e bc3e
00000310: fc33 173e 4069 d33c 07d3 e4bc 37b1 803f
00000320: 097b c4bd 6734 0fbe 885a b73e 4587 fd3d
00000330: 6fea 58bf 3258 40be 76f1 893e d004 35be
00000340: 71ec b7be 1c90 7dbc cf3e ba3d 4b25 703e
00000350: b161 863d f05a aebe 8bef c2be a64c bb3e
00000360: 33f1 76bd 48e2 0bbe e6b4 56be adfd ac3d
00000370: 6935 07bf 0093 503d 077d d53e 2d22 793e
00000380: f715 603e 0d10 7a3e 30f1 45bd c9e6 adbd
00000390: 60e1 bebe 69d0 06bf 791d 2c3e eb9e 253e
000003a0: 7a3a f9bd 0a00 3d3e 26a6 b03d c964 703e
000003b0: edaa 16be de39 e63b 5a41 8abe a06f 033d
000003c0: 0ebd a7be 2f08 5abd e581 7e3e 237e 9c3e
000003d0: 6f70 3b3d 4029 06be 85fb 71bd 550b 193e
000003e0: d19f a33c 533c a3be 3a50 d63e 8649 1ebe
000003f0: 6e19 a93e 8684 dbbd 8ebc e6bd 1498 a53d

fc_1.bias f4 [64]
0.33310094 0.17881091 0.07723074 -0.001683428 0.008790073 0.11557505 0.2934791 0.08972779
-0.11392511 -0.10592481 0.38739315 0.015840307 -0.12974462 -0.06664585 0.021572307 -0.032239564
-0.013508968 -0.075653225 -0.06900169 0.014011765 -0.134299 0.1311962 0.033365045 -0.12728678
0.030274387 -0.11297113 0.019657739 -0.21196307 0.09962686 0.25123933 -0.038482487 0.040916737
0.057571016 0.13838871 0.018538728 0.17991668 -0.11415146 0.16143018 0.065593354 0.08431696
-0.27543032 0.08661193 0.116082884 -0.12916659 -0.063426524 0.017157122 -0.11221477 -0.110787675
0.09134583 0.13085178 0.1432435 -0.07424695 0.09108403 -0.012483237 -0.018341467 -0.0077113635
-0.054226656 -0.1134681 0.06881932 0.26122662 0.028215718 0.03934798 -0.15749115 0.087576024
00000000: 358c aa3e 351a 373e 262b 9e3d 78a6 dcba
00000010: 3d04 103c 9db2 ec3d e542 963e 34c3 b73d
00000020: 9151 e9bd 1bef d8bd 6558 c63e 88c3 813c
00000030: c6db 04be 9f7d 88bd 68b8 b03c a20d 04bd
00000040: b854 5dbc 14f0 9abd c250 8dbd 9a91 653c
00000050: ad85 09be 4c58 063e c9a9 083d 7757 02be
00000060: fe01 f83c 685d e7bd 4409 a13c d90c 59be
00000070: 2b09 cc3d 71a2 803e d09f 1dbd 4f98 273d
00000080: 96cf 6b3d c5b5 0d3e 88de 973c 143c 383e
00000090: 3ec8 e9bd f44d 253e cf55 863d 5fae ac3d
000000a0: 3405 8dbe 9861 b13d ddbc ed3d 3f44 04be
000000b0: c4e5 81bd 188d 8c3c dbd0 e5bd a6e4 e2bd
000000c0: 8613 bb3d 02fe 053e 6dae 123e c90e 98bd
000000d0: 448a ba3d 7e86 4cbc d840 96bc 9baf fcbb
000000e0: c51c 5ebd f761 e8bd 25f1 8c3d 7fbf 853e
000000f0: a624 e73c 592b 213d 5c45 21be 0f5b b33d

fc_2.weight f4 [4, 64]
1.4440302 0.23747694 -0.19265923 0.98705566 -0.03495474 2.0146961 2.5962029 -0.10337515
0.054058626 0.0035985096 -0.076730385 0.10692422 0.61609566 0.39583462 1.1202934 -0.12927434
0.34904134 0.036084972 -0.24275152 0.030756801 -0.019168511 -3.5044847 2.4967813 -0.041282777
0.09457731 0.22466365 -0.053869963 -1.1330413 -0.37173972 2.1104 -0.16262867 0.238533
0.56193984 -3.5306516 0.24936634 2.5725005 0.35634303 1.3740505 -0.36620313 -0.0827961
-0.7333015 -0.07546103 0.15766771 0.7010133 0.10639186 -0.09125291 0.11230186 -0.09798005
0.048868287 0.20649059 0.36004195 -0.08219877 0.0077040046 0.17554162 -0.11710915 -0.17418896
-0.07354729 0.15007836 -0.15199286 -0.10332328 -4.0574775 0.0070902356 0.20767407 -0.055921797
-0.594414 0.10171147 0.14462687 -2.152177 -0.07730164 1.2445617 -1.2259873 0.10193112
0.067791894 0.11726774 2.432798 -0.07191156 -2.5955594 -0.044984214 -2.1271708 0.1852091
0.003278441 0.12415295 4.6272283 0.052047476 -0.1555708 1.0448714 1.4277492 -0.11393049
0.055992544 -0.38331872 0.25341603 0.14072298 0.24484096 -2.9800475 0.1193408 -0.15912713
-0.007442615 0.8852785 0.044822577 -0.31698865 -1.9790623 -1.9412038 0.16238163 0.053701803
0.4990796 -0.026579553 0.088190444 -2.1598861 0.0940738 -0.023906413 0.0016841143 0.11205222
0.032405306 0.46916434 -0.08034594 -0.05965887 -0.06368217 -0.46008098 0.0021987972 -0.9983266
-0.071016006 0.044382617 0.15610392 0.23398666 1.3389201 3.5969768 -0.74639314 0.1423565
-3.5144103 0.042176783 -0.00043799388 0.51192373 -0.085161746 -4.363914 -1.6257013 0.10435092
0.08833273 -0.05585834 -4.119919 0.0046679676 0.8248708 -0.43849474 1.878307 0.110628664
-0.09285654 -0.06722266 -2.9589536 0.009092569 -0.13031775 1.6662744 0.6573328 0.035285875
-0.17030546 -0.25864974 0.10899576 1.1445234 0.056848444 2.0271032 -0.040607657 -0.096382335
-0.46084842 2.342568 -0.17680909 0.13430743 0.73385143 0.68941677 -0.0022851846 -0.080843806
0.02934564 -0.0006451587 -0.077526845 0.35166085 -0.112618044 0.092989415 -0.010502145 0.04933858
0.107529305 -0.70884675 -0.30084276 -0.050580926 -0.036647454 -0.06307257 -0.09571644 1.2007079
0.05326834 0.014639528 -0.06805908 -0.08972621 1.9468548 -1.7838285 0.45478743 -0.10628513
-1.0055605 -0.25441104 -0.016449336 0.38534957 0.040921032 1.4659164 -1.4003732 -0.015474308
0.025224254 -0.0898503 1.768483 -0.084970474 0.09937996 0.30293483 0.27645242 -0.11195783
0.002705902 0.27943882 3.1009836 0.091320455 0.34650466 1.1902738 -3.6604762 0.03008284
-0.08707887 0.42942503 -0.21725468 -0.856202 0.1916774 -1.8635991 0.20807475 0.089425854
0.1619872 1.025615 -0.090944834 -2.4183214 1.0054382 -0.46580747 0.044938035 -0.08477849
0.875845 -0.05112078 -0.17606437 -0.5763658 0.11897576 -0.086561486 -0.10792361 -0.046150967
0.08508258 0.4654795 0.035008073 -0.099968515 0.03390506 0.47734463 -0.027381433 -0.22548324
0.10679757 -0.2125514 -0.049755692 -0.121681094 1.1302574 0.75836694 -0.32670105 -0.04426578
00000000: fbd5 b83f 282d 733e 7648 45be aeaf 7c3f
00000010: b42c 0fbd c8f0 0040 3028 2640 5ab6 d3bd
00000020: 946c 5d3d f9d4 6b3b d224 9dbd 16fb da3d
00000030: 72b8 1d3f d6aa ca3e c665 8f3f 7e60 04be
00000040: 8cb5 b23e d6cd 133d db93 78be b0f5 fb3c
00000050: 4807 9dbc 7a49 60c0 44cb 1f40 2118 29bd
00000060: c0b1 c13d 3a0e 663e c0a6 5cbd 7f07 91bf
00000070: ab54 bebe cb10 0740 2188 26be ff41 743e
00000080: 4adb 0f3f 32f6 61c0 e459 7f3e d9a3 2440
00000090: 9872 b63e e3e0 af3f fa7e bbbe 0091 a9bd
000000a0: a6b9 3bbf 508b 9abd a573 213e 9c75 333f
000000b0: fae3 d93d cee2 babd 84fe e53d c4a9 c8bd
000000c0: 1d2a 483d 4572 533e 6b57 b83e d457 a8bd
000000d0: e071 fc3b 2fc1 333e ecd6 efbd 975e 32be
000000e0: f69f 96bd 24ae 193e 04a4 1bbe 289b d3bd
000000f0: dbd6 81c0 3555 e83b 83a8 543e 410e 65bd
00000100: 842b 18bf 1a4e d03d 1119 143e 45bd 09c0
00000110: 5250 9ebd cc4d 9f3f 27ed 9cbf 43c1 d03d
00000120: 7ad6 8a3d 122a f03d f6b2 1b40 5e46 93bd
00000130: a51d 26c0 5e41 38bd 9123 08c0 74a7 3d3e
00000140: 1ddb 563b e743 fe3d 4112 9440 bc2f 553d
00000150: f44d 1fbe 59be 853f 7cc0 b63f 6454 e9bd
00000160: 7058 653d 5a42 c4be bfbf 813e af19 103e
00000170: 97b7 7a3e 19b9 3ec0 f368 f43d 39f2 22be
00000180: 2ee1 f3bb 9da1 623f e197 373d 564c a2be
00000190: ea51 fdbf 5e79 f8bf 5f47 263e 6cf6 5b3d
000001a0: 5d87 ff3e 5dbd d9bc 319d b43d 933b 0ac0
000001b0: c4a9 c03d 62d7 c3bc 80bd dc3a a27b e53d
000001c0: 6dbb 043d 4f36 f03e 6a8c a4bd dc5c 74bd
000001d0: cc6b 82bd bc8f ebbe b219 103b 5592 7fbf
000001e0: d770 91bd 8cca 353d b5d9 1f3e 339a 6f3e
000001f0: bc61 ab3f de34 6640 9f13 3fbf e7c5 113e
00000200: 19ec 60c0 90c1 2c3d 8ba2 e5b9 6f0d 033f
00000210: 4869 aebd 2fa5 8bc0 fb16 d0bf efb5 d53d
00000220: cae7 b43d b7cb 64bd 60d6 83c0 c0f5 983b
00000230: bc2a 533f 6282 e0be 5d6c f03f 4891 e23d
00000240: 922b bebd 09ac 89bd 7f5f 3dc0 00f9 143c
00000250: 0472 05be 7b48 d53f f646 283f ec87 103d
00000260: 8e64 2ebe bd6d 84be 2b39 df3d be7f 923f
00000270: ead9 683d 0fbc 0140 3754 26bd 1a64 c5bd
00000280: 53f4 ebbe a2ec 1540 710d 35be e387 093e
00000290: b0dd 3b3f 9e7d 303f 09c3 15bb 7091 a5bd
000002a0: 4566 f03c de1f 29ba 65c6 9ebd e40c b43e
000002b0: 4aa4 e6bd 3c71 be3d 3011 2cbc 4017 4a3d
000002c0: 5338 dc3d fb76 35bf 1008 9abe f22d 4fbd
000002d0: a41b 16bd 312c 81bd fb06 c4bd ccb0 993f
000002e0: e72f 5a3d a1da 6f3c 8f62 8bbd 60c2 b7bd
000002f0: 8a32 f93f 7e54 e4bf e6d9 e83e 05ac d9bd
00000300: 35b6 80bf 2a42 82be c2c0 86bc 8a4c c53e
00000310: d09c 273d 26a3 bb3f 6e3f b3bf f487 7dbc
00000320: 18a3 ce3c 6f03 b8bd a75d e23f 0005 aebd
00000330: b887 cb3d 461a 9b3e 2c8b 8d3e 264a e5bd
00000340: 8155 313b 9b12 8f3e 8476 4640 3806 bb3d
00000350: 0f69 b13e e45a 983f 3e45 6ac0 4a70 f63c
00000360: 6856 b2bd 99dd db3e 0378 5ebe 0e30 5bbf
00000370: 1547 443e 6a8a eebf 8c11 553e e724 b73d
00000380: f9df 253e 5a47 833f 4941 babd c7c5 1ac0
00000390: 33b2 803f 517e eebe f210 383d 58a0 adbd
000003a0: 6137 603f 0664 51bd 384a 34be b68c 13bf
000003b0: 90a9 f33d 2647 b1bd 0e07 ddbd cc08 3dbd
000003c0: c73f ae3d 5453 ee3e a064 0f3d 4bbc ccbd
000003d0: 08e0 0a3d 8466 f43e 074f e0bc 14e5 66be
000003e0: afb8 da3d 13a7 59be a0cc 4bbd f033 f9bd
000003f0: 46ac 903f 5624 423f 5c45 a7be 0950 35bd

fc_2.bias f4 [4]
-0.018941643 0.10685541 -0.13248293 -0.14469719
00000000: 812b 9bbc 02d7 da3d 9ba9 07be 802b 14be
