Mindset augmented trained networks (pth)/segmentation_pointnet_smeanp.pth (torch, 78674 bytes, 18 tensors)

base_pointnet.conv_1_a.weight f4 [64, 1, 3]
000000 7f 1f 2d bf d6 54 98 bd d2 0d 4a be d0 04 2c 3e
       -0.67626184 -0.07438056 -0.19731835 0.16798711
000010 3b 79 ad bd 37 63 32 bc 1f 73 0e be 59 f2 9d 3e
       -0.084703885 -0.0108879125 -0.13911103 0.3084896
000020 68 37 5b 3c a3 3e 05 bd 9a 0c c1 be 31 42 e7 3e
       0.013379909 -0.03253044 -0.37704927 0.45167688
000030 9f 01 8f 3d 6b d2 0a be a9 66 12 3e 8d 4c 08 bf
       0.06982731 -0.1355683 0.14296974 -0.5324181
000040 93 79 ef 3c 72 15 e2 3e 64 74 91 be 40 01 9b bc
       0.029232776 0.44156986 -0.28409111 -0.018921494
000050 df 82 b1 3d 58 f0 0c bf 25 1c c8 3e c0 2c 09 3e
       0.0866754 -0.55054235 0.39083973 0.13395977
000060 d5 fb 9b 3d 84 26 fe 3c 4f 73 47 3d 3f 68 cc be
       0.076163925 0.031024225 0.04869395 -0.39923283
000070 e0 d8 76 be f8 3e 00 3f 5b 85 d0 bd 88 54 08 3e
       -0.24106169 0.5009608 -0.101816855 0.13313496
000080 58 2b 89 bd 24 25 1f 3e c1 15 ae be 92 06 32 3e
       -0.0669772 0.15541512 -0.34000972 0.17385319
000090 d3 e2 b9 be 2f 4a 95 3e e7 3a 2a 3b cf 78 00 be
       -0.36305866 0.2915816 0.002597505 -0.12546085
0000a0 25 7e 1a bf 96 9b 06 bf 41 d3 63 be 8a e0 03 3f
       -0.6034873 -0.52581155 -0.22248556 0.51514494
0000b0 13 6f 13 be fb cc 0e bf ca 5c e8 bd 36 c0 5b be
       -0.1439784 -0.55781525 -0.11345823 -0.21460041
0000c0 6b 4a 96 be 73 7c 89 3e 0e 68 86 3c 79 fb 18 3c
       -0.2935365 0.2685276 0.016407039 0.0093372995
0000d0 be 54 d9 be 2d 86 bc 3e ee 89 8c 3e 71 a7 70 3d
       -0.42447466 0.36821118 0.27448982 0.058753435
0000e0 52 0e d8 3e 62 97 03 3f 1c 7c 81 be 09 87 d9 be
       0.42198426 0.51402867 -0.2529 -0.42485836
0000f0 9a 0b c6 3e 49 90 aa bd b4 2f 96 3e f8 6c 4a bd
       0.38680726 -0.083283015 0.2933327 -0.049420327
000100 ca 48 ed 3e 75 62 ba be e8 5a 21 bf 0f 6d 00 be
       0.46344596 -0.36403242 -0.63029337 -0.12541603
000110 30 af 38 be 36 2b 2b 3e e4 9b 92 3e 47 33 93 be
       -0.18035579 0.16715702 0.2863456 -0.2875006
000120 f6 b4 a9 bd fd 9e f9 be 14 0b 03 3f da bd 55 bc
       -0.08286469 -0.4875411 0.5118878 -0.013045752
000130 83 0b 48 3e ae 2c fb bd 50 f5 e7 3e 48 a9 a0 3d
       0.19535641 -0.12264381 0.45304346 0.07844788
000140 c8 41 bc 3e a8 0c 53 3e 26 9d ba bd 4f 6e 87 bd
       0.36768937 0.20610297 -0.09112005 -0.066128366
000150 68 f1 07 bf 42 fe a4 bd f0 ad 5b be 3a c4 5e bd
       -0.5310273 -0.08056308 -0.2145307 -0.054386355
000160 ae a6 7d bc 2a 58 ae be 70 df 9d be bb 77 ba 3e
       -0.015481634 -0.3405164 -0.30834532 0.36419472
000170 e3 0c 8f 3e 82 2e af 3e 9e 25 49 be b8 b7 47 be
       0.2793952 0.3421517 -0.19643256 -0.19503677
000180 a3 b6 3e 3e 1e 13 d9 be 21 00 a9 3e 06 bf a6 be
       0.18624358 -0.42397398 0.3300791 -0.32567614
000190 07 a3 3f 3e 68 2a f5 3c 05 fa b0 3e 27 9b 9b 3e
       0.18714534 0.029927447 0.3456575 0.3039181
0001a0 98 fd a1 3e 28 6e 17 3f 6c 5b 7d 3e 35 79 5a bd
       0.3163879 0.5915246 0.24741906 -0.05333825
0001b0 16 94 c1 be dd ad 92 be 6c d2 e8 3e 8c ec f5 be
       -0.37808293 -0.28648272 0.4547304 -0.48032033
0001c0 62 90 9c bd 50 25 d2 3d 88 bd 90 be 11 42 2b 3d
       -0.07644726 0.10261023 -0.282696 0.041811053
0001d0 05 4e ab 3e 2c f1 cb be 77 fa d4 3e 42 87 2d be
       0.33457962 -0.39832437 0.4159734 -0.16946128
0001e0 18 ac 2a 3e cc 0d 00 3f ca 70 d8 3e c2 da 3c 3d
       0.16667211 0.5002105 0.4227355 0.04610706
0001f0 52 43 65 bc 0d eb e6 3c 82 5d 05 be 5e b4 eb 3c
       -0.013993101 0.028188253 -0.13023952 0.02877253
000200 58 95 a5 be 59 81 18 3e 51 66 86 be 27 26 4d 3e
       -0.32340503 0.14893092 -0.26249936 0.20034085
000210 02 92 2e bd 62 ba 78 3e 87 47 ab be dd 7d 6a bd
       -0.042619713 0.2428985 -0.3345301 -0.05724894
000220 6f 18 a8 bd be 1c 1e 3e 56 0e 02 3f 6e 33 9b 3b
       -0.08207785 0.15440652 0.50803125 0.0047363555
000230 65 1c 14 3e e2 60 16 be 03 95 3e 3e 44 61 99 be
       0.14463957 -0.14685395 0.18611531 -0.2995702
000240 22 1f c0 3e 91 cc e8 bd 69 2f 93 bd dc 09 c0 be
       0.37523752 -0.11367143 -0.07186777 -0.37507522
000250 6e 79 9e 3e 21 0a ec 3d 1a 17 a4 3e 7e e7 0f 3f
       0.30952018 0.115253694 0.32048875 0.56212604
000260 69 02 c1 3e 76 28 8a 3c ed dd c3 3d dc 47 86 be
       0.3769715 0.016864996 0.09563813 -0.262267
000270 f1 74 c9 bc 40 f9 48 3e ec 8b ab be fb a6 e7 bd
       -0.024591895 0.19626331 -0.3350519 -0.11311146
000280 c9 81 88 be 63 23 f1 3e 99 c9 ab 3c a2 2e 6a bd
       -0.26661518 0.4709731 0.020970153 -0.05717338
000290 dc fd 17 bf 7d c5 82 be 50 d0 6b 3d 13 43 81 3e
       -0.59371734 -0.25541297 0.05757171 0.25246486
0002a0 62 21 8d 3d 16 c6 21 3f 82 55 b1 3d 54 77 9c be
       0.06891133 0.6319288 0.086588874 -0.3055979
0002b0 4b ea d5 3e 98 cb 92 be 50 3b c3 bc 0c c9 3d bd
       0.41780314 -0.28670955 -0.023831993 -0.04633431
0002c0 a9 ca cf 3e 26 de e8 be 4e 7c 23 bf 00 55 58 be
       0.40584305 -0.45481986 -0.6386155 -0.21126175
0002d0 68 2e c2 3d ad cb 82 3e 41 fb ad bd f9 39 f6 3e
       0.094815075 0.25546017 -0.084951885 0.48091105
0002e0 ef 4e 91 be 1d 09 47 be b9 0b 69 be d2 38 52 be
       -0.28380534 -0.1943707 -0.22758378 -0.20529488
0002f0 42 33 e5 be c3 c5 8d 3d d0 06 f9 be 02 99 f6 3e
       -0.4476567 0.06922486 -0.4863801 0.4816361

base_pointnet.conv_1_a.bias f4 [64]
000000 a1 06 9f 3e c4 b3 0f bf 26 86 0d be 82 23 d9 3e
       0.31059745 -0.56133676 -0.13820705 0.42409903
000010 57 7a aa 3e 17 8a 24 3e 99 5e 33 3e 7b fb f1 3e
       0.33296463 0.16068302 0.17516555 0.47262177
000020 ce 08 8b bd 8f b9 df 3e 28 22 d6 3e cd 86 cd be
       -0.06788789 0.43696257 0.41822934 -0.40141907
000030 33 6d b5 3d fb c3 21 be eb 3b de be 66 f7 e4 3e
       0.08858719 -0.15797417 -0.4340509 0.4472
000040 2f fd 48 bd e5 9d 1a be 20 30 57 3e 63 72 b5 3d
       -0.04906958 -0.15099294 0.21014452 0.08859708
000050 cf 83 0d bf c8 c3 d5 3e cb a5 15 3e 57 e4 eb 3e
       -0.5527925 0.41750932 0.14614026 0.46072647
000060 28 2b 13 3e 0c 89 69 3e 5d e7 61 3d f2 2e 16 be
       0.14371932 0.22806185 0.055152286 -0.14666346
000070 97 7c c5 be 75 58 d2 be 2c 08 9d be 56 00 da be
       -0.38571617 -0.41083112 -0.30670297 -0.4257838
000080 bb e9 8d 3d a0 e1 08 3f f8 fb 07 3f 27 34 de 3e
       0.06929346 0.53469276 0.5311885 0.43399164
000090 91 0a 51 bd d0 91 a8 3e da d1 42 be f8 89 cf be
       -0.051035468 0.32923746 -0.19025365 -0.4053495
0000a0 68 a9 df be 04 85 06 3f 3a 32 7e 3d 0d ae aa be
       -0.43683934 0.52546716 0.06205962 -0.33335915
0000b0 75 dc d3 3d 15 cc ea 3c e6 cf 95 bd 71 e4 b3 3c
       0.10344783 0.028661767 -0.07315044 0.021959515
0000c0 86 ec f1 be 9f b8 a4 3e d4 c6 50 3e ad ad 76 bc
       -0.47250766 0.32172105 0.20388347 -0.015056056
0000d0 21 25 3f 3e 1c b9 ef be 21 77 85 be 1a 41 80 3e
       0.18666507 -0.46820915 -0.2606745 0.2504967
0000e0 a1 34 d5 be 7f 2b 6f be 5a 53 a3 be 0e 8d c4 be
       -0.41641715 -0.23356436 -0.3189953 -0.38388866
0000f0 27 3c ac 3e 8e 9c fd 3e 71 8c a8 3e 53 99 4f be
       0.33639643 0.49533504 0.32919648 -0.20273332

base_pointnet.conv_1_b.weight f4 [64, 1, 3]
000000 2d ed 76 be 22 72 5d 3e 49 2e 65 3e ab 96 9b 3e
       -0.24113913 0.2162557 0.22380938 0.30388388
000010 68 c3 11 bf 92 22 79 bf 34 64 d9 be f5 52 3b bf
       -0.5693879 -0.97318375 -0.4245926 -0.7317346
000020 4c 58 c2 bd 90 99 9b be 7f eb cf 3e 44 1f f8 be
       -0.094894975 -0.30390596 0.40609357 -0.48461354
000030 21 50 8f 3d a6 29 00 bf b0 2c 4d 3b 68 c1 3d 3e
       0.06997705 -0.5006355 0.0031307153 0.1853081
000040 3d 4e e6 3e 7f 2a 37 be 8d f2 af be e8 9f ba be
       0.44981566 -0.17887305 -0.3436474 -0.36450124
000050 2e dd 39 3f 1b 81 59 3f 52 53 34 3f 8f 41 45 3f
       0.7260312 0.84962624 0.70439637 0.7705316
000060 41 49 8c 3f e6 0a 7f be ab e4 9a be 78 6f 36 3f
       1.0959855 -0.24906501 -0.30252585 0.7126384
000070 4a 9c 41 3e c2 56 8a bd 7a aa 70 be 7d e1 d1 3c
       0.18907276 -0.06754829 -0.23502532 0.025620217
000080 84 9d 36 3f b1 e4 6e 3e 38 41 9a 3e 1c 10 10 bf
       0.713341 0.23329426 0.30127883 -0.5627458
000090 4a 1f 61 3d f6 d4 0f 3f fb ee 56 bf 2c 3d ae bd
       0.05496148 0.5618433 -0.83958405 -0.08507761
0000a0 31 df 10 3f 59 31 31 3f 98 5c d4 bd bf c3 bf be
       0.56590563 0.69215924 -0.10369223 -0.3745403
0000b0 dd d9 aa be d8 d8 ae 3e 11 2b d9 3e 54 61 0d 3d
       -0.33369341 0.34149814 0.4241567 0.034516647
0000c0 7c 39 74 3e 4d 0e 20 bf c8 57 21 bf 2e ff ba be
       0.23850054 -0.6252182 -0.6302457 -0.36522812
0000d0 8e 93 d5 3e a8 7e 05 bf 47 c5 08 bf f8 9b b0 be
       0.41714138 -0.5214639 -0.5342602 -0.34493995
0000e0 08 b1 bb 3e b9 ac 47 3f 53 32 67 3f 06 1d 34 be
       0.36658502 0.7799793 0.90311164 -0.17589197
0000f0 64 cf c7 be 75 25 5f 3f 5a ac 57 3f c3 1c 07 be
       -0.39025414 0.8716653 0.8424736 -0.13194565
000100 01 77 a8 bd 06 14 bb bf b0 ff 56 be d5 58 1c 3f
       -0.08225823 -1.4615486 -0.20995975 0.61073047
000110 03 fb 8c 3e ab 4b 3c 3e 07 7b 37 3e 7d 8a fb be
       0.27535257 0.1838824 0.17918025 -0.49129096
000120 3a 91 dc be 87 4c 35 bf 3d d9 01 3f 42 32 24 3f
       -0.4307955 -0.70819896 0.50722104 0.6413919
000130 b6 44 94 bb b2 dc 18 bf a6 94 3b 3e dd e1 0f 3f
       -0.0045247925 -0.59711754 0.18318424 0.56204015
000140 d6 50 3e bd 80 9e eb 3e d0 9d d2 3e 3b 1e 2c 3e
       -0.04646381 0.46019363 0.41136026 0.16808407
000150 a5 98 cc bd db 7f ae be 05 fb 44 3c 42 75 d3 be
       -0.09990052 -0.3408192 0.012022738 -0.41300398
000160 10 26 2a 3e a9 54 5a 3f 6a 29 02 bf 41 ec 0b bf
       0.16616082 0.8528543 -0.5084444 -0.5465737
000170 a5 c8 4a 3e bd e6 f3 be 36 64 24 bf 43 9c 33 3f
       0.19803102 -0.47636977 -0.6421541 0.7016031
000180 85 34 ee be e9 6e d9 3e 53 9d 0f bf e7 2c 2f 3f
       -0.46524444 0.4246743 -0.5609943 0.6842789
000190 ad 35 71 bd 2d 0a 07 3f a3 86 f9 3e cc ec 05 3f
       -0.05888908 0.527499 0.48735532 0.5231445
0001a0 f9 bd 17 be 8b f6 4e be 84 ee bc 3d f5 66 5c 3e
       -0.14818563 -0.20211236 0.09225181 0.2152365
0001b0 4a bd 16 bf c9 88 0b bf e6 2d 67 3e 37 8c 90 3d
       -0.5888258 -0.5450559 0.22576103 0.07057994
0001c0 b2 f2 15 3f 77 fe 8e be 00 f1 0b bf fa b7 d1 be
       0.5857345 -0.27928516 -0.5466461 -0.40960675
0001d0 9d ca 16 bf f1 d8 64 bd e8 8b 7b 3e 68 83 b6 3d
       -0.58902913 -0.055870954 0.24565089 0.089117825
0001e0 0c e2 01 3f 9f f9 f7 be f0 fc 99 3b 0b 2f a8 be
       0.50735545 -0.48432633 0.004699342 -0.3284839
0001f0 d5 3c ca be 21 1b a0 3d fd 30 10 3f 25 fd 2c bf
       -0.39499536 0.078176744 0.5632475 -0.6757377
000200 a4 d0 a2 be 01 be 09 bf 61 04 2c bf 53 a4 fe bd
       -0.31799805 -0.5380555 -0.6719418 -0.12433686
000210 93 5b 07 bf 09 c9 54 3f ba 67 09 bf 58 94 3e bf
       -0.52874106 0.83119255 -0.536739 -0.74445105
000220 34 3b 89 3d 43 8c 4c 3f bc 43 61 3e 45 08 16 3f
       0.06700745 0.7990152 0.21998495 0.5860637
000230 bd 0e 0a 3e da 0b 2d 3e 66 b9 0e 3f b3 79 af 3e
       0.13482185 0.16899052 0.55751646 0.34272537
000240 e0 1a f2 3e 0e f6 95 bd 66 11 06 bf 93 5f 01 be
       0.4728613 -0.07322322 -0.523703 -0.12634115
000250 43 f8 a3 be de bb 42 be 9e 83 38 bf 4c 97 57 bf
       -0.32025346 -0.19016978 -0.7207583 -0.84215236
000260 f5 05 14 3e bf 3b 18 be 25 04 fb 3e 9a 6a 38 3f
       0.14455397 -0.14866541 0.490266 0.7203766
000270 a0 f1 f0 3e b9 27 26 3f 99 a8 f7 3e 38 24 33 3f
       0.47059345 0.6490436 0.48370817 0.6997714
000280 1d 23 45 3f bf fd fd 3e 03 33 94 3e aa 34 18 bf
       0.77006704 0.49607655 0.2894517 -0.5945536
000290 47 70 43 3e 60 a8 35 3f 05 a7 8d be 27 59 38 bf
       0.19085799 0.70960045 -0.27666488 -0.72011036
0002a0 ec e2 0c 3f 58 40 a4 be b4 d1 af 3d f1 3c 8e be
       0.55033755 -0.3208034 0.085849196 -0.2778087
0002b0 3e 2c 37 3f af 63 a7 be 10 87 af be da f6 c5 bd
       0.71551883 -0.3269324 -0.34282732 -0.09666224
0002c0 5e d9 04 3f 0e 00 34 3e fd b1 c7 3d f5 e0 91 3e
       0.51894176 0.17578146 0.097507454 0.2849194
0002d0 f4 dd b6 3e ed 19 d2 3e 5f ac 32 bf 4b 9c f6 be
       0.35716212 0.41035405 -0.6979427 -0.48166117
0002e0 f8 60 1f bf f3 db 39 3f 1b ee 17 3e 5e 64 89 3c
       -0.6225734 0.7260124 0.14836924 0.016771492
0002f0 81 d6 82 be 66 e4 5b be 75 80 92 be 9a c6 1b bf
       -0.25554278 -0.21473846 -0.2861363 -0.60849917

base_pointnet.conv_1_b.bias f4 [64]
000000 c2 9a fd 3e da f9 e3 be 1e bf 23 3e 57 23 ac bd
       0.49532133 -0.4452656 0.15990874 -0.08405178
000010 c7 52 d4 bd 24 e1 e4 bc 69 a8 e3 be 88 45 14 be
       -0.10367351 -0.027939387 -0.44464424 -0.14479649
000020 be 31 0e 3e 8b dc 3b be 2a e7 b2 3e 77 46 c7 be
       0.13886163 -0.18345849 0.3494199 -0.38920948
000030 1c 09 c2 be 55 1f 76 3e d0 48 f9 3e f0 7c f6 3e
       -0.37897575 0.2403539 0.48688364 0.48142195
000040 0c 73 f6 3e 37 e7 e2 be a0 13 e9 bd c2 6c 3e 3e
       0.4813465 -0.44317028 -0.11380696 0.18596175
000050 2f e2 9f 3e bb 38 1b bd 22 5e 29 be 25 e3 53 be
       0.31227252 -0.0378959 -0.16539815 -0.20692118
000060 71 01 d2 be 5f 7a 0d 3f cd 6c a9 be b8 e9 b6 3c
       -0.41016725 0.5526485 -0.3309082 0.022328243
000070 9d e0 d9 be 22 21 a1 be 18 81 d9 be 87 b3 9a be
       -0.4255418 -0.3147059 -0.42481303 -0.30215093
000080 6a 8e e7 be 9b 1d 70 be 51 83 e7 3e 35 c0 8d be
       -0.4522584 -0.23448794 0.45217374 -0.27685705
000090 ed 5c 15 3d ba 77 d8 bc 87 75 9d 3e ce 9c f7 be
       0.036465574 -0.026424278 0.3075373 -0.4836182
0000a0 46 47 bd 3e cb 0d cf 3e 77 b8 8e bd f1 76 87 3e
       0.3696844 0.4044021 -0.069687776 0.26457933
0000b0 0c 43 39 3e 8a b1 02 be 34 f0 b0 3c dd ba f6 3e
       0.18091983 -0.12763038 0.021598913 0.4818944
0000c0 83 14 06 bf 42 8c 46 be 19 a9 e8 be 0e f7 11 3f
       -0.5237505 -0.19389442 -0.4544151 0.570176
0000d0 39 ef 9c 3d a2 e2 91 3d a3 08 9e be 44 63 34 be
       0.076628156 0.07123305 -0.30865964 -0.17615992
0000e0 ef 89 82 be 10 71 da 3e 71 d2 03 bd 35 95 b9 3d
       -0.2549586 0.42664385 -0.032183114 0.09061662
0000f0 0e 02 13 bf 3f 56 0b bf ba 2a cc be c3 91 93 3c
       -0.5742501 -0.54428476 -0.39876348 0.01801384

base_pointnet.conv_2.weight f4 [64, 64, 3]
000000 20 22 2a 3b 29 5a d5 3b 4c 2d 03 3d 92 ee 52 3e
       0.0025960281 0.006510992 0.03202562 0.2059882
000010 29 91 f4 3d 8a 0b 10 3d 5a 31 66 3d f4 dd 18 3d
       0.119417496 0.035167255 0.05619941 0.037321046
000020 49 90 41 bd 17 ae 52 bd 11 50 24 3d 29 f6 71 3d
       -0.04725674 -0.051435556 0.04011542 0.059072647
000030 29 29 6e bd 09 82 92 3d 1b 50 ec 3c 2e 9d 7f bd
       -0.058144722 0.071537085 0.028846791 -0.062405758
000040 d9 26 ec bc 75 5c c9 bc 0f 04 ab 3d c1 dc 8d bc
       -0.028827118 -0.02458022 0.083503835 -0.017317178
000050 57 a4 f2 3c c4 5a 07 bc 72 60 a3 bc b7 66 09 3d
       0.029619379 -0.008261386 -0.01994345 0.033545222
000060 a5 ed 5e 3c 36 cc e1 3c 82 0c 4e 3d a3 67 3c be
       0.013606464 0.027563196 0.050304897 -0.1839891
000070 52 71 04 be 52 0d b4 bd b2 18 29 3d 28 26 06 bd
       -0.12933853 -0.08791603 0.041283317 -0.032751232
000080 84 59 02 be ae 02 ae bd 87 97 8d be 2b b4 84 bd
       -0.1272946 -0.08496605 -0.2765467 -0.06479677
000090 d2 78 58 bc 5c c8 73 3e 6a c1 07 bc ee e5 0a bc
       -0.0132124 0.238069 -0.00828586 -0.008477671
0000a0 4e 40 7e 3d 6d f4 98 3d 6f c1 36 3d 0d 87 cf 3b
       0.062073044 0.074684955 0.044618066 0.006333238
0000b0 8f bd 12 3d 0c 6b 01 3c c2 3d 26 ba b0 7d 9e 3d
       0.03582531 0.007899057 -0.00063416 0.07738817
0000c0 aa a5 c0 3b 64 58 23 bd b0 8f 5c be 0b d3 34 be
       0.0058791237 -0.039879218 -0.21539187 -0.17658632
0000d0 2e c4 af bd d3 e6 77 be 4b 31 6c 3a 94 62 52 bd
       -0.0858234 -0.24209146 0.0009010031 -0.051363543
0000e0 ac 1c d9 3c b3 f0 40 be 31 5b 3a be 44 65 3b bd
       0.02650293 -0.1884182 -0.1819885 -0.04575087
0000f0 46 90 97 bd e7 e0 68 3d 95 42 f9 bc 76 45 ab ba
       -0.07400565 0.05685511 -0.030427257 -0.0013066966
000100 8f ac 89 bd 9c 62 a7 bc cd 37 8a 3d 96 8b 7d bd
       -0.06722366 -0.020432763 0.067489244 -0.061900698
000110 99 b1 d7 3b 69 85 18 3c 47 47 21 bd f6 ba 9d bc
       0.0065824506 0.009309151 -0.039374616 -0.019254189
000120 06 f0 34 be 1a 05 8c be 81 d4 f1 3d 97 83 ca 3c
       -0.17669687 -0.27347642 0.1180811 0.02472095
000130 f8 fa c3 3c 99 ff 1d bd 94 51 6b 3d b9 77 89 bd
       0.023923382 -0.038573835 0.057450846 -0.067122884
000140 56 c3 6d 3d 66 d7 c2 3a a7 7a 6a 3d 3e d8 19 3d
       0.058047615 0.0014865219 0.057245877 0.03755974
000150 fe c5 be 3d d8 f2 8d 3c d2 c6 88 bd 05 bf 0f bd
       0.09315108 0.017327711 -0.06678547 -0.03509428
000160 2a a2 8f bd d0 1d 7d bd e3 7c 20 bc 60 7f 8b bd
       -0.07013352 -0.06179601 -0.0097954 -0.06811404
000170 77 f9 49 bd ff 03 16 3e 9b 78 2f 3b 9c 4a 77 3c
       -0.049310174 0.14649962 0.0026774767 0.015093472
000180 1a 9e 20 3d 5a 27 0b 3d d6 28 f9 3c be 64 ad bd
       0.039213277 0.033973075 0.03041498 -0.08466481
000190 47 34 94 bd 78 47 8e 3d 02 85 c6 bb 4b 2d 9b bd
       -0.072365336 0.06947225 -0.0060583362 -0.07576998
0001a0 45 1a 2c bd 20 24 f1 bc 79 1f 8b bd 07 a9 5b bd
       -0.04201724 -0.029436171 -0.06793112 -0.053627994
0001b0 13 e7 86 3d df 00 1d bd 7c 0e 7e bc a9 60 39 3d
       0.06587043 -0.03833091 -0.015506383 0.045258198
0001c0 52 c4 93 bd 45 62 0e bb 83 93 ba 3b 14 a6 a1 3c
       -0.072151795 -0.0021726054 0.0056938543 0.019732513
0001d0 98 88 d1 bc 7c 04 e5 bc 5a 59 cf bc 11 b8 b4 3c
       -0.025577828 -0.02795624 -0.02531116 0.022060426
0001e0 1a 4e 5d bd cb 5a 55 3c ab 65 2c 3d 11 fa d7 3c
       -0.05402956 0.013022135 0.042089146 0.026364358
0001f0 51 1e 9c 3c ce b7 74 3c 81 47 80 bc 98 91 f5 bd
       0.019057425 0.014936401 -0.015659096 -0.119906604
000200 4c 49 a2 bc 2b e1 89 be 45 6c 24 be 38 9d 5b bd
       -0.019810341 -0.26929602 -0.16056927 -0.053616732
000210 41 82 d4 3d 72 ec 67 3d 94 cf c9 bd 8d 9a 20 bd
       0.103764065 0.056621976 -0.098540455 -0.03920989
000220 5d ff 39 3d f4 3b 24 bb 74 3c 9b 3d fe 07 62 3d
       0.04540955 -0.002506015 0.0757989 0.055183403
000230 38 45 5f 3d de 21 35 3d 8b 49 a2 3c e7 c5 98 bc
       0.05450937 0.04422175 0.019810459 -0.018649055
000240 e2 e2 56 3d fa d8 29 bd 4d ba 20 bd 82 f1 52 3c
       0.052462466 -0.04146669 -0.03924017 0.012874963
000250 a0 97 d5 3d 9a df 89 3d 2f a8 5e bd fc 1e dc 3c
       0.10429311 0.06732102 -0.05435961 0.026870243
000260 dd fc d2 bc b5 b2 84 3d 15 62 0a 3d cf 6c bc 3d
       -0.02575534 0.06479398 0.033784945 0.09200441
000270 d0 24 dc bc 47 0e a8 bd 60 af f9 ba cf b5 82 3b
       -0.026873022 -0.08205848 -0.0019049458 0.0039889584
000280 a1 95 c0 bc 15 06 36 3d 8c 72 94 3c f7 ed 5e bd
       -0.023508849 0.044439394 0.018121026 -0.05442616
000290 ba bb 67 bb dd 1c 46 3c 47 1c ef 3c cf a1 25 bb
       -0.0035359696 0.0120918425 0.029188288 -0.0025273447
0002a0 5f df 81 bd d5 55 f8 3c a7 83 0c 3d 98 7d a5 bc
       -0.06341433 0.030314365 0.03430524 -0.02020149
0002b0 00 f0 81 bd e1 2d 95 bd 7e 8f 09 3d d3 da 6c bd
       -0.063446045 -0.07284141 0.03358411 -0.057825875
0002c0 a5 7f ff 3c e0 29 20 bd 90 b7 41 bd 66 11 92 3c
       0.031188795 -0.039102435 -0.0472942 0.017830562
0002d0 ef 6c 82 3d dc d3 7b bc 88 6f 01 3d 03 0b 63 3d
       0.06368434 -0.015370335 0.031600505 0.055430423
0002e0 5b 85 87 bc d2 6f 72 3d e0 ea 1a bd 59 d5 1d bd
       -0.016543081 0.05918867 -0.03782165 -0.038533542
0002f0 18 00 11 bd 84 ac 65 bd b3 ae ad bd 41 ec a7 bd
       -0.03540048 -0.056072727 -0.08480587 -0.08199359
000300 8a 36 52 bd 41 ea 4b 3d b4 13 da 3c 72 7b 07 3d
       -0.051321544 0.04978395 0.026620723 0.03307671
000310 ed 92 07 be e7 2f 15 3e 54 70 62 bd 2d a4 32 3d
       -0.13239641 0.14569055 -0.055282906 0.0436136
000320 73 66 93 bc a3 47 e3 3c 5f 48 96 3d 58 1d eb 3c
       -0.017993188 0.02774412 0.073380224 0.028700516
000330 24 0f 58 3c d4 8c 6c bd b6 25 0b bd 56 36 e3 bc
       0.013187204 -0.05775149 -0.03397151 -0.02773587
000340 b0 5b ba bc 87 0c d4 bd ad 34 7a bc 1e 29 0e bd
       -0.022748798 -0.10353952 -0.015271348 -0.03470718
000350 60 0d 0a 3d 71 d7 a5 3b df 9e 4a 3d 1a ac f0 3b
       0.03370416 0.005061083 0.049467918 0.007344735
000360 86 1c f4 bc 18 40 af bc 06 ef 0c 3d c9 cc bd 3d
       -0.029798757 -0.021392867 0.034407638 0.09267575
000370 ef cb a3 3d 33 18 e6 3c 05 e6 8b bd ff 2b 51 3c
       0.079978816 0.028087711 -0.06830982 0.012766837
000380 41 54 dd bd 1d dc 6d bc 29 a4 81 3d a6 2f db 3c
       -0.10807086 -0.014517811 0.06330139 0.026756119
000390 c6 d9 22 3d 29 21 63 be cc 17 87 3d 18 e3 2a bd
       0.039758466 -0.22180618 0.06596336 -0.04172048
0003a0 02 31 32 bd f7 aa af 3c 41 25 83 bc 5b 2a 6c 3d
       -0.04350377 0.021443827 -0.016008975 0.05765758
0003b0 5d 5c 72 3d cd af 02 3d b1 97 7a 3b 14 52 13 bd
       0.059170116 0.031905938 0.0038237388 -0.035966948
0003c0 05 76 80 bd a8 fb 10 bd 1c 7e ff bd c9 88 73 3e
       -0.062725104 -0.035396248 -0.12475225 0.23782648
0003d0 8b cd 02 bc 1d b4 0e be 19 f8 01 bd 8c bc 62 3d
       -0.007983576 -0.13935895 -0.031730745 0.055355594
0003e0 e7 4f 5c 3b 24 52 fc bd 9e 8f ce bd f9 81 26 be
       0.0033616961 -0.123203546 -0.100859866 -0.16260518
0003f0 91 c1 34 3d e9 fa 89 3c b8 ec 11 bd f0 f3 9d 3d
       0.04412991 0.016843276 -0.035626143 0.07712543

base_pointnet.conv_2.bias f4 [64]
000000 7d 2d 52 bd 9f d6 4f 3c 89 b2 f8 bb 43 6f ef bb
       -0.051312912 0.012685447 -0.0075896424 -0.0073069646
000010 39 7d d9 bc 89 9b f0 bd 2e 8c 53 3d 2e 8f ae 3d
       -0.026548969 -0.11748416 0.051647358 0.08523403
000020 22 51 eb bb 65 72 bc 3c be f7 f1 3c e8 6b a7 3d
       -0.0071813026 0.023003766 0.029537078 0.08174878
000030 c4 ac 85 3c de e5 37 3d 7c 17 60 bd d5 91 aa 3c
       0.016317733 0.044896953 -0.054709896 0.020821491
000040 5c d0 bc bc ed 95 62 bd 92 6a d1 bc 6d 05 27 bd
       -0.023048572 -0.05531876 -0.025563512 -0.04077666
000050 1c 3a c1 bc 02 8d 47 bd 97 28 2d 3b 4a db 9e 3c
       -0.023587279 -0.04871846 0.0026421899 0.019391675
000060 0b b7 bd 3c fe ca 57 3c c9 85 5c 3d fe 7a 7a bd
       0.02315857 0.013170956 0.053838525 -0.06115245
000070 13 07 50 3d 4e 71 5f 3d 58 7b 3e 3d a4 f2 fe bc
       0.050787997 0.054551415 0.04650435 -0.03112156
000080 e0 55 6c bd 24 f1 78 bb c1 4d c8 3d 44 cd 8e bd
       -0.057699084 -0.0037985528 0.097804554 -0.06972745
000090 88 86 f8 bc 1b d1 b6 3b eb 31 b9 3c f5 8d a4 bc
       -0.030337587 0.0055791265 0.02260681 -0.020087222
0000a0 b4 00 2b 3d 9a 4d e2 3d f4 82 1c 3a 1f 76 d4 3d
       0.041748717 0.110499576 0.0005970441 0.10374092
0000b0 21 4f 53 bd 51 a7 06 bb 45 e5 44 3c 0c 78 fc 3c
       -0.051589135 -0.0020546506 0.012017553 0.030818962
0000c0 b8 dc 36 3d 14 f0 96 3c 20 da 74 3b a5 92 08 3d
       0.044644088 0.018425025 0.0037361458 0.033342976
0000d0 08 6e a4 bd a6 d6 05 3d e7 0c 5a bd b3 78 a1 3d
       -0.08028799 0.032675408 -0.05323496 0.0788435
0000e0 c9 77 d4 3c a5 7f 57 bd 16 32 33 3d ba be de bc
       0.025936024 -0.052611966 0.043748938 -0.027190555
0000f0 f1 6d 85 bd 22 aa 8f bd 70 1c ed bc 7d 1a 8e bc
       -0.0651511 -0.07014872 -0.028944224 -0.017346615

base_pointnet.bn_1.weight f4 [64]
000000 a9 70 54 3f 1f 30 9e 3f fd 87 6b 3f e3 e1 62 3f
       0.82984406 1.2358435 0.92004377 0.88625926
000010 7a e9 66 3f 16 83 8b 3f 84 4a 74 3f 11 fe 7f 3f
       0.90200007 1.0899379 0.954262 0.9999705
000020 41 29 72 3f 59 55 9c 3f 80 86 91 3f c3 95 a5 3f
       0.945942 1.2213546 1.1369171 1.2936329
000030 c4 cc af 3f 76 43 6f 3f 14 f8 58 3f 43 92 6e 3f
       1.3734365 0.9346231 0.8475354 0.9319193
000040 b3 cb aa 3f 3b d6 b5 3f cb 16 60 3f ca 65 93 3f
       1.3343414 1.4206003 0.8753478 1.1515439
000050 0a 02 74 3f 2b 1e 81 3f 4e 13 59 3f 08 98 66 3f
       0.9531561 1.0087332 0.8479508 0.9007573
000060 5c 38 bb 3f 3c 55 76 3f 3d 21 1b 3f 69 c3 80 3f
       1.4626575 0.9622381 0.6059759 1.0059634
000070 e0 f8 55 3f be a3 6a 3f c1 f9 5e 3f 20 32 8e 3f
       0.8358288 0.916561 0.87099844 1.1109047
000080 ee 43 81 3f 73 39 9a 3f 47 cb 61 3f 05 c7 65 3f
       1.0098855 1.2048782 0.882008 0.89756805
000090 a5 78 79 3f 9b 8a 66 3f c2 56 83 3f f0 f2 74 3f
       0.97449714 0.90055245 1.0260851 0.95683193
0000a0 3a 55 4a 3f fa ef 83 3f fb 95 57 3f 35 02 98 3f
       0.79036295 1.030761 0.8421323 1.1875674
0000b0 dd be 79 3f 51 2a 90 3f 52 4d 5f 3f dd c2 67 3f
       0.9755686 1.1262914 0.87227356 0.9053171
0000c0 67 69 55 3f 86 88 85 3f ce c1 5c 3f fc 45 82 3f
       0.83363956 1.0432289 0.8623322 1.0177608
0000d0 22 8c 86 3f 7f 44 72 3f bc af 5e 3f 20 a4 83 3f
       1.0511515 0.94635767 0.869869 1.0284462
0000e0 80 d7 52 3f ee 08 67 3f 89 3e 55 3f 9f 22 69 3f
       0.82360077 0.90248 0.83298546 0.9106845
0000f0 93 43 5b 3f ec 37 84 3f fa 2c 65 3f 30 25 9e 3f
       0.85649985 1.0329566 0.89521754 1.2355099

base_pointnet.bn_1.bias f4 [64]
000000 a7 44 73 be cb 30 ae 3d 04 51 0b be d3 20 0d be
       -0.23756658 0.085054 -0.13605124 -0.13782053
000010 69 87 b6 bc 0d c3 d0 3d 9f 40 12 be f1 6b 8c 3c
       -0.022281365 0.10193453 -0.14282463 0.017141314
000020 8c 6e 87 bd 3e de 3d 3d f0 91 1c be ce af 16 be
       -0.06612882 0.046354525 -0.15290046 -0.14715502
000030 69 57 d0 bc 69 18 9b 3d ee d7 e4 bd 4c 01 f0 bb
       -0.025432305 0.07573015 -0.11173998 -0.0073243733
000040 0a 38 6d bd c6 98 d0 bd 05 58 73 be 81 b4 a2 be
       -0.05791477 -0.10185389 -0.23764046 -0.3177834
000050 c4 b7 49 bc ce 2a ec bd 50 34 67 be 59 8e d2 bd
       -0.01231188 -0.11531602 -0.2257855 -0.10281057
000060 39 88 f2 bd 17 a5 1b bd b4 90 68 be 72 9a 16 3d
       -0.11842389 -0.03799924 -0.2271145 0.036768384
000070 3e 36 a3 bd 71 8d 81 bc e1 b3 78 be 82 de fb 3c
       -0.0796933 -0.015814515 -0.24287368 0.030745748
000080 f3 1b dd bd b8 47 28 be 1c 1f 9b bd c4 18 2b bc
       -0.107963465 -0.16433609 -0.07574293 -0.010442916
000090 9e 7a 4e bb c5 b4 03 be 73 27 47 bd d3 1b 92 be
       -0.003150619 -0.12861927 -0.048621606 -0.28536853
0000a0 d4 ff 46 3d 32 3a da 3e c4 0e 14 3c ab 87 8e 3e
       0.04858382 0.42622524 0.0090367235 0.2783788
0000b0 31 e3 01 bc 80 04 3b 3c d6 7a da 3c 97 6e dd bd
       -0.007927702 0.011414647 0.0266699 -0.10812109
0000c0 4b 97 21 be 07 1d 3a be ec 31 60 bd 01 0b 93 bc
       -0.1578037 -0.18175136 -0.05473511 -0.017949583
0000d0 0d 7a 1b be db 23 b6 3b 21 6d 1e 3b 81 60 4c be
       -0.15183277 0.0055584735 0.0024173933 -0.19958688
0000e0 d8 6b e4 3c 02 99 af 3c 1e c5 af 3d de 55 ba bd
       0.027883455 0.021435264 0.08582519 -0.09098409
0000f0 f0 19 bb bd 4b bf 3c bd fd f6 a3 bd 94 0e c9 3d
       -0.091358066 -0.04608087 -0.08006094 0.09817234

base_pointnet.bn_1.running_mean f4 [64]
000000 94 d6 04 c2 6d 33 99 bf 5c 27 90 40 19 76 82 3f
       -33.20955 -1.1968819 4.5048046 1.019229
000010 14 45 01 40 ff a6 c2 be 6b 7d fe c0 1b 3d a9 40
       2.0198412 -0.38018033 -7.95281 5.288709
000020 e0 a6 dd 40 31 e2 2b c0 80 1f 32 3f be 53 cc bf
       6.9266205 -2.6856806 0.69579315 -1.5963056
000030 50 be 26 c0 51 7e 31 c2 e5 85 8e 40 55 51 ed c1
       -2.6053658 -44.373356 4.4538445 -29.664713
000040 6c 48 bd bf b3 3b 61 c0 78 69 d6 41 34 72 5e c0
       -1.4787726 -3.5192688 26.801498 -3.4757204
000050 be c6 c1 41 eb a1 73 bf c2 9e 02 c2 64 00 c3 40
       24.222042 -0.9516894 -32.655037 6.0937977
000060 98 bc 7c c0 23 1e 4f 40 d8 b1 08 42 72 4f 65 40
       -3.9490108 3.2362144 34.173676 3.582974
000070 00 be fe c1 21 90 6b c1 ad fe 28 41 4e 98 83 c0
       -31.842773 -14.722688 10.562177 -4.112342
000080 1a ae ac 3f a0 61 42 bf 65 24 1a 42 02 aa e7 41
       1.3490632 -0.75930214 38.53554 28.958012
000090 c2 e1 15 c1 2b 66 72 c1 c2 ed 48 3f ab 02 a6 c0
       -9.367617 -15.149943 0.7848779 -5.1878257
0000a0 13 96 22 42 6e d2 da 3f 3f c2 84 c1 51 7b c3 bc
       40.646557 1.7095468 -16.594847 -0.023862513
0000b0 8f 9c a0 c0 1f 98 38 3f c7 11 ce 41 0f 49 d4 c0
       -5.019111 0.7210712 25.75868 -6.6339183
0000c0 ae 18 a7 40 e7 94 ab 3f fe 14 2e 42 c1 cd 31 c0
       5.2217627 1.3404816 43.5205 -2.7781832
0000d0 f5 20 13 c0 6c bb e7 40 01 52 c3 c1 83 4d f5 3f
       -2.2988865 7.2416286 -24.415041 1.916428
0000e0 04 ae ec 41 ee ca ab c0 7e 6d 45 41 be ce 3d c2
       29.584969 -5.3685217 12.3392315 -47.451897
0000f0 d1 97 1d 41 f4 d1 d5 bf 55 8c 03 c2 19 08 e9 be
       9.849565 -1.6704698 -32.887043 -0.4551399

base_pointnet.bn_1.running_var f4 [64]
000000 71 a8 8e 43 55 5e 05 41 40 42 89 41 9e 4c 4c 42
       285.31595 8.33553 17.157349 51.07482
000010 2a 73 9c 40 ad 2e bd 42 40 00 f0 41 0a b9 65 42
       4.889058 94.59116 30.000122 57.430702
000020 7b 60 3a 41 fa ef cf 42 36 26 35 40 e4 3e 49 41
       11.648555 103.968704 2.8304572 12.577854
000030 c4 67 91 41 50 98 ea 43 1a 90 f7 41 de ee 66 43
       18.175667 469.18994 30.945362 230.93307
000040 29 9a 5e 41 d9 40 29 42 30 cb 22 43 ba c8 ae 42
       13.912637 42.313328 162.7937 87.392044
000050 74 ac f6 42 05 75 52 42 ce cd 87 43 c9 7e 37 42
       123.33682 52.614277 271.60785 45.873814
000060 38 d6 a4 42 78 bb 18 41 99 fe 7a 43 cd bf 21 41
       82.418396 9.545769 250.99452 10.109326
000070 f5 d8 58 43 4e 14 5f 42 aa 1b 7b 42 c4 d1 e1 41
       216.84749 55.76983 62.777016 28.227425
000080 a0 5d e1 41 c4 4b 83 41 81 62 94 43 0a 12 67 43
       28.170715 16.411995 296.76956 231.07047
000090 e1 dd da 42 79 0d ba 42 50 0c 1d 42 f3 79 c8 41
       109.43336 93.02631 39.262024 25.059546
0000a0 b8 b1 b7 43 f8 ff a4 3f c3 56 7c 42 ec ca 3f 41
       367.38843 1.2890615 63.08473 11.987041
0000b0 84 0d dc 41 75 3b 18 41 02 f4 16 43 cd 10 ce 41
       27.5066 9.514516 150.95316 25.758204
0000c0 b5 93 f6 41 5d f2 c5 41 69 da e2 43 7d 67 80 41
       30.822123 24.743341 453.70633 16.050531
0000d0 09 60 c7 41 a9 e1 8a 42 cc f5 1d 43 65 41 c1 41
       24.921892 69.44074 157.96014 24.15693
0000e0 61 3e 5b 43 bd f6 e7 41 19 cc 61 42 01 f4 03 44
       219.24367 28.995478 56.449314 527.81256
0000f0 5d 55 0b 42 c5 9e 29 42 d2 64 69 43 72 55 5d 42
       34.833363 42.40505 233.39383 55.333443

base_pointnet.bn_2.weight f4 [64]
000000 fb 76 b2 3f 63 5b cd 3f 94 75 b1 3f c6 f5 d3 3f
       1.394256 1.6043514 1.3864007 1.6559379
000010 89 d1 b1 3f d2 1b fb 3f ec 66 bf 3f dc 18 c9 3f
       1.389207 1.9617865 1.4953284 1.5710711
000020 7f de 1c 40 8d 87 a2 3f 12 4d a7 3f 23 37 c5 3f
       2.45108 1.2697617 1.3070395 1.5407451
000030 4f 2e df 3f 26 9e b9 3f 0e b0 b5 3f 97 a9 ac 3f
       1.7436007 1.4501388 1.4194353 1.3489255
000040 c2 c7 21 40 69 29 aa 3f b1 7d a9 3f 74 24 b3 3f
       2.5278172 1.3293887 1.3241483 1.39955
000050 c3 df b2 3f 3f f8 f1 3f c3 2e ca 3f e7 ab ae 3f
       1.3974537 1.8903884 1.579552 1.364621
000060 8e 6e c5 3f 8b 44 ac 3f 4d c1 c5 3f 53 f4 d1 3f
       1.5424364 1.3458418 1.5449616 1.6402687
000070 08 cb c1 3f 58 c8 be 3f 9c 62 e8 3f 48 89 dd 3f
       1.5140085 1.490489 1.8155093 1.730752
000080 16 3f ec 3f 92 b6 c2 3f 68 14 b2 3f 69 ca ad 3f
       1.8456752 1.5211966 1.3912477 1.3577396
000090 d1 a8 b4 3f 41 13 d4 3f 60 ba b1 3f 44 14 c3 3f
       1.4114019 1.6568376 1.3885002 1.524056
0000a0 8a ee f5 3f e5 b8 f6 3f 7a 28 ce 3f fe d6 bc 3f
       1.9213421 1.9275175 1.6106102 1.475311
0000b0 96 7c f6 3f cf 43 ec 3f 48 e6 cc 3f 3e 57 ac 3f
       1.9256771 1.8458194 1.6007776 1.3464124
0000c0 6c 54 e0 3f 73 bc cd 3f 21 9a a8 3f 32 8b a7 3f
       1.7525764 1.6073135 1.3172036 1.3089354
0000d0 cb 44 c6 3f 29 d0 0f 40 d4 0d b6 3f 61 3a c1 3f
       1.5489744 2.24708 1.422297 1.5095941
0000e0 76 6a 00 40 5b 3c d4 3f fb 66 b7 3f 33 93 ba 3f
       2.0064979 1.6580919 1.4328302 1.4576172
0000f0 ee d9 ac 3f 41 8a a6 3f 1e 62 03 40 49 aa c1 3f
       1.3504007 1.3010942 2.0528636 1.5130092

base_pointnet.bn_2.bias f4 [64]
000000 8f ed d4 3d bc 9f 2a 3e 8b 2f 2f 3e f2 9d 8f 3e
       0.10396873 0.16662496 0.1710798 0.2805019
000010 0d 7e 88 3c 2c 62 f4 3c 95 55 00 3e b0 ae 2c 3d
       0.016661668 0.029831968 0.12532647 0.042158782
000020 ba b5 af bc 56 42 41 3e d9 f3 c0 3d 28 48 a3 3e
       -0.021448959 0.18872961 0.0942151 0.31890988
000030 46 b4 dc bd 4e a8 83 3e a3 20 87 3e 24 0f a7 3d
       -0.10776572 0.25714344 0.26392087 0.08157185
000040 ed 9c 87 bd ad 0c d6 3d ac e1 5a 3d 5d a9 82 3e
       -0.06621728 0.104516365 0.053437874 0.2551984
000050 4f 03 fb 3d 47 cd 68 3e e4 d1 3f 3e 60 c1 21 3e
       0.122564904 0.22734557 0.1873241 0.15796423
000060 f1 4b 9e 3d c6 c2 12 3e 7f 01 ef 3d 6e 08 59 bd
       0.077293284 0.14332113 0.11670207 -0.052986555
000070 19 a7 a5 3c 95 af ef 3d f9 e1 cb 3e a4 f4 9d 3e
       0.02022128 0.117034115 0.3982084 0.30850708
000080 4d c2 fa 3d a5 26 08 3e ab 4c d2 3d 10 dc 65 3e
       0.12244091 0.13295992 0.102685295 0.22447228
000090 9d 19 8c bc fe 22 25 3e ba 26 2f 3e 9e 56 b3 3d
       -0.017102057 0.1612663 0.17104617 0.08756755
0000a0 38 7b 29 3e eb d4 e4 bd 00 11 98 3e ff 22 3d 3e
       0.1655091 -0.111734234 0.2970047 0.18470381
0000b0 9d b6 88 3e a5 87 93 3e 75 45 5f 3e 74 bf e6 3d
       0.26701823 0.28814426 0.2180384 0.112669855
0000c0 49 01 87 3e e4 c6 00 3e 68 82 13 3e ac 62 29 3e
       0.26368168 0.12575871 0.14405215 0.16541547
0000d0 f0 f0 89 3d 32 4e 37 bd 62 d8 17 bc 23 b1 a1 3e
       0.06735408 -0.044752307 -0.009267898 0.31580457
0000e0 e6 5c 8d 3d 0d 4b 3b 3d c1 fc 15 3e 8e ed 0f 3e
       0.069024846 0.04572587 0.14647199 0.14055464
0000f0 1e 18 f0 3d 3c 70 d3 3c 2a f5 f1 3e 90 61 09 3e
       0.1172335 0.025810353 0.47257358 0.13416123

base_pointnet.bn_2.running_mean f4 [64]
000000 8a 34 5a bf 9b 41 9d bd 97 cd 15 bf af 51 f6 bc
       -0.8523642 -0.07678529 -0.5851683 -0.030068247
000010 03 69 50 3c cb 3b 89 bd ca 1f bd bd 56 ce a3 3e
       0.012720349 -0.06700858 -0.09234579 0.3199336
000020 b3 ad 0b 3e 47 8e fb be 77 32 1a bf 43 dd da be
       0.1364048 -0.49131986 -0.60233253 -0.42746934
000030 bc 75 05 be 71 38 f1 be c7 34 a7 bf 43 4e 6e be
       -0.13033193 -0.47113374 -1.3062981 -0.23272042
000040 07 5b cf 3e 1b f6 46 3f 2c ce e0 be f7 f6 26 bf
       0.40499136 0.7771928 -0.43907297 -0.6522059
000050 55 51 58 bf 7a e6 dc be e3 3b c9 be 70 cf 2b bf
       -0.844991 -0.4314459 -0.39303502 -0.671134
000060 28 7b 75 3c 6c 74 30 bf 91 84 c8 be e9 9a f5 be
       0.014982976 -0.68927646 -0.3916364 -0.4796975
000070 6c 63 c1 3d 96 d6 67 3f 2b 0a 5a be 1c c0 da be
       0.09442791 0.9056181 -0.21292941 -0.42724693
000080 49 a4 7b 3e db 20 54 bf 37 82 ed be 1d b2 8f bf
       0.24574389 -0.82862633 -0.4638841 -1.1226231
000090 ee 98 e6 bd 84 4c f6 be 09 02 68 bf 9d 65 cb be
       -0.11259638 -0.48105252 -0.90628105 -0.39725962
0000a0 01 a9 44 3f 9e 11 b2 be 90 aa 49 bf b4 7b 0a bf
       0.7682038 -0.34779066 -0.7877588 -0.54095006
0000b0 be c7 d8 be c9 19 8a be c7 62 e7 be fa 9a 98 be
       -0.4233989 -0.26972798 -0.4519255 -0.29805738
0000c0 d9 16 ae be d9 47 93 be 2f 58 04 bf 9c 45 5c bf
       -0.34001806 -0.28765753 -0.5169706 -0.86043715
0000d0 85 ff c9 be e6 c9 8c 3e 94 4b 0d 3f c8 b4 35 bf
       -0.39452758 0.27497786 0.5519345 -0.70978975
0000e0 43 ad d0 3e 28 68 b0 be 6a 18 43 bf 9e 6e 89 3e
       0.40757188 -0.34454465 -0.7620913 0.26842207
0000f0 d0 df 0d bf ae 1e 41 be d4 7c b5 be 5a 0c 34 3f
       -0.55419636 -0.1885936 -0.354468 0.70331347

base_pointnet.bn_2.running_var f4 [64]
000000 ad c0 91 3d 6f 70 28 3d 86 94 92 3d d1 de 07 3e
       0.07116828 0.04112285 0.07157235 0.13268591
000010 b4 ab d9 3c 8d 38 7e 3c 64 16 0b 3d a9 9f 3f 3d
       0.026571132 0.015516412 0.0339569 0.046783123
000020 f6 8f 78 3c 05 a6 ce 3d d4 25 70 3d 26 3a a4 3d
       0.015171042 0.100902595 0.058629826 0.080189034
000030 a2 3c 9b 3c 1a 29 b9 3d 67 fd f6 3d bb 04 85 3d
       0.01894981 0.090410426 0.120600514 0.06495043
000040 d2 fd c6 3b a6 a3 f3 3e 14 27 a6 3d 6f 16 dc 3d
       0.006072738 0.4758579 0.08112922 0.10746466
000050 b8 49 97 3d 97 69 01 3d 90 bd f1 3d 1a e3 12 3d
       0.073871076 0.03159484 0.11803734 0.035861112
000060 c9 09 5d 3c 9c d3 c9 3d 69 e8 ba 3c 86 e6 e2 3c
       0.0134911025 0.098548144 0.0228159 0.027697813
000070 44 f5 60 3c 63 11 a1 3e 6e 2d cf 3d 16 79 c3 3c
       0.013730351 0.31458578 0.10116087 0.02386145
000080 03 55 9d 3c 3e 2f 22 3d dc 10 82 3c 26 8c f2 3d
       0.019205576 0.039595835 0.01587718 0.118431374
000090 86 c6 ee 3c ec fd 56 3d c8 0e 7c 3d 9f 82 0e 3d
       0.029147398 0.052488253 0.061537534 0.03479254
0000a0 e1 d6 71 3d d6 7f 4b 3c b2 a8 c1 3d 11 9d e9 3d
       0.059042815 0.012420615 0.09456004 0.11406911
0000b0 9a 9d 41 3d cb 05 84 3d 5b 7b 96 3d cc 9f 7b 3c
       0.04726944 0.064464174 0.07347747 0.015357923
0000c0 32 03 9e 3d 6c 72 e7 3c c4 16 16 3e f5 34 e8 3d
       0.07715453 0.028252803 0.14657122 0.11338226
0000d0 de 15 06 3d 5a ce 4d 3c 6b 52 db 3c a2 0f 92 3d
       0.032735698 0.012561405 0.026772698 0.07131888
0000e0 78 fd 05 3d 86 70 b8 3c 41 4f 15 3e 9e 0e 08 3e
       0.03271243 0.022514593 0.14581014 0.13286826
0000f0 90 91 74 3d b6 9c ab 3d e8 d5 91 3d d1 1f 72 3e
       0.05970913 0.083794996 0.071208775 0.2364495

fc_1.weight f4 [64, 66]
000000 dd 9c 0b 3d cf 9d cc bf 86 c0 c7 3d 64 2c 36 bd
       0.034085143 -1.5985659 0.09753518 -0.044475928
000010 d6 da b3 3e 8a 25 d1 3d 9c 40 70 3e 32 08 1b 3d
       0.35127896 0.10212238 0.23462147 0.037849613
000020 60 f6 73 3e 44 75 4a 3e 41 f8 00 bf 42 da 64 bd
       0.23824453 0.19771296 -0.50378805 -0.05587221
000030 83 a4 40 3e b0 da 77 bd 5d ec 8e 3d 25 b0 ef bd
       0.18812756 -0.06051129 0.069786765 -0.11703519
000040 7f bc 64 3d ad eb 40 3e e8 0a 9d 3d 72 31 4e 3e
       0.055843826 0.18839903 0.07668096 0.2013605
000050 14 5e cf 3d 3c 20 59 3e 31 b5 88 3e d3 32 4e bd
       0.10125366 0.21203703 0.26700738 -0.05034144
000060 45 f5 90 3d f2 72 87 3e c5 79 80 3c 0c 81 22 be
       0.070780315 0.26454884 0.015683064 -0.1586954
000070 4c dd 86 3e 4f 47 41 be 70 fd cd bd b1 5d aa 3d
       0.2634071 -0.18874858 -0.10058105 0.083186515
000080 75 12 32 be 0c 60 82 3e 55 70 78 be c2 12 dc 3d
       -0.17389853 0.25463903 -0.24261601 0.10745765
000090 73 ba 04 bd 85 ca 32 3e 2a 2e a0 3d dd 0e 37 3e
       -0.032404374 0.17460068 0.07821305 0.17876764
0000a0 22 96 0c bd c2 d2 36 3e ee 33 f9 3d 04 a9 c6 be
       -0.034322865 0.17853835 0.12168108 -0.38800824
0000b0 bf bc b4 bd 73 56 90 3e 92 67 84 3e 2d 91 55 be
       -0.08825063 0.28190956 0.25860268 -0.20856161
0000c0 8b 7c a8 bd 9e 74 64 3e a2 e4 90 bd bb 31 61 3d
       -0.0822688 0.22310111 -0.07074858 0.054979067
0000d0 9f ff 03 3f ea 7b 3c 3e 91 19 48 3e ff 3f ec be
       0.5156192 0.18406644 0.19541003 -0.46142575
0000e0 81 80 b1 bd 3e c1 b0 bd f4 6c 30 3d 3b b3 2c ba
       -0.08667088 -0.08630608 0.043072656 -0.0006587987
0000f0 98 47 82 3e fc f1 3f 3e 56 3f 9d 3e 76 3e 8a 3e
       0.25445247 0.18744653 0.30712384 0.2700078
000100 c0 8d 15 be 6e c0 30 3e dd d0 f1 bd b4 e0 af 3d
       -0.14604855 0.17260906 -0.11807416 0.085877806
000110 f5 5b f6 bd e2 0c dd bc 2c ac ca 3d 0b 2a b3 bc
       -0.12029258 -0.026983682 0.098961204 -0.021870634
000120 bc fa 95 3d ff 0c 8b bd eb 9d e7 3d 69 b4 da bc
       0.073232144 -0.06789588 0.11309417 -0.026697354
000130 33 2e ec bd 9c d9 23 bd 3a 3f 9c 3c c1 db bb 3c
       -0.11532249 -0.04000245 0.019073118 0.022931935
000140 42 7d a9 ba 3f 38 df bd f2 47 49 bd 7f 24 42 bd
       -0.0012931006 -0.108994 -0.049140878 -0.047398087
000150 0a d4 08 3d ad 59 7d 3d 31 ce 68 bc 07 99 d1 3c
       0.03340534 0.0618531 -0.014209316 0.025585664
000160 92 01 3e 3b 2b 56 ba bc e0 6d a2 3d 0a ee e9 bd
       0.0028992635 -0.022746166 0.07931113 -0.114223555
000170 27 2d de 3d 5b de b5 bd 90 2b 5b 3d 68 d0 cb 3d
       0.10848456 -0.088803016 0.05350834 0.0995186
000180 15 06 95 3c 5a 9c 6e bd ac c3 dc 3c de 85 b4 3c
       0.018191377 -0.058254577 0.026948772 0.02203649
000190 1e 4c 65 bd bc 71 67 3d 4a c5 1c 3d 80 54 43 3c
       -0.055980794 0.05650495 0.038274087 0.011922002
0001a0 6a 9e 9d 3d 6f c3 ee 3d 64 8e 3a bd 49 78 2b bd
       0.07696231 0.1165837 -0.04554595 -0.04186276
0001b0 53 60 74 bc 20 10 84 bc 80 22 ba 3d 5c cb 27 bd
       -0.014915544 -0.01612097 0.090886116 -0.040965423
0001c0 b3 7c b4 3d 7d 57 d4 3d 11 55 6a 3c 2a 1a f2 bd
       0.08812847 0.103682496 0.014302508 -0.11821397
0001d0 5f a6 e8 bc e2 4b 46 3d da 3b d4 bd ed 1e b3 bd
       -0.028399644 0.04841221 -0.10362978 -0.08746133
0001e0 25 c0 81 3c b1 c4 96 bc de 2a 24 bd a3 73 51 bd
       0.015838692 -0.018404337 -0.040079944 -0.05113567
0001f0 15 80 95 3d b8 dd c1 3d 40 92 ce 3d 3a 5f c1 3d
       0.0729982 0.094661176 0.10086489 0.09441991
000200 cc 00 fb bd a6 12 85 bc 5b 0d 90 bd 4b 7c 3f 3d
       -0.12256011 -0.016244244 -0.07033797 0.046749394
000210 a0 d2 d7 bd d6 b2 53 3f 5f e7 5e 3e b8 ea e2 3e
       -0.105382204 0.82694757 0.21767949 0.443197
000220 45 2f df 3e b0 d1 b0 3c 8a 64 00 be 80 f6 9d 3d
       0.4359075 0.021584362 -0.12538353 0.07713032
000230 df 6c d1 3d 33 43 7b 3d 7f 65 be bd bb 54 f6 bd
       0.10225844 0.061343383 -0.092967026 -0.1202788
000240 ec ba ec bd e0 17 32 3e 53 ca c3 3d 26 77 0b 3e
       -0.1155909 0.1739192 0.09560075 0.1361967
000250 e4 84 37 3e 95 77 66 3e 0d bc 02 3f 41 d6 8e bd
       0.17921788 0.22506554 0.5106819 -0.069744594
000260 e5 00 68 be e1 0a 01 3e b9 f8 ba bd 90 76 85 3e
       -0.22656591 0.12601806 -0.09129471 0.26067019
000270 79 59 d3 3d 3d 64 0d 3e 7b 21 11 be 66 ef 92 bd
       0.103198 0.13807769 -0.14172928 -0.07174568
000280 28 cb d6 bd 53 c1 17 be 3d c6 ed 3d 16 f9 a4 3e
       -0.10487968 -0.14819841 0.116100766 0.32221287
000290 bc 95 82 3d 52 56 e8 3d e3 ec 9e bd b9 5a 4f bd
       0.06376216 0.11344589 -0.07760026 -0.05062363
0002a0 92 15 b1 bd 80 ce 9a 3e 52 39 a6 be f5 1d ee 3e
       -0.08646692 0.30235672 -0.32465607 0.4650723
0002b0 9d 34 c5 3d 14 a8 31 3e 61 0a c1 3e 6e 58 1d be
       0.09629176 0.17349273 0.3770323 -0.15365764
0002c0 63 2d 35 3d e7 1f c2 3e 26 8d ed 3e 68 23 02 3e
       0.044232737 0.37914965 0.4639675 0.12708819
0002d0 9b 4c a0 3e 32 a6 13 be 9f b8 ac 3d b4 d6 ea 3d
       0.31308445 -0.14418867 0.08433651 0.114667326
0002e0 84 c2 d6 3e 92 22 f7 bc a0 ed 49 3e e5 00 b4 be
       0.4194528 -0.030167852 0.19719553 -0.35156932
0002f0 a4 e8 a5 3e 08 b9 80 bd 47 22 10 be de 60 eb 3e
       0.32404053 -0.06285292 -0.14075576 0.4597234
000300 88 59 77 3e 2f e8 54 bd 76 94 32 be ed f2 63 3d
       0.24155247 -0.05197924 -0.17439446 0.055651594
000310 d6 09 13 be 4d b2 90 bc f0 c1 6d 3d d3 be ff 3e
       -0.14359221 -0.017663145 0.05804628 0.49950275
000320 0e c7 4e be 8f 18 28 be e6 dc 7e 3d 68 c5 5d 3e
       -0.20193121 -0.16415618 0.062222384 0.21657336
000330 22 f0 e0 bd 73 cb 8f 3e 8d 06 40 3e 8c 68 83 3e
       -0.10983302 0.28084907 0.18752499 0.256657
000340 4d 2d 21 bc 0a 93 0c bc 7d 81 e6 3c 7a 64 ad bd
       -0.009837461 -0.008579979 0.028137917 -0.0846643
000350 eb 6a a2 3e fe 9c b1 3d 06 e2 26 bd 0f ba 6d be
       0.31722197 0.08672522 -0.040742896 -0.23215507
000360 f7 92 14 3e ac f7 4a bd a4 b5 83 bd d2 fd fd bd
       0.14509188 -0.049552605 -0.064311296 -0.12401928
000370 83 30 8a 3d 9c 53 0b be 9a 63 c4 be 86 96 c2 3d
       0.06747534 -0.13606113 -0.3835724 0.09501366
000380 fc 15 26 bd 1b e0 10 be 46 4f e1 3d 69 b8 73 3e
       -0.04054831 -0.1414799 0.11001448 0.23800816
000390 9f 7b 61 bd 4d fa 31 be a2 d5 2e be 56 96 b8 bd
       -0.055049535 -0.17380638 -0.17073682 -0.09013049
0003a0 de 75 a9 be 9b ae 49 3e 46 4c ad bd 3b b9 a1 bd
       -0.33097738 0.19695513 -0.08461814 -0.07896658
0003b0 92 aa 3b bd 65 cc 23 be 97 45 62 be 6d f6 07 3d
       -0.045816965 -0.15995939 -0.22096859 0.033193994
0003c0 53 b3 9e 3c 9f 7e 97 bd 19 a9 4f be 25 27 d9 3c
       0.019372618 -0.07397198 -0.2027935 0.026507923
0003d0 9f a3 0e 3e 1c 01 30 be 65 65 3c be cf 43 8a 3e
       0.13929604 -0.17187923 -0.18398054 0.2700486
0003e0 c1 df 19 bd b5 85 9a bd 73 e4 08 bd 5e 7f e8 bc
       -0.037566904 -0.07545034 -0.03342099 -0.028381046
0003f0 12 1f 9f be fd 9a 9d 3e 4b 63 48 3e 25 da 99 3b
       -0.31078392 0.3078231 0.19569127 0.0046951943

fc_1.bias f4 [64]
000000 d6 6e c6 3d 4b ae cc bd f1 bb cc 3d bd 6c d5 3c
       0.09689109 -0.09994181 0.099967845 0.026052827
000010 d3 c8 6e 3d 1e c3 5c bc 05 d2 89 3d 1b a1 a7 3d
       0.05829699 -0.013474254 0.06729511 0.08185025
000020 7d 22 d8 3d 24 12 a4 bd 5d 35 98 be f4 1c 39 be
       0.10553453 -0.080112725 -0.29728213 -0.18077451
000030 7c 81 59 3e 35 cc cf 3d e6 c3 24 bd fc e9 f0 3c
       0.212408 0.10146371 -0.040225886 0.029408447
000040 6b fb 70 3e 47 56 d0 3e 0a e1 4a 3c c4 d4 7c 3d
       0.23533408 0.40690824 0.012382755 0.061726347
000050 bc 35 c8 3d d5 12 42 be e2 e6 03 3d 99 74 3f bd
       0.09775874 -0.18952496 0.03220261 -0.046742056
000060 d4 74 71 be c2 fb 36 3c b8 8e c2 3e 02 3f 0c 3d
       -0.23579723 0.011168422 0.3799951 0.034239776
000070 29 4e 9d 3c cb 4d 13 bd 9a 9c 93 bd 73 83 1d 3b
       0.019202309 -0.03596286 -0.07207604 0.0024034649
000080 41 57 83 bd 2b 46 ce bc 49 bc f3 bd 88 b8 c2 bd
       -0.06413127 -0.025179943 -0.11901147 -0.09507853
000090 14 34 85 bd e9 11 8c 3d f4 37 d3 bd 09 9d 81 bc
       -0.06504074 0.068393536 -0.103134066 -0.01582195
0000a0 c3 e3 6f bd 23 42 1f bc ae 2d c6 3d 03 0d d1 bd
       -0.05856682 -0.009720358 0.096766815 -0.1020756
0000b0 e9 cc ed 3d 90 9e c3 bd 19 b0 29 be 25 cc 9b bd
       0.11611349 -0.09551728 -0.16571082 -0.07607297
0000c0 01 20 8a bd b9 7c 21 3d 56 af 08 3e 05 75 1a 3e
       -0.067443855 0.039425585 0.13348135 0.15083702
0000d0 99 33 29 3e 66 44 5f bd 03 dc f1 bd 09 92 56 3e
       0.16523589 -0.05450859 -0.11809542 0.20954145
0000e0 16 81 bf bd ee 97 9c bd 09 86 d7 3b af 2d dc bb
       -0.09350793 -0.07646166 0.0065772575 -0.006719313
0000f0 f9 2e ec bd d0 ee 93 be 45 e7 95 3d d8 6b 47 3d
       -0.11532397 -0.28893137 0.07319502 0.048686832

fc_2.weight f4 [3, 64]
000000 31 05 a7 3f 22 95 bb bd 30 26 ac 3e 7b c2 ed bd
       1.3048459 -0.09159304 0.33622885 -0.1160936
000010 16 e1 29 c0 be f0 bc bd f2 bd f8 bd ec 3b a6 3e
       -2.6543632 -0.092256054 -0.12145604 0.32467592
000020 68 59 59 3e 30 87 99 bd 56 11 7f bf de 1d 97 3f
       0.21225512 -0.07496488 -0.9963583 1.180599
000030 75 4e a3 3f 48 a1 44 3e 40 a7 dc 3d e5 b3 a8 3f
       1.2758318 0.19202149 0.10774088 1.31799
000040 48 a0 a6 be a5 d5 08 40 c0 cd 97 bd 6b ed 7b be
       -0.3254416 2.1380398 -0.074122906 -0.24602287
000050 4e 34 9e 3f 92 4a a5 bd 10 61 fa 3f 9d 04 49 3d
       1.2359712 -0.08070864 1.9560871 0.049076665
000060 56 c7 c2 bf b0 48 04 bc 27 ba 31 40 f6 0d 29 be
       -1.5217083 -0.008073971 2.7769868 -0.16509232
000070 06 ed 57 3e 68 00 1e be a0 af c4 bb c5 13 db bc
       0.21086511 -0.15429842 -0.0060023814 -0.026742825
000080 32 c0 9f bd 69 b1 1f 3e 70 d2 06 3d 7c e2 86 bd
       -0.0780033 0.1559502 0.032915533 -0.06586167
000090 59 78 73 bc 5d d7 92 3f 79 ac ec bd 3e de ff 3d
       -0.014860236 1.1471974 -0.11556334 0.12493561
0000a0 9e a0 85 3f a2 ae ca 3f 38 d6 7e 3d 4d 1d 64 3e
       1.0439641 1.5834544 0.062216014 0.22276802
0000b0 78 4e 3e bd 6a 6f ac bd f1 4b c9 3e 89 31 17 3f
       -0.046461552 -0.08419688 0.3931575 0.5905996
0000c0 ca e1 c7 3d 51 d2 81 3e 02 6a 29 c0 54 95 1a c0
       0.09759863 0.2535577 -2.6470952 -2.4153643
0000d0 04 dd b0 bf c1 53 77 c0 f8 f9 e3 bd 7f fe d3 3f
       -1.3817449 -3.864487 -0.11131662 1.6562041
0000e0 55 03 f0 3c f3 49 0d bd ae 19 a2 bd 06 28 49 bc
       0.029298464 -0.03449435 -0.07915054 -0.012277609
0000f0 f4 77 06 3e df a0 99 3f 1c 60 87 bd 2c b0 5d 3e
       0.13131696 1.2002219 -0.06610128 0.21649235
000100 08 55 5e 3e 60 34 ad bb a2 e8 8f bf 26 d0 9d 3e
       0.21712124 -0.0052857846 -1.1242869 0.30822867
000110 ba 38 b8 3f 44 2e 1a 3d c2 4c b0 3d b7 05 ed be
       1.4392312 0.03764178 0.086083904 -0.46293423
000120 95 ca de be c8 bf a2 bd 84 1e d1 be 62 03 02 c0
       -0.43513933 -0.079467356 -0.40843594 -2.0314565
000130 1e b7 65 3f 5e c4 a5 3e f6 c0 88 3d 6a f4 ee bf
       0.8973254 0.3237638 0.066774294 -1.8668339
000140 69 59 d3 3f f1 78 f2 be b8 9e 35 bd 65 7a 67 be
       1.6511661 -0.47357896 -0.04434082 -0.22605284
000150 12 73 a3 3f 9d d4 b2 3e 7c 18 a4 3f 91 30 9d 3e
       1.2769492 0.34927836 1.2819972 0.30701116
000160 65 bf 0c 3f ec 45 36 3d 74 14 59 c0 bc 4e 6e be
       0.54979545 0.044500276 -3.3918734 -0.23272222
000170 db b4 ea 3e 2e 88 48 be f4 90 58 3d 13 16 3a 3e
       0.45841107 -0.19583198 0.052872613 0.18172483
000180 a0 12 e4 3c 55 24 35 3f 10 49 c6 bc a4 12 51 bd
       0.027840912 0.70758563 -0.02420476 -0.051043168
000190 55 0c 07 be 20 69 58 c0 30 3a a1 3c 00 9c 83 ba
       -0.13188298 -3.3814163 0.019681066 -0.0010040998
0001a0 47 74 ca bc e8 7e 27 c0 3c 5d 78 bd 30 4c f6 be
       -0.024713648 -2.6171207 -0.06063579 -0.48105
0001b0 20 91 fb 3d 2c 72 92 bc 5e 84 99 bf eb 1d d4 3f
       0.1228354 -0.017876707 -1.199352 1.657163
0001c0 47 cb 24 3f b3 81 1e be b4 06 c4 3f c6 12 ad 3f
       0.64372677 -0.15479164 1.5314546 1.3521354
0001d0 ef 2b ef bc 1a 30 ad 40 cc fb dc bd d9 a9 32 c0
       -0.029195754 5.412122 -0.10790214 -2.7916167
0001e0 58 f2 13 3e ca 1d 54 bd 90 70 85 bc 49 78 11 bd
       0.14447916 -0.05178622 -0.016289026 -0.035515103
0001f0 8b 42 e4 3e 8c 71 65 c0 62 f9 30 3e 33 ae 27 bf
       0.44582018 -3.5850554 0.17282632 -0.6550018
000200 57 54 c0 bf f8 99 cc 3d 19 4d 5c 3f 21 12 11 bc
       -1.5025738 0.09990305 0.8605514 -0.00885442
000210 5d fc 06 40 80 9e aa bd 74 6c e8 3d a3 ef 3b be
       2.109153 -0.08331013 0.11348811 -0.18353133
000220 1c dd 63 bd c0 8a 48 bb a1 69 80 3f b6 f6 0b 3e
       -0.05563079 -0.003060028 1.0032235 0.13668332
000230 02 6f 92 c0 9c 41 0e be 90 96 3b bd 06 22 b6 be
       -4.5760508 -0.13892215 -0.045797884 -0.35572833
000240 3e 19 22 c0 cb d0 2b c0 b0 17 45 bc ee fc d1 3e
       -2.5327907 -2.6846187 -0.012029573 0.41013283
000250 ed dd c3 bf b6 2f fd bc 26 7e 49 c0 c5 75 11 bd
       -1.5302101 -0.03090654 -3.1483245 -0.035512704
000260 41 fa c4 3f 48 d9 00 bd 4f 8b 44 be e4 9d 41 3e
       1.5388871 -0.031457216 -0.19193767 0.18907887
000270 e7 5d 9d be de b2 ee 3d 48 80 c8 bc b8 70 2f 3d
       -0.30735704 0.1165521 -0.024475232 0.042832106
000280 18 47 71 bd e9 41 5f be 10 15 69 bd 20 c3 b7 3b
       -0.05890569 -0.21802486 -0.056904852 0.0056079775
000290 77 09 1c 3d 16 4c bf 3f 46 51 9b bd f2 94 bc 3d
       0.038094964 1.4945095 -0.07583861 0.092080966
0002a0 62 c5 1e bf c9 3d 89 3f 94 bb 6c 3d 4e 7f b2 bc
       -0.6201993 1.072198 0.057796076 -0.02178922
0002b0 60 d1 86 bc 9a 13 80 3d 94 6b 1d be 0e f6 9c bf
       -0.01645726 0.06253739 -0.15373069 -1.226259
0002c0 b8 32 8b be 51 e4 a3 be b2 8e 1c 40 d1 6c 04 40
       -0.27187133 -0.3201013 2.4462094 2.0691416
0002d0 70 74 99 3f 8d 5f 2a 40 f0 64 17 3d 75 d4 06 40
       1.1988659 2.662082 0.036961496 2.1067173
0002e0 6f 45 e8 bd 11 3f 8e 3d 24 bb 24 bd 1c ac e3 3d
       -0.113413684 0.06945623 -0.040217534 0.11116812
0002f0 76 ad 8b be ff 3d 16 3e 93 57 54 be 34 8b 7b bd
       -0.27280778 0.14672087 -0.20736532 -0.06141205

fc_2.bias f4 [3]
000000 06 72 57 bd a0 6b bc bd 56 d6 0b 3d
       -0.052598976 -0.09200215 0.034139954
