Mindset augmented trained networks (pth)/segmentation_pointnet_dsf32layers.pth (torch, 79050 bytes, 18 tensors)

base_pointnet.conv_1_a.weight f4 [64, 1, 3]
-0.4616777 0.14273623 -0.28803024 -0.12947865 -0.17096376 0.42801154 -0.177119 -0.31024185
0.24154414 0.24903837 -0.06749249 -0.102915995 0.4125164 0.27303338 -0.30995247 -0.31563893
0.40667245 -0.1824577 0.1237873 -0.045532603 -0.07435947 0.468369 0.11235853 0.4394906
0.05379015 0.00797505 -0.14610738 0.07159105 -0.04257132 -0.06262433 -0.25823358 -0.63227457
-0.16508436 -0.4828587 0.12036682 0.3681995 -0.6790914 -0.326595 -0.19636329 0.05211509
-0.19612093 0.19317567 0.2068714 0.16826391 -0.18781744 0.30299658 0.058186676 0.21754314
-0.033647362 -0.10502887 0.098844014 0.24952213 -0.5256986 0.3779249 0.12007772 -0.046909887
-0.011267955 0.5612079 0.451649 -0.13158457 0.101578735 0.1128093 0.015054572 0.3413162
0.4928541 0.4562576 0.010187516 -0.0817257 0.10375746 -0.35445434 -0.1982188 0.5952401
-0.31791738 -0.25750795 0.44394574 0.16915062 -0.23031664 -0.18098262 0.015789034 -0.14527863
0.048085146 0.18267694 0.03304191 -0.3145761 -0.010074945 -0.4310791 0.39934975 0.17195705
-0.1172147 -0.42636344 -0.42750967 -0.020570364 -0.2822993 -0.26180407 0.122607596 0.24279079
0.45820737 -0.116656296 -0.46640986 0.2928702 0.12979351 0.38797897 0.13948265 0.18208669
-0.23638327 0.007858345 0.0323916 0.008849332 0.027927304 -0.014277894 -0.13890734 -0.059713762
-0.3569534 0.35138193 -0.3248111 0.1668018 0.23610666 -0.22196087 -0.11197315 -0.19409637
0.016448196 -0.40613207 0.4166671 -0.39842382 0.3609521 -0.08445158 -0.01024295 -0.020296805
0.008712464 -0.013240347 -0.513938 -0.37372208 0.44704187 -0.17241639 0.05594283 0.3292386
0.14513147 -0.22200687 -0.11347153 0.20756766 0.32483545 -0.37800232 0.4334119 -0.02152987
0.33722928 -0.64047545 0.5297034 -0.459794 -0.22542782 -0.42340815 -0.31213927 0.21513484
-0.054309197 -0.38811454 0.3148345 0.24804787 0.25543478 0.18562856 0.23843914 0.6026862
0.39971754 -0.13629179 0.22189713 -0.37606344 -0.37965292 -0.028054446 0.04402413 -0.020605229
0.61329234 -0.06356084 -0.0005370721 -0.090507634 -0.5776783 -0.2803872 -0.015885726 -0.014290748
-0.29123855 -0.29749027 0.4318294 -0.016397463 -0.16190535 -0.15257876 0.15322512 -0.1490261
-0.35803026 0.3544421 0.043056298 -0.20426716 -0.7188673 -0.012711235 -0.07502874 0.2119432
00000000: 0561 ecbe 7229 123e b378 93be 0d96 04be
00000010: 2011 2fbe 5424 db3e af5e 35be 05d8 9ebe
00000020: 5957 773e ea03 7f3e 8139 8abd 9fc5 d2bd
00000030: 5935 d33e 08cb 8b3e 17b2 9ebe 6d9b a1be
00000040: 5f37 d03e 31d6 3abe 3284 fd3d 6580 3abd
00000050: c749 98bd 10ce ef3e 3b1c e63d e904 e13e
00000060: 0f53 5c3d c9a9 023c 2c9d 15be 549e 923d
00000070: 445f 2ebd 2f41 80bd 3137 84be bfdc 21bf
00000080: e00b 29be 4139 f7be e182 f63d a584 bc3e
00000090: efd8 2dbf 7637 a7be 7513 49be a276 553d
000000a0: edd3 48be d8cf 453e 19d6 533e 604d 2c3e
000000b0: 3753 40be 5e22 9b3e 2755 6e3d a1c3 5e3e
000000c0: d1d1 09bd 6019 d7bd bb6e ca3d bb82 7f3e
000000d0: 2f94 06bf 5f7f c13e 4feb f53d 9524 40bd
000000e0: 3b9d 38bc 52ab 0f3f 8a3e e73e 1bbe 06be
000000f0: 8308 d03d 9008 e73d 74a7 763c ffc0 ae3e
00000100: 5f57 fc3e 999a e93e 8ae9 263c ce5f a7bd
00000110: cb7e d43d 0a7b b5be def9 4abe a861 183f
00000120: 11c6 a2be 15d8 83be db4c e33e d235 2d3e
00000130: 20d8 6bbe 8253 39be 0158 813c ecc3 14be
00000140: eef4 443d aa0f 3b3e f456 073d 1e10 a1be
00000150: 6211 25bc 66b6 dcbe 9277 cc3e 8215 303e
00000160: 430e f0bd 4f4c dabe 8ce2 dabe 2e83 a8bc
00000170: 8989 90be 2f0b 86be b119 fb3d 269e 783e
00000180: 289a ea3e 7fe9 eebd 46cd eebe 15f3 953e
00000190: 97e8 043e 2ea5 c63e 8ad4 0e3e ef74 3a3e
000001a0: 750e 72be 4ac0 003c 0ead 043d cafc 103c
000001b0: cdc7 e43c d4ed 69bc ba3d 0ebe 6b96 74bd
000001c0: 99c2 b6be 55e8 b33e a44d a6be 17ce 2a3e
000001d0: f2c5 713e b649 63be 2e52 e5bd 33c1 46be
000001e0: 5ebe 863c 8bf0 cfbe 6455 d53e 35fe cbbe
000001f0: b7ce b83e f3f4 acbd 0cd2 27bc 7c45 a6bc
00000200: b9be 0e3c 0aee 58bc 7191 03bf 8058 bfbe
00000210: ace2 e43e ec8d 30be 4f24 653d f691 a83e
00000220: 589d 143e c555 63be c363 e8bd 9e8c 543e
00000230: d550 a63e 8589 c1be 2ae8 dd3e 695f b0bc
00000240: 51a9 ac3e 33f6 23bf a49a 073f 1f6a ebbe
00000250: 8dd6 66be f4c8 d8be b8d0 9fbe 4f4c 5c3e
00000260: 5273 5ebd f3b6 c6be fd31 a13e 4300 7e3e
00000270: 59c8 823e 6a15 3e3e 6429 743e a549 1a3f
00000280: c7a7 cc3e 1390 0bbe 0039 633e 638b c0be
00000290: de61 c2be 70d2 e5bc a552 343d 4ccc a8bc
000002a0: ba00 1d3f 302c 82bd 4cca 0cba 115c b9bd
000002b0: bae2 13bf e98e 8fbe c822 82bc be23 6abc
000002c0: 381d 95be a550 98be be18 dd3e f953 86bc
000002d0: 84ca 25be 9b3d 1cbe 0ce7 1c3e 4c9a 18be
000002e0: be4f b7be 6f79 b53e cd5b 303d 692b 51be
000002f0: b007 38bf c942 50bc aba8 99bd a307 593e

base_pointnet.conv_1_a.bias f4 [64]
-0.36895928 -0.4414528 0.3498766 0.44558263 -0.4872535 0.12474136 -0.053810354 -0.5129625
0.43442968 -0.44827867 0.23599997 0.43957874 -0.3553099 0.55207646 0.4921032 0.3692954
0.23486598 0.532353 0.16739848 0.092758745 0.5644803 0.06356582 0.027903186 -0.36995795
0.2860157 0.48725647 -0.44580635 -0.49118224 -0.31777862 0.55821764 0.4724146 -0.4475203
-0.03833752 0.26996273 0.14650787 -0.09742719 0.27432826 0.29850927 0.5082588 -0.31133637
-0.35163233 0.5471684 -0.5694373 0.09772077 -0.43305624 0.14381555 -0.051736318 0.5554213
0.23487407 0.14055495 0.5190075 -0.21915409 0.32640317 0.124787495 0.1968676 0.2233473
0.06727631 0.41478688 0.5319592 -0.41498265 -0.081994325 -0.27874243 -0.3711089 -0.14350246
00000000: 3be8 bcbe 1a06 e2be 0723 b33e 6823 e43e
00000010: 4a79 f9be 6678 ff3d 3f68 5cbd 8351 03bf
00000020: 916d de3e c884 e5be faa9 713e 7710 e13e
00000030: 2eeb b5be e254 0d3f f3f4 fb3e 4914 bd3e
00000040: b580 703e 4948 083f 826a 2b3e 4cf8 bd3d
00000050: c881 103f cc2e 823d 3995 e43c 216b bdbe
00000060: a670 923e ae79 f93e bb40 e4be 3d7c fbbe
00000070: e1b3 a2be 5ae7 0e3f 54e0 f13e 6121 e5be
00000080: ce07 1dbd 8e38 8a3e 2906 163e e887 c7bd
00000090: c174 8c3e 35d6 983e 401d 023f 7b67 9fbe
000000a0: 2709 b4be 3a13 0c3f a5c6 11bf d421 c83d
000000b0: 8cb9 ddbe 6244 133e 76e9 53bd 1730 0e3f
000000c0: d482 703e a3ed 0f3e addd 043f ee69 60be
000000d0: 511e a73e 9690 ff3d a997 493e 28b5 643e
000000e0: 29c8 893d f25e d43e 7a2e 083f 9b78 d4be
000000f0: a4ec a7bd 54b7 8ebe fc01 bebe 4ff2 12be

base_pointnet.conv_1_b.weight f4 [64, 1, 3]
-0.077338375 0.6006664 -0.5069886 -0.28590682 -0.76469696 -0.016252182 0.41296273 -0.6540727
-0.4445949 -0.68152106 -0.08268701 -1.0734063 0.72416425 -0.93713075 0.1867015 -0.2979523
0.568365 0.23054238 0.0698031 -0.70445055 0.525957 0.5007358 0.79518515 -0.4249212
-0.59064746 0.6650686 0.3085501 0.72694623 -0.1121518 -0.58208185 -0.2365727 0.32277107
0.24270497 0.60327524 0.68345433 0.9718496 -0.3799793 -0.28727168 0.4961641 1.0081649
-0.45094305 -1.1838251 0.62522316 0.801092 0.82882696 -0.9429351 -0.089120395 -0.9521868
0.72237587 -0.5712765 0.20901796 -0.7484895 0.097828485 -0.37182057 0.29889306 0.1363499
1.0674534 -0.54966307 0.44659343 -0.35327512 0.44250846 1.2113962 0.4980014 0.55644643
-0.40493986 -0.59313905 -0.5185811 -0.43995747 -0.5226026 -0.5080438 0.557319 0.29721493
0.32263508 0.64637667 0.39210138 0.6533367 0.11786062 0.9357461 -0.77884233 0.8223516
0.2920098 -0.9108376 -0.90725386 0.7673364 -0.059397936 -0.31863853 0.4459579 -0.21234393
0.17995256 0.83103275 -0.10137947 -0.37017748 0.21706384 0.095558606 -1.0811636 -0.05130693
0.35372055 -0.4659663 0.38853636 0.264084 -0.6672032 -0.8510502 -0.8107382 0.41466278
-0.19479191 -0.7842103 0.52899414 0.55938524 1.1873587 0.20433004 0.14267576 -0.3300389
0.24818872 -0.2310522 -0.5834533 0.34564492 -0.6408362 0.7487444 0.8193561 -0.07352044
0.053056523 0.5331614 -0.4114434 -0.2854389 -0.68713266 0.8895694 0.496968 0.66491157
-0.45909256 0.67251986 -0.2794769 -0.5853881 -0.05927572 0.9117029 -0.7755072 0.8421217
-0.7339072 0.038672455 -1.0457497 -0.5022996 0.6806909 0.8495074 0.15787059 -1.1091807
0.18571933 0.5685733 0.57749397 0.89692396 0.2524521 -0.50161004 0.48733532 0.7985724
0.27972528 0.86645705 0.16272025 0.77844036 0.34946868 0.09933613 1.1731884 0.04204798
-0.054076742 0.7263269 0.35758716 0.5791055 0.0635837 -0.113460936 -0.50131565 -0.9311964
-0.72928673 0.050211173 0.08267821 0.4229376 0.5065878 0.8432369 0.8261958 -0.6035077
-1.0043912 0.08392184 -0.8523022 -0.86586857 0.7463603 0.38967302 -0.01520726 -0.5974181
0.3803276 1.2238806 -0.7100589 -0.278921 0.17292568 -0.6642549 -0.74301445 -0.08452831
00000000: 9563 9ebd 46c5 193f 01ca 01bf 6162 92be
00000010: 2ec3 43bf 4c23 85bc da6f d33e 4f71 27bf
00000020: f1a1 e3be 2a78 2ebf cf57 a9bd 6165 89bf
00000030: d462 393f cde7 6fbf ae2e 3f3e 348d 98be
00000040: 5e80 113f 4d13 6c3e edf4 8e3d df56 34bf
00000050: 1ea5 063f 3930 003f 4191 4b3f 468f d9be
00000060: ac34 17bf f041 2a3f 47fa 9d3e 2619 3a3f
00000070: d8af e5bd 5103 15bf 1d40 72be 4042 a53e
00000080: a787 783e 3f70 1a3f ddf6 2e3f 23cb 783f
00000090: a68c c2be 4615 93be 3909 fe3e 8c0b 813f
000000a0: 02e2 e6be 9587 97bf a00e 203f 5e14 4d3f
000000b0: 012e 543f 3264 71bf c184 b6bd 84c2 73bf
000000c0: a0ed 383f 2d3f 12bf ce08 563e 029d 3fbf
000000d0: 4d5a c83d 445f bebe 8308 993e 4f9f 0b3e
000000e0: 50a2 883f b8b6 0cbf e5a7 e43e 7ae0 b4be
000000f0: 7890 e23e 080f 9b3f 0afa fe3e 4673 0e3f
00000100: 4754 cfbe f6d7 17bf bbc1 04bf 1b42 e1be
00000110: 49c9 05bf 290f 02bf 75ac 0e3f 8e2c 983e
00000120: 6d30 a53e f178 253f 83c1 c83e 1341 273f
00000130: e960 f13d 0e8d 6f3f 3662 47bf a285 523f
00000140: 4f82 953e a72c 69bf ca41 68bf 2970 443f
00000150: 404b 73bd 9724 a3be 9854 e43e b070 59be
00000160: 7c45 383e 90be 543f 0aa0 cfbd e787 bdbe
00000170: fc45 5e3e 3bb4 c33d 9263 8abf 3727 52bd
00000180: dc1a b53e 2393 eebe 3dee c63e 0536 873e
00000190: d4cd 2abf 6dde 59bf 8a8c 4fbf ae4e d43e
000001a0: 8877 47be 02c2 48bf 296c 073f df33 0f3f
000001b0: 5ffb 973f e53b 513e 9819 123e dcfa a8be
000001c0: 2f25 7e3e f398 6cbe 325d 15bf 5ff8 b03e
000001d0: d70d 24bf b7ad 3f3f 52c1 513f e291 96bd
000001e0: cc51 593d 447d 083f b6a8 d2be 0c25 92be
000001f0: ede7 2fbf d2ba 633f 9772 fe3e a537 2a3f
00000200: 2e0e ebbe 432a 2c3f 9917 8fbe ffdb 15bf
00000210: 19cb 72bd 5c65 693f a487 46bf 4a95 573f
00000220: 58e1 3bbf 0267 1e3d 20db 85bf b596 00bf
00000230: c241 2e3f 5179 593f d4a8 213e a2f9 8dbf
00000240: 352d 3e3e 058e 113f a5d6 133f cf9c 653f
00000250: 6741 813e 8469 00bf 0484 f93e 3e6f 4c3f
00000260: 2738 8f3e 21d0 5d3f 23a0 263e de47 473f
00000270: 8fed b23e be70 cb3d 0a2b 963f 813a 2c3d
00000280: 937f 5dbd 8ff0 393f aa15 b73e 4240 143f
00000290: 2c38 823d 355e e8bd 3956 00bf e362 6ebf
000002a0: 89b2 3abf 3baa 4d3d 3253 a93d 478b d83e
000002b0: bdaf 013f 60de 573f 9181 533f 7b7f 1abf
000002c0: e48f 80bf 37df ab3d 7a30 5abf 90a9 5dbf
000002d0: 7811 3f3f 3983 c73e df27 79bc 65f0 18bf
000002e0: 4dba c23e 1fa8 9c3f 6cc6 35bf bcce 8ebe
000002f0: 6e13 313e 9c0c 2abf 3236 3ebf 2e1d adbd

base_pointnet.conv_1_b.bias f4 [64]
-0.53101206 0.13233313 0.5435658 0.26896518 -0.3643386 0.41823637 0.40638483 -0.12647454
-0.4782197 0.114234336 0.1596963 0.42562842 -0.24503891 0.34651542 0.105671324 -0.21585853
0.45832023 0.5339807 0.18263514 0.01692169 0.3921475 0.32253903 0.48767513 0.23066242
-0.14910334 0.2013844 -0.28191558 -0.45199051 0.14619821 -0.5601716 -0.43666154 -0.36511144
-0.055304248 0.005369071 -0.43845963 0.02322611 0.47059372 0.5052186 0.32000917 0.071393475
0.31583133 -0.32850742 -0.4030887 -0.27161318 0.31490314 0.5408294 -0.38089922 -0.0098998435
0.25319988 0.044496473 0.52803046 -0.03612292 0.17860149 0.5574636 -0.41863105 -0.53437304
-0.06092468 -0.18958752 0.58256656 -0.1036341 -0.39980242 -0.50934356 -0.25045335 0.43904847
00000000: 68f0 07bf 5682 073e 2127 0b3f ceb5 893e
00000010: 978a babe 1423 d63e ac11 d03e 8b82 01be
00000020: 36d9 f4be b1f3 e93d 6d87 233e f8eb d93e
00000030: 7beb 7abe 786a b13e 356a d83d 050a 5dbe
00000040: f3a8 ea3e f6b2 083f b504 3b3e 5b9f 8a3c
00000050: 8fc7 c83e d623 a53e 8eb0 f93e c532 6c3e
00000060: 8cae 18be b637 4e3e 3d57 90be 4d6b e7be
00000070: fcb4 153e 6867 0fbf 1a92 dfbe e3ef babe
00000080: b586 62bd 08ef af3b c87d e0be af44 be3c
00000090: a9f1 f03e 0256 013f 3ed8 a33e be36 923d
000000a0: a5b4 a13e 2032 a8be a461 cebe e210 8bbe
000000b0: fc3a a13e cc73 0a3f 3905 c3be f432 22bc
000000c0: 6aa3 813e ef41 363d 012d 073f a1f5 13bd
000000d0: 4fe3 363e efb5 0e3f cf56 d6be accc 08bf
000000e0: 288c 79bd 3b23 42be 1523 153f 1d3e d4bd
000000f0: e7b2 ccbe 5764 02bf 6c3b 80be f6ca e03e

base_pointnet.conv_2.weight f4 [64, 64, 3]
0.06958012 -0.11904777 0.03216633 0.07180774 -0.03812114 0.008899013 0.11608936 0.114185676
0.027208526 -0.23944329 -0.09853406 -0.061614692 0.10384846 -0.062006567 0.026634574 -0.09933899
0.018853225 0.05112083 0.06296224 0.001682667 -0.09762226 -0.05352093 -0.028883874 -0.11643807
0.0136409225 -0.059824977 0.12567729 -0.12164063 0.10543689 -0.09558258 0.014135597 -0.01765726
0.044242892 0.0150722675 0.0718589 -0.056441784 0.03262956 -0.07305947 0.010889484 0.22608246
0.078035824 -0.17858414 -0.005183905 0.09104269 0.2490622 0.14429438 -0.12952022 -0.029272523
-0.39187366 -0.21179177 -0.08538696 -0.193094 0.050754994 0.042299397 0.001453071 0.037437126
0.12861913 -0.13562915 0.05506997 -0.030511232 -0.043818947 0.039038453 -0.09135103 0.024844175
-0.00375449 0.0324746 0.18405528 0.14557542 0.04716879 0.017058175 0.01683958 0.15595922
-0.36297804 -0.16206326 -0.11071749 0.09736886 0.016312342 0.0780494 -0.117655784 0.069265
0.010927374 -0.03387844 -0.09925096 -0.15491973 0.16771807 0.064588256 0.047817327 -0.061252296
0.09216522 -0.045798868 -0.10535282 -0.16585879 0.0004888259 0.13067314 -0.040990204 0.0123940045
0.07363484 0.010388645 -0.035205346 -0.033604782 0.054127764 -0.05287832 0.08305277 0.011680387
-0.09466604 -0.015894923 -0.09970625 -0.12985109 0.13630626 -0.14203139 -0.0071873674 0.04656949
0.15874659 0.043060623 0.020586597 0.01068201 0.023791462 0.0681369 -0.03738369 0.0098075
0.063003354 0.069054574 0.042258326 -0.13128057 -0.10081239 -0.38385954 0.050415933 0.2217765
0.025263537 0.051237263 0.023516918 0.1046955 0.011011766 -0.056795076 -0.08893863 -0.021242384
0.027796457 -0.078845665 0.06937961 0.05722721 -0.0067224125 -0.34900558 0.009690918 -0.053727992
0.038249772 -0.074295476 -0.020518227 0.050586388 0.047623593 0.014159318 0.23989122 0.38858604
0.16707651 -0.036042206 0.058002338 0.036587585 0.026970383 -0.12607248 -0.1048177 0.010791793
0.094053246 0.011090261 -0.09057741 0.021743527 0.13258442 0.028173111 0.031991635 -0.02704261
0.0687798 -0.10139239 0.051000167 0.061352257 0.028916406 0.061641768 -0.015406598 -0.1602683
0.055031188 0.20495386 0.007847199 -0.11169273 -0.23106915 -0.13317339 -0.2447677 -0.14144772
-0.2189324 -0.0046794172 0.059634186 0.03138262 0.093784586 0.003675926 -0.010368553 -0.0014992337
0.071213506 0.0056520062 0.045067642 0.041720524 -0.048827432 0.015843188 0.009375217 -0.11525232
-0.053003155 0.014599682 -0.16574787 -0.012315546 -0.023453876 -0.0072769825 1.7620016e-05 0.14338079
-0.09346291 0.068614855 0.16704173 -0.089854494 -0.031151708 0.014808696 -0.062429246 -0.10612332
0.003969089 -0.03354415 -0.052285705 -0.010788094 0.025715273 0.037435994 0.06292814 0.0016486906
0.03914223 0.129506 -0.050997473 -0.030134378 0.10944539 0.044395324 -0.0069453195 0.11738464
-0.17682809 -0.020038165 0.07463322 0.023216417 0.056327138 0.003201186 -0.072839856 -0.050031878
-0.017166229 -0.064862534 -0.16096185 0.20150594 0.087020926 -0.09989244 0.011995306 -0.026310893
0.06572503 0.100726 -0.004996576 0.095288396 -0.0018287688 0.059622668 0.02797836 0.027137859
00000000: 0680 8e3d 51cf f3bd d7c0 033d f00f 933d
00000010: ea24 1cbd 2acd 113c 42c0 ed3d 2eda e93d
00000020: 6ae4 de3c 9f30 75be 3acc c9bd b05f 7cbd
00000030: 80ae d43d 99fa 7dbd c030 da3c 3e72 cbbd
00000040: 1472 9a3c 1364 513d 59f2 803d ef8c dc3a
00000050: 2eee c7bd c338 5bbd e09d ecbc 1577 eebd
00000060: 2d7e 5f3c 090b 75bd 8cb1 003e b91e f9bd
00000070: 4cef d73d cdc0 c3bd fe98 673c f5a5 90bc
00000080: 0938 353d acf1 763c c22a 933d 802f 67bd
00000090: 93a6 053d 34a0 95bd ce69 323c 2982 673e
000000a0: 3fd1 9f3d c3de 36be bfdd a9bb 9774 ba3d
000000b0: 290a 7f3e e8c1 133e f3a0 04be eecc efbc
000000c0: aaa3 c8be f1df 58be 5cdf aebd 6fba 45be
000000d0: 78e4 4f3d 2242 2d3d f974 be3a ac57 193d
000000e0: bcb4 033e 5ee2 0abe 0d91 613d b1f2 f9bc
000000f0: 7f7b 33bd c9e6 1f3d 4016 bbbd 0386 cb3c
00000100: e40d 76bb 1604 053d fd78 3c3e b911 153e
00000110: 1034 413d 96bd 8b3c 29f3 893c c6b3 1f3e
00000120: 42d8 b9be e9f3 25be dabf e2bd 5369 c73d
00000130: 76a1 853c 5dd8 9f3d 84f5 f0bd cfda 8d3d
00000140: ba08 333c 1ec4 0abd 1644 cbbd 47a3 1ebe
00000150: 49be 2b3e d946 843d 1adc 433d b0e3 7abd
00000160: 1ec1 bc3d 9897 3bbd 38c3 d7bd e3d6 29be
00000170: 8d24 003a 2ecf 053e 58e5 27bd 3910 4b3c
00000180: ddcd 963d 2335 2a3c 7b33 10bd 2ba5 09bd
00000190: 13b5 5d3d f096 58bd 9217 aa3d 185f 3f3c
000001a0: 45e0 c1bd 1236 82bc ca32 ccbd aff7 04be
000001b0: de93 0b3e ad70 11be 0284 ebbb a6bf 3e3d
000001c0: 778e 223e 5660 303d 39a5 a83c 9903 2f3c
000001d0: 50e6 c23c 5c8b 8b3d a41f 19bd a3af 203c
000001e0: e707 813d 7c6c 8d3d 1117 2d3d 6a6e 06be
000001f0: ba76 cebd 3d89 c4be f080 4e3d 6119 633e
00000200: 7af5 ce3c 2ade 513d 8da6 c03c 986a d63d
00000210: b26a 343c f4a1 68bd 7525 b6bd 8204 aebc
00000220: 65b5 e33c d679 a1bd e616 8e3d 1467 6a3d
00000230: af47 dcbb dcb0 b2be a8c6 1e3c e211 5cbd
00000240: cbab 1c3d 3a28 98bd d715 a8bc ac33 4f3d
00000250: f510 433d 7cfc 673c 0ba6 753e c0f4 c63e
00000260: 1b16 2b3e fea0 13bd dc93 6d3d dddc 153d
00000270: fef0 dc3c 2519 01be aaaa d6bd 10d0 303c
00000280: fd9e c03d edb3 353c a680 b9bd 7b1f b23c
00000290: 36c4 073e 4ccb e63c a909 033d 7788 ddbc
000002a0: 6cdc 8c3d d0a6 cfbd 8de5 503d 814c 7b3d
000002b0: 19e2 ec3c 147c 7c3d f56b 7cbc 601d 24be
000002c0: 6268 613d 6ddf 513e 8a91 003c 28bf e4bd
000002d0: 649d 6cbe 9b5e 08be 62a4 7abe acd7 10be
000002e0: d12f 60be cc55 99bb fa42 743d 108b 003d
000002f0: 2212 c03d cee7 703b dde0 29bc ef81 c4ba
00000300: 63d8 913d 7734 b93b d998 383d 24e3 2a3d
00000310: 46ff 47bd 93c9 813c 839a 193c 6909 ecbd
00000320: d619 59bd 8133 6f3c cfb9 29be 25c7 49bc
00000330: 5822 c0bc c173 eebb b2ce 9337 6ad2 123e
00000340: 7b69 bfbd f285 8c3d fd0c 2b3e a205 b8bd
00000350: de31 ffbc 2ca0 723c cfb5 7fbd 2f57 d9bd
00000360: 220f 823b 9765 09bd 8929 56bd 8cc0 30bc
00000370: d6a8 d23c 7c56 193d 78e0 803d e018 d83a
00000380: 9a53 203d 399d 043e bae2 50bd 5fdc f6bc
00000390: e824 e03d dfd7 353d 9095 e3bb 5c67 f03d
000003a0: 6c12 35be 1427 a4bc 4dd9 983d 5b30 be3c
000003b0: 49b7 663d fdca 513b 102d 95bd 3aee 4cbd
000003c0: 31a0 8cbc a6d6 84bd 2fd3 24be 9357 4e3e
000003d0: 0738 b23d 6894 ccbd f687 443c f189 d7bc
000003e0: d89a 863d 6f49 ce3d 51ba a3bb 9026 c33d
000003f0: 4cb3 efba e636 743d e032 e53c 3750 de3c

base_pointnet.conv_2.bias f4 [64]
0.01126651 0.05348791 0.07934465 0.018728811 -0.033872288 -0.060512815 -0.013449022 0.01183684
-0.034027178 -0.038144674 0.0108672315 -0.07474146 -0.01483835 -0.0041912706 0.0073921285 0.015420265
0.031354416 -0.024498986 0.016240263 0.017333606 -0.04692509 -0.0009323086 -0.008962014 0.0088029485
0.04123508 -0.037204213 0.005944353 -0.032126557 0.0063273287 -0.00725741 0.08294851 -0.03709754
0.042566333 0.03380065 -0.073867105 -0.050031167 0.0718452 -0.07479241 -0.0049488135 0.054077946
0.058655333 0.051411416 -0.09606845 0.013065834 -0.040110078 0.057546046 -0.15779355 0.067753635
0.023629012 -0.011253685 0.066641204 -0.0662581 -0.023668272 -0.04777939 0.026478758 -0.050198622
0.006304913 0.028304117 -0.040076446 0.0020787187 0.030427935 -0.052300803 -0.047465652 0.073054776
00000000: 2b97 383c 2416 5b3d 737f a23d 2a6d 993c
00000010: abbd 0abd 49dc 77bd 4959 5cbc 4eef 413c
00000020: 1560 0bbd 973d 1cbd 790c 323c 0d12 99bd
00000030: 8d1c 73bc ed56 89bb ab39 f23b 47a5 7c3c
00000040: 7d6d 003d 19b2 c8bc 4d0a 853c 35ff 8d3c
00000050: 8634 40bd 2c66 74ba 69d5 12bc 3e3a 103c
00000060: 1ee6 283d 7263 18bd d9c8 c23b 2397 03bd
00000070: 7b55 cf3b 91cf edbb e9e0 a93d 97f3 17bd
00000080: 095a 2e3d 8d72 0a3d a347 97bd 7bed 4cbd
00000090: 9423 933d c32c 99bd a829 a2bb d680 5d3d
000000a0: 9340 703d c794 523d 89bf c4bd 1412 563c
000000b0: 774a 24bd 67b5 6b3d a294 21be 6bc2 8a3d
000000c0: a191 c13c 6061 38bc 2f7b 883d 54b2 87bd
000000d0: f7e3 c1bc 52b4 43bd fbe9 d83c 129d 4dbd
000000e0: 7299 ce3b 09de e73c 3327 24bd 1d3b 083b
000000f0: 0144 f93c 5e39 56bd 586b 42bd be9d 953d

base_pointnet.bn_1.weight f4 [64]
0.7582933 1.064448 0.6912729 1.0826468 0.7117717 1.1327982 1.0900723 0.510441
1.0416572 0.99782383 0.70725346 1.1601198 0.79956543 1.1128031 0.8017314 0.6174808
1.3101552 1.1138569 0.8738143 0.5837314 0.5999583 0.6311217 1.3124397 1.0732172
1.1615711 1.028162 0.78570086 1.0571042 1.3768384 0.8546215 0.7289722 1.2710841
0.9532935 0.6574283 0.9014917 0.9060113 1.1254534 1.2340276 1.2379068 0.5903612
1.0966604 1.1348648 1.1148152 0.5917161 0.73679024 0.67360413 0.79472715 1.2953336
0.7879227 0.68240863 1.3129613 0.9359831 0.41467336 0.62686604 0.69342077 0.9712447
0.6496371 0.68370926 0.87524855 1.0910461 1.0236694 1.1608742 0.77381366 0.9705343
00000000: 821f 423f d53f 883f 43f7 303f 2c94 8a3f
00000010: ac36 363f 88ff 903f 7d87 8b3f 43ac 023f
00000020: 0655 853f 6271 7f3f 900e 353f ce7e 943f
00000030: 52b0 4c3f 5570 8e3f 453e 4d3f 3913 1e3f
00000040: 2ab3 a73f dd92 8e3f 4bb2 5f3f 6c6f 153f
00000050: de96 193f 3191 213f 06fe a73f 2e5f 893f
00000060: 5dae 943f d09a 833f b123 493f 314f 873f
00000070: 3e3c b03f 7ac8 5a3f ec9d 3a3f e2b2 a23f
00000080: 0b0b 743f 394d 283f 29c8 663f 5bf0 673f
00000090: db0e 903f 9ef4 9d3f bb73 9e3f e921 173f
000000a0: 5e5f 8c3f 4043 913f 44b2 8e3f b57a 173f
000000b0: 499e 3c3f 5271 2c3f 3d73 4b3f 7ecd a53f
000000c0: 4db5 493f 55b2 2e3f 1e0f a83f 979c 6f3f
000000d0: 1150 d43e 4b7a 203f 0684 313f 7ea3 783f
000000e0: 9e4e 263f 9207 2f3f 4a10 603f 66a7 8b3f
000000f0: 9907 833f 8797 943f a718 463f f074 783f

base_pointnet.bn_1.bias f4 [64]
-0.28522754 0.35972032 0.14021622 -0.17156343 -0.39858764 -0.13304451 0.018829959 -0.09278886
-0.40068355 -0.35724357 -0.24750538 0.38784674 -0.42311314 -0.14072186 -0.2639772 -0.056546323
-0.25996777 0.06107817 -0.2401844 -0.08178418 -0.057008684 -0.0019747699 -0.42061284 0.5934072
-0.2626883 -0.110692374 -0.04756825 -0.49519977 -0.23845115 -0.29483062 -0.40048984 0.1865496
-0.34011048 -0.4052231 -0.19730736 -0.18534316 -0.37598136 -0.24973735 0.29490355 -0.10705616
-0.06582925 -0.38838026 0.12083229 -0.015925935 -0.21681257 -0.0345596 -0.2758319 -0.22219093
-0.0059533757 -0.004243799 -0.55326235 0.050997272 -0.07630104 -0.49070838 -0.14085428 0.0958408
-0.35817984 0.13067423 -0.20123343 0.086314455 -0.23413962 -0.0004906206 -0.18793036 -0.03881063
00000000: 5809 92be 432d b83e d794 0f3e 53ae 2fbe
00000010: ae13 ccbe d23c 08be 4941 9a3c 1608 bebd
00000020: 6526 cdbe a1e8 b6be 0d72 7dbe d993 c63e
00000030: 49a2 d8be 6419 10be 0528 87be 1e9d 67bd
00000040: 7f1a 85be 1a2d 7a3d e6f2 75be 777e a7bd
00000050: f081 69bd 246b 01bb 915a d7be 89e9 173f
00000060: 157f 86be afb2 e2bd edd6 42bd d38a fdbe
00000070: 8a2c 74be 0af4 96be 010d cdbe dc06 3f3e
00000080: f622 aebe 6779 cfbe f10a 4abe 99ca 3dbe
00000090: a180 c0be 26bb 7fbe 99fd 963e 4340 dbbd
000000a0: 7cd1 86bd c7d9 c6be eb76 f73d 1b77 82bc
000000b0: 1d04 5ebe 5e8e 0dbd d739 8dbe 0586 63be
000000c0: 8914 c3bb 910f 8bbb 9aa2 0dbf 84e2 503d
000000d0: b843 9cbd 213e fbbe 1b3c 10be 2e48 c43d
000000e0: 5963 b7be 77cf 053e 2310 4ebe a2c5 b03d
000000f0: 4cc2 6fbe fe9c 00ba d170 40be e5f7 1ebd

base_pointnet.bn_1.running_mean f4 [64]
-21.726187 1.8643776 -8.979684 -0.09357385 12.161649 -1.5340242 0.2795425 36.05445
-2.1093237 -1.3889267 -35.328667 5.331709 -42.322742 1.3094137 11.544126 16.206207
-0.05289655 2.4222555 5.399006 29.711971 12.96406 43.87294 -1.334139 1.7987454
-1.9284991 -4.266513 -2.9144595 -6.2024565 -1.5834453 -11.074046 -25.542957 0.6039448
-3.7000601 25.635103 1.6471876 2.2515335 -0.5426442 -2.2188957 1.7584076 -15.507261
1.0954076 -4.0595403 -0.34572944 -31.45561 11.418115 9.788979 12.242476 1.5809008
10.686183 -36.65467 -1.1719127 9.247531 26.97927 32.001457 -16.559866 -3.4174416
17.692743 -29.003244 -11.386912 0.3390781 -3.9506142 -4.225167 -32.291363 1.5451616
00000000: 3bcf adc1 eda3 ee3f c9ac 0fc1 a6a3 bfbd
00000010: 1d96 4241 e85a c4bf 3220 8f3e c237 1042
00000020: 29ff 06c0 5ac8 b1bf 8e50 0dc2 5c9d aa40
00000030: 7d4a 29c2 de9a a73f bdb4 3841 50a6 8141
00000040: 0eaa 58bd 3c06 1b40 a8c4 ac40 1eb2 ed41
00000050: ca6c 4f41 e47d 2f42 11c5 aabf 4a3d e63f
00000060: 0fd9 f6bf 4687 88c0 8186 3ac0 867a c6c0
00000070: 56ae cabf 4b2f 31c1 fa57 ccc1 209c 1a3f
00000080: c9cd 6cc0 b114 cd41 0bd7 d23f 2019 1040
00000090: bbea 0abf 6302 0ec0 8013 e13f be1d 78c1
000000a0: 5136 8c3f c1e7 81c0 7303 b1be 17a5 fbc1
000000b0: 99b0 3641 a89f 1c41 2fe1 4341 f55a ca3f
000000c0: 9bfa 2a41 629e 12c2 3c01 96bf e3f5 1341
000000d0: 8cd5 d741 7e01 0042 9b7a 84c1 5db7 5ac0
000000e0: bd8a 8d41 a506 e8c1 cb30 36c1 a59b ad3e
000000f0: ddd6 7cc0 9134 87c0 5b2a 01c2 dbc7 c53f

base_pointnet.bn_1.running_var f4 [64]
139.64595 50.209946 55.84314 23.040253 112.34073 46.09601 5.655043 362.47992
7.1710277 4.4695377 376.47083 105.34411 491.20618 15.2344885 50.23348 87.408295
5.155841 69.40187 10.293965 299.80804 39.387074 529.4507 5.862579 121.22478
85.57344 34.242897 6.3997207 39.293495 60.137882 80.87964 182.47417 34.55182
108.138054 192.29135 24.338371 2.7540777 8.621303 46.08196 43.64564 73.06526
55.305164 51.51562 1.6402183 299.40103 68.09916 59.85455 77.32246 55.608593
138.50073 371.56534 29.028591 91.864494 178.64392 315.5015 136.99313 5.623689
135.65793 281.6109 54.377136 48.07807 20.162601 63.92622 344.2565 13.219302
00000000: 5da5 0b43 fcd6 4842 605f 5f42 7052 b841
00000010: 74ae e042 5062 3842 1df6 b440 6e3d b543
00000020: 0f79 e540 7406 8f40 443c bc43 2fb0 d242
00000030: 649a f543 77c0 7341 15ef 4842 0cd1 ae42
00000040: a6fc a440 c2cd 8a42 15b4 2441 6ee7 9543
00000050: 5d8c 1d42 d85c 0444 3f9a bb40 1673 f242
00000060: 9a25 ab42 baf8 0842 83ca cc40 8a2c 1d42
00000070: 318d 7042 60c2 a142 6379 3643 1035 0a42
00000080: af46 d842 964a 4043 fcb4 c241 cf42 3040
00000090: dbf0 0941 ed53 3842 2395 2e42 6a21 9242
000000a0: 7d38 5d42 ff0f 4e42 acf2 d13f 55b3 9543
000000b0: c532 8842 0f6b 6f42 19a5 9a42 336f 5e42
000000c0: 3080 0a43 5dc8 b943 8e3a e841 9fba b742
000000d0: d8a4 3243 31c0 9d43 3efe 0843 43f5 b340
000000e0: 6ea8 0743 32ce 8c43 3082 5942 f24f 4042
000000f0: 024d a141 73b4 7f42 d520 ac43 4382 5341

base_pointnet.bn_2.weight f4 [64]
1.5914102 1.4061743 1.2656695 1.3778503 1.1050984 1.1058557 1.25839 1.3624204
1.051947 1.3217001 1.3826896 1.1949879 1.1662848 1.2022004 1.2926446 1.108039
1.166171 1.163278 1.0384873 1.161464 1.2558558 1.4302269 1.2757717 1.1327279
1.1665922 1.1439384 1.5304012 1.1254212 1.0678022 1.4115905 1.5020704 0.98170257
1.199835 1.1659815 1.0339767 1.0709081 1.0553759 1.3705395 1.1944636 1.3052227
1.173776 1.1799705 1.5646101 1.1638757 1.396464 1.0322386 1.2855837 1.2747008
1.0901575 1.3830924 1.1893274 1.1098166 1.1731268 1.1363691 1.2509385 1.3381114
1.0294122 1.1405435 1.2885485 1.384134 1.1283034 1.2092042 1.2408161 1.1782916
00000000: 54b3 cb3f 85fd b33f 7501 a23f 665d b03f
00000010: dd73 8d3f ae8c 8d3f ec12 a13f cb63 ae3f
00000020: 33a6 863f 782d a93f f9fb b03f 5df5 983f
00000030: d248 953f b4e1 993f 6175 a53f 39d4 8d3f
00000040: 1745 953f 4be6 943f 27ed 843f daaa 943f
00000050: e2bf a03f ad11 b73f 7d4c a33f 3afd 903f
00000060: e552 953f 936c 923f 30e4 c33f cd0d 903f
00000070: bead 883f ffae b43f d843 c03f dc50 7b3f
00000080: 3194 993f e23e 953f 5959 843f 8413 893f
00000090: 8f16 873f d76d af3f 2fe4 983f 8a11 a73f
000000a0: 4b3e 963f 4609 973f 2545 c83f e1f9 943f
000000b0: 55bf b23f 6520 843f 028e a43f 6529 a33f
000000c0: 488a 8b3f 2c09 b13f e13b 983f 780e 8e3f
000000d0: 0529 963f 8b74 913f c11e a03f 3c47 ab3f
000000e0: c7c3 833f 54fd 913f 28ef a43f 4e2b b13f
000000f0: 3f6c 903f 34c7 9a3f 10d3 9e3f 42d2 963f

base_pointnet.bn_2.bias f4 [64]
-0.004648582 0.0410008 -0.00799987 -0.018984938 0.02342053 -0.18421152 -0.12543783 -0.003907469
0.036111932 -0.09635995 -0.07209227 -0.10298218 -0.0046294215 -0.06219722 -0.007882484 0.015836524
0.027269451 0.043429796 -0.028034262 0.056009706 -0.083080545 -0.19947807 0.03942393 0.055617586
0.07185719 -0.04830568 -0.06986806 0.07099887 0.005381182 0.054184582 -0.025976432 -0.07845101
0.033424202 0.010792146 -0.028743122 0.06014594 0.018761871 0.06952762 -0.12561898 0.07018683
0.052942272 -0.20931578 -0.07424133 0.0077945874 -0.122887604 0.027581234 0.05064349 0.014007496
0.06455556 -0.14721198 -0.103657916 -0.015776211 -0.09701407 0.009618058 -0.20159046 0.020855134
-0.07570942 -0.091537304 -0.11636923 0.035561748 0.13521269 -0.10137042 -0.10621452 0.086802095
00000000: 2253 98bb 74f0 273d e311 03bc 4d86 9bbc
00000010: 69dc bf3c f2a1 3cbe c672 00be 3a0a 80bb
00000020: 1bea 133d 5e58 c5bd 1da5 93bd 52e8 d2bd
00000030: 67b2 97bb 83c2 7ebd 8925 01bc 99bb 813c
00000040: 2f64 df3c 71e3 313d 1ca8 e5bc 6f6a 653d
00000050: 2226 aabd fb43 4cbe fd7a 213d 44cf 633d
00000060: dd29 933d 2ddc 45bd fc16 8fbd db67 913d
00000070: a054 b03b a7f0 5d3d 87cc d4bc ecaa a0bd
00000080: d1e7 083d 8bd1 303c b276 ebbc 975b 763d
00000090: 7fb2 993c 7f64 8e3d 43a2 00be 1dbe 8f3d
000000a0: ffd9 583d e056 56be d70b 98bd bd69 ff3b
000000b0: 7fac fbbd 0af2 e13c 8c6f 4f3d b27f 653c
000000c0: b535 843d bdbe 16be 9a4a d4bd 1d3d 81bc
000000d0: 50af c6bd 0f95 1d3c bb6d 4ebe 63d8 aa3c
000000e0: 8a0d 9bbd e977 bbbd fe52 eebd 32a9 113d
000000f0: 3275 0a3e 4b9b cfbd 0087 d9bd 4cc5 b13d

base_pointnet.bn_2.running_mean f4 [64]
0.13864537 0.12540367 -0.44050643 0.087060206 0.47961327 0.20261572 -0.5286718 -0.24588007
-0.21715663 -1.3838006 0.33896342 -0.5803324 -0.5260971 -0.20336628 0.110056624 0.43631834
-0.24103436 -0.6902424 0.76769316 -1.4971958 0.03313968 0.31304532 -0.12558128 -1.0992243
-0.19626565 0.21527252 -0.26948902 0.26086593 -0.36928484 0.047942337 -0.82185465 -0.66679287
-1.4418224 0.8256012 0.19435619 -2.5986843 -0.23789361 -0.5013094 -0.21855524 -0.047402743
0.88512874 -0.053725775 -0.07459529 0.27610865 -0.1441482 0.23164532 -0.9518419 0.22925967
0.05169287 0.22876586 0.386309 -0.52943164 1.183615 -0.18609752 0.08318452 -0.3546136
0.6269419 0.65919554 0.22556731 -1.3060614 0.60909384 -0.6935185 0.3379742 0.6246669
00000000: 0df9 0d3e d269 003e 0f8a e1be 9f4c b23d
00000010: df8f f53e 7f7a 4f3e 0957 07bf fcc7 7bbe
00000020: 4f5e 5ebe 6120 b1bf 9d8c ad3e aa90 14bf
00000030: 4dae 06bf 403f 50be 5e65 e13d 1e65 df3e
00000040: b6d1 76be bab3 30bf 8a87 443f 1da4 bfbf
00000050: 79bd 073d 7a47 a03e 6198 00be 62b3 8cbf
00000060: ddf9 48be 6670 5c3e 77fa 89be 3890 853e
00000070: e712 bdbe 2f5f 443d 1165 52bf f0b2 2abf
00000080: a38d b8bf 9a5a 533f 4f05 473e d850 26c0
00000090: 629a 73be d055 00bf f2cc 5fbe 6129 42bd
000000a0: cc97 623f 8f0f 5cbd 6ac5 98bd 1d5e 8d3e
000000b0: 969b 13be 6e34 6d3e e9ab 73bf 0cc3 6a3e
000000c0: e7bb 533d 9941 6a3e 4bca c53e d588 07bf
000000d0: b280 973f 5990 3ebe a55c aa3d ea8f b5be
000000e0: 447f 203f 0ac1 283f 1efb 663e 052d a7bf
000000f0: 93ed 1b3f 6e8a 31bf f40a ad3e 2cea 1f3f

base_pointnet.bn_2.running_var f4 [64]
0.14762603 0.04645797 0.16440226 0.04092524 0.27671513 0.15030698 0.11724368 0.07669426
0.2539999 0.061197136 0.18278453 0.11779897 0.115109645 0.054710295 0.09324599 0.24536602
0.19873545 0.086255625 0.2758118 0.41247094 0.08664725 0.056271017 0.045296088 0.30284798
0.1488584 0.08265619 0.0638017 0.17279905 0.108993456 0.029981937 0.16004668 0.97499126
0.20765902 0.18314734 0.19577833 2.8924139 0.3048759 0.11323807 0.11192528 0.102474235
0.18835537 0.060552575 0.029740341 0.23522091 0.09306234 0.7581503 0.1339368 0.055188634
0.1007888 0.05029826 0.33143216 0.08685058 0.3449812 0.058713995 0.12781012 0.109765515
0.28283486 0.088024355 0.03326198 0.037406888 0.082673565 0.09406397 0.105015755 0.19094943
00000000: 472b 173e b64a 3e3d 1159 283e 39a1 273d
00000010: 9bad 8d3e 13ea 193e 741d f03d e111 9d3d
00000020: 460c 823e d9a9 7a3d de2b 3b3e 9640 f13d
00000030: 9bbe eb3d e717 603d c1f7 be3d 3b41 7b3e
00000040: 4e81 4b3e caa6 b03d 3437 8d3e 642f d33e
00000050: 1d74 b13d 707c 663d 6488 393d e40e 9b3e
00000060: 566e 183e a647 a93d 77aa 823d 3cf2 303e
00000070: f637 df3d ae9c f53c 47e3 233e 0799 793f
00000080: 91a4 543e fa8a 3b3e 1d7a 483e 4f1d 3940
00000090: b218 9c3e 5ce9 e73d 1539 e53d 03de d13d
000000a0: 3be0 403e fa05 783d 04a2 f33c c0dd 703e
000000b0: 7897 be3d 2316 423f ba26 093e 7a0d 623d
000000c0: 5c6a ce3d 8c05 4e3d 7ab1 a93e b8de b13d
000000d0: 60a1 b03e 167e 703d a8e0 023e becc e03d
000000e0: bbcf 903e 1d46 b43d b73d 083d f737 193d
000000f0: c250 a93d 9ca4 c03d 8012 d73d 3f88 433e

fc_1.weight f4 [64, 66]
0.1610367 0.008360918 -0.1724163 -0.22706711 -0.103628226 -0.030530715 -0.054449514 0.035677876
0.21148898 0.16618027 -0.022542452 -0.28144696 -0.14868355 -0.10177893 0.19206487 -0.103257835
0.043628998 0.12056393 -0.1395141 0.007753401 -0.12075633 -0.21457869 -0.00318678 -0.047306683
-0.2602315 -0.14546187 0.115432315 0.08266151 0.094871186 0.050736915 0.14578268 -0.012356879
-0.042540915 0.109795235 -0.07366949 0.014014492 -0.019995555 -0.18802768 0.0020447979 0.2187279
0.114808604 -0.110644475 0.056402992 0.042365197 0.09607394 -0.10133297 0.06464419 0.030135112
-0.00077029626 -0.045040406 0.02900708 0.25526357 0.04161839 0.12285328 0.006692844 -0.12942894
-0.0791742 -0.26079878 -0.083561584 0.0023027174 0.18514027 -0.09078607 0.078542024 -0.122703455
0.015908863 -0.003977033 0.11996792 0.367474 0.15381895 0.052947342 0.034541834 0.067297935
-0.18201205 -0.04821966 -0.064994656 -0.057377443 0.17767699 0.0676829 0.050493203 -0.095565654
0.034734514 -0.21861781 -0.09155436 0.19546077 -0.20741078 -0.023993181 -0.1923891 -0.057251483
-0.040402114 0.2684079 -0.17601052 -0.14966892 -0.06640898 0.13123977 -0.007024886 -0.03531651
0.10413454 0.04145762 0.026512714 0.02140647 0.007879231 0.005773005 -0.061175756 -0.14397718
-0.0351658 -0.04557843 0.016796546 -0.046838455 0.15886861 0.013864456 -0.07828232 -0.1208147
0.05590781 0.11503842 0.05344288 0.07346653 -0.07435198 -0.10556691 -0.015452669 0.108672075
0.07673469 -0.057264846 0.08891074 -0.096900925 -0.08870784 -0.007156545 0.14439102 0.08299302
0.11038996 -0.120702974 -0.002488092 -0.05568247 -0.14247985 0.0003085462 -0.027223043 -0.13899773
-0.038339134 -0.06649111 -0.0098912055 -0.10081426 0.0034151964 0.05233783 -0.120179474 -0.1026575
-0.00030557602 -0.0035770054 0.05486668 -0.13128254 -0.09298533 -0.098720044 0.029654624 -0.09491869
0.09576382 -0.124310374 0.08309806 0.064790726 -0.0026787433 0.0571729 -0.0504948 -0.0024562643
0.05397051 0.0842216 -0.016546598 -0.13220073 -0.062089413 0.07790525 0.11039526 -0.070567235
-0.061807897 -0.026965007 -0.03358094 -0.037329357 0.005778859 0.019047696 0.011220005 -0.00121895
0.063366614 -0.092560746 -0.040364444 -0.016318101 -0.07862026 -0.03172549 -0.08873179 0.046685953
0.018579582 -0.030209742 0.014687834 0.0030108127 -0.10489449 0.05803086 0.09342114 -0.10408709
0.038841743 -0.1075989 0.017355924 0.014605041 -0.06626628 -0.009583396 -0.05539306 0.09217057
-0.059147112 -0.12027464 0.07309294 -0.061168414 0.048874453 -0.07036145 -0.06178297 0.03930488
-0.014805918 -0.13832664 -0.11252033 -0.032968376 0.058545228 -0.056982137 0.0032888202 -0.03066013
0.09719314 -0.1380346 -0.07104277 -0.021606516 0.011315693 0.04138476 -0.085379735 -0.012918032
-0.06666561 0.06457507 0.015567343 -0.092609964 -0.06745912 -0.1326668 -0.0170918 0.04355102
0.07250765 -0.11757353 -0.10069833 -0.13429077 -0.0863681 0.007132898 -0.029941348 0.058227107
0.04824247 0.06344576 -0.009717545 0.05702779 -0.04038101 -0.13990109 -0.023003902 0.073099405
-0.009451036 -0.10708413 0.0351444 -0.017323928 -0.06710585 -0.09501453 -0.023508402 -0.01287076
00000000: cee6 243e 3bfc 083c e68d 30be 4884 68be
00000010: 093b d4bd 8d1b fabc 7406 5fbd f722 123d
00000020: 9190 583e 292b 2a3e f3aa b8bc d119 90be
00000030: 8040 18be 7971 d0bd a7ac 443e d878 d3bd
00000040: 52b4 323d 39ea f63d c9dc 0ebe 3e10 fe3b
00000050: 184f f7bd 84ba 5bbe 4cd9 50bb a7c4 41bd
00000060: 103d 85be f5f3 14be c767 ec3d 704a a93d
00000070: d34b c23d 83d1 4f3d 0e48 153e 8274 4abc
00000080: 623f 2ebd 53dc e03d 08e0 96bd 0a9d 653c
00000090: b8cd a3bc 548a 40be 0402 063b 35fa 5f3e
000000a0: c620 eb3d 9299 e2bd d306 673d 2187 2d3d
000000b0: 6ac2 c43d a987 cfbd 2c64 843d e9dd f63c
000000c0: b5ed 49ba 4a7c 38bd 41a0 ed3c e8b1 823e
000000d0: 0b78 2a3d 809a fb3d a54f db3b 0589 04be
000000e0: 1526 a2bd 6b87 85be 5622 abbd 30e9 163b
000000f0: 6995 3d3e 0cee b9bd a4da a03d f34b fbbd
00000100: 4e53 823c c551 82bb beb1 f53d 8d25 bc3e
00000110: b782 1d3e 50df 583d bd7b 0d3d 80d3 893d
00000120: 5e61 3abe fa81 45bd eb1b 85bd 9c04 6bbd
00000130: f5f0 353e 559d 8a3d f6d1 4e3d edb7 c3bd
00000140: c745 0e3d 59dd 5fbe da80 bbbd de26 483e
00000150: 7e63 54be 598d c4bc a601 45be 8880 6abd
00000160: b07c 25bd c36c 893e 1a3c 34be cf42 19be
00000170: 6e01 88bd b863 063e 0431 e6bb 0ba8 10bd
00000180: 7d44 d53d 77cf 293d 3131 d93c 9f5c af3c
00000190: e417 013c 7a2b bd3b 6e93 7abd c16e 13be
000001a0: 040a 10bd 73b0 3abd e998 893c aed9 3fbd
000001b0: 74ae 223e be27 633c 7b52 a0bd b36d f7bd
000001c0: 96ff 643d 4399 eb3d ece6 5a3d 9f75 963d
000001d0: da45 98bd 7733 d8bd 312d 7dbc 778f de3d
000001e0: 1427 9d3d 8b8e 6abd d616 b63d fe73 c6bd
000001f0: 75ac b5bd 7381 eabb 3ddb 133e 3ff8 a93d
00000200: 2214 e23d 1f33 f7bd 420f 23bb 4d13 64bd
00000210: 3de6 11be 5fc4 a139 dc02 dfbc 6c55 0ebe
00000220: 7f09 1dbd 7e2c 88bd b90e 22bc b577 cebd
00000230: 7dd1 5f3b 3160 563d a820 f6bd 183e d2bd
00000240: b835 a0b9 316c 6abb e2bb 603d ee6e 06be
00000250: 186f bebd bc2d cabd 41ee f23c bb64 c2bd
00000260: d21f c43d 7096 febd 512f aa3d 00b1 843d
00000270: db8d 2fbb 212e 6a3d a3d3 4ebd 47f9 20bb
00000280: 2e10 5d3d 607c ac3d bb8c 87bc a15f 07be
00000290: 7851 7ebd ca8c 9f3d e916 e23d 8e85 90bd
000002a0: 472a 7dbd b8e5 dcbc 2b8c 09bd abe6 18bd
000002b0: 955c bd3b ea09 9c3c 1dd4 373c 2dc5 9fba
000002c0: 5bc6 813d 7d90 bdbd 3055 25bd 8aad 85bc
000002d0: a903 a1bd 96f2 01bd 03b9 b5bd c539 3f3d
000002e0: 3534 983c 6c7a f7bc 3ea5 703c 0e51 453b
000002f0: ecd2 d6bd c4b1 6d3d 9553 bf3d 9d2b d5bd
00000300: 8518 1f3d d05c dcbd 032e 8e3c fb49 6f3c
00000310: 9eb6 87bd ad03 1dbc d5e3 62bd ecc3 bc3d
00000320: 3e44 72bd 8d52 f6bd c0b1 953d bb8b 7abd
00000330: 9430 483d aa19 90bd 2410 7dbd 27fe 203d
00000340: 8594 72bc 80a5 0dbe 0f71 e6bd d909 07bd
00000350: 1fcd 6f3d 1a66 69bd 3f89 573b f42a fbbc
00000360: 320d c73d f158 0dbe df7e 91bd 2600 b1bc
00000370: 7565 393c 1183 293d 92db aebd 27a6 53bc
00000380: fb87 88bd ef3f 843d 2b0e 7f3c 4baa bdbd
00000390: 0228 8abd ced9 07be 1a04 8cbc 8e62 323d
000003a0: e47e 943d 64ca f0bd ed3a cebd 8583 09be
000003b0: c2e1 b0bd 16bb e93b 8f47 f5bc 8c7f 6e3d
000003c0: e599 453d daef 813d 5636 1fbc f995 693d
000003d0: 8f66 25bd 3b42 0fbe ae72 bcbc 24b5 953d
000003e0: 85d8 1abc ed4e dbbd 93f3 0f3d e9ea 8dbc
000003f0: cb6e 89bd fa96 c2bd b194 c0bc e1df 52bc

fc_1.bias f4 [64]
-0.115535244 0.061002742 -0.055244025 -0.06475048 0.1667572 -0.17346328 -0.08018761 0.04840492
0.025321392 0.013874074 0.07537141 -0.044211835 -0.024323871 -0.12751617 0.13433841 0.11229009
-0.07992166 -0.07989884 0.00068573985 0.13628943 0.09193476 0.01919854 0.09375737 0.21739164
0.070877664 0.04084485 0.23676707 0.04390755 -0.11466706 0.008869312 -0.057251886 -0.084379174
0.09088626 -0.13549127 0.07888095 0.14718592 -0.08027901 -0.085565925 0.08892642 -0.09324861
0.03241161 -0.015795048 0.034731757 0.1383576 0.07682036 -0.075259484 -0.0900431 0.05339193
0.084925786 0.065876395 0.12619592 0.11888286 -0.16322416 0.07215642 0.07563303 0.27238643
0.04964477 -0.00420015 0.0707326 0.034028456 0.056223717 -0.03731711 -0.20475253 0.020665228
00000000: be9d ecbd 03de 793d 8f47 62bd e69b 84bd
00000010: 66c2 2a3e 5ca0 31be 6739 a4bd 3d44 463d
00000020: cf6e cf3c 1650 633c 535c 9a3d 7817 35bd
00000030: db42 c7bc 9993 02be 0290 093e 59f8 e53d
00000040: f8ad a3bd 01a2 a3bd 39c3 333a 758f 0b3e
00000050: 4b48 bc3d 4246 9d3c dd03 c03d ea9b 5e3e
00000060: 4f28 913d ee4c 273d 1173 723e 67d8 333d
00000070: 90d6 eabd 9750 113c f480 6abd fdce acbd
00000080: 9322 ba3d 39be 0abe 568c a13d e8b7 163e
00000090: 5269 a4bd 303d afbd 0e1f b63d 21f9 bebd
000000a0: 09c2 043d 9e64 81bc e342 0e3d 9dad 0d3e
000000b0: fe53 9d3d a521 9abd 8468 b8bd 7fb1 5a3d
000000c0: 92ed ad3d 34ea 863d 8139 013e db78 f33d
000000d0: 3c24 27be bfc6 933d 7de5 9a3d 3c76 8b3e
000000e0: 5058 4b3d 69a1 89bb 41dc 903d 6c61 0b3d
000000f0: d74a 663d d3d9 18bd a6aa 51be 204a a93c

fc_2.weight f4 [4, 64]
0.047306996 0.2541088 -0.043630596 -0.04065689 -0.5683109 0.7332336 -5.194347 0.9155519
-0.04835712 0.5195848 0.025499849 -0.10766811 0.034432124 0.034771804 -0.23445797 -0.96939105
0.039725125 -1.2263912 0.4902213 -0.15605122 -0.4038459 0.7090326 0.13020921 -1.1302325
-0.0042879255 0.04929672 0.5875947 -0.016111434 1.6740357 0.022457957 1.132446 -0.08038407
1.5016788 -0.09301045 0.743807 -3.0149302 1.6077127 -0.02061289 -0.91279787 -0.046154913
0.7331709 0.5364247 2.0463393 -0.14486037 0.20066679 0.04430938 -0.017858442 -0.13629377
1.820713 0.6585302 -0.31344593 0.10970037 0.031559266 0.0640136 -1.457349 0.21401131
0.09427977 0.46133012 -0.16690162 0.52723026 -0.05564542 -0.8903638 -1.6402948 0.032155413
0.4261244 -0.0007662153 0.10256417 -0.03279006 0.37353042 -1.4055088 5.213224 0.7154673
-0.0055156266 -1.6013517 -0.0913218 0.07742795 -0.08728577 0.02797482 0.12626216 -0.99117035
0.08717206 0.23682955 0.70966953 0.009584223 0.0043936907 -0.16341174 -0.07171718 2.5111027
-0.065901674 -0.057624817 -0.13427845 0.04850392 -0.36247817 -0.1592419 -3.0129974 -0.020732135
0.27669784 -0.05520521 -0.2076254 1.6329497 -1.8448441 -0.08278489 0.8938916 -0.10102322
-3.311443 0.32950243 -1.7843972 0.1725603 -0.04302923 0.04919691 0.11841102 -0.027232217
-1.3080544 0.43532112 0.30014485 0.21087947 -0.43357217 -0.1130688 -0.048571903 0.7181311
0.044276588 -0.033755407 0.09332994 0.4868479 -0.0032986545 -0.6880691 -1.2628807 -0.011339033
-0.23120898 -0.017537272 0.06317242 -0.122155935 -0.22998278 0.34487578 0.33097494 0.6401243
0.023836413 0.14350154 0.14471531 0.04539707 0.019941946 -0.064943634 0.22994222 -0.83426654
0.0018845885 0.5006488 0.54029775 -0.1347504 0.3254964 -0.40896738 0.0034395794 -0.48655325
0.08983372 -0.12146264 -2.057223 0.09248036 -1.5658702 -0.109517165 1.9859121 0.050001957
-2.6301255 0.074166596 -3.8995774 1.2576926 0.37285513 0.10789919 0.21799387 -0.0192162
1.5398465 0.3525634 -0.13253309 0.26197296 -0.058092188 -0.019167364 0.1049172 0.189276
1.7867012 -0.34544078 0.40435627 -0.18665633 0.14910075 -0.11208839 1.0727303 -6.636826
0.03822501 -0.38745025 0.002140408 0.42296866 -0.02328101 2.2035077 -0.94408983 0.071049884
-0.035877954 -0.1667603 0.11739583 0.11785479 0.48234373 -0.34663558 1.2388144 -8.000889
-0.08086848 1.6594775 0.09230372 -0.051258694 0.0288461 0.06008932 -0.054315608 1.7749794
-0.099638075 0.5460359 -1.136252 0.053610362 0.111918174 -0.13626307 -0.015588145 2.1518462
-0.03851936 0.08773187 0.44967583 0.046618924 0.7840504 0.2258921 -0.38818905 0.044503342
-0.336375 -0.118537635 1.0113198 0.91445094 -0.16241139 -0.08941464 0.047286805 -0.0211867
1.6673058 -0.8448479 -0.87208235 -0.19050646 0.118605904 0.104817584 0.08393693 0.11388939
-1.418517 -0.7457912 -0.10388415 -0.09079164 0.24447623 0.016773818 0.17876305 0.67277974
0.024312623 -0.23190898 -0.22621651 -1.5451221 -0.01879782 0.080910265 2.2042613 -0.06715891
00000000: fbc4 413d 8c1a 823e ffb5 32bd d787 26bd
00000010: d37c 11bf 32b5 3b3f 1738 a6c0 9c61 6a3f
00000020: 1e12 46bd 8203 053f 0fe5 d03c 1981 dcbd
00000030: b308 0d3d e16c 0e3d c015 70be 032a 78bf
00000040: d0b6 223d 63fa 9cbf 49fe fa3e e4cb 1fbe
00000050: e4c4 cebe 2983 353f 9055 053e 75ab 90bf
00000060: ba81 8cbb 5ceb 493d 9b6c 163f 20fc 83bc
00000070: cd46 d63f c0f9 b73c fef3 903f 67a0 a4bd
00000080: 0337 c03f 437c bebd 236a 3e3f 9ef4 40c0
00000090: 88c9 cd3f 5ddc a8bc 1fad 69bf ef0c 3dbd
000000a0: 17b1 3b3f 2153 093f 39f7 0240 4756 14be
000000b0: 987b 4d3e c17d 353d de4b 92bc 9890 0bbe
000000c0: 200d e93f 6f95 283f fc7b a0be 96aa e03d
000000d0: 4a44 013d 9019 833d 698a babf c825 5b3e
000000e0: c115 c13d 7633 ec3e 42e8 2abe 90f8 063f
000000f0: 74ec 63bd e2ee 63bf 2ef5 d1bf 65b5 033d
00000100: fa2c da3e d7db 48ba 2a0d d23d df4e 06bd
00000110: 613f bf3e b6e7 b3bf bbd2 a640 dd28 373f
00000120: 6ebc b4bb 18f9 ccbf ed06 bbbd 8c92 9e3d
00000130: e2c2 b2bd 732b e53c de4a 013e 57bd 7dbf
00000140: 4487 b23d 7283 723e e7ac 353f 2507 1d3c
00000150: f3f8 8f3b 6855 27be 75e0 92bd e8b5 2040
00000160: 75f7 86bd 0008 6cbd 4a80 09be 0cac 463d
00000170: bd96 b9be 4f10 23be f3d4 40c0 70d6 a9bc
00000180: 57ab 8d3e dc1e 62bd c19b 54be 7f04 d13f
00000190: da23 ecbf 208b a9bd 14d6 643f 43e5 cebd
000001a0: afee 53c0 8bb4 a83e 2167 e4bf a6b3 303e
000001b0: 6b3f 30bd b382 493d 7a81 f23d 1916 dfbc
000001c0: 546e a7bf 69e2 de3e 96ac 993e caf0 573e
000001d0: 2cfd ddbe 9d90 e7bd 55f3 46bd 71d7 373f
000001e0: 5e5b 353d 1c43 0abd c523 bf3d 2144 f93e
000001f0: 3d2e 58bb 4c25 30bf 13a6 a1bf 5ac7 39bc
00000200: 0cc2 6cbe 53aa 8fbc 8b60 813d e42c fabd
00000210: 9b80 6bbe 8f93 b03e 8c75 a93e 30df 233f
00000220: 9544 c33c 11f2 123e 4030 143e 47f2 393d
00000230: 4b5d a33c 2b01 85bd f975 6b3e 7e92 55bf
00000240: 4c04 f73a 852a 003f f450 0a3f 02fc 09be
00000250: 77a7 a63e 2c64 d1be 916a 613b 821d f9be
00000260: befa b73d 68c1 f8bd 8ba9 03c0 5866 bd3d
00000270: 6f6e c8bf 894a e0bd 5e32 fe3f dace 4c3d
00000280: fa53 28c0 a8e4 973d ad92 79c0 12fc a03f
00000290: dee6 be3e 40fa dc3d c939 5f3e 4b6b 9dbc
000002a0: b119 c53f 3183 b43e c1b6 07be 5221 863e
000002b0: 13f2 6dbd e004 9dbc d4de d63d 91d1 413e
000002c0: a0b2 e43f 9ddd b0be c907 cf3e d622 3fbe
000002d0: dead 183e 998e e5bd 3a4f 893f e160 d4c0
000002e0: d491 1c3d e15f c6be 1646 0c3b 598f d83e
000002f0: d1b7 bebc 4506 0d40 dfaf 71bf 9a82 913d
00000300: c3f4 12bd 36c3 2abe 3a6d f03d da5d f13d
00000310: c2f5 f63e 387a b1be 7891 9e3f a403 00c1
00000320: 609e a5bd c269 d43f bc09 bd3d a3f4 51bd
00000330: a84e ec3c 3820 763d 0b7a 5ebd 8632 e33f
00000340: 0c0f ccbd 02c9 0b3f b570 91bf 8a96 5b3d
00000350: 5b35 e53d 8c88 0bbe 6b65 7fbc d9b7 0940
00000360: 7ac6 1dbd c4ac b33d e93b e63e 7cf3 3e3d
00000370: 87b7 483f 4250 673e b7c0 c6be 2349 363d
00000380: 5839 acbe dcc3 f2bd ed72 813f 7519 6a3f
00000390: 2c4f 26be 061f b7bd cfaf 413d bb8f adbc
000003a0: 476a d53f f447 58bf ca40 5fbf 2014 43be
000003b0: a7e7 f23d 9aaa d63d 20e7 ab3d d73e e93d
000003c0: f791 b5bf 2cec 3ebf 37c1 d4bd f8f0 b9bd
000003d0: fa57 7a3e 3f69 893c a90d 373e 4b3b 2c3f
000003e0: 442b c73c 8c79 6dbe 4da5 67be 90c6 c5bf
000003f0: e3fd 99bc 48b4 a53d 9e12 0d40 9c8a 89bd

fc_2.bias f4 [4]
0.013359466 -0.007924861 0.1070996 0.14818789
00000000: a9e1 5a3c 47d7 01bc 0957 db3d 91be 173e
