Mindset augmented trained networks (pth)/segmentation_pointnet_fmeanp.pth (torch, 78930 bytes, 18 tensors)

base_pointnet.conv_1_a.weight f4 [64, 1, 3]
0.50983495 -0.0017726367 -0.24025579 -0.5773478 -0.37202045 -0.25740457 -0.42851308 0.23691608
0.35689113 -0.14003529 -0.012858577 0.23268627 -0.0936938 -0.066511706 -0.4788112 0.11745442
-0.49581605 0.32550618 -0.37524137 0.17945215 0.41578442 -0.120842025 0.016874412 0.14595017
-0.21033715 -0.10267888 0.43045026 0.13957822 -0.52923363 0.3242424 0.4315869 -0.2554375
-0.12940277 0.5831629 0.1162306 -0.26931444 0.38410506 -0.4345611 -0.25120363 0.114923514
-0.52792954 0.5085514 -0.029107738 -0.5417409 -0.579803 0.21162136 0.47587126 -0.334101
-0.34449407 0.3159934 0.036374588 0.31428045 0.41791376 0.41380095 0.09715682 -0.021711767
-0.18254057 0.46639922 0.47835907 -0.06732367 -0.26284817 0.2751561 -0.00045618284 -0.17397082
0.16803814 -0.042865608 -0.48712686 0.024021387 -0.35855758 -0.10480548 -0.03765316 -0.16808003
-0.54104745 -0.010583294 -0.3116878 -0.053444136 -0.026563182 -0.14021611 -0.28323114 -0.05873941
0.21728183 0.33093646 -0.39796215 -0.037285745 0.27823982 0.06432347 -0.4561785 0.17347667
-0.3676068 0.17802604 0.21314049 0.02470734 -0.23183252 0.41825992 -0.34931722 -0.46711466
-0.13279012 0.07473225 0.082045175 -0.4313212 -0.09973184 -0.27570328 -0.20462175 0.29412863
-0.49473774 -0.12111585 0.0077993795 0.11374545 0.15612803 -0.13416377 0.058180634 0.20755452
-0.24949098 0.22178443 0.19745128 0.30195552 -0.14464185 -0.37821087 -0.44330096 0.5616488
0.22672208 -0.14403985 0.031932827 -0.053831305 0.0021749674 -0.027958669 0.19644208 -0.36325955
0.3830143 -0.16352436 0.29454294 0.47099733 0.1560127 0.32191488 -0.23838279 -0.033416323
0.0059327306 0.39736763 -0.0029108988 -0.1721737 -0.3426748 0.5113029 0.20286557 -0.3187855
0.16542064 -0.025622278 0.011952451 0.37020835 -0.11161012 -0.39797375 0.13623632 -0.13748765
-0.23049088 0.027361456 -0.030086279 -0.028663445 0.31872976 -0.4522276 0.35100618 0.08179757
-0.40136164 0.40369877 -0.45090944 -0.12166331 0.50248486 -0.044518564 0.0073548355 0.30736074
-0.051940404 0.042098947 -0.0040155654 0.464469 -0.031534165 0.030227378 -0.32167873 0.52208805
-0.41915056 0.35796988 0.030902296 -0.524853 -0.23700847 -0.487886 0.3352039 0.3037596
-0.16917598 -0.16892833 0.2504247 0.011962522 -0.4757336 -0.38171536 0.28980562 0.18337323
00000000: 8b84 023f d157 e8ba 9d05 76be 11cd 13bf
00000010: 7779 bebe 88ca 83be 1166 dbbe 219a 723e
00000020: 6fba b63e 6965 0fbe c8ac 52bc 4f45 6e3e
00000030: 89e2 bfbd 4a37 88bd be26 f5be f18b f03d
00000040: 9adb fdbe bfa8 a63e a31f c0be 4ec2 373e
00000050: b2e1 d43e 067c f7bd 353c 8a3c f673 153e
00000060: 9f62 57be 4e49 d2bd fa63 dc3e 98ed 0e3e
00000070: db7b 07bf 1a03 a63e f5f8 dc3e b4c8 82be
00000080: 2982 04be 2a4a 153f 4f0a ee3d 95e3 89be
00000090: 6ba9 c43e cb7e debe c39d 80be 055d eb3d
000000a0: 6426 07bf 6d30 023f 5a73 eebc 88af 0abf
000000b0: f86d 14bf 45b3 583e 66a5 f33e 490f abbe
000000c0: 8761 b0be e3c9 a13e 85fd 143d 5ee9 a03e
000000d0: cbf8 d53e b8dd d33e 28fa c63d e0dc b1bc
000000e0: eaeb 3abe e1cb ee3e 7beb f43e fee0 89bd
000000f0: 0994 86be 43e1 8c3e d32b efb9 6825 32be
00000100: 3112 2c3e d993 2fbd b168 f9be 80c8 c43c
00000110: dc94 b7be 41a4 d6bd 333a 1abd 2c1d 2cbe
00000120: 1682 0abf 8d65 2dbc 8b95 9fbe 3de8 5abd
00000130: 089b d9bc d094 0fbe ac03 91be bc98 70bd
00000140: 217f 5e3e 8170 a93e b2c1 cbbe f0b8 18bd
00000150: 7375 8e3e 06bc 833d 3a90 e9be dea3 313e
00000160: f536 bcbe 754c 363e 8041 5a3e 0c67 ca3c
00000170: 8165 6dbe 2a26 d63e b5d9 b2be a729 efbe
00000180: 22fa 07be 390d 993d 4d07 a83d 22d6 dcbe
00000190: 3540 ccbd fb28 8dbe 5d88 51be 0798 963e
000001a0: 444e fdbe 960b f8bd f091 ff3b 60f3 e83d
000001b0: 07e0 1f3e 3a62 09be d14e 6e3d 2c89 543e
000001c0: 907a 7fbe 751b 633e ab30 4a3e ea99 9a3e
000001d0: fe1c 14be dba4 c1be 58f8 e2be 37c8 0f3f
000001e0: d529 683e 2f7f 13be ffcb 023d 377e 5cbd
000001f0: e689 0e3b 9409 e5bc 1d28 493e 28fd b9be
00000200: 731a c43e ee72 27be 55ce 963e 9026 f13e
00000210: cbc1 1f3e 07d2 a43e 9e1a 74be 8edf 08bd
00000220: 5a67 c23b c573 cb3e c7c4 3ebb 4d4e 30be
00000230: 1273 afbe bfe4 023f febb 4f3e da37 a3be
00000240: 0764 293e d0e5 d1bc 37d4 433c f38b bd3e
00000250: d993 e4bd 37c3 cbbe 8981 0b3e 90c9 0cbe
00000260: cd05 6cbe 2225 e03c 8077 f6bc 9acf eabc
00000270: 8c30 a33e 608a e7be 15b7 b33e 7c85 a73d
00000280: 467f cdbe 9bb1 ce3e 9add e6be 9d2a f9bd
00000290: d9a2 003f 1959 36bd d500 f13b 635e 9d3e
000002a0: 76bf 54bd f26f 2c3d 0195 83bb e1ce ed3e
000002b0: f829 01bd 689f f73c 13b3 a4be 90a7 053f
000002c0: e79a d6be d447 b73e d026 fd3c c45c 06bf
000002d0: 59b2 72be 32cc f9be d89f ab3e 6186 9b3e
000002e0: 783c 2dbe 8cfb 2cbe ab37 803e 74fe 433c
000002f0: 5b93 f3be 3270 c3be 6761 943e 31c6 3b3e

base_pointnet.conv_1_a.bias f4 [64]
0.17264557 -0.28458712 0.036208212 0.08859889 -0.075234994 -0.20012818 -0.21050572 -0.13028978
0.30842268 -0.2057126 -0.038440052 -0.32838184 -0.16204314 -0.007904893 -0.1359208 0.50592357
-0.08462014 0.18475464 0.30024835 0.4707674 -0.08701765 0.33694088 0.22966655 0.23619899
-0.5390278 0.20521356 0.45448732 -0.19015335 0.38499373 0.31143942 0.52043647 0.072930545
-0.36715367 -0.16180138 -0.14623962 -0.5714389 0.1240898 0.52648526 -0.23977157 0.3420036
0.28088596 0.42964047 0.36110076 -0.34879404 0.19449686 -0.21174477 0.23754388 -0.14010462
0.4238681 -0.018015232 -0.35292166 0.35497493 0.13502093 -0.22599828 -0.012625315 -0.2650718
-0.43794993 -0.26584232 0.004239972 -0.022036748 0.2682168 -0.3498439 -0.36369655 -0.39835697
00000000: 00ca 303e 67b5 91be 104f 143d 5673 b53d
00000010: ce14 9abd 67ee 4cbe d08e 57be af6a 05be
00000020: 94e9 9d3e 53a6 52be 5173 1dbd aa21 a8be
00000030: a3ee 25be 8683 01bc d22e 0bbe 3584 013f
00000040: 534d adbd 5230 3d3e 27ba 993e 6d08 f13e
00000050: 4f36 b2bd 8483 ac3e b52d 6b3e 26de 713e
00000060: bafd 09bf 8123 523e 90b2 e83e 8fb7 42be
00000070: e61d c53e fd74 9f3e 533b 053f 9c5c 953d
00000080: 91fb bbbe 43af 25be d7bf 15be d249 12bf
00000090: cb22 fe3d bdc7 063f ae86 75be 191b af3e
000000a0: 49d0 8f3e d6f9 db3e 33e2 b83e 2295 b2be
000000b0: 2f2a 473e 9fd3 58be b43e 733e 9677 0fbe
000000c0: 3d05 d93e ae94 93bc 26b2 b4be 46bf b53e
000000d0: ed42 0a3e 186c 67be 69da 4ebc 7eb7 87be
000000e0: f93a e0be 7c1c 88be 77ef 8a3b 6986 b4bc
000000f0: b653 893e bd1e b3be 6f36 babe 72f5 cbbe

base_pointnet.conv_1_b.weight f4 [64, 1, 3]
-0.6056388 -0.6386786 -0.39502895 0.47574297 -0.1572645 -0.3294708 -0.12667191 -0.67720354
-0.24601196 0.57751864 0.14551447 -0.7120018 0.95122457 -0.04593004 0.3371318 -0.03040675
-0.46980703 0.4401828 -0.3002698 -0.22719751 -0.8731849 -0.24388315 0.80091894 -0.1471401
0.13467765 0.66212475 0.5616091 0.4759137 0.62471277 -0.36025828 0.48653382 0.59295624
0.073318094 0.110301115 -0.4669594 -0.084455654 0.7278284 0.1488334 -0.515122 -0.0334246
0.3547178 0.37989804 0.04728408 0.13063747 0.6805656 -0.5718681 -0.024788389 0.08652417
-0.17712824 -0.31041795 -1.2905679 -0.5282544 0.31864238 0.26808575 -1.0666621 -0.05763185
0.44928592 0.50157416 -0.22306609 -0.23692393 0.60020554 0.15563707 -0.067914605 -0.050545376
-0.41284618 0.69588375 -0.6176196 0.15948842 -0.6307988 0.44314262 0.39225993 0.71912354
-0.062382106 0.0982157 0.13608313 -0.64945644 -0.95369184 -0.4423947 -0.43914926 0.1402628
0.76250225 0.39013863 0.43565327 0.41576526 0.3963992 0.7071296 0.42137745 0.3255717
-0.8209548 0.6165992 -0.015235832 0.37192062 1.0547683 -0.037171394 0.42862877 -0.7067992
-0.17007217 -0.15504691 -0.73391265 -0.74807847 -0.6213478 -0.47317472 0.3477481 0.63104737
0.1359717 0.32997614 0.14954247 0.5988043 -0.08264254 -0.40765035 0.823298 0.792214
0.3818259 -0.12649673 0.47191396 -0.0024886988 -0.2342911 -0.17356336 -0.3831043 0.24248557
0.059286263 -0.17938049 -0.19711757 -1.1121573 0.3228636 0.21004495 0.751315 -0.30387068
0.09307597 0.08535751 0.24512887 -0.037502483 0.8072481 -0.18756747 -0.51705956 0.10811634
-0.360144 -0.7086762 0.6259168 -0.23698103 -0.21559796 0.13120556 0.6408869 -0.38484466
-0.7706882 -0.6967905 -0.2501601 -0.5847678 0.24615316 0.5848277 0.6206054 0.5522395
1.0124406 0.28226966 0.28257617 0.5432812 -0.47146156 -0.38365257 0.28733885 -0.8015276
-0.4714827 0.29096594 0.4129234 -0.5048293 -0.5453805 -0.49121085 0.4883382 0.7787684
-0.42227936 0.5749484 0.11639519 -0.30215585 -0.030590419 0.080041364 -0.2967404 0.5945951
-0.32210708 0.9781681 -0.23751037 -0.01380635 0.17386729 -0.026452279 0.49221784 0.043138027
-0.13815029 1.1655812 -0.9216927 -0.13649283 -0.3204614 -0.49361986 -0.051089585 0.65897876
00000000: 250b 1bbf 7180 23bf 3c41 cabe 9594 f33e
00000010: f209 21be 66b0 a8be 48b6 01be 365d 2dbf
00000020: 8fea 7bbe 43d8 133f bf01 153e c045 36bf
00000030: 7483 733f 2321 3cbd 8a9c ac3e 9417 f9bc
00000040: 8c8a f0be a45f e13e f7bc 99be 77a6 68be
00000050: 0c89 5fbf 81bc 79be 0609 4d3f e5ab 16be
00000060: f0e8 093e 0281 293f 9dc5 0f3f f6aa f33e
00000070: 2ded 1f3f c673 b8be f61a f93e fbcb 173f
00000080: cc27 963d 8de5 e13d 4d15 efbe 16f7 acbd
00000090: f652 3a3f c867 183e 09df 03bf 3ce8 08bd
000000a0: 929d b53e ff81 c23e f4ac 413d d4c5 053e
000000b0: 8c39 2e3f f365 12bf 0511 cbbc 9633 b13d
000000c0: 1b61 35be 1aef 9ebe 5431 a5bf ae3b 07bf
000000d0: 1825 a33e 8942 893e 6288 88bf 600f 6cbd
000000e0: ce08 e63e 2a67 003f 706b 64be 309c 72be
000000f0: 12a7 193f 535f 1f3e d016 8bbd ab08 4fbd
00000100: 9360 d3be 7025 323f 511c 1ebf ef50 233e
00000110: 087c 21bf 97e3 e23e 4bd6 c83e 7b18 383f
00000120: 6184 7fbd 5025 c93d 6059 0b3e c742 26bf
00000130: 2625 74bf 8f81 e2be 2cd8 e0be 0da1 0f3e
00000140: 5933 433f 40c0 c73e f20d df3e 2fdf d43e
00000150: d6f4 ca3e 7206 353f c9be d73e 55b1 a63e
00000160: 182a 52bf 72d9 1d3f b69f 79bc 616c be3e
00000170: a602 873f 0841 18bd 3b75 db3e cbf0 34bf
00000180: 6627 2ebe 9ec4 1ebe b3e1 3bbf 1282 3fbf
00000190: a610 1fbf f543 f2be 0a0c b23e 528c 213f
000001a0: 2a3c 0b3e a2f2 a83e a921 193e 3d4b 193f
000001b0: 7e40 a9bd 8cb7 d0be a8c3 523f 89ce 4a3f
000001c0: af7e c33e 5c88 01be b59e f13e 7019 23bb
000001d0: 02ea 6fbe 98ba 31be 3f26 c4be 234e 783e
000001e0: 27d6 723d 85af 37be 30d9 49be 2c5b 8ebf
000001f0: 614e a53e 0616 573e 2e56 403f f094 9bbe
00000200: 9d9e be3d ebcf ae3d 1003 7b3e 349c 19bd
00000210: d0a7 4e3f b011 40be 045e 04bf 1a6c dd3d
00000220: cb64 b8be ce6b 35bf 153c 203f 28ab 72be
00000230: b6c5 5cbe c05a 063e 2a11 243f 5c0a c5be
00000240: d24b 45bf dd60 32bf fc14 80be 58b3 15bf
00000250: 930f 7c3e 45b7 153f ffdf 1e3f 915f 0d3f
00000260: a797 813f a685 903e d3ad 903e 7a14 0b3f
00000270: 6963 f1be 1c6e c4be 141e 933e ea30 4dbf
00000280: 2e66 f1be 7df9 943e b26a d33e 7e3c 01bf
00000290: 0e9e 0bbf fd7f fbbe 7707 fa3e 5e5d 473f
000002a0: 0035 d8be d12f 133f 9a60 ee3d 2cb4 9abe
000002b0: c298 fabc baec a33d 5cee 97be 6237 183f
000002c0: 38eb a4be 3969 7a3f eb35 73be 0734 62bc
000002d0: 440a 323e 73b2 d8bc fa03 fc3e 80b1 303d
000002e0: 4577 0dbe c431 953f 0ef4 6bbf c7c4 0bbe
000002f0: 8413 a4be bebb fcbe 5043 51bd d5b2 283f

base_pointnet.conv_1_b.bias f4 [64]
0.2974963 -0.090794995 0.07418108 -0.50967175 0.06543589 -0.55561644 0.33096933 0.04553
-0.20694037 0.3791322 0.22769938 0.38018194 -0.023914054 -0.4811502 0.33514136 0.45662704
0.42197084 0.5298473 0.45998397 -0.3904361 -0.24098612 0.32422894 -0.29898974 0.42854798
-0.03090001 0.19954008 -0.18083031 0.556525 0.54476035 0.1490784 -0.22247128 0.4733982
0.08272461 -0.46110037 -0.41502202 0.273157 0.23815168 0.24346626 0.39430362 0.53161186
0.07885071 -0.26623154 0.38970575 0.13996492 0.018936368 0.047642414 0.3488279 0.025252549
0.27070928 0.11979737 0.53410584 -0.25634602 0.16970061 0.5501261 -0.56598073 0.03219905
0.4471614 0.2611099 -0.35998008 -0.12937933 -0.45971757 -0.2787502 -0.36102864 -0.22176601
00000000: 6f51 983e baf2 b9bd 40ec 973d d979 02bf
00000010: 4003 863d e13c 0ebf d074 a93e aa7d 3a3d
00000020: 2de8 53be 9e1d c23e 072a 693e 35a7 c23e
00000030: 68e7 c3bc 5259 f6be a697 ab3e 05cb e93e
00000040: 900c d83e 13a4 073f 0583 eb3e 3ee7 c7be
00000050: 11c5 76be 5601 a63e 2f15 99be a46a db3e
00000060: 0522 fdbc 3c54 4c3e 952b 39be 6c78 0e3f
00000070: 6a75 0b3f 02a8 183e 83cf 63be 4061 f23e
00000080: 856b a93d 5915 ecbe c47d d4be 3cdb 8b3e
00000090: 09de 733e 384f 793e 2ae2 c93e b717 083f
000000a0: 7b7c a13d 804f 88be 8387 c73e f752 0f3e
000000b0: 7120 9b3c b124 433d 9299 b23e 6fde ce3c
000000c0: 689a 8a3e 5358 f53d 29bb 083f c93f 83be
000000d0: ffc5 2d3e 10d5 0c3f 1de4 10bf 27e3 033d
000000e0: 57f2 e43e 32b0 853e 4f4f b8be 047c 04be
000000f0: 1a60 ebbe 59b8 8ebe bfd8 b8be a116 63be

base_pointnet.conv_2.weight f4 [64, 64, 3]
-0.06433727 0.0032628416 0.08628956 -0.07463598 -0.034368996 0.0053479625 0.017987352 -0.05300119
-0.087236226 -0.020461269 0.0045903665 0.026882805 -0.036367767 0.022088509 -0.046159793 0.06073983
-0.018248232 -0.1007519 0.04164243 -0.094426155 0.00024596867 0.058907002 0.048125107 0.029471083
0.017052261 0.03265568 0.037809923 -0.17796676 -0.038716204 -0.08914681 0.12617393 -0.025918439
-0.04535542 -0.025674187 0.012595931 0.023973204 -0.0068684258 0.026799684 0.07776199 0.071380846
0.020404967 0.011786316 -0.07630088 0.021276819 -0.052147046 0.07542645 -0.030656096 0.036571123
0.14757204 0.05227637 0.1797038 -0.039236665 0.00073095557 -0.03331436 0.017447723 0.08050932
-0.054522302 -0.028786106 -0.05171343 -0.06346334 0.027567632 -0.04513968 -0.0039577438 -0.052378394
0.00795633 -0.0925015 0.07584677 0.04379561 0.019845774 -0.020271165 0.007875877 -0.010402596
0.0073316256 -0.005672136 0.0046133064 -0.01191707 -0.043893173 -0.031080674 0.1292302 0.08459217
0.10161629 -0.09940641 0.024374712 -0.07673342 -0.08740582 -0.067417 -0.02079453 0.19121325
0.044990957 -0.0020313133 -0.0007569953 -0.029044485 -0.06113218 -0.089095496 -0.045288764 -0.012401883
0.052752785 -0.17314215 -0.184467 -0.0068468153 -0.046105597 0.030591093 -0.056863733 0.08572486
-0.05556974 -0.007237761 -0.021338074 0.057557255 -0.03034961 0.07157041 -0.004852265 0.094392255
-0.036744483 0.020479575 0.016184967 0.058918945 -0.038537167 0.00017595927 -0.00059448666 0.080941446
-0.035473596 0.03469848 0.024141349 0.09621068 0.08777048 0.028507972 0.004674104 -0.032968946
-0.0018073202 0.01308307 -0.059725415 0.023656465 0.07471783 0.009632083 -0.026460739 0.022078581
0.044214964 0.004435452 -0.040788587 -0.028701574 -0.08268644 -0.017239569 0.04433573 0.039178073
-0.029668706 -0.05226103 -0.026964571 0.055647667 0.065167755 -0.03725028 -0.05052149 -0.15257604
-0.027457962 0.0023536207 0.050547343 0.015853306 0.058063623 -0.032951303 0.0047467183 -0.009472727
-0.0028945212 -0.05675829 -0.13852315 0.018390963 -0.076778434 0.052785076 0.042936016 -0.027640566
-0.076478906 -0.20138535 -0.24640189 -0.009686429 -0.03762757 0.009303416 -0.05693024 0.015481794
-0.07899074 -0.012423198 0.012443808 0.046342216 0.03185549 0.0026278517 0.07628316 0.005176617
-0.00549413 -0.035660412 0.02749541 0.0006710317 0.09272932 0.058807433 0.059034117 -0.014814474
-0.043458555 -0.025378779 0.016317993 -0.087614164 0.016453763 -0.04826635 0.00648292 -0.09726024
-0.006228729 -0.07916945 0.019231651 0.016297977 -0.03990646 0.059170395 -0.051424354 0.14080577
0.017677153 0.07654207 0.044745762 0.022322591 -0.06466434 0.0500553 0.06713973 0.053439125
0.04697075 -0.051010396 -0.022545572 0.015660282 -0.13448603 -0.12415172 0.11813729 0.08021389
0.040966384 -0.073658444 -0.012756276 0.058674283 0.018834554 0.042179946 -0.02152829 0.0030194868
0.074930325 0.027752187 0.06530989 0.007919838 -0.071915716 -0.0051322733 0.02056135 -0.044477515
0.03504821 -0.017683694 0.11640007 -0.049561374 -0.044607144 0.014386451 -0.021140277 0.013753292
0.007691893 0.006656579 -0.02341538 -0.03638599 0.04576362 -0.04195315 -0.032702226 -0.12011024
00000000: 42c3 83bd 66d5 553b 95b8 b03d c0da 98bd
00000010: 81c6 0cbd f63d af3b 365a 933c c717 59bd
00000020: e8a8 b2bd 649e a7bc c96a 963b 5439 dc3c
00000030: 5ef6 14bd f6f2 b43c 0d12 3dbd 54ca 783d
00000040: 517d 95bc 0357 cebd 4191 2a3d 8062 c1bd
00000050: 5bf5 8039 7848 713d d51e 453d 576d f13c
00000060: 2fb1 8b3c f6c1 053d 94de 1a3d eb3c 36be
00000070: e294 1ebd 9a92 b6bd bd33 013e e852 d4bc
00000080: 9bc6 39bd ac52 d2bc 2a5f 4e3c 7463 c43c
00000090: 8810 e1bb 038b db3c ae41 9f3d 1f30 923d
000000a0: 5128 a73c 641b 413c a343 9cbd b94c ae3c
000000b0: 2498 55bd 2f79 9a3d 7e22 fbbc 9acb 153d
000000c0: 201d 173e bf1f 563d 4604 383e a0b6 20bd
000000d0: 999d 3f3a a374 08bd 87ee 8e3c 12e2 a43d
000000e0: c752 5fbd d7d0 ebbc 76d1 53bd 11f9 81bd
000000f0: 84d5 e13c 63e4 38bd f6af 81bb ba8a 56bd
00000100: 445b 023c 6d71 bdbd 8d55 9b3d 0763 333d
00000110: 9b93 a23c b70f a6bc d309 013c a66f 2abc
00000120: 223e f03b 53dd b9bb 382b 973b d03f 43bc
00000130: 54c9 33bd e69c febc ec54 043e a93e ad3d
00000140: 341c d03d 9695 cbbd 7aad c73c 6926 9dbd
00000150: d301 b3bd ed11 8abd 4a59 aabc 68cd 433e
00000160: 7048 383d c81f 05bb 1871 46ba b3ee edbc
00000170: bd65 7abd b377 b6bd b680 39bd 4431 4bbc
00000180: 4e13 583d 2d4c 31be ebe4 3cbe 405b e0bb
00000190: 39d9 3cbd 2c9a fa3c f2e9 68bd 8490 af3d
000001a0: 189d 63bd bd2a edbb 2fcd aebc 28c1 6b3d
000001b0: bf9f f8bc 8293 923d c0ff 9ebb ba50 c13d
000001c0: 6281 16bd c8c4 a73c 5696 843c fe54 713d
000001d0: 26d9 1dbd b581 3839 53d7 1bba a1c4 a53d
000001e0: c34c 11bd fe1f 0e3d 14c4 c53c 1b0a c53d
000001f0: 02c1 b33d 8d89 e93c 3a29 993b 720a 07bd
00000200: 9ae3 ecba 5f5a 563c a3a2 74bd 34cb c13c
00000210: a905 993d e2cf 1d3c 31c4 d8bc 24de b43c
00000220: c01a 353d 4557 913b ef11 27bd 901f ebbc
00000230: 8257 a9bd ff39 8dbc 6299 353d 3079 203d
00000240: c90b f3bc a90f 56bd cee4 dcbc cfee 633d
00000250: ac76 853d c093 18bd 9fef 4ebd e53c 1cbe
00000260: 85ef e0bc 343f 1a3b bb0a 4f3d cbde 813c
00000270: 1fd4 6d3d f2f7 06bd 5c8a 9b3b 7f33 1bbc
00000280: 02b2 3dbb 617b 68bd 03d9 0dbe a5a8 963c
00000290: 033e 9dbd 2a35 583d addd 2f3d 786e e2bc
000002a0: f9a0 9cbd f637 4ebe c750 7cbe d4b3 1ebc
000002b0: 5e1f 1abd 5b6d 183c af2f 69bd 5aa7 7d3c
000002c0: e6c5 a1bd ab8a 4bbc 1de1 4b3c 56d1 3d3d
000002d0: e77a 023d 0938 2c3b 583a 9c3d 9ca0 a93b
000002e0: 1a08 b4bb a710 12bd 0e3e e13c 2de8 2f3a
000002f0: dfe8 bd3d 10e0 703d c2cd 713d 68b8 72bc
00000300: 9901 32bd 28e7 cfbc 50ad 853c 0e6f b3bd
00000310: 0bca 863c f0b2 45bd ad6e d43b 6030 c7bd
00000320: 5e1a ccbb 9823 a2bd b28b 9d3c 5683 853c
00000330: f574 23bd a85c 723d 58a2 52bd 632f 103e
00000340: adcf 903c 17c2 9c3d 5547 373d dedd b63c
00000350: bd6e 84bd c906 4d3d 8e80 893d fce2 5a3d
00000360: 6764 403d 47f0 50bd 7eb1 b8bc fe49 803c
00000370: b5b6 09be 4243 febd f7f1 f13d 2e47 a43d
00000380: 5ecc 273d 3dda 96bd b3ff 50bc 7254 703d
00000390: ec4a 9a3c e1c4 2c3d 195c b0bc 95e2 453b
000003a0: 1275 993d 8e58 e33c 31c1 853d 35c2 013c
000003b0: 8c48 93bd a12c a8bb 4770 a83c 0e2e 36bd
000003c0: b68e 0f3d 65dd 90bc 2963 ee3d de00 4bbd
000003d0: fbb5 36bd 26b5 6b3c 602e adbc 7d55 613c
000003e0: 460c fc3b 6f1f da3b 9cd1 bfbc 7a09 15bd
000003f0: a272 3b3d 11d7 2bbd c5f2 05bd 5cfc f5bd

base_pointnet.conv_2.bias f4 [64]
0.05648301 0.0014284573 0.018209107 -0.042064786 -0.03553409 0.050602026 -0.028815135 0.052215826
0.007611008 -0.061908666 -0.0018562374 0.018507544 -0.018565413 0.07534805 -0.07643409 -0.009236591
0.037132528 0.041840825 0.023588624 0.08915787 0.009647312 -0.03555675 0.08264639 -0.089598775
-0.01815849 -0.057841416 -0.05209134 -0.03894572 -0.031437516 -0.08471959 0.064015254 0.004261393
0.01329774 0.079529636 0.077775076 -0.0039402535 -0.06666652 0.0112225255 0.059760645 0.034817066
0.015079658 0.03406232 0.02305047 -0.025629802 -0.03967122 0.05022232 0.11650965 -0.008532132
-0.032729868 0.071457565 -0.086090595 -0.030600661 -0.054418236 0.024007967 -0.12120012 0.07659714
-0.01406683 0.01293478 -0.12589231 0.053707287 0.05841046 -0.028564373 -0.029208379 -0.04848863
00000000: bb5a 673d 133b bb3a 442b 953c 204c 2cbd
00000010: 328c 11bd 1244 4f3d b80d ecbc 43e0 553d
00000020: c365 f93b f193 7dbd fe4c f3ba 229d 973c
00000030: 7e16 98bc 1450 9a3d 7a89 9cbd 1255 17bc
00000040: 4718 183d 4961 2b3d ee3c c13c 6798 b63d
00000050: c20f 1e3c f4a3 11bd 8342 a93d 907f b7bd
00000060: 1dc1 94bc 1feb 6cbd bb5d 55bd 8c85 1fbd
00000070: a0c4 00bd 7781 adbd 6e1a 833d 28a3 8b3b
00000080: c4de 593c 6fe0 a23d 8a48 9f3d 3e1d 81bb
00000090: 7588 88bd afde 373c 94c7 743d 579c 0e3d
000000a0: ab10 773c ee84 0b3d 57d4 bc3c 97f5 d1bc
000000b0: 4a7e 22bd ebb5 4d3d 9d9c ee3d 5bca 0bbc
000000c0: c10f 06bd 5858 923d 4450 b0bd 3dae fabc
000000d0: a8e5 5ebd 5bac c43c c537 f8bd f6de 9c3d
000000e0: 9078 66bc 66ec 533c eae9 00be 2cfc 5b3d
000000f0: ce3f 6f3d d5ff e9bc 6946 efbc 049c 46bd

base_pointnet.bn_1.weight f4 [64]
0.89166486 0.8679854 0.91464263 0.9552344 0.86407804 1.355877 0.94757783 1.0008007
0.9360464 1.2258304 1.0045825 0.8697151 0.9678575 0.9651467 0.9444914 0.9178407
1.2488822 0.8972326 1.0134866 0.8660903 0.8588496 1.0451843 0.880251 0.96644825
0.8048289 0.97157145 1.1355532 1.1207265 1.0359123 1.2246686 1.0069488 0.9457278
1.2647058 0.91631436 0.8762718 0.9820849 0.8932222 0.9037741 0.9170542 1.001054
0.870168 0.85351866 0.93280387 0.93629897 0.9457603 0.9395772 0.8984675 0.87986034
0.9030593 0.95902276 1.069266 1.0303674 0.9393238 1.0788866 1.2433726 0.9282395
1.1463197 0.77661896 0.93668187 1.0388684 0.90953404 1.1186551 0.98234296 0.9312486
00000000: 2644 643f 4b34 5e3f 0526 6a3f 3e8a 743f
00000010: 3834 5d3f 618d ad3f 7694 723f 3d1a 803f
00000020: bda0 6f3f 03e8 9c3f 2996 803f a6a5 5e3f
00000030: 82c5 773f db13 773f 30ca 713f 9cf7 6a3f
00000040: 5fdb 9f3f 09b1 653f eeb9 813f 18b8 5d3f
00000050: 91dd 5b3f 99c8 853f 2158 613f 2769 773f
00000060: 4409 4e3f e8b8 783f cf59 913f f773 8f3f
00000070: c698 843f f1c1 9c3f b3e3 803f 381b 723f
00000080: e1e1 a13f 9493 6a3f 5953 603f ea69 7b3f
00000090: 36aa 643f bd5d 673f 10c4 6a3f 8a22 803f
000000a0: 54c3 5e3f 3380 5a3f 3ccc 6e3f 4ab1 6f3f
000000b0: 591d 723f 2288 703f f701 663f 873e 613f
000000c0: e52e 673f 8482 753f b5dd 883f 14e3 833f
000000d0: 8677 703f f518 8a3f d526 9f3f 1ba1 6d3f
000000e0: 9bba 923f 80d0 463f 62ca 6f3f a4f9 843f
000000f0: 39d7 683f 1730 8f3f d47a 7b3f 4f66 6e3f

base_pointnet.bn_1.bias f4 [64]
-0.026078654 0.11153899 -0.10826918 -0.11909564 -0.0155944405 -0.006930155 -0.15865935 -0.058932398
-0.13564149 -0.17241244 0.16098374 -0.10837036 -0.041049417 -0.07580727 -0.06777361 -0.10628535
-0.45485842 -0.043593753 -0.27000573 -0.15639627 -0.19347604 0.024811605 -0.041086063 0.0038662024
-0.18548472 -0.01541918 -0.4766118 -0.31619877 -0.15659483 -0.025471894 -0.250903 -0.053303942
0.02233121 0.005070995 -0.24683516 -0.0638834 0.08722952 -0.077411525 -0.07532213 0.10931756
-0.07719386 -0.123448946 -0.06411698 -0.10212623 -0.19436163 -0.11173017 -0.031716123 0.043658853
-0.044638187 0.12673984 -0.33889347 0.21736293 0.0046290252 -0.018169265 -0.23577245 -0.047002945
-0.17518029 -0.053942047 -0.10179133 -0.24392158 -0.13070123 0.13902509 0.048447955 -0.07009447
00000000: e7a2 d5bc 8e6e e43d 3bbc ddbd 6ae8 f3bd
00000010: d37f 7fbc 5b16 e3bb 9977 22be 1963 71bd
00000020: 9ae5 0abe e38c 30be ecd8 243e 48f1 ddbd
00000030: 6f23 28bd d840 9bbd e4cc 8abd 22ac d9bd
00000040: 34e3 e8be 5d8f 32bd 313e 8abe 5826 20be
00000050: 951e 46be b541 cb3c dc49 28bd 1d60 7d3b
00000060: b5ef 3dbe baa0 7cbc 7606 f4be cee4 a1be
00000070: 655a 20be 6faa d0bc 5c76 80be 3c55 5abd
00000080: f1ef b63c 972a a63b 5bc2 7cbe 4dd5 82bd
00000090: 64a5 b23d ef89 9ebd 7d42 9abd e3e1 df3d
000000a0: d117 9ebd cdd2 fcbd c34f 83bd 8f27 d1bd
000000b0: bc06 47be cad2 e4bd c4e8 01bd a0d3 323d
000000c0: 88d6 36bd 17c8 013e 7283 adbe 6394 5e3e
000000d0: 14af 973b b6d7 94bc 556e 71be 2986 40bd
000000e0: 7662 33be 56f2 5cbd f977 d0bd 94c6 79be
000000f0: 8bd6 05be 985c 0e3e 5d71 463d b18d 8fbd

base_pointnet.bn_1.running_mean f4 [64]
7.1892433 -44.022564 4.2033997 2.4607959 -20.875143 -2.7831168 5.547947 2.1700041
6.769843 -0.8731894 3.9554398 14.818771 -10.440052 4.2374625 -39.85795 12.8165245
-2.5634582 42.246147 -4.3158 31.890337 1.3482811 -0.68309593 -31.73656 -7.762071
-31.473164 -11.234776 -3.3797717 -1.1827023 -0.44384423 0.100274056 3.0511239 -14.419544
-1.319371 -33.08139 -13.228786 1.6337698 3.8461769 9.147651 13.394987 -9.087101
3.9306598 -3.7517323 9.533545 22.09294 9.030021 11.471708 -17.81467 14.891441
3.107009 -4.492793 -4.274695 0.96585524 7.133177 1.6029868 -4.2585106 10.955071
-0.021416334 16.29674 -8.313963 -3.765021 -13.136858 0.057920966 -10.900859 2.898576
00000000: 480e e640 1b17 30c2 4082 8640 ae7d 1d40
00000010: 4b00 a7c1 961e 32c0 c888 b140 59e1 0a40
00000020: 8ea2 d840 5789 5fbf ed25 7d40 b019 6d41
00000030: 740a 27c1 4b99 8740 8a6e 1fc2 7c10 4d41
00000040: b30f 24c0 0efc 2842 091b 8ac0 691f ff41
00000050: 7a94 ac3f 60df 2ebf 7ae4 fdc1 e362 f8c0
00000060: 0ac9 fbc1 a4c1 33c1 2e4e 58c0 ca62 97bf
00000070: 8d3f e3be 7c5c cd3d 9d45 4340 74b6 66c1
00000080: 26e1 a8bf 5853 04c2 1ca9 53c1 5e1f d13f
00000090: c327 7640 c75c 1241 de51 5641 c464 11c1
000000a0: ee8f 7b40 621c 70c0 6689 1841 57be b041
000000b0: f77a 1041 1e8c 3741 7284 8ec1 5843 6e41
000000c0: 3cd9 4640 f6c4 8fc0 4dca 88c0 4a42 773f
000000d0: fc42 e440 ac2e cd3f b845 88c0 f947 2f41
000000e0: 4f71 afbc b95f 8241 fe05 05c1 1bf6 70c0
000000f0: 9230 52c1 893e 6d3d eb69 2ec1 4582 3940

base_pointnet.bn_1.running_var f4 [64]
101.087715 454.53687 99.300354 20.873936 128.15132 46.683067 100.138626 12.1057005
73.88009 48.57823 57.76931 157.62285 112.23981 71.488235 451.98004 108.123314
37.747227 407.5341 17.390167 300.6281 22.759466 8.582328 219.04796 24.773928
224.8462 32.31541 44.45477 44.895878 79.01891 23.00145 28.667713 180.02838
8.066274 228.2096 69.70597 11.165603 6.927697 26.18939 69.54413 177.6615
12.948004 5.093852 44.455208 178.71176 57.90992 60.489147 97.15267 154.72276
11.765809 87.330795 34.09301 2.3129926 46.091366 44.15907 129.07431 46.578613
1.4513505 87.328545 61.390522 116.7368 124.288635 34.681408 99.05237 64.31992
00000000: e92c ca42 b844 e343 c899 c642 d2fd a641
00000010: bd26 0043 76bb 3a42 fa46 c842 f3b0 4141
00000020: 9bc2 9342 1c50 4242 c613 6742 739f 1d43
00000030: c87a e042 faf9 8e42 72fd e143 233f d842
00000040: 29fd 1642 5dc4 cb43 101f 8b41 6650 9643
00000050: 6313 b641 3751 0941 470c 5b43 0131 c641
00000060: a1d8 6043 fb42 0142 afd1 3142 6195 3342
00000070: af09 9e42 f802 b841 7a57 e541 4407 3443
00000080: 750f 0141 a835 6443 7569 8b42 4fa6 3241
00000090: b2af dd40 df83 d141 9816 8b42 58a9 3143
000000a0: 062b 4f41 d600 a340 22d2 3142 36b6 3243
000000b0: c2a3 6742 e3f4 7142 2b4e c242 07b9 1a43
000000c0: c140 3c41 5ea9 ae42 3e5f 0842 1208 1440
000000d0: 8f5d 3842 e3a2 3042 0613 0143 8050 3a42
000000e0: dac5 b93f 37a8 ae42 e58f 7542 3e79 e942
000000f0: c893 f842 c3b9 0a42 d01a c642 cda3 8042

base_pointnet.bn_2.weight f4 [64]
1.4573735 1.5166943 1.5910491 1.7295446 1.5444009 1.5155306 1.5934103 1.449762
2.2592473 1.4048249 1.6512283 1.381905 1.5888335 1.9436227 1.4402245 1.8019557
1.344001 1.7270304 1.393082 1.3996 1.8099787 1.5745533 1.9530171 1.4024713
1.9557587 1.4065609 1.470344 1.4339843 2.5929294 1.4763407 1.7681397 1.4057593
1.7136136 1.8163674 1.6800361 1.4435029 1.7264992 1.8770646 1.5432707 1.4655414
1.9104887 1.9706565 1.4433383 1.4886855 1.6475055 1.4112763 1.5768107 1.7819185
1.9096044 1.4687514 1.4662728 1.4640654 1.4480714 1.7839036 1.9182174 1.4764688
1.7460104 1.6400559 1.5940862 1.8990215 1.5714675 1.5032659 1.3628978 1.3483082
00000000: 378b ba3f 0a23 c23f 7fa7 cb3f b861 dd3f
00000010: eeae c53f e8fc c13f def4 cb3f cd91 b93f
00000020: 8297 1040 4dd1 b33f 735b d33f 43e2 b03f
00000030: e55e cb3f a1c8 f83f 4759 b83f 7ca6 e63f
00000040: 3a08 ac3f 550f dd3f 8350 b23f 1826 b33f
00000050: 62ad e73f f68a c93f 77fc f93f 2e84 b33f
00000060: 4d56 fa3f 300a b43f 3b34 bc3f cc8c b73f
00000070: 8ef2 2540 bbf8 bc3f 6752 e23f ecef b33f
00000080: b157 db3f ba7e e83f 6c0b d73f b4c4 b83f
00000090: edfd dc3f a743 f03f e589 c53f dc96 bb3f
000000a0: e58a f43f 793e fc3f 4fbf b83f 3f8d be3f
000000b0: 76e1 d23f b4a4 b43f efd4 c93f e815 e43f
000000c0: eb6d f43f 0c00 bc3f d4ae bb3f 7f66 bb3f
000000d0: 675a b93f f456 e43f 2688 f53f eefc bc3f
000000e0: 457d df3f 5aed d13f 040b cc3f 2313 f33f
000000f0: d925 c93f 046b c03f 6f73 ae3f 5d95 ac3f

base_pointnet.bn_2.bias f4 [64]
0.102913246 0.1507024 0.07846275 0.26719606 0.1997985 0.11783078 0.23572956 0.1842345
-0.33496216 0.1647952 0.09596007 0.13622838 0.16926806 0.3880298 0.13461287 0.100505434
0.1259323 0.26169026 0.17811783 0.12781394 0.12636103 0.1571615 -0.05691324 0.15315206
0.13334824 0.20390327 0.21928467 0.20143509 -0.3786736 0.21308643 0.017226256 0.19763254
0.30779764 0.026056603 0.22346975 0.28316003 0.13803984 -0.2556899 0.2327197 0.24997349
0.20297341 0.16764906 0.04539689 0.19015934 0.24954945 0.1538028 0.18418722 -0.025816819
0.22714679 0.19024697 0.28712326 0.25929347 0.19753554 0.21557854 -0.01194158 0.104225695
0.24473493 0.1831829 0.28316328 0.06960994 0.22838977 0.15002546 0.10844459 0.24187566
00000000: 2ec4 d23d bb51 1a3e 14b1 a03d eccd 883e
00000010: fa97 4c3e 4451 f13d 1763 713e f8a7 3c3e
00000020: 2980 abbe 13c0 283e b786 c43d 747f 0b3e
00000030: 9b54 2d3e d8ab c63e f5d7 093e cbd5 cd3d
00000040: 66f4 003e 44fc 853e 8564 363e a8e1 023e
00000050: c964 013e f2ee 203e dc1d 69bd e5d3 1c3e
00000060: 718c 083e 05cc 503e 298c 603e 0045 4e3e
00000070: 82e1 c1be 5433 5a3e 141e 8d3c 2f60 4a3e
00000080: a797 9d3e a874 d53c 41d5 643e 5afa 903e
00000090: 515a 0d3e c9e9 82be 134e 6e3e 0df9 7f3e
000000a0: 43d8 4f3e 32ac 2b3e 17f2 393d 21b9 423e
000000b0: e489 7f3e 7b7e 1d3e 939b 3c3e cb7d d3bc
000000c0: 2b99 683e 1ad0 423e d201 933e 1dc2 843e
000000d0: c246 4a3e 9fc0 5c3e 9ea6 43bc 4874 d53d
000000e0: cb9b 7a3e 4c94 3b3e c7fa 903e a88f 8e3d
000000f0: 02df 693e 46a0 193e 3218 de3d 41ae 773e

base_pointnet.bn_2.running_mean f4 [64]
-0.21786092 -0.16762565 -0.1700601 -0.38423514 0.023664625 -0.19794787 -0.07291565 -0.18734556
0.03018529 -0.29915744 -0.040815126 -0.40313065 0.128748 0.10499999 0.00084071857 -0.18485597
0.14753553 0.0063755754 0.14218384 -0.09883188 0.051560335 -0.090362914 -0.00036509935 -0.39618984
-0.05666497 -0.18110804 -0.46089342 -0.14897393 0.09888607 -0.23383294 0.082562536 -0.29614025
-0.27936417 0.030137708 0.27663183 -0.6656228 -0.027988056 0.020639872 -0.34072217 -0.18477534
-0.21595445 0.07139908 -0.005922084 -0.26525858 -0.25557172 -0.100378454 0.027972087 0.0065478273
0.17826056 -0.2944767 -0.47433037 -0.37176558 -0.23743284 0.13405132 -0.16245681 0.07629958
-0.29115742 -0.10500154 -0.17670938 0.01641887 0.07274308 -0.04370817 -0.442441 -0.4279146
00000000: ef16 5fbe 0fa6 2bbe 3c24 2ebe 78ba c4be
00000010: 51dc c13c d9b2 4abe cd54 95bd 84d7 3fbe
00000020: 2447 f73c 2a2b 99be c32d 27bd 2467 cebe
00000030: 84d6 033e 3c0a d73d ab63 5c3a e24a 3dbe
00000040: 8e13 173e 34ea d03b a498 113e 5e68 cabd
00000050: ee30 533d 3110 b9bd ce6a bfb9 65d9 cabe
00000060: 8719 68bd 6374 39be 39fa ebbe 9f8c 18be
00000070: c884 ca3d e771 6fbe 8c16 a93d b29f 97be
00000080: d208 8fbe 5be3 f63c b0a2 8d3e 4166 2abf
00000090: 3547 e5bc f314 a93c 2373 aebe bf35 3dbe
000000a0: 2a23 5dbe ae39 923d 0b0e c2bb f9cf 87be
000000b0: 4cda 82be 3893 cdbd b825 e53c 288f d63b
000000c0: f089 363e a6c5 96be 6edb f2be 0f58 bebe
000000d0: 9821 73be c044 093e 145b 26be f442 9c3d
000000e0: 9612 95be 0c0b d7bd 4ef3 34be de80 863c
000000f0: 53fa 943d 5707 33bd a087 e2be 9f17 dbbe

base_pointnet.bn_2.running_var f4 [64]
0.027869532 0.009297866 0.018299492 0.008699087 0.019106325 0.047008246 0.018275423 0.037257187
0.0032740014 0.043307424 0.018075017 0.06251541 0.038302835 0.035335936 0.03275914 0.00794216
0.04344992 0.038941804 0.10854111 0.026454577 0.031586323 0.0061397166 0.008986229 0.04361133
0.0065692645 0.03169831 0.018302314 0.02739525 0.0036643704 0.027253782 0.0097051775 0.04507634
0.023741614 0.0064921617 0.02116234 0.052759215 0.02909877 0.008837307 0.09555088 0.021328447
0.036964845 0.0077306023 0.011223364 0.016289998 0.043682035 0.045862768 0.0076203896 0.011327373
0.021048829 0.026741486 0.05127477 0.05295511 0.039618663 0.027473068 0.0056552785 0.03803404
0.028488494 0.042848438 0.023837399 0.008083028 0.01881284 0.0245678 0.051534712 0.07832351
00000000: a54e e43c 1456 183c d1e8 953c 9e86 0e3c
00000010: de84 9c3c b88b 403d 57b6 953c fe9a 183d
00000020: a190 563b 2063 313d 0f12 943c 1408 803d
00000030: 6fe3 1c3d 6abc 103d 732e 063d d51f 023c
00000040: 8bf8 313d 7181 1f3d cd4a de3d 45b7 d83c
00000050: a960 013d ad2f c93b fa3a 133c cba1 323d
00000060: fc42 d73b 16d6 013d bcee 953c 016c e03c
00000070: ef25 703b 5343 df3c 7702 1f3c f8a1 383d
00000080: c67d c23c 33bc d43b a55c ad3c 0c1a 583d
00000090: 8b60 ee3c 5aca 103c 2eb0 c33d ffb8 ae3c
000000a0: 7368 173d fe50 fd3b 33e2 373c 9a72 853c
000000b0: efeb 323d 99da 3b3d 76b4 f93b 7296 393c
000000c0: 986e ac3c f610 db3c 7e05 523d 75e7 583d
000000d0: 2e47 223d 330f e13c ea4f b93b 95c9 1b3d
000000e0: b460 e93c d881 2f3d a646 c33c ad6e 043c
000000f0: 631d 9a3c 6942 c93c 1016 533d 1468 a03d

fc_1.weight f4 [64, 66]
-0.027123138 -0.093813084 0.10467217 0.006923451 0.033046734 0.08800263 0.014334967 0.06940315
-0.10050523 -0.0069358996 -0.106069155 -0.070613384 -0.122326404 0.09854653 0.09158224 -0.000448778
-0.061759554 -0.08059381 -0.06419399 -0.100825004 -0.067162715 -0.12321356 0.080763824 -0.09009678
0.012809254 0.025789786 -0.091180585 0.0125469 -0.09946211 -0.008725855 -0.074728355 -0.10626722
-0.036504406 -0.08423711 -0.09219084 -0.06535694 -0.011068061 0.1038506 0.089885846 -0.12164342
0.054856107 -0.0413636 -0.035247702 0.033316106 0.030446662 -0.049386468 0.09045173 -0.06655812
-0.089645706 -0.0012896191 -0.03757378 -0.07867859 -0.0046780813 -0.023778044 0.08078386 0.08270452
0.055490736 0.09818921 0.060481 0.045420658 -0.070706934 0.011564649 -0.10969173 0.029831987
-0.12582627 -0.11064338 0.11246867 -1.1733375 0.13709892 0.12049891 -0.26715165 0.04241181
0.07593802 -0.16078563 0.021648793 0.061478507 -0.11184671 -0.22843385 0.017781295 0.02089077
0.105473354 0.0036192671 0.08551078 -0.15376924 0.12136323 0.08146049 0.014821068 0.101678625
0.32007074 -0.024840672 -0.23737587 0.19788423 -0.017037934 0.09076641 -0.05068735 0.08006522
-0.56374973 -0.09536472 -0.35861987 0.031761035 -0.3035228 -0.12051787 0.12741496 0.121534884
0.17818098 0.00029043204 -0.11533025 -0.14656843 -0.36730582 -0.24144618 -0.48569152 -0.099592015
-0.14597581 0.042978246 0.19534844 -0.10850028 0.19162874 -0.17320265 0.07654518 0.17717956
-0.10297834 0.015080281 0.20884041 0.14056727 0.036693998 -0.08649495 0.0659003 0.19070908
-0.015800972 0.21357332 0.061853714 -0.18382275 -0.06132456 0.85843223 0.09959997 0.007487787
0.032845605 0.11898908 -0.011310882 -0.057603527 -0.06957888 -0.20976813 0.10604926 -0.30037552
0.004008397 -0.15911645 -0.08125445 0.05398184 -0.288932 0.17578892 -0.20918398 -0.46337494
0.063061945 -0.27024972 -0.07439507 -0.00028382774 0.07698425 -0.22664331 0.23368658 -0.29588813
-0.1058937 -0.12822242 0.11826715 -0.0031276555 -0.24040648 -0.26055372 0.26558018 -9.230356e-06
0.15360257 -0.30007878 -0.043308467 -0.11073423 0.13785821 -0.3316303 0.43818742 0.22836699
0.1444708 -0.10905468 0.2421133 -0.136532 0.008934562 0.1653923 -0.08847107 0.008343629
-0.11912438 -0.15717831 -0.16479237 0.2301964 -0.09315109 -0.24867642 0.10114719 -0.074952014
-0.1537599 -0.0022202164 0.2274313 -0.36639574 -0.035498843 0.0638184 -0.036567025 0.026983812
0.05753897 -0.051885393 -0.044439573 -0.0020628655 -0.10275033 -0.00910764 -0.002314592 0.07885724
-0.061483763 -0.038790673 0.062688276 0.01865348 0.111591205 -0.07824123 0.08278988 -0.111836754
-0.056912407 -0.10405098 -0.02122784 -0.07909625 0.04027641 -0.09102452 0.060308564 -0.073684216
-0.0036779793 -0.060524695 0.0612577 0.09362593 -0.11141608 0.10931052 0.017097574 -0.04447241
-0.033694148 -0.06827354 -0.080924466 0.08999914 -0.11712229 -0.018353859 -0.058273815 0.024999144
0.02594913 0.0056114527 -0.086254776 0.013245316 -0.11523272 0.087706 0.065138206 -0.1039399
0.07070517 -0.030438855 -0.039103016 0.033964097 0.02509596 0.026606774 -0.114702724 0.01117143
00000000: 5831 debc 1321 c0bd 5d5e d63d 1ede e23b
00000010: 035c 073d b93a b43d 36dd 6a3c 3d23 8e3d
00000020: b0d5 cdbd 8b46 e3bb c93a d9bd c09d 90bd
00000030: 4486 fabd c3d2 c93d 788f bb3d f749 ebb9
00000040: 96f7 7cbd 5e0e a5bd 2378 83bd 577d cebd
00000050: 9b8c 89bd 6457 fcbd 8167 a53d a984 b8bd
00000060: e8dd 513c 1a45 d33c e3bc babd 8391 4d3c
00000070: cab2 cbbd e3f6 0ebc 2e0b 99bd a1a2 d9bd
00000080: a585 15bd 8284 acbd 8dce bcbd dcd9 85bd
00000090: d056 35bc a0af d43d 1216 b83d 2f20 f9bd
000000a0: ccb0 603d e16c 29bd e55f 10bd 7876 083d
000000b0: 476b f93c 7749 4abd c23e b93d a04f 88bd
000000c0: 2b98 b7bd 7008 a9ba f7e6 19bd 3e22 a1bd
000000d0: 974a 99bb 2cca c2bc 0272 a53d fd60 a93d
000000e0: 414a 633d 6d17 c93d edba 773d 030b 3a3d
000000f0: ccce 90bd a779 3d3c 0fa6 e0bd 3662 f43c
00000100: 9ad8 00be ff98 e2bd f955 e63d ec2f 96bf
00000110: a963 0c3e 22c8 f63d 1ac8 88be 02b8 2d3d
00000120: 6585 9b3d fda4 24be cf58 b13c e3d0 7b3d
00000130: e30f e5bd 90ea 69be 14aa 913c 1f23 ab3c
00000140: 6a02 d83d 3a31 6d3b 4720 af3d af75 1dbe
00000150: 498d f83d c2d4 a63d 11d4 723c e23c d03d
00000160: 50e0 a33e aa7e cbbc a912 73be 2aa2 4a3e
00000170: 2393 8bbc bde3 b93d 8a9d 4fbd 3cf9 a33d
00000180: e751 10bf 944e c3bd 069d b7be dc17 023d
00000190: 5767 9bbe 13d2 f6bd 1179 023e 48e7 f83d
000001a0: 1375 363e 2145 9839 4432 ecbd 0916 16be
000001b0: 820f bcbe ab3d 77be 8fac f8be e6f6 cbbd
000001c0: af7a 15be f509 303d 6c09 483e 6535 debd
000001d0: 533a 443e 095c 31be b8c3 9c3d 8f6e 353e
000001e0: 4fe6 d2bd 4813 773c 43da 553e def0 0f3e
000001f0: 724c 163d 4424 b1bd bdf6 863d 3e49 433e
00000200: 0a71 81bc f7b2 5a3e 525a 7d3d 083c 3cbe
00000210: 762f 7bbd 37c2 5b3f 12fb cb3d 1c5c f53b
00000220: 1d89 063d 8cb0 f33d 4751 39bc adf1 6bbd
00000230: 5f7f 8ebd 75cd 56be 5b30 d93d d2ca 99be
00000240: df58 833b 6cef 22be bc68 a6bd 101c 5d3d
00000250: e5ee 93be 0302 343e 5334 56be 7b3f edbe
00000260: 9f26 813d 2c5e 8abe 715c 98bd b7ce 94b9
00000270: eba9 9d3d 2f15 68be 894b 6f3e a67e 97be
00000280: ccde d8bd bd4c 03be 0c36 f23d 5af9 4cbb
00000290: 1e2d 76be 4c67 85be 20fa 873e 14dc 1ab7
000002a0: fe49 1d3e eda3 99be 3864 31bd a1c8 e2bd
000002b0: b42a 0d3e 72cb a9be 1a5a e03e 09d9 693e
000002c0: 27f0 133e 0f58 dfbd 8dec 773e 0bcf 0bbe
000002d0: 4562 123c 995c 293e 5230 b5bd b7b3 083c
000002e0: 7cf7 f3bd 5af3 20be 55bf 28be 9bb8 6b3e
000002f0: 00c6 bebd 08a5 7ebe 4226 cf3d 7180 99bd
00000300: 3c73 1dbe 0d81 11bb c0e3 683e 3998 bbbe
00000310: 3c67 11bd 39b3 823d 4ec7 15bd 280d dd3c
00000320: fcad 6b3d c785 54bd 4506 36bd 2431 07bb
00000330: c46e d2bd 3638 15bc 69b0 17bb e87f a13d
00000340: 66d6 7bbd f8e2 1ebd b662 803d 2fcf 983c
00000350: ee89 e43d f03c a0bd be8d a93d ab0a e5bd
00000360: fc1c 69bd ae18 d5bd 02e6 adbc 37fd a1bd
00000370: e0f8 243d 106b babd 1d06 773d c0e7 96bd
00000380: 410a 71bb bee8 77bd 5be9 7a3d f4be bf3d
00000390: 1d2e e4bd 32de df3d 3610 8c3c b428 36bd
000003a0: e002 0abd ffd2 8bbd babb a5bd 7851 b83d
000003b0: d0dd efbd d55a 96bc 86b0 6ebd 01cb cc3c
000003c0: 4593 d43c 47e0 b73b 58a6 b0bd e202 593c
000003d0: 22ff ebbd 349f b33d 2e67 853d 71de d4bd
000003e0: dfcd 903d e85a f9bc 7c2a 20bd f01d 0b3d
000003f0: 0b96 cd3c 73f6 d93c 43e9 eabd 6008 373c

fc_1.bias f4 [64]
-0.11352855 -0.06550595 -0.15287468 -0.10334223 0.1651322 0.11507209 -0.06852285 0.056798175
0.013474851 -0.10267356 0.030686315 -0.10560791 0.05559797 -0.038360234 -0.109436326 0.07678893
0.12802579 -0.0058071953 0.19213752 0.07976193 0.11554632 0.084057644 -0.06286532 -0.036059093
-0.15955108 0.014177228 0.092529714 0.24748752 0.0045282217 -0.028150456 0.116473116 0.09166755
0.04533845 -0.017699637 -0.0011683267 0.0995689 0.28653187 0.06769934 0.04568595 -0.14096223
0.027351314 0.0013188673 0.059695628 0.22949913 -0.033210855 -0.104733445 0.061604317 0.099299245
-0.18422823 0.5088452 0.07097822 0.09230128 0.22166187 -0.002509827 -0.06020915 0.09402029
0.050267883 0.20280471 -0.10354035 0.08864247 0.36913303 -0.1146878 0.09980481 0.08679841
00000000: a881 e8bd fc27 86bd 2e8b 1cbe 17a5 d3bd
00000010: 6a18 293e eaaa eb3d b555 8cbd 34a5 683d
00000020: 9fc5 5c3c 8446 d2bd de61 fb3c f648 d8bd
00000030: b2ba 633d 9f1f 1dbd 2720 e0bd 8443 9d3d
00000040: 3119 033e 494a bebb b3bf 443e 395a a33d
00000050: 8da3 ec3d 6a26 ac3d 88bf 80bd b3b2 13bd
00000060: 5c61 23be 9b47 683c 3880 bd3d 5e6d 7d3e
00000070: 7a61 943b c99b e6bc 7589 ee3d 32bc bb3d
00000080: d0b4 393d d4fe 90bc 8a22 99ba c8ea cb3d
00000090: 4eb4 923e f4a5 8a3d 3121 3b3d 6758 10be
000000a0: dd0f e03c d8dd ac3a 6783 743d d201 6b3e
000000b0: 1b08 08bd 7d7e d6bd cf54 7c3d 675d cb3d
000000c0: 53a6 3cbe ae43 023f 075d 913d 7408 bd3d
000000d0: 54fb 623e e97b 24bb df9d 76bd b68d c03d
000000e0: b2e5 4d3d 0aac 4f3e f70c d4bd 2f8a b53d
000000f0: 01ff bc3e 70e1 eabd 7766 cc3d 5dc3 b13d

fc_2.weight f4 [4, 64]
-0.087733544 0.16645573 1.7893791 -0.12167996 -4.8861647 0.07238499 0.31353927 0.04641664
0.21064608 -0.059564173 -0.14921938 0.053238675 0.251498 0.049951855 -0.045557197 0.72983253
-0.19214822 1.2703269 -0.3364037 0.91601825 1.8622123 -0.15081415 0.020960987 1.0311553
-5.304546 0.6072711 0.07137358 0.77251554 -3.7813168 -0.041842476 -0.059742525 0.1394166
0.08884763 0.1885335 -0.44225085 0.08717237 -0.8028502 -0.100738585 -0.05214161 0.018926263
0.064659834 0.100946076 0.30087882 -0.22511616 0.023801506 0.09580313 -0.13914676 -0.116117276
0.15198563 0.25438246 -0.12790152 0.15546526 2.3614507 -0.023106875 0.055489045 -0.25932163
0.030357718 -0.26723364 -0.17296045 1.960713 3.7121775 -0.06447823 -0.07772358 0.060064554
0.014105992 0.5511729 3.5211084 -0.1062337 4.4500637 0.08812116 -0.04400971 -0.057210624
-0.16823395 -0.059958026 -0.12752694 0.114178374 -0.16940652 -0.004722131 0.07673813 -1.7919472
0.16913715 -4.668062 0.11553488 -3.0435581 -1.6954914 0.21559142 0.044119224 1.2386634
1.2757871 2.287057 0.1708655 1.2928827 1.5239874 -0.06130153 -0.008615154 0.022309024
-1.1424489 -0.26476324 -0.18204738 -0.016275583 0.5593221 0.1387697 -0.010536601 0.12363844
-0.10635446 -0.36349383 0.09678208 0.21272475 -0.024405897 -0.2503143 0.023167327 -0.092050955
-0.6498878 -1.8633044 -0.14594342 0.20528962 -3.2704518 0.049304735 0.21803735 -0.65383947
-1.1789985 0.04821282 -0.23534837 2.2227356 -2.2852168 0.1006166 0.19385782 0.052034125
-0.0646223 -0.8915235 -3.1042523 -0.09919417 2.1998963 -0.0408366 0.047794968 -0.010607913
-0.063142814 0.021092847 0.13476075 -0.05397038 -0.11227289 -0.09902709 -0.08499758 0.77728415
0.10417452 3.0680718 -0.050989993 0.6052542 -0.40029606 -0.058798116 0.06848164 -2.264782
-1.5322493 -0.45308852 -0.22961095 -4.46546 1.5932354 0.04653129 0.06745999 -0.08927592
1.8229771 -0.061123498 0.84155357 -0.11216764 2.0027087 -0.057045337 0.12248819 -0.20213342
-0.09775725 0.15569845 -0.3738395 0.005106194 0.03877206 -0.03411734 0.10055323 0.105582535
0.00316455 -5.069206 -0.07477621 -0.11972545 -5.281647 -0.052000385 -0.10779611 1.3593557
0.69895345 -0.15995353 0.25651547 -1.0712174 -1.7979971 -0.05639144 0.08367474 0.03604427
0.021795427 -0.0152582815 -3.0085034 0.04853919 4.22758 -0.15723096 -0.06640152 0.124188945
0.12225842 -0.04721369 -0.012543923 0.085336655 -0.08289708 -0.10725025 0.0045299004 0.3429943
0.15737803 -0.023668904 0.36587292 -3.9067175 0.0805692 -0.104834504 -0.052249014 -0.27325416
1.1272496 -2.1928189 -0.057129797 0.15157679 0.063169375 -0.1208666 -0.044528116 -0.16597557
0.54313177 0.12494006 -0.29619795 -0.21536347 -2.0191133 -0.10789513 -0.057705123 0.06292099
0.07145496 -0.18868649 0.14584097 0.037382778 -0.07657683 0.23262514 -0.1315699 -0.03257218
0.5239104 3.2014399 0.45109951 -0.13760816 2.4333136 -0.07626113 -0.15168072 -0.030875312
0.52719563 0.22119829 -0.110961035 -5.0836673 0.42831028 -0.0051477626 0.087171726 0.086620316
00000000: a5ad b3bd 5f73 2a3e 600a e53f 5833 f9bd
00000010: 765b 9cc0 953e 943d 3888 a03e 601f 3e3d
00000020: 9bb3 573e 90f9 73bd f7cc 18be cc10 5a3d
00000030: 59c4 803e 519a 4c3d 2f9a 3abd 4ed6 3a3f
00000040: 81c2 44be 129a a23f 1b3d acbe 2c80 6a3f
00000050: f95c ee3f 066f 1abe 60b6 ab3c e6fc 833f
00000060: d7be a9c0 1e76 1b3f 502c 923d 94c3 453f
00000070: 1801 72c0 0463 2bbd 94b4 74bd 3ac3 0e3e
00000080: bff5 b53d ed0e 413e b46e e2be 6d87 b23d
00000090: 9787 4dbf 0850 cebd 7192 55bd 400b 9b3c
000000a0: 606c 843d d1bc ce3d ca0c 9a3e da84 66be
000000b0: 60fb c23c 6e34 c43d 7d7c 0ebe e5ce edbd
000000c0: 1fa2 1b3e 6b3e 823e 9ef8 02be 4932 1f3e
000000d0: 0222 1740 a14a bdbc 7b48 633d cec5 84be
000000e0: c0b0 f83c d9d2 88be 8b1c 31be a5f8 fa3f
000000f0: 5194 6d40 2a0d 84bd 8a2d 9fbd 4006 763d
00000100: d21c 673c ab19 0d3f d759 6140 0e91 d9bd
00000110: ec66 8e40 de78 b43d 8743 34bd b055 6abd
00000120: 8545 2cbe 8c96 75bd 6c96 02be 5ad6 e93d
00000130: e778 2dbe 1bbc 9abb e128 9d3d 875e e5bf
00000140: 4a32 2d3e c460 95c0 8d9d ec3d a8c9 42c0
00000150: dd05 d9bf ffc3 5c3e 5cb6 343d 868c 9e3f
00000160: fe4c a33f 245f 1240 5ef7 2e3e 2e7d a53f
00000170: 0512 c33f 5017 7bbd 9326 0dbc 6ac1 b63c
00000180: c43b 92bf 0c8f 87be a16a 3abe 5f54 85bc
00000190: bc2f 0f3f a519 0e3e b5a1 2cbc 2736 fd3d
000001a0: 5ed0 d9bd dd1b babe af35 c63d 84d4 593e
000001b0: e0ee c7bc 3229 80be 68c9 bd3c 3685 bcbd
000001c0: 0c5f 26bf c280 eebf 3172 15be 7137 523e
000001d0: 154f 51c0 c3f3 493d 2f45 5f3e 0662 27bf
000001e0: 6ce9 96bf ce7a 453d 2aff 70be 4d41 0e40
000001f0: fe40 12c0 1310 ce3d aa82 463e bc21 553d
00000200: b258 84bd e23a 64bf 12ac 46c0 5026 cbbd
00000210: 1acb 0c40 4744 27bd a8c4 433d d0cc 2dbc
00000220: 0551 81bd e8ca ac3c b9fe 093e 0c10 5dbd
00000230: 54ef e5bd b7ce cabd 3613 aebd 18fc 463f
00000240: 7359 d53d 4a5b 4440 e2da 50bd f0f1 1a3f
00000250: 9bf3 ccbe 4bd6 70bd 1a40 8c3d 30f2 10c0
00000260: bf20 c4bf 38fb e7be 221f 6bbe 0ce5 8ec0
00000270: 23ef cb3f 9897 3e3d 7728 8a3d 4bd6 b6bd
00000280: 5057 e93f a25c 7abd 0e70 573f 26b8 e5bd
00000290: 612c 0040 5fa8 69bd 17db fa3d 10fc 4ebe
000002a0: f434 c8bd 6a6f 1f3e e467 bfbe dc51 a73b
000002b0: 74cf 1e3d a0be 0bbd daee cd3d a83b d83d
000002c0: 5764 4f3b f036 a2c0 4524 99bd 9e32 f5bd
000002d0: 4103 a9c0 5bfe 54bd 35c4 dcbd 5eff ad3f
000002e0: 9dee 323f dcca 23be ff55 833e a71d 89bf
000002f0: c524 e6bf b6fa 66bd a95d ab3d 28a3 133d
00000300: 538c b23c dffd 79bc 528b 40c0 08d1 463d
00000310: 5648 8740 2701 21be 85fd 87bd c656 fe3d
00000320: 9f62 fa3d 2463 41bd 0785 4dbc fcc4 ae3d
00000330: f2c5 a9bd 05a6 dbbd 8f6f 943b f39c af3e
00000340: b527 213e 4ae5 c1bc b253 bb3e a907 7ac0
00000350: 7701 a53d 79b3 d6bd 1003 56bd f8e7 8bbe
00000360: b749 903f 2557 0cc0 ef00 6abd f236 1b3e
00000370: f25e 813d e888 f7bd 1d63 36bd 80f5 29be
00000380: af0a 0b3f 93e0 ff3d 42a7 97be 3e88 5cbe
00000390: 2739 01c0 1ff8 dcbd 355c 6cbd b8dc 803d
000003a0: fa56 923d 0837 41be 5657 153e af1e 193d
000003b0: 50d4 9cbd 4935 6e3e 43ba 06be 686a 05bd
000003c0: fe1e 063f 64e4 4c40 84f6 e63e 27e9 0cbe
000003d0: 69bb 1b40 cc2e 9cbd 3152 1bbe 39ee fcbc
000003e0: 4bf6 063f ce81 623e 8a3f e3bd 67ad a2c0
000003f0: 7c4b db3e 90ae a8bb 1787 b23d fe65 b13d

fc_2.bias f4 [4]
-0.1810806 0.17546675 0.039872274 0.09967656
00000000: 316d 39be 8ead 333e 1c51 233d 3923 cc3d
