Mindset augmented trained networks (pth)/segmentation_pointnet_final_f02SchedulerEarlyStop.pth (torch, 79498 bytes, 18 tensors)

base_pointnet.conv_1_a.weight f4 [64, 1, 3]
0.167467 -0.06434778 0.2041618 0.38491502 0.16126467 0.541977 -0.4055339 -0.009725574
-0.16672029 -0.28053537 0.1892986 0.4997062 -0.38655898 0.22379655 0.09157896 0.017386405
-0.15107453 0.27288184 -0.41122508 -0.3753101 0.5138848 -0.2447099 0.38134548 -0.061323065
0.3086209 0.5204157 0.4128167 -0.027175825 -0.30439383 0.20184903 -0.2460239 0.43717638
-0.34538493 0.22841512 0.55245817 0.46024564 0.39128447 -0.5094939 0.5343834 -0.33412927
0.5703785 0.36099526 -0.48805118 0.5594485 -0.31773168 -0.5728928 0.2659902 0.2843049
-0.28638566 -0.5022621 -0.26265243 0.33408603 0.00670726 0.14219242 -0.39595523 0.25916663
0.28462422 0.15681906 0.36331573 0.555377 0.19534475 -0.08166547 -0.03277831 -0.25940123
0.09900625 0.40358892 0.0918322 0.07911814 0.026386507 -0.26837564 0.2816858 -0.23492806
0.09537627 0.3364463 -0.52502596 -0.497928 0.12284112 -0.07661658 0.34231472 0.40578908
0.39109343 -0.29473463 -0.35230693 0.4954442 0.37454283 0.1634113 0.31352252 -0.046705615
-0.11399533 0.23110314 0.060218055 -0.05481134 -0.035898253 -0.13426279 -0.0183704 0.21279547
0.0023312701 0.12581362 -0.13214776 -0.37709332 0.3781167 -0.16119252 -0.25873265 0.19248548
0.07322934 -0.093382 0.06717991 -0.04260732 0.035338823 0.1097676 0.43602636 -0.2060053
0.12467277 0.3394653 -0.4858043 -0.015139189 0.49941975 0.21036102 -0.41572073 0.3725363
0.29789343 0.22571279 -0.3662831 -0.104068525 -0.52202356 0.49024042 0.03931886 -0.028361658
-0.039934807 0.24851869 0.5403438 -0.3624793 -0.20376511 -0.044619214 -0.26933652 0.044293594
-0.16723202 -0.33067933 -0.020539736 -0.039736997 0.013817531 0.17703015 0.40048608 -0.444966
-0.5479673 0.10414084 0.39095137 -0.38577336 0.38165203 -0.06431524 0.10089128 0.10855477
0.54709995 0.2818821 0.17409623 -0.24657723 0.2977092 -0.36547047 0.50600797 0.35405865
0.57100624 0.07345017 0.18876009 -0.37919277 0.35850292 0.25550792 0.23786001 0.24769692
-0.32852846 0.43960875 0.11790309 0.14555788 -0.1964638 -0.25776777 0.289574 0.028964052
-0.28983387 -0.36774033 0.24552096 -0.067510225 -0.24991342 -0.3886385 0.37364545 0.07609838
-0.13310295 0.051035568 0.2764203 -0.36132887 0.171084 -0.11339337 0.2696149 0.059150703
00000000: 787c 2b3e c5c8 83bd ca0f 513e 9513 c53e
00000010: 9122 253e 01bf 0a3f 24a2 cfbe 0458 1fbc
00000020: b9b8 2abe 55a2 8fbe 7ed7 413e 7ed9 ff3e
00000030: 0feb c5be ec2a 653e c08d bb3d ef6d 8e3c
00000040: 48b3 1abe 2bb7 8b3e 188c d2be a528 c0be
00000050: f48d 033f 3b95 7abe b73f c33e e52d 7bbd
00000060: 8f03 9e3e f739 053f b65c d33e d69f debc
00000070: 82d9 9bbe 83b1 4e3e b0ed 7bbe 95d5 df3e
00000080: 4bd6 b0be a7e5 693e e66d 0d3f 51a5 eb3e
00000090: 7056 c83e 316e 02bf 5acd 083f fe12 abbe
000000a0: 5304 123f 5fd4 b83e d8e1 f9be 0438 0f3f
000000b0: baad a2be 1aa9 12bf de2f 883e 6990 913e
000000c0: 24a1 92be 4094 00bf 617a 86be 530d ab3e
000000d0: 93c8 db3b e49a 113e a5ba cabe 7db1 843e
000000e0: 44ba 913e 2d95 203e 8504 ba3e 302d 0e3f
000000f0: 7408 483e 3a40 a7bd 8d42 06bd 3dd0 84be
00000100: cac3 ca3d 35a3 ce3e 8512 bc3d b108 a23d
00000110: 8428 d83c 8868 89be 1f39 903e fb90 70be
00000120: a254 c33d b042 ac3e 1a68 06bf 6bf0 febe
00000130: 2094 fb3d 27e9 9cbd e043 af3e 96c3 cf3e
00000140: 663d c83e 75e7 96be 9361 b4be ddaa fd3e
00000150: 14c4 bf3e 4b55 273e 0686 a03e 634e 3fbd
00000160: 6276 e9bd 4da6 6c3e 35a7 763d db81 60bd
00000170: 0c0a 13bd 2f7c 09be 857d 96bc 0ee7 593e
00000180: 39c8 183b 49d5 003e be51 07be 6012 c1be
00000190: 8398 c13e a70f 25be 9b78 84be ea1a 453e
000001a0: 44f9 953d 103f bfbd 9f95 893d 0385 2ebd
000001b0: 71bf 103d d6cd e03d d93e df3e 0ef3 52be
000001c0: 7054 ff3d 65ce ad3e 57bb f8be 5c0a 78bc
000001d0: f2b3 ff3e e168 573e 59d9 d4be 14bd be3e
000001e0: 7d85 983e 4121 673e 7589 bbbe e121 d5bd
000001f0: 56a3 05bf cb00 fb3e d00c 213d b556 e8bc
00000200: ae92 23bd af7b 7e3e f953 0a3f e396 b9be
00000210: cda7 50be a3c2 36bd 7ae6 89be 336d 353d
00000220: df3e 2bbe cd4e a9be f342 a8bc 43c3 22bd
00000230: ed62 623c 6447 353e 830c cd3e 95d2 e3be
00000240: 9647 0cbf cb47 d53d c72a c83e 1684 c5be
00000250: e567 c33e b5b7 83bd 16a0 ce3d f751 de3d
00000260: be0e 0c3f da52 903e 4846 323e be7e 7cbe
00000270: 576d 983e f21e bbbe bd89 013f 2d47 b53e
00000280: 772d 123f 0b6d 963d 534a 413e 8e25 c2be
00000290: b28d b73e efd1 823e 9391 733e 43a4 7d3e
000002a0: e234 a8be 6614 e13e 2d77 f13d 200d 153e
000002b0: ce2d 49be 23fa 83be 0b43 943e 0546 ed3c
000002c0: 1b65 94be 7648 bcbe d969 7b3e cd42 8abd
000002d0: 4ee9 7fbe a0fb c6be 754e bf3e 78d9 9b3d
000002e0: 244c 08be ac0a 513d f686 8d3e 1900 b9be
000002f0: a530 2f3e c83a e8bd f70a 8a3e 0248 723d

base_pointnet.conv_1_a.bias f4 [64]
0.09258571 0.25092405 0.13022272 -0.5624015 0.2316487 -0.3213897 -0.25353763 -0.4206911
-0.51561797 -0.08282122 -0.4735388 0.3242578 0.24989621 -0.16524778 0.5151575 -0.122326605
0.037992872 -0.061127733 0.052049745 -0.1957291 0.2696765 0.41990867 0.57349783 0.22142482
0.27248636 0.3932139 -0.0466694 -0.5365086 -0.0042138537 0.28902122 -0.45820424 -0.51006144
-0.018432533 0.4521341 0.00117511 0.14992258 -0.19361076 0.09550254 0.23167303 0.08816935
0.08765531 -0.43074104 0.41994143 0.13192965 0.5004417 -0.467288 -0.27832556 -0.52034974
-0.22953552 -0.26461217 0.36616638 0.37145275 -0.20409885 -0.24772006 0.44224027 0.06688393
0.56763464 0.11782307 -0.36652628 0.39587447 0.43633983 0.007612536 -0.2967792 -0.4120201
00000000: 949d bd3d 1e79 803e 1b59 053e 8bf9 0fbf
00000010: 5135 6d3e 318d a4be afcf 81be d364 d7be
00000020: 8aff 03bf 2c9e a9bd ad73 f2be 1e05 a63e
00000030: cbe4 7f3e b736 29be 5de1 033f 5f86 fabd
00000040: 6a9e 1b3d 1361 7abd 1d32 553d 366d 48be
00000050: 0a13 8a3e 45fe d63e c1d0 123f 30bd 623e
00000060: 5583 8b3e 5553 c93e 6a28 3fbd a158 09bf
00000070: 5e14 8abb 97fa 933e bf99 eabe 6393 02bf
00000080: d3ff 96bc 1f7e e73e 2606 9a3a 4e85 193e
00000090: e641 46be d696 c33d b23b 6d3e 2292 b43d
000000a0: a184 b33d 178a dcbe 9002 d73e 9118 073e
000000b0: f21c 003f 5f40 efbe b080 8ebe a435 05bf
000000c0: 5c0b 6bbe 3f7b 87be 297a bb3e 0e2f be3e
000000d0: 4aff 50be 54aa 7dbe 516d e23e 71fa 883d
000000e0: 8150 113f 394d f13d 55a9 bbbe 0fb0 ca3e
000000f0: ef67 df3e 9572 f93b 71f3 97be 4cf4 d2be

base_pointnet.conv_1_b.weight f4 [64, 1, 3]
0.9824277 0.5471617 -0.6686305 -0.19574507 0.5245529 0.14919059 -0.12705271 0.4957681
-0.13497229 -0.061081495 0.15831903 0.115600966 0.33087352 0.43499565 0.22762807 0.2990946
-0.5721383 -0.08113923 -0.46677873 0.11826631 -0.077172264 -0.30088428 0.4514814 -0.86213326
-0.27284002 -0.38908622 -0.31551176 0.301912 0.4607728 -0.31280187 -1.0227025 -0.03158067
0.45540977 -0.3827265 -0.27344537 -0.437248 0.07985422 0.38717088 0.2871588 -0.5071185
-0.45966515 0.4987218 0.21670413 0.6729925 0.13416938 0.10178764 0.15982379 0.6242412
-0.16358687 0.26332343 -0.5193354 -0.43267542 0.38094372 0.26134393 -0.16006956 -0.32269976
-0.51460034 -0.03564501 0.22049306 0.3043652 -0.95798075 0.19352163 -0.49003133 -0.5971314
-0.34778872 -0.48275945 -0.460668 -0.6119876 0.669946 0.07711374 -0.007323603 0.5742758
0.59715605 0.17209846 -0.48474178 0.40383726 -0.5120323 -0.45934883 0.38490266 -0.19891147
-0.3871229 -0.43782693 -0.6568563 -0.66930336 -0.33190125 0.40799135 0.1782372 -0.37787575
-0.29961672 0.68839455 -1.0505621 -0.3808473 0.35950288 0.07634034 0.19610539 -0.65147513
-0.27454466 -0.56850415 -0.8248122 -0.94082266 -0.4921089 0.057979185 0.4624136 0.2183916
-0.77551126 0.30058375 -0.5172664 0.61235535 0.19889626 -0.61595666 0.026282577 0.3524183
-0.39264137 0.6976237 -0.0052966196 -0.3298877 -0.43273017 -0.66240966 -0.4155661 -0.6254017
-0.58766234 -0.3715338 -0.58455014 -0.3403175 -0.07745163 0.025136806 -0.3283336 0.36910588
0.33478963 -0.3551227 -0.6752042 0.0466723 0.45100573 0.24922842 -0.33676603 -0.02763758
0.4029735 0.72068024 0.01194716 -0.38162518 0.5266322 0.19642311 -0.31339723 0.6999775
-0.06975723 -0.019876633 0.11624461 0.5026951 0.7420611 0.13569994 0.5113603 0.059374776
0.3866275 0.7749307 -0.13674569 0.28488952 -0.38955525 0.0077739386 0.5503058 0.49724644
-0.1226997 -0.004160606 0.30886313 0.08008841 0.14641868 -0.33190826 -0.07940188 -0.186758
0.39797446 0.77425456 -0.0018809508 0.0038921693 0.40012237 0.62018615 -1.1706625 -0.098965794
0.41085285 -0.6088629 -0.32568565 0.28562856 -0.09043327 0.43856245 -0.152483 0.35529834
0.13498029 0.45510843 0.376503 0.61886257 0.12559392 -0.44987845 0.55424404 -0.57864016
00000000: 6280 7b3f ca12 0c3f 5e2b 2bbf 6571 48be
00000010: 1949 063f 6bc5 183e 1b1a 02be 51d5 fd3e
00000020: 2d36 0abe 9730 7abd 621e 223e 33c0 ec3d
00000030: 4168 a93e c0b7 de3e 5517 693e ed22 993e
00000040: a877 12bf 532c a6bd 9ffd eebe 9b35 f23d
00000050: 7e0c 9ebd 810d 9abe 9228 e73e c4b4 5cbf
00000060: b0b1 8bbe 4f36 c7be c28a a1be 3694 9a3e
00000070: 6aea eb3e 9127 a0be eae7 82bf bc5a 01bd
00000080: 782b e93e baf4 c3be 0801 8cbe f8de dfbe
00000090: 9c8a a33d 433b c63e 7a06 933e 85d2 01bf
000000a0: 3b59 ebbe 7758 ff3e b0e7 5d3e 3d49 2c3f
000000b0: b363 093e 0a76 d03d d9a8 233e 45ce 1f3f
000000c0: 5183 27be 54d2 863e 2af3 04bf a287 ddbe
000000d0: 0e0b c33e dfce 853e 46e9 23be e738 a5be
000000e0: d9bc 03bf 8100 12bd efc8 613e c1d5 9b3e
000000f0: 3a3e 75bf 892a 463e 63e5 fabe 9add 18bf
00000100: 5d11 b2be 3f2c f7be addc ebbe 38ab 1cbf
00000110: 9581 2b3f cfed 9d3d d6fa efbb bd03 133f
00000120: 38df 183f 943a 303e 1330 f8be c2c3 ce3e
00000130: 8c14 03bf c52f ebbe f611 c53e 73af 4bbe
00000140: f934 c6be da2a e0be bc27 28bf 7757 2bbf
00000150: f6ee a9be 3ee4 d03e d083 363e ee78 c1be
00000160: 5d67 99be a03a 303f d278 86bf 6bfe c2be
00000170: c310 b83e 5358 9c3d dacf 483e 13c7 26bf
00000180: 1e91 8cbe 7d89 11bf e426 53bf c1d9 70bf
00000190: b3f5 fbbe 957b 6d3d 7ac1 ec3e 0ca2 5f3e
000001a0: e887 46bf 1de6 993e 926b 04bf 52c3 1c3f
000001b0: 76ab 4b3e 56af 1dbf 8f4e d73c 2c70 b43e
000001c0: 4a08 c9be 7897 323f 448f adbb 0ae7 a8be
000001d0: cf8e ddbe ae93 29bf 14c5 d4be 531a 20bf
000001e0: 0a71 16bf ae39 bebe 14a5 15bf 183e aebe
000001f0: f69e 9ebd b4eb cd3c 571b a8be 72fb bc3e
00000200: 8c69 ab3e a4d2 b5be 2fda 2cbf 742b 3f3d
00000210: 39ea e63e bc35 7f3e 996c acbe 3568 e2bc
00000220: 8b52 ce3e 807e 383f 05be 433c 6064 c3be
00000230: 5ed1 063f 2423 493e 9a75 a0be ba31 333f
00000240: e1dc 8ebd 52d4 a2bc a711 ee3d a0b0 003f
00000250: b7f7 3d3f edf4 0a3e 82e8 023f f732 733d
00000260: 0af4 c53e dc61 463f 1007 0cbe 0add 913e
00000270: c973 c7be 86bc fe3b d7e0 0c3f 1697 fe3e
00000280: fb49 fbbd b155 88bb 4f23 9e3e 6405 a43d
00000290: c7ee 153e e1ef a9be 749d a2bd 7d3d 3fbe
000002a0: 4fc3 cb3e 8c35 463f 3c8a f6ba c413 7f3b
000002b0: d7dc cc3e 85c4 1e3f 45d8 95bf 94ae cabd
000002c0: 4e5b d23e 70de 1bbf 45c0 a6be e83d 923e
000002d0: 1435 b9bd 428b e03e 8124 1cbe aae9 b53e
000002e0: 4638 0a3e f903 e93e 00c5 c03e c76d 1e3f
000002f0: b19b 003e 7856 e6be f0e2 0d3f c321 14bf

base_pointnet.conv_1_b.bias f4 [64]
0.36584938 0.3896913 -0.27716577 -0.3791318 -0.42010108 -0.54561716 0.17578305 0.18972024
-0.3490679 -0.22070803 -0.2761179 -0.48257864 -0.022500947 0.20382065 0.17136201 -0.15837352
-0.42532873 -0.1581083 -0.17590497 0.5056378 -0.46388406 0.5026686 0.24326429 0.08607122
0.28866446 -0.46531206 -0.20404615 -0.24258848 0.22299856 -0.20899862 -0.19166695 -0.014066358
0.14862381 0.17435841 0.14168896 -0.5528001 0.55491775 0.029047247 0.21477975 0.3499792
0.50602597 0.07460622 0.09541612 0.39615598 0.5054737 0.0634666 -0.23485564 -0.46494353
0.22335185 -0.26494426 -0.5504997 0.11654778 -0.36123732 0.18169685 0.3775043 -0.18782888
-0.3954514 0.046095315 -0.3152985 -0.4243033 0.45698 0.3274306 0.02318155 0.47085214
00000000: 9c50 bb3e 9e85 c73e ace8 8dbe 901d c2be
00000010: 7d17 d7be 91ad 0bbf 7900 343e 0646 423e
00000020: 07b9 b2be 4901 62be 535f 8dbe 8c14 f7be
00000030: e853 b8bc 5cb6 503e 8679 2f3e ab2c 22be
00000040: b0c4 d9be 24e7 21be 6f20 34be 7b71 013f
00000050: 3682 edbe e4ae 003f 461a 793e 1c46 b03d
00000060: d4cb 933e 623d eebe 79f1 50be 1d69 78be
00000070: bc59 643e bc03 56be 5744 44be 9576 66bc
00000080: d730 183e 038b 323e e916 113e 4f84 0dbf
00000090: 170f 0e3f 7ef4 ed3c 39ef 5b3e 7930 b33e
000000a0: eb8a 013f 25cb 983d 8769 c33d f5d4 ca3e
000000b0: b966 013f c7fa 813d ff7d 70be 140d eebe
000000c0: 59b6 643e c6a6 87be 8ced 0cbf 9ab0 ee3d
000000d0: 19f4 b8be bd0e 3a3e 3e48 c13e 3756 40be
000000e0: 9b78 cabe 71ce 3c3d ce6e a1be 483e d9be
000000f0: 48f9 e93e fca4 a73e 3ce7 bd3c 8813 f13e

base_pointnet.conv_2.weight f4 [64, 64, 3]
0.0061459164 -0.011406414 -0.014265882 0.023870315 0.06178588 0.05951694 -0.004191505 -0.0008708461
-0.01692872 -0.014339203 -0.039656956 -0.061285816 0.11256439 -0.135142 0.011561592 0.00030654448
-0.017374981 0.025957223 0.06267314 -0.016109241 -0.07606189 -0.038658798 0.0131938085 -0.008712463
-0.0634854 -0.04108316 0.006251069 -0.050400257 0.060648084 -0.030251764 0.058988433 -0.02411221
-0.1432646 0.029569648 -0.029754622 -0.054401398 -0.048822157 0.0021513083 -0.06441619 -0.005913897
0.04015207 0.0326998 0.107906036 -0.055280935 -0.0548758 -0.0032657317 -0.030504314 -0.051880546
0.05474013 0.074723534 -0.035537712 -0.043471158 -0.0071194703 -0.039179984 0.0365228 -0.012630716
0.027662853 0.046929143 0.010768139 -0.05396549 0.06332618 -0.04385855 0.027197985 -0.05530099
0.002969229 -0.06817936 0.038265683 0.027022725 0.003295757 0.08560567 0.023327433 -0.037037753
-0.019278295 -0.0109471865 0.019189222 0.001168764 0.014560265 -0.044028867 -0.071362704 0.031578828
0.009487889 0.048077695 0.006078074 0.081418656 0.046788268 0.055522382 0.04388963 -0.142877
0.13244508 -0.054631285 -0.075745255 0.038245577 -0.1570858 -0.030937763 -0.10963949 -0.025385467
0.06822733 0.069595695 0.12581852 -0.0040467056 0.013517357 0.010948623 -0.0032398964 0.032921012
-0.10431969 0.077649616 0.03981041 0.074530035 -0.007148937 -0.037549358 0.048052404 -0.034156695
0.042104695 0.036707673 0.10275317 0.07058723 0.053449452 -0.051511664 -0.016810209 -0.10420836
0.04486166 -0.054712947 -0.0008527482 0.010889802 0.096190475 0.03150646 -0.032820586 -0.08944449
-0.09413446 -0.022658393 -0.020608347 0.06412412 -0.008256995 -0.046620782 -0.08454604 -0.05064605
0.018681692 0.023204058 0.008752554 -0.009735251 -0.023277191 -0.055180937 0.08579062 -0.02456394
0.10322865 -0.06958771 0.058985658 0.031792663 -0.34384933 -0.06281474 -0.0036910828 0.015880167
-0.0005016613 -0.027633967 -0.007973 -0.013778483 0.082036026 -0.061283264 -0.029667817 0.028475894
0.025608296 0.056095928 0.06969477 0.04622408 0.050008032 -0.048833247 0.061999638 0.006582036
-0.05614331 0.0629572 0.034552034 -0.077630036 -0.0071187657 0.028749702 0.09966822 0.03400614
0.0012132655 -0.023854624 -0.005151009 0.01067189 -0.041419517 0.024298308 -0.014099036 0.05093472
0.005310155 0.15405904 0.015504883 -0.038640607 0.108566895 -0.03754708 0.023172015 -0.030528357
0.042909715 0.050655108 0.021522952 0.03980047 -0.052815896 -0.027934857 0.02561045 -0.013174052
0.062426966 0.023434006 -0.056555655 -0.048788745 -0.09441285 0.07390883 0.085300565 0.023187164
0.02847399 0.03506221 -0.06441518 -0.05817128 -0.051476113 -0.018596064 0.0019223327 0.061230045
0.0844611 -0.028964235 0.012741397 0.04488475 0.022121413 -0.059958834 -0.05229668 0.027804773
0.07118066 0.059402384 0.038967237 -0.020280212 -0.05578787 -0.05709143 0.04654988 0.07938018
-0.031039942 0.013573665 -0.019744702 -0.12293877 -0.09491173 -0.02644296 -0.11573989 -0.030202597
-0.031421017 0.015640648 0.036679473 0.03102294 0.04393405 -0.026850022 -0.04857452 -0.037441913
0.0049179858 -0.020211494 0.07615148 0.021081224 0.059976064 0.14337084 0.12052537 0.0088581145
00000000: af63 c93b f8e1 3abc 72bb 69bc ae8b c33c
00000010: 3113 7d3d 09c8 733d e458 89bb 7e49 64ba
00000020: 19ae 8abc faee 6abc 556f 22bd d606 7bbd
00000030: 2988 e63d aa62 0abe d56c 3d3c b4b7 a039
00000040: fa55 8ebc 3ea4 d43c c65a 803d 87f7 83bc
00000050: 56c6 9bbd b058 1ebd d82a 583c b8be 0ebc
00000060: a204 82bd d146 28bd c4d5 cc3b 8070 4ebd
00000070: 206a 783d 8cd2 f7bc db9d 713d f886 c5bc
00000080: f5b3 12be 0c3c f23c f7bf f3bc 00d4 5ebd
00000090: bef9 47bd f7fc 0c3b a3ec 83bd 5dc9 c1bb
000000a0: 7f76 243d 3af0 053d d7fd dc3d 436e 62bd
000000b0: 72c5 60bd e305 56bb 2fe4 f9bc b280 54bd
000000c0: 3037 603d a708 993d fe8f 11bd d00e 32bd
000000d0: 724a e9bb 317b 20bd ee98 153d 10f1 4ebc
000000e0: 359d e23c c638 403d d96c 303c eb0a 5dbd
000000f0: 28b1 813d 06a5 33bd 4fce de3c 4a83 62bd
00000100: 6597 423b 9fa1 8bbd 7abc 1c3d c35e dd3c
00000110: a1fd 573b 0752 af3d 2c19 bf3c e6b4 17bd
00000120: 84ed 9dbc d45b 33bc b732 9d3c 3631 993a
00000130: 2d8e 6e3c 9d57 34bd 9c26 92bd cd58 013d
00000140: 1773 1b3c 1eed 443d 952a c73b d3be a63d
00000150: 0ea5 3f3d 706b 633d 9dc5 333d 594e 12be
00000160: af9f 073e 0ec5 5fbd 5420 9bbd 65a7 1c3d
00000170: 1adb 20be 3171 fdbc ab8a e0bd 2ff5 cfbc
00000180: c5ba 8b3d 3088 8e3d 92d6 003e 3a9a 84bb
00000190: e877 5d3c da61 333c 7154 54bb 2fd8 063d
000001a0: 90a5 d5bd c306 9f3d 3e10 233d 34a3 983d
000001b0: a141 eabb 5bcd 19bd 99d2 443d e4e7 0bbd
000001c0: f975 2c3d c95a 163d 4170 d23d 0a90 903d
000001d0: d0ed 5a3d e5fd 52bd 90b5 89bc 316b d5bd
000001e0: dcc0 373d af1a 60bd f78a 5fba 246b 323c
000001f0: 83ff c43d eb0c 013d e16e 06bd ac2e b7bd
00000200: 91c9 c0bd 189e b9bc d6d2 a8bc 8253 833d
00000210: 5948 07bc 6ff5 3ebd 7926 adbd 3c72 4fbd
00000220: 590a 993c 7016 be3c df66 0f3c 9a80 1fbc
00000230: cfaf bebc 6805 62bd feb2 af3d 513a c9bc
00000240: 8b69 d33d 0084 8ebd f29a 713d 0639 023d
00000250: 050d b0be 04a5 80bd 18e6 71bb 2017 823c
00000260: ec81 03ba a160 e2bc 30a1 02bc 25bf 61bc
00000270: 8102 a83d 2904 7bbd ec09 f3bc 4746 e93c
00000280: 7dc8 d13c d8c4 653d 22bc 8e3d 7655 3d3d
00000290: 39d5 4c3d 5f05 48bd 55f3 7d3d 1fae d73b
000002a0: 87f6 65bd b4ef 803d 6f86 0d3d 7ffc 9ebd
000002b0: 8944 e9bb 7f84 eb3c da1e cc3d 064a 0b3d
000002c0: 6f06 9f3a c66a c3bc ccc9 a8bb 27d9 2e3c
000002d0: 83a7 29bd 3f0d c73c a5ff 66bc eda0 503d
000002e0: cf00 ae3b a7c1 1d3e 3108 7e3c 9d45 1ebd
000002f0: 5258 de3d f8ca 19bd 3dd3 bd3c 9b16 fabc
00000300: 19c2 2f3d bb7b 4f3d e750 b03c d105 233d
00000310: 7b55 58bd a4d7 e4bc 02cd d13c fbd7 57bc
00000320: 6bb3 7f3d acf8 bf3c e7a6 67bd b5d6 47bd
00000330: 865b c1bd 835d 973d 10b2 ae3d 02f3 bd3c
00000340: 4942 e93c 649d 0f3d 1bec 83bd 0245 6ebd
00000350: 9ed8 52bd c656 98bc c8f6 fb3a 5bcc 7a3d
00000360: f1f9 ac3d 6746 edbc 4bc1 503c 12d9 373d
00000370: f737 b53c 6597 75bd 0b35 56bd d6c6 e33c
00000380: 2ac7 913d ea4f 733d 1c9c 1f3d b022 a6bc
00000390: d281 64bd b4d8 69bd 16ab 3e3d 1392 a23d
000003a0: 7a47 febc 1464 5e3c a4bf a1bc 52c7 fbbd
000003b0: 1561 c2bd e89e d8bc 0909 edbd 706b f7bc
000003c0: 53b3 00bd d120 803c 373d 163d d223 fe3c
000003d0: 31f4 333d 94f4 dbbc 13f6 46bd b15c 19bd
000003e0: 0e27 a13b 9392 a5bc 4ff5 9b3d 88b2 ac3c
000003f0: 76a9 753d cecf 123e 01d6 f63d a021 113c

base_pointnet.conv_2.bias f4 [64]
0.08710697 -0.017718248 -0.06921675 -0.035175487 -0.008937098 -0.00014847268 -0.046754595 0.017864695
0.07247162 -0.055728607 -0.0379622 0.0296826 0.04750488 0.033443235 -0.053393457 -0.034400605
0.0027236375 0.006258154 -0.028532488 -0.02147363 -0.049915496 0.029871421 -0.06562896 -0.052037157
-0.051987626 0.0076381476 0.050666787 0.021304514 -0.07632046 0.03629672 -0.071717694 -0.013939954
0.04765336 0.011979679 0.014639541 0.047400303 -0.07375829 0.043724854 0.036524776 -0.07846764
-0.030890748 -0.02020338 0.008478349 0.068544 -0.037313476 -0.038171854 0.062027816 0.0037075332
0.0010202902 -0.038132742 -0.079000205 0.05106631 0.042963173 -0.02473259 0.061752778 0.066486485
-0.038654305 -0.02166036 -0.020746466 0.047426406 0.0074356743 -0.04856648 -0.010273097 0.08784205
00000000: 2465 b23d dc25 91bc 83c1 8dbd 2c14 10bd
00000010: e86c 12bc 55af 1bb9 bf81 3fbd fb58 923c
00000020: 006c 943d ae43 64bd 407e 1bbd ed28 f33c
00000030: 7a94 423d c6fb 083d 19b3 5abd a6e7 0cbd
00000040: 0e7f 323b 3311 cd3b f7bc e9bc 77e9 afbc
00000050: 3174 4cbd e9b4 f43c 7a68 86bd ea24 55bd
00000060: faf0 54bd 6d49 fa3b fa87 4f3d ce86 ae3c
00000070: e74d 9cbd dfab 143d bae0 92bd 6864 64bc
00000080: 2b30 433d 6a46 443c afda 6f3c d226 423d
00000090: 960e 97bd d518 333d 019b 153d a4b3 a0bd
000000a0: 980e fdbc 8f81 a5bc c6e8 0a3c cc60 8c3d
000000b0: 04d6 18bd 175a 1cbd e110 7e3d 16fa 723b
000000c0: 42bb 853a 1431 1cbd dcca a1bd e82a 513d
000000d0: 27fa 2f3d 009c cabc 7bf0 7c3d 112a 883d
000000e0: fa53 1ebd 1171 b1bc 7ef4 a9bc 3142 423d
000000f0: f5a6 f33b a5ed 46bd 7e50 28bc 88e6 b33d

base_pointnet.bn_1.weight f4 [64]
0.956962 0.84897995 0.91168696 0.8986028 1.2613817 0.91886544 0.9846061 1.1051712
0.92264414 0.9356548 1.0769268 0.8676673 0.88675314 0.8560587 1.0820398 1.1573645
0.9156041 0.89670813 0.91559595 0.9051752 1.0589265 0.9617807 0.91209424 0.94476986
0.9544579 0.9599545 0.86758035 1.0539075 0.8742634 1.1149194 1.0301528 1.08497
1.0673707 1.0273554 1.3177804 1.0390164 0.8674279 0.9276515 1.2240157 1.1028115
0.92504674 1.0320122 1.044912 0.91246814 0.9188074 0.94648445 1.046007 0.9350751
1.1112174 1.2228125 0.91317946 0.96440196 0.9144035 0.8921607 0.92048955 0.87844634
0.97920644 0.9114119 0.9866827 0.96707356 0.92746836 1.0965434 0.9935579 0.8650743
00000000: 76fb 743f c056 593f 5164 693f d50a 663f
00000010: f574 a13f c43a 6b3f 250f 7c3f 4076 8d3f
00000020: 6832 6c3f 1387 6f3f bdd8 893f 721f 5e3f
00000030: 4102 633f aa26 5b3f 4880 8a3f 8524 943f
00000040: 0865 6a3f aa8e 653f 7f64 6a3f 90b9 673f
00000050: e78a 873f 4337 763f 027f 693f 70dc 713f
00000060: 5a57 743f 94bf 753f bf19 5e3f 71e6 863f
00000070: bacf 5f3f aeb5 8e3f 0cdc 833f 4ce0 8a3f
00000080: 9a9f 883f 6280 833f 07ad a83f 7dfe 843f
00000090: c10f 5e3f 927a 6d3f 8cac 9c3f ed28 8d3f
000000a0: ddcf 6c3f fa18 843f adbf 853f 8397 693f
000000b0: f636 6b3f ce4c 723f 8fe3 853f 1561 6f3f
000000c0: 5f3c 8e3f 1f85 9c3f 21c6 693f 0ce3 763f
000000d0: 5916 6a3f a564 643f 34a5 6b3f dce1 603f
000000e0: 46ad 7a3f 4a52 693f 3d97 7c3f 2292 773f
000000f0: 916e 6d3f 895b 8c3f cf59 7e3f 8275 5d3f

base_pointnet.bn_1.bias f4 [64]
-0.07658595 -0.16375323 -0.015921384 -0.041366823 -0.08806504 -0.054508325 -0.006269937 0.051320124
-0.08537876 -0.0811583 -0.23515868 -0.038659904 0.020401534 -0.011186605 -0.2891815 -0.003506343
0.012256605 -0.081783146 -0.079323314 -0.014989908 0.04444496 0.07073926 -0.1043095 -0.3135157
-0.04141951 -0.062570535 -0.11503847 -0.013154493 -0.21688153 -0.012541759 -0.24115378 0.066798285
-0.058419254 -0.14548458 -0.094198614 -0.08387693 -0.0827243 -0.07832726 -0.025980722 0.1710451
-0.055489894 -0.05376163 -0.2054064 -0.066467084 -0.04734351 -0.29988602 -0.16359444 -0.18133742
-0.15882233 0.13515276 -0.117687374 -0.039302472 -0.11313094 -0.13327444 0.03164026 -0.050189614
-0.046338193 0.06141302 -0.18910806 -0.12596008 -0.12359591 0.06619906 -0.05206974 -0.14120434
00000000: 18d9 9cbd edae 27be 906d 82bc 4270 29bd
00000010: 725b b4bd 1f44 5fbd 0b74 cdbb 0d35 523d
00000020: 0fdb aebd 5336 a6bd 70cd 70be d959 1ebd
00000030: 1e21 a73c 0648 37bc 990f 94be adca 65bb
00000040: edcf 483c ec7d a7bd 4374 a2bd 3b98 75bc
00000050: eb0b 363d bfdf 903d 38a0 d5bd 2185 a0be
00000060: 81a7 29bd fb24 80bd 4a99 ebbd f185 57bc
00000070: 3116 5ebe f37b 4dbc 04f1 76be 8acd 883d
00000080: 0749 6fbd e9f9 14be 34eb c0bd abc7 abbd
00000090: 5c6b a9bd 0b6a a0bd 86d5 d4bc 7226 2f3e
000000a0: 5f49 63bd 2835 5cbd 0e56 52be e51f 88bd
000000b0: 45eb 41bd a98a 99be 4d85 27be 84b0 39be
000000c0: 52a2 22be 7c65 0a3e 1406 f1bd a1fb 20bd
000000d0: 32b1 e7bd 1879 08be 3899 013d a093 4dbd
000000e0: 1ecd 3dbd 388c 7b3d 8ba5 41be aefb 00be
000000f0: da1f fdbd 5f93 873d 1447 55bd df97 10be

base_pointnet.bn_1.running_mean f4 [64]
13.422059 42.10204 -21.103947 15.255751 -0.40848902 3.6866136 -10.760741 1.7209003
43.893475 -4.459818 -7.211748 44.431564 16.635431 22.27864 -5.8689218 1.378824
-40.587452 17.964947 4.1730537 41.680653 0.23468517 7.704475 7.440299 -6.407257
-2.4101522 -17.457056 41.999588 -9.565884 32.35615 2.7766588 -3.9205108 1.1686441
-3.127408 -7.3497477 0.6187199 -2.1129682 21.515194 11.391561 -0.44064173 3.1090539
3.3664982 -6.270079 0.0831249 14.656989 -17.579433 -15.559571 -1.9623473 5.0161333
-1.2009767 0.14614017 30.01546 9.825262 15.754245 37.99658 7.716387 26.44687
11.575266 -9.817676 -1.5509843 -7.8437376 -8.554584 1.734389 4.5883965 7.53988
00000000: c1c0 5641 7d68 2842 e2d4 a8c1 8e17 7441
00000010: 7925 d1be 7af1 6b40 ff2b 2cc1 7646 dc3f
00000020: eb92 2f42 d4b6 8ec0 a4c6 e6c0 ecb9 3142
00000030: 5d15 8541 a83a b241 35ce bbc0 4e7d b03f
00000040: 8d59 22c2 36b8 8f41 a889 8540 fdb8 2642
00000050: 4f51 703e 0f8b f640 ee16 ee40 4008 cdc0
00000060: ef3f 1ac0 0da8 8bc1 94ff 2742 dc0d 19c1
00000070: b36c 0142 c7b4 3140 a6e9 7ac0 2196 953f
00000080: 7427 48c0 2231 ebc0 6d64 1e3f df3a 07c0
00000090: 1e1f ac41 d543 3641 cb9b e1be bdfa 4640
000000a0: b574 5740 7da4 c8c0 633d aa3d 0783 6a41
000000b0: aea2 8cc1 01f4 78c1 322e fbbf 2a84 a040
000000c0: 9bb9 99bf c5a5 153e a91f f041 4634 1d41
000000d0: 6311 7c41 7ffc 1742 a4ec f640 3193 d341
000000e0: 4a34 3941 3315 1dc1 a786 c6bf e6ff fac0
000000f0: 93df 08c1 7500 de3f 25d4 9240 b246 f140

base_pointnet.bn_1.running_var f4 [64]
37.322414 344.53592 100.070496 118.06656 30.607698 19.2935 157.92168 21.773893
436.85855 24.851156 42.802742 439.3958 103.596825 170.14053 59.288387 88.408615
336.63904 70.48436 58.597313 355.90698 9.307948 64.29723 11.334213 24.725243
78.27286 80.89007 375.2169 116.2629 207.85466 16.349684 5.0210176 15.0342045
11.6132965 38.660686 14.068628 2.4117517 111.04829 57.564194 114.94332 39.01954
75.5424 98.85856 1.2450936 138.97958 72.84578 68.90344 1.4564267 82.38146
102.35584 28.783535 198.64784 57.4479 88.492355 332.12723 38.837193 151.78685
58.125595 43.01366 41.031578 30.888412 93.84932 4.0737224 24.173353 22.094568
00000000: 274a 1542 9944 ac43 1824 c842 1422 ec42
00000010: 91dc f441 1759 9a41 f3eb 1d43 ef30 ae41
00000020: e56d da43 2bcf c641 0236 2b42 aab2 db43
00000030: 9331 cf42 fa23 2a43 4f27 6d42 36d1 b042
00000040: cc51 a843 fef7 8c42 a663 6a42 18f4 b143
00000050: 5bed 1441 2f98 8042 f058 3541 4ccd c541
00000060: b48b 9c42 b7c7 a142 c39b bb43 9b86 e842
00000070: cbda 4f43 27cc 8241 2dac a040 1a8c 7041
00000080: 10d0 3941 8ba4 1a42 1a19 6141 245a 1a40
00000090: b918 de42 bc41 6642 fbe2 e542 0214 1c42
000000a0: b515 9742 95b7 c542 3a5f 9f3f c6fa 0a43
000000b0: 0ab1 9142 90ce 8942 316c ba3f 4fc3 a442
000000c0: 31b6 cc42 ae44 e641 d9a5 4643 a6ca 6542
000000d0: 16fc b042 4910 a643 4959 1b42 6fc9 1743
000000e0: 9c80 6842 fd0d 2c42 5620 2442 781b f741
000000f0: dab2 bb42 ef5b 8240 0763 c141 adc1 b041

base_pointnet.bn_2.weight f4 [64]
1.0942314 1.0889806 1.0793014 1.1339332 1.0090758 1.0339074 1.0103936 1.0851327
1.1617479 1.0631669 1.0274605 1.0429728 1.1018298 1.0595955 1.0778525 1.0569998
1.0992548 1.0888902 1.1792468 1.167402 1.0933195 1.0498879 1.0163705 1.0814121
1.0353848 1.0484768 1.0173196 1.1444507 1.0236077 1.0926335 1.0512148 1.1875788
1.0114987 1.0348109 1.0096258 1.047704 1.0215385 0.9701968 1.0840732 1.123383
1.0598401 1.1647435 1.0340567 1.0484362 1.0149648 1.0739697 1.0579553 1.132401
1.1633823 1.1477233 1.051196 1.1550452 1.0348452 1.0687717 0.9821243 0.99792486
1.2224449 1.0420723 1.049352 1.0452017 1.0369034 1.0018843 1.1845526 1.1077435
00000000: c60f 8c3f b763 8b3f 8c26 8a3f b924 913f
00000010: 6529 813f 1457 843f 9454 813f a1e5 8a3f
00000020: 28b4 943f da15 883f d383 833f 2280 853f
00000030: c208 8d3f d3a0 873f 12f7 893f c54b 873f
00000040: 62b4 8c3f c160 8b3f 8ff1 963f 6e6d 953f
00000050: e5f1 8b3f ba62 863f 6e18 823f b66b 8a3f
00000060: 7d87 843f 7d34 863f 8737 823f 5c7d 923f
00000070: 9405 833f 6adb 8b3f 358e 863f 9502 983f
00000080: ca78 813f af74 843f 6b3b 813f 2a1b 863f
00000090: c6c1 823f d15e 783f e9c2 8a3f 04cb 8f3f
000000a0: d7a8 873f 5116 953f f85b 843f 2833 863f
000000b0: 5eea 813f d777 893f 146b 873f 84f2 903f
000000c0: b6e9 943f 99e8 923f 978d 863f 85d8 933f
000000d0: cf75 843f 83cd 883f 806c 7b3f 0178 7f3f
000000e0: 1379 9c3f a062 853f 2b51 863f 2bc9 853f
000000f0: 40b9 843f bf3d 803f 6b9f 973f 8aca 8d3f

base_pointnet.bn_2.bias f4 [64]
0.008703907 -0.04095018 0.0407732 0.004339995 -0.038530033 -0.00030921382 0.023731943 0.008430969
-0.032861862 0.031002458 -0.004974428 -0.0028494915 -0.02520575 0.0101592075 -0.052192375 -0.027372226
-0.012223849 -0.053310893 0.0115225725 0.0040904204 -0.027340833 0.029175742 0.021968076 -0.020456001
-0.03457567 0.05899326 -0.011447468 0.060711283 0.0016125382 -0.019838246 0.014613899 -0.028964123
-0.0051320503 -0.016743515 -0.045631465 0.04737238 -0.011851341 -0.033010542 -0.004939391 0.0070480877
0.016761556 -0.075227275 -0.03222101 -0.034826886 0.019998144 -0.065196425 0.018794036 -0.011709429
-0.015133851 0.027800601 -0.007865604 0.0437838 -0.004110991 0.021331552 0.016546449 -0.04154333
-0.040848065 0.009308017 0.03427759 -0.022781221 -0.0356401 0.016741678 0.0008899889 -0.016638966
00000000: d59a 0e3c 60bb 27bd cd01 273d 8436 8e3b
00000010: abd1 1dbd fa1d a2b9 7e69 c23c 0c22 0a3c
00000020: 299a 06bd def8 fd3c 8700 a3bb 89be 3abb
00000030: 4a7c cebc ce72 263c acc7 55bd b83b e0bc
00000040: 8a46 48bc 865c 5abd 2cc9 3c3c ef08 863b
00000050: e2f9 dfbc f701 ef3c 65f6 b33c 5893 a7bc
00000060: 389f 0dbd eba2 713d 298e 3bbc 65ac 783d
00000070: ce5b d33a d183 a2bc 236f 6f3c 2b46 edbc
00000080: c22a a8bb b229 89bc 0fe8 3abd 8a09 423d
00000090: 212c 42bc 1036 07bd 9dda a1bb a5f3 e63b
000000a0: 884f 893c c210 9abd 2efa 03bd a3a6 0ebd
000000b0: 26d3 a33c b485 85bd f3f5 993c e8d8 3fbc
000000c0: f9f3 77bc 16be e33c bcde 00bc a456 333d
000000d0: 7eb5 86bb 82bf ae3c 6b8c 873c 5729 2abd
000000e0: 4d50 27bd a780 183c a966 0c3d af9f babc
000000f0: 5afb 11bd d825 893c 254e 693a 714e 88bc

base_pointnet.bn_2.running_mean f4 [64]
0.00918231 0.007869669 0.01754533 0.08551618 -0.51576024 0.3734753 -6.703941e-05 0.29925007
0.24133219 0.185316 -0.93357414 0.342877 0.090249896 0.2107873 0.2971473 0.19171152
-0.20706853 -0.25267556 -0.46526894 -0.60580975 0.21445334 -0.16045192 -0.54280555 0.41554084
0.28350157 0.14411381 0.28763482 -0.6335002 0.059204865 -0.11546736 0.10880836 0.05225008
-0.31395677 0.081037976 0.10062967 -0.29586807 -0.36687583 0.06925456 0.16678962 -0.100481905
-1.0034474 0.118505955 0.2272687 -0.29046062 0.3289636 0.16700803 0.2896169 -0.05888484
0.322783 0.037182048 -0.17326197 0.007823518 1.2124336 -0.39433312 -0.787785 -0.2791055
0.04974265 -0.64133155 -0.5155794 1.0533211 -0.071468405 -0.46079376 0.18513967 0.16518845
00000000: 6671 163c c9ef 003c 39bb 8f3c 1b23 af3d
00000010: dd08 04bf 2838 bf3e 8297 8cb8 4e37 993e
00000020: c91f 773e 7ac3 3d3e b7fe 6ebf 938d af3e
00000030: f0d4 b83d a0d8 573e b123 983e 0650 443e
00000040: c609 54be b15e 81be bb37 eebe 5916 1bbf
00000050: a899 5b3e 824d 24be 4ef5 0abf c5c1 d43e
00000060: 1e27 913e 9292 133e df44 933e 122d 22bf
00000070: cd80 723d 277a ecbd ebd6 de3d 2e04 563d
00000080: f1be a0be 3df7 a53d ee16 ce3d 057c 97be
00000090: 26d7 bbbe 56d5 8d3d e6ca 2a3e 75c9 cdbd
000000a0: f770 80bf 40b3 f23d 20b9 683e 41b7 94be
000000b0: eb6d a83e 2704 2b3e ab48 943e 3b31 71bd
000000c0: d043 a53e 344c 183d 966b 31be 362e 003c
000000d0: 0631 9b3f 08e6 c9be 47ac 49bf ebe6 8ebe
000000e0: f3be 4b3d 4e2e 24bf 03fd 03bf 3ad3 863f
000000f0: 075e 92bd 29ed ebbe 4195 3d3e 2927 293e

base_pointnet.bn_2.running_var f4 [64]
0.03072765 0.021935644 0.0642328 0.02057052 0.14417621 0.20204012 0.45672998 0.06731934
0.019292813 0.17220552 0.091496445 0.034640938 0.030155081 0.08538808 0.05754823 0.04098119
0.022528764 0.022386672 0.036206473 0.046881266 0.08118044 0.12587233 0.37160143 0.07847549
0.037090197 0.045995772 0.16186284 0.04951881 0.07817897 0.041548453 0.031227916 0.03128047
0.113598354 0.1123008 0.030253278 0.35222146 0.23775332 0.78042865 0.058536492 0.05806485
0.10030059 0.04156889 0.07686911 0.04584441 0.39521566 0.044095945 0.055376813 0.024285942
0.030238112 0.06342915 0.0661802 0.08460507 0.37883383 0.030013902 0.3795177 0.054632906
0.027212914 0.09430076 0.11741906 0.26490694 0.08141133 0.13710448 0.07404711 0.06526739
00000000: 8db8 fb3c 61b2 b33c 7c8c 833d 8283 a83c
00000010: eea2 133e 9be3 4e3e 83d8 e93e b9de 893d
00000020: f60b 9e3c a556 303e 7d62 bb3d a8e3 0d3d
00000030: ca07 f73c f2df ae3d b1b7 6b3d e4db 273d
00000040: 3e8e b83c 4164 b73c 3d4d 143d 9206 403d
00000050: ee41 a63d ade4 003e 8b42 be3e c2b7 a03d
00000060: e4eb 173d 1066 3c3d 5fbf 253e 3cd4 4a3d
00000070: 4c1c a03d b62e 2a3d b0d1 ff3c f31f 003d
00000080: 41a6 e83d f6fd e53d b9d5 f73c 5f56 b43e
00000090: 9b75 733e 2cca 473f f6c3 6f3d 68d5 6d3d
000000a0: 656a cd3d 2444 2a3d 8d6d 9d3d 59c7 3b3d
000000b0: b559 ca3e f39d 343d ccd2 623d 50f3 c63c
000000c0: ebb5 f73c 24e7 813d 7c89 873d 6c45 ad3d
000000d0: 82f6 c13e b7df f53c 2550 c23e c1c6 5f3d
000000e0: 9eed de3c c220 c13d 6779 f03d e2a1 873e
000000f0: fcba a63d 1e65 0c3e 03a6 973d e9aa 853d

fc_1.weight f4 [64, 66]
0.13879086 -0.29382217 -0.06623796 0.06888599 -0.04239928 -0.20412384 0.025442742 0.049637984
0.12636146 -0.053498328 0.19756235 -0.032417875 -0.062350363 -0.11112966 -0.16584261 -0.012993023
-0.074573465 0.0511269 0.016320998 -0.12194818 0.0410176 -0.011304709 -0.107201055 -0.0041641565
-0.0750129 0.06704655 0.22975026 -0.08149644 -0.07763282 -0.104918346 -0.07158543 -0.23022716
0.010796592 -0.14793028 0.08773599 0.155794 0.072842054 0.080332816 -0.11266404 0.053170186
0.21078497 -0.15877855 -0.026775552 -0.122091025 -0.118181646 -0.065583706 0.04991379 0.15545584
0.07865906 0.046368092 0.22546129 -0.018223526 0.06857397 0.05672041 0.039432116 0.04741711
0.04480649 -0.13531564 0.10087048 -0.12899378 -0.11268368 0.16408567 0.071338885 0.08230745
0.040398125 0.092306234 0.099445716 -1.6577636 0.04718178 -0.17108893 -0.0994024 -0.008116489
-0.028755352 -0.04722037 0.046613526 0.05079403 0.15542197 0.035462573 -0.06695343 -0.16588767
-0.076192535 -0.08995683 -0.07804039 0.1305286 0.11974523 -0.10172515 0.12226406 -0.050309654
-0.030344926 -0.022638436 0.06726535 -0.053752445 0.059379533 -0.17307459 0.027601477 -0.05889621
0.111383 -0.037854046 0.037476484 0.02210686 0.008734007 -0.030822268 0.12355458 -0.14502305
0.068066664 0.037686035 0.06635917 -0.07014731 -0.020428397 -0.010710415 -0.101239644 -0.10308906
0.009271719 -0.1010907 0.034758005 0.006522626 0.14137071 -0.2981134 -0.19698223 -0.16403154
0.038075794 0.11611477 -0.14862545 0.11673129 0.11303726 -0.0372158 -0.090229355 -0.2255302
0.044668157 -0.17090406 -0.16395858 -0.06637305 0.13554512 -0.22338134 -0.022060212 -0.15547702
0.010944879 0.11833649 -0.06670924 0.00341964 0.046747312 -0.03333547 -0.027015423 0.06404587
0.10662633 0.121266544 0.0057795257 0.04513184 -0.0012671362 -0.10753493 -0.070008546 0.024369951
0.0021490655 0.14421554 0.032198828 0.011725 -0.07521051 0.026659915 0.02614857 0.061942603
0.00783391 -0.1511496 -0.049252752 0.13085474 0.0009773796 -0.024154833 -0.11961626 -0.0552179
-0.0049093105 -0.093390755 -0.052397065 0.023807816 -0.16777731 0.15573767 -0.027004449 -0.13783067
-0.0010453224 0.082182616 -0.12310595 -0.006996022 -0.16239572 -0.011467073 -0.13158931 -0.010794149
0.041506223 -0.091135606 0.022860127 -0.004192465 -0.012851847 0.07766203 -0.14864707 0.09199226
0.048491362 -0.06518604 -0.12070613 -0.033424832 -0.061321136 0.041650083 -0.045189958 0.00539607
0.070142746 -0.058343627 -0.088562004 -0.038365867 -0.107641175 -0.07443879 -0.01518077 0.023586407
0.0030725785 0.1060826 -0.10966706 -0.07163269 -0.030243564 0.038945854 -0.066160895 0.09440807
0.09261971 0.072426915 0.035571653 -0.020543333 -0.10066587 -0.09305304 -0.022321591 0.04968091
-0.047243755 0.091155484 0.093571186 0.0017559318 -0.036186203 0.04292719 0.06992586 -0.059143
-0.13353652 0.089921415 -0.06977492 -0.1061873 -0.075868286 0.0132191675 0.016893003 0.05322578
-0.058371253 -0.03561233 -0.10200456 0.04561713 0.10047416 -0.122090995 -0.031767078 0.075654194
0.08795349 -0.041914605 -0.09536788 -0.03683883 -0.106641926 -0.095294744 0.038328186 0.1070302
00000000: 311f 0e3e dc6f 96be c4a7 87bd 1914 8d3d
00000010: deaa 2dbd d705 51be 4c6d d03c 3351 4b3d
00000020: e664 013e 1021 5bbd c94d 4a3e 9bc8 04bd
00000030: 1863 7fbd f297 e3bd a5d2 29be b0e0 54bc
00000040: f9b9 98bd 716a 513d 9db3 853c f8bf f9bd
00000050: 1202 283d 6337 39bc 3a8c dbbd 7a73 88bb
00000060: 5da0 99bd b44f 893d a743 6b3e 9be7 a6bd
00000070: f5fd 9ebd 6edf d6bd 629b 92bd abc0 6bbe
00000080: 30e4 303c 097b 17be edae b33d 7688 1f3e
00000090: 372e 953d 8885 a43d 67bc e6bd fbc8 593d
000000a0: 04d8 573e d896 22be 6758 dbbc dc0a fabd
000000b0: 3809 f2bd c050 86bd 6772 4c3d d12f 1f3e
000000c0: 0018 a13d 78ec 3d3d 53df 663e 8149 95bc
000000d0: 8270 8c3d a953 683d 9283 213d 7238 423d
000000e0: 0387 373d 2f90 0abe 2f95 ce3d f216 04be
000000f0: b4c6 e6bd 1306 283e 1f1a 923d cf90 a83d
00000100: 8178 253d 0d0b bd3d 32aa cb3d 9931 d4bf
00000110: af41 413d f031 2fbe 7c93 cbbd 06fb 04bc
00000120: 5890 ebbc 266a 41bd d3ed 3e3d 670d 503d
00000130: f026 1f3e 3441 113d e11e 89bd 75de 29be
00000140: d50a 9cbd 493b b8bd a4d3 9fbd 4aa9 053e
00000150: fd3c f53d 4755 d0bd 9465 fa3d 7f11 4ebd
00000160: ec95 f8bc 3e74 b9bc 6ac2 893d 862b 5cbd
00000170: f437 733d 773a 31be 7e1c e23c 273d 71bd
00000180: c51c e43d d80c 1bbd f180 193d 7219 b53c
00000190: 1519 0f3c fb7e fcbc 2f0a fd3d ec80 14be
000001a0: 8966 8b3d ac5c 1a3d 51e7 873d 65a9 8fbd
000001b0: 7459 a7bc bd7a 2fbc bb56 cfbd 5b20 d3bd
000001c0: 68e8 173c a408 cfbd 695e 0e3d c1bb d53b
000001d0: 7cc3 103e 52a2 98be b6b5 49be e2f7 27be
000001e0: 5df5 1b3d 95cd ed3d 4531 18be d110 ef3d
000001f0: 1480 e73d 986f 18bd 2bca b8bd 64f1 66be
00000200: f5f5 363d 7901 2fbe c2e4 27be 98ee 87bd
00000210: 57cc 0a3e 14be 64be 9eb7 b4bc 5e35 1fbe
00000220: 2652 333c 675a f23d db9e 88bd 0a1c 603b
00000230: 1c7a 3f3d c68a 08bd 734f ddbc 7b2a 833d
00000240: e85e da3d 985a f83d 2d62 bd3b 2adc 383d
00000250: 0916 a6ba 463b dcbd a460 8fbd 7ea3 c73c
00000260: 56d7 0c3b 3dad 133e ebe2 033d 371a 403c
00000270: f807 9abd e565 da3c 8735 d63c 87b7 7d3d
00000280: cd59 003c f6c6 1abe 41bd 49bd c9fe 053e
00000290: 6b1b 803a 5be0 c5bc 5ff9 f4bd 2a2c 62bd
000002a0: 48de a0bb a743 bfbd 4e9e 56bd 9c08 c33c
000002b0: d1cd 2bbe b279 1f3e 6f38 ddbc 7c23 0dbe
000002c0: 3303 89ba 5c4f a83d f91e fcbd e33e e5bb
000002d0: 104b 26be 64e0 3bbc 59bf 06be f1d9 30bc
000002e0: 6e02 2a3d 4ea5 babd 2945 bb3c f260 89bb
000002f0: 8e90 52bc 450d 9f3d f036 18be 7066 bc3d
00000300: e19e 463d 4280 85bd c734 f7bd 7ae8 08bd
00000310: df2b 7bbd 4799 2a3d 1b19 39bd 84d1 b03b
00000320: 00a7 8f3d baf9 6ebd ff5f b5bd 8725 1dbd
00000330: fa72 dcbd 5d73 98bd c4b8 78bc 4838 c13c
00000340: 505d 493b d641 d93d 2099 e0bd 29b4 92bd
00000350: 5ac1 f7bc b085 1f3d 5d7f 87bd 0559 c13d
00000360: 67af bd3d 9054 943d 95b3 113d 7e4a a8bc
00000370: e829 cebd 9892 bebd c5db b6bc 367e 4b3d
00000380: ab82 41bd baaf ba3d 40a2 bf3d 4b27 e63a
00000390: fc37 14bd 6cd4 2f3d 4a35 8f3d ee3f 72bd
000003a0: ccbd 08be b828 b83d 27e6 8ebd ba78 d9bd
000003b0: d560 9bbd 3595 583c 3263 8a3c 4703 5a3d
000003c0: b216 6fbd 3cde 11bd c4e7 d0bd 07d9 3a3d
000003d0: 65c5 cd3d d80a fabd 321e 02bd 96f0 9a3d
000003e0: f620 b43d a6ae 2bbd 3c50 c3bd 50e4 16bd
000003f0: 1567 dabd e429 c3bd 04fe 1c3d a632 db3d

fc_1.bias f4 [64]
-0.015010574 -0.13412951 0.092495024 -0.06667059 0.088690326 0.017348664 -0.005866481 -0.08736994
-0.04665173 0.04192119 0.05040815 0.028870983 0.00694539 0.08444756 -0.08910303 -0.09477994
0.07418345 -0.021496318 0.06621341 -0.045912806 -0.029832166 0.06994097 0.13612683 -0.01325409
0.04145615 -0.048915867 -0.038438674 -0.06938517 -0.007961525 -0.10088837 -0.087196425 0.0021339448
-0.087203465 -0.022698086 -0.058883004 -0.09384668 0.037580326 0.13725317 -0.12195338 -0.0036017231
0.035776798 -0.00098064 0.10088396 0.069993034 0.05887523 0.07976736 0.033131257 0.074713126
-0.028083157 -0.03103355 0.021677772 0.1691691 0.062159207 -0.13053967 0.1407922 -0.019048393
-0.08063327 -0.08671501 0.03725537 -0.09138183 0.04431868 0.029165698 0.04339526 0.06480162
00000000: e9ee 75bc 3f59 09be 086e bd3d 978a 88bd
00000010: 46a3 b53d c91e 8e3c 9c3b c0bb 03ef b2bd
00000020: e215 3fbd 8eb5 2b3d c778 4e3d d782 ec3c
00000030: 2796 e33b d8f2 ac3d a67b b6bd fc1b c2bd
00000040: 7eed 973d 0c19 b0bc e59a 873d 110f 3cbd
00000050: 9662 f4bc 363d 8f3d d564 0b3e af27 59bc
00000060: edcd 293d 015c 48bd df71 1dbd d019 8ebd
00000070: 0e71 02bc 909e cebd 0a94 b2bd a7d9 0b3b
00000080: bb97 b2bd 56f1 b9bc 4e2f 71bd b032 c0bd
00000090: d4ed 193d 188c 0c3e b2c2 f9bd e30a 6cbb
000000a0: b18a 123d d188 80ba 409c ce3d 8258 8f3d
000000b0: 2727 713d 125d a33d a4b4 073d 3203 993d
000000c0: a60e e6bc 123a febc 9595 b13c aa3a 2d3e
000000d0: a79a 7e3d 31ac 05be d52b 103e 600b 9cbc
000000e0: 0e23 a5bd a497 b1bd 1699 183d 6626 bbbd
000000f0: 8187 353d e7ec ee3c 3abf 313d b6b6 843d

fc_2.weight f4 [4, 64]
-0.005531624 -0.5310411 -0.11883917 -0.09340758 -0.45855287 0.049514536 0.04203309 0.6774286
0.051891193 -0.100982435 0.07834205 -0.0383369 -0.07845759 0.05177802 1.2504853 0.12499181
1.5715749 -0.20449416 0.054565877 0.054817766 -0.11144075 -0.13635549 1.3532788 1.029826
1.6114995 -0.73817635 -2.0426548 0.0062050326 0.9767929 0.41109237 0.47042868 0.0040465742
1.5891867 -0.051940307 0.10456149 0.036398556 -0.93615264 0.13320684 -0.18653376 -0.06268266
-0.08649148 0.012457967 0.11779271 -0.8830914 -0.04629843 -0.76680356 0.09822659 0.04118032
0.5307897 0.010415539 0.7040579 -0.5706737 -0.5054143 0.017277274 -0.08105044 0.07220931
-0.111750916 -0.053143594 0.10201542 0.1078496 -0.614766 0.94900876 1.0580223 1.04522
0.26894525 1.5035412 0.006774153 0.05184481 0.2926699 0.10201238 -0.031015605 -0.85868835
0.055051703 -0.08287084 -0.05390951 0.033766787 0.097459346 -0.042402316 -1.4123907 0.043907996
0.5268032 -0.67376435 -0.10089199 0.02492319 -0.04030775 0.11651135 -2.00924 -1.0979605
0.62102544 0.5680086 1.8553737 0.23519976 -1.8283509 0.26861733 -0.9393996 -0.07716854
-1.2519321 0.06553824 -0.032306835 0.06095928 0.18594192 -0.23661435 -0.023207879 0.04030355
0.21905984 0.023927674 -0.07353988 -0.014530555 0.049189072 0.35064846 -0.11470463 -0.05769422
0.06609414 0.019446522 -0.27954757 0.5433968 -0.49716315 0.061053563 -0.017096998 0.12906405
0.1413818 -0.08148446 0.11931069 -0.2576472 0.09789212 0.17420745 -1.6360017 -1.249145
0.02004013 -1.1869438 0.04340522 0.014889069 -0.25213215 0.031399164 0.005945578 0.22174051
0.060786713 -0.061101593 0.0059923083 0.0001647967 0.04861623 0.011167317 -0.14176409 0.17337103
-2.7053654 1.1909877 -0.050100222 0.046627507 -0.019883545 -0.02144731 -0.8210086 0.30440953
-2.9761336 0.33173147 0.2987254 1.0537024 1.8063134 -0.10670159 0.34920707 -0.08833937
-0.8125459 0.018823666 0.09509136 0.11818502 -0.07746285 0.19457059 0.24396323 0.063932456
-0.01888721 0.035811797 0.0364673 1.4590536 0.038289748 -0.180494 -0.10423275 0.04351579
0.16058083 -0.014060751 -0.032804444 -1.813734 0.29027826 -0.09434429 0.08759307 0.06142123
-0.036418013 0.0416847 0.07256186 -0.052270893 -0.09919865 -1.3694239 1.5037374 0.4672328
-0.032486163 0.032342657 0.1489751 0.0656083 0.4188158 0.0029034202 0.047716156 -0.0023854722
-0.1099334 -0.085195765 0.029920653 0.100475006 -0.024955764 -0.07518115 0.06984231 -0.041518934
0.14135402 0.0019314572 -0.026815563 -0.11924192 -0.12600459 -0.17650597 1.7004497 -0.047320217
-0.44608837 0.14699145 0.5157183 -1.0896305 -0.44067484 -0.6695345 0.0810573 -0.012243256
0.18077528 0.05588496 0.015855685 0.015427694 0.17167656 0.050166886 -0.0044884137 -0.117144674
0.09655307 0.015127152 0.12207402 -0.7044471 -0.12950449 0.29588133 0.02873123 -0.07466102
-1.05833 -0.03985341 -0.21007626 1.4168385 0.14474435 0.08441122 -0.01065642 0.112483844
0.11207418 -0.1230372 0.010924488 0.12389924 0.18694785 0.14282644 0.80210286 -0.30733898
00000000: a042 b5bb 4ff2 07bf f361 f3bd 794c bfbd
00000010: 71c7 eabe c1cf 4a3d e42a 2c3d f66b 2d3f
00000020: dc8b 543d e1cf cebd cc71 a03d 2707 1dbd
00000030: 5fae a0bd 3015 543d e70f a03f b5fb ff3d
00000040: 5e29 c93f eb66 51be 7880 5f3d 9888 603d
00000050: 0c3b e4bd c6a0 0bbe 3d38 ad3f 57d1 833f
00000060: 9e45 ce3f 20f9 3cbf dbba 02c0 9653 cb3b
00000070: 190f 7a3f b37a d23e 07dc f03e 2099 843b
00000080: 786a cb3f 5cbf 54bd 5624 d63d a716 153d
00000090: b3a7 6fbf 6067 083e b502 3fbe c45f 80bd
000000a0: 7222 b1bd 801c 4c3c 4e3d f13d 4712 62bf
000000b0: 6ca3 3dbd 3d4d 44bf 062b c93d b2ac 283d
000000c0: d5e1 073f f0a5 2a3c 233d 343f ac17 12bf
000000d0: d562 01bf 1289 8d3c c6fd a5bd 7ae2 933d
000000e0: aadd e4bd 19ad 59bd 76ed d03d 40e0 dc3d
000000f0: 4e61 1dbf 3df2 723f 466d 873f c5c9 853f
00000100: 31b3 893e 0a74 c03f b7f9 dd3b 395b 543d
00000110: d4d8 953e deeb d03d 7014 febc 00d3 5bbf
00000120: e57d 613d 30b8 a9bd 38d0 5cbd 0b4f 0a3d
00000130: c498 c73d 0dae 2dbd 38c9 b4bf dfd8 333d
00000140: 93dc 063f d27b 2cbf 76a0 cebd b82b cc3c
00000150: bd19 25bd 819d ee3d 6397 00c0 f889 8cbf
00000160: 86fb 1e3f 0369 113f e37c ed3f 35d8 703e
00000170: 6707 eabf 3688 893e 7e7c 70bf 8a0a 9ebd
00000180: 503f a0bf ea38 863d 2c54 04bd 70b0 793d
00000190: 8f67 3e3e 084b 72be 731e bebc 5615 253d
000001a0: 3951 603e f803 c43c 149c 96bd 9111 6ebc
000001b0: 7b7a 493d 3288 b33e 43ea eabd c650 6cbd
000001c0: 5d5c 873d 504e 9f3c dc20 8fbe 0d1c 0b3f
000001d0: 2b8c febe 4d13 7a3d 010f 8cbc 5e29 043e
000001e0: 64c6 103e 53e1 a6bd 2a59 f43d 55ea 83be
000001f0: aa7b c83d 7063 323e 8168 d1bf fce3 9fbf
00000200: 332b a43c c6ed 97bf acc9 313d 48f1 733c
00000210: 7717 81be 699c 003d 20d3 c23b f20f 633e
00000220: 7dfb 783d aa45 7abd 205b c43b 47cd 2c39
00000230: d021 473d 1ff7 363c 9b2a 11be 2d88 313e
00000240: b524 2dc0 4972 983f e435 4dbd 7cfc 3e3d
00000250: d1e2 a2bc 45b2 afbc 9f2d 52bf 91db 9b3e
00000260: f978 3ec0 b5d8 a93e 89f2 983e b8df 863f
00000270: 4735 e73f 5d86 dabd 45cb b23e 46eb b4bd
00000280: 0203 50bf 1734 9a3c 42bf c23d fd0a f23d
00000290: d8a4 9ebd 833d 473e 7fd1 793e 05ef 823d
000002a0: 5ab9 9abc 64af 123d bc5e 153d 45c2 ba3f
000002b0: b6d5 1c3d 6bd3 38be fb77 d5bd 9d3d 323d
000002c0: 4d6f 243e 105f 66bc f45d 06bd 7028 e8bf
000002d0: 5a9f 943e 9437 c1bd ff63 b33d d494 7b3d
000002e0: 0e2b 15bd 93bd 2a3d 509b 943d 011a 56bd
000002f0: a928 cbbd 4849 afbf 787a c03f 2339 ef3e
00000300: 3610 05bd bc79 043d ee8c 183e a55d 863d
00000310: 066f d63e 4f47 3e3b 0472 433d 9555 1cbb
00000320: c324 e1bd 1e7b aebd 281c f53c d7c5 cd3d
00000330: 0870 ccbc 93f8 99bd 7c09 8f3d c20f 2abd
00000340: 1cbf 103e f328 fd3a 50ac dbbc 1c35 f4bd
00000350: 5907 01be fbbd 34be 56a8 d93f d8d2 41bd
00000360: b265 e4be ed84 163e 1d06 043f 0379 8bbf
00000370: 22a0 e1be 9d66 2bbf 5f01 a63d f097 48bc
00000380: 281d 393e a1e7 643d c8e3 813c 70c4 7c3c
00000390: fbcb 2f3e cb7b 4d3d 8b13 93bb 8ce9 efbd
000003a0: 9ebd c53d e0d7 773c f201 fa3d a556 34bf
000003b0: d39c 04be c27d 973e c25d eb3c e0e7 98bd
000003c0: 5c77 87bf 543d 23bd 3b1e 57be f75a b53f
000003d0: dd37 143e cadf ac3d 4498 2ebc ee5d e63d
000003e0: 2687 e53d edfa fbbd a0fc 323c e2be fd3d
000003f0: 426f 3f3e 1841 123e 9d56 4d3f 895b 9dbe

fc_2.bias f4 [4]
-0.03720855 0.08101609 0.15968777 0.1270796
00000000: fe67 18bd c4eb a53d 3185 233e 2821 023e
