Mindset augmented trained networks (pth)/segmentation_pointnet_smeanp03.pth (torch, 78722 bytes, 18 tensors)

base_pointnet.conv_1_a.weight f4 [64, 1, 3]
000000 15 e0 1b 3f 9c 1f c3 3e ea 8c 99 3c 99 b5 3f 3e
       0.608888 0.38110054 0.01874395 0.18721618
000010 60 0d 2e 3e f7 6f fa be 1d b0 a6 3e 82 19 9b 3e
       0.1699729 -0.48913547 0.3255624 0.30292898
000020 5c 99 d4 be 35 f5 93 be b0 76 e9 3d c6 6f e6 3e
       -0.41523254 -0.28898016 0.11399591 0.4500715
000030 fa 64 9a be 7f 61 3c 3e 11 23 b6 3d 7a a1 ee 3e
       -0.30155164 0.18396567 0.08893407 0.46607572
000040 3a 27 3d b9 db b3 95 be 32 ea f6 3e 27 82 29 3e
       -0.00018039058 -0.2923878 0.48225552 0.16553555
000050 f1 a2 8c 3e bb 10 bd 3d c8 62 4d 3e 51 94 85 be
       0.27468064 0.09231707 0.20057213 -0.2608972
000060 3e 80 86 be c2 f9 25 bd 55 09 bb 3e bc 9c 3e be
       -0.26269716 -0.04052139 0.36530557 -0.18614477
000070 5a fe f7 be 62 61 ac be 67 d8 54 3e ff c4 a2 be
       -0.48436242 -0.33668047 0.20785676 -0.3179092
000080 e1 19 bb bd 59 0b 0f bf 25 c1 b1 be a5 84 95 bd
       -0.091357954 -0.5587669 -0.3471767 -0.073006906
000090 b8 e3 c6 3e 0f 05 78 3e 81 55 12 be 70 b3 16 3f
       0.3884561 0.2422068 -0.1429043 0.5886755
0000a0 39 d8 3b be db 84 a3 3e 52 73 11 3f 2a 0c e6 3d
       -0.18344201 0.31937298 0.5681659 0.11232789
0000b0 f6 14 77 3d 48 55 09 bf 27 d3 75 be 12 8d e8 3e
       0.060322724 -0.53645754 -0.2400633 0.45420128
0000c0 60 2f 9c 3e 24 51 92 3e 69 24 f4 be 42 01 21 3e
       0.30504894 0.2857753 -0.4768403 0.15723136
0000d0 bc 97 90 be 2f 72 cc 3e ac f0 d2 3e e7 86 c2 3e
       -0.28240764 0.39930865 0.41199243 0.37993547
0000e0 4e c9 e1 be 53 fb d2 3e f4 7b bf 3e 02 95 60 be
       -0.44098896 0.4120737 0.37399256 -0.21931842
0000f0 59 34 ae 3e 11 31 95 3e 30 55 c6 3d 90 df a6 be
       0.34024313 0.29138997 0.09684217 -0.3259244
000100 12 5b be 3e a4 51 6d bc 2d 24 7b be e4 a7 de 3e
       0.37178856 -0.014484797 -0.24525519 0.43487465
000110 d7 bd bc be f7 f2 f3 3e 28 6d e2 be bc ad 63 3e
       -0.36863586 0.47646305 -0.44223905 0.22234243
000120 cd de 85 3c cf cc e9 bc 1c 78 ee bc ca a6 e2 be
       0.016341591 -0.028540043 -0.029110007 -0.44267875
000130 e8 95 bd 3e 98 dd 81 3d e5 c8 34 bb 1e e6 54 3a
       0.37028432 0.06341094 -0.0027585563 0.00081214483
000140 5e 18 c1 3c 0e c5 c6 be 27 e1 e8 be d4 5e 0b 3f
       0.02357119 -0.38822216 -0.45484278 0.5444157
000150 db ba d5 be 95 8f 87 3e 5f ac e3 3d 4a 77 dd 3e
       -0.41744122 0.26476732 0.111168616 0.43255073
000160 c4 fa fb 3d 41 dd 33 be f8 db 0a bf 35 ca 22 bf
       0.12303689 -0.1756487 -0.54241896 -0.63589793
000170 71 f3 5c be 2b 39 76 3e 32 9f a2 be 56 d5 8d bd
       -0.2157724 0.24045245 -0.3176208 -0.06925456
000180 7f 5d c6 bd 8f 04 64 be e6 6b 1a 3d fd 25 0e 3e
       -0.09685802 -0.22267364 0.037700556 0.13881679
000190 72 74 ef be 06 51 2a be 79 70 67 3d 8d d4 a8 be
       -0.46768528 -0.1663247 0.056503747 -0.32974663
0001a0 0b bb af 3e df 37 c2 3e 47 2a 34 be c6 37 40 be
       0.3432239 0.3793325 -0.17594253 -0.18771276
0001b0 fe 2b b1 3e 22 e0 4e 3e 4d 28 03 3f 03 08 5c be
       0.34603876 0.20202687 0.5123337 -0.21487431
0001c0 5a 6a 9c 3e f1 0e 9f bd 16 70 4e 3e 71 18 ed be
       0.3054989 -0.07766522 0.20159945 -0.4630771
0001d0 60 21 f1 3d 37 c9 3c be 4a 3c 2f be 78 87 e8 3e
       0.11773944 -0.18436132 -0.17112842 0.45415854
0001e0 25 a7 a7 3d 24 cc a5 3d c4 52 57 bd ec d9 7f bd
       0.08186177 0.08095577 -0.052569166 -0.062463686
0001f0 1b 19 bf 3d 01 11 b2 3c 05 1c 99 bc 14 94 9b be
       0.0933096 0.021736624 -0.018690119 -0.30386412
000200 0c db 66 3e 5e 91 ae 3e 91 a9 82 bd 15 02 cf 3e
       0.22544497 0.3409528 -0.063799985 0.40431276
000210 7e 6f 11 3f 9a 67 39 be f1 e3 b6 3c 1b fa 5f 3d
       0.5681075 -0.18105927 0.022325488 0.05468188
000220 54 dd 0c 3f 2c 63 92 3e ee 42 ed be c7 01 60 3d
       0.5502522 0.28591287 -0.46340126 0.054689195
000230 ed 3b ea be 7b 24 33 be 8e 23 c1 3e da f6 7a be
       -0.45748845 -0.17494385 0.3772244 -0.24508229
000240 f1 7d 91 3d 7f 2f a0 be 69 df bf 3e 9a ef 1f 3d
       0.071040995 -0.31286237 0.37475136 0.03904686
000250 a2 2a a0 3d 78 91 a8 3d 37 c9 a1 bd 76 d4 c7 3c
       0.078206316 0.08230871 -0.07899707 0.024393301
000260 32 16 d3 bd 45 e3 c2 3b 18 f6 fe bd 14 db 7e bd
       -0.10306968 0.005947503 -0.124492824 -0.062220648
000270 a7 37 05 3f bd 0c c1 bd 29 4a 00 3f 62 e3 f5 bd
       0.52038044 -0.09426258 0.5011316 -0.120062605
000280 a7 8d 1f bf cb c8 f7 bb 00 9b 1a 3e dc dd 52 be
       -0.6232552 -0.007561778 0.1509819 -0.20592445
000290 a7 1e 54 be 13 aa a4 bc 9a 49 74 be f3 e2 44 3e
       -0.20714818 -0.020100629 -0.23856202 0.192272
0002a0 7f 6d 5a 3e 07 71 83 be cf b0 a1 3c 39 36 a9 3d
       0.21330832 -0.2567217 0.01973763 0.08262295
0002b0 d2 09 4b be a0 2f e1 3d 78 3e 93 3e b9 f0 84 3d
       -0.19827965 0.10995412 0.28758597 0.06491227
0002c0 a2 c7 11 bf 54 59 30 3e d0 6a 03 bf 2b cb 87 3e
       -0.5694524 0.17221576 -0.5133486 0.26522192
0002d0 fd 16 8f be 1a 9a 1a 3d 8f 60 cf 3e 70 e3 97 3c
       -0.27947226 0.03774462 0.40503356 0.018541068
0002e0 7f ac b7 bd 9a 4b 43 3e 71 6a 09 bf 5e 25 7c 3e
       -0.08968448 0.19071808 -0.5367804 0.2462363
0002f0 9a 61 44 3e 13 9c c7 be 38 01 02 be 63 c1 ef 3e
       0.19177857 -0.38986263 -0.12695777 0.4682723

base_pointnet.conv_1_a.bias f4 [64]
000000 ae 2e 06 3f c9 ea 8b be 5f e2 84 3e 48 b6 12 be
       0.5241498 -0.27327564 0.25953957 -0.14327347
000010 ac 84 0e be 37 8f d7 bd fc c8 81 3e 32 23 0b 3f
       -0.13917798 -0.10525363 0.2534865 0.5435058
000020 1e 1a 88 3d d0 b5 04 3f 74 5f 8b be 35 68 a0 3b
       0.066456065 0.51839924 -0.27221262 0.004895235
000030 ff 7f 0d 3e 88 f0 e5 3e 63 36 03 3e c6 73 e3 3d
       0.13818358 0.44910073 0.12813716 0.111060664
000040 a8 39 30 3e e8 48 16 3e a6 fe b2 3e 4e 32 96 3c
       0.17209494 0.14676249 0.34959906 0.018334534
000050 fc d9 11 3e 64 14 c8 be 6f 45 f8 3d 03 94 ec 3d
       0.1424331 -0.39078057 0.121226184 0.115516685
000060 1e 9b 22 3e b9 78 d4 3e 07 96 a0 3e 28 56 d4 3e
       0.15879485 0.41498354 0.31364462 0.41471982
000070 1a 93 00 3f 02 26 40 bc 92 a3 0d bf 1f bd 0c be
       0.5022446 -0.011727812 -0.55327713 -0.13744019
000080 11 c1 09 3f 16 f2 83 bd 97 c2 30 3d 37 b8 e5 3e
       0.5381022 -0.064426586 0.043154325 0.44867107
000090 bc 0b 06 3f 03 bc b5 be ef 82 f1 be 7e 7e d6 3e
       0.52361655 -0.35495004 -0.47170207 0.4189338
0000a0 37 42 df bd 48 4c 90 3e 6f 1a b7 be 56 ab 0e 3d
       -0.10901301 0.28183198 -0.35762355 0.034831367
0000b0 34 f6 d1 be d8 da 1d 3e ad 1f 8b be 71 63 82 3c
       -0.4100815 0.15415514 -0.27172604 0.015916558
0000c0 d0 5e 80 3d 7b a1 39 be 09 60 04 bf 3c 51 cd 3e
       0.06268084 -0.18128006 -0.5170904 0.4010104
0000d0 1f 5e d0 3e 47 e1 97 be 2a 7c 11 3f be 4b 5c 3e
       0.4069681 -0.2966406 0.56830084 0.21513268
0000e0 b0 28 06 bf 88 23 00 bf 4e a1 f9 3e f7 1c 60 3e
       -0.52405834 -0.50054216 0.48755878 0.21886049
0000f0 7a 67 be 3b ff 7b d1 be 96 6d 9d be f6 9f f5 3d
       0.005810675 -0.40914914 -0.3074767 0.11993401

base_pointnet.conv_1_b.weight f4 [64, 1, 3]
000000 d3 52 cc 3e aa 97 8a 3e 3a 26 fd 3e 19 e5 52 bf
       0.3990694 0.27068835 0.49443227 -0.82380825
000010 77 9f 02 bf 4e 78 a5 3d 46 cd 4c be 25 83 b2 bc
       -0.51024574 0.08079587 -0.2000018 -0.02179105
000020 b9 10 1b bf d9 87 00 3f 19 b2 71 3e 4e 66 9f 3e
       -0.6057239 0.5020729 0.23603095 0.3113274
000030 b4 8b a9 bd fd 26 93 be f4 13 ec 3c a8 0a 7f be
       -0.082785994 -0.28740683 0.028818108 -0.24906409
000040 a6 75 8e 3e 8c 13 34 be d1 ee 05 be 40 61 59 3f
       0.27824134 -0.17585582 -0.13079382 0.84914017
000050 5d 24 25 3f ce 1f 8e 3e 03 18 16 be ef d5 a9 bf
       0.6450861 0.2775864 -0.14657597 -1.3268412
000060 6e 91 4e 3e c9 30 ac be 32 15 3a 3e b9 50 1a 3f
       0.20172665 -0.3363097 0.18172148 0.60279423
000070 64 be 3b 3e e7 f9 57 3e c9 4e 7d 3e 6b d0 19 3e
       0.18334347 0.21091424 0.24737085 0.15020911
000080 fc eb 0a 3f ad 64 05 be ee f1 f1 be 0f ba 9a be
       0.54266334 -0.13026686 -0.4725489 -0.30220076
000090 09 7e 33 bf d7 07 b9 3e c4 74 1e bf 37 b8 e5 be
       -0.7011419 0.36138794 -0.6189692 -0.44867107
0000a0 7a 6d a4 be ad 5c d9 be ce bf e8 be 5a 30 d4 3d
       -0.32114774 -0.42453519 -0.45458835 0.10360785
0000b0 04 6c 6c be 44 1c 07 3f 31 9a 51 3e c9 9a 94 3e
       -0.2308808 0.52777505 0.20468976 0.29024342
0000c0 9f 4b 92 3e 01 87 19 3f 67 66 03 3f fa ed 16 3e
       0.2857332 0.59971625 0.5132813 0.14739218
0000d0 7b a9 eb 3d bd b7 b7 3e 0a bf d2 bd ac ff 17 3f
       0.11506935 0.3588237 -0.10290344 0.593745
0000e0 78 69 3a 3f 59 56 98 be a1 2c 1b 3e cb ea b5 bd
       0.7281718 -0.29753378 0.15153743 -0.08882674
0000f0 05 7c b5 3e 85 89 95 3e 32 39 41 be af 8b f6 3d
       0.35446182 0.29206482 -0.18869475 0.12038361
000100 f9 2b 7c 3e a0 8c 7c bf 3c 4a 77 3f 4a 91 7f 3e
       0.24626149 -0.98652077 0.9659765 0.24957767
000110 4d 9d 4b bf ed 93 31 bf 3a 0c 3f bf 2f 30 2a bd
       -0.79536897 -0.6936634 -0.7462803 -0.041549858
000120 49 a1 82 3e c5 b0 74 3e a8 10 02 3f ac ff cf 3e
       0.25513676 0.23895557 0.50806665 0.4062475
000130 92 d1 22 3e d5 a5 03 3f dd ff 29 3d 6a ee 07 bb
       0.15900257 0.51424915 0.041503776 -0.002074147
000140 f7 2c 33 bf bf 4f 27 3f d5 7d ec 3e d3 fd 1f bc
       -0.69990486 0.6535606 0.46189752 -0.009765106
000150 88 63 05 3f 34 23 c5 be ae 64 f3 be 30 4b fc bd
       0.52105 -0.3850342 -0.4753775 -0.123190284
000160 3c 87 93 be a8 b5 f8 3d 3b 4c 51 be cd da 0f bf
       -0.28814113 0.12144023 -0.20439236 -0.5619324
000170 31 22 8b be 8b 97 d4 bd a4 3e 8d be 63 03 09 3f
       -0.27174523 -0.10380467 -0.27586854 0.5352079
000180 16 d3 b7 3e 10 0d 3a 3f 00 8f d1 3e 9c 9d 28 3e
       0.35903233 0.7267618 0.40929413 0.16466373
000190 51 49 c1 be 29 9a de 3e 7d 3d 16 3e a8 08 98 be
       -0.37751248 0.4347699 0.14671893 -0.29694104
0001a0 29 88 1f bf a3 71 17 bd 9d 6b 4d bf 27 a6 77 3f
       -0.6231714 -0.036973607 -0.8024233 0.96737903
0001b0 74 60 00 bd de b0 6c bd 0a c3 58 3f 3b a6 08 bf
       -0.031341985 -0.05778586 0.84672606 -0.5337865
0001c0 d9 ab 70 bf a6 30 de 3d e5 48 ce 3d 16 83 40 be
       -0.9401222 0.10849123 0.10072497 -0.18800005
0001d0 ac 78 6a be 4a 63 e7 3e 25 25 a5 be 4e 27 09 bf
       -0.22897595 0.4519294 -0.32254902 -0.535756
0001e0 be e6 da 3e 5c e6 8c 3e 25 a8 2c 3f 5a 0d ea be
       0.42754167 0.275195 0.6744407 -0.4571331
0001f0 fa f0 b6 be 21 22 18 3f 91 ff 16 3e 17 cf 3c 3f
       -0.35730726 0.59427077 0.14745928 0.73753494
000200 ec d8 ad 3e b0 c7 21 bf 2b 92 22 bf 35 ee 9f bc
       0.3395456 -0.63195324 -0.63504285 -0.019522766
000210 28 0b 3a be ef a6 d5 3b ce 86 80 be d0 fb 80 3d
       -0.18168318 0.006520144 -0.25102848 0.062980294
000220 ba 73 06 3f a5 3f a1 bd f1 fd 95 3e 5c bd 03 3f
       0.52520335 -0.07873467 0.29295304 0.51460814
000230 82 55 d4 be c7 ca 1f bf 8a 3f d9 be e6 45 8a 3f
       -0.41471487 -0.6241879 -0.4243129 1.0802581
000240 0f 41 06 bf 36 23 87 bf 6c 70 83 3d 17 cf 29 bf
       -0.5244302 -1.055762 0.06417927 -0.6633162
000250 6b 57 34 bf 67 38 21 bd 36 c6 c1 3e 23 01 05 bf
       -0.7044589 -0.03936043 0.37846535 -0.5195486
000260 06 51 2e 3f be 1f 0a 3f 9b 78 e2 3e af 18 18 3f
       0.6809238 0.53954685 0.4423264 0.59412664
000270 60 9d 04 be c6 42 0b 3f 36 aa 67 3e b4 0f bc 3e
       -0.12950659 0.54398763 0.22623524 0.3673073
000280 fc 6f d7 3e 65 9f a6 3c af fa c6 be 26 18 2b be
       0.42077625 0.020339677 -0.3886313 -0.1670843
000290 fd c1 32 bf 56 59 48 3f a5 65 7c 3e 8f 00 d4 be
       -0.6982725 0.78261316 0.2464815 -0.41406676
0002a0 ce 0c 59 3e a2 81 4f 3f 6f ed 64 be 32 eb d2 3d
       0.21196291 0.8105718 -0.22356199 0.10298766
0002b0 8b fb f3 3d 64 f5 49 3f ff e7 63 3f c1 ca 3d be
       0.119132124 0.7889006 0.8902587 -0.18534376
0002c0 c0 0b 39 be 96 97 07 bf 40 e2 a9 be 03 3b 2f 3f
       -0.18070889 -0.52965677 -0.33180428 0.6844942
0002d0 12 90 c5 bd 87 af b1 3e a5 57 7a 3f ce 65 a8 be
       -0.0964662 0.3470423 0.97789985 -0.3289017
0002e0 89 e2 df be 05 0e 6b bf ee 2e e7 3e d9 e3 8b bd
       -0.4372752 -0.9181827 0.45152992 -0.06830568
0002f0 e1 95 00 3e a2 a6 cb be 3f f9 c6 3e 41 4c ad be
       0.12557174 -0.39775568 0.38862035 -0.3384724

base_pointnet.conv_1_b.bias f4 [64]
000000 89 20 5e 3e 05 42 0a 3f e9 74 d1 3e bc b8 52 3e
       0.21692099 0.5400699 0.40909508 0.20578283
000010 58 eb 03 3f ce 4d a8 3d 67 a0 dd 3d 4f a4 fe bd
       0.5153098 0.08217965 0.1082161 -0.12433683
000020 5d 6c 07 bf 16 85 7b 3e b4 e8 2b be 88 8e 92 be
       -0.52899724 0.24562487 -0.16787988 -0.28624368
000030 30 4b 18 be c6 e9 92 3c 99 08 05 3f 7e fb f2 be
       -0.14872432 0.017933737 0.51966244 -0.47457498
000040 d7 9d 28 3d ea 56 20 be ae 7a 48 bd d4 d2 a8 3e
       0.041166153 -0.15658155 -0.04894512 0.3297335
000050 e7 84 f2 3e 87 04 26 be 42 33 2c 3e 57 62 eb 3d
       0.4736702 -0.16212665 0.16816428 0.11493366
000060 89 e1 e8 be 0f be 43 3e 42 74 16 3f b8 90 af be
       -0.4548457 0.1911547 0.58771145 -0.342901
000070 c0 af e3 be e8 7c 08 bf 20 1a 6e be ee b3 f9 be
       -0.44470024 -0.5331559 -0.23252153 -0.48770088
000080 36 e8 c2 be aa 26 e4 bd 72 31 a2 be 8e 78 65 3e
       -0.38067788 -0.11140187 -0.3167835 0.22409269
000090 27 66 cb bd af af 5e 3e fb a0 22 3e bb e5 28 3e
       -0.099315934 0.21746705 0.15881722 0.16493885
0000a0 81 41 45 3d ae bf 9c be 03 55 f3 be 09 9a fa be
       0.048158173 -0.3061499 -0.47525796 -0.48945644
0000b0 63 f9 67 3e 00 fa fc be 97 a4 87 be f2 76 89 be
       0.22653727 -0.49409485 -0.2649276 -0.2684856
0000c0 05 77 01 bf 4b 08 d0 be ea 97 51 3e c1 8c 75 3d
       -0.50572234 -0.40631327 0.20468107 0.059948687
0000d0 8c 7e da 3e 4a dc 88 3c 4a 0c 08 bd 4e 34 b1 3d
       0.42674673 0.016706605 -0.033214845 0.086525545
0000e0 db c8 d1 3e 24 e8 41 be e2 f3 4b 3e 1d f9 a3 3e
       0.40973553 -0.18936211 0.19917253 0.32025996
0000f0 e7 03 a2 be ea 24 03 bf 0b 5a 09 bf d7 e6 e9 3c
       -0.31643602 -0.512282 -0.5365302 0.028552456

base_pointnet.conv_2.weight f4 [64, 64, 3]
000000 eb ca c4 3b 30 03 e0 bc d4 57 b9 bc 98 75 2d be
       0.006005635 -0.02734527 -0.022624888 -0.1693939
000010 17 b2 ef bd 5d 03 8c bc 73 5d 0d bd ed ea 92 3b
       -0.1170389 -0.017091447 -0.03451295 0.0044835717
000020 9e f4 4c 3d 6d 23 07 bd de 76 41 bd 4d 52 00 bc
       0.050037973 -0.03299277 -0.0472325 -0.007832122
000030 77 4d 19 3c 08 3f fa 3c 88 d3 54 3d 50 b7 de bc
       0.009356848 0.030547634 0.051959544 -0.02718702
000040 fd a5 74 3c 33 c1 f1 bb b1 b7 dc bc d9 24 ce 3c
       0.014932153 -0.0073777675 -0.02694306 0.025164055
000050 cf b4 4b 3c 63 2d 50 bd 02 8d 4b bc 09 c2 81 bd
       0.012433245 -0.050824534 -0.012423756 -0.063358374
000060 f0 05 df bd 45 ca 36 bc 4b 97 1b bd bd db 1c bd
       -0.10889804 -0.011156623 -0.03798608 -0.038295496
000070 95 1a 11 bd 12 4f 19 3c 55 74 ad bc 72 2c 18 3d
       -0.03542574 0.009357231 -0.021173635 0.03715176
000080 f7 5a 1a bd cc f0 9e 3c 9b 5c 79 bc 38 be 05 bc
       -0.037684407 0.01940193 -0.015219833 -0.008163027
000090 5c b3 14 bd b1 58 1e 3d 2a 16 a7 bc 72 01 4e 3c
       -0.036303863 0.0386588 -0.02039631 0.012573587
0000a0 66 aa 38 3d 88 8f 7f 3d 4b 79 3d bd 87 b5 33 bb
       0.04508438 0.06239274 -0.046258252 -0.002742143
0000b0 d1 ae a0 3c 62 17 73 bd 80 e4 32 bd ba 82 06 3d
       0.019614609 -0.05934847 -0.043674946 0.032839514
0000c0 a6 b1 93 3d 01 26 8c 3d b9 1e cb 3d 6c d7 1b 3d
       0.07211618 0.06843186 0.09917969 0.03804724
0000d0 f1 ff 70 bd c3 88 a2 bc 3b 8b dc bc 08 a4 40 bc
       -0.058837835 -0.019840604 -0.026921859 -0.011757858
0000e0 fe a7 a7 3d db 83 61 3c 08 8d 4e bc 3b 6a 7b 3d
       0.08186339 0.013764347 -0.012606867 0.061380606
0000f0 8c 23 02 bc 45 c7 27 bd bc 8a 3f 3c e1 67 42 bd
       -0.007943045 -0.040961523 0.011690792 -0.047462348
000100 2b 4a 5a 3c dd d4 b8 bd b3 f9 97 3d 84 61 f8 bc
       0.013323347 -0.090249754 0.07420673 -0.030319937
000110 d6 f1 a9 bd 26 58 a7 3d 53 eb bd 3d 20 a2 b5 bc
       -0.0829808 0.0817111 0.092734 -0.022172034
000120 b9 a6 cf bd 52 01 8d 3d 26 ea a8 bd b8 8b 98 3d
       -0.10139222 0.068850175 -0.08247785 0.07448524
000130 9d 78 b2 3d a4 be 3b 3d 4a 0d 15 3e d6 83 c4 bd
       0.087144114 0.045836106 0.1455585 -0.09595458
000140 e5 d0 bf bc ce 07 80 bd 80 50 f9 3c 3a e8 35 bd
       -0.023415038 -0.062514886 0.030433893 -0.04441092
000150 ae 8e 21 bd 15 dd 84 bc 13 c2 da 3b 7b cd 8a bd
       -0.03944271 -0.016218701 0.0066759675 -0.067774735
000160 b7 8c 90 3c 81 2c f6 bc 70 86 98 bc e9 4e 1a bc
       0.017645223 -0.030050518 -0.018618792 -0.009418228
000170 3e 0f 11 3d 4b 6b 31 3b 88 19 86 3c da 40 73 bd
       0.035414927 0.0027072008 0.016369596 -0.05938802
000180 20 62 2c bd cd 6c 7d 3d c3 86 93 bc 2c 56 71 3c
       -0.042085767 0.06187134 -0.018008595 0.014730018
000190 ed 1a 8c bd 70 2e a5 bc a2 b3 31 3d 72 ca 83 bd
       -0.06841073 -0.020163745 0.0433842 -0.06435098
0001a0 cb 60 bf ba 3a 8c c5 bd fd 95 95 bd 11 35 87 bc
       -0.001460099 -0.09645887 -0.073039986 -0.016504796
0001b0 56 1a 43 bd 18 5b 40 3d 2c ad 9c 3c 51 33 b7 3c
       -0.047632538 0.046961874 0.019125544 0.022363337
0001c0 ab e3 b6 3c ac f2 c0 3a 85 17 e8 bb e6 fd 2e bc
       0.022325357 0.0014720759 -0.007082882 -0.010680651
0001d0 3a d6 74 bc 24 6d c7 bd 14 3a d8 bd b8 54 27 bd
       -0.014943654 -0.09737614 -0.105579525 -0.04085228
0001e0 30 0b bb 3d c7 1c 46 3d 92 be cd bc a8 48 59 bd
       0.09132993 0.048367288 -0.025115285 -0.053047806
0001f0 07 55 34 bd 9b 54 04 bb 39 35 b6 bc dc a8 1f 3e
       -0.0440264 -0.002019203 -0.022242175 0.15591758
000200 6d 71 a9 bd 58 1b 9c 3d 52 70 28 bc 43 90 5b bd
       -0.082735874 0.07622403 -0.0102806855 -0.053604376
000210 4a 9b 18 bd ef 56 27 3c fd 02 2a 3d 69 59 64 bd
       -0.03725747 0.010213598 0.041506756 -0.05574933
000220 61 54 04 bd 66 9a 07 bd 8f d2 53 3d 25 16 fd 3b
       -0.032307032 -0.03310623 0.051714476 0.007723587
000230 8b fe 98 bd 7c 6a 9d 3d 59 ec b3 bd dd db 1a be
       -0.07470425 0.07686326 -0.08785314 -0.15122934
000240 8a 40 8f bd fc 6a 5e bd 37 c3 e6 bd 48 fb db 3c
       -0.06994732 -0.054301247 -0.11267703 0.026853219
000250 29 8f 8e bd 9d f5 6d 3d d8 30 60 bc e0 35 69 bb
       -0.069608994 0.058095563 -0.01368352 -0.003558509
000260 e5 07 3a 3d 24 36 e7 bb 49 d5 9b bc 2c 32 40 bd
       0.045417685 -0.0070560146 -0.0190226 -0.046922848
000270 58 2f 71 3d 44 44 06 bc 70 76 6f bd 60 fe 8c bc
       0.05888304 -0.008194987 -0.05846256 -0.01721114
000280 1e 8c 20 3d 8c e8 0b bb 27 86 65 bb 93 4c 25 bd
       0.039196126 -0.0021348326 -0.0035022588 -0.04035623
000290 c4 d0 ff bc e5 ac 35 3c f2 b1 0c 3c e6 2b 41 3d
       -0.031227477 0.011088585 0.008587347 0.047161005
0002a0 2d 6d 86 3d a5 0f 07 3d d9 43 60 3d 53 e3 3b bc
       0.065637924 0.032973904 0.054752205 -0.011467773
0002b0 6d c5 c2 bd 3a 36 5d bd af 71 d9 bd 68 4b 1d 3d
       -0.09510312 -0.054006793 -0.106173865 0.03840199
0002c0 09 41 e6 3d bf dd 86 bc 9e 14 2b 3d 35 6c 12 3e
       0.11242873 -0.016463159 0.04176771 0.1429909
0002d0 d8 23 74 3d 3b 0e 5d bd 81 26 7d 3d 8f a1 8f 3c
       0.059604496 -0.05396865 0.0618043 0.017533092
0002e0 85 d2 a3 3d d9 1a 34 bc c7 b8 5f bd d8 14 c1 3c
       0.07999138 -0.010992729 -0.054619577 0.02356951
0002f0 47 65 3f 3d 1b 08 6e bc cc ed c3 3d cf d1 74 bc
       0.046727445 -0.0145283 0.095668405 -0.0149426
000300 81 c7 39 3c 39 5b 9f bd 80 31 9a bd e2 84 92 3d
       0.011339069 -0.07781071 -0.075289726 0.07154252
000310 0c 61 6f 3c 41 a0 ab 3d 73 7a 10 3e bb 68 0c 3c
       0.01461054 0.083801754 0.1410921 0.008569892
000320 64 dd b8 3d 33 f4 3e 3b 98 7b 97 3b 39 a7 29 3d
       0.09026602 0.0029137253 0.004622888 0.04141924
000330 5b 5d d5 3d 3f a1 83 3e cf 75 bc bd d2 fc 01 3e
       0.10418197 0.25708959 -0.09202158 0.126941
000340 a8 2e 86 bd e0 41 70 bd 9f 6a 5e 3d f6 fa 29 3b
       -0.06551868 -0.058656573 0.0543009 0.0025936938
000350 67 4a 8b 3c 3d 0c 6f 3c 3e 26 b1 3d c8 1b d9 3d
       0.017003251 0.01459032 0.08649872 0.10601002
000360 66 c3 65 bc 93 33 7a bd a9 ce 88 bd d2 3d 1a 3d
       -0.014023637 -0.06108434 -0.06680042 0.037656613
000370 7f 71 43 bd f2 37 8b 3b d1 9c 89 bc 5d ef 2b bd
       -0.04771566 0.0042486126 -0.016798409 -0.04197632
000380 77 7e b5 3d a9 ee a8 3b d7 7a ae bc 02 39 97 3c
       0.08862012 0.0051554036 -0.021298809 0.0184598
000390 ea b2 15 bd fb 03 b3 3c 5f 97 e0 3c f9 50 b2 3b
       -0.03654758 0.021852484 0.02741593 0.0054417816
0003a0 9b 38 3f bc 3f 9d c0 bc 8c ec da 3c 0d ed 44 3d
       -0.011671211 -0.02351248 0.026724122 0.04807763
0003b0 57 55 97 bc d0 12 d9 3d e1 59 28 bd 31 dc 2e 3d
       -0.01847331 0.10599291 -0.04110134 0.04269046
0003c0 17 a1 d2 3d ec 66 c8 bd a8 0c b7 bd ef 25 13 3d
       0.10284632 -0.09785256 -0.08937961 0.03592485
0003d0 87 29 5a 3d 57 32 03 3d 77 e7 fa 3b 1f d0 6d 3d
       0.05326226 0.03203043 0.0076569873 0.058059808
0003e0 e7 c8 91 bd 21 1c b3 3d 46 e0 2e 3d a4 9a 59 3b
       -0.07118397 0.087455995 0.042694353 0.0033203745
0003f0 39 64 26 3b 47 52 20 bd f5 34 67 bd 11 07 23 bd
       0.0025389327 -0.039140966 -0.056446988 -0.03980166

base_pointnet.conv_2.bias f4 [64]
000000 d8 2f 45 3d df 1b 2c 3d 16 f9 32 bd ca 44 de bc
       0.04814133 0.042018767 -0.043694578 -0.02713241
000010 b4 32 77 bb c5 3b 9e bd f9 8d 1b 3d bc 9e 7d 3d
       -0.003771943 -0.07726244 0.037977193 0.06191896
000020 24 64 19 bd 78 a8 f0 3d f0 c9 02 3d bb 68 07 3d
       -0.037449017 0.11750883 0.031930864 0.033058863
000030 7b fd 8b 3d 45 2e 31 3d 75 5a 5d 3c 2f e1 a7 bc
       0.06835457 0.043257017 0.013510336 -0.020493118
000040 19 99 d3 3c 19 22 a1 3d 98 7f db 3c 5f 03 24 bd
       0.025829839 0.07867832 0.02679424 -0.040042277
000050 e5 bc fb b8 13 6c 09 3b 60 a5 0c 3d 65 39 88 3c
       -0.00012003797 0.0020968958 0.0343374 0.01662893
000060 d2 93 14 bb a8 23 2f 3c 77 aa 16 bd 0b be af bd
       -0.0022671116 0.010689653 -0.03678366 -0.0858117
000070 29 ae 50 3d c5 62 50 bd 32 a6 fd bd 06 c9 cc 3b
       0.050947342 -0.050875444 -0.12385215 0.00624955
000080 aa 93 cd 3c f1 30 c5 ba f1 66 82 bd 6c bf e5 3c
       0.025094826 -0.0015044493 -0.06367291 0.028045379
000090 4d 9b 0d 3d 38 6a 56 3d ac f1 48 bd e0 06 c2 3c
       0.034571934 0.05234739 -0.0490586 0.023684919
0000a0 cc 92 b8 bc 97 1a d2 3c 88 ae fb 3c 99 7c 65 3c
       -0.022530936 0.025647445 0.030722871 0.014006757
0000b0 8d 57 14 3d ca 5c 0b 3a 68 fe ac 3d 8f d7 18 3b
       0.036216307 0.0005316256 0.08446962 0.0023321842
0000c0 ff c7 76 bd 75 19 17 3d db 06 0d bd 28 56 ef bb
       -0.060249325 0.036889512 -0.034430366 -0.007303972
0000d0 0c a8 4c bd 7b 4b 9f 3b 83 ca 12 bd 83 2b 3b 3d
       -0.04996495 0.004861293 -0.03583766 0.045695793
0000e0 ca ec 6f 3d 71 66 77 3d 09 7b 61 bd c9 fa 7a 3d
       0.05857543 0.06040043 -0.055048976 0.061274324
0000f0 1c 7f 15 3d 5e d6 80 bd 51 7b 49 3c 95 2d f9 3d
       0.036498174 -0.06290887 0.012297467 0.12166897

base_pointnet.bn_1.weight f4 [64]
000000 2f 3a 5f 3f c2 90 8d 3f 57 e2 72 3f 5c 35 72 3f
       0.87198156 1.1059802 0.9487662 0.9461267
000010 e5 b7 a9 3f c1 c2 6d 3f 9a 0d 5b 3f b1 70 9e 3f
       1.3259245 0.92875296 0.8556763 1.2378141
000020 6c 35 78 3f d8 f8 60 3f 05 a9 6a 3f 31 df 5a 3f
       0.96956515 0.87879705 0.91664153 0.85496813
000030 dd a9 63 3f 01 61 67 3f b5 21 59 3f a3 fc 80 3f
       0.88931066 0.9038239 0.8481706 1.0077099
000040 31 35 81 3f e7 36 5c 3f a8 b9 6a 3f a8 b4 5f 3f
       1.0094358 0.86021274 0.9168954 0.87385035
000050 0b dc 69 3f f3 08 83 3f cc 32 91 3f 6c a0 6d 3f
       0.91351384 1.0237106 1.1343627 0.9282291
000060 10 4f 8d 3f fc 1d 8a 3f 57 27 a3 3f 29 df 80 3f
       1.1039753 1.07904 1.274638 1.0068103
000070 51 7e ab 3f 6f 09 58 3f 4c ac 59 3f c6 8c 62 3f
       1.3397924 0.84389395 0.8502853 0.88496053
000080 65 2c 68 3f df 46 3a 3f 6d db 8a 3f 04 b7 89 3f
       0.9069274 0.7276439 1.0848213 1.0758977
000090 c5 da 60 3f 5a 5f 9f 3f ae 3e 57 3f 56 2a 7f 3f
       0.87833816 1.2450974 0.84080017 0.99673975
0000a0 28 b1 55 3f b4 6d 7d 3f e3 aa 91 3f b2 44 6a 3f
       0.83473444 0.9899552 1.1380275 0.9151107
0000b0 8b f3 54 3f 9e 51 4b 3f df 61 58 3f 8d e1 9e 3f
       0.8318412 0.7942141 0.8452434 1.2412583
0000c0 55 22 89 3f e2 f4 71 3f c8 3a 60 3f 93 91 7a 3f
       1.0713602 0.94514287 0.87589693 0.9787838
0000d0 40 c7 5b 3f f8 56 65 3f 05 22 66 3f 5e 5e 9e 3f
       0.85850906 0.8958583 0.8989566 1.2372549
0000e0 16 33 86 3f 40 cb 8a 3f f9 53 81 3f c9 5b 90 3f
       1.048434 1.0843277 1.0103751 1.1278011
0000f0 82 3e 64 3f a7 66 7d 3f 7c 65 91 3f 24 4c b3 3f
       0.8915788 0.9898476 1.1359096 1.4007611

base_pointnet.bn_1.bias f4 [64]
000000 03 86 97 bc e1 b1 49 bf e6 5d 08 bc 60 b2 06 3d
       -0.018496519 -0.78787047 -0.008323168 0.032884955
000010 fb 60 77 be 8e 7c 91 bb 58 78 b4 bd dd 94 3f be
       -0.24158089 -0.004439897 -0.08812016 -0.1870913
000020 eb 77 39 be 10 d0 c7 bd 14 82 48 bd ef 6b 4c 3e
       -0.18112151 -0.09756482 -0.048952177 0.19963048
000030 c2 2a 0a bd e2 57 d5 3a 83 b8 07 be 34 c6 08 be
       -0.033732183 0.0016276801 -0.1325398 -0.13356858
000040 56 7b 1a bc 03 99 b3 bd 73 a8 22 bc 65 10 02 be
       -0.00942882 -0.08769419 -0.009927857 -0.12701567
000050 64 54 28 bd 13 b0 24 be dc 54 77 be ac 82 27 bc
       -0.041096106 -0.16082792 -0.24153465 -0.010224026
000060 86 b7 bf 3e 64 59 dc 3b 25 fa 16 be 03 43 25 bd
       0.37444705 0.0067245234 -0.1474386 -0.04034711
000070 48 13 b8 be 62 12 aa bc ba a9 98 3d 99 8a ae bd
       -0.3595221 -0.020760719 0.07454248 -0.08522529
000080 d1 37 1f be d3 b3 cd bd 03 e7 8c 3d 5c 4d e1 3d
       -0.15548636 -0.100440644 0.068799995 0.11001083
000090 8d 5c 8c be 83 35 e1 bd a6 40 05 be 9f 2b e7 bd
       -0.2741436 -0.10996535 -0.13012943 -0.11287617
0000a0 27 d7 e2 bb 52 43 be bd 29 03 30 bd 36 c2 c1 bd
       -0.006922621 -0.09290184 -0.042971764 -0.09460871
0000b0 09 45 47 be 46 53 ac 3d c6 e0 04 be fb 70 22 bd
       -0.19459929 0.08414321 -0.1297637 -0.039658528
0000c0 dd 8a 41 bb 72 42 da bd 59 61 cf be 15 20 93 be
       -0.0029532232 -0.10657205 -0.40503958 -0.28735414
0000d0 bc 97 35 be d3 8a 3a be 82 e8 51 bc 28 f6 b6 be
       -0.17733663 -0.1821702 -0.012811782 -0.35734677
0000e0 6b df a4 be 7e 89 82 3e fa cd f1 be 64 05 69 3d
       -0.32201704 0.25495523 -0.4722746 0.056889907
0000f0 01 78 bb bd cd 4a 0e be 14 aa 69 bd c2 50 e3 bd
       -0.09153748 -0.13895722 -0.057046965 -0.11099388

base_pointnet.bn_1.running_mean f4 [64]
000000 9b e8 21 42 74 36 f3 c0 5e a5 d3 40 39 98 52 41
       40.477154 -7.600397 6.6139364 13.162164
000010 33 53 63 bf 32 bf b0 40 48 8a 15 42 fc 29 6c bf
       -0.88798827 5.5233393 37.38504 -0.92251563
000020 cc d2 14 40 ae f1 0b c2 77 a3 cf c0 93 9b 19 c2
       2.325366 -34.986015 -6.488704 -38.401928
000030 9c 17 7e 41 00 f3 c1 41 3c 27 d4 41 e0 7e 1a c1
       15.880764 24.243652 26.519157 -9.655975
000040 05 2d e6 40 d1 87 34 41 c8 1a 7b 41 fc 13 a6 41
       7.1929955 11.283158 15.694038 20.759758
000050 86 80 e5 41 6a ae 08 3d 08 a7 9d c0 80 d7 b8 40
       28.687756 0.03336946 -4.9266396 5.776306
000060 34 00 6e 3e 26 5e 5a 40 2d 6d 96 3e fa ea 06 c1
       0.23242265 3.4119964 0.2938017 -8.432367
000070 aa e2 b8 bf f7 23 48 41 2c fd 5b c2 6b a7 ca c0
       -1.4444172 12.5087805 -54.99724 -6.332937
000080 ec 70 e5 c0 9d 51 96 c1 a2 a7 ed 3e e6 eb 53 3f
       -7.1700344 -18.78985 0.46416956 0.8278183
000090 58 fe 25 42 a3 0f 0b c0 3b 85 de c0 f9 63 69 40
       41.498383 -2.1728294 -6.9537635 3.6467268
0000a0 a1 9b df 40 ba 18 cc 3f b3 10 fc bf d8 44 af 41
       6.9877477 1.5945046 -1.9692596 21.908615
0000b0 69 89 56 41 f7 f5 09 42 e2 a9 fc c1 4c f2 b8 bf
       13.408547 34.4902 -31.58295 -1.4448943
0000c0 5e c3 82 3f e1 1d 79 40 0e 92 a0 c0 9b d0 42 c0
       1.0215871 3.8924487 -5.017829 -3.0439823
0000d0 9a 28 11 42 50 b0 d7 c1 da 46 45 c1 90 0a 74 bf
       36.28965 -26.96109 -12.329798 -0.9532862
0000e0 9b 82 99 3e fe af 7f 3f bc b1 d7 c0 5e fb 4f c0
       0.29982457 0.9987792 -6.740446 -3.2497172
0000f0 65 3b 0e 41 48 53 56 bd df f5 23 c0 21 3b ec bf
       8.889501 -0.052325517 -2.5618818 -1.8455545

base_pointnet.bn_1.running_var f4 [64]
000000 cc 8a b9 43 c4 6f 8d 42 48 d5 b8 42 d9 cb a6 42
       371.08435 70.71829 92.416565 83.39814
000010 c7 94 6f 41 dd 46 83 42 68 91 8a 43 1a 3b ef 41
       14.973823 65.638405 277.136 29.903858
000020 88 83 2d 42 6b f4 92 43 a0 c9 b7 41 10 ef a5 43
       43.37845 293.90952 22.97345 331.86768
000030 a8 03 ce 42 19 ec 17 43 5e 6d 34 43 61 8d 11 43
       103.00714 151.92226 180.42722 145.55226
000040 60 87 b3 42 ea 81 41 42 bb 37 10 43 dd 53 1a 43
       89.764404 48.37687 144.2177 154.32759
000050 f7 0a 31 43 9c a8 95 41 2d 70 1c 42 1c e9 1c 42
       177.04283 18.707329 39.109547 39.227646
000060 22 17 f0 3f 14 fb fa 41 75 bd 96 3f cb 3b 1c 43
       1.875706 31.372597 1.1776568 156.23357
000070 4c 96 d6 41 ba 3a a3 42 b6 af 1f 44 73 dc 9e 41
       26.823387 81.6147 638.7455 19.857641
000080 e1 13 e6 41 51 3c b4 42 64 53 d6 41 6a a2 f3 41
       28.759706 90.117805 26.790718 30.454304
000090 65 d0 ac 43 3c 95 53 41 69 f4 d2 41 96 b8 52 42
       345.62808 13.223934 26.36934 52.68026
0000a0 b0 3b 41 41 6e 76 24 40 94 bc cd 41 0e 53 fc 42
       12.077072 2.5697284 25.71708 126.16222
0000b0 45 39 95 42 5d c1 82 43 b3 16 58 43 76 77 9a 41
       74.611855 261.51065 216.08867 19.30833
0000c0 15 63 02 42 88 f9 2e 41 fc 52 ed 40 f0 5a 28 41
       32.59676 10.935921 7.41638 10.522202
0000d0 dc 48 85 43 91 23 40 43 47 37 28 42 bb e4 6b 41
       266.5692 192.13893 42.05398 14.743342
0000e0 f6 2f 11 41 8e af f5 40 b2 25 c0 42 3a 50 10 42
       9.074209 7.67768 96.07362 36.078346
0000f0 8c 72 84 42 23 a8 25 41 30 8e 4c 42 3b f2 a9 42
       66.223724 10.353549 51.138855 84.97311

base_pointnet.bn_2.weight f4 [64]
000000 75 9f a7 3f 59 7b e8 3f 46 ac c2 3f 09 3b a8 3f
       1.3095537 1.8162643 1.5208824 1.3143016
000010 70 93 e8 3f b9 e1 b2 3f 52 df a2 3f e5 28 0d 40
       1.8169994 1.3975135 1.2724402 2.205621
000020 38 89 b3 3f 82 76 ec 3f 36 1d db 3f 47 4e bc 3f
       1.4026251 1.8473666 1.711829 1.4711388
000030 b9 91 af 3f 0e e4 14 40 5b a6 0e 40 c6 2f b9 3f
       1.3716346 2.3264194 2.2289035 1.4467704
000040 9e 3d af 3f 18 83 b7 3f 2c ae 0d 40 7a 4e b6 3f
       1.3690679 1.4336882 2.2137556 1.4242699
000050 d7 74 04 40 00 69 ca 3f e6 30 e8 3f af b8 ca 3f
       2.0696313 1.5813293 1.8139923 1.5837611
000060 ef 84 c4 3f c4 e6 bd 3f ac 8c bf 3f 92 81 cd 3f
       1.5353068 1.4836049 1.4964805 1.6055167
000070 a2 4f c2 3f 48 60 d5 3f 88 9e b9 3f 4e bf 9e 3f
       1.5180552 1.6670008 1.4501505 1.2402132
000080 2c 2c bd 3f 9e 3f a5 3f 05 b6 b8 3f c4 7b d4 3f
       1.4779105 1.291004 1.4430548 1.660027
000090 db 20 c6 3f b2 20 d1 3f 80 cf ad 3f d7 22 9f 3f
       1.5478777 1.6338103 1.3578949 1.2432507
0000a0 79 0e eb 3f da b0 af 3f f7 93 b5 3f 24 7b ca 3f
       1.8363792 1.3725846 1.418578 1.581883
0000b0 30 7d 01 40 f4 86 dd 3f dc de a4 3f 5b 66 ca 3f
       2.0232658 1.730681 1.2880511 1.5812486
0000c0 82 4e a9 3f 9a ab b5 3f 93 11 cd 3f 7f 28 b0 3f
       1.3227084 1.4192994 1.6020988 1.3762358
0000d0 aa ac a0 3f bc d0 ee 3f d9 b3 a9 3f 89 e9 01 40
       1.2552693 1.8657451 1.325801 2.0298789
0000e0 bf 4d c4 3f 8c a9 bb 3f 28 1e a0 3f 90 b8 0a 40
       1.5336226 1.4661117 1.2509203 2.1675148
0000f0 30 0b ab 3f a9 80 e3 3f f0 05 c8 3f 98 1d a6 3f
       1.3362789 1.7773639 1.5626812 1.2977781

base_pointnet.bn_2.bias f4 [64]
000000 61 da 03 3d 1e 03 98 3e 46 74 b9 3d 8d a8 62 bc
       0.032190684 0.29689878 0.090553805 -0.013834131
000010 93 e7 41 3e 33 4a 85 3e b6 7a 93 3d ae 15 a5 3d
       0.18935995 0.26033172 0.0720114 0.08060776
000020 1c e2 66 3e bf 56 b7 3d af 0b a7 3e e1 20 ec 3d
       0.22547191 0.089520924 0.326261 0.11529709
000030 20 e4 0f 3e 7f ac 1d be 45 fd d4 be 0f ee 22 bc
       0.14051867 -0.15397833 -0.4159948 -0.009944453
000040 12 bb bd ba 26 b1 7a 3e dd e6 56 be b3 b2 56 3c
       -0.0014475307 0.2448164 -0.20986505 0.013104129
000050 a6 bb e8 bd 36 9b 12 be db 10 b8 bc c2 bb 88 3e
       -0.11363916 -0.14317021 -0.022468975 0.26705748
000060 bd 53 69 3e 0f 1c 80 3e cd 6e 8e 3e 80 7e 28 3e
       0.2278585 0.25021407 0.2781891 0.16454506
000070 f4 23 d3 3d 67 f2 1f 3e ff c0 5a 3d e4 fa c8 3d
       0.10309592 0.15619813 0.05340671 0.098134786
000080 a5 57 3b 3e a1 f8 0b 3e 92 3e 83 3d 1f 12 61 3e
       0.18295152 0.13669063 0.06408419 0.21979569
000090 33 a8 3c 3e 04 b1 d3 bc 2d c2 60 3e 4b 49 36 3e
       0.18423538 -0.025841244 0.21949072 0.17801397
0000a0 06 b7 a8 3e 3b 3c 45 3e 38 c3 90 3d 91 e5 18 3e
       0.32952136 0.19261257 0.07068485 0.14931323
0000b0 07 60 0f 3e 5e 31 04 3e cc 4b c2 3d c3 f1 c6 bb
       0.14001475 0.12909457 0.09487113 -0.0060713007
0000c0 73 0b a5 3d 38 55 55 3e f5 db 6e 3d 66 df 27 3e
       0.080588244 0.2083329 0.058315236 0.16393813
0000d0 86 b7 c0 3c f5 98 ac bd a4 d0 1c 3d 53 d0 31 be
       0.02352501 -0.08427612 0.038284913 -0.17364626
0000e0 35 d7 6d 3e 0d 14 26 3e 30 76 c3 3d 10 75 a3 3c
       0.23226626 0.16218586 0.09544027 0.01995328
0000f0 c7 f1 18 3e 8c 6a 7f be 73 dd 7b bd 5d 24 0b 3e
       0.1493598 -0.24942988 -0.061490487 0.1358809

base_pointnet.bn_2.running_mean f4 [64]
000000 80 6e 90 be ff 3f 95 3e bc 61 e6 bd d9 4c 1e be
       -0.28209305 0.29150388 -0.1124911 -0.15459003
000010 e7 3d 27 bf 49 85 6e be a2 6a f4 be 62 0b 97 3e
       -0.6532883 -0.23293032 -0.47737604 0.29500872
000020 1f 93 e0 bd c6 99 4b be 48 a5 ae be f8 7a 28 3c
       -0.10965561 -0.19882879 -0.34110475 0.010283224
000030 d6 36 c7 3d fc 06 99 3d f1 64 1a 3e dc 61 9c be
       0.09727256 0.07472035 0.15077569 -0.3054341
000040 cb 44 17 3e be c7 01 bc 31 8a d5 3d 9c c0 aa bd
       0.14772336 -0.007921157 0.104267485 -0.083375186
000050 0c 3b 68 3e 96 c6 ef bc 84 b8 f4 3d d8 82 84 3e
       0.22678775 -0.029269498 0.11949256 0.25881076
000060 44 85 1a be 00 f2 f6 be 07 b2 18 bf 03 f6 d5 be
       -0.150899 -0.48231506 -0.5964665 -0.41789255
000070 04 cf 37 be cd 46 8a be 24 35 c6 be 94 18 39 bf
       -0.17950064 -0.27007142 -0.38712418 -0.7230313
000080 14 c5 22 be 7a f3 0a bf 82 1c 42 3e 85 74 05 be
       -0.15895492 -0.54277766 0.18956187 -0.1303273
000090 d9 ac 38 be 97 75 bc 3d 6b 8a 06 bf 5e 18 95 3d
       -0.18034686 0.09202116 -0.5255496 0.07280038
0000a0 d0 66 0d bf bb c0 46 be 5f 5e 70 be 30 b2 57 bf
       -0.55235004 -0.19409458 -0.234735 -0.8425627
0000b0 29 d5 49 3e a7 63 3e 3f da fe c2 3c 1a 7e 21 be
       0.1971022 0.7437081 0.023803163 -0.1577076
0000c0 25 a3 3c bf ae ec 3b be 2d 42 ef be b2 fd 80 bc
       -0.7368644 -0.18352005 -0.46730176 -0.015745971
0000d0 c9 17 66 be 4d dc 8c 3e 6d 48 92 bc f4 63 4b 3d
       -0.22470011 0.27511826 -0.0178568 0.04965587
0000e0 75 e7 b8 3d 1d f5 f5 3c f9 37 56 3e 08 d6 1d be
       0.09028522 0.030024106 0.2091979 -0.15413678
0000f0 c7 49 06 bf a7 63 f5 bd 00 c7 c1 3e 3f d8 da be
       -0.52456325 -0.11981898 0.37847137 -0.42743108

base_pointnet.bn_2.running_var f4 [64]
000000 0e 93 b0 3c 64 cb 8a 3c 66 78 2f 3d 88 3c 4f 3d
       0.021554496 0.016942687 0.04283943 0.050594836
000010 24 39 1e 3d e2 f6 cc 3c 93 ca 09 3e b8 7c a1 3c
       0.038628712 0.025020067 0.13456182 0.01971279
000020 e6 37 5b 3d 96 12 b0 3c e0 91 32 3d 64 24 93 3d
       0.053520106 0.021493237 0.04359615 0.07184675
000030 08 55 ff 3c 9d ac d2 3c ef f3 88 3c c3 f6 ab 3c
       0.031168476 0.025717074 0.01671788 0.020991689
000040 70 ee 90 3c 61 95 d8 3c 61 29 98 3c 00 04 ed 3c
       0.01769182 0.026438417 0.018574419 0.028932571
000050 76 f6 f4 3c 19 d7 81 3d fb c4 9e 3c ac a2 1c 3d
       0.029902678 0.06339855 0.019381037 0.038241073
000060 03 59 83 3d 13 b2 6e 3d 01 0e f6 3d 84 61 29 3d
       0.06413462 0.058275294 0.1201439 0.041352764
000070 66 71 fc 3c 16 84 8b 3d fa c4 49 3d 96 65 f8 3d
       0.030815791 0.06812303 0.049260117 0.12128751
000080 ed 6a 16 3e ed 08 a4 3d 8a c3 24 3d f7 7b 19 3d
       0.14689226 0.08009515 0.040225543 0.037471738
000090 d7 dd f7 3d ac 10 15 3c 1a f4 c1 3d 0b 0f bd 3d
       0.121028595 0.009098213 0.09470387 0.09231385
0000a0 da 3c 8a 3d 4b c8 e5 3d 4f 12 9a 3c d8 ad 16 3d
       0.06749888 0.112198435 0.018807558 0.036786884
0000b0 e9 df ce 3c 43 58 a7 3d 97 d6 63 3d ca df 84 3c
       0.025253253 0.081711315 0.05562457 0.016219992
0000c0 d3 e2 60 3e a2 cc df 3d da f9 e1 3c a4 85 1b 3e
       0.21961527 0.109277025 0.027584959 0.15187699
0000d0 0d 2b ab 3d 1b e2 18 3d 8e f2 27 3d 53 02 fc 3c
       0.08357821 0.037325006 0.041002803 0.030762827
0000e0 10 ac 40 3d 27 06 1f 3d fb 9b d9 3d a7 52 28 3c
       0.04703909 0.038824227 0.10625454 0.010273612
0000f0 a1 f6 c3 3c 51 61 d6 3c 0f 08 a6 3d a6 3f 81 3d
       0.023921313 0.026169451 0.08107006 0.06310968

fc_1.weight f4 [64, 66]
000000 04 0a 2a 3d 12 90 06 c0 41 bd c9 bd 7e 44 85 3e
       0.041513458 -2.1025434 -0.098505504 0.26028818
000010 38 a2 6a be cf 51 96 be 82 33 13 3e 60 60 ab 3e
       -0.22913444 -0.2935929 0.14375117 0.33471966
000020 b1 ed be 3d 4c cd 00 bf 27 88 3a bd a9 55 be 3e
       0.0932268 -0.5031326 -0.04554 0.3717473
000030 4a 0a ae 3d 51 fa 97 3d 55 e8 da be f0 d1 92 3c
       0.08498056 0.07420791 -0.4275538 0.017922372
000040 4b c4 95 3e d2 ca 11 bf 43 4d 6e 3e b7 1a 84 3e
       0.29251322 -0.56950104 0.2327166 0.25801632
000050 eb 87 bf 3d 91 f9 11 3e 35 3d 7a 3e 42 cb 50 bf
       0.09352096 0.14255358 0.24437411 -0.81560147
000060 c3 09 c2 3e 92 39 59 be 2d 3a c5 3e 9d ad f9 3e
       0.37898073 -0.21213368 0.38520947 0.4876527
000070 eb 44 c7 3e 77 65 b5 3e 9b 39 4f bd a5 3e 46 3e
       0.38919768 0.35428974 -0.050592046 0.19359834
000080 1d 0d 43 be 24 6d 88 3c f9 6a c3 3e 86 d9 9b bc
       -0.19047971 0.016653605 0.3816755 -0.019024622
000090 1a 2a fb bc 49 10 62 3e 03 68 ab 3e d8 5b 87 be
       -0.030659724 0.22076525 0.33477792 -0.2643726
0000a0 51 3a c0 3d fb f6 a4 3d c7 55 85 3d 1e 6d f2 3e
       0.09386123 0.0805492 0.06510501 0.47348875
0000b0 02 a9 f1 3d 73 a4 93 3e e3 2b b7 be 8b ed 84 3e
       0.11799814 0.28836402 -0.3577567 0.2596248
0000c0 5b 31 d4 be 26 79 f7 bd 62 ca 1d bf e5 d7 09 3f
       -0.41443905 -0.12083654 -0.61636937 0.53845054
0000d0 17 1a 01 bf 42 a4 4a 3e b5 8d 82 be fe 07 42 3e
       -0.50430435 0.19789222 -0.2549874 0.18948361
0000e0 2f d2 c8 be 9d 46 ff bd e7 02 00 3f ab fc e3 3d
       -0.39222857 -0.1246464 0.5000443 0.11132177
0000f0 0b 76 83 bd cc be 28 3e 41 a4 8c be 84 0a a3 be
       -0.06418999 0.16479033 -0.27469066 -0.3184396
000100 ef b7 bb be b2 fb b9 be 38 d8 cc bd 6f b3 57 3d
       -0.36663768 -0.3632484 -0.10002178 0.052661356
000110 08 9f ca bd 7c 5c 5a 3d 7d e7 d5 3d f2 44 21 3d
       -0.09893614 0.053310856 0.104445435 0.039372392
000120 ce 31 39 bd e0 aa b4 3d ec 90 76 3b 7d 4c e8 3b
       -0.045213513 0.08821654 0.0037623001 0.0070891962
000130 aa ff cf bd 48 ea 60 3c 46 7a 1a 3c d1 12 c3 3b
       -0.10156186 0.013727732 0.009428566 0.005953171
000140 bb f3 3d bd a2 7d ec 3c 25 5b 1d 3d da 46 a1 3d
       -0.046375018 0.0288685 0.038417 0.07874842
000150 6d ed a9 3d ad b3 cb 3d d3 63 14 be ad a0 48 3b
       0.082972385 0.0994638 -0.14491205 0.0030613348
000160 23 62 0c 3d a8 93 d3 3d f7 56 10 3d 4b 6f c8 3c
       0.034273278 0.103308976 0.035239186 0.024467131
000170 6d 1e 28 bd 4d e8 cb bd c7 94 df 3d 0d 23 4a bd
       -0.04104464 -0.09956417 0.10917049 -0.049349833
000180 55 bb 48 bc 94 50 88 bc 61 b4 11 be 98 6a 93 3d
       -0.012251695 -0.016639985 -0.14228965 0.071980655
000190 3c ab 5f 3d a6 f4 d6 bd 47 9a 0c be e0 f4 92 3d
       0.05460666 -0.10495882 -0.13730727 0.071756124
0001a0 e1 e7 2c 3d 6a 7e 97 3d 01 86 8e 3d 9d c6 1c 3d
       0.042213324 0.073971584 0.06959153 0.03827535
0001b0 28 89 af 3c c1 fc a7 3d 14 e3 c9 bd 1e 32 a7 bd
       0.021427706 0.08202506 -0.09857765 -0.08163856
0001c0 40 00 e0 3d a8 0f cf bc f9 5a 8b 3d 89 c6 54 3c
       0.10937548 -0.02527602 0.06804461 0.012986788
0001d0 53 99 e5 3c ed 07 f5 bd 59 e5 77 bc e7 b3 89 3c
       0.028027212 -0.11964402 -0.015130364 0.016809417
0001e0 52 e2 87 ba a6 a5 ce bd 4d 7b c0 bd 33 cb 2b bd
       -0.0010367131 -0.10090189 -0.09398518 -0.041941833
0001f0 8f d1 c8 3d 88 a1 cd bd 41 ec e2 bd c5 50 2f be
       0.09805595 -0.10040575 -0.11080218 -0.17120655
000200 00 e1 e0 3c 6d 19 1d 3c 0f 9b db 3d 2e 9f 14 bd
       0.027451038 0.0095885815 0.107229345 -0.036284618
000210 fa 75 b1 3d 89 33 c9 bd d0 e7 87 bc b7 6f b6 bd
       0.0866508 -0.09824283 -0.016590029 -0.08908027
000220 79 16 f6 bd ed 18 52 3e 7b 35 9c 3d 38 88 01 be
       -0.12016005 0.20517321 0.07627388 -0.1264962
000230 04 3d 56 3d 6f ea 21 3e d3 ff 10 be 6a da ba 3d
       0.052304283 0.15812086 -0.14160089 0.091236904
000240 fa 90 6a be c7 79 5b 3d 3f ca 02 3e 27 6f 85 bc
       -0.22906867 0.053582933 0.12772463 -0.016288353
000250 15 d5 e9 3d 41 70 5f 3e fb 6d 49 3e e9 34 9c 3d
       0.11417595 0.21820165 0.1967086 0.07627279
000260 97 b4 a1 3d 56 de d7 3d 98 26 b5 3d d0 3d 8a bd
       0.07895773 0.10540454 0.08845252 -0.06750071
000270 5e 90 0f be 36 6e 80 be b8 a2 e1 3d 26 ca e0 bd
       -0.14019915 -0.25084084 0.11017364 -0.10976057
000280 c7 54 5e 3c db e1 d8 bd 03 e3 23 bb 74 6c ff 3d
       0.013570017 -0.105899535 -0.0025007136 0.12471858
000290 15 71 c0 3d ef 04 14 3d e9 1d e6 3d 34 ae 14 bd
       0.09396569 0.036137518 0.11236174 -0.036298946
0002a0 7a f3 88 bd 7a 22 ff bc a0 8d 8e bd 40 5c 53 bc
       -0.066870645 -0.03114437 -0.069606066 -0.012900412
0002b0 28 f1 6e bb 7f 4d cf bd 42 34 25 bd 8d d0 f7 3d
       -0.0036459658 -0.10122203 -0.04033304 0.12100325
0002c0 a9 6e 94 3d af 36 84 3d 49 d5 7c bd 7a f0 dd 3d
       0.07247669 0.064557426 -0.061726842 0.10836883
0002d0 4b 3d 1f 3d b8 99 43 3d 40 6d d7 3c f3 7f ed bd
       0.038876813 0.04775402 0.026297212 -0.1159667
0002e0 76 38 bd bd ab 7c d4 3d dd 66 26 bc 15 6d ea bd
       -0.09239285 0.10375341 -0.01015636 -0.11446587
0002f0 53 08 40 3d 5f a2 29 3e 08 ac ea 3d 12 ce fa 3d
       0.04688294 0.16565846 0.114585936 0.12246336
000300 bd b7 b4 3d 3a 15 cb 3c fb 80 71 3e 88 9c 01 3d
       0.08824108 0.024790395 0.23584358 0.03164342
000310 d7 de 7a 3d 00 fa 07 3d 2c 8d 4c 3d 7d 2f f3 bd
       0.061247673 0.033197403 0.04993932 -0.11874292
000320 25 5d 3e 3e 49 1e 6b bd 5d a7 25 bd 99 db 56 3e
       0.1859022 -0.05740193 -0.040442813 0.20982207
000330 3d 78 87 3d b7 3c f6 bd 7e bb a5 3d fc a9 c0 3d
       0.066147305 -0.12023299 0.08092402 0.09407422
000340 2b c9 47 be 87 b0 31 3d 12 41 5b be e0 8a b2 bd
       -0.19510333 0.04338124 -0.21411541 -0.087178946
000350 bc 2a 2d 3d 8d 26 2f 3e a4 b7 f0 3d 86 7d 86 3e
       0.042277083 0.1710455 0.11753777 0.26267642
000360 bc 2b 72 3d 4e 5f a3 3d 80 31 f8 3d da 21 99 3d
       0.05912374 0.07977162 0.121188164 0.0747716
000370 96 63 ed bc a2 52 c0 3d 0a ae 8e bc 0c 6e 31 be
       -0.02897815 0.09390761 -0.017416973 -0.17327136
000380 6a ea b5 bd 24 d7 ac bd aa a0 c9 bd cb 83 4f ba
       -0.088826016 -0.08439472 -0.09845097 -0.0007916062
000390 9a 9e 14 3e 99 7c 33 bd 79 f7 fc 3c df dd 0e 3e
       0.14513627 -0.043819997 0.030879723 0.13951825
0003a0 2c 36 97 3d 02 1d a3 3d 61 d1 06 3d 6f e2 b2 3d
       0.07383379 0.07964517 0.032914523 0.08734595
0003b0 74 e0 d5 3d 06 29 bd 3c 00 2c 4a 3c d0 00 9e 3c
       0.10443202 0.02309085 0.012339592 0.019287497
0003c0 77 a3 c4 bd 39 28 4d 3d eb be 15 3e 63 d2 17 3e
       -0.09601491 0.050087187 0.1462361 0.1482635
0003d0 4d 55 3b bd bc a2 ac ba 02 ae 19 be 07 68 42 3e
       -0.045735646 -0.0013171057 -0.15007785 0.18984996
0003e0 8b d0 2a 3d 25 04 88 3d 06 8b fc 3c c9 81 c7 bd
       0.04170279 0.066414155 0.03082801 -0.097415514
0003f0 73 78 da 3c 0e b3 db bc 25 04 df bd db cf 34 3e
       0.026668763 -0.026818778 -0.108894624 0.17657416

fc_1.bias f4 [64]
000000 95 e7 3f 3e 86 5b ba 3d 2a a6 b3 bd 78 f0 9b bc
       0.18740685 0.09099488 -0.08771928 -0.019035563
000010 93 41 6a bd 93 71 cd bd 8f 92 a6 bc 02 0b ce bb
       -0.057191443 -0.10031428 -0.020333556 -0.0062879333
000020 dc 43 90 bd 15 dc 4f bc b1 66 d4 3d 18 66 f3 bc
       -0.07044193 -0.012686749 0.10371149 -0.029711768
000030 af 07 82 bd 3e 57 03 3e f0 0d b1 bd bb e2 0a 3e
       -0.06349122 0.12826249 -0.086452365 0.13563053
000040 4c f9 ee 3d 58 62 c7 3d 43 23 19 3e 74 ee ca bb
       0.11668643 0.097355545 0.14954858 -0.0061929766
000050 8a 3d 7f 3e 23 11 7b 3d 53 49 18 be 36 1f 25 3d
       0.24925819 0.06129564 -0.14871721 0.04031297
000060 73 5d 8d 3d e2 e6 5c be 4f c1 4f 3d c8 56 01 3e
       0.0690259 -0.2157245 0.050721463 0.1263076
000070 ad 80 b8 bd da 14 95 3c a3 75 c2 3d 9c 3e 5d 3e
       -0.09008918 0.01819842 0.09495094 0.21605915
000080 67 33 12 be 86 fd a1 bd bd d0 98 bd 38 98 b5 bc
       -0.14277421 -0.07909684 -0.07461689 -0.02216731
000090 76 86 0d bd f3 83 24 3d a7 e3 33 be f0 2e 8d 3c
       -0.03455206 0.0401649 -0.17567311 0.017234296
0000a0 ce cb 2b 3e 80 f8 6f 3c 8f 7d 0e 3e 36 e0 a3 bd
       0.16776964 0.014646649 0.13915084 -0.08001749
0000b0 11 af c1 bd 5c af e4 3d 34 ac 29 bc a3 c9 3b 3e
       -0.094572194 0.1116626 -0.010355998 0.18338637
0000c0 c6 7b 03 be d9 4f 63 3e e5 58 da 3d 38 f6 cc bd
       -0.12840185 0.22198428 0.106614865 -0.100079
0000d0 e8 aa a8 3d 73 7d b3 bc 1b 1c a4 3b 0e fc 97 3e
       0.08235723 -0.021910405 0.0050082332 0.2968449
0000e0 02 15 2f be a0 58 f4 3c 87 af fb 3d 4d ca ee 3b
       -0.17097858 0.029827416 0.122893386 0.0072872997
0000f0 9e 49 4b be 04 a3 08 3e 66 cd f9 3d 24 fa 4f 3d
       -0.19852301 0.13343436 0.1219738 0.050775662

fc_2.weight f4 [3, 64]
000000 d9 48 e4 bd ea 9d fc bb 7f 98 d1 bd d8 ac dd bd
       -0.11146707 -0.0077092545 -0.102341644 -0.10823983
000010 8c be ae bd 9a 77 bb bd 66 f4 55 3f ca 2b 8d bf
       -0.08532438 -0.091536716 0.8357605 -1.1028988
000020 61 68 8a 3d dc 83 60 3d c3 21 7f be 64 16 a0 bd
       0.0675819 0.05481325 -0.24915223 -0.07816771
000030 e8 6c 39 3d 6e c1 9a bf cd 03 21 3e 27 a2 e2 bc
       0.045269877 -1.209028 0.15724106 -0.02766521
000040 30 70 db 3c 93 64 bc bf f0 2d 4d bf af 4e 1a be
       0.026786894 -1.4718193 -0.8014822 -0.15069078
000050 86 e5 26 3f 66 f9 bb 3d ee b1 24 bf e8 1a c0 3c
       0.65193975 0.09178428 -0.64334 0.02345033
000060 87 74 e1 bd e7 c7 51 be 1b f3 7b 3d 1b c2 2e 3f
       -0.11008554 -0.20486413 0.06151114 0.6826493
000070 46 5e cf 3d f2 3e 76 3e 76 1b af 3d 2d 65 19 3f
       0.10125403 0.24047449 0.0855016 0.59920007
000080 d8 44 0c be 90 17 83 bf 28 cb 8c bc 7f 2a 8d 3f
       -0.13698137 -1.0241566 -0.017186716 1.1028594
000090 cc e3 82 3e 64 91 df 3e b9 73 8f 3f 69 f0 23 3c
       0.2556442 0.43665612 1.1207191 0.010006049
0000a0 fa 3f c3 bf 68 c2 e2 3c cc 48 a4 3f de 71 a7 bd
       -1.5253899 0.02768059 1.2834716 -0.08176015
0000b0 b0 c5 0e bd dd b9 bc 3e 16 a9 d2 bd 83 8a eb 3f
       -0.0348565 0.36860552 -0.10286157 1.8401645
0000c0 62 1d a6 bf f2 83 12 40 a5 cf 0f 3f bc fd 72 bd
       -1.2977717 2.2893033 0.56176215 -0.05932401
0000d0 ee 97 21 3f e6 fa 65 bd 3a 6a 92 3d 88 98 8e 3f
       0.6312245 -0.05614748 0.07149167 1.1140299
0000e0 5a a4 2f bf 86 8f 1d 3d 88 ae 0e 3f d7 78 7a 3e
       -0.68610156 0.038466953 0.55735064 0.24460159
0000f0 e6 50 24 3e 0e 3a 09 3e 4d eb b7 3f a8 f3 ba be
       0.16046485 0.13401052 1.4368683 -0.3651402
000100 e7 03 bd 3f 67 03 1b 3e be cc 69 bc 78 4e 36 3d
       1.4766816 0.15138017 -0.014270006 0.044508427
000110 c0 6a 6c bd c5 cd 5d 3e b3 cd a2 bf fa e6 58 3f
       -0.057718992 0.21660526 -1.2719024 0.8472744
000120 3b 35 8f bd 18 db e8 bc e6 99 83 3e be 14 8f 3e
       -0.06992575 -0.028424785 0.25703353 0.27945513
000130 fa 59 f8 3d d2 4e 3d 3e ca 4b a6 be a0 c3 06 be
       0.12126537 0.18487099 -0.32479697 -0.13160563
000140 5d 68 47 3f 30 0c 60 3f a8 d3 77 3f 42 d4 85 3e
       0.7789362 0.87518597 0.96807337 0.26138502
000150 57 fe 7a 3f 62 af 18 3d c4 55 45 3f 5e c2 1a 3e
       0.9804434 0.037276633 0.7708399 0.15113208
000160 2f ff 56 bc bc 6f 3a c0 1d 9d 99 3e 22 71 88 bf
       -0.013122364 -2.9130697 0.3000268 -1.0659525
000170 31 8d 18 be 61 27 8b 3f 60 ed 87 be c6 97 85 3f
       -0.1489761 1.0871392 -0.2654829 1.0436943
000180 56 b3 21 bf 47 fb 2d 3f 84 50 6a 3d b3 ae b0 be
       -0.6316427 0.67961544 0.057205692 -0.34508285
000190 52 7d 0b bf eb df 0c c0 cf b6 03 bf cc fe 7f bd
       -0.544881 -2.2011669 -0.5145082 -0.062498853
0001a0 24 40 16 3f cc 4f 9f 3d b4 bb da bf d8 49 3f 3d
       0.5869162 0.07778892 -1.7088532 0.046701282
0001b0 2e 1a db bd f1 f2 bf bf ed ea b6 bd 44 00 02 c0
       -0.10698353 -1.4996015 -0.08931527 -2.0312662
0001c0 8f 46 1e 40 ef dd 91 bf 27 27 7b 3f b0 71 bc bd
       2.4730566 -1.1395854 0.98106617 -0.09201372
0001d0 9d 0f 4f bf 5c 2c f1 bd 8f d9 ea 3c eb da 3e 3e
       -0.808832 -0.11776039 0.028668193 0.18638198
0001e0 a7 9c 4e 3e f5 7b 09 3e 65 c5 de bf 91 7f 3f bf
       0.20176946 0.13426192 -1.740399 -0.74804026
0001f0 92 82 8f bf 14 d4 02 bf c2 e9 32 bf c5 05 d7 3f
       -1.1211722 -0.51104856 -0.69887936 1.6798636
000200 47 19 0d c0 70 6f 5d 3d d8 2d d4 3d b1 aa bd 3d
       -2.2046678 0.054061353 0.103603065 0.092610724
000210 e0 3d bf bc c6 9f ea bd f7 12 64 3f c6 ed ad 3e
       -0.023344934 -0.114562556 0.8909144 0.3397047
000220 8a c0 c2 bd b4 dd 63 bd 6b ab 09 3e 1f 62 93 3b
       -0.0950938 -0.055631354 0.13444297 0.004497781
000230 70 df ad bd 5f 4e b5 3f 0c 00 99 3c d8 96 d5 3d
       -0.08489883 1.4164542 0.01867678 0.10429162
000240 99 23 26 be 9c 28 7e 3f 42 bf 4a 3e 29 47 b4 bd
       -0.16224517 0.99280715 0.19799522 -0.08802635
000250 e4 17 61 c0 16 ff 8d bd be 48 d3 3e 37 f5 06 be
       -3.5170832 -0.069334194 0.41266435 -0.1317948
000260 25 00 e5 bc e7 32 d5 3f 22 7b 0d bd fc c8 44 3e
       -0.02795417 1.6656159 -0.034541257 0.19217294
000270 23 56 b9 bd 36 b0 b3 be 6e 2a 22 3c b7 50 45 c0
       -0.090496324 -0.35095376 0.009897811 -3.0830514
000280 2d d1 0b 3e 4e 3a e5 3f 00 de 92 3a a9 6d a1 bf
       0.13654013 1.7908418 0.0011205077 -1.2611591
000290 eb 55 08 be f4 32 cd 3f b4 e8 42 bf f8 76 fb bb
       -0.13314025 1.6031175 -0.76136327 -0.0076740943
0002a0 84 75 8b 3f 22 ca d9 3d 21 0a 5c 3d c0 b6 62 3d
       1.0895238 0.10634257 0.053720597 0.055350065
0002b0 22 f2 c9 bd fc bd 35 3f 22 ba 91 bd c9 97 e9 3f
       -0.09860636 0.7099302 -0.0711558 1.8249446
0002c0 7b 77 b4 bf 5b e7 b5 bf 8e 91 c6 bf 32 fa c1 3d
       -1.4098963 -1.4211229 -1.551317 0.09471549
0002d0 9f 05 aa bd 21 15 ce 3d ef 14 0f 3d 1b 99 50 c0
       -0.083018534 0.10062624 0.034932073 -3.2593448
0002e0 c8 50 ce 3e 69 bf 04 be 63 2e e1 3f de e5 1b be
       0.40296006 -0.12963642 1.7592281 -0.15224406
0002f0 ff 68 82 3e 1f a1 1f 3e 69 07 2f bf 8f ce cd be
       0.2547073 0.15588807 -0.6837068 -0.40196654

fc_2.bias f4 [3]
000000 0c 52 f1 bc ef f2 78 bd a6 8c 6f 3d
       -0.029458068 -0.060778555 0.058483742
