Mindset augmented trained networks (pth)/segmentation_pointnet_P7dropout05shake05.pth (torch, 78962 bytes, 18 tensors)

base_pointnet.conv_1_a.weight f4 [64, 1, 3]
0.022782678 -0.04995673 0.0504778 -0.14406301 0.2761251 0.005080142 0.03139184 -0.24117795
-0.11015997 0.3821381 -0.33291927 -0.43348128 -0.02301136 -0.20853315 -0.13247721 0.49401936
-0.043780517 -0.07804827 0.17275608 0.04709024 -0.39084524 0.43015844 0.23887609 0.035747662
-0.015743991 0.05442651 0.0026225667 -0.13207628 -0.23171099 0.26157865 0.07312283 -0.6791846
-0.036083512 -0.18070534 -0.202649 0.3547563 -0.2618683 0.13119164 -0.4452369 -0.067950614
-0.19971101 0.35994512 0.20234312 -0.19478008 0.06134407 0.4565476 -0.15575093 0.34744158
0.31016514 -0.62680733 0.38250536 -0.45850372 -0.46707943 -0.27343717 0.14127283 0.32639116
0.06930944 -0.026950888 0.18485795 -0.5055518 0.59991354 0.033782348 -0.31774244 -0.45061222
-0.4096901 0.07640019 0.10124907 -0.08753077 -0.57326066 -0.32983896 0.28501076 -0.2445214
-0.0005939023 -0.008440535 -0.03820349 -0.03414534 -0.013006583 0.004794369 -0.13452421 -0.23628096
-0.029859982 0.123074375 0.30474716 -0.2937443 0.21459715 0.20991421 -0.45943245 -0.1462502
-0.017016169 0.31026235 -0.19017741 -0.10755795 0.08948507 0.15716545 -0.18273355 -0.6194177
-0.0067973835 -0.012414338 -0.1967833 -0.203204 0.19767517 0.07899772 0.48192525 -0.31009358
-0.08889995 -0.28532848 -0.23759606 0.038116306 -0.11031963 0.23613311 -0.014237057 0.043664478
0.12629677 0.31544903 0.23503827 0.18834491 0.07226254 0.032531377 -0.12568334 0.19984052
-0.18586081 -0.36834326 -0.093370214 0.16529617 0.19014518 -0.3029517 0.44044167 -0.32369673
0.30097106 0.2674936 -0.14146791 -0.015824957 0.115426384 0.28837705 -0.38598484 0.34875512
-0.41423938 -0.51211727 0.16280192 -0.38027924 0.13324821 -0.39309388 0.3925925 -0.050353684
0.15443173 0.34776008 -0.5389157 0.16165042 -0.5486212 0.21125595 -0.40299976 0.13560908
-0.14008756 0.49397156 0.17916845 -0.3086044 -0.08871104 0.10677855 0.15141232 0.09600988
0.2683101 -0.4057954 0.03407826 -0.06922699 -0.075964995 -0.5019217 -0.51504844 -0.41324556
0.46689993 -0.3394474 -0.31241664 -0.06359389 -0.4456544 0.034651093 0.26264554 -0.20861398
0.015391311 0.27716357 -0.030048696 0.336913 0.35896376 0.27094483 -0.53226155 -0.015337859
0.1484305 0.41782114 0.38771564 0.29665053 -0.3940401 -0.12060322 -0.087201655 0.1898802
00000000: bda2 ba3c 6e9f 4cbd cfc1 4e3d 4185 13be
00000010: 4560 8d3e 5277 a63b bb94 003d 5af7 76be
00000020: 8d9b e1bd 9ba7 c33e 6574 aabe 42f1 ddbe
00000030: 5282 bcbc b789 55be 1ba8 07be 1bf0 fc3e
00000040: 3353 33bd c5d7 9fbd f8e6 303e b2e1 403d
00000050: de1c c8be ba3d dc3e ef9b 743e 246c 123d
00000060: 8bf9 80bc 55ee 5e3d 5edf 2b3b 013f 07be
00000070: a545 6dbe a3ed 853e 6cc1 953d 0bdf 2dbf
00000080: 4ecc 13bd d20a 39be 3883 4fbe 9ea2 b53e
00000090: 9a13 86be 1a57 063e 17f6 e3be b129 8bbd
000000a0: 0b81 4cbe ba4a b83e 0933 4f3e 6e74 47be
000000b0: eb43 7b3d 9bc0 e93e 2c7d 1fbe dde3 b13e
000000c0: f7cd 9e3e 7276 20bf bed7 c33e 00c1 eabe
000000d0: 0925 efbe f5ff 8bbe d3a9 103e be1c a73e
000000e0: 1cf2 8d3d 1cc8 dcbc 674b 3d3e d86b 01bf
000000f0: ef93 193f 5c5f 0a3d 23af a2be a5b6 e6be
00000100: e7c2 d1be b477 9c3d ac5b cf3d 5543 b3bd
00000110: 36c1 12bf a7e0 a8be eeec 913e d163 7abe
00000120: 1cb0 1bba 2b4a 0abc 437b 1cbd fcdb 0bbd
00000130: 9019 55bc 151a 9d3b b7c0 09be a3f3 71be
00000140: ec9c f4bc 6b0e fc3d d207 9c3e a765 96be
00000150: 5bbf 5b3e c0f3 563e bb3a ebbe 9dc2 15be
00000160: 7e65 8bbc b5da 9e3e debd 42be 5847 dcbd
00000170: f343 b73d fbef 203e 811e 3bbe 2992 1ebf
00000180: 96bc debb 8265 4bbc 9081 49be b614 50be
00000190: 5c6b 4a3e 8ec9 a13d e8be f63e 96c4 9ebe
000001a0: 2d11 b6bd 9316 92be 624c 73be d81f 1c3d
000001b0: 42ef e1bd e1cc 713e 8c42 69bc 86d9 323d
000001c0: f153 013e 8982 a13e dfad 703e 7ddd 403e
000001d0: 62fe 933d 9f3f 053d 22b3 00be fea2 4c3e
000001e0: 4c52 3ebe 7d97 bcbe e238 bfbd 6643 293e
000001f0: 6bb5 423e 7c1c 9bbe 9281 e13e 94bb a5be
00000200: e118 9a3e ecf4 883e f7dc 10be 57a3 81bc
00000210: ab64 ec3d 28a6 933e ce9f c5be 0890 b23e
00000220: 2f17 d4be 1e1a 03bf 8cb5 263e f6b3 c2be
00000230: 3872 083e 9a43 c9be e201 c93e aa3f 4ebd
00000240: 5a23 1e3e 9c0d b23e 61f6 09bf b087 253e
00000250: 7072 0cbf 7b53 583e fc55 cebe 1bdd 0a3e
00000260: 1d73 0fbe d7e9 fc3e ef77 373e 6501 9ebe
00000270: 22ae b5bd b6ae da3d d50b 1b3e d4a0 c43d
00000280: f15f 893e 6ac4 cfbe a595 0b3d e1c6 8dbd
00000290: 8993 9bbd f17d 00bf 37da 03bf ec94 d3be
000002a0: 820d ef3e 0dcc adbe 13f5 9fbe 833d 82bd
000002b0: d02c e4be 4eee 0d3d 7a79 863e e79e 55be
000002c0: d62b 7c3c 62e8 8d3e af28 f6bc dc7f ac3e
000002d0: 19ca b73e 48b9 8a3e 4b42 08bf a54b 7bbc
000002e0: 2afe 173e a7ec d53e aa82 c63e 94e2 973e
000002f0: a0bf c9be d2fe f6bd c896 b2bd f56f 423e

base_pointnet.conv_1_a.bias f4 [64]
-0.040213548 -0.41261542 0.36502126 -0.5155949 -0.4172429 0.45772907 0.029963905 -0.31097093
0.22196187 0.21562415 0.40509406 -0.544277 -0.2654884 0.05240318 0.48747095 -0.111046076
-0.13197793 0.54409266 -0.47141758 0.41047814 -0.54463756 -0.109038 -0.3363268 -0.2241251
0.15772203 -0.10510816 -0.135902 -0.42654166 0.26502615 0.45064127 0.4386985 -0.3113703
0.3617131 0.06856672 -0.32481545 0.56403214 0.31394598 -0.23936097 -0.012603089 0.5419385
-0.2610997 -0.10873979 0.41477722 -0.24649811 0.28113514 0.1755755 0.17021674 -0.21240556
-0.53456795 -0.3773534 -0.32664555 -0.23593134 -0.17471062 0.3448923 -0.5435043 -0.44952127
-0.3567154 0.2806059 0.4715989 0.40123445 -0.43882626 0.42811325 -0.015870756 -0.3053469
00000000: f6b6 24bd 5442 d3be 11e4 ba3e 07fe 03bf
00000010: dda0 d5be 775b ea3e dd76 f53c 9537 9fbe
00000020: f949 633e 94cc 5c3e 7d68 cf3e bd55 0bbf
00000030: 18ee 87be b8a4 563d cb95 f93e 206c e3bd
00000040: 3925 07be a849 0b3f a55d f1be 312a d23e
00000050: 5e6d 0bbf 514f dfbd 0733 acbe 0d81 65be
00000060: e281 213e f242 d7bd e529 0bbe ab63 dabe
00000070: 82b1 873e 74ba e63e 179d e03e ee6b 9fbe
00000080: 7632 b93e b56c 8c3d 364e a6be 6964 103f
00000090: 87bd a03e 0b1b 75be 307d 4ebc 7bbc 0a3f
000000a0: dcae 85be f8b2 debd ae5d d43e 006a 7cbe
000000b0: f2f0 8f3e 10ca 333e 4c4d 2e3e d880 59be
000000c0: 72d9 08bf 7734 c1be 163e a7be fc97 71be
000000d0: 57e7 32be b995 b03e 1923 0bbf a727 e6be
000000e0: 67a3 b6be 94ab 8f3e 6975 f13e 9a6e cd3e
000000f0: d6ad e0be a931 db3e 6303 82bc 6e56 9cbe

base_pointnet.conv_1_b.weight f4 [64, 1, 3]
-0.7367862 0.18536352 -0.97540313 0.088893496 -1.1484303 0.8452526 -0.3568972 -0.84676373
1.2070804 0.08079528 -0.9940613 1.2989147 0.29452962 0.4357653 -1.697885 0.6000769
-0.41023204 -0.087235145 -1.1161451 0.6994691 0.018652428 -1.0268823 -1.8974757 -0.95554423
0.028993376 0.8952069 -0.1571574 -0.84949267 0.32405424 1.185996 -0.6938883 0.19240087
-0.58129096 -1.2421452 -1.068014 -0.6465577 1.2285035 -0.5399929 0.8393089 0.118773736
0.20965098 -1.8037826 -1.8003049 1.0248908 0.6249171 -0.7105404 0.12319153 0.6253421
-0.36196205 1.0238544 -0.25046524 -0.5815448 -0.56353956 0.4630166 1.2685481 0.6661225
0.3666995 -0.51946044 -0.22642095 -0.019798413 -0.19253136 -0.31756666 -0.76967335 0.1541724
0.7473133 -0.4974253 0.38276577 0.3582044 1.1531447 -0.35650164 0.26063702 -0.79238737
0.03884868 0.22722046 1.0390072 0.5821701 0.19707726 -0.58313894 -0.2757061 1.7316798
-0.082656465 -1.4713495 1.0688018 0.070489235 0.8043182 0.18341376 0.098374814 0.5729884
-1.0158665 -0.040994056 1.0233866 0.23370478 -0.6779545 0.21117586 0.15644607 0.115473926
0.08087549 0.08531731 1.3105453 0.6930605 0.11917105 -1.4291406 0.61830854 -0.21730582
0.5539103 -0.038038332 0.8685981 -0.3132398 0.90417653 0.32441157 1.0200306 -0.7506036
-0.03554806 -1.9723696 0.09346966 1.0222899 -1.1295159 1.2770865 0.9429356 -0.78723824
1.4419783 0.20019658 0.2632467 0.76605004 -0.2887778 -0.85440236 -0.28256345 -0.4116133
-1.8391291 -1.2138007 -0.19979507 0.17208639 -1.2377421 0.2665204 0.32147717 -0.3338868
-0.13800253 1.8779743 -1.026663 0.24815346 -0.5931592 0.6817865 1.4239904 0.28960243
0.06984554 0.54007524 0.29646826 0.74458885 0.022386527 -0.33449662 0.49668244 0.54718363
-0.68788123 0.06964895 0.6559755 0.6925719 -0.709507 1.0769819 0.62272424 0.7635252
1.0571817 0.5967953 0.60367525 0.7636943 0.34851226 -1.0899383 -0.36641696 0.23628318
-0.54760224 0.20716424 -0.26754218 -0.8020135 1.0228521 -0.38508576 -0.011252151 0.6110456
-0.74166906 -0.0020279267 -0.24912184 1.78423 -0.6258533 -0.80901307 -1.435441 -0.4320316
-1.4290636 0.3931669 -0.21417284 0.502456 -1.0912582 0.67973334 0.85571384 -0.45867103
00000000: 059e 3cbf efcf 3d3e 05b4 79bf cb0d b63d
00000010: c4ff 92bf 7962 583f 3bbb b6be 82c5 58bf
00000020: 9c81 9a3f ff77 a53d cd7a 7ebf d642 a63f
00000030: 96cc 963e a11c df3e 4c54 d9bf a49e 193f
00000040: ef09 d2be 57a8 b2bd d8dd 8ebf 6810 333f
00000050: facc 983c e170 83bf 7ce0 f2bf 8c9e 74bf
00000060: 8483 ed3c 482c 653f dfed 20be 5a78 59bf
00000070: 70ea a53e b8ce 973f aaa2 31bf bc04 453e
00000080: 7ccf 14bf 9dfe 9ebf afb4 88bf ce84 25bf
00000090: 9a3f 9d3f fa3c 0abf f3dc 563f a53f f33d
000000a0: bfae 563e 59e2 e6bf 6470 e6bf 9f2f 833f
000000b0: 91fa 1f3f fae5 35bf d74b fc3d 6b16 203f
000000c0: 1753 b9be a90d 833f fb3c 80be 1fe0 14bf
000000d0: 2144 10bf 8310 ed3e c95f a23f 0187 2a3f
000000e0: 09c0 bb3e 5cfb 04bf e5da 67be 4830 a2bc
000000f0: f126 45be 1998 a2be 5009 45bf 5fdf 1d3e
00000100: ed4f 3f3f 87ae febe e0f9 c33e 9166 b73e
00000110: 3f9a 933f 6287 b6be 3772 853e e6d9 4abf
00000120: cb1f 1f3d 7bac 683e 30fe 843f 1a09 153f
00000130: 9fce 493e 9848 15bf 5a29 8dbe afa7 dd3f
00000140: cb47 a9bd 2e55 bcbf 7fce 883f a95c 903d
00000150: cce7 4d3f d1d0 3b3e bc78 c93d 5eaf 123f
00000160: ea07 82bf 62e9 27bd 55fe 823f 4e50 6f3e
00000170: 6d8e 2dbf 7c3e 583e 6633 203e 987d ec3d
00000180: 0da2 a53d d8ba ae3d f3bf a73f 6a6c 313f
00000190: f40f f43d 14ee b6bf 7849 1e3f 6b85 5ebe
000001a0: 11cd 0d3f 15ce 1bbd 725c 5e3f f860 a0be
000001b0: 1d78 673f 4619 a63e 5d90 823f 8f27 40bf
000001c0: d89a 11bd 9b76 fcbf 056d bf3d 65da 823f
000001d0: fa93 90bf 9277 a33f 3a64 713f 7288 49bf
000001e0: bf92 b83f 5500 4d3e 45c8 863e db1b 443f
000001f0: afda 93be 1dba 5abf 28ac 90be fabe d2be
00000200: 9568 ebbf d25d 9bbf 1497 4cbe 6a37 303e
00000210: 556e 9ebf 5d75 883e a898 a43e 36f3 aabe
00000220: 8950 0dbe 7661 f03f b169 83bf f11b 7e3e
00000230: 48d9 17bf 8f89 2e3f 5145 b63f c546 943e
00000240: 2e0b 8f3d 5f42 0a3f b0ca 973e 609d 3e3f
00000250: f363 b73c 2443 abbe 294d fe3e 3a14 0c3f
00000260: fc18 30bf 1ca4 8e3d 03ee 273f 644c 313f
00000270: 40a2 35bf 8bda 893f db6a 1f3f 6376 433f
00000280: bb51 873f 94c7 183f 768a 1a3f 7881 433f
00000290: 3370 b23e 1983 8bbf 019b bbbe 38f4 713e
000002a0: a92f 0cbf dd22 543e 4afb 88be c250 4dbf
000002b0: d1ec 823f f629 c5be f15a 38bc 7c6d 1c3f
000002c0: 06de 3dbf f7e6 04bb cc19 7fbe a661 e43f
000002d0: ec37 20bf 7b1b 4fbf 88bc b7bf 3f33 ddbe
000002e0: 8eeb b6bf 2c4d c93e 2050 5bbe f5a0 003f
000002f0: 59ae 8bbf 0103 2e3f 1010 5b3f eed6 eabe

base_pointnet.conv_1_b.bias f4 [64]
-0.09086163 -0.12018709 -0.51896644 0.38017842 0.33375007 -0.21006143 -0.2257334 0.19946073
-0.020816378 -0.0995106 -0.53855336 -0.4582329 -0.03461282 0.25682604 -0.026092762 0.23151404
0.55527914 -0.5689546 0.44659427 0.16450879 -0.3192821 -0.3785605 0.103787206 -0.5236358
0.17865932 0.28192216 -0.29913518 -0.19632435 -0.04649566 -0.32146275 -0.021963859 0.47953352
0.3909446 -0.22494404 0.10214105 0.2261984 -0.4524744 0.38910097 -0.48715407 0.51358205
-0.2848258 -0.19551162 0.39443094 0.20348027 0.2156439 0.16175146 -0.5293846 -0.19474962
0.09283642 -0.46647546 0.05296206 -0.39600658 -0.39266512 0.548355 -0.59481627 -0.57707405
-0.045297068 0.22652823 0.55572635 0.055387728 -0.042023256 -0.038050793 0.22364618 -0.19217466
00000000: aa15 babd a624 f6bd fcda 04bf bfa6 c23e
00000010: 4ae1 aa3e 581a 57be a826 67be 6f3f 4c3e
00000020: 1c87 aabc 37cc cbbd a2de 09bf 819d eabe
00000030: 2cc6 0dbd b47e 833e 7dc0 d5bc 0412 6d3e
00000040: c626 0e3f 02a7 11bf 01a8 e43e fe74 283e
00000050: f278 a3be afd2 c1be 638e d43d ff0c 06bf
00000060: 78f2 363e 1a58 903e 3f28 99be 4009 49be
00000070: 3c72 3ebd c496 a4be 8ded b3bc 6b85 f53e
00000080: e429 c83e bb57 66be 542f d13d 8ea0 673e
00000090: b9aa e7be 3e38 c73e 426c f9be 1d7a 033f
000000a0: b0d4 91be 3334 48be daf2 c93e 225d 503e
000000b0: c1d1 5c3e 2da2 253e c085 07bf 726c 47be
000000c0: 0521 be3d dfd5 eebe bfee 583d 60c1 cabe
000000d0: 670b c9be fe60 0c3f e145 18bf 20bb 13bf
000000e0: 6b89 39bd 04f7 673e 1544 0e3f 3ede 623d
000000f0: 9420 2cbd 26db 1bbd 8103 653e 6fc9 44be

base_pointnet.conv_2.weight f4 [64, 64, 3]
-0.046507314 -0.14826412 0.0008018589 0.0025171537 -0.061962467 0.031282544 0.19162256 0.15842476
0.043431997 0.107599154 0.08752205 0.03052421 -0.12959874 -0.16315885 0.04375779 0.035877872
0.06257999 0.07278897 0.05487098 -0.0682405 -0.027767042 -0.03121534 0.06445986 -0.01150231
-0.05613123 -0.06421123 -0.09801327 -0.04715113 0.015281052 -0.08891728 -0.05568955 -0.027441287
-0.038850214 -0.06617852 -0.10936138 0.049851727 0.035950217 0.13073497 -0.21071051 0.09243078
-0.07410133 -0.0640074 -0.13862555 0.11544342 -0.007502772 0.0006045691 0.002111296 -0.030854732
0.016182672 0.015381413 -0.099855535 0.030874962 -0.105756976 -0.11280644 0.06844944 -0.0034716085
-0.07443872 0.08786179 0.099266715 0.03675685 -0.029186498 0.06497861 -0.0003352266 0.003748368
-0.057832144 -0.27179983 -0.008954952 0.0828158 0.04351071 0.057919502 0.066409 -0.15783039
-0.12495938 0.12936245 0.028095234 -0.4091115 0.018577695 0.07010188 -0.0988349 -0.0055296724
-0.13069163 -0.19327244 0.059664667 0.19569355 0.047676932 0.061583742 -0.012737337 0.022418637
-0.1691067 -0.10006709 -0.03741424 -0.04429666 0.022301584 0.032768074 -0.08706952 -0.00924628
0.17193921 0.14066175 -0.11764439 0.00045640298 0.09427236 0.06176605 0.024443584 -0.16258737
0.008061815 -0.121008925 -0.09851538 -0.048334643 -0.05064463 0.033879913 0.026715502 0.06436839
-0.12635593 -0.015541522 -0.010785024 0.0010980844 -0.00948307 -0.06390356 -0.11310656 -0.13422553
0.142227 -0.11616382 -0.13964878 -0.059337236 -0.019183783 -0.00061588496 0.08493241 0.026343262
-0.06593679 -0.058107655 -0.0849591 0.022315843 -0.017700456 -0.023164945 0.0892342 0.10500658
-0.018655831 -0.04459498 -0.044108763 0.06757616 0.062110856 0.039046656 0.024858497 0.07699679
0.046619408 -0.032264166 -0.19871104 0.012940464 0.020145832 -0.030021314 -0.07764172 0.0054274383
-0.024446521 0.08290729 -0.048607226 -0.055768583 -0.085514076 -0.09369203 -0.11803415 -0.10485074
0.04680675 -0.038348824 -0.18251738 0.23015903 0.13755925 -0.05824468 -0.036037553 0.024253344
0.1307233 -0.1355748 0.08556024 -0.024407322 -0.1709756 0.21561663 -0.0040482394 -0.07551684
0.07843131 0.015352229 -0.060614593 -0.18705705 0.10687746 -0.00746484 -0.0978088 -0.076378904
-0.021716462 -0.038648687 -0.10387127 0.0016861863 -0.0414226 0.085147426 0.18048581 -0.058080323
-0.010438212 -0.060562655 -0.06910052 0.05369676 0.028260356 -0.052214324 0.18931225 0.04345885
-0.10375795 0.03238466 -0.018705495 -0.08043524 -0.09598111 -0.05846788 0.0040748077 0.07996801
0.20252764 0.1775384 -0.1473589 0.062308293 0.064906456 -0.09825477 0.054193888 0.06880318
-0.11840283 0.0029172911 -0.0024645675 0.26754808 -0.0267012 0.030457031 0.36165228 0.23254591
0.274457 -0.19743274 0.1504567 0.07695696 0.13566336 -0.12784329 -0.10615986 -0.11217475
-0.14584246 -0.10841799 -0.046856217 -0.08476367 0.039017677 -0.09749147 -0.12095025 0.015197036
0.06746171 -0.04563148 -0.05574593 0.13752198 0.031011272 0.11351146 -0.04863723 -0.11009262
-0.05102724 0.0054925666 0.23538026 0.07780774 0.068045475 0.036549445 0.022710644 -0.11443269
00000000: 747e 3ebd 8dd2 17be d733 523a d5f6 243b
00000010: 5bcc 7dbd 2022 003d b438 443e 1a3a 223e
00000020: c0e5 313d f25c dc3d c33e b33d e80d fa3c
00000030: 88b5 04be 1d13 27be 5e3b 333d adf4 123d
00000040: f029 803d 6212 953d 65c0 603d adc1 8bbd
00000050: b577 e3bc 50b7 ffbc 8803 843d 2f74 3cbc
00000060: dce9 65bd 2d81 83bd 2ebb c8bd 8b21 41bd
00000070: 615d 7a3c 431a b6bd ba1a 64bd 8dcc e0bc
00000080: 6721 1fbd 9b88 87bd dcf8 dfbd 5331 4c3d
00000090: 8940 133d 63df 053e 7fc4 57be 594c bd3d
000000a0: 70c2 97bd 5016 83bd dbf3 0dbe 9a6d ec3d
000000b0: d0d9 f5bb f27b 1e3a ab5d 0a3b 10c3 fcbc
000000c0: 8691 843c 5202 7c3c 0f81 ccbd 7ded fc3c
000000d0: 1d97 d8bd 1007 e7bd 382f 8c3d ed83 63bb
000000e0: 5473 98bd e2f0 b33d 594c cb3d 5a8e 163d
000000f0: 8618 efbc 8113 853d 5ac1 afb9 2ea7 753b
00000100: 66e1 6cbd 5929 8bbe cab7 12bc 559b a93d
00000110: 4938 323d 003d 6d3d 7101 883d 4a9e 21be
00000120: b4ea ffbd 9777 043e fa27 e63c 1077 d1be
00000130: 4030 983c 9391 8f3d f469 cabd 4132 b5bb
00000140: 07d4 05be 36e9 45be f062 743d e463 483e
00000150: e348 433d 3c3f 7c3d 43b0 50bc 4aa7 b73c
00000160: 4f2a 2dbe f9ef ccbd ad3f 19bd 6a70 35bd
00000170: d0b1 b63c d137 063d 8151 b2bd b67d 17bc
00000180: d510 303e a209 103e 8bef f0bd 5f49 ef39
00000190: de11 c13d 66fe 7c3d e93d c83c 4e7d 26be
000001a0: b415 043c 87d3 f7bd 6ec2 c9bd 8cfa 45bd
000001b0: be70 4fbd aac5 0a3d 78da da3c 93d3 833d
000001c0: 7363 01be dea1 7ebc abb3 30bc 99ed 8f3a
000001d0: e15e 1bbc dfdf 82bd 6aa4 e7bd 6b72 09be
000001e0: f4a3 113e 4ce7 edbd 1700 0fbe 9a0b 73bd
000001f0: 4f27 9dbc 5773 21ba 0bf1 ad3d d3cd d73c
00000200: de09 87bd 4b02 6ebd 09ff adbd b7cf b63c
00000210: 8c00 91bc 69c4 bdbc 6cc0 b63d b10d d73d
00000220: 1dd4 98bc 3aa9 36bd 64ab 34bd 5f65 8a3d
00000230: f467 7e3d 63ef 1f3d 0ca4 cb3c 7eb0 9d3d
00000240: fef3 3e3d 6e27 04bd e87a 4bbe 3d04 543c
00000250: df08 a53c 42ef f5bc 9f02 9fbd a7d8 b13b
00000260: 1244 c8bc 4ccb a93d 5f18 47bd 996d 64bd
00000270: 0122 afbd 9be1 bfbd e3bb f1bd fcbb d6bd
00000280: 6fb8 3f3d a813 1dbd d6e5 3abe cfae 6b3e
00000290: 55dc 0c3e f991 6ebd 1d9c 13bd f3ae c63c
000002a0: 54dc 053e 1fd4 0abe 353a af3d ddf1 c7bc
000002b0: 3a14 2fbe 9bca 5c3e 18a7 84bb 93a8 9abd
000002c0: 98a0 a03d ea87 7b3c 0247 78bd e28b 3fbe
000002d0: 92e2 da3d 9e9b f4bb fb4f c8bd 8b6c 9cbd
000002e0: b9e6 b1bc 164e 1ebd 76ba d4bd 0603 dd3a
000002f0: bfaa 29bd c661 ae3d 46d1 383e a2e5 6dbd
00000300: 0905 2bbc 8c10 78bd 9384 8dbd 22f1 5b3d
00000310: 4382 e73c b0de 55bd 12db 413e e801 323d
00000320: 0c7f d4bd c7a5 043d 443c 99bc 3bbb a4bd
00000330: bf91 c4bd 047c 6fbd f785 853b 45c6 a33d
00000340: 6863 4f3e a0cc 353e 40e5 16be fb36 7f3d
00000350: aded 843d cc39 c9bd 69fa 5d3d aee8 8c3d
00000360: 2f7d f2bd 0630 3f3b 9584 21bb 10fc 883e
00000370: 7abc dabc 0681 f93c 7d2a b93e 8420 6e3e
00000380: a185 8c3e cf2b 4abe 5211 1a3e 9c9b 9d3d
00000390: 56eb 0a3e 5ae9 02be 576a d9bd e0bb e5bd
000003a0: ba57 15be 400a debd 4eec 3fbd 9398 adbd
000003b0: 00d1 1f3d 9ca9 c7bd c4b4 f7bd fdfc 783c
000003c0: 5d29 8a3d 13e8 3abd d855 64bd 90d2 0c3e
000003d0: 5a0b fe3c b278 e83d d537 47bd 3d78 e1bd
000003e0: f001 51bd fdfa b33b 8607 713e aa59 9f3d
000003f0: 6d5b 8b3d dfb4 153d ac0b ba3c b05b eabd

base_pointnet.conv_2.bias f4 [64]
0.054646857 0.0096066855 0.039694995 -0.023826398 0.019436013 0.091876045 0.07267212 0.07077544
-0.08518886 0.09889743 -0.0025812043 -0.060369957 0.03198785 0.031173484 0.047212016 0.01689149
0.06847643 -0.031051133 0.069064476 -0.028721532 -0.05515347 0.076735914 -0.0071966657 -0.015638517
-0.027529353 0.04457909 -0.06965048 0.0007098926 -0.022180831 0.1288119 0.061191667 -0.006928598
-0.06496289 0.04842835 -0.036905874 0.000864222 0.006853427 -0.010448298 -0.060696885 -0.02854641
-0.055382904 0.019147592 -0.033629633 -0.11306782 -0.022783887 -0.08448523 0.043758843 0.0007033989
-0.04584573 -0.033501275 -0.089557976 -0.045627605 0.06304094 -0.036918014 0.05968402 0.048891786
0.015921611 -0.057809442 0.059828848 -0.029310955 0.015050856 0.13455823 -0.15553851 -0.024648989
00000000: 62d5 5f3d 5c65 1d3c 3897 223d 942f c3bc
00000010: 4638 9f3c 8229 bc3d 1fd5 943d b7f2 903d
00000020: 7f77 aebd bc8a ca3d 6c29 29bb 7d46 77bd
00000030: b105 033d 895f ff3c 6361 413d 0660 8a3c
00000040: 5f3d 8c3d f25e febc ad71 8d3d 6b49 ebbc
00000050: 9be8 61bd b827 9d3d 02d2 ebbb 591c 80bc
00000060: 3d85 e1bc 9098 363d e9a4 8ebd 1618 3a3a
00000070: 93b4 b5bc 44e7 033e 1da4 7a3d 4b09 e3bb
00000080: 440b 85bd ce5c 463d 9d2a 17bd f58c 623a
00000090: b692 e03b 572f 2bbc 4c9d 78bd 29da e9bc
000000a0: 2fd9 62bd 69db 9c3c 3abf 09bd 1a90 e7bd
000000b0: 46a5 babc 9806 adbd 793c 333d 4d64 383a
000000c0: bbc8 3bbd a238 09bd 2c6a b7bd 03e4 3abd
000000d0: 9c1b 813d 5837 17bd 3b77 743d c142 483d
000000e0: 0a6e 823c 98c9 6cbd 180f 753d 871d f0bc
000000f0: de97 763c a2c9 093e 7d45 1fbe adec c9bc

base_pointnet.bn_1.weight f4 [64]
1.006707 0.9442209 1.1575897 0.9399086 1.0845139 1.0108937 0.9494208 0.82893187
1.1942586 1.0085462 1.3708067 0.9407551 0.93778145 1.0809487 0.9217198 0.7769587
0.85107714 0.79546934 0.69914085 1.0867229 0.7798499 0.72286904 0.971466 0.8828937
1.3543231 1.0685724 0.87493724 0.98650104 0.79736334 0.84555846 1.038123 1.1316712
1.404256 1.0852406 0.6950613 0.8635021 0.82804173 0.81348854 0.7184337 0.92681736
0.947208 0.94932467 0.8622303 1.0098697 1.0676728 0.8147465 0.8947295 0.9654395
1.0307449 1.1128144 0.9432057 0.7064304 0.86054933 0.922146 1.01666 0.6100316
0.8044579 1.1228818 0.90564007 0.77218574 0.9930197 0.97157604 0.84130734 1.0046203
00000000: c6db 803f 76b8 713f e62b 943f da9d 703f
00000010: 5ad1 8a3f f764 813f 3e0d 733f e134 543f
00000020: 77dd 983f 0b18 813f 9876 af3f 54d5 703f
00000030: 7212 703f 875c 8a3f d4f5 6b3f c4e6 463f
00000040: 31e0 593f e1a3 4b3f e5fa 323f bc19 8b3f
00000050: 3ea4 473f f20d 393f ffb1 783f 5205 623f
00000060: 765a ad3f fbc6 883f e3fb 5f3f 558b 7c3f
00000070: 0120 4c3f 8576 583f 37e1 843f 9ada 903f
00000080: a9be b33f 2ae9 8a3f 8aef 313f 790e 5d3f
00000090: 8bfa 533f c940 503f 45eb 373f e743 6d3f
000000a0: 397c 723f f106 733f 20bb 5c3f 6943 813f
000000b0: 81a9 883f 3a93 503f fe0c 653f 0b27 773f
000000c0: 73ef 833f b470 8e3f ee75 713f 9fd8 343f
000000d0: f64c 5c3f c311 6c3f ea21 823f 082b 1c3f
000000e0: f4f0 4d3f 97ba 8f3f 07d8 673f f7ad 453f
000000f0: 8a36 7e3f 35b9 783f eb5f 573f 6697 803f

base_pointnet.bn_1.bias f4 [64]
-0.006331059 0.051932275 -0.30524546 -0.23590098 -0.116342284 0.28659213 -0.052827407 -0.05727575
-0.36020297 0.055576697 -0.8115222 -0.20318782 -0.13108428 0.050883662 -0.21288784 -0.07067121
-0.23132941 -0.13532312 0.0088269375 -0.44757652 0.028549312 0.11683984 -0.15157405 -0.21725719
-0.12785839 -0.15364172 0.1607338 -0.071392655 -0.11834202 0.2849906 -0.28834647 -0.5169876
-0.56558794 0.0071733478 -0.16265897 -0.29574263 0.12014109 0.116045766 -0.3577449 -0.1664272
-0.42458037 0.059557818 -0.1448493 0.08407524 -0.043921072 -0.07615634 -0.08846419 0.1047087
0.011481147 -0.1964222 -0.23400384 0.031774823 -0.27314416 -0.083134964 -0.101316296 0.26563677
-0.26020947 -0.409501 -0.0844704 -0.4270413 -0.08411004 -0.27919725 -0.28059235 0.16934729
00000000: c674 cfbb f0b6 543d 2249 9cbe 0790 71be
00000010: dd44 eebd 34bc 923e 8d61 58bd fa99 6abd
00000020: 866c b8be 64a4 633d ebbf 4fbf 7810 50be
00000030: f53a 06be 636b 503d 45ff 59be 11bc 90bd
00000040: 9ee1 6cbe 2592 0abe dc9e 103c c028 e5be
00000050: 3fe0 e93c ba49 ef3d 3a36 1bbe ab78 5ebe
00000060: 4fed 02be 4154 1dbe 6797 243e 5036 92bd
00000070: 4d5d f2bd 4aea 913e 26a2 93be 4d59 04bf
00000080: 5fca 10bf 670e eb3b 1390 26be 946b 97be
00000090: 880c f63d 67a9 ed3d 572a b7be e46b 2abe
000000a0: 9962 d9be e6f2 733d 6053 14be a42f ac3d
000000b0: 95e6 33bd dbf7 9bbd b72c b5bd 8471 d63d
000000c0: 6c1b 3c3c e722 49be b49e 6fbe 5126 023d
000000d0: 8dd9 8bbe aa42 aabd eb7e cfbd 8b01 883e
000000e0: 2d3a 85be 1daa d1be d1fe acbd 28a5 dabe
000000f0: e241 acbd f1f2 8ebe cda9 8fbe 6069 2d3e

base_pointnet.bn_1.running_mean f4 [64]
-1.3238373 1.943678 -6.2212377 -7.373134 -7.9084244 6.947493 -3.96465 8.669389
1.839303 -1.0698972 -13.516278 -4.5693107 -9.251057 0.5435674 1.342815 11.921449
1.7477963 -22.97894 12.4545965 -6.6921625 3.2414155 -14.466942 -8.779167 -6.7209954
0.79567605 -0.36747503 -6.394889 1.4798695 0.6216434 2.4013338 -2.759924 -11.561449
-1.715325 0.78374165 1.9006689 -7.526677 4.497439 6.352381 8.689459 4.557983
-10.584911 0.24379763 5.5568542 0.45453933 0.08203714 -9.388524 -3.5827434 1.5787385
-0.21875057 -3.8775601 -7.136083 7.342196 3.7507315 2.670195 -1.4256927 -28.84485
-4.912218 -8.567316 1.9204663 12.77223 -1.8819944 9.143929 4.6515455 0.39901096
00000000: 8073 a9bf 71ca f83f 6114 c7c0 b7f0 ebc0
00000010: d011 fdc0 dd51 de40 d3bc 7dc0 d1b5 0a41
00000020: 486e eb3f 64f2 88bf ad42 58c1 cb37 92c0
00000030: 5404 14c1 3c27 0b3f 5de1 ab3f 41be 3e41
00000040: cab7 df3f ded4 b7c1 0746 4741 3226 d6c0
00000050: 5a73 4f40 9878 67c1 7877 0cc1 6512 d7c0
00000060: 6db1 4b3f b025 bcbe eea2 ccc0 5d6c bd3f
00000070: 0624 1f3f 74af 1940 98a2 30c0 b2fb 38c1
00000080: c58f dbbf 4ba3 483f 1e49 f33f 8ada f0c0
00000090: 05eb 8f40 b546 cb40 0608 0b41 ffda 9140
000000a0: cc5b 29c1 16a6 793e c0d1 b140 61b9 e83e
000000b0: 1703 a83d 6537 16c1 ab4b 65c0 1a14 ca3f
000000c0: 2600 60be f229 78c0 cb5a e4c0 45f3 ea40
000000d0: fc0b 7040 7ae4 2a40 197d b6bf 41c2 e6c1
000000e0: e430 9dc0 ba13 09c1 d7d1 f53f 0e5b 4c41
000000f0: 31e5 f0bf 884d 1241 76d9 9440 2a4b cc3e

base_pointnet.bn_1.running_var f4 [64]
3.0144882 33.665615 50.160732 221.34114 53.796936 138.58195 88.1805 119.47024
5.7388744 89.528366 249.11935 114.90393 115.9451 57.914906 21.961998 172.5503
233.03928 381.43552 119.158806 143.30585 233.56474 214.9487 163.47038 125.1055
1.7447251 1.0758508 38.633522 102.17064 155.20099 57.194473 20.598763 245.52356
13.579371 33.993267 159.62566 78.345726 36.737312 52.252518 76.72753 23.978817
103.58863 94.55595 150.26414 30.083183 109.284325 254.66768 71.19124 148.04633
207.0287 163.99272 93.52417 191.16666 40.489952 125.02562 6.269905 533.98035
192.29353 102.102905 42.736874 145.23524 263.84845 117.944855 224.01834 21.393934
00000000: 60ed 4040 97a9 0642 97a4 4842 5557 5d43
00000010: 1030 5742 fb94 0a43 6a5c b042 c3f0 ee42
00000020: dca4 b740 860e b342 8e1e 7943 d0ce e542
00000030: e4e3 e742 dda8 6742 2cb2 af41 e08c 2c43
00000040: 0e0a 6943 bfb7 be43 4f51 ee42 4c4e 0f43
00000050: 9390 6943 def2 5643 6b78 2343 0436 fa42
00000060: 2753 df3f 7bb5 893f ba88 1a42 5e57 cc42
00000070: 7433 1b43 24c7 6442 44ca a441 0886 7543
00000080: 1b45 5941 1bf9 0742 2ba0 1f43 03b1 9c42
00000090: 02f3 1242 9402 5142 7f74 9942 9ed4 bf41
000000a0: 612d cf42 a51c bd42 9f43 1643 5caa f041
000000b0: 9391 da42 edaa 7e43 ea61 8e42 dc0b 1443
000000c0: 5907 4f43 23fe 2343 600c bb42 aa2a 3f43
000000d0: b6f5 2142 1e0d fa42 10a3 c840 be7e 0544
000000e0: 254b 4043 b034 cc42 8ff2 2a42 393c 1143
000000f0: 9aec 8343 c4e3 eb42 b204 6043 c726 ab41

base_pointnet.bn_2.weight f4 [64]
1.1012375 1.1987863 1.3119395 2.1013157 1.2145536 1.3262125 1.3376868 1.1643565
1.4927588 1.1964549 1.3581011 1.3816843 1.2427334 1.6936597 1.1512966 1.291764
1.118119 1.143849 1.1703103 1.3797834 1.6653693 1.1330231 1.5009283 1.15862
1.1459532 1.3771178 1.503247 1.1569585 1.2306198 1.2177609 1.2873658 1.2649846
1.3506532 1.7496389 1.156999 1.3296876 1.2867612 1.2481796 1.5161736 1.1739109
1.2602154 1.1143609 1.4030126 1.1601125 1.6721654 1.2807764 1.1884292 1.5534
1.2387112 1.3808898 1.13759 1.3108134 1.089867 1.497936 1.4449465 1.2183758
1.208829 1.1866955 1.4759114 1.2780432 1.2131137 1.1824725 1.6940807 1.1648294
00000000: 5af5 8c3f d471 993f a2ed a73f f57b 0640
00000010: 7e76 9b3f 55c1 a93f 5239 ab3f a209 953f
00000020: b812 bf3f 6f25 993f 42d6 ad3f 08db b03f
00000030: e311 9f3f d7c9 d83f b05d 933f 8658 a53f
00000040: 861e 8f3f a569 923f bacc 953f be9c b03f
00000050: d22a d53f e706 913f 6b1e c03f a94d 943f
00000060: 98ae 923f 6545 b03f 666a c03f 3717 943f
00000070: f384 9d3f 97df 9b3f 67c8 a43f 04eb a13f
00000080: 34e2 ac3f 2bf4 df3f 8b18 943f 3433 aa3f
00000090: 97b4 a43f 59c4 9f3f fa11 c23f b642 963f
000000a0: bd4e a13f 61a3 8e3f eb95 b33f 917e 943f
000000b0: 8409 d63f 7bf0 a33f 731e 983f d0d5 c63f
000000c0: 178e 9e3f ffc0 b03f 8d9c 913f bcc8 a73f
000000d0: c380 8b3f 5ebc bf3f 02f4 b83f bdf3 9b3f
000000e0: e9ba 9a3f a3e5 973f aaea bc3f eb96 a33f
000000f0: 4f47 9b3f 425b 973f a3d7 d83f 2119 953f

base_pointnet.bn_2.bias f4 [64]
0.10419941 0.13457213 0.039563067 -0.19351678 0.1822547 -0.07159307 0.10370476 0.24974169
-0.13395461 0.116470784 -0.24071074 -0.24677846 0.095861316 -0.30214584 0.008960018 0.05427425
0.20439573 -0.15614897 0.14928128 -0.06914478 -0.15210202 0.12685117 -0.006588752 -0.037486907
0.1502079 -0.054941013 0.05383821 0.15606967 0.16776484 -0.063135326 -0.19548947 -0.17145652
-0.35596082 0.04009425 -0.13646874 0.16375034 0.15905027 0.10341581 -0.10536814 -0.003914643
0.07513597 0.18284947 0.18950687 0.12492706 -0.41134337 0.06004796 0.04102496 -0.24978146
0.059506387 -0.22759672 0.1887524 0.016588127 0.09283868 -0.02714337 -0.0827154 -0.032164954
0.010998417 0.024006888 -0.30111453 0.30190757 0.2532806 0.14646591 0.02934458 0.12218663
00000000: 8066 d53d 47cd 093e e20c 223d 4329 46be
00000010: faa0 3a3e 639f 92bd 2963 d43d 49bc 7f3e
00000020: 662b 09be 3c88 ee3d e07c 76be 7eb3 7cbe
00000030: f052 c43d dcb2 9abe 0acd 123c ad4e 5e3d
00000040: 1d4d 513e 84e5 1fbe 31dd 183e c79b 8dbd
00000050: a2c0 1bbe 46e5 013e 75e6 d7bb df8b 19bd
00000060: 1ad0 193e d409 61bd 7485 5c3d bad0 1f3e
00000070: 8cca 2b3e 184d 81bd 642e 48be 4c92 2fbe
00000080: 7f40 b6be de39 243d 76be 0bbe 2bae 273e
00000090: 13de 223e abcb d33d 40cb d7bd 6846 80bb
000000a0: e3e0 993d e43c 3b3e 170e 423e c2d9 ff3d
000000b0: 999b d2be daf4 753d ca09 283d b6c6 7fbe
000000c0: f8bc 733d 1d0f 69be 4f48 413e d3e3 873c
000000d0: 3522 be3d c65b debc b166 a9bd 66bf 03bd
000000e0: b432 343c 18aa c43c af2b 9abe a193 9a3e
000000f0: ffad 813e 29fb 153e 0b64 f03c fc3c fa3d

base_pointnet.bn_2.running_mean f4 [64]
-0.72067916 -0.019249044 -0.39797798 -0.16548952 -0.60562164 0.29271823 -0.10651097 -0.7328667
0.33892435 0.27909687 -0.25942814 -0.35119075 -0.014072326 0.18286459 0.95561606 0.37920037
-1.15564 0.007502599 0.21856593 0.9325565 -0.38359228 0.2473787 -0.30823812 -0.23899993
-0.31987527 -0.09022234 0.05847531 -0.36783502 -0.30754906 0.094839096 0.08205434 0.29235515
0.7674224 -0.18468252 -0.22204965 -0.10881409 -0.69910955 -0.22581288 0.03813729 -0.22005403
0.10039634 0.5133097 -0.44803998 -0.30801794 -0.26855817 -0.19286247 -0.11453958 -0.24677387
0.3776921 -0.41438553 -0.5510563 0.19181749 -0.3684942 0.12383856 0.20488192 0.034804825
-0.50761855 -0.07317666 -0.19221003 0.8633418 -0.16105838 -0.42843598 -0.1616975 0.82030845
00000000: 6e7e 38bf 2cb0 9dbc c5c3 cbbe 1676 29be
00000010: 050a 1bbf 2adf 953e 6c22 dabd 279d 3bbf
00000020: 7e87 ad3e c9e5 8e3e c4d3 84be 46cf b3be
00000030: 9d8f 66bc db40 3b3e 41a3 743f 8d26 c23e
00000040: 03ec 93bf 5dd8 f53b bfcf 5f3e 06bc 6e3f
00000050: 3566 c4be d850 7d3e 63d1 9dbe 66bc 74be
00000060: b1c6 a3be 7dc6 b8bd cf83 6f3d df54 bcbe
00000070: 1277 9dbe 003b c23d 1b0c a83d 93af 953e
00000080: cb75 443f 6a1d 3dbe fc60 63be ecd9 debd
00000090: d8f8 32bf 7e3b 67be d935 1c3d d855 61be
000000a0: 999c cd3d 4468 033f 7f65 e5be 87b4 9dbe
000000b0: 7580 89be bd7d 45be ba93 eabd 4ab2 7cbe
000000c0: dc60 c13e 572a d4be 0712 0dbf ce6b 443e
000000d0: 46ab bcbe 129f fd3d 91cc 513e 818f 0e3d
000000e0: 4af3 01bf a5dd 95bd b5d2 44be f803 5d3f
000000f0: 7dec 24be f65b dbbe 0894 25be bcff 513f

base_pointnet.bn_2.running_var f4 [64]
0.4566814 0.05787905 0.07798338 0.033876076 0.15148146 0.304908 0.02601883 0.3445426
0.16487074 0.071307175 0.024478668 0.06840102 0.22200564 0.04005189 0.46310565 0.22592528
0.8713551 0.06026783 0.38499495 0.13161269 0.09842624 0.14945312 0.13596185 0.08612412
0.20708652 0.08423023 0.032644484 0.23691258 0.12003269 0.07117231 0.07585092 0.069670655
0.1275304 0.19227378 0.02439541 0.12690611 0.15679348 0.12718566 0.027400127 0.07391014
0.26908344 0.5998696 0.049016193 0.24565372 0.013751652 0.046499163 0.053995032 0.061993763
0.0898873 0.060873408 0.20590155 0.18441154 0.41079378 0.19655322 0.09045364 0.055531573
0.11948248 0.10410353 0.035684697 1.3392558 0.18556477 0.122728236 0.04168107 0.27820158
00000000: 25d2 e93e 9512 6d3d c0b5 9f3d a4c1 0a3d
00000010: f51d 1b3e e71c 9c3e 7125 d53c e367 b03e
00000020: e0d3 283e 7f09 923d 7d87 c83c d515 8c3d
00000030: 7255 633e 730d 243d 2f1c ed3e f558 673e
00000040: 2111 5f3f 66db 763d 0f1e c53e 7ac5 063e
00000050: b293 c93d 3d0a 193e 9539 0b3e d861 b03d
00000060: 7d0e 543e e680 ac3d 39b6 053d 3699 723e
00000070: b3d3 f53d cac2 913d ba57 9b3d 7daf 8e3d
00000080: 5497 023e 6be3 443e e2d8 c73c adf3 013e
00000090: 788e 203e f53c 023e 3b76 e03c 335e 973d
000000a0: 4ec5 893e 0e91 193f 34c5 483d a68c 7b3e
000000b0: 9c4e 613c e875 3e3d e529 5d3d 2ced 7d3d
000000c0: d516 b83d 6556 793d dbd7 523e 61d6 3c3e
000000d0: 9053 d23e 3f45 493e c23f b93d 1375 633d
000000e0: 3bb3 f43d 3b34 d53d 1e2a 123d bc6c ab3f
000000f0: b104 3e3e f158 fb3d c5b9 2a3d 7070 8e3e

fc_1.weight f4 [64, 66]
0.039273653 -1.6872655 0.067405805 0.015020553 -0.08084664 -0.3353277 -0.1087671 0.07105145
-0.006749552 -0.010946001 0.0031748747 0.016767198 0.023883155 0.1546355 -0.1592952 0.072525546
0.016471265 0.09319743 0.04622134 -0.15461802 0.112404585 0.0180637 -0.00051522366 -0.04928679
0.046377447 -0.040910702 -0.04670585 0.22597072 -0.21677653 -0.043503415 -0.05787189 -0.16433229
0.07358939 0.114013016 0.07653647 -0.086519085 0.106567 0.05370804 0.14342315 0.085155934
-0.026964933 0.14135292 0.03701749 0.049321722 -0.053761963 -0.1660837 0.10084171 0.031386618
-0.033952642 -0.011734464 0.0069753584 0.059049256 -0.017680991 -0.009775607 0.1698515 0.14269517
-0.048427753 0.04607585 -0.15741317 0.1028094 0.15906769 0.06075397 -0.099065654 0.03625791
0.16385537 0.107164465 0.0072878823 0.85620856 0.04941923 -0.16107507 0.0967782 -0.057407785
0.043512315 -0.0005919028 -0.08415474 0.106633365 0.06558062 0.050982792 0.21769132 0.032379325
0.00899638 0.25898647 -0.02660063 -0.10091341 -0.12303831 -0.011079625 0.11112803 0.02384364
0.018364018 -0.21073693 -0.10533293 0.0191115 0.16949949 0.24179918 0.041288417 -0.0035101923
0.10646835 -0.1306306 0.025927534 0.08875991 -0.06994294 -0.15705247 -0.030704945 -0.013553679
0.09976453 0.123649865 -0.24543574 0.14637232 0.08543539 -0.07179337 0.029613355 -0.08428838
0.08907528 0.039313413 -0.10215081 -0.026557118 -0.10538875 0.24243978 0.034630895 0.030627929
0.019937098 -0.031905666 -0.02310957 0.11099162 -0.0062323683 -0.12074294 0.16939728 -0.11106111
0.023962157 -0.05610216 0.071446426 0.065564774 0.10688528 -0.63016534 0.024903111 0.08262573
0.004344141 -0.15667574 -0.014530264 0.032780275 -0.035391785 0.09429966 -0.18950962 -0.11665467
-0.057963718 0.12771328 -0.07691859 0.0074625416 0.17415693 0.044494327 -0.10546088 -0.11753452
0.12982768 -0.120319486 -0.10200571 -0.21514688 0.08207542 0.05029927 0.22027062 0.1023524
-0.07492817 0.10180031 -0.016865939 -0.18985835 0.1768111 0.010803119 0.08575355 -0.10099643
0.04358846 0.17396593 0.022964174 0.11355807 -0.21637465 0.010809116 0.007858398 0.092302434
-0.14879899 -0.03752805 0.027321607 -0.11321435 0.0235874 -0.17140304 -0.07108543 0.027314335
-0.05456451 -0.054063853 0.17092265 -0.03632405 -0.0944472 0.19077677 -0.042119455 0.069739975
0.16557111 0.035428915 -0.06364257 0.057475884 0.06369173 0.20284198 -0.6888515 -0.21297413
-0.016580919 0.580889 0.08094766 0.052827105 0.30346859 -0.10965822 0.7967933 0.20981851
-0.021455506 0.009920827 -0.16183181 -0.07521005 0.1711072 -0.05871839 0.20622866 0.13803521
0.19554162 -0.00071018195 0.16003883 -0.042227052 0.056364257 -0.10033277 0.18196651 -0.37951636
-0.008754824 -0.09456052 0.032949053 0.09936698 0.16671275 -0.054328863 0.14753056 0.13938376
-0.22360992 -0.077836655 -0.009752004 0.3322839 0.32730457 0.054624505 -0.019030344 0.017412476
-0.036888707 0.71891767 0.07329541 0.27759218 -0.066333674 0.011360651 -0.26142064 0.09263773
0.10633193 -0.073270924 0.044157196 0.15396911 0.1085655 0.029450864 -0.02059495 -0.0319803
00000000: 69dd 203d 51f8 d7bf 0e0c 8a3d c418 763c
00000010: ec92 a5bd 13b0 abbe 49c1 debd 6c83 913d
00000020: 592b ddbb db56 33bc 8f11 503b 5d5b 893c
00000030: 9ba6 c33c c558 1e3e 481e 23be 4688 943d
00000040: bfee 863c 4bde be3d 9652 3d3d 3054 1ebe
00000050: 6034 e63d 53fa 933c 1310 07ba f2e0 49bd
00000060: 47f6 3d3d fb91 27bd a24e 3fbd de64 673e
00000070: abfa 5dbe a330 32bd 130b 6dbd b946 28be
00000080: 09b6 963d a87f e93d 27bf 9c3d eb30 b1bd
00000090: cd3f da3d f6fc 5b3d 85dd 123e 3c66 ae3d
000000a0: 90e5 dcbc d2be 103e a79f 173d 9305 4a3d
000000b0: 8135 5cbd d811 2abe 1986 ce3d 418f 003d
000000c0: ed11 0bbd e941 40bc 8c91 e43b a2dd 713d
000000d0: bad7 90bc de29 20bc 8ded 2d3e af1e 123e
000000e0: 2e5c 46bd 08ba 3c3d eb30 21be bc8d d23d
000000f0: a4e2 223e 28d9 783d efe2 cabd 2d83 143d
00000100: b4c9 273e 0b79 db3d 30cf ee3b 7c30 5b3f
00000110: d26b 4a3d ddf0 24be a633 c63d 6d24 6bbd
00000120: f839 323d ed29 1bba 5259 acbd 9862 da3d
00000130: 224f 863d 55d3 503d 79ea 5e3e 2fa0 043d
00000140: 8d65 133c e099 843e 90e9 d9bc b1ab cebd
00000150: 82fb fbbd 5187 35bc 1897 e33d bd53 c33c
00000160: 2370 963c 6ccb 57be cbb8 d7bd b88f 9c3c
00000170: 4691 2d3e 349a 773e 0b1e 293d 410b 66bb
00000180: 140c da3d 07c4 05be fb65 d43c c1c7 b53d
00000190: 3e3e 8fbd 5dd2 20be f088 fbbc 4010 5ebc
000001a0: 5951 cc3d 243c fd3d 8253 7bbe a0e2 153e
000001b0: c0f8 ae3d 6708 93bd b597 f23c 639f acbd
000001c0: 1a6d b63d 1a07 213d 7234 d1bd 508e d9bc
000001d0: 0fd6 d7bd 2242 783e 20d9 0d3d 6ce7 fa3c
000001e0: 2053 a33c 84af 02bd 4850 bdbc 934f e33d
000001f0: e538 ccbb 1348 f7bd 7b76 2d3e 0274 e3bd
00000200: 494c c43c 61cb 65bd 8152 923d d346 863d
00000210: abe6 da3d 8452 21bf 9c01 cc3c ae37 a93d
00000220: 4c59 8e3b 9b6f 20be 5810 6ebc 9c44 063d
00000230: faf6 10bd 2e20 c13d cf0e 42be a5e8 eebd
00000240: 5d6b 6dbd 45c7 023e 7e87 9dbd 5688 f43b
00000250: 3256 323e af3f 363d e0fb d7bd f0b5 f0bd
00000260: 8cf1 043e 106a f6bd 5fe8 d0bd 774f 5cbe
00000270: 2817 a83d 9b06 4e3d 9f8e 613e 239e d13d
00000280: f173 99bd ae7c d03d 702a 8abc 3a6a 42be
00000290: f80d 353e 91ff 303c 8f9f af3d 37d7 cebd
000002a0: d089 323d 2024 323e 5d1f bc3c 2291 e83d
000002b0: 5191 5dbe b818 313c 83c0 003c 0f09 bd3d
000002c0: c35e 18be 03b7 19bd 90d1 df3c eddc e7bd
000002d0: 5d3a c13c 4784 2fbe 3d95 91bd 50c2 df3c
000002e0: 097f 5fbd 0f72 5dbd 5906 2f3e 87c8 14bd
000002f0: 896d c1bd fc5a 433e 7385 2cbd d5d3 8e3d
00000300: 798b 293e e91d 113d 0957 82bd d56b 6b3d
00000310: cf70 823d cfb5 4f3e 9258 30bf e415 5abe
00000320: b5d4 87bc 24b5 143f e3c7 a53d 3c61 583d
00000330: 3c60 9b3e 7d94 e0bd a5fa 4b3f aada 563e
00000340: 75c3 afbc f78a 223c 3db7 25be ba07 9abd
00000350: ba36 2f3e b282 70bd 9b2d 533e 1a59 0d3e
00000360: 103c 483e 812b 3aba 38e1 233e 46f6 2cbd
00000370: 35de 663d 447b cdbd 6e55 3a3e f84f c2be
00000380: 6570 0fbc f2a8 c1bd 96f5 063d ea80 cb3d
00000390: bfb6 2a3e f187 5ebd 4012 173e 9eba 0e3e
000003a0: 00fa 64be d368 9fbd dfc6 1fbc 1e21 aa3e
000003b0: 7794 a73e f2bd 5f3d 86e5 9bbc 9ca4 8e3c
000003c0: 9d18 17bd fd0a 383f e71b 963d 9020 8e3e
000003d0: f3d9 87bd 0622 3a3c edd8 85be dab8 bd3d
000003e0: 8ec4 d93d 110f 96bd 2dde 343d 14aa 1d3e
000003f0: 9757 de3d f042 f13c beb6 a8bc c6fd 02bd

fc_1.bias f4 [64]
0.093359955 0.030335058 0.08183101 0.39645487 0.080494635 0.16640496 0.060044046 -0.10284257
-0.18634717 0.06686851 0.061477985 -0.014851728 0.08096652 -0.40830448 -0.06517678 -0.21084854
-0.012758767 -0.038639143 0.051233627 0.24554755 -0.05250169 -0.090807416 0.0094190305 0.08784719
0.08726191 0.009380457 0.023011956 -0.09384718 0.071233936 0.08934903 0.03105371 0.04342875
0.08063726 -0.07072149 0.09947459 -0.05615453 -0.057938825 -0.07336109 -0.19868037 0.022315418
0.13021317 0.04874482 -0.07339291 -0.03261118 0.18813565 0.0526743 0.1267424 0.017971566
-0.14993252 0.04947591 -0.0577378 0.06045081 -0.10733394 0.05151327 0.027034616 0.056861483
-0.034428403 -0.04244598 0.23390456 -0.025793612 -0.13655052 -0.045681898 -0.03291073 -0.19967015
00000000: 8133 bf3d 3a81 f83c 0497 a73d 22fc ca3e
00000010: 5fda a43d 1066 2a3e bff0 753d 209f d2bd
00000020: cbd1 3ebe 5bf2 883d 57d0 7b3d aa54 73bc
00000030: c6d1 a53d 490d d1be 677b 85bd aee8 57be
00000040: 260a 51bc 1444 1ebd 5ada 513d d170 7b3e
00000050: 030c 57bd 3df9 b9bd 4752 1a3c 3ae9 b33d
00000060: 5fb6 b23d 7db0 193c 9283 bc3c f332 c0bd
00000070: 19e3 913d a0fc b63d 5a64 fe3c 58e2 313d
00000080: 2625 a53d 6ed6 90bd 55b9 cb3d 4b02 66bd
00000090: 4351 6dbd 573e 96bd de72 4bbe d3ce b63c
000000a0: 9a56 053e a6a8 473d 064f 96bd 4d93 05bd
000000b0: a2a6 403e 02c1 573d c2c8 013e 1b39 933c
000000c0: e987 19be 40a7 4a3d 797e 6cbd 459b 773d
000000d0: e6d1 dbbd 94ff 523d b377 dd3c 96e7 683d
000000e0: cc04 0dbd d6db 2dbd ad84 6f3e 204d d3bc
000000f0: e6d3 0bbe f11c 3bbd 67cd 06bd 5576 4cbe

fc_2.weight f4 [3, 64]
-2.429275 -0.074423015 0.23351866 1.2328526 0.29241648 -1.727121 0.040456306 -0.0307887
0.055666883 -2.0808454 -0.06900037 0.05848944 0.11447477 -2.4660618 0.023143606 -0.16944544
-1.1276175 0.38094836 -1.225136 3.2138703 -0.103897676 0.02701418 -0.6521845 0.004241513
-0.11825689 -0.055247895 -0.06101268 -0.049124807 0.009754393 -0.10403713 0.4356191 0.023875026
2.4256504 0.027360069 0.16922477 0.13352644 -0.0025848188 1.1220955 1.7804494 -0.4282084
0.114305705 0.07857174 -0.117649786 -0.5124876 1.5056709 0.16803867 0.0034305444 0.7268082
1.6668385 -0.114447854 0.10500026 0.51627904 0.1721525 0.113837734 0.012799195 -2.0937223
-0.5534634 -0.07467884 -1.3677071 -0.09010985 0.06755433 -0.2485609 0.024191802 1.6266775
2.8615935 0.40748245 0.19481675 0.7511147 -1.3245549 0.24473651 0.07599576 0.011233801
0.24039513 1.8678161 -0.001074632 -0.040502083 -0.019498095 0.9210068 -0.059027042 0.4266457
-1.5023273 -0.9057022 0.8371164 -2.904418 -0.591986 0.33966917 1.6552442 -0.39430615
0.052383076 0.043899126 -1.6453489 -0.06133702 -0.08518992 -0.06636509 -0.95422167 -0.2833293
-2.1721 0.40788665 -0.18297403 0.34134993 -0.048527304 -5.338532 -3.0844316 0.6476988
-0.44242612 0.024959415 0.033306967 -0.10796195 -0.76379824 -0.39893383 -0.09606206 -3.59657
-0.105566904 0.052554697 0.05841583 -1.1983898 1.7704198 -0.08573219 -0.057648115 3.6522658
1.2689339 -0.111322254 0.653813 0.082638495 -0.05728913 1.4845467 -0.027082453 1.675563
0.90050834 -0.093490995 -0.5016051 -3.8721223 0.061821036 2.0615766 0.046138357 0.07061841
-0.24372308 1.2347938 -0.08974216 0.0801754 -0.08377494 2.2705483 -0.017525936 -0.10990416
2.8606586 -0.03668033 0.6575932 -0.8094422 0.32329872 -0.18713436 0.34047598 0.12769876
-0.09426307 0.083141185 0.49741715 0.118551254 0.050782684 -0.0019906492 -0.26751283 0.11115964
-1.3694849 -0.037041903 -0.04094541 -0.056332752 -0.029612247 -0.2650935 -0.54717886 0.3471666
0.028816707 0.043986574 -0.035941977 0.38082752 -1.8675792 -0.0049582166 0.07161858 0.69826174
-1.6340568 0.063631855 -0.11095111 1.5131276 -0.63456684 -0.064518675 0.04525533 -0.42874557
-0.094005 -0.11566275 0.92315114 -0.09297711 -0.07587543 0.027628735 0.0779254 -1.5521989
00000000: 3e79 1bc0 186b 98bd 841f 6f3e 1dce 9d3f
00000010: 9db7 953e 4d12 ddbf 83b5 253d 9538 fcbc
00000020: f502 643d 922c 05c0 1150 8dbd 9f92 6f3d
00000030: c071 ea3d f5d3 1dc0 a997 bd3c 1b83 2dbe
00000040: c555 90bf aa0b c33e 42d1 9cbf 0db0 4d40
00000050: 4ec8 d4bd d74c dd3c 90f5 26bf 64fc 8a3b
00000060: ab30 f2bd 9e4b 62bd 6fe8 79bd 1837 49bd
00000070: e4d0 1f3c 6b11 d5bd 7709 df3e 8f95 c33c
00000080: db3d 1b40 3922 e03c 4249 2d3e 28bb 083e
00000090: 1066 29bb d3a0 8f3f c4e5 e33f 223e dbbe
000000a0: 1c19 ea3d 38ea a03d 5ff2 f0bd 6332 03bf
000000b0: d3b9 c03f 5412 2c3e fcd2 603b 1a10 3a3f
000000c0: f75a d53f a363 eabd 600a d73d dd2a 043f
000000d0: bf48 303e c223 e93d b7b3 513c 8cff 05c0
000000e0: c7af 0dbf 38f1 98bd 0711 afbf 838b b8bd
000000f0: ed59 8a3d c086 7ebe e32d c63c f836 d03f
00000100: 5924 3740 8aa1 d03e 0b7e 473e 0e49 403f
00000110: 048b a9bf 359c 7a3e aaa3 9b3d fa0d 383c
00000120: 242a 763e 9914 ef3f abda 8cba 83e5 25bd
00000130: 78ba 9fbc 1ac7 6b3f 57c6 71bd 4e71 da3e
00000140: 434c c0bf 19dc 67bf 434d 563f fce1 39c0
00000150: 658c 17bf 1ee9 ad3e 0bdf d33f 7fe2 c9be
00000160: a38f 563d 92cf 333d cb9a d2bf 873c 7bbd
00000170: 0e78 aebd 6cea 87bd df47 74bf 8a10 91be
00000180: b003 0bc0 85d6 d03e 8b5d 3bbe 6bc5 ae3e
00000190: 91c4 46bd 41d5 aac0 5467 45c0 97cf 253f
000001a0: ad85 e2be b077 cc3c e36c 083d 281b ddbd
000001b0: 4888 43bf 0e41 ccbe 2fbc c4bd 342e 66c0
000001c0: 7633 d8bd 9843 573d 7045 6f3d d664 99bf
000001d0: 1e9d e23f 5c94 afbd 6e20 6cbd b9be 6940
000001e0: 6d6c a23f ecfc e3bd 4a60 273f 5f3e a93d
000001f0: 02a8 6abd a005 be3f 05dc ddbc d978 d63f
00000200: b787 663f 3578 bfbd 3169 00bf dad0 77c0
00000210: 0e38 7d3d dff0 0340 93fb 3c3d 63a0 903d
00000220: 8b92 79be b90d 9e3f bdca b7bd 0033 a43d
00000230: 3292 abbd aa50 1140 8d92 8fbc 6f15 e1bd
00000240: 0815 3740 1d3e 16bd 0758 283f 9b37 4fbf
00000250: 6987 a53e 26a0 3fbe de52 ae3e 77c3 023e
00000260: ff0c c1bd ed45 aa3d 76ad fe3e 00cb f23d
00000270: 8101 503d 8d75 02bb 71f7 88be aaa7 e33d
00000280: 484b afbf 40b9 17bd 60b6 27bd 2cbd 66bd
00000290: 6295 f2bc 56ba 87be ea13 0cbf d2bf b13e
000002a0: 0411 ec3c 442b 343d e537 13bd d3fb c23e
000002b0: d60c efbf 8978 a2bb c3ac 923d 48c1 323f
000002c0: c628 d1bf 6b51 823d 563a e3bd 2aae c13f
000002d0: f972 22bf 5e22 84bd a75d 393d 8a84 dbbe
000002e0: b285 c0bd 98e0 ecbd a253 6c3f c86a bebd
000002f0: 9464 9bbd a855 e23c 5a97 9f3d 74ae c6bf

fc_2.bias f4 [3]
0.003091932 -0.06473119 0.037295908
00000000: 03a2 4a3b c991 84bd 98c3 183d
