Mindset augmented trained networks (pth)/segmentation_pointnet_DSF2cm.pth (torch, 78930 bytes, 18 tensors)

base_pointnet.conv_1_a.weight f4 [64, 1, 3]
-0.09174855 0.09393435 0.025175577 -0.07430341 -0.05896488 -0.5586016 -0.38245395 0.45956922
0.2302938 0.19233865 0.1412803 -0.19023381 0.36732826 -0.050520018 -0.39596462 0.17552337
0.07636036 0.012741642 0.0939906 0.03200772 -0.07365885 -0.41181782 0.05185094 0.28772095
-0.39952874 -0.57399815 0.04179715 0.21777415 -0.36137527 0.09671049 -0.4542351 0.30276376
-0.040460143 -0.27300322 -0.65694684 -0.4684423 -0.22139354 0.45562887 -0.22284174 0.70966035
0.3959711 0.009870143 -0.372167 0.022592211 0.24867645 -0.418989 -0.11758832 -0.2769822
-0.47713143 0.22951223 0.22143874 0.35417464 0.2053333 0.54865074 -0.15376243 0.3740665
-0.028503578 0.023033839 -0.03246167 -0.45275903 -0.4154404 -0.068210706 -0.05225577 0.18354838
-0.076719314 -0.118832074 0.42064434 -0.52591956 -0.3379851 0.2724947 0.33444142 0.20174006
-0.47672772 0.1906276 0.3794218 -0.23316196 -0.16643044 0.41438037 -0.10594367 0.25560957
-0.14824958 -0.32356343 -0.47052976 0.57516277 -0.06239596 0.14770626 -0.047043387 0.35224098
0.1899509 -0.33753967 -0.23871592 0.3994555 -0.22073391 0.12417978 -0.23114412 0.16042617
-0.20314907 0.2815649 -0.15066682 0.24483514 -0.244311 0.03054002 -0.09265229 -0.26148796
0.14418426 0.41591126 -0.0053929193 0.04986564 -0.45218074 -0.21287072 0.40352187 -0.441432
0.16273026 -0.48982745 -0.32456985 0.06770666 0.2932286 0.18918012 -0.15603949 0.06096162
0.120085195 0.24855411 -0.08799062 -0.101279475 0.2530484 -0.11012268 0.16916294 -0.07957028
0.04198122 -0.15086395 -0.19091065 0.29499465 -0.14257546 0.18871412 -0.34109607 -0.27505234
-0.43251297 0.2918278 -0.3806707 0.031718627 0.25140554 -0.21377335 0.14184204 0.15482593
-0.057704978 0.078624114 0.057170674 0.31522602 -0.3419723 0.2574404 -0.10607203 0.33207038
-0.12642537 0.48571256 -0.101554714 -0.4974875 0.3206512 0.010450397 -0.3069297 0.21850583
-0.52830374 0.44135565 -0.38369954 0.3099596 -0.046046153 0.173578 -0.0813343 -0.09760784
-0.28157976 -0.38349852 -0.12086687 0.34335917 -0.1902866 -0.45875368 0.041737642 0.034902103
0.19883958 0.40937692 -0.16946164 0.035280786 -0.10998044 -0.6486773 -0.5765407 -0.19417642
0.37360147 -0.018658722 -0.25174525 0.4861846 -0.28569978 0.18969843 -0.09665735 -0.2459843
00000000: aae6 bbbd a760 c03d 033d ce3c 632c 98bd
00000010: 2885 71bd 8400 0fbf 01d1 c3be a84c eb3e
00000020: 23d2 6b3e 6cf4 443e c8ab 103e a7cc 42be
00000030: 7312 bc3e 14ee 4ebd e0bb cabe 66bc 333e
00000040: d262 9c3d 52c2 503c 257e c03d 871a 033d
00000050: 73da 96bd c9d9 d2be a761 543d 2950 933e
00000060: 088f ccbe 8bf1 12bf 7d33 2b3d 3000 5f3e
00000070: 2e06 b9be 2610 c63d 8191 e8be da03 9b3e
00000080: 89b9 25bd 14c7 8bbe ab2d 28bf abd7 efbe
00000090: fdb4 62be 3048 e93e a030 64be 4dac 353f
000000a0: b9bc ca3e 61b6 213c ac8c bebe 4d13 b93c
000000b0: 0aa5 7e3e ba85 d6be 25d2 f0bd 9cd0 8dbe
000000c0: 924a f4be 4105 6b3e d6c0 623e 6156 b53e
000000d0: e542 523e 6074 0c3f e673 1dbe a585 bf3e
000000e0: 5680 e9bc 76b1 bc3c 87f6 04bd 08d0 e7be
000000f0: 9bb4 d4be 0eb2 8bbd 250a 56bd 1bf4 3b3e
00000100: 041f 9dbd 3b5e f3bd b25e d73e aaa2 06bf
00000110: 620c adbe 6d84 8b3e e83b ab3e f294 4e3e
00000120: a815 f4be e233 433e 9343 c23e 02c2 6ebe
00000130: be6c 2abe aa29 d43e fff8 d8bd 42df 823e
00000140: bdce 17be 1baa a5be 47e9 f0be de3d 133f
00000150: e892 7fbd 4f40 173e 91b0 40bd ee58 b43e
00000160: 7d82 423e 00d2 acbe f271 74be 6e85 cc3e
00000170: 1208 62be f851 fe3d 0bb1 6cbe c246 243e
00000180: 4f06 50be 4629 903e 6748 1abe 10b6 7a3e
00000190: aa2c 7abe 102f fa3c 7cc0 bdbd c0e1 85be
000001a0: 0aa5 133e 52f2 d43e 16b7 b0bb ea3f 4c3d
000001b0: 3c84 e7be c8fa 59be 6b9a ce3e 6003 e2be
000001c0: c3a2 263e aaca fabe 052e a6be caa9 8a3d
000001d0: 0f22 963e 6fb8 413e d1c8 1fbe e4b2 793d
000001e0: 3aef f53d f884 7e3e 6d34 b4bd 9d6b cfbd
000001f0: 8f8f 813e 0088 e1bd 0d39 2d3e bef5 a2bd
00000200: 80f4 2b3d 147c 1abe 157e 43be 8a09 973e
00000210: 4dff 11be 463e 413e 25a4 aebe a9d3 8cbe
00000220: 5772 ddbe 746a 953e 45e7 c2be 64eb 013d
00000230: 3ab8 803e 67e7 5abe 0a3f 113e b08a 1e3e
00000240: 0e5c 6cbd ae05 a13d cc2b 6a3d 4e65 a13e
00000250: fe16 afbe 3acf 833e 4b3c d9bd 2105 aa3e
00000260: a775 01be 51af f83e ebfb cfbd aeb6 febe
00000270: 652c a43e 2438 2b3c e425 9dbe febf 5f3e
00000280: ea3e 07bf 5ef9 e13e 4474 c4be 06b3 9e3e
00000290: e49a 3cbd 6ebe 313e 9992 a6bd 9fe6 c7bd
000002a0: 392b 90be eb59 c4be 0d89 f7bd c6cc af3e
000002b0: 7eda 42be c3e1 eabe 17f5 2a3d 82f5 0e3d
000002c0: 9a9c 4b3e da99 d13e 5a87 2dbe 9682 103d
000002d0: 6d3d e1bd b70f 26bf 2c98 13bf 2fd6 46be
000002e0: b148 bf3e 2dda 98bc c1e4 80be 30ed f83e
000002f0: 3e47 92be 4e40 423e 4af4 c5bd 4fe3 7bbe

base_pointnet.conv_1_a.bias f4 [64]
-0.5446547 -0.2507441 -0.20417543 -0.18047576 0.13336658 0.29126614 -0.57774675 -0.028437458
-0.33520195 0.25519958 -0.2319448 0.18306564 -0.26318127 -0.22627419 -0.20198727 0.015820395
0.11045893 0.36731997 -0.5195611 0.49037668 -0.3066505 -0.2231446 -0.38287818 -0.48586765
-0.3039444 -0.14147568 0.14465323 -0.38834208 -0.54596186 -0.24087982 -0.38687596 -0.09737488
0.551336 -0.079470105 -0.20358796 -0.20970587 -0.41449523 0.33836532 -0.22916743 -0.35301256
-0.08074625 -0.10173406 -0.27249014 -0.19064158 -0.16389644 0.4293075 0.4285429 -0.06379856
-0.448316 -0.50175095 0.068641014 -0.1543426 -0.26413372 -0.22434504 0.5461517 -0.35796174
0.38657394 0.5342599 -0.37854514 0.48063153 0.49902788 0.020054286 -0.54002076 0.010199301
00000000: 7e6e 0bbf 8861 80be 5d13 51be a3ce 38be
00000010: 4091 083e d620 953e 36e7 13bf acf5 e8bc
00000020: 979f abbe 85a9 823e f082 6dbe 8f75 3b3e
00000030: b2bf 86be 6cb4 67be c0d5 4ebe c699 813c
00000040: 4b38 e23d 5d11 bc3e f501 05bf a712 fb3e
00000050: 4b01 9dbe 0580 64be 9c08 c4be a5c3 f8be
00000060: 9a9e 9bbe 00df 10be fa1f 143e c6d4 c6be
00000070: 28c4 0bbf 33a9 76be 9b14 c6be 7b6c c7bd
00000080: 5b24 0d3f 39c1 a2bd 5d79 50be 23bd 56be
00000090: b838 d4be 383e ad3e deaa 6abe 10be b4be
000000a0: 4a5e a5bd f259 d0bd d483 8bbe 8c37 43be
000000b0: 78d4 27be 31ce db3e fa69 db3e d2a8 82bd
000000c0: ad89 e5be c072 00bf a993 8c3d fd0b 1ebe
000000d0: 893c 87be b5ba 65be 99d0 0b3f c346 b7be
000000e0: 05ed c53e 42c5 083f abd0 c1be 5615 f63e
000000f0: 9580 ff3e e348 a43c cd3e 0abf f81a 273c

base_pointnet.conv_1_b.weight f4 [64, 1, 3]
-0.6893717 0.20948951 -0.28567034 -0.28284404 -0.65874165 -1.0157 -0.115859576 0.09214479
-0.85560274 -0.279969 0.3894772 -0.74303895 -0.37325132 0.107594624 -0.41103765 -0.071796976
0.62672716 0.06692319 0.010336192 0.6452978 -0.3111254 -0.013985546 -0.016595231 0.85602236
0.50560653 0.35582396 0.8171661 0.19369455 0.29036593 -0.86215097 -0.11957041 0.2995675
-0.47443962 0.019969616 0.427049 0.1141962 -0.39822367 0.67337024 -0.40935054 0.5596284
-0.29481283 -0.058185335 0.033321258 -0.7156316 0.53487736 -0.3481473 -0.7883823 0.54896605
0.020842269 -0.37318265 -0.20063339 0.13955379 0.4638697 -0.26013497 -0.25002697 -0.22166793
-0.87873864 0.24512523 0.13024557 0.6801385 -0.952911 0.20509423 -0.45394957 0.39655754
-0.48544672 0.4774654 -0.22244689 0.3399771 -0.35063758 0.17909756 -0.060956348 -0.9662172
-0.58075756 0.18137284 0.46129474 0.8324317 0.8244209 -0.20988634 0.7400972 0.38841698
0.013534355 0.31962368 0.7147863 -0.1060451 -0.09426977 -0.26796398 -1.2146468 0.14961497
-0.6403961 -0.20364408 -0.0976815 -0.16957499 -0.7545395 0.16689423 -0.7345201 -0.071693935
0.29119924 0.4685232 0.5564493 0.029637273 -0.05454685 -0.052064802 -0.04902961 -0.0071334653
0.34705308 0.16514827 -0.50449324 0.23937811 0.06858118 0.097413704 0.4800328 0.19137591
-0.21676303 0.28449777 0.1722215 0.48898852 -0.303083 0.23572579 0.044720564 0.7297194
-0.9497624 0.4268908 0.41518247 0.38388118 0.68656045 0.81095785 -0.5991804 -0.56688493
-0.40285805 0.7500418 -0.19687158 -0.81745636 0.31959152 0.2948582 0.6833732 0.5080211
0.16789287 0.0035158296 -0.05564555 0.3859493 0.5499844 -0.7806015 0.053217642 -0.10061526
-0.33337834 0.5667329 0.34850734 0.13928524 -0.3175346 -1.2836168 0.570524 -0.034813147
-0.3200343 -0.07037012 0.44758105 0.64397 0.6184886 0.37858644 0.18151696 -0.8422746
-0.58450323 0.43375 0.4904961 0.065835714 -0.33471906 0.44976208 -0.5483143 -0.44326344
0.11632182 -0.19585751 -0.16548625 0.44604868 0.70394796 0.5155423 0.63318336 -0.26325375
-0.50694376 0.6398586 0.5555334 -0.5223367 0.011615165 -0.5481516 0.33502203 -0.36992118
-0.36481026 -0.687892 -0.62847036 -0.3071284 0.9928938 -0.54261476 0.6190322 1.0358605
00000000: aa7a 30bf 6b84 563e 6243 92be efd0 90be
00000010: 4ba3 28bf 7502 82bf c947 edbd 68b6 bc3d
00000020: c808 5bbf 1958 8fbe 8e69 c73e cd37 3ebf
00000030: cc1a bfbe 925a dc3d 8773 d2be 4b0a 93bd
00000040: 3171 203f 070f 893d 2259 293c 3d32 253f
00000050: d44b 9fbe a223 65bc b9f2 87bc 4824 5b3f
00000060: 6e6f 013f 8f2e b63e cc31 513f dd57 463e
00000070: d8aa 943e edb5 5cbf 55e1 f4bd e960 993e
00000080: c0e9 f2be 5297 a33c 2ba6 da3e b3df e93d
00000090: f9e3 cbbe fe61 2c3f 6596 d1be cf43 0f3f
000000a0: b5f1 96be bf53 6ebd df7b 083d a233 37bf
000000b0: b9ed 083f 5d40 b2be 6cd3 49bf 0a89 0c3f
000000c0: 68bd aa3c cc11 bfbe d772 4dbe 30e7 0e3e
000000d0: 5480 ed3e 6930 85be 8903 80be ebfc 62be
000000e0: 04f5 60bf 1c02 7b3e 185f 053e 8f1d 2e3f
000000f0: faf1 73bf 3904 523e 146c e8be 9709 cb3e
00000100: 798c f8be 5876 f43e 1ec9 63be 7a11 ae3e
00000110: c586 b3be 5a65 373e 5dad 79bd 035a 77bf
00000120: 87ac 14bf cdb9 393e d32e ec3e 3e1a 553f
00000130: 400d 533f 72ec 56be 0377 3d3f 97de c63e
00000140: 33bf 5d3c b7a5 a33e 3cfc 363f 2c2e d9bd
00000150: 8210 c1bd 9332 89be 8c79 9bbf ab34 193e
00000160: 00f1 23bf 1388 50be 3d0d c8bd 11a5 2dbe
00000170: 8029 41bf 52e6 2a3e 8209 3cbf 45d4 92bd
00000180: 1118 953e 46e2 ef3e 7673 0e3f dec9 f23c
00000190: 856c 5fbd e741 55bd 46d3 48bd d8bf e9bb
000001a0: f1b0 b13e a11c 293e 7826 01bf 891f 753e
000001b0: 4a74 8c3d d680 c73d dcc6 f53e 0cf8 433e
000001c0: 21f7 5dbe b1a9 913e d55a 303e b45c fa3e
000001d0: b22d 9bbe 1a62 713e e92c 373d e4ce 3a3f
000001e0: a123 73bf 6e91 da3e cc92 d43e 138c c43e
000001f0: 6dc2 2f3f ef9a 4f3f e363 19bf 5f1f 11bf
00000200: 6943 cebe bd02 403f b498 49be d244 51bf
00000210: 80a1 a33e a7f7 963e 8cf1 2e3f ac0d 023f
00000220: 1cec 2b3e d569 663b 97ec 63bd 269b c53e
00000230: c7cb 0c3f 80d5 47bf befa 593d 600f cebd
00000240: 91b0 aabe 6815 113f 8e6f b23e caa0 0e3e
00000250: e593 a2be 8e4d a4bf dc0d 123f 3b98 0ebd
00000260: 89db a3be 361e 90bd 5829 e53e 38db 243f
00000270: 4555 1e3f 15d6 c13e 95df 393e 4f9f 57bf
00000280: 01a2 15bf 7b14 de3e 4e22 fb3e e0d4 863d
00000290: 4c60 abbe 3747 e63e 535e 0cbf 6df3 e2be
000002a0: 223a ee3d df8e 48be 3a75 29be 7e60 e43e
000002b0: ef35 343f 95fa 033f 4e18 223f 32c9 86be
000002c0: 11c7 01bf c6cd 233f 7037 0e3f dcb7 05bf
000002d0: 884d 3e3c aa53 0cbf 0288 ab3e 4f66 bdbe
000002e0: 69c8 babe b119 30bf 6fe3 20bf ef3f 9dbe
000002f0: 4a2e 7e3f cde8 0abf e578 1e3f 1497 843f

base_pointnet.conv_1_b.bias f4 [64]
0.022129983 -0.017798055 -0.3286442 -0.12029304 0.03763669 -0.22460017 0.12796322 -0.3984263
0.2621307 -0.17819618 -0.40264922 0.11136572 -0.058280684 0.39711753 0.4741217 -0.06866911
0.5786836 -0.40368748 0.094978854 -0.13772358 -0.5332823 0.18610187 -0.32312596 0.5351726
-0.37691686 0.375077 -0.23022847 0.2909066 0.025162244 -0.540672 0.057097718 0.16139488
-0.20584777 0.4273112 0.5311701 0.50517255 0.49244788 0.1300494 0.087243214 0.5508023
-0.5681045 -0.042333674 -0.1392721 -0.13305464 0.21921733 0.18240936 -0.38050562 -0.47720334
0.120792106 0.49470344 -0.28216022 -0.28198218 -0.13955732 0.46548432 -0.56878394 0.029572425
0.039198052 -0.2953085 -0.26318195 0.07906753 -0.08311323 0.40215608 0.08535952 0.30527756
00000000: f049 b53c 3acd 91bc 0d44 a8be 335c f6bd
00000010: ee28 1a3d 96fd 65be ca08 033e 88fe cbbe
00000020: ff35 863e 0f79 36be 0a28 cebe b613 e43d
00000030: bab7 6ebd fd52 cb3e 14c0 f23e 64a2 8cbd
00000040: 9c24 143f 20b0 cebe 4684 c23d 6907 0dbe
00000050: 3085 08bf 7d91 3e3e c470 a5be 1201 093f
00000060: 3ffb c0be 180a c03e 03c1 6bbe b6f1 943e
00000070: 0d21 ce3c 7b69 0abf 4cdf 693d b344 253e
00000080: c2c9 52be 89c8 da3e c4fa 073f fd52 013f
00000090: 2122 fc3e ab2b 053e 92ac b23d 6101 0d3f
000000a0: 4c6f 11bf 1366 2dbd 589d 0ebe 7a3f 08be
000000b0: 827a 603e 85c9 3a3e a2d1 c2be ff53 f4be
000000c0: da61 f73d c549 fd3e 4e77 90be f85f 90be
000000d0: 1de8 0ebe f653 ee3e d39b 11bf df41 f23c
000000e0: 238e 203d ad32 97be c9bf 86be 28ee a13d
000000f0: 4537 aabd 67e7 cd3e f9d0 ae3d 574d 9c3e

base_pointnet.conv_2.weight f4 [64, 64, 3]
0.08073987 -0.018904505 0.026135365 -0.014313212 -0.03681423 0.002520385 0.043259747 0.07863189
-0.008376787 -0.0021301624 0.017501988 -0.0037349889 0.07288828 0.0029637779 -0.056624003 0.018005515
-0.040144708 -0.029725753 -0.0627716 -0.08035602 -0.011362474 0.018517153 -0.051038355 -0.10656078
-0.057162702 0.023637747 0.005444636 0.0043564746 -0.08124345 -0.13817184 -0.028779456 0.0057700486
-0.002376736 0.03940276 -0.04857239 0.01215627 -0.121203 -0.16916776 -0.045910165 -0.023857865
-0.00042168263 -0.032779798 -0.015820598 -0.07126122 -0.060668364 0.056834646 0.033344842 -0.048016313
0.041859943 0.062892355 0.0592397 0.052087326 0.0068202727 -0.035133924 -0.023656975 0.0491534
0.03460717 -0.042705256 0.099457696 0.011317792 -0.059795894 0.022508282 0.051076666 -0.13704097
-0.18907157 -0.12004445 -0.03102638 -0.047831114 -0.07644287 -7.526252e-05 -0.04567582 0.020847954
-0.01712324 0.029783547 -0.032193646 0.0032652856 0.03427363 0.020997507 -0.05302099 -0.07361174
-0.12202625 -0.13819161 -0.0029219396 -0.023035223 -0.24174114 -0.12902975 -0.14654838 0.0002114379
-0.03888974 0.012298029 0.0945929 0.12691419 0.13569997 -0.0058821626 -0.01836635 0.018395128
0.114479385 0.05355652 -0.046914976 -0.088716775 -0.0778705 -0.041400008 0.029078232 -0.022682078
0.07675861 0.043198563 0.011827494 0.012472492 0.020755664 -0.050821804 -0.056807898 -0.0031111282
-0.046641815 -0.0089826295 -0.012807132 -0.080517285 -0.034067623 0.081833266 0.039170384 0.027807528
0.025786042 -0.053929266 -0.04341857 -0.052777834 0.051754836 0.024879497 -0.061426047 0.114683524
0.085681506 0.0833429 0.05854198 -0.03191043 0.06944392 0.0357669 0.03658263 0.043752994
-0.010108049 0.061474107 -0.018404588 0.08712634 0.13014136 -0.13286918 -0.05115094 0.0024264052
-0.0028544625 -0.053332124 0.020893756 -0.006271007 0.024985662 0.046246324 0.03575815 0.023917465
0.09485233 0.043299183 0.11578007 0.18404168 0.14385872 0.13970128 0.06861189 0.054260828
-0.02422679 0.032986116 0.038768083 -0.019604553 0.04076256 0.039113227 0.07331807 0.06656404
-0.054507315 0.030269833 0.0060272943 0.049490523 -0.024592537 -0.071808 -0.043469038 -0.06456958
-0.020080458 -0.02625883 0.03729415 -0.042382088 0.023210999 0.04758814 -0.017721115 0.06238128
0.01706471 0.090923615 -0.029799553 0.078748524 -0.06558163 -0.034054868 0.018977597 0.011217973
-0.09942474 -0.09954539 -0.09343421 0.04337442 -0.04465255 -0.024387203 0.052811872 -0.02405253
-0.054509405 -0.036139615 -0.07788907 0.035122707 -0.04511917 -0.08333741 -0.116922684 0.03054042
0.054980807 0.054010574 0.029165663 -0.110913046 -0.084013484 0.060806904 -0.07925019 -0.13741446
0.0338671 0.0156217795 0.0034025237 -0.02723866 0.04575064 0.052827746 0.11870436 0.04461305
0.06520773 -0.062963374 0.0470528 -0.037065055 -0.013362061 0.06010916 -0.010885621 -0.013528107
-0.043817636 -0.03905763 -0.1742555 -0.21258384 0.043649763 -0.048536632 0.02597597 0.047629658
0.06951616 0.0727956 0.04301435 -0.0064179776 -0.0037929434 0.07332733 -0.06700097 0.016636714
-0.04634453 -0.05244766 -0.07149228 0.0071072136 -0.05991061 0.0092844125 0.049523767 0.026000094
00000000: f25a a53d 9fdd 9abc d519 d63c f681 6abc
00000010: 85ca 16bd 0b2d 253b 2231 313d c209 a13d
00000020: cb3e 09bc 329a 0bbb 5460 8f3c b7c6 74bb
00000030: 7346 953d f13b 423b 92ee 67bd 4d80 933c
00000040: c76e 24bd 6c83 f3bc 668e 80bd b291 a4bd
00000050: ac29 3abc 49b1 973c 980d 51bd 8a3c dabd
00000060: 7023 6abd f3a3 c13c eb68 b23b c2c0 8e3b
00000070: f762 a6bd eb7c 0dbe e5c2 ebbc ad12 bd3b
00000080: 03c3 1bbb ca64 213d d8f3 46bd 182b 473c
00000090: 4739 f8bd 503a 2dbe 4c0c 3cbd 9271 c3bc
000000a0: 4915 ddb9 1c44 06bd 339a 81bc 67f1 91bd
000000b0: 647f 78bd 72cb 683d 9a94 083d c1ac 44bd
000000c0: 5575 2b3d b5cd 803d 54a5 723d 8559 553d
000000d0: 987c df3b 97e8 0fbd 46cc c1bc 1355 493d
000000e0: 3fc0 0d3d b5eb 2ebd 7ab0 cb3d 436e 393c
000000f0: 8aec 74bd 4a63 b83c c435 513d 7854 0cbe
00000100: fa9b 41be ddd9 f5bd 092b febc 8fea 43bd
00000110: 148e 9cbd 42d6 9db8 9216 3bbd 54c9 aa3c
00000120: 0946 8cbc a0fc f33c 7cdd 03bd 67fe 553b
00000130: 8162 0c3d f702 ac3c 8a2c 59bd c0c1 96bd
00000140: e6e8 f9bd 1a82 0dbe 037e 3fbb 5db4 bcbc
00000150: fd8a 77be 6020 04be c710 16be 6eb5 5d39
00000160: d94a 1fbd ac7d 493c ecb9 c13d cbf5 013e
00000170: eff4 0a3e 28bf c0bb 0775 96bc 61b1 963c
00000180: 2b74 ea3d 155e 5b3d eb29 40bd 24b1 b5bd
00000190: 927a 9fbd 0e93 29bd 7935 ee3c c4cf b9bc
000001a0: 9e33 9d3d faf0 303d 1bc8 413c 6c59 4c3c
000001b0: c807 aa3c 862a 50bd 66af 68bd 12e4 4bbb
000001c0: 7d0b 3fbd e12b 13bc 01d5 51bc 3fe6 a4bd
000001d0: 7e8a 0bbd 3398 a73d 2071 203d 9dcc e33c
000001e0: 403d d33c efe4 5cbd acd7 31bd 922d 58bd
000001f0: e1fc 533d 16d0 cb3c e199 7bbd 32df ea3d
00000200: c979 af3d afaf aa3d b7c9 6f3d 83b4 02bd
00000210: 9d38 8e3d 5080 123d abd7 153d 5736 333d
00000220: 3b9c 25bc 46cc 7b3d 38c5 96bc 4b6f b23d
00000230: c743 053e dc0e 08be a683 51bd 5304 1f3b
00000240: ef11 3bbb c972 5abd 6229 ab3c 057d cdbb
00000250: bbae cc3c c96c 3d3d 2377 123d 8fee c33c
00000260: f041 c23d 7c5a 313d 1a1e ed3d 6c75 3c3e
00000270: b34f 133e da0d 0f3e 6484 8c3d 9a40 5e3d
00000280: 4377 c6bc 731c 073d 48cb 1e3d ba99 a0bc
00000290: a4f6 263d 3135 203d c927 963d ba52 883d
000002a0: 1043 5fbd 71f8 f73c 9c80 c53b 93b6 4a3d
000002b0: 4a76 c9bc 1310 93bd 970c 32bd 0e3d 84bd
000002c0: c67f a4bc c21c d7bc c0c1 183d d798 2dbd
000002d0: fe24 be3c c8eb 423d df2b 91bc 8383 7f3d
000002e0: 4acb 8b3c 2936 ba3d 311e f4bc e846 a13d
000002f0: a94f 86bd 1e7d 0bbd e876 9b3c 97cb 373c
00000300: 339f cbbd 74de cbbd 6f5a bfbd 60a9 313d
00000310: 98e5 36bd acc7 c7bc 4351 583d d009 c5bc
00000320: 4145 5fbd 2207 14bd 4e84 9fbd d4dc 0f3d
00000330: e1ce 38bd ceac aabd 2975 efbd e72f fa3c
00000340: 8e33 613d 313a 5d3d d4ec ee3c 6126 e3bd
00000350: 430f acbd a910 793d ec4d a2bd 60b6 0cbe
00000360: 3ab8 0a3d 7ef2 7f3c e0fc 5e3b 9c23 dfbc
00000370: 0665 3b3d e861 583d 461b f33d 2cbc 363d
00000380: a18b 853d f1f2 80bd 70ba 403d 87d1 17bd
00000390: 8cec 5abc 0635 763d 9b59 32bc fea4 5dbc
000003a0: 1f7a 33bd e5fa 1fbd 0970 32be 94af 59be
000003b0: 18ca 323d 59ce 46bd 8fcb d43c 5117 433d
000003c0: 7d5e 8e3d dc15 953d d12f 303d e64d d2bb
000003d0: 0893 78bb a42c 963d ce37 89bd b849 883c
000003e0: c3d3 3dbd 5cd3 56bd 8b6a 92bd a1e3 e83b
000003f0: d464 75bd a61d 183c 6fd9 4a3d 26fe d43c

base_pointnet.conv_2.bias f4 [64]
-0.06933621 -0.020698413 0.0089063775 -0.06589908 -0.0005258124 -0.020968227 0.060484685 0.0012347909
0.058180593 0.022314306 -0.09503082 -0.04557146 -0.005603546 0.01704951 -0.05111321 0.06671402
0.04732511 -0.043381095 -0.03990416 -0.095064275 0.045504145 0.06416381 0.11040279 0.0128453085
0.050262395 -0.045532115 0.067742914 -0.027898746 0.07434647 -0.0515726 -0.03951469 0.047114465
0.059634328 -0.08088193 -0.023343688 0.031193765 0.12134485 0.020536529 0.049292624 -0.005467915
0.015031943 0.08809639 -0.0051622894 -0.06499983 -0.0626654 -0.041087635 -0.04857806 0.06609926
0.046102982 -0.07101154 0.03879118 0.060352504 0.048713293 0.000831995 0.022019526 -0.00835797
0.13280898 0.03955864 -0.0466034 -0.032344427 0.07436056 -0.040689096 -0.050201207 0.0031870904
00000000: 2500 8ebd b88f a9bc 0eec 113c 19f6 86bd
00000010: acd6 09ba 8fc5 abbc cabe 773d b5d8 a13a
00000020: c64e 6e3d 7ecc b63c 859f c2bd 24a9 3abd
00000030: f39d b7bb 6aab 8b3c 165c 51bd 5ca1 883d
00000040: f9d7 413d 60b0 31bd 8b72 23bd 0fb1 c2bd
00000050: 8e62 3a3d 5168 833d dc1a e23d 2175 523c
00000060: f1df 4d3d e27f 3abd ccbc 8a3d e98b e4bc
00000070: f642 983d ca3d 53bd 28da 21bd 19fb 403d
00000080: 2043 743d 6da5 a5bd 433b bfbc 118a ff3c
00000090: a683 f83d 393c a83c 10e7 493d 322c b3bb
000000a0: 8a48 763c e16b b43d 6c28 a9bb a21e 85bd
000000b0: b856 80bd 824b 28bd caf9 46bd 0c5f 873d
000000c0: 7bd6 3c3d 806e 91bd 80e3 1e3d 3034 773d
000000d0: 9787 473d 3d1a 5a3a 4b62 b43c deef 08bc
000000e0: 14ff 073e 3e08 223d 35e3 3ebd 977b 04bd
000000f0: 594a 983d 9ca9 26bd c89f 4dbd 81de 503b

base_pointnet.bn_1.weight f4 [64]
1.1672468 0.85939723 0.7986661 0.84586114 1.0835569 0.8657167 0.83873504 1.1715337
0.76511496 1.0521921 0.9260199 0.8913954 1.118177 0.75282526 1.1128575 0.87309605
1.1885874 0.9263049 0.9215532 0.8761014 0.9297799 1.0372331 0.8963953 0.82931703
0.97364116 0.9426115 1.0066559 1.0659618 1.0704768 0.93339705 1.1102828 1.0622569
1.2157321 1.1687644 0.7719828 0.82311785 0.9692921 0.89755005 0.9400113 0.94778675
0.8940759 1.0303082 1.0406187 1.1352835 0.94566935 0.8259701 1.0822333 1.0331695
0.9340984 0.8990147 0.94256544 1.1610792 1.0661504 1.0086149 1.0061871 1.0778543
0.9428221 0.89857 0.8700984 0.938304 0.7884949 0.9444598 1.1412117 1.0866531
00000000: 5868 953f 7501 5c3f 6275 4c3f 5b8a 583f
00000010: feb1 8a3f 9c9f 5d3f 57b7 563f d1f4 953f
00000020: 93de 433f 3bae 863f a40f 6d3f 7d32 643f
00000030: 6d20 8f3f 28b9 403f 1d72 8e3f 3983 5f3f
00000040: a223 983f 5122 6d3f e9ea 6b3f 2e48 603f
00000050: 0e06 6e3f 0ec4 843f 2a7a 653f 1f4e 543f
00000060: 8c40 793f fd4e 713f 1ada 803f 7071 883f
00000070: 6205 893f 1cf3 6e3f bf1d 8e3f 09f8 873f
00000080: 1c9d 9b3f 129a 953f aaa0 453f dab7 523f
00000090: 8723 783f d7c5 653f 95a4 703f 27a2 723f
000000a0: 28e2 643f 24e1 833f fe32 853f f850 913f
000000b0: 6317 723f c772 533f 9f86 8a3f e63e 843f
000000c0: 1321 6f3f d425 663f f84b 713f 3e9e 943f
000000d0: 9e77 883f 4b1a 813f bdca 803f 21f7 893f
000000e0: ca5c 713f af08 663f c5be 5e3f b134 703f
000000f0: cdda 493f 1ec8 713f 3a13 923f 7317 8b3f

base_pointnet.bn_1.bias f4 [64]
0.015105074 -0.14222926 0.09590663 -0.11191274 -0.13095924 -0.24005054 -0.17184696 -0.1933964
-0.21197589 0.1508728 -0.13204387 -0.052846983 0.055171486 -0.050290972 0.048522692 -0.018359547
-0.29778636 0.016224459 0.2097423 -0.389373 -0.059328664 0.2790172 -0.14766484 0.019679204
-0.062336076 -0.23356089 -0.09291914 -0.093655355 -0.27737826 -0.06001683 -0.1352392 0.06511079
0.110296674 0.2283918 -0.063626565 0.03838009 -0.20648743 0.13299523 -0.32492155 -0.027480425
-0.049139965 0.20172445 0.03290074 -0.28552485 -0.07817394 -0.11664604 0.18400984 -0.19111452
-0.073603444 0.014530604 -0.025126977 -0.128018 0.067417614 0.042255484 -0.04082459 0.07474851
0.02762899 0.09711481 -0.18530716 0.0443487 -0.05154605 -0.1297422 -0.10812486 0.07460704
00000000: 467b 773c 8ca4 11be b26a c43d 8232 e5bd
00000010: 2e1a 06be cfcf 75be a6f8 2fbe b509 46be
00000020: 3510 59be 667e 1a3e 8236 07be 1476 58bd
00000030: 7ffb 613d e8fd 4dbd bbbf 463d c366 96bc
00000040: 7477 98be 28e9 843c afc6 563e e65b c7be
00000050: 9d02 73bd 58db 8e3e 7435 17be 4836 a13c
00000060: 1d54 7fbd 962a 6fbe 644c bebd 61ce bfbd
00000070: 8604 8ebe 35d4 75bd 257c 0abe ce58 853d
00000080: 39e3 e13d 8adf 693e a54e 82bd 7134 1d3d
00000090: 7171 53be e72f 083e 1e5c a6be a11e e1bc
000000a0: fd46 49bd db90 4e3e edc2 063d 5030 92be
000000b0: a919 a0bd 1ee4 eebd 136d 3c3e 86b3 43be
000000c0: 67bd 96bd c511 6e3c 17d7 cdbc 2717 03be
000000d0: 3f12 8a3d 1614 2d3d af37 27bd bf15 993d
000000e0: 3156 e23c 21e4 c63d 29c1 3dbe fca6 353d
000000f0: f321 53bd 24db 04be 9170 ddbd 93cb 983d

base_pointnet.bn_1.running_mean f4 [64]
-1.1299852 -28.130136 8.359018 3.4634707 -3.8556168 10.547651 2.0903704 -1.328637
-29.08521 -2.388731 -7.897056 -47.062786 -0.067693785 39.369987 -3.5928419 -29.450766
-1.4018742 39.035587 3.5137634 -13.446537 -21.887691 0.36276516 -16.52128 26.385221
2.6146758 3.5527937 2.3439884 -6.0147905 -2.382908 5.0082808 -4.419883 0.541757
0.5840973 1.2488496 -6.4381523 16.064947 -7.8183413 -25.543219 1.7715539 5.479448
8.947523 5.2059984 0.95357937 -2.5997252 -7.4343743 -12.571962 -1.6233798 0.63180304
3.5796523 4.93004 3.736425 -2.1570373 2.9267414 2.6343565 -3.6987486 -1.6149685
-27.380774 -6.860286 8.576525 11.472461 -46.28287 3.151763 -1.9935644 -2.6520672
00000000: 5ba3 90bf 850a e1c1 8abe 0541 81a9 5d40
00000010: 6dc2 76c0 2ec3 2841 a1c8 0540 c710 aabf
00000020: 83ae e8c1 f8e0 18c0 afb4 fcc0 4b40 3cc2
00000030: 0aa3 8abd de7a 1d42 1ff1 65c0 2b9b ebc1
00000040: 9d70 b3bf 7124 1c42 80e1 6040 0425 57c1
00000050: fe19 afc1 5bbc b93e 952b 84c1 ef14 d341
00000060: d956 2740 f960 6340 e803 1640 2a79 c0c0
00000070: 9181 18c0 d643 a040 ae6f 8dc0 96b0 0a3f
00000080: 6787 153f 4eda 9f3f 5805 cec0 0385 8041
00000090: da2f fac0 8358 ccc1 47c2 e23f a357 af40
000000a0: 0e29 0f41 8a97 a640 c71d 743f e661 26c0
000000b0: 65e6 edc0 c226 49c1 e9ca cfbf d8bd 213f
000000c0: 0619 6540 e3c2 9d40 9621 6f40 e60c 0ac0
000000d0: bb4f 3b40 4c99 2840 4cb8 6cc0 4ab7 cebf
000000e0: d30b dbc1 7787 dbc0 7239 0941 338f 3741
000000f0: a921 39c2 7cb6 4940 1e2d ffbf 78bb 29c0

base_pointnet.bn_1.running_var f4 [64]
3.645599 229.26198 84.23152 21.815084 61.19603 30.714169 4.947556 51.241043
286.95566 21.613049 45.61212 650.7734 30.091034 462.41544 41.91644 235.27586
54.37955 421.8166 26.032679 82.655205 126.53871 9.981547 153.0267 205.08047
81.26671 48.125336 12.268391 111.33236 7.1174808 59.12164 28.576492 9.892406
15.299495 13.500217 25.213015 81.39685 91.59634 203.70917 37.68909 12.925902
34.728153 18.164064 8.000067 24.06594 34.06448 95.14528 42.16042 18.017786
6.6984096 36.140213 18.152649 94.119026 41.101715 53.87942 29.787462 10.329343
217.46213 86.62796 27.560114 52.88986 643.632 25.335825 37.29427 24.29016
00000000: 7e51 6940 1143 6543 8a76 a842 4b85 ae41
00000010: bcc8 7442 9eb6 f541 6152 9e40 d4f6 4c42
00000020: 537a 8f43 86e7 ac41 d072 3642 7fb1 2244
00000030: 70ba f041 2d35 e743 6faa 2742 9f46 6b43
00000040: a984 5942 86e8 d243 ed42 d041 774f a542
00000050: d213 fd42 6bb4 1f41 d606 1943 9a14 4d43
00000060: 8e88 a242 5880 4042 544b 4441 2baa de42
00000070: 67c2 e340 8f7c 6c42 a89c e441 4c47 1e41
00000080: bbca 7441 e400 5841 41b4 c941 30cb a242
00000090: 5331 b742 8cb5 4b43 a1c1 1642 7fd0 4e41
000000a0: a1e9 0a42 0150 9141 4600 0041 0c87 c041
000000b0: 0742 0842 624a be42 45a4 2842 6d24 9041
000000c0: 5f59 d640 948f 1042 a038 9141 f13c bc42
000000d0: 2868 2442 8784 5742 b94c ee41 fd44 2541
000000e0: 4e76 5943 8441 ad42 1d7b dc41 378f 5342
000000f0: 73e8 2044 c5af ca41 552d 1542 3f52 c241

base_pointnet.bn_2.weight f4 [64]
2.7877567 1.293663 1.6173528 1.3976278 1.4989297 1.5625128 1.9329984 1.5407982
1.4432333 1.3662246 1.947338 1.7372557 1.9441065 1.5375525 1.7470747 2.0640037
1.4989164 1.4498366 1.7392845 1.5074655 1.5572112 1.479235 1.5016944 1.981725
1.9112961 1.6723839 1.330021 1.5240668 1.9709327 1.4586914 1.4275624 1.9978787
1.4094675 1.8865609 1.9104466 1.4271812 1.8935536 1.939686 1.6088202 1.5779455
2.0105562 1.6879643 1.5531383 1.5088638 1.8269717 1.5843513 1.8696661 1.6619304
1.6167511 1.7765626 1.5712221 2.6597028 1.367429 1.4998649 1.5894881 1.8067842
1.6338968 1.7862941 1.4262722 1.6144979 1.4320873 1.5546827 1.4766935 1.4504896
00000000: 9b6a 3240 c096 a53f 6b05 cf3f 78e5 b23f
00000010: eedc bf3f 6b00 c83f 7e6c f73f e038 c53f
00000020: debb b83f 73e0 ae3f 5f42 f93f 655e de3f
00000030: 7bd8 f83f 85ce c43f 25a0 df3f a318 0440
00000040: 7edc bf3f 3f94 b93f e0a0 de3f a1f4 c03f
00000050: b252 c73f 9357 bd3f 8637 c03f 2aa9 fd3f
00000060: 5aa5 f43f ad10 d63f 213e aa3f 9f14 c33f
00000070: 8647 fc3f 66b6 ba3f 5dba b63f 7dba ff3f
00000080: 6e69 b43f d47a f13f 8489 f43f e0ad b63f
00000090: f75f f23f a147 f83f d2ed cd3f 1efa c93f
000000a0: f4ac 0040 370f d83f 3ccd c63f 7322 c13f
000000b0: 35da e93f 06cc ca3f 3851 ef3f 23ba d43f
000000c0: b3f1 ce3f 6766 e33f ce1d c93f 9238 2a40
000000d0: ea07 af3f 93fb bf3f 5974 cb3f b444 e73f
000000e0: 8823 d13f 49a5 e43f 1690 b63f dea7 ce3f
000000f0: a34e b73f d8ff c63f 4b04 bd3f a5a9 b93f

base_pointnet.bn_2.bias f4 [64]
-0.11790239 0.1656796 0.01324712 0.10420035 0.013231468 0.057386898 0.0059005 -0.09955975
0.10393231 0.059851773 -0.120713465 -0.0027179082 -0.1947541 0.3110998 -0.10383443 -0.12895548
0.17226352 0.23389389 -0.0959828 0.09102786 -0.07829432 0.035342816 -0.026739942 -0.14891618
0.011158731 0.027063863 0.11689327 0.14019933 -0.10621757 0.20605241 0.078074254 -0.21726996
0.13164198 0.39974552 0.1471505 0.2386262 -0.15636206 0.109393656 -0.01682403 0.13124903
0.004787468 -0.0483989 0.07753653 0.031989396 -0.13379538 0.055734377 -0.10417736 0.24023078
-0.106229246 -0.12547946 -0.062366642 -0.39200506 0.14029856 0.121246025 0.45226064 0.27659252
-0.033911757 0.14844054 0.064023666 -0.06320311 0.06844108 0.16669555 0.114632845 0.042348076
00000000: cf76 f1bd eaa7 293e 730a 593c fe66 d53d
00000010: cdc8 583c 860e 6b3d fb58 c13b fbe5 cbbd
00000020: 77da d43d 2227 753d 9f38 f7bd ef1e 32bb
00000030: 9e6d 47be 7948 9f3e 25a7 d4bd e80c 04be
00000040: d965 303e e181 6f3e a192 c4bd d16c ba3d
00000050: c658 a0bd a1c3 103d b90d dbbc 7c7d 18be
00000060: 1cd3 363c 09b5 dd3c bd65 ef3d 6a90 0f3e
00000070: 9988 d9bd 67ff 523e 65e5 9f3d 047c 5ebe
00000080: 28cd 063e 72ab cc3e 9fae 163e 6d5a 743e
00000090: 601d 20be c809 e03d 8cd2 89bc 2566 063e
000000a0: 31e0 9c3b ed3d 46bd 79cb 9e3d 5007 033d
000000b0: a801 09be bb49 643d f15a d5bd 0fff 753e
000000c0: b88e d9bd b07d 00be 2a74 7fbd e3b4 c8be
000000d0: 6daa 0f3e d64f f83d b58e e73e 899d 8d3e
000000e0: 0ee7 0abd cc00 183e d71e 833d a270 81bd
000000f0: d62a 8c3d 3db2 2a3e a0c4 ea3d 2d75 2d3d

base_pointnet.bn_2.running_mean f4 [64]
-0.07969331 -0.3128847 0.028432835 -0.4194548 -0.018341392 0.17559981 0.029098347 -0.013186483
-0.12611873 0.1089985 -0.0707429 0.06346801 -0.15494493 0.08786262 0.107167356 0.07214933
0.17495427 -0.14305149 0.003888539 -0.12352872 0.19012576 0.021443624 0.098801866 -0.051057983
-0.032966442 -0.0806227 -0.0004104922 -0.057119463 0.10759735 -0.21468264 -0.07212488 0.1692827
-0.06021713 -0.3768785 -0.007616425 -0.23416272 0.15467224 0.115520254 -0.02722669 -0.2015896
-0.024775289 0.057762075 -0.22357115 -0.014081078 0.015191775 -0.032971743 -0.089112744 0.014350017
0.30955648 -0.12159164 0.21015093 0.11097487 0.008891141 -0.15799311 -0.46909782 -0.20788312
0.19882363 0.014704511 -0.034146298 -0.11089462 0.12888423 -0.12319251 -0.27430582 -0.10518105
00000000: 3f36 a3bd 6c32 a0be faeb e83c c8c2 d6be
00000010: b040 96bc 70d0 333e a85f ee3c 1e0c 58bc
00000020: 4525 01be 9b3a df3d a7e1 90bd 84fb 813d
00000030: e2a9 1ebe 51f1 b33d 8f7a db3d 07c3 933d
00000040: 3627 333e 177c 12be dcd6 7e3b a0fc fcbd
00000050: 54b0 423e 8aaa af3c a258 ca3d 2d22 51bd
00000060: d207 07bd 841d a5bd 5537 d7b9 19f6 69bd
00000070: 005c dc3d c4d5 5bbe 36b6 93bd 7258 2d3e
00000080: 3da6 76bd 38f6 c0be 3493 f9bb 5ac8 6fbe
00000090: 6662 1e3e e295 ec3d 820a dfbc 816d 4ebe
000000a0: 8cf5 cabc ed97 6c3d d6ef 64be 52b4 66bc
000000b0: ece6 783c 610d 07bd be80 b6bd 551c 6b3c
000000c0: 307e 9e3e 0a05 f9bd ce31 573e cb46 e33d
000000d0: 26ac 113c f2c8 21be 972d f0be 50df 54be
000000e0: 6c98 4b3e 30eb 703c fddc 0bbd b81c e3bd
000000f0: 3afa 033e 5b4c fcbd d071 8cbe 2a69 d7bd

base_pointnet.bn_2.running_var f4 [64]
0.009509614 0.09164948 0.018363519 0.09106674 0.04458458 0.026941387 0.036786474 0.03906761
0.021739414 0.045445975 0.017212166 0.03146515 0.01885868 0.049774718 0.02895922 0.0077353823
0.04079242 0.04772583 0.019056818 0.027949722 0.0890656 0.027866345 0.03581219 0.027930725
0.012117974 0.024404263 0.05696903 0.03205952 0.019345114 0.044383008 0.024958577 0.011062593
0.029941155 0.05657312 0.018591633 0.020795416 0.039257865 0.06533869 0.02109875 0.06449562
0.046172347 0.029908845 0.07251859 0.021836555 0.02339235 0.03924266 0.021380898 0.075436465
0.031092871 0.013169084 0.025701504 0.011209295 0.063234806 0.027698424 0.0662575 0.04397367
0.05919318 0.072917156 0.031971212 0.025773926 0.028591787 0.10994586 0.040497188 0.046143185
00000000: 36ce 1b3c b9b2 bb3d 176f 963c 3381 ba3d
00000010: 529e 363d 2fb4 dc3c 6aad 163d 5c05 203d
00000020: db16 b23c 8f25 3a3d 8700 8d3c 9ae1 003d
00000030: 857d 9a3c 93e0 4b3d e33b ed3c 1779 fd3b
00000040: f415 273d 297c 433d 0b1d 9c3c d1f6 e43c
00000050: 0668 b63d f647 e43c ceaf 123d face e43c
00000060: 788a 463c 73eb c73c 5c58 693d d850 033d
00000070: a579 9e3c f5ca 353d ee75 cc3c e13f 353c
00000080: 2747 f53c 37b9 673d 7b4d 983c 265b aa3c
00000090: dbcc 203d 4bd0 853d 49d7 ac3c 4816 843d
000000a0: 371f 3d3d 6503 f53c a084 943d 93e2 b23c
000000b0: 50a1 bf3c e9bc 203d fe26 af3c 6f7e 9a3d
000000c0: 7ab6 fe3c 24c3 573c f68b d23c 31a7 373c
000000d0: 4081 813d cee7 e23c 03b2 873d bc1d 343d
000000e0: 8c74 723d 9755 953d 3ff4 023d d723 d33c
000000f0: 5339 ea3c 4c2b e13d 61e0 253d a300 3d3d

fc_1.weight f4 [64, 66]
-0.04786823 0.017683214 -0.049313996 -0.076254055 0.032368146 -0.07669698 -0.0902853 0.09695256
0.11614399 0.037978046 0.073734395 -0.07991849 -0.084488556 -0.08312273 -0.030473648 -0.06844745
0.09645789 -0.108101696 -0.085898645 -0.027024489 0.060048167 0.006080819 -0.052719884 -0.10658729
0.098224774 0.04012832 0.02209721 0.006830481 -0.05927695 0.09297597 -0.02135525 0.0025454673
-0.0929611 0.0070223683 -0.017613383 -0.03793376 0.11030914 0.12074592 -0.10532926 -0.042857207
-0.040018722 -0.02693919 0.0030270123 0.115326695 -0.059858937 0.08976234 -0.04982047 -0.08957369
0.060086083 -0.09818383 -0.12016723 -0.023682889 0.10133845 0.06458042 0.101974204 0.007220536
0.046813402 0.009720925 -0.09150976 0.010602533 -0.09305475 0.070399925 -0.03364888 0.07882921
0.08494625 -0.008830191 0.15801045 0.16824381 -0.36427003 -0.38539982 0.30463618 -0.4375101
-0.03619475 -0.09913311 -0.046803202 0.18665181 -0.25678778 -0.13683076 0.19508876 0.19505593
0.3595655 -0.3161294 -0.3496197 0.064411506 0.15827316 -0.68758523 0.27391517 -0.046350844
-0.119748354 0.09048592 -0.08407543 0.102688044 -0.012384265 -0.4582212 -0.2993037 -0.7082611
0.23407203 -0.47308642 -0.35296854 0.4890665 -0.38374522 -0.4689742 -0.50861466 -0.28351527
-0.2518612 -0.6375199 -0.04274349 -0.19318202 0.08501869 0.014179166 -0.40299442 -0.33503115
-0.11005755 -0.20545559 0.5717807 -0.6163213 -0.12361222 0.27909222 -0.046937615 -0.067392334
-0.22769065 -0.3576272 -0.2453724 -0.78402376 -0.39812014 -0.12587735 -0.04990945 -0.3350983
-0.48524725 -0.24057552 -0.26703423 -0.4009449 -0.020461654 -0.09880558 -0.069437705 -0.0018448005
-0.048373196 0.026640156 -0.012515302 -0.051613577 -0.12103132 -0.055698264 -0.053930108 -0.12044947
-0.0014280542 0.033255506 0.061379597 0.0258875 0.006073658 -0.09244317 -0.02318601 -0.03246008
0.0432648 0.062306177 -0.049707968 0.006269566 0.116096705 -0.019260075 -0.08846712 -0.05244346
0.032815266 -0.108429916 0.115933284 -0.06475191 -0.10824662 -0.12219462 0.094685785 0.1136784
0.09037269 -0.116645865 0.1123547 -0.025747985 0.028643403 0.07789354 -0.12242683 -0.06020783
-0.08248833 0.009309447 -0.052091837 -0.08664106 0.060225572 -0.010686349 -0.07436975 -0.09858817
-0.09343031 -0.025180701 -0.030624859 -0.112596735 -0.057425413 -0.076361306 -0.054710746 -0.048030697
0.05926835 0.027590744 0.0682833 0.11157467 0.030116007 0.06512607 0.13667881 0.037254497
0.27710497 -0.09524576 -0.18372518 0.10917754 0.04343151 -0.20324609 -0.26389214 -0.17785494
-0.033470992 -0.085399516 0.21714729 -0.20170632 -0.035397876 -0.23647374 0.1476939 -0.21479589
0.30429867 0.011750471 -0.029784573 0.07698174 -0.14428695 0.11744323 0.0011823198 -0.39503142
-0.17442696 0.10671895 -0.03114921 0.011495441 -0.30266342 -0.027896192 0.09488711 0.054805495
0.19260302 -0.13047035 -0.022842875 -0.3059873 0.02053534 0.05716995 -0.0651753 -0.032152724
-0.077984184 -0.07024883 0.12358172 0.09837226 0.04713336 0.11250464 -0.06933412 0.069614775
-0.08653061 -0.3182744 0.10129632 0.38325244 -0.017931595 0.16317683 -0.06418295 -0.11668485
00000000: 7a11 44bd 63dc 903c 79fd 49bd 162b 9cbd
00000010: 7694 043d 4e13 9dbd 80e7 b8bd 108f c63d
00000020: e6dc ed3d de8e 1b3d 0f02 973d 4eac a3bd
00000030: 5608 adbd 403c aabd dfa3 f9bc 2d2e 8cbd
00000040: b78b c53d 6c64 ddbd a1eb afbd 7662 ddbc
00000050: 11f5 753d 9b41 c73b cef0 57bd 704a dabd
00000060: 122a c93d 985d 243d 3505 b53c 3ad2 df3b
00000070: 63cc 72bd 2f6a be3d 35f1 aebc dbd1 263b
00000080: 6462 bebd e51b e63b f149 90bc 6e60 1bbd
00000090: c2e9 e13d a349 f73d deb6 d7bd 0a8b 2fbd
000000a0: acea 23bd 94af dcbc d760 463b 6730 ec3d
000000b0: a52e 75bd 51d5 b73d 8d10 4cbd 6972 b7bd
000000c0: d31c 763d 9b14 c9bd 3d1a f6bd 9e02 c2bc
000000d0: 898a cf3d bd42 843d dad7 d03d 3f9a ec3b
000000e0: 69bf 3f3d 8444 1f3c 7869 bbbd 3fb6 2d3c
000000f0: 7d93 bebd d62d 903d 68d3 09bd 3571 a13d
00000100: 4df8 ad3d 81ac 10bc 7ecd 213e 1b48 2c3e
00000110: 9a81 babe 2053 c5be 46f9 9b3e 5301 e0be
00000120: f240 14bd 4d06 cbbd b7b4 3fbd a721 3f3e
00000130: b079 83be 5d1d 0cbe 59c5 473e bebc 473e
00000140: f818 b83e b6db a1be 5a01 b3be 2eea 833d
00000150: 5c12 223e 9605 30bf 9c3e 8c3e 62da 3dbd
00000160: a03e f5bd af50 b93d bd2f acbd 1c4e d23d
00000170: 5fe7 4abc f89b eabe 563e 99be 9950 35bf
00000180: 94b0 6f3e 6238 f2be 4bb8 b4be ed66 fa3e
00000190: 417a c4be 631d f0be 9234 02bf ea28 91be
000001a0: f4f3 80be 8134 23bf cc13 2fbd 82d1 45be
000001b0: 471e ae3d bc4f 683c 4955 cebe 3489 abbe
000001c0: da65 e1bd f362 52be 3860 123f 3cc7 1dbf
000001d0: 6728 fdbd 2de5 8e3e a841 40bd fe04 8abd
000001e0: bd27 69be ea1a b7be e742 7bbe c8b5 48bf
000001f0: 67d6 cbbe fee5 00be da6d 4cbd 0192 abbe
00000200: 5472 f8be 6e59 76be b6b8 88be a648 cdbe
00000210: 339f a7bc 945a cabd 5b35 8ebd 3ccd f1ba
00000220: f922 46bd 753c da3c fb0c 4dbc c268 53bd
00000230: 45df f7bd dd23 64bd d1e5 5cbd 36ae f6bd
00000240: 8c2d bbba ed36 083d 2c69 7b3d 0612 d43c
00000250: 8905 c73b d852 bdbd 96f0 bdbc dcf4 04bd
00000260: 6e36 313d c334 7f3d 959a 4bbd ee70 cd3b
00000270: 1cc4 ed3d 4ec7 9dbc 402e b5bd f4ce 56bd
00000280: 4d69 063d 8110 debd 6e6e ed3d a69c 84bd
00000290: 67b0 ddbd 2c41 fabd 9fea c13d 39d0 e83d
000002a0: 5115 b93d 07e4 eebd 391a e63d 70ed d2bc
000002b0: 92a5 ea3c a686 9f3d ebba fabd 7c9c 76bd
000002c0: a4ef a8bd a786 183c 405e 55bd de70 b1bd
000002d0: 17af 763d cc15 2fbc 2b4f 98bd 98e8 c9bd
000002e0: 6458 bfbd c247 cebc fce0 fabc 1e99 e6bd
000002f0: e936 6bbd 5163 9cbd 6018 60bd d6bb 44bd
00000300: 5fc3 723d fc05 e23c 1dd8 8b3d 4381 e43d
00000310: d8b5 f63c d160 853d 88f5 0b3e 2c98 183d
00000320: b4e0 8d3e 3610 c3bd 7422 3cbe 7998 df3d
00000330: 3de5 313d be1f 50be df1c 87be 9b1f 36be
00000340: e118 09bd f1e5 aebd dc5b 5e3e 1a8c 4ebe
00000350: 5dfd 10bd 2c26 72be 123d 173e 74f3 5bbe
00000360: 09cd 9b3e 0c85 403c c7fe f3bc 9aa8 9d3d
00000370: f5bf 13be 1386 f03d 12f8 9a3a 8f41 cabe
00000380: fb9c 32be 778f da3d a12c ffbc 6057 3c3c
00000390: b3f6 9abe 8e86 e4bc 2c54 c23d ba7b 603d
000003a0: ba39 453e 059a 05be fb20 bbbc 5eaa 9cbe
000003b0: bb39 a83c 0a2b 6a3d a17a 85bd 93b2 03bd
000003c0: 2cb6 9fbd 9ede 8fbd 6a18 fd3d 6577 c93d
000003d0: e90e 413d d568 e63d 0cff 8dbd 3192 8e3d
000003e0: f636 b1bd ddf4 a2be 7274 cf3d aa39 c43e
000003f0: 48e5 92bc d417 273e 5a72 83bd 77f8 eebd

fc_1.bias f4 [64]
0.0043104137 -0.2619121 -0.09224533 0.041805573 -0.1014803 -0.1344566 0.12595542 0.19377322
0.16143858 -0.06358801 -0.17282407 0.112345405 -0.25027925 -0.057868402 -0.034589313 -0.081981264
-0.06222772 -0.08032528 0.02495105 0.17764835 -0.036184188 0.061269213 -0.01580094 -0.0793565
-0.048550174 -0.113260806 -0.06862302 -0.029887974 0.021671439 -0.099637754 -0.05017582 -0.08645849
0.31455377 0.13414778 0.21221785 0.12762749 -0.10222154 -0.04803645 0.029369839 -0.06663994
0.0452388 -0.08745417 -0.013640042 -0.07233045 -0.056981742 0.12333605 0.08956963 -0.18268782
-0.11460325 -0.0150358975 -0.040458288 -0.13360262 -0.08020505 -0.057700403 0.15657304 -0.109148204
-0.1258638 -0.028239114 0.028976057 -0.29836917 0.179041 -0.14431517 0.019921713 -0.031993397
00000000: 5f3e 8d3b 5819 86be 1feb bcbd 523c 2b3d
00000010: e7d4 cfbd feae 09be 75fa 003e 7d6c 463e
00000020: 2850 253e 6e3a 82bd cbf8 30be 5915 e63d
00000030: 9a24 80be 6b07 6dbd 86ad 0dbd cbe5 a7bd
00000040: 7ee2 7ebd 9581 a4bd 2566 cc3c 73e9 353e
00000050: df35 14bd 6df5 7a3d f970 81bc a985 a2bd
00000060: 8cdc 46bd 48f5 e7bd 3a8a 8cbd a0d7 f4bc
00000070: 4d88 b13c e10e ccbd 2985 4dbd 2611 b1bd
00000080: 310d a13e 095e 093e a34f 593e c8b0 023e
00000090: 8759 d1bd dec1 44bd 0499 f03c 857a 88bd
000000a0: 524c 393d 2c1b b3bd 7c7a 5fbc fd21 94bd
000000b0: b065 69bd 9c97 fc3d 4870 b73d 8412 3bbe
000000c0: 1cb5 eabd 2059 76bc 97b7 25bd 20cf 08be
000000d0: 8c42 a4bd 4257 6cbd af54 203e 1889 dfbd
000000e0: 71e2 00be b755 e7bc 325f ed3c d8c3 98be
000000f0: 8656 373e 5bc7 13be dc32 a33c 820b 03bd

fc_2.weight f4 [4, 64]
0.0096312165 -1.3379943 0.08613977 -0.05538448 0.58465296 -0.15285923 -0.22828354 0.074113816
0.5025139 1.6809705 0.2915362 -0.009747473 1.1238103 -0.004324979 -0.07365565 -0.09597499
0.009845436 0.20071284 -0.20543914 1.8256894 -0.07942923 0.31735912 -0.019004002 -0.08266384
-0.246467 -0.094531894 -0.010618001 0.7782246 -0.026719285 0.9065936 -0.013673031 0.022632912
-0.064087905 0.67886496 2.6676378 -0.20254014 -0.094700575 0.043967273 -0.2280157 1.6638775
0.025505379 -0.04226149 -0.27302128 -1.4152391 -0.055636704 -0.16868855 1.9695953 -0.15606539
-0.08841768 0.09535247 -0.00033640862 -0.11702388 0.09351884 -3.2821949 -4.579434 -0.03737265
-0.16109884 0.07434891 -0.14493752 0.16218007 0.046240147 0.06584 0.3464263 0.17065328
0.03225699 -0.16808777 0.028020337 -0.29330343 -0.53679824 0.18584655 0.060263485 0.23428905
-0.1024238 -2.504082 0.5281477 -0.032302074 -2.5309384 -0.33293596 0.10470419 0.14596811
-0.05964203 -0.42856047 0.15391481 -3.2472563 -0.10992264 0.029060166 -0.019381698 -0.05126808
0.01409406 -0.0751471 -0.11240889 -0.66554886 0.049203143 -2.4282475 -0.001275339 -0.057867706
0.2892456 1.4382055 -1.829236 0.22152007 0.07342449 0.050584458 0.18386686 0.6710473
0.03217368 0.0730603 -0.12728396 1.569107 0.029480278 0.20432319 0.76320136 -0.052868295
-0.12074366 -0.027498513 -0.013096616 -0.3066003 -0.100116044 2.9615264 0.94355106 -0.062059224
-0.022196732 -0.053116933 0.2512763 0.4073717 0.27434352 -0.32640135 -0.43465665 -0.18063933
0.016743392 1.4080803 0.042799458 0.0069048945 0.054609742 0.21382427 -0.02436891 -0.004839564
-0.39655456 1.8849572 -0.7331939 0.04961468 0.7603446 0.25536048 0.017254302 0.20437545
-0.06671937 0.2639458 0.18032162 1.6740563 -0.047397163 1.5881872 0.104098536 0.08970304
-0.032619648 -0.020434985 0.1245255 0.22770867 0.08667859 0.3401052 -0.09314908 -0.10413745
-0.28597742 -2.5135374 -0.11692762 0.029764062 -0.038146332 0.06298929 -0.0033207685 -0.08318938
-0.07462312 -0.00078711845 0.1511828 -0.29388604 0.014112651 0.1094356 -3.9283817 0.87327677
-0.105583474 0.0443649 0.10464133 0.067971796 0.12150897 -0.8563099 2.7484584 -0.10765168
0.22221291 0.069852516 0.2549566 -0.7629621 -0.17258877 0.17489126 0.33858782 0.025958918
-0.097874746 -0.5837941 -0.0023652911 0.17604782 -0.25557435 0.006473158 0.07591514 -0.11646849
0.36548558 1.4413823 0.20080191 0.057547167 0.24525408 0.11935524 -0.026603654 -0.10282368
-0.11300926 -0.0017681258 -0.003171603 -0.59420556 0.006593212 -1.6077317 0.047457937 -0.016444212
0.20685463 -0.11717751 -0.0328335 -0.32923675 -0.044303298 0.9749833 0.105504505 -0.09467518
0.117401555 1.1443049 -2.558925 -0.039002284 0.11103742 0.020324064 0.10282162 -1.9439955
0.007808745 -0.022086889 0.112796135 0.8370078 0.0029425323 -0.11118176 1.1042769 -0.2700333
-0.019586608 -0.091896415 -0.04528503 0.012866193 0.07766639 1.8606019 -0.036475673 -0.084193155
0.16918 -0.10824464 -0.21064262 0.3782327 -0.10744802 0.10522638 -0.29053006 0.1559301
00000000: 40cc 1d3c 6643 abbf 0c6a b03d d6da 62bd
00000010: d1ab 153f 2187 1cbe 29c3 69be fcc8 973d
00000020: c0a4 003f 0b2a d73f 3c44 953e ddb3 1fbc
00000030: 04d9 8f3f 8eb8 8dbb c6d8 96bd 898e c4bd
00000040: c04e 213c ab87 4d3e a35e 52be 31b0 e93f
00000050: cbab a2bd e57c a23e 48ae 9bbc a94b a9bd
00000060: d861 7cbe f099 c1bd 20f7 2dbc ba39 473f
00000070: 67e2 dabc 8516 683f d904 60bc a868 b93c
00000080: 8540 83bd 18ca 2d3f 94ba 2a40 af66 4fbe
00000090: 60f2 c1bd 0717 343d f37c 69be f0f9 d43f
000000a0: a8f0 d03c 621a 2dbd 72c9 8bbe 8e26 b5bf
000000b0: 50e3 63bd b1bc 2cbe b31b fc3f 9bcf 1fbe
000000c0: 5414 b5bd 2848 c33d 0060 b0b9 37aa efbd
000000d0: ce86 bf3d 7b0f 52c0 b98a 92c0 1014 19bd
000000e0: 18f7 24be 3e44 983d 806a 14be 8812 263e
000000f0: 4f66 3d3d 1fd7 863d ca5e b13e bcbf 2e3e
00000100: e81f 043d 331f 2cbe e88a e53c de2b 96be
00000110: 9c6b 09bf 8f4e 3e3e d8d6 763d 78e9 6f3e
00000120: 92c3 d1bd e142 20c0 b034 073f 2e4f 04bd
00000130: e5fa 21c0 9576 aabe 266f d63d aa78 153e
00000140: 344b 74bd 476c dbbe d89b 1d3e 0cd3 4fc0
00000150: 1f1f e1bd 960f ee3c 5ec6 9ebc 7afe 51bd
00000160: c6ea 663c b9e6 99bd a236 e6bd 6961 2abf
00000170: 3c89 493d 6868 1bc0 4729 a7ba b006 6dbd
00000180: 0018 943e 1e17 b83f 6824 eabf 28d6 623e
00000190: 945f 963d a631 4f3d 9847 3c3e c1c9 2b3f
000001a0: 8cc8 033d a3a0 953d ba56 02be 80d8 c83f
000001b0: a080 f13c 193a 513e 2a61 433f 6d8c 58bd
000001c0: 7448 f7bd 9044 e1bc 3093 56bc b7fa 9cbe
000001d0: a409 cdbd a689 3d40 908c 713f d031 7ebd
000001e0: ecd5 b5bc 2491 59bd 4aa7 803e 0693 d03e
000001f0: c176 8c3e 141e a7be 518b debe 84f9 38be
00000200: 7029 893c fa3b b43f 7c4e 2f3d 7442 e23b
00000210: 77ae 5f3d c0f4 5a3e 4fa1 c7bc 3595 9ebb
00000220: 3309 cbbe 4746 f13f 98b2 3bbf c338 4b3d
00000230: f2a5 423f 9cbe 823e e558 8d3c cc47 513e
00000240: 2aa4 88bd e723 873e 3ba6 383e 7a47 d63f
00000250: 8723 42bd b849 cb3f 9d31 d53d 3ab6 b73d
00000260: 2e9c 05bd 4567 a7bc 3a07 ff3d 762c 693e
00000270: 8b84 b13d 4522 ae3e f2c4 bebd 0446 d5bd
00000280: a26b 92be ccdd 20c0 bf77 efbd c3d3 f33c
00000290: 543f 1cbd 8700 813d 40a1 59bb 325f aabd
000002a0: 02d4 98bd a056 4eba aacf 1a3e 3b78 96be
000002b0: c038 673c c61f e03d 9b6a 7bc0 118f 5f3f
000002c0: 263c d8bd f8b7 353d 324e d63d cc34 8b3d
000002d0: b2d9 f83d 2037 5bbf bee6 2f40 7c78 dcbd
000002e0: c88b 633e d60e 8f3d ac89 823e 7c51 43bf
000002f0: 1cbb 30be b216 333e 625b ad3e cca7 d43c
00000300: 8e72 c8bd 8873 15bf 0003 1bbb e145 343e
00000310: a4da 82be c91c d43b 6679 9b3d 0887 eebd
00000320: ed20 bb3e 377f b83f 049f 4d3e 94b6 6b3d
00000330: e323 7b3e 8570 f43d e8ef d9bc 3995 d2bd
00000340: 6671 e7bd 75c0 e7ba abda 4fbb db1d 18bf
00000350: df0b d83b 27ca cdbf 4163 423d 03b6 86bc
00000360: b3d1 533e c3fa efbd 6c7c 06bd b891 a8be
00000370: 6077 35bd 8198 793f bf12 d83d 10e5 c1bd
00000380: 3a70 f03d 9578 923f 6dc5 23c0 dcc0 1fbd
00000390: 9667 e33d a77e a63c 2494 d23d d8d4 f8bf
000003a0: 80e0 ff3b 90ef b4bc a901 e73d 2546 563f
000003b0: 80d7 403b 43b3 e3bd f258 8d3f ce41 8abe
000003c0: 1874 a0bc 3034 bcbd cc7c 39bd bacc 523c
000003d0: 8e0f 9f3d 3428 ee3f 8467 15bd 766d acbd
000003e0: 863d 2d3e 5eaf ddbd b3b2 57be b7a7 c13e
000003f0: b50d dcbd ee80 d73d 5bc0 94be 24ac 1f3e

fc_2.bias f4 [4]
0.182004 0.22954394 -0.34358013 -0.017220855
00000000: 425f 3a3e 910d 6b3e bce9 afbe c012 8dbc
