Mindset augmented trained networks (pth)/segmentation_pointnet_dsfmeanpstorefake2.pth (torch, 79218 bytes, 18 tensors)

base_pointnet.conv_1_a.weight f4 [64, 1, 3]
00000000: 1464 d53d a107 7bbe f580 4f3e 34b3 96be
00000010: 0eb1 dd3e 6512 a6bd 0009 303c 1c38 e4bc
00000020: 2b09 083d dbcf 82bd 7cbc debd 2887 8e3e
00000030: cfc2 f63d 875e c53e 363b 233f 33f4 56be
00000040: 19ff 06be 4965 eebd 6d69 643b e294 1ebe
00000050: 82a2 013e 6052 843e 8053 1abd 6f87 ca3e
00000060: 2864 afbe b5a0 d8bd ff7b d2bd 189a 7c3e
00000070: 971a 013f 673b 0cbf 9b75 bc3e da8e bd3d
00000080: f0e6 b23d 5f58 ae3e 75fa 70bc dd49 5b3e
00000090: 0e82 9b3e cfef 97be 8a20 edbd 2a4f 84be
000000a0: f68d db3d 60a3 003e dcbd 0cbf 798e c43e
000000b0: d5ad 123e 6776 ad3e 442a d2bd fead 0dbe
000000c0: b808 7abe 42a1 a8bd e2d4 3abf a2e8 a63c
000000d0: 48ab c33e db46 0bbf 599c d9be 9e54 003f
000000e0: 81ce 5cbe 9e63 593e d649 473e c0de d5bd
000000f0: 6921 efbd 7c06 c5be 26a0 513e 4b50 943b
00000100: 8852 4c3d 3c8f 84be 6789 91be 33a0 a2be
00000110: 5f09 0d3f 2f33 08bf dd43 d3bd f195 cd3e
00000120: 4025 273e 261f d1be a961 e3be 1a5d 803e
00000130: 893d c9bc 608e 5e3a ac6e 6b3e c9b1 0bbf
00000140: 6c1a 94be 51a3 c13e 6e27 adbe a145 57bd
00000150: def6 0d3e a856 9bbe b0f3 f43d 53db 1d3f
00000160: ed07 9ebe 07f8 01bf 35bd 24bd a67e e63c
00000170: 1b37 9c3b 9f8c 2abe 3dbe d23e c78f 9e3e
00000180: 2622 ec3e db37 00bf 950f f63d 947b dbbe
00000190: dfde 473e 503f 613e f9e9 0cbb 3e68 a63e
000001a0: 5708 b9be 8390 d33d cee8 8f3c 137f 953e
000001b0: 6fa5 b03e d34a 623e 6447 efbe 8d53 15bf
000001c0: 4eff 8e3e c856 a43e 63ab 27be fac1 02be
000001d0: 19b3 613e 36d7 053f cdd3 18bd dd11 c8be
000001e0: 92c8 f2bb 409a 073e 902c 25be bcd3 fcbb
000001f0: 3267 af3c 3481 acbd 7a4d 8bbe 7437 f4bd
00000200: 1074 05bf ef63 ec3d d4b4 7cbe f14b 18bf
00000210: d2db a6bc 8241 d8bc c7c9 c6bb 51b1 bd3e
00000220: b997 46be a457 0bbf a3f7 403e 33b2 d73c
00000230: 3e56 063f dcfc ed3c e66b 84bd 772c a23a
00000240: e155 5cbe 789f 6b3d 1083 88be 2d4e a43e
00000250: 1edd a83d f892 2a3e 325d 63be 5e55 89be
00000260: dafe d33e 0c50 483e 65f9 48be c2ac 173a
00000270: 6012 d93d fca7 9f3e a769 d3bd 7a57 6f3e
00000280: 13b8 4abc bc9a 5f3e 57fd 51be 3152 183e
00000290: 5005 ef3e fcd6 ac3e 33ea c7bc fc6b 1fbe
000002a0: d692 823d 65dc debe d8c6 cd3e 90af ac3c
000002b0: 9464 0d3f 634a 01bf 8123 96be 4bae ae3e
000002c0: 4acc eb3c 17cb 1f3c fc4d 8ebd e8ea 41be
000002d0: 262b c53e f918 69be 9317 bcbe 4960 0d3e
000002e0: b39b 9c3e dc45 fabe ba45 493e e05a 013f
000002f0: f2f5 f1bc 5137 ec3e 0128 f3be 2e9e 4abd
0.10419479 -0.24514629 0.20264037 -0.29433596 0.43299145 -0.08108977 0.010744333 -0.027858786
0.03321187 -0.063873015 -0.10875794 0.2783749 0.120488755 0.3854868 0.63762224 -0.20991592
-0.1318325 -0.11640412 0.0034852878 -0.15486482 0.12659648 0.25844097 -0.037677288 0.39556453
-0.342561 -0.105775274 -0.10277557 0.24668157 0.504312 -0.5477814 0.36808476 0.092557624
0.08735454 0.34051797 -0.014708151 0.21414895 0.3037266 -0.29675147 -0.11578472 -0.25841647
0.10720436 0.12562323 -0.549772 0.38389948 0.14324124 0.33879396 -0.10261968 -0.13835904
-0.24417388 -0.082338825 -0.72981083 0.0203746 0.38216615 -0.5440499 -0.42502096 0.50129116
-0.2156315 0.21229407 0.1946176 -0.10442877 -0.11676294 -0.3848151 0.20471248 0.004526173
0.049883395 -0.2589053 -0.28425142 -0.31762847 0.55092424 -0.532031 -0.10315678 0.4015346
0.16322803 -0.40844077 -0.44410446 0.2507103 -0.024565475 0.00084898435 0.22991437 -0.54568154
-0.28926408 0.37819913 -0.33819145 -0.052556638 0.13863704 -0.3033955 0.11960542 0.6166279
-0.30865422 -0.50769085 -0.040219504 0.028136563 0.0047673113 -0.16655205 0.41160765 0.30969068
0.46119803 -0.5008523 0.12014691 -0.4286772 0.19518612 0.21996808 -0.0021501763 0.32501405
-0.36139175 0.10330298 0.017567065 0.29198512 0.34501216 0.22098856 -0.46734154 -0.58330613
0.27929157 0.3209746 -0.16373973 -0.12769309 0.22040977 0.5228151 -0.037311364 -0.3907613
-0.0074091638 0.13242435 -0.1613028 -0.0077156704 0.021411512 -0.08423081 -0.27207547 -0.11924639
-0.5213022 0.11542498 -0.24678355 -0.5949088 -0.02036849 -0.026398424 -0.006066534 0.37049344
-0.19393815 -0.54430604 0.18844466 0.02633009 0.52475345 0.029051237 -0.064658925 0.0012372871
-0.21517135 0.057525128 -0.26662493 0.32090893 0.082453 0.16657627 -0.2220352 -0.26822942
0.41405374 0.19561785 -0.19626386 0.0005785936 0.10599208 0.3118285 -0.10322886 0.23373213
-0.012372988 0.2183637 -0.20506798 0.14875104 0.4668374 0.3375777 -0.024403667 -0.15568537
0.06375663 -0.43527523 0.40190768 0.021079808 0.55231595 -0.5050413 -0.29323962 0.3411735
0.028783936 0.00975301 -0.06948468 -0.18937266 0.38509482 -0.22763433 -0.36736736 0.13806261
0.3058754 -0.48881423 0.19655505 0.5052929 -0.029536221 0.46135953 -0.47491458 -0.04946726

base_pointnet.conv_1_a.bias f4 [64]
00000000: 1eb1 623e 510d d3be 0477 72be 0cd3 06be
00000010: 1236 99be b99e 93be 4ed3 31be 467a 1abd
00000020: 3f83 5ebe 291c 1cbd ca63 c4be 4848 50bd
00000030: 356e 013f 4f8c 273e e40a 15be 65f6 05be
00000040: e9ce e5be db60 fcbe 04b5 8f3e 0561 1a3e
00000050: aa3c 9ebe 8aa9 8ebe 739d e43e 22e8 033f
00000060: 3d9a e9be af6f dc3e 14ab 86be 7ca8 5a3d
00000070: 401c 133f 919d c03d 0146 51be 1100 cfbe
00000080: 68ee 1b3d cae3 0a3f a032 b13d cc4c 98be
00000090: 9090 0c3e 7d89 eb3e 8bf9 edbe 31e5 d5bc
000000a0: d12c 8e3e 9165 53be bd01 68be f8e6 acbe
000000b0: 525c a13e a0b1 da3c 5207 11bd 518a 04bf
000000c0: 5658 11bf 3d2f 0cbf fc2f fc3e 5301 ff3e
000000d0: 638b 03bf 99a0 c4be f3b0 023f f271 093f
000000e0: b908 3ebd 1165 a23e fa68 453d 0c10 e63e
000000f0: 6c53 93be 3ccf a9bd 3cf1 033e d643 8c3e
0.22137877 -0.41221097 -0.23678213 -0.13166445 -0.29924065 -0.28832033 -0.17365763 -0.037714265
-0.21729754 -0.038112793 -0.38357383 -0.050850183 0.5055879 0.16362117 -0.14554936 -0.13082273
-0.44884422 -0.49292645 0.2806779 0.15076073 -0.30905658 -0.27863723 0.44651374 0.5152608
-0.45625487 0.43053958 -0.26302397 0.053383335 0.5746498 0.094050534 -0.2043686 -0.40429738
0.03806916 0.5425383 0.08652234 -0.2974609 0.13727021 0.46003333 -0.4647945 -0.026110264
0.27768567 -0.20644213 -0.22656913 -0.33769965 0.31515747 0.026696026 -0.03540737 -0.51773554
-0.56775415 -0.5475958 0.4925536 0.49805698 -0.5138456 -0.38403776 0.51051253 0.5368949
-0.046395037 0.31717733 0.048195817 0.44934118 -0.28774583 -0.0829148 0.12884992 0.27395505

base_pointnet.conv_1_b.weight f4 [64, 1, 3]
00000000: 49ea cb3e a22c 36bf bbdd 68be 14ba 77bd
00000010: f3af 3bbf 571e 57bf a61b b4bf 2352 b0be
00000020: d442 8a3e 0ec9 5bbe a9c9 31bf 21e4 69bf
00000030: 8bd8 efbd b3ea 313e 9b68 3dbe bc01 423f
00000040: 60ed 4fbf 9aba 17bf 7a10 ba39 e2de 3d3e
00000050: 5b63 1c3f f9db dcbe cdcf cf3e f76d 6d3e
00000060: c133 b73d c4e4 19be edb4 5fbf ff7d 0f3e
00000070: e06f b33e 0b5b adbd 9cf4 4c3e 4fb8 d63e
00000080: aca8 1cbd 2c47 713f 6ae0 04be db00 57bf
00000090: 0324 323f e48a b1bd 6568 79bf 8c71 a6be
000000a0: a574 7cbf 64fe 17bf fc89 26bf ca66 473e
000000b0: 9877 debd c9fd d3bc 074b abbd ef2a 81bf
000000c0: 0933 1a3f 2a18 393f 3640 3d3e 72b0 0b3f
000000d0: af79 293d 5acd 073e f9f2 4bbf cf13 17bf
000000e0: 4ccd e5bd 3ca6 6abd e1e5 563f 9206 203f
000000f0: 39ad ed3e 8c52 9f3e b2fd d5be bb67 493f
00000100: d73e ec3d 789b 513f 9ce7 f1be c59e 01bf
00000110: e906 d23e 91b8 573e 020e ef3e 9e55 dabe
00000120: f2b5 273f 48a9 efbd 6a97 9c3d d12d 79be
00000130: 4c6c 2dbe 596a 29be 872a 5f3e 1443 ec3e
00000140: 85bf cbbc 31a8 e8bd 9f79 163f a79e af3e
00000150: b3cd bb3e 390e 193f ac80 1a3f 3794 633e
00000160: 4d02 0abf d772 9dbe 0cc5 123f 791a 68be
00000170: fb34 a6be 3a7e 1c3f bda8 d83e 2452 383f
00000180: 420e 4d3f 2ed3 3abf 83f7 23bf b364 1fbf
00000190: 9d59 bc3e da06 10bf 47d7 73bf 408a 1ebd
000001a0: 5d42 a33e 11b8 ad3e a26b b6be 9e6f 973e
000001b0: 522c 00bf 450a 833e 6ad6 46bd 2fda 1cbe
000001c0: 0324 0b3f 7209 2dbe fb9a 84bc d65f 563e
000001d0: da5b 88bf 0404 fe3c 0c2f f2be 81c8 d2be
000001e0: fbaf 1cbe 66f3 043f c6b7 3d3e 0ea8 953c
000001f0: 96b1 af3c 4749 cebf 449c 76be 07da fa3e
00000200: 2734 2dbf 6ed2 84be f2e9 c6bd a8ca 43be
00000210: 1c9c cd3e e6cb ff3e 8a90 d4bd a805 28bf
00000220: f6bb 0a3f 3cb9 20bf 3d08 64bd e044 f9be
00000230: 339b 1f3d 7ef3 06bf d34c fc3e 8f84 dd3e
00000240: 2bbe 1c3f 594a 203e e9f0 093f 44a8 abbe
00000250: b6de a4be ba55 efbe 8971 163f ad1f a2be
00000260: 39c7 b5be 96d0 353f 7c1f 06bd d16d 8abd
00000270: 37aa fcbe ff9d 3d3f 6460 e3be d27e eb3e
00000280: 3c01 b53e 18f6 3ebf fcd8 ae3e c622 893e
00000290: 91f9 12be fb24 d13d 8420 b0bd 8395 e0be
000002a0: 3103 02bf ca9e 18bf eb75 ed3e b2c8 9e3e
000002b0: 4e6f 453d e8ca b33b 1c18 dfbe 9c56 25bf
000002c0: 3d8a 0a3e b66a 04bf 523e b83e dc75 7b3f
000002d0: 5fde 0abd 98f6 313f 50c9 0c3f 9b11 9e3e
000002e0: daaf 483f 1925 7c3f 63b6 ea3e ffa9 c83d
000002f0: aab0 d0bc 57e1 8cbe d390 e23e 6b49 513f
0.39827183 -0.71161854 -0.22740833 -0.060480192 -0.7331535 -0.8403067 -1.4070938 -0.34437665
0.2700411 -0.21463415 -0.69448334 -0.9136372 -0.11711224 0.17374687 -0.18496935 0.75783896
-0.8122158 -0.59269106 0.0003548896 0.18542054 0.61089104 -0.43136576 0.40588227 0.2318648
0.08945418 -0.15028673 -0.87385446 0.14012907 0.3504629 -0.08464631 0.20015186 0.4193749
-0.038246796 0.94249225 -0.12976232 -0.8398568 0.695862 -0.086690694 -0.9742492 -0.32508504
-0.98615485 -0.59372544 -0.650543 0.19472805 -0.108626544 -0.02587785 -0.0836392 -1.0091227
0.60234123 0.72302496 0.18481526 0.5456611 0.041375812 0.13261929 -0.7966762 -0.590146
-0.11220798 -0.05728744 0.8394452 0.62510026 0.4642122 0.31117666 -0.41795117 0.78673905
0.11535423 0.8187785 -0.47247016 -0.5063289 0.41020897 0.210665 0.46690375 -0.42643446
0.65512 -0.1170221 0.076460674 -0.24333884 -0.16935843 -0.16544475 0.21793567 0.46144927
-0.024871597 -0.11360205 0.5877933 0.3430073 0.36680374 0.5978733 0.6035259 0.22224508
-0.5390976 -0.30751678 0.5733192 -0.22666349 -0.32462296 0.61130106 0.42316237 0.72000337
0.8009988 -0.72978485 -0.6404955 -0.6226303 0.3678712 -0.56260455 -0.9525036 -0.038706064
0.3188657 0.33929494 -0.35628992 0.29577345 -0.5006763 0.25593773 -0.048544325 -0.15317605
0.54351825 -0.16898134 -0.016187182 0.20934996 -1.0653031 0.031007774 -0.4730152 -0.41168597
-0.15301506 0.51933897 0.18527135 0.018268611 0.021446984 -1.6116112 -0.24083048 0.48994467
-0.67657703 -0.25941795 -0.0971259 -0.19120276 0.40158165 0.4996025 -0.10379131 -0.6563363
0.54193056 -0.62782645 -0.05567192 -0.4868536 0.03896637 -0.5271529 0.49277362 0.43265197
0.61227673 0.15653361 0.53883225 -0.33526814 -0.32201165 -0.46745092 0.5876699 -0.31664792
-0.35503557 0.710214 -0.03274487 -0.06759227 -0.49348614 0.7406921 -0.44409478 0.45995194
0.35352504 -0.7459426 0.3414992 0.26784343 -0.14353015 0.102121316 -0.08599952 -0.43864068
-0.5078612 -0.5961729 0.46379027 0.31012493 0.04820185 0.005486835 -0.43573081 -0.6458528
0.13529296 -0.5172533 0.35985047 0.98226714 -0.033903476 0.695169 0.5499468 0.30872807
0.7839333 0.98494107 0.45842275 0.09798049 -0.025474865 -0.2751567 0.44251117 0.8175265

base_pointnet.conv_1_b.bias f4 [64]
00000000: c8d8 5f3d 7f2f 743e 52ec d33e bced f73e
00000010: 08cb 183e f58b 813e 3ff5 ff3e 96a9 e93e
00000020: df55 b23e 9079 67be a9f6 023f 880f df3e
00000030: bbb7 9b3e 34e4 83bd 9618 4cbd 8463 b3be
00000040: a319 1c3e c30e 03bf 6acc f53e 58a2 8bbe
00000050: 7570 cc3e 97b2 bb3d 00b7 f03d 8de9 80be
00000060: d5cf 1cbe 044a bbbd a03b 21be 7781 1dbe
00000070: 1d7f 85be a8c7 b73e aaf1 0d3e 1aff 9dbe
00000080: fe1e 0f3c cddb d73d f967 e1be 7650 c23e
00000090: 789b 08bf fd5c c2be 70e1 d13e 9453 07be
000000a0: abd8 a5be a57d 753e 83e5 c33e ae82 fa3d
000000b0: a6a6 dc3e 5c00 9d3c 8f4b 42be 107b ffbe
000000c0: 9c7f ffbb 4bf2 b13e 8920 b03d e58c 203e
000000d0: bd29 b3be a102 e63e c32a cdbe d566 cf3e
000000e0: df2a 9ebc 778d 793d af7f 8f3c 9626 123f
000000f0: 6c33 a8be 0d57 05bf 83ad aabe f6b6 8f3e
0.054650098 0.23846243 0.41391236 0.48423564 0.149212 0.2530209 0.49991795 0.45637196
0.3483114 -0.22604966 0.51157624 0.43566537 0.30413613 -0.06440011 -0.049828134 -0.35036862
0.15244155 -0.511944 0.48007518 -0.27272296 0.39929548 0.09164923 0.117536545 -0.25178185
-0.15313657 -0.09144977 -0.15745401 -0.15381418 -0.26073542 0.35894513 0.13861719 -0.3085869
0.008735416 0.105399705 -0.44024637 0.37952012 -0.53362226 -0.3796157 0.40992308 -0.13215476
-0.32391867 0.23973711 0.3826104 0.122319564 0.43095893 0.01916521 -0.18974136 -0.49898577
-0.0077971946 0.34755167 0.085999556 0.15678747 -0.3499278 0.4492388 -0.40071687 0.40508142
-0.019307552 0.060925927 0.017516939 0.5709013 -0.32851732 -0.52085954 -0.33335504 0.28069276

base_pointnet.conv_2.weight f4 [64, 64, 3]
00000000: 7533 81b9 3ba5 3c3c 1d13 873c 4b77 353d
00000010: 93be 083e 80ee 323e c046 3d3d cf4a 62bd
00000020: 520d 5fbd ddde aebb cad2 74bd d1bc 9ebc
00000030: 9211 ad3b 86af 793d 8ea7 57bd 9bd6 073d
00000040: 0326 b9bc b877 01bd 6d3a 363d b8e9 183d
00000050: 1ac6 163d 6b60 26bc 034c c2bc 8457 973c
00000060: 81fe a1bc 8c69 6f3c 18a7 c3bc df7c b13d
00000070: 169a babc 74dd 07bd 5ac8 2d3d 7056 2ebc
00000080: 1ba0 ca3c fbdf 0b3d eaad 223d 07a0 253c
00000090: 335b 0d3e 6d93 133c fb2f ae3c 9826 57bd
000000a0: 42b4 adbd 0b5f 90bd 0739 0bbe fa0b b5bd
000000b0: 96be 0bbe 45a1 abbd 224f 83bd 339d 2ebe
000000c0: e4f8 443d 657c 01bd 7fcc 8d3d b560 20bc
000000d0: 6945 70bc da54 d4bc 4e40 2c3b 7c98 1c3d
000000e0: f537 eebb 77bf 013a e2b7 15bd f32d 873c
000000f0: 30d6 433d c037 85bc 84ce 38bc f8ee 543d
00000100: 01a1 e23d 8ebc a83c cc7b cf3c 5ef0 53bd
00000110: d406 b5bd dec9 02bd af93 c33c 7689 383d
00000120: 251b 33bd 2186 febc 9107 573d 7bc5 2bbd
00000130: 2f18 c03a f30b 313d 3e03 1cbc e23a 6e3d
00000140: 96a3 43bc 9eb3 423e 5544 073e e12d 193e
00000150: 96a0 2cbd 8faa 80bd 5a7d f8bd 1750 87bd
00000160: bad8 a33d c895 233e fc9c 0c3d 075f b73b
00000170: 5015 f5bc 3751 2fbd 89f5 5ebd adfb 91bd
00000180: 39f7 293d e849 193a 58b1 813d 9ea4 c6bc
00000190: 77f3 dc3c c181 f43d 913c 943d 8bc8 c7bb
000001a0: ecc0 843c ac85 64bb 7396 ff3c 7eca 03bd
000001b0: b17d 08bc 5029 9f3c 33ba 233c 5de3 923d
000001c0: 86d5 ab3c a7e3 fb3d 9669 debc f846 20bd
000001d0: f345 84bd 5aa9 3f3e 0a1c c43d ddd9 7d3d
000001e0: 8693 57bc 9c4a 40bd e8f3 6ebd 8c95 0f3d
000001f0: 8e11 b0bc 9a1e e8bd 3d91 edbc 245d 9ebc
00000200: 96cd 8f3d 3ddd 02bd 854b 8cbc 8604 0abd
00000210: 9dc4 27bd 711e 7c3d 80a6 583d fcd3 c9bd
00000220: 25c6 4bbd cecd 08be 7382 ffbc 39af db3c
00000230: f70e 443d 6d66 d0bc 73b7 8fbd e414 16bc
00000240: 47cb 313d 2572 e13c 7309 883d a0a7 29bd
00000250: 5214 253b 72da e3bc 182c 33bd 5f82 103d
00000260: 9577 de3c c434 3cbd 4a04 35be 5780 44bd
00000270: 8e3c 8d3d 099c 6f3b ff4c 083c 2d9d 60bd
00000280: f2f1 76bc 0266 0fbc 0ec3 e63c 755f c23c
00000290: 8260 783d 5b3a 0d3c 6720 f6bb 3d58 903d
000002a0: a92d abbd e713 f1bd 91da 333d d06c d5bd
000002b0: 1adf dabd 810c 16bd e362 573d f030 a83c
000002c0: 2308 b3bc dd71 913d 8062 903d fafd ac3d
000002d0: e8aa babc e0e1 26bd e6ea dabd ca1a b83d
000002e0: 685b f83c 29a1 aa3d a7de 35bd df5b a6bc
000002f0: 5afb 1c3d e709 6fbe e54c 0fbe 06b0 afbc
00000300: ddc2 6ebd 69ab 1bbc f003 023b 8e1b 033e
00000310: bb80 bd3c b57a cd3d 0bd4 c03b 471f ecbc
00000320: d7b7 19bd e58d 623d 1ff0 bcbc 9451 02be
00000330: 201a aebd 589a 2b3d ccb0 91bd 8259 22bd
00000340: bd50 3fbc d8ce 57bd 8fe8 93bd 6511 dabd
00000350: 1d07 363d 860b 773d 9962 3a3c 8d41 77bd
00000360: 76b6 27bd d2aa 6b3d c106 1c3d 09b2 98bc
00000370: 484e 78bc 425d 2b3c e08b 81bd 1f20 65ba
00000380: e596 9e3c 414b 40bd ca08 09bb a6a1 17bd
00000390: 76b6 16be ed05 57bd 4f91 a9bd 9483 143d
000003a0: 1783 233e 75ae b4bd b910 c0bd 76e6 ae3b
000003b0: 6802 1dbd c456 243d 1f3e 2bbd 3c7f cabc
000003c0: ace9 a23c 2854 553b fbf1 293c 831f 4a3e
000003d0: 9eac 113e 757c 143e 90a2 92bc c9dc 3fbd
000003e0: c091 dc3d 8708 38bd 9667 053d a716 793b
000003f0: f855 363d 6135 f13c 34a8 573d 3786 76bc
-0.00024643136 0.011514003 0.016488606 0.04430322 0.13353948 0.17473793 0.04621005 -0.055247124
-0.054456063 -0.005336626 -0.059771337 -0.019377144 0.0052816356 0.060958408 -0.052650027 0.033163648
-0.022601133 -0.031608313 0.044489313 0.037332267 0.036810018 -0.010154824 -0.023717886 0.018474348
-0.019774677 0.014612567 -0.023883387 0.086663954 -0.022778552 -0.03317018 0.0424274 -0.0106407255
0.024734547 0.03414915 0.03971664 0.010108954 0.13804321 0.009007317 0.021263113 -0.05252704
-0.08481647 -0.07049378 -0.13595973 -0.08840175 -0.13646922 -0.08380369 -0.06411578 -0.17052154
0.048088923 -0.031612772 0.0692377 -0.009788682 -0.014664986 -0.025919367 0.0026283446 0.038231358
-0.007269854 0.000494949 -0.036552317 0.016501402 0.047811687 -0.016261935 -0.011279706 0.05198571
0.11065865 0.020597722 0.025327586 -0.051742904 -0.08839193 -0.031930797 0.023874132 0.045052968
-0.04372706 -0.031069817 0.05249745 -0.04193638 0.0014655645 0.043224286 -0.009522257 0.058161624
-0.011940857 0.19013831 0.1320966 0.14958908 -0.042145334 -0.062825315 -0.12133284 -0.06607073
0.08000322 0.15975106 0.0343294 0.005596045 -0.02991739 -0.042802062 -0.05443338 -0.071280815
0.041495536 0.00058474997 0.06332654 -0.024248417 0.026971562 0.11938811 0.072381146 -0.0060969046
0.016205274 -0.0034869714 0.03119967 -0.032175533 -0.008330748 0.019428879 0.009993124 0.07172272
0.02097584 0.122992806 -0.027149957 -0.03913018 -0.06458654 0.18716946 0.095756605 0.06197535
-0.013157731 -0.046946153 -0.058338076 0.03505473 -0.021492746 -0.11333962 -0.02899992 -0.019331522
0.07021634 -0.03194927 -0.017125854 -0.03369572 -0.04095899 0.06155247 0.05289316 -0.09854886
-0.049749512 -0.13359758 -0.031190133 0.026816951 0.047865834 -0.025439465 -0.07017412 -0.009160254
0.04340675 0.027520249 0.06642427 -0.041419625 0.0025189114 -0.027814124 -0.043743223 0.03528058
0.02715663 -0.04594876 -0.17677417 -0.047973957 0.068963155 0.003656151 0.008319139 -0.054837395
-0.015072333 -0.008752348 0.028169181 0.023727158 0.060638912 0.00861987 -0.007511187 0.0704808
-0.08358318 -0.11771374 0.043909613 -0.10421145 -0.106870845 -0.03663302 0.05258454 0.020531148
-0.021854466 0.07101796 0.070500374 0.0844688 -0.022786573 -0.040742755 -0.106893346 0.089894846
0.030317023 0.0833152 -0.04440179 -0.02030748 0.038325645 -0.23343621 -0.13994177 -0.02144624
-0.058291305 -0.009501317 0.0019838773 0.1280348 0.023132673 0.1003317 0.0058846525 -0.028823508
-0.03752884 0.055311102 -0.023063717 -0.12726432 -0.08501077 0.04189524 -0.071137995 -0.039636143
-0.011676964 -0.052687496 -0.072220914 -0.10647849 0.044440378 0.060313724 0.011376047 -0.06036525
-0.040945493 0.057535954 0.03809238 -0.018639581 -0.015155382 0.010459246 -0.06325507 -0.0008740443
0.019359061 -0.046946768 -0.002090978 -0.037019394 -0.14718041 -0.052495886 -0.082796685 0.036258295
0.15967976 -0.088223375 -0.093781896 0.0053375317 -0.038332373 0.04012181 -0.04180729 -0.024718873
0.019886814 0.0032551382 0.010372634 0.19738583 0.14226004 0.14500602 -0.017899781 -0.046841417
0.10769987 -0.044930007 0.03256949 0.0038007887 0.04451558 0.029444398 0.052650645 -0.015046648

base_pointnet.conv_2.bias f4 [64]
00000000: 56a3 d0bd 5945 c9bc cec4 613d fed2 113e
00000010: 7b9e aabc d39b 873d 81b8 573d b184 6ebd
00000020: a411 e73a 4aa7 363d 1c14 1d3d 44d0 6b3b
00000030: cd07 c1bc 6021 08b7 916b a33d eddd 0bbd
00000040: 4a4b 403d f82c 9fbd 2265 4bbd 77c5 2abd
00000050: d705 bf3c 0b3f 173d 4d28 c33d 37c1 813d
00000060: 61b0 0a3c 7a9d f53c 1489 05bd 936b fb3c
00000070: d236 3cbd 85f8 563d 374a f03c 785e 553b
00000080: 6a61 0d3d fc9b b33c b2dd 413d 57fb 563d
00000090: 5169 e73d a021 c0bd 2f52 a7bd 71ba a0bd
000000a0: a08e 9a3d c950 cabd 765e ab3b afab 90bc
000000b0: 49d0 d33a 3e1b 82bd 8edd 0fbd db7a cb3d
000000c0: 5399 55bd 1661 e7ba ed8c 76bc 19aa 373d
000000d0: fdee 5abd c651 68bd ec9f c93d 096a abbd
000000e0: cda3 163d 7ac9 bf3c 683c c93c cf32 2ebb
000000f0: 5937 7bbc a785 e5bc d55d 67bc c91c c23d
-0.10187404 -0.0245692 0.05511933 0.14240643 -0.020827523 0.06621518 0.05266619 -0.058232013
0.0017629159 0.044593133 0.038349256 0.003598229 -0.02356329 -8.114002e-06 0.07979501 -0.03414719
0.0469468 -0.07772249 -0.049656995 -0.041692223 0.023318214 0.036925357 0.09529171 0.06335681
0.008464904 0.029982317 -0.03260143 0.030690944 -0.04595072 0.0524831 0.029332263 0.0032557528
0.03451673 0.021924965 0.047330566 0.05248579 0.112993844 -0.093814135 -0.08169972 -0.07848061
0.07546735 -0.0987869 0.0052297665 -0.01765999 0.0016160096 -0.06352852 -0.0351234 0.09935542
-0.052148174 -0.0017652835 -0.015048248 0.044839952 -0.053450573 -0.05671861 0.09844956 -0.08369834
0.036777306 0.023411501 0.024564937 -0.0026580577 -0.01533302 -0.028017832 -0.014121492 0.094781466

base_pointnet.bn_1.weight f4 [64]
00000000: f107 723f 0f59 8f3f 8db1 723f 1430 8c3f
00000010: cb08 203f fa41 6b3f 4de7 883f f358 5f3f
00000020: 094a 413f e6fa 5f3f 058d 663f 6d99 643f
00000030: 933d 8e3f 7db7 8c3f 1623 823f 3201 893f
00000040: 309a 623f 005a 853f 9419 7a3f f338 463f
00000050: 18d4 693f 4963 833f cc79 9c3f 941a 803f
00000060: 02bd 593f 26ce 603f 6b8b 683f 0a33 8d3f
00000070: d4a4 893f f674 863f ee3c 923f 96be 673f
00000080: 9248 863f e1b3 9d3f 5771 8c3f 384d 623f
00000090: a2e7 623f 28d3 803f f4e3 823f eff9 953f
000000a0: 175a 883f 3cda 763f 9ffc 463f 8ac6 543f
000000b0: a8ab 843f a680 7a3f f257 3f3f a355 7d3f
000000c0: 1d79 623f 9a51 603f 15b7 873f 4438 8a3f
000000d0: dde2 523f a086 543f d963 643f 1926 6a3f
000000e0: 4fb5 a43f 0b5b 813f 0d7a 823f b3f2 603f
000000f0: c8af 873f 8f00 843f 531b 5a3f f252 9e3f
0.9454337 1.1199054 0.9480217 1.0952172 0.62513417 0.9189755 1.0695587 0.872451
0.75503594 0.87492216 0.9005893 0.8929661 1.1112541 1.0993496 1.0166957 1.070349
0.8851652 1.0418091 0.9769528 0.7743065 0.91339254 1.0264674 1.222467 1.0008111
0.8505403 0.8781456 0.90837735 1.1031201 1.0753427 1.0504444 1.1424844 0.90525186
1.0490897 1.232052 1.0972089 0.88399076 0.88634694 1.006444 1.0225816 1.1716899
1.0652493 0.9642675 0.7772922 0.83115447 1.0364885 0.9785255 0.7474357 0.98958796
0.88466054 0.87624514 1.0602747 1.0798421 0.82377416 0.8301792 0.89214855 0.9146438
1.2867831 1.0105909 1.0193497 0.8787033 1.0600519 1.031267 0.85197943 1.2369063

base_pointnet.bn_1.bias f4 [64]
00000000: d26d b53d 062c 413e 4aa8 aebe 6a38 01be
00000010: 6ed0 d3bd a948 8b3d 4819 303e 69ef 34bd
00000020: 8f52 09be 2874 fb3d 8a20 053c 6d5e ddbc
00000030: 142d 3abd 4d9c 30be d988 a0be 7217 813e
00000040: 6596 7fbd 899d bcbd 0336 45be 8303 93be
00000050: ccce 4ebd 4385 31be c7ff a7be 8109 20be
00000060: c5b5 07bd 541e 2bbe 2bfd 3cbc 6ac2 8f3d
00000070: 4948 883e 49d4 4fbe 164e 20be 25d9 e1bc
00000080: ce1c 8b3b 8ce6 61be 9e5f 323e 4480 91bd
00000090: 94d1 b83e 12c0 5c3d 4b5f db3b a8be 0fbe
000000a0: 5e50 c63d eda8 28be e73e 26be b049 de3c
000000b0: 4d92 493e 4f12 afbd f871 4dbe 4aed fa3d
000000c0: 4ca9 5fbd eb00 1cbe ce1b 113d 30fa 853e
000000d0: 9428 21be ee4f 86bd c46b 14bd 9876 a4bd
000000e0: 96e8 0bbe b161 863e 068d 8b3d 3830 b5be
000000f0: 73f7 2d3e f2b0 d7bd c203 b1bd 3936 1d3e
0.08858837 0.1886445 -0.3411277 -0.12619177 -0.10342489 0.06800968 0.17197144 -0.04417363
-0.134104 0.122780144 0.008125434 -0.027022565 -0.045453146 -0.17247124 -0.31354406 0.252132
-0.062399287 -0.09209735 -0.19258885 -0.28713617 -0.050490186 -0.17335992 -0.3281233 -0.15628625
-0.033132333 -0.16710788 -0.011534969 0.070195034 0.2661765 -0.20295824 -0.15654787 -0.027569363
0.004245377 -0.22060603 0.17419288 -0.07104543 0.36097395 0.05389411 0.0066947094 -0.14037573
0.096832976 -0.1647069 -0.16234933 0.027134746 0.19684716 -0.08548414 -0.20063007 0.122522905
-0.054604813 -0.15234725 0.035426907 0.2616744 -0.15738136 -0.06558214 -0.036235586 -0.080304325
-0.13662943 0.26246408 0.068140075 -0.3538835 0.16988926 -0.105317965 -0.08643295 0.15352716

base_pointnet.bn_1.running_mean f4 [64]
00000000: 05cd 9d3f 6e1f babf 61d1 10c0 9b8f 6d3e
00000010: b2a2 1c42 0222 8ac1 54f6 843f 5234 b141
00000020: 903f a7c1 1221 fa40 f396 a241 3e1b 9841
00000030: 36c7 6dc0 6999 96c0 7f17 08c0 b8b5 2d3f
00000040: 3ddf 06c2 c63a 89c0 1226 e1c0 84b0 5441
00000050: 2fc4 19c1 3455 6ec0 2f3a 22c0 dcea eec0
00000060: b5e1 b9c1 a69c e140 8288 a0c1 8a7d 8f3f
00000070: 26c5 f03f c6e9 f4c0 9cf2 8dbe 83c2 b041
00000080: 0a5d cb3f bdc1 c1bf f89d 3bc0 b143 6e41
00000090: 515c 2640 5597 853f 40c8 8bc0 b481 bd3f
000000a0: 76a9 e4bd a58a b2c0 ef1e 01c2 6f28 d3c1
000000b0: b8c0 093f 895d 61c1 7c53 c241 d720 b1bf
000000c0: 376d 49c1 4535 8a41 3a7e 18c0 f671 ee3f
000000d0: 7ac7 1b41 13aa 7641 2eba 7341 f815 b340
000000e0: 2b99 e5be 4840 6c40 2e80 523f fc58 bdc0
000000f0: aa3e abc0 8651 0e40 a346 c241 a699 b13e
1.2328192 -1.4540842 -2.2627795 0.23199312 39.158882 -17.266605 1.0387673 22.150547
-20.906036 7.816537 20.323706 19.013302 -3.7152839 -4.706227 -2.126434 0.67855406
-33.718006 -4.2884245 -7.0358973 13.293095 -9.610396 -3.7239504 -2.5348012 -7.4661694
-23.235209 7.050372 -20.066654 1.1210186 1.8810165 -7.653537 -0.2772416 22.094976
1.5887768 -1.5137249 -2.9315166 14.891526 2.5993845 1.0436808 -4.3681946 1.4805207
-0.111651346 -5.5794244 -32.28021 -26.394743 0.5380969 -14.085336 24.290764 -1.3838147
-12.589164 17.27601 -2.3827043 1.8628528 9.7362 15.416522 15.232954 5.5964317
-0.4484342 3.6914234 0.82226837 -5.9171124 -5.3513994 2.2237258 24.28449 0.34687537

base_pointnet.bn_1.running_var f4 [64]
00000000: a365 4041 a3c3 0042 f2e9 bc40 0645 8e41
00000010: fc2b e743 cd9a 9f42 8e52 be40 8d54 0743
00000020: ebb0 ee42 d5d3 d142 62b1 e542 670d ce42
00000030: 049e 1542 cdd0 ba41 e57f 8a42 904b e641
00000040: 8e66 b343 93af 6c42 8f13 6f42 ca86 6042
00000050: 9b7e 4742 3d38 8d41 4a73 a742 fdb6 c042
00000060: b597 4443 658c a241 90fe 2443 93bd 0642
00000070: b625 7641 24cc 1843 d38f 573f c4ef 2b43
00000080: 87cf 5942 007e 3c42 c5a4 f041 bfd7 8042
00000090: 6a41 8b42 7227 b342 2866 9c41 efb5 a642
000000a0: cf48 b540 ff45 4841 2694 9343 4dc8 6f43
000000b0: 28e5 a73f 690f 0b43 a428 3a43 e141 cf3f
000000c0: 47d4 4b42 82d4 bc42 9ecd 3f42 7c74 2a41
000000d0: 6eb7 3242 b6c9 8742 c69e d642 b88d f741
000000e0: fb01 2242 50c0 8942 be86 d941 7cb0 ac41
000000f0: d0a6 8942 ec76 5e42 6c0b 3743 861f 5c42
12.024814 32.19105 5.903558 17.783703 462.34363 79.802345 5.9475775 135.33028
119.34554 104.913734 114.84645 103.02618 37.404312 23.351954 69.249794 28.786896
358.8012 59.17146 59.7691 56.13163 49.87364 17.65246 83.725174 96.3574
196.5926 20.318552 164.99438 33.68513 15.384207 152.79742 0.84203833 171.93658
54.452663 47.123047 30.080454 64.42138 69.62776 89.57704 19.549881 83.35534
5.665138 12.517089 295.1574 239.78242 1.3116808 139.0602 186.15875 1.619198
50.957302 94.415054 47.950798 10.653439 44.67913 67.89397 107.310104 30.944199
40.501934 68.87561 27.190792 21.586174 68.825806 55.616135 183.04462 55.030785

base_pointnet.bn_2.weight f4 [64]
00000000: 788f 2b40 1bc9 c93f dcc6 c93f 104e d23f
00000010: c50d c63f c249 0540 6d76 f53f eb3d bb3f
00000020: 309d c93f e471 d63f 3c8a bf3f 212d d03f
00000030: 0d40 de3f e46e c43f 19a7 d23f 3951 f33f
00000040: 2be9 a13f 435f c83f 2e78 f73f 856f d13f
00000050: e2fe c33f c3ce d63f 474a bf3f 9bcd d23f
00000060: 395f c83f 8e52 cf3f 2316 da3f cd69 c63f
00000070: e725 e73f 0c50 e13f 2ab2 ef3f 4a1f d23f
00000080: 6275 d43f 07ca c03f 051d a73f b7da d73f
00000090: 8cfd d73f 091d b03f 6122 ae3f 157e b43f
000000a0: 8f5d d63f 8d2b b93f e252 b03f 44b0 d03f
000000b0: 9f82 c33f 3805 bf3f 5f59 b53f a73a ca3f
000000c0: fd75 de3f ccc6 c23f 6956 cf3f d17f b23f
000000d0: d33a df3f f634 e33f a3c5 bd3f 7cf8 1940
000000e0: 9ac7 f13f 4efe c83f 65fa b33f 7db7 dc3f
000000f0: d0c7 ae3f bea6 c13f c9cf db3f af3d ce3f
2.6806316 1.5764498 1.5763812 1.6430073 1.5472952 2.0826268 1.9176766 1.4628271
1.5751095 1.6753507 1.4964061 1.6263772 1.7363297 1.5346341 1.6457244 1.9009162
1.2649282 1.5654072 1.9333551 1.6362158 1.5312159 1.6781849 1.4944543 1.6468996
1.565406 1.6197069 1.7038006 1.5501038 1.8058442 1.7602553 1.8726246 1.6415799
1.6598322 1.5061654 1.3055731 1.6863621 1.6874251 1.3758861 1.3604242 1.4100977
1.6747302 1.4466416 1.3775294 1.6303792 1.5274237 1.4923468 1.4167899 1.5799149
1.7379757 1.5216918 1.6198245 1.3945256 1.7439827 1.7750537 1.4825939 2.4057913
1.8889039 1.5702608 1.4060789 1.7243496 1.3654728 1.5129011 1.7172786 1.6112574

base_pointnet.bn_2.bias f4 [64]
00000000: e8b4 09be 18c5 3f3e ac67 4dbc 3476 b83d
00000010: fe53 a23d ae9a 983c e822 0e3c e7d6 78bd
00000020: 3cd2 0dbe 0e0e e73d 3646 cd3d f080 6a3e
00000030: 1cc4 9c3d 938a 8abc 9eba 9e3d 660c 6abd
00000040: daf5 2c3e 5f20 2ebd e14f a03d 870b c3bd
00000050: 375f 3a3e 2b56 dbbd 3366 653e 6177 053e
00000060: 7b40 b8bd 86c5 323e 7d2d 89bc 8485 9f3e
00000070: 610f 8bbd c0b5 9f3e 32d7 b8bc 07b8 253e
00000080: 1449 ab3d 628d 5dbc 6845 b43d ee39 ee3d
00000090: 1bac db3d c272 2a3d 2ec3 5c3e 6771 28be
000000a0: fdfd 7fbe 09b9 88bc 5307 513e 1607 5f3e
000000b0: bdc9 113e 094e a7bc bdcf 9b3c 0a5b 4e3d
000000c0: b954 983d fe9e 083e 0a8d b23e cdf6 433e
000000d0: 5619 c73d 3cb3 a8bc e2bf 5a3d 651e d4be
000000e0: 2d6c 353e 6637 3abd 3b28 453e ec08 19ba
000000f0: 6a9f e73d 9cb2 533d 1858 f0bd 6419 db3d
-0.13447917 0.18727529 -0.012536924 0.090069205 0.079261765 0.018628445 0.0086753145 -0.06075182
-0.1384973 0.112819776 0.10023157 0.22900748 0.076545924 -0.01691178 0.07750438 -0.05714073
0.1689066 -0.04251134 0.07827736 -0.09523683 0.18200384 -0.107097946 0.22402267 0.1303382
-0.08996674 0.17458162 -0.016745323 0.31156552 -0.06790043 0.31193352 -0.02256355 0.16183482
0.08363548 -0.013522478 0.08802301 0.11632143 0.10726186 0.041613348 0.2155883 -0.1644951
-0.24999233 -0.016689794 0.2041295 0.21780047 0.14237113 -0.020422952 0.019019956 0.05037979
0.074380346 0.133419 0.3487323 0.19137116 0.09721629 -0.020593278 0.05340565 -0.4142944
0.17717047 -0.04546299 0.19253628 -0.0005837816 0.11309703 0.051684007 -0.117355525 0.10698202

base_pointnet.bn_2.running_mean f4 [64]
00000000: 0d70 2bbe adc8 25be c414 ccbd e4b7 ffbd
00000010: 516e 91bd 84e8 353e 065d 00bd 3dec f6be
00000020: 6b40 563d d3c7 93be 8adc 53be 3684 08be
00000030: b248 d6be 3e38 ef3d 30d6 2c3e 573b 1bbe
00000040: ab02 e63c b506 2fbe a4f2 b0be 600d 603d
00000050: b916 44be 2913 483e d236 313e 1987 1fbe
00000060: 8db7 8c3b 007e bebd 4716 6f3c 54e2 d5be
00000070: 7d92 17be 311b 2bbf 23da 72be df4e b13c
00000080: 7652 1dbe ae8e acbd 13a7 9ebd 7071 29bc
00000090: 8595 18be fd28 0f3d 420a 4abd d568 0fbe
000000a0: 337d a13d 9f5d cdbd e7a4 90bd bf6d 35be
000000b0: b51f b83d eeef 07be 8730 8ebe b9be 15be
000000c0: 030b 91bd 1430 a0bd a983 c4be 02ad f13b
000000d0: f45a 9dbe 8684 b4be b552 0a3d 4963 47bd
000000e0: 22d6 26be 28fb 073d 822c 7abe 10e3 00be
000000f0: a838 dc3d ea3f 29be cf59 9fbd 76b5 613d
-0.16741963 -0.16189833 -0.09964898 -0.12486246 -0.07101119 0.17764479 -0.031338714 -0.4822711
0.052307528 -0.2886339 -0.20689598 -0.13331684 -0.41852337 0.11680649 0.16878581 -0.15159355
0.028077444 -0.17092402 -0.3456012 0.054700255 -0.19149293 0.19538559 0.17306069 -0.1557888
0.004294342 -0.09301376 0.014592714 -0.41774237 -0.14801975 -0.66838366 -0.23716025 0.021644054
-0.15363488 -0.084256515 -0.07746711 -0.010341987 -0.14900787 0.0349512 -0.04932619 -0.14004834
0.07885208 -0.100276224 -0.070627026 -0.17717646 0.08990423 -0.1327512 -0.27771398 -0.14623536
-0.070821784 -0.0782167 -0.383817 0.0073753605 -0.30733454 -0.35257357 0.03377028 -0.04867867
-0.16292623 0.033198506 -0.24431041 -0.12586617 0.10752994 -0.16528288 -0.077808015 0.055104695

base_pointnet.bn_2.running_var f4 [64]
00000000: db3d 973c e958 5a3d b70b df3c 6a70 c43c
00000010: 03ff 623d 2901 d03d b9c5 b73c 5b26 c53d
00000020: 17b7 643d acd8 ac3c 35b8 823d cd16 1b3d
00000030: a710 953c 7190 963d 3806 f43c 87dc 1a3c
00000040: 43a6 8a3d 9a17 353d 98eb 943c f25b b33c
00000050: 0d4a d33d f80a e83c e2fa 913d 6992 193d
00000060: bb4b e43c 5c33 6f3d 47b5 b43c dca8 203e
00000070: 8319 043d 236c 053e 2907 903c 697c 1b3d
00000080: 9906 583d 6d5e a43c 95e4 883c e0c5 0b3d
00000090: a885 4b3d 0ea9 503d e486 ae3d 9ec0 033d
000000a0: 2a7f 7f3c e2a3 b73c d9e4 733d 9f5b a73c
000000b0: bdee 2c3d 51c9 983c 2aa2 eb3c e559 7d3d
000000c0: 6310 3c3d 86ed 053d 117d f53d f35f ab3c
000000d0: 07fe b33c f748 e43c 8ff1 393d d9b5 0f3c
000000e0: 73db ea3d b868 e23c da00 ba3d 0bdb cc3c
000000f0: fc73 6f3d 98a3 bf3c 0349 563c 29f1 783d
0.018462112 0.053307448 0.027227266 0.023979384 0.05541898 0.10156471 0.022433149 0.09626456
0.05583867 0.021099411 0.06382791 0.03786354 0.018196417 0.07351769 0.029788122 0.009451992
0.06769993 0.04421196 0.018178746 0.021894429 0.103168584 0.028325543 0.0712793 0.037493143
0.027868142 0.05839859 0.022059096 0.15689415 0.032250892 0.13029532 0.01758154 0.037960444
0.052740667 0.020064557 0.016710559 0.034124255 0.04968801 0.050942473 0.08521822 0.032166116
0.015594283 0.022417013 0.059544418 0.02042943 0.042219866 0.018650683 0.02876385 0.06185331
0.045914065 0.032697223 0.11986745 0.020919776 0.021971716 0.027866824 0.045396384 0.008771383
0.11467638 0.027637824 0.09082194 0.025006792 0.05846022 0.023393437 0.013078931 0.060776863

fc_1.weight f4 [64, 66]
00000000: 73d7 73bd 7b66 b23d fecb 06bd fbc6 393d
00000010: 4b4f 94bd 178e db3d 1c88 02bd 6942 febc
00000020: 7652 963c 8da0 f13d 7b50 b0bd aa36 683c
00000030: 5d6b 893d 410e 98bd 04fe b2bd 3629 e5bd
00000040: 8587 973d d20c 173c d29f ed3d 10c3 f33d
00000050: e17a 7cbd 9a16 d5bd fe1c 9c3d 7c4d 02bc
00000060: b9da 1c3c 76cd d4bb b079 0b3d ff41 98bd
00000070: 5f6f b93c 57f7 7fbd 0f42 15bb c83a b43d
00000080: fb8f fb3d c33f e4bd 5903 debd 86f2 80bd
00000090: ae7d 5cbd ad0f d7bd 8767 b2bd 3eef 86bd
000000a0: a79e 1ebb ef00 6cbd 17a8 743d 8487 2f3d
000000b0: c847 7f3d 8b0e 5bbd 0063 cbbd ffd5 bdbd
000000c0: 4b6e 3abd b15c abbd c395 a83d 93b9 d83d
000000d0: a554 19bb f3fd 49bd ce64 833d fd1d b53d
000000e0: cde1 183d 52b2 d3bc 2a2e 7a3c 59f6 ebbd
000000f0: c91b 8939 3ab6 8bbd 6cb9 04bd 3b96 a4bd
00000100: f5a8 a3bd 732a e33c e32f a8bc b41a febd
00000110: 4f8d ab3e cd45 3e3e 42e9 bb3e 30f3 5a3e
00000120: c0b1 3a3e b611 debd 9fda 693c b7d7 3f3e
00000130: 387d 4f3e 2be4 ff3e ada9 d83c beaf 9c3e
00000140: 57d4 083f 8e2e 373d 2868 e0bd 7e55 fc3e
00000150: e1bb f93d 3054 5d3d 1700 cc3e 9624 a93d
00000160: c91d 183e b8b1 cc3d a49c 6f3e 07c2 523e
00000170: e2d2 8d3d 1369 353e 5203 c83d d5b2 9b3e
00000180: f448 2a3f 1f4c 8a3e e1d5 d03e ff44 01bc
00000190: 567d 90bc 6794 223e 669e a93e 06e1 813e
000001a0: b861 8f3e 831f aa3d 6607 313e d9fc 403e
000001b0: ac0c 233e 7d1e ce3d 19ae 6d3e d220 403d
000001c0: d897 3e3d 70c3 09bd 717e 113e 8565 223e
000001d0: a08e 32bd c22e 1c3d 6a91 dd3d 48eb d93d
000001e0: fc7f 793d 8132 203f 6a58 b2bd 4482 0d3f
000001f0: 3c4a 863d 6e1d fbbd 4af7 9dbc 1f16 573e
00000200: 15ae b43d 3734 543e 4ead 04bd d346 503d
00000210: 5fd2 e5bd 88d9 293d c15e 7a3d 10ed 9aba
00000220: 6e03 f3bd b0f2 cbbd ade1 cd3d c144 b5bd
00000230: 0589 ef3d bcd5 a03d 705b d83d c258 c2bd
00000240: 3776 a2bd e152 a63d 7412 d6bd d92f 0bbc
00000250: e700 d03d ce95 1f3d 2538 a5bd 97ac 643c
00000260: 64bc a0bd c4e4 c1bd a10b cc3c 4432 a83c
00000270: 0bd9 41bd 04d5 f7bc cb0e 733d 89b1 b13c
00000280: 81d6 9cbd a382 b6bc ee59 063d a786 15bd
00000290: b673 89bd 6480 313d f288 b6bc 510a 8e3d
000002a0: a499 173d b1cd 183d 6f76 96bd cddb b63d
000002b0: a1ff 27bd 1597 7bbd 2cfa d83d 2033 2cbc
000002c0: 5e4d 78bd e7f7 9a3d 207f 603d bc49 003c
000002d0: 4060 a5bd bfc0 5f3c 599f 833d 59f4 eebc
000002e0: 46bd 343d a3d2 973d 7bcb ef3d 9978 e1bd
000002f0: a981 45bd c227 b03d 953e d9bc 9a7a d0bd
00000300: 5119 d3bd abce d8bd 56e5 e13c e59b 00bd
00000310: 460d 9a3d ab77 523d 2514 20bd 9dff 9a3c
00000320: 5847 a0bd ec3d cb3d 705f 07be 67fb 20bd
00000330: 7cc0 3a3d 4177 de3d 5322 1bbd 8000 0a3c
00000340: 5342 d8bd 7f12 853c ce31 b03d cfa2 71bd
00000350: 379b 713d 010f a93d 13f0 50bd d426 133d
00000360: 7850 87bd c0fb b9bd 1657 f03c a54c 9b3d
00000370: 9cf4 983c 5ddf 443c aec8 68bd 27b3 353d
00000380: 8346 cc3d aa9f be3d 8553 863a b9ed 3b3c
00000390: d3e5 83bc 5763 fbbd 6667 f1bd ad16 b83d
000003a0: 2bb7 cf3d 8763 6a3c 878a f9ba cb3a 763c
000003b0: 1aab 433d 1c15 53bd 620b b73d 1e4c 7d3d
000003c0: 952c f4bd 188f 3c3c 10fa 8fbd f6f6 02be
000003d0: e999 183d f5b9 e8bd 409a 81bd 8805 0c3d
000003e0: e3bc edbc a0a2 c8bc 8023 e8bd 175e e7bd
000003f0: 0842 953d b27e ad3d bcbd 483d 4415 04be
-0.05953164 0.08710953 -0.032909386 0.04535578 -0.072416864 0.10720461 -0.031868085 -0.031037526
0.018349867 0.11798201 -0.086091004 0.014173189 0.06709931 -0.07424594 -0.08739856 -0.11189501
0.07398895 0.009219365 0.11602749 0.119024396 -0.061640624 -0.104047015 0.07622717 -0.007953044
0.009573632 -0.0064942194 0.034051597 -0.07434463 0.022636114 -0.06249174 -0.002277497 0.08800274
0.122833215 -0.11144974 -0.10840482 -0.06296258 -0.053830795 -0.10501037 -0.087111525 -0.065886006
-0.002420345 -0.057618078 0.059730615 0.042853847 0.062324315 -0.053480666 -0.09930992 -0.09269332
-0.04551534 -0.08367289 0.0823169 0.105822705 -0.00233964 -0.04931445 0.06415711 0.088436104
0.037324715 -0.025841866 0.015269795 -0.115215965 0.00026151378 -0.06821866 -0.032403395 -0.08036467
-0.0799121 0.027730202 -0.020530647 -0.12407437 0.33506247 0.18581314 0.367014 0.21381831
0.18231869 -0.10843222 0.014273315 0.18734632 0.20262611 0.49978766 0.026448095 0.3060283
0.53449005 0.044722132 -0.10957366 0.49283975 0.12194038 0.054035366 0.3984382 0.08258931
0.14855112 0.09994835 0.23399597 0.20581828 0.06924988 0.17715864 0.09766258 0.30409876
0.6651757 0.270112 0.40788177 -0.007889985 -0.01763789 0.15876924 0.3312866 0.25366992
0.2800424 0.08306792 0.17287979 0.18846454 0.15922803 0.10064409 0.23210944 0.0469063
0.04653153 -0.03363365 0.1420839 0.15859039 -0.04359305 0.03813053 0.10818751 0.106405795
0.06091307 0.6257706 -0.0870827 0.55276895 0.06557128 -0.12261473 -0.019282956 0.21004532
0.08822266 0.20723043 -0.03239184 0.050848793 -0.11221766 0.04146722 0.06112552 -0.0011819918
-0.118658885 -0.09958398 0.1005281 -0.088510044 0.11696056 0.078532666 0.10564315 -0.094895855
-0.07932704 0.08121277 -0.104527384 -0.0084952945 0.10156422 0.038961224 -0.08067349 0.013957164
-0.07848433 -0.09467462 0.024907889 0.020531781 -0.04732613 -0.030252941 0.05934028 0.0216911
-0.07658101 -0.02227909 0.032800607 -0.036505368 -0.06711523 0.043335333 -0.022282097 0.069355614
0.037011757 0.037305538 -0.07346808 0.089286424 -0.04101527 -0.06142338 0.105945915 -0.010510236
-0.060620658 0.07566815 0.054808736 0.00783008 -0.08074999 0.013656794 0.064268775 -0.029169248
0.044125818 0.07413223 0.11708733 -0.1100933 -0.048219357 0.08601333 -0.0265191 -0.101796344
-0.10307563 -0.10586294 0.027575176 -0.031398673 0.07522063 0.051383656 -0.03908171 0.018920714
-0.07826108 0.0992392 -0.1322 -0.039302256 0.045593724 0.1086259 -0.03787453 0.008422971
-0.10559525 0.016244171 0.086032495 -0.058993157 0.058985915 0.08254815 -0.051010203 0.0359257
-0.06607145 -0.090812206 0.0293384 0.07582978 0.018671326 0.012016145 -0.056832008 0.044360306
0.099743865 0.09307797 0.001024828 0.011470252 -0.0161008 -0.12274807 -0.117873 0.089887
0.101423584 0.014305956 -0.0019038477 0.015028666 0.047770597 -0.051533803 0.08937718 0.06184017
-0.11922566 0.011508726 -0.070301175 -0.1278952 0.037256155 -0.113635935 -0.06328249 0.034184963
-0.029020732 -0.024491608 -0.11334896 -0.11297243 0.07287985 0.08471431 0.04900907 -0.12898737

fc_1.bias f4 [64]
00000000: ef84 6c3d c311 2e3e 27d2 16bd 9bdd b7bd
00000010: 9a0e f13d 8ce6 78bc f4a4 993e 55af b43d
00000020: 0048 2ebd b22d 37be 7cb9 f83d 2dce 19bc
00000030: 43ad 29bc 5d39 13bc 8217 8f3e bc4d 003e
00000040: c0aa 86bd 81e9 113e d5e4 c93d 5642 a3bd
00000050: d203 f43a 1a57 e0bc 82c1 903d 1da6 41bc
00000060: 8a5b cd3d 459d 98bd 6b03 12be fce2 04be
00000070: 937f 723e f63b e3bc d4ac a0bd 5239 883d
00000080: 60a3 88be 96d9 d6bc 596f cbbd 9fa0 f93d
00000090: 7c63 62be 20b5 b9bd 8b36 393d 72b3 133e
000000a0: be42 273e 6c52 fabd 4851 993d 9c6e f7bd
000000b0: d098 803c 88ed bebc 194a b03d 9340 163e
000000c0: 513e 55bd c81b 0d3d ed0b 303e 7fa0 a53d
000000d0: a94e fc3d 4080 9b3d bd6f 923d bcfc c63d
000000e0: 344f eebd 2bc6 3c3e 608d 3f3e bb02 e1bd
000000f0: e1c8 fdbd a1d8 cabc d296 963e 152f ba3c
0.057743963 0.16998963 -0.03682151 -0.08977815 0.11770363 -0.015191685 0.30008662 0.088225044
-0.042549133 -0.17888525 0.12144753 -0.009387535 -0.01035625 -0.008985844 0.27947623 0.12529653
-0.06575537 0.14249231 0.09858099 -0.07971637 0.0018616861 -0.027385283 0.07068159 -0.01181939
0.10027225 -0.07451872 -0.14259116 -0.12977213 0.23681478 -0.027738553 -0.07845464 0.06651558
-0.26687145 -0.0262268 -0.09933347 0.12188839 -0.22108263 -0.0906775 0.04521803 0.14423922
0.16334054 -0.12222752 0.07486206 -0.12081644 0.015697867 -0.023306623 0.08607883 0.1467307
-0.052061383 0.034450322 0.1719205 0.08087253 0.12319691 0.07592821 0.07150219 0.09716174
-0.116362005 0.1843497 0.18706274 -0.10986849 -0.1239183 -0.0247615 0.29411942 0.022727529

fc_2.weight f4 [4, 64]
00000000: 00af 943b da13 c2be c445 833d cdcd 973c
00000010: 52f2 893f f913 1abd e192 0a40 9d41 c9bd
00000020: 5d18 d5bd 34d7 84be 9926 2ebd 6b95 5cbd
00000030: 1831 89bd 5807 603f ff9d b23f 3ab8 dc3f
00000040: 0ff4 2e3f 2053 5cbe f4c8 fdbb e653 5bbd
00000050: b777 483e aef5 1d3e 478e ec3e 0215 8cbf
00000060: e393 283f c302 92bf 9366 3f3f 376e 823d
00000070: 7563 a3be 1833 ca3d 305e 4d3c aa29 febd
00000080: 73fe 45be a225 94bd 7430 873c 6074 283f
00000090: f9c0 d0bf fc9f a8bd b9e4 223f 754f 45be
000000a0: 27c9 e5bd 7c1c 91bd 049e 4f3d 2841 33bd
000000b0: ffea e5bb 6d58 f3bc d053 553f 7623 28bd
000000c0: 3397 6ebd 30da c0bc 0e89 fb3f 9362 e23f
000000d0: d839 863f 06b6 883e df3d 003f 8847 bf3d
000000e0: d684 083f 3117 86c0 b6a6 9fbe d840 ffbd
000000f0: 932a 023e d321 ddbe 9ee3 efbe 060f ea3f
00000100: 6012 fc3c c7c4 253e 9cb0 d1bd fac0 a5bd
00000110: b0fb 433f f086 8c3d c06b 78be 4621 803d
00000120: 4c32 543e 1cb8 21be 75de 2b3d 7ef1 6a3c
00000130: 10d6 4fbd 1370 8ac0 3a76 b4bf 713c 82c0
00000140: b8d4 c6bf ac48 c3be c550 ca39 43e2 d0bd
00000150: 2633 20be e636 d9bc b179 b83d b148 00bf
00000160: 0ff3 04c0 3f6b 453f fd89 2a40 c567 b93d
00000170: 872a a73d 94a4 8cbf f81b f93c 0a0b eabd
00000180: a9a8 a6bc 8a4a edbd fd39 533e 2047 26bf
00000190: 69f0 f63e 904b 6d3c 2b77 0ec0 9771 08be
000001a0: b072 543e bc88 ce3d 504f 8ebc 0078 c0bc
000001b0: 4a3f 9bbc 5d94 003d 8f55 c03f 392a 7f3c
000001c0: b2e7 64bc 7ec2 a6bd 956d 5ac0 6aa2 c2bf
000001d0: a075 323f a039 3b3e 33fa e1bf b208 c53d
000001e0: f1f1 9fbd 59c2 c13f 82c3 b73f 3028 8fbc
000001f0: d2fc 9fbe 42b1 613d 3b1b e23f c793 14bf
00000200: 4092 2c3b 6174 f23c b817 273d 0888 6f3d
00000210: f2eb 7bc0 4bf5 c13d 7ada f5bf fecc a2bd
00000220: d5b0 913d 16e6 71bf 9369 a53d 60f1 0bbd
00000230: 4c2d a8bd 2f1a 2640 9cd0 e83f e1aa b63f
00000240: f989 153f 9e78 183e 7934 c53d 4492 f4bc
00000250: 9864 39bc 6ae1 6fbe 99b4 06be bd0e 303f
00000260: 9bd4 4340 13ab 1540 8a9f 3fc0 5773 acbd
00000270: 4edd 083e 7237 123e dcf6 3e3d b831 983d
00000280: 8198 6b3f 40d0 b23c 71bc d1be c72d f83f
00000290: 73e6 953e e0fe e1bb ba87 de3e 02b2 213e
000002a0: a186 b53d e0b8 c33d 0c8a 213d 7e93 d0bd
000002b0: abfe b63c aa9c a23d 3ada 063f acae 003e
000002c0: 6e21 0fbe e216 a43d ca72 9cbf a8f7 a7bd
000002d0: d3f7 e23e 5f84 123d f741 223e f212 c8bd
000002e0: cbc2 94be 2823 8b3f 2549 29c0 fc06 73bd
000002f0: 3a2c 26be 8ee0 fcbd 82a0 a5c0 255b 31bf
00000300: 082e 9c3c 69f2 66bd 1644 dbbd a572 b3bd
00000310: 958e 5fbf 95e4 3e3d d0b9 62c0 7ddb 513d
00000320: 2b51 1fbe bd6d d73f a2b7 92bc a679 b73c
00000330: 3847 fa3d 95e9 273f 463e 11c0 27de 983e
00000340: c432 8b3e 0390 a93e af9b 423d 7022 483e
00000350: 856a fd3d a7f0 ad3c 57dd 13be ffe5 1d3f
00000360: d01f 343f cc86 a0bf 9c90 d23f 3872 213b
00000370: fd06 393d 73ce f83e 90de 31bc 746e a03d
00000380: 1450 61bf d85d 45bd 4dbe 323e dfa2 04c0
00000390: ac58 503f c031 74bb 8b73 0e3f 0b10 9dbc
000003a0: 6fc6 d4bd 28ec c23c 46be d9bd 008c b83c
000003b0: fca3 9e3d 8e96 cfbb ba6e b4bf 211d 303d
000003c0: d246 993c d826 963d 656c 1240 a973 8d3e
000003d0: c8df bbbf e212 80be 93fc e93e d084 8cbd
000003e0: d2ce 67bc 5122 ec3f c57f fb3f 84dc 893d
000003f0: 5dce 0f3e 3c8b 933e ca5b cf3f f842 2abf
0.004537463 -0.3790577 0.06409791 0.01853075 1.0777075 -0.037616704 2.1652148 -0.09826968
-0.104050376 -0.25945437 -0.04251728 -0.053853434 -0.06698817 0.87511206 1.3954467 1.7243721
0.68341154 -0.21516085 -0.0077449027 -0.05354681 0.19576918 0.1542575 0.462023 -1.0943911
0.6585066 -1.1407093 0.7476589 0.06368678 -0.31911817 0.098730266 0.012534663 -0.124102905
-0.19335346 -0.072337404 0.016502596 0.65802574 -1.630889 -0.082336396 0.63630253 -0.19268592
-0.112200074 -0.07085511 0.050687805 -0.04376331 -0.007016539 -0.02970525 0.8333101 -0.041049443
-0.058249664 -0.02354154 1.9651201 1.7686332 1.0486403 0.26701373 0.5009441 0.093398154
0.5332769 -4.190331 -0.31181878 -0.1246354 0.12711553 -0.43189868 -0.46853346 1.8285835
0.03077048 0.16188346 -0.10238764 -0.08093448 0.7655592 0.06861675 -0.24259853 0.062563464
0.20722312 -0.15792888 0.0419602 0.014339803 -0.050741255 -4.326181 -1.409858 -4.069878
-1.5533667 -0.38141382 0.0003858862 -0.10199406 -0.15644512 -0.026515435 0.09007586 -0.5011092
-2.0773351 0.7711677 2.6646721 0.090529956 0.08162408 -1.0987725 0.030408844 -0.11427887
-0.020344095 -0.11586483 0.2062759 -0.6495228 0.48230293 0.014483348 -2.2260234 -0.13324581
0.20746875 0.10084674 -0.017371804 -0.02349472 -0.018951077 0.03139149 1.502611 0.0155740315
-0.013971256 -0.08142565 -3.4129384 -1.5205815 0.6971073 0.18283701 -1.765448 0.09620799
-0.078098185 1.5137435 1.4356539 -0.017475218 -0.31247574 0.055100687 1.766456 -0.5803799
0.002633229 0.02959651 0.040794104 0.05847934 -3.936276 0.09470614 -1.9207299 -0.079492554
0.07113806 -0.9449171 0.08076777 -0.03416574 -0.08211765 2.5953481 1.8188663 1.4270898
0.58413655 0.14889762 0.09629149 -0.029854901 -0.011315487 -0.23425832 -0.1315483 0.6877249
3.0598514 2.3385665 -2.9941125 -0.08420437 0.13365671 0.14278963 0.046622142 0.07431358
0.9202958 0.021827817 -0.40964082 1.938897 0.2927738 -0.0068968385 0.43462926 0.15790561
0.08863569 0.095567465 0.039438292 -0.10184382 0.022338232 0.079400375 0.5267674 0.12566632
-0.13977596 0.08012177 -1.2222531 -0.082015336 0.443297 0.03577077 0.15845476 -0.097692385
-0.29054865 1.0870104 -2.6450894 -0.059332833 -0.16227809 -0.12347518 -5.1758432 -0.692797
0.019064918 -0.056383524 -0.10706346 -0.08762101 -0.8732694 0.04660471 -3.542591 0.05123471
-0.15558307 1.6830364 -0.017909829 0.022396874 0.12220615 0.6559079 -2.2694259 0.2985699
0.2718717 0.33117685 0.047511753 0.19544387 0.123738326 0.021232916 -0.14439903 0.6167907
0.7036104 -1.2541137 1.6450381 0.002463473 0.04517268 0.48595008 -0.010856286 0.07833567
-0.88012815 -0.0481852 0.17455406 -2.0724409 0.813853 -0.0037261099 0.55645055 -0.019172689
-0.10389411 0.023794249 -0.10631995 0.022527695 0.07746121 -0.006335086 -1.4096291 0.04299653
0.018710528 0.073316276 2.2878659 0.27627304 -1.4677668 -0.25014406 0.4570051 -0.068612695
-0.014148431 1.8447973 1.9648367 0.06731513 0.14043565 0.28817165 1.6199887 -0.66508436

fc_2.bias f4 [4]
00000000: 2907 c9bd 7c61 603c 5ed9 25bd d363 d43c
-0.09815819 0.013695117 -0.0404905 0.025926506
