Mindset augmented trained networks (pth)/segmentation_pointnet_DSF1cm.pth (torch, 78930 bytes, 18 tensors)

base_pointnet.conv_1_a.weight f4 [64, 1, 3]
-0.34831834 0.5978754 -0.3606021 -0.2375901 -0.27905548 0.37989166 -0.11056762 -0.1651017
0.3171153 -0.45517614 -0.3185687 0.14509021 -0.31555226 0.57733244 -0.41023245 0.076872155
-0.2092541 -0.09928926 -0.20535627 0.4407414 -0.2404204 0.065894276 -0.006335224 0.10525235
-0.02909776 0.14453715 -0.21522436 0.0032062887 0.08819692 -0.11840183 -0.20824914 -0.40034324
0.56560576 -0.2956167 0.5672564 -0.2923762 0.32025635 -0.2263574 -0.24438158 0.07685766
-0.2748606 0.33782426 -0.3158923 0.28559458 -4.363778e-05 0.20674236 0.12834981 -0.0763113
-0.17070118 0.44724187 -0.5086411 -0.20335835 0.17170334 -0.3268041 0.11892303 -0.12453422
-0.1991845 0.36624354 -0.040949397 0.49021944 -0.17152907 -0.0453415 -0.4729786 -0.018798098
-0.007842822 0.02416069 -0.5212779 0.26652262 0.26509956 0.04529179 -0.27931112 0.24049485
-0.3184967 -0.19520104 0.49286324 0.0138802705 0.10293462 0.44028127 -0.43672282 -0.0967077
0.18565156 0.09270728 -0.32146972 0.11431311 -0.29829463 0.44220027 -0.2087405 -0.18530342
-0.18528552 0.41506386 0.09320151 0.11995615 0.5315218 -0.08965404 0.20848209 0.20112921
0.06827172 0.2409294 -0.24669842 -0.083684385 -0.20508058 -0.3993118 -0.30860186 -0.43978393
0.4463775 -0.29688612 -0.23578545 0.5254288 0.020998947 0.01728321 -0.05999852 -0.2383424
0.114407964 0.080854565 -0.08918921 0.043408174 0.049402475 0.2270856 -0.29211956 0.013935298
0.5838739 -0.11329687 -0.34392545 -0.47220844 0.10869693 0.53323114 0.37043914 0.08028298
-0.48210743 -0.5417381 -0.06169863 -0.34403667 0.030089457 0.7204888 0.27325976 -0.11470978
-0.40690047 -0.24135669 0.4202714 -0.39550135 -0.45660397 -0.0792295 -0.09949022 0.04459252
0.16900314 0.4491854 -0.35842746 -0.11212674 -0.30116686 0.12129615 -0.12054354 -0.063386366
0.21313883 -0.32867444 0.33333147 -0.008219385 0.2147191 -0.34384352 0.4307349 -0.17258932
-0.107773505 0.30067858 -0.11175352 0.07822211 -0.011960461 0.2691475 -0.06765487 0.40522516
0.4202401 -0.56687987 -0.28250873 0.42320544 -0.34332088 -0.3201561 0.5527601 0.095158145
0.5043443 -0.3171772 -0.15831593 0.38519573 0.17728807 -0.16239417 -0.11978352 -0.10493026
-0.2531506 0.0046659666 0.024564037 -0.3707242 0.21558791 -0.105645545 -0.41735104 0.4903452
00000000: c856 b2be 5d0e 193f d7a0 b8be d24a 73be
00000010: 5ce0 8ebe 2981 c23e 4771 e2bd 6c10 29be
00000020: f05c a23e d90c e9be 701b a3be 8792 143e
00000030: 1190 a1be 0fcc 133f fd09 d2be 266f 9d3d
00000040: b546 56be 2b58 cbbd ea48 52be dba8 e13e
00000050: c430 76be 94f3 863d b697 cfbb 8b8e d73d
00000060: 6d5e eebc 8c01 143e c663 5cbe 9920 523b
00000070: 96a0 b43d a97c f2bd 433f 55be caf9 ccbe
00000080: 8acb 103f 125b 97be b737 113f 55b2 95be
00000090: a4f8 a33e 3cca 67be 2a3f 7abe 8d67 9d3d
000000a0: 87ba 8cbe 4df7 ac3e a3bc a1be 7439 923e
000000b0: b607 37b8 45b4 533e 226e 033e 1949 9cbd
000000c0: 4acc 2ebe e3fc e43e 4e36 02bf 2c3d 50be
000000d0: 00d3 2f3e de52 a7be eb8d f33d cc0b ffbd
000000e0: 06f7 4bbe 4684 bb3e 8eba 27bd 0bfe fa3e
000000f0: 51a5 2fbe 02b8 39bd 402a f2be 78fe 99bc
00000100: 2e7f 00bc a4ec c53c 7872 05bf a775 883e
00000110: 21bb 873e e283 393d de01 8fbe 4844 763e
00000120: 0012 a3be c8e2 47be 9258 fc3e 136a 633c
00000130: 63cf d23d 8c6c e13e 229a dfbe b00e c6bd
00000140: 711b 3e3e 50dd bd3d ae97 a4be fe1c ea3d
00000150: 13ba 98be 1368 e23e 12c0 55be 2ec0 3dbe
00000160: 7dbb 3dbe 4083 d43e 6fe0 be3d 92ab f53d
00000170: d011 083f 8a9c b7bd 547c 553e d1f4 4d3e
00000180: 0bd2 8b3d 32b6 763e 839e 7cbe b862 abbd
00000190: a500 52be 9972 ccbe 1001 9ebe 5c2b e1be
000001a0: 978b e43e 7501 98be be71 71be 8082 063f
000001b0: fc05 ac3c 8595 8d3c 02c1 75bd 0810 74be
000001c0: b94e ea3d 1497 a53d d5a8 b6bd c5cc 313d
000001d0: 405a 4a3d 2189 683e b290 95be e050 643c
000001e0: c378 153f 3008 e8bd ff16 b0be 4ec5 f1be
000001f0: 7f9c de3d d681 083f 33aa bd3e 676b a43d
00000200: c9d6 f6be 59af 0abf b4b7 7cbd 9325 b0be
00000210: 2a7e f63c f471 383f b4e8 8b3e f6ec eabd
00000220: 4255 d0be 3526 77be d02d d73e 277f cabe
00000230: ffc7 e9be 1343 a2bd 87c1 cbbd a5a6 363d
00000240: 290f 2d3e a1fb e53e ce83 b7be b4a2 e5bd
00000250: 8b32 9abe 1e6a f83d 88df f6bd b6d0 81bd
00000260: 1141 5a3e 0448 a8be 6caa aa3e 99aa 06bc
00000270: 53df 5b3e 420c b0be 4989 dc3e 41bb 30be
00000280: 5bb8 dcbd 8bf2 993e 08df e4bd ea32 a03d
00000290: cff5 43bc b3cd 893e a38e 8abd ac79 cf3e
000002a0: b629 d73e 0a1f 11bf fca4 90be 62ae d83e
000002b0: c1c7 afbe 80eb a3be b081 0d3f 46e2 c23d
000002c0: b51c 013f 0d65 a2be 921d 22be 6038 c53e
000002d0: 018b 353e a84a 26be 1051 f5bd ade5 d6bd
000002e0: f59c 81be f7e4 983b 853a c93c 90cf bdbe
000002f0: 14c3 5c3e b15c d8bd 09af d5be 870e fb3e

base_pointnet.conv_1_a.bias f4 [64]
-0.084612675 0.09559624 0.3965944 0.27228802 -0.0835705 -0.35373235 0.073692344 -0.47006196
-0.50384086 -0.008168814 -0.117955476 -0.53182393 -0.10774571 0.47080615 -0.004939896 -0.3919442
-0.32460305 -0.3607282 -0.5107871 0.017755304 -0.19997397 0.022846464 -0.26467356 0.18620074
-0.30487877 -0.4884814 -0.042823605 0.11677517 0.37549454 0.14296913 -0.2788921 -0.36567006
0.2984313 0.12599805 -0.49732685 -0.078947514 -0.47315866 0.5280731 0.17035608 0.16924095
-0.5568241 0.35527882 0.3621887 0.0029674175 0.4873515 -0.26951385 -0.31775787 0.4728817
0.29986417 -0.25619975 0.51300496 -0.3300689 0.053908326 -0.55601263 -0.34580407 0.23332874
-0.10708779 0.20122884 -0.055020466 -0.30860996 -0.2850874 0.067622736 -0.08575247 -0.5530602
00000000: 6949 adbd f6c7 c33d 6c0e cb3e 5669 8b3e
00000010: 0327 abbd 681c b5be 03ec 963d f6ab f0be
00000020: b7fb 00bf 7dd6 05bc a492 f1bd 9d25 08bf
00000030: c8a9 dcbd 810d f13e dade a1bb e9ac c8be
00000040: 5f32 a6be 5eb1 b8be f2c2 02bf 9273 913c
00000050: fac5 4cbe 8228 bb3c 4b83 87be 68ab 3e3e
00000060: 1219 9cbe 3c1a fabe ce67 2fbd d227 ef3d
00000070: d240 c03e 8066 123e f2ca 8ebe 1b39 bbbe
00000080: fdcb 983e a205 013e a0a1 febe 3caf a1bd
00000090: da41 f2be cc2f 073f d371 2e3e 804d 2d3e
000000a0: 068c 0ebf 1be7 b53e cc70 b93e 0179 423b
000000b0: 2386 f93e b8fd 89be 29b1 a2be 8d1d f23e
000000c0: cc87 993e 9d2c 83be 4b54 033f cafe a8be
000000d0: face 5c3d d856 0ebf 3b0d b1be bbed 6e3e
000000e0: d850 dbbd ef0e 4e3e 245d 61bd 2002 9ebe
000000f0: faf6 91be ca7d 8a3d fe9e afbd 5a95 0dbf

base_pointnet.conv_1_b.weight f4 [64, 1, 3]
-0.9573676 -0.7229837 0.78106415 0.60642344 0.30910394 0.19434483 -0.26256844 -0.29973608
0.31792742 0.2987969 0.44697952 -0.28809243 -0.679282 0.7744847 -0.53305316 0.6603137
0.31733397 -0.10232662 -0.14930654 0.7953437 -0.59982175 -0.53826183 0.2588412 0.8049824
0.34595206 -0.4975024 0.2797474 -0.3524566 0.2788699 0.34108454 -0.13769494 -0.5304736
-0.6482294 -0.6422869 0.17634934 -0.8103671 -0.3759526 -0.80114967 -0.6291849 -0.7083618
-0.6101836 -0.40923682 -0.298384 0.48154935 -0.23198636 -0.093433544 0.7421037 0.6163308
-0.18559183 0.25092152 -0.21882814 0.5149901 -0.20518327 0.62875617 -0.22126582 0.64183974
0.774289 -0.5372134 0.14156906 0.16853331 0.29190543 0.30954713 -0.5202302 0.50580966
-0.12293247 -0.5590111 0.38556924 -0.036845133 0.56777096 0.35062656 0.4886244 -0.6016683
0.29992148 0.28396827 -0.5612717 -0.14444633 0.105079316 -0.30179146 -1.0432967 -0.5176394
-0.5470657 0.76807237 0.48899785 -0.07118652 -0.4657224 0.24475949 0.8641848 0.39402673
-0.28070882 -0.8131239 0.50879794 -0.48788792 0.39484176 -0.6771365 -0.5866934 -0.2958371
0.4078949 -0.7315945 0.82180244 0.15307981 -0.40074834 0.20601048 0.04258035 0.07764091
0.2614161 -0.32044178 -0.3904871 0.078303374 -0.9482404 -0.080872476 0.02534242 -0.13043158
-0.34785417 0.97328305 -0.2649972 -0.22456123 -0.5331424 0.19579464 0.028852219 0.81795025
-0.42395195 -0.06928983 -0.50086546 -0.43866366 0.583364 -0.14161657 1.0500206 0.52488375
-0.26367953 0.1611524 -0.517593 0.41006863 0.013440336 -0.19244081 -0.21439385 0.39251313
0.43479484 0.4629899 -0.07454209 0.42661443 0.36684483 -0.05939381 1.1306806 -0.11126643
-0.93035364 0.47891486 0.18098475 0.38888118 0.5410663 -0.21846472 -0.29163226 -0.09537382
-0.4435662 0.38835883 0.009680117 0.23146133 0.12090192 0.28540373 -0.6410098 -0.14553551
-0.2556229 -0.59765816 0.07656324 0.51360893 0.31867695 -0.08936885 0.9684294 1.1828966
0.48574123 0.39347333 -0.47406825 0.25359786 -0.13278079 0.66460335 0.6872327 -0.27897727
0.74667823 0.07435981 -0.40194967 -0.036550745 0.53788733 -0.10859804 -0.9165121 0.03850935
-0.6832547 -0.3871447 0.45569322 -0.5381463 -0.11824782 0.4468895 -0.42491987 -0.5229889
00000000: 0b16 75bf 7615 39bf d2f3 473f 913e 1b3f
00000010: df42 9e3e 5502 473e 5f6f 86be 0277 99be
00000020: 62c7 a23e e8fb 983e 80da e43e da80 93be
00000030: 6de5 2dbf a144 463f 2c76 08bf 520a 293f
00000040: 9979 a23e 9e90 d1bd d0e3 18be a59b 4b3f
00000050: eb8d 19bf 87cb 09bf d586 843e 5413 4e3f
00000060: a120 b13e a2b8 febe 0d3b 8f3e 3175 b4be
00000070: 09c8 8e3e a2a2 ae3e e7ff 0cbe 1ecd 07bf
00000080: 5df2 25bf ea6c 24bf ec94 343e 3874 4fbf
00000090: dc7c c0be 2518 4dbf 4312 21bf 3357 35bf
000000a0: fe34 1cbf 7d87 d1be cac5 98be a38d f63e
000000b0: d58d 6dbe 165a bfbd 82fa 3d3f dbc7 1d3f
000000c0: c90b 3ebe c978 803e 7c14 60be 64d6 033f
000000d0: 901b 52be 2af6 203f 8293 62be 9c4f 243f
000000e0: ce37 463f d186 09bf 7bf7 103e ff93 2c3e
000000f0: a174 953e f67c 9e3e ce2d 05bf be7c 013f
00000100: 05c4 fbbd 5a1b 0fbf 5569 c53e ecea 16bd
00000110: 7059 113f 5385 b33e fa2c fa3e ef06 1abf
00000120: 4f8f 993e 4a64 913e 81af 0fbf bde9 13be
00000130: d333 d73d 6984 9abe bf8a 85bf 0484 04bf
00000140: 7f0c 0cbf 64a0 443f ed5d fa3e 3dca 91bd
00000150: 2b73 eebe 3ba2 7a3e 373b 5d3f dfbd c93e
00000160: 11b9 8fbe e328 50bf 9540 023f 72cc f9be
00000170: b328 ca3e d158 2dbf 8a31 16bf f677 97be
00000180: 9ad7 d03e c749 3bbf a561 523f f4c0 1c3e
00000190: e32e cdbe 69f4 523e bc68 2e3d 3302 9f3d
000001a0: 55d8 853e f210 a4be eded c7be 855d a03d
000001b0: e2bf 72bf 78a0 a5bd e89a cf3c db8f 05be
000001c0: f119 b2be 1429 793f b7ad 87be 61f3 65be
000001d0: 057c 08bf 647e 483e 7d5b ec3c 3065 513f
000001e0: 3b10 d9be d4e7 8dbd b838 00bf 8698 e0be
000001f0: 5857 153f ef03 11be 1367 863f c85e 063f
00000200: 0101 87be 2205 253e fa80 04bf 84f4 d13e
00000210: db34 5c3c 340f 45be 108a 5bbe 7bf7 c83e
00000220: 6e9d de3e 030d ed3e 86a9 98bd 356d da3e
00000230: 16d3 bb3e ec46 73bd 24ba 903f a7df e3bd
00000240: a82b 6ebf 5434 f53e 1154 393e 6f1b c73e
00000250: 5283 0a3f 37b5 5fbe d350 95be 5953 c3bd
00000260: 1c1b e3be f8d6 c63e 5a99 1e3c 3304 6d3e
00000270: 6d9b f73d 7020 923e 3819 24bf 4307 15be
00000280: 01e1 82be 2000 19bf 30cd 9c3d e07b 033f
00000290: a029 a33e 0407 b7bd fdea 773f 2869 973f
000002a0: 13b3 f83e 5675 c93e 13b9 f2be 94d7 813e
000002b0: b0f7 07be 7223 2a3f 7bee 2f3f 1cd6 8ebe
000002c0: 4e26 3f3f f549 983d 59cc cdbe 3cb6 15bd
000002d0: fcb2 093f a668 debd 89a0 6abf fbbb 1d3d
000002e0: c8e9 2ebf d537 c6be 9f50 e93e f5c3 09bf
000002f0: ea2b f2bd b3ce e43e 198f d9be 9ae2 05bf

base_pointnet.conv_1_b.bias f4 [64]
-0.5614201 -0.55569804 -0.5311268 -0.25843385 0.056121055 0.45823956 -0.37799442 -0.1384738
0.43324575 0.4556186 -0.37068588 -0.51855606 0.12721792 -0.5025783 -0.05498318 -0.10841313
-0.028573953 0.50093114 0.30927533 0.5359362 -0.19994569 -0.21107182 0.14005077 0.13210568
-0.23512776 -0.014948756 0.24782869 0.28703123 -0.23130783 -0.09194521 -0.57325727 0.36631146
0.3407096 0.016188033 -0.12910463 -0.5599634 0.3020683 -0.4616803 0.5469393 0.24094442
-0.30394632 -0.041666765 0.4416769 -0.406141 0.39967027 0.19704157 -0.1299221 0.17985651
0.4332801 -0.24068712 -0.30309668 -0.004885015 0.24186839 -0.012448238 0.524129 0.17607926
0.58459383 -0.51644194 -0.29380065 0.092325084 -0.3100454 0.48849058 -0.40071255 -0.18064769
00000000: 3ab9 0fbf 3a42 0ebf edf7 07bf 7151 84be
00000010: 31df 653d 609e ea3e 7c88 c1be 13cc 0dbe
00000020: 63d2 dd3e d746 e93e 8aca bdbe 17c0 04bf
00000030: 6a45 023e f9a8 00bf 0b36 61bd b407 debd
00000040: ec13 eabc 063d 003f 5659 9e3e 1d33 093f
00000050: 90be 4cbe 3623 58be 7869 0f3e b646 073e
00000060: 55c5 70be a1eb 74bc cec6 7d3e c2f5 923e
00000070: f6db 6cbe c54d bcbd fdc0 12bf 2d8d bb3e
00000080: 7d71 ae3e c49c 843c 0134 04be c359 0fbf
00000090: b2a8 9a3e 5c61 ecbe 3704 0c3f 22ba 763e
000000a0: da9e 9bbe c5aa 2abd 7a23 e23e b7f1 cfbe
000000b0: 95a1 cc3e 44c5 493e 4d0a 05be 4e2c 383e
000000c0: e4d6 dd3e af76 76be 7d2f 9bbe 7a12 a0bb
000000d0: 59ac 773e b2f3 4bbc 512d 063f 1f4e 343e
000000e0: f1a7 153f 8a35 04bf 0a6d 96be ef14 bd3d
000000f0: 45be 9ebe 701b fa3e 322a cdbe b5fb 38be

base_pointnet.conv_2.weight f4 [64, 64, 3]
0.027191306 0.061588865 -0.018479574 -0.0020817004 0.008399715 0.066452295 0.041147284 0.04810776
0.023145549 -0.055586692 -0.05704405 -0.021345358 0.049379162 0.05127261 0.08234859 0.00018861322
-0.040657725 -0.066002935 0.08809308 0.043273598 -0.059893746 0.011949689 -0.048630096 -0.002249782
-0.027766323 -0.028042106 -0.0472138 -0.03086447 0.009668493 0.05611957 -0.12317369 -0.03210623
-0.16550052 -0.05632025 -0.02105206 0.043130882 0.0530066 -0.04729835 -0.1230991 0.023385908
0.034988955 0.020581076 -0.09882072 -0.06807802 -0.08398996 0.019235134 -0.037356175 -0.05770257
0.042824954 0.1051607 0.11746319 -0.11018464 -0.027531704 0.017742932 -0.07731184 0.03915861
0.1447119 -0.027995754 -0.01861541 0.029822255 0.06616872 -0.03097003 -0.026368184 -0.16352901
-0.045517016 -0.012911562 -0.0028406023 -0.05612096 -0.034241833 0.078235365 0.027248846 -0.060667705
0.027376587 0.06539824 0.05403788 0.012905731 0.06842662 -0.02293803 0.046920978 -0.0067751454
-0.012950538 -0.1123158 -0.0945577 0.0098321475 -0.054038905 -0.20421112 -0.24068236 0.0694119
0.052633967 -0.032363396 -0.013168976 -0.022270536 -0.049106285 -0.09525176 0.06609631 -0.0070458706
0.069403395 0.021610927 -0.0077349753 0.031113114 -0.047499474 -0.034519386 -0.058602072 0.0585977
0.06726363 0.045859482 0.08250112 0.11101636 0.03358828 0.014588362 -0.06368349 -0.04252418
-0.020117875 0.122841425 0.054076873 0.07038377 -0.01347673 0.05989768 -0.019193243 0.0023623963
-0.12923317 -0.07186249 0.028053356 -0.049719166 -0.026226573 0.04238718 0.09403404 0.034726206
-0.033617962 0.01076766 -0.015619935 -0.05327129 0.035966996 0.043875676 0.050108887 -0.009322577
0.028173927 0.09329708 0.0015859287 0.0028056835 0.008654708 0.008049424 0.022952948 0.04001649
-0.039944462 0.015140206 -0.039663162 -0.03747718 -0.017565493 -0.038815677 0.1383412 -0.08524318
-0.057732068 0.024001919 -0.07789698 -0.040187225 0.043483548 -0.014141344 0.05627583 -0.07510528
-0.093648665 -0.21289973 0.079851195 0.079028696 0.091138594 -0.062215924 0.05550469 -0.036315627
0.026405884 -0.03492723 0.008520508 -0.10009697 0.013112968 -0.06693063 0.012960587 0.030658163
-0.06541389 0.004839074 -0.08754162 -0.019465625 0.029485414 0.088266976 0.027651245 0.011048176
0.06257979 0.051652852 0.079112045 0.058981817 0.06080521 0.110581115 0.13447495 -0.012691073
0.11016495 0.09269947 0.10966538 0.024398407 0.12195355 -0.12020492 -0.019512769 0.093125105
-0.074874036 0.024548858 0.017558241 -0.0149864275 0.027274169 0.06411849 -0.0615616 -0.019766994
0.0026177317 0.017281147 -0.17963134 -0.1372127 -0.10583124 0.010274467 0.07313312 0.012865278
0.0021777034 0.058689557 0.0035573903 0.15818557 0.0776573 0.019947331 -0.19666246 -0.13330567
-0.09289275 0.13659723 0.08654636 0.06514147 0.01935278 -0.074250326 -0.008538539 0.0009336199
0.111718744 0.042059157 -0.07595129 -0.08894736 -0.23196343 -0.013824004 -0.013731087 0.055675466
0.13282467 -0.023119709 -0.0021758557 0.08856601 0.025032008 0.007883003 -0.020093678 -0.0024129618
0.062198456 -0.015610966 -0.017595729 -0.07495956 -0.033425976 0.064001575 0.040204905 7.3739575e-05
00000000: 4dc0 de3c 9b44 7c3d 7a62 97bc 236d 08bb
00000010: f59e 093c 2418 883d 0e8a 283d a40c 453d
00000020: bc9b bd3c dfae 63bd 06a7 69bd 76dc aebc
00000030: ce41 4a3d 3a03 523d 61a6 a83d 7ac6 4539
00000040: b788 26bd 8c2c 87bd 256a b43d a83f 313d
00000050: 2553 75bd a1c8 433c 5a30 47bd 1471 13bb
00000060: 3376 e3bc 8fb8 e5bc 4263 41bd 7cd7 fcbc
00000070: 9968 1e3c a2dd 653d 7d42 fcbd d281 03bd
00000080: f878 29be 10b0 66bd 5f75 acbc 02aa 303d
00000090: 731d 593d eabb 41bd 621b fcbd ce93 bf3c
000000a0: 9450 0f3d a599 a83c 8562 cabd 7d6c 8bbd
000000b0: ee02 acbd 0093 9d3c ca02 19bd 8859 6cbd
000000c0: 3869 2f3d 7e5e d73d 8a90 f03d 7ca8 e1bd
000000d0: 2b8a e1bc a059 913c ac55 9ebd c764 203d
000000e0: 5b2f 143e 5a57 e5bc 587f 98bc cd4d f43c
000000f0: 7783 873d dcb4 fdbc 1702 d8bc 2674 27be
00000100: 0d70 3abd 048b 53bc 6629 3abb 17df 65bd
00000110: 2a41 0cbd dd39 a03d f938 df3c b37e 78bd
00000120: dd44 e03c 83ef 853d d356 5d3d 8f72 533c
00000130: 4123 8c3d 89e8 bbbc 3630 403d 0a02 debb
00000140: 7e2e 54bc d305 e6bd 78a7 c1bd 0417 213c
00000150: e657 5dbd b81c 51be 7075 76be d427 8e3d
00000160: b796 573d 7b8f 04bd b0c2 57bc b370 b6bc
00000170: ac23 49bd 5b13 c3bd 815d 873d 0ce1 e6bb
00000180: 5e23 8e3d 6609 b13c ad75 fdbb eee0 fe3c
00000190: cf8e 42bd 3364 0dbd ba08 70bd 2404 703d
000001a0: 84c1 893d 27d7 3b3d 59f6 a83d 8c5c e33d
000001b0: dd93 093d 0604 6f3c 7d6c 82bd d62d 2ebd
000001c0: 3ece a4bc 4994 fb3d b67f 5d3d 5e25 903d
000001d0: 81cd 5cbc 4557 753d 263b 9dbc 6fd2 1a3b
000001e0: b355 04be a42c 93bd 27d0 e53c 53a6 4bbd
000001f0: 1cd9 d6bc 2e9e 2d3d eb94 c03d 113d 0e3d
00000200: fdb2 09bd d76a 303c c1ea 7fbc ff32 5abd
00000210: 2152 133d fbb6 333d fa3e 4d3d b9bd 18bc
00000220: 02cd e63c 8a12 bf3d f0de cf3a 8fdf 373b
00000230: 7acc 0d3c bbe1 033c d207 bc3c 55e8 233d
00000240: ce9c 23bd a00e 783c d775 22bd ac81 19bd
00000250: 82e5 8fbc 30fd 1ebd 51a9 0d3e fa93 aebd
00000260: 7678 6cbd ac9f c43c 7488 9fbd 5c9b 24bd
00000270: ce1b 323d 19b1 67bc 7c81 663d ccd0 99bd
00000280: dfca bfbd 6302 5abe 0689 a33d ccd9 a13d
00000290: dfa6 ba3d 20d6 7ebd e358 633d b2bf 14bd
000002a0: 2751 d83c db0f 0fbd 9a99 0b3c a4ff ccbd
000002b0: c6d7 563c ed12 89bd a458 543c d426 fb3c
000002c0: b8f7 85bd 1891 9e3b 0549 b3bd 6076 9fbc
000002d0: 658b f13c 51c5 b43d dd84 e23c 6903 353c
000002e0: d529 803d f191 533d 7f05 a23d eb96 713d
000002f0: e20e 793d 5a78 e23d cdb3 093e 38ee 4fbc
00000300: 299e e13d 38d9 bd3d 3e98 e03d 2bdf c73c
00000310: c8c2 f93d ff2d f6bd 3ed9 9fbc 60b8 be3d
00000320: 8f57 99bd b01a c93c 4dd6 8f3c a289 75bc
00000330: 146e df3c 8e50 833d 0428 7cbd 64ee a1bc
00000340: 408e 2b3b 3191 8d3c 47f1 37be 7c81 0cbe
00000350: 0dbe d8bd 3d56 283c d1c6 953d e3c8 523c
00000360: cdb7 0e3b 7664 703d 1b23 693b 66fb 213e
00000370: ca0a 9f3d 9668 a33c e261 49be 4881 08be
00000380: 8e3e bebd 25e0 0b3e 383f b13d e468 853d
00000390: b989 9e3c 8e10 98bd 3ae5 0bbc 2cbe 743a
000003a0: cccc e43d 3946 2c3d 5a8c 9bbd 092a b6bd
000003b0: d287 6dbe 137e 62bc 5af8 60bc f50b 643d
000003c0: 3103 083e 8b65 bdbc cd98 0ebb 1962 b53d
000003d0: ed0f cd3c b627 013c 7f9b a4bc c822 1ebb
000003e0: cfc3 7e3d 23c5 7fbc eb24 90bc 6684 99bd
000003f0: ade9 08bd 4213 833d e6ad 243d a2a4 9a38

base_pointnet.conv_2.bias f4 [64]
-0.042063728 -0.023107277 -0.07625845 0.03185268 0.0302879 0.0152653605 0.020771634 0.07074744
-0.047417562 -0.07099696 0.04902888 0.02911175 0.033999797 -0.0532104 0.052202284 -0.07703503
0.07641857 0.07489734 -0.025883183 -0.04123479 -0.052938003 -0.010404286 -0.11273665 0.05577764
0.07572086 -0.05910296 0.0101514505 0.04195828 -0.07569924 -0.0040691323 0.057439227 -0.03574345
0.10486078 -0.084225945 0.038517818 -0.010861766 -0.08562463 -0.049844235 0.002853259 0.049361058
0.010586544 0.05363924 0.046603885 0.00345874 -0.0077173137 -0.07872457 -0.03717933 -0.028527247
-0.045193296 -0.017796934 0.024520062 0.0114113195 0.10232037 -0.05094843 -0.003005901 -0.021083804
-0.011092784 -0.14692256 0.058767937 0.007240784 -0.11891928 0.042898457 0.026060717 -0.09190171
00000000: 044b 2cbd 794b bdbc 642d 9cbd f577 023d
00000010: 541e f83c 901b 7a3c 4629 aa3c 09e4 903d
00000020: eb38 42bd db66 91bd 82d2 483d c47b ee3c
00000030: 5f43 0b3d 26f3 59bd 10d2 553d 8bc4 9dbd
00000040: 5781 9c3d c763 993d f808 d4bc d0e5 28bd
00000050: 85d5 58bd bd76 2abc 79e2 e6bd 1877 643d
00000060: 8a13 9b3d f215 72bd 4552 263c 72dc 2b3d
00000070: 3408 9bbd 5b56 85bb 6545 6b3d b967 12bd
00000080: 40c1 d63d a77e acbd dcc4 1d3d 8cf5 31bc
00000090: f75b afbd 7829 4cbd befd 3a3b d22e 4a3d
000000a0: 2f73 2d3c d2b4 5b3d b7e3 3e3d 07ac 623b
000000b0: 85e1 fcbb 593a a1bd 5a49 18bd f9b1 e9bc
000000c0: 9b1c 39bd e0ca 91bc 4cde c83c 8bf6 3a3c
000000d0: 588d d13d 4daf 50bd a6fe 44bb f1b7 acbc
000000e0: 82be 35bc de72 16be a6b6 703d 1944 ed3b
000000f0: f48b f3bd 4bb6 2f3d 497d d53c f736 bcbd

base_pointnet.bn_1.weight f4 [64]
1.0720996 1.1247015 0.966614 0.73941094 0.9972788 0.86927307 1.1903355 0.85275894
0.94708246 1.0350105 1.1789573 1.2036918 0.924383 1.055056 1.3321549 0.8963544
0.938056 0.88250244 0.97517586 0.7813771 0.81650954 1.1552871 0.9518961 0.9772317
1.189851 0.8905771 0.9038333 1.0297962 1.2770203 1.0368967 0.86901045 0.9347765
0.939218 0.95192987 0.96938086 1.11312 0.918039 1.1843767 1.1296431 1.0388536
1.0271081 0.9181969 1.0372545 0.8936365 0.8168539 0.9108362 0.84268045 0.97114617
0.90832305 0.899115 1.2539911 1.0280502 0.83471465 1.2221708 1.1670555 0.7633179
0.8862364 0.93067586 0.8809524 1.0629393 0.9529551 0.8442715 0.8515325 1.1513805
00000000: 8f3a 893f 38f6 8f3f 0474 773f 094a 3d3f
00000010: aa4d 7f3f ae88 5e3f ea5c 983f 694e 5a3f
00000020: ff73 723f 397b 843f 13e8 963f 9312 9a3f
00000030: 5da4 6c3f 130c 873f 0d84 aa3f 7b77 653f
00000040: 7024 703f aeeb 613f 20a5 793f 5408 483f
00000050: c506 513f 73e0 933f 76af 733f db2b 7a3f
00000060: 0a4d 983f dcfc 633f 9f61 673f 5dd0 833f
00000070: 6775 a33f 08b9 843f 7877 5e3f 834d 6f3f
00000080: 9770 703f adb1 733f 5829 783f b77a 8e3f
00000090: 9b04 6b3f a899 973f 2598 903f 28f9 843f
000000a0: 4778 833f f40e 6b3f c1c4 843f 5dc5 643f
000000b0: 561d 513f 902c 693f e8b9 573f 099d 783f
000000c0: dc87 683f 672c 663f c882 a03f 2697 833f
000000d0: dcaf 553f 1870 9c3f 1362 953f cd68 433f
000000e0: 64e0 623f c640 6e3f 1986 613f 650e 883f
000000f0: def4 733f 2d22 583f 09fe 593f 7060 933f

base_pointnet.bn_1.bias f4 [64]
-0.08341422 -0.00850575 -0.13205115 -0.01699457 0.014474405 0.09027921 0.050464302 -0.10181526
-0.024196027 -0.019703032 -0.06966269 -0.09735293 -0.15945081 -0.03562603 -0.29810774 -0.10333565
-0.24531186 -0.109972216 -0.07094981 -0.00035707318 -0.14913972 -0.20688008 -0.11009899 -0.012539299
0.16007073 -0.09710218 -0.07914721 -0.2830974 -0.1061033 -0.22239615 -0.1685733 -0.035309914
0.06860644 0.004761708 0.022249548 -0.03948962 -0.16455148 -0.15300503 -0.09854315 0.13209702
0.29409328 -0.15458806 0.1459682 0.07749698 -0.24199522 -0.12095901 -0.123441085 -0.20645353
0.038702913 -0.047518216 -0.2997096 -0.1551324 -0.0022221184 -0.15160088 0.066586345 0.0060074907
-0.072384015 0.11078671 -0.03353685 -0.3651079 -0.11561873 -0.30513835 -0.1303264 0.27068272
00000000: 13d5 aabd b45b 0bbc 6b38 07be 3238 8bbc
00000010: 0e26 6d3c 4ee4 b83d a8b3 4e3d 8584 d0bd
00000020: bf36 c6bc 4168 a1bc 50ab 8ebd f960 c7bd
00000030: 1347 23be 9aec 11bd 94a1 98be a4a1 d3bd
00000040: 0833 7bbe 1d39 e1bd 224e 91bd 8d35 bbb9
00000050: 15b8 18be 5fd8 53be 947b e1bd a271 4dbc
00000060: 95e9 233e 82dd c6bd ef17 a2bd 24f2 90be
00000070: b04c d9bd d1bb 63be 7b9e 2cbe 21a1 10bd
00000080: 8981 8c3d 1a08 9c3b af44 b63c debf 21bd
00000090: 2f80 28be 5aad 1cbe fed0 c9bd 7144 073e
000000a0: 6593 963e 554c 1ebe b078 153e bdb6 9e3d
000000b0: 98cd 77be 5cb9 f7bd aece fcbd 8e68 53be
000000c0: f286 1e3d 76a2 42bd 8973 99be 07db 1ebe
000000d0: f6a0 11bb 433d 1bbe 6c5e 883d 7cda c43b
000000e0: 123e 94bd 25e4 e23d f05d 09bd 6cef babe
000000f0: 83c9 ecbd 183b 9cbe 4974 05be ed96 8a3e

base_pointnet.bn_1.running_mean f4 [64]
-6.1863937 -3.1071925 0.6834623 -21.083961 -5.9171023 -6.1763196 -0.24866316 6.169723
-3.2063968 0.100262545 -4.8831563 -4.2478976 -8.853258 1.206439 -1.1822176 11.157737
-8.567327 -10.348241 -4.8521814 28.38757 -24.145699 -0.63191694 2.0153499 0.92630184
-1.4071405 18.081982 -16.305746 -1.2433783 -0.7078998 0.027840085 25.812592 7.9610744
3.9265525 -23.847118 -10.571614 -2.3776941 -2.9348152 -0.43155855 -1.2433182 0.7252473
1.6413054 6.090229 2.5104656 -33.259342 35.78146 -24.025621 -13.926136 -2.091124
9.413468 -9.306641 -0.5144115 0.8283678 10.18426 -2.0086935 0.4500615 25.655775
-13.616236 -7.0322847 42.050873 -4.243294 -5.2291965 -13.919617 -5.569222 -3.096474
00000000: f0f6 c5c0 3edc 46c0 63f7 2e3f f4ab a8c1
00000010: e758 bdc0 69a4 c5c0 8ea1 7ebe 5f6e c540
00000020: 9b35 4dc0 7356 cd3d d142 9cc0 c7ee 87c0
00000030: f2a6 0dc1 986c 9a3f e852 97bf 1786 3241
00000040: c513 09c1 6592 25c1 1245 9bc0 be19 e341
00000050: 642a c1c1 4fc5 21bf 7efb 0040 1e22 6d3f
00000060: 2e1d b4bf e6a7 9041 2b72 82c1 0527 9fbf
00000070: ec38 35bf e410 e43c 3080 ce41 1fc1 fe40
00000080: a34c 7b40 e6c6 bec1 5525 29c1 242c 18c0
00000090: 03d4 3bc0 3ef5 dcbe 0d25 9fbf cfa9 393f
000000a0: 4c16 d23f 28e3 c240 78ab 2040 9109 05c2
000000b0: 3720 0f42 7934 c0c1 74d1 5ec1 fad4 05c0
000000c0: 919d 1641 00e8 14c1 79b0 03bf ea0f 543f
000000d0: bbf2 2241 6f8e 00c0 766e e63e 073f cd41
000000e0: 1adc 59c1 7a08 e1c0 1834 2842 10c9 87c0
000000f0: 9455 a7c0 c0b6 5ec1 1137 b2c0 a12c 46c0

base_pointnet.bn_1.running_var f4 [64]
58.981247 48.442875 22.985447 157.83234 58.719078 21.424215 26.754078 13.223651
9.835914 2.9236393 80.215126 46.317787 59.646927 24.048204 21.468904 40.935844
60.765255 43.524788 21.161236 218.94057 166.26172 0.9366341 72.162636 13.905676
66.03602 116.200386 102.60253 15.490957 30.240927 38.793472 212.13623 37.368786
18.45149 168.67813 99.548706 73.65492 3.950865 14.664234 3.7709658 16.123667
89.46923 110.95729 77.64079 296.05573 379.50134 180.27974 143.95952 7.3226104
66.41446 35.840393 11.90078 24.993544 52.836956 23.677288 3.4732764 168.39844
140.67351 81.19829 472.43484 52.920216 20.01003 58.248814 25.637432 55.597126
00000000: ccec 6b42 81c5 4142 32e2 b741 14d5 1d43
00000010: 56e0 6a42 cb64 ab41 5a08 d641 1394 5341
00000020: e75f 1d41 e81c 3b40 256e a042 6a45 3942
00000030: 7496 6e42 b962 c041 51c0 ab41 4ebe 2342
00000040: 9f0f 7342 6219 2e42 364a a941 c9f0 5a43
00000050: 0043 2643 41c7 6f3f 4553 9042 a67d 5e41
00000060: 7112 8442 9966 e842 7f34 cd42 f6da 7741
00000070: 6bed f141 842c 1b42 e022 5443 a379 1542
00000080: a79c 9341 9aad 2843 f018 c742 524f 9342
00000090: f9da 7c40 b4a0 6a41 8157 7140 45fd 8041
000000a0: 3ff0 b242 22ea dd42 1648 9b42 2207 9443
000000b0: 2cc0 bd43 9d47 3443 a3f5 0f43 d352 ea40
000000c0: 34d4 8442 905c 0f42 9869 3e41 c7f2 c741
000000d0: 0b59 5342 166b bd41 294a 5e40 0066 2843
000000e0: 6bac 0c43 8665 a242 a937 ec43 4dae 5342
000000f0: 8b14 a041 c9fe 6842 7619 cd41 7563 5e42

base_pointnet.bn_2.weight f4 [64]
1.3577394 1.7241567 1.4611857 1.5737485 1.5510863 1.3585117 1.3807367 1.4607987
1.4493177 1.7184709 1.6868091 1.6094166 1.2733227 1.733125 1.4578493 1.5297087
1.64968 1.6037008 1.423849 1.5654783 1.4686137 1.9515728 2.0936086 1.6072264
2.6214054 1.5963609 1.4052488 1.7969836 1.9581956 1.3911083 1.8803837 2.033948
1.6257513 1.4287964 1.9542805 1.8898627 2.4313917 1.651854 1.6058044 1.8658319
1.8128841 1.8598368 1.3732299 1.3526785 1.518933 1.4903315 1.7381918 1.3526477
1.8724031 1.5446299 1.637976 1.2628415 1.3164413 1.6593341 1.3794916 1.8408611
2.1644206 1.7911377 1.6984499 1.4323989 1.8131937 1.2623602 1.5060765 2.011999
00000000: 68ca ad3f 2bb1 dc3f 2208 bb3f 9770 c93f
00000010: ff89 c63f b6e3 ad3f fbbb b03f 74fb ba3f
00000020: 3e83 b93f dbf6 db3f 5ce9 d73f 5d01 ce3f
00000030: 3dfc a23f 0ad7 dd3f ce9a ba3f 7fcd c33f
00000040: b728 d33f 1146 cd3f af40 b63f 9861 c83f
00000050: 89fb bb3f 23cd f93f affd 0540 98b9 cd3f
00000060: 1bc5 2740 8e55 cc3f 31df b33f 8f03 e63f
00000070: 27a6 fa3f d60f b23f 6ab0 f03f 342c 0240
00000080: 9e18 d03f cde2 b63f dd25 fa3f 05e7 f13f
00000090: ec9b 1b40 f46f d33f 008b cd3f 94d3 ee3f
000000a0: 960c e83f 220f ee3f ffc5 af3f 9224 ad3f
000000b0: 666c c23f 2fc3 be3f 127d de3f 8f23 ad3f
000000c0: e8aa ef3f 6fb6 c53f 33a9 d13f caa4 a13f
000000d0: 2681 a83f 0f65 d43f 2e93 b03f 56a1 eb3f
000000e0: de85 0a40 0044 e53f ce66 d93f d958 b73f
000000f0: bb16 e83f 0595 a13f 1dc7 c03f 97c4 0040

base_pointnet.bn_2.bias f4 [64]
0.10189873 0.20287992 0.012821176 0.17417023 0.16116022 0.15363042 0.12921806 0.18259443
0.23096624 0.073470645 -0.16798098 0.27838376 0.1150517 -0.021960642 0.2010754 0.14888406
-0.037974406 0.02943027 0.19828282 0.14873682 0.20142752 -0.14986752 0.09719941 0.16119269
-0.5021248 0.0361852 0.16105276 -0.0803249 0.34967068 0.1552931 -0.030585354 0.14481018
0.14910169 0.059874725 0.104803935 0.3497534 -0.27287036 0.33642942 0.12045422 0.16962005
0.036276795 0.28307775 0.13375735 0.25968602 0.12934633 0.15719637 0.16944459 0.14705333
0.11486439 0.14355488 0.21399118 0.20152473 0.12720251 0.20460214 0.12009864 -0.14299756
-0.6496729 0.09232836 0.25112256 0.25803888 0.105949745 0.13773969 0.1675104 0.08486823
00000000: 48b0 d03d c1bf 4f3e e90f 523c ae59 323e
00000010: 2f07 253e 4b51 1d3e bd51 043e 09fa 3a3e
00000020: 6a82 6c3e c777 963d 3503 2cbe 5188 8e3e
00000030: 3aa0 eb3d cee6 b3bc b6e6 4d3e 1075 183e
00000040: 0d8b 1bbd c017 f13c a70a 4b3e 774e 183e
00000050: 0443 4e3e df76 19be 7c10 c73d b20f 253e
00000060: 408b 00bf ef36 143d 04eb 243e 6281 a4bd
00000070: 0908 b33e 2805 1f3e 238e fabc 1f49 143e
00000080: 1dae 183e 333f 753d 72a3 d63d e112 b33e
00000090: aab5 8bbe 7a40 ac3e b4b0 f63d e1b0 2d3e
000000a0: fa96 143d 91ef 903e b0f7 083e 91f5 843e
000000b0: 5d73 043e 16f8 203e e282 2d3e 2695 163e
000000c0: 053e eb3d 0d00 133e 8120 5b3e 805c 4e3e
000000d0: 6041 023e 3983 513e 47f6 f53d f46d 12be
000000e0: f750 26bf a716 bd3d 2393 803e ac1d 843e
000000f0: 2efc d83d a20b 0d3e d987 2b3e 65cf ad3d

base_pointnet.bn_2.running_mean f4 [64]
0.019088833 0.27063745 -0.36782458 -0.040800698 0.17131409 0.07303866 0.040476114 -0.1459116
-0.47173667 -0.21642198 0.17491995 -0.087872356 -0.07935148 0.08668284 -0.021882113 -0.21276419
0.18674496 -0.08238758 0.051323317 0.026577443 -0.3284074 0.03509545 -0.14254364 -0.10682436
0.24591008 -0.026537383 0.19756421 0.1238098 0.00763025 -0.4214261 -0.040328547 0.1649885
0.23245853 0.067822225 0.082543544 -0.26005125 -0.05448558 -0.112505354 -0.6780431 0.035458058
-0.12376855 0.07843362 -0.16660415 0.025362143 -0.016023178 -0.3990465 0.06464808 -0.034195844
0.013884884 -0.16262126 -0.24300037 -0.16230352 0.18543862 -0.2653048 0.14462692 -0.12780006
0.065602496 -0.33197337 -0.03271824 -0.1450601 0.009451777 0.13408819 0.07825838 0.12862076
00000000: 2f60 9c3c fe90 8a3e 8153 bcbe a21e 27bd
00000010: f66c 2f3e 4b95 953d 48ca 253d da69 15be
00000020: 7887 f1be b99d 5dbe 371e 333e 6cf6 b3bd
00000030: 0783 a2bd c686 b13d 1e42 b3bc dbde 59be
00000040: 123a 3f3e d2ba a8bd 6638 523d f0b8 d93c
00000050: 0425 a8be 3fc0 0f3d f6f6 11be bbc6 dabd
00000060: dacf 7b3e ed64 d9bc 464e 4a3e fe8f fd3d
00000070: 2d07 fa3b 29c5 d7be 8c2f 25bd bff2 283e
00000080: 9c09 6e3e 61e6 8a3d 970c a93d 7025 85be
00000090: 462c 5fbd 3569 e6bd 3c94 2dbf 783c 113d
000000a0: 5e7a fdbd cea1 a03d 479a 2abe 45c4 cf3c
000000b0: 0a43 83bc d34f ccbe 3666 843d f110 0cbd
000000c0: 6d7d 633c 3086 26be 17d5 78be e532 26be
000000d0: 9fe3 3d3e 08d6 87be 1419 143e 05de 02be
000000e0: 9a5a 863d 6af8 a9be 9003 06bd a38a 14be
000000f0: a0db 1a3c 6a4e 093e ee45 a03d 29b5 033e

base_pointnet.bn_2.running_var f4 [64]
0.0455673 0.041721724 0.11105989 0.071268365 0.039300274 0.04468157 0.04511023 0.05694186
0.18537164 0.047584385 0.023072539 0.07604324 0.11475277 0.05125227 0.025601199 0.092357524
0.025020598 0.015262573 0.15081207 0.028933607 0.110391356 0.018203057 0.026832048 0.022172062
0.00835707 0.04363642 0.03869581 0.019089067 0.01658292 0.1595948 0.018873531 0.029463882
0.03757928 0.036417507 0.014386369 0.036744718 0.006219625 0.037550677 0.12485565 0.019591369
0.024896502 0.046608895 0.11027728 0.084861785 0.03182119 0.10360436 0.028798439 0.07496469
0.016324228 0.111071385 0.031136692 0.100952975 0.06671058 0.039105132 0.06807154 0.04201945
0.003470201 0.017572787 0.06930979 0.03054554 0.04468668 0.130368 0.030836677 0.033674825
00000000: c7a4 3a3d 66e4 2a3d 5e73 e33d 26f5 913d
00000010: 53f9 203d 0604 373d 81c5 383d de3b 693d
00000020: 10d2 3d3e d8e7 423d 9f02 bd3c 8fbc 9b3d
00000030: 8003 eb3d e6ed 513d 9bb9 d13c f125 bd3d
00000040: fff7 cc3c df0f 7a3c 7b6e 1a3e 2c06 ed3c
00000050: dd14 e23d 941e 953c e2ce db3c 2fa2 b53c
00000060: 18ec 083c 1abc 323d 7f7f 1e3d ad60 9c3c
00000070: e7d8 873c d26c 233e aa9c 9a3c 3d5e f13c
00000080: bbec 193d 862a 153d ceb4 6b3c a181 163d
00000090: ffcd cb3b bdce 193d 52b4 ff3d 147e a03c
000000a0: c0f3 cb3c f8e8 3e3d 0ed9 e13d 04cc ad3d
000000b0: f056 023d 862e d43d b4ea eb3c 1687 993d
000000c0: 63ba 853c 6579 e33d 6012 ff3c 6fc0 ce3d
000000d0: 8e9f 883d b42c 203d 1769 8b3d 961c 2c3d
000000e0: 506c 633b cef4 8f3c 4bf2 8d3d a43a fa3c
000000f0: 6109 373d 307f 053e 339d fc3c 9dee 093d

fc_1.weight f4 [64, 66]
0.009012753 -1.7993367 0.053472966 -0.05120981 0.25409737 -0.35395634 0.1488799 0.015316711
0.47310463 0.2105904 -0.11502125 0.2841973 0.33147827 0.10863637 0.25565064 0.40580237
0.022074424 0.4031901 0.42575437 0.5702109 0.10050583 -0.33772314 -0.03285604 0.2619322
0.34282282 0.19503598 -0.014891216 0.4076203 -0.0009796639 0.21989138 0.18120275 -0.09176933
0.2245123 0.22758903 -0.28438154 -0.020745378 0.32235608 -0.054612294 -0.1058664 -0.08972928
0.00077854475 -0.094204545 0.17733589 -0.20366989 0.15494947 0.018602462 -0.056424618 0.2679028
-0.0016864095 0.35119754 0.5027714 0.38209537 -0.18188651 0.2406543 0.22333235 0.18532756
0.34711924 0.29964718 0.30381685 -0.08506245 -0.124424495 0.18027954 0.47693357 0.15830518
-0.063144185 -0.050702345 0.011718646 -1.6465598 0.39851925 0.09458103 -4.5706547e-05 0.3258047
0.21186826 0.22650158 0.1306259 0.17115958 -0.06275184 -0.006627242 -0.3699768 0.10525034
0.3148129 -0.3948537 -0.025959983 -0.15133041 -0.20112738 0.21397355 0.20537816 0.4968153
0.3440576 -0.50524336 -0.28809506 0.20898464 0.21259955 0.009392005 0.4597744 -0.20407759
-0.14772849 0.30127618 -0.2782829 -0.2824823 0.32966125 0.34482476 -0.25927445 0.029833194
-0.25779244 0.054664653 -0.17790411 0.14651462 -0.17168161 -0.0072123166 0.31519836 0.14269002
0.34299597 -0.04241979 0.07797032 0.235552 0.032089867 -0.21580261 0.29565942 0.061376635
0.38888696 -0.1182227 0.37334603 -0.020682337 0.010184054 0.17669703 0.15836865 0.34951788
-0.39588514 0.27447125 0.38573718 -0.116447836 0.23974356 -0.09149365 -0.07423672 -0.21072383
0.1930853 -0.40143096 -0.15988114 -0.28483772 0.031198878 -0.02226792 -0.003339514 0.4051082
0.0058813468 0.01073061 -0.0052939053 0.035511367 -0.0972265 -0.13341717 0.20834969 -0.17356761
-0.30397066 -0.19865054 -0.32892662 0.039476685 0.31312814 -0.30625042 -0.5140602 0.09269269
-0.36317095 0.0355372 -0.08449763 -0.029410204 -0.12644173 -0.22631563 -0.22536287 -0.32117775
0.17381743 -0.2863845 -0.16779509 -0.30468532 0.08602794 -0.41635334 0.3712057 -0.3193092
-0.19713984 -0.15742426 -0.23591997 -0.24791029 -0.30513397 -0.14823914 0.05741268 0.048328485
-0.30852517 -0.073384985 -0.050869573 -0.15189525 -0.067274295 0.2223935 -0.19887717 -0.34144422
-0.21414028 -0.27935615 0.15414901 0.044436462 -0.34211075 0.10161171 0.27493522 -1.3156258
0.21131447 -0.013435548 -0.29770216 -0.07252757 -0.009331214 0.13851567 0.02228064 -0.014811101
-0.13016202 -0.54673356 -0.2911243 -0.27626425 0.3580671 -0.7567642 -0.3886506 -0.3307602
-0.4278237 0.15420976 0.5261062 0.07300816 0.03013158 -0.58280295 -0.722101 0.7205757
0.26281452 -0.37243295 0.35877076 -0.15632747 -0.42495516 -0.2626419 -0.1340475 -0.43655333
0.14888345 0.19332871 -0.53474486 -0.24183197 0.3696739 0.031063566 -0.6935444 0.04487017
-0.5889399 -0.2968937 -0.08761774 -0.12057204 0.16982305 0.05958083 -0.2001105 0.1878146
0.24704814 -0.6115727 -0.36494628 -0.020242156 0.04412091 -0.6197357 0.3385157 -0.25070894
00000000: 3aaa 133c aa50 e6bf 7806 5b3d 61c1 51bd
00000010: 0d19 823e c439 b5be f973 183e f1f2 7a3c
00000020: c53a f23e 03a5 573e 4390 ebbd 4f82 913e
00000030: 85b7 a93e bf7c de3d a4e4 823e 54c5 cf3e
00000040: 6cd5 b43c ef6e ce3e 7afc d93e 57f9 113f
00000050: 00d6 cd3d 0cea acbe 0e94 06bd fa1b 863e
00000060: 7986 af3e 83b7 473e 49fa 73bc 9cb3 d03e
00000070: 1168 80ba 352b 613e 378d 393e 8ff1 bbbd
00000080: 8de6 653e 190d 693e 759a 91be 36f2 a9bc
00000090: db0b a53e 24b1 5fbd 7cd0 d8bd fcc3 b7bd
000000a0: 4117 4c3a 50ee c0bd 8a97 353e d78e 50be
000000b0: 13ab 1e3e 3164 983c 801d 67bd 8e2a 893e
000000c0: 830a ddba 2ad0 b33e a0b5 003f 01a2 c33e
000000d0: 7540 3abe 156e 763e 3cb1 643e 82c6 3d3e
000000e0: 9db9 b13e 5b6b 993e e28d 9b3e 3935 aebd
000000f0: 45d2 febd 339b 383e a330 f43e c11a 223e
00000100: bd51 81bd 43ad 4fbd 90ff 3f3c 79c2 d2bf
00000110: b70a cc3e b3b3 c13d 08b5 3fb8 e0cf a63e
00000120: fef3 583e 08f0 673e ccc2 053e 7544 2f3e
00000130: 0984 80bd 5629 d9bb 996d bdbe 7e8d d73d
00000140: 282f a13e 442a cabe 08aa d4bc 5cf6 1abe
00000150: 56f4 4dbe e21b 5b3e a74e 523e 935e fe3e
00000160: 5128 b03e a157 01bf 3281 93be 1200 563e
00000170: b2b3 593e ede0 193c 8d67 eb3e b7f9 50be
00000180: 2346 17be df40 9a3e 197b 8ebe 85a1 90be
00000190: 5cc9 a83e df8c b03e 9fbf 84be be64 f43c
000001a0: 5ffd 83be 0be8 5f3d 7f2c 36be ee07 163e
000001b0: 4ecd 2fbe 4c55 ecbb ae61 a13e 551d 123e
000001c0: 2b9d af3e 60c0 2dbd e7ae 9f3d 8b34 713e
000001d0: aa70 033d 5cfb 5cbe ac60 973e 1166 7b3d
000001e0: 311c c73e be1e f2bd 3627 bf3e 016e a9bc
000001f0: 05db 263c 11f0 343e 642b 223e 02f4 b23e
00000200: 75b1 cabe 7f87 8c3e 587f c53e 347c eebd
00000210: 567f 753e 0661 bbbd 6c09 98bd fdc7 57be
00000220: 27b8 453e 5c88 cdbe e2b7 23be 40d6 91be
00000230: ca94 ff3c 376b b6bc bfdb 5abb 586a cf3e
00000240: 50b8 c03b 71cf 2f3c 7f78 adbb 5e74 113d
00000250: b01e c7bd 839e 08be 9f59 553e b5bb 31be
00000260: 0ba2 9bbe 0c6b 4bbe 1269 a8be 4eb2 213d
00000270: 5552 a03e dbcc 9cbe 7399 03bf aad5 bd3d
00000280: 8bf1 b9be 748f 113d 180d adbd abed f0bc
00000290: f179 01be 49bf 67be 86c5 66be 6971 a4be
000002a0: 32fd 313e fda0 92be 7ad2 2bbe b7ff 9bbe
000002b0: 6b2f b03d 442c d5be ac0e be3e 7f7c a3be
000002c0: 07df 49be d333 21be 0195 71be 32dc 7dbe
000002d0: 853a 9cbe 00cc 17be 8f29 6b3d 17f4 453d
000002e0: 03f7 9dbe de4a 96bd 9d5c 50bd 6e8a 1bbe
000002f0: 1bc7 89bd 1fbb 633e 75a6 4bbe c7d1 aebe
00000300: 9747 5bbe c507 8fbe 3dd9 1d3e 0203 363d
00000310: 2429 afbe cd19 d03d 4fc4 8c3e 6d66 a8bf
00000320: d262 583e c620 5cbc 6b6c 98be 5689 94bd
00000330: f3e1 18bc 0dd7 0d3e e485 b63c 43aa 72bc
00000340: 3149 05be bbf6 0bbf 3f0e 95be 8272 8dbe
00000350: 9254 b73e 4cbb 41bf 36fd c6be 6759 a9be
00000360: b50b dbbe 2ae9 1d3e e5ae 063f 4d85 953d
00000370: 81d6 f63c 9332 15bf 9cdb 38bf a677 383f
00000380: a08f 863e 88af bebe cdb0 b73e 4f14 20be
00000390: b993 d9be 0079 86be bf43 09be eb83 dfbe
000003a0: e774 183e f6f7 453e 0ae5 08bf cda2 77be
000003b0: e645 bd3e 0579 fe3c 208c 31bf c9c9 373d
000003c0: c4c4 16bf 7302 98be ee70 b3bd 79ee f6bd
000003d0: 18e6 2d3e 070b 743d c4e9 4cbe 7852 403e
000003e0: 30fa 7c3e 0790 1cbf 3dda babe e1d2 a5bc
000003f0: 21b8 343d 00a7 1ebf ee51 ad3e ec5c 80be

fc_1.bias f4 [64]
0.2649539 0.07643372 -0.26643106 -0.16080453 -0.10584642 -0.036208667 0.065874174 -0.11123897
-0.041000493 -0.014249766 0.22193319 -0.068246566 -0.018498555 0.1585499 -0.08241659 -0.07426592
-0.20869717 -0.05908836 0.017797804 -0.035147015 -0.02325378 0.08453984 -0.1632336 -0.10888862
0.14027892 0.08539897 0.28171962 -0.13178596 -0.08567355 0.02558806 -0.0611984 0.022514142
-0.06199513 -0.018094273 -0.0685214 0.05376105 0.019387761 -0.105200306 0.1330132 -0.04070736
-0.011873235 -0.09364871 0.032951705 0.19768915 0.09857896 0.22715645 -0.12274002 -0.014193781
0.004303096 0.053465575 -0.009908704 -0.0068263724 0.018496936 0.1297456 -0.041924812 -0.023080848
0.15547197 -0.2078571 0.11468702 -0.039881602 0.3299596 -0.10504831 -0.09110377 0.07732943
00000000: 0aa8 873e 4889 9c3d a769 88be f1a9 24be
00000010: 02c6 d8bd 8a4f 14bd 0ae9 863d 42d1 e3bd
00000020: 22f0 27bd da77 69bc 7442 633e dbc4 8bbd
00000030: 488a 97bc e85a 223e 07ca a8bd bb18 98bd
00000040: b6b4 55be a306 72bd b3cc 913c 51f6 0fbd
00000050: b67e bebc 3923 ad3d b526 27be ff00 dfbd
00000060: 47a5 0f3e a8e5 ae3d 8e3d 903e e6f2 06be
00000070: 9d75 afbd 0d9e d13c 2cab 7abd 946f b83c
00000080: 9bee 7dbd 713a 94bc f354 8cbd 8c34 5c3d
00000090: 15d3 9e3c 4273 d7bd 9d34 083e c3bc 26bd
000000a0: f587 42bc e5ca bfbd 5ef8 063d 066f 4a3e
000000b0: c4e3 c93d b39b 683e 1f5f fbbd 088d 68bc
000000c0: fc00 8d3b b8fe 5a3d 1e58 22bc c3af dfbb
000000d0: e386 973c 08dc 043e 5ab9 2bbd 0c14 bdbc
000000e0: 0b34 1f3e 7ed8 54be 07e1 ea3d e45a 23bd
000000f0: 77f0 a83e 9123 d7bd 9d94 babd e45e 9e3d

fc_2.weight f4 [4, 64]
0.30868283 1.6352324 -0.5157495 -0.24543005 0.20773596 1.5430878 0.012787253 -0.0713751
0.114038065 0.06605565 0.34938723 0.3489201 -0.0004439652 -3.1649907 0.5741774 -0.07082325
-0.9031012 -1.5931002 0.08310277 -0.16932996 -0.07293644 0.27818415 0.16939692 -0.055873375
-0.5110552 -0.010742396 -0.86012393 0.101883344 -0.10030557 -4.101876 -0.86759096 1.1169263
0.279866 0.032009386 -0.019057533 1.3290663 0.1712395 -0.114035875 2.1173205 0.22836934
-0.6426526 -0.018685281 -2.9701612 2.4269922 -0.046670143 2.4261563 -0.025639087 -0.10627708
-0.07151739 -0.027113967 0.007943645 -0.08565764 -0.02133673 0.56248 0.20993224 0.21444665
0.15782279 -0.09118475 0.19533598 0.7718925 2.1123512 0.19248727 -0.05631119 -0.04700336
1.1935083 1.4000256 0.09989933 -0.35201254 0.34759453 -2.2721548 -0.031367064 -0.09654768
-0.07979298 0.62035316 1.3159252 -0.5173044 -0.03242986 0.9946542 -1.8974047 -0.029621229
0.6398626 1.7351881 -0.25937364 -0.14845042 -0.022069834 -0.8501083 0.014482264 0.07235632
-1.5298446 -0.4057086 0.5322942 -1.7847553 0.028966673 1.0117301 0.20823084 2.7901666
-0.86968577 -0.2192131 -0.041037712 -0.6990755 -0.2091258 -0.09456129 -3.0634894 -2.1232626
0.061765738 0.07645011 0.96889585 -3.0541453 -0.2311801 -1.843713 -0.0041922927 0.83816946
0.03631938 0.17907579 -0.10647036 -0.003240347 -0.06355767 1.4545957 0.07276184 0.061431035
1.8970816 1.3399335 -0.025425896 -3.6423361 -0.48440996 0.057188578 -0.022406772 -0.06720461
-2.34063 -3.9786685 0.62694937 0.9500052 -0.13907276 0.35858575 -0.046057 0.037570562
-0.07149725 0.20730339 -3.935689 -0.06139037 -0.12388028 1.6354852 0.03401199 -0.120790556
0.29819837 0.7472096 0.005051697 0.3009283 -0.06128983 0.9053636 -0.26874632 -0.098324314
0.47885633 -0.27370992 1.1906102 -0.12527837 0.03835754 2.1267185 0.43517163 -1.9633602
0.031656425 0.063653104 -0.010478943 1.3273968 -0.15797368 -0.070035085 0.55063576 0.2287681
0.5529336 -0.08290574 1.7123077 1.3342972 -0.12698293 2.505423 -0.05336143 0.08613225
-0.008060142 0.16024551 0.10469094 -0.058924124 -0.08326651 -2.94687 -0.022924552 -0.22647142
-3.9403622 -0.32068416 -0.16652237 2.140076 -0.9841718 -0.3129581 0.12063973 0.08750124
1.955387 0.7525206 -0.10432053 -0.6371706 -0.21578798 -1.4699897 0.05505483 -0.097534694
-0.0398639 -0.98394495 1.5883791 -0.10609362 -0.0011499971 0.88396907 0.6556502 0.046146974
0.76168317 0.10344868 0.22048753 -0.26058775 0.035533406 -0.54100823 0.15197445 0.049519613
2.8423529 1.3507223 -0.89012104 0.69362056 0.11854881 1.0800232 0.6296334 -0.47386518
0.010431155 0.0013910827 0.002024876 -2.0317936 0.00840933 0.099044144 0.10956491 0.87005913
0.30727652 0.021356761 0.5533723 -1.668778 0.22775066 -2.4882784 0.08716056 -0.62077194
0.06828977 -0.0816151 -0.100716144 0.006317526 -0.05807999 0.9531766 -0.012359128 -0.06499203
1.4494547 -0.08121717 -0.03314729 1.3270593 -2.8653147 0.28570062 0.12022628 0.09093772
00000000: ad0b 9e3e 4c4f d13f 2908 04bf 0452 7bbe
00000010: bcb8 543e e783 c53f a081 513c 1c2d 92bd
00000020: ca8c e93d 2f48 873d e2e2 b23e a8a5 b23e
00000030: 00c4 e8b9 358f 4ac0 4afd 123f c80b 91bd
00000040: a431 67bf b5ea cbbf c931 aa3d d564 2dbe
00000050: b35f 95bd 276e 8e3e 6376 2d3e 7bdb 64bd
00000060: 83d4 02bf e000 30bc 1531 5cbf 37a8 d03d
00000070: 026d cdbd 9142 83c0 711a 5ebf 71f7 8e3f
00000080: 994a 8f3e 461c 033d 8b1e 9cbc d81e aa3f
00000090: 6859 2f3e a48b e9bd 2e82 0740 a7d9 693e
000000a0: e184 24bf e011 99bc 1f17 3ec0 d753 1b40
000000b0: 3129 3fbd 2546 1b40 1009 d2bc cca7 d9bd
000000c0: b677 92bd 1c1e debc 1026 023c 466d afbd
000000d0: 5eca aebc b0fe 0f3f 7af8 563e e797 5b3e
000000e0: 4c9c 213e 12bf babd 2806 483e bf9a 453f
000000f0: c330 0740 621b 453e 90a6 66bd 9886 40bd
00000100: e1c4 983f 0a34 b33f 0598 cc3d fd3a b4be
00000110: e9f7 b13e fc6a 11c0 c07a 00bd caba c5bd
00000120: 806a a3bd 77cf 1e3f 3d70 a83f 106e 04bf
00000130: 2cd5 04bd a8a1 7e3f 28de f2bf 38a8 f2bc
00000140: 09ce 233f a51a de3f 9fcc 84be 6303 18be
00000150: cccb b4bc b3a0 59bf 0547 6d3c 8d2f 943d
00000160: f3d1 c3bf 0ab9 cfbe 6f44 083f dd72 e4bf
00000170: 844b ed3c 5f80 813f 773a 553e 1792 3240
00000180: baa3 5ebf 6679 60be 2917 28bd 9df6 32bf
00000190: 1325 56be 5aa9 c1bd 3610 44c0 89e3 07c0
000001a0: 12fe 7c3d e091 9c3d 8f09 783f 1e77 43c0
000001b0: 7aba 6cbe cafe ebbf 805f 89bb 4692 563f
000001c0: a1c3 143d a55f 373e 220d dabd 005c 54bb
000001d0: 862a 82bd 3130 ba3f 2904 953d 1c9f 7b3d
000001e0: 92d3 f23f f182 ab3f f849 d0bc 091c 69c0
000001f0: 9504 f8be 923e 6a3d 688e b7bc 92a2 89bd
00000200: e2cc 15c0 81a2 7ec0 c17f 203f 8a33 733f
00000210: 1769 0ebe 8d98 b73e 44a6 3cbd 97e3 193d
00000220: 266d 92bd 5747 543e 54e2 7bc0 7874 7bbd
00000230: f2b4 fdbd 9457 d13f 2850 0b3d 0a61 f7bd
00000240: 75ad 983e 2149 3f3f b588 a53b 4613 9a3e
00000250: 0b0b 7bbd e9c5 673f 1e99 89be 425e c9bd
00000260: a82c f53e b523 8cbe ea65 983f f948 00be
00000270: cc1c 1d3d 281c 0840 d1ce de3e 634f fbbf
00000280: 2baa 013d 8f5c 823d dfaf 2bbc 23e8 a93f
00000290: dac3 21be 8e6e 8fbd 77f6 0c3f 2f42 6a3e
000002a0: 0e8d 0d3f 7cca a9bd e62c db3f 40ca aa3f
000002b0: d007 02be da58 2040 8491 5abd 1b66 b03d
000002c0: b00e 04bc 6617 243e 3468 d63d 6c5a 71bd
000002d0: a287 aabd 8599 3cc0 45cc bbbc 20e8 67be
000002e0: e52e 7cc0 b730 a4be d784 2abe 01f7 0840
000002f0: aff2 7bbf 0b3c a0be f611 f73d da33 b33d
00000300: 1f4a fa3f 31a5 403f 01a6 d5bd 9d1d 23bf
00000310: 86f7 5cbe 9f28 bcbf 2c81 613d 45c0 c7bd
00000320: 5448 23bd d1e3 7bbf 0250 cb3f 9d47 d9bd
00000330: 80bb 96ba cc4b 623f b1d8 273f 9c04 3d3d
00000340: abfd 423f e7dc d33d 7cc7 613e c26b 85be
00000350: 7a8b 113d 847f 0abf 319f 1b3e 14d5 4a3d
00000360: 1ce9 3540 78e4 ac3f f9de 63bf 1e91 313f
00000370: b8c9 f23d 333e 8a3f a82f 213f 759e f2be
00000380: 6fe7 2a3c fd54 b63a c8b3 043b e808 02c0
00000390: 49c7 093c a8d7 ca3d 9163 e03d 32bc 5e3f
000003a0: 5953 9d3e 60f4 ae3c cfa9 0d3f 849a d5bf
000003b0: 7837 693e f43f 1fc0 3c81 b23d e9ea 1ebf
000003c0: 82db 8b3d d125 a7bd 4444 cebd 4003 cf3b
000003d0: 49e5 6dbd 6203 743f f17d 4abc 8b1a 85bd
000003e0: bb87 b93f 3055 a6bd 74c5 07bd 14dd a93f
000003f0: 5161 37c0 5a47 923e 3239 f63d 8e3d ba3d

fc_2.bias f4 [4]
0.037006907 -0.10800509 0.010287471 -0.037922524
00000000: 8e94 173d c631 ddbd c88c 283c a654 1bbd
