Mindset augmented trained networks (pth)/segmentation_pointnet_drop05shake05fake02.pth (torch, 79242 bytes, 18 tensors)

base_pointnet.conv_1_a.weight f4 [64, 1, 3]
-0.5508467 0.074332654 0.3834816 -0.47398785 -0.165777 -0.45760545 0.01028398 0.0095375
-0.20394938 -0.20043914 -0.11259384 0.33331212 0.28259188 0.24353789 -0.12301058 0.12194345
0.004017408 0.09797951 0.382833 -0.22492757 -0.3653317 0.1260504 -0.2707365 0.028400937
-0.30299944 -0.5214143 0.03289904 -0.4301861 0.3587526 -0.26259008 -0.503075 0.43450284
-0.054027166 0.3053626 0.35684648 -0.048910722 0.14755084 0.075742975 -0.45853296 0.07031568
-0.3168822 -0.41389632 0.08993102 -0.21617906 -0.19266671 0.30133656 0.4146762 -0.48049408
0.18179996 0.018655602 -0.40869543 0.31497955 0.12064528 -0.014729202 -0.26698416 -0.31781337
-0.029500036 -0.021866793 -0.25939518 0.24933754 -0.19564313 -0.4456296 0.0153062 0.107066095
-0.017687626 -0.2806629 0.5206423 0.18250257 -0.0073229563 -0.042328123 0.12145774 0.07305609
-0.27746576 -0.14238748 0.54238224 0.28484088 0.17250441 0.35686293 -0.2818436 0.10167956
0.20202158 -0.39095786 -0.042464502 -0.36400676 -0.23262514 0.2981219 -0.04131303 -0.28943366
0.4158762 0.020659076 -0.4080045 0.40570506 0.20384143 0.532232 -0.06965748 -0.51990324
0.21483055 0.11797647 -0.19337805 0.20251836 -0.14926119 0.014429677 -0.28686517 0.16111879
0.45926812 0.13457833 0.36643738 0.27868906 -0.5027804 0.4765818 -0.1822824 -0.18892369
0.29418272 -0.35210615 0.40008315 -0.26757804 -0.24717845 -0.05864221 0.106733814 -0.38711554
-0.01089779 0.005528112 0.0024732933 -0.48711768 -0.3631401 -0.2357427 -0.077112265 0.06772295
0.025978439 -0.30934426 -0.06921549 0.23505948 -0.35539782 -0.5813086 -0.40120238 0.4499935
-0.36033288 -0.20245181 -0.33471206 0.41029146 -0.18998374 0.33297044 -0.013565228 0.3696035
-0.22800885 -0.072382115 -0.16138802 0.22553661 -0.37416932 0.23768765 -0.5565904 0.5601152
0.18811782 0.41622582 0.14865848 0.24580224 0.4465609 -0.40303686 -0.42717975 0.24217889
-0.35986826 0.48456416 -0.0062006186 0.025569096 0.009649358 -0.0116746705 -0.054642607 -0.47670183
-0.0020673517 -0.1618703 -0.07929083 -0.30485758 0.24593519 0.03042903 -0.026426487 -0.06031239
0.1845225 0.3258111 -0.16316697 -0.18185923 -0.14953509 0.20873846 -0.0397046 -0.2852525
0.042955454 0.14761405 0.14702432 -0.15357989 -0.096563354 -0.1227973 0.38457474 0.26400602
00000000: 4a04 0dbf b83b 983d b357 c43e 89ae f2be
00000010: 72c1 29be 434b eabe 237e 283c 2d43 1c3c
00000020: 1bd8 50be eb3f 4dbe 9997 e6bd e3a7 aa3e
00000030: e2af 903e ff61 793e f9ec fbbd 7dbd f93d
00000040: 76a4 833b 7ba9 c83d b002 c43e 6a53 66be
00000050: c20c bbbe 5b13 013e f99d 8abe 15a9 e83c
00000060: be22 9bbe 687b 05bf 25c1 063d 5a41 dcbe
00000070: 6cae b73e 3572 86be 86c9 00bf 2877 de3e
00000080: 974b 5dbd 7d58 9c3e 95b4 b63e 9c56 48bd
00000090: 9117 173e 221f 9b3d d5c4 eabe ab01 903d
000000a0: 623e a2be 38ea d3be c12d b83d 0b5e 5dbe
000000b0: 6c4a 45be c948 9a3e 7050 d43e 5203 f6be
000000c0: c529 3a3e a2d3 983c 8740 d1be 0045 a13e
000000d0: df14 f73d c052 71bc 26b2 88be 6fb8 a2be
000000e0: 0faa f1bc fd21 b3bc 72cf 84be 5752 7f3e
000000f0: ac56 48be 9029 e4be dbc6 7a3c 7845 db3d
00000100: a4e5 90bc 0cb3 8fbe d048 053f f4e1 3a3e
00000110: 69f5 efbb 4160 2dbd d6be f83d 6e9e 953d
00000120: fe0f 8ebe 06ce 11be 90d9 0a3f aad6 913e
00000130: ffa4 303e bdb6 b63e ce4d 90be 603d d03d
00000140: bfde 4e3e a12b c8be 42ef 2dbd 185f babe
00000150: 4935 6ebe 6fa3 983e da37 29bd a630 94be
00000160: baed d43e 393d a93c f7e5 d0be 93b8 cf3e
00000170: cfbb 503e 5b40 083f 95a8 8ebd 6118 05bf
00000180: 8afc 5b3e a69d f13d e504 46be f960 4f3e
00000190: edd7 18be 746a 6c3c fedf 92be 53fc 243e
000001a0: 3125 eb3e e7ce 093e ae9d bb3e 55b0 8e3e
000001b0: 37b6 00bf 8802 f43e 3da8 3abe 3675 41be
000001c0: 1e9f 963e 4247 b4be b3d7 cc3e fdff 88be
000001d0: 591c 7dbe d032 70bd 4297 da3d 0234 c6be
000001e0: a58c 32bc 2a25 b53b fa16 223b 7d67 f9be
000001f0: 80ed b9be 8966 71be 09ed 9dbd 54b2 8a3d
00000200: bcd0 d43c 5f62 9ebe dac0 8dbd 6fb3 703e
00000210: b4f6 b5be a4d0 14bf 666a cdbe 8c65 e63e
00000220: 8d7d b8be 874f 4fbe 615f abbe b911 d23e
00000230: 198b 42be 1a7b aa3e b140 5ebc ac3c bd3e
00000240: 277b 69be 133d 94bd e742 25be 12f3 663e
00000250: 1f93 bfbe 6464 733e b57c 0ebf b663 0f3f
00000260: f5a1 403e 8d1b d53e ee39 183e 95b3 7b3e
00000270: a1a3 e43e d95a cebe 4eb7 dabe befd 773e
00000280: a740 b8be cb18 f83e 8f2e cbbb 4876 d13c
00000290: 5718 1e3c 1e47 3fbc edd0 5fbd 4312 f4be
000002a0: 687c 07bb 54c1 25be 3b63 a2bd 4b16 9cbe
000002b0: 6fd6 7b3e 4d46 f93c 5c7c d8bc 200a 77bd
000002c0: 77f3 3c3e b6d0 a63e 3e15 27be 4e39 3abe
000002d0: ba1f 19be 89bf 553e 4aa1 22bd 9e0c 92be
000002e0: 0ff2 2f3d 2328 173e 8b8d 163e 0c44 1dbe
000002f0: 02c3 c5bd 277d fbbd fbe6 c43e cc2b 873e

base_pointnet.conv_1_a.bias f4 [64]
-0.43872488 0.045459226 0.37479874 -0.030454125 0.49524754 0.4063591 0.14018877 -0.34926638
-0.56498057 0.3629571 -0.056593686 -0.35074428 0.17002046 0.1449941 0.32689792 0.062279105
0.2547078 -0.35419983 -0.3144852 0.5601764 -0.08455879 0.3064227 0.47191036 -0.14029874
0.49136773 -0.33372596 0.16648571 0.2785238 0.17121589 -0.43994638 0.41086826 0.079013914
-0.15159038 0.16433156 0.2840681 0.15950921 -0.40067977 0.40600076 0.3657397 0.5229994
0.054199494 0.27958786 0.13677564 -0.5790389 -0.5395751 -0.4891439 -0.369494 0.42240867
0.106332816 -0.27477828 0.124821834 0.088945605 0.2683497 0.43059942 0.4938404 0.579274
-0.43093395 -0.37142467 -0.32378188 0.4765314 -0.11986881 -0.2520233 0.03334238 -0.18179242
00000000: 8ca0 e0be 7433 3a3d 9fe5 bf3e ee7a f9bc
00000010: 1691 fd3e 4d0e d03e a58d 0f3e 0bd3 b2be
00000020: 91a2 10bf 83d5 b93e c8ce 67bd c194 b3be
00000030: d819 2e3e 5579 143e 2a5f a73e 6018 7f3d
00000040: 1069 823e ae59 b5be 3404 a1be b867 0f3f
00000050: 292d adbd 70e3 9c3e 3c9e f13e 79aa 0fbe
00000060: 8d94 fb3e 21de aabe 3b7b 2a3e ac9a 8e3e
00000070: 3853 2f3e a740 e1be 535d d23e 0cd2 a13d
00000080: 823a 1bbe 8846 283e 6071 913e 6256 233e
00000090: e625 cdbe 55df cf3e 3c42 bb3e 4ae3 053f
000000a0: 4a00 5e3d 2426 8f3e ea0e 0c3e e53b 14bf
000000b0: 9821 0abf 1271 fabe 512e bdbe f345 d83e
000000c0: 05c5 d93d bdaf 8cbe 97a2 ff3d 1d29 b63d
000000d0: 2265 893e 8777 dc3e a6d8 fc3e 4d4b 143f
000000e0: 60a3 dcbe 602b bebe bdc6 a5be ecfb f33e
000000f0: c77d f5bd 3309 81be 0592 083d cb27 3abe

base_pointnet.conv_1_b.weight f4 [64, 1, 3]
0.5093238 0.5987577 0.8386652 -0.38105774 -0.046222996 0.30348384 0.7438889 0.66080934
0.84589344 0.3920036 0.31182098 -1.1107208 -1.0737343 -1.0191622 -0.547111 0.8407273
1.2125945 -0.3532434 -0.13222641 -0.99126333 -1.4948493 -0.10531941 -0.10122203 0.8683701
0.49531353 -1.2204933 0.43059692 0.6567279 1.0550271 0.6067401 0.4259342 0.0010083376
-0.8070379 1.1476898 0.8471684 0.21518551 -1.0499678 0.6229184 0.41109642 1.083566
0.03402427 0.10129104 0.8270012 1.2591041 -0.60691005 0.2439047 -0.43786073 -1.2393398
1.3119295 0.52029926 -0.14489189 -0.7455353 -0.6858024 -1.3654407 0.55097467 -0.11865049
-0.44820753 1.1432418 0.27681813 -0.18752839 -0.13114966 -0.6368365 0.86540633 -1.22588
-0.33962625 0.05156363 -1.2824497 0.18118417 0.450263 -0.35918146 -0.37463632 -1.1251992
-0.61881024 0.50463045 0.72511935 -0.50613636 -0.9237232 -0.5065847 -0.58881235 0.24704726
0.22936288 0.70746934 0.712524 -0.7940139 -0.5440157 0.5885621 0.31062472 0.043335896
-0.15741757 0.7432673 0.32359707 -0.5313014 0.119673006 -0.036044545 -0.4372299 0.10691652
-0.57089454 0.66487956 0.2310577 -0.76819855 0.43452108 -1.0246017 0.36489084 -0.01421494
0.04920775 0.4213848 -0.9270153 -0.39818618 -1.3070344 0.6285645 0.3169968 0.72144055
0.36762974 1.1005111 -0.53008646 -0.35860226 1.2343385 -0.20282389 -1.0106485 0.16721974
0.12743376 0.67227685 -1.0037988 0.07469715 0.77546644 -0.29032975 0.61052763 -0.9090941
-0.48620343 -0.1334577 0.17637071 -0.22070889 0.47514024 -0.37501067 -0.5446477 0.006170066
1.1649175 0.65655315 -0.5186569 0.6007329 -1.0473324 1.4274315 -0.7147198 0.22221646
-0.49105474 0.49694782 0.25675154 -0.99789554 -0.32195792 0.1858381 -0.82145375 0.46924987
0.4191376 -0.9864558 -0.23987363 -1.3385329 0.9858118 1.3921132 -0.12433455 -0.6054198
-0.617395 0.10925745 -1.0880064 -0.5340892 0.23823126 -0.083960876 0.854352 -0.323328
-0.9975355 -0.72192216 0.5187959 -0.2817548 -0.33193913 0.6532493 -0.90528506 -0.49014142
0.33114582 -1.0267727 -0.21375391 -0.93797845 0.15357524 0.82834995 0.85849196 -0.37319666
0.22533621 0.5615708 -0.8051067 0.13317446 1.0217952 0.45722342 0.37190938 -0.13230893
00000000: 0b63 023f 2f48 193f c3b2 563f 001a c3be
00000010: 5354 3dbd 3c62 9b3e 816f 3e3f cd2a 293f
00000020: 798c 583f b2b4 c83e 00a7 9f3e 192c 8ebf
00000030: 2070 89bf e873 82bf 770f 0cbf e839 573f
00000040: 4c36 9b3f 52dc b4be 5c66 07be 6fc3 7dbf
00000050: 3957 bfbf b4b1 d7bd 7f4d cfbd 814d 5e3f
00000060: bc99 fd3e 2039 9cbf 3377 dc3e 521f 283f
00000070: 210b 873f 5253 1b3f 0c14 da3e 322a 843a
00000080: 099a 4ebf 80e7 923f 07e0 583f 9759 5c3e
00000090: 5865 86bf 9577 1f3f 3b7b d23e 4ab2 8a3f
000000a0: 085d 0b3d ad71 cf3d 5ab6 533f 532a a13f
000000b0: 755e 1bbf 27c2 793e 482f e0be b0a2 9ebf
000000c0: 4eed a73f 5532 053f 8a5e 14be 67db 3ebf
000000d0: bf90 2fbf c3c6 aebf ad0c 0d3f 07ff f2bd
000000e0: 757b e5be bf55 923f 1bbb 8d3e 7107 40be
000000f0: 194c 06be b807 23bf 458b 5d3f a3e9 9cbf
00000100: 7ee3 adbe 6334 533d 5027 a4bf 5888 393e
00000110: df88 e63e a2e6 b7be 55d0 bfbe 8706 90bf
00000120: 596a 1ebf 762f 013f 6ca1 393f 2792 01bf
00000130: 2079 6cbf 89af 01bf 68bc 16bf f5f9 7c3e
00000140: 1ade 6a3e b61c 353f f967 363f 7f44 4bbf
00000150: 9d44 0bbf 01ac 163f 340a 9f3e fb80 313d
00000160: 1232 21be c446 3e3f 84ae a53e 5e03 08bf
00000170: 1f17 f53d 72a3 13bd 99dc dfbe 0cf7 da3d
00000180: 2526 12bf 8c35 2a3f 649a 6c3e a9a8 44bf
00000190: 8c79 de3e 2626 83bf f9d2 ba3e c8e5 68bc
000001a0: 118e 493d c0bf d73e e050 6dbf 0fdf cbbe
000001b0: e74c a7bf 9ae9 203f 684d a23e 54b0 383f
000001c0: f739 bc3e 8cdd 8c3f bfb3 07bf b79a b7be
000001d0: cefe 9d3f 11b1 4fbe ee5c 81bf a73b 2b3e
000001e0: ff7d 023e 561a 2c3f 7b7c 80bf d2fa 983d
000001f0: f884 463f 1aa6 94be 8a4b 1c3f 64ba 68bf
00000200: a8ef f8be 23a9 08be 869a 343e 8301 62be
00000210: 9545 f33e 6601 c0be 086e 0bbf 442e ca3b
00000220: 041c 953f de13 283f b3c6 04bf a2c9 193f
00000230: fd0e 86bf 13b6 b63f e0f7 36bf b68c 633e
00000240: 876b fbbe f26f fe3e f074 833e 1576 7fbf
00000250: abd7 a4be 584c 3e3e cb4a 52bf 8541 f03e
00000260: 3499 d63e 5e88 7cbf 6fa1 75be 0c55 abbf
00000270: 2a5e 7c3f c430 b23f 1da3 febd cbfc 1abf
00000280: 990d 1ebf 5fc2 df3d cb43 8bbf 12ba 08bf
00000290: e5f2 733e aef3 abbd d0b6 5a3f 3f8b a5be
000002a0: 7d5e 7fbf e4cf 38bf cfcf 043f 2a42 90be
000002b0: edf3 a9be 593b 273f c3c0 67bf d1f3 fabe
000002c0: f28b a93e 4a6d 83bf 4ee2 5abe 5b1f 70bf
000002d0: d442 1d3e be0e 543f 21c6 5b3f a213 bfbe
000002e0: 89be 663e 1bc3 0f3f 791b 4ebf e35e 083e
000002f0: 2fca 823f 3019 ea3e e86a be3e fe7b 07be

base_pointnet.conv_1_b.bias f4 [64]
0.3573489 0.5661311 -0.5821178 -0.28939503 0.27457243 0.04235024 -0.38240042 -0.06723515
0.5704358 -0.3704652 0.3320359 -0.5463394 0.022030463 -0.475327 0.22222172 0.57726645
0.14357823 -0.028001357 -0.43788356 0.027101653 0.1475388 0.50363797 0.22817235 -0.035622712
-0.3052207 -0.1505445 -0.45672396 0.19813932 -0.2911958 -0.20210676 0.31304154 -0.35141852
-0.23752095 -0.13512248 -0.38342088 0.14055212 0.15569861 0.412508 0.038965084 0.37355116
0.3319221 0.48103037 0.2171151 0.5189639 -0.092885844 -0.088910185 -0.13863908 -0.41821033
-0.08721837 0.1899633 -0.32919574 0.27570584 0.33598393 0.20150092 0.26949483 -0.109157555
0.4020086 0.43161237 0.17153434 -0.09927156 0.46753618 -0.11177228 0.13917524 -0.11484654
00000000: 6ff6 b63e f8ed 103f ac05 15bf 962b 94be
00000010: c294 8c3e 7277 2d3d fdc9 c3be 95b2 89bd
00000020: 1508 123f 9dad bdbe 9c00 aa3e e6dc 0bbf
00000030: 3b79 b43c 0f5e f3be 178e 633e bcc7 133f
00000040: 2c06 133e 1a63 e5bc 4632 e0be 4904 de3c
00000050: 6914 173e 6bee 003f 03a6 693e 1fe9 11bd
00000060: e345 9cbe 5628 1abe b9d7 e9be 09e5 4a3e
00000070: 9e17 95be 13f5 4ebe fb46 a03e 21ed b3be
00000080: b138 73be 8c5d 0abe be4f c4be e5ec 0f3e
00000090: 756f 1f3e 4034 d33e da99 1f3d 1942 bf3e
000000a0: b2f1 a93e 9d49 f63e 6c53 5e3e d1da 043f
000000b0: ef3a bebd 8b16 b6bd 67f7 0dbe aa1f d6be
000000c0: 8b9f b2bd bd85 423e 588c a8be 5129 8d3e
000000d0: 1606 ac3e 4256 4e3e 3afb 893e ff8d dfbd
000000e0: 12d4 cd3e 4cfc dc3e b3a6 2f3e e34e cbbd
000000f0: e760 ef3e dde8 e4bd f483 0e3e aa34 ebbd

base_pointnet.conv_2.weight f4 [64, 64, 3]
-0.00641149 -0.036765236 -0.10616814 -0.042399004 0.051920563 -0.006110804 0.06977478 0.017189179
0.13232665 -0.03449043 -0.07659049 -0.05453033 -0.009867909 -0.16275652 -0.029854286 0.052484803
0.04788518 0.047258988 -0.1091073 -0.01944543 -0.10328392 0.060270123 0.112741664 0.16687725
0.05556123 -0.12793626 0.10951237 -0.12235625 -0.09631865 0.10934325 -0.19366468 0.016977042
-0.07036595 -0.061117217 0.13030571 -0.1173508 -0.085400596 -0.02508011 -0.05134347 0.15440278
0.043115444 0.1269793 0.0070309206 0.003252546 0.06097183 0.12375351 0.026243975 -0.015303849
-0.076153554 0.21124318 -0.044545308 -0.08378906 -0.14115259 0.00085402245 -0.19957559 -0.0011425992
-0.021901399 -0.0075842664 0.011884728 -0.034385934 -0.108967 -0.10045716 0.031091075 -0.14924222
-0.07113049 -0.018293006 0.039629307 -0.2160294 0.03100505 0.124674566 -0.19600673 -0.14469244
-0.009149067 0.025353312 -0.02120373 0.12550022 -0.14005955 0.06165407 0.15174022 0.111561626
-0.122683786 -0.001593062 0.015672581 0.03953254 -0.13473095 0.21066795 -0.004974144 0.13382316
0.057743065 -0.12813628 -0.01800921 -0.06456858 -0.116332725 0.10312336 -0.093731165 0.009194985
0.16059549 -0.19439867 0.06482994 -0.081835635 -0.012596241 0.13368297 -0.13727462 0.010763804
0.00845521 -0.08106268 0.07056618 -0.06792433 0.017098019 -0.049785674 0.023052763 0.10906079
-0.1943905 -0.016746715 0.014926276 -0.015903288 -0.03333822 -0.09121109 0.04248551 -0.0818761
-0.0037452339 -0.020231932 0.0077341236 -0.08112684 -0.014312927 -0.024943551 -0.008241723 0.16481614
-0.12572752 0.19226044 -0.05839241 0.25462225 -0.10304779 0.067656726 -0.05473226 0.09268324
0.11653426 -0.20296235 -0.013824572 -0.07874139 0.05101064 0.11273608 -0.01705158 0.056031365
0.12270508 0.07318633 -0.0028013447 -0.027634555 0.122842245 0.06603341 0.039878234 0.060549866
-0.069861025 0.06912474 -0.022145236 -0.0001852916 0.024617005 0.041720245 0.26540345 0.021149226
0.0028096838 -0.02756069 -0.051921632 0.070219986 0.11628513 0.062394243 0.025571128 0.06478048
-0.037267994 0.050144695 -0.012951615 -0.1703402 0.040823296 -0.031159488 -0.059627295 0.20750473
0.10643725 -0.03799223 -0.089283235 -0.28777862 -0.038084876 0.1085887 0.05460101 0.12052778
-0.037981477 0.11779148 0.018741693 -0.024724176 0.07028895 -0.012861049 0.014023939 -0.088605165
0.054782256 0.06134803 -0.05017307 0.049820803 0.02149795 0.000621449 0.1895864 -0.083799355
0.02106934 0.14678217 -0.10025371 0.21408534 -0.025960222 0.045550518 0.04381543 0.071616426
-0.069591165 -0.067488745 -0.11904389 0.039908145 -0.06599158 -0.47647542 0.061836623 -0.015471707
0.011737623 0.075729 0.023931319 -0.09817626 -0.006881859 0.061172538 -0.070365265 -0.0024963403
0.22882694 -0.045060378 0.0128743965 -0.052540015 -0.0055353334 -0.02813128 -0.1253638 -0.0025644205
0.046502296 0.11519102 0.031333126 0.06894959 0.02075622 0.108178794 -0.08091269 0.0764257
0.044476666 0.07379579 -0.10721482 0.044150226 0.13834329 0.109604366 0.028345702 0.0002618115
0.074004956 0.032198895 -0.079660445 -0.18596727 0.04226397 0.08021057 0.033380456 -0.1384143
00000000: 7a17 d2bb 2597 16bd af6e d9bd 94aa 2dbd
00000010: a8aa 543d 243d c8bb 14e6 8e3d 52d0 8c3c
00000020: a380 073e d645 0dbd 7adb 9cbd 325b 5fbd
00000030: 03ad 21bc a5a9 26be fa90 f4bc 4efa 563d
00000040: 4023 443d a492 413d a673 dfbd 064c 9fbc
00000050: 8586 d3bd cedd 763d 1ae5 e63d dfe1 2a3e
00000060: 2c94 633d b901 03be 0548 e03d ea95 fabd
00000070: b642 c5bd 5bef df3d 0950 46be 7013 8b3c
00000080: 061c 90bd 0c56 7abd dc6e 053e 9e55 f0bd
00000090: 82e6 aebd ce74 cdbc 884d 52bd c31b 1e3e
000000a0: d299 303d dd06 023e a363 e63b ab28 553b
000000b0: 99bd 793d 7b72 fd3d 9bfd d63c ffbc 7abc
000000c0: 65f6 9bbd 2250 583e 2475 36bd 9999 abbd
000000d0: 4e8a 10be 7ae0 5f3a 8b5d 4cbe 44c3 95ba
000000e0: 906a b3bc 7085 f8bb 2ab8 423c 44d8 0cbd
000000f0: 172a dfbd 7cbc cdbd b6b2 fe3c f4d2 18be
00000100: ddac 91bd 37db 95bc 5752 223d d036 5dbe
00000110: 4dfe fd3c 6155 ff3d fdb5 48be 412a 14be
00000120: f8e5 15bc c0b1 cf3c 72b3 adbc 2183 003e
00000130: c56b 0fbe fa88 7c3d ca61 1b3e 6c7a e43d
00000140: a341 fbbd 4ace d0ba c963 803c dfec 213d
00000150: e9f6 09be 57b9 573e 25fe a2bb f008 093e
00000160: fe83 6c3d 2836 03be 0d88 93bc 883c 84bd
00000170: da3f eebd 5732 d33d 20f6 bfbd 90a6 163c
00000180: 2573 243e 7210 47be 8fc5 843d 7199 a7bd
00000190: 7760 4ebc 30e4 083e b891 0cbe ab5a 303c
000001a0: b987 0a3c 3104 a6bd 0085 903d e91b 8bbd
000001b0: 2511 8c3c 10ec 4bbd 26d9 bc3c 435b df3d
000001c0: 4e0e 47be 6830 89bc 578d 743c 9d47 82bc
000001d0: a88d 08bd e1cc babd 4905 2e3d a8ae a7bd
000001e0: 9972 75bb 70bd a5bc 886e fd3b d425 a6bd
000001f0: c480 6abc 6b56 ccbc 4b08 07bc 90c5 283e
00000200: b7be 00be ecdf 443e e12c 6fbd d95d 823e
00000210: b80a d3bd 9c8f 8a3d ef2e 60bd b6d0 bd3d
00000220: 84a9 ee3d 5dd5 4fbe 7580 62bc 2a43 a1bd
00000230: 88f0 503d 2de2 e63d c1af 8bbc 2581 653d
00000240: cd4c fb3d b7e2 953d c496 37bb dd61 e2bc
00000250: b794 fb3d 863c 873d 5c57 233d 2303 783d
00000260: 4c13 8fbd 4691 8d3d ed69 b5bc d64a 42b9
00000270: 9aa9 c93c d9e2 2a3d f6e2 873e 2441 ad3c
00000280: ac22 383b f5c6 e1bc c7ab 54bd 7fcf 8f3d
00000290: e626 ee3d 1b91 7f3d 8b7a d13c a1ab 843d
000002a0: 53a6 18bd 8664 4d3d 0333 54bc a96d 2ebe
000002b0: 5436 273d 2f42 ffbc c03b 74bd 1f7c 543e
000002c0: c6fb d93d be9d 1bbd 21da b6bd b857 93be
000002d0: e3fe 1bbd c163 de3d 4fa5 5f3d 45d7 f63d
000002e0: 7792 1bbd a93c f13d 2e88 993c 5b8a cabc
000002f0: a7f3 8f3d 26b7 52bc aac4 653c a076 b5bd
00000300: 5c63 603d 1248 7b3d 4782 4dbd e610 4c3d
00000310: 781c b03c bde8 223a f022 423e ff9e abbd
00000320: 9c99 ac3c 114e 163e d151 cdbd 3039 5b3e
00000330: 88aa d4bc 2e93 3a3d cf77 333d a2ab 923d
00000340: d085 8ebd 8a37 8abd 48cd f3bd b976 233d
00000350: 9826 87bd 96f4 f3be 6648 7d3d 0b7d 7dbc
00000360: 294f 403c ce17 9b3d 9d0b c43c a310 c9bd
00000370: 3881 e1bb 0e90 7a3d aa1b 90bd a499 23bb
00000380: 9c51 6a3e 3b91 38bd 22ef 523c 3334 57bd
00000390: be61 b5bb 9273 e6bc 5e5f 00be d60f 28bb
000003a0: 3179 3e3d 45e9 eb3d 2a57 003d 7135 8d3d
000003b0: f308 aa3c d88c dd3d 8db5 a5bd 1485 9c3d
000003c0: 2a2d 363d 3f22 973d 7293 dbbd ded6 343d
000003d0: dda9 0d3e 4178 e03d 3f35 e83c bf43 8939
000003e0: e98f 973d fde2 033d 0425 a3bd 346e 3ebe
000003f0: fc1c 2d3d 7045 a43d f2b9 083d 7abc 0dbe

base_pointnet.conv_2.bias f4 [64]
0.0760181 -0.058937743 -0.060944434 -0.06873192 -0.057473492 0.0077776574 -0.118464746 0.049358174
-0.036024086 0.05128061 -0.06333955 -0.004379966 0.08947601 0.03647004 0.11123304 0.016150802
-0.11038757 0.03778136 -0.021315113 -0.028325517 -0.008926411 -0.030025998 0.062034786 -0.011047186
-0.025454208 -0.04035833 -0.050463054 0.06819773 0.024300523 -0.040438823 -0.06546401 0.034744628
0.034914244 0.019045081 0.031191124 0.048000447 -0.017025826 0.05770534 0.04537363 -0.0243967
-0.04641918 -0.06393586 0.035046667 0.021420492 0.06168886 0.032145377 0.018072248 -0.01666322
-0.034064423 -0.053903326 0.0071369787 -0.047919948 -0.036623742 -0.017862404 -0.040377617 -0.004967989
0.012789217 -0.0960493 0.04904802 0.104676835 -0.029062215 0.08041158 -0.059249464 0.054416697
00000000: 61af 9b3d b468 71bd dfa0 79bd 52c3 8cbd
00000010: 5369 6bbd b8db fe3b a59d f2bd cc2b 4a3d
00000020: fe8d 13bd 9e0b 523d 2ab8 81bd d185 8fbb
00000030: 333f b73d 9c61 153d 26ce e33d b04e 843c
00000040: e112 e2bd a1c0 1a3d 089d aebc ea0a e8bc
00000050: 1540 12bc 15f9 f5bc 3018 7e3d 42ff 34bc
00000060: 5885 d0bc c74e 25bd 59b2 4ebd 40ab 8b3d
00000070: e411 c73c 2ea3 25bd ff11 86bd 6250 0e3d
00000080: 3d02 0f3d 6e04 9c3c 8784 ff3c 1e9c 443d
00000090: bf79 8bbc 6f5c 6c3d b3d9 393d 97db c7bc
000000a0: 0a22 3ebd cef0 82bd 188d 0f3d 077a af3c
000000b0: 75ad 7c3d dfaa 033d 400c 943c 4e81 88bc
000000c0: 2387 0bbd bcc9 5cbd 51dd e93b b547 44bd
000000d0: c702 16bd 2d54 92bc 0063 25bd 83ca a2bb
000000e0: dd89 513c 7fb5 c4bd 94e6 483d cf60 d63d
000000f0: e213 eebc d4ae a43d 91af 72bd 0be4 5e3d

base_pointnet.bn_1.weight f4 [64]
1.1136149 0.75215304 1.0946524 1.2218075 0.59665316 0.831155 0.97130245 1.0219805
0.72021055 1.0320351 1.1773169 0.6983102 1.0407356 0.7585068 0.770839 0.9974987
0.9737845 0.80715734 0.483942 1.1752036 0.60335946 0.99388283 0.67054653 1.1115957
0.8503493 0.59265965 1.2767652 0.73866713 1.0447391 1.0228722 0.7947742 0.85685986
0.8346873 1.0452313 0.7508129 0.56488705 1.0596358 1.1110567 0.9750726 0.8408654
1.1257421 0.6841654 1.1396983 1.0717058 0.64060324 0.8379763 1.1571469 0.71494937
0.7573784 1.0400965 0.8772887 0.5451775 1.132538 0.6772743 1.2018518 0.65821654
0.8034272 1.6762087 1.150794 1.0440158 1.048846 1.0993769 0.8227053 0.5212366
00000000: ef8a 8e3f 1a8d 403f 921d 8c3f 3064 9c3f
00000010: 43be 183f 93c6 543f 47a7 783f 42d0 823f
00000020: b85f 383f ba19 843f 52b2 963f 75c4 323f
00000030: d336 853f 802d 423f b455 453f 135c 7f3f
00000040: f149 793f dda1 4e3f 3fc7 f73e 126d 963f
00000050: c475 1a3f 1b6f 7e3f f0a8 2b3f c548 8e3f
00000060: 7eb0 593f 8bb8 173f 0b6d a33f 4a19 3d3f
00000070: 03ba 853f 7aed 823f 5276 4b3f 2b5b 5b3f
00000080: 11ae 553f 24ca 853f 4635 403f 709c 103f
00000090: 25a2 873f 1b37 8e3f 5c9e 793f f442 573f
000000a0: 5118 903f 7725 2f3f a2e1 913f a82d 893f
000000b0: 93fe 233f 9d85 563f 641d 943f ec06 373f
000000c0: 8de3 413f e221 853f fe95 603f c190 0b3f
000000d0: 01f7 903f d961 2d3f 48d6 993f e180 283f
000000e0: 68ad 4d3f 028e d63f 384d 933f 4fa2 853f
000000f0: 9640 863f 62b8 8c3f d19c 523f c36f 053f

base_pointnet.bn_1.bias f4 [64]
0.2664494 -0.36819893 -0.21836211 0.4175571 -0.37696233 -0.13927025 0.025686443 -0.55303586
-0.38870478 0.013004152 -0.10088421 -0.25786865 -0.55581945 -0.23915638 -0.1594877 -0.14065461
-0.44579163 -0.32362154 0.08548877 0.07851171 -0.098529525 -0.31781745 -0.1500727 0.17236438
0.38323745 -0.31017983 0.36901677 -0.088294044 0.015459899 -0.51144046 -0.12698936 -0.21485727
-0.1705913 -0.054267284 0.29041094 -0.05291641 -0.13686405 -0.5149299 -0.120568804 -0.1276968
-0.062409982 -0.13570736 -0.08148719 -0.44914457 -0.050080057 0.0046829307 -0.29018345 -0.49763703
-0.5931725 -0.06258156 0.15419538 -0.1790326 -0.41098878 -0.05470227 -0.22693092 -0.47236517
0.071207725 -0.31550086 0.45951098 -0.39292866 -0.045885965 -0.23446874 0.027993534 -0.14122199
00000000: 0e6c 883e 9284 bcbe 519a 5fbe 0bca d53e
00000010: 3501 c1be dc9c 0ebe 606c d23c c293 0dbf
00000020: 5004 c7be 5e0f 553c 619c cebd 5c07 84be
00000030: 2f4a 0ebf 69e5 74be be50 23be c307 10be
00000040: cd3e e4be b9b1 a5be bc14 af3d bfca a03d
00000050: d9c9 c9bd f8b8 a2be a8ac 19be 4a80 303e
00000060: b337 c43e e4cf 9ebe c4ef bc3e 82d3 b4bd
00000070: 844b 7d3c c3ed 02bf 8009 02be 8b03 5cbe
00000080: 7caf 2ebe 5f47 5ebd beb0 943e e1be 58bd
00000090: 1726 0cbe 72d2 03bf c7ec f6bd f3c2 02be
000000a0: 9ca1 7fbd dff6 0abe c2e2 a6bd 47f6 e5be
000000b0: bf20 4dbd 4573 993b ed92 94be 48ca febe
000000c0: 27da 17bf c32a 80bd 65e5 1d3e 5254 37be
000000d0: 1f6d d2be 7d0f 60bd 9460 68be d9d9 f1be
000000e0: 5bd5 913d 5489 a1be 0645 eb3e f22d c9be
000000f0: ecf2 3bbd 9318 70be b252 e53c 7f9c 10be

base_pointnet.bn_1.running_mean f4 [64]
0.31991178 -37.409008 -2.1089315 -0.6031011 9.679437 11.554447 -12.443751 -3.1269233
-28.010557 -6.8686666 -4.707866 24.63294 -7.856101 -20.712942 -7.573917 6.1921844
-3.3462608 8.77186 -22.047642 1.7327477 -21.424862 -8.610274 23.556147 1.4405564
5.3881392 23.769724 0.19265792 -25.664637 1.4530908 5.7097187 7.4734554 -2.778648
5.1898704 -0.21693628 12.05467 25.419203 -8.009884 -3.3774943 -2.813359 -12.773725
-0.10703968 -35.633705 -0.62865686 -5.4696674 -47.679058 -0.8830391 -6.1833463 25.487806
-15.370863 0.69467914 6.483863 23.327843 -8.139547 10.972488 -0.8693114 -17.248081
-10.768916 -0.8885779 1.0231616 -4.4574924 4.650479 -2.9046676 -2.7169662 19.248634
00000000: 7acb a33e d3a2 15c2 bcf8 06c0 d564 1abf
00000010: f9de 1a41 04df 3841 9b19 47c1 831f 48c0
00000020: 9f15 e0c1 1ecc dbc0 d7a6 96c0 4310 c541
00000030: 2e65 fbc0 1bb4 a5c1 875d f2c0 6026 c640
00000040: 2329 56c0 8a59 0c41 9261 b0c1 adca dd3f
00000050: 1e66 abc1 afc3 09c1 fd72 bc41 2764 b83f
00000060: a36b ac40 6528 be41 1e48 453e 2d51 cdc1
00000070: e1fe b93f 04b6 b640 8c26 ef40 5ed5 31c0
00000080: 6b13 a640 8b24 5ebe eedf 4041 875a cb41
00000090: 7c28 00c1 de28 58c0 130e 34c0 2d61 4cc1
000000a0: 9f37 dbbd ea88 0ec2 a8ef 20bf 8407 afc0
000000b0: 5bb7 3ec2 da0e 62bf f9dd c5c0 07e7 cb41
000000c0: 0eef 75c1 7ed6 313f ce7b cf40 6c9f ba41
000000d0: 963b 02c1 508f 2f41 318b 5ebf 12fc 89c1
000000e0: 7b4d 2cc1 d779 63bf f6f6 823f c7a3 8ec0
000000f0: b9d0 9440 13e6 39c0 c6e2 2dc0 34fd 9941

base_pointnet.bn_1.running_var f4 [64]
116.23623 388.1265 15.42936 35.24997 62.18385 34.401154 124.840454 17.9133
239.40778 73.515144 75.60361 184.85652 67.22783 156.4813 40.4662 120.054146
55.456078 57.012432 128.54321 25.487576 148.34953 43.554253 168.29936 10.097582
100.27436 178.4139 31.977192 192.33531 25.870264 53.98267 84.8945 135.36841
27.46935 13.422521 109.20805 187.4366 95.31564 44.789017 65.35217 70.533745
1.4924806 363.1387 3.7511501 41.364544 591.9166 76.798256 55.172054 180.88048
66.803795 37.303448 141.92334 172.39424 148.25275 87.54446 4.283954 117.92344
34.77806 29.042032 10.876691 48.832375 19.622612 27.755335 14.619766 133.0981
00000000: f378 e842 3110 c243 a9de 7641 f8ff 0c42
00000010: 43bc 7842 c89a 0942 50ae f942 704e 8f41
00000020: 6468 6f43 c107 9342 0c35 9742 45db 3843
00000030: a674 8642 367b 1c43 64dd 2142 b91b f042
00000040: 06d3 5d42 bb0c 6442 108b 0043 8ee6 cb41
00000050: 7b59 1443 8e37 2e42 a34c 2843 b28f 2141
00000060: 798c c842 f569 3243 4ad1 ff41 d755 4043
00000070: 4df6 ce41 41ee 5742 fcc9 a942 505e 0743
00000080: 3bc1 db41 a5c2 5641 866a da42 c56f 3b43
00000090: 9ca1 be42 f427 3342 50b4 8242 4711 8d42
000000a0: 9b09 bf3f c191 b543 d812 7040 4b75 2542
000000b0: aafa 1344 b598 9942 2fb0 5c42 67e1 3443
000000c0: 8b9b 8542 bb36 1542 60ec 0d43 ed64 2c43
000000d0: b440 1443 c316 af42 2716 8940 cdd8 eb42
000000e0: bc1c 0b42 1556 e841 ed06 2e41 5a54 4342
000000f0: 1cfb 9c41 ed0a de41 90ea 6941 1d19 0543

base_pointnet.bn_2.weight f4 [64]
1.2184832 1.0998653 1.091031 1.1435654 1.8006989 1.7188613 1.4527497 1.34402
1.1380676 1.2666974 1.0503663 1.241872 1.26815 1.1379724 1.1128175 1.338976
1.1754391 1.3319142 1.0308458 1.3760526 1.0590043 1.4472342 1.1175753 1.238263
1.1652135 1.3308932 1.2596133 1.1724676 1.3108137 1.1809546 1.2298301 1.4831458
0.9842885 1.1073048 1.1243674 1.1572071 1.1258056 1.059537 1.4158928 1.1393533
1.14253 1.2336626 1.0394274 1.2066705 1.0376333 1.3963969 1.0862548 1.0608099
1.4202117 1.0309911 1.2318279 1.0408695 1.1713225 1.2051251 1.2516592 1.0907615
1.0115991 1.3775046 1.1239518 1.0538356 1.1271151 1.0895401 1.4584588 1.2582932
00000000: 42f7 9b3f 63c8 8c3f e7a6 8b3f 5a60 923f
00000010: 4d7d e63f a603 dc3f b4f3 b93f d908 ac3f
00000020: 33ac 913f 2423 a23f 6772 863f a9f5 9e3f
00000030: bd52 a23f 14a9 913f ce70 8e3f 9163 ab3f
00000040: ca74 963f 2a7c aa3f c1f2 833f 7e22 b03f
00000050: 748d 873f f83e b93f b50c 8f3f 677f 9e3f
00000060: b725 953f b55a aa3f 023b a13f 6b13 963f
00000070: bec8 a73f 8529 973f 136b 9d3f b9d7 bd3f
00000080: 55fa 7b3f 2abc 8d3f 45eb 8f3f 5d1f 943f
00000090: 661a 903f e99e 873f fa3b b53f 54d6 913f
000000a0: 6c3e 923f a8e8 9d3f f50b 853f 2e74 9a3f
000000b0: 2bd1 843f 22bd b23f 660a 8b3f 9ec8 873f
000000c0: 7fc9 b53f 84f7 833f 89ac 9d3f 363b 853f
000000d0: e5ed 953f 8a41 9a3f 5e36 a03f 139e 8b3f
000000e0: 147c 813f 1252 b03f a7dd 8f3f 16e4 863f
000000f0: 4f45 903f 0d76 8b3f c7ae ba3f c00f a13f

base_pointnet.bn_2.bias f4 [64]
-0.08703495 0.09265932 -0.03340194 0.035889108 -0.13540961 -0.0930239 -0.240836 -0.006464297
-0.037948404 0.039847318 0.05102525 0.046709362 -0.15824115 -0.0058508636 -0.015891347 0.03203447
0.03879708 -0.012121066 -0.10490502 0.04052582 0.0112386765 0.011563807 0.07470405 -0.037549704
0.02994696 -0.00061187753 -0.14895415 0.04897374 -0.043984227 -0.02616896 0.014124099 0.01746456
-0.07875059 0.026347796 0.03891566 0.038615063 0.11579242 -0.02516453 -0.08540783 -0.12546809
0.0059110494 -0.19277048 -0.08921718 0.13500226 -0.04708634 -0.034340765 0.03568364 0.07614312
-0.14458619 0.044542275 -0.202568 -0.16453922 -0.07931862 -0.19118068 0.051302787 -0.16042854
-0.034824945 -0.080664285 -0.15003644 0.06499464 0.07591889 0.075911626 -0.01679953 -0.042314976
00000000: 613f b2bd 2bc4 bd3d 79d0 08bd 7500 133d
00000010: d1a8 0abe 5183 bebd b69d 76be 74d2 d3bb
00000020: c96f 1bbd f136 233d daff 503d 5152 3f3d
00000030: f809 22be 9ab8 bfbb 922e 82bc 9436 033d
00000040: b0e9 1e3d 7097 46bc 71d8 d6bd 67fe 253d
00000050: 6d22 383c 1f76 3d3c 70fe 983d b8cd 19bd
00000060: 5453 f53c 6866 20ba 7087 18be b098 483d
00000070: ce28 34bd 4960 d6bc c468 673c d611 8f3c
00000080: fd47 a1bd 55d7 d73c 0766 1f3d d42a 1e3d
00000090: 9424 ed3d d825 cebc 4dea aebd b57a 00be
000000a0: 7ab1 c13b a065 45be 7fb7 b6bd 083e 0a3e
000000b0: 9bdd 40bd e7a8 0cbd 0229 123d edf0 9b3d
000000c0: 670e 14be f671 363d fc6d 4fbe f87c 28be
000000d0: cd71 a2bd dec4 43be df22 523d 6147 24be
000000e0: 9aa4 0ebd 5133 a5bd 27a3 19be e91b 853d
000000f0: 5d7b 9b3d 8e77 9b3d 2b9f 89bc 7852 2dbd

base_pointnet.bn_2.running_mean f4 [64]
-0.063875735 -0.2513001 0.26316014 -0.21524663 -0.0625779 -0.31495163 0.07498369 0.08305136
0.06373682 -0.99781847 1.548742 1.0023103 -0.51202273 -0.61198044 -0.72737557 -0.82618546
-0.3976903 -1.0125053 0.68237257 -1.2833052 0.16873552 -0.819912 0.75007194 -0.0104217
-0.25745338 -0.15748617 -0.3440401 -1.4335207 -0.33414003 0.03994012 -0.1895978 -0.3733686
-0.002407009 0.57764214 -0.5386065 0.06159374 0.35553437 -0.67789197 -0.08908325 0.23330635
-0.80401134 0.86312777 0.28275174 0.58745104 -0.25492337 -0.17689495 1.7295389 -0.062472645
-0.11753606 -0.014051289 0.55088216 0.2268361 -0.34366274 0.27769825 0.10301214 0.109926686
0.06296111 -0.29001266 -0.4722588 -0.15200378 -0.5703694 -2.3218446 -0.47504196 -0.114460796
00000000: 48d1 82bd 68aa 80be edbc 863e 9d69 5cbe
00000010: d828 80bd 5741 a1be 0d91 993d d516 aa3d
00000020: 7388 823d 0871 7fbf 2e3d c63f b44b 803f
00000030: ec13 03bf c0aa 1cbf 4935 3abf e480 53bf
00000040: 109e cbbe c699 81bf f8af 2e3f 5843 a4bf
00000050: 01c9 2c3e c1e5 51bf b704 403f c7bf 2abc
00000060: eed0 83be 0e44 21be 0626 b0be 9b7d b7bf
00000070: 6714 abbe 4098 233d ed25 42be 2b2a bfbe
00000080: e9be 1dbb 5be0 133f 1ee2 09bf b849 7c3d
00000090: 9a08 b63e 548a 2dbf 4771 b6bd dce7 6e3e
000000a0: b0d3 4dbf f1f5 5c3f d6c4 903e 3163 163f
000000b0: 5185 82be f323 35be 8861 dd3f 51e3 7fbd
000000c0: bfb6 f0bd 6137 66bc 9d06 0d3f b947 683e
000000d0: 90f4 afbe 772e 8e3e 07f8 d23d 3e21 e13d
000000e0: c1f1 803d 8a7c 94be e8cb f1be e1a6 1bbe
000000f0: bb03 12bf 1a99 14c0 b338 f3be 6c6a eabd

base_pointnet.bn_2.running_var f4 [64]
0.0974052 0.23365456 0.12589096 0.06761905 0.025716184 0.11216514 0.080063105 0.1502394
0.28567836 0.082648665 1.4376838 0.53065526 0.073132984 0.08954699 0.0787414 0.11955953
0.094216146 0.031243704 0.25702578 0.03835218 0.17369996 0.053541817 0.27973574 0.0649636
0.06456103 0.048629884 0.06490727 0.22365968 0.10090303 0.08970345 0.07335534 0.14908087
0.57818216 0.09916673 0.21214181 0.0931964 0.25901684 0.081420265 0.053853676 0.13994908
0.18461755 0.1764731 0.19663419 0.22574693 0.43367493 0.06584814 0.491729 0.27126667
0.096597545 0.48059708 0.15744554 0.16756427 0.07223532 0.07201216 0.055135727 0.119124785
0.14123102 0.0525847 0.105369925 0.094224215 0.14921191 0.5834771 0.1108853 0.10721706
00000000: 617c c73d 2443 6f3e 8fe9 003e db7b 8a3d
00000010: bfaa d23c d6b6 e53d 20f8 a33d 5bd8 193e
00000020: 6f44 923e b443 a93d 0606 b83f 06d9 073f
00000030: bfc6 953d 6a64 b73d 2c43 a13d a0db f43d
00000040: 65f4 c03d ccf2 ff3c e298 833e 2d17 1d3d
00000050: 67de 313e aa4e 5b3d 8639 8f3e a30b 853d
00000060: 9338 843d 2130 473d 1aee 843d 0b07 653e
00000070: 3fa6 ce3d 71b6 b73d 533b 963d a8a8 183e
00000080: bf03 143f ed17 cb3d b43b 593e c1dd be3d
00000090: db9d 843e abbf a63d ac95 5c3d d04e 0f3e
000000a0: 620c 3d3e 5db5 343e 795a 493e 342a 673e
000000b0: a40a de3e 64db 863d e7c3 fb3e 77e3 8a3e
000000c0: efd4 c53d d210 f63e 6739 213e f895 2b3e
000000d0: 1df0 933d 1d7b 933d 00d6 613d b2f7 f33d
000000e0: dd9e 103e 0e63 573d 30cc d73d a0f8 c03d
000000f0: 02cb 183e c15e 153f d517 e33d 9e94 db3d

fc_1.weight f4 [64, 66]
-0.085622 -0.04920989 -0.061799876 0.04157265 0.059881188 -0.10926752 -0.11878335 -0.0070196316
-0.07710251 -0.10449403 -0.13974844 0.0985044 0.06807645 0.09320429 0.08411457 -0.10330753
0.060235918 -0.117077 0.048041247 0.031147443 -0.14370555 0.02310041 -0.1309859 -0.12352106
-0.017427567 -0.041168343 -0.057317052 -0.08166208 -0.027012387 -0.11340073 0.009524868 0.001844794
-0.05447444 0.09546164 0.07635444 0.07471083 -0.031645678 -0.053947967 -0.13152096 -0.041315652
-0.023190659 -0.04991981 -0.028319696 -0.088981904 0.04796152 -0.0447801 0.09111652 -0.08194326
0.0016588499 0.024816662 0.038673766 -0.09268296 0.043975137 -0.00091454305 -0.12434548 -0.047315218
-0.1013179 0.076749995 -0.034852896 -0.041147005 -0.0049562645 0.018004404 0.07107574 0.040143557
0.07403541 0.027334116 0.20846929 -2.7201278 -0.25949994 -0.1338825 0.0065193744 0.10683138
-0.1535637 0.09355345 0.03619366 -0.26280585 -0.037205078 -0.11875786 -0.04223352 0.04780198
0.27041012 -0.09658859 -0.29348636 0.09678286 0.03859163 0.007454319 -0.070633754 0.18402496
0.02632774 -0.7128291 0.04623652 -0.119572565 0.15379128 0.13486929 0.12357935 -0.21395078
0.26896924 -0.51619387 -0.21361229 0.3504943 -0.19347058 0.05070839 -0.123581626 0.08051874
-0.06016195 -0.088627286 0.019110996 0.1490393 0.17645225 -0.074386895 -0.11741816 -0.13424715
0.0020509572 0.010342059 0.0009198208 -0.03831291 0.078182176 0.040732022 0.19640894 0.010088068
-0.14577216 -0.09074322 -0.02339593 -0.09317729 0.055356376 0.040316023 0.013355818 -0.04886414
-0.059582546 0.03924654 0.12328637 -0.3367606 0.0123649975 -0.05928537 -0.11765225 -0.11194908
0.056941915 -0.037162937 0.0025283222 -0.07811543 0.10159325 0.09903472 0.015734967 -0.04489932
0.064054966 0.11299348 -0.08876617 0.0051445896 0.08131795 -0.12539126 -0.029284535 0.076793276
-0.08458672 0.0950701 0.012384403 0.07476677 -0.06099602 0.008112048 0.06806924 0.06626166
-0.03809381 -0.0541541 -0.003608902 -0.079392456 0.046126656 -0.112955704 -0.11965968 -0.0498788
-0.120485276 -0.106018886 -0.05394501 -0.10934757 -0.10056897 -0.1263035 -0.12463499 -0.11169348
0.060911443 0.058461547 -0.043381725 0.0029210155 -0.06578362 -0.07893729 0.027574195 0.019605765
-0.036123186 0.06355491 0.02064557 -0.078178346 0.069000974 0.01864019 0.080576606 -0.015714975
0.07960004 -0.12245692 0.021736376 -0.054430287 0.101046376 -0.123893425 -0.53530836 -0.11539781
0.17349848 0.009354028 -0.25868076 0.04599171 -0.018164521 0.11753054 0.040812735 0.10815443
0.119025625 0.13702038 0.17643207 0.17710741 0.024450617 -0.034403864 0.06077437 0.25915748
0.015451184 0.1781269 0.13722491 0.016884467 0.24807867 0.0117229335 0.2172059 0.11074632
0.12606883 0.14152609 -0.077820115 0.19992273 0.123590045 0.07708399 0.16388327 -0.05120728
0.012864491 0.10490222 0.27084282 0.08245111 0.06522375 -0.14274998 0.004793885 -0.06403578
-0.10493225 -0.14592311 0.0066141165 0.09608495 0.14556466 0.18148077 0.04904513 0.18785167
-0.014410634 0.06232773 -0.107099876 -0.11122482 -0.015223051 -0.09644761 0.2908868 -0.1266613
00000000: 965a afbd 4f90 49bd de21 7dbd 1548 2a3d
00000010: fa45 753d a6c7 dfbd af44 f3bd f004 e6bb
00000020: ece7 9dbd f700 d6bd 371a 0fbe adbc c93d
00000030: aa6b 8b3d e4e1 be3d 4244 ac3d e692 d3bd
00000040: f0b9 763d 11c6 efbd e6c6 443d ec28 ff3c
00000050: 8c27 13be 123d bd3c 2b21 06be 9cf8 fcbd
00000060: 42c4 8ebc 23a0 28bd 49c5 6abd 733e a7bd
00000070: 1549 ddbc a43e e8bd 310e 1c3c 04cd f13a
00000080: 9720 5fbd 6481 c33d b75f 9c3d fe01 993d
00000090: e69e 01bd 8bf8 5cbd 6ead 06be 9a3a 29bd
000000a0: 56fa bdbc b778 4cbd b5fe e7bc 253c b6bd
000000b0: 4c73 443d 576b 37bd 4c9b ba3d ded1 a7bd
000000c0: c46d d93a 504c cb3c 6268 1e3d 90d0 bdbd
000000d0: 461f 343d f2bd 6fba d8a8 febd 9acd 41bd
000000e0: c27f cfbd 1a2f 9d3d e9c1 0ebd c389 28bd
000000f0: 2968 a2bb f97d 933c 2890 913d 926d 243d
00000100: e19f 973d cceb df3c f978 553e 9316 2ec0
00000110: 2ddd 84be 7e18 09be 7aa0 d53b 69ca da3d
00000120: cd3f 1dbe f498 bf3d ce3f 143d 7d8e 86be
00000130: 5a64 18bd 5237 f3bd 0efd 2cbd 02cc 433d
00000140: 3273 8a3e 3dd0 c5bd d843 96be 1836 c63d
00000150: 4212 1e3d 5c43 f43b 6ea8 90bd 0a71 3c3e
00000160: 46ad d73c f87b 36bf 8162 3d3d 76e2 f4bd
00000170: 767b 1d3e 2d1b 0a3e 2c17 fd3d ea15 5bbe
00000180: 56b6 893e 4825 04bf 2ebd 5abe fd73 b33e
00000190: 271d 46be 9ab3 4f3d 5d18 fdbd 02e7 a43d
000001a0: 606c 76bd 3982 b5bd aa8e 9c3c c29d 183e
000001b0: e6af 343e 2858 98bd ef78 f0bd 1678 09be
000001c0: 5a69 063b bd71 293c 2120 713a ffed 1cbd
000001d0: fa1d a03d 9fd6 263d 6d1f 493e 6d48 253c
000001e0: 4c45 15be 95d7 b9bd d2a8 bfbc bcd3 bebd
000001f0: 5ebd 623d 6a22 253d 5cd2 5a3c c425 48bd
00000200: d40c 74bd fbc0 203d 907d fc3d e36b acbe
00000210: 8f96 4a3c 37d5 72bd aaf3 f0bd 8f45 e5bd
00000220: ed3b 693d 2a38 18bd 35b2 253b fcfa 9fbd
00000230: 1f10 d03d b7d2 ca3d 9ee6 803c 59e8 37bd
00000240: 402f 833d 2069 e73d 0acb b5bd f293 a83b
00000250: 068a a63d 9166 00be 1fe6 efbc cb45 9d3d
00000260: cd3b adbd 1db4 c23d f3e7 4a3c 521f 993d
00000270: f6d6 79bd 65e8 043c e367 8b3d 31b4 873d
00000280: 4108 1cbd b1d0 5dbd 5483 6cbb 8398 a2bd
00000290: 4eef 3c3d 5255 e7bd 2210 f5bd b64d 4cbd
000002a0: fcc0 f6bd 6e20 d9bd 71f5 5cbd 9ef1 dfbd
000002b0: 1bf7 cdbd b455 01be a140 ffbd 8dbf e4bd
000002c0: 477e 793d 6075 6f3d 09b1 31bd 826e 3f3b
000002d0: 90b9 86bd e0a9 a1bd 47e3 e13c 459c a03c
000002e0: e8f5 13bd 1429 823d e620 a93c f81b a0bd
000002f0: 6250 8d3d 50b3 983c 5905 a53d b1bc 80bc
00000300: 5905 a33d b2ca fabd 7c10 b23c 4bf2 5ebd
00000310: 67f1 ce3d d6bb fdbd f809 09bf b055 ecbd
00000320: 96a9 313e a341 193c ce71 84be ce61 3c3d
00000330: c3cd 94bc dab3 f03d 412b 273d 1280 dd3d
00000340: b5c3 f33d 124f 0c3e 9caa 343e a55b 353e
00000350: a94c c83c 11eb 0cbd 8cee 783d 4ab0 843e
00000360: f626 7d3c e666 363e b084 0c3e 4b51 8a3c
00000370: 5608 7e3e 8c11 403c 396b 5e3e f7ce e23d
00000380: 3018 013e 37ec 103e 2760 9fbd 8bb8 4c3e
00000390: c71c fd3d 36de 9d3d 04d1 273e babe 51bd
000003a0: 96c5 523c fad6 d63d e9ab 8a3e 21dc a83d
000003b0: 0894 853d 0d2d 12be 0616 9d3b 3125 83bd
000003c0: b8e6 d6bd de6c 15be 3bbb d83b 30c8 c43d
000003d0: e70e 153e 18d6 393e 8ce3 483d 305c 403e
000003e0: 941a 6cbc 5d4b 7f3d 2e57 dbbd d7c9 e3bd
000003f0: 1b6a 79bc 5386 c5bd 1def 943e 80b3 01be

fc_1.bias f4 [64]
-0.07498295 -0.115794726 -0.090118915 0.08568636 -0.13762212 0.10686083 -0.08227623 -0.021933146
-0.03545739 -0.07392879 -0.07105273 0.06259442 -0.10793482 -0.07348268 -0.12252966 -0.09249521
0.064227164 0.04501051 -0.0956884 -0.06568536 -0.14755641 0.06263857 0.05190159 0.026813833
0.05693615 -0.12443742 0.068446636 -0.10427125 0.06884462 -0.113117486 0.20454505 0.011908664
0.03285346 -0.07281442 0.01787481 -0.14300644 -0.108652264 -0.017336586 0.11932999 -0.10377546
0.13630024 -0.07660625 0.0036024123 0.055994436 0.06314793 0.03222519 0.060937364 -0.06678505
-0.086419724 0.0028323813 -0.038711548 0.08417736 -0.053193577 -0.0038684555 -0.10353157 0.1241512
-0.014931395 -0.058077395 -0.009755497 0.012732031 0.053082213 0.040579062 0.100764215 0.10393449
00000000: a990 99bd c925 edbd 4490 b8bd 557c af3d
00000010: d0ec 0cbe dad9 da3d 7180 a8bd 24ad b3bc
00000020: c53b 11bd fa67 97bd 1884 91bd 8131 803d
00000030: ee0c ddbd 167e 96bd d5f0 fabd 216e bdbd
00000040: 8889 833d f15c 383d 48f8 c3bd 0c86 86bd
00000050: 0719 17be a748 803d c396 543d afa8 db3c
00000060: e135 693d 0cd9 febd c02d 8c3d 2a8c d5bd
00000070: 68fe 8c3d 24aa e7bd 4274 513e 8f1c 433c
00000080: 5a91 063d ba1f 95bd 326e 923c 4870 12be
00000090: 1485 debd 7505 8ebc 4863 f43d 3a88 d4bd
000000a0: 4a92 0b3e bde3 9cbd 7316 6c3b 6c5a 653d
000000b0: b453 813d 90fe 033d 7599 793d 9ac6 88bd
000000c0: d3fc b0bd 799f 393b 0090 1ebd 2e65 ac3d
000000d0: 82e1 59bd ea85 7dbb 5c08 d4bd fc42 fe3d
000000e0: cfa2 74bc 90e2 6dbd 85d5 1fbc 029a 503c
000000f0: bc6c 593d 3b36 263d 785d ce3d 9bdb d43d

fc_2.weight f4 [4, 64]
-0.0029230365 0.88155586 -0.075534 -0.7849311 -0.019397123 -0.07468045 0.051733762 -1.9598296
0.02370943 -0.025324706 0.10729591 -2.0136793 -0.023948956 0.9345394 -0.25142986 0.12235187
-0.12759364 -1.0762477 0.1313329 0.061777603 1.5295527 -0.053571373 -0.68534267 -0.07382804
0.096823424 -0.053323932 0.6869357 0.5279416 2.053889 0.71106595 1.0133138 -0.84330887
-0.05273387 -0.0308229 -0.77094406 0.104704544 0.06742882 -0.08782956 0.11739142 -0.113191314
1.8523538 -0.23520756 -2.4811654 0.28767937 -0.4543938 0.90870637 1.2473174 -1.2390409
-0.07409795 0.48299333 0.0028841686 0.21091864 -5.6340976 -0.7484725 -0.07552634 -0.012805816
-0.09657548 -0.00332439 -1.5522624 -0.18883617 -0.15643014 -0.019336399 0.31811804 0.11205107
0.08863434 -3.318981 -0.020878045 -1.027411 -0.06805579 -0.10037314 0.1000715 1.362735
0.06924456 -0.109737255 -0.09117672 0.2738828 0.07595604 -3.2035885 0.6125695 -0.23741868
0.11033852 1.6866311 -0.14197683 -0.18457355 -0.29332966 -0.013214184 0.9689709 0.0019731522
0.118176 -0.5682782 -0.43277916 0.6078494 -6.431012 0.5562372 0.18510714 -0.8383765
0.105636574 0.044786815 0.6850058 -0.028724488 -0.09553507 0.0009495811 0.03920421 0.039773706
-0.52420056 -0.038723078 0.84187895 -0.059839744 0.22115047 0.49991897 0.4269772 -1.4746535
-0.10128264 -1.9476767 -0.14584866 -0.25637683 1.6183715 0.3060566 -0.09730475 -0.065018855
0.085440144 -0.06734118 0.23525746 -0.14243148 0.3488437 0.06599559 0.08829958 -0.21194993
0.12421148 1.9007249 0.015032604 0.34081835 0.026530657 0.15159218 -0.0049415673 0.7940462
-0.04448763 0.0154337855 0.123614684 0.70443815 -0.05211046 2.124037 -1.1786624 0.0008235741
0.10037651 0.34202874 -0.17413425 -0.24444556 -1.786873 0.2775697 -0.43643728 0.016310722
-0.054089144 0.5152972 -0.31499818 0.5254136 0.09962143 0.46949932 -7.710135 -1.3535007
0.10089351 0.08781131 0.121422075 0.046921603 0.101265214 -0.036711264 0.03725776 -0.042683937
-0.7888593 0.19186349 1.2226304 -0.02303044 -0.10039896 -0.5596345 -1.9307673 -0.7492997
0.081296235 0.91143763 -0.020440655 -0.011363077 -0.9072422 0.2835583 0.05642774 0.14029649
0.037535403 -0.080063455 2.0598822 -0.019637637 0.29158154 0.03656582 -0.10396989 0.030074429
0.07043112 -0.5273382 -0.052794904 1.0999744 -0.04559479 -0.20312786 -0.10215102 0.768274
0.014724738 -0.11491222 -0.08089698 0.38291508 0.06103968 0.44223127 0.64296883 -0.19498253
-0.015535722 -4.7728043 0.23579231 0.18267345 1.2435546 0.12258793 0.08442015 -0.10071641
0.028767422 -0.02662976 -0.15851769 -1.6299148 -1.2830373 -1.201523 0.4375193 1.4224738
0.047992077 0.0072598304 0.25196818 -0.029312653 0.121007316 0.14389715 -0.021901697 0.0032761164
-0.69811356 -0.061341785 1.2499205 -0.17925406 0.45783487 -1.1534913 -0.22833599 1.9678794
-0.09458257 1.6398172 0.11689021 -0.1479106 0.5639525 0.32039 -0.012303961 0.022381548
0.032140825 -0.033520043 0.12523821 0.26578534 -0.3507062 -0.093228005 -0.2600955 -0.25070852
00000000: 6a90 3fbb a5ad 613f 92b1 9abd 3ff1 48bf
00000010: b7e6 9ebc 10f2 98bd c8e6 533d b2db fabf
00000020: 473a c23c c275 cfbc f5bd db3d 1fe0 00c0
00000030: 9a30 c4bc f93d 6f3f 6abb 80be 9e93 fa3d
00000040: e8a7 02be 7cc2 89bf 227c 063e 830a 7d3d
00000050: 62c8 c33f a86d 5bbd 9e72 2fbf 2833 97bd
00000060: 5c4b c63d 326a 5abd 05db 2f3f 2e27 073f
00000070: eb72 0340 6b08 363f 44b4 813f 17e3 57bf
00000080: 78ff 57bd 4e80 fcbc 975c 45bf 566f d63d
00000090: 1f18 8a3d fcdf b3bd ea6a f03d d9d0 e7bd
000000a0: ee19 ed3f 40da 70be 6acb 1ec0 b64a 933e
000000b0: 4ea6 e8be fba0 683f 19a8 9f3f e498 9ebf
000000c0: aac0 97bd e74a f73e 5204 3d3b 0efb 573e
000000d0: 874a b4c0 e59b 3fbf 8ead 9abd 7ccf 51bc
000000e0: 5ec9 c5bd 02de 59bb 89b0 c6bf 455e 41be
000000f0: 392f 20be 5e67 9ebc 5ee0 a23e 087b e53d
00000100: ec85 b53d 2f6a 54c0 6f08 abbc 3482 83bf
00000110: d660 8bbd 6f90 cdbd 49f2 cc3d 1a6e ae3f
00000120: 18d0 8d3d edbd e0bd dcba babd 5e3a 8c3e
00000130: d78e 9b3d 9807 4dc0 5bd1 1c3f e21d 73be
00000140: 29f9 e13d 87e3 d73f 6062 11be d900 3dbe
00000150: 4e2f 96be 4e80 58bc 7a0e 783f 0050 013b
00000160: 4206 f23d ae7a 11bf 3b95 ddbe 059c 1b3f
00000170: daca cdc0 9065 0e3f ba8c 3d3e d89f 56bf
00000180: fd57 d83d 6172 373d 8a5c 2f3f 9e4f ebbc
00000190: e4a7 c3bd 4fed 783a 9894 203d c1e9 223d
000001a0: 0232 06bf 179c 1ebd 6185 573f 851a 75bd
000001b0: 4575 623e 61f5 ff3e c19c da3e 72c1 bcbf
000001c0: 466d cfbd 784d f9bf 5a59 15be d343 83be
000001d0: cc26 cf3f 73b3 9c3e b647 c7bd 9b28 85bd
000001e0: 3efb ae3d 2cea 89bd 55e7 703e 8fd9 11be
000001f0: a49b b23e b228 873d 69d6 b43d 6709 59be
00000200: 9762 fe3d f44a f33f 504b 763c be7f ae3e
00000210: d256 d93c fb3a 1b3e dfec a1bb 9d46 4b3f
00000220: a938 36bd fddd 7c3c b229 fd3d 0f56 343f
00000230: c771 55bd 39f0 0740 69de 96bf 1fe5 573a
00000240: 3392 cd3d 641e af3e 4050 32be f04f 7abe
00000250: 41b8 e4bf 9e1d 8e3e b574 dfbe 109e 853c
00000260: 948c 5dbd 84ea 033f 7147 a1be 8181 063f
00000270: 5206 cc3d 3762 f03e 6db9 f6c0 833f adbf
00000280: 42a1 ce3d 6bd6 b33d 23ac f83d de30 403d
00000290: 2364 cf3d 8d5e 16bd 989b 183d 5ad5 2ebd
000002a0: aff2 49bf dd77 443e 277f 9c3f 55aa bcbc
000002b0: f89d cdbd 3544 0fbf 6223 f7bf 1bd2 3fbf
000002c0: a47e a63d fa53 693f 2973 a7bc 332c 3abc
000002d0: 0641 68bf 8e2e 913e c620 673d e2a9 0f3e
000002e0: b9be 193d 4ff8 a3bd 1cd5 0340 1cdf a0bc
000002f0: 2d4a 953e 0bc6 153d 2aee d4bd a65e f63c
00000300: 313e 903d a3ff 06bf 783f 58bd f6cb 8c3f
00000310: 9ac1 3abd c000 50be 8e34 d1bd 9bad 443f
00000320: 0740 713c 1957 ebbd 51ad a5bd 720d c43e
00000330: be04 7a3d 236c e23e 9b99 243f 80a9 47be
00000340: 8a89 7ebc d0ba 98c0 8a73 713e c00e 3b3e
00000350: cc2c 9f3f 610f fb3d 79e4 ac3d 6844 cebd
00000360: a8a9 eb3c a826 dabc 7652 22be 0ca1 d0bf
00000370: 913a a4bf 81cb 99bf 8802 e03e 9f13 b63f
00000380: 5793 443d dfe3 ed3b f901 813e 1721 f0bc
00000390: afd2 f73d c659 133e 306b b3bc 1db4 563b
000003a0: 92b7 32bf 8641 7bbd 65fd 9f3f 608e 37be
000003b0: 5569 ea3e 9aa5 93bf e9d0 69be 79e3 fb3f
000003c0: 82b4 c1bd 88e5 d13f 2264 ef3d e075 17be
000003d0: 315f 103f 280a a43e 8e96 49bc 8259 b73c
000003e0: 19a6 033d 504c 09bd 723e 003e 0415 883e
000003f0: c38f b3be 53ee bebd 3d2b 85be de5c 80be

fc_2.bias f4 [4]
-0.0789624 0.056343596 0.14198115 -0.08484548
00000000: 0ab7 a1bd 8bc8 663d 8263 113e 78c3 adbd
