Mindset augmented trained networks (pth)/segmentation_pointnet_dmeanp05.pth (torch, 78978 bytes, 18 tensors)

base_pointnet.conv_1_a.weight f4 [64, 1, 3]
00000000: d02c ca3e 6ea4 36be dac9 1dbd 7f03 cd3e
00000010: 71f6 083e 947c 76be 809e 4ebe db12 c5bc
00000020: 8e8e 383e c54c c13d b0a6 4abe e8fa 2f3d
00000030: 0195 08bd 6c07 b2bc da3a 033e 6fed fe3c
00000040: be96 6b3b dc71 debc 6084 5bbe 6bc3 25be
00000050: 5f59 a33d 7f72 793e f386 f7be 41bf b7be
00000060: b705 8dbe 1dd6 ce3e 0d3a abbe ca6b 02bf
00000070: 6100 9b3e bbfc 373e 53c6 6a3e 28bc 943e
00000080: 1b62 4f3e 98e0 1bbf 298a db3e 6c77 6f3e
00000090: baf5 0cbf 9af0 5ebe 0d1a 7cbd 40cf ca3d
000000a0: a8bf a7be 24bf 90be 3592 0abf c264 003f
000000b0: fe6b 71bd b955 51be d539 c7bd 290f 3dbf
000000c0: d163 55bd b988 b3be 53fe 6a3e 0316 913e
000000d0: 68ba 753e 7d97 083f 144d 423e c524 953d
000000e0: 6649 62be 504f ebbe d79f 7abd a7de 963e
000000f0: 8796 b0be 4c22 553e d393 00be 824e fdbe
00000100: 6899 6bbd 0db8 0d3f f8d4 4fbe 574e b73e
00000110: 1fcc bdbc 46ea aa3e b4b3 debe 27fe 24be
00000120: f73e c03d 0213 cbbe 6f0d 7f3d ece7 e73d
00000130: 88c2 6fbe f8de 0f3f a533 cebd a425 4abe
00000140: e8f4 a83e 9a7a d7be f4a3 bf3e ffdd a4be
00000150: 1ac9 01bf 51b2 dd3c f638 8abe 456e 5d3b
00000160: 64b7 343e 88d8 56bc fce5 cb3d 8f07 a8be
00000170: 385e 0cbf b091 a2bc 485b 27be 2687 893e
00000180: d9ca 19be b722 923e 7d2a c8bd 4db5 533e
00000190: f8be 5d3d 27c6 e23c 3004 a1be 75df fb3d
000001a0: b2ad 0b3e 89fa 3c3d 0a4e cb3e aa46 fb3e
000001b0: 5566 cd3d b5d7 c83e 852d c43e 4dcd 8ebe
000001c0: ac3d d13d eb8b acbe 0e36 e33e b198 71bd
000001d0: 00e9 80bc aaf9 193e 8c8a 263f 3052 983e
000001e0: b2c5 d3be 7514 d83e cec2 29be 9c8b ed3e
000001f0: 0cbb bbbe 5341 28be 123f bc3e ee1c 0a3f
00000200: a1cd 48be d86e 013e 4851 e4be 51a9 783e
00000210: b7e9 903e 8307 67bd 6eb2 01bf f727 73be
00000220: 7172 9bbe 9c5c a93e bc7d b4be 337c e23e
00000230: 737b 09be 87a3 f23d 07f5 b6bd a9fa 4cbc
00000240: 572b 1bbd 50f2 20bd 0578 153d 0e47 18be
00000250: 5d4c ac3e a86f 9cbe 29ab 5bbe 61d5 d63e
00000260: efa0 9b3e f23d 5bbd 05e2 493c abd2 3c3d
00000270: 8cc6 95bd c65b a3b9 747c be3d 655d ed3e
00000280: 752c 85bd 1aae 8bbe 0cab 233e da7e 063f
00000290: 97f1 f6be 07f8 a93e dd75 63be 8edf 32be
000002a0: 684e c83e 662e a1be 5aa8 f73c ee64 ef3e
000002b0: 6562 ed3d f478 2b3d dcb9 aa3e d355 ed3d
000002c0: 581a 52be 333d 8abe 9d19 05bd b277 883e
000002d0: 6669 debd 1d0e 1d3c ffbf 2a3f 17e8 4ebe
000002e0: d39f 923e 4856 7b3e a939 aabe 30f1 aebe
000002f0: 7bbf be3d a98b aabe 41e5 943e 5171 c73e
0.39487314 -0.17836162 -0.03852258 0.4004173 0.1337526 -0.2407096 -0.2017765 -0.024056843
0.1802313 0.09438471 -0.19790149 0.042963892 -0.033345226 -0.021732055 0.12815419 0.031119077
0.0035948004 -0.027153902 -0.21437216 -0.16187827 0.079760306 0.24360083 -0.48345146 -0.35888103
-0.27543423 0.4039773 -0.33442727 -0.50945723 0.30273727 0.17967503 0.22927217 0.29049802
0.20252268 -0.6088958 0.42878845 0.233854 -0.5506245 -0.2177147 -0.06154828 0.09902811
-0.3276341 -0.2827083 -0.54129344 0.50153744 -0.05894088 -0.20442857 -0.097278275 -0.7385126
-0.052097145 -0.3506525 0.2294858 0.28337106 0.2399689 0.5335615 0.18974715 0.07282404
-0.22098312 -0.45958948 -0.06118759 0.29466745 -0.34489843 0.20813864 -0.1255639 -0.4947396
-0.057519346 0.55358964 -0.20296085 0.35801956 -0.023168622 0.3338186 -0.43496478 -0.16112576
0.093870096 -0.3966294 0.06226867 0.113235325 -0.23414052 0.561996 -0.10068444 -0.19740921
0.3299935 -0.42085725 0.37429774 -0.3220062 -0.5069748 0.027062567 -0.26996583 0.003378765
0.17648083 -0.0131131485 0.099559754 -0.32818267 -0.54831266 -0.01984486 -0.16343415 0.26860923
-0.15018786 0.2854211 -0.09773729 0.2067463 0.0541372 0.027682377 -0.31448507 0.122984804
0.13640478 0.046137366 0.39707977 0.4907735 0.10029284 0.3922707 0.3831598 -0.27891007
0.10216841 -0.337005 0.44377178 -0.05898351 -0.015736103 0.15036646 0.65055156 0.29750204
-0.41361767 0.42203107 -0.16578218 0.46395576 -0.36666143 -0.16431169 0.3676687 0.53950393
-0.19609691 0.1263994 -0.44593263 0.24283339 0.2830331 -0.056403648 -0.5066289 -0.23745714
-0.3036075 0.33078468 -0.35252178 0.4423538 -0.13425998 0.118475966 -0.08933454 -0.012510934
-0.03788313 -0.039293587 0.036491413 -0.14870855 0.3365201 -0.30553937 -0.21452011 0.4195967
0.3039622 -0.053525873 0.012321954 0.046099346 -0.073132604 -0.0003115816 0.09301081 0.46360317
-0.0650262 -0.27281266 0.15983218 0.5253731 -0.48231193 0.33197042 -0.2221293 -0.17468092
0.3912232 -0.31480712 0.030231643 0.4675669 0.11591033 0.041863397 0.33344924 0.11588635
-0.20517862 -0.26999816 -0.03249513 0.2665382 -0.10859947 0.009585884 0.6669921 -0.20205723
0.2863756 0.24544632 -0.33247116 -0.34168386 0.09313866 -0.33309677 0.29081157 0.3895364

base_pointnet.conv_1_a.bias f4 [64]
00000000: 45ef 293d a549 423d 585e 02bf 9f55 f2bd
00000010: 83ea 1fbc 11a2 06bf 8c1b 04bf 0ab9 743e
00000020: 3142 a23e 70ed 513e decc babe 042f 7f3e
00000030: a5b5 fa3e ad2b db3e 0836 933d 9897 3ebe
00000040: 348c b13e ca7a 883d 3799 b8bd 478b 34be
00000050: 00ea 4f3e 1dc5 b9be 7ea3 07bf df3c 9b3e
00000060: 3c30 debe 29e5 8ebd a239 eb3d aeb5 0abf
00000070: 4f3e 77bd 1bf8 a8be e097 debe 38a3 b4be
00000080: 73cd 8dbe 00d6 043f 627d 94be aae1 e8bc
00000090: ea95 e4bd 6a79 6cbe 8ece 4cbe e0f9 bf3e
000000a0: c52c a03e 5e64 f6bc 873e ee3e 3208 bfbe
000000b0: 8cb8 a73c 0a5c ba3e 7271 13bf 5759 e4be
000000c0: 2189 a5be e1b6 ebbe fc67 6bbe 7119 0fbf
000000d0: 203b 043e f8e9 d53e 714b b5be a9d8 8f3e
000000e0: 7ff2 113d 841b d53e a0c6 85be 05e0 123f
000000f0: 18f6 fa3e d362 0e3f 7013 9b3e 8171 10be
0.04148795 0.047433514 -0.5092521 -0.11832737 -0.009760502 -0.52591044 -0.51604533 0.23898712
0.31691125 0.20500731 -0.36484426 0.24920279 0.4896671 0.4280676 0.0718804 -0.18612516
0.3467728 0.06664045 -0.090135984 -0.17631255 0.20304108 -0.36283198 -0.52983844 0.30319878
-0.43396175 -0.069773026 0.11485602 -0.5418347 -0.060362156 -0.3300179 -0.43475246 -0.35280776
-0.27695808 0.5188904 -0.2900191 -0.028427918 -0.11161406 -0.23093191 -0.2000067 0.37495327
0.31284156 -0.030077156 0.4653208 -0.3731094 0.020473741 0.36398345 -0.5759498 -0.4459941
-0.32331184 -0.46037963 -0.22988886 -0.55898196 0.1291318 0.41780066 -0.3540912 0.28094986
0.035631653 0.41622555 -0.261281 0.57373077 0.4901588 0.55619544 0.30288267 -0.14105798

base_pointnet.conv_1_b.weight f4 [64, 1, 3]
00000000: ffc6 6bbf 59d9 25bf 7b2b f8be fb94 d93e
00000010: ccd9 a43c 9063 52bf 1106 debd f047 ce3e
00000020: af6a 733f 63d8 e23e 4a95 cf3e f7a0 3a3f
00000030: c7a2 9b3e f550 be3e 0186 56bf 52c6 18be
00000040: f2bd 5cbe 22be d43e 92e9 343f 3b1c 293f
00000050: 43ce 033f bac7 07be a270 0fbf 5f23 203f
00000060: 79eb 873e 2b3f 14bf 83dc f43e cee7 a33e
00000070: 7d9c b6bd 4eda 033e edc8 2bbf 056f 333e
00000080: 6988 07bf fa40 1fbe 9db2 23bf 2d50 13be
00000090: 9cab 113f 08f6 d23d 626c dbbe ec4a 72bb
000000a0: bce4 393f 5463 d13e e856 e03e c6e1 213f
000000b0: 4e77 30bd 8e25 223f 4769 003e f3bb b6bd
000000c0: ce58 7dbe 91e4 d9be 9f0f 1b3f 649a 823e
000000d0: 02e3 cfbd cfda 09bf 2660 fcbe f9f7 1abf
000000e0: 92ae 673f fee4 013f 5f54 ee3e 4249 4abe
000000f0: a866 1d3f 047e 0fbf fd50 2a3f 082d c0be
00000100: e081 7bbe a0b1 92bb 3487 233e fee8 da3e
00000110: fdb5 23bf c717 2e3f 8d5d 063f be86 8abe
00000120: 6d87 a5be 8087 8a3d 59a7 12bf fe5e 7c3e
00000130: 1685 0abf 9cf7 a13e 5766 253f d31f 7b3c
00000140: 76cb 51bf 4f15 443f 3d19 d4be 7345 0bbf
00000150: 2e1a 053c 87d4 253f bd92 69be 7227 49bd
00000160: d1f2 dbbe 29c1 603f 24f7 3b3c 1ff9 d2be
00000170: f44b 393c 9a48 a6bd 29b3 43be 2ef6 d6be
00000180: 0734 413f 29f6 37bf 40ef 23bf 93a8 513f
00000190: ac17 94be 1916 313e e08a 8cbd 06ed aabe
000001a0: b332 d43e d057 d83d 4e20 4abd 46e7 e43e
000001b0: a718 e8bc edef 8abe bf2c 1cbf 145d 1f3e
000001c0: 5296 dabd 29a6 f53e 17e6 d33e f05a 25be
000001d0: 2efe fb3d 964f a43e b1c3 b7be 47ad 1b3f
000001e0: 85b8 a93e dfd4 1c3f 4805 9fbe 4592 ed3b
000001f0: 4513 203f 2c25 533f 6fc9 e7be 6a6a eabe
00000200: c9b0 483e 7a0c e9be f975 153f c231 433f
00000210: 2d1f 06be fdd1 d63e a83e babe 7986 71be
00000220: 37df 203f fc0d 1d3f d718 78bf d1de 19bd
00000230: 67d8 ab3d a796 2a3f 5c5b 81be 3b3a ca3e
00000240: 9ac9 463e 9633 133f 42f0 09bf 144c 06bd
00000250: 4334 0e3f 81c3 633f f612 dcbd 6996 1bbf
00000260: 231c 18bd b3bc f1bd 19fb 083f 44f0 ccbe
00000270: 0948 49bf 82b0 5cbe 97c7 2e3f a758 07be
00000280: 1586 f7be 3c91 e53e 9755 67bf f959 3c3f
00000290: e41b b93c bdb2 eebe f6c6 383d 21d0 96bf
000002a0: 07ed 1a3e 8563 d4be e33b 8b3d 50d7 b6be
000002b0: 373b 8dbe 6022 a6be 0060 20bf 2bda 8abd
000002c0: ac78 0dbf 145f 253d 2401 25bf 0ce3 20bf
000002d0: 0f31 913e 8845 babe ee45 02be 09cf b0be
000002e0: 19f7 75be 3f01 403e f4a7 ccbd 74c3 033f
000002f0: f925 9f3e f0da a13e 8b5c eebe 724b 233e
-0.9210052 -0.6478477 -0.48470673 0.42496476 0.020123385 -0.8218317 -0.10841001 0.4028926
0.9508466 0.44305715 0.40543586 0.7290186 0.30397627 0.3717114 -0.83798224 -0.14919403
-0.21556833 0.4155131 0.706689 0.660587 0.51486605 -0.13259783 -0.5603124 0.6255397
0.2654684 -0.57908887 0.47824487 0.3201279 -0.089165665 0.12876245 -0.67103463 0.1752282
-0.5294252 -0.1555213 -0.6394442 -0.14386053 0.5690248 0.10300833 -0.42856127 -0.0036970926
0.72614646 0.40896094 0.43816304 0.6323513 -0.043082528 0.63338554 0.1254016 -0.08922567
-0.24740908 -0.42557195 0.6057071 0.25508416 -0.1015072 -0.538495 -0.49292105 -0.60534626
0.9050075 0.5074004 0.46548745 -0.19754508 0.61484766 -0.5605166 0.6652983 -0.37534356
-0.24561262 -0.004476741 0.15969545 0.42755884 -0.6394957 0.6800503 0.524865 -0.27055925
-0.32329884 0.06764126 -0.572866 0.24645612 -0.54109323 0.31634223 0.64609283 0.015327412
-0.8195108 0.76595014 -0.41425505 -0.54402846 0.0081239175 0.64777416 -0.22809882 -0.049109884
-0.42958692 0.8779474 0.011472497 -0.4120569 0.011309613 -0.081193164 -0.19111313 -0.41984695
0.7547001 -0.71859986 -0.6403694 0.8189785 -0.2892431 0.17293586 -0.06862426 -0.3338396
0.4144493 0.10563624 -0.049347214 0.44707698 -0.028332068 -0.27136174 -0.6100578 0.1556285
-0.106732026 0.47978333 0.41386482 -0.16147971 0.1230434 0.3209197 -0.35891488 0.60811275
0.3314859 0.61262316 -0.31058717 0.0072501027 0.625294 0.82478595 -0.4527087 -0.45784312
0.19598688 -0.4551733 0.58383137 0.762478 -0.1309783 0.41957083 -0.36375928 -0.23586453
0.628406 0.61349463 -0.969129 -0.03756601 0.08390885 0.6663613 -0.25265014 0.3949755
0.19412842 0.5750059 -0.5388223 -0.032787398 0.55548495 0.8897019 -0.10745804 -0.6077638
-0.03713621 -0.1180357 0.53508145 -0.40027058 -0.7862554 -0.21551707 0.682733 -0.13217412
-0.48344484 0.44837368 -0.90364975 0.7357479 0.022596307 -0.4662074 0.04511162 -1.1782266
0.15129481 -0.41482177 0.06798532 -0.35711145 -0.2758424 -0.324481 -0.62646484 -0.067798935
-0.55262256 0.040373877 -0.64454865 -0.62846446 0.2835774 -0.36381173 -0.12721989 -0.34532955
-0.24020042 0.18750475 -0.09992972 0.5147011 0.31083658 0.3161235 -0.4655498 0.15946749

base_pointnet.conv_1_b.bias f4 [64]
00000000: cbe1 e1be 7bf0 01be 7be3 f7be c775 6abd
00000010: ed2e f1be bc62 2b3e 521e b8bd 690e 11bf
00000020: 175f 823e 9af5 4b3e 94e3 393d 4eac d23e
00000030: 671f 98be 73e2 e6be a02e 823e de9d a9be
00000040: d019 ad3e 02b3 c6be d0b8 3cbe a134 eb3e
00000050: 3c7a 253e 92b1 e83e a060 f93e e18a 9b3d
00000060: 9aef abbe aa41 08bf af93 00bf f08b 813e
00000070: 9528 763d 56cf 963e 53ea c13b f86f 22bd
00000080: cd3c 2f3e eb55 a23e 02b2 893e 2ebc 12bf
00000090: cc22 03bf 4c26 57bd 5e0c 66bd 8d0d 98bd
000000a0: d30d 063f 3267 e8bc 72e5 ad3e 496f 353d
000000b0: 535a 2ebe 94b9 d13e 922e 27be ecd9 6f3e
000000c0: f8d9 d9bd 6c0d a43e 22db da3e 5687 b2be
000000d0: 90a4 56be 7277 07bf 30f1 a4bc 817e 17be
000000e0: 0ca9 7fbe 5105 753e 26d3 ab3e 4566 b5be
000000f0: c1c4 f83e 5b32 64be f4f8 dcbe 9a39 163e
-0.4411758 -0.12689392 -0.4841574 -0.057241227 -0.47106114 0.16736883 -0.08990158 -0.56662613
0.25463173 0.19917908 0.04538305 0.41147083 -0.29711458 -0.45094642 0.25426197 -0.33128256
0.33808756 -0.38808447 -0.18429875 0.4593859 0.1615991 0.45447975 0.48706532 0.075948484
-0.3358124 -0.53225195 -0.5022535 0.25302076 0.060097296 0.2945506 0.005917826 -0.039657563
0.17113037 0.31706175 0.26893622 -0.5731839 -0.5122497 -0.052526757 -0.056164138 -0.074244596
0.52364844 -0.02836952 0.33964115 0.044295583 -0.17026643 0.40961897 -0.16326359 0.23422974
-0.10637277 0.3204149 0.4274531 -0.34868878 -0.20961213 -0.52916634 -0.020134538 -0.14794351
-0.2496683 0.2392781 0.3355953 -0.35429588 0.4858761 -0.22284834 -0.43158686 0.14670411

base_pointnet.conv_2.weight f4 [64, 64, 3]
00000000: 2899 b0bd 7cdf ce3c 77bd a33d d1a1 9cbc
00000010: ad3a a03d dd9b 393d a961 3cbc 961a 63bc
00000020: 3f91 df3d 1e79 f13d 3fcd cfbb 820e c0bb
00000030: 0a34 04bd 0b9e 2f3d b2b0 233d daa6 66bd
00000040: 0157 df3d b922 5fbc 0058 71bd 9182 e13c
00000050: c54d 913c 2024 e2bc 92aa 34bc 2559 c43c
00000060: 4953 a1bb f1f6 0abd 2699 b439 4e2e ebbc
00000070: b221 43bd d8b6 eebc 173c 6e3c 1b37 3c3d
00000080: 8d38 86bd b6b7 a03c 71b6 313d 30fe c4bd
00000090: 9155 2bbc 1d61 c83b 3dd8 773d 65bb 9dbd
000000a0: b995 97bc 9f4d 1dbd 0696 7e3c 96ad 613d
000000b0: e112 3a3e 1f52 97bd e5dc e03c 94ea 743d
000000c0: 263f dabc 8d5d 83bd bffe 8a3d c88d debb
000000d0: 8fb8 e83b eaec 14bc 44a2 9d3d a660 49bb
000000e0: 3eb4 0fbd 2e7a c33b 065a 18ba 00db 4a3c
000000f0: ebd5 ca3c 6497 9c3c 1aa6 8e3c 8a7d 113d
00000100: d485 293c 2433 00be 9454 013d 5e27 3cbc
00000110: 6302 eb3c 1fd4 19be 0a22 dabd 662b 86bd
00000120: abc5 43bc 7175 a93d a488 f9bc 8163 973c
00000130: b7d8 443d a124 323d 44fe dcbd e5ee 45bd
00000140: 9d19 733d f6fe 243d 4a76 733d 2fa8 f5bb
00000150: 9e58 1dbd ab29 44bd 586b ddbc 30fd f8bb
00000160: 89cd 1b3d 785d 953d 1442 9f3c 109b d63c
00000170: d877 ec3c 3778 5ebd 83dc 103d a403 353d
00000180: c36c 8fbc f815 e83d e44f 223d 8f62 88bc
00000190: 429b 2a3d 669d 713d 8fb2 2c3e b85c 643d
000001a0: e8ed 563e 06b8 7dbc 7c8b 66bc c19e 74bd
000001b0: aac6 293d fed1 22bd a033 843c e0a3 39bd
000001c0: e15a a13c dd46 05bc f829 603d 6177 173d
000001d0: b535 db3c 6818 26bd 0915 75bd 0a64 7bbd
000001e0: a9ce 28bd 2f9a 31bd 6710 26bd 7755 273d
000001f0: 6bfa e73c d301 05bd bb40 6cbd b12a 99bd
00000200: 15d4 f3bc 31ab ef3d beef 273c 16eb 3c3e
00000210: 4b36 8b3b 03a6 14bd 51f9 1abd e355 85bd
00000220: 130d 8ebd a875 753d 895c 513c 668f 09be
00000230: b0f4 6d3e e300 b93c 9a0e 79bc 9b60 83bd
00000240: 83b1 39bd 5874 8dba 30f8 da3b 69c9 2cbe
00000250: 56bd 7cbd 3f57 ce3b ed27 a63c 4484 453d
00000260: 951f 01bd bfb5 13be ff13 d3bc 19fb 053c
00000270: dfa3 bb3c 0602 b5bd bf61 86bc b2da 95bc
00000280: 074b 99bd ba90 f7bc c6ce 99bd 8fc3 5a3a
00000290: 858e 9cbd aa67 6bbd 4f84 363e d4d9 833d
000002a0: 4b98 afbc bd70 07bd cdc7 8eba e385 b4bb
000002b0: fafc 88bc e23a dbbc 05e9 043d 56db 923c
000002c0: fed7 34bd fbdd cdbc ef20 103e fc7a 0d3e
000002d0: a7a3 5bbb 23e1 093d b41e 503d c50a a53c
000002e0: 0bcf 5bbd 35cb a33c 6a8a 8e3c ce32 453d
000002f0: 45d8 66bb aa41 3ebb 3f1b 373d 84d8 2fbd
00000300: 1307 f63c ed40 4b3d cf2c 023d 6cce 8d3c
00000310: e63b 5bbd 5505 58bd 0a20 eeba 3e39 f03c
00000320: 1e20 59bd b0fa 05be ab9b 443d c5a1 e63c
00000330: c5fb 203d c876 383c cb83 653d 56ad 953d
00000340: 2cce 663d b6de 2e3e 7b91 00bd f42b 273d
00000350: 289c 43ba db5b 34bd d89d b6bc dd18 823c
00000360: 35d6 2d3e 74a6 b2bc 5091 f83c c8f3 8a3b
00000370: 6761 38bd 9cc0 edbc 788a 4ebc 4a7a 1ebd
00000380: bcb7 4d3c ae83 35bd 9519 1fbd 0354 50bd
00000390: 9554 04bb 19d0 fcbc 8d7a 243c aea7 883d
000003a0: 5798 5d3b c047 39bd 6bab e63d 8932 133d
000003b0: afaa 553c 1129 cd3d a97b c8bb 889e 9dbd
000003c0: 035d 42bd 73c3 97bd 5498 90bc 7fa9 cd3c
000003d0: 39f7 f73c 84f3 32bc 3f53 813a e897 133d
000003e0: e453 fc3a 1977 15be d9e6 983c a350 a13b
000003f0: ed23 253c 7a78 333e 7f02 ff3d c583 0dbe
-0.08622962 0.02525305 0.07995122 -0.019120129 0.078236915 0.04531466 -0.011497893 -0.013861319
0.10916375 0.117906794 -0.006341606 -0.0058611045 -0.03227619 0.04287533 0.03996343 -0.056311466
0.109052666 -0.013619118 -0.058921814 0.02752808 0.017737279 -0.027605116 -0.011026995 0.023968289
-0.0049232584 -0.033926908 0.0003444638 -0.028708603 -0.047639556 -0.029139921 0.014540694 0.04595099
-0.06553755 0.01961885 0.04338688 -0.09618795 -0.010457412 0.0061150924 0.060508955 -0.07701758
-0.01850401 -0.038404103 0.015538698 0.055097185 0.18171264 -0.0738871 0.02744908 0.059794024
-0.02664144 -0.06414328 0.0678687 -0.006791804 0.007102079 -0.009089688 0.07696965 -0.0030727773
-0.035084 0.0059654927 -0.00058117544 0.012381315 0.024760207 0.019115157 0.017413188 0.035520114
0.0103468485 -0.12519509 0.0315748 -0.011483995 0.028687662 -0.15022324 -0.10651024 -0.06551246
-0.011948983 0.08274353 -0.030460663 0.018480064 0.048058238 0.043491963 -0.10790685 -0.04832353
0.0593506 0.040282212 0.05943898 -0.0074968557 -0.03841459 -0.0478913 -0.027028725 -0.0075985417
0.03803781 0.072932184 0.019440688 0.026196986 0.02886574 -0.054313865 0.035366546 0.044192925
-0.017507916 0.11332315 0.03962697 -0.016648559 0.04165197 0.058987997 0.1686499 0.055752486
0.20989192 -0.015485769 -0.014071342 -0.059721712 0.041449226 -0.039751045 0.016137898 -0.0453223
0.019696655 -0.008134571 0.054727525 0.036979083 0.026759008 -0.04055062 -0.059834514 -0.0613747
-0.04121271 -0.04335993 -0.040542986 0.04085299 0.02831765 -0.032472443 -0.05767892 -0.07478846
-0.029764215 0.11702574 0.01025003 0.18449053 0.0042484156 -0.036291134 -0.037835423 -0.06510522
-0.069360875 0.05992666 0.01277841 -0.13433608 0.23237872 0.02258343 -0.015201235 -0.064149104
-0.045335304 -0.001079212 0.0066824183 -0.16873707 -0.061704002 0.0062970216 0.02028271 0.04822184
-0.03152426 -0.144248 -0.02576637 0.008177542 0.022905288 -0.088382766 -0.01640403 -0.018292759
-0.074850135 -0.030220378 -0.07510142 0.00083451805 -0.07644371 -0.05747191 0.17823909 0.06438032
-0.021434924 -0.0330665 -0.0010893286 -0.0055091246 -0.016722191 -0.026761476 0.032448787 0.017926853
-0.0441513 -0.025130263 0.14075063 0.13816446 -0.0033514292 0.033661973 0.05081053 0.020146737
-0.05366425 0.019994358 0.017399985 0.048144154 -0.0035224122 -0.0029030838 0.04470372 -0.042931095
0.03003267 0.049622465 0.031781014 0.017310344 -0.05352392 -0.05273946 -0.0018167507 0.02932417
-0.053009145 -0.13083911 0.04800002 0.02815331 0.039302606 0.011258788 0.05603389 0.07308452
0.056348965 0.17077145 -0.03138874 0.0408134 -0.0007461929 -0.044032913 -0.022292063 0.015880996
0.16976245 -0.021807887 0.030342728 0.004240487 -0.045014765 -0.029022507 -0.012606256 -0.038690843
0.012556013 -0.044315033 -0.038842756 -0.05086137 -0.0020192016 -0.030860947 0.010038984 0.06672607
0.0033812725 -0.04523444 0.11263164 0.035936866 0.013041182 0.100175984 -0.006118257 -0.07696253
-0.047451984 -0.07410326 -0.01765076 0.025105236 0.030269252 -0.010922316 0.0009866728 0.03603354
0.0019251076 -0.14596213 0.018664764 0.0049229427 0.010079366 0.17526427 0.12451648 -0.13819797

base_pointnet.conv_2.bias f4 [64]
00000000: 42b8 87bc e252 b33c 3fc3 9fbc 6085 113c
00000010: 2f7e 913d 2e1b 9b3d 1862 f3bc 0af2 65bc
00000020: f53f 983c 8aab 8a3d 2146 1fbd 0597 1dbd
00000030: 97f0 423d aeaf 4cbc dab8 84bd da84 8bbd
00000040: 8388 f8bc 0034 d6bb ecb8 133d f9e2 3bbc
00000050: dba9 d1bb 7838 ffbc bb11 35bd 1d80 e43c
00000060: a9fe 1f3d 9445 39bd 4907 81bd 510e b53c
00000070: 189a f5bc 077f 61bd 8429 12bd 27b0 d9bc
00000080: 31b8 313d 5e9d a2bd 01dd 91bd 8211 56bc
00000090: 4cfc 9d3d a2ea 0dbe 6c07 17bd f99c 7cbc
000000a0: 6084 b93b d1cb 4cbd 455f 87bd d536 5b3d
000000b0: 0762 b63d 985d 8d3c 7c5d 7b3d 5558 93bc
000000c0: 5ba0 38bd 8ab7 00bd c246 03bd 66a5 2a3d
000000d0: 92f6 163d af44 e9bc 43c6 4f3b eb9d 95bd
000000e0: 8dd5 2cbb 8d97 963d 48e9 cbbd 4906 65bc
000000f0: d67b ae3d f425 5dbd 7ae6 7b3c 58f6 20bd
-0.016567353 0.021890108 -0.01950228 0.008881897 0.07104146 0.075735435 -0.02970986 -0.014034757
0.018585185 0.06771 -0.03888524 -0.0384741 0.047592726 -0.012493057 -0.0648057 -0.06812449
-0.030338531 -0.0065369606 0.036065027 -0.011467689 -0.006398422 -0.031154856 -0.044206362 0.02789312
0.039061222 -0.04523237 -0.06300218 0.022101553 -0.029980704 -0.055052783 -0.035684124 -0.026573254
0.04338855 -0.07940172 -0.07122231 -0.013065698 0.077141374 -0.13859037 -0.036872312 -0.015418285
0.0056615323 -0.049999062 -0.06609968 0.05351909 0.08905416 0.017256543 0.06136845 -0.017986456
-0.045074802 -0.031425036 -0.0320499 0.041661642 0.03685624 -0.028475134 0.0031703867 -0.07305511
-0.0026372403 0.07353125 -0.09956604 -0.013978549 0.085197136 -0.053991273 0.015374774 -0.03929743

base_pointnet.bn_1.weight f4 [64]
00000000: e232 843f 2d30 743f a3be 903f ab64 8b3f
00000010: 58cc 793f 8928 873f ec04 743f 8c52 673f
00000020: 0d1e 6e3f 1063 7d3f 708f 663f 6e4a 863f
00000030: a7d3 6a3f e679 6f3f 70aa 8c3f 1824 523f
00000040: de98 643f 02eb 493f 509e 813f 7b3f 873f
00000050: e740 763f 0f7c 8c3f 8da8 6a3f a968 7c3f
00000060: 9f4b 663f 2ee8 553f eeca 843f b999 683f
00000070: c12d 4d3f 15b6 5a3f 47b7 713f 4243 7a3f
00000080: 62c2 913f f72e 633f 902f af3f faf1 673f
00000090: d181 673f 5880 5e3f 95d3 6c3f 8879 5b3f
000000a0: 0c52 883f a7f2 823f 70fd 623f 6c92 a93f
000000b0: b944 773f 5318 743f 3edf 973f c165 883f
000000c0: a7b3 813f 600a 963f 689a 5d3f 6b5f 883f
000000d0: a148 9b3f fe22 683f c294 7b3f f5e2 9c3f
000000e0: 98c4 6d3f ef59 723f daf5 723f f6e1 8b3f
000000f0: f7fc 5a3f b4ff 633f de10 5c3f 790c 6a3f
1.0328028 0.9538601 1.1308178 1.0890096 0.9757743 1.0559245 0.9532001 0.9036033
0.93014604 0.9897928 0.9006262 1.0491464 0.91729206 0.9354538 1.0989513 0.82086325
0.89295757 0.7887422 1.0126438 1.0566248 0.96192783 1.097536 0.9166344 0.985972
0.8995914 0.83557403 1.0374429 0.9085956 0.8014794 0.85434085 0.94420284 0.9775888
1.1387446 0.8874354 1.368639 0.906036 0.9043246 0.8691459 0.9251035 0.85732317
1.0650039 1.0230302 0.88667965 1.324781 0.9658924 0.95349616 1.1865003 1.0656053
1.013295 1.1721916 0.8656373 1.0654119 1.213154 0.90678394 0.9827386 1.2256762
0.92878103 0.9466848 0.9490639 1.0928333 0.85542244 0.89062047 0.8596324 0.9142528

base_pointnet.bn_1.bias f4 [64]
00000000: c39a 1bbe 45f1 d03c 48d2 3b3d 4e41 0d3e
00000010: c3d9 0139 e4f4 073e 366d edbd 0f08 163d
00000020: 368b 44be 085f 46be e304 1fbe d80c b33d
00000030: c8ef 2fbd 0e51 793d 8cbd 5ebe e199 9ebe
00000040: d96b 51bd bfa1 8cbd 6228 19be ef84 063c
00000050: 57d5 59be 984f b9bd 51d7 6dbd 72fe 84bd
00000060: 74e5 c8bc 375d c1bb 0f26 e13c 7a9b 853c
00000070: 506b 27be f281 62be 27b7 fd3c 5a2a c43d
00000080: aef6 9e3d 3ac8 47bd b342 94be 5207 ec3c
00000090: bf9d dbba 4d7f c6bd a041 af3d 7d52 0dbe
000000a0: a222 04be e2b5 783d 1e92 2dbd 862d 923c
000000b0: 0377 4bbd 560c 01bd 3e4a aabd 7d0a 4abe
000000c0: 368d c43d 0ccc efbe 5c43 2bbd 2341 a2bd
000000d0: f92c d5bd 2ac0 f83c 263c cabd f0b0 88bd
000000e0: a7e8 353c 035c 90bd 1a39 71bd 761e 363e
000000f0: 92e9 b6bd e434 e0bd 7d2f 9cbd 28e6 89bd
-0.15195756 0.025505671 0.045854837 0.13794443 0.00012383521 0.13277012 -0.11593096 0.03662878
-0.1919373 -0.19372189 -0.15529208 0.08742684 -0.042953283 0.060868315 -0.21751994 -0.30976775
-0.051128242 -0.06866788 -0.14956811 0.008210405 -0.21272789 -0.090483844 -0.05806667 -0.06493844
-0.024523474 -0.0059010047 0.027483968 0.016309489 -0.1634953 -0.22119883 0.030971123 0.095783904
0.07761894 -0.048774935 -0.28957137 0.028812084 -0.0016755386 -0.096922494 0.08557439 -0.13800998
-0.12903836 0.060720332 -0.042375676 0.017843973 -0.049674045 -0.031505905 -0.08314942 -0.19730563
0.09597246 -0.46835363 -0.041812286 -0.0792258 -0.104089685 0.030365068 -0.09874754 -0.06674373
0.011102832 -0.070488 -0.058892347 0.17785057 -0.08931269 -0.10947588 -0.07626245 -0.06733352

base_pointnet.bn_1.running_mean f4 [64]
00000000: fe74 9d3f 0d00 1a41 102d 563e 60d2 253f
00000010: 8fe7 0240 13b4 54bd d6f2 eec0 d729 bcc1
00000020: a535 c7c0 43a0 863f 79fb c241 208a e23f
00000030: 9b10 edc1 b99e 88c1 e6c2 0abe 6418 17c2
00000040: 889e c2c0 3497 1842 c6f6 133f cc39 bbc0
00000050: d1ee ebc0 060d fdbe cdc5 a940 3ff0 01c1
00000060: bf3f 3dc1 6dce 7a41 6cb4 163f 6c1f 5bc1
00000070: 2906 d3c1 50bc e140 2e52 f5c1 43a8 a63f
00000080: f3d6 bf3e 77cb 4d41 737e c8bf 062d 0e42
00000090: 0533 f241 6bbe 8fc1 cce7 5a41 1cc3 2a42
000000a0: 85b0 37c0 2075 afbe 81ea cc41 17ed dcbf
000000b0: 7a41 33c1 7371 98c0 663a 69c0 fd86 f03f
000000c0: 4e72 b1bf e7cd 98bf 2d6d 9141 407a 10bf
000000d0: 28c1 073a b78a 6040 57fe dd40 7eda c7c0
000000e0: b440 2940 b83f ab41 727a c540 1b31 57c0
000000f0: 1ee2 af41 76be 4341 182b a0c1 209a 5a41
1.2301328 9.625012 0.20915627 0.6477413 2.0453832 -0.051929545 -7.467143 -23.52043
-6.2252984 1.0517658 24.37279 1.7698402 -29.633108 -17.077501 -0.1355091 -37.77382
-6.081852 38.14766 0.5779842 -5.8508053 -7.3729024 -0.49424 5.3053956 -8.121154
-11.828063 15.675397 0.5886905 -13.695171 -26.378008 7.0542374 -30.665127 1.3020099
0.3746868 12.862174 -1.5663589 35.54397 30.274912 -17.967978 13.681591 42.690536
-2.870149 -0.34269047 25.614504 -1.7259854 -11.2034855 -4.763849 -3.6441894 1.8791195
-1.3863008 -1.1937836 18.178308 -0.5643654 0.0005178624 3.5084665 6.9372973 -6.2454214
2.6445742 21.406113 6.171197 -3.3623722 21.985409 12.233999 -20.021042 13.662628

base_pointnet.bn_1.running_var f4 [64]
00000000: 02ee e841 3cb8 9742 25ea aa41 b9b6 0141
00000010: 709f a540 02d6 0a3f 43d8 1342 0ced 1243
00000020: 2222 0742 16bb 3142 70a1 1343 c993 8742
00000030: 8a32 6143 0a9b aa42 d36a 1b42 11f3 a743
00000040: 3d47 1342 644f a543 b984 9d41 b0f9 8f42
00000050: 54a6 cf41 55d4 e642 f6a7 8f41 8bf2 3b42
00000060: 1801 0c42 5aa7 be42 775d dc41 ce15 6b42
00000070: 30d4 2543 daa8 4741 e617 5f43 aa4a 7d41
00000080: dc6d 3341 e19b 0842 2201 a141 2f3f 8f43
00000090: cc98 6243 0f04 9b42 24d4 7b42 7d6d c443
000000a0: 5564 d241 ff80 2242 ecb0 5243 a57e f941
000000b0: f875 ab42 85de 8742 8c10 bf41 9653 7440
000000c0: 2b65 e13f 7347 b241 fbce c642 0a96 b13f
000000d0: c50c a140 f466 5e42 1eef c342 4174 0842
000000e0: 821f a441 a077 fd42 807c 4642 01b0 f941
000000f0: ec97 1c43 f415 4642 df00 0243 afb5 a642
29.116215 75.85983 21.364328 8.10711 5.1757126 0.542328 36.961193 146.92596
33.783333 44.4327 147.63062 67.78864 225.19742 85.30281 38.85432 335.89896
36.81957 330.62024 19.689806 71.98767 25.956215 115.41471 17.957012 46.98686
35.00107 95.32686 27.545637 58.771294 165.82886 12.478724 223.09335 15.830729
11.214321 34.152225 20.125553 286.49362 226.59686 77.50793 62.95717 392.85538
26.29899 40.625973 210.6911 31.186838 85.73041 67.93461 23.88308 3.8176017
1.7608999 22.284887 99.40426 1.3873913 5.032809 55.60054 97.967026 34.11353
20.515385 126.73364 49.621582 31.21094 156.59344 49.52144 130.0034 83.35485

base_pointnet.bn_2.weight f4 [64]
00000000: 622f 0a40 3311 e73f e0d3 bb3f 338d c43f
00000010: 867b cc3f eca5 e13f b798 b93f 5997 dc3f
00000020: b508 c03f a7ba ef3f 04f1 c53f 1a66 b23f
00000030: 2606 d83f a8c1 a93f 219b e13f 391e ae3f
00000040: bb25 fd3f 790f c43f cc88 0640 87f7 b23f
00000050: 9a15 dc3f 1bed bc3f 905e d23f 33a2 e43f
00000060: fa82 d43f 008d b63f d808 ca3f 0212 d23f
00000070: 25d5 df3f 9e17 dc3f b299 be3f a915 cb3f
00000080: a3e0 0940 b876 c03f c53d d73f d1b0 bc3f
00000090: 194e ba3f d622 bc3f d841 ea3f 9c5b f73f
000000a0: 2ca6 b93f 2bb4 ca3f bbd4 c23f ecb9 ef3f
000000b0: bf72 d93f a0a4 f83f 1177 c03f 8942 bf3f
000000c0: c825 bc3f 40d3 bd3f 7bb5 de3f 96de bd3f
000000d0: acc0 cc3f a777 f73f 3ed3 f93f 4a71 b73f
000000e0: c0ac bb3f ecda e03f 7bb7 bc3f 194d dd3f
000000f0: 5fa3 b33f 8b8c c33f 7a86 e53f 3e57 ee3f
2.159142 1.8052124 1.4674034 1.535559 1.5975196 1.762876 1.449973 1.7233688
1.5002657 1.8728837 1.5464177 1.3937409 1.6876876 1.3262224 1.7625467 1.3602973
1.977714 1.5317222 2.1020994 1.3981789 1.7194092 1.4759859 1.6435108 1.7861999
1.6602471 1.426178 1.5783949 1.6411746 1.7486922 1.7194707 1.4890654 1.5865985
2.1543357 1.503623 1.6815726 1.474146 1.4555084 1.4698131 1.8301344 1.9324832
1.4503837 1.5836233 1.522117 1.8728614 1.6988143 1.942524 1.5036336 1.494218
1.469903 1.4830093 1.7399133 1.4833553 1.5996299 1.933339 1.9517591 1.4331448
1.4662094 1.756681 1.4743494 1.7289153 1.4034232 1.5277265 1.7931664 1.8620374

base_pointnet.bn_2.bias f4 [64]
00000000: a6c4 bc3d 83fd 9f3e a46d 293e baef 993e
00000010: 7be6 893e 8673 bc3e 8c61 763e f819 e23d
00000020: 9f97 523e dac8 8b3e 05f7 d83e 2418 333e
00000030: 2170 4a3e d9ef 163e a0d4 223d f96e 853e
00000040: c013 983e ccb8 953e c874 133d ac0c 983e
00000050: 6e67 8c3e 141c 973e 30ee 6b3e 4e6d e43d
00000060: ee6d d3bc b25d 4b3e 3bc4 543d 8fef e03e
00000070: 6195 bd3d 4902 a23e 6e05 9a3d 08be fb3c
00000080: b564 ce3c 5569 063e 746a 2b3e a69b 7c3e
00000090: 4e5d 363e 37d1 543e 3b4a 873e 0026 b63e
000000a0: 7505 a33e 8f42 383e 2f7e 303e d15a 6d3e
000000b0: 7e3f 99bd 9b1b b43e a99e 0b3e 2194 873d
000000c0: 1e2e e83d 6206 723e 4151 193e 0d84 443e
000000d0: c597 283e 9025 873d e22f 5b3e cc55 2e3e
000000e0: b9b5 9e3e 7380 803e e1f9 a63e c534 923d
000000f0: 5273 673e 2ef8 8e3e 78e3 f6ba ef7d 35bd
0.09217195 0.31248102 0.16545731 0.3006571 0.26933655 0.36806887 0.24060649 0.110401094
0.20565651 0.27301675 0.4237596 0.17489678 0.19769336 0.14739932 0.039753556 0.26061228
0.29702568 0.2924255 0.036000043 0.29697168 0.2742266 0.2951361 0.2304008 0.11153661
-0.025809254 0.1985996 0.051944952 0.4393277 0.092570074 0.31642368 0.07520567 0.030730262
0.025194505 0.13126118 0.16739827 0.2466875 0.1780903 0.20782934 0.2642382 0.35575867
0.318401 0.1799414 0.17235635 0.23179175 -0.07482813 0.3517731 0.13634743 0.0662005
0.11336921 0.23635247 0.14972402 0.19190998 0.16464145 0.06598961 0.21404985 0.17024916
0.30998018 0.25098 0.32612517 0.07138971 0.22602585 0.2792372 -0.0018836102 -0.044309553

base_pointnet.bn_2.running_mean f4 [64]
00000000: 65a5 823e 6c78 42bf cb8b 8cbe 4d98 7fbf
00000010: 81fe f3bd 1b22 f93e fd69 fabe 94be e3be
00000020: b4c9 d8be 366d 19be df73 1abf 9982 17be
00000030: 302c 91be 8acc 07bf c533 043d fed5 59bf
00000040: 4124 0cbe 9687 97be 7910 6e3d cc32 33bf
00000050: 3b17 adbe 6d2f fcbe 44fd 17bd e23f 92bc
00000060: 348f 023f 3095 0bbf 574c c23d d4da 38bf
00000070: b348 99be 7dc4 c7be 76d1 1abc 4fac 17be
00000080: af8b b33e b62d a5be d487 b5bb 62b4 8abe
00000090: bbd8 a9be bf1c bfbe e8a4 bebe 9761 5ebe
000000a0: 15ee 8abe 6769 183e c32c de3e b92d 2abe
000000b0: ff02 67be ba19 99be 50aa 1a3e c867 55be
000000c0: b091 b5bd 78ac bbbe f689 91be 83ce 02bf
000000d0: 7caa 16bf 61b1 ea3d e870 b4be 2d33 08bf
000000e0: 54dd 85bf 553f 6ebe c948 61bf 6792 5b3e
000000f0: 42db 983d bf87 04bf bb83 01bf 6737 5ebc
0.2551681 -0.75965 -0.27450404 -0.9984177 -0.11913777 0.48658833 -0.48908988 -0.44481337
-0.42341387 -0.14983067 -0.60333055 -0.14795913 -0.28354025 -0.53046477 0.032275934 -0.8509215
-0.13685705 -0.2959563 0.05812118 -0.69999385 -0.33806786 -0.49254933 -0.037106767 -0.017852727
0.5099976 -0.5452452 0.09487217 -0.72208905 -0.29938278 -0.39017096 -0.009449353 -0.14811824
0.35067508 -0.32261437 -0.0055398736 -0.27090746 -0.33173165 -0.3732662 -0.37235188 -0.21716915
-0.27134767 0.14883958 0.43393525 -0.16619004 -0.22559737 -0.2990244 0.15104032 -0.2084037
-0.08865678 -0.3665502 -0.28425568 -0.5109636 -0.5885389 0.114596136 -0.3524239 -0.5320309
-1.0458169 -0.23266347 -0.88001686 0.21442567 0.07463695 -0.5176963 -0.5059163 -0.013563014

base_pointnet.bn_2.running_var f4 [64]
00000000: a7ae 3c3c a7ac c13d a2ed 413d 5e03 413d
00000010: bdf1 513d 262f 123d b052 d33c 3a1f 053d
00000020: 28cc 1b3d 22dc 343d 252e 0d3d cb40 013e
00000030: 76ba 1a3d 71c6 473d e08f 5d3c 48b6 063e
00000040: 411b 243c b130 883d fa76 ef3b ccd2 033d
00000050: 0f8f 453d 0a22 503d 58af 0e3d 84c3 613c
00000060: c06e 333d f3a5 d83c d303 ff3b 90b9 cb3d
00000070: 6cd4 263d 8418 fc3c f455 c33c bac0 373c
00000080: 4480 583c 8134 573c 0543 2a3d 8b15 6f3d
00000090: acef c33c 0651 253d 92ba e63c ee9d ab3c
000000a0: 6a6b 393d 2e4c 013d 4ed7 d83c 386f e63c
000000b0: b452 813c 90c0 183d a4d9 aa3c de41 3c3d
000000c0: bc91 693c 6268 eb3c 3666 aa3d ddb9 db3c
000000d0: f6de 0d3d 7325 0e3c 2b93 363d 1296 5e3d
000000e0: b3b3 0d3e f6dd 703d 3e25 f83d d549 133c
000000f0: a782 e33d a5cc c03c 6bc4 aa3c 80df 453d
0.01151625 0.09456759 0.047345765 0.04712235 0.05125593 0.035689496 0.025796264 0.032500483
0.038036495 0.044155248 0.034467835 0.12622373 0.03777548 0.048773233 0.013523072 0.13155472
0.010016263 0.06649912 0.0073078843 0.032183453 0.048232134 0.050813712 0.03483519 0.013779525
0.04380679 0.026446318 0.0077824383 0.099475026 0.040729925 0.030773409 0.023844697 0.011215383
0.013214175 0.0131350765 0.04156782 0.058370154 0.023917995 0.040360473 0.028165136 0.02094933
0.045268454 0.03156679 0.026469853 0.028129205 0.015786506 0.037293017 0.020855732 0.045961253
0.014255937 0.028736297 0.083202764 0.026822025 0.03463646 0.008675921 0.044573944 0.054342337
0.13838081 0.05880543 0.121164784 0.008989771 0.11108904 0.023535082 0.020845613 0.04830885

fc_1.weight f4 [64, 66]
00000000: b1ce 3e3e afd8 9dbc 2867 26be ffbb 9fbd
00000010: 87a7 da3d 86c6 a3bd 86ec 1ebd 482e 0abe
00000020: f4a8 fdbd 1b3f 493d e41f 943c 6ba8 05be
00000030: 6dd2 1cbd 5fca 05be 2269 acbd d830 ef3c
00000040: 2057 e73d 9d5f 563c f4be 10be 9f68 44be
00000050: 4363 97be 60a3 17be 3746 a9bc 8b08 4abd
00000060: 7224 6fbe aeb3 f2bd 0061 98bd 58f7 9a3d
00000070: 3f17 26be f907 b2bd 355c 7bbe 6cd8 79bd
00000080: d956 89be b5b3 6ebe 74a5 83be 3483 9dbe
00000090: 22f5 35be 5302 c6bc 9449 4fbe ee46 3f3c
000000a0: dec9 90be c306 d53c c1a7 df3c 4809 d93d
000000b0: 86ba f03d 50de bfbd 4c9e debd d098 57bd
000000c0: 1f97 233e efb7 adbd a693 f0bd cf29 18be
000000d0: 7191 85bc e1f1 b23c 61e8 28be 0bb6 233d
000000e0: 030b 3d3d 818a 26be 31f4 59bd 8ea6 fb3d
000000f0: 62ad 7e3d 0cdd 973d 72b9 f0bc 448a 993d
00000100: 65f9 3dbd ea66 dabe 6410 ddbe 306e 69c0
00000110: 58ec b5be c922 a23e d51a 063f 4009 843d
00000120: 62d8 603e 32f5 b13e 1417 f83e 4330 ce3e
00000130: fd6a f53e 7286 ba3e 897f 893e e706 223e
00000140: 182f 3e3f da78 503e ccc6 efbe 7646 813e
00000150: 219d a23e 0fd5 0a3f 4006 1cbf 6f99 c93e
00000160: a8fe 263f cda2 093f 0d04 36bd 3f99 15bd
00000170: 3b13 0b3e 413e b43e 327f 563e cbac 533e
00000180: a60b 0a3e cdb4 3d3f 4d67 f93d 0156 72be
00000190: caf3 11bf a3f6 2d3f b0c8 013e 063e 4d3f
000001a0: caed de3d 736f d83e 4e0a 7d3c f677 bc3e
000001b0: eb42 2b3f c4bf a7bc 9f2b 313e 945c 0b3f
000001c0: 81ec fcbe 831d a53e 6661 fe3e 6ffe 5c3e
000001d0: 8b07 83be 0037 513e 5f0f 053f 7ec8 723e
000001e0: bc65 05bd e705 f23d bcd4 a13e 3490 083e
000001f0: 6fcf 023e 9de4 533f 9b6b 163f 8fe2 213d
00000200: e27d 563e fd21 1b3f 2951 bc3d 4f29 29bc
00000210: 5b77 cbbd 839b b13d bf5c 263d 478d 21bd
00000220: ef3c 5abd c8dc 22bd c998 07bc c051 62bc
00000230: db26 19bc 3399 dbbd e04a 98bd dac4 c8bd
00000240: 2fc3 813d 3d5e a93a a10e d63d fa30 013d
00000250: 5862 adbd d1e5 373c 32ef 893c c9ba 8d3c
00000260: c63d f9bd f5f6 963d 2689 8f3c b11f 0fbd
00000270: 5be6 e43d 1f82 92bd a5bd d83c bc9a d0bd
00000280: 3de5 ecbd 6d69 053d ad0b e53c 26d7 d53d
00000290: 0df0 76bd 2ab9 c9bd 69d4 223d ee54 8a3b
000002a0: 6899 f83d 45a5 cabd deea acbc 46be 853d
000002b0: 4cb2 843b 701d eebd 289e a6bd c0ff ecbd
000002c0: 68a4 bdbd 17bc 96bd c47a fa3d fd61 9fbd
000002d0: fa35 d2bd e3ee c8bc d3d2 e3bd 718c d23c
000002e0: 0688 4f3d ff3e f8bd f620 1abd f2c7 483d
000002f0: fb7d 49bc 98ff 91bc 8fc4 67bc 1d63 8bbd
00000300: 1ee9 b53d a8c3 fa3b 998b ddbd 6d4c 92bd
00000310: e9d8 13bd c745 a53c 22db 953c 8345 013f
00000320: 3060 623d 0436 68bd d900 36be 4b5f 7d3e
00000330: f995 213e 02b8 e2bd 5a41 5b3c d6c8 e23c
00000340: c018 ea3d bcdc e6bb 78f4 babc 0dac 523e
00000350: 5efc 4abd b2c8 1e3e 5929 383e d482 743e
00000360: f096 6b3d 4238 063e fd4b 8c3e 4f91 1f3c
00000370: af6b 80bd edcd bb3c fc28 683e 9286 713d
00000380: 094e 423e ac68 ce3d 22a5 a73d ae84 713c
00000390: f5f8 143e 6e92 0fbd 830a 493d 38eb 8c3e
000003a0: 1033 3b3d c74a 613e 11d7 13bc d8f8 963d
000003b0: 6fd1 a43d 9c6c 9e3d 3eaf 523e 12cb dbbd
000003c0: 2df6 043d 0d8e cb3d 9c68 873c ec90 2bbd
000003d0: 92c4 963e 9b4b 0f3e e6bb 59be 0ebf 2c3e
000003e0: e1af 4a3e 6f74 b93d f8aa 233c e6a2 083d
000003f0: 6030 8b3d f1dc 69bc 1a7c 8b3d e9f4 7d3d
0.18633534 -0.019268362 -0.16250288 -0.07799529 0.106764846 -0.0799685 -0.038799785 -0.13494217
-0.12385741 0.049132448 0.018081613 -0.13052528 -0.038286615 -0.1306548 -0.0841849 0.029198095
0.11295915 0.013084319 -0.14135343 -0.19180535 -0.29567918 -0.14808416 -0.020663364 -0.049324553
-0.23353747 -0.118506774 -0.07440376 0.07566708 -0.16219805 -0.08692927 -0.24546893 -0.06099741
-0.26824072 -0.2331074 -0.25712168 -0.30764163 -0.17769292 -0.02417103 -0.20242912 0.011674626
-0.28279012 0.0260042 0.027301671 0.105974734 0.117543265 -0.093685746 -0.108700365 -0.052635968
0.15975617 -0.08482348 -0.11746912 -0.14859699 -0.016304703 0.021843852 -0.16494896 0.03996853
0.04615308 -0.16263773 -0.053211395 0.12287627 0.06217707 0.07415208 -0.029385302 0.07497075
-0.04638042 -0.42656642 -0.43176568 -3.6473503 -0.35531878 0.31667164 0.5238469 0.06447077
0.21957543 0.34757382 0.48455107 0.40271196 0.47933188 0.364307 0.26855114 0.15822946
0.7429061 0.20358601 -0.46831357 0.2524907 0.31760505 0.5423135 -0.60947037 0.39374873
0.65232325 0.5376404 -0.044437457 -0.0365231 0.13581555 0.35203746 0.20946959 0.20671384
0.13481006 0.74104005 0.12177906 -0.2366562 -0.5701262 0.6795446 0.12674212 0.80172765
0.108851984 0.4227253 0.015444351 0.36810273 0.66898984 -0.020477183 0.17301796 0.5443814
-0.49399188 0.32249078 0.49683684 0.21581434 -0.25591692 0.20431137 0.5197658 0.23709294
-0.032567725 0.11817532 0.31607616 0.13336259 0.12774442 0.8277071 0.5875794 0.039522704
0.20946458 0.60598737 0.091951676 -0.01032479 -0.099348746 0.0867224 0.040615793 -0.039441373
-0.053280767 -0.039761335 -0.008276173 -0.013813436 -0.009347643 -0.1072258 -0.07436156 -0.098031715
0.063360564 0.0012921762 0.10452009 0.03154085 -0.08466023 0.011224226 0.01683769 0.01730098
-0.121699855 0.07371322 0.017521452 -0.034942333 0.11176749 -0.07153725 0.026457617 -0.10185763
-0.11567161 0.032571245 0.027959669 0.10441427 -0.060287524 -0.0984977 0.03975335 0.00422155
0.12138635 -0.09894804 -0.021108087 0.065304324 0.004049575 -0.116267085 -0.08135635 -0.11572218
-0.09259874 -0.07360094 0.12230447 -0.07782362 -0.102642015 -0.024527973 -0.11124196 0.025701733
0.05066683 -0.121213906 -0.03762909 0.049018808 -0.0122981025 -0.017822072 -0.014145984 -0.06806014
0.08882354 0.0076527186 -0.10817642 -0.07143483 -0.036095534 0.020174874 0.018292967 0.5049669
0.055267513 -0.05669214 -0.17773761 0.24743383 0.15779866 -0.11070253 0.01338228 0.027683657
0.11430502 -0.0070453566 -0.02282165 0.20573445 -0.049557082 0.15506247 0.17984523 0.23878032
0.057516992 0.13107398 0.27401724 0.009739234 -0.06270539 0.022925342 0.22671884 0.058966227
0.1897508 0.10078558 0.081857935 0.014741106 0.14548095 -0.035051756 0.04908229 0.27523208
0.045702994 0.22001182 -0.009023444 0.07371682 0.08047759 0.07735559 0.20574662 -0.10732092
0.032461334 0.099392034 0.016529374 -0.041886255 0.29446846 0.13993685 -0.21263084 0.16869757
0.19793655 0.09055411 0.009989493 0.033358477 0.06796336 -0.014273868 0.0681078 0.062001143

fc_1.bias f4 [64]
00000000: bbf7 dbbd ba11 5a3e 490b 50bd 0b38 013e
00000010: 7a53 093e b964 e1bd 63d7 8c3d 0375 12bd
00000020: fea8 2e3c f94b ac3d a649 913d dae9 f03d
00000030: c91b e93d a79d d3bc b434 313d 813c 293e
00000040: a619 5a3d a425 70be 2e69 b93d 1bb8 143d
00000050: b544 4fbd 29cf 4a3e ef66 aa3d 94d3 00be
00000060: 693e 9cbd 3954 063d 5438 43bd 40ec 713b
00000070: 63d9 f839 4096 8fbd a7c7 473d 3040 abbc
00000080: 03b5 bd3b 71f8 1abb a184 14bd e7a3 99bd
00000090: dbc0 3bbe 68ff 07bd 5ce9 9b3c 4477 0fbe
000000a0: 578c 76bd 7223 023c 3959 683d fbc7 bb3d
000000b0: a60b ff3b 6954 c2bd 8ff5 e5bd 9084 a23e
000000c0: 8d30 94bb df6e 86bd b761 763d 80d3 863c
000000d0: 7d4d a4bd 2a43 fbbd ed53 24bd 9685 a4bc
000000e0: 507d d73d 5b4a 6f3d 8deb 963d b88b 753d
000000f0: f6e9 afbd 0df6 d0bc 4246 cf3c 20e6 bfbc
-0.1074061 0.21295825 -0.050792012 0.12619035 0.1341075 -0.110055394 0.06877019 -0.035756122
0.010660408 0.08412928 0.070941254 0.11763354 0.11382253 -0.02583201 0.043263152 0.16526987
0.053247117 -0.23451859 0.090532646 0.03630839 -0.050602634 0.19805588 0.08320414 -0.1258071
-0.07629091 0.032795165 -0.04766114 0.0036914498 0.00047464212 -0.0701108 0.048774388 -0.02090463
0.0057894005 -0.0023646618 -0.036259297 -0.07501965 -0.18335287 -0.03320256 0.019032173 -0.1401034
-0.060192432 0.007943021 0.056725714 0.091690026 0.007783371 -0.09488756 -0.11228477 0.31741762
-0.0045223893 -0.06564116 0.060151782 0.016458273 -0.08022592 -0.1226867 -0.0401191 -0.02008323
0.10521948 0.05842052 0.073691465 0.0599477 -0.085895464 -0.025507951 0.025302056 -0.023425162

fc_2.weight f4 [4, 64]
00000000: 6309 6e3e 28ce 7e40 a0a0 a73c a1bb 95bd
00000010: d396 8ec0 bc01 1c40 9cbe a2bc 55d0 1b3e
00000020: 1f41 d83c 2ce6 e43d 6090 c2bd 062e 31bd
00000030: b9d9 4fbe c26e 9bbd 68cc 153f 2d1b 0bbe
00000040: 87c9 bc3e 6cf3 85bf 4cf3 e33d 1cbe 07bd
00000050: a9c3 87bd 0023 febd 1773 2c3d 715e c5bd
00000060: 87b0 8c3e d43d 62bd 62d8 d6bc fc73 3bbd
00000070: 31b2 023f d063 0f3c 6f9c f4bd eb2d db3d
00000080: 966e bc3f 6ae3 a63e 3898 7c3e f935 6ebd
00000090: f762 263d afa3 8cbf 8bd2 00be de03 a53e
000000a0: 297d 55bc 22d0 c4bd da84 f43f f008 80bd
000000b0: 842d 37c0 50eb d53d 640b d33d 2562 a43f
000000c0: 609a 9bbc b028 05bc 99cd adbe 28e1 d0bd
000000d0: 240d 88bd c7ba e63d ca0e ab3e b5b2 8b3e
000000e0: 95ee bcbd 6e34 d63d ec11 0cbd 24db 3f3e
000000f0: f213 abbd f85c 963d 249a bfbd 557f 843f
00000100: da93 36bf 3ed4 7ec0 a06f 5c3d 5e95 473e
00000110: 2fa8 8440 0f06 e43f 642a 0abf f359 bbbf
00000120: de39 18bd 38af 853c 343a 19bd de97 593e
00000130: 8681 db3e ac26 303e 0580 933f e376 1d3e
00000140: 097e 01bf afae b83e b081 f8bc c8ef cdbd
00000150: 5a93 8bbc ce07 c13d 4909 a2bc b80c 3cbd
00000160: 35bc 88be 709e 043c e87a e53d 6ae6 8a3d
00000170: a540 b5be e0bf ce3d 0aae bd3d f1a7 93bd
00000180: f63d 6cc0 cfba babe c0c4 96bf a688 69bd
00000190: 4bd4 2d3f afdd 763d d76f b33d 191b 823d
000001a0: 3505 c53d 9aa8 853d 4f58 14c0 c872 933c
000001b0: 58b1 983f 4ea1 bcbd ec1b 133d 7c25 d73f
000001c0: e224 c7bd cc14 233d 9fb7 e73e 38b1 18bd
000001d0: c76f d93c fbd7 fbbe 23c8 26be 84fd 60be
000001e0: 5378 e73e a482 96bd 00de aa39 e65a b73d
000001f0: 98b5 d63d 8515 093e 4e1b 1f3e 01b4 43c0
00000200: 70f4 583c e752 cdbf 08ca 7e3d 27ce b2bc
00000210: a44f 753f 02d6 f4bf 3b09 ec3d 1d64 c53e
00000220: 9ccc 153e 6813 833d def0 e2bd 9d28 743d
00000230: e1a1 563c b76f 8b3b d3cb 61bf 81dc d73d
00000240: 9284 06be d303 933f 1e44 89bd 2040 e9bd
00000250: 8608 073e 9e4c fb3d a687 30be 5cbc 893c
00000260: 9c52 5abe c8c3 af3c 8dc2 e03d c257 85bd
00000270: 754a a6be 1a5c 9dbd def4 a73c fa94 553d
00000280: ff96 41bf 51ec 1dbe 8ad7 983f b09b da3d
00000290: 68b1 a4be 91d4 853f 394b 923d f2a9 d9be
000002a0: 9152 a03d a49d aebd cd93 883e 601a cfbd
000002b0: ac5c e83f d0f1 0c3c 6033 c1bb 8aae 8cc0
000002c0: eac3 9ebd 20ee a33b 0b76 3cbe 1055 77bd
000002d0: 45e6 cd3d a075 78bd 6154 a2be 93ee 58be
000002e0: 0a04 38be aee4 d73d 7c98 7bbd 561f 8bbe
000002f0: cae9 dd3d df94 04be d69d 283e 5dd7 5b3f
00000300: c853 79bd 7b09 eabe 065d 913d 7c8b 7e3d
00000310: 1507 923d 99e3 b53d 5f4f a0bd 14d0 7dbe
00000320: 7533 e1bd 2a78 83bd 90be 3f3c 429c 2fbe
00000330: eacf 3cbf c148 20be fcee 9c3d 0049 9b3c
00000340: 0cf9 09be bb0c 15bf 0462 a0bd 0847 f7bc
00000350: 7de4 833d db5b 81bd dbd8 26be 984c 9f3c
00000360: ecd1 24be 18c3 70bd 1f7d 01be ae3c bcbd
00000370: 0455 a33d 6044 5a3d dd2e 5d3d 520f d6bd
00000380: 3e3b 87be eb55 fabd 79d0 613d 4b2d 7c3d
00000390: b36a 8b3d 20d6 df3c 0f21 d3bd 0d65 973d
000003a0: 9f25 ef3d f8ad 393d c658 73bd 906a 583d
000003b0: ec9f 923d 9004 62bd 0237 803d 2176 d0be
000003c0: 64a0 d5bd 3080 463d 5de4 0ebf 6e8c e2bd
000003d0: b227 e43d b2d3 c23d 4f79 f9bd ef5b 40be
000003e0: e0a6 25be 3cfd 553d c083 51bb ebf5 a3bd
000003f0: f4dd 20bd 887f b63b afcb 0abe 04ad 9cbd
0.23245768 3.9813328 0.020462334 -0.07311178 -4.455911 2.4376059 -0.01986628 0.15216191
0.02639824 0.11176714 -0.095001936 -0.043256782 -0.20297898 -0.07589485 0.58515024 -0.13584585
0.36872503 -1.0464911 0.111303896 -0.033140287 -0.06629116 -0.124090195 0.042101946 -0.09637154
0.2747843 -0.055234745 -0.026226226 -0.04576491 0.5105315 0.0087518245 -0.119439 0.107021175
1.4721248 0.32595378 0.24667442 -0.05815694 0.040621724 -1.0987452 -0.12580316 0.32229513
-0.013030329 -0.09610011 1.9103043 -0.06251705 -2.862153 0.10445273 0.10304907 1.2842451
-0.01899451 -0.008127376 -0.3394592 -0.10199195 -0.066431314 0.11266094 0.3340972 0.2728478
-0.092251934 0.10459219 -0.03419678 0.1873594 -0.08353414 0.07341951 -0.09355572 1.0351359
-0.71319354 -3.9817042 0.05381739 0.19490573 4.14553 1.7814349 -0.5397093 -1.4636825
-0.03716456 0.016318902 -0.037409022 0.21249339 0.42872256 0.17202252 1.1523443 0.15377383
-0.5058294 0.36070773 -0.030335277 -0.100555 -0.017038036 0.09425317 -0.019779818 -0.045910567
-0.2670609 0.008094415 0.11205083 0.06782229 -0.35400882 0.10095191 0.09261711 -0.07209767
-3.6912818 -0.3647065 -1.1778793 -0.057015084 0.6790206 0.060270008 0.08761566 0.06352825
0.09620134 0.06526299 -2.31789 0.017999068 1.1929121 -0.09210454 0.0359153 1.6808314
-0.09723832 0.039814755 0.4525728 -0.037278384 0.026542557 -0.49188218 -0.16287284 -0.21971709
0.45208988 -0.073491365 0.0003259033 0.089528844 0.10483855 0.13387115 0.1553776 -3.0578616
0.013241872 -1.6040925 0.06220439 -0.021826817 0.95824647 -1.912781 0.11525198 0.38552943
0.14628834 0.06400186 -0.11081098 0.059609044 0.013100118 0.004255261 -0.88201636 0.10540105
-0.13136509 1.1485542 -0.067024454 -0.11389184 0.13186845 0.12270473 -0.17239246 0.01681345
-0.21320575 0.02145566 0.109746076 -0.06510879 -0.3247868 -0.076835826 0.020502504 0.05214403
-0.75621027 -0.15422179 1.1940777 0.10674226 -0.321666 1.0455495 0.07143254 -0.4251247
0.07828248 -0.08526161 0.26675263 -0.101124525 1.8153281 0.0086025745 -0.005896017 -4.396306
-0.077522114 0.005002752 -0.18404405 -0.060383856 0.10053686 -0.06065905 -0.31705 -0.21184759
-0.17970291 0.10541664 -0.061424717 -0.27172345 0.10835607 -0.12947415 0.1646646 0.85875493
-0.060870916 -0.45710358 0.07097821 0.06214474 0.07130257 0.088813014 -0.07827639 -0.24786407
-0.10996143 -0.06419404 0.0117031485 -0.17149451 -0.7375475 -0.15652753 0.0766277 0.018955708
-0.1347391 -0.5822255 -0.07831195 -0.030185238 0.06440065 -0.06316348 -0.16293661 0.019445702
-0.16095704 -0.058779806 -0.12645386 -0.09191261 0.079752 0.053287864 0.05399977 -0.10452141
-0.26412386 -0.12223419 0.055130456 0.061566632 0.06807461 0.027323782 -0.1030904 0.07392321
0.116770975 0.045331925 -0.059410833 0.052836 0.07159409 -0.055180132 0.06260492 -0.40715125
-0.10430983 0.048462093 -0.55817205 -0.11061941 0.11140384 0.09513034 -0.12181341 -0.1878507
-0.16176939 0.052243456 -0.0031969398 -0.080058895 -0.03927417 0.005569402 -0.13554262 -0.076501876

fc_2.bias f4 [4]
00000000: b924 37be 7923 22bd 5bb0 223e 56b5 443d
-0.17885102 -0.03958461 0.15887587 0.048024498
