Mindset augmented trained networks (pth)/segmentation_pointnet_f32layers.pth (torch, 79002 bytes, 18 tensors)

base_pointnet.conv_1_a.weight f4 [64, 1, 3]
0	0xbbf8bea2	-0.0075910846
1	0xbe129eb7	-0.14318357
2	0xbe14e524	-0.14540535
3	0x3eb29be4	0.3488456
4	0x3e0bb3eb	0.13642852
5	0x3ec23aa5	0.37935367
6	0x3de57044	0.112030536
7	0xbed44b4c	-0.41463697
8	0xbe5259a8	-0.20542014
9	0xbf082a30	-0.53189373
10	0x3e2db527	0.16963635
11	0x3d1421f6	0.0361652
12	0xbe8226c2	-0.25420195
13	0xbe898a79	-0.2686346
14	0xbebedfa0	-0.37279987
15	0x3c0e1092	0.008670943
16	0xbc233c19	-0.009963059
17	0xbca48b4b	-0.020085951
18	0x3ebbe619	0.36698988
19	0xbf11a31e	-0.5688952
20	0x3e1b71e2	0.15180162
21	0x3e2e07dd	0.16995187
22	0x3d7857cd	0.06063061
23	0x3e88f1fd	0.26747122
24	0xbe20b084	-0.15692335
25	0x3df61cfb	0.12017246
26	0x3da9d3ef	0.08292376
27	0x3e96e167	0.29468843
28	0xbe91f495	-0.28506914
29	0xbeed450d	-0.46341744
30	0x3e87550e	0.2643208
31	0xbe363b57	-0.17796074
32	0xbeb52760	-0.35381603
33	0x3e99256a	0.29911357
34	0x3efd1ade	0.4943456
35	0x3e803183	0.25037774
36	0xbe62ab68	-0.22135699
37	0xbf002456	-0.50055444
38	0xbdc0ee50	-0.094204545
39	0x3efe0b2b	0.49617895
40	0xbed36293	-0.41286144
41	0xbefcbd19	-0.4936302
42	0xbd72394e	-0.05913668
43	0x3e21a2af	0.15784715
44	0xbd67cd42	-0.056592233
45	0xbc33be29	-0.010970631
46	0xbdc737f6	-0.097274706
47	0x3d84c89c	0.06483576
48	0x3dab57b9	0.08366341
49	0x3cd60c68	0.026128963
50	0x3d69e7cd	0.057105828
51	0x3ecc21f4	0.39869654
52	0xbea66b35	-0.32503667
53	0xbca25dda	-0.019820143
54	0xbed005f5	-0.40629545
55	0xbc451d12	-0.012030857
56	0xbebcb5ba	-0.36857396
57	0x3ea8a4db	0.32938275
58	0x3ea9b09b	0.33142552
59	0x3e3c14f1	0.18367364
60	0xbda1f349	-0.07907731
61	0x3e3dca7f	0.18534277
62	0xbe1d43a7	-0.15357839
63	0x3d9e4f80	0.07730007
64	0x3ea99452	0.33120972
65	0xbe3270b0	-0.174258
66	0x3e7df0ed	0.24798937
67	0xbefc0ae2	-0.49227053
68	0x3e9e46cb	0.30913386
69	0x3e70eb52	0.23527268
70	0xbe748f71	-0.23882844
71	0x3e0446c4	0.1291762
72	0xbf0f237c	-0.5591352
73	0x3e281d16	0.16417345
74	0x3eae02ba	0.33986455
75	0x3ed73db3	0.4203926
76	0xbe878cde	-0.2647466
77	0xbe81de56	-0.2536494
78	0xbd640f02	-0.055678375
79	0xbeb69ffe	-0.3566894
80	0x3e4c939f	0.19978188
81	0x3ed19a14	0.40937865
82	0xbedc84e2	-0.43070132
83	0xbe2c64f3	-0.16835384
84	0x3e9158d5	0.28388086
85	0x3dae6670	0.08515632
86	0x3dcaa0d0	0.09893954
87	0xbcc0eb82	-0.023549799
88	0x3df54d65	0.119776525
89	0xbefab90f	-0.48969314
90	0x3eb2b586	0.34904116
91	0xbeac8a10	-0.33699083
92	0xbf020eec	-0.5080402
93	0xbdd30465	-0.103035726
94	0xbee8393d	-0.4535617
95	0x3f02ae45	0.51047164
96	0x3cd2f4c3	0.025751477
97	0xbe4962dd	-0.1966662
98	0xbe1dedbb	-0.15422718
99	0x3ed30f67	0.4122269
100	0xbcaa7b57	-0.020810766
101	0xbe1a74f1	-0.15083672
102	0xbd2361e2	-0.03988827
103	0xbede26b9	-0.43388918
104	0x3ec18cb4	0.3780266
105	0xbe90338c	-0.28164327
106	0x3ecfc170	0.4057727
107	0xbd11ded9	-0.035612915
108	0x3e4e35ba	0.20137683
109	0x3e521a56	0.20517859
110	0xbe236e3d	-0.15960021
111	0x3f020daa	0.508021
112	0x3e311562	0.17293313
113	0x3e8f04fb	0.27933487
114	0x3ee643d9	0.4497364
115	0x3e106aef	0.14103292
116	0x3eeec5ea	0.4663537
117	0xbe3225d3	-0.17397241
118	0x3ea22bbc	0.31673992
119	0xbda6763a	-0.08128019
120	0xbb3d6ce2	-0.002890401
121	0x3db75267	0.08951264
122	0xbb7852e8	-0.0037891213
123	0xbe08241b	-0.13295023
124	0xbead44f4	-0.3384167
125	0x3eda6a99	0.42659453
126	0x3deff62b	0.11716875
127	0xbe6a2b49	-0.22868074
128	0x3e748327	0.23878156
129	0x3e2d819d	0.16943975
130	0xbe095074	-0.13409597
131	0xbea9289c	-0.33038795
132	0x3f35bb8c	0.709893
133	0x3e2e6503	0.1703072
134	0x3e6268c2	0.22110274
135	0xbdcd40dc	-0.100221366
136	0xbe3f2cc6	-0.18669423
137	0x3eb80e21	0.3594828
138	0xbd336a96	-0.04380282
139	0x3e75f25a	0.24018231
140	0xbf120762	-0.57042515
141	0x3ca80339	0.02050935
142	0x3d449d22	0.048001416
143	0xbebcb682	-0.36857992
144	0x3d2936c5	0.041311998
145	0x3eab8292	0.33498055
146	0x3a9abffb	0.0011806482
147	0xbe126cb4	-0.1429928
148	0xbe796510	-0.24354959
149	0x3db84fb3	0.089995764
150	0xbc0719c2	-0.008245887
151	0xbed3e0ca	-0.41382438
152	0x3e9b5665	0.3033935
153	0x3f10e240	0.5659523
154	0x3e48b94c	0.19601935
155	0x3ed30958	0.41218066
156	0xbedf498e	-0.43610805
157	0xbe5e67b8	-0.21719253
158	0xbe93a486	-0.2883646
159	0xbf18fa7b	-0.597572
160	0x3ee87d11	0.45407918
161	0x3dae7f13	0.08520331
162	0x3eeac659	0.45854452
163	0xbedf601a	-0.43628007
164	0x3d8eb1d0	0.06967509
165	0x3e801085	0.25012603
166	0xbee45f91	-0.4460416
167	0x3ef2f36f	0.4745135
168	0x3e0830f8	0.1329993
169	0xbee28cef	-0.4424815
170	0x3e3745b8	0.1789769
171	0xbe38c9ee	-0.1804578
172	0x3ee6b4f8	0.45059943
173	0x3e0bc162	0.13647988
174	0x3ea7b89b	0.3275803
175	0x3d89f3fe	0.06735991
176	0x3d91fde4	0.07128504
177	0xbcffdaf0	-0.031232327
178	0x3e52a8c5	0.20572193
179	0xbdfe4528	-0.12415534
180	0xbd59dcc9	-0.053189073
181	0xbef9bd38	-0.48777175
182	0x3ee9bc95	0.4565169
183	0x3ea5264c	0.3225578
184	0xbe5a1601	-0.21297456
185	0xbecb1e45	-0.3967153
186	0x3c93d900	0.01804781
187	0xbe133044	-0.1437388
188	0x3ea5bc0d	0.32370034
189	0xbefa1ccc	-0.48850095
190	0xbe1c1ece	-0.15246126
191	0x3efea6aa	0.4973653

base_pointnet.conv_1_a.bias f4 [64]
0	0x3f06b596	0.5262083
1	0x3e63274f	0.22182964
2	0x3ddd78e3	0.10814073
3	0x3d176546	0.036961816
4	0x3f0e5a1b	0.5560624
5	0xbe8b2cdf	-0.2718267
6	0xbe44d2df	-0.19221066
7	0xbec54177	-0.38526508
8	0xbedea24c	-0.43483198
9	0x3df93f3d	0.12170265
10	0xbf0ba28a	-0.5454489
11	0xbe45690c	-0.19278353
12	0xbdf3bbc5	-0.119010486
13	0x3ec34317	0.38137123
14	0xbe9ea0cf	-0.30982062
15	0xbd83a180	-0.06427288
16	0xbdb5d9ba	-0.08879419
17	0x3e05e045	0.13073833
18	0x3e4bcc24	0.19902092
19	0xbef82d8f	-0.48472258
20	0x3dacfd9f	0.08446812
21	0xbe35b47b	-0.17744629
22	0x3f0f0175	0.558616
23	0xbecfff85	-0.40624633
24	0x3d507d72	0.050900884
25	0x3ec7f39c	0.39053047
26	0x3ec79a71	0.38985017
27	0xbead07b4	-0.3379494
28	0x3bcf586e	0.0063276803
29	0x3e226b87	0.15861331
30	0x3e8fd6bb	0.28093514
31	0x3f12e9a8	0.5738778
32	0xbcbd27df	-0.023090301
33	0x3ed11b0a	0.40840942
34	0xbe416515	-0.18886216
35	0x3e3777ea	0.17916837
36	0xbe0e2bae	-0.1388385
37	0xbd8834ea	-0.066507176
38	0x3eaa68d6	0.33283108
39	0xbf03c3ae	-0.5147046
40	0x3d0e560d	0.034750033
41	0x3e33e41c	0.17567486
42	0x3f092542	0.53572476
43	0x3cb4f249	0.022088187
44	0xbeffcb81	-0.4995995
45	0x3ede5f35	0.43432012
46	0xbeee4100	-0.46533966
47	0x3e955bd9	0.29171637
48	0x3ec2113c	0.37903774
49	0xbeeca074	-0.46216166
50	0xbebcd79c	-0.36883247
51	0x3f0526af	0.5201215
52	0xbd00eb60	-0.03147447
53	0x3e8a0314	0.26955473
54	0xbf107702	-0.5643159
55	0x3dd10582	0.10206129
56	0xbe452202	-0.19251254
57	0x3ec7fba0	0.39059162
58	0xbe5c46db	-0.21511404
59	0xbe2ade5b	-0.16686384
60	0x3dcb5be7	0.09929638
61	0x3beb4660	0.00718002
62	0x3ebfad84	0.3743707
63	0x3e7d1267	0.24714051

base_pointnet.conv_1_b.weight f4 [64, 1, 3]
0	0x3f1f6221	0.6225911
1	0x3ed7e0e3	0.42163762
2	0xbef01c28	-0.46896482
3	0x3e0ce2c0	0.13758373
4	0x3ef394a5	0.47574344
5	0x3e9ffb57	0.31246445
6	0x3ea70628	0.32621884
7	0x3dd34fe9	0.10317976
8	0x3ed56050	0.41675043
9	0x3da3216e	0.079653606
10	0x3ec06fdf	0.3758535
11	0x3d6d6f9a	0.05796776
12	0x3f4bae69	0.79563004
13	0x3e2e4d2d	0.17021628
14	0xbf1eace7	-0.6198258
15	0x3d8dfe57	0.06933277
16	0x3f170008	0.5898442
17	0xbe528fa1	-0.20562603
18	0xbd186ff4	-0.03721614
19	0xbe9ffdf8	-0.3124845
20	0x3f2ca1bb	0.6743428
21	0x3f230d68	0.6369233
22	0x3f59002a	0.84765875
23	0xbdb72657	-0.089428596
24	0x3cf09177	0.029366238
25	0x3bba64b1	0.005688273
26	0xbf70685c	-0.9390924
27	0xbf36973b	-0.7132451
28	0x3f356396	0.7085508
29	0x3f00f913	0.5038006
30	0x3fb09c75	1.3797747
31	0xbf32e0f8	-0.69874525
32	0xbe1aee38	-0.15129936
33	0xbf2a5f3a	-0.66551554
34	0xbe85855d	-0.2607831
35	0xbe9bf1a7	-0.30457804
36	0xbe20e893	-0.1571372
37	0x3e84f103	0.25965127
38	0x3f253ea6	0.6454872
39	0x3e92692f	0.28595874
40	0x3ef0805b	0.46972927
41	0xbf5563c5	-0.8335536
42	0xbd85107a	-0.06497283
43	0xbf44033b	-0.7656743
44	0xbecd1a93	-0.40059337
45	0xbeedacee	-0.46420997
46	0x3d979875	0.07402126
47	0x3f739146	0.95143545
48	0xbde1d8c3	-0.11027672
49	0xbee6d406	-0.45083636
50	0x3f933158	1.1499434
51	0xbecdd84f	-0.40204093
52	0xbe61eb29	-0.22062363
53	0xbf95341b	-1.1656526
54	0xbecf7809	-0.40521267
55	0xbf0d7d76	-0.55269563
56	0x3f6bfeef	0.9218587
57	0xbf078e5d	-0.52951604
58	0xbe3dcc26	-0.18534908
59	0xbf1900a4	-0.597666
60	0xbe8a607a	-0.2702673
61	0xbf9bb717	-1.216525
62	0xbf610fbf	-0.8791465
63	0x3f0002b2	0.5000411
64	0xbf529e78	-0.82273054
65	0xbf4cb637	-0.7996554
66	0xbf0036d3	-0.50083655
67	0x3f01c5c2	0.5069238
68	0x3ddaafa5	0.10678033
69	0xbf65d9d7	-0.8978552
70	0xbf8a4028	-1.0800829
71	0xbf4a6eea	-0.7907549
72	0xbf205cdb	-0.62641686
73	0x3ebd1187	0.36927435
74	0xbd7b9641	-0.06142259
75	0x3cc47952	0.023983631
76	0x3f63c570	0.8897314
77	0xbf7d9e7d	-0.9906996
78	0x3eff0f34	0.49816287
79	0x3ef03c0b	0.4692081
80	0x3df8a745	0.12141279
81	0xbf9823d8	-1.1885939
82	0xbe93de53	-0.28880557
83	0x3f3468d0	0.7047243
84	0x3aa4c638	0.0012571281
85	0xbdccb47d	-0.09995363
86	0xbfa53e44	-1.2909627
87	0x3ea1fc56	0.3163783
88	0xbf105c68	-0.56391
89	0xbf25c3f7	-0.64752144
90	0x3d315fc4	0.04330422
91	0x3f5753df	0.8411235
92	0x3e096aa7	0.13419591
93	0xbf46e10d	-0.7768715
94	0x3f05299e	0.5201663
95	0xbf1df24d	-0.61697847
96	0xbdc4d607	-0.09611135
97	0x3f555ed3	0.83347815
98	0x3f4e4578	0.8057475
99	0xbe8a63cd	-0.27029267
100	0x3e8cc415	0.2749335
101	0x3f6272a3	0.8845617
102	0xbeb82d93	-0.3597227
103	0x3f65ff40	0.89842606
104	0x3b775611	0.0037740509
105	0xbde9c21f	-0.11413979
106	0xbf43a907	-0.7642979
107	0xbe9624ae	-0.2932486
108	0xbd3c6e0b	-0.046003383
109	0xbeaef3fd	-0.34170523
110	0x3eb44e9b	0.3521622
111	0x3eed4ccd	0.46347657
112	0xbda15d2f	-0.078791015
113	0x3f3446fb	0.7042081
114	0xbf433a91	-0.7626124
115	0x3d384f97	0.044997778
116	0xbf28b046	-0.6589397
117	0xbf35518c	-0.70827556
118	0xbf353c50	-0.70795155
119	0x3f43dfdd	0.76513463
120	0xbd8a977a	-0.06767173
121	0x3f0e5141	0.55592734
122	0xbf376254	-0.7163441
123	0x3f7174b1	0.9431868
124	0x3f1f4cb5	0.6222642
125	0xbf21698d	-0.6305168
126	0xbf1c459d	-0.6104372
127	0x3ef4602a	0.47729617
128	0xbf95df01	-1.170868
129	0x3e84b40c	0.25918615
130	0xbd8df7bd	-0.06932018
131	0xbf1ef9b2	-0.62099755
132	0x3eeaff05	0.4589769
133	0xbee3a1e0	-0.44459438
134	0x3f01c1c7	0.50686306
135	0x3e2f3d07	0.17113124
136	0xbf05e161	-0.52297026
137	0xbf6bbe22	-0.92086995
138	0x3e4cf9d4	0.20017177
139	0x3f012350	0.5044451
140	0x3f3bc9bf	0.73354715
141	0xbf273c69	-0.65326554
142	0xbca39c00	-0.019971848
143	0x3f5e2f89	0.8679128
144	0x3f9b368f	1.2126025
145	0xbe994e90	-0.2994275
146	0x3dc23dad	0.0948442
147	0x3f5abb59	0.8544212
148	0x3d621344	0.055194154
149	0x3f375fcd	0.71630555
150	0x3f4d8960	0.8028774
151	0x3e2a020a	0.1660234
152	0x3f47c326	0.7803215
153	0x3e8b3743	0.271906
154	0xbe122a05	-0.14273842
155	0xbe87f0fc	-0.26551044
156	0x3dedf37a	0.11618705
157	0xbdd9bf35	-0.10632173
158	0xbefe21d9	-0.496352
159	0x3f4a01df	0.78909105
160	0xbcc9afc6	-0.024619948
161	0x3ea4d0c6	0.32190531
162	0xbee82aef	-0.45345256
163	0x3f3ddc4c	0.7416427
164	0xbf62c47e	-0.88581073
165	0xbf91558a	-1.135423
166	0xbf599869	-0.84998184
167	0x3ec48108	0.38379693
168	0xbefac067	-0.48974916
169	0x3ce21f01	0.027602674
170	0x3e9f2bd6	0.31088132
171	0xbdd3f1d4	-0.103488594
172	0x3eb240e5	0.34815136
173	0x3f7de02e	0.99170196
174	0xbf75bb6e	-0.9598912
175	0xbee861fe	-0.45387262
176	0xbee0ade2	-0.43882662
177	0x3e9b7069	0.303592
178	0x3ec5728b	0.38563952
179	0x3f48f77e	0.78502643
180	0x3f3e0b30	0.7423582
181	0xbea66af2	-0.32503468
182	0x3f6e279a	0.9302918
183	0x3f4526f2	0.7701255
184	0x3ec2b7ff	0.38031003
185	0x3f5a0348	0.85161257
186	0x3f63dc58	0.8900809
187	0xbf100ddb	-0.5627114
188	0xbec8ac91	-0.39194158
189	0xbe9e899a	-0.30964357
190	0xbeb6d7ff	-0.35711667
191	0x3f57c1dd	0.84280187

base_pointnet.conv_1_b.bias f4 [64]
0	0xbea0dbe4	-0.31417763
1	0xbdddf636	-0.10837977
2	0x3ea5c8e6	0.32379836
3	0xbd2126d0	-0.039343655
4	0xbe52c7f1	-0.20584084
5	0x3e4e7239	0.2016076
6	0x3eaa6d31	0.3328643
7	0x3f00840d	0.50201494
8	0x3d852497	0.065011196
9	0xbeefa890	-0.4680829
10	0xbf0cb520	-0.54963875
11	0xbe2b8679	-0.16750516
12	0xbdb49899	-0.08818168
13	0xbec5513f	-0.38538548
14	0x3ebda95e	0.3704328
15	0xbf052e31	-0.5202361
16	0xbec7ac11	-0.38998464
17	0xbee1f830	-0.44134665
18	0x3d1b328a	0.037889995
19	0xbdb14fd8	-0.08657807
20	0xbef54c94	-0.47909987
21	0x3d08e844	0.03342463
22	0x3f100550	0.56258106
23	0xbea7a2ea	-0.3274148
24	0x3ec3996e	0.38202995
25	0x3ed71b12	0.4201284
26	0x3ea6b79f	0.32561967
27	0xbee0475e	-0.4380445
28	0x3dfdae7b	0.12386795
29	0xbf01769e	-0.5057162
30	0x3d5edb0f	0.05440813
31	0xbdd8dc14	-0.105888516
32	0xbf0a990e	-0.5413979
33	0xbebddabc	-0.37080944
34	0x3ef9ecae	0.48813385
35	0xbe2ae3a2	-0.16688398
36	0xbeb82521	-0.35965827
37	0xbeda823b	-0.42677483
38	0xbe8b17a1	-0.27166465
39	0x3c793a05	0.015211587
40	0xbe23ba21	-0.15988971
41	0xbeb61b03	-0.35567483
42	0xbf062e44	-0.52414346
43	0x3ee47ff3	0.44628868
44	0x3e7b325b	0.24530928
45	0xbf11b5c5	-0.56917983
46	0x3eb64fc4	0.3560773
47	0x3ef86055	0.48510996
48	0xbee59fda	-0.4484852
49	0xbf0912e9	-0.5354448
50	0xbd83e0c4	-0.06439355
51	0xbeac2c98	-0.33627772
52	0xbec279e7	-0.3798363
53	0xbebf823c	-0.37404048
54	0x3f132b72	0.5748817
55	0xbef399c3	-0.47578248
56	0x3ede701e	0.43444914
57	0xbe6235b2	-0.22090796
58	0xbda67c4f	-0.08129179
59	0xbed387bc	-0.41314495
60	0x3e75120a	0.23932663
61	0x3de80db2	0.11330737
62	0x3e0e2144	0.13879877
63	0x3e1bebbd	0.15226646

base_pointnet.conv_2.weight f4 [64, 64, 3]
0	0xbcce1c20	-0.025159895
1	0xbcf988fd	-0.030460829
2	0x3c0434eb	0.008069257
3	0x3d493a4d	0.049127866
4	0xbd8d78d3	-0.06907811
5	0x3da31c51	0.07964385
6	0xbc8d3762	-0.017238323
7	0x3c01dfe3	0.007926914
8	0xbd58309c	-0.052780733
9	0xbd1a28cd	-0.037636567
10	0xbe814712	-0.25249535
11	0x3d159e6b	0.036528032
12	0x3d7423ef	0.05960458
13	0x3d4ae584	0.04953529
14	0x3d44384d	0.047905255
15	0xbe9e0aff	-0.30867764
16	0xbcc57eda	-0.02410834
17	0x3d640c65	0.055675883
18	0x3d76669c	0.06015645
19	0x3d18cbaf	0.037303623
20	0x3d547c64	0.05187644
21	0x3cd2a0c6	0.025711428
22	0xbddd21eb	-0.10797485
23	0xbcaf9408	-0.021432891
24	0xbe2f05e6	-0.17092094
25	0x3e07a679	0.13247098
26	0xbe5b8b66	-0.21439895
27	0xbcec027e	-0.028809782
28	0x3da5b3b0	0.08090913
29	0xbc1dbcb9	-0.0096275145
30	0xbc67768b	-0.014127384
31	0xbc18f130	-0.009334847
32	0xbd316d41	-0.043317083
33	0x3da7bb37	0.08190005
34	0xbce8724b	-0.028374812
35	0x3dd064d6	0.10175483
36	0xbb189c3a	-0.0023286478
37	0xbd05d48f	-0.032673415
38	0x3bcb1a08	0.0061981715
39	0xbdaed703	-0.08537104
40	0x3d966b41	0.07344676
41	0xbd175df9	-0.036954854
42	0xbdbb37d7	-0.0914151
43	0xbc19f5a1	-0.009396941
44	0x3d5767fd	0.052589405
45	0xbe955b82	-0.29171377
46	0xbe00b793	-0.12570028
47	0xbd3e0fd9	-0.046401832
48	0x3d9cc396	0.076544926
49	0xbbed7608	-0.0072467364
50	0xbd42dc34	-0.047573283
51	0x3df7ab67	0.12093239
52	0x3d2c1b9a	0.04201851
53	0x3c2ea08b	0.010658394
54	0xbcf50085	-0.029907474
55	0xbcc07f1a	-0.023498107
56	0xbbf46b0a	-0.007459049
57	0x3d99721d	0.074924685
58	0xbd845ab4	-0.06462613
59	0x3b641f65	0.0034808752
60	0x3cc71ebf	0.024306653
61	0x3e0f34cf	0.13984989
62	0x3daebc7c	0.08532044
63	0xbe0b1cca	-0.13585201
64	0x3d841af0	0.064504504
65	0x3cfedb6d	0.03111049
66	0x3c877a87	0.016537918
67	0xbd1d074e	-0.038337044
68	0x3dad5086	0.08462624
69	0xbf056bfd	-0.521179
70	0x3de40f68	0.11135751
71	0x3d729ae3	0.059229743
72	0xbc4e89db	-0.0126061095
73	0x3e0b72e0	0.1361804
74	0x3d222bb6	0.039592467
75	0x3ddcb5c1	0.10776854
76	0xbbfae5bd	-0.0076567815
77	0x3be620c1	0.0070229475
78	0xbc68530a	-0.014179954
79	0x3d03d201	0.032182697
80	0x3ce95178	0.02848123
81	0xbdb8c9f4	-0.090228945
82	0xbd246795	-0.040137846
83	0xbc0af119	-0.008480334
84	0xbc3aa7de	-0.011392562
85	0x3d22dfc5	0.039764185
86	0xbcf612c4	-0.030038245
87	0xbda85567	-0.08219414
88	0x3dfafa5d	0.12254784
89	0x3d684c82	0.05671359
90	0x3d048d8a	0.032361545
91	0x3d4ed597	0.050496664
92	0xbd34d20d	-0.044145633
93	0xbdc2a5f8	-0.09504312
94	0xbe6d2043	-0.23156838
95	0xbda1cde9	-0.07900602
96	0x3e032404	0.12806708
97	0xbd82abfa	-0.06380458
98	0xbe27a9fb	-0.16373436
99	0x3d963085	0.07333473
100	0xbd511311	-0.051043574
101	0xbcc2974b	-0.023753783
102	0x3bada724	0.0052994657
103	0x3ca5df0a	0.020247955
104	0x3e8bee6a	0.27330333
105	0xbd0df03c	-0.034652933
106	0xbcae192b	-0.021252235
107	0x3d82e495	0.06391255
108	0xbd448091	-0.047974173
109	0x3c5edc42	0.013602318
110	0xbe00792e	-0.12546226
111	0xbd843b34	-0.064566046
112	0xbda794b5	-0.081826605
113	0xbd162284	-0.03665401
114	0x3db584aa	0.08863194
115	0x3c3b0cdc	0.01141664
116	0x3d87627b	0.066105805
117	0xbdf3affc	-0.11898801
118	0xbd977727	-0.073957734
119	0x3df6f3bb	0.12058207
120	0xbd7b003b	-0.061279517
121	0x3c93c502	0.018038277
122	0xbc9df876	-0.019283514
123	0xbe463914	-0.19357711
124	0x3d43b932	0.047784038
125	0x3d1e8572	0.038701482
126	0x3e2ffb72	0.17185763
127	0xbd8946d9	-0.06702966
128	0x3dd67374	0.1047124
129	0xbd65bac8	-0.05608633
130	0x3bdefea4	0.006805258
131	0x392a5453	0.00016243877
132	0x3b4200b9	0.0029602482
133	0xbd680041	-0.056640867
134	0xbcbc4984	-0.022984274
135	0xbdda7a66	-0.10667877
136	0x3dcc98e2	0.099900976
137	0x3d3697b2	0.04457826
138	0xbcd09bc7	-0.025464905
139	0xbc971658	-0.018443272
140	0x3da1b213	0.07895293
141	0xbc9ee510	-0.019396335
142	0xbc67b86b	-0.01414309
143	0xbc8151ab	-0.015786013
144	0xbd86c159	-0.06579847
145	0xbbaa2b79	-0.0051931706
146	0xbcaaba3d	-0.020840758
147	0x3dc91b71	0.09819687
148	0x3d98be3c	0.07458159
149	0xbbca5a9c	-0.0061753523
150	0xbea48a28	-0.32136655
151	0x3e18eece	0.14934847
152	0x3e44eb7f	0.1923046
153	0x3d8c5162	0.0685146
154	0xbd55ba8d	-0.05217986
155	0xbc57effb	-0.013179774
156	0x3d917e7f	0.07104205
157	0x3cd43acc	0.025906943
158	0xbd112691	-0.03543717
159	0xbe0284fc	-0.12746042
160	0x3d9550f3	0.072908305
161	0x3de2a293	0.11066165
162	0x3dd3e240	0.10345888
163	0x3955514e	0.00020343551
164	0x3d7eafb7	0.062179293
165	0x3baa7fed	0.005203238
166	0xbc34ca01	-0.01103449
167	0x3bdffab9	0.0068353084
168	0xbd032200	-0.032014847
169	0xbde04229	-0.10950119
170	0x3dcba705	0.09943966
171	0x3d17c5a2	0.03705371
172	0xbd54e212	-0.05197341
173	0xbd51716d	-0.051133562
174	0x3d965b8d	0.07341681
175	0x3d758053	0.059936833
176	0x3d89b79a	0.06724472
177	0xbcc84806	-0.024448406
178	0xbc304536	-0.010758689
179	0x3cfef6cc	0.031123541
180	0xbe4ee8e8	-0.20206034
181	0x3e835db8	0.2565744
182	0x3ead66b6	0.33867425
183	0xbd23f20d	-0.04002576
184	0xbcc2b35e	-0.02376717
185	0xbdf89c5f	-0.121392004
186	0xbca6faea	-0.020383317
187	0x3d77fc44	0.060543314
188	0x3d5be3bd	0.053683985
189	0xbce22f4a	-0.02761044
190	0x3cd05459	0.025430845
191	0xbcf19aa5	-0.029492686
192	0xbdfad8c9	-0.1224838
193	0x3b9cb50d	0.004782325
194	0xbc1740e3	-0.009231779
195	0xbdc885fc	-0.097911805
196	0xbc9e74a8	-0.019342735
197	0xbd1eeca2	-0.03879989
198	0x3cc4b431	0.024011703
199	0x3d5201ef	0.051271375
200	0x3dbd128a	0.09232052
201	0xbc8e96c8	-0.017405882
202	0xbd098ba0	-0.033580422
203	0x3e1eeebc	0.15520757
204	0xbd74d825	-0.059776444
205	0xbd26d29b	-0.040728193
206	0x3d5ec334	0.05438538
207	0xbd923209	-0.0713845
208	0x3ce06263	0.027390664
209	0x3d38f500	0.045155525
210	0xbd55b259	-0.05217204
211	0x3da4a052	0.08038391
212	0x3d98da57	0.0746352
213	0x3d382dc3	0.044965517
214	0xbcbd8cd6	-0.023138445
215	0x3da06db2	0.07833423
216	0xbdd6917e	-0.10476969
217	0x3e2fa66c	0.17153329
218	0xbdb070bd	-0.08615253
219	0xbc95cdca	-0.018286604
220	0x3e0cbd67	0.13744126
221	0x3cc48738	0.023990259
222	0x3e6f75e3	0.23384814
223	0xbc42888a	-0.011873374
224	0xbd83510c	-0.06411943
225	0xbdc77204	-0.09738544
226	0xbcd08bc8	-0.025457278
227	0xbdc9ff67	-0.09863167
228	0xbc8f21f9	-0.017472254
229	0xbd0e16e8	-0.034689814
230	0x3cd2fd6d	0.025755608
231	0x3d8bf6bd	0.06834171
232	0x3cccab0a	0.024983902
233	0x3dae1dfe	0.08501814
234	0xbc9351a2	-0.017983261
235	0x3d325911	0.04354197
236	0xbceac3e0	-0.028657854
237	0xbcbd2126	-0.023087095
238	0x3e064917	0.13113819
239	0x3df36e59	0.118862815
240	0xbe0bdb23	-0.13657813
241	0xbafa0e81	-0.0019077809
242	0x3d02784a	0.031852998
243	0xbe32ec52	-0.17472962
244	0x3d4592ba	0.048235632
245	0xbd22ab58	-0.039714187
246	0x3c873379	0.016504036
247	0xbe27518a	-0.16339698
248	0x3dcbed25	0.09957341
249	0xbd562ba8	-0.052287728
250	0xbd70610e	-0.05868631
251	0x3ca8e306	0.020616066
252	0xbd0dc7bd	-0.034614313
253	0x3d91df6d	0.07122693
254	0xbdbd3e58	-0.09240407
255	0x3d3bda18	0.045862287

base_pointnet.conv_2.bias f4 [64]
0	0xbcb412b7	-0.02198158
1	0xbcc87b7a	-0.02447294
2	0xbc1e782b	-0.009672205
3	0x3e29f9c0	0.16599178
4	0x3d06d96f	0.032922205
5	0x3cabdb55	0.02097861
6	0x3d6e802b	0.0582277
7	0xbca55886	-0.020183813
8	0xbac8ec67	-0.0015329242
9	0x3d86b911	0.06578267
10	0xbcf76289	-0.030198352
11	0xba816bcd	-0.0009874046
12	0xbc671b2f	-0.014105602
13	0x3dc3a905	0.09553722
14	0xbd42934f	-0.047503766
15	0x3d2fb322	0.042895444
16	0xbda49ed3	-0.08038106
17	0xbded864e	-0.11597882
18	0x3d0bec01	0.034160618
19	0xbb841643	-0.004030974
20	0x3ce8a903	0.028400904
21	0x3cab4219	0.020905541
22	0x3df6d68c	0.1205264
23	0x3d56eeac	0.05247371
24	0x3c2c11b9	0.010502272
25	0x3c9044b5	0.017610887
26	0x3dc45d00	0.09588051
27	0x3da02fa1	0.078215845
28	0x3d4918b4	0.049095824
29	0xbd777716	-0.060416304
30	0xbdc35a36	-0.09538691
31	0x3c9332fe	0.01796865
32	0xbd28fcbc	-0.04125665
33	0x3dcafe81	0.09911824
34	0xbd7bed8b	-0.061505836
35	0x3cb25d33	0.021772956
36	0x3d3645dd	0.04450022
37	0x3db6a336	0.08917849
38	0x3d5baf4d	0.053633977
39	0xbdffc75b	-0.12489196
40	0xbdaf9480	-0.08573246
41	0x3c949ce1	0.018141212
42	0xbc407879	-0.011747473
43	0x3dc33b0e	0.09532748
44	0xbd94bc67	-0.072624974
45	0xbd51b39e	-0.051196687
46	0x3db35ccc	0.08757934
47	0xbd21a334	-0.039462283
48	0x3d9f1909	0.07768447
49	0xbdc362ce	-0.0954033
50	0x3c948145	0.018128047
51	0x3d4537d5	0.04814895
52	0x3c1e190a	0.009649524
53	0x3c38abd9	0.01127144
54	0x3cb45eb5	0.022017816
55	0xbced51d6	-0.028969686
56	0x3e0baae0	0.13639402
57	0xbc8f9832	-0.017528627
58	0xbca28bd2	-0.019842062
59	0x3d901a62	0.07036282
60	0x3d2cbf44	0.042174593
61	0x3da02cc8	0.07821041
62	0xbc1e3775	-0.009656777
63	0x3dfb7d37	0.12279742

base_pointnet.bn_1.weight f4 [64]
0	0x3f41d2e7	0.75712436
1	0x3eed7f79	0.46386316
2	0x3f347f91	0.7050715
3	0x3f63825a	0.88870776
4	0x3f2d13b7	0.6760821
5	0x3f93da4d	1.1550995
6	0x3f74319c	0.953882
7	0x3f43c827	0.76477283
8	0x3fc75cec	1.5575233
9	0x3f47ab85	0.77996093
10	0x3f514c0c	0.81756663
11	0x3f1d7638	0.6150851
12	0x3f2adca9	0.6674295
13	0x3f5cb10a	0.8620764
14	0x3f9361b5	1.1514193
15	0x3f99625d	1.1983143
16	0x3f5d48b5	0.8643907
17	0x3f5f1d21	0.8715382
18	0x3f3ef8e0	0.74598503
19	0x3f28cc6b	0.6593692
20	0x3f8c8752	1.0978796
21	0x3f48a573	0.78377455
22	0x3f527791	0.82213694
23	0x3fa9fa57	1.3279523
24	0x3fb9b48c	1.4508224
25	0x3f56805d	0.83789617
26	0x3f35be02	0.70993054
27	0x3f71d871	0.9447089
28	0x3f2f5f59	0.68504864
29	0x3f65f592	0.89827836
30	0x3f35fcc1	0.71088797
31	0x3f9ba4cd	1.2159668
32	0x3f7424df	0.9536876
33	0x3f43f22c	0.765414
34	0x3fb026e7	1.3761872
35	0x3f917fe7	1.1367158
36	0x3ec0c92e	0.37653488
37	0x3f1943df	0.5986919
38	0x3f198cf1	0.59980685
39	0x3f94aae4	1.1614652
40	0x3f7121d3	0.94192237
41	0x3fa9d1f9	1.3267204
42	0x3f95f198	1.1714354
43	0x3f50eb45	0.8160899
44	0x3f2cd695	0.67514926
45	0x3faf8f76	1.3715656
46	0x3f5c063a	0.85947
47	0x3f68c623	0.9092733
48	0x3f164e35	0.58713084
49	0x3f4b6ce8	0.7946305
50	0x3fac3a4f	1.3455294
51	0x3f28f1ee	0.65994155
52	0x3f4ba3a1	0.7954655
53	0x3fa69500	1.3014221
54	0x3f64b77a	0.89342463
55	0x3f5e573e	0.8685187
56	0x3f33cd7b	0.70235413
57	0x3f398619	0.7247024
58	0x3f3f185b	0.7464654
59	0x3f805b78	1.0027914
60	0x3fbc0330	1.4688473
61	0x3f86d28b	1.0533003
62	0x3f4a679c	0.79064345
63	0x3fa7d16f	1.3110789

base_pointnet.bn_1.bias f4 [64]
0	0xbe922133	-0.28540954
1	0xbe8bdf16	-0.2731864
2	0xbe7cd8c2	-0.24692062
3	0xbf1eb9be	-0.6200217
4	0xbdb44daa	-0.08803876
5	0xbde0701c	-0.10958883
6	0xbec58480	-0.38577652
7	0xbd1c4f52	-0.038161583
8	0x3dd664f6	0.104684755
9	0xbeb9a492	-0.3625837
10	0xbe270dfa	-0.16313925
11	0xbe1f9787	-0.15585147
12	0xbec26960	-0.3797102
13	0xbdf91d4f	-0.12163793
14	0xbeba2ab5	-0.36360708
15	0x3d19b0e3	0.037522208
16	0xbe7fbcf9	-0.24974431
17	0xbe427b03	-0.18992238
18	0xbe48cdb3	-0.19609718
19	0xbe857669	-0.26066902
20	0xbe2403da	-0.16017094
21	0xbe2fb55b	-0.17159025
22	0x3d301af9	0.042994473
23	0xbdf008c8	-0.11720425
24	0xbe86b9c8	-0.26313615
25	0xbec319f9	-0.38105753
26	0xbc5181d4	-0.012787301
27	0xbe2a2094	-0.1661399
28	0xbeb76bb7	-0.35824367
29	0xbe9e31af	-0.3089728
30	0xbe076c06	-0.13224801
31	0xbd9e9579	-0.077433534
32	0xbeb60ae8	-0.35555196
33	0xbe12966b	-0.14315192
34	0xbe8c6a38	-0.27424788
35	0xbe6a9ab8	-0.22910583
36	0xbe888de4	-0.26670754
37	0xbd434198	-0.047669977
38	0xbdd6edf7	-0.10494607
39	0xbdbea409	-0.09308631
40	0xbe319d63	-0.17345195
41	0x3d49a041	0.049225096
42	0x3e8af35d	0.27138796
43	0x3c08471a	0.008317733
44	0xbee1d5f0	-0.44108534
45	0x3e75b46a	0.23994604
46	0xbedddc10	-0.43331957
47	0xbe7dd38f	-0.24787734
48	0xbe2bc4be	-0.1677427
49	0xbd8feac0	-0.07027197
50	0x3cbea869	0.023273664
51	0xbeb5e7ef	-0.35528514
52	0xbe368188	-0.1782285
53	0x3dc7f2bb	0.09763094
54	0x3e2c1ef7	0.16808687
55	0xbe4e2a33	-0.20133285
56	0xbd4205f7	-0.04736897
57	0xbe433bb2	-0.1906574
58	0xbe85426c	-0.26027238
59	0xbdebc7b0	-0.11512697
60	0xbd375733	-0.044760894
61	0xbd95187f	-0.07280063
62	0xbda5086a	-0.080582455
63	0xbe55ca3d	-0.20877929

base_pointnet.bn_1.running_mean f4 [64]
0	0xc11e97ea	-9.912088
1	0x42081d00	34.02832
2	0xc18b1d75	-17.389383
3	0xc12a298d	-10.635144
4	0xc20206ea	-32.506752
5	0xbcca718f	-0.024712352
6	0xbfe70bbc	-1.8050456
7	0x41aa5b9f	21.294737
8	0xbdb8f9bc	-0.09032008
9	0xc187c4b9	-16.971056
10	0xc12a2c0a	-10.635752
11	0x4211d245	36.45534
12	0xc1ebf72f	-29.495695
13	0xc18309a3	-16.379705
14	0xbf06268d	-0.52402574
15	0xbf953727	-1.1657456
16	0x40d963e4	6.7934437
17	0xc010da64	-2.2633295
18	0xc1e7b430	-28.962982
19	0x41e3c186	28.469494
20	0xc0cd24d7	-6.410747
21	0x40d42b2a	6.630269
22	0x4056d13d	3.356521
23	0xbfccb496	-1.599261
24	0xbfc15cd6	-1.5106456
25	0xc067084b	-3.6098812
26	0xc0a979f1	-5.2961354
27	0xc11fc9ed	-9.986798
28	0x416ccc3b	14.799861
29	0xc18635f3	-16.776342
30	0xc187e5fa	-16.987293
31	0xc03e3434	-2.9719362
32	0xc1206438	-10.024467
33	0x41247d93	10.280658
34	0xc019518b	-2.395602
35	0x3fd2bef8	1.6464529
36	0x4108e468	8.555763
37	0x4214806b	37.12541
38	0x42132d72	36.79438
39	0x3f72ac75	0.947944
40	0x40250e1c	2.5789862
41	0xbcaedbe6	-0.02134509
42	0x400ca1d7	2.197378
43	0xc13b07c8	-11.6894
44	0x4225697d	41.353016
45	0x3e852c95	0.26010576
46	0xc136927a	-11.410761
47	0xc122f913	-10.185809
48	0x4181164c	16.135887
49	0xc1109cbe	-9.038267
50	0xbfe35096	-1.7758968
51	0x422dfff1	43.499943
52	0xc2115357	-36.331387
53	0x3f329761	0.69762236
54	0x3fd41107	1.6567696
55	0x40d3831e	6.6097555
56	0xc0a9d139	-5.30679
57	0x4191a2f7	18.204573
58	0x415680b7	13.4064245
59	0x4086ebfa	4.2163057
60	0xbef5e756	-0.48028058
61	0xc0ee3919	-7.44447
62	0x40f8045d	7.7505326
63	0xc0854fc7	-4.1659884

base_pointnet.bn_1.running_var f4 [64]
0	0x41d110d2	26.133213
1	0x4360b304	224.69928
2	0x42b4bdc0	90.370605
3	0x4284030d	66.00596
4	0x435f954e	223.58322
5	0x3f3e467f	0.7432632
6	0x422ad10e	42.704155
7	0x42ae24e5	87.07206
8	0x41055290	8.332657
9	0x42f16241	120.6919
10	0x42834e39	65.65278
11	0x439ad872	309.69098
12	0x4351f8d4	209.97198
13	0x4326b90f	166.72289
14	0x40c297ac	6.0810146
15	0x409db870	4.9287643
16	0x41283a54	10.51424
17	0x420af2a6	34.73696
18	0x4334ce16	180.80502
19	0x4347c01c	199.75043
20	0x41a3442d	20.408289
21	0x422698b2	41.649117
22	0x421138b5	36.305378
23	0x41a896f8	21.073715
24	0x42bd9563	94.79177
25	0x426feeaa	59.98307
26	0x421ae746	38.725853
27	0x42771903	61.774426
28	0x428043a5	64.13212
29	0x42abea84	85.95804
30	0x43141883	148.09575
31	0x42aca725	86.326454
32	0x4204e092	33.219307
33	0x425a4bc2	54.573982
34	0x4263c444	56.941666
35	0x41d0be41	26.092897
36	0x421c843e	39.129143
37	0x438e1c01	284.21878
38	0x4393febd	295.99014
39	0x417542f9	15.328851
40	0x40623c2a	3.5349221
41	0x427aafeb	62.671795
42	0x417659c2	15.396914
43	0x426287f2	56.63276
44	0x43be038b	380.02768
45	0x42111633	36.27168
46	0x42aaaad8	85.33368
47	0x423818a9	46.024082
48	0x4275dd96	61.466393
49	0x421a3417	38.55087
50	0x424337e2	48.804573
51	0x43c448b2	392.56793
52	0x4382429c	260.5204
53	0x42872008	67.56256
54	0x42177132	37.860542
55	0x427893d7	62.144375
56	0x41fae402	31.361332
57	0x42a8a91f	84.330315
58	0x42777aca	61.86991
59	0x4145e46e	12.368269
60	0x42a5bacd	82.864845
61	0x429e1746	79.045456
62	0x41ee0d45	29.75648
63	0x43099254	137.5716

base_pointnet.bn_2.weight f4 [64]
0	0x3f93f8f2	1.1560347
1	0x3f9492b1	1.1607267
2	0x3f870741	1.0549089
3	0x3faeb000	1.3647461
4	0x3f87462a	1.0568287
5	0x3f8e2358	1.1104536
6	0x3f9f4e55	1.244578
7	0x3f926dd2	1.1439764
8	0x3f98cd9e	1.1937749
9	0x3f88c307	1.0684518
10	0x3f858410	1.0430927
11	0x3fae1e0a	1.3602917
12	0x3f921911	1.14139
13	0x3fa37c11	1.2772237
14	0x3fbec88e	1.4904954
15	0x3f92b76c	1.1462226
16	0x3f88653e	1.0655897
17	0x3fa278ac	1.2693076
18	0x3f933843	1.1501545
19	0x3f9f26ad	1.2433678
20	0x3fa06fb4	1.2534089
21	0x3f86c156	1.0527751
22	0x3fa3ac7a	1.2787011
23	0x3fb2db5a	1.3973191
24	0x3f879caa	1.0594685
25	0x3f96b25f	1.1773185
26	0x3f918620	1.1369057
27	0x3f86d1c3	1.0532764
28	0x3f976eed	1.1830727
29	0x3f977da1	1.1835214
30	0x3f872375	1.0557696
31	0x3f90620c	1.1279922
32	0x3f94fd55	1.1639811
33	0x3fa1d3e4	1.2642789
34	0x3f916c7c	1.1361232
35	0x3f831bf3	1.0242904
36	0x3f8a2c55	1.0794779
37	0x3f8937dd	1.0720173
38	0x3f8c71b7	1.0972203
39	0x3fa7826c	1.3086677
40	0x3f8dc8fe	1.1076963
41	0x3f7ff301	0.9998017
42	0x3f879109	1.0591136
43	0x3fb1b943	1.3884662
44	0x3fb84eb7	1.4399022
45	0x3f86f75d	1.0544239
46	0x3f8d849f	1.1056098
47	0x3f90fdcd	1.1327454
48	0x3f921b9f	1.1414679
49	0x3fa2af8f	1.2709826
50	0x3fb16804	1.3859868
51	0x3f9ba12e	1.2158563
52	0x3f8eb31e	1.1148412
53	0x3f7b79b7	0.982326
54	0x3f7f3231	0.9968596
55	0x3fa57ce0	1.2928734
56	0x3f96edbe	1.1791303
57	0x3f8d0cdd	1.101955
58	0x3f915f4c	1.1357207
59	0x3f971011	1.1801778
60	0x3f82e6ea	1.0226719
61	0x3f859a4b	1.0437711
62	0x3f921bbd	1.1414715
63	0x3f9970e1	1.1987573

base_pointnet.bn_2.bias f4 [64]
0	0xb9bc5040	-0.00035917945
1	0xbdcd1558	-0.100138366
2	0xbc8e0600	-0.017336845
3	0xbdd27f6b	-0.10278209
4	0xbbfd7375	-0.007734711
5	0xbc9433b2	-0.018091056
6	0xbdbc99dd	-0.092090346
7	0xbdf0d3cb	-0.11759146
8	0x3d4950ca	0.049149312
9	0xbc9891d6	-0.018624227
10	0x3d4ebd89	0.050473724
11	0xbd7b2414	-0.061313704
12	0xbd374c09	-0.044750247
13	0x3d0ecbd2	0.034862347
14	0xbe67da00	-0.22641754
15	0xbd4ebb7c	-0.050471768
16	0x3d2493ee	0.04018014
17	0x3d0c1bff	0.034206387
18	0xbd5f7599	-0.05455551
19	0xbd4b2ee5	-0.04960527
20	0x3c7e5b3f	0.015524684
21	0x3d43b68b	0.04778151
22	0x3d2468f3	0.04013915
23	0x3cd439e2	0.025906507
24	0x3a6f8647	0.00091371353
25	0x3ca11729	0.019664364
26	0xbd396a2f	-0.04526728
27	0xbccf9b72	-0.025342677
28	0x3c663127	0.014049805
29	0x3b9b9385	0.0047478103
30	0x3cc4c8e7	0.024021579
31	0xbd9f56da	-0.077802375
32	0xbd5c21fe	-0.053743355
33	0xbd87281d	-0.06599448
34	0x381f833f	3.8030787e-05
35	0xbc319eda	-0.010841096
36	0xb9f56410	-0.00046804594
37	0x3cba4a4b	0.022740504
38	0x3ca64e8e	0.02030113
39	0xbbed4aeb	-0.007241597
40	0xbc6fb307	-0.014630086
41	0xbd2d4fa3	-0.042312276
42	0x3d24c5be	0.040227644
43	0xbdca0d22	-0.09865786
44	0xbd124742	-0.035712488
45	0xbd2e124c	-0.042497918
46	0xbcac348f	-0.021021156
47	0xbd98915c	-0.074496
48	0xbd3a36d9	-0.045462463
49	0x3bdd8b1a	0.006760967
50	0xbde8c38d	-0.11365423
51	0xbd9d04bc	-0.07666919
52	0x3cbc69cf	0.022999672
53	0xbdd061cc	-0.10174903
54	0x3c832c8e	0.016012456
55	0xbd858f42	-0.06521465
56	0x3ba5bea5	0.005058127
57	0xbcd4ee95	-0.025992671
58	0xbb5e9047	-0.0033960508
59	0xbd9053d0	-0.07047236
60	0xbcd8ca61	-0.02646369
61	0xbd7a202a	-0.06106583
62	0x3c85a6d4	0.016314901
63	0xbd67e796	-0.056617342

base_pointnet.bn_2.running_mean f4 [64]
0	0xbe8a6d0c	-0.2703632
1	0x3f0c2d3a	0.5475651
2	0x3f0551ca	0.52077925
3	0x3e7673d8	0.24067628
4	0xbdc7f0c4	-0.09762719
5	0x3e92985d	0.2863187
6	0x3e3bdad6	0.18345198
7	0x3f11f9d6	0.57021844
8	0x3c8df72f	0.01732978
9	0xbf5e3e0a	-0.86813414
10	0xbca8a6e8	-0.0205874
11	0xbdccc88a	-0.09999187
12	0xbf6e33e8	-0.9304795
13	0xbf3cf237	-0.7380709
14	0xbca97ca3	-0.020689314
15	0x3c8c8cf9	0.017157065
16	0xbf38475a	-0.71983874
17	0xbd8aa937	-0.067705564
18	0x3e25fca6	0.16209659
19	0x3dde396b	0.10850795
20	0xbdb10677	-0.08643811
21	0xbf512c77	-0.8170847
22	0xbd7908bc	-0.060799345
23	0xbf4481be	-0.7676047
24	0x3f080b50	0.5314226
25	0x3dd37238	0.1032452
26	0x3f035559	0.51302105
27	0x3ea61a67	0.32442018
28	0x3f1b2960	0.6061001
29	0x3e71e8ce	0.23623964
30	0x3e4ddbba	0.2010335
31	0xbea97cb3	-0.3310295
32	0xbee0049b	-0.43753514
33	0x3ec69674	0.38786662
34	0xbcb3de35	-0.021956543
35	0xbdf6c75f	-0.12049746
36	0xbe053cf0	-0.13011527
37	0xbec85f8c	-0.39135396
38	0xbf0007af	-0.50011724
39	0x3d060dc1	0.03272796
40	0xbf80557a	-1.0026085
41	0xbf57c431	-0.8428374
42	0xbea41d58	-0.32053638
43	0x3e001ddb	0.12511389
44	0xbeb95fa0	-0.3620577
45	0x3f10f6ca	0.5662657
46	0xbe711db7	-0.23546492
47	0x3f0b1ee8	0.54344034
48	0x3f10bfff	0.5654296
49	0x3dcee03b	0.10101362
50	0x3dc3ea3d	0.09566162
51	0x3ee277ed	0.4423212
52	0xbfa32a2d	-1.2747246
53	0x3f01352f	0.50471777
54	0x3f8d2633	1.1027282
55	0x3ea2442f	0.31692645
56	0x3eec0925	0.46100727
57	0x3ebd8285	0.3701364
58	0x3e1c3c1b	0.15257303
59	0x3f82b95c	1.0212817
60	0x3e0aaf14	0.1354335
61	0x3f59a0ba	0.85010874
62	0xbf7b0fbd	-0.9807089
63	0x3f054b19	0.52067715

base_pointnet.bn_2.running_var f4 [64]
0	0x3db1ee1d	0.08687995
1	0x3d8cc136	0.068727896
2	0x3e44fa35	0.19236071
3	0x3dc0e1ac	0.094180435
4	0x3f009c09	0.5023809
5	0x3dcbff4a	0.09960802
6	0x3d9c526a	0.07632907
7	0x3dba101a	0.090851024
8	0x3e464554	0.19362384
9	0x3e2129c5	0.1573859
10	0x3e37bf62	0.179441
11	0x3da2399d	0.07921145
12	0x3de9428f	0.11389648
13	0x3d570182	0.052491672
14	0x3cbd9f0d	0.02314713
15	0x3d87ecdd	0.06636975
16	0x3e815141	0.25257304
17	0x3d199555	0.03749593
18	0x3e03d85d	0.12875505
19	0x3d558892	0.052132197
20	0x3da83daf	0.0821489
21	0x3ee829c5	0.45344368
22	0x3e4447da	0.19168034
23	0x3d5f77a0	0.054557443
24	0x3efb987f	0.49139783
25	0x3d1f74f3	0.03892989
26	0x3d8c726b	0.06857761
27	0x3e14d1b7	0.14533125
28	0x3e11acbe	0.14226052
29	0x3d8c1cc4	0.06841424
30	0x3e773f5e	0.24145266
31	0x3e2f4494	0.17116004
32	0x3e049450	0.12947202
33	0x3e0bccd5	0.13652356
34	0x3d6c58d2	0.057701893
35	0x3ec70edb	0.3887852
36	0x3e25c885	0.16189773
37	0x3e056858	0.13028085
38	0x3dc25a1d	0.09489844
39	0x3d9c515e	0.07632707
40	0x3e79202b	0.24328677
41	0x3e7588ee	0.23978016
42	0x3e3d6d57	0.18498741
43	0x3d378ad9	0.04481015
44	0x3d3ade36	0.045622073
45	0x3dd64427	0.10462218
46	0x3d8b8fa1	0.068145044
47	0x3da1025d	0.07861779
48	0x3de74396	0.11292188
49	0x3d6e2a91	0.058146063
50	0x3d543cd5	0.051815826
51	0x3d66efa5	0.056380887
52	0x3edaf51a	0.42765123
53	0x3e0492fb	0.12946694
54	0x3fe050e1	1.7524682
55	0x3d3ce94f	0.046120938
56	0x3dca1376	0.09866993
57	0x3e005b9b	0.12534945
58	0x3dc0e40d	0.09418497
59	0x3df5c7da	0.12001009
60	0x3ed92fd4	0.42419302
61	0x3e0224da	0.1270937
62	0x3de8f7bb	0.11375376
63	0x3e800a31	0.25007775

fc_1.weight f4 [64, 66]
0	0xbd9a5684	-0.07536033
1	0xbd9873a5	-0.074439324
2	0xbb2002d7	-0.0024415755
3	0xbc38f6b4	-0.011289287
4	0x3d46a31c	0.048495397
5	0x3db21aa3	0.08696487
6	0xbd470cee	-0.048596315
7	0x3c84f3d7	0.016229553
8	0xbd92517c	-0.07144448
9	0x3d39964a	0.045309342
10	0xbc7862e4	-0.015160296
11	0xbcaa1313	-0.020761048
12	0x3dd390f3	0.10330381
13	0xbdf55f5e	-0.119810805
14	0xbde74e3e	-0.112942204
15	0x3db13bf5	0.08654014
16	0x3dba252a	0.0908912
17	0xbd059489	-0.032612357
18	0xbd7618b9	-0.06008217
19	0xbd3b5b8a	-0.045741595
20	0x3db37bc1	0.087638386
21	0xbdd0f70d	-0.10203371
22	0xbd352670	-0.04422611
23	0xbd17ed60	-0.037091613
24	0xbdb676dc	-0.089093894
25	0x3d370b40	0.044688463
26	0x3da62375	0.08112232
27	0x3d7dc6d4	0.061957195
28	0x3d8a9100	0.06765938
29	0xbd519140	-0.05116391
30	0x3dc939e7	0.09825497
31	0xbe04540a	-0.12922683
32	0x3dddbd7b	0.10827156
33	0x3cf8f221	0.030388894
34	0x3dc42320	0.09577012
35	0x3dccf5b2	0.100078
36	0xbdb6ebe4	-0.08931711
37	0xbd8c1e2f	-0.068416946
38	0xbd68b6cb	-0.05681495
39	0xbc9bc1eb	-0.019013366
40	0x3cd8794d	0.026425028
41	0xbdc2a223	-0.095035814
42	0xbd2c61c5	-0.042085428
43	0xbd8f0dc0	-0.069850445
44	0xbdd66b02	-0.10469629
45	0xbdc6d54a	-0.097086504
46	0xbd8c824c	-0.0686079
47	0x3d0a7f10	0.033812582
48	0xbdecaf34	-0.11556855
49	0xbd9caa59	-0.07649679
50	0xbd25366f	-0.040335115
51	0x3dbc4763	0.091933034
52	0x3ca33f4d	0.019927645
53	0x3d7297ac	0.059226677
54	0xbdeeb792	-0.11656107
55	0xbdc698b7	-0.09697097
56	0xbda58c10	-0.080833554
57	0x3d2cd3f2	0.042194314
58	0xbb802520	-0.0039106756
59	0x3d0d2a88	0.03446439
60	0xbdfbd248	-0.12295967
61	0xbde51fb9	-0.11187691
62	0x3db5cfc3	0.08877518
63	0x3c8b5cba	0.017011989
64	0xbd37bde9	-0.044858847
65	0x3db8563f	0.09000825
66	0xbf29f38e	-0.6638726
67	0x3f2923a9	0.6607004
68	0x3e6e4bd7	0.23271118
69	0x3cd6b164	0.026207633
70	0x3e4bfa8e	0.19919798
71	0x3da50def	0.08059298
72	0x3de10826	0.10987882
73	0x3cb2459c	0.021761708
74	0x3dc4e3ae	0.09613739
75	0x3de6198a	0.1123534
76	0x3c543670	0.012952432
77	0x3e482f2a	0.19549242
78	0x3dba6c23	0.09102657
79	0xbc96beee	-0.01840159
80	0xbd037cb7	-0.03210136
81	0x3ee24ebe	0.442007
82	0xbea36cbf	-0.31918904
83	0xbe070e7a	-0.13189116
84	0x3e24591a	0.16049615
85	0x3e277d47	0.16356383
86	0x3c415f5a	0.011802519
87	0xbe07f2e3	-0.13276248
88	0x3e38d01e	0.1804814
89	0x3e69b3d2	0.22822502
90	0x3e8326f0	0.25615644
91	0x3d8a2562	0.067454115
92	0x3dc609ff	0.09669875
93	0x3e3a1676	0.1817263
94	0x3e1ce2b3	0.15320854
95	0x3dea808a	0.11450298
96	0x3df39633	0.118938826
97	0xbdbde5c3	-0.09272339
98	0x3e0f66fb	0.14004128
99	0xbd8d423f	-0.06897401
100	0x3d31d393	0.043414664
101	0x3ec42d77	0.38315937
102	0x3da0a802	0.07844545
103	0x3e16bbe7	0.14720117
104	0x3ceb94d5	0.028757492
105	0x3ddc5233	0.10757866
106	0x3da1872e	0.078871116
107	0x3b866df5	0.0041024634
108	0x3e3f1380	0.18659782
109	0x3cfbf49f	0.030756293
110	0x3e3e8d9a	0.18608704
111	0xbd8c6d8c	-0.06856832
112	0x3d01db3b	0.031703215
113	0x3d46428f	0.04840332
114	0x3d59008e	0.052979045
115	0x3e2cda99	0.16880263
116	0x3e27774c	0.16354102
117	0xbda65167	-0.08120995
118	0x3e9d3e4d	0.30711594
119	0xbd3f6e70	-0.04673618
120	0x3e30daab	0.17270915
121	0x3dbab647	0.09116798
122	0x3d38ac08	0.045085937
123	0xbddd7cc8	-0.10814816
124	0xbda1e0c2	-0.07904197
125	0x3e8b8f6a	0.27257854
126	0x3e36f374	0.17866307
127	0xbee2710d	-0.44226876
128	0x3d123f78	0.03570506
129	0xbe162929	-0.14664139
130	0x3e044002	0.12915042
131	0x3c302996	0.010752102
132	0x3e81e0dd	0.2536687
133	0x3ee4df3b	0.4470156
134	0x3da38ce9	0.07985861
135	0x3d7dcae4	0.06196107
136	0x3cdbdc86	0.026838552
137	0xbe7e35d1	-0.24825217
138	0xbce5bc8b	-0.028044006
139	0x3da25fe3	0.07928445
140	0xbc296c7b	-0.010340805
141	0x3df06c44	0.117394
142	0xbce87bec	-0.028379403
143	0xbde606d4	-0.11231771
144	0xbdd81b6e	-0.10552107
145	0x3d5475bb	0.05187009
146	0xbc58326d	-0.013195616
147	0xbd61aab6	-0.055094443
148	0xbe6b984c	-0.23007315
149	0xbc4b1ac3	-0.012396517
150	0x3dd4d1e4	0.10391596
151	0xbe994747	-0.29937193
152	0xbd835e1c	-0.06414434
153	0x3e608147	0.21924315
154	0xbccbaeaa	-0.02486356
155	0x3dfd024c	0.12353954
156	0xbe7bec15	-0.24601777
157	0xbe8f77ff	-0.28021237
158	0xbdf5caee	-0.120015964
159	0xbe01c015	-0.1267093
160	0xbd0502a6	-0.03247323
161	0x3e06ade2	0.13152269
162	0xbc73195e	-0.014837591
163	0xbdb31428	-0.08744079
164	0x3c9fdca6	0.019514393
165	0xbe229852	-0.15878418
166	0x39ba9b26	0.0003559228
167	0xbd899c7c	-0.067193
168	0xbd8d4784	-0.06898406
169	0xbceba7ad	-0.028766477
170	0xbc02c05a	-0.0079804305
171	0x3c438d49	0.0119355405
172	0x3cb62385	0.022233734
173	0xbdd5218b	-0.104067884
174	0xbddc909c	-0.107697695
175	0x3e0be4a7	0.13661443
176	0x3d3924ee	0.045201235
177	0x3e1fbfe3	0.15600543
178	0xbdae7ef8	-0.08520311
179	0xbc546b1f	-0.012964993
180	0x3df83e56	0.12121265
181	0xbdf490b5	-0.11941663
182	0xbdb3c441	-0.08777667
183	0xbe207aa8	-0.1567179
184	0xbd53f1e8	-0.05174437
185	0x3d92d55d	0.07169602
186	0xbd96842d	-0.07349429
187	0xbd88b84f	-0.06675779
188	0x3d4b06c4	0.049567
189	0xbd99a5ef	-0.075023524
190	0x3cc45b7b	0.023969403
191	0x3c7b757c	0.015347835
192	0xbda7583d	-0.08171127
193	0xbce37450	-0.027765423
194	0xbd076af8	-0.033060998
195	0x3e441b41	0.19151022
196	0xbd32375f	-0.043509837
197	0xbe0ee532	-0.13954619
198	0x3c1cd629	0.009572544
199	0x4014b0e4	2.3232965
200	0xbe937def	-0.28807017
201	0x3be370b6	0.0069409264
202	0x3e006d74	0.12541753
203	0xbded7975	-0.11595432
204	0x3c9a96b1	0.018870683
205	0x3cee1d08	0.029066578
206	0x3d7ceabb	0.061747294
207	0xbcb12bcb	-0.021627327
208	0xbd89ad70	-0.06722534
209	0xbd304876	-0.043037854
210	0xbdbfe14a	-0.09369142
211	0x3ee3f946	0.44526118
212	0xbbaf26dd	-0.005345209
213	0xbc272bb0	-0.010203287
214	0x3e5b7c5c	0.21434158
215	0x3d865f86	0.065611884
216	0xbd38cf69	-0.045119677
217	0xbd0a95ca	-0.033834256
218	0xbdab8513	-0.08374991
219	0x3d89f396	0.067359135
220	0x3d255ccb	0.040371697
221	0xbe51230a	-0.20423523
222	0x3d9f7e78	0.07787794
223	0x3cf78cad	0.030218447
224	0xbe1b9701	-0.15194322
225	0xbde3bf32	-0.11120452
226	0x3d8bf5cb	0.06833991
227	0x3d2576c8	0.04039648
228	0x3da769ce	0.081744775
229	0x3e05b818	0.13058507
230	0xbd84d5b5	-0.06486074
231	0xbd8c7e65	-0.06860045
232	0xbeced9bc	-0.40400493
233	0xbd751906	-0.059838317
234	0xbdf4b426	-0.11948423
235	0xbd980a2f	-0.07423817
236	0xbcc884be	-0.024477359
237	0xbd6b6ed3	-0.057478737
238	0xbe183249	-0.14862932
239	0xbe1e285f	-0.15445088
240	0xbe2e6dfe	-0.17034146
241	0xbe12a2b7	-0.14319883
242	0xbd1eaa41	-0.038736586
243	0xbd999cdd	-0.075006224
244	0x3eb2460a	0.3481906
245	0xbe67d3b6	-0.22639355
246	0xbd441031	-0.047867004
247	0xbd2ad315	-0.04170521
248	0xbde540c2	-0.11193992
249	0xbe6b1064	-0.22955471
250	0x3df15728	0.11784202
251	0x3d687ea0	0.056761384
252	0x3be39c03	0.0069460883
253	0xbd28bf2f	-0.041197952
254	0x3d800503	0.06250956
255	0x3dcfe632	0.10151328

fc_1.bias f4 [64]
0	0x3d4fe5dc	0.05075632
1	0x3e593bef	0.21214269
2	0x3d3459e7	0.04403105
3	0xbc505e8c	-0.012717854
4	0xbb19c999	-0.0023466109
5	0xbbacea55	-0.005276958
6	0x3d54ecdc	0.0519837
7	0x3c6590d0	0.014011577
8	0xbdf9b20b	-0.12192162
9	0xbc785a92	-0.015158312
10	0x3dd17c02	0.10228731
11	0x3ba5e739	0.0050629643
12	0x3d90688a	0.07051189
13	0xbc311432	-0.010808038
14	0xbc989043	-0.018623477
15	0xbdc025d0	-0.09382212
16	0x3de17a6e	0.1100968
17	0xbdc9fbc0	-0.098624706
18	0x3dcd311a	0.10019131
19	0x3d7b2f10	0.06132418
20	0x3da6cd13	0.081445836
21	0xbe02376e	-0.12716457
22	0xbce2d209	-0.027688043
23	0x3ce91cc0	0.028456092
24	0xbe163018	-0.14666784
25	0x3d101826	0.03517928
26	0xba6c21a4	-0.00090076984
27	0xbd716bfb	-0.05894087
28	0x3d83ab9d	0.06429217
29	0x3d841b90	0.0645057
30	0xbe016f49	-0.12640108
31	0xbd106dfb	-0.035261136
32	0x3da7c410	0.08191693
33	0xbc7571e5	-0.014980768
34	0xbde3449e	-0.11097072
35	0xbca4b737	-0.020106895
36	0xbddf5f75	-0.10906879
37	0x3e887309	0.26650265
38	0x3e2e0134	0.16992646
39	0xbcb2c3e6	-0.021821927
40	0xbd86b1d5	-0.065768875
41	0xbdbdf2c7	-0.09274822
42	0x3d973b3d	0.07384346
43	0xbe14c531	-0.14528348
44	0x3d97e5af	0.074168555
45	0x3d8c7625	0.06858472
46	0xbd9aacbf	-0.0755248
47	0xbc88f971	-0.016720505
48	0x3d85c04d	0.06530819
49	0x3dfd47f7	0.12367242
50	0x3dae9813	0.085250996
51	0xbdc7574c	-0.097334474
52	0x3df05d10	0.117365
53	0x3d762df5	0.06010242
54	0x3d9f4345	0.077765025
55	0x3dbb7fc5	0.091552295
56	0x3d8aec63	0.067833684
57	0xbddb690c	-0.107133955
58	0xbc366308	-0.011132009
59	0xbce3b503	-0.027796274
60	0xbc9e66af	-0.019336073
61	0xbda90919	-0.08253688
62	0x3d8b75ff	0.06809615
63	0x3cb30410	0.021852523

fc_2.weight f4 [4, 64]
0	0xbcfbf740	-0.030757546
1	0xbfd51611	-1.6647359
2	0x3e9cf784	0.3065759
3	0xc045b188	-3.0889606
4	0xbd8fd071	-0.07022179
5	0x3f8f4188	1.1191874
6	0x3e203fd5	0.1564935
7	0xc1074a2e	-8.45561
8	0x3e2b71bf	0.1674261
9	0x3e3f316b	0.18671195
10	0x3cf6567e	0.03007054
11	0xbd1ea4fc	-0.03873156
12	0xbf0687f8	-0.5255122
13	0x3d4944bc	0.049137816
14	0x3f0ca658	0.5494132
15	0xbf4aa43f	-0.7915687
16	0x3e70150a	0.23445526
17	0x3d2c8fce	0.04212933
18	0xbd1e46d6	-0.038641773
19	0xbe8375a4	-0.2567569
20	0x403995a8	2.8997593
21	0x3f2aac6c	0.66669345
22	0x3fa7d695	1.311236
23	0xbd9ed7b7	-0.07755988
24	0x3cb82a39	0.02248107
25	0xbda043d2	-0.07825436
26	0xbedcbf12	-0.43114525
27	0xc0b45431	-5.6352773
28	0xbdbe9788	-0.09306246
29	0x3ef190d6	0.47180814
30	0xbcf5ce68	-0.030005649
31	0x3fbf2f92	1.4936392
32	0xbd6b8ec0	-0.057509184
33	0xbd73624a	-0.059419908
34	0x3e0d23f2	0.13783243
35	0xbe33b3f3	-0.17549114
36	0xbd9e8842	-0.07740833
37	0x3f8cc8ad	1.0998741
38	0x3fb7e334	1.4366212
39	0xbd144894	-0.03620203
40	0xbdf4f5cb	-0.11960944
41	0x3f05ba71	0.5223761
42	0xc006a3c5	-2.1037457
43	0xbf2d6344	-0.6772959
44	0x3e37125c	0.17878097
45	0x3fcf18ab	1.6179403
46	0x3f161159	0.5862022
47	0x3d86a44e	0.065743074
48	0x3ca9aba6	0.020711731
49	0xbef85010	-0.48498583
50	0xbf330433	-0.6992828
51	0xbf56af35	-0.83861095
52	0x3f1e43f0	0.61822414
53	0xbefc7a65	-0.4931213
54	0xbe2b003e	-0.16699311
55	0xbd206a79	-0.03916404
56	0xbd28fa8a	-0.041254558
57	0x3dc0ab64	0.0940769
58	0x3ff4c5da	1.912288
59	0x4001fb7d	2.0309746
60	0xbdc3fed0	-0.09570086
61	0x3d4877f4	0.04894252
62	0xbd8e7144	-0.069551975
63	0xbdf28125	-0.118410386
64	0x3db47cfe	0.08812903
65	0x3e9aa905	0.30207077
66	0x3e91b1b6	0.28455895
67	0x404b388e	3.1753268
68	0xbdc3d221	-0.09561563
69	0x3fa345cf	1.2755679
70	0xbe5a7732	-0.21334532
71	0x3fc4c8d6	1.537379
72	0xbf9c1740	-1.2194595
73	0xbe93c236	-0.2885911
74	0x3d42203f	0.047394034
75	0xbbaa8976	-0.005204375
76	0x3ef77d61	0.48337844
77	0x3dbb7204	0.09152606
78	0xbe73735f	-0.2377448
79	0xbe2de698	-0.16982496
80	0xbdba669d	-0.09101603
81	0x3de724f8	0.11286348
82	0xbe42107e	-0.18951604
83	0x3e7fb6c4	0.24972063
84	0xbfba2546	-1.4542625
85	0x3fa6c58f	1.302904
86	0xc09c280d	-4.879889
87	0x3dfdeaaf	0.12398278
88	0x3d8ff2b6	0.07028715
89	0xbda740f8	-0.08166689
90	0xbebaf25b	-0.36513028
91	0x407b1759	3.9233
92	0x3d39b092	0.045334406
93	0xbef0d62f	-0.4703841
94	0x3d238150	0.039918244
95	0x3f72cae8	0.9484086
96	0x3d0bf1ac	0.034166023
97	0xbdaf2fb3	-0.0855402
98	0xbdec7b58	-0.115469635
99	0x3c99092d	0.018681133
100	0xbde4b358	-0.111670196
101	0x3f5cab74	0.86199117
102	0xc0a87b90	-5.2650833
103	0xbd27bea7	-0.040953305
104	0xbc62453c	-0.013810452
105	0xbf326430	-0.69684124
106	0x3f95b96f	1.1697215
107	0xbf3f9666	-0.74838865
108	0x3caf1097	0.021370215
109	0xc081c3bf	-4.055145
110	0xbeb8c234	-0.36085665
111	0xbd717444	-0.05894877
112	0x3c697d98	0.014251135
113	0x3eab55cb	0.33463892
114	0x3db423f3	0.08795919
115	0x3e25d582	0.16194728
116	0x3fa76278	1.3076925
117	0xbe8d883d	-0.27643004
118	0x3cca27c1	0.02467716
119	0xbe502ed8	-0.2033037
120	0x3de9e017	0.11419695
121	0xbd5818d7	-0.052758064
122	0xc0d84902	-6.758912
123	0xbf253933	-0.64540404
124	0x3e227006	0.15863046
125	0xbda98fda	-0.08279391
126	0x3b0d8997	0.0021596903
127	0xbe59d3d6	-0.21272215
128	0xbd39f43a	-0.04539893
129	0x4002ee83	2.0458076
130	0xbef0ad33	-0.4700714
131	0xbf032cb3	-0.5124008
132	0xbd43b7a6	-0.047782563
133	0xbfe8a9ba	-1.8176796
134	0xbe077c3e	-0.13230988
135	0xc005dcda	-2.0916047
136	0x3e26dbcc	0.16294783
137	0x3d3d4020	0.046203732
138	0xbd8c99b2	-0.068652526
139	0x3d5e64c9	0.054295335
140	0x3e8c6f07	0.27428457
141	0xbd2e073c	-0.042487368
142	0xbdf7be4e	-0.120968446
143	0x3f153456	0.58282983
144	0x3e08cd4a	0.13359562
145	0x3b300096	0.0026855818
146	0x3bd8c312	0.006615051
147	0x3c2d9d76	0.010596624
148	0xbf320341	-0.69536215
149	0xbe0710df	-0.1319003
150	0x3ff652a4	1.924397
151	0xbdcff071	-0.101532824
152	0x3cc93e64	0.024565883
153	0x3d43833a	0.04773257
154	0x3f2136ba	0.6297413
155	0x4017a371	2.3693507
156	0x3ca797f4	0.0204582
157	0xbe9755eb	-0.29557738
158	0xbcab015f	-0.020874677
159	0xbff618c9	-1.9226314
160	0x3da74081	0.081666
161	0x3cb063d6	0.02153198
162	0xbe5331af	-0.20624422
163	0x3d5389c9	0.051645074
164	0x3dac3fea	0.08410628
165	0xc0c9dcd8	-6.3082085
166	0x405f9de0	3.494011
167	0x3e8a4d04	0.27011883
168	0xbe0043ce	-0.12525865
169	0x3ee85f27	0.45385095
170	0x3f1b24bf	0.60602945
171	0xbdf37602	-0.118877426
172	0xbe3b319c	-0.18280643
173	0x3e962849	0.2932761
174	0xbe9de722	-0.30840403
175	0x3d39dd2c	0.04537694
176	0x3d8bf1d3	0.06833234
177	0x3e251cd8	0.16124284
178	0x3f6342b1	0.8877364
179	0x3f61b349	0.8816419
180	0xbf048491	-0.5176478
181	0x401dae40	2.4637604
182	0xbd836fb3	-0.06417789
183	0xbc823a16	-0.015896838
184	0x3d5d5da2	0.054044373
185	0x3dda9c02	0.106742874
186	0xbddef265	-0.10886077
187	0xbfbfb251	-1.4976293
188	0xbe85d265	-0.2613708
189	0xb9a08400	-0.00030615926
190	0x3ce6fe2c	0.02819737
191	0x3e2d19cc	0.16904372
192	0xbdbc9c00	-0.09209442
193	0xbf3c3adc	-0.7352731
194	0x3daa8424	0.08325985
195	0x3f7639dd	0.9618204
196	0x3ce3e4d6	0.027819078
197	0xbe875dbc	-0.264387
198	0x3d2a32a0	0.041552186
199	0x3fc99545	1.5748678
200	0x3ea9c64f	0.3315911
201	0x3d30a8c3	0.043129694
202	0x3d8d535b	0.069006644
203	0x3e374e81	0.1790104
204	0xbeaaec02	-0.33383185
205	0x3db8e2fe	0.0902767
206	0xbf1832a8	-0.59452295
207	0x3f03a2c7	0.51420254
208	0xbf1611d9	-0.58620983
209	0x3c002d16	0.007823249
210	0x3d5cd577	0.053914513
211	0xbde0efdd	-0.1098325
212	0xbf4f8b3a	-0.8107182
213	0xc0b1df44	-5.558504
214	0x3f53537a	0.8254925
215	0x3e376106	0.17908105
216	0xbdbb14d9	-0.09134836
217	0xbd38f8c8	-0.04515913
218	0xbe40c14e	-0.1882374
219	0x403f3ae0	2.9879684
220	0x3dcb22b2	0.09918727
221	0x3cb734d4	0.022364058
222	0x3debfd8b	0.11522969
223	0xbeb1a4ac	-0.34695947
224	0x3d9bee85	0.07613853
225	0x3dd2c145	0.102907695
226	0x3d7593a5	0.059955258
227	0x3dc122d6	0.094304726
228	0x3d74fb29	0.059809837
229	0x3f201532	0.6253234
230	0x4073c5e5	3.8089535
231	0xbe92f8b4	-0.2870537
232	0x3e8af854	0.27142584
233	0xbe7d4f69	-0.24737324
234	0x3e32edba	0.17473498
235	0x3fdfaa31	1.7473813
236	0xbd2accd5	-0.04169925
237	0x3e139d05	0.14415367
238	0xbf0c6809	-0.54846245
239	0x3de5778e	0.11204444
240	0xbd92b213	-0.07162871
241	0x3b9b4377	0.004738267
242	0x3ecd7282	0.40126425
243	0xba4bd2fc	-0.00077752746
244	0xc04c0032	-3.187512
245	0xbf64f260	-0.89432335
246	0x3d1d353d	0.03838085
247	0x3e59ac5a	0.21257153
248	0x3c4aab18	0.0123698935
249	0x3c093d2b	0.0083764
250	0xbeb5556c	-0.35416734
251	0xbf9cb7ad	-1.2243553
252	0x3c2843e6	0.0102700945
253	0xbdc65398	-0.09683913
254	0x3e3f12c3	0.18659501
255	0x3e852df1	0.26011613

fc_2.bias f4 [4]
0	0xbd02f06f	-0.031967577
1	0x3dfdb028	0.12387115
2	0x3dcbca46	0.0995069
3	0x3db5a089	0.0886851
