Mindset augmented trained networks (pth)/segmentation_pointnet_fmeanpstorefake3.pth (torch, 79170 bytes, 18 tensors)

base_pointnet.conv_1_a.weight f4 [64, 1, 3]
0.497898 -0.14598626 0.39790887 0.17836794 -0.11784798 0.023835285 0.2621969 0.07254086
-0.41120073 0.5952717 0.09124574 0.32047805 -0.06749621 0.0069291554 -5.2009713e-05 -0.13954657
-0.345578 0.41859356 0.1797214 0.34225252 -0.486657 -0.28847814 -0.05180315 0.3419537
-0.09453275 -0.14709076 -0.23404182 -0.07552831 -0.15784475 0.052645825 -0.5344 0.39111438
0.32086062 -0.011379524 0.52373743 -0.36748874 -0.18784799 0.21966396 -0.11505328 -0.6062526
-0.11990546 -0.36160448 -0.20994681 0.0953515 0.118561655 0.23755777 0.020650925 0.40006077
0.33109453 -0.05278246 -0.091613054 0.38749218 0.25265965 0.5329625 -0.13621883 0.1673638
-0.33671886 -0.58939815 0.4329556 0.30490032 0.35709125 -0.29855323 -0.04383959 0.35358438
0.4816909 0.102671996 0.0011280194 -0.15574268 0.088093676 0.38531375 -0.060773987 -0.2524077
0.020882344 -0.064705305 0.0578035 -0.44745305 -0.39100513 0.5208211 0.17285946 -0.08259222
-0.02939243 0.53294396 -0.054597262 0.26602593 -0.08587831 -0.3016551 0.114073396 0.20411034
0.48016447 -0.61647195 0.18482561 -0.54717964 0.50530124 -0.14941913 -0.22348125 0.3225124
0.2276845 -0.24320337 -0.43199635 -0.5332374 0.19497316 0.41860062 0.5033274 -0.4269298
0.0015955648 0.32736087 0.2795409 0.03070613 0.14763105 -0.362381 0.217804 -0.30399466
0.32271606 -0.046561144 0.19358316 0.29512176 -0.45393896 -0.043075055 -0.26778218 0.2094642
-0.32581848 -0.19993675 0.47267842 -0.36230293 -0.40389588 -0.3517152 -0.39645693 -0.48802316
0.60691637 0.43870652 -0.38356128 -0.24925162 -0.13212256 -0.7020191 0.014247783 -0.0033519655
-0.35719475 0.4314038 0.48699266 -0.2831412 -0.2908887 -0.03404337 -0.37330124 0.4094168
0.32750574 0.06442323 0.470271 0.261121 -0.4858113 0.27794766 0.1327101 0.027041392
-0.29750776 -0.47895205 -0.02224766 0.49708325 0.07219865 0.5900674 0.08046611 0.3924231
-0.4381844 0.026158284 0.17254436 0.45338127 -0.3911901 0.09957326 -0.26191887 0.13728002
-0.21201907 0.5869141 -0.41830617 0.23657876 0.272888 -0.29286107 0.27302215 -0.026382819
0.013519287 -0.3009294 0.14417005 0.07635382 0.6159437 0.19271015 0.3418528 -0.31532043
0.30515808 -0.058373827 0.2423975 0.22299102 0.14895661 0.5361216 -0.36022514 -0.08002209
00000000: 7dec fe3e 6c7d 15be b6ba cb3e 16a6 363e
00000010: 485a f1bd 3742 c33c ac3e 863e 4d90 943d
00000020: e788 d2be ba63 183f 0cdf ba3d b315 a43e
00000030: 743b 8abd f80d e33b 0125 5ab8 4ce5 0ebe
00000040: 9aef b0be e551 d63e e308 383e b93b af3e
00000050: 1b2b f9be 68b3 93be 8a2f 54bd 8e14 af3e
00000060: 639a c1bd f69e 16be a9a8 6fbe 96ae 9abd
00000070: 0ea2 21be 26a3 573d 70ce 08bf 2540 c83e
00000080: d847 a43e 2f71 3abc a813 063f 7c27 bcbe
00000090: 395b 40be 97ef 603e 0ea1 ebbd 5f33 1bbf
000000a0: fe90 f5bd 3924 b9be 4cfc 56be a647 c33d
000000b0: 74d0 f23d 5842 733e 212c a93c c4d4 cc3e
000000c0: 3985 a93e 6c32 58bd a09f bbbd 6065 c63e
000000d0: 9b5c 813e 3b70 083f f37c 0bbe 6a61 2b3e
000000e0: 6a66 acbe cce2 16bf 5bac dd3e e51b 9c3e
000000f0: aad4 b63e f8db 98be 2491 33bd 0309 b53e
00000100: 31a0 f63e b245 d23d 0dda 933a 027b 1fbe
00000110: 756a b43d d847 c53e 25ee 78bd 953b 81be
00000120: 7311 ab3c 3784 84bd 5dc3 6c3d 9118 e5be
00000130: d331 c8be 8854 053f 1202 313e 1c26 a9bd
00000140: 65c8 f0bc 046f 083f 61a1 5fbd 8d34 883e
00000150: f8e0 afbd 8a72 9abe 509f e93d 4d02 513e
00000160: 1ed8 f53e 1bd1 1dbf ed42 3d3e f713 0cbf
00000170: 6c5b 013f 5401 19be 45d8 64be 5820 a53e
00000180: 2026 693e 4e0a 79be a02e ddbe 3f82 08bf
00000190: 0ba7 473e d252 d63e 11da 003f 8b96 dabe
000001a0: 4522 d13a d89b a73e fc1f 8f3e 6c8b fb3c
000001b0: 982c 173e 018a b9be 0308 5f3e 30a5 9bbe
000001c0: 0a3b a53e e6b6 3ebd aa3a 463e 331a 973e
000001d0: b06a e8be 786f 30bd bf1a 89be c97d 563e
000001e0: aed1 a6be 38bc 4cbe e802 f23e c57f b9be
000001f0: 71cb cebe 0414 b4be 67fc cabe 2cde f9be
00000200: df5e 1b3f 249e e03e 2562 c4be d13b 7fbe
00000210: 234b 07be 86b7 33bf 896f 693c a6ac 5bbb
00000220: 3be2 b6be f5e0 dc3e 1a57 f93e e2f7 90be
00000230: 5def 94be 1071 0bbd 5721 bfbe 149f d13e
00000240: d5ae a73e 54f0 833d 5cc7 f03e a7b1 853e
00000250: 42bc f8be 284f 8e3e 28e5 073e e985 dd3c
00000260: f052 98be 3439 f5be ba40 b6bc b281 fe3e
00000270: e3dc 933d a80e 173f 6acb a43d aeeb c83e
00000280: b559 e0be e649 d63c 78af 303e 9721 e83e
00000290: 124a c8be 11ed cb3d 3b1a 86be 2293 0c3e
000002a0: 871b 59be 0140 163f 3a2c d6be b441 723e
000002b0: fab7 8b3e e3f1 95be 8fc9 8b3e c820 d8bc
000002c0: 0080 5d3c 6b13 9abe 50a1 133e 645f 9c3d
000002d0: 7cae 1d3f cf55 453e 5507 af3e ae71 a1be
000002e0: ae3d 9c3e 6519 6fbd 0d37 783e c257 643e
000002f0: 1588 183e 443f 093f 6e6f b8be 9fe2 a3bd

base_pointnet.conv_1_a.bias f4 [64]
0.14612913 -0.3877709 -0.25129113 0.46169144 0.08752102 -0.06269264 0.31170702 0.43890676
0.19952437 0.39016604 -0.4670832 -0.32178366 -0.02045202 -0.06246216 0.11902197 -0.067395434
0.0027458884 -0.46636343 -0.04895684 -0.29470396 -0.10781794 -0.30562112 -0.26160657 -0.26391616
-0.4492558 -0.35840303 -0.35254815 0.32680717 0.25432125 0.26370022 -0.18366545 0.07348486
0.53491914 0.0809417 -0.036885254 0.21009643 0.057748303 -0.24808899 -0.3148422 0.28932986
-0.059073605 0.015977215 -0.20952573 -0.17262842 0.03075566 -0.060380846 0.39827862 0.34642518
-0.32291946 -0.4151554 0.105172746 -0.45271748 0.5470926 0.4684749 -0.5328026 -0.46954435
-0.52258235 -0.13905002 0.009331711 -0.45013562 -0.21488269 -0.26649457 0.49526113 -0.217691
00000000: e0a2 153e e889 c6be 3ba9 80be d262 ec3e
00000010: 383e b33d 0065 80bd 1098 9f3e 63b8 e03e
00000020: 1e50 4c3e d8c3 c73e 8725 efbe d4c0 a4be
00000030: ff8a a7bc 52d8 7fbd cac1 f33d 9e06 8abd
00000040: 5df4 333b 30c7 eebe f886 48bd 70e3 96be
00000050: a7cf dcbd 5f7a 9cbe 4cf1 85be 0520 87be
00000060: db04 e6be 9a80 b7be 3181 b4be 4553 a73e
00000070: 6536 823e b703 873e cc12 3cbe 3b7f 963d
00000080: 76f0 083f c3c4 a53d fe14 17bd 8523 573e
00000090: 7c89 6c3d 0a0b 7ebe ff32 a1be 0b23 943e
000000a0: 2af7 71bd a6e2 823c ea8d 56be 81c5 30be
000000b0: 4bf3 fb3c e851 77bd 2deb cb3e a45e b13e
000000c0: b355 a5be 408f d4be cf64 d73d 96ca e7be
000000d0: 430e 0c3f f1db ef3e c065 08bf 1e68 f0be
000000e0: f5c7 05bf 2163 0ebe 08e4 183c 2d78 e6be
000000f0: 350a 5cbe fa71 88be de92 fd3e 64ea 5ebe

base_pointnet.conv_1_b.weight f4 [64, 1, 3]
0.22061849 -0.7143135 -0.28206477 -0.27221036 -0.7584435 -0.00629641 -0.114253476 -0.3637877
-0.3001932 0.040855102 -0.15784131 -0.12445469 -0.6237331 -0.3734339 0.59290177 -0.354318
0.23340936 0.93705237 -0.18695518 -0.034238126 -0.56525356 0.83102745 0.811869 -0.0059358133
0.44612068 -0.64787287 0.050420087 0.7785837 0.20211716 -0.05787719 0.56344855 -0.7155124
-0.5485069 -0.17050259 -0.101985306 0.119912535 -0.41099674 0.7357854 0.2596314 -0.24277015
0.6273365 -0.16481163 -0.4301626 -0.5595769 0.33385676 -0.54575425 0.06773745 0.17063552
0.3515368 -0.08633392 0.45577854 -0.40678713 0.20022963 0.4748274 0.27736393 0.4032312
0.1469529 -0.59212124 -0.18137886 0.37079132 -0.19339718 0.21688338 0.7604824 0.2797599
-0.34833437 0.103396185 0.6500589 -0.2111776 0.6445973 0.2381843 0.077112935 -0.05369441
0.22575758 -0.016162492 -0.65826964 -0.26097873 0.5868674 -0.75637287 0.39575595 0.6697826
0.7703587 0.0710267 -0.13477151 0.4282777 0.20297013 0.63667923 -0.32981625 0.3118963
-0.2734098 0.6084245 -0.25901186 -0.6324058 -0.5782214 0.17866787 -0.05022891 -0.62213933
0.8407949 -0.13362317 0.49529463 0.7745432 -0.08453629 -0.01854509 -0.063567124 0.0084383115
-0.97504586 -0.40683386 -0.47709242 -0.9513321 -0.5302233 -0.8054455 -0.17523497 -0.5500093
0.3729009 -0.5865795 1.3055238 -0.13958576 0.041961372 -0.08715187 -0.31231764 0.9582675
0.6235038 -0.16516586 0.021163387 -0.91525984 -0.34727433 -1.0266501 -0.33629885 0.57220864
0.32096004 0.49150503 0.7289203 0.14882341 -0.09579093 -0.6410844 0.3581926 0.30474338
-0.11214312 -0.53878754 0.40559956 0.5684069 0.6163525 -0.116760656 -0.75833267 0.45201293
-0.58962196 -0.28313425 -0.37322244 0.32936618 0.430466 0.22338738 0.023655735 0.13701847
0.15952513 -0.22244681 -0.40370107 -0.43333519 0.0994565 0.05086533 0.0146621885 0.024782198
-0.15574116 0.89993626 -0.4999998 0.13467951 0.17599548 0.5817234 0.20876724 -0.5286079
-0.48485202 0.18111716 -0.0037741188 0.51123327 1.0159342 -0.5689525 0.15112233 -0.13936551
0.23285252 -0.5414485 -0.06632251 -0.07294662 0.68795055 -0.012698452 0.3299466 -0.13415414
0.26917955 0.7463332 -0.16190872 -0.43899176 -1.393451 -0.42375046 -0.5022824 -0.7849015
00000000: d0e9 613e 40dd 36bf cb6a 90be 285f 8bbe
00000010: 5a29 42bf 1e52 cebb bafd e9bd 6242 babe
00000020: ecb2 99be ae57 273d 27a1 21be 1ae2 febd
00000030: f9ac 1fbf ba32 bfbe 69c8 173f 2b69 b5be
00000040: dd02 6f3e aae2 6f3f 2e71 3fbe 473d 0cbd
00000050: 75b4 10bf 37be 543f a6d6 4f3f 3681 c2bb
00000060: ee69 e43e ffda 25bf 4b85 4e3d 4351 473f
00000070: cdf7 4e3e a210 6dbd 2a3e 103f d22b 37bf
00000080: f36a 0cbf 3b98 2ebe acdd d0bd b494 f53d
00000090: 2a6e d2be 6f5c 3c3f 68ee 843e bd98 78be
000000a0: 2099 203f 61c4 28be 463e dcbe 6f40 0fbf
000000b0: 46ef aa3e 8db6 0bbf efb9 8a3d 14bb 2e3e
000000c0: a2fc b33e d7cf b0bd ce5b e93e 6746 d0be
000000d0: ff08 4d3e 941c f33e a502 8e3e 5274 ce3e
000000e0: d27a 163e 4295 17bf 61bb 39be 5cd8 bd3e
000000f0: e909 46be ad16 5e3e f9ae 423f b13c 8f3e
00000100: e258 b2be 61c1 d33d 436a 263f f13e 58be
00000110: 5404 253f 96e6 733e 63ed 9d3d abee 5bbd
00000120: ff2c 673e 3467 84bc 5c84 28bf 019f 85be
00000130: f13c 163f a7a1 41bf 86a0 ca3e df76 2b3f
00000140: 3a36 453f 7276 913d 8b01 0abe 3747 db3e
00000150: 67d7 4f3e 69fd 223f addd a8be dfb0 9f3e
00000160: 5ffc 8bbe b5c1 1b3f 349d 84be 59e5 21bf
00000170: 5106 14bf b6f4 363e d4bc 4dbd 8644 1fbf
00000180: 563e 573f 83d4 08be 4297 fd3e 7748 463f
00000190: 5d21 adbd dfeb 97bc 7b2f 82bd d840 0a3c
000001a0: 9b9c 79bf 874c d0be 7545 f4be 808a 73bf
000001b0: b7bc 07bf ad31 4ebf cc70 33be 69cd 0cbf
000001c0: deec be3e 132a 16bf 671b a73f 92ef 0ebe
000001d0: b0df 2b3d ae7c b2bd 19e8 9fbe 0551 753f
000001e0: f29d 1f3f 3d21 29be d75e ad3c 784e 6abf
000001f0: f1cd b1be 4569 83bf 5d2f acbe 447c 123f
00000200: e054 a43e 8ca6 fb3e 859a 3a3f 2a65 183e
00000210: 092e c4bd 1b1e 24bf 0565 b73e 5307 9c3e
00000220: 4bab e5bd fbed 09bf bfaa cf3e 1d83 113f
00000230: 47c9 1d3f 3620 efbd 1722 42bf 3d6e e73e
00000240: 77f1 16bf f9f6 90be 0317 bfbe afa2 a83e
00000250: 0a66 dc3e a9bf 643e acc9 c13c 924e 0c3e
00000260: 8e5a 233e 19c9 63be e8b1 cebe 1cde ddbe
00000270: d9af cb3d 2a58 503d ad39 703c 0904 cb3c
00000280: 9c7a 1fbe 3962 663f f9ff ffbe 6de9 093e
00000290: 2938 343e d3eb 143f 14c7 553e d952 07bf
000002a0: 863e f8be c776 393e 3557 77bb 2fe0 023f
000002b0: 220a 823f dfa6 11bf d0bf 1a3e d5b5 0ebe
000002c0: e470 6e3e 5e9c 0abf 19d4 87bd 0a65 95bd
000002d0: 871d 303f 2b0d 50bc c3ee a83e b45f 09be
000002e0: e7d1 893e b10f 3f3f 66cb 25be 87c3 e0be
000002f0: 9a5c b2bf d2f5 d8be 9495 00bf 4eef 48bf

base_pointnet.conv_1_b.bias f4 [64]
0.21533751 -0.014963799 0.049911972 -0.29688004 -0.58224744 0.32085568 0.45656973 0.109056965
0.16479872 0.45386696 -0.19700791 0.56309867 -0.5204678 -0.5401415 -0.48707023 0.25421265
-0.5710952 0.34750962 -0.28882906 0.30022442 -0.0522452 0.034458883 -0.294097 -0.28645205
0.1237013 -0.4527021 -0.0934399 0.19747923 -0.47668567 0.5259616 0.12866706 0.3907644
0.16320145 -0.3158148 0.31644803 -0.35019103 0.31012335 -0.1404823 0.3640213 0.07766595
-0.09700215 -0.37526768 0.47574133 0.12506302 -0.12428118 0.32970434 0.134087 0.47630924
-0.43849316 0.34235537 -0.27229857 0.43471843 0.44612637 0.53412986 0.14369677 0.28361705
0.25996256 0.45398578 0.32505956 0.571276 -0.13058314 -0.51817286 -0.4593266 0.008249694
00000000: 7081 5c3e b92a 75bc 7f70 4c3d a900 98be
00000010: 2b0e 15bf 3247 a43e 82c3 e93e 4259 df3d
00000020: ffc0 283e 4061 e83e 71bc 49be 3c27 103f
00000030: 613d 05bf b746 0abf 4561 f9be 2928 823e
00000040: 4c33 12bf c8ec b13e 67e1 93be 04b7 993e
00000050: 10ff 55bd c224 0d3d e293 96be d8a9 92be
00000060: 1b57 fd3d 92c8 e7be 6b5d bfbd ff37 4a3e
00000070: 2510 f4be 6ba5 063f 4cc1 033e 4512 c83e
00000080: 481e 273e 7ab2 a1be 7a05 a23e 3d4c b3be
00000090: 7dc8 9e3e 98da 0fbe 0061 ba3e 530f 9f3d
000000a0: 10a9 c6bd 1623 c0be 5e94 f33e 8510 003e
000000b0: 2287 febd 02cf a83e 1a4e 093e cede f33e
000000c0: 2d82 e0be 3449 af3e b86a 8bbe 6a93 de3e
000000d0: ad6a e43e bcbc 083f 3f25 133e 4136 913e
000000e0: d019 853e d370 e83e 356e a63e 253f 123f
000000f0: 96b7 05be faa6 04bf db2c ebbe b929 073c

base_pointnet.conv_2.weight f4 [64, 64, 3]
0.005798309 0.038574457 0.027697237 0.0136601655 0.030127192 -0.084183514 0.09140112 -0.059829794
-0.026390055 -0.066331804 0.061860196 0.040485226 0.0016555052 0.03553016 0.07492449 -0.08037275
-0.0992374 0.065644115 -0.021926448 0.06795693 -0.0024379876 0.051577922 0.046080466 -0.040912453
-0.012528876 -0.065398075 -0.06600998 0.02232511 0.050792865 -0.0037921034 0.053633258 0.04378945
0.04726453 -0.02747728 0.09183416 0.061377358 -0.06586026 -0.027472617 -0.041447286 0.05095314
-0.06443025 0.015051037 -0.12830353 0.0594188 -0.0077733854 -0.0010736933 -0.0020084274 0.026604434
0.011262146 -0.027418932 -0.03439065 0.046848398 -0.011409327 -0.06851796 0.05242432 -0.0041572046
-0.102583185 0.02785949 0.057226293 -0.07008802 -0.008051264 -0.10025323 -0.1127538 -0.058917716
-0.0016135061 0.00047428292 -0.12924157 -0.0676572 0.0024384991 -0.02963031 -0.077877 -0.0669174
-0.072177455 -0.11800177 -0.052949432 -0.02994885 0.013117688 -0.10134446 0.07252887 0.06275526
-0.0031783995 -0.00094115746 -0.001901463 0.0139860585 0.08348009 -0.026677614 0.010343666 0.048967462
0.02236499 -0.04010471 -0.017560517 0.009944452 -0.041722294 -0.1343311 -0.04259026 -0.18128502
-0.00398355 -0.08389502 -0.017750887 -0.034004506 0.0068772365 0.050099835 -0.0733608 -0.054056317
0.029523337 0.009320234 -0.07032556 -0.010223125 -0.056858983 0.005409849 0.021612544 -0.0019608333
0.26786146 -0.009667955 -0.05873144 -0.0729204 -0.02915357 -0.09047209 -0.11187787 0.0394334
0.13839115 0.13618538 0.15640801 0.011428448 -0.06505578 0.014376394 0.030110314 -0.025843048
0.029248897 0.07832132 0.060762327 0.01018131 0.0453605 -0.032647595 0.04985351 0.04488717
0.0070418403 0.10343176 0.04409268 0.060986705 0.04486314 -0.0040283985 -0.0044411984 -0.12741935
-0.02337345 -0.03695495 0.024195507 -0.03073267 0.017253783 -0.04584344 0.0732809 -0.025957378
0.09874518 -0.09357844 -0.06191122 -0.0741574 -0.016542923 0.03132311 -0.0076091527 -0.09458565
-0.027195863 -0.0067329034 0.060252294 0.0826233 0.004974165 0.10729395 0.021165125 0.054957595
0.10486326 0.11079581 0.0039451495 -0.008020943 -0.015496081 0.031015895 0.0151543375 -0.00086590735
0.032914463 -0.022558158 0.040100027 -0.052114185 -0.048221648 0.015851272 -0.0454266 0.015224049
-0.09566608 0.043782808 -0.01142411 -0.0015659553 -0.025546027 0.041630555 0.016029712 0.07176515
0.03649605 0.01691375 -0.071373954 -0.041788258 0.0010771151 0.0075421263 -0.051441394 -0.02890248
0.0637876 0.016095903 -0.044869423 0.0094190575 -0.09060025 -0.08098291 0.020651015 -0.012652779
-0.01202008 -0.06271079 -0.019646829 -0.039352275 -0.100826606 -7.5016345e-05 -0.003389343 -0.027795171
0.025852446 0.02121847 0.081404306 0.06448083 0.056713164 0.030621512 -0.10059309 -0.0032775642
-0.036556695 -0.00238657 0.030934874 -0.0251123 -0.021166204 -0.059292007 0.11231353 0.003429751
0.010257647 0.070510015 -0.08867206 0.05934714 0.06232611 -0.047500987 0.051587824 -0.015393444
-0.04343956 -0.09129661 -0.052610125 0.03310809 0.07290372 -0.022895567 0.003062666 0.0657131
-0.034227483 0.00457927 -0.04314732 -0.048804965 0.07695325 0.05529321 0.074487515 -0.10501314
00000000: beff bd3b 4000 1e3d 51e5 e23c e3ce 5f3c
00000010: 4dcd f63c 6868 acbd 8330 bb3d 1610 75bd
00000020: f52f d8bc f8d8 87bd 1e61 7d3d d6d3 253d
00000030: 89fd d83a 1388 113d 0372 993d 789a a4bd
00000040: fa3c cbbd 6c70 863d 189f b3bc 012d 8b3d
00000050: a5c6 1fbb 5f43 533d dfbe 3c3d d193 27bd
00000060: ea45 4dbc 6def 85bd 3e30 87bd 26e3 b63c
00000070: 2e0c 503d f084 78bb 8cae 5b3d 915c 333d
00000080: 7498 413d 0818 e1bc 8c13 bc3d d366 7b3d
00000090: bee1 86bd 410e e1bc a1c4 29bd 3db4 503d
000000a0: 02f4 83bd a098 763c 0062 03be 2161 733d
000000b0: e2b7 febb 2bbb 8cba d29f 03bb 8bf1 d93c
000000c0: dd84 383c ab9d e0bc 36dd 0cbd 1be4 3f3d
000000d0: 30ee 3abc 2553 8cbd e2ba 563d 2939 88bb
000000e0: 2217 d2bd 9639 e43c 1e66 6a3d 4f8a 8fbd
000000f0: 73e9 03bc 9151 cdbd 77eb e6bd b453 71bd
00000100: 487c d3ba 2da9 f839 e757 04be dc8f 8abd
00000110: 3acf 1f3b 44bb f2bc fa7d 9fbd fd0b 89bd
00000120: c6d1 93bd e9aa f1bd 81e1 58bd 4a57 f5bc
00000130: 92eb 563c af8d cfbd 048a 943d d485 803d
00000140: b24c 50bb 02b8 76ba 833a f9ba c825 653c
00000150: 9cf7 aa3d 038b dabc 7b78 293c 1b92 483d
00000160: c936 b73c d644 24bd 13db 8fbc 0eee 223c
00000170: ffe4 2abd 188e 09be 2073 2ebd c8a2 39be
00000180: 7088 82bb 27d1 abbd 4f6a 91bc 4f48 0bbd
00000190: 715a e13b 7c35 4d3d 303e 96bd 286a 5dbd
000001a0: edda f13c e5b3 183c d906 90bd e57e 27bc
000001b0: f7e4 68bd 1a45 b13b ca0c b13c 5381 00bb
000001c0: 2325 893e 5866 1ebc 6190 70bd 4a57 95bd
000001d0: 78d3 eebc 6e49 b9bd 3a20 e5bd eb84 213d
000001e0: 69b6 0d3e 2e74 0b3e 6c29 203e 633e 3b3c
000001f0: f73b 85bd f88a 6b3c e8a9 f63c cdb4 d3bc
00000200: 629b ef3c ee66 a03d ebe1 783d 82cf 263c
00000210: efcb 393d 7cb9 05bd 3233 4c3d 9cdb 373d
00000220: 3dbf e63b 08d4 d33d 879a 343d 32cd 793d
00000230: 69c2 373d a800 84bb 7987 91bb 387a 02be
00000240: ad79 bfbc 135e 17bd a835 c63c 15c3 fbbc
00000250: ce57 8d3c 55c6 3bbd 4c14 963d 91a4 d4bc
00000260: ea3a ca3d 0ea6 bfbd 9f96 7dbd d6df 97bd
00000270: 0685 87bc a94c 003d 3356 f9bb 1fb6 c1bd
00000280: dcc9 debc b09f dcbb 1ccb 763d 6836 a93d
00000290: 52fe a23b eebc db3d 7c62 ad3c 371b 613d
000002a0: 8dc2 d63d eae8 e23d 5046 813b 466a 03bc
000002b0: 46e3 7dbc 0c15 fe3c e649 783c 0ffe 62ba
000002c0: 51d1 063d e3cb b8bc ed3f 243d af75 55bd
000002d0: 1084 45bd 87da 813c 3e11 3abd 4a6e 793c
000002e0: 94ec c3bd 9a55 333d 312c 3bbc be40 cdba
000002f0: e745 d1bc cd84 2a3d be50 833c 9bf9 923d
00000300: e27c 153d b48e 8a3c 822c 92bd 2a2a 2bbd
00000310: fc2d 8d3a f123 f73b 36b4 52bd e5c4 ecbc
00000320: 13a3 823d 8edb 833c 00c9 37bd 6452 1a3c
00000330: a08c b9bd 5eda a5bd 512c a93c 9a4d 4fbc
00000340: dfef 44bc 846e 80bd 63f2 a0bc da2f 21bd
00000350: 2e7e cebd 1852 9db8 bd1f 5ebb b3b2 e3bc
00000360: 82c8 d33c 5bd2 ad3c 4db7 a63d 870e 843d
00000370: 104c 683d f7d9 fa3c c003 cebd 67cc 56bb
00000380: 79bc 15bd 0068 1cbb 226b fd3c 4fb8 cdbc
00000390: bf64 adbc 2ddc 72bd a304 e63d acc5 603b
000003a0: b10f 283c 8e67 903d b299 b5bd fd15 733d
000003b0: aa49 7f3d 6590 42bd c14d 533d c934 7cbc
000003c0: aeed 31bd b8f9 babd b77d 57bd 599c 073d
000003d0: 8c4e 953d 7c8f bbbc 02b7 483b 9794 863d
000003e0: 1e32 0cbd b30d 963b 3fbb 30bd b7e7 47bd
000003f0: aa99 9d3d 227b 623d e98c 983d 2111 d7bd

base_pointnet.conv_2.bias f4 [64]
0.07163098 -0.010458148 -0.012284945 0.053227186 -0.028532593 -0.06312108 1.8842882e-05 0.035449974
0.00850251 0.05574092 0.13251834 0.028144456 0.05125813 -0.0235386 -0.0058190865 0.01950129
0.041693956 0.0126284575 -0.051194783 0.08857614 -0.060033962 -0.0557475 -0.04422465 -0.08666872
-0.03293019 -0.089560315 0.03733187 -0.017525751 0.010432367 0.07550815 0.013892143 0.12234419
0.073701635 -0.030061113 0.03361757 -0.12972377 -0.12631372 0.06424086 0.0150126545 -0.0003503851
0.05594487 -0.07171746 -0.0088724755 0.004350432 0.10487897 0.025719745 -0.053374853 -0.023439541
-0.04508301 -0.053953912 0.014274963 0.031093862 0.041485924 -0.05674287 -0.0044763046 -0.010794758
-0.021663914 -0.013427518 0.033478484 0.029377881 0.00093309215 0.058470108 0.030248461 0.076299936
00000000: 43b3 923d a758 2bbc cb46 49bc c004 5a3d
00000010: 2fbd e9bc a045 81bd c810 9e37 fe33 113d
00000020: 1d4e 0b3c 9750 643d e3b2 073e 348f e63c
00000030: 0cf4 513d 06d4 c0bc 09ae bebb 2bc1 9f3c
00000040: 48c7 2a3d 97e7 4e3c 9fb1 51bd 6867 b53d
00000050: 2ce6 75bd 7e57 64bd e824 35bd 5f7f b1bd
00000060: cfe1 06bd 666b b7bd 4ee9 183d 2a92 8fbc
00000070: 85ec 2a3c 04a4 9a3d df9b 633c 978f fa3d
00000080: e2f0 963d b942 f6bc 94b2 093d 4fd6 04be
00000090: 6258 01be b690 833d a3f7 753c e4b3 b7b9
000000a0: 7326 653d 9be0 92bd dc5d 11bc 128e 8e3b
000000b0: c9ca d63d 37b2 d23c 979f 5abd 4804 c0bc
000000c0: f6a8 38bd c7fe 5cbd 89e1 693c 8eb8 fe3c
000000d0: 25ed 293d 366b 68bd f7ad 92bb 7fdc 30bc
000000e0: 8578 b1bc 18ff 5bbc bc20 093d e2a9 f03c
000000f0: c19a 743a 5a7e 6f3d 9fcb f73c 2443 9c3d

base_pointnet.bn_1.weight f4 [64]
0.78628564 1.0127915 0.97613955 0.9119157 0.91700006 1.2320348 1.0303361 0.9667122
0.8195262 0.9123555 0.9523555 0.93034726 1.0572325 0.93417305 1.1927334 0.8252985
0.9031824 0.8203392 0.8941121 0.9494318 1.065376 0.93520194 1.0656145 1.0512096
1.1029401 0.9397275 0.9639767 0.8556385 0.81639004 0.87379974 1.0206912 1.1879549
0.8076316 0.8468763 1.0978247 0.9168163 1.2023785 1.031476 0.9292037 1.0782142
1.2386336 0.7759748 0.9606946 1.0040641 0.7976104 0.9363675 1.0771652 1.1756871
0.8003994 0.9396434 1.0131547 1.1023937 0.8521173 1.1785702 0.8211785 1.1705599
1.0444611 0.7846014 0.913701 0.9474787 0.9027205 1.2401319 0.8982171 1.095654
00000000: 044a 493f 27a3 813f 48e4 793f 4f73 693f
00000010: 84c0 6a3f 51b3 9d3f 0ee2 833f 737a 773f
00000020: 78cc 513f 2190 693f 92cd 733f 3d2b 6e3f
00000030: 6553 873f f725 6f3f 7dab 983f c346 533f
00000040: f636 673f c001 523f 88e4 643f f60d 733f
00000050: 3e5e 883f 6569 6f3f 0e66 883f 098e 863f
00000060: 242d 8d3f fb91 703f 2dc7 763f 200b 5b3f
00000070: f0fe 503f 57b1 5f3f 02a6 823f e80e 983f
00000080: f2c0 4e3f e3cc 583f 8585 8c3f 79b4 6a3f
00000090: 8ae7 993f 6807 843f 4be0 6d3f ec02 8a3f
000000a0: 8c8b 9e3f 49a6 463f 15f0 753f 2c85 803f
000000b0: 3230 4c3f c8b5 6f3f 8de0 893f ea7c 963f
000000c0: fae6 4c3f 788c 703f 0eaf 813f 3d1b 8d3f
000000d0: 5c24 5a3f 63db 963f c138 523f e8d4 953f
000000e0: e7b0 853f a3db 483f 4fe8 693f f78d 723f
000000f0: b118 673f a4bc 9e3f 8ef1 653f 643e 8c3f

base_pointnet.bn_1.bias f4 [64]
0.03147812 0.300495 -0.028503139 -0.01665552 -0.16707876 -0.15363851 -0.091411225 -0.09220602
-0.015190862 -0.084650576 -0.19131306 0.01851552 -0.34562093 0.014018356 -0.20938262 -0.16702649
-0.06460532 -0.19348535 -0.21373211 0.031344675 0.07478025 -0.007633894 0.1300086 0.534431
-0.31108582 -0.007078157 0.103060625 -0.07132626 -0.07026351 0.20869774 -0.0013760179 -0.24106047
-0.25039878 -0.20873673 0.027756931 -0.06918867 0.055828806 -0.3141748 0.010478269 -0.09257649
0.21084991 -0.08102499 -0.076386265 0.15418693 -0.16328633 -0.12809123 -0.11468669 -0.2821617
-0.33746934 0.025689121 -0.30560395 -0.21805313 -0.11850603 0.13927749 0.0062922128 0.027113786
0.0667159 -0.04846511 -0.12231482 -0.05912011 -0.071843 -0.091733426 -0.030834276 -0.001057373
00000000: 33ef 003d 7bda 993e 6a7f e9bc 2871 88bc
00000010: b216 2bbe 6a53 1dbe cf35 bbbd 83d6 bcbd
00000020: 18e3 78bc 485d adbd 92e7 43be dcad 973c
00000030: 3af5 b0be 3fad 653c 6668 56be fe08 2bbe
00000040: cb4f 84bd 0621 46be 97dc 5abe 4663 003d
00000050: 6326 993d bf25 fabb f920 053e 78d0 083f
00000060: a446 9fbe e2ef e7bb 7311 d33d 8113 92bd
00000070: 51e6 8fbd dcb4 553e 805b b4ba 8ed8 76be
00000080: 4534 80be 15bf 55be 8162 e33c cab2 8dbd
00000090: bfac 643d 85db a0be 0cad 2b3c be98 bdbd
000000a0: 0ae9 573e 6ef0 a5bd 6770 9cbd 2ee3 1d3e
000000b0: 8834 27be 592a 03be dbe0 eabd 8077 90be
000000c0: c8c8 acbe fe71 d23c 1f78 9cbe 5249 5fbe
000000d0: 4ab3 f2bd c29e 0e3e e82e ce3b bb1d de3c
000000e0: 59a2 883d 5a83 46bd 3180 fabd ee27 72bd
000000f0: 6c22 93bd bcde bbbd 2a98 fcbc 8d97 8aba

base_pointnet.bn_1.running_mean f4 [64]
26.200233 0.29654607 -4.8885436 36.789043 -3.6295717 -0.49748042 0.40278596 4.3643203
-17.68659 -3.8569124 4.8416796 5.481946 -2.1635575 -40.255283 -1.536846 23.859476
7.7354126 43.957638 -9.746438 5.124251 1.7909318 34.6461 -0.72334373 2.4792323
-0.8004876 -13.415508 5.722397 28.659887 -9.305619 4.7640576 1.7290962 -2.4617097
-13.538083 4.5911436 0.50979006 19.488216 -3.0610235 -2.796507 4.0054817 -2.277198
-0.9677745 -46.88073 -8.782824 -4.6321335 -31.618288 2.036697 0.39350146 -0.17484447
28.373434 3.7622313 -4.652074 -2.2328916 29.151966 1.5534319 7.990989 -0.6733342
-2.2200873 10.480215 10.392441 -4.137661 44.36108 -1.129298 18.497078 -0.8351999
00000000: 149a d141 e3d4 973e f36e 9cc0 fb27 1342
00000010: e74a 68c0 c1b5 febe f639 ce3e 83a8 8b40
00000020: 237e 8dc1 a7d7 76c0 0aef 9a40 1a6c af40
00000030: ba77 0ac0 6905 21c2 5fb7 c4bf 35e0 be41
00000040: 8088 f740 9fd4 2f42 69f1 1bc1 ddf9 a340
00000050: 413d e53f 9b95 0a42 0e2d 39bf beab 1e40
00000060: c1ec 4cbf eca5 56c1 e01d b740 7347 e541
00000070: d1e3 14c1 2973 9840 0653 dd3f a78c 1dc0
00000080: fd9b 58c1 a6ea 9240 9a81 023f dee7 9b41
00000090: cfe7 43c0 f8f9 32c0 e82c 8040 9dbd 11c0
000000a0: 12c0 77bf de85 3bc2 7286 0cc1 703a 94c0
000000b0: 41f2 fcc1 3e59 0240 0679 c93e 6e0a 33be
000000c0: cbfc e241 66c8 7040 cadd 94c0 b2e7 0ec0
000000d0: 3a37 e941 dbd6 c63f 2fb6 ff40 a15f 2cbf
000000e0: e915 0ec0 f6ae 2741 7047 2641 b867 84c0
000000f0: bf71 3142 d68c 90bf 04fa 9341 a9cf 55bf

base_pointnet.bn_1.running_var f4 [64]
163.57202 7.2262 48.87554 287.86554 3.561052 53.21009 64.01905 43.303585
65.81309 11.342936 85.08029 55.119347 11.139085 333.86337 12.254251 121.44441
30.967472 387.44647 34.921608 96.20117 27.332989 261.21863 6.278546 40.239933
1.5946325 139.70993 13.853406 173.99313 31.715078 103.536896 66.29327 30.191494
86.79828 87.90864 51.50038 108.93788 23.690525 22.863728 60.7822 20.00588
67.76885 406.04102 150.60448 63.451767 231.25172 41.550602 64.67136 43.026703
191.35023 40.417206 22.214828 89.74907 177.7108 38.035347 71.027336 10.705613
59.385708 56.383606 27.707884 20.279444 400.79605 22.037777 91.528725 57.62641
00000000: 7092 2343 083d e740 8e80 4342 caee 8f43
00000010: 47e8 6340 22d7 5442 c109 8042 df36 2d42
00000020: 4da0 8342 aa7c 3541 1c29 aa42 367a 5c42
00000030: b139 3241 83ee a643 6911 4441 8ae3 f242
00000040: 62bd f741 26b9 c143 baaf 0b42 0067 c042
00000050: f6a9 da41 fc9b 8243 d9e9 c840 b1f5 2042
00000060: eb1c cc3f beb5 0b43 8da7 5d41 3efe 2d43
00000070: 7bb8 fd41 e412 cf42 2796 8442 2e88 f141
00000080: b898 ad42 39d1 af42 6400 4e42 32e0 d942
00000090: 3286 bd41 eae8 b641 f920 7342 0b0c a041
000000a0: a789 8742 4005 cb43 bf9a 1643 9cce 7d42
000000b0: 7140 6743 d133 2642 bc57 8142 581b 2c42
000000c0: a959 3f43 38ab 2142 f8b7 b141 867f b342
000000d0: f7b5 3143 3224 1842 ff0d 8e42 314a 2b41
000000e0: f78a 6d42 d088 6142 bfa9 dd41 4d3c a241
000000f0: e565 c843 5e4d b041 b50e b742 7281 6642

base_pointnet.bn_2.weight f4 [64]
1.6294832 1.6518288 1.6540054 1.7532804 1.7314956 1.8030252 1.6237572 1.7414312
1.5511347 1.5741211 1.413054 1.6735542 1.6450626 1.4110621 1.4184251 1.6026325
1.5342038 2.0067198 1.5202342 2.3276584 1.4547503 1.5080702 1.5121224 1.488259
1.3668369 2.0469072 1.4457489 1.6695483 1.7115401 2.0479653 1.5619624 1.6739988
1.4676818 1.7449416 1.7778692 1.7411802 1.4097998 1.5729237 1.4546417 1.582025
1.5299845 1.6251101 1.5298051 1.8620057 1.7273794 1.3430083 2.1440213 1.6782503
1.7599733 1.4441867 1.7562279 2.1922615 1.5489739 1.7615379 1.7192068 1.6177481
1.7255042 1.4701287 1.8341037 2.075576 1.4480228 2.1387463 1.7860626 1.7265481
00000000: e892 d03f 206f d33f 73b6 d33f 7e6b e03f
00000010: a6a1 dd3f 88c9 e63f 47d7 cf3f 38e7 de3f
00000020: 958b c63f cd7c c93f f4de b43f 0637 d63f
00000030: 6991 d23f af9d b43f f48e b53f 1023 cd3f
00000040: ca60 c43f 196e 0040 0997 c23f 5bf8 1440
00000050: 4235 ba3f 7208 c13f 3a8d c13f 457f be3f
00000060: 83f4 ae3f 8700 0340 4d0e b93f c2b3 d53f
00000070: bf13 db3f dd11 0340 62ee c73f 9845 d63f
00000080: ffdc bb3f 3f5a df3f 3891 e33f fede de3f
00000090: 5274 b43f 9055 c93f b331 ba3f cc7f ca3f
000000a0: 88d6 c33f 9c03 d03f a7d0 c33f 3456 ee3f
000000b0: c51a dd3f b2e7 ab3f a537 0940 e8d0 d63f
000000c0: ce46 e13f 1cdb b83f 13cc e03f 034e 0c40
000000d0: c744 c63f 137a e13f f80e dc3f 5f12 cf3f
000000e0: 52dd dc3f 2d2d bc3f e9c3 ea3f 3dd6 0440
000000f0: d058 b93f 38e1 0840 b39d e43f 87ff dc3f

base_pointnet.bn_2.bias f4 [64]
-0.0036615252 0.21156225 0.25307992 0.2924641 0.14769647 0.32568565 -0.026674664 -0.39706576
0.045171063 0.17794473 0.015429082 0.12315633 0.047738176 0.13350542 0.14784424 0.21818163
0.03224124 -0.18508579 0.09936852 -0.5027713 0.21618956 0.17474173 0.13675062 0.18390259
0.24011803 -0.18350904 0.18990386 0.061804056 0.0622156 -0.21513854 0.018266313 -0.09045796
0.15753461 0.004860899 -0.042211045 0.010329956 0.13474572 0.14012356 0.19453302 0.19163734
-0.0078043886 0.18012051 0.24529617 -0.06956771 -0.045143027 0.15328859 -0.2294843 -0.14211972
0.46441284 0.2769392 0.18966396 0.30165896 0.20988111 -0.12449746 0.0670426 0.0462231
0.07642115 0.17707145 0.024987184 -0.2717683 0.12530474 -0.2584294 0.37512138 -0.012635134
00000000: 33f6 6fbb c6a3 583e b193 813e dbbd 953e
00000010: be3d 173e 45c0 a63e d384 dabc 344c cbbe
00000020: 4b05 393d 2537 363e 43ca 7c3c 6339 fc3d
00000030: 1b89 433d a5b5 083e 7b64 173e 016b 5f3e
00000040: 640f 043d 2187 3dbe b981 cb3d 9fb5 00bf
00000050: cc60 5d3e 7fef 323e 5b08 0c3e f650 3c3e
00000060: 80e1 753e cbe9 3bbe 2876 423e 4026 7d3d
00000070: c9d5 7e3d 474d 5cbe 3ca3 953c 0642 b9bd
00000080: c150 213e 2d48 9f3b 7de5 2cbd fa3e 293c
00000090: c8fa 093e 8d7c 0f3e aa33 473e 943c 443e
000000a0: f5bb ffbb 8371 383e eb2e 7b3e 8479 8ebd
000000b0: e5e7 38bd aff7 1c3e effd 6abe d587 11be
000000c0: 85c7 ed3e faca 8d3e 4537 423e 0b73 9a3e
000000d0: 13eb 563e 86f8 febd a14d 893d 6f54 3d3d
000000e0: b182 9c3d 3852 353e ecb1 cc3c 3725 8bbe
000000f0: e34f 003e dc50 84be e90f c03e 9803 4fbc

base_pointnet.bn_2.running_mean f4 [64]
0.011690083 -0.14946587 -0.06594837 -0.14482784 -0.20061907 -0.08870942 -0.28386822 0.041668996
-0.07385072 -0.049577814 0.07262282 0.055916406 -0.030193802 -0.026027352 -0.13995002 -0.38778248
0.025795277 -0.06983232 -0.0020592348 0.12721664 -0.20413515 -0.48459357 0.017509833 -0.14598227
-0.18481983 -0.09163757 0.04702837 0.047633324 0.03963849 -0.062064674 0.13692015 0.19499312
0.007982745 0.03371526 -0.1057825 -0.0525276 -0.079950914 -0.16753429 -0.024251241 -0.22972544
-0.09191543 -0.1623045 -0.09186455 0.08836491 -0.335474 0.03647793 -0.17132118 0.06515253
-0.36351776 -0.13136093 -0.43695015 -0.086101644 0.05486616 -0.049456365 0.035694174 -0.17309634
0.06770695 -0.18828084 0.20599784 -0.07959378 -0.20814376 -0.019700475 -0.086279385 0.18097036
00000000: c387 3f3c 950d 19be f00f 87bd c04d 14be
00000010: 166f 4dbe 49ad b5bd 2d57 91be 1cad 2a3d
00000020: 0c3f 97bd 1b12 4bbd 46bb 943d 9a08 653d
00000030: fe58 f7bc 5037 d5bc 0f4f 0fbe 6d8b c6be
00000040: 9e50 d33c 3f04 8fbd 3af4 06bb 1445 023e
00000050: ce08 51be a61c f8be c870 8f3c 607c 15be
00000060: 6941 3dbe 7aac bbbd d2a0 403d 291b 433d
00000070: f85b 223d 8737 7ebd cc34 0c3e 47ac 473e
00000080: 0fca 023c 0319 0a3d 7fa4 d8bd 2e27 57bd
00000090: 4ebd a3bd 1c8e 2bbe 8aaa c6bc 253d 6bbe
000000a0: 283e bcbd 2733 26be 7b23 bcbd a9f8 b43d
000000b0: 40c3 abbe e269 153d d26e 2fbe b16e 853d
000000c0: 001f babe 7b83 06be eeb7 dfbe 0f56 b0bd
000000d0: 57bb 603d c292 4abd 0e34 123d 2b40 31be
000000e0: f1a9 8a3d b1cc 40be 19f1 523e 1002 a3bd
000000f0: a323 55be e462 a1bc 3fb3 b0bd 4b50 393e

base_pointnet.bn_2.running_var f4 [64]
0.037627604 0.08861338 0.042554937 0.038279966 0.07923725 0.041964974 0.056393508 0.008212283
0.03691855 0.097876914 0.05675016 0.017611973 0.025509369 0.033005647 0.040550727 0.10188167
0.05523828 0.020306703 0.048175026 0.011259398 0.20783004 0.05536935 0.039532058 0.0392501
0.03160558 0.015374872 0.03752932 0.045318402 0.03336093 0.03344767 0.029977808 0.028170452
0.036080956 0.016321566 0.02961087 0.016866809 0.03626322 0.030384041 0.058599785 0.05391074
0.05051713 0.03298432 0.049198754 0.011818053 0.045917667 0.09803652 0.013877734 0.013329683
0.09286723 0.082051784 0.08269212 0.017116725 0.017577952 0.021928165 0.03160319 0.058675706
0.024690868 0.06372542 0.03172331 0.024842458 0.11633472 0.015871244 0.02628079 0.016972436
00000000: 671f 1a3d ef7a b53d 164e 2e3d 74cb 1c3d
00000010: 2447 a23d 77e3 2b3d e1fc 663d d08c 063c
00000020: e837 173d b173 c83d db72 683d fc46 903c
00000030: 06f9 d03c ee30 073d 8518 263d 56a7 d03d
00000040: 8941 623d 3e5a a63c 2d53 453d 5779 383c
00000050: 66d1 543e f9ca 623d 5eec 213d b6c4 203d
00000060: da74 013d e3e6 7b3c 58b8 193d ca9f 393d
00000070: 78a5 083d 6d00 093d 0594 f53c b8c5 e63c
00000080: a0c9 133d ceb4 853c 7f92 f23c 432c 8a3c
00000090: be88 143d f4e7 f83c 5406 703d 82d1 5c3d
000000a0: 0deb 4e3d 911a 073d a284 493d 82a0 413c
000000b0: 2a14 3c3d 5fc7 c83d 6f5f 633c be64 5a3c
000000c0: 2d31 be3d c40a a83d 7c5a a93d 6038 8c3c
000000d0: a3ff 8f3c b2a2 b33c 5972 013d f055 703d
000000e0: 8144 ca3c 7982 823d 4df0 013d 6982 cb3c
000000f0: e640 ee3d 6904 823c d04a d73c c709 8b3c

fc_1.weight f4 [64, 66]
-0.04388199 -0.02839363 -0.06604501 0.06110138 -0.055824522 0.057471517 -0.035707485 0.098235585
0.069226146 -0.089824416 -0.131482 -0.04914026 -0.009625936 0.018843787 -0.09217369 -0.012224658
-0.11552543 -0.029719563 -0.03383996 0.1123687 -0.061554465 -0.006508152 0.04051567 -0.042096414
-0.018808143 0.050824337 0.1043297 0.029109687 -0.1314835 -0.11660254 -0.006245335 0.04630383
0.101767965 -0.12765141 -0.12860751 -0.12120302 0.10967324 0.08982786 0.06829652 -0.041505925
0.10915603 -0.05156541 0.059074152 0.0045381743 -0.10822823 -0.11779348 0.03844698 -0.12303759
0.07803777 0.0029623876 0.061101574 -0.010822999 0.07591159 -0.12856552 -0.022151137 0.064676784
0.08671515 -0.007193083 -0.04611957 -0.10773483 -0.12088405 -0.08822829 0.06774229 -0.1081829
-0.0276945 0.09850875 0.20700589 0.15928046 -0.03546328 0.019340638 -0.07897766 -0.08864915
0.040582098 -0.023844162 -0.11567942 0.18933195 -0.014786854 -0.15958539 -0.0008488218 -0.08918043
-0.07313844 -0.09517602 -0.122806266 -0.17863494 -0.24009274 -0.1756925 -0.062216673 -0.12084182
-0.079720944 -0.10458571 -0.117206834 -0.09633269 -0.12339796 -0.22697851 -0.009512951 -0.25394973
0.017300572 -0.16211003 -0.17400134 0.01091494 -0.25111875 0.19009653 -0.14129524 -0.044167083
-0.19076096 -0.08083772 0.13414289 -0.20091309 -0.24975024 -0.024567164 0.07926028 0.027537873
0.019163696 -0.20546794 0.0018547771 0.0792282 -0.03909471 -0.08319421 -0.16948277 -0.18106933
-0.06342264 -0.0016904653 -0.15076476 -0.18594813 -0.10860502 -0.19564593 0.042085767 -0.17700727
-0.046720777 -0.13085383 -0.2537924 -0.100102864 0.20505457 0.5590557 -0.29251805 -0.098281026
-0.22907493 -0.21928233 -0.106583446 -0.24870995 -0.25861165 0.17792603 -0.04312368 -0.1647717
-0.058818817 -0.093529396 -0.27693924 0.16839814 -0.16294268 -0.20862755 -0.011240011 -0.11382542
-0.22555986 -0.089628816 -0.2757835 -0.2260614 -0.25992236 -0.36864752 -0.09088588 -0.07846712
-0.2692054 -0.2931825 -0.08947591 -0.2732748 -0.09715665 -0.15673842 -0.1641903 -0.0658982
-0.14907824 0.16233055 -0.0254914 -0.18454452 0.03488974 -0.25669238 -0.08877255 -0.08137345
-0.15120743 0.02048106 -0.10422193 -0.16796748 0.21958533 0.020786202 -0.071761884 -0.09275234
-0.10802382 -0.32139543 0.11966609 0.097292505 -0.41315728 -0.12838855 -0.019877534 -0.14259535
0.060840998 -0.12884372 -0.04604606 -0.047789346 -0.32408056 -0.018841017 -0.022522539 -0.4369099
0.29845217 -0.019340156 0.350563 0.10557264 0.15463239 0.2779291 0.2924671 -0.04098185
0.082722194 0.3792938 0.14301206 0.4557338 0.18109415 0.20229335 0.21184227 0.2682842
0.10352456 0.26020345 0.13913 0.22189479 0.13796474 0.14543307 0.32776207 0.36443117
0.17165563 0.13766316 0.37527204 0.3255294 0.09477021 0.31243956 0.19845851 0.37980467
0.20034547 0.29360628 0.07606677 0.077766255 0.44229758 0.337935 0.029191991 0.2873167
0.09750832 0.24899316 0.026178302 0.26526093 0.021877296 0.40145904 -0.28486782 0.11678827
-0.0134839555 0.2297605 0.16489922 0.084118195 0.05331354 -0.063186735 0.17402624 0.2942498
00000000: 9abd 33bd c299 e8bc 9b42 87bd 7145 7a3d
00000010: 41a8 64bd 4167 6b3d 0342 12bd bd2f c93d
00000020: 70c6 8d3d ddf5 b7bd 38a3 06be 4c47 49bd
00000030: 1ab6 1dbc 495e 9a3c 8fc5 bcbd ef49 48bc
00000040: 9998 ecbd 7176 f3bc c59b 0abd 9021 e63d
00000050: 8920 7cbd 5642 d5bb c2f3 253d 4a6d 2cbd
00000060: 8913 9abc 2e2d 503d cfaa d53d 7077 ee3c
00000070: 9ca3 06be 50cd eebd aba5 ccbb 16a9 3d3d
00000080: b96b d03d 0db7 02be b0b1 03be 4a39 f8bd
00000090: 5d9c e03d abf7 b73d 0cdf 8b3d 1e02 2abd
000000a0: 328d df3d 4036 53bd bdf7 713d f7b4 943b
000000b0: c3a6 ddbd b53d f1bd 957a 1d3d 22fb fbbd
000000c0: 44d2 9f3d 9e24 423b a545 7a3d f352 31bc
000000d0: 8977 9b3d aea6 03be 4d76 b5bc 4375 843d
000000e0: b697 b13d f4b3 ebbb e0e7 3cbd 14a4 dcbd
000000f0: 0f92 f7bd 09b1 b4bd 78bc 8a3d ff8e ddbd
00000100: 93df e2bc f5be c93d 5af9 533e 6b1a 233e
00000110: f241 11bd 4270 9e3c 0abf a1bd b08d b5bd
00000120: 6a39 263d d554 c3bc 55e9 ecbd 3ce0 413e
00000130: 9044 72bc 5a6a 23be 7783 5eba 3ba4 b6bd
00000140: 9bc9 95bd a5eb c2bd da81 fbbd 14ec 36be
00000150: dfda 75be bce8 33be e9d6 7ebd eb7b f7bd
00000160: bc44 a3bd 0831 d6bd 230a f0bd 134a c5bd
00000170: 12b8 fcbd 0e6d 68be 35dc 1bbc b305 82be
00000180: eeb9 8d3c 2c00 26be 682d 32be 94d4 323c
00000190: a392 80be aaa8 423e b3af 10be 8be8 34bd
000001a0: d756 43be 3f8e a5bd c15c 093e 29bc 4dbe
000001b0: 87be 7fbe 1441 c9bc 3753 a23d 1b97 e13c
000001c0: 2ffd 9c3c 3066 52be fe1b f33a 6542 a23d
000001d0: c621 20bd ba61 aabd e48c 2dbe 3d6a 39be
000001e0: bbe3 81bd 9a92 ddba 1462 1abe 3069 3ebe
000001f0: 4f6c debd 6857 48be 2062 2c3d 6541 35be
00000200: 495e 3fbd 8cfe 05be 14f1 81be bb02 cdbd
00000210: d3f9 513e 461e 0f3f edc4 95be 9047 c9bd
00000220: 9e92 6abe 8c8b 60be 6c48 dabd d2ad 7ebe
00000230: bf68 84be 3e32 363e 75a2 30bd eab9 28be
00000240: 00ec 70bd 578c bfbd fbca 8dbe 9070 2c3e
00000250: 72da 26be 76a2 55be 0628 38bc 4d1d e9bd
00000260: 2af9 66be 508f b7bd 7f33 8dbe a47c 67be
00000270: 8b14 85be 5ebf bcbe 6022 babd 5fb3 a0bd
00000280: 4ad5 89be 041c 96be 253f b7bd adea 8bbe
00000290: 11fa c6bd 0980 20be 8121 28be a3f5 86bd
000002a0: f7a7 18be fb39 263e 57d3 d0bc 3df9 3cbe
000002b0: 8be8 0e3d 2f6d 83be 62ce b5bd 20a7 a6bd
000002c0: 1fd6 1abe e5c7 a73c 4f72 d5bd abff 2bbe
000002d0: fada 603e d347 aa3c e5f7 92bd f0f4 bdbd
000002e0: 983b ddbd f18d a4be 7f13 f53d 4b41 c73d
000002f0: 5a89 d3be 4a78 03be 36d6 a2bc 8404 12be
00000300: 6934 793d 9cef 03be cb9a 3cbd c3be 43bd
00000310: e3ed a5be 7a58 9abc 3081 b8bc a8b2 dfbe
00000320: b9ce 983e 3f6f 9ebc fe7c b33e 7836 d83d
00000330: f457 1e3e b94c 8e3e 3fbe 953e 96dc 27bd
00000340: 416a a93d cc32 c23e c171 123e f155 e93e
00000350: bf70 393e fd25 4f3e 2eed 583e 8c5c 893e
00000360: af04 d43d 6339 853e 1878 0e3e 6338 633e
00000370: a146 0d3e 68ec 143e 6ed0 a73e b996 ba3e
00000380: 7ec6 2f3e 92f7 0c3e a823 c03e caab a63e
00000390: e216 c23d 14f8 9f3e b538 4b3e c275 c23e
000003a0: 5d27 4d3e 9053 963e e5c8 9b3d ea43 9f3d
000003b0: d474 e23e d105 ad3e 0b24 ef3c 2d1b 933e
000003c0: 71b2 c73d 10f8 7e3e e173 d63c 48d0 873e
000003d0: 0438 b33c 0a8c cd3e 32da 91be b02e ef3d
000003e0: cfeb 5cbc 5646 6b3e 57db 283e 2946 ac3d
000003f0: 4c5f 5a3d 0c68 81bd ef33 323e e9a7 963e

fc_1.bias f4 [64]
0.04475234 -0.17587288 -0.008669631 0.21280375 -0.0760928 0.23333915 0.081130795 -0.077437796
-0.094113484 0.036172863 -0.102905124 0.14794916 0.015204333 0.0034072506 -0.012998168 -0.1099613
0.39812842 0.31343034 0.018561758 0.0049740365 -0.07823338 -0.07520944 0.08135554 0.043192063
0.019197715 0.05641878 -0.0494027 -0.052873667 -0.01464588 -0.10922182 0.42097265 0.15185682
-0.10694858 0.05307951 -0.042374168 0.12101052 -0.062445685 0.08325351 -0.12030021 -0.13932848
-0.014530145 0.17441985 -0.09974969 0.14461558 0.04120631 0.0792675 -0.3587366 0.091690846
-0.03178437 -0.02700692 -0.026414255 -0.07189826 -0.07677811 -0.0677727 0.07454199 -0.0023443594
-0.063335076 -0.09664697 0.046938993 0.10799894 0.08162883 -0.025428073 -0.028162988 -0.065541565
00000000: 3b4e 373d 0518 34be 110b 0ebc 3ae9 593e
00000010: 8bd6 9bbd 75f0 6e3e e727 a63d b597 9ebd
00000020: 92be c0bd ff29 143d ecbf d2bd fc7f 173e
00000030: 981b 793c 2e4c 5f3b 45f6 54bc 6433 e1bd
00000040: 7dd7 cb3e f179 a03e d40e 983c 3efd a23b
00000050: d338 a0bd 6807 9abd bc9d a63d 29ea 303d
00000060: 8744 9d3c 6117 673d 7c5a 4abd 0f92 58bd
00000070: 46f5 6fbc b1af dfbd ba89 d73e 5b80 1b3e
00000080: db07 dbbd e669 593d 8990 2dbd 5dd4 f73d
00000090: 0cc7 7fbd d180 aa3d f55f f6bd 20ac 0ebe
000000a0: d80f 6ebc 1e9b 323e 9149 ccbd 1b16 143e
000000b0: f3c7 283d 0057 a23d 53ac b7be 69c8 bb3d
000000c0: 5430 02bd 9e3d ddbc b562 d8bc 653f 93bd
000000d0: d73d 9dbd 6acc 8abd 79a9 983d d3a3 19bb
000000e0: d2b5 81bd d9ee c5bd 1a43 403d 8c2e dd3d
000000f0: 042d a73d 894e d0bc 11b6 e6bc a83a 86bd

fc_2.weight f4 [4, 64]
-0.11627776 0.31681654 0.3244599 -0.2626809 -0.034513697 -0.22519255 -0.0975998 -0.33603176
0.07107708 0.6150312 -0.09480338 -0.22192839 -0.1390737 -0.076148376 1.7926645 -0.07025333
2.5314205 2.0530384 -2.2199516 0.0021896393 0.19498053 1.3587153 -0.015684197 -0.0032440424
-0.037746914 1.0919136 0.124978006 0.1597814 0.12215958 -0.028855383 1.7667458 -0.42739207
-0.020191211 3.2230928 -0.02115427 0.062956765 0.2953184 0.52117735 -0.11148378 -3.758122
-0.20334262 -0.27283934 -0.043201357 -0.29086003 1.7235597 -0.10713647 -0.69395024 0.04616663
0.05293943 -0.005342614 0.07640274 0.2679108 -0.0013855565 0.08912976 -0.5306538 0.6187085
0.5117523 -0.22384784 0.007848516 -0.049926866 -0.21750997 -0.03378949 0.10920948 -0.19861273
-0.04666059 -0.0343176 0.27105534 -0.22980663 0.038514897 1.5005678 -0.091166 1.0911593
0.08435123 -2.1217308 0.102792636 0.19425286 -0.13798904 0.062743336 2.025307 -0.03258283
-1.9363631 -2.3863895 1.554552 0.09611737 -0.18346341 2.2612348 0.025358064 -0.009304464
-0.069172636 -1.8739892 0.084037945 0.4606058 -1.648908 -0.03919679 0.2881337 0.9850147
0.09270042 -0.8658355 -0.11160453 0.097391844 0.06378213 -2.4941435 0.049092263 2.6711555
-0.1715917 0.0957283 -0.11039977 0.6838144 -1.429008 -0.061004788 0.5790482 0.1142223
-0.005438879 0.03337406 0.094941616 -0.9473215 0.08115677 -0.1949491 0.1192086 -1.6262127
-4.3018203 0.14404556 0.079407126 1.1515974 0.3349613 -0.5637146 0.089871705 -0.18049891
-0.03899284 -0.4508484 -0.49873066 0.36428812 0.06561814 -3.6246243 -0.09621519 -0.49265814
0.098888084 -0.32975242 -0.042043924 0.008142366 0.14439844 0.0047367364 -2.5684333 -0.12170013
1.1513323 0.55400544 0.109002836 0.09859142 -0.4543275 -0.06561238 0.0064469134 -0.030451298
-0.07130462 1.5732564 -0.118849665 -0.41284618 0.5784542 0.11676887 -2.7890344 -2.5911505
0.0962068 -4.3059916 -0.014399812 -0.03858322 -0.44834906 0.4148105 -0.09933348 2.9678106
0.9953254 0.17164832 -0.07078378 1.05864 1.1262434 0.02984874 0.6478096 0.05354677
0.04225053 -0.057628233 0.061140522 -0.085863106 -0.043173477 0.008237771 0.35607558 -0.17000021
3.1591833 -0.14255136 -0.101227105 -2.6582391 -0.22735538 1.2984552 -0.07850534 0.14058666
0.046971694 0.031860456 -0.043157924 -0.13175698 -0.011178374 2.0545235 -0.10201648 1.1567019
-0.07591915 0.59838116 -0.015350729 -0.00859245 0.0019240144 -0.05017452 -1.1508185 0.21521072
-2.5947878 -1.7904589 1.4021903 0.023991812 0.08602798 -1.8478096 0.08653534 -0.06901272
0.027423954 -1.0718063 0.01914972 0.00092943065 0.6768271 -0.1137203 -2.4732673 1.7177529
0.11820118 0.4558734 0.012379125 0.06857474 0.17152181 0.4600356 0.111125395 1.8321173
-0.88242686 -0.0148183275 0.09708318 -1.5780131 -1.8218092 -0.068037644 -0.6235016 0.013856202
0.119818226 -0.073383346 -0.100527346 0.33452073 -0.03730166 0.19360572 -0.28741375 0.5436247
1.0669583 0.2286256 -0.021220997 1.836945 0.036312673 -0.461485 0.12164372 0.17003226
00000000: 0923 eebd c735 a23e 9c1f a63e 1c7e 86be
00000010: 3c5e 0dbd e098 66be 67e2 c7bd 5b0c acbe
00000020: dc90 913d af72 1d3f 4628 c2bd 3241 63be
00000030: 5669 0ebe aef3 9bbd 0876 e53f fae0 8fbd
00000040: cb02 2240 fb64 0340 b013 0ec0 0d80 0f3b
00000050: faa8 473e 62ea ad3f 257c 80bc 009a 54bb
00000060: 829c 1abd d3c3 8b3f 78f4 ff3d bc9d 233e
00000070: cd2e fa3d 2062 ecbc ba24 e23f 22d3 dabe
00000080: 0a68 a5bc 2747 4e40 b84b adbc 7aef 803d
00000090: f933 973e e16b 053f 9c51 e4bd 1285 70c0
000000a0: 0c39 50be 99b1 8bbe e8f3 30bd 9beb 94be
000000b0: 9b9d dc3f 5e6a dbbd b9a6 31bf 3819 3d3d
000000c0: 04d7 583d 1811 afbb 0a79 9c3d 9b2b 893e
000000d0: 909b b5ba aa89 b63d edd8 07bf ae63 1e3f
000000e0: 3302 033f 5e38 65be 1097 003c 1d80 4cbd
000000f0: efba 5ebe d966 0abd 38a9 df3d 2361 4bbe
00000100: 2d1f 3fbd 9d90 0cbd c4c7 8a3e 6e52 6bbe
00000110: ccc1 1d3d 9b12 c03f 3db5 babd 1cab 8b3f
00000120: 56c0 ac3d 70ca 07c0 f284 d23d 39ea 463e
00000130: 004d 0dbe 947f 803d a19e 0140 9375 05bd
00000140: bfda f7bf 9bba 18c0 8ffb c63f 2fd9 c43d
00000150: d5dd 3bbe 12b8 1040 b7bb cf3c c071 18bc
00000160: 62aa 8dbd e1de efbf 161c ac3d 86d4 eb3e
00000170: 6b0f d3bf d08c 20bd 4386 933e ec29 7c3f
00000180: b8d9 bd3d 65a7 5dbf ea90 e4bd 6075 c73d
00000190: 35a0 823d 0ca0 1fc0 f814 493d 36f4 2a40
000001a0: bcb5 2fbe 330d c43d 4619 e2bd 760e 2f3f
000001b0: bce9 b6bf 28e0 79bd 813c 143f 62ed e93d
000001c0: a038 b2bb 3db3 083d c070 c23d a983 72bf
000001d0: 8535 a63d bda0 47be a323 f43d bd27 d0bf
000001e0: 83a8 89c0 ae80 133e 34a0 a23d 8b67 933f
000001f0: 0c80 ab3e 9a4f 10bf a80e b83d b5d4 38be
00000200: f5b6 1fbd 9ad5 e6be a059 ffbe f983 ba3e
00000210: ce62 863d d8f9 67c0 780c c5bd b03d fcbe
00000220: d685 ca3d 4fd5 a8be 4036 2cbd 8f67 053c
00000230: 2fdd 133e a036 9b3b 3661 24c0 eb3d f9bd
00000240: db5e 933f 4dd3 0d3f e13c df3d 4cea c93d
00000250: 9d9d e8be c95f 86bd a140 d33b 0075 f9bc
00000260: 2808 92bd 7760 c93f 7467 f3bd 9360 d3be
00000270: 9315 143f 8424 ef3d 8a7f 32c0 69d5 25c0
00000280: 1208 c53d afca 89c0 30ed 6bbc 7009 1ebd
00000290: 028e e5be 0b62 d43e 5a6f cbbd 9cf0 3d40
000002a0: a5cd 7e3f 94c4 2f3e 16f7 90bd 8481 873f
000002b0: be28 903f 5885 f43c dad6 253f dc53 5b3d
000002c0: e40e 2d3d 950b 6cbd 7c6e 7a3d ffd8 afbd
000002d0: acd6 30bd b7f7 063c 8a4f b63e 8914 2ebe
000002e0: 0f30 4a40 fcf8 11be 2850 cfbd 9720 2ac0
000002f0: d9cf 68be c833 a63f 68c7 a0bd f3f5 0f3e
00000300: 6465 403d 1c80 023d 5dc6 30bd 4deb 06be
00000310: 8025 37bc 507d 0340 04ee d0bd cf0e 943f
00000320: 807b 9bbd 822f 193f a081 7bbc 59c7 0cbc
00000330: 362f fc3a cc83 4dbd 054e 93bf 3360 5c3e
00000340: 0111 26c0 c22d e5bf f97a b33f 7a8a c43c
00000350: 702f b03d 0685 ecbf 7139 b13d 8a56 8dbd
00000360: 33a8 e03c f330 89bf e0df 9c3c 09a5 733a
00000370: 8a44 2d3f 30e6 e8bd 034a 1ec0 54df db3f
00000380: 7613 f23d 3d68 e93e d0d1 4a3c ea70 8c3d
00000390: 6aa3 2f3e c989 eb3e b695 e33d d282 ea3f
000003a0: bae6 61bf 92c8 72bc 8cd3 c63d 55fc c9bf
000003b0: 0b31 e9bf 5257 8bbd cd9d 1fbf 2005 633c
000003c0: 4263 f53d 024a 96bd 48e1 cdbd 4d46 ab3e
000003d0: a0c9 18bd 9440 463e e527 93be fd2a 0b3f
000003e0: 1792 883f d41c 6a3e a8d7 adbc 0421 eb3f
000003f0: 99bc 143d c347 ecbe 5820 f93d f01c 2e3e

fc_2.bias f4 [4]
-0.11761937 -0.029041287 0.15710644 -0.07003785
00000000: 6de2 f0bd fee7 edbc 83e0 203e 0170 8fbd
