Mindset augmented trained networks (pth)/segmentation_pointnet_d05s05newf02SchedulerEarlyStop.pth (torch, 79570 bytes, 18 tensors)

base_pointnet.conv_1_a.weight f4 [64, 1, 3]
0	0x3ef38ab2	0.47566754
1	0x3d0da0a2	0.03457702
2	0x3e232c1e	0.15934798
3	0x3e1dac8d	0.15397854
4	0x3e2caeaf	0.16863512
5	0xbe97e2a9	-0.29665115
6	0xbd6e8140	-0.05822873
7	0x3e17e675	0.14834006
8	0xbea8e097	-0.32983848
9	0x3e87d1aa	0.26527148
10	0xbe92002d	-0.2851576
11	0x3eefb485	0.46817413
12	0xbe6943e7	-0.22779809
13	0xbc9acb25	-0.018895695
14	0xbc92de42	-0.017928246
15	0xbf109bfe	-0.56488025
16	0xbdfbee28	-0.12301284
17	0xbe8996fe	-0.2687301
18	0xbdaf267a	-0.08552261
19	0xbe8496d6	-0.2589633
20	0x3e2b527b	0.16730683
21	0xbf0cddb3	-0.55025786
22	0x3e9d248a	0.3069194
23	0x3db7c3a6	0.08972864
24	0xbe4ac1b0	-0.19800448
25	0x3e5d7fac	0.21630734
26	0xbe195e18	-0.149773
27	0xbde40818	-0.11134356
28	0x3dd9a9f6	0.106281206
29	0xbd6bc6a7	-0.057562497
30	0xbde17843	-0.11009266
31	0xbf0ee375	-0.5581582
32	0x3e487085	0.19574173
33	0x3f06174d	0.52379304
34	0xbe1207ea	-0.14260831
35	0x3e77d868	0.24203646
36	0xbe75ad17	-0.2399181
37	0x3def5550	0.11686194
38	0x3e950892	0.291081
39	0x3f0bc7d3	0.5460178
40	0xbe9fb4c0	-0.3119259
41	0x3f0e0463	0.55475444
42	0xbeb16d3e	-0.34653658
43	0xbe843e92	-0.25828987
44	0xbe3d5808	-0.18490613
45	0xbeb37312	-0.3504873
46	0x3ebb7ed6	0.36620206
47	0x3d09cf56	0.033644997
48	0xbe89a015	-0.26879945
49	0xbf07bd73	-0.5302345
50	0x3f00bb8a	0.5028616
51	0xbeb08900	-0.34479523
52	0xbed5b667	-0.41740724
53	0x3e0bbfa3	0.13647322
54	0x3ede0ade	0.43367666
55	0xbedfc685	-0.43706146
56	0xbdfe9497	-0.12430685
57	0xbed9a863	-0.4251128
58	0xbd327093	-0.04356439
59	0xba00e949	-0.00049175747
60	0x3e05d63d	0.13070007
61	0x3f01e69a	0.50742495
62	0x3ece7381	0.40322497
63	0x3ed32155	0.41236368
64	0xbe78852a	-0.24269548
65	0xbe797f4d	-0.24364968
66	0xbe31288d	-0.17300625
67	0xbefce435	-0.49392858
68	0x3eb57290	0.35438967
69	0x3f01cb56	0.5070089
70	0x3ecfd55d	0.4059247
71	0xbdd71c4e	-0.105034456
72	0x3e09680b	0.13418595
73	0xbee9a0aa	-0.4563039
74	0xbdf0c14a	-0.11755617
75	0x3ec484d1	0.3838258
76	0x3e0d1a44	0.13779551
77	0xbe77e54a	-0.2420856
78	0x3e8dbcba	0.2768305
79	0x3ad36647	0.0016128503
80	0x3f0b0a96	0.5431303
81	0xbf0a58c1	-0.5404168
82	0x3eda8a51	0.42683652
83	0xbcbeb396	-0.023278993
84	0x3dcb52ea	0.09927924
85	0x3dd8a9e1	0.10579277
86	0x3ed56088	0.4167521
87	0x3e54c6c5	0.2077895
88	0xbee05577	-0.43815205
89	0xbe7eee6d	-0.2489564
90	0x3f00ece3	0.5036146
91	0x3e65e833	0.22451858
92	0x3e0264f5	0.12733825
93	0xbdf81d88	-0.12115008
94	0xba228628	-0.00061998004
95	0xbee54846	-0.44781703
96	0xbe74b2dd	-0.23896356
97	0xbeb9e226	-0.3630535
98	0xbccebdb8	-0.02523695
99	0xbea31e30	-0.3185897
100	0xbf0f1e5a	-0.5590569
101	0xbebd1bfb	-0.3693541
102	0xbed4e5f9	-0.41581705
103	0x3e1da119	0.15393485
104	0xbe8c3472	-0.27383763
105	0x3e09873c	0.13430494
106	0xbf183f83	-0.5947191
107	0xbf0885e7	-0.5332932
108	0x3ef0077a	0.46880704
109	0xbe805c28	-0.2507031
110	0xbd12bd8f	-0.03582531
111	0xbded020b	-0.11572655
112	0x3d983a4d	0.07432995
113	0xbc1149be	-0.008867679
114	0xbe88bde2	-0.2670737
115	0x3f071abd	0.52775174
116	0xbecc6345	-0.39919487
117	0x3dce5b4d	0.10076008
118	0x3e88270c	0.2659229
119	0xbe8b5805	-0.2721559
120	0xbeb6662a	-0.3562482
121	0x3e76f7a4	0.24117905
122	0x3e9f0227	0.3105633
123	0xbebc50fa	-0.3678053
124	0xbe6407f2	-0.22268656
125	0xbdc4acf3	-0.096033
126	0xbea2c119	-0.31787947
127	0xbd4baa35	-0.04972287
128	0x3e8bccb2	0.27304608
129	0x3aacf5d2	0.0013195819
130	0xbeedc5e6	-0.46440047
131	0xbf0128b1	-0.50452715
132	0xbef7047c	-0.4824561
133	0x3d953a58	0.07286519
134	0x3eb6132e	0.35561508
135	0x3e2d9295	0.16950448
136	0xbe4d4950	-0.20047498
137	0xbe1eb730	-0.15499568
138	0x3e8d4de9	0.27598503
139	0xbe40ecfe	-0.18840405
140	0xbdaada66	-0.083424374
141	0xbe50d069	-0.20392002
142	0x3ef67af2	0.48140675
143	0x3e841039	0.25793627
144	0x3da92b70	0.08260238
145	0x3ee87cbc	0.45407665
146	0x3ca466f0	0.020068616
147	0x3e398389	0.18116583
148	0xbf00dddf	-0.5033855
149	0x3ed685bf	0.41898915
150	0xbe992475	-0.29910627
151	0x3de467a5	0.11152581
152	0x3e359219	0.17731513
153	0xbee8466f	-0.45366237
154	0xbe9e18f0	-0.308784
155	0x3e19d0b0	0.15021014
156	0xbe66d65b	-0.22542708
157	0x3eb8db5a	0.36104852
158	0x3e833b49	0.25631168
159	0x3e6b711f	0.22992371
160	0xbda7ae93	-0.08187594
161	0xbe7c355b	-0.24629728
162	0xbe9917eb	-0.2990106
163	0xbe317a85	-0.17331894
164	0x3e548d2f	0.20756982
165	0xbeb1d9d3	-0.347365
166	0xbe7563f6	-0.23963913
167	0x3ee09201	0.43861392
168	0xbe8526d6	-0.26006192
169	0xbeffaf29	-0.49938324
170	0x3ea26721	0.31719306
171	0xbe7aea2e	-0.24503395
172	0x3d798e16	0.06092652
173	0x3f0750ce	0.52857673
174	0x3dacfdeb	0.084468685
175	0x3eb30465	0.3496429
176	0x3ef11b12	0.47090966
177	0x3ec78345	0.38967338
178	0x3e91702a	0.28405887
179	0xbf00945b	-0.5022637
180	0x3ebdcbce	0.37069553
181	0x3eb33f38	0.3500917
182	0xbd123036	-0.03569051
183	0x3cff17c7	0.031139268
184	0x3cc67567	0.024225904
185	0xbd059b35	-0.03261872
186	0xbea2eeee	-0.31822914
187	0xbf0ff5c9	-0.56234413
188	0xbe4155a1	-0.18880321
189	0xbc0fa38a	-0.008767018
190	0xbecdc4ad	-0.40189114
191	0x3ef798e8	0.48358846

base_pointnet.conv_1_a.bias f4 [64]
0	0x3ea47b5d	0.3212537
1	0x3f047ff3	0.51757735
2	0xbdddcbd3	-0.10829892
3	0x3e9c9f4c	0.30590284
4	0x3d7f1692	0.062277384
5	0x3e393510	0.18086648
6	0x3efdc433	0.4956375
7	0x3ee80e48	0.45323396
8	0x3ea6e886	0.32599276
9	0xbb02d316	-0.0019962243
10	0xbf0a00cd	-0.5390747
11	0xbea3fd2a	-0.32029086
12	0xbe7cba1c	-0.2468037
13	0x3c679e01	0.014136792
14	0x3ea59026	0.3233654
15	0xbed95ff2	-0.42456013
16	0x3db461d9	0.088077255
17	0xbeb2e19f	-0.3493776
18	0x3f0ddda6	0.55416334
19	0x3f0dd2fc	0.5540006
20	0xbd5b89fb	-0.053598385
21	0xbe8321c0	-0.25611687
22	0xbce0bcdc	-0.027433805
23	0x3e8216ab	0.2540792
24	0x3ecf8d46	0.4053747
25	0xbee77cd2	-0.45212418
26	0xbe9a2394	-0.3010527
27	0xbd739eb7	-0.059477534
28	0xbde3d520	-0.11124635
29	0x3e12f1fd	0.14350124
30	0xbe404ff2	-0.18780497
31	0xbec23322	-0.37929636
32	0x3e7e2a24	0.24820763
33	0x3f11e0c0	0.56983566
34	0xbcc99c00	-0.02461052
35	0x3f045dd2	0.5170566
36	0xbe0e6f82	-0.13909724
37	0xbe837821	-0.2567759
38	0xbf0b26b1	-0.54355913
39	0x3ec48eec	0.3839029
40	0x3e9a0453	0.30081424
41	0xbf019cdd	-0.5062998
42	0xbe47d604	-0.19515234
43	0x3ef282de	0.4736547
44	0xbedbce0b	-0.42930636
45	0x3f0b5ddb	0.5444009
46	0xbdafab67	-0.08577614
47	0xbe8feff1	-0.28112748
48	0x3f0ed1da	0.5578896
49	0xbebfd6eb	-0.37468657
50	0xbea3e741	-0.3201237
51	0x3a32ff0d	0.00068281667
52	0x3c91c34c	0.01779332
53	0x3ea52bd3	0.32259998
54	0xbf004747	-0.5010876
55	0xbf002e6e	-0.50070846
56	0x3e1bc47c	0.15211672
57	0xbe70ee69	-0.23528446
58	0x3ea66cf9	0.32505015
59	0x3ef53058	0.47888446
60	0x3e24aac6	0.1608077
61	0x3ea7be37	0.3276231
62	0xbb9cf406	-0.004789832
63	0x3e1aa187	0.1510068

base_pointnet.conv_1_b.weight f4 [64, 1, 3]
0	0x3e71496d	0.23563166
1	0xbe10f2b5	-0.14155085
2	0x3f2b3f15	0.6689313
3	0xbeee0a0d	-0.46492043
4	0x3ecd07f8	0.40045142
5	0x3d08e2c9	0.033419404
6	0xbc068c5e	-0.008212177
7	0x3dc1a65f	0.09455561
8	0x3ee83e8d	0.45360222
9	0xbe0b967e	-0.13631627
10	0xbeca0330	-0.39455557
11	0xbe77db4d	-0.2420475
12	0x3f2e2de2	0.6803876
13	0x3e4b451f	0.19850586
14	0xbe8ac848	-0.27105927
15	0xbd91b2d9	-0.071141906
16	0xbef729f7	-0.48274204
17	0xbef747e9	-0.4829705
18	0x3f2cd1bc	0.6750753
19	0x3e7e1fb2	0.24816778
20	0x3e886796	0.2664153
21	0x3f2c640c	0.6734016
22	0xbea1d3c4	-0.31606877
23	0x3e442594	0.1915496
24	0xbe852d64	-0.26011193
25	0xbf3a5c28	-0.7279687
26	0x3dc6fd2b	0.09716257
27	0xbdaa8818	-0.08326739
28	0x3ec6f09d	0.38855448
29	0x3f19ae7b	0.6003186
30	0xbd1e7336	-0.038684092
31	0x3f381bf6	0.71917665
32	0x3d09ef21	0.033675317
33	0x3e128492	0.14308384
34	0xbf043c3d	-0.51654416
35	0xbed66538	-0.418741
36	0xbf2786b9	-0.65439945
37	0xbf3d1914	-0.7386639
38	0xbf4909bb	-0.7853047
39	0x3e13e6c8	0.14443505
40	0x3f168301	0.58793646
41	0x3ed18b1e	0.4092645
42	0x3d85bbea	0.065299824
43	0x3ce5cd9b	0.028052142
44	0x3f198a29	0.5997644
45	0xbf259588	-0.6468129
46	0xbefc810d	-0.49317208
47	0x3f3bc545	0.73347884
48	0x3e8f111b	0.27942738
49	0x3eeb398e	0.45942348
50	0xbd3c382d	-0.04595201
51	0x3ee619a1	0.44941428
52	0xbf0b3b90	-0.5438776
53	0x3dec4cf7	0.115381174
54	0x3f109aac	0.5648601
55	0xbf613d03	-0.8798372
56	0xbdac35ad	-0.08408675
57	0xbf1d2032	-0.6137725
58	0xbe6672e1	-0.2250476
59	0x3ee6fa1c	0.45112693
60	0xbcaead68	-0.02132292
61	0xbda45c40	-0.08025408
62	0x3f1a6326	0.6030754
63	0xbdfed1ea	-0.12442382
64	0xbef4ac39	-0.47787645
65	0xbf5b46d3	-0.85654944
66	0xb7ef57c0	-2.8531882e-05
67	0xbe6d5ee8	-0.23180735
68	0x3e4d833f	0.20069598
69	0x3e232705	0.15932854
70	0x3f1992d5	0.5998967
71	0xbe7f5607	-0.2493516
72	0xbf0f444b	-0.5596358
73	0x3f0a4c69	0.5402284
74	0x3f2b4bb2	0.66912377
75	0x3bde4709	0.0067833704
76	0xbf495f5f	-0.7866115
77	0xbeb9f904	-0.36322796
78	0xbe780dab	-0.24223964
79	0xbe8304e7	-0.25589678
80	0x3f23a01d	0.6391619
81	0xbe3314e0	-0.17488432
82	0xbe4edd6a	-0.2020165
83	0xbebe9bbb	-0.37228188
84	0xbb8de7af	-0.0043305974
85	0xbe718fa9	-0.23589958
86	0xbf2d7d92	-0.6776973
87	0x3e504061	0.20337059
88	0xbf134605	-0.57528716
89	0x3d9437c5	0.072372
90	0x3ef0dab2	0.4704185
91	0x3edc90c3	0.43079194
92	0xbf09cc98	-0.5382781
93	0xbf98b2c3	-1.1929554
94	0xbed7054e	-0.41996235
95	0xbdb4b5a8	-0.08823711
96	0xbd2074c8	-0.03917387
97	0xbebe7fd6	-0.37206906
98	0xbf28c8ff	-0.65931696
99	0x3da5a494	0.080880314
100	0xbed434bc	-0.41446483
101	0xbe94ce0c	-0.2906345
102	0xbed1a554	-0.40946448
103	0xbf1f24d1	-0.6216555
104	0xbf58ef63	-0.84740275
105	0x3e856730	0.26055288
106	0x3ed0c24c	0.40773237
107	0x3eaba974	0.3352772
108	0xbe8d77c7	-0.27630445
109	0x3ebb16f1	0.3654094
110	0xbdf87f0d	-0.12133608
111	0xbf1bd1f6	-0.6086725
112	0xbec71e7b	-0.38890442
113	0x3dd44be7	0.1036604
114	0xbe9421d6	-0.28932065
115	0x3e9c65e5	0.3054649
116	0x3de4f959	0.11180372
117	0x3c1908e7	0.009340501
118	0x3db5d111	0.08877767
119	0x3dd82aa5	0.10555009
120	0x3eb99097	0.36243126
121	0x3e0fcff6	0.14044175
122	0x3f031477	0.512031
123	0xbd8c4bda	-0.06850405
124	0xbf133346	-0.5750011
125	0xbdc67b49	-0.096914835
126	0xbf1a2d04	-0.6022494
127	0x3f0373fb	0.5134885
128	0xbe6541d7	-0.22388397
129	0x3e9fdc69	0.31222847
130	0xbe0b4d81	-0.13603784
131	0xbf0b1188	-0.54323626
132	0x3ea33fe5	0.31884685
133	0xbec8bc98	-0.39206386
134	0x3f022fa4	0.50853944
135	0x3caab8a1	0.020839991
136	0x3f390e5c	0.72287536
137	0xbbc60eb1	-0.006044232
138	0xbf13815f	-0.5761928
139	0x3f146cfd	0.579788
140	0xbec81935	-0.3908173
141	0xbf2390ab	-0.6389262
142	0xbf09ed56	-0.5387777
143	0x3e96a031	0.2941909
144	0x3f2f4609	0.6846624
145	0xbd52b615	-0.05144318
146	0x3dc39d9f	0.09551548
147	0x3c000f02	0.007816078
148	0x3eceae5a	0.40367395
149	0xbf08e654	-0.5347645
150	0xbf35b0e4	-0.7097304
151	0xbf1a8c87	-0.6037068
152	0xbe5f83f8	-0.21827686
153	0xbea18487	-0.31546423
154	0xbf06e2c7	-0.52689785
155	0x3ee21eec	0.44164217
156	0x3d12eaf6	0.035868607
157	0xbe68ca35	-0.22733386
158	0xbeb66be0	-0.35629177
159	0x3dd71188	0.10501391
160	0xbcfb7ded	-0.030699695
161	0x3f26cb93	0.6515438
162	0xbd708607	-0.05872157
163	0x3ee31e17	0.44358894
164	0x3f554394	0.8330624
165	0x3e5891d0	0.21149373
166	0x3e72397b	0.2365474
167	0x3e0cd3c7	0.13752662
168	0xbe7f3ba8	-0.24925101
169	0x3f2482f1	0.642623
170	0xbe1055ce	-0.14095232
171	0x3d155d55	0.03646596
172	0xbf1f832e	-0.6230954
173	0x3da3f2ae	0.08005272
174	0x3d046b44	0.03232886
175	0x3eac47e5	0.336486
176	0x3defb8d9	0.11705179
177	0xbe0f8c59	-0.14018382
178	0x3ef4e8fc	0.47834003
179	0xbf10e787	-0.5660328
180	0x3e523ad3	0.20530252
181	0xbdda82fe	-0.10669516
182	0xbecafd43	-0.39646348
183	0x3e8f8cbb	0.28037056
184	0x3eb87e8b	0.36034045
185	0x3e493014	0.19647247
186	0x3ed64320	0.41848087
187	0xbf117802	-0.5682374
188	0xbf2bbf9a	-0.67089236
189	0xbef3c5b7	-0.47611782
190	0xbeb471ee	-0.3524317
191	0xbec47d4c	-0.38376844

base_pointnet.conv_1_b.bias f4 [64]
0	0xbe9fe9f1	-0.3123317
1	0x3e6a702f	0.22894357
2	0x3f0b13f1	0.54327303
3	0xbac90a21	-0.0015338102
4	0xbe4b9543	-0.19881158
5	0xbe117bc5	-0.1420737
6	0xbe39c6af	-0.18142198
7	0x3eb74e2c	0.35801828
8	0x3d91b834	0.07115212
9	0xbee2a27a	-0.44264585
10	0xbe3851e0	-0.17999983
11	0x3e575739	0.21029367
12	0x3ed4ff79	0.4160116
13	0x3e788edb	0.24273245
14	0x3eb64e05	0.356064
15	0xbe80cdf3	-0.25157127
16	0x3f0d1ad4	0.5511906
17	0xbed83a15	-0.42231813
18	0x3da44251	0.08020461
19	0x3ed0fcb0	0.40817785
20	0xbd35c948	-0.04438141
21	0xbe3f04c4	-0.18654162
22	0x3ebf66db	0.3738316
23	0x3ddb65e5	0.10712794
24	0x3e4d12dd	0.20026727
25	0x3e85c5a7	0.2612736
26	0xbf0b1bb8	-0.5433917
27	0xbe65bcc1	-0.22435285
28	0x3e0b1a82	0.1358433
29	0x3eab45ee	0.3345179
30	0xbe9dd822	-0.3082896
31	0xbde70ee1	-0.11282135
32	0x3dd8c0a8	0.10583621
33	0x3f09a08a	0.5376059
34	0x3e991fb0	0.29906988
35	0xbe27383e	-0.16330048
36	0x3ef4abfc	0.47787464
37	0x3dcb34a9	0.099221535
38	0xbe85f4a3	-0.26163206
39	0x3e27d0c5	0.16388233
40	0x3d724c19	0.059154604
41	0x3eeafebf	0.4589748
42	0xbeb78800	-0.35845947
43	0xbe8f7297	-0.28017113
44	0xbefe537e	-0.49673074
45	0xbe8f43ca	-0.27981406
46	0x3baeba42	0.0053322623
47	0x3e7a6945	0.2445422
48	0x3e7059a1	0.2347169
49	0xbece0a54	-0.40242255
50	0xbe96b899	-0.29437712
51	0xbec92357	-0.39284775
52	0x3e083f97	0.13305508
53	0x3eae2cd3	0.34018573
54	0x3e0c83e7	0.13722192
55	0xbec32bbf	-0.38119313
56	0xbe88ccda	-0.2671879
57	0x3ee65e8b	0.44994006
58	0x3d31102f	0.043228325
59	0x3c1f8d5b	0.009738292
60	0xbe9a2573	-0.30106696
61	0xbf02ae97	-0.5104765
62	0x3eb81985	0.3595697
63	0xbe3586f3	-0.1772726

base_pointnet.conv_2.weight f4 [64, 64, 3]
0	0xbd5b29ae	-0.053506546
1	0xbd9ec598	-0.07752532
2	0x3d286228	0.041109234
3	0x3c83be10	0.01608184
4	0x3c5d4fe1	0.013507814
5	0xbcbddcad	-0.023176515
6	0xbd8def0a	-0.06930359
7	0xbdba484a	-0.09095819
8	0x3db4e46a	0.08832629
9	0xbd7e832c	-0.062136814
10	0x3d22eca8	0.039776474
11	0x3cd8c7ed	0.02646252
12	0x3d5ddfcd	0.05416851
13	0x3cb59cf1	0.022169562
14	0xbce39a03	-0.0277834
15	0xbd248c40	-0.040172815
16	0x3d898ff2	0.067169085
17	0x3d289690	0.041159213
18	0x3d877cd8	0.06615609
19	0xbd2b12ea	-0.041766085
20	0x3cbf6b9c	0.023366742
21	0xbd3d652d	-0.046239067
22	0x3d10d266	0.0353569
23	0xbd9662c3	-0.07343056
24	0xbd088a92	-0.033335276
25	0xbc0c8a24	-0.008577857
26	0xbb95d16e	-0.004572085
27	0x3cb17d62	0.021666232
28	0xbdac7d61	-0.08422352
29	0x3d64bb60	0.055842757
30	0xbcd8fd65	-0.026488015
31	0x3d4131b7	0.047166552
32	0xbdbb0489	-0.091317244
33	0x3d80db98	0.06291884
34	0xbd6ef262	-0.058336623
35	0xbd3ac837	-0.045601096
36	0x3d31c411	0.043399874
37	0x3d83fc51	0.0644461
38	0xbcd0203d	-0.025405997
39	0xbd04ea3f	-0.032449957
40	0xbb4e4a19	-0.003147727
41	0xbd03ec9f	-0.03220808
42	0xbccf039f	-0.025270281
43	0x3d48d3b4	0.04903002
44	0x3b73ecea	0.003722007
45	0xbc9f6336	-0.019456487
46	0xbda40694	-0.08009067
47	0x3d4fd735	0.050742347
48	0xbd467dd0	-0.048459828
49	0xbd32a7fe	-0.04361724
50	0x3c8651f8	0.016396508
51	0x3d0425c6	0.032262586
52	0xbd88b2b6	-0.066747114
53	0xbd51d679	-0.051229928
54	0xbd6b84d9	-0.05749974
55	0x3d5b537a	0.053546406
56	0xbcd833af	-0.026391832
57	0x3c8f4e71	0.017493458
58	0x3d84f110	0.064912915
59	0x3d51a8e6	0.051186465
60	0xbd51e110	-0.051240027
61	0x3cc7a7ca	0.024372
62	0x3d5b1a01	0.053491596
63	0xbb775b61	-0.0037743675
64	0x3d60bc95	0.054867346
65	0x3d72a889	0.05924276
66	0x3cde16db	0.027110508
67	0xbd0e6331	-0.034762565
68	0xbd3d8f08	-0.046278983
69	0x3d65f1c7	0.05613878
70	0x3a995766	0.001169902
71	0xbd350d29	-0.044202004
72	0xbd3ad8ef	-0.04561704
73	0xbd3c8705	-0.046027202
74	0xbd8d23ef	-0.068916194
75	0xbd93880d	-0.07203684
76	0xbd4de1fb	-0.05026434
77	0x3e080783	0.13284115
78	0x3d1fe082	0.039032467
79	0x3cf4ce70	0.029883593
80	0x3d00c723	0.03143991
81	0x3d02b954	0.031915024
82	0xbbecbeeb	-0.0072249076
83	0xbd051278	-0.032488316
84	0x3d95c0ba	0.0731215
85	0x3c7fd11b	0.0156138195
86	0xbd4ea5c8	-0.05045107
87	0x3ca2e84b	0.019886157
88	0xbca1d567	-0.019755078
89	0x3d0be165	0.0341505
90	0xbc80d77d	-0.015727753
91	0xbca52092	-0.020157132
92	0xbc02c366	-0.007981157
93	0xbd041568	-0.032246977
94	0xbb67f0b2	-0.0035391268
95	0x3d0b1d7a	0.033963658
96	0x3c12bbc4	0.0089559
97	0x3d914fe5	0.07095317
98	0x3d44a81c	0.048011884
99	0x3cab85ee	0.020937886
100	0xbd138077	-0.036011185
101	0xbd803bba	-0.06261392
102	0xbd943014	-0.07235733
103	0x3d4cc06d	0.0499882
104	0x3c01436e	0.007889612
105	0xbd3a3ea4	-0.045469895
106	0x3ce84dd3	0.028357422
107	0xbd585bfb	-0.052822094
108	0x3d9af7aa	0.075667694
109	0xbbbcec18	-0.0057654493
110	0xbcfbbb3e	-0.030728932
111	0x3d770e68	0.060316473
112	0x3da9494b	0.08265933
113	0x3d4cf3a3	0.050037038
114	0x3d456edf	0.048201438
115	0xbd186319	-0.037203882
116	0xbc5317e6	-0.012884116
117	0x3d92fb98	0.07176894
118	0xbc72e614	-0.014825363
119	0x3d82ed86	0.0639296
120	0xbcd4156c	-0.025889121
121	0x3d1666ec	0.036719248
122	0x3d42cc60	0.04755819
123	0x3d0f791b	0.035027605
124	0x3cbd58be	0.023113605
125	0xbc67ecd8	-0.014155589
126	0x3d079cde	0.033108585
127	0xbc8cf4a2	-0.017206494
128	0xbd39e122	-0.04538072
129	0x3d043729	0.032279167
130	0x3d2e5da6	0.04256978
131	0x3c838e26	0.016058993
132	0x3c7183a7	0.014740861
133	0xbe18e5fa	-0.14931479
134	0xbd83f334	-0.06442872
135	0x3d083146	0.033250116
136	0xbc1de912	-0.009638088
137	0xbd2266a5	-0.03964867
138	0xbcfbec15	-0.030752221
139	0xbc070e85	-0.008243208
140	0xbd66ee30	-0.056379497
141	0xbcf472bc	-0.029839866
142	0x3d6f78e7	0.05846491
143	0xbc78a89d	-0.015176919
144	0x3ce6c9eb	0.028172454
145	0x3c41ffd0	0.011840776
146	0xbcbc5308	-0.022988811
147	0xbd64b491	-0.055836264
148	0xbd8d7127	-0.06906348
149	0x3d363df9	0.044492695
150	0xbd8cfce3	-0.06884172
151	0x3d73f1db	0.059556823
152	0xbd61ac71	-0.055096094
153	0xbd83b9b2	-0.06431903
154	0x3d21c72a	0.03949658
155	0x3d6cea19	0.05784044
156	0x3c0d01df	0.008606403
157	0x3d44b60a	0.04802517
158	0xbd94c402	-0.07263948
159	0xbd7477cc	-0.05968456
160	0x3c8ad941	0.016949298
161	0x3da2e661	0.079540975
162	0xbd9975bb	-0.074931584
163	0xbd0a014e	-0.03369265
164	0xbd9dc7c2	-0.077041164
165	0x3c5b3a07	0.013380534
166	0xbe12b759	-0.14327754
167	0xbc20e500	-0.009820223
168	0xbcd4f168	-0.025994018
169	0x3d249f02	0.040190704
170	0xbd691c10	-0.056911528
171	0xbbf01e8d	-0.0073278607
172	0xbc6e1287	-0.014530784
173	0x3c972382	0.018449549
174	0x3d7056a0	0.058676362
175	0xbd862bda	-0.06551333
176	0xbd570b74	-0.052501157
177	0xbd3aecc8	-0.04563597
178	0xbc8e5033	-0.017372226
179	0x3d67f169	0.05662671
180	0x3d02bde1	0.031919364
181	0xbbf26f58	-0.007398527
182	0x3d01c239	0.031679366
183	0x3a0eaf6e	0.0005443011
184	0xbbe3da25	-0.006953495
185	0x3c7cd74f	0.015432193
186	0x3be8b708	0.007101897
187	0xbd7b1b5b	-0.061305385
188	0x3d137ede	0.03600966
189	0x3da07010	0.07833874
190	0x3c187219	0.009304547
191	0xbd9d89a3	-0.07692268
192	0x3d29737b	0.041369896
193	0x3c131028	0.00897602
194	0xbd7fd1f9	-0.062456105
195	0xbc9b1067	-0.01892872
196	0x3da76e03	0.0817528
197	0x3a83fba8	0.0010069506
198	0x3dc2fb10	0.095205426
199	0x39b9fac6	0.0003547279
200	0x3c9ce695	0.019152919
201	0x3d2912d9	0.04127774
202	0x3d9f1418	0.077675045
203	0x3c7cd0a0	0.015430599
204	0xbcbfc738	-0.023410425
205	0xbd53177c	-0.05153607
206	0xbb6f959b	-0.0036557678
207	0xbb930ba1	-0.0044874703
208	0x3d9dd052	0.077057496
209	0x3cc4aacf	0.02400723
210	0xbd4eaae7	-0.050455954
211	0xbc79eea7	-0.015254653
212	0x3c8a8602	0.016909603
213	0xbc757871	-0.014982329
214	0x3c27527a	0.010212535
215	0x3cd61ec7	0.026137723
216	0x3d884aaf	0.0665487
217	0x3b9ba416	0.004749785
218	0xbcfca743	-0.030841475
219	0xbd8297d5	-0.06376616
220	0x3c111719	0.008855605
221	0xbd5ff4d4	-0.054676846
222	0x3d91d04d	0.07119808
223	0x3c47386a	0.012159446
224	0xbd492084	-0.049103275
225	0xbc80e839	-0.015735732
226	0xbd72e5b5	-0.059301097
227	0xbda02c75	-0.078209795
228	0xbc83877d	-0.016055817
229	0xbd5b1e5d	-0.053495754
230	0xbc5a5849	-0.013326713
231	0x3ba0630b	0.0048946193
232	0x3da88f1d	0.08230422
233	0xbd2fafbb	-0.0428922
234	0xbd49a1c9	-0.049226556
235	0xbcd89a85	-0.026440868
236	0xbd0ce1c1	-0.034394983
237	0x3e2702b0	0.16309619
238	0xbba920ce	-0.0051613813
239	0xbde844e9	-0.113412686
240	0xbd11bf4f	-0.035582837
241	0xbcc244cc	-0.023714446
242	0x3cc9d5d8	0.024638101
243	0x3bcb3a0d	0.0062019886
244	0x3d8e52e7	0.06949406
245	0xbd10d679	-0.035360787
246	0xbd4603ae	-0.048343353
247	0xbd70b430	-0.05876559
248	0x3d5c1af1	0.05373663
249	0x3cc04e1b	0.023474744
250	0x3cfe97d6	0.03107826
251	0x3cb71bf6	0.0223522
252	0x3dc9e685	0.09858421
253	0xbd4d1341	-0.05006719
254	0x3d52a286	0.051424526
255	0xbd03d788	-0.03218797

base_pointnet.conv_2.bias f4 [64]
0	0xbc1c1fd8	-0.0095290765
1	0x3d9dbfa2	0.07702567
2	0xbd12dc28	-0.03585449
3	0x3c8eaf2c	0.017417513
4	0x3d4ac6cf	0.049506005
5	0x3d8988e5	0.06715564
6	0xbd15141a	-0.036396123
7	0x3d401578	0.046895474
8	0x3d65dcb8	0.056118697
9	0xbc170536	-0.009217551
10	0x3cf6fc60	0.030149639
11	0xbce7bd40	-0.028288484
12	0xbcc9ff25	-0.024657795
13	0x3c7ee370	0.015557155
14	0x3ca8019e	0.020508584
15	0xbd249a5f	-0.040186282
16	0x3c280334	0.01025467
17	0xbd1a4ea2	-0.037672646
18	0xbc92aaff	-0.017903803
19	0x3cf2d142	0.029640798
20	0x3cdd8134	0.027039148
21	0xbc690ce9	-0.014224269
22	0x3bbc191d	0.0057402984
23	0x3d89a10f	0.067201726
24	0xbd713388	-0.058887035
25	0xbd8c0f34	-0.06838837
26	0x3babb38f	0.005239911
27	0x3d90590a	0.07048233
28	0xbd5e578d	-0.054282714
29	0xbc61dcee	-0.013785584
30	0xb9dab4a6	-0.00041714794
31	0x3cb7fbc3	0.022458917
32	0xbd3e5a22	-0.046472676
33	0x3d434cf6	0.047680818
34	0x3d63768e	0.055532984
35	0xbd0c82cc	-0.034304425
36	0xbd66e1cb	-0.056367677
37	0xbcde416e	-0.027130809
38	0x3d801637	0.06254237
39	0x3cf29d98	0.029616162
40	0x3d8bbec7	0.06823497
41	0x3cd227b3	0.025653696
42	0xbd704ecf	-0.058668908
43	0xbb83a99b	-0.0040180213
44	0xbd61cf6a	-0.055129446
45	0x3cdc0605	0.02685834
46	0xbd4a6255	-0.049410183
47	0xbd6ce3cd	-0.057834435
48	0xbd9507ab	-0.07276853
49	0xbc25a555	-0.010110219
50	0x3d2ab05d	0.0416721
51	0x3cfc1238	0.030770406
52	0x3d7c9a5e	0.061670654
53	0x3ccb14f8	0.024790272
54	0x3cd5b9c8	0.026089564
55	0x3c8847e3	0.01663584
56	0x3d8a0dde	0.06740926
57	0x3ca8adf8	0.020590767
58	0x3b12bbce	0.0022389772
59	0xbacea8a4	-0.0015766812
60	0x3d4ad78e	0.049521975
61	0xbc833ffb	-0.01602172
62	0xbb06fb73	-0.0020596653
63	0x3b88054a	0.004151021

base_pointnet.bn_1.weight f4 [64]
0	0x3f752b4e	0.957692
1	0x3f81eea5	1.0150954
2	0x3f7efb1d	0.9960192
3	0x3f7adac2	0.9799005
4	0x3f7cd5e0	0.9876385
5	0x3f74b748	0.95592165
6	0x3f8594fe	1.0436094
7	0x3f893b03	1.0721134
8	0x3f7dbcf6	0.99116457
9	0x3f902729	1.1261951
10	0x3f7d0471	0.988349
11	0x3f77e541	0.9683419
12	0x3f8d0ec6	1.1020133
13	0x3f6bd145	0.92116195
14	0x3f76fcb9	0.96479374
15	0x3f86b521	1.0524026
16	0x3f7b3f34	0.98143315
17	0x3f793bfa	0.9735714
18	0x3f802ae4	1.0013089
19	0x3f7db583	0.9910509
20	0x3f732443	0.94977206
21	0x3f83a475	1.0284563
22	0x3f7b2fbc	0.9811971
23	0x3f73110b	0.9494788
24	0x3f84eb6a	1.0384343
25	0x3f81032a	1.007909
26	0x3f76f1d4	0.9646275
27	0x3f84d586	1.0377662
28	0x3f715291	0.9426661
29	0x3f7b3e2a	0.9814173
30	0x3f716eb6	0.94309556
31	0x3f7ba10a	0.982926
32	0x3f7667e3	0.9625227
33	0x3f7122b8	0.941936
34	0x3f7c1495	0.98468906
35	0x3f766c48	0.96258974
36	0x3f77aadf	0.96745104
37	0x3f830d88	1.0238504
38	0x3f711842	0.9417764
39	0x3f805d9f	1.0028571
40	0x3f839410	1.027956
41	0x3f76d134	0.9641297
42	0x3f8a309b	1.0796083
43	0x3f743cb3	0.9540512
44	0x3f99ec93	1.2025322
45	0x3f80aef0	1.0053387
46	0x3f818a7e	1.012039
47	0x3f7fbcc2	0.99897397
48	0x3f777863	0.9666807
49	0x3f83c39f	1.0294074
50	0x3f927acd	1.1443726
51	0x3f763e2c	0.96188617
52	0x3f77be44	0.967747
53	0x3f83e8aa	1.0305378
54	0x3f87651f	1.0577735
55	0x3f8adbc4	1.0848317
56	0x3f817d46	1.0116355
57	0x3f7eb15d	0.99489385
58	0x3f7573ce	0.9587983
59	0x3f798e1a	0.97482455
60	0x3f778e64	0.96701646
61	0x3f867021	1.0502969
62	0x3f78aee5	0.9714187
63	0x3f87ffb6	1.0624912

base_pointnet.bn_1.bias f4 [64]
0	0xbdac1776	-0.08402912
1	0xbdde0838	-0.10841411
2	0xbd61c736	-0.055121623
3	0xbcb3bcac	-0.021940552
4	0xbd1bad71	-0.038007203
5	0xbc3b9de6	-0.01145122
6	0xbd5399c0	-0.0516603
7	0xbd899b3e	-0.06719063
8	0xbd251e34	-0.040312007
9	0xbd602246	-0.054720186
10	0xbbf54ada	-0.0074857296
11	0x3d9e1b0c	0.077200025
12	0xbd5d1ead	-0.053984333
13	0xbd97b748	-0.07408005
14	0xbe1c9598	-0.1529144
15	0x3d223a2a	0.03960625
16	0xbe152216	-0.14563784
17	0xbdd1da9e	-0.10246776
18	0x3b8338b0	0.0040045604
19	0xbd5a06e1	-0.053229216
20	0xbd00a15c	-0.031403884
21	0xbdba63da	-0.091010764
22	0xbd9b4381	-0.07581235
23	0xbc96510a	-0.01834919
24	0xbd5addac	-0.05343406
25	0x3c9fc8e7	0.019504977
26	0xbdb614fd	-0.08890722
27	0xbbd95719	-0.0066326973
28	0xbd0e4eff	-0.034743305
29	0x3c37f76f	0.011228426
30	0x3dd9c696	0.106335804
31	0xbd8b5cf6	-0.0680484
32	0xbd831101	-0.063997276
33	0xbd832359	-0.064032264
34	0xba43248b	-0.0007444105
35	0xbbc97735	-0.006148244
36	0x3cb8abc9	0.022542851
37	0xbe10fe2a	-0.14159456
38	0xbdebfbf1	-0.115226634
39	0xbd9d7497	-0.076882534
40	0x3da7685a	0.081742
41	0xbd9182d8	-0.071050346
42	0xbd050fd0	-0.032485783
43	0xbd828003	-0.063720725
44	0xbc84007d	-0.016113514
45	0xbe022442	-0.12709144
46	0xbbe72c0d	-0.007054812
47	0xbe25cb31	-0.16190793
48	0xbbfdb0d4	-0.007742027
49	0x3d9f4490	0.07776749
50	0xbc3b0588	-0.011414893
51	0x3cd77076	0.026298743
52	0xbd5fec07	-0.054668453
53	0xbd393ce5	-0.04522409
54	0xbdac029c	-0.08398935
55	0xbbf3daed	-0.0074418695
56	0x3ce6b659	0.028163122
57	0x3c916677	0.017749054
58	0x3d15f4ac	0.03661029
59	0xbdc469d0	-0.09590495
60	0xbe0c7879	-0.13717832
61	0xbd665843	-0.056236517
62	0xbd260578	-0.04053256
63	0x3dc0f2f1	0.094213374

base_pointnet.bn_1.running_mean f4 [64]
0	0x41c5335e	24.650082
1	0x3fdf4a21	1.7444497
2	0xc0d58deb	-6.673574
3	0x41623d1c	14.139919
4	0xc101f720	-8.122833
5	0xc20c2df6	-35.044884
6	0xc066f9b8	-3.6089916
7	0xc05f83ea	-3.4924264
8	0xc0b9db66	-5.808032
9	0xbf5acc2b	-0.85467786
10	0xc17dd878	-15.865349
11	0x419ed28c	19.852806
12	0x3fcf28d8	1.618434
13	0x41ecf85f	29.621275
14	0xc1ca2400	-25.267578
15	0x3e2a4120	0.16626406
16	0xc107d765	-8.490087
17	0xc1b3df25	-22.483957
18	0xc094bb38	-4.647854
19	0xc18046f8	-16.034653
20	0x421359ab	36.837566
21	0xc0b9d0b7	-5.806728
22	0xc12a84b6	-10.6574
23	0x41eb4e4e	29.413235
24	0xc154d9de	-13.30319
25	0x40ec9ff3	7.394525
26	0x41ddd02d	27.726648
27	0xc0d0528a	-6.5100756
28	0x419d687d	19.67602
29	0xc1853f73	-16.655981
30	0x41eeb26c	29.83712
31	0xc1bbaf8c	-23.460716
32	0xc1bc348d	-23.52566
33	0xc22ce9b6	-43.228233
34	0xc1af6c83	-21.927984
35	0xc200028a	-32.00248
36	0x40d2ae9c	6.5838146
37	0xc0665f68	-3.5995731
38	0xc0a5f69f	-5.186355
39	0x408be0e6	4.3712034
40	0x410ff3b8	8.997002
41	0xc1c9dd23	-25.232977
42	0xc091f36f	-4.560966
43	0xc207c47f	-33.94189
44	0xc005f822	-2.0932698
45	0xc09733c7	-4.7250705
46	0xbf3aba5d	-0.7294062
47	0x41860cd2	16.75626
48	0x41ac3b66	21.529003
49	0x40099e1b	2.150275
50	0xc080f0b5	-4.029383
51	0xc1b33942	-22.402958
52	0x414aefc5	12.6835375
53	0xbf973d58	-1.1815596
54	0xc0e87718	-7.264538
55	0xc0a313bc	-5.096159
56	0xc1706014	-15.023457
57	0x412fad3e	10.979795
58	0x4202213d	32.53246
59	0x40c59755	6.174723
60	0x41b88435	23.064554
61	0x400c26e0	2.1898727
62	0xc218fc9e	-38.246696
63	0xbd4ae193	-0.04953153

base_pointnet.bn_1.running_var f4 [64]
0	0x432748f0	167.28491
1	0x41edeb0d	29.73977
2	0x42078a1e	33.88488
3	0x42c073c2	96.22609
4	0x41bc11b9	23.508654
5	0x43a15912	322.69586
6	0x41c7dab3	24.981787
7	0x429d9f87	78.81158
8	0x41bcc63b	23.596792
9	0x40b79ba6	5.73775
10	0x42e55223	114.66042
11	0x430d4c82	141.29886
12	0x4227508a	41.82865
13	0x438a9a85	277.20718
14	0x433b7f66	187.49765
15	0x423f9be6	47.902245
16	0x4308546f	136.32982
17	0x43214ad5	161.29231
18	0x42a9b46e	84.8524
19	0x42c36ca0	97.71216
20	0x43bd40a3	378.50497
21	0x42974ae4	75.64627
22	0x42c88a93	100.27065
23	0x4384b53e	265.41595
24	0x42b3298f	89.58117
25	0x42881648	68.04352
26	0x436b9531	235.58278
27	0x42ac8bbb	86.27291
28	0x42f7f3c4	123.976105
29	0x42fd1c61	126.55543
30	0x437f933d	255.57515
31	0x431ac63f	154.7744
32	0x431a572c	154.34052
33	0x44028e5c	522.22437
34	0x430dbaa9	141.72914
35	0x43ba4a4a	372.58038
36	0x42688dca	58.138466
37	0x40dc63d1	6.8871846
38	0x429bd4b5	77.91544
39	0x41ff9455	31.947428
40	0x42a602d2	83.00551
41	0x43286543	168.39555
42	0x42363f28	45.561676
43	0x43af53b4	350.65393
44	0x42adc61f	86.886955
45	0x41d36bc7	26.427626
46	0x41bb58ae	23.4183
47	0x4306159e	134.08444
48	0x4302d735	130.84065
49	0x428a3774	69.10831
50	0x42083950	34.05597
51	0x432b0488	171.0177
52	0x42b025af	88.0736
53	0x41e8d37c	29.103264
54	0x425270b0	52.610046
55	0x42ae688d	87.2042
56	0x42ff5f95	127.68668
57	0x42d664d2	107.196915
58	0x43932020	294.25098
59	0x42e95fa5	116.686806
60	0x432889d7	168.53844
61	0x401b1031	2.4228632
62	0x43c74092	398.50446
63	0x4288d0b2	68.40761

base_pointnet.bn_2.weight f4 [64]
0	0x3f82e259	1.0225326
1	0x3f8c564e	1.0963838
2	0x3f8d2880	1.1027985
3	0x3f837dfd	1.0272824
4	0x3f836a1c	1.0266757
5	0x3f883613	1.0641502
6	0x3f84f07e	1.0385892
7	0x3f83a284	1.0283971
8	0x3f827a10	1.01935
9	0x3f8103da	1.00793
10	0x3f84a6f3	1.0363449
11	0x3f879936	1.0593631
12	0x3f8f4a4d	1.119455
13	0x3f81fc2a	1.0155079
14	0x3f811c9c	1.0086856
15	0x3f875585	1.0572973
16	0x3f85f815	1.0466334
17	0x3f7c7f54	0.9863179
18	0x3f8aebec	1.0853248
19	0x3f8cca25	1.099919
20	0x3f847fd9	1.0351516
21	0x3f82ef9c	1.0229373
22	0x3f8230b6	1.0171115
23	0x3f88f41c	1.0699496
24	0x3f8467a9	1.0344135
25	0x3f835ee3	1.0263332
26	0x3f84f152	1.0386145
27	0x3f85750e	1.0426347
28	0x3f86eb3d	1.0540539
29	0x3f825129	1.0181018
30	0x3f832945	1.024697
31	0x3f7f0424	0.99615693
32	0x3f824842	1.0178301
33	0x3f82556b	1.0182317
34	0x3f92f224	1.1480145
35	0x3f95335c	1.1656299
36	0x3f82fa57	1.0232648
37	0x3f846586	1.0343482
38	0x3f877d29	1.0585071
39	0x3f838d9d	1.0277592
40	0x3f8fc610	1.1232319
41	0x3f83f2c1	1.0308458
42	0x3f8170b8	1.0112524
43	0x3f849c07	1.0360116
44	0x3f8d1251	1.1021215
45	0x3f84ead5	1.0384165
46	0x3f879599	1.0592529
47	0x3f80fe85	1.0077673
48	0x3f809fc4	1.0048757
49	0x3f845dc0	1.034111
50	0x3f8241d7	1.0176343
51	0x3f852de3	1.0404629
52	0x3f85164f	1.0397433
53	0x3f81a7b6	1.0129306
54	0x3f843861	1.0329705
55	0x3f83d0a5	1.0298048
56	0x3f857299	1.0425597
57	0x3f80541d	1.0025669
58	0x3f833d39	1.0253059
59	0x3f81cb5b	1.0140184
60	0x3f80695c	1.0032153
61	0x3f839b75	1.0281817
62	0x3f8035da	1.0016434
63	0x3f865159	1.0493575

base_pointnet.bn_2.bias f4 [64]
0	0x3c237134	0.00997572
1	0x3d1db45a	0.038502075
2	0x3c2dad83	0.01060045
3	0x3d0013c9	0.03126887
4	0x3c7c945c	0.015416231
5	0xbc8feaa3	-0.017567938
6	0x3caa2aa9	0.020772295
7	0x3c70844e	0.014679981
8	0x3bb8baee	0.005637518
9	0x3be98ad7	0.0071271467
10	0x3c02d610	0.007985607
11	0x3c8aa3bb	0.016923776
12	0xbc022141	-0.007942499
13	0xbd0802be	-0.03320574
14	0xbb61422e	-0.0034371722
15	0x3cec32d6	0.028832834
16	0x3d029aa9	0.031885777
17	0xbd3a3ab3	-0.045466136
18	0x3d3f2bf8	0.04667279
19	0x3bba19a8	0.005679328
20	0xbbc6a0e3	-0.0060616597
21	0x3c43b136	0.011944106
22	0x3b08d461	0.002087854
23	0xbcf1525f	-0.029458223
24	0x3cf3bf00	0.029754162
25	0x3bd05ee1	0.0063589667
26	0x3c8c3a19	0.017117547
27	0xbc52cfcd	-0.012866926
28	0x3cd92e4f	0.02651134
29	0xbafcf1a7	-0.0019298092
30	0x3c9267fb	0.017871847
31	0xbc683eb7	-0.014175109
32	0x3c8f2866	0.017475318
33	0x3c911e39	0.017714607
34	0xbb3c5a88	-0.0028740484
35	0x3c5fe414	0.013665218
36	0xbcb64331	-0.022248836
37	0x3ba3f271	0.0050032665
38	0x3b8af554	0.004240671
39	0x3c645f4c	0.013938736
40	0x3c2d2461	0.010567755
41	0xbd034ef6	-0.032057725
42	0x3c023cf3	0.007949102
43	0x3c62b911	0.013838069
44	0xbc52413e	-0.012832938
45	0x3ce30f3d	0.027717227
46	0x3ba93cc9	0.005164717
47	0x3ae3939a	0.0017362714
48	0xbb361202	-0.002778173
49	0xbcc4db3c	-0.02403032
50	0x3c7e5c34	0.015524913
51	0x3c941f4f	0.018081335
52	0x3bb51e34	0.005527282
53	0xbc20d145	-0.009815519
54	0x3cbeebb6	0.023305755
55	0x3c804a98	0.01566057
56	0x3c93b1db	0.018029144
57	0xba5bc096	-0.00083828846
58	0xbcc14e57	-0.023596926
59	0x3bd4483c	0.0064783376
60	0xbcccbfa6	-0.024993729
61	0x3c815897	0.015789313
62	0xbba853c8	-0.0051369406
63	0x3b4b7944	0.0031047622

base_pointnet.bn_2.running_mean f4 [64]
0	0xbe400138	-0.18750465
1	0xbdd874e6	-0.105691716
2	0x3e626335	0.22108157
3	0xbf0e1ece	-0.55515754
4	0xbe5d2b18	-0.2159847
5	0x3df867eb	0.12129196
6	0x3e140f41	0.14458944
7	0xbd403a56	-0.046930633
8	0x3e83415a	0.25635797
9	0xbdab99e6	-0.08378963
10	0xbecb9b3a	-0.39766866
11	0xbea0324a	-0.31288368
12	0x3b95c219	0.0045702574
13	0x3db23ce7	0.087030225
14	0xbe987fbe	-0.2978496
15	0xbdfb1c7e	-0.12261294
16	0x3e962fce	0.29333347
17	0xbd97d2e8	-0.07413274
18	0x3cb1ecd8	0.021719381
19	0x3e23eda0	0.16008615
20	0x3d0e5284	0.03474666
21	0x3ea6f6cf	0.32610175
22	0x3f2138e3	0.6297743
23	0x3da3a8dc	0.07991192
24	0x3ed03578	0.40665793
25	0x3ea8f42c	0.32998788
26	0x3d501252	0.05079872
27	0x3e886bad	0.2664465
28	0xbe1c2627	-0.15248929
29	0x3e08cf72	0.13360384
30	0xbf6adf5c	-0.9174707
31	0xbea5bf7c	-0.32372653
32	0xbebe3356	-0.3714854
33	0x3eb3b4d9	0.35098913
34	0x3e931878	0.28729606
35	0x3de4c1c7	0.111697726
36	0x3d205a50	0.03914863
37	0x3e513f7c	0.20434374
38	0x3e921571	0.28531983
39	0x3f0238b2	0.5086776
40	0x3e1e4e1b	0.15459482
41	0xbe5a0b1b	-0.21293299
42	0xbf172a2d	-0.5904873
43	0xbea047b5	-0.31304708
44	0xbcda8910	-0.026676685
45	0x3eb365ca	0.35038596
46	0xbddb0a24	-0.106952935
47	0xbd8b629b	-0.06805917
48	0xbce4bf61	-0.027923288
49	0x3ebd84a0	0.37015247
50	0x3e10a39e	0.14124915
51	0x3e80850b	0.25101504
52	0xbe877406	-0.26455706
53	0x3d6f084e	0.05835753
54	0x3e4df022	0.20111135
55	0x3e5602d6	0.2089952
56	0xbf42a4f2	-0.76032937
57	0x3d17e5df	0.037084457
58	0x3ee55156	0.44788617
59	0x3c5ac821	0.0133533785
60	0x3edf1f69	0.43578652
61	0xbd6ba542	-0.05753065
62	0x3e91334b	0.28359446
63	0x3e8fca36	0.28083962

base_pointnet.bn_2.running_var f4 [64]
0	0x3e058e29	0.13042511
1	0x3cd46992	0.025929246
2	0x3d1ea449	0.038730893
3	0x3e594f18	0.21221578
4	0x3d3b18cf	0.045677956
5	0x3cadb1fc	0.021203034
6	0x3caff4a7	0.021478964
7	0x3dbbdc3f	0.09172868
8	0x3d351b42	0.04421545
9	0x3d89b19b	0.06723329
10	0x3dbf828c	0.09351072
11	0x3da55497	0.08072775
12	0x3ceef2c2	0.02916849
13	0x3d8665af	0.06562363
14	0x3da123f2	0.07868184
15	0x3d13bfa4	0.036071435
16	0x3e869ec0	0.26292992
17	0x3e07dd76	0.13268074
18	0x3dc49c10	0.09600079
19	0x3cdc70f8	0.026909336
20	0x3dd8a4fd	0.10578344
21	0x3d36594f	0.044518765
22	0x3e00b455	0.12568791
23	0x3d2ec86c	0.042671606
24	0x3eac9e0c	0.3371433
25	0x3de2b079	0.11068816
26	0x3cef1e21	0.029189171
27	0x3d4b26d8	0.04959759
28	0x3d3a6c4d	0.04551344
29	0x3d5b3256	0.0535148
30	0x3e3d5734	0.18490297
31	0x3d996ad3	0.07491078
32	0x3e30ba66	0.17258605
33	0x3ea6171d	0.3243951
34	0x3d76f516	0.060292326
35	0x3cb4acbf	0.022055028
36	0x3ca29ae7	0.019849254
37	0x3dce9894	0.10087696
38	0x3d49c155	0.04925664
39	0x3de4af68	0.111662686
40	0x3c88c5bf	0.016695855
41	0x3cdfde4f	0.027327685
42	0x3dc90b3f	0.09816598
43	0x3d8d7c36	0.06908457
44	0x3d341480	0.043964863
45	0x3e8c0f10	0.27355242
46	0x3d739fe5	0.05947866
47	0x3e137433	0.14399795
48	0x3dc5a25f	0.096501105
49	0x3d3f1ae6	0.04665651
50	0x3e5c8cfc	0.21538156
51	0x3d541151	0.051774327
52	0x3d0fd65e	0.035116546
53	0x3dac4aea	0.08412726
54	0x3d7b9f29	0.061431084
55	0x3df54d28	0.11977607
56	0x3e04bf99	0.12963714
57	0x3df4c2ff	0.11951255
58	0x3d7f4721	0.062323693
59	0x3ebe06b2	0.37114483
60	0x3dbd2be5	0.09236888
61	0x3d7a2168	0.061067015
62	0x3f0e4b44	0.55583596
63	0x3d4f52ef	0.0506162

fc_1.weight f4 [64, 66]
0	0x3d188dd4	0.037244633
1	0xbe6f1990	-0.23349595
2	0x3d1c6e5f	0.038191196
3	0x3de22281	0.11041737
4	0x3d655e37	0.055998053
5	0xbdb4e2ce	-0.08832322
6	0xbda61658	-0.081097305
7	0xbda195c1	-0.078898914
8	0x3e04b6fa	0.12960425
9	0x3d84bffe	0.06481932
10	0x3e053339	0.13007821
11	0x3d882d83	0.06649306
12	0xbd114679	-0.0354676
13	0xbd53949a	-0.05165539
14	0xbd91aada	-0.071126655
15	0x3dc3201b	0.09527608
16	0xbda6cbda	-0.0814435
17	0x3de018f6	0.10942261
18	0x3d81b5c9	0.06333501
19	0xbdc4dfea	-0.09613021
20	0x3da2ced7	0.07949608
21	0x3e1ae682	0.15126994
22	0xbc672784	-0.014108542
23	0x3dc29b59	0.095022865
24	0xbc9be99d	-0.019032294
25	0x3d271e39	0.040800307
26	0x3d3c04bc	0.045902953
27	0xbd555975	-0.052087266
28	0x3d3ead21	0.046551827
29	0x3de72d78	0.11287969
30	0xbc5d6f27	-0.01351527
31	0x3d228e92	0.039686747
32	0x3e04859b	0.12941591
33	0xbcafa177	-0.021439297
34	0x3df96336	0.12177126
35	0x3dc3af0e	0.095548734
36	0x3d926fb8	0.07150215
37	0x3d1d7cdf	0.038449164
38	0x3db47d30	0.0881294
39	0x3d36f971	0.04467148
40	0x3dbf0a19	0.09328098
41	0xbd415b23	-0.047206055
42	0xbe0285ee	-0.12746403
43	0xbdb483de	-0.08814214
44	0x3dcc7a92	0.09984316
45	0x3d3bda85	0.045862693
46	0xbda445c6	-0.08021121
47	0x3d7b5e9c	0.061369523
48	0x3daa0ef5	0.08303634
49	0xbd6c0fb9	-0.05763218
50	0xbc919dd1	-0.017775448
51	0xbdb463d1	-0.08808101
52	0xbdbc1171	-0.09183014
53	0xbcb28e1c	-0.021796279
54	0xbd18fa65	-0.03734817
55	0x3dea77a3	0.114486
56	0xbd0144d8	-0.031559795
57	0x3db4c0de	0.08825849
58	0x3e0e9ceb	0.13927047
59	0x3e13abdd	0.1442103
60	0xbdc1e0e9	-0.09466726
61	0x3e0131c2	0.12616637
62	0xbd641f01	-0.05569363
63	0x3d5a7536	0.053334437
64	0xbbb9534a	-0.005655681
65	0xbd52230e	-0.051302962
66	0xbbaafa1f	-0.005217805
67	0xbf05f0f2	-0.5232078
68	0x3c48667c	0.012231465
69	0x3c199e42	0.0093761105
70	0x3df3ed50	0.11910498
71	0xbcba93c4	-0.022775538
72	0x3d9aacc2	0.07552482
73	0xbb8d8585	-0.0043188953
74	0xbd2a8559	-0.041631076
75	0xbdd9a459	-0.1062705
76	0x3db9bbc4	0.090690166
77	0x3ded029a	0.11572762
78	0xbb8b051b	-0.004242552
79	0x3d78e661	0.06076658
80	0xbe5b8cfa	-0.21440497
81	0x3d7cbf08	0.06170562
82	0xbd3e557c	-0.046468243
83	0xbb90e789	-0.0044221324
84	0xbd06f861	-0.032951716
85	0x3cb0d262	0.021584693
86	0x3d04f354	0.03245862
87	0x3afb6e52	0.0019182658
88	0x3e0e9c1f	0.13926743
89	0xbdf1e88d	-0.11811934
90	0xbd69db8d	-0.057094146
91	0xbd07846a	-0.033085264
92	0x3c1aeab6	0.0094553735
93	0x3dcbd612	0.0995294
94	0x3e0c78d4	0.13717967
95	0x3dc566a1	0.096387155
96	0xbbb3bf85	-0.0054854774
97	0x3e111afe	0.14170453
98	0x3e0319fe	0.12802884
99	0xbc2d1edc	-0.0105664395
100	0x3e0dbbcf	0.13841175
101	0x3dea8452	0.11451019
102	0x3d2517be	0.040305845
103	0xbe117e1b	-0.14208262
104	0x3cb7ca21	0.02243525
105	0xbdcfaa7c	-0.10139939
106	0x3c73c248	0.014877863
107	0x3d96dd36	0.073664114
108	0xbcafc0e3	-0.02145428
109	0xbd2cd78e	-0.042197756
110	0x3daad5a8	0.08341533
111	0xbc520aea	-0.012819985
112	0xbcb03f91	-0.021514686
113	0x3ddae98d	0.106890775
114	0x3d6511f0	0.05592531
115	0x3d81fdac	0.06347212
116	0x3ab6a0c8	0.0013933415
117	0x3cb8e270	0.022568911
118	0x3d662462	0.05618704
119	0x3cdbd842	0.026836518
120	0xbdc89745	-0.097944774
121	0xba6e8d94	-0.0009100076
122	0x3d658d12	0.05604274
123	0xbb0cfb4f	-0.0021512096
124	0xbda73d37	-0.08165973
125	0xbd3a8617	-0.045538034
126	0xbdce91b9	-0.10086388
127	0xbc9e89b6	-0.019352775
128	0xb8e59f06	-0.00010949191
129	0x3db4eb19	0.08833904
130	0xbc596d2e	-0.013270659
131	0x3c43bbb2	0.0119466055
132	0x3e06f107	0.13177882
133	0xbefd5ccf	-0.4948487
134	0x3d314769	0.043280993
135	0xbdc0851c	-0.094003886
136	0x3c9b6af1	0.018971892
137	0xbdc74d43	-0.097315334
138	0xbda66f84	-0.08126739
139	0x3da71348	0.081579745
140	0xbcdf19d1	-0.02723399
141	0xbcc01c53	-0.023451006
142	0x3cf234ca	0.029566187
143	0xbda5fa13	-0.081043385
144	0x3c5a426a	0.013321498
145	0x3e1a0194	0.15039665
146	0xbdd3f186	-0.10348801
147	0xbca24497	-0.019808097
148	0xbcd95246	-0.026528489
149	0x3d82ec4b	0.063927256
150	0xbe148158	-0.14502466
151	0x3d441e50	0.04788047
152	0xbcc327eb	-0.023822745
153	0xbd02b3e2	-0.03190983
154	0x3dd985c7	0.10621219
155	0xbdb91e6b	-0.09039005
156	0x3d9cfc0a	0.0766526
157	0x3d9b74f5	0.07590667
158	0xbd8f26a9	-0.06989796
159	0x3ae6a33d	0.0017596256
160	0x3da35e04	0.079769164
161	0xbcdc3bfb	-0.02688407
162	0xbc7f7aea	-0.01559327
163	0x3cffee55	0.031241575
164	0xbdd250c6	-0.102693126
165	0xbdfcd3b1	-0.123450644
166	0xbd41c634	-0.04730816
167	0xbc9c04d4	-0.019045271
168	0x3dd2e0e1	0.102967985
169	0xbdd1286e	-0.102127895
170	0xbd2cddb7	-0.04220363
171	0xbde4aaab	-0.11165365
172	0xbe080b1f	-0.13285492
173	0xbd215855	-0.03939088
174	0x3cca824d	0.024720335
175	0x3dce239e	0.10065387
176	0xbdf16119	-0.11786098
177	0x3ce4e6e5	0.02794213
178	0xbd615532	-0.05501289
179	0x3c3c5b2f	0.011496349
180	0xbe1bd09d	-0.15216298
181	0xbd0e58d1	-0.03475267
182	0x3c0085a8	0.007844366
183	0x3d4c829f	0.049929257
184	0x3d88f31c	0.066869944
185	0xbcf3aa1e	-0.029744204
186	0xbd8be066	-0.0682991
187	0xbac53daa	-0.0015048285
188	0xbdd00ef0	-0.10159099
189	0x3ca88d26	0.020575117
190	0xbd802806	-0.06257634
191	0xbd8d6b20	-0.06905198
192	0x3c82e2ec	0.015977345
193	0xbba2adeb	-0.0049645803
194	0x3d9a8070	0.07544029
195	0x3db188a1	0.08668638
196	0x3d9d830f	0.07691013
197	0xbc7f12a2	-0.015568407
198	0x3df5eb51	0.12007774
199	0x3ec1efe2	0.3787833
200	0xbd300ce0	-0.04298103
201	0x3bc89550	0.006121315
202	0xbd8e2e52	-0.06942429
203	0xbd82aaa7	-0.063802056
204	0xbc24c870	-0.010057554
205	0x3de2b5ee	0.110698566
206	0xbded3025	-0.115814485
207	0x3de2f112	0.11081137
208	0xbd582be1	-0.05277622
209	0xbdb29890	-0.08720505
210	0x3bacb3cb	0.0052704564
211	0xbdd03538	-0.10166401
212	0x3cf6443f	0.03006184
213	0x3d60ce5d	0.054884303
214	0x3cc0c340	0.023530602
215	0xbd94fb63	-0.07274511
216	0x3c0f83db	0.008759464
217	0xbdc7c378	-0.097540796
218	0x3d88355d	0.06650803
219	0xbe278cb9	-0.16362275
220	0xbdbd9861	-0.092575796
221	0x3b94cfb5	0.004541362
222	0x3d2beb07	0.041972186
223	0xbdc982de	-0.09839414
224	0x3bac98f3	0.0052672564
225	0x3d189ca2	0.03725875
226	0x3d0c6e80	0.03428507
227	0x3c61ddf3	0.013785827
228	0xbd90e9ec	-0.07075867
229	0xbca99c37	-0.020704372
230	0xbe01e1dd	-0.12683816
231	0xbdd2816e	-0.10278593
232	0x3de473d0	0.11154902
233	0xbccee3f6	-0.025255185
234	0x3d735fa9	0.0594174
235	0xbddfde27	-0.10931044
236	0x3e20c68e	0.15700743
237	0xbbf6a3b5	-0.0075268396
238	0x3de60727	0.11231833
239	0xbd27baa7	-0.04094949
240	0xbd95814d	-0.07300053
241	0x3d881729	0.066450424
242	0xbdbb9d23	-0.09160831
243	0x3d2be93e	0.041970484
244	0xbd834c21	-0.06411005
245	0x3dfedc8f	0.12444412
246	0xbe46079b	-0.19338839
247	0x3ddbb606	0.107280776
248	0xbd8cf2c6	-0.06882243
249	0xbd522262	-0.05130232
250	0xbcbf14a7	-0.023325277
251	0xbd199a89	-0.03750089
252	0xbdb25209	-0.08707053
253	0xbdeb5af5	-0.11491958
254	0xbdbf8109	-0.093507834
255	0xbd82bf66	-0.063841626

fc_1.bias f4 [64]
0	0x3e0de213	0.13855772
1	0xbdb6f10d	-0.089326955
2	0x3d995926	0.07487707
3	0xbca492ac	-0.02008947
4	0x3d4e764d	0.05040579
5	0x3dad386d	0.08458028
6	0x3d3b9c1a	0.045803167
7	0xbc82a539	-0.015947925
8	0x3d3502a5	0.044191975
9	0x3dc2e0ca	0.09515531
10	0x3ca524c0	0.020159125
11	0x3be64ef7	0.0070284563
12	0x3d668756	0.05628141
13	0xbc0aad92	-0.008464234
14	0xbd523cbb	-0.05132745
15	0x3db8d3d4	0.09024778
16	0xbd99ac21	-0.07503534
17	0xbdb58ca7	-0.08864718
18	0xbbdbc6d0	-0.00670705
19	0xbe1985d3	-0.14992456
20	0xbcb2c9fc	-0.02182483
21	0xbe00de8d	-0.12584896
22	0xbdf3ab30	-0.11897886
23	0x3db21392	0.08695139
24	0x3d5eda0f	0.054407176
25	0xbdc48d81	-0.09597302
26	0x3ddd0f90	0.10793984
27	0x3d5fa104	0.054596916
28	0xbcb3202a	-0.021865923
29	0x3d63f9d9	0.055658195
30	0x3cc69fb8	0.024246082
31	0xbcb79e59	-0.022414373
32	0x3c8ae414	0.01695446
33	0x3e07b80d	0.13253804
34	0xbdb8813a	-0.09009023
35	0xbd1c47e4	-0.038154498
36	0xbdb0a470	-0.08625114
37	0xbd174e8c	-0.036940143
38	0x3dd5f863	0.10447767
39	0xbdc5093f	-0.09620904
40	0xbc67e551	-0.014153794
41	0xbcbbffb5	-0.022949079
42	0x3c76ca06	0.015062815
43	0x3d82c0b5	0.06384412
44	0xbd562947	-0.05228546
45	0xbdb08b84	-0.086203605
46	0x3dc70096	0.09716909
47	0x3dd1c858	0.10243291
48	0x3db29438	0.08719677
49	0x3dc52705	0.09626583
50	0xbdd79b24	-0.105276376
51	0xbd8dcefd	-0.069242455
52	0xbd948e45	-0.07253698
53	0xbcd3b76c	-0.025844298
54	0xbce5a38b	-0.028032085
55	0xbca6a1ab	-0.020340761
56	0xbd323edd	-0.043516982
57	0xbb3a9eee	-0.0028476077
58	0xbd21573e	-0.03938984
59	0x3daee028	0.08538848
60	0xbe030db0	-0.1279819
61	0xbc7f8fd3	-0.015598255
62	0xbcc5ab89	-0.024129646
63	0xbded5e12	-0.11590208

fc_2.weight f4 [4, 64]
0	0xbe2b8bf1	-0.16752602
1	0xbee869bd	-0.45393172
2	0xbf003f95	-0.5009702
3	0x3e1e507c	0.1546039
4	0xbed28562	-0.41117388
5	0xbd74d86c	-0.05977671
6	0xbc6f8b35	-0.014620592
7	0x3c928108	0.017883793
8	0xbe8640d1	-0.26221326
9	0xbda6da29	-0.081470795
10	0xbf02fc3c	-0.5116613
11	0x3d35c6c1	0.044379
12	0x3f8e1b8f	1.110216
13	0xbcb6909f	-0.022285758
14	0x3f10dfb0	0.5659132
15	0xbddbc51f	-0.10730957
16	0x3cf0a501	0.029375555
17	0xbdabfc41	-0.08397723
18	0xbd2ec3c6	-0.042667173
19	0xbf51c967	-0.8194794
20	0xbdd717fa	-0.1050262
21	0x3d9df1f4	0.077121645
22	0x3cbc9822	0.023021761
23	0x3dfa8e76	0.122342035
24	0x3ddef406	0.108863875
25	0x3d835945	0.06413511
26	0x3f6c2c36	0.9225496
27	0xbf67f1b1	-0.90603167
28	0xbd7f8b3c	-0.062388644
29	0xbd5432ef	-0.051806387
30	0x3e020841	0.12698461
31	0x3eaa220a	0.33229095
32	0x3d1eef01	0.03880215
33	0x3e573d1e	0.21019408
34	0x3f0710a9	0.52759796
35	0xbcf84126	-0.030304503
36	0x3d9991ac	0.07498488
37	0x3e352a9a	0.17692032
38	0x3dad4a00	0.0846138
39	0x3d871832	0.06596412
40	0xbd706b85	-0.05869629
41	0x3d4e631f	0.050387498
42	0x3ea0a9bb	0.31379494
43	0xba1fa300	-0.00060896575
44	0x3ca95d66	0.020674419
45	0x3dd7b3d4	0.10532346
46	0xbdb77014	-0.08956924
47	0xbef00900	-0.46881866
48	0x3c9dfba8	0.019285038
49	0x3e8ac679	0.27104548
50	0x3db365a6	0.08759622
51	0xbcd9383d	-0.026516074
52	0x3f2c9263	0.6741087
53	0x3f25b527	0.6472954
54	0xbf93a770	-1.1535473
55	0xbd37f284	-0.044909015
56	0x3ca8e8cf	0.020618824
57	0x3e1bbe9d	0.15209432
58	0x3dc5cf7a	0.09658714
59	0x3cf16a83	0.029469734
60	0xbd770a30	-0.06031245
61	0x3f4f927c	0.8108289
62	0xbd629859	-0.05532107
63	0xbd4a8932	-0.049447246
64	0x3e0a15e5	0.13484915
65	0x3ecf4e36	0.40489358
66	0x3da39665	0.0798767
67	0x3d53e6b9	0.051733706
68	0x3e9b47e0	0.30328274
69	0xbda6cd76	-0.08144657
70	0xbd971c89	-0.073784895
71	0xbe07a660	-0.13247061
72	0x3dac4450	0.08411467
73	0xbdcdb5d9	-0.1004445
74	0xbec63425	-0.38711658
75	0x3dbd8734	0.092543036
76	0xbf15b8d1	-0.5848513
77	0x3cbc4964	0.022984214
78	0xbf548c5f	-0.8302669
79	0xbd96576c	-0.07340893
80	0xbd86e917	-0.06587427
81	0x3d9b317e	0.07577799
82	0x3d9ac147	0.07556396
83	0xbf24f2f1	-0.644332
84	0x3e04c528	0.12965834
85	0xbd61c5a0	-0.05512011
86	0x3c8c34bd	0.017114991
87	0xbd8092d9	-0.06278009
88	0x3bc8e680	0.0061309934
89	0x3d83ab3f	0.06429147
90	0xbd883f19	-0.0665266
91	0x3f5f3fe6	0.87206876
92	0x3c629c60	0.013831228
93	0x3e193fc9	0.14965738
94	0x3dce0f21	0.10061479
95	0xbf064603	-0.5245058
96	0xbd2fac2a	-0.042888798
97	0xbf4c8e31	-0.79904467
98	0xbeafe15a	-0.34351617
99	0x3de476b4	0.11155453
100	0x3d45f6b1	0.048330966
101	0xbd63bab6	-0.055597983
102	0xbd516467	-0.05112114
103	0x3d215c12	0.039394446
104	0xbd873926	-0.06602697
105	0xbcab697b	-0.02092432
106	0x3e8eddf3	0.2790371
107	0x3c796cd0	0.015223697
108	0xbdb0be7b	-0.08630081
109	0xbd032a5f	-0.03202283
110	0x3d3a6998	0.04551086
111	0xbdb6cdbc	-0.089259595
112	0xbd698e34	-0.05702038
113	0xbe808da8	-0.25108075
114	0xbcd2cbcf	-0.02573195
115	0xbc8dd601	-0.01731396
116	0xbf53d98f	-0.82753843
117	0xbeee7564	-0.46573937
118	0x3f0eb24a	0.557408
119	0xbe1c40cf	-0.15259098
120	0xbdc1970e	-0.094526395
121	0x3d5d3ad9	0.0540112
122	0xbae3f863	-0.0017392751
123	0xbe14a80a	-0.14517227
124	0x3db91af8	0.09038347
125	0xbf72b5c1	-0.94808584
126	0x3da64951	0.08119453
127	0xbbc610da	-0.0060444893
128	0x3dafb8e9	0.08580191
129	0xbd2bd99a	-0.041955568
130	0x3dc4a439	0.096016355
131	0xbd26c40b	-0.040714305
132	0x3c4d32c8	0.012524314
133	0x3d91932a	0.071081474
134	0x3d04b73f	0.03240132
135	0xbdb36495	-0.08759419
136	0xbbb3350a	-0.0054689692
137	0x3dd290ec	0.10281548
138	0x3e1242f0	0.14283347
139	0xbdd37ffc	-0.103271455
140	0xbe9be80d	-0.30450478
141	0xbccf7f17	-0.025329156
142	0x3ee9458f	0.45560881
143	0xbd01b06c	-0.03166239
144	0xbd5f509b	-0.05452023
145	0x3ddeb4a6	0.108743
146	0x3da39dc9	0.079890795
147	0xbe33bbf6	-0.1755217
148	0xbdcaf0f2	-0.09909238
149	0x3d99d627	0.075115494
150	0x3db65e20	0.08904672
151	0x3cd74156	0.026276272
152	0x3c57fcd0	0.013182834
153	0x3d689697	0.05678424
154	0xbf5a3317	-0.85234207
155	0x3c572878	0.013132207
156	0x3dc6a5a0	0.09699559
157	0xbc8b2354	-0.01698462
158	0x3d2fe55d	0.042943347
159	0x3e1aa8fb	0.15103523
160	0x3b825c0a	0.003978257
161	0x3ed333d6	0.41250485
162	0xbca6075b	-0.02026718
163	0xbdf90fe7	-0.12161236
164	0x3dffb425	0.12485532
165	0xbd94d7d3	-0.07267728
166	0xbd690ddc	-0.056897983
167	0x3dca6733	0.09882965
168	0x3de3c83d	0.11122177
169	0x3dd1062e	0.10206257
170	0xbf2e411e	-0.6806811
171	0x3df500ce	0.11963044
172	0xbe299b14	-0.16563064
173	0x3db09220	0.08621621
174	0x3ddaa6aa	0.1067632
175	0xbed46eb6	-0.41490716
176	0xbddb2152	-0.10699715
177	0x3ddb62ff	0.107122414
178	0xbdee7a70	-0.11644447
179	0x3dec9523	0.11551883
180	0x3f117542	0.56819546
181	0xbd52cd19	-0.051465128
182	0x3f0e0b9d	0.5548647
183	0xbd434974	-0.047677472
184	0xbea00b57	-0.31258652
185	0x3e10144f	0.14070247
186	0x3d19c5ae	0.037542038
187	0x3c35f69b	0.011106159
188	0x3dc34696	0.095349476
189	0x3eeb3591	0.45939305
190	0x3d142ab9	0.036173556
191	0xbd6d7811	-0.057975832
192	0xbc0f242d	-0.008736652
193	0x3da1b173	0.07895174
194	0x3e9c55ce	0.30534214
195	0xbdf32874	-0.1187295
196	0x3e3f8abd	0.18705268
197	0x3d035e10	0.032072127
198	0xbc4331ef	-0.011913761
199	0x3d1aea70	0.037821233
200	0x3dab5ba7	0.08367091
201	0xbdd714f3	-0.105020426
202	0x3f0a2ef9	0.53977925
203	0x3bfca6c0	0.007710308
204	0xbef7eee8	-0.48424459
205	0xbc9f46e1	-0.019442977
206	0xbde4538d	-0.111487485
207	0x3dc97456	0.098366424
208	0xbe201c25	-0.15635736
209	0x3d020ce0	0.03175056
210	0x3dea1b31	0.114309676
211	0x3f3cae69	0.7370363
212	0xbb64e5a0	-0.0034926906
213	0x3dfd5ed1	0.123716004
214	0xbcdc6120	-0.026901782
215	0xbe550a78	-0.20804775
216	0x3dedef04	0.11617854
217	0x3cbc11e5	0.022957752
218	0xbed5bbd6	-0.4174487
219	0xbf0210b3	-0.5080673
220	0x3dd2bed0	0.10290301
221	0xbd9e224e	-0.07721387
222	0xbd3191f8	-0.043352097
223	0x3e019abc	0.12656683
224	0x3d26d2e3	0.04072846
225	0x3e9b3470	0.30313444
226	0xbf0fcfd9	-0.56176525
227	0x3e14ab11	0.14518382
228	0xbe54a9e4	-0.20767933
229	0xbdf0e232	-0.11761893
230	0x3db71399	0.08939285
231	0x3d07b36f	0.033130106
232	0xbdd623da	-0.10456057
233	0x3dadff37	0.08495944
234	0x3e86ed20	0.26352787
235	0xbdc4e11e	-0.0961325
236	0x3e022f4d	0.12713356
237	0x3bc63de8	0.0060498603
238	0x3c6485fb	0.013947959
239	0x3f0a51c9	0.54031044
240	0xbdfccd20	-0.12343812
241	0xbccd3fe9	-0.025054889
242	0xbd5b6b03	-0.05356885
243	0xbe0519f6	-0.12998185
244	0x3de7e06d	0.11322103
245	0xbea22356	-0.31667584
246	0x3f637a52	0.8885852
247	0x3dc3ffd1	0.095702775
248	0x3ed57863	0.4169341
249	0xbde21946	-0.11039977
250	0xbe03d593	-0.12874441
251	0xbd4782de	-0.04870879
252	0xbd45440e	-0.048160605
253	0xbd9c0374	-0.07617846
254	0xbdc39f02	-0.09551813
255	0xbd956242	-0.07294132

fc_2.bias f4 [4]
0	0x3d2fdd5d	0.042935718
1	0xbddc381c	-0.107528895
2	0xbd664c33	-0.056225013
3	0xbba41977	-0.0050079185
