Additional stuff/best_model.pth (torch, 78434 bytes, 18 tensors)

base_pointnet.conv_1_a.weight f4 [64, 1, 3]
00000000: 3f94 9fbe 184f 343e be5d 053e b63f 4cbd
00000010: 00ed d3be de68 d93e ebb4 c2be e4a4 653d
00000020: 8fe8 ab3e 9ca6 2b3e f10e 593e ebe8 6e3e
00000030: 7869 8fbe 2866 9bbe a067 cd3e 5f32 c83d
00000040: 2e1f eebe 0649 8b3e 8e31 fa3c 3ae9 3cbc
00000050: b5ac 593d da1d 09be 01e4 aabe a754 953e
00000060: 4995 4dbe e5aa db3e a468 90be 8b6a e33d
00000070: ca0a b3bd 2077 7bbe b2bd 17bf ab84 883e
00000080: 52f0 983e 4aad c83d fba1 92be d952 1d3e
00000090: eb4b a23e 708a b93e f5da adbe aa51 dabe
000000a0: ef57 943e e0af 513e 3d00 783e 5393 97be
000000b0: 679e cfbd 401a 723d 5258 cbbe 5995 b33e
000000c0: 9e61 6c3d f04d 843d c7ce cc3c 2736 cebd
000000d0: 1907 313e 71d1 adbd 3103 bdbc 05a7 ffbd
000000e0: 120a c63d 33bd fc3e 0c80 d8be 801a c2be
000000f0: cd86 01be d6f2 04be 9573 083e 0df9 bfbe
00000100: 97a0 9dbe f726 013f 2eb4 6c3e 0fb1 da3e
00000110: 420f 8b3e ff1d e43e ca4a fd3d 16be c23e
00000120: 4093 a33c b562 cfbd 8ab7 8ebe 385d 55bd
00000130: 305d c3bd 3edd e73c b54c 083d 802d ad3e
00000140: 1ce2 acbe 8d2a 93be 1675 8f3e b386 523c
00000150: f40a 973e 0066 cfbd e475 98be d2d9 4ebe
00000160: 6bca 94bd e647 74be 9430 f33d 9739 89bd
00000170: 1574 ebbe 96e3 0dbe 8df0 c7bd 749c aa3e
00000180: d683 bfbe 7670 24be 7bd8 eb3e 3baf d83d
00000190: 224d 70be 9599 833d 019e 26be df0d 20be
000001a0: 5009 233e 4eb0 ce3e f0ca ffbe a6aa 733d
000001b0: 5ba2 db3e ce67 0b3e c5d7 03bf 1683 9e3e
000001c0: a192 173f 8d4f d43e 22af 953e ca90 15bf
000001d0: 502f a13e cff5 06be 91ed 213f 1ef8 423d
000001e0: f097 e0be 1a22 95be 7551 183f a06d 58be
000001f0: c943 2ebd 11f5 6d3e 81be 6bbe 7f10 1dbd
00000200: 9668 91be e702 023f ca35 05bf 8660 00be
00000210: ef5b 883e 4f07 aabe 26a0 803e 55a3 1dbf
00000220: 57d6 833e 97c6 c3bd 005f 70be 05e2 be3c
00000230: e508 0ebf c1c2 56bd 5156 923e 02b8 b23e
00000240: d92c d1be 0930 0ebd 9626 893e 9b8d 513e
00000250: c33c 2fbe 9c70 9a3e 56d7 c7be 98b2 58bd
00000260: 6bd8 b53e a929 fbbe 2547 493d d7ce 763e
00000270: 4296 76be a238 f33e 697b cb3d dbe9 d3bd
00000280: 6c8c 883e 3ae5 f3bd 75b0 14be 9628 0a3f
00000290: ce9f 9fbe 7eb4 73be 6862 15bf 9c52 803d
000002a0: db78 36bf 18fb 7fbe f75a 69be dc10 f43d
000002b0: db4f eabe 5b6b 683d f447 903c 8f0b 23be
000002c0: 0c87 0f3e 89a6 113f cec7 823e 7dfc 0d3f
000002d0: 7112 07bb 8be2 71bb 1f48 b9bc 66f8 c63e
000002e0: da88 393e 2695 90be e50d 66bd 18cd d6be
000002f0: 8647 8e3e 8875 b63e 392e 14bf 734e d13d
-0.3116779 0.17608297 0.13024041 -0.049865447 -0.41391754 0.4246282 -0.38028654 0.056065455
0.33575866 0.16762775 0.21197106 0.23331039 -0.28010154 -0.30351377 0.40118122 0.097752325
-0.46508163 0.2720415 0.030541208 -0.011530215 0.053143222 -0.13390294 -0.33377078 0.29166147
-0.20076479 0.4290382 -0.28204834 0.11104306 -0.08742292 -0.24557161 -0.5927383 0.26663718
0.2987085 0.09798677 -0.28639206 0.15363635 0.31698546 0.36238432 -0.33956113 -0.4264043
0.28973338 0.20477247 0.24218841 -0.29604587 -0.10137635 0.059107065 -0.3971582 0.3507488
0.057710283 0.06460178 0.025000943 -0.100689225 0.17287864 -0.084872134 -0.02307281 -0.12483028
0.096698895 0.49363098 -0.42285192 -0.37910843 -0.12649079 -0.1298326 0.13325341 -0.37494698
-0.30786583 0.5045008 0.23115608 0.4271321 0.27160078 0.44554135 0.123677805 0.3803565
0.019967675 -0.10126249 -0.27874404 -0.052090853 -0.095392585 0.028303739 0.03327628 0.33823776
-0.33766258 -0.287434 0.28019017 0.012849498 0.29500544 -0.10126877 -0.29777443 -0.2020028
-0.07265171 -0.23855552 0.118745 -0.067004375 -0.45987 -0.13856348 -0.09762678 0.3332249
-0.3740527 -0.16058525 0.460636 0.105802976 -0.23466924 0.06425778 -0.16271211 -0.15630291
0.15921521 0.40368885 -0.49959517 0.059488915 0.42897305 0.13613817 -0.51501113 0.30959386
0.5920811 0.41466942 0.29235178 -0.58424056 0.3148141 -0.13179706 0.6325312 0.047599904
-0.4386592 -0.2912758 0.59499294 -0.21135569 -0.042545114 0.23238017 -0.2302189 -0.03834581
-0.28400105 0.5078568 -0.520352 -0.12536821 0.2663264 -0.332087 0.25122184 -0.6157735
0.25749466 -0.095593624 -0.2347374 0.023301134 -0.5548232 -0.052431826 0.2858148 0.34906012
-0.4085453 -0.03471378 0.2678725 0.20464174 -0.17113023 0.3016404 -0.39031476 -0.052904695
0.35516676 -0.49055222 0.049140114 0.2410234 -0.24080756 0.47504145 0.09935648 -0.10347339
0.26669633 -0.11908956 -0.14520438 0.5396818 -0.3117661 -0.23799321 -0.5835328 0.062657565
-0.7127816 -0.24998128 -0.22788607 0.11917278 -0.4576405 0.056743007 0.017612435 -0.15922378
0.1401636 0.5689474 0.25543064 0.5546339 -0.0020610357 -0.0036908712 -0.022617398 0.38861388
0.18118611 -0.2823879 -0.056165595 -0.4195335 0.27788943 0.35636544 -0.5788303 0.10220041

base_pointnet.conv_1_a.bias f4 [64]
00000000: dc97 d23e 5507 173f 4d92 b13e 544c b9be
00000010: 71f0 0f3f a3e1 0c3f 5df6 133f d0ca fbbe
00000020: fa4c e43e e4c7 883d 13a5 93be 7f6f 07bd
00000030: bc4f 97bd be92 193e ed4a 31be a476 e1be
00000040: f64f b83e 9c7c 0dbe 2cd6 063f 8b3a 04bf
00000050: 6ff4 2b3e 52dd 05bf c3e9 8a3e 6138 07bf
00000060: c592 7e3e 0156 d93e fe7c a73d 60c4 de3e
00000070: cc7c 123f 692d 5abe 6fff 64be 1a6a 10bf
00000080: 5e0f b13e 3db4 973e 4877 a6be bad2 d4be
00000090: b9ed ad3e 8902 883e 360e 4f3d 90ef 0a3f
000000a0: 026e 1a3d 8db5 623e 2db3 0fbf 1ff4 45be
000000b0: 8ad0 78be 8a83 8cbe c187 c1be 6c70 113f
000000c0: 2386 de3c e622 693e e2bf 013f 96a1 45bd
000000d0: 3041 0e3f cdaa ad3e 4911 c43e e54e 983d
000000e0: a40d a8be b49b 0bbf 0961 453e 87cc 2cbe
000000f0: a6e5 0f3e 24af e1be 5eea bcbe af8c a23e
0.41131485 0.5899556 0.3468193 -0.36191046 0.5622626 0.55031794 0.57797796 -0.4917817
0.44589978 0.06678751 -0.2883688 -0.033065315 -0.07388255 0.14997384 -0.17313738 -0.44035828
0.35998505 -0.13817066 0.5267055 -0.5165183 0.16792463 -0.52290833 0.2713147 -0.528204
0.24860676 0.42448428 0.08178137 0.43509197 0.57221675 -0.21306385 -0.22363065 -0.564119
0.34582037 0.29629698 -0.3251288 -0.41567022 0.3397043 0.26564434 0.050550662 0.54271793
0.037702568 0.22139569 -0.56132776 -0.19331406 -0.24298301 -0.27444106 -0.37798885 0.5681217
0.02716357 0.22767219 0.50683415 -0.048249803 0.5556822 0.33919373 0.38294438 0.07436923
-0.32822907 -0.5453446 0.19275297 -0.16874896 0.14052448 -0.44078934 -0.36897558 0.31747958

base_pointnet.conv_1_b.weight f4 [64, 1, 3]
00000000: 5c03 cabd daff afbd c04a 0bbf 54c5 c8be
00000010: e8e8 2cbe a359 75be 8f84 3ebe b96a e1be
00000020: 0e0d 1d3f 7a8b 67bf 893b 2abf a340 dbbe
00000030: b6c6 a53e 2657 1cbe 1f3b 8b3e 10bf 093f
00000040: 64fc c5bd 9c51 48be f4c8 c3be 44e3 87be
00000050: f0de 1ebe 7a0c 4fbc c78a 473e 981e 643e
00000060: 0b8c 35bf 8a2e 8dbf a6ef c5be 95e5 303f
00000070: d368 873e 9431 063f 9f66 2bbf b8f6 bc3d
00000080: cf52 84bf 04ef 96bd 9ea2 373f 3a28 a1be
00000090: 7af7 1cbe 8423 37bf cde4 17bf c852 c43e
000000a0: 55f3 7dbe 5f39 87bf 45d2 503f 7cb6 aa3e
000000b0: 41b0 82bf 5ff9 f13d 8dde c73e 556a 833d
000000c0: 5762 8ebe 872e 453f 3e8d a33e c42a 93be
000000d0: 4e4e 33be d248 853f 15cb 413f 6754 493d
000000e0: e9e5 b4be a4a3 003f b115 2d3f b18f 87be
000000f0: 7e49 b3be 4fc8 463f d979 0dbd 6c5c f2be
00000100: 3996 7cbe 0c5a 363f 0978 953e f46e 4fbd
00000110: 98c5 9e3e 6088 cebd 61ec 833e d6b4 f83c
00000120: 4522 30bc 9495 633f 74b1 293f 390e 223f
00000130: 4bbc 0c3f ec12 5a3e c97f 4d3f f852 1f3f
00000140: 3994 4abf 5128 b7be de89 afbf 68f5 12bf
00000150: 6793 db3e 7376 73bf 3e80 8fbf bebe bfbe
00000160: 08ee 06bf 5a2d 3fbf 0538 88be 07c1 a8bd
00000170: c7c4 27be 9a25 5cbf 7e2a f53d 2d00 03bf
00000180: 9d38 e6bd 0f30 0cbf cdcf c83e e48e 0a3f
00000190: 7a9d 553d b117 713f 0571 5f3e b839 3e3f
000001a0: 5523 513f d8f8 523f addf a23e 26b9 373f
000001b0: 4fc2 3d3f fab5 53be db4d 3b3f 0b7d c3bc
000001c0: 8cf7 abbd c5f9 4fbe 2bd3 063f 8f39 dbbe
000001d0: a31a a7be e69c 103f f30d 6a3b e155 333e
000001e0: d04a 43be 4342 ddbd 882f 45bd b290 a23f
000001f0: e2e9 b43e f46f 22bf 4281 903e e42c 283e
00000200: 264e 32bf 359b 99bf 6531 53be 88ef 853f
00000210: c8a7 8a3e e5d1 4c3f eefb 60bc f325 b8be
00000220: 830d 34be a545 0f3f 41a8 023f 764d 723e
00000230: e433 3b3f 3c95 eebc 65bf 383e 5d1c 0d3f
00000240: 7f3d c23e 7394 b73c eafc c93e 1f8d e93e
00000250: 44ca 3b3f c985 ae3e c59c d03e 6dbe cfbe
00000260: 6bc8 843e ca44 233e 3a6c 2ebc b58e e03e
00000270: 410d c5be d2b0 2c3f 9f07 4bbe 7529 aebe
00000280: c1c0 c7be 6330 66bf bfcd 0ebe 8422 f6be
00000290: 19b5 9f3c 6c5c 0d3e 6835 bdbe 3564 143f
000002a0: 2d59 07bf 8031 92be 7fd6 c53e 1c3c 353f
000002b0: e250 07be db39 873e a104 fabe 123d 0a3f
000002c0: 3907 00bf c162 b8bc 1ee5 653e 836b 883f
000002d0: 783a b5be fe69 8cbf c714 d2be 745d 213e
000002e0: d484 0fbf 0152 4dbf 6103 643e 6242 533f
000002f0: 82d6 8a3d 5d31 853e 4f05 53be c7be 5e3f
-0.09863922 -0.08593722 -0.54410934 -0.3921305 -0.16885722 -0.23959975 -0.18605255 -0.44026735
0.61348045 -0.904472 -0.66497093 -0.4282275 0.32378167 -0.1526762 0.27193543 0.53807163
-0.0966728 -0.19562382 -0.38239253 -0.26540577 -0.15514731 -0.012637252 0.19486533 0.22277296
-0.70916814 -1.1029828 -0.386594 0.69100314 0.26447162 0.524194 -0.6695346 0.09226745
-1.0337771 -0.07369807 0.7173251 -0.31476003 -0.1532878 -0.7153857 -0.593335 0.38344407
-0.24799855 -1.0564383 0.81570846 0.3334235 -1.0210038 0.11815142 0.3903698 0.064167656
-0.27809402 0.7702412 0.31943697 -0.28743565 -0.1751034 1.0412848 0.75700504 0.049152758
-0.35331658 0.50249696 0.67611223 -0.26476815 -0.35017008 0.77649397 -0.03454003 -0.47336137
-0.2466668 0.7123115 0.29193142 -0.050642923 0.31010127 -0.10084605 0.2576628 0.030359667
-0.010750358 0.88900113 0.66286397 0.6330295 0.5497481 0.2129628 0.8027311 0.62235975
-0.7913242 -0.35772946 -1.3713949 -0.5740571 0.42885897 -0.95102614 -1.1211011 -0.37450212
-0.52706957 -0.74678576 -0.2660524 -0.08239942 -0.16383658 -0.85994875 0.11970995 -0.51172143
-0.11241267 -0.5476083 0.3922104 0.54124284 0.052152134 0.94176775 0.21820457 0.7430682
0.8169454 0.82410955 0.31811276 0.7176689 0.74124616 -0.20674887 0.73165673 -0.023863336
-0.08396825 -0.20310123 0.52665967 -0.4281735 -0.3263751 0.5648941 0.003571388 0.17513229
-0.19071507 -0.10803654 -0.048141032 1.2700408 0.35334688 -0.63452077 0.28223616 0.16423374
-0.69650495 -1.200049 -0.20624311 1.0463724 0.27081132 0.80007774 -0.01373194 -0.35966453
-0.1758328 0.55965644 0.51037985 0.23662362 0.73126054 -0.029123895 0.18041761 0.55121404
0.37937543 0.022409653 0.3945077 0.4561548 0.7335551 0.34086445 0.40744606 -0.4057497
0.25934157 0.1594421 -0.01064592 0.43858877 -0.38486674 0.67457306 -0.19827126 -0.34016004
-0.39014247 -0.8991758 -0.13945673 -0.48073208 0.019495534 0.13804787 -0.36954808 0.57965404
-0.52870446 -0.2855339 0.3864021 0.70794845 -0.13214448 0.26411328 -0.48831657 0.53999436
-0.5001102 -0.022508027 0.22450683 1.065781 -0.3539617 -1.0969846 -0.41031477 0.15758306
-0.56062055 -0.80203253 0.22266914 0.8252317 0.06779195 0.26014224 -0.20607494 0.87009853

base_pointnet.conv_1_b.bias f4 [64]
00000000: a4ad b53e df1b 133e a75e 863e b84e dc3e
00000010: 2db0 323d 6a89 fd3e bf2d bcbe 8865 113f
00000020: 2d8a ad3a 4f2d 1bbc 6114 52be babb 0dbe
00000030: ef3b 09bf 428a 773e bd90 843e baba 043f
00000040: 44b0 a4bd b311 f83e 1611 77be f150 1d3e
00000050: dbb4 68be 0bdc afbe 7020 023d db0d 71be
00000060: dccd 09bf 7cc0 103f 0646 143e 07f3 efbd
00000070: 8fca b43e a18e 5b3e 49fc 22be 4d96 e63e
00000080: ab35 88be 95e8 d3be 1287 cf3e 7bfe 0ebe
00000090: 9ba1 93bd 8f5c 0b3e 1a4d a2bd 1ea2 dfbd
000000a0: c8a6 e63e a197 3b3e 8723 f6be 1140 10bf
000000b0: d4fa 823c 4543 70be ba8c 1fbe aabd 94bc
000000c0: 119d 01be 8a58 b6be a1e3 4cbe b660 0b3f
000000d0: 01b9 7b3c 670a 04bd fa4e 98be bd3a d0be
000000e0: 7ca5 8a3d a1b5 b4be 101b 773e d272 963e
000000f0: 73a6 01bf ffae 8abd f2f5 c1be 0df8 a63d
0.3548404 0.143661 0.2624409 0.43028808 0.043625046 0.495189 -0.36753651 0.5679555
0.0013240032 -0.009471252 -0.20515586 -0.13841143 -0.53607076 0.24173835 0.25891677 0.5184742
-0.080414325 0.48451003 -0.24127612 0.15362908 -0.22725241 -0.34347567 0.031769216 -0.23540442
-0.5382974 0.5654371 0.14479837 -0.11716276 0.3531079 0.21441127 -0.15916552 0.45036545
-0.26603445 -0.41388384 0.40532738 -0.13964264 -0.07208558 0.13609527 -0.07924862 -0.10919593
0.4504912 0.1831956 -0.4807398 -0.5634776 0.015988745 -0.23463161 -0.15581027 -0.018156845
-0.12657572 -0.35614425 -0.20008709 0.54444444 0.015363933 -0.032236483 -0.29747754 -0.40669814
0.06769845 -0.35294822 0.24131417 0.29384476 -0.50644606 -0.06771659 -0.37882954 0.08152781

base_pointnet.conv_2.weight f4 [64, 64, 3]
00000000: 8bb4 81bd 7c22 053d 5407 b4bd dd7c 07bd
00000010: e47d 0b3d 9cef 913c 5178 6c3d 0224 e6bc
00000020: 602e fcbc 6ef3 49bc 6282 073c 95fd 72bc
00000030: 632d 883d 2a91 7c3d 428e 91bc 0c62 b73d
00000040: 983b af3c d852 cc3d 3803 cebc 05db bcbc
00000050: 400c 21bc 920b 58bd efbb dbbb b6aa 253c
00000060: ab86 f63d 58cf 0d3e 47ba 273e 0f87 833d
00000070: 2007 483d 329a 79bd 7dc8 1c3d 1667 b83d
00000080: 6ec4 863d ef4f 04bd d2b3 933d ed04 aa3d
00000090: 466b 473d 7dc8 87bd 3cd2 56bc fb2c 503d
000000a0: b94f 37bb 5ba7 183d 54d1 643d cd2f 123b
000000b0: f009 f63d 331d 133d 7e9b f03d 17c9 083e
000000c0: 1221 55ba ae36 db3d 1c5d 933d 9eeb b83d
000000d0: 238d 11be 4bd3 3abe 1863 183c 6ab1 8abb
000000e0: 1c42 e3bd a7bd be3c b623 fabc 6e77 bd3c
000000f0: 0312 b63c a2ac 2ebd 710e de3c e331 67bc
00000100: 44cc 263d c624 853a b3bc 0d3d 6010 78bd
00000110: ff43 65bc 2700 1b3d 3261 acbc cd96 50bd
00000120: 4791 f3bd da68 1dbd 9153 0bbe 20c4 e7bb
00000130: 8bfa 1abe 12d9 733d 2260 cabd 0e6f f8bd
00000140: 1321 b5bd ca22 79be f37d b2bd f18f 97be
00000150: 6e16 60bd 3e88 39bd f47d 0d3e ba0a 40bc
00000160: 4b08 05bd f08e 19bd af17 abbd 1d33 c0bd
00000170: 5dad 03bd f0f3 e43c 76bc 4bbc e15d 9e3c
00000180: cb93 a0bd 2833 863d 1b00 cbbc 7850 683d
00000190: 6728 fabd 2ae5 10be 6cce cdbd 7a64 59be
000001a0: 0637 123c f5b9 83bd 11e3 90bd ce23 b7bd
000001b0: 549c 0c3d 21a6 01bd 42f5 9cbd dae1 5abb
000001c0: 29dd 74bd d96b 073d 9307 ac3d 0b17 22bb
000001d0: c74f c13c c5b1 283d e272 a53b 4ddb 363c
000001e0: d51c 283c 15bb e03d 5ae9 3d3d c2b5 8a3c
000001f0: 2a75 ccbd 9769 013d 0d42 843d 7181 a53c
00000200: d0d1 61bd 66e7 31bd 8172 503c af18 503c
00000210: 8be4 1b3d ea2c a13d 1643 003e 4d7d 323d
00000220: 40fe 953c d32d 533b 4f0b 16bd ac74 e53c
00000230: 1161 843c 551a fdbc 7d4f 873d d61c 373c
00000240: 8b27 023e 1b96 863d a2df 043d f8d1 07bd
00000250: 979a 483d 43c9 923d 8924 4bbd 6cea c93d
00000260: a208 383d 918a ed3d 1f08 ba3d 0bc0 963c
00000270: 7789 a7bc a0b8 88bd 8687 923d b2a9 113e
00000280: 0efa 003e d3e3 853c dacb c83d 0c27 023d
00000290: 2acf f73d 3aa4 febc 3442 b2bd afe4 d2b8
000002a0: 33dc 783c e611 133d c78c 473c ed6e 3bbd
000002b0: 948b 59bd 093b a4bd e202 1ebe 0881 dbbd
000002c0: bdc2 b1bd a57e 17bc 74ad a83d 23a8 613d
000002d0: 0268 74bb f112 153d 42c8 e03d 310f 46bc
000002e0: 8d8b 1b3d 412a b73c 027f 5b3d 9f49 483c
000002f0: 014b 6f3c bcd0 503c 95aa f13c 5868 1ebc
00000300: 2978 433e 25a9 ad3d 21d9 613d a29b f7bc
00000310: fde6 2ebd eafb 9a3b b274 a4bd 36c3 ec3b
00000320: bcb9 eebb 58e3 423b 2720 8bbd 5f9b 93bb
00000330: 35e2 47bd 9b1d 25bc a84b cebc ea17 d93c
00000340: ecfe 933d 3d40 253e 9768 be3d 872b 8f3d
00000350: abe8 853d e94c 643c a424 913c 2ec7 6abb
00000360: 6edd cebb 384a e93c 3d60 1fbd 4b04 ba3d
00000370: bb14 883e 01a7 673e cdff e33c 49f5 b53d
00000380: 3869 f1bb 07d3 4cbd 333f a03d e61c d13c
00000390: c8b2 0dbc 580b 0cbd bec2 8d3b e13b cb3d
000003a0: 2136 cfbc 926a 1fbd ae57 2abd 20e2 0abd
000003b0: a624 7cbc 65c4 9c3c 04bc 8b3d 5c7b 8ebd
000003c0: e00b db3c 6da4 4a3d ff1a 593d 2cb6 173d
000003d0: d2ad 1a3e 65de 0b3e 9498 07be 81f0 68be
000003e0: ce07 7a3c d689 703d 3b1c 153e e061 003d
000003f0: 13bb 59bc 0943 3c3c 7535 943c e9f8 92bd
-0.06333264 0.03250359 -0.0879046 -0.033078063 0.034055606 0.01781445 0.05773193 -0.028093342
-0.030783832 -0.012326105 0.008270832 -0.0148309665 0.06649282 0.061661877 -0.01776803 0.08954248
0.021390721 0.09976739 -0.02514802 -0.023053655 -0.009829581 -0.05274541 -0.006705753 0.010111501
0.120374046 0.13848627 0.16379653 0.06422245 0.04883492 -0.060938068 0.038277138 0.09004037
0.06580435 -0.032302793 0.072120324 0.08301721 0.04868629 -0.06630037 -0.013111647 0.050824147
-0.0027971102 0.037268978 0.055863693 0.0022306324 0.12013614 0.03591652 0.11748408 0.1335796
-0.0008130233 0.10703789 0.071954936 0.090293154 -0.14213996 -0.18244664 0.00930097 -0.004232575
-0.11096594 0.023283793 -0.030534606 0.023128238 0.022225386 -0.042645104 0.027106496 -0.014111015
0.040722147 0.0010158054 0.034603786 -0.06056249 -0.013993262 0.037841942 -0.02104244 -0.050925065
-0.11892944 -0.038430072 -0.13606097 -0.0070729405 -0.15134637 0.059533186 -0.09881617 -0.12130557
-0.08844199 -0.24329677 -0.08715429 -0.29602006 -0.05470889 -0.045295946 0.13817579 -0.011721307
-0.032478612 -0.03748983 -0.08354127 -0.09384749 -0.032147754 0.02794835 -0.012435069 0.019331874
-0.07840689 0.06552726 -0.024780324 0.056717366 -0.122147374 -0.14149919 -0.100491375 -0.21229735
0.008924251 -0.06431953 -0.070745595 -0.08942376 0.034328774 -0.031652573 -0.07663967 -0.0033398778
-0.059781227 0.033061836 0.08399882 -0.0024732973 0.023597611 0.04118516 0.0050490955 0.011160684
0.01026078 0.10973183 0.04636512 0.016932372 -0.09983285 0.03159484 0.06457911 0.020203324
-0.055131733 -0.04343357 0.012722612 0.0127011975 0.038059752 0.07869895 0.12525591 0.043576527
0.018309712 0.0032223358 -0.03663188 0.028009735 0.016159566 -0.030896345 0.06606958 0.011176309
0.12710397 0.06571599 0.032439835 -0.033159226 0.048975553 0.07167294 -0.04959539 0.098591655
0.044930108 0.11598695 0.0908358 0.01840212 -0.02045129 -0.066758394 0.07154755 0.1422489
0.12595388 0.016343987 0.098045066 0.03177552 0.1210006 -0.031084169 -0.087040335 -0.00010056176
0.015189218 0.03590574 0.01217956 -0.045760084 -0.053111628 -0.080190726 -0.15430787 -0.1071797
-0.086797215 -0.009246503 0.082362086 0.05509199 -0.0037293439 0.036395017 0.10975696 -0.012088583
0.037974883 0.022359015 0.05358792 0.012224584 0.014605285 0.012745079 0.029500285 -0.009668432
0.19088806 0.084795274 0.05513871 -0.030225579 -0.042700756 0.0047297375 -0.0803007 0.0072254194
-0.007285325 0.0029737558 -0.06793242 -0.0045046057 -0.048799712 -0.010077859 -0.02518256 0.02650066
0.07226357 0.16137786 0.09297293 0.06990724 0.065385185 0.013934352 0.017717667 -0.0035824287
-0.0063130176 0.028477773 -0.03891014 0.0908285 0.26578316 0.226223 0.027831936 0.08884675
-0.0073672794 -0.05000594 0.07824554 0.025526475 -0.008648582 -0.034190506 0.0043261936 0.0992353
-0.025294365 -0.038919993 -0.041587524 -0.033907056 -0.015389597 0.019136617 0.068229705 -0.06957123
0.02673906 0.049473215 0.05300426 0.037038967 0.1510537 0.13659056 -0.13241798 -0.22747995
0.01526065 0.0587252 0.1456155 0.03134334 -0.013289231 0.011490592 0.018091897 -0.07176382

base_pointnet.conv_2.bias f4 [64]
00000000: 6368 a63d f94f fc3c 4193 123c 8b16 8c3b
00000010: a635 903d 6b82 cdbb a9ec 60bd 0c5f b5bc
00000020: ecbe 9c3d 65dc 8c3d 5c44 9d3c 124d 213d
00000030: 7d25 8b3d 337d 51bd f56e f43c e700 263c
00000040: 0970 d0bd 3c75 dabc 37e9 2bbd 54c2 663b
00000050: f5ba 64bd 1b9f 213d fffa 2c3d 698c 11bc
00000060: 4015 81bb 2a7a a23c 2507 183d 58ec 4fbd
00000070: 634b 0d3e ea65 db3c f715 473d 81b1 85bc
00000080: f066 c7bc 2370 043d 8819 2b3c 8e05 29bd
00000090: 5ea0 663d c53a 7d3d dff5 4b3d d53c acbb
000000a0: c862 10bd ec31 42bd eda6 91bd 9349 8abd
000000b0: 0783 9b3c 647c 0f3d 3b87 333c 4bcd 7f3c
000000c0: 7c14 1fbb 0bde de3c eb12 843d 2839 493b
000000d0: 2fa8 083a d765 c73d 7b57 3a3c ffa5 c53c
000000e0: 2a12 82bd 18e3 8d3c ec53 1b3c 59d8 d63c
000000f0: b059 9b3d f322 ce3c ac1a bb3d d7d2 01bd
0.08125379 0.030799853 0.008946241 0.0042751483 0.070414826 -0.0062716505 -0.054913197 -0.022140048
0.07653603 0.068779744 0.019197635 0.03938014 0.0679426 -0.05114479 0.029838065 0.010132051
-0.10177619 -0.02666723 -0.041970458 0.0035211043 -0.05584236 0.039458375 0.042231556 -0.008883574
-0.003939301 0.019833643 0.03711619 -0.050762504 0.13798289 0.026781995 0.04860493 -0.016319992
-0.024341077 0.032333504 0.010443099 -0.041265063 0.05630528 0.061823625 0.049795028 -0.005256275
-0.035250455 -0.04741089 -0.07111917 -0.067523144 0.018983377 0.035030738 0.010957534 0.0156129105
-0.0024273684 0.027205488 0.06448921 0.0030704234 0.00052130496 0.09736221 0.011373396 0.024127005
-0.06351121 0.0173202 0.009480458 0.02622621 0.07585466 0.02516315 0.09135947 -0.031695213

base_pointnet.bn_1.weight f4 [64]
00000000: 249d 883f 9580 8e3f f986 543f fadc 433f
00000010: 4ad2 7d3f 1f14 5f3f 9bb9 893f 02da 2d3f
00000020: 790c 7f3f 239c 853f f944 833f ddec 6c3f
00000030: b964 593f 801e 713f 1cec 7a3f 28c8 623f
00000040: be2a 663f 3c79 a03f 8589 7c3f c12f 5c3f
00000050: 1513 223f 4e3c 693f 83c4 0d3f 8302 4e3f
00000060: 1785 543f 302a 6f3f 1b66 843f 0d57 bc3f
00000070: 2d3b 833f a91f 5c3f aa84 573f e233 7c3f
00000080: fe44 673f 219d a73f d2ac a43f 63e6 803f
00000090: 93e9 4e3f 88b0 0d3f c28b 803f c6f8 563f
000000a0: 21ff 733f 24d9 8f3f 34b5 5c3f d66a 863f
000000b0: e444 6d3f 68c3 393f 3655 5b3f df94 323f
000000c0: 2ffe 513f 21d0 363f 8d02 883f 3c74 853f
000000d0: 6ddc 323f ffec 9a3f 4943 513f 8e60 3a3f
000000e0: 2212 393f 7759 4d3f a39a 963f 60e9 003f
000000f0: c91e 843f 3d49 583f 560a 703f 860d 6f3f
1.0672956 1.113299 0.8301845 0.7650906 0.99149 0.8714008 1.0759767 0.6791078
0.99628407 1.0438274 1.0255424 0.92548925 0.84919316 0.94187164 0.98016524 0.88586664
0.8990897 1.2536998 0.9864734 0.86010367 0.63310367 0.9110764 0.5537798 0.8047258
0.8301558 0.9342375 1.034366 1.4714066 1.0252434 0.8598581 0.84186804 0.98516667
0.9033965 1.3094827 1.286524 1.0070308 0.80825156 0.5534749 1.0042651 0.8397335
0.9531117 1.1238141 0.86213994 1.0501354 0.92683244 0.7256379 0.85676897 0.6975841
0.8202848 0.7141133 1.0625778 1.0426097 0.69867593 1.2103575 0.81743294 0.7280358
0.72293293 0.8021464 1.1765941 0.503561 1.0321895 0.8448675 0.9376577 0.9338001

base_pointnet.bn_1.bias f4 [64]
00000000: 4a6c 5cbd cdb2 c23e 41b3 92be 409c d9bc
00000010: f42b 113d f408 ba3c 1028 c83e 05f2 aebe
00000020: 8193 cf3d d7c3 7abc 6ea1 aebe 06b2 15bc
00000030: d176 b0be 960f 12be 9694 f9bd 2567 4dbe
00000040: 49a2 bebd 88ff 12bf 7214 a8be 581b 3e3d
00000050: 2e1b 0ebe 5643 47be 2797 c4be 817d e6be
00000060: c734 9abe d112 d3be 469f 4fbd e22d c43d
00000070: 3652 65be c600 633d 7937 08be 74c4 e9bc
00000080: 0548 2bbe 88b3 023e 598f 89be 6a00 b2be
00000090: 058b 373d ab4e bebe afb6 2c3d 930a b3bd
000000a0: d449 a1bd 1e36 f3bd 8c91 063e 228e 833d
000000b0: cb1c f3bd 9952 89be f5c4 1ebd b411 92be
000000c0: eb4a 14be 5745 10be 9ee8 60bd e8ce 19bd
000000d0: 5471 61be bffe 44be c7fa 2a3e 9eca 29be
000000e0: 5c1c 9bbd bc58 93be 5278 2f3e 7fbc d7be
000000f0: c19e 64be 8bf9 fcbc a4dc 01bf d50f cabc
-0.05381421 0.3802704 -0.28652385 -0.026563764 0.035442308 0.022709347 0.39093065 -0.3416902
0.10135556 -0.015305481 -0.34107536 -0.009136682 -0.3446565 -0.14263758 -0.12186544 -0.20058878
-0.09308297 -0.5742116 -0.328281 0.046412796 -0.13877556 -0.1945928 -0.3839657 -0.45017627
-0.3011839 -0.41225293 -0.050689004 0.09579064 -0.22394642 0.05542066 -0.13302411 -0.028536059
-0.16726692 0.12763798 -0.26867178 -0.3476594 0.044810314 -0.37169394 0.04216641 -0.08742251
-0.0787541 -0.118755564 0.13141459 0.06423594 -0.11870726 -0.2682083 -0.03876205 -0.2852913
-0.14481704 -0.14088951 -0.05490934 -0.037550837 -0.22015887 -0.19237803 0.16697226 -0.16581199
-0.075737685 -0.28778636 0.17135742 -0.42136 -0.22326185 -0.03088071 -0.50727296 -0.024665752

base_pointnet.bn_1.running_mean f4 [64]
00000000: 9f98 3abf fae6 ffbf 6903 763f 10fe 8441
00000010: 4c2a 93c0 abcb d5bf 6124 8d3f 178e a0c0
00000020: 1e49 a8c0 89ab 93c0 d2a3 88c0 95f4 30bf
00000030: 5b65 fe40 fc3e 723f 9a89 98c0 e286 c03f
00000040: d1d1 d140 db54 813f 0aea 16bf 0d5f 0ec1
00000050: b3d4 4ec0 989a d7c0 4623 ff41 d78a f641
00000060: 4ba7 16c1 5b6c d6be f361 1f40 1428 69c0
00000070: 199d afc0 27a1 9ec1 102f 6cc1 cc13 483f
00000080: 0a9c 38c0 f8df 063f 72a3 ffbf 8bff ce3f
00000090: 715d 8640 aa97 2c42 3d4f b83e 36a6 9e41
000000a0: bc97 93c0 80fe be3f b188 9dc1 7d11 bec0
000000b0: 8ea5 f840 7892 77c1 cada b8c1 b1fc a741
000000c0: 58d4 8dc0 9017 5a41 701c 09c0 a9cf a0c0
000000d0: 18ca 3b41 c148 91bf 7821 de3f 08aa c5c1
000000e0: d5d7 20c2 7057 0ac1 2d7d e0be 8536 3f42
000000f0: b6ac 95c0 0f88 d840 b536 a9c0 7a7f f0bf
-0.7288913 -1.9992363 0.96098953 16.624054 -4.598913 -1.670278 1.1026727 -5.017345
-5.2589254 -4.6146894 -4.2699976 -0.691232 7.9498725 0.94627357 -4.766797 1.5041163
6.5568624 1.0104021 -0.58950865 -8.898206 -3.2317321 -6.7376213 31.892223 30.817793
-9.415843 -0.41879544 2.4903533 -3.6430712 -5.487927 -19.828688 -14.76149 0.7815521
-2.8845239 0.526855 -1.9971755 1.6171736 4.1989064 43.14811 0.35997954 19.831158
-4.6122723 1.4921417 -19.691744 -5.939635 7.7702093 -15.473259 -23.10683 20.998384
-4.432171 13.630753 -2.1423607 -5.025349 11.736839 -1.1350328 1.7353964 -24.708023
-40.210773 -8.646347 -0.43845502 47.80324 -4.677333 6.7666087 -5.287928 -1.8788903

base_pointnet.bn_1.running_var f4 [64]
00000000: fe9b f141 c1da 7042 ec8e 8842 c755 c842
00000010: b717 a542 0560 2942 a072 c23f c1a2 4442
00000020: 2c52 3b42 3429 db41 3e73 e942 488a 6241
00000030: 7085 cf42 4521 7b42 46a8 1b42 eecb 1d42
00000040: 1a14 4641 eaef e140 8219 a640 5694 1343
00000050: 3742 7241 5d4a 0043 3398 9c43 5c28 9643
00000060: bd45 2e42 00c5 bc40 cb04 2d42 708b 0342
00000070: d664 8542 fc06 e442 2708 d042 61a2 0242
00000080: 6b13 c242 af0c 4841 4099 ca41 529b 7742
00000090: 36f8 ee42 70e2 1244 7481 7942 1c9e 2943
000000a0: e77e 1c43 dfd7 d641 0cab d042 d30e cd42
000000b0: 981c 2242 ca3e f642 c369 3543 e027 1843
000000c0: 4edc 8542 54dd 8042 8cbe 9242 3cff a242
000000d0: e0da ac42 ee72 7d41 9da1 5542 ae84 6c43
000000e0: b159 0044 a449 5242 c54b d340 b5e3 2744
000000f0: 7daf 1141 fe6b ac42 2a30 4942 188a 8642
30.201168 60.213627 68.279144 100.167534 82.54632 42.34377 1.5191231 49.15894
46.830246 27.395119 116.72508 14.15876 103.76062 62.78249 38.91433 39.44915
12.379908 7.0605364 5.1906137 147.57944 15.141166 128.29048 313.18906 300.3153
43.568104 5.899048 43.25468 32.88617 66.696945 114.01364 104.01592 32.658573
97.037926 12.503097 25.32483 61.90168 119.48479 587.5381 62.37642 169.61761
156.49571 26.855406 104.334076 102.52895 40.527924 123.122635 181.41313 152.15576
66.93028 64.43228 73.37216 81.498505 86.42749 15.840559 53.407825 236.51828
513.4014 52.571915 6.602999 671.5579 9.105344 86.21092 50.297035 67.269714

base_pointnet.bn_2.weight f4 [64]
00000000: b0fb a43f b258 9f3f 2e7e 9b3f 5842 a33f
00000010: 9abb 963f 93c6 963f dddc 963f f135 b03f
00000020: 44dc b13f 4d59 a43f f697 c83f b67d a93f
00000030: cc32 dc3f fc50 943f 5ba9 bb3f 12e6 9d3f
00000040: f28b b13f ec8a b33f d50f 993f eca8 af3f
00000050: 3611 b23f f4e6 a33f a573 a93f 0f28 a33f
00000060: 83ea 9a3f 7f91 ab3f 77d3 b63f bd4b aa3f
00000070: 1e65 fd3f d73e b33f 174c 9a3f 5dca a23f
00000080: 0c4e b73f 57f9 f13f df42 b53f 08a2 a33f
00000090: 3070 9b3f df65 a13f a1ba 993f fcd9 9b3f
000000a0: cbc0 9a3f f1af a83f 6f89 fd3f d2ed b03f
000000b0: 9f92 b93f 831d b03f fa8a a53f 8159 b13f
000000c0: d78b 953f 781d a63f bcd6 a93f 0c2b a53f
000000d0: d197 b63f 5b43 af3f 0cba b53f 87bd 9b3f
000000e0: a7a8 a43f a1fe a83f 7f59 b73f e116 ae3f
000000f0: 74b7 b73f a442 b63f d0ed b03f 3748 9c3f
1.2889309 1.2448943 1.2147882 1.2754622 1.1776001 1.177935 1.1786152 1.3766462
1.3895345 1.2839752 1.5671375 1.3241489 1.7203002 1.1587214 1.4661058 1.2335837
1.3870833 1.402677 1.1957957 1.3723426 1.3911502 1.2804856 1.3238417 1.27466
1.2102817 1.3403777 1.4283284 1.3304363 1.9796484 1.4003552 1.2054471 1.2718006
1.4320693 1.8904217 1.4161032 1.2783823 1.2143612 1.2609214 1.201008 1.2175899
1.2090086 1.3178693 1.9807566 1.3822577 1.449787 1.3759006 1.2933037 1.385544
1.1683301 1.2977743 1.3268657 1.2903762 1.4265081 1.369243 1.4197402 1.2167214
1.2863969 1.3202707 1.4324187 1.3600732 1.435286 1.4239087 1.3822575 1.2209538

base_pointnet.bn_2.bias f4 [64]
00000000: 9434 943d f93f 053e 7804 bb3d 5bdb bb3d
00000010: 01ee 0f3e f790 cd3d e17f 073e 4e27 103e
00000020: fe9f 163e 2820 d83d bc50 163e 08a8 af3d
00000030: d187 133d 497e d23d 1f9f 6e3d 9236 e93d
00000040: 4522 d83d 0921 e23d f0ce 453d f94b 3a3e
00000050: 8d70 643e 8cfb 4e3d e66c 233e 654b 323e
00000060: 8efd 0c3e ac6a 423e 6ec8 b93b f9a6 bb3d
00000070: cbd9 2cbe 92c1 053e bfbd e53d 5054 773d
00000080: 592f e73d 890f e0bd 2615 313e 6f63 0c3e
00000090: c1e3 2d3e 5597 c93d c012 dd3d d99c 173e
000000a0: 7525 233e ac5d e23d bfdf b33c 4c12 123e
000000b0: a72f c53d a9a2 4c3e 58db 0d3e 6197 293e
000000c0: e408 9e3d 4839 1a3e 5367 563d c1fe 1b3d
000000d0: f083 ab3d 7fad db3d 7c95 163e f55c 0d3e
000000e0: fb05 493e 16fd 893c 3112 a23d 84c1 523e
000000f0: ea2e f53c 8381 313e 58ad f53d afbd f83d
0.07236591 0.13012685 0.09131712 0.09172698 0.14055635 0.100374155 0.13232376 0.14077494
0.1470947 0.10553008 0.14679235 0.08576971 0.036018196 0.10277993 0.05825722 0.113873616
0.105534114 0.11041457 0.048293054 0.18193044 0.2230856 0.050532863 0.1595951 0.17411573
0.13768598 0.18986005 0.005669645 0.09162707 -0.16879956 0.13062122 0.11217832 0.06038314
0.11288328 -0.10940463 0.17293224 0.13709806 0.16981412 0.098433174 0.10794592 0.14805926
0.15932257 0.11053023 0.021957276 0.14264792 0.096282296 0.19983925 0.13853204 0.16561653
0.077165395 0.15060914 0.05234463 0.03808475 0.083747745 0.10726451 0.14705461 0.13804992
0.19631188 0.016844314 0.07913626 0.20581633 0.029929597 0.17334561 0.11995953 0.12145554

base_pointnet.bn_2.running_mean f4 [64]
00000000: ba12 c7bc 7ce6 9fbe b853 debe eac2 89be
00000010: 5fe4 813d c4ea 35bf dc49 85be c4b2 01bf
00000020: b5e2 13be c34e 13bf 300c 363d 6016 41be
00000030: a2bb 103e 3c81 55bf bf8b 6d3c 44b8 ccbc
00000040: 4ada e9be 703f 7cbe c41c 033e 7e0b 45be
00000050: b72f 39bf e637 1ebf 173b a9be f338 a8be
00000060: 2b5b 02be f6c8 c93e c513 873d a090 10bf
00000070: 561e 883e 0f00 c5be de21 c1be 45bc e23e
00000080: f8c8 50be a24d d0bd 8e89 ad3d 01ce 18bf
00000090: 1842 1cbf 08f5 3b3e 4ad1 83be cb4a e93d
000000a0: 8d7b 2cbf 8141 503e a0a6 b0be 9deb 63be
000000b0: 578f d9be 9851 5bbe 11ad 65bf f12c 9e3e
000000c0: f272 a0be 107c e2be 346c 313e ded6 ce3e
000000d0: eb24 6d3d 5d16 0abe 4452 25bf 3e05 47bf
000000e0: 09ff bbbe f389 7cbd 146c b53c 8c3e 523e
000000f0: b269 afbd 6d95 1a3d f641 123f 89ad 55be
-0.024300922 -0.31230533 -0.43423247 -0.2690652 0.063423865 -0.7106135 -0.26032913 -0.506634
-0.1444195 -0.57542056 0.044445217 -0.18856192 0.14134076 -0.8340032 0.01449865 -0.024990208
-0.45674354 -0.24633574 0.12803942 -0.19242665 -0.7233843 -0.61804044 -0.33052894 -0.3285595
-0.1273009 0.39411134 0.065955676 -0.5647068 0.26585644 -0.38476607 -0.3772115 0.44284263
-0.20389163 -0.10171057 0.08473502 -0.59689337 -0.6103835 0.18355191 -0.25745612 0.11391219
-0.67376024 0.20337488 -0.34502125 -0.22257848 -0.42492172 -0.21417844 -0.89717203 0.30893663
-0.31337696 -0.44235277 0.17326432 0.40398306 0.057896536 -0.13485093 -0.6457865 -0.77742374
-0.36718014 -0.061654996 0.022146262 0.20531672 -0.08565082 0.03774016 0.571319 -0.2086698

base_pointnet.bn_2.running_var f4 [64]
00000000: e551 d23d d0ed 873e e854 213e 1632 c93d
00000010: eded 263e 66c8 503e 2573 1b3e 99d4 313e
00000020: 1c37 af3d 6bd7 163e 8dca d23d 255e 5c3d
00000030: 0af6 123d a635 3e3e 0bda 363d d36e 073e
00000040: 2c69 473d 8011 8f3d fab5 003f 210c e83d
00000050: 5014 db3d 398f fe3d 8291 283e 98bf c23d
00000060: 330f 633d 13de 713e 3292 e43c 25c5 343e
00000070: 41f1 ab3c a27b 193e 1447 313e 2449 c13d
00000080: d0e3 9d3d 537a e93c 1f6c 913d 3fdc 743e
00000090: e9ee c53e 477a 313e 8778 213e 60b1 ec3d
000000a0: 6feb 633e eb30 263e 5072 1c3d a969 ca3d
000000b0: 8be4 1d3d 7c2f 9e3d c182 4b3e c6d5 973d
000000c0: 1769 0a3e 2082 1e3e a0d7 5f3d 4944 dd3d
000000d0: de3e 6c3d 4102 713d 76a1 f13d db4b 333e
000000e0: 9924 e03d 7cb3 3d3d f4d6 723d ec95 f83d
000000f0: e2b5 5f3d 41f8 9c3d d147 ac3d 80e7 713e
0.102695264 0.26548624 0.15755045 0.09824006 0.16301699 0.20388946 0.15180643 0.17366256
0.08555433 0.14730613 0.1029254 0.05380072 0.035879172 0.18575153 0.044641536 0.1322587
0.048684284 0.0698576 0.50277674 0.113304384 0.10697234 0.12429661 0.16461757 0.095092
0.055434417 0.23619871 0.027901743 0.1765333 0.020989062 0.14988568 0.1731227 0.094377786
0.077094674 0.028500712 0.071007006 0.23912142 0.38658836 0.17331801 0.15768634 0.11557269
0.2225778 0.16229598 0.038194954 0.09883434 0.038548034 0.07723901 0.19874097 0.07413821
0.13516651 0.15479326 0.054648995 0.1080404 0.057677142 0.05884004 0.11798374 0.17509405
0.109444804 0.046313748 0.059287027 0.1213797 0.054616816 0.07664538 0.084121354 0.23623466

fc_1.weight f4 [64, 66]
00000000: a9bc b7bd bcbf f83d 0a44 83bc 1e2a ddbd
00000010: 2b39 52bd 5004 3dbd fc68 b0bd c52f 0ebd
00000020: 99e8 5e3d 2b39 cfbd 1a32 cb3d c71c 5abd
00000030: 7f6e 193c 9e9c e5b9 592f 5ebb 8804 f23c
00000040: 686b ddbd 3ae5 013d 32fe 09bd 39fe debd
00000050: eabc c33c 5a29 0fbd c4b1 a13d 6dd9 d3bd
00000060: 18d5 d0ba 272b 743d aea2 473d 58e3 2f3d
00000070: f2e3 aa3c 5729 f9bd 6565 c9bd a222 98bd
00000080: ad07 67bc 193c f9bd 2bb1 d4bd 1641 ecbd
00000090: a410 303d 5077 f7bc 7d2b 173d 7578 ea3c
000000a0: 4dcf 80bd 3de3 693d 3eab c83d 8355 afbd
000000b0: 5b8d 60bd 03e8 a33c e4a5 52bc eb94 0ebd
000000c0: 034b d93a 8653 b43c b253 923a 18d0 b1bd
000000d0: f88b a5bd 17a8 f2bc 4123 d7bc ac3a 9dbc
000000e0: 3d11 883d f2e3 cc3d d34b c2bd 7538 f83d
000000f0: 9382 f93c b06d e8bd 4b5c 3ab8 37dd 173a
00000100: 2215 143d f794 f13d 3a61 40bd 190b f8bd
00000110: 0701 ed3c 1e0a cd3d 59fa 70bd 9e09 a1bd
00000120: e692 aabd d235 f5bd 3b4b f43d aa63 c53d
00000130: 5374 edbd fda5 d63d 1c09 24bd 08a1 c8bb
00000140: e212 983c 14b0 dabd 9a25 fa3d b84f 5b3d
00000150: 9c2e adbd fa91 f53d 8748 aebd 636d 95bd
00000160: b51d a83d bd38 82bd 86df 7d3d 1598 3fbc
00000170: 4634 563c 5997 813d c1a5 ed3c 950f 8dbd
00000180: 6c33 debd d41e 8f3d 5500 513d 1be3 bbbd
00000190: f3b1 9939 507e 973c 28ad 0a3d 3133 dfbd
000001a0: 62d1 5c3d f221 df3d 2a22 c73d 8b70 c6bd
000001b0: 7e3a d43d ed8d c13c c706 153d 2fec bcbc
000001c0: d441 863d a4ac b4bd 9c7d 90bd 35f4 9cbd
000001d0: ff76 243d 65ba 79bd c91d 4b3a cdbc 2c3c
000001e0: ca38 4abd 7361 723d c9cf 513d 6d60 92bd
000001f0: eabe f3bd 58ee d5bd ea0b d73d 4ebf 8abd
00000200: 2691 6e3d 8ab7 e1bd 14b4 bfbd 1755 7f3c
00000210: 02b2 18bd 9cc2 913f 4ab7 143e cd4f f8bd
00000220: 9104 cd3c bb20 a9bd 7f61 f0bd 3e70 08be
00000230: 1276 11be 4008 883d 89a6 f73d 4926 833e
00000240: 04f2 283e aa22 bb3d 0071 d5be 0ea9 9dbe
00000250: e793 56bc 0e2e 203d 3a2c 5cbe e73c 393e
00000260: 94f7 96bd 8fe1 773e f74f 1fbd 1c57 023e
00000270: 3a50 82bd 379f 273e 06de 233d 259a 7dbd
00000280: df71 10be 972b 7d3e 98d4 dbbe 5d03 3f3d
00000290: dcbb adbd 71d0 38be 8dc1 213e bb63 e8be
000002a0: 2b12 803e af55 ff3b 3e6c 17bc e8aa fe3d
000002b0: 669d 7fbc 4413 a13d 8cdd 88bd 1dd5 6bbe
000002c0: c03e c3bd 2a6f c23d 3591 94be 7b75 013e
000002d0: ea43 0b3d f642 a6be a2d6 10be e80b b0bb
000002e0: b7b9 98be aebc 0ebe 56d6 55be ea44 4d3d
000002f0: 833f a23e 7bf6 44be 6dad 17be 5dbb 3c3c
00000300: 9668 5fbe 25ef 753c 906c c13d 4e87 513e
00000310: a63e 77be a5c1 0cbc f710 8cbd 1da6 173d
00000320: c2e9 f83b c9f5 c73d 64d7 89bc 3819 453d
00000330: cf07 c53c e7aa 04be 8c1e d5bd bbbd e13d
00000340: 66c6 b73d 264a b23d 4a8e c63d ca3f 09bd
00000350: 82e7 1b3d 6fb6 9f3d d7e0 98bd e55b 203d
00000360: a567 5ebd a08f 47bc ea19 25bd b0a8 14bb
00000370: e207 babb 0422 c9bd d18e c13d 55f1 e9bd
00000380: afa3 c2bb 2823 a1bd 764a 553d 1530 d6bd
00000390: bcbf 5e3d 4210 fdbc aa66 f4bb 92f7 1c3d
000003a0: f523 66bd db07 b33d 26dc 94bd 51b8 2f3c
000003b0: 9ac2 78bd 14b1 8b3d db53 d03d 9abb 023d
000003c0: f8c2 ae3b cb8d 813c 4008 2f3c cc28 87bd
000003d0: 626e e03d be47 edbd 0c0d dbbd 7a88 d63c
000003e0: 5765 e5bd f2dd dcbd f212 aa3d 1036 94bd
000003f0: 86b0 ccbd 3356 8a3d 0eb1 1e3c 77d7 f83c
-0.08971531 0.121459454 -0.016023654 -0.10799049 -0.05132405 -0.04614669 -0.08613774 -0.034713525
0.05442104 -0.10118326 0.099216655 -0.0532501 0.009364723 -0.00043794973 -0.0033902733 0.029543176
-0.10811502 0.031712748 -0.033689685 -0.10888333 0.023893792 -0.034951545 0.07895234 -0.10344205
-0.0015932648 0.059611466 0.048739128 0.04294142 0.020860646 -0.12166088 -0.098337926 -0.07428481
-0.014100951 -0.12169666 -0.103853546 -0.11535852 0.04298462 -0.03020826 0.036906708 0.028621892
-0.062895395 0.057101477 0.09798287 -0.08561232 -0.054822307 0.020008093 -0.012856934 -0.034809988
0.0016578141 0.022012483 0.0011163859 -0.08682269 -0.080833375 -0.029621167 -0.026261928 -0.019193016
0.06643913 0.100044146 -0.094871186 0.12120143 0.03045777 -0.11349046 -4.443181e-05 0.00057931565
0.036152966 0.11795991 -0.046967722 -0.12111492 0.028931154 0.10011695 -0.0588325 -0.078631625
-0.083288 -0.11973156 0.119284116 0.0963815 -0.11594453 0.104808785 -0.04004775 -0.006122712
0.018563692 -0.106781155 0.12214203 0.053542823 -0.08456156 0.119907334 -0.08509927 -0.072962545
0.08208791 -0.06358478 0.061980747 -0.011693974 0.013073986 0.063276954 0.029009702 -0.06887738
-0.10849652 0.06988302 0.051025707 -0.09174176 0.00029315017 0.018492848 0.03385654 -0.10898436
0.05391062 0.108951464 0.09723313 -0.096894346 0.10362719 0.023627246 0.036383417 -0.02306184
0.065555245 -0.08821991 -0.07055208 -0.07663766 0.040152546 -0.060968775 0.0007748274 0.0105430605
-0.049370565 0.059174966 0.05122355 -0.07147298 -0.11901648 -0.10445851 0.10500319 -0.0677477
0.058243893 -0.110213354 -0.09360519 0.015584252 -0.037279136 1.1387515 0.14523044 -0.12124596
0.025026591 -0.08258196 -0.11737346 -0.13324067 -0.14205196 0.066421986 0.12092311 0.25615147
0.16498572 0.09137471 -0.41687775 -0.3079304 -0.013096786 0.03910642 -0.21501246 0.18089639
-0.073714405 0.24207138 -0.03889462 0.12728542 -0.06362958 0.1636933 0.04000666 -0.06191458
-0.14105938 0.2472366 -0.42935634 0.046634067 -0.08483097 -0.18048264 0.1579649 -0.45388588
0.2501386 0.0077921967 -0.009242116 0.124349415 -0.015601492 0.07865003 -0.06682882 -0.23030515
-0.09533453 0.09493859 -0.29017034 0.12642471 0.034000315 -0.32472962 -0.14144376 -0.005372513
-0.2982919 -0.13939163 -0.20882544 0.05011455 0.3168908 -0.1923465 -0.1481225 0.01151928
-0.2181724 0.01501063 0.09444535 0.20461771 -0.24144992 -0.00859109 -0.06839173 0.037023652
0.0075962255 0.09763677 -0.016826339 0.048119754 0.024051575 -0.12955819 -0.10406217 0.11022516
0.089733884 0.08705549 0.09695108 -0.0335081 0.03806258 0.07798468 -0.0746476 0.039150137
-0.054298062 -0.012180239 -0.040307917 -0.0022683553 -0.0056772092 -0.09820941 0.09451068 -0.114229836
-0.0059399228 -0.07868034 0.052072965 -0.1045839 0.05438207 -0.030891541 -0.0074585276 0.03832204
-0.056186635 0.08741733 -0.072685525 0.010725097 -0.06073246 0.06820884 0.10172244 0.031917192
0.0053333007 0.015814682 0.010683119 -0.06599578 0.10958554 -0.11585949 -0.10695848 0.026188124
-0.1120097 -0.1078452 0.08304395 -0.07236874 -0.09994607 0.067547224 0.009685768 0.03037618

fc_1.bias f4 [64]
00000000: 66da 78bd 2f44 91bd e9f4 1cbe f30f 373c
00000010: b14d 353e 058e 9cbd fe01 253c f38d 4cbc
00000020: 3ec8 a7bd 8370 853d 20dd e43c 1095 c93d
00000030: d8b0 dabc 14d3 83bd d8a3 123d 9ef3 03be
00000040: dd33 883c 8d56 8cbc 296f 3e3d aed0 45bd
00000050: a26b 16bc 828a 883e 392e 503d 05ae 0a3e
00000060: 83b7 e6bd d107 b33e 3863 f13b 4831 1ebe
00000070: c4eb a8bd a747 b63c c896 b9bd 56fe c43c
00000080: 7fa8 d23d e0ce b8bd 059f a2bd 3fd7 513e
00000090: 214d 4dbd 0f34 943e e706 cc3d d4b1 1e3e
000000a0: d9f4 d0bd 1a81 81bd 1037 4f3d c055 babd
000000b0: 9e7f 6f3c 09ea 503d 921d c23d af20 57bd
000000c0: cbe7 a13e f286 2e3c bf02 9d3d 384d e2bd
000000d0: 6147 473c e08f bbbd 1863 7cbc 8c98 823d
000000e0: 25fb 613d b28b ea3d 933c 423e a17b 5dbe
000000f0: 8cff afbd f511 08be 2cb9 403b 7bf4 2ebd
-0.060755156 -0.07093083 -0.15327801 0.011173236 0.17705418 -0.076442756 0.010071276 -0.012485015
-0.0819249 0.065156005 0.027937472 0.098428845 -0.026695654 -0.06436744 0.035800785 -0.12885901
0.016626293 -0.017131114 0.04649273 -0.048294716 -0.009180935 0.26668173 0.05082533 0.13542946
-0.11265471 0.349669 0.007366564 -0.15448487 -0.08248094 0.022250963 -0.09061962 0.024047058
0.10286044 -0.09023833 -0.07940487 0.20492266 -0.050122384 0.28945968 0.09962254 0.15497524
-0.10202951 -0.06323452 0.05058962 -0.09098387 0.014617829 0.051004443 0.09478296 -0.052521404
0.31622157 0.010652291 0.076665394 -0.110498846 0.012163014 -0.09158301 -0.015404485 0.06376752
0.05517115 0.11452426 0.1896842 -0.21629192 -0.085936636 -0.132881 0.0029407246 -0.042713623

fc_2.weight f4 [4, 64]
00000000: a061 1f3d 4838 95bd 8c9d 853f f6f7 c6bd
00000010: a032 953d 0003 59bd 6ff4 843d 3808 fd3c
00000020: b240 91be a74c 8dbd 61e0 85bf ff36 89bd
00000030: 18cc 2c3d 48cc 683d 540e d2bd 3e22 883f
00000040: ed0b 32be cd71 b33c 08fe 1bbf 8aef dabf
00000050: a667 9a3d 828c 5c3f 4146 883f 9157 18be
00000060: 1a6b 93bd c4d7 29bf 5f2b 8ebd 418d 10be
00000070: 6ee1 353e 1d4b 15be 6cb2 3e3b 40cc 23bb
00000080: 2083 bb3e 1466 16bd 542d fcbd 9de1 eabf
00000090: d08a 5d3d 27ec 9c3f ded0 f23d 0ffc 993f
000000a0: 7d89 85bd dc6a 0dbd c867 fc3c 2a13 723d
000000b0: 5464 c93e 29e4 553a c52c c0bc 0ced 7bbe
000000c0: 2482 ec3f b9ee c43c 78b4 0cbe bd57 3d3e
000000d0: a0fa 3a3f 5cca 8dbd 903a b8bd 327b ecbc
000000e0: f73e 1e3e 689b 2abd 6201 32bd 54da 28be
000000f0: b807 753d db5b 173e e2eb 2a3f 8fa9 603c
00000100: 3c06 22bd 445a ffbd a73c d3bf 9fe2 8f3c
00000110: 5057 22be 4249 8b3e 6a2c c7bd a85f 9b3c
00000120: 94b9 1bbe ecc1 7d3e 231d f83e 7a5e 7fbe
00000130: 5f0b 5ebd e8ab 313d 989f afbd a6aa 703f
00000140: fca1 7ebe ca76 383c 0595 253e 9ea3 2d3f
00000150: b835 ce3c 4550 e93e 7be7 2cc0 a924 993d
00000160: cecb 413d 3642 dd3e f6fd bb3d 9990 673e
00000170: bd13 19bd 29fe 543f a062 e6bc 3e7d fe3d
00000180: 8662 483f 900a 093c f851 f1bd 8788 863f
00000190: 0aea c13d b14e 17bf 68b1 bb3d 98e7 c1bf
000001a0: 4c7c 883e aa16 8dbd 4cb5 f93d 6322 023e
000001b0: 85b4 6f3f 1942 bf3d d2d2 cc3d 4938 37be
000001c0: 98a6 90bf b903 b53d 03bf e03d 7191 233d
000001d0: e1c4 b9bf cf37 c4bd 8826 bc3c d55a b03d
000001e0: d457 38be f87c 24bd f3b2 5fbe 8022 5c3e
000001f0: 58b3 633d 0623 edbc fcee cebf 7735 b73d
00000200: 14eb 873d 3c4d e23d 4ade d73e f0fd a3bd
00000210: b5ad e23d 12ec d6bd 82dd 893d 7414 1a3d
00000220: 1846 8c3d 6eaf c4bd 1c85 213f 8af0 af3d
00000230: cf60 1a3d 84ff cc3d 46a6 d83d 0483 07bf
00000240: 610b 253d fb2b 07be ea44 703e 3f4e 253f
00000250: c053 6abb 2e6b 13c0 8468 0840 54b9 403d
00000260: 76c1 f03b 06fd 13c0 397b afbd 8729 03be
00000270: 4a47 14bd 56f4 13bf 69cd 3bbd 80a7 e13d
00000280: 9ed0 a2bf 1408 91bd 96a9 9b3d dbbf 083f
00000290: 60ee ee3d 468a c5bf dc41 e2bd 7ed9 183f
000002a0: f869 88bd 28ea a23c 7c5a 7dbd 53fa 8cbd
000002b0: ed56 88bf bb14 2fbd f79f aa3d 028e 7c3e
000002c0: 269e 243f 1c8c 2dbe 1e0a e83c 9d64 d1bd
000002d0: 8b17 7f3d 292b 1ebd 40dc ac3d b62d d4bd
000002e0: cc18 893d 5bf6 ff3d 62d8 133e 148c b03e
000002f0: 0ccf 86bd c8a1 bfbc 104e 01be c5ef 2b3c
00000300: 086e 373d 26ed b2bd 4212 9dbf 9dc3 3f3d
00000310: 7514 d4bc 315c 12bd 2984 93bd 1cf8 9f3d
00000320: eb23 8c3e cad7 e83b 518f 68be c6a4 f9bc
00000330: 2f8b c0bd 7295 80bd a84a 563d 83c6 1dc0
00000340: 48e4 353e 962a 053e 5d4c fb3d 6495 ce3f
00000350: d0e6 a9bd fa16 5c3d b0fb c53e 8c2e 67bd
00000360: 9dc4 b73d 29b9 a43f 3698 b5bd b3db 08bd
00000370: 39f4 c1bd b8bd 9d3e 3734 38bd c83e cbbd
00000380: 9055 60be 6673 c43d 807d e8bc 95df 0b3f
00000390: 90b4 5cbd c7df 7a3f a0d7 4b3c 2929 293d
000003a0: 0c23 e9bd 589b ae3c e0aa 8d3b 43d1 ce3d
000003b0: 0b57 48bd c9d7 72bd 586c c53d 43b9 e03d
000003c0: 5f13 61bf 7f72 313e 226c 95bd d36c 95be
000003d0: 0cd6 693d 3c5c dbbc ee0f c9bd 6ec9 0dbe
000003e0: 5fd9 88bd 841c 7bbd 96c1 6ebc 0f22 edbe
000003f0: f093 053d 8e2d 273e 4479 9dbd df56 70bd
0.03891146 -0.072861254 1.0438704 -0.097152635 0.072850466 -0.052981377 0.064919345 0.030887708
-0.2836967 -0.06899386 -1.04591 -0.06699943 0.042186826 0.056835443 -0.10256639 1.063545
-0.17387362 0.02190485 -0.60934496 -1.7104352 0.075393006 0.861519 1.064644 -0.14877154
-0.071981624 -0.6634486 -0.06941866 -0.14116384 0.17761776 -0.14579435 0.0029098047 -0.0024993569
0.36623478 -0.036718443 -0.12313333 -1.8350102 0.05408746 1.2259568 0.118562445 1.2030047
-0.065203644 -0.034525737 0.030811206 0.059100308 0.39334357 0.00081593037 -0.023458848 -0.24602145
1.8477216 0.024039613 -0.13740718 0.18490501 0.73038673 -0.069233626 -0.08995545 -0.028867338
0.15453707 -0.041652113 -0.04345835 -0.16489536 0.059821814 0.14781134 0.6676618 0.013712301
-0.039556727 -0.12468389 -1.6502885 0.017564116 -0.1585362 0.2720433 -0.09725268 0.01896651
-0.15207511 0.24781007 0.4845973 -0.24938384 -0.054210063 0.043376833 -0.08575362 0.9401039
-0.2486648 0.01125879 0.16170128 0.67827785 0.0251721 0.45569053 -2.7016284 0.074776955
0.047313504 0.43214577 0.091792986 0.22613753 -0.03737234 0.8320032 -0.0281232 0.12426232
0.78275335 0.008364335 -0.117832124 1.0510415 0.094684675 -0.5910445 0.09164697 -1.5148802
0.2665733 -0.068890885 0.12192783 0.1270843 0.93634826 0.09338779 0.10001148 -0.17892565
-1.130084 0.08838601 0.109739326 0.039933626 -1.4513208 -0.09580957 0.022967592 0.08611075
-0.18002254 -0.040158242 -0.21845607 0.21497536 0.055590957 -0.028947365 -1.6166682 0.089457445
0.066366345 0.110498875 0.4216178 -0.08007419 0.11068288 -0.104942456 0.067317024 0.037617162
0.06849307 -0.09603773 0.63093734 0.08590801 0.03768998 0.10009673 0.10578589 -0.5293429
0.040294055 -0.13200371 0.23463789 0.6457252 -0.0035755485 -2.3034167 2.1313791 0.047051743
0.007347281 -2.3123183 -0.08568425 -0.1280881 -0.0362008 -0.577947 -0.04585019 0.11018276
-1.2719915 -0.07081619 0.07600705 0.5341775 0.1166656 -1.5432823 -0.11047718 0.59706867
-0.06660837 0.019887045 -0.06185387 -0.06883683 -1.0651528 -0.04274438 0.08331292 0.24663547
0.64303815 -0.16947979 0.028325137 -0.102242686 0.06227831 -0.03861538 0.08440447 -0.10360281
0.06694183 0.124981605 0.14438012 0.3448187 -0.0658246 -0.023392573 -0.12627435 0.010494177
0.04478267 -0.08736639 -1.2271197 0.04681741 -0.02588866 -0.03573245 -0.07202942 0.07810995
0.27371153 0.007105802 -0.22710921 -0.030474078 -0.09401547 -0.062785044 0.05231729 -2.4652412
0.17762864 0.13004526 0.122704245 1.613934 -0.08295977 0.05373285 0.38668585 -0.056440875
0.08973048 1.2869006 -0.088669226 -0.033412647 -0.0947041 0.30808806 -0.04497167 -0.09924084
-0.2190764 0.09592323 -0.028380156 0.54638034 -0.053883135 0.9799771 0.012441546 0.04129902
-0.11383638 0.021314308 0.0043233484 0.10098507 -0.048911136 -0.05928782 0.096398056 0.10972836
-0.8792018 0.17328833 -0.07296015 -0.2918459 0.057088897 -0.02677738 -0.098174915 -0.1384637
-0.06682085 -0.06130649 -0.014572522 -0.46315047 0.032611787 0.16325971 -0.07689145 -0.058676597

fc_2.bias f4 [4]
00000000: ab4d 5cbd 217e 193d f584 363e 1f20 4bbd
-0.053785007 0.0374738 0.17824157 -0.04959118
