Additional stuff/segmentation_pointnet_DSF3cm.pth (torch, 78930 bytes, 18 tensors)

base_pointnet.conv_1_a.weight f4 [64, 1, 3]
0	0xbeb69eed	-0.35668126
1	0x3ed12ccd	0.40854493
2	0xbd08402d	-0.033264328
3	0x3e09b341	0.13447286
4	0x3d971fe2	0.07379128
5	0xbe6d8110	-0.23193765
6	0xbe2945fd	-0.16530605
7	0xbd691f8a	-0.056914844
8	0x3e6c1e23	0.23058371
9	0xbe4af40d	-0.1981966
10	0xbe5a56c7	-0.21322165
11	0x3e978eaf	0.29601046
12	0xbdea5a77	-0.11443036
13	0x3e3c814d	0.184087
14	0xbd55aa8a	-0.05216459
15	0xbec7e598	-0.39042354
16	0x3d3a0c66	0.04542198
17	0x3eda7366	0.42666167
18	0xbddd3fff	-0.10803222
19	0xbcb5b101	-0.022179129
20	0xbe12cda5	-0.1433626
21	0xbdba9818	-0.09111041
22	0x3eaed563	0.34147176
23	0xbe626fe1	-0.22112991
24	0x3ebf495c	0.37360656
25	0x3dcd5263	0.1002548
26	0xbecd7dd3	-0.4013506
27	0x3f0fd4e4	0.5618422
28	0xbee5bbe5	-0.44869915
29	0xbcc3d5ed	-0.023905719
30	0x3edefad7	0.4355075
31	0xbee773d5	-0.4520556
32	0xbe41f8e5	-0.18942602
33	0xbd453d19	-0.04815397
34	0xbefea9ab	-0.4973882
35	0x3ed65c12	0.4186712
36	0x3edbdfc5	0.4294416
37	0xbf0f4ca7	-0.5597634
38	0xbde0e1af	-0.10980546
39	0x3cc6e7dd	0.024280483
40	0x3c52e4e4	0.012871955
41	0xb9d20934	-0.00040061178
42	0x38e00684	0.00010682366
43	0x3dd4bf4e	0.10388051
44	0x3abc3452	0.0014358854
45	0x3eefd268	0.46840215
46	0x3dae0c15	0.08498398
47	0xbf0280fa	-0.5097805
48	0x3e039a4e	0.12851831
49	0x3da29c56	0.07939975
50	0xbecfeb8c	-0.40609396
51	0xbd560b4d	-0.05225687
52	0xbef44c87	-0.47714636
53	0x3dc6bf6e	0.09704481
54	0xbdf3fd5e	-0.1191356
55	0xbedb4711	-0.42827657
56	0x3f0155cf	0.5052156
57	0xbd6d098c	-0.057870433
58	0x3e81b611	0.25334218
59	0xbe998a95	-0.29988542
60	0xbbac48da	-0.005257708
61	0xbe67949d	-0.22615285
62	0xbe43da4e	-0.19126245
63	0x3e73dd0f	0.23814796
64	0x3daa1919	0.08305568
65	0x3eea27be	0.45733446
66	0xbc22fcf9	-0.009948009
67	0xbeb2e1af	-0.34937808
68	0x3ec2181b	0.37909016
69	0xbee7cb9c	-0.4527253
70	0x3f132926	0.5748466
71	0xbe428b9f	-0.18998574
72	0x3e0ce5df	0.13759564
73	0xbe9e3ef8	-0.30907416
74	0xbe48b718	-0.19601095
75	0xbc9614d7	-0.018320484
76	0xbed9eaa3	-0.42561826
77	0x3ecb3486	0.3968851
78	0x3eebc91e	0.46051878
79	0x3f27e7f1	0.6558829
80	0x3e4d3702	0.20040515
81	0x3db8ee8b	0.090298735
82	0xbed1a220	-0.40944004
83	0x3e35305c	0.17694229
84	0xbe24f877	-0.16110407
85	0x3e972258	0.2951839
86	0xbe084e16	-0.13311037
87	0xbe6e2c6e	-0.23259136
88	0x3ee7f386	0.4530298
89	0xbe86ae91	-0.2630506
90	0xbf0549d0	-0.52065754
91	0x3d8f847a	0.0700769
92	0x3ed4ff3e	0.41600984
93	0x3ed642b2	0.4184776
94	0x3dcf1df0	0.10113132
95	0x3e122b86	0.14274415
96	0xbc494823	-0.012285265
97	0x3cb92f13	0.022605455
98	0x3e5e1dd7	0.2169107
99	0x3e1c78ba	0.15280429
100	0x3ebb713e	0.36609834
101	0xbf0f9804	-0.5609133
102	0xbdcf2028	-0.10113555
103	0xbd064fb1	-0.032790843
104	0xbe8aaa7c	-0.27083194
105	0x3e86b078	0.2630651
106	0x3ef7b780	0.48382187
107	0x3e9cc07c	0.30615604
108	0x3e41b06c	0.18914956
109	0xbeafc593	-0.34330425
110	0x3e81cee7	0.25353166
111	0x3ee04ed0	0.4381013
112	0xbe78d60a	-0.243004
113	0xbe8640ae	-0.26221222
114	0x3f245dd3	0.64205664
115	0xbe9c0123	-0.30469617
116	0x3e0348e6	0.12820777
117	0x3ed4d5a3	0.41569242
118	0xbe099ce4	-0.13438755
119	0xbf0551ec	-0.5207813
120	0x3ec3275d	0.3811597
121	0x3d391fea	0.04519645
122	0xbefb9cce	-0.4914307
123	0xbd1815c7	-0.037130143
124	0xbbceb0df	-0.006307706
125	0xbbf9f94e	-0.0076285964
126	0x3ef15303	0.47133645
127	0x3ed4e3f7	0.41580173
128	0xbf08ec46	-0.53485525
129	0xbb7e6ccd	-0.0038822175
130	0x3ed62226	0.41822928
131	0xbe99f6e2	-0.3007117
132	0x3ef1b181	0.47205737
133	0xbef41f11	-0.47679952
134	0x3cd205b9	0.025637494
135	0xbc04d6ea	-0.00810788
136	0xbf18348c	-0.5945518
137	0x3d942fb9	0.07235665
138	0xbe2a27d0	-0.1661675
139	0xbe0523b0	-0.13001895
140	0x3e93e645	0.2888662
141	0x3c7565a7	0.014977849
142	0xbec8d562	-0.39225298
143	0x3c83c247	0.01608385
144	0x3e7e7b11	0.24851634
145	0xbeea59fe	-0.45771784
146	0x3eb390db	0.35071453
147	0xbd93e028	-0.07220489
148	0x3e61a22a	0.22034517
149	0xbe07b9bd	-0.13254447
150	0x3ebab31b	0.36464772
151	0x3cfc7555	0.030817667
152	0x3e435af5	0.19077666
153	0xbe9fc932	-0.31208187
154	0x3e7c6bb3	0.24650459
155	0x3e097ecf	0.1342728
156	0x3e370a05	0.17874916
157	0x3f15c170	0.5849829
158	0x3ebee443	0.37283525
159	0xbe96b391	-0.29433873
160	0x3e212916	0.1573833
161	0x3c202407	0.009774215
162	0xbd52df81	-0.05148268
163	0xbc055fd9	-0.008140528
164	0xbed4367f	-0.41447827
165	0xbea67325	-0.32509723
166	0x3ea32b7b	0.3186911
167	0xbdc68feb	-0.09695419
168	0x3e8468a6	0.2586109
169	0x3ec17497	0.37784263
170	0xbee8f4aa	-0.45499164
171	0x3cef5d5c	0.029219322
172	0x3dec860f	0.11549007
173	0xbeb7d5b9	-0.35905245
174	0xbefd1455	-0.49429575
175	0xbe0355b5	-0.12825663
176	0xbce3ca73	-0.027806496
177	0xbd9ece74	-0.077542216
178	0xbd1b5f32	-0.037932582
179	0x3e3f4ff4	0.18682843
180	0x3ed2cbdf	0.41171166
181	0xbd8cb114	-0.068697125
182	0x3e522e15	0.20525391
183	0xbb1a76e4	-0.00235694
184	0x3e724071	0.23657395
185	0xbe9613a7	-0.2931187
186	0x3c60386f	0.01368533
187	0xbe933f4a	-0.28759223
188	0x3cb1e18b	0.021713993
189	0x3e9d93f6	0.30776948
190	0xbee597e4	-0.44842446
191	0x3dbf8100	0.09350777

base_pointnet.conv_1_a.bias f4 [64]
0	0xbf077c48	-0.52924013
1	0x3d96fce3	0.07372453
2	0xbe2879ff	-0.16452788
3	0x3e983877	0.2973058
4	0xbeb5a6fe	-0.35478967
5	0xbf041ebc	-0.51609397
6	0x3eb29f21	0.3488703
7	0xbec68778	-0.3877523
8	0x3f1408a9	0.57825714
9	0xbd3eff5e	-0.046630256
10	0xbe19f4ec	-0.15034837
11	0xbe134a7b	-0.14383881
12	0xbef8cd2f	-0.48594043
13	0x3f0c3973	0.5477516
14	0xbe36777e	-0.1781902
15	0xbee88936	-0.45417184
16	0x3ed82df0	0.42222548
17	0xbebed09e	-0.37268537
18	0x3e1feeaa	0.15618387
19	0x3f07f3be	0.53106296
20	0xbeb3b5a7	-0.35099527
21	0xbee51d67	-0.44748995
22	0x3e98f04e	0.29870838
23	0x3d43d1ba	0.047807433
24	0x3eafc163	0.3432723
25	0x3e30090c	0.17190951
26	0x3f06462e	0.52450836
27	0x3d884e93	0.06655612
28	0x3e7cdcb9	0.24693574
29	0x3ee18f1f	0.44054505
30	0xbe12f78a	-0.14352241
31	0x3d9f0790	0.07765114
32	0xbdd7126d	-0.10501561
33	0x3f0f6408	0.5601201
34	0x3f094780	0.53624725
35	0xbe52cf9d	-0.2058701
36	0xbe54534d	-0.20734902
37	0x3e354888	0.1770345
38	0xbefda3fb	-0.4953917
39	0x3df39f62	0.11895634
40	0x3ef66b02	0.48128515
41	0x3f055c37	0.52093834
42	0x3e4dc471	0.20094468
43	0xbec7b770	-0.3900714
44	0x3efb8220	0.49122715
45	0xbdc4cf15	-0.0960981
46	0xbe170bde	-0.1475062
47	0xbe881abc	-0.26582897
48	0xbeb2a47c	-0.34891117
49	0xbe006fed	-0.12542696
50	0x3e2b7314	0.16743118
51	0x3e29b134	0.16571504
52	0x3f0776cd	0.5291565
53	0xbea7e693	-0.32793102
54	0x3e6a8dd8	0.22905672
55	0x3ea9c941	0.33161357
56	0xbeb26257	-0.34840652
57	0xbd06f2e5	-0.032946486
58	0x3eca5344	0.39516652
59	0xbec42bde	-0.38314718
60	0x3ebbd3f0	0.36685133
61	0xbeb928f9	-0.36164072
62	0xbec967e8	-0.39337087
63	0xbe809cb1	-0.25119546

base_pointnet.conv_1_b.weight f4 [64, 1, 3]
0	0x3eb73085	0.35779205
1	0x3d543bad	0.051814724
2	0x3ec946e9	0.39311913
3	0x3f1a9e1d	0.6039751
4	0x3f70b885	0.94031554
5	0xbe9179c7	-0.2841322
6	0xbde20241	-0.11035586
7	0x3deb224e	0.114811525
8	0xbf2be52b	-0.6714656
9	0x3f0fdea5	0.56199104
10	0x3f122e76	0.57102144
11	0x3eefb341	0.46816447
12	0x3dc1e12e	0.09466778
13	0xbeb428da	-0.35187417
14	0xbf684fa3	-0.90746516
15	0xbe8ab1c0	-0.27088737
16	0xbf1601cf	-0.5859651
17	0xbf405365	-0.7512725
18	0x3d577ba4	0.052608147
19	0x3e84eb27	0.25960657
20	0xbf160e22	-0.58615315
21	0xbdf6ee5a	-0.12057181
22	0xbe404307	-0.18775569
23	0xbf46d740	-0.77672195
24	0x3ec83d26	0.39109153
25	0x3e6dc6c1	0.2322035
26	0xbf38c416	-0.72174203
27	0xbdfea452	-0.12433685
28	0xbf046b28	-0.5172601
29	0xbe9da017	-0.307862
30	0x3e97c647	0.2964346
31	0xbe98319b	-0.29725346
32	0xbdb96193	-0.09051814
33	0xbd05c162	-0.032655127
34	0xbe8be0b9	-0.27319887
35	0xbf3072c4	-0.6892512
36	0x3edf6c42	0.43637282
37	0xbe28068d	-0.16408749
38	0x3d270867	0.040779497
39	0xbf476b0e	-0.7789773
40	0x3ddda245	0.10821966
41	0xbcb8e984	-0.022572286
42	0x3ebb242c	0.36551034
43	0xbeeef9be	-0.46674913
44	0xbf5b90c6	-0.8576778
45	0x3e29396f	0.16525815
46	0xbd806f8c	-0.06271276
47	0x3f299b18	0.6625228
48	0x3f13ecd2	0.57783234
49	0x3ea7b876	0.3275792
50	0x3f68b3ef	0.90899557
51	0xbe1ef030	-0.15521312
52	0xbd395dd1	-0.045255486
53	0xbeff8fa3	-0.49914274
54	0xbe5c5373	-0.21516208
55	0xbe996fc6	-0.2996809
56	0xbf670870	-0.9024725
57	0x3e1360b9	0.14392366
58	0x3f565230	0.8371916
59	0x3f036716	0.5132917
60	0x3e9d9108	0.30774713
61	0x3f007cff	0.5019073
62	0x3f61b0fa	0.8816067
63	0x3e2c60b2	0.16833761
64	0x3e70f0c6	0.23529348
65	0x3f76063b	0.96103257
66	0x3f000555	0.50008136
67	0xbf628b9b	-0.8849427
68	0x3e3e2894	0.18570167
69	0x3eabe0a7	0.33569834
70	0xbb2929c2	-0.0025812243
71	0xbed4edab	-0.41587576
72	0x3f3849bb	0.71987504
73	0x3e85894d	0.26081315
74	0xbed6c1ce	-0.41944736
75	0x3e84aba2	0.25912195
76	0xbe5bea44	-0.21476084
77	0xbe39fa01	-0.18161775
78	0xbecd9dec	-0.40159547
79	0x3f1938a7	0.5985207
80	0x3e748c92	0.23881748
81	0x3e8cfd6c	0.27537096
82	0x3f199921	0.5999928
83	0x3eefa5c1	0.46806148
84	0xbf716396	-0.9429258
85	0xbcb6e85f	-0.0223276
86	0x3e37b77d	0.17941089
87	0x3e48e880	0.19619942
88	0xbe34e079	-0.17663755
89	0x3f84d164	1.0376401
90	0xbeff202b	-0.4982923
91	0x3e6ac5dc	0.2292704
92	0x3ea56c05	0.32308975
93	0xbf0d360e	-0.55160606
94	0xbe40ecc8	-0.18840325
95	0xbf07db35	-0.5306886
96	0xbec15ce5	-0.37766185
97	0xbe11ffd4	-0.14257747
98	0x3f187440	0.59552383
99	0x3e8548b4	0.2603203
100	0xbe7966df	-0.24355648
101	0x3e8a3135	0.26990667
102	0x3f712e25	0.94211036
103	0x3ee462df	0.44606683
104	0xbeeae240	-0.4587574
105	0x3e815764	0.25261986
106	0x3f25754e	0.6463212
107	0xbe28e7e5	-0.1649471
108	0xbf349f7e	-0.70555866
109	0xbeaf9af0	-0.34297895
110	0xbd608121	-0.054810647
111	0xbe9d6fb5	-0.30749288
112	0x3ed5b701	0.41741183
113	0x3b30d7be	0.002698406
114	0x3db1323c	0.086521596
115	0x3d329a7a	0.04360435
116	0x3f155e8a	0.5834738
117	0x3f073b9f	0.5282535
118	0x3e4d74aa	0.20064035
119	0xbf2dcc9c	-0.67890334
120	0x3f42430c	0.75883555
121	0xbf1d9c57	-0.6156668
122	0x3ecb6877	0.39728138
123	0xbf147d4b	-0.5800368
124	0xbe5bf62d	-0.21480627
125	0x3ef6815a	0.48145562
126	0xbe395582	-0.18099025
127	0xbf15c0f7	-0.58497566
128	0xbf1c95af	-0.611659
129	0xbf01cdcf	-0.50704664
130	0xbf4a5aff	-0.790451
131	0x3e964ce6	0.29355544
132	0xbeb86183	-0.36011896
133	0x3d00c089	0.031433616
134	0xbea13ea3	-0.314931
135	0xbef3a579	-0.47587183
136	0x3dea6ba0	0.11446309
137	0xbd69e8ff	-0.057106968
138	0x3f46ede4	0.7770674
139	0x3e1f9d17	0.15587269
140	0xbf38d2aa	-0.7219645
141	0x3f05d770	0.52281857
142	0x3ea12075	0.31470075
143	0x3f615c7d	0.8803175
144	0xbeb8a7c2	-0.3606549
145	0xbddf55c2	-0.10905029
146	0xbf0da2f2	-0.5532676
147	0x3eb13779	0.34612635
148	0x3f218533	0.6309387
149	0x3ebf1791	0.37322667
150	0x3dc8fb7a	0.0981359
151	0xbea54a0d	-0.3228306
152	0xbee2f596	-0.44327992
153	0x3f20c98e	0.6280755
154	0x3f7a32df	0.97733873
155	0xbe6db14e	-0.23212168
156	0xbcafd99b	-0.021466067
157	0xbf1f7684	-0.62290215
158	0xbe22a98f	-0.15884994
159	0x3f0975fd	0.5369566
160	0x3d867e92	0.0656711
161	0xbc133b90	-0.008986369
162	0x3e1c09db	0.15238135
163	0xbf07c381	-0.5303269
164	0x3d0bc924	0.03412737
165	0xbe9e2efd	-0.30895224
166	0xbed43769	-0.41448525
167	0xbe5d2750	-0.21597028
168	0xbe6d5162	-0.23175576
169	0xbe71ac6a	-0.23600927
170	0x3f303b86	0.68840826
171	0x3e864690	0.2622571
172	0xbefaace6	-0.48960036
173	0x3f0edc1d	0.55804616
174	0x3ea0d070	0.31409025
175	0xbf14d860	-0.5814266
176	0xbddff1ee	-0.10934816
177	0xbf0b7a2b	-0.5448329
178	0xbeb1d421	-0.34732154
179	0xbecc136d	-0.3985857
180	0x3ced6dd6	0.028983038
181	0x3f9fc107	1.2480782
182	0x3e9cbd5c	0.3061322
183	0xbf3815f1	-0.7190848
184	0xbcfa00cf	-0.030517964
185	0x3f3a2589	0.72713524
186	0x3ed781ba	0.4209116
187	0xbdedf284	-0.11618522
188	0xbee7ed08	-0.45298028
189	0x3f02f8ea	0.5116106
190	0x3ef98dd7	0.48741028
191	0x3f52169a	0.8206574

base_pointnet.conv_1_b.bias f4 [64]
0	0x3ef4d593	0.47819194
1	0xbeb89fb8	-0.36059356
2	0x3d04c0d3	0.032410454
3	0xbe72159c	-0.23641056
4	0x3eec8a5e	0.46199316
5	0xbe9dec58	-0.30844378
6	0x3d0b1390	0.033954203
7	0x3eb58368	0.35451818
8	0x3f03b6e9	0.51450974
9	0xbe391ea2	-0.18078092
10	0x3b907d39	0.004409459
11	0x3e2dd778	0.16976726
12	0xbef2004a	-0.47265846
13	0xbe26573a	-0.16244212
14	0xbd8c9b5b	-0.06865569
15	0xbee676ba	-0.45012456
16	0x3e8a2be5	0.26986614
17	0xbecd4786	-0.4009363
18	0x3ebc344f	0.36758658
19	0x3f00015f	0.5000209
20	0x3ee57366	0.44814605
21	0xbed4b12f	-0.4154143
22	0x3e91d832	0.28485256
23	0xbebd1336	-0.3692872
24	0x3e967c03	0.29391488
25	0x3eb430e7	0.3519356
26	0xbe12e707	-0.14345942
27	0xbef38db3	-0.47569045
28	0xbe8d6c72	-0.276218
29	0xbd4e69a2	-0.050393708
30	0xbe361f70	-0.1778543
31	0xbf00b3ba	-0.5027424
32	0xbe6c4831	-0.23074414
33	0x3cffca05	0.03122426
34	0xbe53d44b	-0.20686452
35	0x3e2f98f7	0.17148195
36	0x3e440987	0.1914426
37	0x3f01a0d2	0.5063602
38	0xbb819a89	-0.0039551896
39	0x3e1abd7c	0.15111345
40	0xbe2222c4	-0.15833575
41	0x3e14c915	0.14529832
42	0xbe6c50d1	-0.23077704
43	0xbed584d9	-0.41702917
44	0xbe16d32a	-0.1472899
45	0xbac3b421	-0.0014931002
46	0x3f048447	0.5176434
47	0x3ec4635d	0.38357058
48	0xbeb19a54	-0.34688056
49	0xbdc4659b	-0.09589692
50	0x3dee6871	0.11641014
51	0xbeed49d8	-0.463454
52	0xbe4e94d1	-0.20173956
53	0xbe8bf75c	-0.27337158
54	0x3f06e3e2	0.5269147
55	0x3eb92f35	0.3616883
56	0x3ef08bed	0.46981755
57	0xbf0afcc5	-0.54291946
58	0x3e1fe436	0.156144
59	0xbdbafa0d	-0.09129725
60	0x3f0108db	0.5040414
61	0xbdf062b6	-0.117375776
62	0x3e08f0f6	0.1337317
63	0x3e2352a7	0.15949498

base_pointnet.conv_2.weight f4 [64, 64, 3]
0	0x3d48f8b9	0.049065325
1	0xbc3143fd	-0.010819432
2	0x3cc2acfb	0.023764124
3	0xbd99c226	-0.07507734
4	0x3d8065df	0.0626943
5	0x3c64cc91	0.013964788
6	0xbc87ead9	-0.016591476
7	0xbccf63ca	-0.025316138
8	0x3c450696	0.012025496
9	0xbc2047c6	-0.009782737
10	0x3c84f402	0.016229633
11	0x3cd8d74c	0.026469849
12	0x3e039be1	0.12852432
13	0x3d8a2488	0.06745249
14	0x3bbee17a	0.0058252187
15	0xbc8f7602	-0.017512325
16	0x3cd0f1b0	0.02550587
17	0x3c857d7c	0.016295187
18	0xbd9a2342	-0.07526256
19	0xbd22baed	-0.039729048
20	0xbd51b9b5	-0.051202495
21	0x3dd068a6	0.1017621
22	0x3dc9a434	0.098457724
23	0x3e1a93c6	0.15095434
24	0x3d47cb88	0.048778087
25	0xbd73fc8e	-0.059567027
26	0x3caddfb0	0.021224827
27	0xbd88f4c9	-0.06687314
28	0x3cba76f7	0.022761805
29	0xbc77d552	-0.015126543
30	0xba07918b	-0.0005171529
31	0xbd1cd12a	-0.038285412
32	0xbd1160a7	-0.035492565
33	0xbd6299dc	-0.055322513
34	0xbdb31229	-0.08743698
35	0xbced1b2e	-0.028943624
36	0x3c934c05	0.017980585
37	0x3d0ddd0c	0.034634635
38	0xbc812b08	-0.01576759
39	0xbda63f71	-0.08117569
40	0xbd628f80	-0.055312634
41	0xbe175904	-0.1478005
42	0xbd1d90b6	-0.038468085
43	0x3c5f7fa4	0.013641272
44	0xbd9521fb	-0.07281872
45	0xbd5c2c06	-0.05375292
46	0x3d2f4e5a	0.04279933
47	0xbc55623a	-0.013023907
48	0xbd7d575e	-0.061850898
49	0x3bda6001	0.0066642766
50	0xbdb8565d	-0.090008475
51	0xbc044994	-0.008074183
52	0xbd28a55a	-0.041173317
53	0x3ca0bf5d	0.0196225
54	0x3dbb5c60	0.091484785
55	0xbd93614e	-0.07196294
56	0x3d9e047e	0.077157006
57	0xbe146602	-0.14492038
58	0xbe3103cb	-0.17286603
59	0xbdaad15b	-0.08340713
60	0xbccc6b20	-0.024953425
61	0xbccafaf8	-0.024777874
62	0x3d9d755c	0.076884
63	0xbd173950	-0.03691989
64	0x3beccda7	0.007226664
65	0xbcc894b6	-0.024484973
66	0xbd39e9da	-0.045389034
67	0xbd315e30	-0.043302715
68	0x3c30565a	0.010762775
69	0xbe3c243c	-0.18373197
70	0xbd0440ab	-0.032288235
71	0xbd869d2a	-0.065729454
72	0x3cc1c71a	0.02365451
73	0x3d38f7ac	0.045158073
74	0x3d6010cb	0.054703515
75	0x3b9235d6	0.004461984
76	0x3cfd9e25	0.030959198
77	0xbdd324fd	-0.10309789
78	0xbc0d1aac	-0.008612316
79	0xbd1a45be	-0.037664168
80	0x3ce37f62	0.027770702
81	0xbda99016	-0.08279435
82	0x3d67767a	0.056509472
83	0x3d42eca8	0.047588974
84	0xbc874df2	-0.01651666
85	0xbe249c51	-0.16075255
86	0xbd4f422f	-0.050600227
87	0x3d8dd447	0.06925254
88	0x3dc264b9	0.094918676
89	0x3d2121f6	0.03933903
90	0x3d278edd	0.04090773
91	0x3d85c1e4	0.06531122
92	0x3cc7e98b	0.024403354
93	0x3d0946e9	0.03351489
94	0xbd0117f5	-0.031516988
95	0xbbbf2bef	-0.0058340947
96	0x38057ad5	3.1824067e-05
97	0xbd2aa744	-0.041663423
98	0x3c509cfe	0.012732742
99	0x3bb656a1	0.005564526
100	0x3c95bee6	0.018279504
101	0x3d93e09f	0.072205774
102	0xbd6f3e9f	-0.05840933
103	0x3c5bc622	0.013413938
104	0x3c043557	0.008069358
105	0x3d5dd02e	0.054153614
106	0xbd2e0f0b	-0.042494815
107	0x3d2ba7f3	0.041908216
108	0xbd8656eb	-0.06559547
109	0xbd868597	-0.06568449
110	0xbdd71436	-0.10501902
111	0x3db5bce8	0.08873922
112	0xbd19e7f9	-0.037574742
113	0x3cdb0e51	0.026740225
114	0xbc72936a	-0.014805654
115	0xbc97e106	-0.018539917
116	0xbcb10b12	-0.021611724
117	0x3e05d623	0.13069968
118	0xbc28a7c1	-0.010293902
119	0x3d085ee2	0.033293612
120	0xbddd8fed	-0.10818467
121	0xbd4f0893	-0.050545286
122	0xbe0822ad	-0.13294478
123	0x3d582466	0.052769087
124	0xbbd709bf	-0.006562441
125	0xbca7a148	-0.020462647
126	0xbd25cf15	-0.040480692
127	0xbd899a39	-0.06718869
128	0xbc870d52	-0.016485844
129	0xbaaa6ec5	-0.0013002983
130	0x3c6a3487	0.01429475
131	0xbcfbf668	-0.030757144
132	0x3dc84275	0.09778301
133	0x3df107bd	0.11769054
134	0x3dd66521	0.104685076
135	0xbc71d96a	-0.014761308
136	0xbcd4d5c0	-0.02598083
137	0xbc4395b6	-0.011937549
138	0x3c97849c	0.01849585
139	0xbc7687a3	-0.015046987
140	0xbd8e0e21	-0.069362886
141	0x3d385680	0.045004368
142	0x3dac8ebe	0.084256634
143	0x3d71d30d	0.059039164
144	0x3caf1db3	0.021376466
145	0x3cd2b211	0.025719674
146	0x3d08662c	0.033300564
147	0x3dc666e6	0.09687595
148	0x3d30fc05	0.043209095
149	0xbc2b24e4	-0.010445807
150	0xbcc2ab79	-0.023763405
151	0x3c44f436	0.012021115
152	0x3d123385	0.035693664
153	0xbda99dfd	-0.08282087
154	0xbd6c0b12	-0.057627745
155	0xbd6eb07a	-0.05827377
156	0x3d34df78	0.04415843
157	0x3b9206b4	0.0044563655
158	0xbc9d0153	-0.01916567
159	0xbd4bd5e9	-0.049764547
160	0xbd275d27	-0.04086032
161	0x3db08699	0.086194225
162	0x3d08c52b	0.03339116
163	0xbd281e08	-0.041044265
164	0xbda8f532	-0.08249892
165	0x3b7bccc5	0.0038421613
166	0x3d07c01e	0.0331422
167	0x3bb43066	0.0054989336
168	0x3cda5cc9	0.026655572
169	0x3d8569cb	0.06514319
170	0x3d5de13a	0.05416987
171	0x3c64583c	0.013937052
172	0xbd8ee86f	-0.06977927
173	0xbc099c23	-0.008399042
174	0xbcb90d97	-0.022589488
175	0xbd13ca2a	-0.03608147
176	0xbb73fbf1	-0.0037229026
177	0x3dd851d3	0.10562482
178	0x3d95583e	0.072922215
179	0x3d8ec0a1	0.06970335
180	0x3b414000	0.002948761
181	0x3cccf8cc	0.02502098
182	0x3d1fc9c4	0.039010778
183	0x3a7e0c10	0.00096911285
184	0x3d2ab6fa	0.041678406
185	0x3d855f5b	0.06512328
186	0x3d87a946	0.06624083
187	0x3dadb2e4	0.08481386
188	0x3c260f5c	0.010135498
189	0x3c96d334	0.018411256
190	0xbd3fffb7	-0.046874728
191	0xbbb25f1e	-0.0054434678
192	0xbd7eeb8a	-0.062236346
193	0xbd65c196	-0.05609282
194	0xbcf91b3e	-0.030408498
195	0xbd240478	-0.040043324
196	0xbcfeeaac	-0.03111776
197	0x3dced6ba	0.100995496
198	0xbcd9e7e1	-0.026599826
199	0xbd5d02dc	-0.053957805
200	0x3dcb1b6b	0.09917339
201	0xbbf58284	-0.0074923653
202	0x3d031530	0.032002628
203	0xbe16fa70	-0.14743972
204	0xbe47812f	-0.19482873
205	0xbdb76da7	-0.089564614
206	0x3e38b67f	0.18038367
207	0x3dc204ba	0.09473558
208	0x3d8634b2	0.065530196
209	0xbd3a7b01	-0.045527462
210	0xbcb5ab98	-0.022176549
211	0x3d2782e6	0.04089632
212	0x3d12ee1b	0.035871606
213	0x3dac5ee4	0.084165365
214	0xbcffb47a	-0.031213988
215	0xbe17cee6	-0.14825019
216	0x3cb2a232	0.021805856
217	0x3c64c383	0.013962629
218	0x3ddd614a	0.10809572
219	0x3db011b9	0.0859713
220	0x3d560194	0.0522476
221	0x3d3569c4	0.04429032
222	0x3d96ce3e	0.07363556
223	0xbc4bd36f	-0.012440546
224	0x3d06ccc8	0.03291014
225	0xbd49a546	-0.049229883
226	0x3ce3eaae	0.027821865
227	0x3d74cf4b	0.059768002
228	0xbdd22093	-0.10260119
229	0x3c9d7a57	0.019223375
230	0x3df615f5	0.12015907
231	0x3c666e55	0.014064391
232	0xbccab1b4	-0.024742939
233	0xbb5a4847	-0.003330724
234	0xbbdcd741	-0.0067395275
235	0xbb3547a7	-0.0027661116
236	0xbd623478	-0.05522582
237	0xbcd1eece	-0.025626566
238	0xbb48f8ba	-0.003066583
239	0xbd2ae912	-0.04172618
240	0x3c07bafe	0.0082843285
241	0xbd7b776c	-0.061393186
242	0xbd413db6	-0.047177993
243	0xbdbe43f7	-0.09290307
244	0x3cb5c956	0.022190731
245	0x3d51a625	0.05118384
246	0xbd08a532	-0.033360668
247	0xbca23fc5	-0.019805798
248	0xbccbd995	-0.024884025
249	0x3d18e221	0.03732503
250	0x3ceed6ac	0.029155098
251	0xbd813834	-0.06309548
252	0xbb617eaf	-0.0034407785
253	0xb93db868	-0.00018093141
254	0xbd89c6da	-0.06727381
255	0xbd111af1	-0.035426084

base_pointnet.conv_2.bias f4 [64]
0	0x3c4f0c05	0.012637143
1	0x3d0eb241	0.034837965
2	0x3d8fdc64	0.07024458
3	0xbdb17218	-0.0866434
4	0xbd44c69c	-0.04804097
5	0x3ca596db	0.020213535
6	0x3d8d0086	0.068848655
7	0xbc192d7a	-0.009349221
8	0x3c2b58ab	0.010458152
9	0x3d805d30	0.06267774
10	0xbd3eb487	-0.046558883
11	0xbcb44448	-0.022005215
12	0x3cef7e0a	0.029234905
13	0x3d6cacd4	0.05778201
14	0x3d095912	0.03353221
15	0xbdc59457	-0.09647434
16	0x3d5a5959	0.053307865
17	0xbd5ed571	-0.054402772
18	0x3d021798	0.031760782
19	0x3c9f1e36	0.019423585
20	0xbd768e53	-0.060194325
21	0x3d94445c	0.07239601
22	0x3d9285f6	0.07154457
23	0x3c7b3749	0.015333005
24	0xbdf2b92e	-0.118517265
25	0x3d61b258	0.055101722
26	0xbcb78946	-0.022404324
27	0xbbd09615	-0.0063655474
28	0xba66f71e	-0.0008810627
29	0xbc540ea4	-0.012942944
30	0x3d7c22b8	0.061556548
31	0xbb48754c	-0.0030587493
32	0x3d9c3835	0.07627908
33	0xbca13314	-0.019677676
34	0xbd5ed6a3	-0.054403912
35	0xbdc0aa00	-0.09407425
36	0xbc279471	-0.010228262
37	0xbd6854bb	-0.05672143
38	0x3e0361d4	0.12830287
39	0x3d259a8e	0.040430598
40	0xbdd7a3b4	-0.10529271
41	0x3dbb20f5	0.091371454
42	0xbca4e025	-0.020126412
43	0xbc326b93	-0.0108899055
44	0xbc13926b	-0.009007077
45	0xbb3d9416	-0.0028927377
46	0xbdacc17d	-0.084353425
47	0x3c9b2bf7	0.018941863
48	0x3cc564c9	0.02409591
49	0x3d0ede10	0.034879744
50	0x3d51d52a	0.05122868
51	0x3cc80d3e	0.024420377
52	0xbd624f64	-0.055251494
53	0xbd87d293	-0.06631961
54	0x3d83f990	0.06444085
55	0x3cea56d2	0.028605852
56	0x3a8a6bfd	0.0010560747
57	0xbd02edf3	-0.031965207
58	0x3dadf304	0.08493617
59	0x3d2f7938	0.042840213
60	0xbc5f08e2	-0.013612958
61	0xbdb630f2	-0.08896054
62	0x3af1df7e	0.0018453447
63	0x3d64d612	0.055868216

base_pointnet.bn_1.weight f4 [64]
0	0x3f72ebfc	0.94891334
1	0x3f84f62b	1.0387625
2	0x3f9af19f	1.2104987
3	0x3f9a42fb	1.2051691
4	0x3f929003	1.1450199
5	0x3f84c94d	1.0373932
6	0x3f6a82dd	0.9160593
7	0x3f93f9eb	1.1560644
8	0x3f828def	1.0199565
9	0x3f8673ec	1.0504127
10	0x3f6790fb	0.904556
11	0x3f72b026	0.9480003
12	0x3f6c9844	0.9241984
13	0x3f81be79	1.0136253
14	0x3f68bf2d	0.9091671
15	0x3f795481	0.9739457
16	0x3f8b3812	1.0876486
17	0x3f574b14	0.84098935
18	0x3f856228	1.042058
19	0x3f8fdc92	1.1239188
20	0x3f48f24f	0.78494734
21	0x3f650292	0.89457047
22	0x3f857d28	1.042882
23	0x3fa793f7	1.309203
24	0x3f57db9e	0.84319484
25	0x3fa4ecd0	1.288477
26	0x3f5a2739	0.852161
27	0x3f8b69e9	1.0891696
28	0x3f8ac2ae	1.0840662
29	0x3f9604d0	1.1720219
30	0x3f8fee3d	1.124458
31	0x3f532e44	0.8249247
32	0x3f74c169	0.9560762
33	0x3f9253e0	1.1431847
34	0x3f45f32b	0.7732417
35	0x3f63313c	0.88747
36	0x3f7f056b	0.9961764
37	0x3f82a362	1.020611
38	0x3f5a2be0	0.852232
39	0x3f7ba49f	0.98298067
40	0x3f707f09	0.9394384
41	0x3f720415	0.9453748
42	0x3f7e2cce	0.99287117
43	0x3f778c28	0.96698236
44	0x3f906172	1.1279738
45	0x3f4a679d	0.7906435
46	0x3f8ccdbe	1.1000288
47	0x3f711501	0.94172674
48	0x3f68994c	0.9085891
49	0x3f7ed545	0.99544173
50	0x3f6b3e4e	0.91891944
51	0x3f80a030	1.0048885
52	0x3f2deb27	0.6793694
53	0x3f67ae69	0.90500504
54	0x3f578d43	0.84199923
55	0x3f7f8e3d	0.99826413
56	0x3f5db215	0.86599857
57	0x3f71fd5c	0.9452722
58	0x3f52d962	0.8236295
59	0x3f80c8dc	1.0061297
60	0x3f599bc2	0.8500329
61	0x3f8acaaa	1.0843098
62	0x3f70e6bf	0.9410209
63	0x3f8eadf3	1.1146835

base_pointnet.bn_1.bias f4 [64]
0	0xbdbd1b9c	-0.09233782
1	0xbd12160c	-0.035665557
2	0xbebec9d9	-0.37263373
3	0xbe31a58f	-0.17348312
4	0x3e1bf979	0.15231885
5	0xbe213238	-0.15741813
6	0x3d691c33	0.05691166
7	0xbe2635c0	-0.16231441
8	0x3eb3c47a	0.35110837
9	0x3df6d74b	0.120527826
10	0xbdfb1451	-0.122597344
11	0xbd535b6a	-0.05160085
12	0x3dddd33f	0.108313076
13	0x3bfbd39d	0.0076851384
14	0xbde1810f	-0.11010944
15	0x3e8125b5	0.2522408
16	0xbd6cdf5b	-0.057830196
17	0xbd945042	-0.072418705
18	0x3d61c0be	0.055115454
19	0x3cb745e1	0.022372188
20	0xbdd03ab2	-0.10167445
21	0xbdae4608	-0.08509451
22	0xbe226111	-0.1585734
23	0x3cfebf58	0.0310971
24	0xbd9892f3	-0.07449903
25	0xbe974031	-0.29541162
26	0x3cb3e434	0.021959402
27	0x3db2966c	0.08720097
28	0x3e1df2c5	0.1542464
29	0x3e1dd968	0.15414965
30	0xbda743e3	-0.08167245
31	0xbbea580a	-0.0071516084
32	0xbdbbc8ac	-0.091691345
33	0xbd537ebe	-0.051634543
34	0xbdf07fa9	-0.11743099
35	0xbdbd7a70	-0.09251869
36	0x3d8547c2	0.06507827
37	0xbd359c51	-0.044338528
38	0xbda9be88	-0.08288294
39	0xba7c1b54	-0.00096171093
40	0x3e9e0ee3	0.30870733
41	0xbd3fc756	-0.04682096
42	0x3bbe2a66	0.005803394
43	0x3e135832	0.14389113
44	0xbf062fe5	-0.5241683
45	0xbe34abb0	-0.17643619
46	0xbe189dc9	-0.1490394
47	0xbeefdb44	-0.46846974
48	0xbce24c09	-0.027624147
49	0x3d96f4d8	0.07370919
50	0xbddfeb99	-0.109336086
51	0xbd3b1366	-0.045672797
52	0xbe195a0d	-0.14975758
53	0xbdf30c06	-0.11867528
54	0xbe403855	-0.18771489
55	0xbd813882	-0.06309606
56	0xbd5eba3f	-0.054376837
57	0xbd7937fd	-0.06084441
58	0x3e370e48	0.17876542
59	0xbebbd2d0	-0.36684275
60	0xbe42133b	-0.18952648
61	0x3ce62948	0.028095856
62	0xbe3d4d42	-0.18486503
63	0x3e8d2a7c	0.27571476

base_pointnet.bn_1.running_mean f4 [64]
0	0x401d4bd0	2.4577522
1	0x3fca1e1d	1.579044
2	0xbfa040ba	-1.2519753
3	0xbf407d17	-0.7519087
4	0xbfd460e7	-1.6592072
5	0xbfa1efc0	-1.2651291
6	0xc12023d1	-10.008744
7	0xbf937187	-1.1519021
8	0x4061590f	3.5210607
9	0x3f47768a	0.7791525
10	0xc0fd0866	-7.907275
11	0xc0d9d929	-6.807759
12	0xc11213de	-9.12985
13	0x3e7c933d	0.24665542
14	0x3fc5cae7	1.5452546
15	0x4012229f	2.283363
16	0xc023ec81	-2.56131
17	0xc18f7745	-17.933237
18	0xc08442ed	-4.1331697
19	0x3f0b69d1	0.5445834
20	0xc139133f	-11.567199
21	0x41efaa39	29.958117
22	0x3f3aa495	0.7290738
23	0xc02d8d4c	-2.711749
24	0xc1376e74	-11.464466
25	0xbfcd6a75	-1.6048113
26	0x4242ff9e	48.749626
27	0xc034a4b2	-2.8225522
28	0xbfc5bf24	-1.5448956
29	0x3fa12111	1.2588216
30	0xbfb3a20c	-1.4033828
31	0x41a56199	20.672655
32	0x40febd32	7.960595
33	0xbe5474ae	-0.20747635
34	0xc143ae5c	-12.230068
35	0x421dd508	39.45804
36	0x3f8b1eca	1.0868771
37	0xbfca67b4	-1.5812898
38	0x418c6f16	17.554241
39	0xc10459b4	-8.2719
40	0xbf624bb2	-0.8839675
41	0xbfea1c2c	-1.8289847
42	0x411d1aea	9.819071
43	0x3fa4b209	1.2866832
44	0xbeea485d	-0.45758334
45	0xc1a1a525	-20.205637
46	0x3f057e15	0.5214551
47	0xc1155906	-9.334234
48	0x4002c67f	2.0433652
49	0x405257ee	3.2866168
50	0x419f1812	19.886753
51	0x40a5f722	5.1864176
52	0x421e3aa4	39.557266
53	0xc0768bd1	-3.8522837
54	0xc187d53d	-16.97912
55	0xc09c0ede	-4.876815
56	0x40e671d4	7.201395
57	0xc0f0f6c4	-7.5301228
58	0xc1bccbed	-23.599573
59	0xbf27c8d8	-0.6554084
60	0x41bebbda	23.841724
61	0xc02504f3	-2.578427
62	0xc11b965f	-9.724212
63	0x3ff3096a	1.8987248

base_pointnet.bn_1.running_var f4 [64]
0	0x42098727	34.381985
1	0x418e0f7b	17.757559
2	0x417c0ee1	15.753633
3	0x4206c358	33.690765
4	0x40f4b886	7.647525
5	0x42829a74	65.30167
6	0x41c98d3e	25.193966
7	0x41a438c5	20.52772
8	0x427be5af	62.9743
9	0x4282a5b2	65.32362
10	0x4293c7a6	73.88994
11	0x4277ebdf	61.980343
12	0x429fa8bb	79.82955
13	0x3f9fbe23	1.24799
14	0x409d02b7	4.9065814
15	0x42b94b5e	92.6472
16	0x42196d4a	38.356728
17	0x42adc1f7	86.87884
18	0x42871a45	67.55131
19	0x41a60149	20.750628
20	0x42416c9b	48.35606
21	0x43592e4e	217.18088
22	0x420a066a	34.506264
23	0x42643204	57.048843
24	0x425f5875	55.836384
25	0x422b12e0	42.768433
26	0x440bb1bc	558.7771
27	0x41d5cb9e	26.724422
28	0x416dc0df	14.859588
29	0x42032c36	32.793175
30	0x42acfaa8	86.48956
31	0x42f4fe26	122.49638
32	0x41b2b84a	22.339985
33	0x428d2086	70.56352
34	0x423cee21	47.232548
35	0x43b50eff	362.11716
36	0x41b5255e	22.643246
37	0x4257e3d0	53.972473
38	0x42ef5905	119.67387
39	0x42d25967	105.174614
40	0x42971dbd	75.55808
41	0x40183330	2.3781242
42	0x43119b15	145.60579
43	0x420a78f0	34.618103
44	0x424e052f	51.505062
45	0x42f74378	123.631775
46	0x41b3ba9b	22.466116
47	0x4232c21c	44.68956
48	0x42202a8a	40.041542
49	0x41316d7b	11.089229
50	0x42c7831a	99.75606
51	0x4207cfed	33.953053
52	0x43c2162c	388.17322
53	0x418701bc	16.875847
54	0x42ad26cb	86.57577
55	0x41e11783	28.13648
56	0x4296928f	75.28625
57	0x41f9b704	31.214363
58	0x4317e966	151.91171
59	0x4116836e	9.407087
60	0x42f6ed1c	123.463104
61	0x4199581c	19.168022
62	0x41e132f9	28.149889
63	0x420fb6f3	35.92866

base_pointnet.bn_2.weight f4 [64]
0	0x3fc179bd	1.5115277
1	0x3fce2302	1.6104434
2	0x400e48c8	2.2231922
3	0x3fb9536e	1.4478586
4	0x3fca9279	1.582595
5	0x3fbb90f3	1.465361
6	0x3fd01031	1.6254941
7	0x3fc3e214	1.5303369
8	0x3fd29f13	1.6454796
9	0x3fc7a7ae	1.5598047
10	0x3fca0b52	1.5784705
11	0x3fba8f0c	1.4574904
12	0x3fad3a03	1.3533329
13	0x3ff04c70	1.8773327
14	0x3fd16339	1.6358405
15	0x3fb192e3	1.3872951
16	0x3fe53c18	1.7908964
17	0x3fc8c53d	1.5685192
18	0x3ff8bf3c	1.943336
19	0x40138d3a	2.3054948
20	0x3ffc0aa3	1.9690746
21	0x3fc0ef47	1.5073022
22	0x3fd51b90	1.6649036
23	0x3fc88608	1.5665903
24	0x3fdf4828	1.7443895
25	0x3fdb0821	1.7111856
26	0x3fd46d26	1.659581
27	0x3ff9ed33	1.9525512
28	0x3fd0bf50	1.6308384
29	0x3fdcc8ef	1.724882
30	0x3fc741f4	1.5567002
31	0x3fcf3a1c	1.6189609
32	0x3fbd55a4	1.479176
33	0x3fc39088	1.5278482
34	0x3fd81c99	1.6883727
35	0x3fcc6f0e	1.5971391
36	0x3fe382e4	1.777432
37	0x3fd7e6e8	1.6867342
38	0x3fcdd4c0	1.6080551
39	0x3fc8f2c5	1.5699087
40	0x3fc28e14	1.5199609
41	0x3fc90355	1.5704142
42	0x3fd40702	1.6564639
43	0x3fdafbe6	1.7108123
44	0x40090e4f	2.1414983
45	0x3fccca4e	1.5999238
46	0x3fc8e947	1.569619
47	0x3fb628e5	1.423123
48	0x3fe943d5	1.8223826
49	0x3fbe0866	1.4846313
50	0x3fd9870e	1.699434
51	0x3fabaee1	1.3412744
52	0x3fd217cf	1.6413516
53	0x3fe89a69	1.8172122
54	0x4024387f	2.5659482
55	0x3fe51dbe	1.7899702
56	0x403b6158	2.9278164
57	0x3fcd8968	1.6057558
58	0x3fee2990	1.8606434
59	0x3fce21b1	1.6104032
60	0x3fe1018c	1.7578597
61	0x3fe4c0bd	1.7871319
62	0x3fd66558	1.6749678
63	0x3fdd223c	1.7276073

base_pointnet.bn_2.bias f4 [64]
0	0x3d389355	0.04506238
1	0x3e713a81	0.23557474
2	0xbe671a5a	-0.22568646
3	0x3dc63a99	0.09679145
4	0x3d542874	0.05179639
5	0x3e8f23c4	0.27956975
6	0x3e07ec5d	0.13273759
7	0x3e273bc5	0.16331394
8	0x3c109a75	0.008825888
9	0x3e9c0fae	0.30480713
10	0x3d91c148	0.071169436
11	0x3e02d02a	0.12774721
12	0x3ddcf767	0.10789376
13	0xbc968d9a	-0.018378068
14	0xbd47280b	-0.048622172
15	0x3e130918	0.14358938
16	0x3dfec8c7	0.12440639
17	0x3e5d80d4	0.21631175
18	0xbee7ca64	-0.452716
19	0xbed79f68	-0.42113805
20	0xbd9dcc39	-0.07704968
21	0x3e7dff4d	0.24804421
22	0x3e1cc5ca	0.15309826
23	0x3df7260d	0.120678045
24	0x3ddb20db	0.10699626
25	0x3e553e3e	0.20824525
26	0x3e024dee	0.1272504
27	0xbe4d0034	-0.20019609
28	0x3e3fb605	0.18721779
29	0xbdb0107a	-0.08596893
30	0x3e4895f1	0.19588448
31	0x3d8e8573	0.06959047
32	0x3dd0b731	0.10191191
33	0x3db1dfda	0.086852744
34	0x3cc825fb	0.024432173
35	0x3e5f7de4	0.21825367
36	0x3e10a06d	0.14123698
37	0x3e1ac25c	0.15113205
38	0xbc128b81	-0.008944393
39	0x3dc35319	0.09537334
40	0x3dc8a22b	0.09796556
41	0x3e986576	0.2976491
42	0xbe377f2b	-0.17919604
43	0xbb90d584	-0.0044199843
44	0x3cf6930f	0.03009942
45	0xbd2452b1	-0.040117923
46	0xbc2690fb	-0.010166402
47	0x3e06815b	0.13135283
48	0xbe92f9b1	-0.28706124
49	0x3dabc610	0.08387387
50	0xbe25265a	-0.16127911
51	0x3e46c83e	0.19412324
52	0x3d9e83b6	0.077399656
53	0xbe2163fe	-0.157608
54	0xbeb86ab1	-0.360189
55	0x3c8e5c2d	0.017377937
56	0xbe02065c	-0.12697738
57	0x3e0d4210	0.13794732
58	0x3d5bb990	0.053643763
59	0x3e56b344	0.20966822
60	0x3d8d42d1	0.0689751
61	0xbc4f1e05	-0.012641435
62	0xbb52427b	-0.0032083082
63	0xbdde4c89	-0.10854442

base_pointnet.bn_2.running_mean f4 [64]
0	0xbe7807dc	-0.24221748
1	0xbc8a9c7b	-0.016920319
2	0x3d9f5d44	0.07781461
3	0xbc544b48	-0.012957402
4	0xbe488f09	-0.19585814
5	0xbcdfb6ae	-0.027308788
6	0x3dc58751	0.0964495
7	0xbee14d3c	-0.44004238
8	0x3d10a86f	0.03531688
9	0xbe1fd19e	-0.15607306
10	0xbe822a5c	-0.25422943
11	0xbeb2d771	-0.34929994
12	0xbe46c1b9	-0.19409837
13	0x3e0105e0	0.12599897
14	0x3e33969b	0.1753792
15	0xbe61df5b	-0.2205786
16	0xbc0a12bc	-0.008427318
17	0xbe841ac7	-0.2580168
18	0xbc0a0e5a	-0.008426273
19	0x3dc856f3	0.09782209
20	0xbe50dbc3	-0.20396332
21	0xbcac953d	-0.021067256
22	0xbe6db734	-0.23214418
23	0xbeafc08b	-0.34326586
24	0xbebd5c0c	-0.3698429
25	0xbe8e297b	-0.27766022
26	0xbdbff462	-0.09372784
27	0xbe0a44bc	-0.13502783
28	0x3be1b9b2	0.0068885917
29	0xbe7e2a36	-0.2482079
30	0x3d3895af	0.045064624
31	0xbdc3d23f	-0.09561586
32	0xbe462d67	-0.19353257
33	0xbe70b816	-0.23507723
34	0xbdcd3ead	-0.1002172
35	0xbe8cf86d	-0.27533284
36	0xbd619a7f	-0.05507898
37	0xbd8fcca1	-0.07021452
38	0x3dd2e6f4	0.10297957
39	0x3cc0b21f	0.023522435
40	0xbe1c791f	-0.15280579
41	0xbd8f964c	-0.07011089
42	0xbe940de4	-0.28916848
43	0x3d04863c	0.03235458
44	0x3e08190f	0.13290809
45	0xbc5b1ce0	-0.013373584
46	0xbe907b9a	-0.282193
47	0x3da328b3	0.07966747
48	0x3e25b6cc	0.16183013
49	0xbc888a91	-0.016667636
50	0x3b894990	0.0041896775
51	0xbe6e2284	-0.23255354
52	0xbe3427b3	-0.17593269
53	0x3d51e56e	0.05124419
54	0x3ddd68d3	0.10811009
55	0xbd8112d5	-0.0630242
56	0xbda548d2	-0.0807053
57	0xbe553dad	-0.20824309
58	0x3dbbaf21	0.091642626
59	0x3e793aca	0.24338832
60	0x3e007608	0.12545025
61	0xbe8f800d	-0.28027382
62	0xbdbe6bbf	-0.09297895
63	0xbe305a8c	-0.17222041

base_pointnet.bn_2.running_var f4 [64]
0	0x3c654a24	0.013994727
1	0x3d9ba05a	0.07598944
2	0x3c265049	0.010150977
3	0x3d7d948d	0.061909247
4	0x3ce66506	0.028124344
5	0x3d905221	0.07046915
6	0x3cc7a852	0.024372254
7	0x3d7cf24b	0.061754506
8	0x3cc9a84b	0.024616381
9	0x3da54951	0.080706246
10	0x3ca6d0be	0.020363208
11	0x3d14fef7	0.036375966
12	0x3d521a10	0.051294386
13	0x3c975860	0.018474758
14	0x3cc8d845	0.024517188
15	0x3d2a9d21	0.041653756
16	0x3cee0c6e	0.029058661
17	0x3cb11437	0.021616085
18	0x3c67e92b	0.014154713
19	0x3bdf3825	0.006812113
20	0x3c500f5e	0.012698976
21	0x3d466aa2	0.048441537
22	0x3d4c1733	0.049826812
23	0x3cf1da28	0.02952297
24	0x3ca9ab5c	0.020711593
25	0x3d934063	0.07190015
26	0x3cd33e36	0.0257865
27	0x3c728ea9	0.014804521
28	0x3cac9a8e	0.021069791
29	0x3d266047	0.04061916
30	0x3cc84dd5	0.024451176
31	0x3c45134a	0.012028525
32	0x3ce09840	0.027416348
33	0x3d015c4b	0.031582158
34	0x3bea3e43	0.0071485355
35	0x3caa2dde	0.020773824
36	0x3c244086	0.010025149
37	0x3dc2543b	0.09488722
38	0x3ce30d86	0.02771641
39	0x3d034023	0.032043587
40	0x3d317843	0.04332758
41	0x3d24db69	0.04024831
42	0x3c801b5d	0.015638048
43	0x3ce55c25	0.02799804
44	0x3d17a573	0.03702302
45	0x3c556375	0.013024201
46	0x3cad4c0a	0.021154422
47	0x3ce73cb3	0.028227186
48	0x3c92ee5e	0.017935928
49	0x3d4c0407	0.04980853
50	0x3cb04946	0.021519314
51	0x3d9d5bd5	0.07683531
52	0x3c5e0ae0	0.0135523975
53	0x3cabed89	0.020987289
54	0x3bf439ab	0.0074531636
55	0x3c3be22a	0.011467496
56	0x3c43b268	0.011944391
57	0x3d7de984	0.061990276
58	0x3d0ae7bc	0.033912405
59	0x3cb334ac	0.021875702
60	0x3c97f672	0.018550131
61	0x3c85b22b	0.016320309
62	0x3c2ca3e8	0.010537125
63	0x3c976994	0.01848296

fc_1.weight f4 [64, 66]
0	0x3b7a5a2c	0.003820072
1	0xbe64edbc	-0.22356313
2	0x3ba2739c	0.0049576294
3	0x3d6c5a87	0.05770352
4	0xbdc8a110	-0.09796345
5	0x3e91b4b0	0.28458166
6	0x3ebf34c7	0.37344953
7	0x3ddcf560	0.10788989
8	0x3d4ab467	0.04948845
9	0xbc29ac95	-0.010356088
10	0x3e865573	0.26237068
11	0x3e28a53a	0.16469279
12	0xbce3057f	-0.027712582
13	0xbe65faac	-0.22458905
14	0xbdf24d5f	-0.118311636
15	0x3e9b50ab	0.30334982
16	0x3ec425a1	0.3830996
17	0xbdbe821b	-0.093021594
18	0xbe59abe1	-0.21256973
19	0x3e1954eb	0.149738
20	0x3e241f45	0.16027553
21	0x3e254818	0.16140783
22	0x3d414b9a	0.04719124
23	0x3d07140b	0.0329781
24	0xbdba9611	-0.09110654
25	0x3bf42963	0.0074512227
26	0xbdaa1ee7	-0.083066754
27	0xbda5f736	-0.08103792
28	0x3e88a22b	0.26686224
29	0xbdb7efde	-0.08981298
30	0x3e296000	0.16540527
31	0x3d8f6c64	0.07003096
32	0x3c9aa039	0.018875228
33	0xbdac2531	-0.08405531
34	0xbcd6ed8e	-0.026236322
35	0x3d0559c5	0.032556314
36	0x3f010fbf	0.5041465
37	0x3bc0aea7	0.005880195
38	0x3eaadffc	0.33374012
39	0x3dc38e67	0.095486455
40	0x3ee08fb3	0.43859634
41	0x3d510adb	0.051035743
42	0xbcefea6d	-0.029286588
43	0xbe22f9da	-0.15915623
44	0x3c659a75	0.014013876
45	0x3df5124d	0.11966381
46	0x3e88f852	0.26751953
47	0x3c91bf1e	0.017791327
48	0xbaa61dab	-0.0012673637
49	0x3e5348b6	0.20633206
50	0x3d778cf6	0.060437165
51	0x3dcf0d2d	0.10109935
52	0xbdef87e5	-0.11695842
53	0xbbd7bdb4	-0.0065838937
54	0xbd92f726	-0.07176046
55	0x3e582e1c	0.2111134
56	0x3e929e59	0.28636435
57	0x3e02049a	0.12697068
58	0xbdeee643	-0.11665013
59	0x3dcfe83a	0.101517156
60	0x3ea721c5	0.32642952
61	0xbd9fae38	-0.077969015
62	0x3ead452c	0.33841836
63	0x3e01da05	0.12680824
64	0x3ed07011	0.407105
65	0x3d03c6b4	0.03217192
66	0x3c35c139	0.011093431
67	0x3e3e218f	0.18567489
68	0xbd668f4a	-0.056288995
69	0x3de619c4	0.11235383
70	0xbe6a0565	-0.2285362
71	0x3e54c17c	0.20776933
72	0x3ec20fab	0.3790258
73	0x3cff1ca8	0.031141594
74	0x3e44ceba	0.19219485
75	0xbc8eb394	-0.017419614
76	0x3e55e42d	0.20887823
77	0x3eb17252	0.34657532
78	0x3d1f137d	0.038836945
79	0x3dc2d80a	0.095138624
80	0x3e1bdf4c	0.152219
81	0x3e43bebc	0.19115728
82	0x3ecb5cfd	0.39719382
83	0x3d668581	0.056279663
84	0x3d8e4d6e	0.06948362
85	0x3e316f9e	0.17327735
86	0x3c2364de	0.009972779
87	0xbe773723	-0.24142127
88	0xbdb1a923	-0.086748384
89	0x3dc56315	0.09638039
90	0x3d9cefd1	0.07662929
91	0x3c7ea53e	0.0155423265
92	0x3e354496	0.17701945
93	0x3dc15972	0.094408885
94	0x3da08e1f	0.078396074
95	0x3db7ba9c	0.0897114
96	0x3c7a8269	0.015289881
97	0xbc46c811	-0.0121326605
98	0x3e227e00	0.15868378
99	0x3e2ac7e9	0.16677822
100	0xbc995bf6	-0.018720608
101	0xbd13b674	-0.036062673
102	0x3e89076a	0.2676347
103	0x3d9a6ac4	0.07539895
104	0x3ebfcd9d	0.37461558
105	0x3e237533	0.15962677
106	0x3e700b7a	0.23441878
107	0x3c8f246b	0.01747342
108	0x3dc128ea	0.09431632
109	0xbb6096ca	-0.0034269565
110	0x3e22d13a	0.15900126
111	0x3eb6f991	0.3573728
112	0x3ef658e1	0.48114684
113	0x3d28f39d	0.041247953
114	0xbe11f751	-0.142545
115	0x3e482694	0.19545966
116	0x3d7ed336	0.062213145
117	0xbb8ed762	-0.0043591717
118	0x3d294ca2	0.04133285
119	0xbdbd67fd	-0.0924835
120	0xbd0deaba	-0.03464768
121	0x3e60f435	0.21968158
122	0xbe6dd53e	-0.23225877
123	0x3e198e1c	0.14995617
124	0xbe9f0672	-0.31059605
125	0xbddf6eeb	-0.10909828
126	0x3e34cbdb	0.1765589
127	0x3e4d6c8a	0.20060936
128	0x3ec03690	0.37541628
129	0xbc2c20ef	-0.010505899
130	0x3e84c6bd	0.25932875
131	0xbdbfc254	-0.09363237
132	0xbde81f22	-0.11334063
133	0x3d4b4647	0.04962757
134	0xbc4a8b4e	-0.012362314
135	0x3d3578b9	0.044304583
136	0x3d667e30	0.056272686
137	0xbd8720f2	-0.06598081
138	0x3da19032	0.07888831
139	0xbdd53758	-0.104109466
140	0xbd1a3ef8	-0.037657708
141	0xbd9dd30b	-0.07706269
142	0xbbc0c8c2	-0.005883307
143	0xbdac19c8	-0.08403355
144	0x3d027c31	0.03185672
145	0x3dbfa959	0.093584724
146	0x3d9d18d7	0.076707534
147	0x3dd866f5	0.105665125
148	0xbe021ee4	-0.12707096
149	0x3debb936	0.115099356
150	0x3d9f648d	0.077828504
151	0x3cf94ee1	0.03043312
152	0xbd336424	-0.043796673
153	0x3d02b1b7	0.031907763
154	0x3dda3867	0.10655289
155	0xbe01968d	-0.12655087
156	0x3d3400ff	0.043946262
157	0x3c9dee42	0.01927865
158	0x3c942671	0.018084737
159	0xbd030310	-0.031985343
160	0x3c5af268	0.013363458
161	0xbd82e444	-0.063911945
162	0xbd0926e6	-0.033484362
163	0xbd44b01a	-0.048019506
164	0x3d5fa926	0.054604672
165	0x3d923c3d	0.07140396
166	0x3cab3f2b	0.020904144
167	0x3da69ade	0.08135007
168	0x3d875f60	0.06609988
169	0xbd16888c	-0.036751315
170	0xbe05b145	-0.13055904
171	0xbd9d6872	-0.07685937
172	0x3d2a3e82	0.04156352
173	0xbddf2605	-0.108959235
174	0xbdafdcd4	-0.085870415
175	0x3d85f46d	0.06540761
176	0xbce271bb	-0.027642122
177	0x3dcd3bf4	0.10021201
178	0x3d5dad35	0.05412026
179	0xbd0cfcd1	-0.034420792
180	0x3daf0879	0.08546538
181	0x3b6de5b3	0.0036300241
182	0xbd7f6d2f	-0.062359985
183	0x3d6ccc9f	0.05781233
184	0xbde2398e	-0.11046134
185	0xbe006ab2	-0.12540701
186	0x3dae913c	0.08523795
187	0x3de2c664	0.11072996
188	0x3c504971	0.012712822
189	0x3ca52268	0.020158008
190	0x3d8c44b9	0.06849045
191	0xbc334573	-0.010941851
192	0x3cf1421f	0.029450474
193	0xbd6a7787	-0.057242896
194	0x3da9538e	0.0826789
195	0xbcf01eca	-0.029311556
196	0xbd15b394	-0.036548212
197	0x3ddb181d	0.106979586
198	0x3e0a042f	0.13478158
199	0xbf7cff9f	-0.98827547
200	0x3db5b4ad	0.08872352
201	0x3bba6d9e	0.005689337
202	0xbd114db0	-0.03547448
203	0x3e6964a5	0.22792299
204	0x3e3a9079	0.18219174
205	0xbe85687a	-0.26056272
206	0xbe42baee	-0.1901662
207	0x3d11177e	0.035422795
208	0x3e38b6f6	0.18038544
209	0xbbffa746	-0.007801923
210	0x3caf1ff0	0.021377534
211	0xbe8f29a9	-0.27961472
212	0xbe369235	-0.17829211
213	0x3ebc8e20	0.36827183
214	0xbc70f811	-0.014707581
215	0xbe2a3e47	-0.1662532
216	0xbe92339f	-0.2855501
217	0x3dc96808	0.098342955
218	0x3eaa97f4	0.33319056
219	0xbdede368	-0.1161564
220	0xbecb1b5c	-0.3966931
221	0xbd435fff	-0.04769897
222	0xbe5a5b17	-0.2132381
223	0xbeabc267	-0.33546755
224	0xbec65d06	-0.38742846
225	0x3d9a9b8e	0.07549201
226	0x3e99993a	0.29999715
227	0x3c252d21	0.01008156
228	0x3d6923ca	0.056918897
229	0x3e65d149	0.22443117
230	0xbd604c15	-0.054760057
231	0x3e0f7c01	0.14012147
232	0xbdd4c6a0	-0.10389447
233	0x3e46d014	0.19415313
234	0x3eb0baa5	0.34517398
235	0x3e335ddc	0.17516273
236	0x3d206337	0.03915712
237	0xbcee170a	-0.02906372
238	0x3e92e2c0	0.28688622
239	0x3e0f4b56	0.13993582
240	0xbe026832	-0.1273506
241	0xbe9aa399	-0.3020294
242	0xbde20369	-0.11035807
243	0x3e460243	0.193368
244	0xbda3ec49	-0.08004052
245	0x3eb2e365	0.34939113
246	0x3e9ead3d	0.30991545
247	0x3d4447b7	0.047919955
248	0x3ba7e1cb	0.005123352
249	0xbd1ca475	-0.038242776
250	0xbe906b82	-0.28207022
251	0x3e555f71	0.2083719
252	0xbe8b25e0	-0.27177334
253	0x3e43ad9f	0.191092
254	0x3d302e7a	0.043013074
255	0xbdce41c5	-0.10071138

fc_1.bias f4 [64]
0	0xbda3c7c5	-0.079970874
1	0x3d058288	0.032595187
2	0x3db80460	0.089852095
3	0x3d4fffeb	0.05078117
4	0xbc8b674d	-0.017017031
5	0x3dd0d894	0.10197559
6	0xbdf14471	-0.11780632
7	0x3d852ddc	0.065028876
8	0xbd4d6196	-0.050141893
9	0x3ec261f0	0.37965345
10	0x3ba4836e	0.0050205505
11	0x3ddf8d19	0.10915584
12	0x3c9c3c0c	0.019071601
13	0xbe5896bc	-0.2115125
14	0x3d4dc044	0.050232187
15	0x3d285d58	0.041104645
16	0x3e221bf5	0.15830977
17	0xbd736501	-0.059422497
18	0xbd8ea7db	-0.0696561
19	0x3ec9ee2a	0.39439517
20	0x3e5fec2f	0.2186744
21	0xbd26cceb	-0.04072277
22	0xbe2482eb	-0.16065566
23	0xbdec48bd	-0.11537311
24	0xbd5c046c	-0.053715155
25	0xbde99621	-0.11405588
26	0xbdda44e4	-0.10657671
27	0xbda3cbd6	-0.07997863
28	0xbdcab749	-0.0989824
29	0xbe080a2c	-0.1328513
30	0x3d22ffa6	0.039794587
31	0xbdde4263	-0.10852506
32	0x3e6c1cb9	0.23057832
33	0x3daba6d3	0.083814286
34	0xbd024f1e	-0.031813733
35	0xbda03350	-0.07822287
36	0x3e4d474b	0.20046727
37	0x3d2ddf39	0.04244921
38	0x3df95e67	0.12176209
39	0xbe03eb74	-0.12882787
40	0x3d943602	0.07236864
41	0xbdbe540d	-0.09293375
42	0x3dd43bd3	0.10362973
43	0x3eaff2a0	0.34364796
44	0x3c968070	0.01837179
45	0x3da8bcfe	0.082391724
46	0x3ce52eb7	0.027976377
47	0x3e9ee577	0.31034443
48	0x3b07ae94	0.0020703422
49	0xbd6119aa	-0.054956116
50	0x3ca6b64c	0.020350598
51	0xbd4f7561	-0.05064905
52	0xbdd6a964	-0.104815274
53	0x3deac757	0.11463802
54	0xbdf52f33	-0.11971893
55	0x3e73c137	0.23804174
56	0x3d41126c	0.04713671
57	0xbc548bd8	-0.0129727945
58	0xbd086b97	-0.03330573
59	0x3d732904	0.059365287
60	0x3da161bc	0.078799695
61	0x3c2e5e83	0.010642651
62	0x3de60169	0.11230738
63	0x3d4d96fc	0.050192818

fc_2.weight f4 [4, 64]
0	0xbdbc660c	-0.091991514
1	0xbe41a579	-0.18910779
2	0xbcb4afbe	-0.022056457
3	0x3e6cf8d1	0.23141791
4	0xbd3e18c8	-0.046410352
5	0xbd4c95a0	-0.04994738
6	0xbf85dc00	-1.0457764
7	0x3dacc18a	0.08435352
8	0xbded4190	-0.11584771
9	0xbd828d6d	-0.06374631
10	0xbcdd88d5	-0.027042786
11	0xbfd0bf56	-1.6308391
12	0xbdcb3530	-0.09922254
13	0x3f8def60	1.1088676
14	0xbcb05aa0	-0.021527588
15	0x3e3c42e3	0.1838489
16	0x3e5ea4dd	0.21742578
17	0xbe2652d7	-0.16242538
18	0x3deb355a	0.114847854
19	0x40039658	2.0560513
20	0x3fd7ecf7	1.6869191
21	0xbd8897ff	-0.06669616
22	0xbe4b3cd9	-0.1984743
23	0x3e7746f4	0.2414816
24	0xbe061957	-0.13095604
25	0x3d5d7a10	0.054071486
26	0xbf6b8ac3	-0.9200861
27	0x3fa4c38a	1.2872174
28	0xbf00d2a3	-0.50321406
29	0xbd87f91d	-0.066393115
30	0xbe1083c2	-0.14112762
31	0xbdc38713	-0.09547248
32	0xbec88401	-0.3916321
33	0xbc4d84c0	-0.012543857
34	0x3e543cd7	0.20726334
35	0xbf84cc6b	-1.0374883
36	0x3fafa2bc	1.3721538
37	0x3e6c322e	0.23066017
38	0x3d90c75c	0.07069275
39	0x3b1c4d95	0.0023849953
40	0x3e809850	0.25116205
41	0xbed55d49	-0.41672733
42	0xbf0121ef	-0.50442404
43	0x4018c9aa	2.3873086
44	0xbbf03340	-0.007330328
45	0xbdd42aba	-0.10359712
46	0xbddd2879	-0.10798735
47	0x3f0456cb	0.51694936
48	0x3f57fe05	0.8437198
49	0x3df50602	0.119640365
50	0x3e6a16a3	0.22860198
51	0xbd35e224	-0.044405118
52	0x3e96b3fc	0.29434192
53	0x3ed76f57	0.42077133
54	0x3f768d83	0.9630968
55	0xc061df7c	-3.5292654
56	0xbd31e174	-0.0434279
57	0xbda60e7a	-0.0810823
58	0x3eaa7a95	0.33296648
59	0x3fc6439b	1.5489382
60	0xbdf85f7b	-0.121275865
61	0x3d235d80	0.03988409
62	0xbcf57692	-0.029963765
63	0x3e1c9829	0.1529242
64	0xbe73a5ab	-0.23793666
65	0x3d667d11	0.056271616
66	0x3dde51f1	0.10855473
67	0xbee169c0	-0.44025993
68	0xbbfe1e80	-0.0077551007
69	0x3dac1a86	0.084034964
70	0x3f9cb272	1.2241957
71	0x3d739f7c	0.059478268
72	0xbe038034	-0.12841874
73	0x3f4388b6	0.7638048
74	0xbdd138ef	-0.10215937
75	0x3ebf57e4	0.37371743
76	0xbd4c06e7	-0.04981127
77	0xc000c126	-2.0117888
78	0xbd58bda8	-0.052915245
79	0xbfc3a05b	-1.5283312
80	0xbebbeeed	-0.36705723
81	0x3fc11601	1.508484
82	0xbf132e5c	-0.57492614
83	0x3f307e07	0.689423
84	0xbf0ba3d5	-0.5454686
85	0xbdaea239	-0.08527035
86	0x3e753978	0.23947704
87	0x3d788fab	0.060683887
88	0xbe9c0a03	-0.30476388
89	0xbdb00780	-0.085951805
90	0x3f797995	0.97451144
91	0x3fb2d99d	1.397266
92	0x3c8635ca	0.01638307
93	0x3db1ecc8	0.086877406
94	0x3e4e275b	0.201322
95	0xbcf91422	-0.030405108
96	0xbeedb2c9	-0.46425465
97	0xbcd8f2a0	-0.02648288
98	0x3f279847	0.6546673
99	0x3f1dfb6b	0.6171176
100	0xc0837326	-4.107806
101	0xbcbab9ab	-0.022793612
102	0x3f8e801e	1.1132848
103	0x3f54b177	0.8308329
104	0xbd5eb00c	-0.05436711
105	0xbf4265b2	-0.75936425
106	0x3dada686	0.084790275
107	0xbfd2a80f	-1.6457537
108	0xbde5e35a	-0.112250045
109	0xbe5fc171	-0.21851136
110	0xbdca8d72	-0.0989026
111	0x3f4b044b	0.79303426
112	0xc02ad8b8	-2.6694775
113	0xbb358340	-0.002769664
114	0xbd85e08b	-0.06536969
115	0x3d7c2333	0.061557006
116	0x3c9de574	0.01927445
117	0x3fdb0ee2	1.7113917
118	0xc067977b	-3.6186206
119	0x3fbad1c8	1.459527
120	0x3df2095b	0.11818191
121	0xbe17d5ab	-0.14827602
122	0xbecccf95	-0.40002123
123	0xc00b73b8	-2.178938
124	0x3d1e9ef5	0.038725812
125	0xbca6f028	-0.020378187
126	0xbe492014	-0.19641143
127	0x3e43f734	0.1913727
128	0x3dc811fe	0.09769057
129	0x3df3df71	0.119078524
130	0xbb8f4bd6	-0.004373054
131	0x3e7fed3b	0.2499284
132	0xbd0b838c	-0.034061
133	0x3d6e1503	0.058125507
134	0x3ec01b46	0.37520808
135	0x3d4b7710	0.049674094
136	0x3dc1e856	0.09468143
137	0xc07bd23e	-3.9347072
138	0x3dbac021	0.09118677
139	0x3f1b12d1	0.60575587
140	0xbdbc2991	-0.09187616
141	0x3ef60dca	0.48057395
142	0x3d2aedb0	0.041730583
143	0x3ebcb0a3	0.36853513
144	0xbd8641f3	-0.065555476
145	0xbfc74075	-1.5566546
146	0x3f0bd780	0.546257
147	0xc0054dca	-2.0828729
148	0x3fae477a	1.3615563
149	0x3c45b856	0.012067875
150	0xbdc4d457	-0.09610813
151	0x3f67129a	0.9026276
152	0x3e34cf22	0.1765714
153	0x3d11cb60	0.035594344
154	0x3eeb941f	0.46011445
155	0xc009cd31	-2.153149
156	0xbd366ba1	-0.044536237
157	0x3cb39bc0	0.021924853
158	0xbe8a1a71	-0.26973298
159	0xbdc34f7c	-0.09536645
160	0x3f9dbbae	1.23229
161	0x3c9414e0	0.01807636
162	0x3f0557dd	0.52087194
163	0xbda9dcf0	-0.082940936
164	0x3fc8a76c	1.5676093
165	0xbdce6a95	-0.10078923
166	0xbff867d9	-1.9406692
167	0x3e878c59	0.26474264
168	0xbe176495	-0.14784463
169	0x3ed5d10e	0.4176106
170	0x3ecce912	0.4002157
171	0x3faec297	1.3653134
172	0xbdee839a	-0.11646195
173	0xbdfd15aa	-0.12357648
174	0x3db9f6e6	0.09080295
175	0xc07b2c81	-3.9245913
176	0xbedbdf1e	-0.42943662
177	0xbd11e848	-0.03562191
178	0xbe603c32	-0.21897963
179	0x3cbbb8b9	0.022915231
180	0xbdcfc301	-0.10144616
181	0xc02efc4a	-2.7341485
182	0x4011a292	2.2755475
183	0x3fc0c5ea	1.5060399
184	0x3d6640c0	0.056214094
185	0x3dc2da9e	0.09514354
186	0x3ec66b34	0.38753664
187	0x3f702ecc	0.93821406
188	0x3d6e6aeb	0.058207434
189	0x3d9c75a6	0.07639627
190	0x3dd6e6e1	0.104932554
191	0xbd7ce98f	-0.061746176
192	0x3dc2457f	0.094859116
193	0x3d608471	0.054813806
194	0xbd95807a	-0.072998956
195	0xbd9f386b	-0.07774433
196	0x3c6c87b0	0.014436647
197	0x3ca59a17	0.020215077
198	0xbec2f234	-0.3807541
199	0x3c95ef08	0.018302456
200	0x3d8fd9b4	0.070239455
201	0x400fc927	2.2466524
202	0x3c8940f8	0.016754612
203	0x3f8954b3	1.0728973
204	0x3ccd21a7	0.02504046
205	0xbc8e8a68	-0.017399982
206	0xbd236ad4	-0.0398968
207	0x3eff115d	0.49817935
208	0x3e8c94a6	0.2745716
209	0x4008cd35	2.1375248
210	0xbe8a30fb	-0.26990494
211	0xbfe335c4	-1.7750783
212	0xc02afbe7	-2.671625
213	0xbdbf4e19	-0.09341068
214	0x3e5c140e	0.21492025
215	0xbfb9f12f	-1.4526728
216	0x3da24163	0.07922628
217	0xbc3b80c0	-0.011444271
218	0xbe9636ae	-0.29338592
219	0xbe19db22	-0.15024999
220	0x3eeec129	0.46631745
221	0x3caca2b4	0.021073677
222	0x3e4e5463	0.20149378
223	0xbe04a497	-0.12953411
224	0xbee13de0	-0.4399252
225	0xbcaed268	-0.021340564
226	0xbf9b72ed	-1.2144448
227	0x3f9f6767	1.2453431
228	0x3f2a33ea	0.66485465
229	0xbd522074	-0.05130048
230	0x3fcde7e8	1.6086397
231	0xbf44c9fb	-0.768707
232	0xbdefd29a	-0.11710091
233	0x3eee1f2e	0.46508163
234	0xbd00b95d	-0.031426776
235	0xc04540be	-3.0820765
236	0x3dfc650c	0.12323961
237	0x3db8fd10	0.09032643
238	0xbd98f30b	-0.07468232
239	0x3f87f108	1.0620432
240	0x3eaf7712	0.3427053
241	0x3daa5236	0.08316462
242	0x3e356329	0.17713608
243	0xbdbf616a	-0.09344752
244	0xbe2e906e	-0.17047283
245	0x3faec52b	1.3653921
246	0x3ed20f68	0.4102738
247	0x3fd14286	1.6348426
248	0x3dd93a2d	0.10606799
249	0xbd1fcf5c	-0.039016113
250	0xbeb22844	-0.34796345
251	0x3f98c891	1.1936208
252	0x3dbb1b42	0.091360584
253	0xbdd79192	-0.10525812
254	0x3d516b6b	0.051127832
255	0xbe2f9300	-0.1714592

fc_2.bias f4 [4]
0	0x3d2d6cb1	0.042339984
1	0x3dd150b2	0.102204695
2	0x3e09e0b5	0.13464625
3	0x3d5d38a3	0.05400909
