Additional stuff/segmentation_pointnet_dsfmeanpstorefake.pth (torch, 79194 bytes, 18 tensors)

base_pointnet.conv_1_a.weight f4 [64, 1, 3]
-0.49089253 -0.014213354 0.26017234 0.5321229 -0.50837725 -0.008328466 0.22741382 0.49579275
-0.5785304 0.15312903 -0.1259214 -0.07348821 -0.065834805 0.26299635 -0.14722395 -0.0923639
0.15947865 -0.04378259 0.28265738 -0.28516614 -0.011169917 0.2116247 -0.41804463 0.40511313
-0.29600254 0.46571645 -0.2993708 -0.31203246 -0.27324528 -0.1074247 -0.040318016 -0.004057116
0.083164275 0.048209783 0.22873224 -0.16159907 -0.07855791 0.09459953 -0.07765082 -0.22462441
0.20016235 0.032638114 -0.0467526 -0.5481842 0.502742 -0.2056423 -0.20733753 0.19839442
0.109395 0.27000514 -0.46426165 -0.086089216 -0.49489343 0.16600333 0.36247835 -0.10956776
0.35277152 0.040131323 -0.09652219 -0.17834018 -0.2288181 0.45537582 -0.19252352 0.3859573
-0.34800118 -0.16374305 0.10854869 0.08234168 -0.3433814 -0.33979714 0.5741634 0.18965963
0.003224239 -0.19744016 0.23003027 0.5275879 -0.46929553 0.030976173 -0.1373364 -0.23386039
0.35465935 0.15729131 0.14431821 -0.13224474 0.39369616 0.44659418 0.2916756 0.32278842
0.34791732 -0.42003068 -0.117118075 0.042292442 0.3144732 -0.27759096 0.20379099 0.14795047
-0.38562518 0.023120075 0.32354107 -0.28865096 0.46339396 0.029790409 -0.27067786 -0.21008743
-0.022861458 -0.45344204 0.30580762 -0.027200887 -0.019928988 0.004524667 -0.040212084 -0.6197128
0.32674235 0.43607467 0.43455812 -0.54418314 -0.1979245 0.5490487 -0.38611403 -0.2875499
-0.18465944 -0.056344714 -0.6969539 -0.0810284 -0.27224284 0.4124799 0.06050155 -0.258399
0.2501598 0.0501468 0.42713997 -0.32197702 -0.36743236 0.5170993 -0.3314392 0.1670416
-0.15371035 -0.045669205 -0.020400712 -0.009746887 0.024425093 -0.38448322 0.4701317 -0.2910105
-0.112309046 0.34143844 -0.44810197 0.51079154 -0.12461752 -0.4148205 -0.34691975 0.374137
0.10762206 -0.066806905 -0.08305581 0.16969644 0.2621767 0.5355214 0.039692763 0.347372
-0.015913988 -0.28975126 0.30635318 -0.09098476 -0.062703915 0.31793013 -0.2933053 -0.3873492
-0.0441942 0.0049695233 -0.08536615 -0.53682894 0.5310791 0.055504274 -0.14478137 -0.04894634
0.06593692 0.17878413 0.4510092 0.30872804 -0.6406677 -0.20453979 -0.49285161 0.39827093
-0.269295 -0.059454914 -0.4292178 0.41887602 -0.0029342545 0.3634491 0.29174647 0.25677156
00000000: 4456 fbbe 21df 68bc 4f35 853e 3539 083f
00000010: 0325 02bf 1e74 08bc 2bdf 683e 8cd8 fd3e
00000020: 911a 14bf dbcd 1c3e 8af1 00be fd80 96bd
00000030: 66d4 86bd 75a7 863e e0c1 16be 4929 bdbd
00000040: 5f4e 233e 6055 33bd 78b8 903e 4c01 92be
00000050: 0702 37bc 25b4 583e f209 d6be fd6a cf3e
00000060: a58d 97be 6372 ee3e 2147 99be b8c2 9fbe
00000070: cee6 8bbe 7b01 dcbd 8124 25bd 8ef1 84bb
00000080: 0852 aa3d 9f77 453d c938 6a3e 3a7a 25be
00000090: f8e2 a0bd 66bd c13d 6507 9fbd f103 66be
000000a0: 5cf7 4c3e 8baf 053d a87f 3fbd cd55 0cbf
000000b0: b3b3 003f e593 52be 4a50 54be e827 4b3e
000000c0: 7c0a e03d 1d3e 8a3e b4b3 edbe 8b4f b0bd
000000d0: ac62 fdbe c7fc 293e c396 b93e 1065 e0bd
000000e0: 789e b43e be60 243d 6dad c5bd cf9e 36be
000000f0: 4b4f 6abe 0527 e93e e324 45be 329c c53e
00000100: 362d b2be 42ac 27be c74e de3d c1a2 a83d
00000110: b0cf afbe e4f9 adbe 5ffc 123f 2236 423e
00000120: c14d 533b c12d 4abe 0e8d 6b3e 0010 073f
00000130: 8147 f0be bec1 fd3c eaa1 0cbe 1979 6fbe
00000140: e995 b53e f910 213e 27c8 133e 2a6b 07be
00000150: 8b92 c93e fea7 e43e 8156 953e 8644 a53e
00000160: 3822 b23e 430e d7be 9adb efbd d73a 2d3d
00000170: a202 a13e 6720 8ebe 96ae 503e 5480 173e
00000180: aa70 c5be 5066 bd3c 2da7 a53e 0fca 93be
00000190: f941 ed3e 040b f43c 4a96 8abe 2921 57be
000001a0: f447 bbbc 8e29 e8be d192 9c3e 65d4 debc
000001b0: 1e42 a3bc a843 943b 6db5 24bd 80a5 1ebf
000001c0: c64a a73e 2e45 df3e 677e de3e 964f 0bbf
000001d0: b8ac 4abe 758e 0c3f bdb0 c5be be39 93be
000001e0: 5d17 3dbe b7c9 66bd 926b 32bf 38f2 a5bd
000001f0: 6a63 8bbe 9130 d33e 79d0 773d e04c 84be
00000200: f214 803e bb66 4d3d 17b2 da3e 2cda a4be
00000210: 1820 bcbe 9f60 043f 66b2 a9be f40c 2b3e
00000220: 3f66 1dbe a20f 3bbd 651f a7bc 68b1 1fbc
00000230: 2217 c83c fcda c4be 1ab5 f03e 54ff 94be
00000240: 4902 e6bd 05d1 ae3e 9f6d e5be 3cc3 023f
00000250: 7837 ffbd 5a63 d4be 779f b1be e38e bf3e
00000260: f468 dc3d 0fd2 88bd 2a19 aabd e7c4 2d3e
00000270: 063c 863e ee17 093f e194 223d beda b13e
00000280: 0d5e 82bc 475a 94be 53da 9c3e 3856 babd
00000290: e96a 80bd bdc7 a23e 1d2c 96be a252 c6be
000002a0: fa04 35bd 62d7 a23b 73d4 aebd 9f6d 09bf
000002b0: cdf4 073f 7358 633d 9141 14be f57b 48bd
000002c0: f009 873d 3013 373e aeea e63e 9a11 9e3e
000002d0: cc02 24bf e172 51be 0c57 fcbe 2bea cb3e
000002e0: 09e1 89be ff86 73bd 6fc2 dbbe eb76 d63e
000002f0: 9f4c 40bb 0016 ba3e cb5f 953e 9077 833e

base_pointnet.conv_1_a.bias f4 [64]
0.09588227 0.15021403 0.14805405 -0.22633506 -0.2967329 0.5043538 -0.47389722 0.3317508
-0.4433111 -0.50065905 0.18360278 0.09934624 0.16456483 0.09592081 0.0643782 0.08252613
-0.02888862 -0.052854043 0.1889887 -0.32586274 0.22754212 0.52015287 -0.55901796 -0.46654326
0.4037925 0.042809647 0.01724623 -0.5589165 -0.2577892 0.54752517 -0.09911108 0.52172494
0.30415902 -0.42638087 0.3044892 0.19890745 -0.034006886 -0.22638968 0.45374927 0.06173779
0.44018763 0.4033868 -0.28079736 -0.52680427 -0.43490323 -0.06063494 -0.4800598 -0.39264414
0.07139486 -0.42050663 -0.5393727 0.07188542 0.31388336 -0.040101394 0.13847835 0.2807047
-0.48589447 -0.067301266 -0.2315419 0.28489313 -0.27366495 0.38260308 -0.44154122 -0.07661024
00000000: ec5d c43d b5d1 193e 7b9b 173e 61c4 67be
00000010: 60ed 97be 551d 013f a8a2 f2be 3edb a93e
00000020: acf9 e2be 312b 00bf 5e02 3c3e 0b76 cb3d
00000030: af83 283e 2172 c43d b8d8 833d 7603 a93d
00000040: d4a7 ecbc 7b7d 58bd 4186 413e 7bd7 a6be
00000050: cd00 693e bd28 053f cd1b 0fbf c2de eebe
00000060: e4bd ce3e 2b59 2f3d f747 8d3c 2715 0fbf
00000070: f2fc 83be 9c2a 0c3f c0fa cabd c48f 053f
00000080: bbba 9b3e 984e dabe 02e6 9b3e 65ae 4b3e
00000090: ce4a 0bbd b2d2 67be d351 e83e c4e0 7c3d
000000a0: 4660 e13e b788 ce3e acc4 8fbe a5dc 06bf
000000b0: a3ab debe 585c 78bd 66ca f5be a708 c9be
000000c0: 7837 923d a54c d7be 5414 0abf aa38 933d
000000d0: 52b5 a03e 5c41 24bd 45cd 0d3e 87b8 8f3e
000000e0: 29c7 f8be 3fd5 89bd 5219 6dbe 83dd 913e
000000f0: d01d 8cbe 8de4 c33e b111 e2be d4e5 9cbd

base_pointnet.conv_1_b.weight f4 [64, 1, 3]
0.24217933 -0.5865477 0.49108443 0.11576386 0.7526777 0.0996834 -0.43156275 0.10865147
-0.25014892 0.2444601 0.123236954 0.73508614 0.6454229 -0.5374576 -1.0834143 -0.19021107
-0.16915591 0.49662116 -0.82135946 -0.5343131 -0.6253072 0.45628506 0.74611217 0.17587523
0.30355433 -0.3858636 -0.5835 -0.39094898 0.21783152 0.09659044 0.24213967 -0.5830659
-0.2784957 -0.8259374 -0.43780434 0.77493817 0.17272083 0.44179642 0.7994127 -1.4079134
-0.7165763 0.15149912 0.3267359 -0.22597109 0.3649644 -0.7013472 0.6599476 0.6596073
0.77370006 0.99401593 -0.5797387 0.35497022 0.03735827 0.64080983 -0.309846 -0.53513163
-0.27767342 0.14158475 0.56039286 0.7628292 0.6806447 0.17493059 -0.15041994 -0.5526048
-0.76029754 0.56674623 -0.37134618 -0.01582431 -0.13148345 -0.13640337 0.030050728 0.25974968
-0.4768535 -0.7581948 0.13160764 0.12833889 -0.19837746 -0.17833008 -0.8946442 0.4859091
0.33135596 0.47568828 0.34179017 0.18805766 0.6861445 -0.3160785 0.39723188 -0.1783633
-1.1547102 -1.09508 -0.8310893 -0.81014276 0.42629766 0.9346956 0.40303263 -0.03981921
-0.031938702 -0.1691481 0.09057241 -0.2753865 -0.1755291 -0.5636113 0.2692479 -0.23751672
0.21576364 0.113642976 0.09167143 0.331502 -0.2308046 0.31021345 -0.8412602 0.28121036
-0.015892249 -1.0674691 0.6313758 0.36707196 -0.119566664 0.41812438 -0.42514843 -0.13885759
0.28892255 0.26345822 0.5010976 0.45404992 -0.33022857 -0.68997955 0.04835524 -0.7057377
0.2072889 -0.41989782 0.2899503 0.60080916 0.2528529 1.16313 -0.5196243 -1.0114523
0.6115371 0.8129059 0.4093594 0.11108748 -0.56836104 -0.8616415 -0.0542293 0.036743082
0.35180882 -1.3537977 0.20992342 0.76620126 -0.25160888 0.0539205 -0.6347999 -0.29789162
-0.17706934 -0.048792526 -0.3598623 -0.808764 -0.09298583 0.5091503 0.8360821 -0.43693835
0.75417936 0.32048336 -0.017771192 0.6441786 0.6752746 0.08623974 0.6623284 -0.3625542
0.5333915 0.43623492 0.42284968 -0.3551398 -0.18811093 -0.786592 0.31762242 -0.3408486
1.0178765 0.47445813 0.8584756 0.73492527 0.019685816 0.051649746 -0.08669598 -0.6915275
-0.25925085 -1.0436398 -0.157072 0.17474192 0.6337223 -0.11007656 0.93604827 0.16740213
00000000: dcfd 773e fd27 16bf 6b6f fb3e 9a15 ed3d
00000010: 7caf 403f cf26 cc3d cbf5 dcbe a984 de3d
00000020: 8513 80be c053 7a3e a863 fc3d 9b2e 3c3f
00000030: 6f3a 253f d296 09bf 52ad 8abf b1c6 42be
00000040: 3537 2dbe 2145 fe3e 9d44 52bf bec8 08bf
00000050: 2214 20bf 329e e93e 3501 3f3f a318 343e
00000060: 796b 9b3e ea8f c5be 4260 15bf 772a c8be
00000070: 3a0f 5f3e 35d1 c53d 76f3 773e cf43 15bf
00000080: fd96 8ebe a270 53bf e427 e0be 5962 463f
00000090: bbdd 303e 2433 e23e 50a6 4c3f 8236 b4bf
000000a0: 8b71 37bf 9622 1b3e ee49 a73e f764 67be
000000b0: 9ddc ba3e 7d8b 33bf 53f2 283f 06dc 283f
000000c0: 3511 463f d477 7e3f c169 14bf a8be b53e
000000d0: fc04 193d 1d0c 243f 23a4 9ebe 63fe 08bf
000000e0: 362b 8ebe 98fb 103e e875 0f3f c648 433f
000000f0: bb3e 2e3f 0121 333e af07 1abe 8277 0dbf
00000100: dca2 42bf 4816 113f 1621 bebe fca1 81bc
00000110: 99a3 06be 53ad 0bbe f22c f63c e9fd 843e
00000120: 2426 f4be 0e19 42bf 27c4 063e 456b 033e
00000130: 7623 4bbe 299c 36be 6707 65bf 14c9 f83e
00000140: 7da7 a93e 6a8d f33e 1fff ae3e 3092 403e
00000150: 2aa7 2f3f 0bd5 a1be fa61 cb3e dea4 36be
00000160: 8bcd 93bf 952b 8cbf 45c2 54bf 8465 4fbf
00000170: b043 da3e 3648 6f3f 4b5a ce3e 7819 23bd
00000180: 28d2 02bd 2935 2dbe 077e b93d 76ff 8cbe
00000190: e6bd 33be d548 10bf dcda 893e 9537 73be
000001a0: 25f1 5c3e a6bd e83d 3bbe bb3d a1ba a93e
000001b0: 0b58 6cbe 4cd4 9e3e d45c 57bf cefa 8f3e
000001c0: 7630 82bc d4a2 88bf d8a1 213f dbf0 bb3e
000001d0: 5edf f4bd 6614 d63e 0ead d9be af30 0ebe
000001e0: a8ed 933e ffe3 863e ef47 003f 3b79 e83e
000001f0: b813 a9be 80a2 30bf 2510 463d 3aab 34bf
00000200: 8b43 543e d9fc d6be 5e74 943e a1ce 193f
00000210: ef75 813e 72e1 943f 1906 05bf 4577 81bf
00000220: b28d 1c3f 9a1a 503f 8e97 d13e d581 e33d
00000230: 1c80 11bf 8a94 5cbf 8b1f 5ebd ea7f 163d
00000240: 4920 b43e 3e49 adbf 2af6 563e c425 443f
00000250: e1d2 80be bedb 5c3d 3f82 22bf 4085 98be
00000260: aa51 35be acda 47bd df3f b8be 280b 4fbf
00000270: 5b6f bebd ad57 023f 7a09 563f 62b6 dfbe
00000280: e611 413f 6516 a43e e494 91bc e4e8 243f
00000290: ccde 2c3f 769e b03d 5b8e 293f b4a0 b9be
000002a0: 588c 083f 2f5a df3e c17f d83e e2d4 b5be
000002b0: 27a0 40be 185e 49bf 689f a23e b583 aebe
000002c0: c749 823f 2dec f23e 0fc5 5b3f 1024 3c3f
000002d0: 2644 a13c af8e 533d a98d b1bd f207 31bf
000002e0: 87bc 84be fd95 85bf 7bd7 20be 8cef 323e
000002f0: a03b 223f d26f e1bd dca0 6f3f 776b 2b3e

base_pointnet.conv_1_b.bias f4 [64]
0.52794194 0.42514315 -0.04950441 0.51900434 0.41775894 -0.18621273 0.24804848 -0.46786135
0.49123663 0.076895356 0.0026857848 -0.11014039 -0.41314432 0.29048344 0.46486998 -0.0002486282
0.16097963 -0.07025546 -0.3169263 -0.4985462 -0.5724853 -0.21833546 0.42089775 0.5718405
-0.11960358 -0.33692396 0.10266873 -0.30246598 0.39858273 0.27297947 -0.53845006 0.18169205
-0.026176786 -0.45160425 -0.24705227 0.43453687 -0.31809708 -0.36874187 -0.56777304 -0.2923521
0.19400284 0.29855576 0.05406672 -0.5181293 -0.53608733 -0.4805585 0.0750683 0.35418805
0.29231513 0.34761962 -0.32686645 -0.5752036 0.2583084 0.15287387 0.07875137 -0.43948066
-0.39802346 0.17551894 -0.07352923 -0.4471654 0.15457787 -0.4843371 -0.29077253 0.1369701
00000000: 3427 073f 5dac d93e 23c5 4abd 78dd 043f
00000010: 80e4 d53e 8dae 3ebe 6c00 7e3e 868b efbe
00000020: 5e83 fb3e 507b 9d3d fe03 303b 4991 e1bd
00000030: a787 d3be 3fba 943e 7003 ee3e 505a 82b9
00000040: d8d7 243e 18e2 8fbd 2a44 a2be 7341 ffbe
00000050: 668e 12bf 5593 5fbe e97f d73e 2464 123f
00000060: b9f2 f4bd 4c81 acbe fc43 d23d d2dc 9abe
00000070: 0913 cc3e f7c3 8b3e ddd7 09bf 7b0d 3a3e
00000080: b370 d6bc ac38 e7be 45fb 7cbe 9e7b de3e
00000090: 9fdd a2be bccb bcbe 9359 11bf 2daf 95be
000000a0: aea8 463e 4ddc 983e 1175 5d3d 1fa4 04bf
000000b0: 053d 09bf c40b f6be 69bd 993d 2358 b53e
000000c0: 54aa 953e 33fb b13e 0a5b a7be 8b40 13bf
000000d0: 0041 843e f88a 1c3e 6648 a13d 9c03 e1be
000000e0: bbc9 cbbe 3dbb 333e 7e96 96bd ddf2 e4be
000000f0: a949 1e3e 08fb f7be 23e0 94be e441 0c3e

base_pointnet.conv_2.weight f4 [64, 64, 3]
-0.011948069 -0.0022277473 0.031993203 -0.10429758 -0.13528317 0.05984162 0.03634864 -0.00012019112
0.005813911 0.07850168 0.06563454 0.033482157 0.041793615 0.050567348 0.068140544 -0.018498214
0.004234797 -0.039241813 -0.04170875 0.06430357 0.06369438 0.055444863 0.05747788 0.072841495
0.054889683 -0.0072118957 -0.015132277 -0.01691876 -0.0277862 -0.0054988908 -0.031001715 -0.04449928
0.034276307 0.0727434 0.07351874 0.05239483 0.06460522 -0.011828135 0.12451487 0.09791705
-0.016545635 -0.03581305 0.07692658 -0.0902075 -0.023195447 -0.05412803 -0.030102078 -0.021612272
-0.04436792 -0.17076297 -0.16968364 0.015904862 -0.071121044 -0.039788064 -0.04028554 0.018032964
-0.018983766 -0.032423407 0.03444778 0.02557106 -0.070845105 0.036765475 0.048544563 0.01947573
0.028018642 -0.027007733 0.03154006 0.08776297 0.069355786 -0.014125724 0.05748255 -0.017178852
0.056362372 0.050466117 -0.057394423 -0.0026743189 -0.056882516 -0.050509583 -0.09817354 -0.05626178
-0.1056104 -0.019891696 0.039874118 -0.038141724 0.03848548 -0.07144086 0.022957 -0.057944097
-0.010022271 0.021234775 -0.07543604 0.021310542 -0.013140236 -0.08043756 0.011794363 0.060275607
-0.0824569 -0.09853495 -0.044636123 -0.009207932 0.07787438 -0.01586104 -0.055820256 -0.07385673
-0.02322167 -0.055691406 0.0013067045 0.024858363 -0.029044472 0.04519137 -0.048575904 0.02399669
-0.0355181 -0.04639159 0.013605347 0.06184781 0.043836083 -0.14875321 -0.023017304 -0.095247865
0.022996888 -0.0010852367 0.011710175 0.011246943 0.035085242 -0.006672934 -0.009124341 -0.00016319015
-0.06799704 0.018956494 0.029494634 -0.036113266 -0.03536713 -0.0075246873 -0.0025268975 0.06339862
0.07165292 -0.07372038 -0.005927208 0.24994676 -0.10220703 -0.05847843 -0.011625851 -0.0048454413
-0.032953072 0.005483051 0.0074352343 -0.018865965 -0.019314904 -0.047367048 -0.0711722 -0.06415542
-0.028521976 0.12325605 0.21139014 0.025588524 0.049596652 -0.057207655 -0.047116984 0.04649031
0.011028883 0.012031271 0.037814427 -0.03422612 -0.041602466 -0.05525167 -0.032354128 -0.0099625075
0.04799936 -0.04428603 -0.05066878 0.07032682 -0.038672198 -0.021811958 0.10139141 0.05375093
0.1452285 0.07154412 0.011081769 0.069436416 -0.018272107 0.022739558 0.06631488 0.03833799
-0.08623429 0.111899234 -0.029260024 -0.056847177 0.010554186 -0.07436292 0.025572732 0.007812142
0.039950747 -0.015139285 -0.011807654 -0.12623824 -0.08419726 -0.035180483 0.045174833 -0.094495505
-0.04958056 -0.060703646 0.0047127805 -0.041159406 -0.042475525 -0.09530143 -0.036052518 0.03374185
0.023378756 0.04278472 0.14541037 0.05626324 0.11137552 0.03561728 0.0044057737 -0.04418296
-0.027152525 0.068214074 0.07289214 0.039306093 -0.081492834 -0.008514314 0.034993295 -0.055039622
-0.04371613 -0.03315934 -0.011583644 -0.011052693 0.005465402 0.06832593 -0.0029358445 0.035935227
-0.08323704 -0.09792504 -0.2805124 -0.26644838 -0.10172255 -0.05593023 -0.06632935 -0.018522356
0.05062411 0.045276318 -0.03691039 -0.07704334 -0.03788749 0.014685711 0.0028650323 -0.064428285
0.04440586 -0.055214092 0.0043237223 -0.05436215 0.06563298 0.089765795 0.008791877 0.018653302
00000000: d5c1 43bc 66ff 11bb 4e0b 033d f899 d5bd
00000010: ac87 0abe 7d1c 753d 50e2 143d 1e0f fcb8
00000020: 9f82 be3b 7dc5 a03d 676b 863d 9624 093d
00000030: c82f 2b3d b51f 4f3d 458d 8b3d 9189 97bc
00000040: 0dc4 8a3b 06bc 20bd cbd6 2abd 97b1 833d
00000050: 3372 823d 271a 633d ed6d 6b3d ec2d 953d
00000060: 01d4 603d c451 ecbb 5fed 77bc 3699 8abc
00000070: e39f e3bc 0a30 b4bb 4ff7 fdbc e144 36bd
00000080: 5065 0c3d 7efa 943d fe90 963d f69b 563d
00000090: be4f 843d cbca 41bc a701 ff3d bc88 c83d
000000a0: b68a 87bc b4b0 12bd af8b 9d3d b6be b8bd
000000b0: 6104 bebc 5ab5 5dbd a298 f6bc 380c b1bc
000000c0: 23bb 35bd 7ddc 2ebe 8cc1 2dbe ea4a 823c
000000d0: e9a7 91bd cff8 22bd 7302 25bd deb9 933c
000000e0: d883 9bbc 68ce 04bd 1e19 0d3d 667a d13c
000000f0: 3d17 91bd 6597 163d aad6 463d 918b 9f3c
00000100: 5a87 e53c 523f ddbc 2630 013d 12bd b33d
00000110: 680a 8e3d 956f 67bc d372 6b3d aaba 8cbc
00000120: 3bdc 663d 8fb5 4e3d 6a16 6bbd a043 2fbb
00000130: a4fd 68bd 23e3 4ebd 350f c9bd c172 66bd
00000140: 444a d8bd e9f3 a2bc 0b53 233d 7f3a 1cbd
00000150: f3a2 1d3d 964f 92bd 5210 bc3c ca56 6dbd
00000160: 7434 24bc 8df4 ad3c 367e 9abd 7293 ae3c
00000170: 254a 57bc 73bc a4bd 253d 413c 8ee3 763d
00000180: 2adf a8bd b1cc c9bd 5ed4 36bd dedc 16bc
00000190: 9a7c 9f3d 03ef 81bc c8a3 64bd 3242 97bd
000001a0: 5f3b bebc ac1c 64bd ba45 ab3a c4a3 cb3c
000001b0: acee edbc 961a 393d 87f7 46bd b594 c43c
000001c0: 6d7b 11bd 1c05 3ebd f6e8 5e3c 2154 7d3d
000001d0: 778d 333d c352 18be c98e bcbc 5011 c3bd
000001e0: f863 bc3c 803e 8eba 09dc 3f3c 1945 383c
000001f0: 8bb5 0f3d a1a8 dabb 437e 15bc 061e 2bb9
00000200: 0842 8bbd a64a 9b3c bb9e f13c 81eb 13bd
00000210: 20dd 10bd a791 f6bb 4e9a 25bb 23d7 813d
00000220: c4be 923d b6fa 96bd 0639 c2bb 0bf2 7f3e
00000230: eb51 d1bd 1487 6fbd 5a7a 3ebc 82c6 9ebb
00000240: cdf9 06bd 2aab b33b 44a3 f33b cc8c 9abc
00000250: 4a3a 9ebc f303 42bd bbc2 91bd eb63 83bd
00000260: eba6 e9bc ab6d fc3d a876 583e 069f d13c
00000270: dc25 4b3d 9352 6abd bdfd 40bd a06c 3e3d
00000280: 7db2 343c cf1e 453c 4de3 1a3d b030 0cbd
00000290: 5967 2abd 934f 62bd c385 04bd c939 23bc
000002a0: fa9a 443d 4565 35bd 118a 4fbd 8207 903d
000002b0: bd66 1ebd feae b2bc 4da6 cf3d ef29 5c3d
000002c0: c8b6 143e b985 923d 4f90 353c ae34 8e3d
000002d0: 63af 95bc 4f48 ba3c 19d0 873d 4c08 1d3d
000002e0: 9a9b b0bd 6d2b e53d b8b2 efbc 96d8 68bd
000002f0: 77eb 2c3c 964b 98bd e87d d13c fffc ff3b
00000300: 65a3 233d c30a 78bc e474 41bc 9944 01be
00000310: 9d6f acbd 6919 10bd 3f09 393d dc86 c1bd
00000320: fc14 4bbd 63a4 78bd ab6d 9a3b c496 28bd
00000330: d1fa 2dbd 652d c3bd ceab 13bd e534 0a3d
00000340: ce84 bf3c 083f 2f3d 75e6 143e 4874 663d
00000350: d918 e43d 6de3 113d 4f5e 903b 31f9 34bd
00000360: f96e debc d2b3 8b3d 7948 953d 6dff 203d
00000370: b7e5 a6bd 9f7f 0bbc 2155 0f3d 3a71 61bd
00000380: af0f 33bd 17d2 07bd 53c9 3dbc 5b16 35bc
00000390: 1d17 b33b 77ee 8b3d 4c67 40bb d130 133d
000003a0: 2e78 aabd ec8c c8bd 529f 8fbe ec6b 88be
000003b0: ea53 d0bd 1917 65bd afd7 87bd 32bc 97bc
000003c0: 3a5b 4f3d a973 393d 592f 17bd e6c8 9dbd
000003d0: ea2f 1bbd 569c 703c 44c3 3b3b faf2 83bd
000003e0: ebe2 353d 2c28 62bd 03ae 8d3b d9aa 5ebd
000003f0: 956a 863d 21d7 b73d ce0b 103c cfce 983c

base_pointnet.conv_2.bias f4 [64]
-0.05526215 0.0025023643 0.08094774 0.03944952 0.02128225 0.110241614 -0.09113021 0.056025468
0.04367529 0.055112142 -0.03313639 -0.03351508 -0.04185894 -0.028079335 0.06070138 0.06332332
-0.059267085 0.02611011 0.06914909 0.057498433 0.023865925 0.007637558 -0.05331093 0.058635652
0.008428279 0.00035275717 -0.07227543 0.02234043 -0.06569651 -0.0289989 0.07673372 -0.005760279
-0.07115996 0.015513342 0.03526565 -0.045285497 -0.032909863 -0.018505115 0.062167026 0.014463054
-0.003666274 0.06271845 -0.0005205449 0.039289046 -0.061920304 0.0010134197 -0.025931975 0.064779446
0.01486666 -0.028061042 -0.0021726766 -0.07193553 0.043239772 0.04004413 -0.08443159 0.04246646
-0.0022272966 -0.04734267 -0.07408753 -0.04156302 -0.088003635 0.044943053 -0.0009646004 0.1253349
00000000: 905a 62bd b5fe 233b eec7 a53d d295 213d
00000010: 1d58 ae3c 5bc6 e13d 7aa2 babd f67a 653d
00000020: dce4 323d 45bd 613d 06ba 07bd 1c47 09bd
00000030: 4874 2bbd a206 e6bc 03a2 783d a8af 813d
00000040: 0bc2 72bd dfe4 d53c 0a9e 8d3d 7a83 6b3d
00000050: 7982 c33c 7b44 fa3b 905c 5abd f02b 703d
00000060: c416 0a3c 44f2 b839 2405 94bd 4703 b73c
00000070: e48b 86bd 1a8f edbc 9226 9d3d b9c0 bcbb
00000080: 50bc 91bd ac2b 7e3c b772 103d 497d 39bd
00000090: 7ecc 06bd 0a98 97bc daa2 7e3d 72f6 6c3c
000000a0: df45 70bb 8872 803d 2d75 08ba 8ded 203d
000000b0: 25a0 7dbd b9d4 843a 4b6f d4bc 16ab 843d
000000c0: 4b93 733c 45e0 e5bc 7763 0ebb ef52 93bd
000000d0: 301c 313d 5005 243d 78ea acbd 50f1 2d3d
000000e0: d6f7 11bb 63ea 41bd 34bb 97bd fc3d 2abd
000000f0: 403b b4bd 3516 383d 3ddd 7cba cb57 003e

base_pointnet.bn_1.weight f4 [64]
0.9961471 1.0377009 0.9039765 1.0420464 1.1058731 0.99400073 0.96773285 0.9564839
0.9212564 0.8392814 0.9666236 0.9820439 1.0450184 1.0557986 1.4001423 0.89535475
1.0894057 0.7872079 0.82866216 0.90819234 0.98776925 0.95505065 1.0057739 0.79025465
1.2893873 1.062951 1.1341982 0.8739474 0.83362395 0.9356672 0.9244267 0.945422
1.1667714 0.88605416 0.8123592 1.0120218 0.94878894 0.855554 0.9669847 0.92293894
0.7572251 0.9958577 1.0397506 0.97252256 1.0670866 1.1455361 1.0909508 0.93264985
0.9109442 1.0332801 0.9891138 1.1259004 0.7880681 1.0108185 0.9485455 0.8402118
1.0054305 1.238888 0.966199 0.7738172 0.87653697 1.1161838 1.0833504 0.84682477
00000000: 7f03 7f3f 62d3 843f 016b 673f c761 853f
00000010: 408d 8d3f d576 7e3f 57bd 773f 21dc 743f
00000020: 76d7 6b3f 25db 563f a574 773f 3b67 7b3f
00000030: 2ac3 853f 6924 873f dd37 b33f f835 653f
00000040: a571 8b3f 7586 493f 3423 543f 4b7f 683f
00000050: 72de 7c3f 337e 743f 33bd 803f 214e 4a3f
00000060: a50a a53f c70e 883f 682d 913f 04bb 5f3f
00000070: 6168 553f e387 6f3f 3aa7 6c3f 2d07 723f
00000080: c458 953f 72d4 623f c6f6 4f3f ee89 813f
00000090: d5e3 723f 9605 5b3f 4f8c 773f ba45 6c3f
000000a0: 81d9 413f 88f0 7e3f 8c16 853f 3df7 783f
000000b0: 4b96 883f eda0 923f 47a4 8b3f 24c2 6e3f
000000c0: a433 693f 8642 843f 9036 7d3f 811d 903f
000000d0: d5be 493f 8062 813f e1d3 723f 1f18 573f
000000e0: f2b1 803f e293 9e3f d158 773f e218 463f
000000f0: ba64 603f 1cdf 8e3f 3aab 8a3f 82c9 583f

base_pointnet.bn_1.bias f4 [64]
-0.087677784 0.006523191 0.1899775 -0.26600257 -0.023769015 -0.22374573 -0.082931936 0.041534808
-0.025979444 0.036889013 0.26087853 -0.0859845 0.32095835 -0.47272915 -0.3153191 -0.16453557
0.104428306 -0.34536123 -0.16390519 -0.23850797 0.042317767 -0.15134898 -0.06764859 -0.117806375
-0.13641919 0.26981363 -0.026869865 0.15027286 -0.093034916 -0.24518065 0.037955385 -0.12473554
0.080936 -0.08537096 -0.2256827 0.05511711 0.024404576 -0.3055819 -0.09915852 0.13352044
-0.111973025 -0.14240932 -0.08510891 -0.054420028 0.10781487 -0.07532072 -0.25975305 -0.020168109
-0.07168351 -0.2536568 -0.11160602 -0.1311626 -0.15869604 0.21892071 0.13421229 0.0053384784
-0.43782073 -0.18897003 -0.24333642 0.0009308985 0.019821472 -0.103594065 -0.1629215 -0.19234315
00000000: 6990 b3bd 7ec0 d53b 7689 423e 7d31 88be
00000010: 3db7 c2bc 9a1d 65be 38d8 a9bd 6720 2a3d
00000020: d8d2 d4bc ef18 173d df91 853e a418 b0bd
00000030: a754 a43e 8e09 f2be 8171 a1be 037c 28be
00000040: 82de d53d 30d3 b0be c3d6 27be 6f3b 74be
00000050: 6555 2d3d 3afb 1abe 588b 8abd 7844 f1bd
00000060: 79b1 0bbe 0325 8a3e 311e dcbc 21e1 193e
00000070: 1789 bebd a310 7bbe 1b77 1b3d 5975 ffbd
00000080: c6c1 a53d f8d6 aebd 5e19 67be 7bc2 613d
00000090: 1bec c73c 3b75 9cbe 9f13 cbbd 95b9 083e
000000a0: 1d52 e5bd c0d3 11be 954d aebd 89e7 5ebd
000000b0: 0bce dc3d c041 9abd 5afe 84be 9737 a5bc
000000c0: cece 92bd 4edf 81be b291 e4bd 7d4f 06be
000000d0: 3781 22be c02c 603e f26e 093e 67ee ae3b
000000e0: 0a2a e0be 5c81 41be 2f2d 79be 8a07 743a
000000f0: a460 a23c 2029 d4bd e5d4 26be 9af5 44be

base_pointnet.bn_1.running_mean f4 [64]
-7.719308 3.0281491 4.212792 0.90068674 -0.07565563 1.4522822 -4.7958326 9.496647
-5.7232156 -24.85053 0.24232876 3.1138885 0.52427584 -3.3206978 -1.9611506 -6.222132
-0.24958347 -12.661186 18.692347 -6.026221 2.4026358 -5.6673727 -6.429534 15.307318
-0.79143196 2.2516682 -0.7302805 7.167942 41.330624 4.7710676 5.193965 5.9347963
-1.4018036 4.277057 -17.100931 -4.347724 -3.8408232 2.712691 -9.118993 -4.862134
-29.89028 1.4748677 0.5761179 5.5232596 -5.3533335 -0.8360261 -0.71870744 -8.882272
-8.77822 0.15952452 1.6171283 -2.3572123 32.531754 2.955456 8.245924 -11.998996
-2.384798 -0.8017152 -2.7741828 36.9127 -46.9328 -1.7653022 0.19915053 34.037807
00000000: 9204 f7c0 32cd 4140 31cf 8640 6893 663f
00000010: 57f1 9abd 62e4 b93f 7677 99c0 44f2 1741
00000020: 9524 b7c0 e3cd c6c1 0825 783e f349 4740
00000030: f136 063f 5086 54c0 fc06 fbbf b51b c7c0
00000040: cf92 7fbe 3894 4ac1 ed89 9541 cdd6 c0c0
00000050: c9c4 1940 1e5b b5c0 bebe cdc0 c6ea 7441
00000060: 499b 4abf 551b 1040 aaf3 3abf c85f e540
00000070: 8f52 2542 96ac 9840 f634 a640 dae9 bd40
00000080: 4d6e b3bf a7dd 8840 b5ce 88c1 8e20 8bc0
00000090: 0cd0 75c0 bb9c 2d40 65e7 11c1 9a96 9bc0
000000a0: 4b1f efc1 77c8 bc3f 767c 133f 8bbe b040
000000b0: 824e abc0 ce05 56bf 36fd 37bf c91d 0ec1
000000c0: 9773 0cc1 655a 233e 0ffe ce3f 91dc 16c0
000000d0: 8420 0242 3126 3d40 4eef 0341 e3fb 3fc1
000000e0: 88a0 18c0 353d 4dbf 368c 31c0 9ba6 1342
000000f0: 30bb 3bc2 6cf5 e1bf 1eee 4b3e b726 0842

base_pointnet.bn_1.running_var f4 [64]
72.43829 62.811913 95.187164 8.11743 12.795429 4.0720215 27.256905 53.399483
38.924572 163.01968 2.3370414 13.719332 4.6109953 21.112331 67.563896 34.446575
48.976276 75.67658 109.744545 18.34752 28.18666 52.114918 31.789423 121.62222
13.018671 56.247486 32.98778 24.896172 445.67972 83.84044 35.319733 29.796875
49.03799 43.433716 85.793625 39.79347 3.8552916 121.075935 97.29711 92.84044
291.56204 33.92372 14.182031 42.865303 48.92672 8.810905 0.79549336 54.180855
51.88381 86.93315 40.79297 8.300399 278.07053 39.772266 29.150238 97.10712
4.58592 69.81184 9.624821 355.97736 579.6555 37.068836 42.598347 297.00986
00000000: 68e0 9042 663f 7b42 d45f be42 fee0 0141
00000010: 14ba 4c41 004e 8240 240e da41 1299 5542
00000020: c3b2 1b42 0a05 2343 1692 1540 6282 5b41
00000030: 468d 9340 0ee6 a841 b720 8742 4bc9 0942
00000040: b5e7 4342 695a 9742 357d db42 b9c7 9241
00000050: 487e e141 ad75 5042 bd50 fe41 943e f342
00000060: 7a4c 5041 6dfd 6042 7df3 0342 5c2b c741
00000070: 01d7 de43 4eae a742 6847 0d42 0060 ee41
00000080: e726 4442 20bc 2d42 5696 ab42 832c 1f42
00000090: 19bd 7640 e126 f242 1f98 c242 4eae b942
000000a0: f1c7 9143 e4b1 0742 99e9 6241 1276 2b42
000000b0: f6b4 4342 78f9 0c41 74a5 4b3f 32b9 5842
000000c0: 0589 4f42 c6dd ad42 002c 2342 6fce 0441
000000d0: 0709 8b43 cd16 1f42 b033 e941 d836 c242
000000e0: dbbf 9240 a99f 8b42 44ff 1941 1afd b143
000000f0: f4e9 1044 7d46 1442 b564 2a42 4381 9443

base_pointnet.bn_2.weight f4 [64]
1.5143638 1.6511112 1.7328644 1.7944852 1.5979857 1.7925264 1.7391762 1.7883418
1.5998375 1.5200536 1.493849 1.6603628 1.3846971 1.6895901 1.6402472 1.8534669
1.4241327 1.5895056 2.0197203 1.3799978 1.5670661 1.8528861 1.6879584 1.4864243
1.9377465 1.3736969 1.6752557 1.5764523 1.4344505 1.4568805 2.4568026 1.5418946
1.4543597 1.4041047 1.9139067 1.6965572 1.8456496 1.6868074 1.9167999 2.0600011
1.4461511 1.7433788 1.879437 1.4168903 1.5322944 1.7923325 1.5798986 1.6871358
1.4603071 1.5359313 1.5273478 1.7421706 2.0536494 2.7609046 1.4730291 1.5230718
1.555198 1.7104772 1.7639991 1.6647674 1.5181602 2.1926029 1.6316203 1.5369723
00000000: acd6 c13f 9d57 d33f 80ce dd3f b1b1 e53f
00000010: cc8a cc3f 8171 e53f 539d de3f 62e8 e43f
00000020: 7ac7 cc3f 1e91 c23f 7236 bf3f c586 d43f
00000030: c13d b13f 7d44 d83f 9ff3 d13f 673e ed3f
00000040: fb49 b63f eb74 cb3f 1943 0140 c5a3 b03f
00000050: 9f95 c83f 5f2b ed3f 050f d83f 2743 be3f
00000060: 1408 f83f 4dd5 af3f c76e d63f 30c9 c93f
00000070: 139c b73f 0f7b ba3f 413c 1d40 cd5c c53f
00000080: 7528 ba3f b4b9 b33f e5fa f43f c928 d93f
00000090: 3f3e ec3f 4ee9 d73f b359 f53f 0fd7 0340
000000a0: 7b1b b93f 0927 df3f 6491 f03f a95c b53f
000000b0: 3922 c43f 276b e53f 1e3a ca3f 11f4 d73f
000000c0: 58eb ba3f 6699 c43f 2280 c33f 72ff de3f
000000d0: fe6e 0340 a9b2 3040 388c bc3f 04f4 c23f
000000e0: ba10 c73f ebf0 da3f b9ca e13f 1917 d53f
000000f0: 1353 c23f 9b53 0c40 efd8 d03f 82bb c43f

base_pointnet.bn_2.bias f4 [64]
0.24628164 0.155623 0.13600418 0.09727005 0.14760809 0.12130884 0.16269004 -0.038002
-0.027400384 0.17624849 0.1651489 0.20213003 0.19112456 0.0077479244 0.014671345 0.11322222
0.0984443 0.11898608 0.2737283 0.15248032 0.15985703 -0.065931715 0.16888526 0.29260474
0.4833825 0.18107156 0.091165684 0.031377576 0.19904402 0.25120473 -0.008063751 0.1760818
0.26939636 0.20645845 0.017816931 0.023232661 0.20456623 0.10657276 0.09518466 0.10040344
0.24182561 0.124281935 -0.24697128 0.2098709 0.1966841 0.2599379 0.10431819 0.09484341
0.21443425 0.12724076 0.09590255 0.02578387 0.027529744 -0.0730434 0.1529777 0.2509139
0.12731734 -0.13327044 0.10440225 0.037252024 0.037548985 0.033048872 0.11325626 0.14370096
00000000: 4131 7c3e a35b 1f3e ae44 0b3e 8535 c73d
00000010: 9326 173e c570 f83d 3898 263e fca7 1bbd
00000020: c576 e0bc 7c7a 343e cb1c 293e 2dfb 4e3e
00000030: 28b6 433e 4de2 fd3b 1560 703c 0de1 e73d
00000040: 2a9d c93d f9ae f33d 1e26 8c3e cd23 1c3e
00000050: 90b1 233e 3507 87bd 42f0 2c3e 4ad0 953e
00000060: e97d f73e d36a 393e 13b5 ba3d c685 003d
00000070: 32d2 4b3e e89d 803e d31d 04bc ca4e 343e
00000080: 52ee 893e d869 533e d0f4 913c 6c52 be3c
00000090: cf79 513e d242 da3d 2df0 c23d 52a0 cd3d
000000a0: 22a1 773e 8787 fe3d 0ae6 7cbe 66e8 563e
000000b0: 8f67 493e 9516 853e c6a4 d53d 433d c23d
000000c0: a794 5b3e 674b 023e 8e68 c43d b238 d33c
000000d0: 0f86 e13c c797 95bd 30a6 1c3e c977 803e
000000e0: 7a5f 023e 0c78 08be d9d0 d53d 9495 183d
000000f0: f7cc 193d 415e 073d e6f2 e73d 5826 133e

base_pointnet.bn_2.running_mean f4 [64]
-0.1023133 -0.1301103 0.055525556 0.06874613 0.08069925 -0.08990558 0.06499845 -0.07676023
0.10055335 0.12722136 -0.31119367 -0.07978698 -0.14938167 -0.14548431 -0.073233865 -0.097514786
-0.62089956 0.0067644836 0.31008086 0.036014967 0.03883181 0.10292263 -0.25395396 -0.12170742
0.037452735 -0.22062424 -0.60075825 0.13569687 -0.16919988 -0.17261872 -0.042253822 0.044483572
-0.04641228 -0.110419795 -0.10814544 -0.012633339 -0.013533747 -0.088807136 -0.12893723 -0.26173532
0.03554803 -0.050357807 -0.046649866 0.24234428 -0.48960677 0.07717473 0.15778553 0.2297731
-0.3201986 -0.2162731 -0.085029446 -0.18068491 0.302171 0.10201735 -0.23560418 -0.60286427
-0.23570979 -0.010037007 -0.23610063 0.003943845 -0.124342576 -0.09480098 0.0035794487 -0.087506115
00000000: a389 d1bd a23b 05be c46e 633d c5ca 8c3d
00000010: a645 a53d 6b20 b8bd e81d 853d 7834 9dbd
00000020: eaee cd3d 5146 023e c754 9fbe 5b67 a3bd
00000030: 82f7 18be d7f9 14be a3fb 95bd d5b5 c7bd
00000040: 46f3 1ebf 9aa8 dd3b ebc2 9e3e 6e84 133d
00000050: 1b0e 1f3d 1ac9 d23d 4106 82be bd41 f9bd
00000060: 0a68 193d 52eb 61be 4bcb 19bf 1ff4 0a3e
00000070: bc42 2dbe f6c2 30be 5812 2dbd 6834 363d
00000080: ce1a 3ebd c623 e2bd 5b7b ddbd 10fc 4ebc
00000090: a6bc 5dbc 84e0 b5bd 1f08 04be 2c02 86be
000000a0: d09a 113d fd43 4ebd ee13 3fbd 1929 783e
000000b0: bdad fabe c90d 9e3d 8892 213e a449 6b3e
000000c0: 12f1 a3be b276 5dbe eb23 aebd 7705 39be
000000d0: 28b6 9a3e 79ee d03d 3942 71be 5055 1abf
000000e0: e85d 71be 4272 24bc 5dc4 71be 5f3b 813b
000000f0: 52a7 febd 0427 c2bd 2f95 6a3b 6836 b3bd

base_pointnet.bn_2.running_var f4 [64]
0.060315024 0.046255335 0.029748507 0.023505172 0.034301758 0.04526775 0.034565654 0.030046385
0.021690466 0.031083036 0.018596478 0.03201426 0.07535267 0.023117976 0.036442615 0.027975691
0.10691954 0.025574308 0.052493192 0.122901134 0.026619002 0.01575785 0.036085434 0.0669442
0.03504557 0.03828116 0.06731581 0.061208643 0.042725567 0.08513676 0.015536662 0.050894033
0.035199217 0.03441821 0.023178477 0.014313515 0.02989549 0.0358122 0.039780114 0.014384887
0.0327805 0.046576597 0.026387794 0.030656695 0.08850533 0.048955653 0.025229916 0.028642353
0.054353952 0.042244017 0.04282025 0.016950166 0.013421873 0.011014248 0.059770897 0.165307
0.034658484 0.012852618 0.020132871 0.1042404 0.05412881 0.029107062 0.038705666 0.031072175
00000000: e30c 773d 3c76 3d3d 24b3 f33c eb8d c03c
00000010: 0080 0c3d ad6a 393d b794 0d3d d623 f63c
00000020: 34b0 b13c daa1 fe3c a457 983c 6221 033d
00000030: 8052 9a3d e961 bd3c da44 153d 472d e53c
00000040: a2f8 da3d 3681 d13c 1a03 573d 97b3 fb3d
00000050: 1810 da3c 9b16 813c 52ce 133d 0a1a 893d
00000060: f28b 0f3d b5cc 1c3d dfdc 893d eab5 7a3d
00000070: 0101 2f3d 2e5c ae3d 7c8d 7e3c 4376 503d
00000080: 0e2d 103d 1cfa 0c3d cae0 bd3c 3c83 6a3c
00000090: 63e7 f43c d0af 123d 79f0 223d 97ae 6b3c
000000a0: d844 063d 1ac7 3e3d 372b d83c c023 fb3c
000000b0: 4842 b53d b985 483d f8ae ce3c 5ea3 ea3c
000000c0: 40a2 5e3d 1008 2d3d 4964 2f3d 13db 8a3c
000000d0: 6ae7 5b3c 1b75 343c 54d2 743d 3d46 293e
000000e0: 0ef6 0d3d c993 523c b1ed a43c fe7b d53d
000000f0: 2cb6 5d3d ef71 ee3c d589 1e3d 138b fe3c

fc_1.weight f4 [64, 66]
0.1538943 -1.792801 -0.027043832 -0.6096529 -0.0940134 -0.048902232 -0.4331705 -0.27883223
-0.65496933 0.34986365 0.5128834 0.39986023 0.20633572 -0.8409572 -0.20541933 0.24522029
-0.39460456 -0.1668795 0.19356924 0.29678303 -0.036484644 0.092406146 -0.76475763 -0.017805694
0.05106114 -0.07624569 0.2514224 -0.47680518 0.2210593 0.14212319 0.057713713 -0.2772729
-0.43347117 -0.3009027 -0.10116783 0.093559 0.080612674 0.16146815 -0.06991886 -0.6858249
-1.0494605 -0.66567534 0.32385638 0.065795936 0.15573196 -0.3986727 -0.27877176 0.18167189
0.28726044 -0.06668232 -0.049695227 -0.33852553 0.24467558 0.35938728 0.46514517 -0.37459457
-0.6306702 0.13986914 -0.17017092 0.11951589 -1.3027375 0.23151211 -0.11375159 -1.2387924
0.08654055 0.05725492 -0.07830851 0.0010413888 0.10486134 0.017081786 -0.016250847 -0.032597378
-0.014902631 0.011112208 0.10122766 -0.001104016 -0.065606974 0.11545827 0.05624348 -0.10095266
0.048313312 -0.08871446 -0.049149137 -0.061734285 0.052436415 -0.046058822 0.045267798 -0.025619209
0.0063634627 0.044547085 0.014705329 0.045213666 -0.035547078 0.06405827 -0.009211721 0.06879281
-0.02729152 -0.030875485 0.06384824 0.06712462 0.100949585 -0.018848699 0.0060925726 0.11574372
0.04471918 0.029799482 -0.072161086 -0.10388497 0.076040946 0.0096125165 -0.094361104 0.1180953
-0.12031845 0.10825454 0.0723354 -0.10707592 -0.06876324 -0.060091764 0.0026526581 0.029046709
-0.022416288 0.039805193 -0.014868104 -0.097936936 0.029035233 -0.0008737718 -0.08265593 0.032761298
-0.09825167 0.11660522 -0.06684477 0.019689469 0.0038347326 0.96796244 0.14430122 0.14328681
0.2350449 -0.14268945 0.24030401 0.037966967 0.31024718 -0.5291012 -0.369725 -0.060638182
0.028418379 0.289387 -0.028872319 -0.32632807 -0.17197208 0.44912046 0.039977495 0.22233358
0.16361375 -0.14878505 0.0559011 -0.50842166 0.20519304 -0.38896996 0.32319072 0.08384436
-0.39527556 -0.087474145 0.13523634 -0.16911097 -0.38817018 0.21747355 0.14109178 -0.14671901
0.04381945 -0.6916832 0.20736006 0.26415625 -0.1123575 -0.13582185 0.14410698 0.091056556
-1.1056782 -0.08005748 -0.17392169 0.24324292 -0.57669437 0.00046139563 -0.0331099 0.17037523
-0.54213846 -0.6537094 -0.6889337 -0.29100242 0.063254625 0.054992173 0.17723553 -0.65713173
0.1824967 0.02744067 -0.2202397 0.17107494 0.29030582 -0.57065964 -0.12195175 -0.05924696
-0.1120763 -0.07283395 -0.098150805 0.059586875 -0.04472073 -0.10489138 0.023425978 0.006601819
-0.08783482 0.09166924 0.054105602 -0.072674185 0.1133553 0.07635713 -0.07330999 0.07535196
0.0037381 0.11330273 -0.027251309 0.09231173 -0.1068278 0.10098481 0.067754686 0.041808303
-0.0074859383 -0.10435299 -0.029941361 -0.056760613 -0.037205294 -0.04642778 0.015681427 -0.1202684
0.03811225 -0.08597362 -0.08765626 -0.071883895 0.023967797 0.070872985 -0.0521013 0.0735417
0.07600887 0.08344501 -0.10806393 -0.10391605 -0.028333304 -0.055940017 -0.03612501 -0.06015323
0.020856977 0.065748066 0.053108685 -0.12595399 -0.019301327 -0.007932194 0.11349491 0.054618057
00000000: 7896 1d3e 817a e5bf 078b ddbc 3612 1cbf
00000010: 198a c0bd b54d 48bd 86c8 ddbe 19c3 8ebe
00000020: 12ac 27bf 5421 b33e 544c 033f 7bba cc3e
00000030: ac49 533e f948 57bf 7259 52be 071b 7b3e
00000040: 9c09 cabe 76e2 2abe 0437 463e f2f3 973e
00000050: ec70 15bd 6f3f bd3d 28c7 43bf 3fdd 91bc
00000060: 7c25 513d b326 9cbd 70ba 803e cf1f f4be
00000070: 5e5d 623e be88 113e 3765 6c3d b7f6 8dbe
00000080: efef ddbe eb0f 9abe 1431 cfbd dc9b bf3d
00000090: 4218 a53d e857 253e 9f31 8fbd 3892 2fbf
000000a0: b954 86bf b369 2abf 81d0 a53e 05c0 863d
000000b0: 3378 1f3e d41e ccbe 2cbb 8ebe 3208 3a3e
000000c0: cd13 933e bd90 88bd 398d 4bbd 3853 adbe
000000d0: 3c8c 7a3e 9c01 b83e 8227 ee3e dcca bfbe
000000e0: 9a73 21bf db39 0f3e 4941 2ebe bfc4 f43d
000000f0: 1ac0 a6bf 8311 6d3e 98f6 e8bd c090 9ebf
00000100: 2c3c b13d 2384 6a3d 3660 a0bd 367f 883a
00000110: 8bc1 d63d 1aef 8b3c 7f20 85bc d484 05bd
00000120: 2a2a 74bc fa0f 363c 7350 cf3d a1b4 90ba
00000130: f35c 86bd 6375 ec3d 905f 663d 45c0 cebd
00000140: 2ee4 453d edaf b5bd 9b50 49bd 17dd 7cbd
00000150: 91c7 563d 2da8 3cbd ba6a 393d 60df d1bc
00000160: 9884 d03b 0177 363d 9fee 703c f731 393d
00000170: d099 11bd fb30 833d c2ec 16bc 3fe3 8c3d
00000180: 7792 dfbc 96ee fcbc dec2 823d a278 893d
00000190: a8be ce3d 9668 9abc 34a4 c73b 0b0b ed3d
000001a0: 752b 373d 0b1e f43c 31c9 93bd a5c1 d4bd
000001b0: 5bbb 9b3d d17d 1d3c 6540 c1bd f3db f13d
000001c0: 8569 f6bd 8eb4 dd3d 9524 943d 9f4a dbbd
000001d0: bed3 8cbd c822 76bd 38d8 2d3b 5df3 ed3c
000001e0: 5da2 b7bc c50a 233d 5999 73bc 2993 c8bd
000001f0: 4cdb ed3c d50d 65ba 8347 a9bd b630 063d
00000200: 2c38 c9bd b8ce ee3d e9e5 88bd cf4b a13c
00000210: 2350 7b3b 63cc 773f b3c3 133e c7b9 123e
00000220: 9caf 703e 2f1d 12be 4112 763e 4083 1b3d
00000230: b8d8 9e3e 2d73 07bf 984c bdbe be5f 78bd
00000240: a9cd e83c 882a 943e a485 ecbc 7914 a7be
00000250: 7319 30be 1ef3 e53e 71bf 233d 6aab 633e
00000260: 5d8a 273e 1c5b 18be 8df8 643d ec27 02bf
00000270: 201e 523e 1227 c7be 4179 a53e 98b6 ab3d
00000280: 8f61 cabe a525 b3bd 657b 0a3e 6d2b 2dbe
00000290: 3ebe c6be 63b1 5e3e 5d7a 103e 823d 16be
000002a0: 067c 333d 2612 31bf 3256 543e 7d3f 873e
000002b0: b01b e6bd e214 0bbe c890 133e dc7b ba3d
000002c0: dd86 8dbf 2df5 a3bd 8718 32be ac14 793e
000002d0: 3ea2 13bf 79e7 f139 3f9e 07bd d876 2e3e
000002e0: 96c9 0abf 8059 27bf f55d 30bf 45fe 94be
000002f0: a48b 813d 793f 613d 3b7d 353e c939 28bf
00000300: 6ae0 3a3e 42cb e03c 8486 61be 452e 2f3e
00000310: f7a2 943e c016 12bf d7c1 f9bd f1ac 72bd
00000320: 4288 e5bd f729 95bd 4a03 c9bd 5e11 743d
00000330: 162d 37bd 4bd1 d6bd d6e7 bf3c 1254 d83b
00000340: bee2 b3bd 15bd bb3d d69d 5d3d 34d6 94bd
00000350: d326 e83d 2161 9c3d 8c23 96bd 2152 9a3d
00000360: e9fa 743b 430b e83d 233e dfbc ef0d bd3d
00000370: 89c8 dabd 20d1 ce3d f8c2 8a3d 2f3f 2b3d
00000380: 9a4c f5bb 05b7 d5bd 9647 f5bc d17d 68bd
00000390: 9464 18bd 0e2b 3ebd 5676 803c 474f f6bd
000003a0: 971b 1c3d f012 b0bd 2085 b3bd dd37 93bd
000003b0: 1d58 c43c db25 913d 2c68 55bd 089d 963d
000003c0: 8aaa 9b3d 38e5 aa3d 9f50 ddbd f0d1 d4bd
000003d0: 3f1b e8bc 5c21 65bd d2f7 13bd 3c63 76bd
000003e0: 40dc aa3c eca6 863d 7e88 593d 15fa 00be
000003f0: d11d 9ebc 08f6 01bc 0570 e83d 2fb7 5f3d

fc_1.bias f4 [64]
-0.0948321 -0.04941523 -0.017166838 0.11018991 0.013700412 -0.20210645 -0.0020184484 -0.060678378
0.22932753 -0.09017148 -0.22480328 -0.069659576 0.26944906 -0.032842375 0.017708289 0.03848729
-0.12669644 0.040327292 0.15614347 0.042315163 0.02499056 -0.020409476 0.21655692 -0.1661007
0.18596876 0.06379099 -0.026839012 -0.18018515 -0.05270695 -0.08057337 -0.07496757 0.042055484
-0.18994515 -0.0396607 -0.0048417225 0.08776018 -0.14469816 0.02886866 -0.012462237 0.023632426
0.009287293 0.12646323 -0.08168153 0.20716938 0.059149988 -0.10477543 0.3861946 0.04466037
0.056646243 0.1820157 0.1946457 -0.059265006 -0.018790212 0.07928413 0.10186076 0.052864026
0.29842398 0.07506609 0.053804874 0.086194575 0.090118535 -0.039256148 -0.067605026 -0.112168044
00000000: 5537 c2bd a067 4abd 78a1 8cbc 3fab e13d
00000010: b177 603c fef4 4ebe f247 04bb e489 78bd
00000020: d6d4 6a3e d3ab b8bd d532 66be aea9 8ebd
00000030: 3af5 893e ba85 06bd f910 913c d9a4 1d3d
00000040: b6bc 01be 3b2e 253d 13e4 1f3e aa52 2d3d
00000050: 01b9 cc3c c631 a7bc 19c1 5d3e 4d16 2abe
00000060: 986e 3e3e daa4 823d 7ddd dbbc 7582 38be
00000070: 3ee3 57bd a703 a5bd 9988 99bd 5f42 2c3d
00000080: fb80 42be 4273 22bd 50a7 9ebb 9cbb b33d
00000090: c12b 14be f87d ec3c 692e 4cbc ca98 c13c
000000a0: bb29 183c 947f 013e a548 a7bd 3624 543e
000000b0: 4247 723d 8094 d6bd 4cbb c53e cbed 363d
000000c0: e405 683d 5362 3a3e 3451 473e ddbf 72bd
000000d0: eeed 99bc b85f a23d 609c d03d f387 583d
000000e0: 07cb 983e 40bc 993d 8062 5c3d c886 b03d
000000f0: 1190 b83d 0ecb 20bd 8174 8abd 5cb8 e5bd

fc_2.weight f4 [4, 64]
0.23964043 -0.11852458 0.5677461 -0.08360015 1.2299272 1.0079076 -0.087875485 -0.57659113
-4.53659 0.03194493 -0.47285947 0.2872454 2.665368 -0.03227979 0.04442231 -0.076110624
-0.08638032 0.26891086 -0.61557424 0.68401784 1.354748 -0.028944349 -0.538387 -1.0794934
1.7321525 0.11269658 -0.10287893 0.13424619 0.36975837 -0.07416883 0.043139376 0.07705775
0.45659438 -0.096940696 0.009825372 -0.010618878 1.2126173 1.221334 -0.11330729 -0.048902005
-0.44135797 1.5009117 0.00721927 -0.34716508 0.14418423 -0.040669724 0.31150547 -0.08861613
0.025455415 0.03494199 -0.6446744 0.051837415 0.084096976 0.19233768 0.39258984 -0.060379423
2.1907873 -0.036986675 0.056218874 -0.07617395 0.0055712922 0.0327958 -0.6167192 0.06386987
-3.2088149 0.07718207 -2.8852384 -0.09967895 -4.196671 -0.8996675 -0.100547105 0.3692768
1.4958923 -0.024941593 -0.48016736 -0.7663162 -2.3815715 0.043566953 -0.33416945 -0.03939094
-0.094893724 0.057221115 0.56719404 0.85896456 -1.773528 -0.5352798 -0.70050406 1.105251
0.73017806 -0.15169348 0.08076303 0.13000709 -0.17006293 -0.02127843 0.047567725 0.47979
-0.29593164 0.017714215 -0.37709507 -0.034175236 1.4451692 -1.7877268 -0.38230455 -0.05807139
2.1664705 1.7549651 -0.062306553 -1.2665204 -0.18273512 -0.033228785 1.9061396 -0.020056315
-0.10947044 -0.0007244047 -0.1777086 0.08469348 0.4210222 0.1460669 -0.7207497 -0.024851942
-2.0094717 0.02893373 0.065513514 0.0712366 0.05731312 0.038804695 0.29370537 -0.21419547
2.6721337 0.07949102 0.053167332 0.10949402 1.4051793 0.28661713 0.12258312 0.9498945
2.3181942 -0.12084116 0.05953695 0.12389377 1.527238 -0.039961115 0.16112813 -0.024013411
0.08901325 -0.27926219 0.47949323 -2.8539667 1.8765507 -0.28967327 2.7176323 0.040960863
-5.007763 0.11521396 0.023029968 -0.22332221 -0.088403456 0.082296476 0.07842644 -0.4061839
-0.32953206 0.049183767 0.1316934 -0.06371213 -0.6001886 0.25076467 0.3492832 -0.035101667
-1.3588977 -4.2622657 0.076341674 0.85529685 0.79901177 0.004519284 -4.7010317 -0.060265586
0.15895365 -0.14058267 0.7338137 -0.109561294 -0.35337356 -0.17098975 0.8864058 -0.010134063
0.8543248 -0.03153159 0.08019361 -0.078694455 0.10524804 0.041549638 0.22517852 -0.2076099
-0.37678203 0.0040700585 1.4696193 -0.1022334 1.7393398 -1.1175587 -0.08795008 -0.7669826
1.2791625 -0.121153176 0.5698609 -0.106271215 -1.6992376 -0.038131088 0.20821759 -0.11544982
0.08325574 0.095259406 -0.30128083 0.6951382 -1.5999391 0.9460619 -1.5082084 0.76621634
1.1428691 -0.085364 0.084949315 -0.042234235 -0.08435913 -0.039016955 0.07103291 0.25919738
0.063415505 -0.10355658 0.051871907 0.097584985 -1.435536 0.22869697 0.12052253 -0.005922124
0.76029277 1.0545261 0.092449844 0.48576453 -0.94236284 0.016463265 2.1497452 -0.050916463
-0.03479555 0.22039542 0.020176588 -0.120021805 0.0930176 -0.090753414 -1.1615441 -0.0062675364
-2.080596 -0.10333874 0.08985559 -0.04189366 0.051379137 -0.12494242 0.20160899 0.07918317
00000000: 4d64 753e 04bd f2bd cf57 113f 8e36 abbd
00000010: 416e 9d3f 1e03 813f 10f8 b3bd 7a9b 13bf
00000020: bf2b 91c0 b0d8 023d a31a f2be d411 933e
00000030: 6495 2a40 d037 04bd 2bf4 353d e3df 9bbd
00000040: 2ae8 b0bd afae 893e 4696 1dbf cb1b 2f3f
00000050: 6268 ad3f b31c edbc bbd3 09bf d72c 8abf
00000060: 2cb7 dd3f 77cd e63d 30b2 d2bd d577 093e
00000070: f850 bd3e d4e5 97bd eab2 303d 74d0 9d3d
00000080: bdc6 e93e d888 c6bd 99fa 203c cdfa 2dbc
00000090: 0b37 9b3f ac54 9c3f a70d e8bd 784d 48bd
000000a0: acf9 e1be e01d c03f a08f ec3b 9fbf b1be
000000b0: 08a5 133e 4c95 26bd a57d 9f3e 607c b5bd
000000c0: e087 d03c 551f 0f3d 6209 25bf 7853 543d
000000d0: 093b ac3d 2bf4 443e 8901 c93e 6a50 77bd
000000e0: dc35 0c40 577f 17bd c345 663d 1701 9cbd
000000f0: 638f b63b e454 063d 4fe1 1dbf 35ce 823d
00000100: 395d 4dc0 a211 9e3d bfa7 38c0 7a24 ccbd
00000110: 214b 86c0 9c50 66bf a4eb cdbd d911 bd3e
00000120: 6679 bf3f 5052 ccbc 7fd8 f5be 4c2d 44bf
00000130: ab6b 18c0 4373 323d 4218 abbe 6558 21bd
00000140: a457 c2bd b060 6a3d a133 113f 1ae5 5b3f
00000150: f702 e3bf 1908 09bf 3c54 33bf dd78 8d3f
00000160: f3ec 3a3f 8955 1bbe 1667 a53d 9420 053e
00000170: fa24 2ebe 1a50 aebc 60d6 423d 09a7 f53e
00000180: 5a84 97be 671d 913c 9b12 c1be 55fb 0bbd
00000190: 4efb b83f 3bd4 e4bf 6cbd c3be 44dc 6dbd
000001a0: 74a7 0a40 b2a2 e03f 2835 7fbd 571d a2bf
000001b0: ea1e 3bbe e81a 08bd 62fc f33f 244d a4bc
000001c0: 0a32 e0bd fae5 3dba 3ef9 35be c673 ad3d
000001d0: 3990 d73e 9092 153e 0d83 38bf 4d96 cbbc
000001e0: 2f9b 00c0 6e06 ed3c f32b 863d 7fe4 913d
000001f0: 2ac1 6a3d acf1 1e3d 8d60 963e 0f56 5bbe
00000200: 3d04 2b40 30cc a23d fdc5 593d 673e e03d
00000210: eadc b33f 7bbf 923e dc0c fb3d 492c 733f
00000220: 4b5d 1440 927b f7bd 04dd 733d 04bc fd3d
00000230: 897c c33f 44ae 23bd c6fe 243e c6b7 c4bc
00000240: 944c b63d 74fb 8ebe 2380 f53e 64a7 36c0
00000250: d032 f03f 0e50 94be b0ed 2d40 94c6 273d
00000260: 983f a0c0 4cf5 eb3d 58a9 bc3c 94ae 64be
00000270: df0c b5bd 0e8b a83d 0b9e a03d 56f7 cfbe
00000280: 6db8 a8be eb74 493d a2da 063e 817b 82bd
00000290: f6a5 19bf 3a64 803e 3fd5 b23e c4c6 0fbd
000002a0: 5cf0 adbf 7b64 88c0 0659 9c3d bcf4 5a3f
000002b0: 098c 4c3f 8016 943b da6e 96c0 0cd9 76bd
000002c0: bfc4 223e e7f4 0fbe 37db 3b3f ac61 e0bd
000002d0: 61ed b4be f017 2fbe 7eeb 623f 5709 26bc
000002e0: 08b5 5a3f 4527 01bd 8c3c a43d 8f2a a1bd
000002f0: 498c d73d f42f 2a3d 3395 663e b197 54be
00000300: 93e9 c0be 205e 853b 7c1c bc3f bf5f d1bd
00000310: b0a2 de3f 2a0c 8fbf 2c1f b4bd f958 44bf
00000320: 99bb a33f 281f f8bd 67e2 113f b9a4 d9bd
00000330: 9e80 d9bf 582f 1cbd fe36 553e f570 ecbd
00000340: fc81 aa3d 5d17 c33d 7b41 9abe 94f4 313f
00000350: ceca ccbf 1d31 723f f90c c1bf c126 443f
00000360: 8949 923f 52d3 aebd e8f9 ad3d cefd 2cbd
00000370: 7bc4 acbd 3ed0 1fbd b479 913d 85b5 843e
00000380: fddf 813d 7915 d4bd a377 543d a3da c73d
00000390: a5bf b7bf 8a2f 6a3e 84d4 f63d 600e c2bb
000003a0: 8ca2 423f b6fa 863f 5856 bd3d 21b6 f83e
000003b0: b13e 71bf f8dd 863c 6d95 0940 c88d 50bd
000003c0: c785 0ebd 56af 613e 5f49 a53c fecd f5bd
000003d0: 0380 be3d eddc b9bd 7aad 94bf e85f cdbb
000003e0: 7c28 05c0 43a3 d3bd 3506 b83d b098 2bbd
000003f0: ee72 523d d0e1 ffbd 9672 4e3e c92a a23d

fc_2.bias f4 [4]
0.050593365 -0.013448226 0.03788155 0.012365683
00000000: fd3a 4f3d f355 5cbc af29 1b3d 6f99 4a3c
