Additional stuff/segmentation_pointnet_P7dropout05.pth (torch, 78794 bytes, 18 tensors)

base_pointnet.conv_1_a.weight f4 [64, 1, 3]
0	0xbe0f5dda	-0.14000645
1	0xbe088a55	-0.1333402
2	0x3e0dd652	0.13851288
3	0xbdca31bc	-0.09872767
4	0xbe7f0bef	-0.24906896
5	0x3d6ff8cc	0.05858688
6	0xbcef9017	-0.029243512
7	0xbe8bf74a	-0.27337104
8	0xbef1b571	-0.4720874
9	0xbee2b240	-0.4427662
10	0xbec0efae	-0.3768286
11	0xbe8e5a72	-0.2780338
12	0x3ef1e434	0.47244418
13	0xbe70063d	-0.2343988
14	0xbd24a01b	-0.04019175
15	0xbd83ee91	-0.06441987
16	0x3e414854	0.18875247
17	0xbd213997	-0.039361563
18	0x3ee8f9bd	0.45503035
19	0xbe768873	-0.24075489
20	0x3e74b0c3	0.23895554
21	0xbda12d23	-0.07869937
22	0xbda1cd37	-0.0790047
23	0x3db1edc7	0.086879306
24	0xbf35a354	-0.70952344
25	0xbe6ce3f9	-0.2313384
26	0x3dba76dd	0.091047026
27	0x3da18e6d	0.07888494
28	0xbea11ef4	-0.31468928
29	0xbd043656	-0.03227838
30	0x3c87d558	0.016581222
31	0xbd2d9e8c	-0.04238753
32	0xbcf9d966	-0.030499171
33	0xbe4e0684	-0.20119673
34	0x3e7a8d50	0.24467969
35	0xbe741138	-0.23834693
36	0x3e91d162	0.2848006
37	0xbee0dc32	-0.43917996
38	0x3f0b03a1	0.5430241
39	0xbed3a93c	-0.41340053
40	0x3eb4b9ca	0.35297996
41	0xbe035fa0	-0.12829447
42	0xbd955c38	-0.0729298
43	0xbd7e1574	-0.062032178
44	0xbd00bac8	-0.03142813
45	0xbd26f5ed	-0.040761877
46	0x3edc0c3e	0.4297809
47	0x3e66a383	0.22523312
48	0xbdf6ab1f	-0.120443575
49	0xb811b3b2	-3.473805e-05
50	0xbf000d69	-0.5002046
51	0xbedb4787	-0.4282801
52	0xbeb45c84	-0.35226834
53	0x3ed987a3	0.42486295
54	0xbee72081	-0.45141986
55	0x3d566a1a	0.05234728
56	0x3ec0276b	0.37530074
57	0x3d0640de	0.032776706
58	0xbf24e0a0	-0.6440525
59	0xbdc964ab	-0.09833654
60	0xbb2200b7	-0.0024719664
61	0x3e43eb65	0.19132765
62	0xbe45a1f6	-0.19300064
63	0xbe8ac946	-0.27106684
64	0xbe3a257f	-0.18178366
65	0x3e95d996	0.29267567
66	0xbe105bb3	-0.1409748
67	0x3d2c4504	0.042058006
68	0xbd9ebb92	-0.0775062
69	0x3df7995d	0.120897986
70	0x3dad56bc	0.08463809
71	0xbed33ca8	-0.41257215
72	0x3b9ae317	0.0047267783
73	0xbb99e826	-0.0046968637
74	0x3d36d9f6	0.044641457
75	0x3d89dacb	0.067311846
76	0x3d1ec6b7	0.038763728
77	0xbd67cbb2	-0.056590743
78	0x3da9b84e	0.082871065
79	0xbe2bede0	-0.16789961
80	0xbe2ac90b	-0.16678254
81	0x3df258c3	0.11833336
82	0x3e198057	0.14990364
83	0x3e9cfd99	0.3066223
84	0x3d758661	0.059942607
85	0xbdf58826	-0.11988859
86	0xbe49d3fc	-0.19709772
87	0x3c265aa7	0.010153449
88	0xbe1c5733	-0.15267639
89	0xbe0198eb	-0.1265599
90	0xbe35174c	-0.17684668
91	0xbd4f418d	-0.050599623
92	0x3d01a17a	0.031648137
93	0xbd9a557a	-0.075358346
94	0x3d9b2d32	0.0757698
95	0xbee4c52c	-0.4468168
96	0xbcbdd9f8	-0.023175225
97	0x3e130203	0.14356236
98	0x3eb7b53c	0.35880458
99	0xbe5ff67e	-0.21871373
100	0x3e46dbdc	0.19419807
101	0x3d4174de	0.047230594
102	0xbd6371ae	-0.055528335
103	0x3e87373c	0.26409328
104	0xbe1aa5b3	-0.15102272
105	0x3d65483b	0.055977087
106	0x3c59cbe9	0.013293245
107	0xbee7e127	-0.45288965
108	0x3f085be0	0.5326519
109	0xbd2fe0f4	-0.04293914
110	0xbf0afa69	-0.54288346
111	0xbd55d27d	-0.05220269
112	0xbdb657f6	-0.08903496
113	0x3c38b352	0.011273222
114	0x3d0ba513	0.034092974
115	0xbf0dd711	-0.5540629
116	0x3e20ac83	0.15690808
117	0x3e53c207	0.20679484
118	0x3e382df8	0.17986286
119	0xbeb9c1aa	-0.36280566
120	0x3f17ed2d	0.59346277
121	0x3ebaa387	0.36452886
122	0x3ee5d3f4	0.4488827
123	0xbbf6d8d0	-0.0075331703
124	0xbd9557e2	-0.07292153
125	0x3d833037	0.064056806
126	0xbae2de4b	-0.001730868
127	0x3ee00155	0.43751016
128	0xbeba1ece	-0.36351627
129	0x3ec84d6f	0.39121577
130	0xbda806d4	-0.08204427
131	0x3eac98cf	0.33710334
132	0x3e7da595	0.24770196
133	0x3e01b658	0.12667215
134	0xbe74329b	-0.2384743
135	0xbc9528c8	-0.018207923
136	0xbe50a653	-0.20375948
137	0x3e0862a5	0.1331888
138	0x3e4ab4f8	0.19795597
139	0xbc725b51	-0.014792279
140	0x3c84ff57	0.016235037
141	0xbde69a02	-0.112598434
142	0x3e9f4ad5	0.3111178
143	0xbe7bb735	-0.24581607
144	0x3e0d663f	0.13808535
145	0xbcb02a1e	-0.021504458
146	0x3e2383c1	0.15968229
147	0x3ea213be	0.31655687
148	0xbd3a58a0	-0.045494676
149	0x3ebe481a	0.37164384
150	0x3c0637d1	0.008192019
151	0xbb9e5879	-0.004832324
152	0x3de9971c	0.11405775
153	0xbe0f5758	-0.13998163
154	0x3df978b8	0.121812284
155	0xbf043a15	-0.51651126
156	0x3ec68c33	0.3877884
157	0xbf052077	-0.5200266
158	0xbef05f06	-0.46947497
159	0x3d964910	0.07338154
160	0xbec2c870	-0.38043547
161	0x3a08dafd	0.000522062
162	0xbeaf82cc	-0.34279478
163	0x3d01c84a	0.03168515
164	0x3eb4700f	0.35241744
165	0xbe032993	-0.12808828
166	0x3f012a70	0.5045538
167	0xbed019ce	-0.40644687
168	0xbdb36d63	-0.08761098
169	0x3d1e9e34	0.038725093
170	0xbef133aa	-0.4710973
171	0x3ed42a3a	0.41438466
172	0xbcb350e0	-0.02188915
173	0x3f05bdd8	0.52242804
174	0xbe8586df	-0.2607946
175	0x3d106761	0.03525484
176	0xbe3116fd	-0.17293926
177	0x3c863586	0.016382944
178	0x3d261f32	0.040557094
179	0xbaeaba6a	-0.0017908339
180	0x3e74981e	0.23886153
181	0xbe9a2556	-0.3010661
182	0x3e042858	0.12906015
183	0x3de3fe65	0.11132506
184	0x3e2649e9	0.16239132
185	0xbeb7ddbf	-0.35911366
186	0x3dba3d05	0.0909367
187	0xbea1326a	-0.31483775
188	0x3f044049	0.5166059
189	0x3eb9ab8a	0.36263686
190	0x3ef77fe8	0.48339772
191	0xbe5ff1f6	-0.21869645

base_pointnet.conv_1_a.bias f4 [64]
0	0xbe5a53c8	-0.21321023
1	0xbe883079	-0.26599482
2	0xbea1c484	-0.31595242
3	0xbca4d8ee	-0.020122971
4	0x3e446f3c	0.19183058
5	0x3ea554d1	0.32291272
6	0xbe5918d3	-0.21200876
7	0xbe8c9cb6	-0.2746331
8	0x3f10106d	0.56275064
9	0x3e992265	0.29909053
10	0x3ede1baa	0.4338048
11	0xbd861d4c	-0.06548557
12	0x3dbd8d49	0.09255464
13	0xbec9ba13	-0.39399776
14	0xbe1f32cd	-0.15546723
15	0xbedfc83e	-0.4370746
16	0x3f15b77f	0.5848312
17	0xbd1e310e	-0.038621
18	0xbde7b55a	-0.11313887
19	0x3f056f82	0.5212327
20	0xbe921f3c	-0.28539455
21	0x3e974306	0.29543322
22	0xbea28270	-0.3174014
23	0xbea97c2e	-0.33102554
24	0x3e3f145a	0.18660107
25	0xbb05998a	-0.0020385706
26	0x3eb1d180	0.34730148
27	0x3e905028	0.28186154
28	0x3d25e048	0.040497094
29	0xbe5886d8	-0.21145189
30	0xbf07cb16	-0.5304426
31	0xbe2572fa	-0.16157141
32	0xbf0e4b80	-0.55583954
33	0xbe8d4634	-0.27592623
34	0x3efb332a	0.49062473
35	0xbec8e94a	-0.39240485
36	0xbeccc9a5	-0.39997593
37	0x3eaef58b	0.3417171
38	0xbe77fffa	-0.24218741
39	0xbf0165c4	-0.5054591
40	0xbef38965	-0.4756576
41	0xbcb074d7	-0.021540089
42	0x3e8a7ecf	0.27049872
43	0xbdb8df59	-0.09026975
44	0xbcc381a6	-0.023865532
45	0x3cc35b7e	0.023847338
46	0xbe48fe2b	-0.19628207
47	0xbcff3ba2	-0.031156365
48	0x3df5ca54	0.12001482
49	0xbeabba3e	-0.3354053
50	0xbef0b904	-0.47016156
51	0xbdf5cae7	-0.12001591
52	0x3d9dfd5e	0.077143416
53	0x3f08a1ea	0.5337206
54	0xbe42a708	-0.1900903
55	0x3e285105	0.16437156
56	0x3ee84871	0.45367768
57	0x3da1b2ba	0.078954175
58	0x3dfb1eae	0.12261711
59	0x3dde19ae	0.10844742
60	0xbec55e97	-0.3854873
61	0x3e00927a	0.12555876
62	0x3d7682cd	0.060183335
63	0xbd7fcadb	-0.062449317

base_pointnet.conv_1_b.weight f4 [64, 1, 3]
0	0xbd58e77b	-0.052955132
1	0x3f5352e8	0.8254838
2	0xbf7d0b66	-0.9884552
3	0xbf8c2cf6	-1.0951221
4	0xbfb8bcf3	-1.4432663
5	0xbf238e2b	-0.63888806
6	0xbedf36de	-0.43596548
7	0xbdab2a37	-0.08357661
8	0x3fc11fc9	1.5087825
9	0x3eeec080	0.4663124
10	0x3f65ca28	0.8976159
11	0xbe22be72	-0.15892962
12	0x3f9cbc6a	1.2245
13	0xbf4d09b8	-0.80092955
14	0x3bc5c263	0.0060351356
15	0x3ee23106	0.44178027
16	0xbf8b98ed	-1.0906044
17	0xbf10a1c8	-0.5649686
18	0x3f1e29b7	0.617824
19	0xbf841462	-1.031872
20	0x3f5819ed	0.8441456
21	0xbfe3d91c	-1.7800632
22	0xbf5f61ef	-0.8725881
23	0x3e65d462	0.22444299
24	0xbe2c7f6d	-0.16845484
25	0x3f7e5b11	0.99357706
26	0x3d7f18e1	0.062279586
27	0x3e80221d	0.25026026
28	0xbc8990f5	-0.016792754
29	0x3e63a2d9	0.2223009
30	0x3f79991a	0.9749924
31	0x3e004369	0.12525715
32	0x3f127caa	0.5722147
33	0x3f1903ac	0.5977123
34	0xbf24d195	-0.64382297
35	0xbfc2a6cf	-1.5207156
36	0x3e949dad	0.29026547
37	0x3ebfdb24	0.3747188
38	0xbf99d990	-1.201952
39	0xbe8dea2d	-0.27717724
40	0x3d8e1f34	0.06939545
41	0x3ecc0ea5	0.39854923
42	0x3d0db805	0.034599323
43	0x3fb52834	1.4152894
44	0x3f1a77e2	0.60339177
45	0x3ecd244f	0.40066764
46	0xbf679c23	-0.9047262
47	0x3f9f44f8	1.2442923
48	0xbf03f198	-0.5154052
49	0xbf394c77	-0.723823
50	0xbe42a854	-0.19009525
51	0x3f9c73be	1.2222822
52	0xbd297904	-0.041375175
53	0xbfa6dd7b	-1.303634
54	0xbf7c14a6	-0.98469007
55	0x3f11f13d	0.57008725
56	0x3f68576f	0.90758413
57	0xbe9cfb0c	-0.30660284
58	0x3e3e2d95	0.18572076
59	0x3f1a52ad	0.60282403
60	0xbf4d62c3	-0.80228823
61	0xbecbcb3b	-0.3980349
62	0xbd36fb1f	-0.04467308
63	0x3f906b66	1.1282775
64	0x3e837301	0.2567368
65	0x3ef51843	0.47870073
66	0x3f58c941	0.8468209
67	0x3e30c677	0.17263208
68	0xbe5cc462	-0.21559289
69	0xbf01775c	-0.5057275
70	0xbf8f35c2	-1.118828
71	0x3f009e97	0.5024199
72	0xbdafcb85	-0.0858374
73	0x3f3362f4	0.70072865
74	0xbf2c6f89	-0.6735769
75	0xbf25afba	-0.6472126
76	0xbebfcedd	-0.37462512
77	0x3f4bb0ce	0.7956666
78	0x3f834bb1	1.0257474
79	0x3efdaf2b	0.49547705
80	0x3f0a1b33	0.5394775
81	0x3e28e320	0.16492891
82	0xbdff93c3	-0.12479355
83	0x3fc82c90	1.5638599
84	0xbf20790a	-0.6268469
85	0x3f3e27a1	0.7427922
86	0x3f98a28b	1.1924604
87	0xbfaae204	-1.3350224
88	0x3f3bc23e	0.73343265
89	0x3f72266d	0.94589883
90	0xbff61847	-1.9226159
91	0x3f0c42ec	0.54789615
92	0xbe0d6125	-0.13806589
93	0x3ecd0de7	0.4004967
94	0x3e5b2f97	0.21404873
95	0x3f63474f	0.88780683
96	0xbf4e1d8a	-0.80513823
97	0xbf3a4cbf	-0.72773355
98	0x3dc82523	0.09772708
99	0x3f6fc383	0.936577
100	0x3ec2b555	0.3802897
101	0xbf3afc5e	-0.7304133
102	0xbf2a9c66	-0.66644895
103	0x3e4658e6	0.1936985
104	0x3f01f09f	0.50757784
105	0x3f206c3a	0.6266514
106	0x3d9965cc	0.07490119
107	0xbfae76ec	-1.3630042
108	0x3f24bbbe	0.6434897
109	0x3e0553c1	0.13020231
110	0xbf4f6159	-0.81007916
111	0x3e123c46	0.14280805
112	0x3f0b693c	0.5445745
113	0xbfa56c66	-1.2923706
114	0xbf40f982	-0.7538072
115	0x3cd10f7e	0.025520083
116	0xbec3999c	-0.38203132
117	0x3f028ac1	0.5099297
118	0xbf3d9adb	-0.74064416
119	0xbd912273	-0.07086649
120	0x3f9d692d	1.2297722
121	0xbe9f7321	-0.31142524
122	0x3e8d4659	0.27592734
123	0x3e5650f1	0.20929314
124	0x3f61f890	0.882699
125	0xbf1e0094	-0.6171963
126	0x3e91480d	0.28375283
127	0xbef95c8f	-0.4870343
128	0xbe883f2f	-0.26610705
129	0xbe504510	-0.20338845
130	0x3f2ca80b	0.67443913
131	0x3f416d58	0.7555747
132	0x3f8be2b6	1.0928562
133	0xbf5630db	-0.836683
134	0x3eb0a6c2	0.34502226
135	0x3f21e95a	0.6324669
136	0x3f5bfbb0	0.8593092
137	0xbf73ddf5	-0.95260555
138	0x3f37499b	0.7159669
139	0xbeeea9e1	-0.46613982
140	0xbf320634	-0.69540715
141	0xbe26c2b7	-0.16285215
142	0x3f1b8404	0.60748315
143	0x3f83090f	1.023714
144	0xbee8c0ec	-0.45459688
145	0xbf2aa13a	-0.6665226
146	0xbfbbba59	-1.4666244
147	0xbc7cf561	-0.015439362
148	0x3ed37821	0.4130259
149	0x3fc4638c	1.5342879
150	0xbe6ed520	-0.23323488
151	0xbc6e91bd	-0.014561114
152	0xbf971773	-1.1804031
153	0x3f4655c7	0.77474636
154	0xbec7fc05	-0.39059463
155	0x3f9af75b	1.2106737
156	0xbd475718	-0.048667043
157	0x3dcc360b	0.099712454
158	0x3f5e5d87	0.8686146
159	0x3ea175d8	0.3153522
160	0x3ef239be	0.4730968
161	0x3f812824	1.0090375
162	0x3f04eecd	0.5192688
163	0xbee34476	-0.4438817
164	0xbf7156d2	-0.942731
165	0xbe689bce	-0.22715685
166	0x3e1c67a5	0.15273912
167	0x3ee16076	0.44018906
168	0x3ec2c19d	0.3803834
169	0x3e0574a1	0.13032772
170	0xbf5ea877	-0.86975807
171	0x3e61ffc5	0.22070225
172	0x3ebf098c	0.3731197
173	0xbf3fd94e	-0.74940956
174	0xbeb2e819	-0.349427
175	0xbe76415c	-0.2404837
176	0xbfbb8b11	-1.4651815
177	0xbecb3139	-0.3968599
178	0xbf8ca8cb	-1.0989012
179	0xbd6b330e	-0.057421736
180	0x3f89a48f	1.0753344
181	0xbf360215	-0.71096927
182	0xbf2d10a8	-0.6760354
183	0x3f57167c	0.84018683
184	0x3f145f7f	0.57958215
185	0xbf19ea74	-0.6012337
186	0x3e2901e1	0.16504623
187	0xbef5a886	-0.47980136
188	0x3f917312	1.1363242
189	0xbd39ce76	-0.045362912
190	0x3e485dc2	0.19567016
191	0x3f448d52	0.7677814

base_pointnet.conv_1_b.bias f4 [64]
0	0x3eed1617	0.46305916
1	0x3f0b6a25	0.5445884
2	0xbdfaa224	-0.12237957
3	0xbd9a24ec	-0.075265735
4	0xbdc0f501	-0.09421731
5	0xbd35492c	-0.044259235
6	0x3ef40053	0.47656497
7	0x3ef196ad	0.4718527
8	0x3e453385	0.19257934
9	0xbee6b32b	-0.4505857
10	0xbdaf16bb	-0.08549257
11	0x3cc86141	0.024460437
12	0x3e4ec35b	0.2019171
13	0xbeac0cd3	-0.33603534
14	0xbea1317e	-0.31483072
15	0x3cbaa148	0.022781983
16	0x3e728359	0.23682918
17	0xbee03a8d	-0.4379467
18	0xbea37eb3	-0.319326
19	0xbec51f05	-0.3850023
20	0x3d827003	0.06369021
21	0x3ee93ed3	0.45555744
22	0xbf0a6ca5	-0.5407203
23	0x3ecb3f8d	0.39696923
24	0xbe964c36	-0.2935502
25	0xbf2626ff	-0.64903253
26	0xbd7a6609	-0.061132465
27	0xbd576f07	-0.05259612
28	0xbe3b6ab1	-0.18302418
29	0xbeabc3d3	-0.3354784
30	0xbf061c9e	-0.52387416
31	0xbeac142b	-0.33609137
32	0x3c21b83b	0.009870584
33	0xbdffa4e9	-0.12482626
34	0xbee8d37c	-0.4547385
35	0xbeab31ce	-0.33436435
36	0x3f0efd35	0.55855113
37	0xbd37bf28	-0.044860035
38	0x3b48598a	0.0030570948
39	0x3eab4460	0.33450603
40	0x3ed9c365	0.42531887
41	0x3ead15d0	0.33805704
42	0x3f0ba7a6	0.54552686
43	0xbe32fe6e	-0.1747987
44	0xbefb7790	-0.49114656
45	0xbe862370	-0.26198912
46	0xbf055790	-0.52086735
47	0xbed2b45b	-0.41153225
48	0x3f09645d	0.5366877
49	0x3ef643c8	0.48098588
50	0x3ee60f36	0.4493348
51	0xbeedf28d	-0.46474114
52	0xbe7edd62	-0.24889138
53	0xbe840b97	-0.25790092
54	0xbe2ce2fc	-0.16883463
55	0xbe4bf66c	-0.19918221
56	0x3eb6b321	0.3568354
57	0x3edc7bef	0.43063304
58	0xbebc45b3	-0.36771926
59	0x3e95e055	0.29272714
60	0x3ebd3441	0.3695393
61	0x3efa8bf7	0.4893491
62	0x3ef33483	0.47501
63	0x3d986111	0.07440389

base_pointnet.conv_2.weight f4 [64, 64, 3]
0	0x3cddeb79	0.027089821
1	0xbd183548	-0.037160188
2	0x3c70b1ca	0.014690826
3	0xbe1389ad	-0.14407988
4	0x3d93571b	0.071943484
5	0xbe03be00	-0.12865448
6	0x3da170fd	0.07882879
7	0x3d52bfa9	0.051452313
8	0x3e57d913	0.21078901
9	0x3cc723ac	0.024309002
10	0xbd335689	-0.0437837
11	0xbd842712	-0.064527646
12	0xbcba9485	-0.022775898
13	0xbd8e2ba3	-0.06941917
14	0x3d98cb07	0.074605994
15	0xbdbd93a9	-0.092566796
16	0x3bf8a65c	0.007588191
17	0xbe00be59	-0.12572612
18	0xbdb0f6ab	-0.08640798
19	0xbd0c809a	-0.03430233
20	0x3e776ce5	0.24162634
21	0xbe2498f4	-0.16073972
22	0x3e46c7d4	0.19412166
23	0x3dce9239	0.100864835
24	0xbd58a24b	-0.05288915
25	0xbe2adfa7	-0.16686879
26	0x3e19b97f	0.15012167
27	0x3d7f0d01	0.06226826
28	0x3d9895ba	0.07450433
29	0x3de69f76	0.112608835
30	0x3c76684d	0.015039516
31	0x3e151e39	0.1456231
32	0xbe2132a7	-0.15741979
33	0xbc969ff7	-0.018386824
34	0xbd836ec1	-0.06417609
35	0xbdae5acc	-0.08513412
36	0x3c89d710	0.016826183
37	0xbc26efe1	-0.0101890275
38	0xbd5877f3	-0.052848767
39	0xbd9d2e2c	-0.07674822
40	0x3dba6dce	0.09102975
41	0x3d04f858	0.0324634
42	0xbded38d7	-0.11583107
43	0x3d8c2ec1	0.06844855
44	0xbe0ec41e	-0.13942
45	0x3e089173	0.13336734
46	0x3e3e14c5	0.1856261
47	0x3d452e1d	0.04813968
48	0x3d6a1393	0.057147574
49	0x3c8284b6	0.015932422
50	0xbf12e574	-0.5738137
51	0x3d92a9e8	0.07161313
52	0xbdfb049f	-0.12256741
53	0x3d682392	0.056674547
54	0x3dd842ec	0.10559639
55	0x3dd84388	0.105597556
56	0xbc95ea0c	-0.018300079
57	0x3d9acf8d	0.075591184
58	0x3d9b8ae1	0.075948484
59	0x3e9b8fa8	0.3038304
60	0x3d4a2ea1	0.049360875
61	0xbe1086fb	-0.14113991
62	0x3e32a7f4	0.17446882
63	0x3da4fc6d	0.08055959
64	0x3c617de4	0.013762925
65	0xbd916171	-0.070986636
66	0x3b067478	0.0020516198
67	0xbcd338d9	-0.025783943
68	0x3cb185eb	0.021670302
69	0x3d333732	0.04375381
70	0xbe0df666	-0.13863525
71	0xbd9798b1	-0.074021704
72	0x3e006946	0.12540159
73	0x3e627b9e	0.22117469
74	0x3d14ffa2	0.036376603
75	0xbe7495b8	-0.23885238
76	0x3e07172d	0.13192435
77	0xbd08d0a6	-0.033402108
78	0xbde22782	-0.11042692
79	0x3cb05975	0.021527031
80	0x3c952435	0.018205741
81	0x3e18217b	0.14856522
82	0xbdb3209a	-0.08746453
83	0xbc995cb1	-0.018720957
84	0x3d112af6	0.03544136
85	0x3e546093	0.20739965
86	0xbda7ba30	-0.08189809
87	0x3db4a3ff	0.08820342
88	0x3e241ca8	0.16026556
89	0x3e2448de	0.16043422
90	0x3e036de5	0.1283489
91	0x3b8fab33	0.004384422
92	0xbd2bce8b	-0.04194502
93	0x3cc6797c	0.02422785
94	0x3da1db6d	0.0790318
95	0x3e9ad59f	0.30241105
96	0x3e24923c	0.16071409
97	0xbd227796	-0.039664827
98	0x3d31ed1c	0.043439016
99	0xbdadf49a	-0.0849392
100	0x3d82591a	0.06364651
101	0xbdc33030	-0.095306754
102	0x3ad2cbc2	0.0016082453
103	0x3e04c35e	0.12965152
104	0x3d9e6e79	0.07735915
105	0x3c8a6c11	0.016897233
106	0x3e05ebb3	0.13078193
107	0x3d409bf8	0.047023743
108	0x3d767484	0.06016971
109	0x3e086c6a	0.13322607
110	0x3bbb5740	0.005717188
111	0xbdb01ac7	-0.085988574
112	0x3d50a0dc	0.050934657
113	0xbdf1ecca	-0.11812742
114	0xbc37399f	-0.0111831715
115	0xbd11fa3f	-0.035639044
116	0xbe2f05a9	-0.17092003
117	0xbc6021c7	-0.013679928
118	0xbd5858fa	-0.05281923
119	0xbd1bdce1	-0.038052443
120	0x3c85c58d	0.016329551
121	0xbd5099f4	-0.05092807
122	0xbd51f6eb	-0.05126087
123	0xbc81c158	-0.015839264
124	0xbd0c9db0	-0.03433007
125	0xbdfedc83	-0.12444403
126	0xbdf0b2b8	-0.11752838
127	0xbd7cd360	-0.06172502
128	0xbda84f42	-0.08218242
129	0x3e573b50	0.2101872
130	0x3d9c8211	0.07641996
131	0x3d385b97	0.045009222
132	0xbdd5c3a8	-0.10437709
133	0xbd346669	-0.04404298
134	0x3dcd4892	0.10023607
135	0xbdd7ba65	-0.10533599
136	0x3d759faa	0.05996672
137	0xbb76a2b1	-0.0037633593
138	0xbdd58ec6	-0.104276225
139	0xbd762062	-0.060089476
140	0x3ce967dc	0.028491907
141	0x3d362b9d	0.044475187
142	0x3e017877	0.1264361
143	0x3e1231bc	0.14276785
144	0x3e4db42d	0.20088263
145	0x3d6ff693	0.05858476
146	0x3d204acf	0.039133843
147	0x3db79621	0.08964182
148	0x3c655c66	0.01399908
149	0x3dbf7842	0.09349109
150	0x3e0f4d69	0.13994373
151	0xbd392dd1	-0.04520971
152	0x3d218f8d	0.03944354
153	0xbd192502	-0.03738881
154	0xbd67999d	-0.05654298
155	0xbb8157b4	-0.0039472226
156	0x3dd50b94	0.10402599
157	0x3db0e358	0.086371124
158	0x3e15275e	0.14565799
159	0x3cdf337a	0.027246226
160	0xbdf7d5cb	-0.12101325
161	0xbdbba2bd	-0.09161899
162	0x3e152a58	0.14566934
163	0x3bb8acb0	0.0056358203
164	0x3d060867	0.032722857
165	0xbc5e8197	-0.013580701
166	0x3c187390	0.009304896
167	0x3cfb6c5d	0.03069132
168	0x3c3baad7	0.011454306
169	0x3b0bdfbd	0.0021343075
170	0x3e7834fe	0.24238965
171	0x3da46b06	0.080282256
172	0x3dcc304f	0.09970152
173	0x3dc3f71c	0.09568617
174	0x3e24fc3a	0.16111842
175	0x3e0d2318	0.13782918
176	0x3e486aca	0.19571987
177	0xbdd28ecb	-0.10281142
178	0x3da9ac90	0.08284867
179	0xbcc5d6f8	-0.024150357
180	0xbd3dec51	-0.046367947
181	0x3d2fc1a7	0.04290929
182	0x3d246637	0.040136542
183	0x3d10b0d3	0.035324883
184	0x3c920edf	0.017829357
185	0xbd95ddd6	-0.073177025
186	0x3e26381f	0.16232346
187	0x3e0e60d6	0.13904127
188	0xbdc84bb9	-0.09780068
189	0x3d7a0522	0.06104005
190	0x3e1d7198	0.15375364
191	0xbca6acfe	-0.020346161
192	0xbba9ca01	-0.0051815514
193	0x3d73ab61	0.05948961
194	0x3d9f279c	0.07771227
195	0xbe6d4469	-0.23170628
196	0xbc94c643	-0.018160945
197	0x3d22bf67	0.039733317
198	0x3a81b690	0.0009896327
199	0x3e119bd2	0.14219597
200	0x3e0edd46	0.13951597
201	0x3dbcf2fb	0.09226032
202	0xbd0116ce	-0.03151589
203	0x3e0792af	0.13239549
204	0xbc46d6b6	-0.012136152
205	0xbdab3a0a	-0.083606794
206	0x3d3193c6	0.04335382
207	0x3d6b2b5f	0.05741441
208	0xbd7b8268	-0.061403662
209	0x3db53350	0.08847678
210	0x3dadee8a	0.08492763
211	0x3cd180ff	0.025574205
212	0x3dc2513a	0.09488149
213	0x3d898ba8	0.067160904
214	0x3d1edbf0	0.038783967
215	0x3d7368e7	0.059426215
216	0x3e379bb5	0.17930491
217	0x3c7f08f8	0.015566103
218	0x3d0827d4	0.033241108
219	0xbe54d907	-0.20785914
220	0x3cf33ae3	0.029691165
221	0x3e2d6ef2	0.16936854
222	0xbdaea475	-0.085274614
223	0x3c8f7168	0.017510131
224	0xbcbf8d6d	-0.023382867
225	0xbe6bed70	-0.23039794
226	0xbd2dccf4	-0.042431787
227	0x3d9782bd	0.07397983
228	0xbd62cfe8	-0.055374056
229	0xbd8d5f47	-0.06902938
230	0x3d76415f	0.060120936
231	0xbc75fa88	-0.015013345
232	0x3c82e335	0.015977481
233	0x3dd78c65	0.10524825
234	0xbc0061bb	-0.007835801
235	0x3b5f8057	0.0034103596
236	0xbc9663b6	-0.018358093
237	0xbe249433	-0.16072159
238	0xbb2ae2d8	-0.002607515
239	0x3d7aeed5	0.061262924
240	0xbe0dccbe	-0.13847634
241	0x3c29ac9a	0.010356093
242	0xbd8ce8f8	-0.06880373
243	0xbdb4f265	-0.088352956
244	0x3daf78ab	0.085679375
245	0x3d221b45	0.039576788
246	0x3e50adcf	0.20378803
247	0xbd2d8643	-0.04236437
248	0x3e19b1ae	0.15009186
249	0x3eb665d2	0.35624558
250	0x3e5a4ea9	0.21319069
251	0xbd6f52de	-0.058428638
252	0xbdff4277	-0.12463849
253	0x3c08bb86	0.00834549
254	0x3d445fa7	0.047942784
255	0x3e3a01c1	0.18164732

base_pointnet.conv_2.bias f4 [64]
0	0x3c3cbb57	0.011519275
1	0xbddfeb99	-0.109336086
2	0x3e4557b4	0.19271737
3	0x3bd1ba2d	0.0064003677
4	0xbe276a01	-0.16349031
5	0x3d6cdaa3	0.057825696
6	0x3d1e6f75	0.038680512
7	0xbd5eec19	-0.05442438
8	0xbc12d375	-0.008961548
9	0x3d5abda3	0.053403508
10	0xbdb24678	-0.08704847
11	0x3deb0d3c	0.11477134
12	0xbde46518	-0.111520946
13	0xbc19ec9d	-0.009394792
14	0xb9a766a7	-0.00031929204
15	0x3df790f9	0.12088198
16	0xbdd7bd4e	-0.10534154
17	0xbd4d1dc6	-0.050077222
18	0x3c819771	0.015819283
19	0x3dbc3803	0.09190371
20	0xbce353bd	-0.02774989
21	0xbe274b38	-0.16337287
22	0x3dd784cb	0.10523375
23	0x3cf612f0	0.030038327
24	0x3ddce377	0.10785573
25	0x3d545e79	0.05184791
26	0xbb7a7ccb	-0.0038221355
27	0xbdd23826	-0.10264616
28	0x3d35b4c4	0.044361845
29	0xbd10cf5f	-0.035354014
30	0x3ca0e0a5	0.019638369
31	0xbce23fc6	-0.0276183
32	0xbd4fdc4f	-0.050747212
33	0x3d510603	0.051031124
34	0x3c46042b	0.012085955
35	0x3da2d911	0.079515584
36	0x3d5f90d9	0.054581497
37	0x3da50d47	0.08059173
38	0xbe0ba52f	-0.13637231
39	0x3e24c10b	0.16089265
40	0xbe2697fe	-0.16268918
41	0xbd9348c6	-0.07191615
42	0x3c8cbc0e	0.017179515
43	0xbd2fc79d	-0.042914975
44	0xbd4de6ca	-0.050268926
45	0x3da4458f	0.0802108
46	0xbd38c84a	-0.045112886
47	0x3b02f816	0.0019984297
48	0x3dd13bc4	0.102164775
49	0xbda48997	-0.08034056
50	0x3d48873f	0.048957106
51	0xbd96adbc	-0.07357356
52	0x3c943e83	0.018096214
53	0x3cbc797e	0.02300715
54	0x3db78151	0.08960212
55	0xbe08f0ec	-0.13373154
56	0xbd046d47	-0.032330777
57	0x3cc55125	0.024086544
58	0x3d246519	0.040135477
59	0x3db7c23e	0.08972596
60	0x3dbc8880	0.09205723
61	0x3d44137d	0.047870148
62	0x3d643491	0.055714194
63	0xbaf05fdc	-0.0018339115

base_pointnet.bn_1.weight f4 [64]
0	0x3f847921	1.0349466
1	0x3f834aae	1.0257165
2	0x3f7b1d6f	0.9809179
3	0x3f575e11	0.8412791
4	0x3f41cc68	0.75702524
5	0x3f864543	1.0489887
6	0x3f370c01	0.7150269
7	0x3f732717	0.9498152
8	0x3f4fb64d	0.81137544
9	0x3f779ba3	0.9672186
10	0x3f7b6d2a	0.98213446
11	0x3f8068ef	1.0032023
12	0x3f5555a3	0.83333796
13	0x3f459512	0.7718059
14	0x3f8997ff	1.074951
15	0x3f4df4af	0.8045148
16	0x3f895710	1.0729694
17	0x3f73dc61	0.95258147
18	0x3f7d0305	0.9883273
19	0x3f99a53a	1.2003548
20	0x3f82823c	1.0195994
21	0x3f6bbebb	0.92087907
22	0x3f63f2b5	0.89042217
23	0x3f9c00dc	1.2187762
24	0x3f8a9cf6	1.0829151
25	0x3f8e2549	1.1105129
26	0x3f795802	0.97399914
27	0x3f58a420	0.84625435
28	0x3f96d208	1.1782846
29	0x3f806fba	1.0034096
30	0x3fa10739	1.2580329
31	0x3f68f213	0.90994376
32	0x3f5b59a1	0.8568364
33	0x3f6d2437	0.92633384
34	0x3f614af7	0.8800501
35	0x3f8add1f	1.0848731
36	0x3f43f8f7	0.76551765
37	0x3f6418da	0.8910042
38	0x3f6e8e09	0.9318548
39	0x3f481463	0.7815611
40	0x3f09c0cc	0.5380981
41	0x3f8b91cf	1.0903872
42	0x3f62f9de	0.8866252
43	0x3f221287	0.6330952
44	0x3f32f78a	0.69908965
45	0x3f9628ab	1.1731161
46	0x3f59a486	0.8501667
47	0x3f6f9826	0.93591535
48	0x3f7eab17	0.9947981
49	0x3f544802	0.82922375
50	0x3f8c0027	1.0937546
51	0x3f839190	1.0278797
52	0x3f576162	0.8413297
53	0x3f82444d	1.0177094
54	0x3f67dedd	0.9057444
55	0x3f351a0b	0.70742863
56	0x3f866c82	1.0501864
57	0x3f3adb29	0.7299066
58	0x3f486c9c	0.78290725
59	0x3fc1c74e	1.5138948
60	0x3f51bc1e	0.8192767
61	0x3f82ff6c	1.0234199
62	0x3f7cdb45	0.9877208
63	0x3f352a0a	0.7076727

base_pointnet.bn_1.bias f4 [64]
0	0x3de5fcce	0.11229859
1	0x3d6a6df1	0.057233755
2	0xbeb127ae	-0.34600586
3	0xbe1e3c3b	-0.15452664
4	0x3d2a48c1	0.04157329
5	0x3ccd5e8b	0.025069496
6	0xbe848487	-0.2588236
7	0xbdcae8d1	-0.099076875
8	0xbc6fdba7	-0.014639772
9	0xbee25b6c	-0.44210374
10	0xbe3ca90f	-0.18423866
11	0xbec91a18	-0.3927772
12	0x3e740fb4	0.23834115
13	0xbcc9218b	-0.024552127
14	0xbe54477b	-0.20730393
15	0xbe6fcdd0	-0.23418355
16	0xbe4110a5	-0.18854006
17	0xbe477c2d	-0.19480963
18	0x3cf213db	0.029550483
19	0xbf2e9c86	-0.68207586
20	0xbe451bff	-0.19248961
21	0x3e4de1bd	0.20105644
22	0xbda5cbe2	-0.08095528
23	0xbe96f5ce	-0.2948441
24	0xbe690d19	-0.22758903
25	0x3ec929a0	0.3928957
26	0xbe50d9bd	-0.2039556
27	0xbeea5cc4	-0.457739
28	0xbf092dee	-0.5358571
29	0xbda06c64	-0.07833174
30	0xbf1f5e78	-0.6225352
31	0xbd529772	-0.05141396
32	0xbd6d2b2c	-0.0579025
33	0xbe22bd57	-0.1589254
34	0xbe69a269	-0.22815861
35	0xbeef542e	-0.46743912
36	0x3e56508d	0.20929165
37	0x3e12a796	0.14321741
38	0xbe72696f	-0.23673032
39	0x39915dc2	0.0002772641
40	0xbe34f638	-0.1767205
41	0x3d9d00f4	0.076661974
42	0x3d637c43	0.055538427
43	0x3e2d7da4	0.1694246
44	0x3e1626a7	0.14663182
45	0xbea0b619	-0.3138893
46	0x3d1e728e	0.038683467
47	0x3e81307e	0.2523231
48	0xbbac2e94	-0.005254576
49	0xbe072e09	-0.13201155
50	0x3e9b18bf	0.30292317
51	0xbea569e2	-0.32307345
52	0xbe420288	-0.18946278
53	0xbebd0a32	-0.3692184
54	0xbdf03951	-0.11729682
55	0xb9a741fd	-0.00031901887
56	0xbf00c217	-0.5029616
57	0xbe0900b4	-0.13379174
58	0xbdb70ce5	-0.08938006
59	0xbd1b3cb1	-0.037899677
60	0x3d60097d	0.05469655
61	0xbd834f8b	-0.06411656
62	0xbeb29bfc	-0.34884632
63	0xbda984b5	-0.08277265

base_pointnet.bn_1.running_mean f4 [64]
0	0xc0188645	-2.3831952
1	0xc107edc2	-8.495546
2	0xc15faca4	-13.979649
3	0xc198d7cb	-19.105368
4	0x40756071	3.8340113
5	0x3f266894	0.65003324
6	0x410c88b3	8.783374
7	0xc06bcc82	-3.6843572
8	0xc15b2f29	-13.699014
9	0xc0995452	-4.791543
10	0x3f8b4e0d	1.0883194
11	0xc0a39640	-5.112091
12	0x40d760d6	6.730571
13	0xc06a1794	-3.657689
14	0xbfac4c9d	-1.346088
15	0x413f4786	11.954962
16	0xc143d931	-12.240525
17	0xc0df9d35	-6.9879403
18	0x3c84d11d	0.016212994
19	0xc14d2771	-12.822129
20	0xbfc370ca	-1.5268795
21	0xbe470d82	-0.19438747
22	0xc04af2aa	-3.171061
23	0xc0a2a847	-5.0830417
24	0x3f308a38	0.68960905
25	0xbd049c32	-0.032375522
26	0xc0171334	-2.360547
27	0x4149be8b	12.609019
28	0xc06c5022	-3.692391
29	0xc0a94c37	-5.2905536
30	0xc0c608d6	-6.1885786
31	0xc0e61b4e	-7.190833
32	0x40de961f	6.9558253
33	0x3f663df1	0.89938265
34	0x3fa21684	1.2663121
35	0xc10a4622	-8.642122
36	0xbf9eb416	-1.2398708
37	0xc02f9c69	-2.7439215
38	0xc105c88d	-8.361463
39	0xbe0936be	-0.13399789
40	0x41d9a8eb	27.20748
41	0x3f044c3b	0.5167882
42	0x3fe3fe4b	1.7811979
43	0x414d5d3b	12.835261
44	0x4020c12f	2.511791
45	0xbfac0c4a	-1.344125
46	0x401afe0e	2.4217563
47	0x3ebb0182	0.36524588
48	0x403d7677	2.9603555
49	0x415f63f2	13.961901
50	0x3f2d6111	0.67726237
51	0xc10c9f5e	-8.788908
52	0xc12e3e51	-10.890214
53	0xc06b449f	-3.6760633
54	0xbe80a12e	-0.2512297
55	0x3c2d31fe	0.010571001
56	0xc11314c0	-9.192566
57	0x41899b03	17.20069
58	0xc11a7810	-9.654312
59	0xbe639e07	-0.22228251
60	0x3f251b54	0.64494824
61	0xbdca176a	-0.09867747
62	0x40d67902	6.7022715
63	0x41495414	12.583027

base_pointnet.bn_1.running_var f4 [64]
0	0x41b2db03	22.35694
1	0x429a3442	77.102066
2	0x43276a85	167.41609
3	0x43853c56	266.47137
4	0x431f5d3c	159.3642
5	0x415ad6b5	13.677419
6	0x4334e65a	180.89981
7	0x41fdcd29	31.725176
8	0x439e5c0a	316.71906
9	0x42590b02	54.26075
10	0x40912e38	4.536892
11	0x42a0f974	80.48721
12	0x435cb464	220.70465
13	0x4304bb19	132.73085
14	0x40ec6190	7.3869095
15	0x431206aa	146.02603
16	0x43261aec	166.10516
17	0x434de0e4	205.87848
18	0x43509cac	208.612
19	0x43693787	233.2169
20	0x4201cad5	32.44808
21	0x42b432ac	90.09897
22	0x412a6047	10.648505
23	0x42adaa87	86.83306
24	0x3fd3c19f	1.6543463
25	0x4021e387	2.5295122
26	0x42058486	33.379417
27	0x42ed9678	118.793884
28	0x41ac66ac	21.550133
29	0x41ac918d	21.57107
30	0x422e76be	43.61596
31	0x42ba68fa	93.20503
32	0x42b0294a	88.08064
33	0x420a4727	34.569485
34	0x422d1fbd	43.280994
35	0x4312ab6c	146.66962
36	0x439f59b5	318.70084
37	0x40fc7b12	7.890023
38	0x4321876c	161.52899
39	0x42cff01f	103.96899
40	0x4402024d	520.03595
41	0x401c7cc5	2.4451153
42	0x430f58c2	143.34671
43	0x431db7d5	157.7181
44	0x4299dc7d	76.93064
45	0x4190dd86	18.108166
46	0x41e5f639	28.745226
47	0x4291bd3e	72.86961
48	0x418cbb79	17.59154
49	0x4329eb33	169.91875
50	0x408483db	4.1410956
51	0x42f902dd	124.50559
52	0x439bb0c8	311.3811
53	0x428c6310	70.19348
54	0x42c14cd2	96.65004
55	0x43396f27	185.43419
56	0x43121531	146.08278
57	0x4375a506	245.64462
58	0x429b4a19	77.64472
59	0x4015c2fa	2.3400254
60	0x42ae4472	87.13368
61	0x42ca17de	101.046616
62	0x4350a2be	208.63571
63	0x4368537a	232.32608

base_pointnet.bn_2.weight f4 [64]
0	0x3fd814a9	1.6881305
1	0x3fad2ae6	1.3528717
2	0x3f9e4a15	1.2366358
3	0x3fa70db5	1.3051058
4	0x3fb9ed04	1.4525456
5	0x3f8e8131	1.1133176
6	0x3fbc5538	1.4713507
7	0x3fa5a27f	1.2940215
8	0x3f922c4c	1.1419768
9	0x3f9bab59	1.2161666
10	0x3fac2a53	1.3450416
11	0x3f930516	1.1485927
12	0x3f96a2bb	1.1768411
13	0x3f98a1f3	1.1924423
14	0x3f898a4d	1.0745331
15	0x3fe11914	1.7585778
16	0x3fa9b533	1.3258423
17	0x3fa1f6c3	1.2653431
18	0x3f9f9f68	1.2470522
19	0x3fc53ec6	1.5409782
20	0x3fa21006	1.266114
21	0x3f9b8103	1.2148746
22	0x3f9e559b	1.2369875
23	0x3f8d9996	1.1062496
24	0x3fa27b9b	1.2693971
25	0x3f9245a4	1.1427503
26	0x3f9a5c23	1.2059368
27	0x3f9ecf1b	1.2406954
28	0x3f9b4756	1.2131145
29	0x3f96b1d2	1.1773016
30	0x3f882ed8	1.0639296
31	0x3fa006a5	1.2502028
32	0x3f8fb150	1.1225986
33	0x3f898b67	1.0745667
34	0x3f9f85ed	1.2462746
35	0x3fc295f8	1.5202017
36	0x3f878746	1.0588157
37	0x3fc91bab	1.5711569
38	0x3fa9a077	1.3252095
39	0x3fb7d27b	1.4361109
40	0x3f9ccc55	1.2249857
41	0x3fa2723e	1.2691114
42	0x3fada610	1.3566303
43	0x3fc90997	1.5706052
44	0x3f909fb9	1.1298743
45	0x3f916015	1.1357447
46	0x3f98e127	1.1943711
47	0x3fa757b4	1.307364
48	0x3fcc391b	1.5954927
49	0x3f9fbd0d	1.2479569
50	0x3f9e2cb5	1.2357394
51	0x3f8a9fc0	1.0830002
52	0x3fa40ade	1.2815816
53	0x3fa4664a	1.2843716
54	0x3f94ec63	1.163464
55	0x3fb4f040	1.4135818
56	0x3fb4e149	1.4131252
57	0x3f91353e	1.1344373
58	0x3fab5cea	1.338773
59	0x3f8f2c72	1.1185439
60	0x3fbdbe32	1.4823668
61	0x3f957692	1.167681
62	0x3fc16333	1.5108398
63	0x3f9fdc2f	1.248907

base_pointnet.bn_2.bias f4 [64]
0	0x3ee115d4	0.43961966
1	0xbd8a814e	-0.06762944
2	0x3e0ea595	0.13930352
3	0x3e1b0f11	0.15142466
4	0x3c14259c	0.00904217
5	0x3d550012	0.05200202
6	0xbdfd8769	-0.12379343
7	0xbcdc5546	-0.02689613
8	0x3e337062	0.1752334
9	0x3d94967c	0.07255265
10	0x3ca524ac	0.020159088
11	0x3df1451c	0.1178076
12	0x3e60672e	0.2191436
13	0x3e578209	0.21045698
14	0xbeb40c77	-0.3516576
15	0xbd9189f2	-0.07106389
16	0x3d144a06	0.036203407
17	0xbd06c7f6	-0.03290554
18	0x3e92620b	0.28590426
19	0x3c5a14b2	0.013310598
20	0xbdd071c9	-0.10177953
21	0x3c5146b4	0.012773205
22	0xbe4b078e	-0.198271
23	0x3e2f2816	0.17105135
24	0xbcf5729e	-0.02996188
25	0xbdfce2fd	-0.12347982
26	0xbe08851c	-0.13332027
27	0x3e1c7758	0.15279901
28	0xbdf33ced	-0.11876855
29	0xbd066825	-0.032814164
30	0xbd0155d2	-0.031575985
31	0xbeab693a	-0.3347872
32	0x3cfdac36	0.030965906
33	0x3cb110d5	0.021614471
34	0x3e7af0b8	0.2450589
35	0xbdbcdc82	-0.09221746
36	0x3d52b8b4	0.051445678
37	0xbc69e96b	-0.014276843
38	0x3d191144	0.03736998
39	0xbd5a62a5	-0.05331673
40	0x3dc572e6	0.09641056
41	0xbdd80d99	-0.105494685
42	0x3e89d529	0.2692044
43	0xbe06e68b	-0.13173883
44	0x3e29a2c8	0.16566002
45	0x3dee4c52	0.11635651
46	0xbdb48a9b	-0.088154994
47	0x3e5149b0	0.20438266
48	0xbe1dfb14	-0.1542781
49	0x3d838c92	0.06423296
50	0xbc9b8426	-0.018983912
51	0xbd9c67bb	-0.076369725
52	0x3e087b9c	0.13328403
53	0x3e46f065	0.1942764
54	0x3de41b3f	0.11138009
55	0xbc2014c0	-0.009770572
56	0x3dcd1a5b	0.100147925
57	0x3ccea1b3	0.025223589
58	0x3e2fa251	0.17151763
59	0x3e109e20	0.1412282
60	0xbd533b7e	-0.051570408
61	0x3e745237	0.23859487
62	0x3d869d74	0.065730006
63	0xbe18452a	-0.14870134

base_pointnet.bn_2.running_mean f4 [64]
0	0x3f752cec	0.9577167
1	0x3e4c185c	0.19931167
2	0x3e3fabe4	0.18717915
3	0x3ec31dfa	0.38108808
4	0xbf3db5e9	-0.741057
5	0xbeb28b01	-0.34871677
6	0x3c1feb46	0.009760683
7	0xbe3d708e	-0.18499967
8	0x3eba3d50	0.36374903
9	0x3f21b68c	0.6316917
10	0xbf1d28dd	-0.6139048
11	0xbe552803	-0.20816045
12	0xbf2dfb47	-0.67961544
13	0xbc8f03f7	-0.017457945
14	0x3e4ac683	0.19802289
15	0x3ec197fc	0.37811267
16	0x3ea55a36	0.32295388
17	0xbee08ea9	-0.4385884
18	0x3b9a504c	0.004709279
19	0x3f886a72	1.0657485
20	0x3ec2e1a4	0.38062775
21	0xbec69554	-0.38785803
22	0x3e74dffe	0.23913571
23	0xbeb3cf54	-0.35119116
24	0xbcb3ec76	-0.02196334
25	0x3e95bc0d	0.29245034
26	0x3e681fa6	0.22668323
27	0xbd83e8d6	-0.06440894
28	0x3eac65cb	0.33671412
29	0xbd8acc29	-0.06777222
30	0x3df6470f	0.12025272
31	0xbdfd5238	-0.123691976
32	0x3d945576	0.07242863
33	0xbd9e57b1	-0.077315696
34	0xbd99e06f	-0.075135104
35	0x3e6907d1	0.22756888
36	0xbeae4a4a	-0.34041053
37	0xbe7a4c64	-0.24443203
38	0x3def2bb4	0.116782576
39	0x3ef2feeb	0.47460112
40	0xbe309289	-0.17243399
41	0xbe873a50	-0.26411676
42	0xbe21ea36	-0.15812
43	0xbeb68059	-0.35644796
44	0x3eb84af2	0.3599468
45	0xbebb4770	-0.3657794
46	0x3ef06168	0.46949315
47	0xbb89d2a4	-0.0042060185
48	0xbe043b36	-0.12913212
49	0x3daf19dd	0.08549855
50	0x3dc2375c	0.09483215
51	0xbefebeed	-0.4975504
52	0xbe6e9711	-0.23299815
53	0x3d9429c3	0.07234528
54	0xbd963745	-0.073347606
55	0x3ef49a1a	0.4777382
56	0xbf36c4d3	-0.7139408
57	0xbf2b9652	-0.67026246
58	0xbeb3c7b0	-0.35113287
59	0xbeae6f16	-0.34069127
60	0xbdb477b5	-0.08811895
61	0xbf5ea836	-0.8697542
62	0xbd240462	-0.040043242
63	0xbf011ab6	-0.5043138

base_pointnet.bn_2.running_var f4 [64]
0	0x3f893a5d	1.0720936
1	0x3da3e486	0.08002572
2	0x3daa80b8	0.083253324
3	0x3e73d00b	0.23809831
4	0x3df9c977	0.121966295
5	0x3e1d73b1	0.15376164
6	0x3cfdf599	0.0310009
7	0x3d12e490	0.035862505
8	0x3eb969e8	0.36213613
9	0x3e8b24dd	0.27176562
10	0x3df4275b	0.11921569
11	0x3ddfb0aa	0.10922368
12	0x3ec9236e	0.39284843
13	0x3de40f36	0.11135714
14	0x3d5980e2	0.053101428
15	0x3d03599a	0.032067873
16	0x3e730676	0.23732933
17	0x3d904e00	0.07046127
18	0x3e4e9989	0.20175757
19	0x3e2516a6	0.16121921
20	0x3df6b43e	0.12046097
21	0x3dc2f870	0.09520042
22	0x3e5f7ead	0.21825667
23	0x3f1231dd	0.57107335
24	0x3dfb07d7	0.12257355
25	0x3e025ced	0.12730761
26	0x3db4be87	0.08825403
27	0x3e3b0e2e	0.18267128
28	0x3dcd8ede	0.100370154
29	0x3e83309e	0.2562303
30	0x3de1c686	0.110241935
31	0x3e6621e6	0.22473869
32	0x3f1e2b5e	0.61784923
33	0x3da0905c	0.07840034
34	0x3e741c85	0.23839004
35	0x3de787c2	0.113051906
36	0x3e1ef483	0.15522961
37	0x3d94d9d3	0.07268109
38	0x3ebfd737	0.37468883
39	0x3e42a155	0.19006856
40	0x3e0f911f	0.14020203
41	0x3e1bb9fb	0.15207665
42	0x3d2af973	0.0417418
43	0x3d0b5763	0.034018885
44	0x3e2af88d	0.16696377
45	0x3da23a58	0.079212844
46	0x3e4eed90	0.2020781
47	0x3e83494b	0.25641856
48	0x3e02de25	0.12780054
49	0x3e0455cd	0.12923355
50	0x3d50a7df	0.050941344
51	0x3e986f80	0.29772568
52	0x3e0fc0d3	0.140384
53	0x3de3f7ec	0.11131272
54	0x3d8d0285	0.06885246
55	0x3e09aeac	0.13445538
56	0x3daa6d19	0.0832159
57	0x3e027244	0.12738901
58	0x3e4c2943	0.19937615
59	0x3ed279f5	0.4110867
60	0x3d6057b7	0.05477115
61	0x3eb285fb	0.34867844
62	0x3e4fdec6	0.20299825
63	0x3ddd2cd1	0.10799564

fc_1.weight f4 [64, 66]
0	0xbed5bcc8	-0.4174559
1	0xbf550ed4	-0.8322575
2	0x3ec240c2	0.3794003
3	0xbdae2b96	-0.08504407
4	0x3e1eaaf4	0.15494901
5	0xbe4d7767	-0.2006508
6	0x3e0003fe	0.12501523
7	0x3e26c017	0.16284214
8	0xbd4e36d7	-0.050345268
9	0xbd01429f	-0.031557675
10	0x3e3ad6a9	0.18245949
11	0xbd87f7f3	-0.066390894
12	0x3dcb933b	0.09940191
13	0x3f054828	0.52063227
14	0x3df734a0	0.12070584
15	0x3e348a50	0.17630887
16	0x3cd84f9a	0.026405144
17	0x3d637123	0.055527817
18	0xbdd7d71d	-0.105390765
19	0xbf0206a2	-0.5079137
20	0x3f23b4b9	0.63947636
21	0x3de6a2ec	0.11261544
22	0xbd06862f	-0.03284281
23	0xbd960ba2	-0.073264375
24	0x3d1cd3c2	0.038287885
25	0x3dd60fae	0.104522094
26	0x3ca96d19	0.020681905
27	0x3e0062a7	0.12537633
28	0x3e148637	0.14504324
29	0xbd2365ef	-0.039892133
30	0xbdabdac9	-0.08391339
31	0x3ca42e46	0.020041596
32	0x3c1a04c7	0.009400553
33	0xbe16f181	-0.14740564
34	0x3c65c548	0.014024086
35	0xbd2ec665	-0.042669673
36	0x3e5f8df8	0.218315
37	0xbe74ab1c	-0.23893398
38	0x3d163d20	0.036679387
39	0x3e1b5dbe	0.15172479
40	0x3e33a255	0.17542394
41	0xbb5ba3c3	-0.0033514358
42	0x3e228f1f	0.15874909
43	0x3bf37a94	0.007430384
44	0xbc84786e	-0.016170707
45	0xbdae1df8	-0.0850181
46	0xbd76f3ba	-0.06029103
47	0xbdc4c4ed	-0.09607873
48	0x3dbb5a37	0.091480665
49	0x3e7e51df	0.24835919
50	0x3e55c6d7	0.20876633
51	0xbdf494fa	-0.119424775
52	0xbd68ee84	-0.05686809
53	0xbda3f182	-0.08005048
54	0xbd35f818	-0.044426054
55	0x3cffb028	0.031211928
56	0x3e3d4d25	0.1848646
57	0xbca83afe	-0.020535942
58	0xbd32d4e9	-0.04366008
59	0x3e558860	0.20852804
60	0x3e4b12b3	0.19831352
61	0x3e4c4a67	0.19950257
62	0x3d6f232b	0.05838315
63	0x3eb364f3	0.35037956
64	0xbe1ec038	-0.15503013
65	0x3b6590fa	0.003502904
66	0xbce41313	-0.027841127
67	0xbe232a93	-0.1593421
68	0xbd4970a0	-0.049179673
69	0xbd7c53ca	-0.061603345
70	0x3e0ad585	0.13558014
71	0x3e1d15a5	0.15340288
72	0x3e2df05f	0.16986226
73	0x3dabc306	0.08386807
74	0x3e14974d	0.14510842
75	0x3dae3260	0.08505702
76	0x3e1ccb69	0.1531197
77	0x3de18559	0.11011762
78	0xbca92dab	-0.020651659
79	0x3d1f2ea8	0.038862854
80	0x3ce17354	0.027520813
81	0x3e1bdef2	0.15221766
82	0xbd11f007	-0.0356293
83	0x3de6acc9	0.11263425
84	0xbc47bad9	-0.012190544
85	0x3d939199	0.07205505
86	0x3e2ae684	0.16689497
87	0xbdcf0763	-0.10108831
88	0xbd06f096	-0.032944284
89	0x3d8edf01	0.06976128
90	0x3d232afb	0.03983591
91	0x3e4b51cf	0.19855426
92	0x3e01a34c	0.12659949
93	0xbd3969b5	-0.045266826
94	0xbdae4cd4	-0.085107476
95	0x3df4dec2	0.1195655
96	0x3dace13d	0.08441398
97	0x3dc911fe	0.09817885
98	0xbdba7090	-0.09103501
99	0xbd7a6918	-0.06113538
100	0xbab2246f	-0.001359118
101	0x3e02d98e	0.12778303
102	0xbc6a9235	-0.014317085
103	0x3e054435	0.130143
104	0x3d1a157e	0.037618153
105	0x3e384188	0.17993748
106	0x3c19e276	0.009392371
107	0xbd87465a	-0.06605215
108	0x3e05bfda	0.13061467
109	0xba5e58d0	-0.0008481862
110	0x3d735a49	0.059412275
111	0x3ddfa125	0.10919408
112	0x3e186fa9	0.14886345
113	0x3e355436	0.17707905
114	0x3e1210de	0.14264247
115	0xbca07ced	-0.01959082
116	0xbd2d5eb2	-0.042326637
117	0x3c8d4f53	0.017249739
118	0x3cfb3bf0	0.030668229
119	0xbd0c2b38	-0.034220904
120	0xb823177e	-3.8884107e-05
121	0x3e5405fc	0.20705408
122	0x3cc8637e	0.024461504
123	0x3dfaf71a	0.12254162
124	0xbc92b0bd	-0.017906541
125	0xbc403aa0	-0.011732727
126	0x3dc2230e	0.094793424
127	0x3d3f2e34	0.046674922
128	0x3de52f20	0.11190629
129	0x3d88a921	0.06672884
130	0xbd0cb879	-0.034355614
131	0x3dbee051	0.09320129
132	0x3e22d4bb	0.15901463
133	0x3de4ed2e	0.11178051
134	0xbd1444c7	-0.036198404
135	0x3df9ce40	0.12197542
136	0x3d4a06e8	0.049322993
137	0x3c237ac8	0.009978004
138	0xbdac3973	-0.08409395
139	0xbdef615e	-0.11688493
140	0xbbb850d8	-0.0056248717
141	0x3c91f9ca	0.017819304
142	0xbe1b8c99	-0.15190352
143	0x3c81c969	0.01584311
144	0xbc2d9c34	-0.010596324
145	0xbe2b379f	-0.16720437
146	0xbe116176	-0.14197335
147	0xbd605a7b	-0.05477379
148	0xbd3841d2	-0.044984646
149	0xbd412572	-0.04715485
150	0xbd8f20e3	-0.069886945
151	0x3d23787f	0.039909836
152	0xbcfe5c73	-0.031049943
153	0xbcbd7912	-0.02312902
154	0xbdb41c3e	-0.08794449
155	0xbd7b9631	-0.06142253
156	0x3d8f8db1	0.07009447
157	0xbe204932	-0.15652922
158	0xbd867757	-0.06565731
159	0x3d02a6f2	0.031897493
160	0x3dac1d4f	0.08404028
161	0xbe229474	-0.15876943
162	0x3de1053e	0.10987328
163	0xbd71dac1	-0.05904651
164	0xbd906796	-0.070510074
165	0xbd26b3f3	-0.040698957
166	0x3d392449	0.04520062
167	0x3c24356c	0.010022502
168	0x3d5b90b5	0.0536048
169	0x3ccb17f3	0.024791693
170	0x3bb98c47	0.0056624743
171	0x3d15904c	0.036514565
172	0xbe11c3a2	-0.14234784
173	0xbd7e680c	-0.062110946
174	0x3d845ccd	0.06463013
175	0xbd64b4c3	-0.05583645
176	0x3ca09219	0.019600915
177	0xbd77c743	-0.060492765
178	0x3d941a7b	0.07231613
179	0xbe259cce	-0.16173097
180	0x3af12194	0.0018396848
181	0xbc18d532	-0.0093281735
182	0x3deed49e	0.11661647
183	0x3de2d1d6	0.11075179
184	0x3d65d9a5	0.056115765
185	0x3d84b876	0.06480496
186	0x3dd1a17a	0.10235877
187	0xbce87365	-0.028375337
188	0xbdf9222d	-0.12164722
189	0xbda7d132	-0.08194198
190	0xbde86a21	-0.113483675
191	0xbdc7f9c3	-0.09764435
192	0xbdc9e4bc	-0.09858081
193	0x3cfeea42	0.031117562
194	0x3df43171	0.11923493
195	0x3dc7071b	0.09718152
196	0x3d84091b	0.06447049
197	0x3e05003f	0.12988375
198	0x3ce7ae33	0.028281307
199	0xc00f2b7a	-2.2370286
200	0xbe9b7949	-0.3036597
201	0xbcf4e402	-0.029893879
202	0xbdc335b7	-0.0953173
203	0xbd94f0c6	-0.072724864
204	0xbd2e2e71	-0.04252476
205	0x3e783775	0.24239905
206	0xbe1d1cb5	-0.15342982
207	0x3e4ce0e2	0.20007661
208	0x3dec69c0	0.11543608
209	0xbe705513	-0.23469953
210	0xbdef1e87	-0.116757445
211	0x3d0e2290	0.03470093
212	0xbcbf6b1a	-0.0233665
213	0x3e415adf	0.18882321
214	0x3e6a48ef	0.22879384
215	0xbe93ebf1	-0.28890947
216	0x3a4ccef3	0.000781282
217	0xbdb7eb8d	-0.089804746
218	0xbdd2f522	-0.103006616
219	0xbe3e9566	-0.18611678
220	0xbe299dbd	-0.16564079
221	0x3d767d57	0.060178127
222	0x3d41f167	0.04734936
223	0x3d83a16f	0.064272754
224	0x3d20700f	0.039169367
225	0xbc327046	-0.010891026
226	0xbd608f71	-0.054824296
227	0x3d3f6575	0.046727616
228	0x3dd7c0d3	0.10534825
229	0x3e08e7bc	0.1336965
230	0x3da369cb	0.07979163
231	0x3e437ff0	0.19091773
232	0x3dda139a	0.1064827
233	0x3666af80	3.4374825e-06
234	0xbd2aafa4	-0.04167141
235	0x3ea21011	0.31652883
236	0x3d7caa1e	0.061685674
237	0x3e87b4b4	0.26505053
238	0x3e5bcdbc	0.214652
239	0x3d2dc1f0	0.04242128
240	0x3e904f6c	0.28185594
241	0xbe2cd413	-0.16877775
242	0x3df28186	0.11841111
243	0xbeba6adb	-0.3640965
244	0x3ea09037	0.31360027
245	0x3e2790ac	0.16363782
246	0x3e2c6a7e	0.16837499
247	0xbe72c7d8	-0.23709047
248	0xbe5d91e5	-0.21637686
249	0xbc200c3c	-0.009768542
250	0xbe8f4128	-0.27979398
251	0xbdc1b66e	-0.09458624
252	0x3e4c6d7c	0.1996364
253	0x3e36d8bf	0.1785612
254	0x3df027d6	0.11726348
255	0xbdfac28e	-0.122441396

fc_1.bias f4 [64]
0	0x3e947d98	0.2900207
1	0x3e43c2d9	0.19117297
2	0xbcd4b589	-0.025965469
3	0x3dca6be0	0.09883857
4	0xbd26235f	-0.040561076
5	0x3dbc4866	0.091934964
6	0xbd20dd49	-0.039273534
7	0x3ec8b35c	0.3919934
8	0xbd9e13b2	-0.077186
9	0x3c9d3545	0.01919044
10	0x3e168ef9	0.14702977
11	0xbe1a565d	-0.15072007
12	0x3df7d07a	0.121003106
13	0xbd7a7aaa	-0.061152138
14	0x3d14ab6f	0.036296304
15	0xbdd347e1	-0.10316444
16	0xbdc87964	-0.097887784
17	0xbd954abc	-0.07289645
18	0xbe567ebb	-0.20946781
19	0xbe3379b6	-0.17526898
20	0x3c8d9691	0.01728371
21	0xbcfb3d87	-0.030668987
22	0xbe294f8d	-0.16534252
23	0x3d81bee6	0.06335239
24	0x3d3120bc	0.04324411
25	0xbe910b40	-0.28328896
26	0xbe18a3db	-0.14906256
27	0x3c06fff5	0.008239736
28	0xbdc0a535	-0.09406511
29	0x3d8d69d6	0.06904952
30	0x3e3b108f	0.18268035
31	0xbe096d42	-0.13420585
32	0x3de5bee2	0.11218049
33	0xbe93beb8	-0.28856444
34	0x3dfe3304	0.12412074
35	0xbd8a3f05	-0.06750301
36	0xbdbbe8db	-0.09175273
37	0x3dc4b931	0.09605635
38	0xbe128d0f	-0.14311622
39	0x3e82c7ca	0.25543052
40	0x3e89d123	0.2691737
41	0xbc4be454	-0.012444574
42	0x3e2c2a91	0.16813113
43	0x3ce0a252	0.02742115
44	0xbd7cd2a5	-0.061724324
45	0x3e247acf	0.16062473
46	0x3e4d965b	0.20076887
47	0xbe54ee67	-0.20794068
48	0xbde8ce28	-0.11367446
49	0xbde91928	-0.11381751
50	0x3d378cee	0.044812135
51	0x3e4e8f1c	0.2017178
52	0x39f5c1ee	0.0004687453
53	0x3d3c9d8e	0.046048693
54	0xbd7b620b	-0.061372798
55	0x3d77adaf	0.060468372
56	0xbe447a8b	-0.19187371
57	0x3dd0fdcc	0.10204658
58	0x3d165226	0.036699437
59	0xbe11b090	-0.1422751
60	0xbd615f4c	-0.055022523
61	0x3da66597	0.081248455
62	0xbdded248	-0.10879952
63	0x3ddec761	0.10877872

fc_2.weight f4 [3, 64]
0	0x3f86b1be	1.0522993
1	0xbde8d4f8	-0.113687456
2	0x3e0c5618	0.13704717
3	0x3f88c1eb	1.0684179
4	0x3d169299	0.0367609
5	0x3a0dbf6b	0.00054072466
6	0x3e8b056b	0.2715257
7	0x3e9441c6	0.2895643
8	0xbddd53a4	-0.10806969
9	0xbdf59a62	-0.11992337
10	0x3ec8bbf1	0.39205888
11	0x3e7ebc48	0.24876511
12	0xbe4cba13	-0.19992857
13	0xbfb37a60	-1.4021721
14	0xc0056e6e	-2.084865
15	0x3f66a45a	0.9009453
16	0x3f849f53	1.0361122
17	0x3e17e794	0.14834434
18	0x3f1d3ea6	0.6142372
19	0x3d01191d	0.03151809
20	0xbddeb8ac	-0.10875067
21	0xbd72250b	-0.05911736
22	0x3e576583	0.21034817
23	0xbe5193ec	-0.20466584
24	0x3f61999b	0.8812501
25	0xbc80e799	-0.015735434
26	0x3e72950f	0.23689674
27	0x3d9c0cc1	0.0761962
28	0xbc759d40	-0.014991105
29	0xbe6df57a	-0.23238173
30	0x3c80fc32	0.015745256
31	0x3fe3f833	1.7810119
32	0xbdf1b13d	-0.11801384
33	0x3e3081ec	0.17237061
34	0xbd659da6	-0.05605855
35	0xbdd1f7c0	-0.10252333
36	0xc0635d99	-3.5525877
37	0x3f14f5fd	0.5818785
38	0x3ec9df1c	0.3942803
39	0xbd5afdb9	-0.053464625
40	0x3d15e9e8	0.036600024
41	0x3e95baba	0.29244024
42	0xbe2deddb	-0.16985266
43	0x3f38244a	0.7193037
44	0x3e1e0511	0.1543162
45	0x3fed385e	1.8532827
46	0x40334ad4	2.8014421
47	0x3e2bb5f7	0.16768633
48	0xc02b8ce2	-2.6804738
49	0x3ebbdc33	0.36691436
50	0x3f6582a8	0.8965249
51	0x40116774	2.2719393
52	0xc02bdec2	-2.685471
53	0xbcfb052c	-0.030642115
54	0xbf1390a8	-0.576426
55	0xbf624a48	-0.88394594
56	0x3e8172cb	0.25282893
57	0x3fb86951	1.440714
58	0xbdc13070	-0.09433067
59	0x3fe9c38f	1.8262805
60	0xbf8c5ac2	-1.0965197
61	0xbf5f1a01	-0.87149054
62	0x3eb220e4	0.3479072
63	0xbc2f8fc7	-0.0107154315
64	0x3eabfe94	0.33592665
65	0x3cbe013b	0.023193946
66	0xbd49cc84	-0.049267307
67	0xc05f6ab3	-3.4908874
68	0xbd3947b1	-0.045234386
69	0xbdbc4626	-0.09193067
70	0xbf4a7be2	-0.7909528
71	0x3f95f0e9	1.1714145
72	0x3e6a4cb3	0.22880821
73	0x3cdc6e12	0.026907954
74	0x3ff40982	1.9065402
75	0xbda79bbb	-0.08184
76	0xbb91cc37	-0.004449393
77	0x3f487657	0.7830557
78	0x3f6bc5b2	0.92098534
79	0xbf8e2c17	-1.1107205
80	0x3f6f2e11	0.93429667
81	0xbe12e243	-0.14344124
82	0xbf5001cb	-0.81252736
83	0x3dba83fd	0.09107206
84	0xc0649a86	-3.5719314
85	0x3ea4abe0	0.3216238
86	0xbdb713a6	-0.089392945
87	0x3d9ff3de	0.07810186
88	0xc04cea23	-3.2017906
89	0x3eb39c90	0.35080385
90	0x3dff613f	0.1246972
91	0x3deda86b	0.11604389
92	0x3dcdc9ea	0.10048278
93	0x3d8b9451	0.068153985
94	0xbcac959b	-0.021067431
95	0x408935a8	4.2878
96	0x3cc3ea76	0.02391551
97	0x3e912cf9	0.28354624
98	0x3daaf069	0.08346636
99	0xbd2b1d28	-0.041775852
100	0x3ef83df8	0.48484778
101	0x3f9d7d46	1.2303855
102	0xbe2ca4ce	-0.16859743
103	0xbdae6037	-0.08514445
104	0xbeabdf9c	-0.33569038
105	0xbe5ecd40	-0.21757984
106	0x3d8f0add	0.06984494
107	0xbecbf16c	-0.39832628
108	0xbd526243	-0.05136324
109	0xbfdc2bc2	-1.7200854
110	0xc032f6d5	-2.7963154
111	0x3d9c296f	0.0762509
112	0x400bffe3	2.187493
113	0xbe41e8e4	-0.18936497
114	0xbe4484b6	-0.1919125
115	0xbf43cb41	-0.76482016
116	0x403a3b44	2.9098673
117	0x3d0b05bb	0.033941012
118	0x3f876948	1.0579004
119	0xbe6ec1e5	-0.23316152
120	0xbea5e312	-0.32399803
121	0x3c29ce39	0.010364109
122	0xbc4df752	-0.012571173
123	0x3f8b07e3	1.0861782
124	0xbf12cdcd	-0.5734528
125	0xbf8e39db	-1.1111406
126	0x3e36669c	0.1781258
127	0xbcc226db	-0.023700168
128	0xc06304f4	-3.5471773
129	0x3dcf07d8	0.10108918
130	0xbe377d3d	-0.17918868
131	0x3fbeb51c	1.489902
132	0xbcf21700	-0.029551983
133	0x3d6f553a	0.058430888
134	0x3da39740	0.07987833
135	0xc0317219	-2.772589
136	0xbd2e8027	-0.042602684
137	0x3bd8e3d3	0.0066189556
138	0xbf97568d	-1.1823288
139	0xbe0815d1	-0.13289572
140	0x3e28f964	0.16501385
141	0x3f894841	1.0725175
142	0x3f9d3e15	1.2284571
143	0x3e52fed4	0.20605022
144	0xbf789a23	-0.97110194
145	0xbe492ce5	-0.19646032
146	0xbe171333	-0.14753418
147	0xbe51fa30	-0.20505595
148	0x403035db	2.753287
149	0xbe12d6eb	-0.14339797
150	0xbe5f7fe7	-0.21826135
151	0x3cf8276b	0.030292233
152	0x3f5eaa17	0.86978287
153	0xbe0c4653	-0.13698702
154	0xbe739753	-0.23788194
155	0xbdbaf1b5	-0.09128133
156	0x3dac3da0	0.084101915
157	0x3e1374a0	0.14399958
158	0x3d4a9656	0.049459778
159	0xbfc7057a	-1.5548546
160	0x3c88bd22	0.016691748
161	0xbdd52de6	-0.10409145
162	0x3d215874	0.039390996
163	0xbda119ac	-0.07866225
164	0x404c6dcb	3.1942012
165	0xbfad0e55	-1.3519999
166	0xbe8b8974	-0.27253306
167	0x3db66f24	0.08907917
168	0x3e937ad7	0.28804657
169	0xbd4c9cd6	-0.049954258
170	0x3d336996	0.043801866
171	0xbe5d19b7	-0.2159184
172	0xbe9abf7d	-0.3022422
173	0xbf107f99	-0.564447
174	0xbe20f50e	-0.15718481
175	0xbe0c818d	-0.13721295
176	0x3fac00fd	1.3437802
177	0xbe6660ef	-0.22497915
178	0xbf2615f6	-0.6487726
179	0xc00e0452	-2.2190137
180	0x3f4a05a0	0.78914833
181	0xbd85c2c7	-0.065312915
182	0x3ee26416	0.44216985
183	0x3f6b8d26	0.9201225
184	0xbe331579	-0.1748866
185	0xbfbc03e9	-1.4688693
186	0xbd9739be	-0.0738406
187	0xc046974d	-3.1029847
188	0x3f8d1d35	1.1024538
189	0x3fe1673d	1.7609631
190	0xbe2146fc	-0.15749735
191	0xbd323cd3	-0.043515038

fc_2.bias f4 [3]
0	0xbe735426	-0.23762569
1	0xbdfb9cef	-0.12285792
2	0x3daede18	0.08538455
