Additional stuff/segmentation_pointnet_P7ds.pth (torch, 78882 bytes, 18 tensors)

base_pointnet.conv_1_a.weight f4 [64, 1, 3]
0	0xbed2bd1a	-0.41159898
1	0x3ee3cd0a	0.4449237
2	0xbdbb14ae	-0.09134804
3	0xbf043c76	-0.51654756
4	0x3ee8dbc9	0.45480183
5	0xbdb01fa4	-0.08599785
6	0x3f03edd0	0.5153475
7	0x3e9fec47	0.31234953
8	0x3e82039e	0.25393385
9	0x3deb5152	0.1149012
10	0xbec5bb19	-0.38619307
11	0x3ea09a14	0.31367552
12	0xbe8b250f	-0.2717671
13	0xbf12e5db	-0.5738198
14	0x3db17262	0.08664395
15	0xbca3b209	-0.019982355
16	0x3d166fdb	0.036727767
17	0xbc17b598	-0.009259604
18	0xbe33d0e5	-0.17560156
19	0xbedaa1f7	-0.42701694
20	0x3e8b4b76	0.2720601
21	0x3da1a080	0.07891941
22	0xbe22b1d9	-0.15888156
23	0xbe7eaaa7	-0.24869786
24	0xbf0395d2	-0.5140048
25	0x3d573e11	0.052549426
26	0xbea07ef9	-0.31346872
27	0x3eb3da92	0.35127693
28	0x3e248715	0.16067155
29	0xbed7087d	-0.41998664
30	0x3ea1dd93	0.3161436
31	0xbecb65d9	-0.3972614
32	0xbea98489	-0.3310893
33	0x3e20833a	0.15675059
34	0xbe9437a7	-0.2894871
35	0xbc2127b2	-0.009836124
36	0x3ebba141	0.36646464
37	0x3e46a1bd	0.19397636
38	0xbee87663	-0.45402822
39	0xbeb98cb4	-0.3624016
40	0xbe863a93	-0.26216564
41	0xbd964a6a	-0.07338412
42	0x3e859b9e	0.2609529
43	0x3ec4ce78	0.38438773
44	0xbe433abd	-0.19065376
45	0x3e53af49	0.20672335
46	0x3c9cb8c6	0.019131076
47	0xbf13a7e5	-0.5767806
48	0x3eac389a	0.33636934
49	0xbf0e384d	-0.5555466
50	0x3ed850d1	0.42249158
51	0xbeb24007	-0.34814474
52	0x3e8d51c9	0.2760146
53	0xbe2604de	-0.16212794
54	0xbed12d94	-0.40855086
55	0xbea5d3d7	-0.32388183
56	0x3e4364c4	0.19081408
57	0xbec95e30	-0.39329672
58	0x3eaeb6f9	0.34123972
59	0xbb95d923	-0.004573004
60	0xbd4a1c9d	-0.049343694
61	0xbdd7665b	-0.1051757
62	0x3e8e54cc	0.2779907
63	0x3e5f39d9	0.21799411
64	0xbd560648	-0.052252084
65	0xbed62caf	-0.41830966
66	0xbea873e9	-0.32900932
67	0xbd02f46f	-0.03197139
68	0x3ea6bcc4	0.32565892
69	0x3dbe236a	0.092840984
70	0xbea89922	-0.3292933
71	0x3e7e7dfd	0.24852748
72	0xbed131a8	-0.40858197
73	0x3f01a5f9	0.5064388
74	0xbd3ec2ea	-0.046572603
75	0x3ee62408	0.44949365
76	0x3d31672c	0.043311283
77	0x3dbf56c6	0.093427226
78	0xbe99e347	-0.3005621
79	0x3edfb4fa	0.43692762
80	0x3e95450c	0.2915424
81	0xbe14fa1a	-0.14548531
82	0x3e6e6f86	0.2328473
83	0xbccf165d	-0.025279218
84	0x3e6eb81c	0.2331242
85	0x3efeaee4	0.49742806
86	0xbeef9cda	-0.46799356
87	0xbe9370d3	-0.28797016
88	0x3ec2ae56	0.38023633
89	0x3d1e96eb	0.038718145
90	0xbd127e03	-0.035764705
91	0x3ec6b83d	0.38812438
92	0x3e9cc242	0.30616957
93	0x3d1cfad3	0.038325142
94	0x3d81600b	0.06317147
95	0xbd974697	-0.07386511
96	0xbed8b8d4	-0.42328513
97	0xbde2c887	-0.11073404
98	0x3eea192b	0.45722327
99	0xbba3cb14	-0.004998574
100	0xbd782546	-0.06058242
101	0xbef8b990	-0.48579073
102	0x399ca24d	0.00029875562
103	0xbe68fdc9	-0.22753061
104	0xbf3070bd	-0.68922025
105	0xbe7b4cc8	-0.24541008
106	0x3eaeb399	0.34121397
107	0xbc8ddec8	-0.017318144
108	0xbe166b4d	-0.1468937
109	0x3e05b049	0.13055529
110	0xbdb8bcd0	-0.09020388
111	0x3d69a60b	0.057043117
112	0xbdfbe867	-0.123001866
113	0x3cb94551	0.02261606
114	0x3d797399	0.06090126
115	0xbeabcfb9	-0.33556917
116	0x3eda4d45	0.42637077
117	0x3eae0964	0.3399154
118	0xbc03a036	-0.008033803
119	0x3b6b6d69	0.0035923368
120	0xbeb7b41c	-0.358796
121	0xbeb39cd6	-0.35080594
122	0xbe7a58fd	-0.24448009
123	0xbe9649cc	-0.29353178
124	0x3e9c4ce3	0.3052741
125	0x3d01682d	0.03159349
126	0xbe8bebe5	-0.2732841
127	0x3e2133df	0.15742444
128	0x3e2f3929	0.17111649
129	0xbe1ac72f	-0.15115045
130	0x3ed33c9d	0.41257182
131	0x3e9cb728	0.30608487
132	0x3ebcc024	0.36865342
133	0xbeba5750	-0.3639474
134	0xbf049c22	-0.5180074
135	0xbd7332ed	-0.05937474
136	0xbdef895e	-0.116961226
137	0xbce9dc0f	-0.028547315
138	0x3df307e0	0.118667364
139	0x3e9d0e32	0.30674893
140	0xbdab7be6	-0.08373241
141	0x3f078824	0.5294211
142	0xbd918261	-0.07104946
143	0x3db47408	0.08811194
144	0xbebdffac	-0.37109125
145	0xbef21cd3	-0.47287616
146	0xbe7b4a16	-0.2453998
147	0x3e813920	0.25238895
148	0xbdf252e4	-0.118322164
149	0xbe224e2d	-0.15850134
150	0x3d8b95fd	0.06815717
151	0x3dcb8e98	0.09939307
152	0xbea387fb	-0.31939682
153	0xbdbcc94e	-0.09218083
154	0xbe885798	-0.2662933
155	0xbf1bb5ba	-0.6082417
156	0x3bccc23d	0.006248741
157	0x3cd8f8f6	0.026485901
158	0xbe32f3af	-0.1747577
159	0xbead95e1	-0.3390341
160	0xbbb3cde2	-0.0054871896
161	0x3eae2df1	0.34019426
162	0xbeee20e2	-0.46509463
163	0x3ebf872c	0.37407815
164	0x3e6f1b48	0.2335025
165	0x3ef0fd95	0.47068468
166	0x3ec7cc7e	0.39023203
167	0x3e26bacf	0.162822
168	0xbd9f643d	-0.07782791
169	0xbe810375	-0.2519795
170	0x3ebe3821	0.37152198
171	0xbe1a8981	-0.15091516
172	0xbe9638b7	-0.29340145
173	0xbef2f5f9	-0.47453287
174	0x3d9ddbc6	0.07707934
175	0xbeb04d81	-0.3443413
176	0xbe999112	-0.29993492
177	0xbe714f27	-0.2356535
178	0x3e735bf7	0.2376555
179	0xbe835f16	-0.25658482
180	0x3e6e4732	0.23269346
181	0xbdbeaba5	-0.09310082
182	0xbd837d65	-0.064204015
183	0xbd937f94	-0.07202068
184	0x3e883c2c	0.26608407
185	0xbe92ff8d	-0.28710595
186	0xbe64504c	-0.22296256
187	0xbda9a102	-0.08282663
188	0x3e8068fb	0.25080094
189	0x3ea94c8e	0.3306622
190	0x3ea4be7b	0.32176575
191	0xbeb795e5	-0.35856548

base_pointnet.conv_1_a.bias f4 [64]
0	0xbe3c4124	-0.18384224
1	0x3dafc635	0.08582727
2	0x3e6fa622	0.23403218
3	0xbce95b0b	-0.028485795
4	0xbeb59da5	-0.35471836
5	0xbdce5fa8	-0.10076839
6	0xbd4ea773	-0.05045266
7	0x3ea72e6f	0.32652614
8	0xbeab0c58	-0.33407855
9	0xbe101a72	-0.14072588
10	0xbe5f202d	-0.21789618
11	0x3eb04252	0.34425598
12	0x3ddaad8f	0.10677635
13	0xbedf1e56	-0.43577832
14	0x3dffa05d	0.12481759
15	0x3c08be56	0.008346161
16	0xbeaed669	-0.34147957
17	0x3ed879b0	0.4228034
18	0xbe2ae0a0	-0.1668725
19	0xbd86aa30	-0.065754294
20	0x3e7121df	0.23548077
21	0x3ea2c734	0.31792605
22	0x3f046ee4	0.51731706
23	0x3e8f71f4	0.28016627
24	0x3e4f0ee6	0.20220527
25	0x3dcb6320	0.09931016
26	0xbf0a51f0	-0.54031277
27	0xbe3548f7	-0.17703615
28	0xbe8882f5	-0.26662412
29	0x3e99c56d	0.30033436
30	0x3e847740	0.2587223
31	0xbec06748	-0.37578797
32	0x3ef5760b	0.47941622
33	0xbd51c675	-0.051214654
34	0xbdc352e3	-0.09537294
35	0x3e580c6b	0.21098487
36	0x3d7aa833	0.061195564
37	0xbe937a1a	-0.28804094
38	0xbe4e7c08	-0.20164502
39	0x3ee0746a	0.43838817
40	0xbd4cbd1e	-0.049985044
41	0xbd8eaa31	-0.06966055
42	0xbeefb4c6	-0.46817607
43	0xbd315ab7	-0.043299403
44	0x3ee16d07	0.44028494
45	0xbed33098	-0.41248012
46	0x3e925dc0	0.2858715
47	0x3ee58363	0.44826803
48	0x3f077a3a	0.5292088
49	0xbee48d43	-0.44639024
50	0xbde2bc75	-0.110711016
51	0xbea314bc	-0.31851757
52	0xbf1142b7	-0.56742424
53	0xbe8ba2db	-0.27272686
54	0x3d705f67	0.058684733
55	0x3ed2c92c	0.41169107
56	0xbd9a3ea6	-0.075314805
57	0x3f0c7631	0.54867846
58	0xbe98fcb3	-0.29880294
59	0x3e6c8708	0.23098385
60	0xbebd894e	-0.37018818
61	0xbee69aee	-0.45040077
62	0xbea5ca87	-0.3238108
63	0x3d6e27d1	0.05814344

base_pointnet.conv_1_b.weight f4 [64, 1, 3]
0	0xbebc913e	-0.3682956
1	0xbf507b87	-0.8143849
2	0xbd9811d6	-0.07425277
3	0xbd9f4dc0	-0.077785015
4	0x3d25df55	0.04049619
5	0x3d802727	0.06257468
6	0x3f4bb4ee	0.7957295
7	0x3f5a15bf	0.8518943
8	0x3f84c027	1.037114
9	0xbedb112d	-0.42786542
10	0x3f5a727a	0.8533093
11	0x3ed7c4d8	0.42142367
12	0x3e77967f	0.24178503
13	0x3f378fb6	0.7170366
14	0xbd92e3ff	-0.07172393
15	0x3f2e6a0f	0.6813058
16	0xbede7fc8	-0.43456864
17	0x3e8b91ca	0.27259666
18	0x3f2a5329	0.6653314
19	0xbeae2c60	-0.3401823
20	0x3f203d16	0.6259321
21	0x3d34e6b3	0.044165324
22	0x3f6109e7	0.87905735
23	0xbf56fc02	-0.83978283
24	0xbe58b0f4	-0.21161252
25	0x3ef8f70f	0.4862599
26	0x3f516ba1	0.81804854
27	0x3e90a105	0.28247848
28	0x3fa6909b	1.301288
29	0xbda64122	-0.08117892
30	0xbe688d53	-0.22710161
31	0x3e9b5202	0.30336004
32	0x3f0db618	0.5535598
33	0x3e7fd215	0.24982484
34	0xbf873a93	-1.056475
35	0xbf2c9513	-0.6741497
36	0xbf719d27	-0.9438042
37	0xbf811b6d	-1.0086495
38	0xbf89467f	-1.0724639
39	0xbeb54dd0	-0.3541093
40	0x3e99da26	0.30049247
41	0x3f17bb87	0.5927052
42	0xbf511dea	-0.8168627
43	0xbf0a2d99	-0.53975827
44	0x3e907cdd	0.28220263
45	0xbf62b568	-0.88558054
46	0x3f29f39f	0.6638736
47	0x3e9936c7	0.29924604
48	0xbec334a2	-0.38126093
49	0x3e8106a7	0.25200388
50	0x3f92984a	1.1452725
51	0xbf2bb698	-0.6707549
52	0xbed0d24b	-0.4078544
53	0xbf0c7f1d	-0.5488146
54	0xbf0ac068	-0.5419984
55	0xbe4a45db	-0.1975321
56	0xbf0f3317	-0.5593733
57	0xbf327ddc	-0.69723296
58	0x3e77f41c	0.24214214
59	0x3ed32d12	0.41245323
60	0xbf38ad8e	-0.72139823
61	0xbf2a2fbd	-0.6647909
62	0x3d39f1b2	0.045396514
63	0x3f5cfd43	0.86323947
64	0x3f9bb0f7	1.216338
65	0x3f137536	0.57600725
66	0x3eb0325f	0.3441343
67	0xbe789704	-0.24276358
68	0x3f3059de	0.68887126
69	0x3f891be5	1.0711638
70	0x3f4fb102	0.8112947
71	0xbe517be4	-0.20457417
72	0xbfa1f71c	-1.2653537
73	0xbeb7b566	-0.35880584
74	0xbd923530	-0.07139051
75	0x3f304f35	0.6887086
76	0xbefcc27c	-0.4936713
77	0x3f37e041	0.7182656
78	0x3f60104c	0.8752487
79	0xbf1f5e1c	-0.62252975
80	0xbf059cc0	-0.52192307
81	0xbdac8275	-0.0842332
82	0x3f365862	0.7122861
83	0xbf65c12a	-0.8974787
84	0xbdb0ef06	-0.0863934
85	0x3f4a660f	0.7906198
86	0x3f58172c	0.8441036
87	0xbf1242e7	-0.57133335
88	0xbee35822	-0.44403177
89	0x3f48efe8	0.7849107
90	0x3eb205d5	0.34770074
91	0x3e8f670c	0.28008306
92	0x3f0d4a81	0.5519181
93	0xbe2bb338	-0.16767585
94	0xbdd23d12	-0.102655545
95	0x3f5dca2c	0.86636615
96	0xbf466128	-0.77492
97	0xbe9e9204	-0.30970776
98	0x3f0a90c6	0.54127157
99	0x39e9c10b	0.0004458505
100	0x3f3d58fe	0.73963916
101	0xbe3d3034	-0.1847542
102	0x3ecdb131	0.4017425
103	0x3e8410ac	0.2579397
104	0xbde62c88	-0.112389624
105	0x3e08baa2	0.13352445
106	0x3ed192c2	0.4093228
107	0x3e8af5d5	0.2714068
108	0x3ec8bfaa	0.39208728
109	0x3f58b11d	0.84645253
110	0x3deda346	0.116034076
111	0x3e272268	0.16321719
112	0xbd9b8cae	-0.07595192
113	0x3f85b596	1.0446041
114	0x3cd21341	0.025643947
115	0xbf299ade	-0.66251934
116	0xbf265a8d	-0.6498192
117	0x3e8aa3e9	0.2707818
118	0xbe8a4050	-0.27002192
119	0x3f1f2870	0.6217108
120	0x3e89d285	0.26918426
121	0xbf574c35	-0.8410066
122	0xbf3020de	-0.6880015
123	0x3f422a1b	0.758455
124	0xbe2c57fd	-0.1683044
125	0xbf05074f	-0.5196428
126	0x3e14a6e2	0.14516786
127	0xbe0321b4	-0.12805825
128	0xbf716220	-0.9429035
129	0xbf18ec8f	-0.5973596
130	0x3ca2fafd	0.019895071
131	0xbf2a4748	-0.66515017
132	0xbc684a34	-0.014177848
133	0x3e3b0244	0.18262583
134	0x3ed8882a	0.42291385
135	0x3f32a78d	0.6978691
136	0x3ee0487d	0.43805304
137	0xbf34afb8	-0.70580626
138	0x3ee406a5	0.4453632
139	0xbf63b56a	-0.8894869
140	0xbf744bb1	-0.95427996
141	0xbe517311	-0.2045405
142	0x3ec05658	0.37565875
143	0x3ed8399b	0.4223145
144	0x3c3daefe	0.011577366
145	0x3f086b7f	0.53289026
146	0xbdb66f16	-0.08907907
147	0x3ec48183	0.3838006
148	0xbf9eaa70	-1.2395763
149	0x3ecb96ca	0.3976348
150	0xbfc40ce3	-1.5316433
151	0xbe33ae0a	-0.1754686
152	0xbf4be798	-0.7965026
153	0xbf0efe0e	-0.55856407
154	0x3eed5417	0.46353218
155	0x3e8eb0ae	0.2786917
156	0x3f3c3225	0.73514014
157	0x3e5cf4ee	0.21577808
158	0x3f246960	0.6422329
159	0xbe8e08a6	-0.27740973
160	0xbe051316	-0.12995562
161	0xbde39470	-0.111122966
162	0xbee372a6	-0.44423407
163	0xbf83482b	-1.0256399
164	0xbf2a06a0	-0.6641636
165	0x3ecf2036	0.40454262
166	0x3f1e562c	0.6185024
167	0xbf4eebef	-0.80828756
168	0x3ea9fa0c	0.33198583
169	0xbe760b59	-0.24027766
170	0x3e247359	0.16059627
171	0xbaa1e6fe	-0.0012352166
172	0xbdef7bf1	-0.11693562
173	0x3ee65566	0.4498703
174	0xbe180d13	-0.14848737
175	0x3dc3d927	0.09562903
176	0xbeae0daa	-0.339948
177	0x3f39c249	0.7256208
178	0x39d51add	0.0004064654
179	0xbe948fbd	-0.29015914
180	0xbf6b262e	-0.9185513
181	0x3ed7c167	0.42139742
182	0x3d9e669a	0.077344134
183	0xbf03514d	-0.5129593
184	0xbbbe9626	-0.005816239
185	0x3f9251c2	1.14312
186	0x3e7265a3	0.23671584
187	0xbf5bbab3	-0.85831755
188	0x3f52ea77	0.82389015
189	0x3f88ac80	1.0677643
190	0xbd83932e	-0.06424557
191	0xbf1cfe08	-0.6132512

base_pointnet.conv_1_b.bias f4 [64]
0	0xbea98fc2	-0.3311749
1	0xbed722a6	-0.42018622
2	0xbf117a4b	-0.5682723
3	0x3e1805a8	0.14845908
4	0xbe0e188f	-0.13876556
5	0x3e3eaf05	0.18621452
6	0xbecb921d	-0.39759913
7	0x3e5a4f85	0.21319397
8	0xbe220320	-0.15821505
9	0x3ee415ec	0.44547975
10	0xbead3baa	-0.33834583
11	0xbf11788f	-0.5682458
12	0x3e863c3d	0.26217833
13	0x3efc68f3	0.4929882
14	0xbe94d966	-0.29072112
15	0xbda6d179	-0.081454225
16	0x3e5fbf18	0.2185024
17	0xbef09d08	-0.46994805
18	0x3e9815c2	0.297041
19	0x3ddf8e2e	0.109157905
20	0xbf08b21c	-0.53396773
21	0x3e39b60d	0.18135853
22	0xbed8a070	-0.42309904
23	0x3dfad79a	0.12248154
24	0xbee55387	-0.4479029
25	0xbd8e08f6	-0.06935303
26	0xbea26b4d	-0.3172249
27	0xbead5d14	-0.33860075
28	0x3f0c4c80	0.5480423
29	0x3edec031	0.43506005
30	0xbe8206da	-0.25395852
31	0x3ec3d523	0.38248548
32	0xbe99a58d	-0.30009118
33	0x3e81a755	0.25322977
34	0x3e798c2a	0.24369875
35	0xbf0ac22e	-0.54202545
36	0xbe390ae7	-0.18070565
37	0xbbfcdbf3	-0.0077166497
38	0x3e36c921	0.17850162
39	0xbf125431	-0.57159716
40	0xbe9ed358	-0.31020617
41	0xbda62f4e	-0.081144914
42	0xbe9ffc7c	-0.31247318
43	0x3eeedde6	0.4665367
44	0xbe33b40c	-0.17549151
45	0xbec8ef87	-0.39245245
46	0xbdce76b3	-0.10081234
47	0xbe96b4cc	-0.29434812
48	0xbe999413	-0.29995784
49	0x3edf426d	0.43605366
50	0xbd902b7b	-0.07039543
51	0x3eb312b0	0.34975195
52	0xbe4caf6a	-0.1998879
53	0xbd440626	-0.047857426
54	0xbea4d7a1	-0.32195762
55	0xbe01e9bd	-0.1268682
56	0x3e9ea558	0.30985522
57	0x3d8c3f9a	0.068480685
58	0x3e2327cd	0.15933152
59	0xbd74a1cf	-0.059724625
60	0x3e4a00c8	0.1972686
61	0x3df2b7db	0.11851474
62	0x3f09820d	0.53714067
63	0x3ebcab6f	0.36849543

base_pointnet.conv_2.weight f4 [64, 64, 3]
0	0x3d8fc56a	0.070200756
1	0xbc18b79b	-0.009321119
2	0x3de9cb1d	0.11415694
3	0xbda6b3c6	-0.08139758
4	0x3dfea684	0.12434104
5	0x3e1e9f5e	0.15490481
6	0xbc24588d	-0.010030878
7	0xbd53b73e	-0.051688425
8	0xbe2d5fa2	-0.16931012
9	0xbd89adf6	-0.067226335
10	0x3da09d32	0.078424826
11	0x3db85d51	0.09002174
12	0xbb807fe4	-0.0039214958
13	0xbd8b94d8	-0.06815499
14	0x3d1f4210	0.03888136
15	0xbddb1601	-0.10697556
16	0xbd55d6fd	-0.052206982
17	0x3d88eae5	0.066854276
18	0xbe336dae	-0.17522308
19	0x3d46e733	0.048560333
20	0x3e21f6f1	0.15816857
21	0x3d828b62	0.063742414
22	0x3d5f483c	0.054512247
23	0x3d9659ca	0.07341345
24	0xbc6cf681	-0.014463068
25	0x3dbf530d	0.093420126
26	0x3d5644c9	0.052311692
27	0x3ccd21b2	0.025040481
28	0x3d833407	0.06406408
29	0x3d6abd59	0.057309482
30	0x3c7f92ed	0.015598995
31	0x3b8af8e3	0.0042410954
32	0xbd92a846	-0.07161002
33	0x3d480466	0.04883232
34	0x3e2345fd	0.15944667
35	0x3bbb494b	0.0057155243
36	0xbc8ba161	-0.017044725
37	0x3da816ba	0.0820746
38	0x3d363bce	0.044490628
39	0xbdaddd5f	-0.08489489
40	0x3d42847c	0.04748963
41	0x3d9e425c	0.07727501
42	0xbe20a501	-0.15687944
43	0xbd9f93fb	-0.07791897
44	0xbdd4c193	-0.10388484
45	0xbbbaa9ff	-0.0056965346
46	0xbdad32f0	-0.08456981
47	0xbcd60f8a	-0.026130456
48	0xbd319c37	-0.04336187
49	0xbe47b288	-0.19501698
50	0x3c984856	0.01858918
51	0xbe06576b	-0.13119285
52	0x3cf6dc6b	0.0301344
53	0x3d8077e3	0.062728666
54	0xbd98474d	-0.074354745
55	0x3d903222	0.07040812
56	0xbd696c38	-0.05698797
57	0xbd48a4b6	-0.048985206
58	0x3dd58b8a	0.104270056
59	0x3e1f14a4	0.15535218
60	0xbd7e99bf	-0.062158342
61	0x3e369c1d	0.1783299
62	0x3aedb4f7	0.0018135597
63	0x3e4d1708	0.20028317
64	0xbd672ea1	-0.056440953
65	0xbdee15a5	-0.11625222
66	0x3d1e6f62	0.03868044
67	0x3d9fce0d	0.07802973
68	0x3e1df9eb	0.15427367
69	0x3d0f973d	0.03505634
70	0xbcbf18e0	-0.023327291
71	0xbcf4e196	-0.029892724
72	0x3d8addd4	0.067805916
73	0x3e007b51	0.12547041
74	0xbeb6b940	-0.3568821
75	0x3e5ac86e	0.2136552
76	0x3d95540e	0.07291423
77	0xbe0538f0	-0.13010001
78	0x3c1f8c70	0.009738073
79	0x3c236262	0.009972187
80	0x3d1b4839	0.037910674
81	0xbc461dd8	-0.012092076
82	0x3e1a9b0b	0.15098207
83	0x3e9702f9	0.29494455
84	0xbe89fea2	-0.26952082
85	0x3d8bbf45	0.06823591
86	0xbd215f06	-0.039397262
87	0xbe3f642e	-0.1869056
88	0x3e276b8d	0.16349621
89	0x3e4414e6	0.19148597
90	0x3c4350d3	0.011921125
91	0xbd9f2fdf	-0.077728026
92	0x3b7dc7df	0.0038723869
93	0x3d62f811	0.055412356
94	0xbd85ce4a	-0.06533487
95	0x3d2e7ff3	0.04260249
96	0x3d41f87a	0.047356106
97	0x3d38d268	0.045122534
98	0x3d84119c	0.06448671
99	0x3c948664	0.018130489
100	0xbcdde311	-0.027085813
101	0xbc10013b	-0.008789356
102	0xbcb7ae98	-0.02242212
103	0x3d669def	0.05630296
104	0x3db36831	0.08760107
105	0x3da1b450	0.0789572
106	0x3d66cd2d	0.056348015
107	0x3d3ff766	0.046866797
108	0xbe1abc4e	-0.15110895
109	0x3e06878f	0.13137649
110	0x3c562d1f	0.013072281
111	0x3d1753c2	0.036945112
112	0xbd3b155e	-0.045674674
113	0x3d1888da	0.037239887
114	0xbc50e6d8	-0.01275035
115	0x3cf68f35	0.030097583
116	0xbe960af7	-0.2930524
117	0xbda1f5e3	-0.07908227
118	0x3c5eb840	0.013593733
119	0xbdeff702	-0.11717035
120	0xbd18e285	-0.0373254
121	0xbd983b0d	-0.07433138
122	0x3c059333	0.008152771
123	0xbe109b1d	-0.14121671
124	0x3d7306a0	0.05933249
125	0x3e036cbd	0.12834449
126	0x3e3406ce	0.17580721
127	0xbe22b3e4	-0.15888935
128	0x3cf0ec2c	0.02940949
129	0xbe0ad3c5	-0.13557346
130	0xbd939609	-0.07206351
131	0x3cc699c5	0.024243245
132	0x3d889306	0.066686675
133	0x3d9e6399	0.077338405
134	0xbd622433	-0.055210304
135	0xbd3d545e	-0.046223037
136	0x3d279f01	0.040923122
137	0x3dbd6425	0.09247617
138	0x3d65b40b	0.056079905
139	0x3bdfa388	0.0068249144
140	0x3e1eda88	0.1551305
141	0xbdab0fa5	-0.08352593
142	0xbccecc57	-0.025243921
143	0xbdbb664d	-0.09150372
144	0x3cb6f387	0.02233292
145	0x3d6190e1	0.055069808
146	0x3ca42987	0.020039333
147	0x3d971f41	0.07379008
148	0x3e624b29	0.22098984
149	0xbd8e0e4d	-0.069363214
150	0xbd601d09	-0.05471519
151	0xbd545cf2	-0.051846452
152	0xbb245449	-0.0025074652
153	0xbb3d9acc	-0.0028931377
154	0x3cbc6514	0.022997417
155	0x3d5bd997	0.053674307
156	0x3d8cd10f	0.06875812
157	0x3de25ee0	0.11053252
158	0x3c0b197c	0.008489963
159	0x3d949ac2	0.0725608
160	0x3da513ff	0.080604546
161	0x3e2006ae	0.15627548
162	0xbd5b21c3	-0.053498995
163	0xbd17134e	-0.036883645
164	0x3dd8b850	0.1058203
165	0xbe012548	-0.12611878
166	0x3dda679a	0.10664292
167	0x3d2e844e	0.042606644
168	0xbd4a4d06	-0.04938986
169	0xbcadfff9	-0.021240221
170	0x3d82a235	0.06378595
171	0xbb27e9ba	-0.002562149
172	0x3c9a6ee5	0.018851707
173	0x3c5df4bf	0.013547122
174	0x3e184ebd	0.14873786
175	0xbbe6e21f	-0.0070459987
176	0xbcb00d94	-0.02149085
177	0xbde86883	-0.11348059
178	0x3d981b59	0.07427091
179	0x3d5a0581	0.053227905
180	0xbd92da49	-0.07170541
181	0x3d370650	0.044683754
182	0x3bbf47b3	0.0058374046
183	0xbdf41dce	-0.11919747
184	0xbd1c217b	-0.038117867
185	0x3d8c1357	0.06839626
186	0xbe30cd92	-0.17265919
187	0x3e59a136	0.21252903
188	0x3de2c185	0.11072067
189	0xbd018320	-0.03161919
190	0x3e551829	0.20809998
191	0x3cc66de4	0.024222322
192	0xbe240f9d	-0.16021581
193	0x3c3c93f5	0.011509885
194	0x3d1089ed	0.035287786
195	0x3d51832b	0.051150482
196	0xbcb99fdb	-0.022659233
197	0xbe33dbe2	-0.17564347
198	0x3dc630a7	0.096772484
199	0x3d9a4223	0.07532146
200	0x3cc10b55	0.023564974
201	0xbd0cdccd	-0.03439026
202	0xbc633d22	-0.013869556
203	0x3e537a16	0.20652041
204	0x3d4a7642	0.049429186
205	0x3d6a2898	0.05716762
206	0xbd7c9d5d	-0.06167351
207	0xbdb2d91c	-0.087328166
208	0x3ca38c0c	0.01996424
209	0xbd27f46b	-0.04100458
210	0x3d92bd1d	0.07164977
211	0xbd43086c	-0.047615454
212	0x3b4e6a1e	0.0031496356
213	0x3d939594	0.07206264
214	0xbde50ec9	-0.11184461
215	0xbda981fd	-0.082767464
216	0x3d893bbe	0.06700848
217	0xbded19d7	-0.11577194
218	0xbd33c58a	-0.04388956
219	0xbce33b08	-0.02773811
220	0x3e03fc65	0.1288925
221	0x3e003b80	0.12522697
222	0xbd92f9b5	-0.07176534
223	0xbd1e6d39	-0.03867838
224	0x3ca6cfc5	0.020362744
225	0x3e62c73e	0.22146317
226	0x3c31ab41	0.010844053
227	0xbcbb4ca8	-0.022863701
228	0xbdfca6f1	-0.12336529
229	0x3c88f598	0.01671867
230	0x3ca0a496	0.01960973
231	0x3dd30f59	0.10305662
232	0x3ca5a6e8	0.020221189
233	0x3b596d6e	0.0033176797
234	0x3c219aad	0.009863538
235	0x3e0cbde2	0.1374431
236	0xbcc39e71	-0.023879262
237	0xbe1134be	-0.14180276
238	0xbb96b610	-0.0045993403
239	0x3d8a8255	0.0676314
240	0x3d181f73	0.037139367
241	0xbc8c8021	-0.01715094
242	0x3e241647	0.16024123
243	0x3e18e519	0.14931144
244	0xbd5531a4	-0.052049294
245	0xbd7cb74b	-0.06169824
246	0x3ce1f9a3	0.027584856
247	0x3e12bd55	0.14330037
248	0xbd8b1619	-0.06791324
249	0xbe34488b	-0.17605798
250	0xbe084b5f	-0.13310002
251	0xbe0326c3	-0.12807755
252	0x3d4b71b1	0.04966897
253	0xbdc437cf	-0.09580957
254	0x3c620e20	0.013797313
255	0xbd85dd90	-0.065364

base_pointnet.conv_2.bias f4 [64]
0	0x3bbdc1f2	0.0057909423
1	0xbd1fd5e4	-0.03902234
2	0x3da085cf	0.07838022
3	0xbd5f14e9	-0.0544633
4	0xbbe054ae	-0.006846032
5	0xbb8facbd	-0.0043846057
6	0x3d4bd107	0.04975989
7	0x3b842552	0.0040327692
8	0xbd28744f	-0.041126546
9	0x3d081fc5	0.033233423
10	0xbd0914d2	-0.03346712
11	0xbd8c61cb	-0.0685459
12	0xbd3a6206	-0.04550364
13	0xbd1f7a0e	-0.03893476
14	0xbd8351d6	-0.06412093
15	0xbdc6d255	-0.097080864
16	0xbd8f3d5d	-0.06994126
17	0x3d898252	0.0671431
18	0xbd8224af	-0.06354653
19	0x3ce4cfd9	0.02793114
20	0xbd9d14e5	-0.07670001
21	0x3bbd7eb7	0.005782928
22	0xbd80d6fe	-0.062910065
23	0xbd812d99	-0.06307525
24	0xbdaa71f5	-0.08322517
25	0x3d41a5da	0.04727731
26	0xbd4144aa	-0.047184624
27	0xbbd2886c	-0.006424954
28	0x3d2edaed	0.042689253
29	0x3d0e90a8	0.034805924
30	0xbd178a45	-0.0369971
31	0x3d30d306	0.043169998
32	0xbab73b00	-0.0013979375
33	0x3d25cac5	0.04047658
34	0xbd8afee2	-0.06786896
35	0x3d7def82	0.06199599
36	0x3a9514fc	0.0011374052
37	0x3d8e6f2c	0.06954798
38	0xbcc2b1d9	-0.023766445
39	0xbd3e8a82	-0.04651881
40	0x3e029d19	0.1275524
41	0xbd261090	-0.04054314
42	0x3d4c1b55	0.049830753
43	0x3b05b0cf	0.0020399576
44	0x3c937f43	0.018005019
45	0xbcc14ae8	-0.023595288
46	0xbc82eafb	-0.015981188
47	0xbd75110f	-0.05983072
48	0x3c0b09a3	0.008486184
49	0x3d0fbd38	0.035092562
50	0xbd82a68f	-0.06379425
51	0x3cbe9671	0.023265095
52	0x3ca0b8ad	0.01961931
53	0x3dd37c5d	0.10326455
54	0x3cc6068d	0.024173046
55	0xbb7dd7b2	-0.00387333
56	0x3da4da7c	0.08049485
57	0x3d36adeb	0.044599455
58	0x3d9dd040	0.07705736
59	0xbde1f62a	-0.1103328
60	0x3c2fb644	0.010724608
61	0x3d0ce2d6	0.034396015
62	0xbd8f979e	-0.070113406
63	0x3ca13435	0.019678215

base_pointnet.bn_1.weight f4 [64]
0	0x3f9128cb	1.1340574
1	0x3f4b348c	0.79377055
2	0x3f09a28d	0.5376366
3	0x3f98824e	1.1914766
4	0x3ef6ad2f	0.48179004
5	0x3f9ac3c5	1.2090994
6	0x3f3d2841	0.7388955
7	0x3f3a8be9	0.72869736
8	0x3f1aacc6	0.6041988
9	0x3f6741b7	0.9033465
10	0x3f1ac544	0.60457253
11	0x3f58e2a5	0.8472083
12	0x3f822105	1.0166327
13	0x3f1823e4	0.59429765
14	0x3f45104a	0.7697798
15	0x3f6e6aef	0.9313192
16	0x3f5384ff	0.8262481
17	0x3f5456c9	0.82944924
18	0x3f1b4d2e	0.6066464
19	0x3fa54a5f	1.2913321
20	0x3f7d73cf	0.99004835
21	0x3f7ba79a	0.98302615
22	0x3fb12b76	1.3841388
23	0x3f966947	1.1750878
24	0x3fad2676	1.3527362
25	0x3f2749b3	0.6534683
26	0x3f193a92	0.59854996
27	0x3f94e55a	1.1632493
28	0x3f4cc6a6	0.79990613
29	0x3f70ebbe	0.94109714
30	0x3f3d3abf	0.73917764
31	0x3f8d5d55	1.1044108
32	0x3fbf994a	1.4968655
33	0x3f418fff	0.75610346
34	0x3eb38fc1	0.35070613
35	0x3f4ae61a	0.7925736
36	0x3f98e1f2	1.1943953
37	0x3fa7366b	1.3063482
38	0x3f83088d	1.0236984
39	0x3f34a399	0.7056213
40	0x3f191463	0.5979673
41	0x3f82dd8c	1.0223861
42	0x3fc35b40	1.5262222
43	0x3f19e2c7	0.6011166
44	0x3f387cb2	0.7206527
45	0x3f4a7521	0.79084975
46	0x3f4c65c4	0.7984278
47	0x3f14e70c	0.5816505
48	0x3f0d0e0a	0.55099547
49	0x3f86e4fb	1.0538629
50	0x3f90ba8a	1.1306927
51	0x3f12913d	0.57252866
52	0x3f9511b5	1.1646029
53	0x3fa9782a	1.3239796
54	0x3f91947d	1.137344
55	0x3f09f39a	0.5388733
56	0x3f4340ab	0.7627055
57	0x3ed888af	0.4229178
58	0x3f0c5f35	0.54832774
59	0x3f5d4011	0.8642588
60	0x3f6c0cc6	0.9220699
61	0x3f8079d2	1.0037177
62	0x3fc58f64	1.5434384
63	0x3f5461e8	0.82961893

base_pointnet.bn_1.bias f4 [64]
0	0xbe01dd9e	-0.12682196
1	0xbe4b7e35	-0.19872363
2	0xbe68e427	-0.22743283
3	0x3ccfdde0	0.025374353
4	0xbbfb58a3	-0.0076704784
5	0xbf0e1b8b	-0.5551078
6	0xbda931eb	-0.08261474
7	0xbe54857d	-0.20754047
8	0xbd6de9b0	-0.05808419
9	0xbddb22d0	-0.10699999
10	0xbe02bb3f	-0.12766741
11	0xbe41c2b2	-0.18921927
12	0x3c288cfa	0.010287518
13	0xbe622c60	-0.2208724
14	0xbe9e7be1	-0.30953887
15	0xbefafbab	-0.49020132
16	0xbeb26246	-0.34840602
17	0xbe890cc5	-0.26767555
18	0xbdfba88d	-0.12288008
19	0x3a1b5329	0.00059251726
20	0x3a480a58	0.0007630936
21	0xbef44810	-0.4771123
22	0x3d82d1b2	0.063876525
23	0xbc8f6f70	-0.017509192
24	0xbd7d0dbb	-0.061780673
25	0xbeb28059	-0.34863546
26	0xbe2bd91f	-0.16782044
27	0xbe8ce794	-0.2752043
28	0x3a1c176c	0.0005954418
29	0xbe63e858	-0.22256601
30	0xbe193d19	-0.14964713
31	0xbe6c7835	-0.2309273
32	0x3eb49688	0.35271096
33	0xbee32d5e	-0.4437055
34	0xbe9ff38c	-0.312405
35	0xbe0bb447	-0.13642989
36	0xbe9b8de9	-0.30381706
37	0xbd874f95	-0.06606976
38	0xbd6c7d2a	-0.057736553
39	0xbdb815f0	-0.08988559
40	0xbdb3b79e	-0.087752566
41	0xbe5f810c	-0.21826571
42	0x3d7f1e64	0.062284842
43	0xbebfe589	-0.3747981
44	0xbe87d2bf	-0.26527974
45	0xbe17eb41	-0.14835836
46	0xbdcd1501	-0.10013772
47	0xbe19dee3	-0.15026431
48	0xbe7e45ce	-0.24831316
49	0xbee140f0	-0.43994856
50	0xbe28f8be	-0.16501138
51	0xbe90aad1	-0.28255323
52	0xbea059c7	-0.31318495
53	0xbd5f2d33	-0.054486465
54	0xbc3615ff	-0.011113643
55	0xbe09e8c6	-0.13467702
56	0xbe41d3c9	-0.18928446
57	0xbea2e65e	-0.3181638
58	0xbed68edc	-0.41905868
59	0xbe7c08c1	-0.24612714
60	0xbde26981	-0.110552795
61	0xbd8a5c24	-0.06755856
62	0xbeb43ab2	-0.3520103
63	0xbe3cef2c	-0.18450612

base_pointnet.bn_1.running_mean f4 [64]
0	0xc0916880	-4.5440063
1	0xc09b4bae	-4.8529882
2	0x42350c5a	45.262062
3	0x404bd557	3.1848962
4	0xc1d7091e	-26.879452
5	0x3fc1c7b2	1.5139067
6	0xc12cab53	-10.791827
7	0xc13b9982	-11.7249775
8	0xc1d373dd	-26.431574
9	0x40d2728c	6.576483
10	0xc1756433	-15.336963
11	0xc111768b	-9.091441
12	0xc02150b0	-2.5205498
13	0xc1c443d1	-24.533113
14	0x41658edd	14.347379
15	0xc15516c4	-13.318058
16	0x410e4aeb	8.8932905
17	0xc13972b2	-11.590502
18	0xc1b3f031	-22.492281
19	0xbfb4c17e	-1.4121549
20	0x3fbbb5fc	1.4664912
21	0xc0687611	-3.6322062
22	0x3f629f0d	0.8852394
23	0x4085b31f	4.1781154
24	0xbf901226	-1.1255538
25	0x41ba0313	23.251501
26	0x417497c5	15.287053
27	0x3fd9ccb9	1.7015601
28	0x41546b67	13.276221
29	0x40b73458	5.7251396
30	0x41db2946	27.395153
31	0x400df81a	2.218268
32	0xc051fbea	-3.2810006
33	0xc19a11ff	-19.258787
34	0xc2048420	-33.12903
35	0x409b4a57	4.8528247
36	0xbf67023f	-0.902378
37	0x3e7d6240	0.2474451
38	0x402ac313	2.6681564
39	0x41539ada	13.225306
40	0xc2199553	-38.395824
41	0x401032e6	2.2531066
42	0xbe15811e	-0.14600036
43	0x419bfdd2	19.498936
44	0xc193887a	-18.441639
45	0xc0f0177e	-7.5028677
46	0x411fe88e	9.994276
47	0x41a87db6	21.061382
48	0xc21cff7d	-39.2495
49	0xc01612a1	-2.344887
50	0xc13315ee	-11.192854
51	0xc20f13e3	-35.76942
52	0xc02d53f1	-2.7082484
53	0xbf8a2722	-1.0793192
54	0x3faa3e2c	1.3300223
55	0x421a7edf	38.623898
56	0x4016703e	2.3506007
57	0xc20425d0	-33.036926
58	0xc1b3b3ac	-22.46273
59	0xc0ffa209	-7.9885297
60	0x3fb6ef59	1.4291793
61	0xc011e501	-2.2796023
62	0xbf9769aa	-1.1829121
63	0x413ef07b	11.933711

base_pointnet.bn_1.running_var f4 [64]
0	0x41e1c6fc	28.22216
1	0x420f5191	35.829655
2	0x43d1da14	419.70374
3	0x41faee30	31.366302
4	0x435176dd	209.46431
5	0x3fa961d9	1.3232986
6	0x429a7414	77.226715
7	0x42294dda	42.326027
8	0x432c9544	172.58307
9	0x42996442	76.695816
10	0x42ad706f	86.7196
11	0x41b3d3c9	22.47841
12	0x42cf5ef3	103.68545
13	0x431d3051	157.18874
14	0x42be70ab	95.220055
15	0x42c7e8e6	99.95488
16	0x42776370	61.847107
17	0x4216a9f2	37.665962
18	0x43194ba0	153.29541
19	0x41b2c2b4	22.34507
20	0x419b859e	19.440243
21	0x42614d2a	56.325356
22	0x423e02b1	47.50263
23	0x41c4bb0c	24.591331
24	0x4207eb6c	33.979904
25	0x42fa8e7b	125.27828
26	0x42b4ddde	90.433334
27	0x40f86291	7.762032
28	0x42ec1d63	118.057396
29	0x41b934e7	23.150831
30	0x431f9d03	159.61333
31	0x40511978	3.2671795
32	0x42b8326b	92.09847
33	0x42d7e192	107.94057
34	0x438d8742	283.0567
35	0x418289b8	16.317245
36	0x40c9c62a	6.30544
37	0x40919e63	4.5505843
38	0x421b0a4c	38.760056
39	0x423f170a	47.7725
40	0x4394d01e	297.62592
41	0x4173dd78	15.2415695
42	0x41954fec	18.664024
43	0x42da32c2	109.09914
44	0x430fe647	143.89952
45	0x414aff04	12.68726
46	0x424ded27	51.481594
47	0x42db7f9c	109.74924
48	0x43b37300	358.89844
49	0x4197c165	18.96943
50	0x423d8a5f	47.385128
51	0x439563e1	298.7803
52	0x411f90bb	9.972835
53	0x423b4104	46.81349
54	0x42547629	53.11539
55	0x43aab482	341.41022
56	0x420eaed1	35.67072
57	0x437f586a	255.34537
58	0x42e5e8bc	114.95456
59	0x41cee815	25.863321
60	0x41185890	9.521622
61	0x41948748	18.566055
62	0x41e27466	28.306835
63	0x42d18706	104.76372

base_pointnet.bn_2.weight f4 [64]
0	0x3fab6ae5	1.3391997
1	0x3f878b6a	1.0589421
2	0x3fb464a9	1.4093219
3	0x3f90cb9d	1.1312138
4	0x3f8a7138	1.0815802
5	0x3f9171f0	1.1362896
6	0x3f8df628	1.1090746
7	0x3f81ff8c	1.0156112
8	0x3fb50568	1.4142275
9	0x3f969c75	1.1766497
10	0x3f8ee931	1.1164914
11	0x3f8265b8	1.0187292
12	0x3fa1ac53	1.2630714
13	0x3f89f61c	1.0778232
14	0x3f926850	1.1438084
15	0x3f909f12	1.1298544
16	0x3f889d68	1.0673037
17	0x3f948e42	1.1605914
18	0x3f85112d	1.0395867
19	0x3fac5e61	1.3466302
20	0x3f8d2702	1.1027529
21	0x3f8b126c	1.0864997
22	0x3f8d9b05	1.1062933
23	0x3fa36a8d	1.2766892
24	0x3f87700b	1.0581068
25	0x3fa1b864	1.2634397
26	0x3f8e9541	1.1139299
27	0x3f92b7f8	1.1462393
28	0x3f9d305c	1.2280383
29	0x3f87e6ae	1.0617273
30	0x3f9b344f	1.2125338
31	0x3fa6c356	1.3028362
32	0x3fb7b1b2	1.4351103
33	0x3f8f1f82	1.118149
34	0x3f893bd6	1.0721385
35	0x3f9895e2	1.1920741
36	0x3f9dc2a5	1.2325026
37	0x3f90e7fd	1.1320797
38	0x3fb792d8	1.4341688
39	0x3f8fa921	1.1223489
40	0x3fa39e01	1.2782594
41	0x3fa196ed	1.2624184
42	0x3f8c9757	1.0983685
43	0x3f91b592	1.1383536
44	0x3f9c36e1	1.2204248
45	0x3f9177e1	1.1364709
46	0x3f980194	1.1875482
47	0x3f8c475c	1.0959277
48	0x3f8e093a	1.1096566
49	0x3f8e006c	1.1093879
50	0x3f8caac5	1.0989615
51	0x3fc000f4	1.5000291
52	0x3f9bdaab	1.2176107
53	0x3fafe043	1.3740314
54	0x3fafc055	1.373057
55	0x3f927082	1.1440585
56	0x3f85683f	1.0422438
57	0x3fa89965	1.3171812
58	0x3f9cdf93	1.225573
59	0x3fab8ed0	1.3402958
60	0x3f8556dc	1.0417132
61	0x3f8afbc1	1.0858079
62	0x3f8f809c	1.1211123
63	0x3f960689	1.1720744

base_pointnet.bn_2.bias f4 [64]
0	0xbe1d6f5f	-0.15374516
1	0x3cab6b5f	0.020925222
2	0x3da8a3ee	0.08234392
3	0x3d4b086f	0.04956859
4	0x3c25d2ae	0.010121031
5	0xbc5b7413	-0.0133943735
6	0xbc09086b	-0.008363823
7	0xbd1445a9	-0.036199246
8	0xbdf3cd03	-0.11904337
9	0x3cb36722	0.021899763
10	0xbe0aec1a	-0.13566628
11	0xbcf18b76	-0.029485445
12	0xbdc75572	-0.09733094
13	0xbdf748d7	-0.1207444
14	0xbc857f3b	-0.01629602
15	0x3cda94fe	0.026682373
16	0xbc8bb6b8	-0.0170549
17	0xbe25ed98	-0.16203916
18	0xbcdceee5	-0.026969383
19	0xbc0e575f	-0.008687823
20	0x3ca6797f	0.020321606
21	0xbc266786	-0.010156518
22	0x3d302ddc	0.043012485
23	0xbda37933	-0.07982101
24	0xbd02e00f	-0.03195196
25	0xbe2c9f3d	-0.1685762
26	0xbc4051dd	-0.011738268
27	0xbdb5fa44	-0.08885625
28	0x3b460025	0.0030212488
29	0xbd94eb56	-0.07271449
30	0xbe412478	-0.18861568
31	0x3c860ce2	0.016363565
32	0xbd8d4f03	-0.06899836
33	0xbd2af5e1	-0.041738395
34	0xbdb1675a	-0.08662291
35	0xbc198a60	-0.00937137
36	0xbd537a1e	-0.051630132
37	0xbd65730c	-0.05601792
38	0xbdd8cc4c	-0.105858415
39	0xbe484fd8	-0.19561708
40	0xbd961dbb	-0.073298894
41	0xbdbbc82f	-0.09169041
42	0xbd31e64a	-0.04343251
43	0x3d18ef1c	0.037337407
44	0xbe1782e6	-0.14796028
45	0xbcc16e57	-0.023612184
46	0xbcaab97f	-0.020840405
47	0xbd2c6f5a	-0.04209838
48	0x3ca6baed	0.020352805
49	0xbcbf9daa	-0.02339061
50	0x3ce9879a	0.028507043
51	0x3bb0f12b	0.005399843
52	0xbc9d1649	-0.019175665
53	0xbcc6be65	-0.024260709
54	0x3d97c1eb	0.07410034
55	0x3cd3b316	0.02584223
56	0x3c30cae6	0.010790562
57	0xbddb87d8	-0.107192695
58	0xbe385232	-0.18000105
59	0xbd01c73f	-0.031684157
60	0xbd1d5f10	-0.038420737
61	0xbda3edfc	-0.08004376
62	0xbcf0e116	-0.029404204
63	0x3c8bd8bc	0.01707112

base_pointnet.bn_2.running_mean f4 [64]
0	0x3f35e253	0.7104847
1	0x3e8dcbfb	0.27694687
2	0x3e29a3b8	0.1656636
3	0xbf3db032	-0.7409698
4	0xbf6e18ed	-0.93006784
5	0x3f7d5b19	0.9896713
6	0x3f2052bb	0.62626237
7	0x3d911c68	0.07085496
8	0xbf16042a	-0.58600104
9	0xbfaf8ced	-1.3714882
10	0xbf048f3b	-0.5178105
11	0xbf2c1941	-0.67226034
12	0x3eae66d0	0.34062815
13	0x3ee9e1a8	0.45679975
14	0xbfab2fb3	-1.3373932
15	0xbf411a98	-0.75431204
16	0xbfdab08e	-1.708513
17	0x3f2ddea8	0.6791787
18	0xbf9f15ca	-1.2428524
19	0xbf966fba	-1.1752846
20	0xbf85454e	-1.0411775
21	0x3e604015	0.21899445
22	0x3e61e781	0.22060968
23	0x3f11ae6f	0.5690679
24	0x3f5c7982	0.86122906
25	0x3e172e8e	0.14763853
26	0xbfa1fc1b	-1.2655061
27	0x3f508e88	0.81467485
28	0xbab2dda4	-0.0013646376
29	0x3e205051	0.15655638
30	0xbd9c9e8a	-0.076474264
31	0x3c8ec84c	0.017429493
32	0x3eb02352	0.34401947
33	0x3f2fcc73	0.6867134
34	0xbee12405	-0.43972793
35	0x3e30cdfc	0.17266077
36	0x3edcbc61	0.43112472
37	0x3f2b1db1	0.6684218
38	0x3e9bc50a	0.30423766
39	0x3f27e4c9	0.65583473
40	0xbea45bca	-0.3210128
41	0x3ea2c457	0.3179042
42	0x3f135fbf	0.5756797
43	0xbee00f29	-0.43761566
44	0x3f707ce2	0.93940556
45	0x3eba19b0	0.36347723
46	0x3f0d51ee	0.5520314
47	0x3df1c9c1	0.1180606
48	0xbf7ba1fd	-0.9829405
49	0x3ec340e7	0.38135454
50	0xbe6d979a	-0.23202363
51	0x3dd0362b	0.10166582
52	0x3ea32963	0.31867513
53	0x3db27627	0.08713942
54	0xbfac38d3	-1.3454841
55	0xbf76e123	-0.9643728
56	0xbe3e7846	-0.18600568
57	0xbea1ee5f	-0.31627175
58	0x3f70ce62	0.94064915
59	0x3de277c4	0.11058
60	0x3e36ecc3	0.17863755
61	0xbeef267e	-0.46709055
62	0xbf0df919	-0.5545822
63	0xbee146fd	-0.43999472

base_pointnet.bn_2.running_var f4 [64]
0	0x3da9161b	0.082561694
1	0x3f6826e5	0.9068435
2	0x3d8351ba	0.064120725
3	0x3e41659c	0.18886417
4	0x3e23fb67	0.16013871
5	0x3ec02919	0.37531355
6	0x3e0722cf	0.13196872
7	0x3eddf715	0.4335257
8	0x3d61c8c0	0.05512309
9	0x3e502ffa	0.20330802
10	0x3d8a3cf4	0.06749907
11	0x3e967821	0.29388526
12	0x3e237707	0.15963374
13	0x3d9bd298	0.07608527
14	0x3ddede84	0.10882285
15	0x3dce8e5a	0.10085745
16	0x3e3964fc	0.18104929
17	0x3d8cc1fd	0.06872938
18	0x3ed009c1	0.40632442
19	0x3d91e459	0.07123632
20	0x3e018c1a	0.12651101
21	0x3e32da06	0.17465982
22	0x3dce3486	0.10068612
23	0x3da84066	0.08215408
24	0x3e243c24	0.16038567
25	0x3d0c349b	0.034229856
26	0x3dbee05a	0.093201354
27	0x3d828c46	0.06374411
28	0x3d94384b	0.072372995
29	0x3dc1e7fd	0.094680764
30	0x3dc3144d	0.095253564
31	0x3d6631c9	0.056199823
32	0x3cdf70ec	0.027275525
33	0x3d866f49	0.06564195
34	0x3deb4fc0	0.114898205
35	0x3e082c36	0.13298115
36	0x3e02bd0f	0.12767433
37	0x3d95adef	0.07308566
38	0x3da51787	0.08061128
39	0x3d487778	0.04894206
40	0x3d93d233	0.07217827
41	0x3d1d6094	0.038422182
42	0x3d4dbcf5	0.05022903
43	0x3db8e51d	0.09028075
44	0x3e026f5b	0.12737791
45	0x3e86c9c5	0.26325813
46	0x3da0910d	0.07840166
47	0x3d9ce5d6	0.07661025
48	0x3e7b7a4c	0.24558371
49	0x3d6ff10b	0.058579486
50	0x3e6d5038	0.23175132
51	0x3d7ae491	0.061253134
52	0x3dbb6ace	0.09151231
53	0x3cf6415c	0.030060463
54	0x3d90c7ee	0.070693836
55	0x3e1fde2d	0.15612097
56	0x3d9dd5ed	0.07706819
57	0x3d23fe5f	0.04003751
58	0x3d8b08ed	0.06788812
59	0x3d4f38b4	0.050591186
60	0x3e1479db	0.14499609
61	0x3ec3f7e0	0.3827505
62	0x3e07e7bf	0.13271998
63	0x3df1c4c9	0.11805112

fc_1.weight f4 [64, 66]
0	0xbc06eed9	-0.008235657
1	0xbe104241	-0.14087774
2	0x3d9fd1a7	0.0780366
3	0x3d4a9791	0.04946095
4	0x3e0952d6	0.13410506
5	0x3d164e05	0.0366955
6	0x3e23a045	0.15979107
7	0x3c843a65	0.016141126
8	0xbd0a8f2a	-0.03382794
9	0x3e07f55f	0.13277195
10	0x3d70ccf8	0.058789223
11	0xbc495017	-0.012287161
12	0xbd96c82f	-0.07362401
13	0x3e1dbe00	0.1540451
14	0xbd72642f	-0.059177574
15	0x3da8718e	0.08224784
16	0x3e0315cf	0.12801288
17	0x3ddcf6c0	0.10789251
18	0xbd9038d3	-0.07042088
19	0xbc946807	-0.01811601
20	0x3bb06566	0.0053831814
21	0x3d38b33a	0.0450928
22	0x3d9a10f7	0.07522767
23	0x3e1023e7	0.14076196
24	0x3dd44561	0.103647955
25	0x3cdb983f	0.026805995
26	0x3db1c595	0.08680264
27	0x3e10a7b6	0.14126477
28	0x3c321f73	0.010871756
29	0xbcc9255f	-0.024553953
30	0x3e729f29	0.23693527
31	0x3debc50a	0.115121916
32	0xbcfdc90d	-0.030979658
33	0x3d0adb22	0.033900388
34	0x3dd81627	0.105511
35	0xbd14d20c	-0.03633313
36	0xbb691304	-0.0035564313
37	0x3d66341c	0.05620204
38	0xbd1e3493	-0.038624357
39	0x3bf6ff56	0.0075377626
40	0x3cd70801	0.026248934
41	0xbdabf4f1	-0.08396328
42	0x3e1cc8af	0.1531093
43	0xbd2c6763	-0.042090785
44	0xbce70f5b	-0.028205564
45	0x3dc82016	0.09771745
46	0xbd10c8cf	-0.035347756
47	0xbc810c71	-0.015753003
48	0xbd7eee35	-0.06223889
49	0x3d0e47d4	0.03473647
50	0xba0d83db	-0.0005398371
51	0x3bed224b	0.007236754
52	0xbaa1ad92	-0.0012335053
53	0x3c9eca6b	0.01938363
54	0x3e0315c9	0.12801279
55	0x3df59784	0.1199179
56	0x3d78ce2d	0.0607435
57	0x3e29926a	0.16559759
58	0x3da5b84a	0.08091791
59	0xbc550deb	-0.013003807
60	0xbc0df12f	-0.00866346
61	0x3e35f5d4	0.17769557
62	0xbddd59fb	-0.10808178
63	0x3ccefc04	0.025266655
64	0x3c3afd64	0.011412952
65	0xbd241b7f	-0.040065285
66	0xbd6343ff	-0.055484768
67	0x3dd603ee	0.10449968
68	0xbc8d2ddd	-0.017233783
69	0x3c0fa000	0.008766174
70	0xbd9f2077	-0.07769864
71	0x3aa78689	0.0012781183
72	0x3c39a767	0.011331416
73	0xbbbd6b83	-0.0057806387
74	0xbe02f8b8	-0.12790191
75	0xbcac76f5	-0.021052817
76	0xbe0249d0	-0.1272347
77	0x3d58095e	0.05274331
78	0x3dae0400	0.08496857
79	0x3d94143e	0.072304234
80	0xbcdbbae0	-0.026822507
81	0x3bc10f25	0.005891698
82	0xbda2a913	-0.079424046
83	0xbce205f0	-0.027590722
84	0xbdc248bb	-0.094865285
85	0x3d11404e	0.035461716
86	0x3ca68ed4	0.020331778
87	0x3dd6e1ad	0.10492263
88	0xbd9b158e	-0.075724706
89	0xbd09906d	-0.033585
90	0x3daa15af	0.08304917
91	0xbd539b66	-0.05166187
92	0x3d850be1	0.06496406
93	0xbd902ef2	-0.07040204
94	0xbd138a3a	-0.036020495
95	0xbe03cc36	-0.12870869
96	0xbdd0af3a	-0.10189672
97	0xbd8e7a89	-0.069569655
98	0xbd9c094f	-0.07618963
99	0xbd8d9abf	-0.06914281
100	0x3dc1252b	0.09430917
101	0x3c76beb3	0.015060115
102	0x3cead532	0.028666113
103	0x3d0b966a	0.034078993
104	0x3cd0b47c	0.025476687
105	0x3d37642e	0.044773273
106	0xbdec76dd	-0.11546109
107	0xbe0b3660	-0.13594961
108	0xbd3d55f0	-0.046224535
109	0x3dc6261c	0.096752375
110	0x3d8b478b	0.06800755
111	0xba91218a	-0.0011072617
112	0xbdebb20a	-0.11508568
113	0xbdf8fb54	-0.12157312
114	0x3d9593d6	0.07303588
115	0x3d5aaea5	0.05338921
116	0x3dbf51d2	0.09341778
117	0xbd479573	-0.04872651
118	0xbe0b94ae	-0.13630936
119	0xbc1d3a22	-0.0095963795
120	0x3d8b8ff8	0.06814569
121	0xbdac3c57	-0.084099464
122	0x3c9280bb	0.01788365
123	0xbda6b5d1	-0.081401475
124	0xbc7f20ee	-0.015571816
125	0x3c294701	0.01033187
126	0xbd926f70	-0.07150161
127	0x3d4770fe	0.048691742
128	0xbcce17e8	-0.025157884
129	0xbe07d82f	-0.13266061
130	0xbd281214	-0.041032866
131	0x3dd4b3a3	0.103858255
132	0xbd5e0183	-0.05420066
133	0x3ddaf653	0.10691514
134	0xbdc1d16b	-0.094637714
135	0x3d91c104	0.07116893
136	0xbdcf9626	-0.101360604
137	0x3dcd037f	0.100104325
138	0xbda6b6b8	-0.081403196
139	0x3d4a7071	0.04942364
140	0x3caca017	0.02107243
141	0xbdf49bac	-0.119437546
142	0xbdb55a6d	-0.08855138
143	0x3dc4b0b0	0.09604013
144	0xbd08c14c	-0.033387467
145	0x3d5a00b2	0.05322332
146	0x3d3a6957	0.045510616
147	0x3db99429	0.090614624
148	0xbdc401d3	-0.095706604
149	0x3dd91766	0.10600166
150	0xbdd4acde	-0.10384534
151	0xbd89645b	-0.067085944
152	0xbdd1b6bd	-0.10239933
153	0x3ca4a7f9	0.020099627
154	0x3c768044	0.015045229
155	0xbdb54e20	-0.08852792
156	0xbd02ea81	-0.03196192
157	0x3dac0b26	0.08400564
158	0xbd925d61	-0.07146717
159	0xbdd043ae	-0.10169159
160	0xbdef9ac2	-0.116994396
161	0xbd4108dd	-0.047127593
162	0x3c9807e6	0.018558454
163	0xbcb0f9b3	-0.02160344
164	0x3db1b170	0.08676422
165	0xbdd3ba95	-0.10338322
166	0xbd0f2b99	-0.034953687
167	0xbdf74a64	-0.12074736
168	0xbd086565	-0.033299822
169	0xbd168448	-0.036747247
170	0xbd0b2c8e	-0.033978038
171	0xbb30a84e	-0.0026955786
172	0xbd52b633	-0.05144329
173	0x3c756a05	0.01497889
174	0xbdea0169	-0.1142605
175	0xbd6dd4de	-0.058064334
176	0x3d5082fe	0.050906174
177	0xbdd6cfd3	-0.10488858
178	0xbda575f3	-0.08079138
179	0xbca65ca4	-0.020307846
180	0xbd61ea9d	-0.055155385
181	0xbdd2f289	-0.10300166
182	0xbdc6e0bc	-0.097108334
183	0xbd81b511	-0.06333364
184	0x3d04d551	0.032429997
185	0x3b7fb8fa	0.0039020167
186	0xbda0e225	-0.07855634
187	0xbbfe1be2	-0.0077547887
188	0xbcdd874c	-0.027042054
189	0xbd1286bf	-0.035773035
190	0xbd3b2d45	-0.04569747
191	0xba314b47	-0.00067632314
192	0x3df3859a	0.11890717
193	0x3dd4fa42	0.103992954
194	0xbde9bbac	-0.11412749
195	0xbc35d182	-0.011097314
196	0x3dd83865	0.105576314
197	0xbd63bd9f	-0.05560076
198	0xbcb15773	-0.021648144
199	0x3cbc264e	0.022967484
200	0xbad78f3f	-0.0016445889
201	0xbde2ff78	-0.11083883
202	0xbd9aea95	-0.07564274
203	0xbd8f0e67	-0.06985169
204	0x3d81066c	0.06300053
205	0xbd375ac0	-0.04476428
206	0xbd12f5cb	-0.035878938
207	0xbe03a39a	-0.12855378
208	0xbde3c0f7	-0.111207895
209	0xbde73230	-0.112888694
210	0x3d83f24c	0.06442699
211	0x3dcb058f	0.099131696
212	0xbd7fd7fd	-0.06246184
213	0xb8d51511	-0.000101605554
214	0x3d7b65f0	0.061376512
215	0x3da50dec	0.08059296
216	0xbddfbbaa	-0.10924466
217	0x3d7f2e3f	0.062299963
218	0xbc32387a	-0.010877723
219	0x3cfe3130	0.031029314
220	0x3d07f2d2	0.033190556
221	0xbdc7a764	-0.09748724
222	0xbd8bac0c	-0.06819925
223	0xbb0d88ba	-0.0021596388
224	0x3dc14726	0.094373986
225	0xbd7d339c	-0.061816797
226	0xbdf125cb	-0.117747866
227	0xbdd5dc35	-0.10442392
228	0xbdd3b325	-0.103369035
229	0xbe0305f4	-0.1279524
230	0xbdca4f8c	-0.098784536
231	0x3d6bd2c4	0.05757405
232	0x3da17b9c	0.07884905
233	0x3db73ac3	0.08946755
234	0x3d9714c6	0.07377009
235	0x3d588189	0.05285791
236	0xbd242efa	-0.040083863
237	0xbd19a250	-0.03750831
238	0x3d94a280	0.07257557
239	0xbd4da099	-0.050201986
240	0xbce32e2a	-0.027731974
241	0x3dd5e3c9	0.10443837
242	0xbcd1f870	-0.02563116
243	0xbdcdcd0e	-0.10048877
244	0x3dd12532	0.102121726
245	0xbd6bf91e	-0.057610624
246	0xbdbf0b9c	-0.09328386
247	0x3de32c16	0.11092393
248	0xbd49c2fb	-0.049258213
249	0xbb8b466e	-0.004250339
250	0x3cd46c85	0.025930652
251	0xbce4ee0f	-0.027945546
252	0xbda6bad1	-0.08141101
253	0xbdbc70a3	-0.09201171
254	0xbc6c785c	-0.014432993
255	0x3c1fe96f	0.009760245

fc_1.bias f4 [64]
0	0x3e055d62	0.13023904
1	0x3c954303	0.01822043
2	0xbd8e38c7	-0.06944423
3	0xbd5fe90e	-0.054665618
4	0x3dea3265	0.11435393
5	0xbc9b1562	-0.018931095
6	0x38b7498c	8.739819e-05
7	0xbd84b8b5	-0.064805426
8	0x3d83780f	0.06419384
9	0x3dd42567	0.103586964
10	0xbda1df8f	-0.079039685
11	0xbcf1bb51	-0.029508265
12	0xbd52eeb0	-0.05149716
13	0x3c540eef	0.012943014
14	0x3dacd346	0.08438735
15	0x3d764267	0.06012192
16	0xbd8bb065	-0.06820754
17	0xbdaa4e90	-0.08315766
18	0x3d2d4398	0.04230079
19	0x3ac14d26	0.0014747723
20	0x3da0b257	0.078465156
21	0x3dfb7bf7	0.12279504
22	0xbbe1358a	-0.0068728374
23	0x3d8d53fb	0.06900784
24	0x3e140e93	0.14458685
25	0xbd1b8c17	-0.037975397
26	0x3d8f1c17	0.069877796
27	0x3d0d1abf	0.034449335
28	0x3e16d2c7	0.14728843
29	0xbdf31fe9	-0.11871321
30	0xbdcbafc6	-0.099456355
31	0x3d5e9f99	0.054351423
32	0x3d6cf6ec	0.05785267
33	0xbda3f3f3	-0.08005514
34	0xbb934578	-0.0044943653
35	0xbcce51e0	-0.025185525
36	0x3dad05f8	0.08448404
37	0xbdcf03b5	-0.10108129
38	0xbdf9cbbf	-0.121970646
39	0xbdbb863f	-0.09156465
40	0x3d1008ea	0.03516475
41	0x3d813fe7	0.063110165
42	0x3c7782cb	0.015106867
43	0x3d58cf6f	0.0529322
44	0x3d179e7c	0.037016377
45	0xbdc0001c	-0.09375021
46	0x3dab264a	0.083569124
47	0x3e2dba36	0.16965565
48	0x3c81e297	0.015855117
49	0xbdc6843a	-0.09693189
50	0xbd0a1aa1	-0.0337168
51	0xbde38c60	-0.11110759
52	0xbd99f1c3	-0.075168155
53	0xbd85429f	-0.065068476
54	0x3d8ebd92	0.069697514
55	0xbdbe2fb7	-0.09286445
56	0x3d191bb6	0.037379943
57	0xbc2f16fc	-0.010686632
58	0x3d1f5276	0.038897
59	0xbcf966e2	-0.030444566
60	0x3e0d0423	0.1377111
61	0x3d8c426f	0.06848609
62	0x3d2f624c	0.042818353
63	0xbc38e2f1	-0.011284576

fc_2.weight f4 [4, 64]
0	0x3cbb288b	0.02284648
1	0xbc31b792	-0.010846989
2	0xbc7036d0	-0.014661506
3	0xbd6c06cd	-0.057623673
4	0x3fd072b1	1.6285001
5	0x3c2a7e30	0.010406062
6	0x3e2de060	0.16980124
7	0x3eb6b47b	0.3568457
8	0x3f1d3fbc	0.61425376
9	0xbd9fb4ba	-0.07798143
10	0xbcfcca00	-0.03085804
11	0x3e1751da	0.14777318
12	0x3f2fe237	0.6870455
13	0x3e342e27	0.1759573
14	0x3fb5dce8	1.420804
15	0x3f85a9ed	1.0442482
16	0x3dcfcd54	0.10146585
17	0xc013cf4e	-2.3095279
18	0x3c83adda	0.01607411
19	0x3faaee0f	1.33539
20	0x3f58055d	0.84383184
21	0x3d6c2540	0.057652712
22	0x3e29b7a2	0.16573957
23	0xbd63002f	-0.055420097
24	0xbe089afc	-0.13340372
25	0x3e3b4468	0.18287814
26	0x3efa5b4f	0.48897788
27	0xbe09f8ff	-0.1347389
28	0xbdf5e48b	-0.12006482
29	0x3e50572f	0.20345758
30	0x3e239350	0.15974164
31	0x3e607046	0.21917829
32	0xbfef2b28	-1.8685045
33	0x3fb12aee	1.3841226
34	0xbe745c76	-0.23863396
35	0xbd09c770	-0.033637464
36	0xbd886c0d	-0.06661234
37	0xc072c85d	-3.7934792
38	0x3fac1808	1.3444834
39	0x3f9f82f4	1.2461839
40	0xbf9b7006	-1.2143562
41	0x3fd2b07f	1.6460112
42	0x3b47fbca	0.0030515068
43	0xbe356227	-0.17713223
44	0x3f37bcd2	0.7177249
45	0xc0979e01	-4.7380376
46	0x3c2f2e74	0.010692228
47	0xbe2652b6	-0.16242489
48	0xbdac585f	-0.08415293
49	0x3eb0bcd0	0.34519053
50	0xbc9095fc	-0.017649643
51	0x3ea1d3fc	0.31607044
52	0x3ddc5b0a	0.10759552
53	0x3e344141	0.17603017
54	0x3f0fcb84	0.56169915
55	0x3c811588	0.015757337
56	0x3e2d3d32	0.16917875
57	0x3ca598a9	0.020214396
58	0x3e8b653d	0.27225676
59	0x3ea49955	0.32148233
60	0x4034bd97	2.8240716
61	0x3c01cff0	0.007923111
62	0x402dcfa8	2.7157993
63	0xbdb72cc8	-0.08944088
64	0x3d896379	0.06708426
65	0xbd9c4d6f	-0.07631957
66	0xbc234c00	-0.00996685
67	0x3cbe6c70	0.023245066
68	0x3f421004	0.7580569
69	0x3c872de9	0.016501384
70	0x3dc430a7	0.09579592
71	0xbd26d8e2	-0.04073418
72	0x3f8a2846	1.079354
73	0x3de55698	0.11198157
74	0x3dd68948	0.10475403
75	0x3f14d179	0.5813213
76	0xbf8b2cc9	-1.0873042
77	0x3f210015	0.6289075
78	0xbfaefb1f	-1.3670386
79	0x3df27332	0.11838378
80	0x3c99c598	0.018770978
81	0x401be32c	2.4357405
82	0x3eb06bf1	0.34457353
83	0x3fee29d0	1.860651
84	0xc0835d73	-4.1051574
85	0xbdabc230	-0.08386648
86	0xbe4cb5d0	-0.19991231
87	0xbd6f1db5	-0.05837794
88	0x3dd2cdd0	0.10293162
89	0xbe973241	-0.29530528
90	0x3fe47fe0	1.7851524
91	0x3eb96a90	0.36214113
92	0x3d9989bf	0.07496976
93	0x3d515b45	0.051112432
94	0x3ec910b1	0.39270547
95	0xbefab0d9	-0.4896305
96	0x3f947b8b	1.1600202
97	0xc092ce0b	-4.5876517
98	0x3e706132	0.23474577
99	0x3d79d5ec	0.060995027
100	0xbcb1c047	-0.02169813
101	0x40b8789d	5.7647233
102	0xc01d911b	-2.4619815
103	0xc0a15529	-5.0416455
104	0xbd98d5e6	-0.07462673
105	0xbf77e8de	-0.968397
106	0x3e881da4	0.26585114
107	0x3d463301	0.048388485
108	0xbf9f03b8	-1.242301
109	0x408b7979	4.358578
110	0xbb2712bc	-0.0025493344
111	0x3da1b0ad	0.07895026
112	0x3d82aec8	0.06380993
113	0x3ed137d6	0.40862912
114	0xbd8b8abe	-0.06813572
115	0xbebf4493	-0.37357005
116	0xbc05b640	-0.008161128
117	0xbfe28cfb	-1.7699274
118	0xbe6432d6	-0.22285017
119	0x3d52a130	0.05142325
120	0x3f12d6d0	0.5735903
121	0xbd3a120c	-0.045427367
122	0xbfbfc2e9	-1.4981357
123	0xbef6b7a3	-0.4818698
124	0xc0181dab	-2.3768108
125	0x3da14306	0.07874112
126	0xc0424833	-3.0356567
127	0xbd2ffbbd	-0.042964686
128	0x3dd527f9	0.10408015
129	0x3ca605a5	0.020266363
130	0x392d2c00	0.00016514957
131	0xbda0b6e1	-0.078473814
132	0xc0f92c98	-7.7866936
133	0x3dc16d01	0.09444619
134	0xbe297781	-0.16549493
135	0xbeaa8f01	-0.33312228
136	0xc04138ef	-3.0191
137	0xbdf58512	-0.11988272
138	0xbc651740	-0.013982594
139	0xbdc6f8e7	-0.09715443
140	0xbe4410b8	-0.19147003
141	0xbe8d5962	-0.27607256
142	0x3e54890d	0.20755406
143	0xbf51cfb5	-0.8195756
144	0xbddb8f14	-0.10720649
145	0x3f92c1b0	1.1465359
146	0xbe078dc6	-0.13237676
147	0xc04b6b61	-3.178429
148	0x3fc03e24	1.5018964
149	0x3ca3ef88	0.020011678
150	0xbca2f82b	-0.019893726
151	0x3ba8a28b	0.0051463298
152	0x3d7926fb	0.06082819
153	0x3d9a672d	0.075392105
154	0xbfbb3388	-1.4625101
155	0xbe487365	-0.1957527
156	0x3e2c565a	0.16829816
157	0xbd11dc5c	-0.03561054
158	0xbe2e7e1b	-0.17040293
159	0xbe4e2d8a	-0.2013456
160	0x3f6c01bf	0.92190164
161	0xbf3ab69f	-0.7293491
162	0xbdaf5957	-0.08561962
163	0x3d6ae9b1	0.05735177
164	0xbdf18ca9	-0.11794407
165	0x401e14fc	2.4700308
166	0x3e682942	0.22671989
167	0xbe3fdee9	-0.18737377
168	0x3f9861a5	1.1904799
169	0xbf62af1a	-0.88548434
170	0xbdc9812d	-0.098390914
171	0x3d2350f6	0.039872132
172	0xbe607112	-0.21918133
173	0x4009896b	2.1490123
174	0x3db1e893	0.08686938
175	0x3e2e40aa	0.17016855
176	0xbd200758	-0.039069504
177	0xbeca5d37	-0.39524242
178	0x3e5b1f2a	0.21398607
179	0xbe5ace95	-0.21367867
180	0x3dab1afe	0.08354758
181	0x3e92565f	0.2858152
182	0xbe7348ec	-0.23758286
183	0xbded5924	-0.11589268
184	0xbe8273f1	-0.2547908
185	0xbdaf7ed8	-0.085691154
186	0x3f6af998	0.917871
187	0xbd937d11	-0.07201589
188	0xbfead6e4	-1.834683
189	0x3d5a9890	0.05336815
190	0xbe028899	-0.1274742
191	0x3e0152be	0.1262922
192	0xbd9a661c	-0.07539007
193	0x3d07edcb	0.03318576
194	0xbd6b0474	-0.057377294
195	0x3dbc6c56	0.09200351
196	0xbd2af305	-0.041735668
197	0x3dcb7986	0.09935288
198	0xbd8e7c71	-0.06957329
199	0xbd4ff02d	-0.05076616
200	0xbef3dc23	-0.47628888
201	0xbde34d5c	-0.110987395
202	0xbde11296	-0.10989873
203	0xbd3b4dd0	-0.045728505
204	0x3c889813	0.016674077
205	0xbdf765ff	-0.12080001
206	0x3d10e0e3	0.03537072
207	0x3d9c0e6c	0.07619938
208	0x3d13a688	0.03604749
209	0x3dc692fb	0.09696003
210	0xbd943061	-0.0723579
211	0xc02b4da6	-2.6766143
212	0xbf55d2db	-0.83524865
213	0x3d5c5320	0.05379021
214	0xbdd2567c	-0.10270402
215	0x3bed7597	0.007246684
216	0xbb8e332b	-0.004339596
217	0xbdf5f719	-0.12010021
218	0xbe16705e	-0.14691302
219	0xbfacd8b7	-1.3503636
220	0xbdd9bfc9	-0.10632283
221	0xbdf08161	-0.11743427
222	0xbe1b90b9	-0.15191926
223	0xbddd7e82	-0.10815145
224	0x3da3ea14	0.08003631
225	0x3d1c43d6	0.03815063
226	0x3dad52b4	0.0846304
227	0x3bb3f3fe	0.0054917326
228	0x3dc5e4b3	0.096627615
229	0x3d9be9bd	0.076129414
230	0x3de40246	0.11133246
231	0x3c1cdf7a	0.009574765
232	0x3d490e43	0.049085867
233	0xba2487ad	-0.0006276321
234	0x3bc355d0	0.0059611574
235	0xbe4cdd72	-0.2000635
236	0x3dd7ff74	0.10546771
237	0x3c6305c3	0.013856354
238	0xbd77cafc	-0.060496315
239	0xbd6b8fca	-0.057510175
240	0x3dbe5791	0.09294046
241	0x3dce538d	0.1007453
242	0xbe3eae52	-0.18621185
243	0xbc36565f	-0.011128991
244	0xbd3f3dd4	-0.046689823
245	0xbe116763	-0.14199595
246	0xbe21e00e	-0.15808126
247	0xbd7e3a90	-0.06206757
248	0xbc3bfbfd	-0.011473653
249	0x3c5541b2	0.013016151
250	0xbe743c56	-0.23851141
251	0xbd383c2d	-0.044979263
252	0xbf3462ab	-0.70463055
253	0x3d58cc14	0.052929
254	0xbe2657bb	-0.16244404
255	0xbe19478a	-0.14968696

fc_2.bias f4 [4]
0	0xbcd388a9	-0.025822
1	0xbd54745d	-0.051868785
2	0x3d83e4cf	0.06440126
3	0xbe0f6c80	-0.14006233
