Additional stuff/segmentation_pointnet_P7meanp.pth (torch, 78698 bytes, 18 tensors)

base_pointnet.conv_1_a.weight f4 [64, 1, 3]
000000 50 33 a6 3e 87 7d 7c be eb df 95 3c c5 f6 8a 3e
       0.32461023 -0.2465726 0.018295249 0.27141395
000010 d2 e3 7e be e9 52 73 be 3d cb a1 3e 5b 28 8c 3e
       -0.24891594 -0.23762096 0.3160037 0.2737454
000020 3c c3 ee 3d 84 ee fd be e5 dc 93 be 52 39 16 3f
       0.11658332 -0.49596035 -0.28879467 0.58681214
000030 d4 dd e4 3e 04 e2 c4 be 95 cb 92 be 2c 9b 86 be
       0.4470049 -0.38453686 -0.28670946 -0.26290262
000040 8a f2 ab 3e d7 8b 92 3d 7a 99 ea 3e 08 77 a7 bd
       0.3358348 0.071555786 0.45820218 -0.08177
000050 d4 63 ed be a0 69 88 bd 3d 34 6c be b1 8e aa 3e
       -0.46365225 -0.06660771 -0.23066802 0.3331199
000060 80 37 dc be 04 20 eb 3e 95 cc 89 bd 28 ec f6 3e
       -0.43011093 0.45922863 -0.06728474 0.48227048
000070 11 6c 0a bf a7 3f 01 3e f9 07 eb 3c 17 7d 02 3e
       -0.54071146 0.12621938 0.028690325 0.1274303
000080 bb 5b cb be f0 e3 ba be c5 db 02 bd e0 8e 3f 3e
       -0.39718422 -0.36502028 -0.03194787 0.18706846
000090 a7 3f 56 bd 4e 12 73 bd d9 63 b7 3d 08 b8 cb 3d
       -0.052306797 -0.05934363 0.08954591 0.099472106
0000a0 32 e1 9c be 7b 26 ee 3d 09 9e 90 3d ab 7b 8e 3d
       -0.3064056 0.11628433 0.07061393 0.069571815
0000b0 5e 44 6e bd 7d d5 85 3e f1 64 23 be b0 da df 3d
       -0.05817067 0.2613944 -0.15956475 0.10930383
0000c0 51 68 3c be 0a 57 82 be 94 50 e1 3e 78 9a 10 3f
       -0.18399169 -0.2545703 0.4400679 0.564857
0000d0 81 3f f7 be 3f 1c 49 be 65 d9 98 3d 53 67 62 bd
       -0.48290637 -0.19639681 0.0746334 -0.05527432
0000e0 f5 ad c7 bd b6 97 e1 be 50 f1 0b bf 04 69 d4 be
       -0.097499765 -0.4406106 -0.5466509 -0.4148637
0000f0 8a d9 8c 3e 78 e1 49 be f0 ed 82 bc 2b 0b c9 3e
       0.2750972 -0.19714916 -0.015982598 0.39266333
000100 95 74 1f 3e a8 2d f8 3e 72 a5 3d be f4 12 35 3e
       0.15571816 0.48472333 -0.18520144 0.17683011
000110 9c 9e 2b bd 30 d0 24 3e a7 75 88 3d a8 bf cf 3d
       -0.04189931 0.16095042 0.066630654 0.101439774
000120 28 fc 50 3e 08 60 04 3f 48 65 5f be a9 30 2c bd
       0.2040869 0.5170903 -0.2181598 -0.042038593
000130 ef 9a 92 3d 94 bc 75 bd 5c 1f 23 bf 6f 71 a9 3e
       0.071584575 -0.059994295 -0.63719726 0.33094355
000140 e4 24 a5 3e 91 c6 71 bc 75 22 60 3d b3 93 70 be
       0.32254708 -0.014756815 0.05472036 -0.23493843
000150 d1 c2 77 3d 52 76 fe bc 46 0d 4c bc 5d 64 08 3d
       0.060488526 -0.031062279 -0.0124543365 0.03329884
000160 5f 57 6e be 8c 5b 68 3e 1f 5b a5 3e fa 02 c1 3e
       -0.23275517 0.22691172 0.32296082 0.37697583
000170 b0 8f f1 be b6 7f 6b be bc 1d 83 3e 4f 8c aa 3d
       -0.47179937 -0.22997937 0.25608623 0.08327543
000180 5d bd e5 3e 84 b9 b6 be 32 a7 86 be b8 91 fa 3b
       0.44871035 -0.35688412 -0.26299435 0.0076467656
000190 dd 18 88 3e 4d 49 9f be 27 7f 41 be bb cb 0e 3e
       0.2658147 -0.31110612 -0.18896161 0.13944905
0001a0 a6 61 42 3d c9 52 18 3e 2d 2e c7 be 96 c1 49 3e
       0.047456406 0.1487533 -0.38902417 0.19702753
0001b0 80 34 33 3e d2 e7 c9 be ae b3 e3 bc 2a aa b5 3d
       0.17500496 -0.39434677 -0.027795639 0.08870347
0001c0 bf 05 bf be 67 72 d5 be 02 5e ee be 56 2a 08 3f
       -0.3730907 -0.41688845 -0.46556097 0.531896
0001d0 2b f7 1f be 36 20 05 3f 0f 23 d1 be fd 46 1b 3e
       -0.15621631 0.52002275 -0.4084706 0.15163799
0001e0 ab 92 99 be 54 c2 17 3e ed 9a e3 3d 05 40 ef 3d
       -0.2999471 0.14820224 0.11113534 0.11682133
0001f0 e4 c7 50 3e 1d 0a b2 bd e1 d8 fa be 3c 30 0d 3e
       0.20388752 -0.08693335 -0.4899359 0.13787931
000200 6c 7f fe bd c1 47 ce bd 71 16 8c 3d fc c9 26 3d
       -0.124266475 -0.1007228 0.06840218 0.04071997
000210 9b 76 72 3e 50 10 1c be 30 56 2c bc 1b a2 73 bd
       0.23678057 -0.15240598 -0.010518596 -0.059480768
000220 ba b2 3c be 87 d6 25 3e d7 8c e0 3d 46 ad 18 3e
       -0.18427554 0.16195117 0.10964363 0.14909849
000230 42 01 4d be 80 ce 06 be 5b d7 d1 3c db 39 09 3e
       -0.20020011 -0.13164711 0.025615385 0.13400976
000240 36 93 f3 3e d4 03 5d be c5 7c 90 be a8 47 3e 3e
       0.4757325 -0.21583492 -0.28220192 0.18582022
000250 de 6f bd be 07 a7 00 3d d4 ff 90 3d 91 ad 1d bc
       -0.3699941 0.03140929 0.07080045 -0.009623901
000260 7a f4 55 3d ba 0a 1d bf ad 5d ba 3e 9b 86 4c 3e
       0.052235104 -0.6134449 0.36399594 0.19973223
000270 7d d5 f3 be 14 15 2f 3e d5 16 94 3e c5 a9 2b be
       -0.47623816 0.17097884 0.2892367 -0.1676398
000280 5f fc 47 3e 26 4e bc bd 15 61 d9 3d e5 98 b9 be
       0.19529866 -0.09194593 0.1061422 -0.36249462
000290 b9 89 d6 3e 0d fc c7 3d 55 fa da 3c 37 23 34 bd
       0.4190195 0.09764872 0.026730696 -0.043978896
0002a0 4c 1d 16 bf 30 eb 82 be f5 4c 09 bf 00 7d c5 3e
       -0.58638453 -0.2557006 -0.5363305 0.3857193
0002b0 bd 4c af 3d 71 c1 be 3e dc 60 19 3e bc 0c 80 bd
       0.085595585 0.3725696 0.14978355 -0.06252429
0002c0 97 8d c3 be 77 83 b0 bd 8f fd 8e 3d 50 62 48 3d
       -0.38193962 -0.08618825 0.06981956 0.048921883
0002d0 15 00 f8 bd 21 f1 de be 7b 85 c4 3e 33 a2 72 bd
       -0.12109391 -0.43543342 0.38383088 -0.059236716
0002e0 da 5d 20 be f4 eb ad 3e 97 41 96 bd 8e 99 de bd
       -0.15660802 0.3396908 -0.07336729 -0.10869132
0002f0 e8 60 61 3e 4e 9a f6 3e a2 78 b5 3e 25 b9 0b bf
       0.22009623 0.481646 0.35443598 -0.54579383

base_pointnet.conv_1_a.bias f4 [64]
000000 ba e9 0f 3e 7f f5 22 be b6 b3 4d 3e 66 65 f4 3e
       0.14054003 -0.15913962 0.20088086 0.4773361
000010 0b 27 cd 3c a7 5d 0f bc f6 17 b2 be 48 86 1d be
       0.025043031 -0.008750356 -0.34783906 -0.15383255
000020 d1 7a 29 bf 31 81 d8 be 88 03 83 3e 1a 0f dd be
       -0.6620303 -0.42286065 0.25588632 -0.43175584
000030 54 49 d7 be 72 10 3f 3e da a3 6c bd 45 fc e7 3e
       -0.42048132 0.18658617 -0.05777345 0.45309654
000040 f8 0b 99 3d 69 c9 de 3d e8 99 b2 3d b0 7a a0 3e
       0.07472986 0.1087826 0.087207615 0.31343603
000050 75 7f c3 be 66 ee ac 3e 62 32 95 3d 77 20 99 be
       -0.3818318 0.33775634 0.072850004 -0.2990758
000060 dc a2 4f 3e 4b b6 05 3f bb 04 11 bf 4c 64 c0 bc
       0.2027697 0.5223128 -0.56647843 -0.023485325
000070 05 c1 dc be 05 b2 ec 3e d4 1a 33 3e 26 0a ea 3e
       -0.43116012 0.46229568 0.17490703 0.45710868
000080 82 e2 90 bd ae 9c 00 bf 42 5c 0b 3f 96 61 b5 3d
       -0.07074453 -0.50239074 0.5443765 0.08856504
000090 f1 a7 7f be 50 cb ac 3d 6b cf dd 3e b3 44 13 3f
       -0.24966408 0.08437216 0.4332231 0.575267
0000a0 ef f9 b9 3e c6 9c 13 3f 92 ae ea 3d 1d df 0a bf
       0.36323497 0.5766109 0.11459078 -0.54246694
0000b0 03 4c dd be 48 97 d4 3c e9 1f 50 3e 62 03 f7 be
       -0.43222055 0.025951043 0.20324673 -0.48244768
0000c0 79 90 f1 bd 2b 90 35 be ed 2e 9f 3e c4 1e 0c 3e
       -0.11795134 -0.17730777 0.3109049 0.13683611
0000d0 74 a4 a1 3e 58 68 02 bf e4 8d bc 3e 60 5b 0b 3f
       0.3157078 -0.50940466 0.36827004 0.544363
0000e0 de 7f 14 3e b4 44 51 be 55 87 03 3f d9 b7 d3 be
       0.14501902 -0.20436364 0.51378375 -0.41351202
0000f0 85 e2 f9 bd 35 f0 57 be c2 33 6f bd a8 e5 8f be
       -0.12201408 -0.21087725 -0.05839897 -0.281049

base_pointnet.conv_1_b.weight f4 [64, 1, 3]
000000 28 20 53 bf 4e 1c 09 bf 97 f9 28 3f b5 53 03 bf
       -0.8247094 -0.53558815 0.66005844 -0.512996
000010 ce 89 6e be f2 1b 6c bd c5 0a 96 be 2f 2d 09 3f
       -0.23294756 -0.05764384 -0.29305092 0.5358457
000020 d0 70 57 be 99 fe 16 be 55 bd a3 3d f1 cb cc 3e
       -0.21039128 -0.14745559 0.079950966 0.39999345
000030 94 b5 59 3d f8 92 23 3f 2f 37 13 3f 1f a5 17 be
       0.053151682 0.6389613 0.5750608 -0.14809082
000040 c8 aa 3a bf 8f 89 79 be d6 c9 1f bf e6 27 9a 3e
       -0.7291684 -0.2436888 -0.6241735 0.30108565
000050 f2 da 49 3f 55 cd cd 3e 16 da d5 3e 6d 5e 71 3e
       0.7884971 0.40195718 0.4176795 0.23571177
000060 db b6 31 3e 49 e2 f9 be 53 a1 36 3f 81 37 d1 3e
       0.1735491 -0.48805454 0.7133991 0.4086266
000070 c4 6e 8a 3e 16 df d5 be ce 3c 22 3f 6d e3 5c 3f
       0.27037632 -0.41771764 0.6337403 0.86284524
000080 cd 56 06 3f 5c e7 bf be f3 13 c9 3e c9 86 09 bf
       0.524762 -0.374812 0.39273033 -0.5372129
000090 05 a4 36 3f 73 3e 08 3f fb c6 3c bf cf a6 2b 3f
       0.71344024 0.5322029 -0.7374112 0.67051405
0000a0 fe ef 58 3f 7e 9e a6 3e 8e 75 37 bf f5 d2 b4 be
       0.847412 0.32542795 -0.7166375 -0.35317197
0000b0 e8 04 aa 3d cb 74 31 be 20 b2 b4 3e 36 ee 83 3e
       0.08301717 -0.17329709 0.3529215 0.25767678
0000c0 dc 14 8c be 9a 21 7e 3e 17 c3 36 bf c2 4c aa 3e
       -0.27359664 0.24817505 -0.71391433 0.33261687
0000d0 a2 d0 ff be cb 1d 46 bf 16 2d 36 bf 30 57 fc 3e
       -0.49963862 -0.7738921 -0.71162546 0.4928527
0000e0 ef 36 f3 be 4c b9 5b be b4 1a 7e bd ae 88 e0 3e
       -0.47502849 -0.21457404 -0.062037185 0.43854278
0000f0 f9 9a 91 be 0e ed 41 bf a3 90 73 bf 44 cf c6 bd
       -0.28438547 -0.7575234 -0.95142573 -0.097075015
000100 e3 34 1c 3e 35 35 c4 bd f8 d1 d0 be 1d 99 06 3f
       0.1525455 -0.09580461 -0.40785193 0.5257738
000110 b4 db 13 3e 2a 8e 70 3e 41 1b 8a 3f c8 13 16 bd
       0.14439279 0.23491731 1.0789567 -0.03663996
000120 d1 b8 8e 3e 95 58 86 3d 0e 3b e5 be 88 b1 de bc
       0.2787538 0.065598644 -0.44771618 -0.027184263
000130 c0 3e a9 be b5 67 4a 3f 3b 3e 9d bd 7d ff f9 3d
       -0.33055687 0.79064494 -0.07677885 0.12206934
000140 32 da 1d bf ee 34 f1 3d f6 db 53 3f 44 6f f8 3e
       -0.61661065 0.11777674 0.8275751 0.4852239
000150 27 5c 0c 3f e2 4c c1 bd 9e b1 6a bf b0 32 59 3d
       0.54828113 -0.09438492 -0.9167727 0.053026855
000160 76 85 10 3e 05 f2 3c bf a3 b4 fa bd d6 52 7d 3f
       0.14113411 -0.7380679 -0.12241485 0.9895452
000170 62 84 66 bd 0b 1d 06 bf 9a b2 cd be 12 14 ea be
       -0.056278594 -0.52388066 -0.40175325 -0.45718437
000180 77 f8 7a 3f 0d f5 8d 3f b8 67 1d bf 8b d0 84 bf
       0.9803538 1.1090409 -0.6148639 -1.0376142
000190 98 b0 94 3f 7f 30 08 3d 2e 8f 28 3f c2 a4 0d 3e
       1.1616392 0.033249374 0.65843475 0.13832381
0001a0 42 85 22 3e 4d d6 4f 3f 9c 6b a4 be da 2f 6f be
       0.15871146 0.8118637 -0.3211335 -0.23358098
0001b0 e6 4c 21 3f f8 26 22 3f 37 46 15 3d a2 e7 3f 3d
       0.6300796 0.6334071 0.036443915 0.04685176
0001c0 88 c9 b3 bb d9 d0 82 3f f0 20 32 3f 76 80 f0 be
       -0.005486671 1.0219985 0.6958151 -0.46973008
0001d0 c8 e5 cb be 9a aa 14 3f f5 b3 28 bd 58 78 5a 3e
       -0.39823747 0.5807282 -0.041187245 0.2133497
0001e0 f9 68 14 bf 4e e3 02 3f aa f6 25 3c 19 ad ad be
       -0.57972676 0.5112809 0.01012961 -0.33921126
0001f0 38 c9 22 bf 08 47 5e bf 05 df 92 3e 5c 4c 33 bf
       -0.63588285 -0.86827135 0.28685775 -0.7003839
000200 a1 12 e0 be 85 bc 8a be 02 46 e6 3c ed ec 73 bf
       -0.43764213 -0.27096954 0.028109554 -0.95283395
000210 cc 4a 16 3f 55 00 02 3f 25 0d e2 be 47 08 03 3f
       0.5870788 0.50781757 -0.44150653 0.51184505
000220 05 4a 57 3e c5 32 10 bf 73 d2 8a 3d 68 49 c4 bc
       0.2102433 -0.5632747 0.06778421 -0.023960784
000230 33 28 74 3f bb aa 10 be 53 80 49 bf 52 07 a2 bd
       0.9537384 -0.14127629 -0.7871143 -0.079115525
000240 cd 17 74 bf 0e 3a 94 bf 71 e9 4b be 99 93 36 bf
       -0.9534882 -1.1580217 -0.1991327 -0.71318966
000250 76 04 b7 3d fb c0 a1 3f 79 32 00 bf 8a 31 17 bf
       0.08936398 1.2637018 -0.50077015 -0.59059966
000260 cf d5 19 bf 10 bb 9e 3e 57 93 1b bf 6d 90 f3 3e
       -0.6009187 0.31002092 -0.607717 0.47571126
000270 25 02 21 be 55 89 3f be 52 4c e5 3e 98 a0 76 bf
       -0.15723474 -0.18704732 0.4478479 -0.96338797
000280 0d 0f ee bc cd db 50 3c 9b 5a c8 be 65 cd 59 3e
       -0.029059911 0.012747717 -0.39131626 0.21269758
000290 7a 04 90 3e 97 a2 f7 be 24 4b 1d be 87 98 45 bf
       0.28128415 -0.48366234 -0.15360695 -0.77185863
0002a0 7c fd 0d 3f cf f3 c7 bd 13 21 ab be a2 10 80 be
       0.5546491 -0.097633 -0.3342367 -0.2501269
0002b0 0c b2 3e be 54 b6 bf 3d 97 c0 c7 3e 25 7f c2 3e
       -0.18622607 0.09360948 0.39014122 0.3798763
0002c0 2f 69 84 3e e6 28 c9 3e 50 f5 22 bf c8 6f ba be
       0.258615 0.39289016 -0.6365557 -0.36413407
0002d0 ba 69 b3 3e c6 e4 24 3e c7 6e 3d 3f 5d 63 ab be
       0.350416 0.16102895 0.7399716 -0.33474246
0002e0 fc 73 19 bf 73 09 ee be e4 c0 34 bf 6f 4c cf be
       -0.59942603 -0.46491584 -0.7060683 -0.40488002
0002f0 92 8a ff 3e bb 56 51 be ac ae bf be 67 74 39 bf
       0.49910408 -0.20443241 -0.37437952 -0.7244324

base_pointnet.conv_1_b.bias f4 [64]
000000 49 09 c5 bd 73 1a 58 be a5 42 de bd 02 88 84 be
       -0.09620912 -0.2110384 -0.10852555 -0.25885016
000010 61 35 c0 3e c0 29 6d be 89 2c ae be d4 20 34 be
       0.37540725 -0.23160458 -0.34018353 -0.17590648
000020 18 05 c9 3e a8 bc df bd 32 a1 bc be 68 b1 ca be
       0.392617 -0.10924655 -0.36841732 -0.39588475
000030 8d 1f e3 3e 10 f9 8d 3b 85 45 67 3e 2c 1e 0f 3e
       0.4436001 0.004332669 0.22585113 0.13976353
000040 b1 06 84 3e 89 e0 05 bf 57 b2 28 be 89 05 b2 be
       0.25786355 -0.5229574 -0.16474281 -0.34769848
000050 72 ec 26 be c4 37 13 3f 5e 7f db 3d 3f 73 c2 be
       -0.16301134 0.57506967 0.10717653 -0.3797855
000060 91 b2 05 3f 7c 55 11 3f a9 ae 04 3f 9b 20 d9 be
       0.52225596 0.56771064 0.5182901 -0.42407688
000070 29 48 03 3e 71 ac 9e 3e c1 01 05 3f 35 b7 9e 3e
       0.12820496 0.30990937 0.519558 0.3099915
000080 11 e3 73 3e 56 72 4b be 0c 8e ef 3e 6b ab cd 3e
       0.23817088 -0.19867834 0.4678806 0.40169844
000090 a1 ed 90 3d 5a 9d ef 3e b6 fd 99 bc 6e 88 27 bd
       0.07076574 0.46799737 -0.018797737 -0.040901594
0000a0 53 5b e0 be 39 0d d8 be 52 26 71 bd cf ab 05 bf
       -0.43819675 -0.42197588 -0.058874436 -0.52215284
0000b0 5c fb 1f bd 5c 2e 01 bf 11 dd b5 be a8 e9 b8 3e
       -0.039058074 -0.50461364 -0.35520223 0.36115766
0000c0 3b 8c 6c be 6e 51 b1 bd f1 85 9b 3e 96 e8 3a 3e
       -0.23100369 -0.086581096 0.30375627 0.18252787
0000d0 f2 da a9 be ea af e6 3e e2 52 f6 3e 80 2d c6 be
       -0.33174855 0.45056087 0.4811011 -0.3870659
0000e0 c2 30 13 be 5c 37 9a be 75 1c bd 3e 76 07 73 3e
       -0.14374068 -0.3012036 0.36935773 0.23733315
0000f0 04 56 7d 3e ad ec a7 3e b5 43 c2 be 6b 49 c0 be
       0.24739844 0.32797757 -0.3794228 -0.37556013

base_pointnet.conv_2.weight f4 [64, 64, 3]
000000 94 22 9c bd 9c b0 ce 3d ca c2 81 3d a8 60 94 bc
       -0.07623783 0.10092279 0.06335981 -0.018112496
000010 4a ef 38 3c c6 51 a1 bd 9e 3b e8 3c 97 80 99 3c
       0.01128752 -0.07876925 0.02834874 0.018738074
000020 a1 08 1a 3d 70 0d 7d 3d 2a 35 b9 bc 21 f4 1a 3e
       0.037605885 0.061780393 -0.022608358 0.1513219
000030 12 27 ef 39 dd b2 6b bd f1 a3 94 3d b1 39 1a be
       0.00045614742 -0.057543624 0.07257832 -0.1506107
000040 41 b4 db bd 83 cb 0b bd 04 6e 6e bc 16 91 b3 bd
       -0.1072774 -0.03412963 -0.014552597 -0.08767907
000050 18 bb 4f bc c4 f9 2b bd 0e 8a 30 bd cc 90 7c 3c
       -0.012678884 -0.041986242 -0.04310041 0.015415382
000060 96 49 f0 3d f3 bf 85 bb dc f7 2a be 24 d1 4d 3b
       0.117327854 -0.00408172 -0.16696113 0.0031405175
000070 e0 25 9a bc f5 3e a8 3d 99 c3 98 3e 5f 9a 40 3e
       -0.018816888 0.08215133 0.2983673 0.18808888
000080 dc 40 9a bc 07 14 a8 3b 5f 76 c5 bc 22 c4 17 3d
       -0.018829755 0.0051293406 -0.024104295 0.03705228
000090 b6 ad af 3d 18 c1 a4 bc 68 e5 92 3d 9c 19 be 3a
       0.085780546 -0.020111606 0.07172662 0.0014503482
0000a0 15 65 6d 3d cb 5d d8 bd 6d 45 d9 bd a7 9e fe bd
       0.057957727 -0.105647646 -0.10608945 -0.12432604
0000b0 cf 97 2b bd 08 09 1b 3a 00 d7 6f 3c d2 3d 0d bd
       -0.041892823 0.00059141265 0.014638662 -0.034482785
0000c0 c9 f5 08 3e 98 71 2e 3e eb d9 cd 3d 18 91 85 bd
       0.1337501 0.1703552 0.1005133 -0.06521815
0000d0 e0 cd b2 bd 0e e6 12 be 98 58 3e 3d 5e 67 05 bd
       -0.08730674 -0.14345571 0.04647121 -0.03256928
0000e0 7f f3 82 3c 8c b9 71 3d b7 9a 9e 3c 53 59 cf 3c
       0.015985249 0.059014842 0.019360883 0.025311148
0000f0 8a e0 c5 3d cb f8 9c 3e aa 44 23 be da 7d 1e bd
       0.09661968 0.30658564 -0.15944162 -0.03869424
000100 72 7e 8c bc 8a c8 a7 bc f3 b5 29 bd 4f 8f 03 bd
       -0.017150138 -0.020481367 -0.041433286 -0.03211909
000110 81 7c f5 bd 4e d2 ed 3c 1c 72 23 bd 4a 53 8a 3c
       -0.11986638 0.029030945 -0.039903745 0.016885418
000120 32 99 fa ba 48 60 5a bd 48 c5 55 bb 97 6a 02 3e
       -0.0019119142 -0.053314477 -0.003261881 0.12735973
000130 e5 ae b5 3c 2e 98 3f bd 98 86 a9 bc a9 1e 92 bd
       0.022178123 -0.04677599 -0.020694062 -0.07134754
000140 a1 7c 2d 3d f5 12 8d 3c 57 ef ea bc f8 b0 98 3d
       0.042355184 0.017220953 -0.02867858 0.07455629
000150 69 b0 d7 bd ab aa 74 be b3 ac c3 bd 45 de e8 3d
       -0.105316944 -0.2389323 -0.09554424 0.113705195
000160 7e b6 b4 bc 80 7e 40 3c c4 8a e0 bc b9 3b b4 3c
       -0.022059675 0.01174891 -0.027409919 0.022001134
000170 e2 8c a9 3d cf 78 d7 bd fb fd 6a bd 23 b6 93 bd
       0.082788244 -0.10521089 -0.05737112 -0.07212474
000180 95 4f 5c 3e c1 a9 04 3e 09 1f 51 3d 45 ac a0 be
       0.21514733 0.12955381 0.051054988 -0.3138143
000190 88 ea 4d be 73 bb 51 bd c7 b9 eb 3d 4a eb aa 3d
       -0.20108998 -0.051204156 0.115100436 0.08345659
0001a0 41 7a a1 3c 31 2c b1 bd a1 7e d8 3d ab df 4d 3e
       0.019711616 -0.08651007 0.105710275 0.20104854
0001b0 69 08 97 bd 59 0c 15 bd 57 b4 0e 3d 72 4f f5 bc
       -0.07374651 -0.03638873 0.034839954 -0.029945109
0001c0 05 d1 94 bd 2e d3 0b bc 20 0d 1c 3c cc b2 ba 3e
       -0.0726643 -0.008534236 0.009524614 0.36464536
0001d0 7e 6d 76 3e 35 fc 21 3d c5 d6 14 bc 32 9b 27 bd
       0.24065205 0.039547164 -0.009084408 -0.04091949
0001e0 b2 7e cc 3d 1f 8c fc bd 4a 02 81 3d df 44 a5 bc
       0.09985103 -0.123314135 0.06299265 -0.020174442
0001f0 6e ea 84 bc f4 07 aa 3d 6d c4 d2 3c a3 8d 13 3a
       -0.016225066 0.08302298 0.025728429 0.00056287105
000200 5a f2 58 bd a6 d5 de bd 8c ce 87 3b 87 ca 96 bd
       -0.0529655 -0.10880594 0.0041444954 -0.07362848
000210 ce 0c 54 3d 4a d9 06 be fe d3 2f 3d 7c d6 11 3d
       0.051770024 -0.13168827 0.04292678 0.03560494
000220 97 47 4f 3d 8a bc d7 3c b8 89 f8 bb 7b 53 ff bc
       0.050605383 0.02633502 -0.0075847767 -0.031167736
000230 23 d4 a7 3c 1f 68 89 be 99 20 2c 3c 97 69 15 bc
       0.020486897 -0.2683725 0.010505819 -0.009119413
000240 60 20 40 be c9 0f 75 bb d1 92 ee 3d d0 ed d1 3d
       -0.1876235 -0.0037393442 0.11649097 0.10250437
000250 cc 89 20 3d 32 d3 fc 3d 3a 89 8d bb 55 4f b8 bb
       0.039193913 0.1234497 -0.004319337 -0.0056246915
000260 57 03 b7 bd 17 3a 5e 3d a5 ad 0f 3c 99 f2 41 3d
       -0.08936184 0.054254618 0.008769427 0.0473505
000270 35 be ff bd 64 0b c0 bd 21 b5 06 be 14 7b 03 bd
       -0.12487451 -0.093771726 -0.13155033 -0.0320998
000280 23 89 0e 3c be 90 72 3c 0e e4 41 3d b6 e6 09 3d
       0.008699688 0.014805017 0.04733663 0.03366729
000290 28 d8 4a bd 76 1d d3 3d 70 a0 44 3e c8 b3 29 3e
       -0.04952255 0.103083536 0.19201827 0.16572487
0002a0 fa 6b 26 bb 5e 0a 0e 3c 92 15 d9 3c 86 9d 7d bd
       -0.002539395 0.008669464 0.026499543 -0.061917804
0002b0 62 37 38 3d 3d 3f 20 bc 8e 71 f6 bc 1a d3 f1 37
       0.044974692 -0.009780702 -0.030083444 2.882774e-05
0002c0 d6 8e 84 3c da d2 6a 3e 30 20 0e 3c fd fd 52 3d
       0.01618139 0.22931996 0.008674666 0.051511753
0002d0 b6 fb ad 3d 46 18 c1 bc 83 ae b9 bc 0b d5 1d bd
       0.08495276 -0.023571145 -0.022666221 -0.03853325
0002e0 dc ab 5f 3c 4e df b5 3d 6f 3b 70 bc 7a 07 fb bc
       0.013651814 0.088804826 -0.014662608 -0.030643214
0002f0 52 2a 10 3d e1 8a 33 bc f4 c6 26 3d 77 14 84 bd
       0.03519661 -0.010958404 0.04071708 -0.06449216
000300 ee e1 f9 3c 6f 5d fc 3b b9 a7 4b bd 54 da 69 3d
       0.03050324 0.007701568 -0.0497205 0.05709298
000310 1a e8 b2 3d ec 7e ab 3d 72 aa ab 3b 80 af 32 3b
       0.08735676 0.08373818 0.0052388245 0.002726525
000320 bb 51 85 bd bd f8 b0 3c 42 f8 5d 3d 02 67 1c 3d
       -0.065097295 0.021602983 0.054191835 0.038184173
000330 56 f7 ea 3d 0d a5 b9 3c 3f 30 0e be f7 09 d5 3b
       0.11472957 0.02266171 -0.13885592 0.006501432
000340 81 d3 c7 bc 4a d4 b8 3b 18 b2 c7 3d 74 40 87 3c
       -0.024392845 0.005640541 0.097507656 0.016510226
000350 37 c4 c4 bd 59 e5 26 3d 61 1f b6 3d 1a a0 99 bc
       -0.096077375 0.040746067 0.08892704 -0.0187531
000360 ad d4 13 3e 48 c7 b7 bc 41 6c da 3d 57 e1 86 3d
       0.14436598 -0.022433892 0.10665179 0.06585949
000370 56 7b 16 bd f8 62 9d 3d 0b 5e e5 bd 33 34 30 bd
       -0.036738716 0.076848924 -0.11199578 -0.04301853
000380 6b 2d 6e 3d bb 37 21 bd 5d 8d d5 3b 72 1e dc 3a
       0.058148783 -0.03935979 0.006517096 0.0016793741
000390 a8 ba db 3d db 32 2f 3e 03 97 f9 bc 79 af 11 3e
       0.10728961 0.17109244 -0.030467516 0.14227094
0003a0 bd 65 a8 bc 45 7e b6 3d 95 9a 5d bd 58 18 d8 bb
       -0.020556325 0.08910803 -0.0541025 -0.006594699
0003b0 29 a5 1c 3d 6f 01 7b 3b 84 3a 89 b9 7c 23 8f 3c
       0.038243446 0.0038300415 -0.00026174274 0.017472975
0003c0 c2 4b 02 bd ec 95 24 bd 5d 99 fd 3c 5b 02 08 be
       -0.03181053 -0.04018204 0.030956918 -0.13282149
0003d0 db 6b f6 bb cc 89 da 3d 11 f8 17 bd 26 e7 50 3e
       -0.0075201816 0.10670814 -0.03710181 0.20400676
0003e0 41 e6 c7 3d e2 5e 0c be e8 55 0d bd 6a 1a 60 bd
       0.09760714 -0.1370807 -0.034505755 -0.05471269
0003f0 96 34 27 bd f4 40 de bc ca fa 71 3d bb 40 27 bd
       -0.040821634 -0.027130581 0.05907706 -0.040833216

base_pointnet.conv_2.bias f4 [64]
000000 e1 23 1d 3d ca d6 39 3d 29 84 58 3e e8 aa 90 bc
       0.038364295 0.045370854 0.21144165 -0.01765962
000010 c7 75 46 3d 9c 86 2c bc 14 c8 b0 ba 59 3b ee bd
       0.048452165 -0.01053014 -0.0013487362 -0.116324134
000020 a9 cd 46 3b e6 4c b3 3b 11 df d2 3b 7d 45 6d bd
       0.0030334985 0.0054718135 0.006435283 -0.057927597
000030 9a 33 37 3c 9d f2 f4 3d 7c 14 06 bb 37 e9 20 3d
       0.011181736 0.11960337 -0.0020458987 0.03928491
000040 6a 03 16 bd 8b 47 07 3d b2 49 5e bb 99 7f 03 bd
       -0.03662435 0.033027213 -0.0033918438 -0.03210411
000050 65 ea 5b bd 8b 90 7c 3d 9e f8 09 bc 80 4b 0f bd
       -0.053690333 0.061661284 -0.008421091 -0.03498411
000060 02 9e 25 be af 2f e5 3c e0 1d a7 3d 8b a5 96 3c
       -0.16173556 0.027976839 0.08159995 0.018389484
000070 ab c8 3c 3d 25 4d a4 bd fa 93 0c bd e0 42 49 bd
       0.04608981 -0.08022527 -0.03432081 -0.049136043
000080 66 16 80 3d 1d 0b 05 bc 00 2a 4c bc 35 82 a7 3d
       0.06254272 -0.008120325 -0.012461185 0.08179132
000090 12 7e 92 bd 62 1b 37 bd 7d a7 ee 3d b1 e0 98 3d
       -0.07152952 -0.04470385 0.116530396 0.074647315
0000a0 4e 90 17 bd 97 07 89 bc 1e 43 b0 bd 8f 5e 65 bb
       -0.037002854 -0.016727252 -0.086065516 -0.0034998988
0000b0 76 3f a2 bc 65 01 c0 bd 31 fa 91 bd a5 5f 0c bc
       -0.019805651 -0.09375266 -0.07127798 -0.008567725
0000c0 d6 cf 4f 3c c2 6e a1 3d 35 20 1b 3d ab 70 4a 3a
       0.012683829 0.078824535 0.037872512 0.00077224773
0000d0 cb be 42 3d 3e a7 30 3d 95 a7 2b bd f9 a5 2d bc
       0.047545236 0.043128245 -0.041907866 -0.010598653
0000e0 66 9a ba bd be b3 34 3d a0 ef 13 3e ff 67 18 bd
       -0.091114804 0.044116728 0.14446878 -0.037208553
0000f0 ec 15 0b bd 2d cd 1f bd ee cd 62 3d 65 b0 8e bc
       -0.033956453 -0.03901403 0.05537217 -0.017418096

base_pointnet.bn_1.weight f4 [64]
000000 31 00 84 3f 0c 4c 52 3f 22 7e 50 3f c2 7e a0 3f
       1.0312558 0.8214729 0.81442463 1.2538683
000010 f1 16 4b 3f ce fa 4a 3f 4e c8 82 3f bd a0 3f 3f
       0.7933188 0.7928895 1.0217378 0.7485464
000020 19 35 9c 3f 9a 1f 6b 3f 08 94 90 3f 0e 83 3a 3f
       1.2203704 0.91845095 1.1295176 0.72856224
000030 bd 06 7a 3f 42 b9 97 3f 08 22 5d 3f 00 11 37 3f
       0.9766653 1.1853411 0.8638005 0.71510315
000040 9d 53 9d 3f 12 a6 75 3f 2b a6 2c 3f b0 71 3a 3f
       1.2291142 0.9595653 0.6744105 0.72829723
000050 ca d2 a9 3f 3f 4e 22 3f cd 2b 90 3f 5e 4c 3c 3f
       1.3267453 0.63400644 1.1263367 0.7355403
000060 6e 96 f9 3e 31 d7 aa 3f f8 fa 4e 3f ba 17 57 3f
       0.4874758 1.3346921 0.808517 0.8402058
000070 6e 77 b1 3f 4b f2 a2 3f 00 57 22 3f d4 f5 4d 3f
       1.3864572 1.2730192 0.63414 0.8045323
000080 09 78 98 3f e6 d7 b5 3f 95 bb 6a 3f 19 da b9 3f
       1.1911632 1.4206512 0.9169248 1.4519683
000090 25 23 31 3f 4a 06 0c 3f ea 88 c8 3f 78 93 3c 3f
       0.6919425 0.54697096 1.5666783 0.7366252
0000a0 f4 bd d2 3f 4c 77 58 3f 52 f2 2d 3f fc f5 9a 3f
       1.6464219 0.8455703 0.67947876 1.2106318
0000b0 75 5d 6a 3f a2 64 43 3f ee 96 6e 3f c3 d2 b8 3f
       0.91548854 0.7632543 0.9319905 1.4439319
0000c0 67 7d 89 3f 8f e9 6d 3f d2 b9 95 3f 32 f1 76 3f
       1.0741395 0.9293451 1.1697333 0.96461785
0000d0 88 23 4d 3f 6e 1d 78 3f 7c f4 64 3f 0c 9a a1 3f
       0.8013234 0.96919906 0.89435554 1.2625136
0000e0 bb 7f 30 3f c8 10 1f 3f cc 03 63 3f 89 02 ae 3f
       0.689449 0.6213498 0.8867767 1.3594524
0000f0 2f 2c 9f 3f aa c0 65 3f 8a 0a 6b 3f 79 c1 5d 3f
       1.2435359 0.8974711 0.91812956 0.8662334

base_pointnet.bn_1.bias f4 [64]
000000 eb db db 3b ec eb 93 be c1 37 a7 be 44 42 2d 3e
       0.006709566 -0.28890932 -0.32659724 0.1691981
000010 85 89 69 3d ec 83 6d be 6e fa 2c 3e bb e9 3c be
       0.057015914 -0.23194855 0.16892406 -0.18448536
000020 4a 5c 6b be 36 40 95 bd f9 9c c2 be 98 89 7e bd
       -0.22984424 -0.07287638 -0.38010386 -0.06214294
000030 04 12 a3 bb c0 e4 cd 3d 0d fa da be 65 f9 18 be
       -0.004976513 0.10053396 -0.427689 -0.14938886
000040 98 ae 52 3d 1a 20 e5 3c 5a ea ce be e8 6e 02 37
       0.051436037 0.027969409 -0.4041317 7.774426e-06
000050 74 11 89 be 76 32 50 be 3c f2 aa bd a0 b8 b4 be
       -0.26771128 -0.2033175 -0.08346984 -0.35297108
000060 f9 13 a5 be 08 9c 3b bd 2a 02 6d be ff 08 9d bd
       -0.322418 -0.0458031 -0.23145357 -0.076677315
000070 a6 68 a0 be 4a dd 67 bd c9 9a 57 be e0 70 bb be
       -0.3132984 -0.056607522 -0.2105514 -0.36609554
000080 d3 8b 08 bf cb 1f ec 3d 8a 5e 1f be d6 7e 36 be
       -0.53338355 0.115295015 -0.15563408 -0.17821822
000090 37 8a 32 be 53 93 89 be f1 46 25 be c7 c2 c6 3d
       -0.17435537 -0.26870212 -0.16140343 0.097051196
0000a0 42 ce 87 be 1e f9 80 3e 50 39 8d be 42 1a 06 bd
       -0.2652455 0.2519006 -0.27582788 -0.032739885
0000b0 e9 a5 75 bc 4c 99 01 bb f8 69 1c be 5c ce 3d be
       -0.014993169 -0.001977521 -0.15274799 -0.18535751
0000c0 7d 23 e0 bd 68 63 c3 be c4 8c 91 3e 59 44 26 be
       -0.10944269 -0.38161778 0.28427708 -0.1623701
0000d0 50 66 93 be bf c8 8f be 54 8f 48 bd 1c b4 4f be
       -0.28788996 -0.28082845 -0.048964813 -0.2028355
0000e0 f7 d7 54 bd b3 f4 a4 be 9f af a7 be b4 5b 5d 3d
       -0.051963773 -0.3221794 -0.32751176 0.054042533
0000f0 6a 3d b2 3a ed 7f 04 be dd 24 a4 be d4 2a cf 3c
       0.0013598625 -0.12939425 -0.32059374 0.025288977

base_pointnet.bn_1.running_mean f4 [64]
000000 45 3b c3 3f 12 8a 2a c1 8e 58 d2 41 59 ed bd c0
       1.5252463 -10.658709 26.29324 -5.935223
000010 7a 8e c5 c0 5c 6c 57 40 37 8c 6d c0 47 3c 54 40
       -6.173642 3.3659887 -3.711683 3.316179
000020 1c 51 66 bd 5b e2 d0 3f e3 6b 9a c0 46 ea 13 c1
       -0.056229696 1.6319078 -4.82567 -9.244696
000030 05 c6 cb 3e df 2c e8 3e 85 2e 83 3f c2 37 0f 41
       0.39799514 0.45346734 1.0248572 8.951113
000040 07 58 81 bf 89 de f7 c0 dd 1f 92 c0 5c 4f 4f c2
       -1.0104989 -7.745915 -4.5663896 -51.8275
000050 d8 5c 3a c0 78 09 1c 42 d8 8a 3e bf 04 17 63 41
       -2.9119167 39.009247 -0.7443061 14.193119
000060 b6 e7 99 41 aa d6 6e 3f 2a 63 f0 3e fe 9a 96 c0
       19.23814 0.932963 0.46950656 -4.70642
000070 a2 0f 37 bf 63 8f 00 3f d7 c2 2b 41 0f c2 1a 40
       -0.7150823 0.5021879 10.735068 2.4180944
000080 e0 b3 77 c0 4a 20 d3 bf 3e df 57 40 ed 46 7f bf
       -3.8703537 -1.6494229 3.3730006 -0.997176
000090 58 b8 e4 c0 c8 72 be c1 82 d5 17 c0 81 69 31 41
       -7.147503 -23.806046 -2.3724065 11.088258
0000a0 8c 91 9a bf 1e 61 9e 40 d6 6f 96 c1 a6 03 45 c0
       -1.2075667 4.949355 -18.804607 -3.0783477
0000b0 d8 4a 56 40 8a f3 4d c0 77 fb 7e 40 13 e5 83 bf
       3.348318 -3.2179894 3.9840982 -1.0304283
0000c0 0c 0b df c0 ec 9a a4 c0 3d 39 95 3f 01 7b 18 be
       -6.9700985 -5.1439114 1.1658093 -0.14890672
0000d0 55 d2 b7 3e de 46 87 c0 2d 6d db 40 d8 f5 a9 3d
       0.35902658 -4.227401 6.857077 0.08298844
0000e0 23 6a 4a c2 03 7c ee 41 93 48 03 c1 22 d8 e2 bd
       -50.60365 29.810553 -8.205218 -0.1107638
0000f0 78 b5 70 c0 30 10 e9 3f 16 fe 9e be 0e 1c de 40
       -3.761076 1.8208065 -0.31053227 6.9409246

base_pointnet.bn_1.running_var f4 [64]
000000 83 fa 68 41 c1 9d 2a 42 83 40 1d 43 cf b5 1e 43
       14.56116 42.654057 157.252 158.71019
000010 49 fc 77 42 30 77 a6 41 a3 90 a0 42 99 76 02 42
       61.996372 20.808197 80.28249 32.615818
000020 90 bc d2 41 2e dc 0a 42 37 7e 1a 42 b6 ee 38 42
       26.342072 34.71502 38.623257 46.233116
000030 9c 63 87 40 0a 14 84 41 f5 98 a2 40 71 bf 97 41
       4.2309093 16.509785 5.0811715 18.968477
000040 44 d1 5e 42 03 fc 8b 42 8d 1b e3 40 d9 e5 14 44
       55.70436 69.99221 7.097113 595.5914
000050 c8 89 89 41 a1 49 9d 43 58 fd aa 40 d0 50 2e 42
       17.192276 314.57523 5.3434258 43.57892
000060 05 11 01 43 a4 22 d3 3f c1 ca a5 42 ee 13 80 41
       129.06648 1.6494946 82.896 16.009731
000070 04 33 2d 40 6b 94 47 41 ce 86 df 42 ef 32 75 41
       2.7062387 12.473735 111.76329 15.324935
000080 f7 0d 67 42 30 03 c1 41 14 e3 ee 40 a0 23 8d 41
       57.763638 24.126556 7.4652195 17.642395
000090 24 90 ea 41 96 a8 20 43 30 06 06 42 19 d6 46 42
       29.320381 160.65854 33.506042 49.70908
0000a0 12 b5 8d 41 76 bf db 41 8a bc ac 42 d0 cb 8f 40
       17.713413 27.468487 86.36824 4.4936295
0000b0 86 78 2e 41 24 77 41 41 29 98 87 41 cc 0c ff 40
       10.904425 12.091587 16.949297 7.970312
0000c0 66 2e 85 42 8d a3 b1 41 9d fc bb 40 41 04 7b 42
       66.59062 22.204859 5.8745866 62.754154
0000d0 04 7f 5d 42 51 b8 11 41 0c 3b 2b 42 67 c9 d4 40
       55.37404 9.107499 42.807663 6.6495852
0000e0 0a c4 0a 44 bb 0c 4c 43 27 b1 42 42 b9 ab 2e 40
       555.0631 204.04973 48.673 2.729231
0000f0 af 74 8a 42 d8 1a d5 41 11 a9 68 41 f5 cb 26 43
       69.2279 26.638107 14.541276 166.7967

base_pointnet.bn_2.weight f4 [64]
000000 df 06 2a 40 67 f2 d2 3f 86 17 26 40 d1 a9 4c 40
       2.6566694 1.6480225 2.5951858 3.1978648
000010 8f 79 ce 3f e3 12 d4 3f 0d c5 bc 3f 48 2a b6 3f
       1.6130847 1.6568264 1.4747635 1.4231653
000020 fe 6e c4 3f 68 54 cd 3f 15 7d d5 3f 96 ba df 3f
       1.5346372 1.6041384 1.6678797 1.7478817
000030 46 c4 aa 3f 7a d1 01 40 b4 87 b2 3f 09 26 12 40
       1.3341148 2.0284104 1.3947663 2.2835715
000040 ae 4c bc 3f 03 66 b3 3f 3e ec e2 3f 54 d2 e5 3f
       1.4710901 1.4015507 1.7728345 1.7954812
000050 67 3f e8 3f 70 01 fd 3f 80 98 16 40 78 82 28 40
       1.8144349 1.9766064 2.3530579 2.6329632
000060 a8 19 d8 3f cc 0f 07 40 8f 4c eb 3f e7 6c ac 3f
       1.688283 2.1103392 1.8382739 1.3470734
000070 25 0a db 3f 19 bc e1 3f eb 4a bc 3f fb 79 00 40
       1.7112471 1.7635528 1.4710363 2.007445
000080 43 28 b3 3f 99 03 02 40 b1 07 0d 40 2f 3e d9 3f
       1.3996662 2.0314696 2.2035944 1.6972102
000090 9b 72 f0 3f 6b 2f d7 3f 7f 8e ff 3f 34 7d e2 3f
       1.8784975 1.6811346 1.9965361 1.7694459
0000a0 4c 3c e8 3f 96 61 d4 3f 12 7b c1 3f 5b 94 bc 3f
       1.8143401 1.6592281 1.5115683 1.4732774
0000b0 bd 44 cd 3f 86 61 ee 3f a9 04 26 40 c2 8e c2 3f
       1.6036602 1.8623512 2.5940344 1.5199816
0000c0 67 6c fa 3f 56 16 db 3f 3d 02 fe 3f 0f a5 e3 3f
       1.9564332 1.7116191 1.9844433 1.7784747
0000d0 26 eb d4 3f 0b 20 b4 3f 04 16 c1 3f 23 9e b7 3f
       1.6634262 1.4072279 1.5084844 1.4345134
0000e0 b1 92 0b 40 d5 0e d8 3f 2f 5a 23 40 f6 dc 07 40
       2.1808283 1.6879526 2.5523794 2.1228614
0000f0 fd d5 ba 3f b5 bc ab 3f 53 9f c7 3f 10 53 a8 3f
       1.4596554 1.3416964 1.5595497 1.3150349

base_pointnet.bn_2.bias f4 [64]
000000 dd 54 2c be b2 0d 53 3e 77 ed a4 bd e7 90 02 3f
       -0.16829248 0.20610693 -0.08053105 0.51002353
000010 e8 96 8d 3e 75 60 9a 3e 8b 92 2b 3e 7a 7a bd bc
       0.27654195 0.30151716 0.1675512 -0.02312969
000020 4b 80 49 3e c8 64 a9 3d 18 f7 c7 3e 55 4d 8f 3e
       0.19677846 0.082711756 0.39055705 0.27988687
000030 10 6a 04 3e b5 46 de 3e 45 dc e1 3d 09 7f 35 3d
       0.12931085 0.4341332 0.11028341 0.044310603
000040 d4 00 b8 3d 94 d7 3b 3e 00 b5 ce 3d e2 b9 39 3e
       0.08984533 0.18343955 0.10093117 0.18137315
000050 4d 93 66 3e 17 25 28 be a1 7b b1 3e 97 73 b9 3e
       0.22517128 -0.16420399 0.34664634 0.36221
000060 8c ad fc 3d f3 92 df 3e 4f 49 31 3e f0 23 28 3e
       0.12337789 0.436668 0.17313121 0.16419959
000070 16 f4 4c 3e 02 30 85 3e a5 a1 6a 3d ea 53 cc 3d
       0.20014986 0.2601319 0.057283062 0.09976943
000080 42 de 26 3e 41 14 ae 3e d8 8a 99 3e 4c fc 36 3e
       0.16295722 0.33999828 0.29988742 0.17869681
000090 61 74 a5 3e 9e aa 96 3e 85 e8 58 3e 4d 4f 14 3e
       0.32315353 0.29427046 0.21182449 0.14483376
0000a0 3a 81 8f 3e 97 bc 77 3e 38 64 5b 3e 34 84 79 3d
       0.2802828 0.24193035 0.21424949 0.060917094
0000b0 46 16 d2 3c f4 15 3b 3e 49 b9 05 3f 53 67 4e 3e
       0.025645386 0.18270093 0.5223585 0.20156603
0000c0 52 60 66 3e 13 9b 29 3e eb 1d 64 3e e4 97 86 3e
       0.22497681 0.16563062 0.22277038 0.26287758
0000d0 8b ae 81 3e 17 99 a6 3d 4a 73 5f 3e c7 ba 12 3e
       0.25328478 0.08134668 0.21821323 0.14329062
0000e0 2a 19 96 bd 6f 0c 24 3e b3 fc 4f 3e d2 f0 c6 3e
       -0.073290184 0.16020368 0.20311241 0.38855606
0000f0 5b 14 65 3e 59 b4 c6 3d 45 65 78 3e b6 1e 89 3d
       0.22371046 0.09702367 0.24257381 0.06695311

base_pointnet.bn_2.running_mean f4 [64]
000000 98 31 08 3f c6 ad bb 3e b8 35 44 3f 14 b5 4c bc
       0.53200674 0.36656016 0.7664447 -0.012494344
000010 e6 dd 81 be 8f 40 36 bf ff 9f 8c bf 19 e8 44 bf
       -0.25364608 -0.7119226 -1.0986327 -0.7691665
000020 ca 64 c7 be c4 09 4a be cb 9a e3 bf 78 e4 ac bf
       -0.38944083 -0.19730288 -1.7781614 -1.3507223
000030 9a 32 fe be f0 8f b6 be 2d 4e b1 be 79 c8 2e be
       -0.4964798 -0.3565669 -0.34629956 -0.17068662
000040 2e 77 54 3e 1d 10 34 bf fd 68 be 3d ea ae 24 bf
       0.20748588 -0.70337087 0.09297369 -0.643294
000050 34 67 c2 3e 66 a5 8c be 09 1c 68 bf 00 0c 00 3e
       0.37969363 -0.2746994 -0.9066778 0.12504578
000060 a0 8c fe be 22 b8 78 be a9 e2 61 3e 56 77 45 be
       -0.49716663 -0.24288991 0.2205912 -0.19283804
000070 60 f4 c6 bd 0e cc 92 be d9 42 45 3e c9 ee 03 bd
       -0.097145796 -0.28671306 0.19263782 -0.032210145
000080 e3 aa d1 be 6b 15 80 3f 19 84 3e 3e 2b 14 84 3d
       -0.4095069 1.0006536 0.18605079 0.06449159
000090 4f a8 62 3f 24 b2 4a bf f8 8b 21 3f 6a 21 2e 3f
       0.8853807 -0.7917807 0.631042 0.68019736
0000a0 ae 24 5e be 89 9e e2 be e2 6e e8 be 25 e8 d5 be
       -0.2169368 -0.44261578 -0.45397097 -0.41778675
0000b0 49 bf 73 be c9 80 06 be 37 3c bd be 95 49 b0 3f
       -0.23803438 -0.13135065 -0.36960003 1.3772455
0000c0 de 32 cc 3e 4b f9 64 be 05 0c 94 be e4 15 8c 3e
       0.3988256 -0.22360723 -0.2891542 0.2736045
0000d0 cc ef a8 bf 1e 2b 3b bf 3a 29 2e bf 17 1d a3 be
       -1.319818 -0.73112667 -0.68031657 -0.3185813
0000e0 03 ba 08 3f a9 0b 10 3d 6c d7 87 be ae 91 d3 3a
       0.5340883 0.03516737 -0.2653154 0.0016141438
0000f0 ea 8d d7 be f4 aa 1d 3e 5d 95 1c bf 3c 2b 8d 3e
       -0.4210046 0.15397245 -0.6116541 0.27572048

base_pointnet.bn_2.running_var f4 [64]
000000 02 6c 42 3d 60 48 c0 3d 05 c5 29 3d 10 1f 11 3e
       0.047466286 0.093888044 0.041447658 0.14172006
000010 a4 52 d2 3e ce ee a1 3e 55 c7 96 3d eb 4e 41 3d
       0.41078675 0.31627506 0.07362238 0.047194403
000020 21 2e 15 3e ff 55 da 3d a8 a2 79 3e 25 5f 66 3e
       0.14568378 0.10660934 0.24378455 0.22497232
000030 81 c5 a8 3d 80 7d 9d 3e fa 78 fb 3e 6d 34 04 3d
       0.08240796 0.3075981 0.49115735 0.03227656
000040 1d de b7 3e d9 5c 9e 3e d5 f1 86 3d 20 c8 06 3e
       0.35911646 0.30930212 0.065890945 0.13162279
000050 05 cb 3b 3e 9d 0d 5b 3d d2 3c 73 3d 35 05 d9 3d
       0.18339165 0.05347978 0.059384175 0.10596696
000060 2b 0c ec 3d 8f a5 b4 3e 63 9f d3 3d 32 bf bf 3d
       0.11525758 0.3528256 0.10333135 0.093626395
000070 63 d8 49 3d 7d 1e 45 3d 42 fc 0e 3e 35 a5 00 3d
       0.049278628 0.04812478 0.13963416 0.031407554
000080 5e f5 83 3e 1d d9 e5 3d 76 3a 8d 3d 13 72 83 3d
       0.25773138 0.11223052 0.06895916 0.06418242
000090 5d 4a 10 3e 8c de 7f 3e ae 5e 90 3d 9d 66 9d 3d
       0.14090867 0.24987239 0.07049309 0.076855876
0000a0 5e 9e c0 3d 74 5b 01 3e 15 73 20 3e 23 9e ce 3d
       0.09405206 0.12632543 0.156689 0.10088756
0000b0 61 ca a7 3d 59 1d d7 3d 8c bb 25 3e 48 6c 5b 3f
       0.081928976 0.105036445 0.16184825 0.857121
0000c0 97 b1 06 3e 8f d4 1f 3e d8 9a 3a 3e 3e b9 97 3e
       0.13153683 0.15608428 0.1822313 0.29633516
0000d0 7f 92 ef 3e a9 3a 78 3d c4 31 7c 3e d6 f0 63 3d
       0.46791455 0.060602818 0.24628359 0.0556496
0000e0 78 a5 38 3d 99 9f 27 3d 9a 0f 63 3d 56 9d 01 3e
       0.04507968 0.04092369 0.0554348 0.12657675
0000f0 36 44 b5 3d 10 13 37 3f 0e 4b 33 3e 9d eb 29 3f
       0.08850901 0.7151346 0.175091 0.6637514

fc_1.weight f4 [64, 66]
000000 f0 5a 2b bd ca 00 7f be e0 5e cd bc a8 c2 8d bb
       -0.04183477 -0.24902645 -0.025069654 -0.0043261833
000010 05 a0 db 3d 67 34 5b bd 63 27 62 bc 21 44 95 3c
       0.10723881 -0.05351677 -0.013803336 0.018220963
000020 f2 53 1c 3e d3 b5 16 3e ba ab 4f 3e f1 c9 23 3e
       0.15266398 0.14717798 0.20280352 0.15995003
000030 76 91 b4 3d 91 e1 14 3e de 51 48 3e d5 4e 53 bc
       0.08816807 0.14539172 0.1956248 -0.012897213
000040 09 20 e9 3d 77 45 12 3e 1f ed 3f 3e df e5 1a 3e
       0.11383063 0.14284311 0.18742798 0.15126751
000050 d5 64 1f 3d 02 dc 34 3e 6e f0 53 3d 07 44 c0 3e
       0.03891452 0.17662051 0.051742963 0.375519
000060 3c c2 35 bd 0a b4 13 3e 2f 84 7e 3e 52 7d 63 3d
       -0.04437469 0.14424148 0.24855112 0.055539437
000070 96 b1 bd bc 05 85 2c 3e b8 3b b2 3d 49 c7 59 3e
       -0.023155969 0.16847618 0.08702797 0.21267428
000080 d2 03 5b 3e 07 7c d9 3d c4 f8 30 3e c3 9b 8b 3e
       0.21388176 0.106193595 0.17282397 0.27267274
000090 e6 e2 ea bb 45 d0 c8 3d 15 32 5f 3e 82 45 06 3e
       -0.0071681617 0.09805349 0.21796449 0.13112453
0000a0 b1 8c 52 3d 7d 37 9c 3d 69 9b 16 3b 99 bc 02 3e
       0.051403705 0.07627771 0.0022980815 0.12767257
0000b0 c2 7c af 3d 2f 5b 40 3e ff 92 de 3d 26 ec 45 3e
       0.085687175 0.18784784 0.10867881 0.19328365
0000c0 e3 17 7e 3e 0b bf a7 3c c0 b7 b0 3d 6f ca ae 3d
       0.248138 0.020476839 0.086287975 0.08534705
0000d0 91 f5 91 3e a9 13 d5 3d 85 f5 62 3e e5 dc 87 3e
       0.28507665 0.104041405 0.22163971 0.26535717
0000e0 44 ab 17 3e 01 c4 1e 3e 7a 15 11 bd 23 4d 17 3e
       0.14811426 0.15504457 -0.035420872 0.14775519
0000f0 50 6c bc bd 5a 67 17 3b 88 b5 d3 bc 21 c3 cf 3d
       -0.092003465 0.0023102374 -0.025843397 0.1014464
000100 89 68 e8 3d 30 cf d8 3d fe 69 84 3e 3a 5a 94 be
       0.113480635 0.10586393 0.25862116 -0.28975087
000110 61 a0 78 be ee 64 a4 3d d0 98 15 bd 76 97 5e bd
       -0.2427993 0.08027063 -0.036522686 -0.054343663
000120 92 8b 19 3e b2 16 71 3e df 3a f3 3c ad 99 be be
       0.14994648 0.23543814 0.029691158 -0.3722662
000130 e5 61 1d 3e ab a4 70 3e 65 78 38 be cd 3a 23 bd
       0.15369375 0.23500316 -0.18014677 -0.039851
000140 98 73 e1 3d 3d a7 bf bc 89 a1 46 be 41 34 92 bd
       0.11008376 -0.023395175 -0.19397558 -0.07138873
000150 8d 75 83 bd 48 6d 24 3e de 17 0d 3c d5 f7 ca 3d
       -0.064189054 0.16057312 0.008611647 0.099105515
000160 2f fd 5d 3e 5d 33 db be dd db ec 3e 2a 83 0b 3f
       0.21678613 -0.42812625 0.46261492 0.54497015
000170 5d da 41 be aa 2e b0 3d 8b 31 9c 3e 3a fd fa 3c
       -0.18930955 0.086026505 0.30506548 0.030638326
000180 5c dd 92 3e 94 27 38 3d 34 d9 54 3e a2 f4 f6 bd
       0.2868451 0.04495962 0.20785981 -0.12058379
000190 a6 62 51 3d 8e 8f 84 3d 75 78 e6 3e 84 f1 0b 3f
       0.05111947 0.064726934 0.45013776 0.546654
0001a0 22 b0 56 3e ee e9 2b bc 7f ab 2b 3c ce f5 41 be
       0.20965627 -0.010492785 0.0104779 -0.18941423
0001b0 82 57 a3 3e 76 96 2e 3e e9 a3 a3 3e d3 6d 33 be
       0.319027 0.17049584 0.3196099 -0.17522363
0001c0 cd 62 77 be f8 00 6a be d4 2c b5 bd d2 8c 1e 3e
       -0.24158783 -0.22851932 -0.08846441 0.15483406
0001d0 3a 72 36 3b 67 4a 9a 3e 36 6c 97 be 1d 60 59 be
       0.002783908 0.3013489 -0.29574746 -0.2122807
0001e0 e7 df 1f 3d a5 59 2f be 25 a0 8e 3e 5a 43 63 3d
       0.03903189 -0.1712404 0.27856556 0.055484153
0001f0 af ca bd be c5 e8 09 bd e1 af 90 be d4 90 a2 3d
       -0.37068698 -0.033669252 -0.28259185 0.0793778
000200 fe 5d 29 3e b2 97 85 3e ed 17 29 3e 31 25 14 be
       0.16539761 0.26092297 0.16513033 -0.14467312
000210 02 96 3e bd a1 c2 2c bd ef 97 91 3a 24 bb c8 3d
       -0.046529777 -0.0421778 0.0011107902 0.09801319
000220 fa 91 d7 bd be b8 91 bd df b6 96 bd 31 ec 84 bd
       -0.1052589 -0.07115315 -0.07359099 -0.064903624
000230 df 68 ac 3a d6 88 57 bd cd ef 1c 3d 41 17 95 3d
       0.0013153813 -0.05262073 0.03831463 0.07279826
000240 e8 b1 90 3b e9 46 f2 bc 59 01 70 3d 41 2e c8 3d
       0.0044157393 -0.029574828 0.058595035 0.09774447
000250 62 02 57 bb 6d a4 ea bd 58 1c 61 bd 16 68 5d bc
       -0.0032807817 -0.11457143 -0.05495867 -0.013513586
000260 12 3b 2b 3d 6d 34 7b bd 0d ac d7 bd bf 61 dc 3d
       0.04180438 -0.061329294 -0.10530863 0.10760831
000270 b7 1e c7 bc 72 aa e7 3d bd 37 bd bd ac 5f c7 3c
       -0.024306638 0.11311807 -0.09239147 0.024337612
000280 69 a4 d9 3c 7a 90 d5 bd d4 ab 12 ba 02 01 c0 bd
       0.026567655 -0.10427947 -0.00055950624 -0.09375192
000290 3d 2d 87 bd a7 5e cd 3c 85 86 b7 bd 8e 50 8f bd
       -0.066004254 0.025069548 -0.089612044 -0.069977865
0002a0 b9 e2 9e 3c aa 5f 2e bd 15 d9 db bd ca f0 81 bd
       0.01939522 -0.0425717 -0.107347645 -0.06344755
0002b0 95 5c cc bd 50 49 6e 3d b6 3a 8c 3d 6f 53 f3 bc
       -0.09978596 0.058175385 0.06847136 -0.02970287
0002c0 aa 04 e2 bd c6 31 45 3d 60 9b 56 3c 54 ec f6 bd
       -0.11036046 0.04814317 0.013098568 -0.12056795
0002d0 ef 64 81 3c 9e 4e 9b bc 9f 54 c8 bc 21 c4 09 3d
       0.0157952 -0.018958386 -0.024454413 0.03363431
0002e0 36 3e a9 3d 9b 3c 96 3c 3d 78 8f 3d 30 43 b1 3d
       0.08263819 0.018339446 0.070053555 0.08655393
0002f0 13 16 ac 3b 3c 96 89 3c 2c 19 89 bc 73 b9 93 3d
       0.005251655 0.01679527 -0.016735636 0.07213106
000300 e8 ba f2 3d 5a 21 2c 3d 52 47 1d bd e5 69 1b bd
       0.11852056 0.042023994 -0.038398094 -0.037942786
000310 b9 bb c2 bd c5 87 64 3d 17 a0 9f 3b 2c f6 08 bd
       -0.095084615 0.055793542 0.004871379 -0.033437893
000320 ef 67 cd be ca 16 4a 3e bd 26 b3 bc 1a d0 3a be
       -0.40118358 0.19735256 -0.021869058 -0.18243447
000330 2a 09 b1 3d 81 26 b0 3e 17 b7 a6 3e 05 37 7f be
       0.08644326 0.34404376 0.3256156 -0.24923332
000340 d8 98 75 3e 41 85 a6 3e 93 f2 2d 3e ee 71 e7 3d
       0.23984087 0.3252354 0.16987066 0.11301027
000350 86 bc 4b 3e 7b 21 76 bc ac 86 70 be 1c fd 52 3e
       0.19896135 -0.015022631 -0.23488873 0.20604366
000360 76 b4 b5 3d b2 3f b4 3d f2 6d 3c bd c7 93 89 3e
       0.08872311 0.088012114 -0.04600329 0.26870558
000370 34 7d 91 3e df 3c e5 bc 41 fb d7 3e 3e cb a8 3e
       0.28415835 -0.027983127 0.4218388 0.3296756
000380 c2 d4 14 3c 08 a8 88 3e 6b b6 4c 3e 47 13 a7 3e
       0.009083929 0.26690698 0.19991462 0.32631895
000390 a3 b5 17 3e bf eb 74 3e a9 bd b6 3e 48 f1 22 be
       0.14815383 0.23918055 0.35691574 -0.15912354
0003a0 d5 89 1e 3e a0 de a0 3e 8d 0f 78 3e 16 d0 bf 3e
       0.15482266 0.3141985 0.24224682 0.37463444
0003b0 cb 1d 9e 3e ff 2b 23 3d e9 f0 f0 bd 1c fc e3 be
       0.30882105 0.03983688 -0.117647 -0.44528282
0003c0 6f 71 96 3e 5d 0b 2c 3e e9 68 e3 3d f2 10 94 bd
       0.29383418 0.1680121 0.111039944 -0.072297946
0003d0 89 bc 8a 3d 26 fd 82 3d 9c 3c 76 3e 93 a1 dc 3d
       0.067742415 0.063959405 0.24046558 0.10773005
0003e0 5b eb 68 3d cb d7 85 3d 3d d6 97 3e 88 55 81 3e
       0.056865077 0.065353 0.29655638 0.25260568
0003f0 79 e1 df 3e 52 2e 24 3e 1c 5f 9d 3e 42 86 b4 3d
       0.4372671 0.16033295 0.30736625 0.0881467

fc_1.bias f4 [64]
000000 ff 48 58 bb a3 36 c3 bc de 70 ba bd 87 d2 ed 3d
       -0.0033002493 -0.023829764 -0.09103559 0.116124205
000010 ea c8 49 be b5 8d 67 3e 8a 26 f7 3b 19 34 af bd
       -0.19705549 0.2261265 0.007542436 -0.08554859
000020 24 94 ad 3d 2e 9c b3 bc f6 6c ca 3d 82 bc e7 bc
       0.08475521 -0.021925058 0.09884064 -0.02828813
000030 df ec 80 bd 4c fe ca 3d d4 34 c1 bd 2f 45 f6 3d
       -0.062951796 0.099117845 -0.09433904 0.120249145
000040 95 64 ee bd 0b 04 45 3e 4f be 19 be 27 53 84 3e
       -0.11640278 0.19239824 -0.15014003 0.2584469
000050 0b 7f 96 be 42 35 b7 3d 05 98 25 be 50 33 e7 3d
       -0.293938 0.08945705 -0.16171272 0.11289084
000060 64 04 e8 bd 53 06 96 3e e8 fc 00 3e 6f 69 b9 3c
       -0.113289624 0.293017 0.12596476 0.022633282
000070 2a 1e 34 3e 7b 12 a3 3d a2 22 cb 3c af 1e 10 bd
       0.17589632 0.07962509 0.024796788 -0.035185512
000080 61 91 2f 3e 16 eb a4 3e d9 00 e4 3c ff 7b 6b bd
       0.17145301 0.32210606 0.027832435 -0.0574913
000090 95 d9 71 bd 2f b9 b4 bd f9 9b 8f 3d 30 8f ee 3d
       -0.059045393 -0.088243835 0.07012171 0.116484046
0000a0 9f ae c4 bd 0f 33 50 3d ed f5 93 be 5c 39 42 3e
       -0.09603619 0.050829943 -0.28898564 0.18967193
0000b0 f0 16 0c be 15 89 d6 bc 1d 0f 9d bd f8 b7 13 3e
       -0.13680625 -0.026188413 -0.07668898 0.14425647
0000c0 f0 d6 8e 3e e6 6d ef bd 9a 19 b4 bd 8c 1d d8 3d
       0.2789836 -0.11690883 -0.087939456 0.105525106
0000d0 d2 5d 61 bc 41 82 d7 bd b2 c5 13 3e cd 30 da 3d
       -0.013755279 -0.10522891 0.14430884 0.10653839
0000e0 5b b2 46 be 50 44 0f 3d 8e fd f5 bb ba b7 cd 3d
       -0.19403975 0.034977257 -0.0075070327 0.10044809
0000f0 c2 5a 00 3e 2d 62 23 be 0e 9d 0a bd 9b ef 0e 3d
       0.12534621 -0.1595542 -0.033841185 0.034896474

fc_2.weight f4 [3, 64]
000000 28 1e 49 be 52 fd 33 3e a7 dc c3 bd 65 55 0a bd
       -0.1964041 0.17577103 -0.095635705 -0.033772845
000010 91 0c be be 44 7c 9c 3f cc 93 a0 3f 04 9d 0b 3f
       -0.37118962 1.2225423 1.2545104 0.5453646
000020 7e a9 d5 bb 4e 1e f5 3d 15 d6 13 3f 72 b4 da bc
       -0.006520449 0.11968671 0.5774854 -0.026697371
000030 58 12 cd 3d 2c f4 a3 3d 60 50 98 3e 88 6c c1 bc
       0.100132644 0.080055565 0.2974882 -0.023611322
000040 14 67 5c 3e 58 8d 6f 3f 07 08 b5 3e b7 95 a9 3f
       0.21523696 0.9357505 0.35357687 1.3248814
000050 32 c1 be 3f cf 2e 4c bf b8 fe a2 bf 77 0d e4 3e
       1.4902709 -0.79758924 -1.2733984 0.44541523
000060 72 49 e6 bd 1c 0d 03 40 2b 88 bc 3f 2a 82 cd 3d
       -0.11244477 2.0476751 1.4729055 0.100345924
000070 97 15 e9 bf 35 73 f5 3d 27 93 73 40 ae 6e d5 3f
       -1.8209714 0.119848646 3.8058565 1.6674402
000080 33 7e 90 3d 3f a3 49 40 21 01 8b bd be 33 36 bd
       0.070553206 3.1505888 -0.06787325 -0.04448294
000090 5b 2d 3e c0 30 bf 89 3d f6 a1 fa bd 1a 0c cb 3d
       -2.9715183 0.06725919 -0.12237923 0.099144176
0000a0 a8 8f 65 bd 56 23 c7 bd 83 c9 bf bf e0 32 0a bf
       -0.056045204 -0.09723537 -1.4983371 -0.5398388
0000b0 a8 e1 a8 3e a0 c8 d8 3b 65 8f 80 3e 86 65 b7 3f
       0.32984662 0.0066157132 0.251094 1.4327857
0000c0 e9 17 89 bf 68 8f 5f bd 94 b0 56 bd 40 ca b1 3b
       -1.0710422 -0.054580122 -0.05241449 0.0054257214
0000d0 ff 4e 95 3f 17 74 6b bd 3a 7c c6 3f 26 39 43 c0
       1.1664733 -0.05748376 1.5506661 -3.050363
0000e0 19 23 8e c0 45 c6 6e c0 5b 68 cf bd 58 8c fc bc
       -4.4417844 -3.7308514 -0.10127326 -0.03082864
0000f0 7f dd 24 be e0 d6 68 3f 80 b6 6d 3c 66 60 cd bd
       -0.16100119 0.90952873 0.014508843 -0.10028152
000100 5e ba 25 bc f3 32 fa be 3d 76 bc 3d f6 0f c8 be
       -0.010115234 -0.48866996 0.0920224 -0.39074677
000110 27 27 2f 3f 75 23 bf 3f 55 62 d1 bf e4 9b 43 3d
       0.68419117 1.4932696 -1.6358134 0.04775609
000120 2c c1 23 be 0a cd bf bd 7c 74 0c c0 63 51 08 bd
       -0.15991658 -0.0936528 -2.1946096 -0.03328074
000130 18 0b 2b 3f 28 24 31 bd 58 7f 23 c0 50 b2 72 3c
       0.668138 -0.043247372 -2.5546474 0.014813021
000140 18 6a 3c 3f 59 dd a6 3f e5 e7 c5 3e fa 39 46 3f
       0.73599386 1.30363 0.38653484 0.77432215
000150 a3 f5 67 c0 be d2 e6 bf 4e 1d 86 bd a3 7d 47 c0
       -3.6243675 -1.8033063 -0.06548558 -3.1170433
000160 8a bb b1 bd 38 5d bc bf d7 a8 8e c0 06 ab d8 bd
       -0.08678348 -1.4715948 -4.4581103 -0.10579495
000170 8e ea c5 3f f7 c8 88 3d b6 26 68 3f d5 a2 0e 3e
       1.5462205 0.06678956 0.9068407 0.13929303
000180 87 15 14 bf 70 e0 83 c0 3b 6f a2 3d 50 35 d1 3d
       -0.5784535 -4.121147 0.07931372 0.10215247
000190 50 4a 30 40 98 90 fd bc 44 2e 4f 3d ac 0d bb 3d
       2.7545357 -0.030952737 0.05058123 0.09133467
0001a0 e4 e4 18 3d 9c 30 8c bc f3 5c 39 3f 06 63 c8 3c
       0.037327662 -0.017113023 0.72407454 0.02446128
0001b0 29 1f 32 3f ba dc 9a 3d 33 f7 09 be 76 2c 37 40
       0.69578797 0.075616315 -0.13473205 2.8620887
0001c0 87 ac 39 3f ca 84 eb 3d 35 26 a8 bc 52 16 9c 3d
       0.7252888 0.11499937 -0.020526031 0.07621445
0001d0 39 62 c0 c0 a2 74 13 be b8 e2 20 c0 5d e5 2f 40
       -6.01199 -0.1439996 -2.5138378 2.7483742
0001e0 dc c2 de 40 9a 2a 88 40 c5 83 5e 3d 53 42 7a be
       6.9612865 4.2552004 0.054324884 -0.24439363
0001f0 ac 22 49 be 09 aa 62 bf df c7 8a 3c 46 6e ad bd
       -0.19642133 -0.88540703 0.01694101 -0.084682986
000200 1a 43 31 3e 2d 8a 6a 3d 64 65 bf bd 2b 3d f4 3d
       0.17310753 0.05726068 -0.093455106 0.11925729
000210 b7 57 2c 40 0f c5 9f c0 f5 28 eb 3d 00 07 11 bf
       2.6928537 -4.992805 0.11482421 -0.56651306
000220 8c ea 02 3e d6 4a c8 3d 5e d8 8e 3f cf 78 e2 3c
       0.12784785 0.09779899 1.115978 0.027645497
000230 1a 78 cd be fa 08 e8 3d 3e f4 6b 3e fc 1c a9 bd
       -0.40130693 0.11329837 0.2304239 -0.082574815
000240 db f2 fe be f5 cc 65 c0 93 45 c8 be 9a 76 35 c0
       -0.4979466 -3.5906346 -0.3911558 -2.8353639
000250 ed 81 50 bf 9e 58 12 40 3b 6a 8d 3f b4 40 5f 3f
       -0.8144825 2.2866588 1.1048044 0.87208104
000260 88 00 4a bd 5a f0 75 bf 69 78 82 3f e8 3e 1a bd
       -0.049316913 -0.9606987 1.0192996 -0.03765765
000270 f5 0b 89 3f 39 7a 9e bd 5d 91 a2 c0 59 04 c3 bf
       1.0706774 -0.07738156 -5.0802445 -1.5235702
000280 0c bb 86 3e 27 77 97 bf 49 00 27 3e f8 d8 70 bc
       0.2631458 -1.1833237 0.16308703 -0.014700167
000290 e8 6a d6 3f de 23 9a bd 90 17 0e bc de 94 b6 bd
       1.6751375 -0.075263724 -0.00867261 -0.08915113
0002a0 98 ce f5 bd 88 71 1b bd b5 28 ba 3f 09 d8 b8 3e
       -0.12002295 -0.03795007 1.4543673 0.36102322
0002b0 79 b5 ed be 98 c6 ef bd d8 d3 92 be f1 9d 1d c0
       -0.46427515 -0.117078006 -0.2867725 -2.462765
0002c0 8a 5e 08 3f 82 76 c1 3d 54 43 6c bd 9c 71 77 3d
       0.53269255 0.09446432 -0.057681397 0.06041108
0002d0 06 0d 70 40 86 98 b2 bc b7 66 28 40 eb 80 e6 3f
       3.750795 -0.021801244 2.6312692 1.8008093
0002e0 76 c1 33 40 a7 b2 02 40 6c fc 9b bc 3f 1f eb 3d
       2.808683 2.042154 -0.019041263 0.11480569
0002f0 0a 51 f0 3d 72 dd 1b bf 50 d3 63 3d 9c 97 d3 bd
       0.11734207 -0.60884774 0.055621445 -0.103316516

fc_2.bias f4 [3]
000000 f6 15 26 be 08 0f 2e 3b 6a 36 85 3c
       -0.16219315 0.0026559252 0.016261298
