Additional stuff/segmentation_pointnet_d05s05f02SchedulerEarlyStop.pth (torch, 79498 bytes, 18 tensors)

base_pointnet.conv_1_a.weight f4 [64, 1, 3]
0	0xbdbbb1f8	-0.09164804
1	0x3d81fd82	0.06347181
2	0xbd8ec689	-0.06971461
3	0xbdea45bd	-0.11439083
4	0xbe6093e4	-0.21931416
5	0x3dfba4bb	0.12287279
6	0x3eac4c8a	0.33652145
7	0xbdeb1cb9	-0.11480088
8	0xbf13db75	-0.5775674
9	0xbe9ec037	-0.31006023
10	0xbf038f65	-0.5139068
11	0xbec37ca7	-0.3818104
12	0x3ef4d6a2	0.47820002
13	0x3ecbfa85	0.3983957
14	0x3ebf9598	0.37418818
15	0xbe9701f8	-0.2949369
16	0xbef8ee9b	-0.48619542
17	0x3eef02af	0.46681735
18	0x3dfe6c3f	0.1242299
19	0xbeb8319e	-0.35975355
20	0x3e6d37bb	0.2316579
21	0x3ecfd682	0.40593344
22	0x3cc750f7	0.0243306
23	0x3ef72d2f	0.4827666
24	0xbeeaad88	-0.4583552
25	0x3dd663ab	0.10468229
26	0x3ec33901	0.38129428
27	0x3f0a957e	0.54134357
28	0xbee8aff4	-0.45446742
29	0xbe642a4e	-0.22281763
30	0x3e7877d4	0.24264461
31	0xbece0189	-0.40235546
32	0xbcf55b79	-0.029950844
33	0xbe21eea2	-0.15813687
34	0x3e841443	0.25796708
35	0xbf0167f4	-0.50549245
36	0x3ddf59c0	0.1090579
37	0x3d9e44ee	0.07727991
38	0xbe234f0c	-0.15948123
39	0x3db37d0d	0.08764086
40	0x3def1206	0.116733596
41	0xbe27924b	-0.163644
42	0xbeadfe74	-0.33983195
43	0x3dc884b8	0.09790939
44	0x3dcd4421	0.1002276
45	0x3e49f565	0.19722517
46	0xbdb92911	-0.09041036
47	0x3e72e5b9	0.23720445
48	0xbc8d193a	-0.017223943
49	0x3d8ff828	0.07029754
50	0x3cf65204	0.030068405
51	0xbd834c47	-0.06411033
52	0xbcb80a84	-0.022465952
53	0x3e28ea3c	0.16495603
54	0xbe8ff661	-0.2811766
55	0xbedba88c	-0.4290203
56	0xbd534249	-0.051576886
57	0x3e9b695e	0.30353826
58	0xbedd14a0	-0.43179798
59	0x3ed4c3fb	0.4155577
60	0xbea15611	-0.31510976
61	0x3e897441	0.26846507
62	0xbeb61066	-0.35559386
63	0xbe2881b8	-0.16455734
64	0x3e8ffe05	0.2812349
65	0x3e1caede	0.15301082
66	0xbe96bb8a	-0.29439956
67	0xbeb63944	-0.35590565
68	0x3f0cc165	0.54982597
69	0xbf089dd6	-0.5336584
70	0xbe82fbfa	-0.25582868
71	0xbe8d7f3b	-0.27636132
72	0xbefa7ab5	-0.48921743
73	0x3de2377f	0.11045741
74	0xbf12f4c5	-0.5740474
75	0xbe760c25	-0.2402807
76	0x3e45e5a9	0.1932589
77	0xbde55fc4	-0.111999065
78	0xbe93f974	-0.28901255
79	0x3ee65609	0.44987515
80	0xbdf4f070	-0.11959922
81	0xbde3b003	-0.11117556
82	0xbe8567d7	-0.26055786
83	0xbe8e25ea	-0.277633
84	0xbecfb5f6	-0.40568513
85	0x3eb14633	0.3462387
86	0x3e952cb6	0.29135674
87	0x3ee4ebea	0.44711238
88	0xbebad007	-0.36486837
89	0xbeee2e39	-0.4651964
90	0xbf10bb71	-0.5653601
91	0xbcdbc3cd	-0.026826764
92	0xbe8d803e	-0.27636904
93	0xbb3e6c0b	-0.0029056098
94	0xbecd665c	-0.40117157
95	0x3ec28138	0.3798921
96	0x3e148c11	0.14506556
97	0xbf029499	-0.5100799
98	0xbeecc0b2	-0.46240765
99	0x3e144986	0.14481172
100	0x3ae59aba	0.0017517426
101	0x3f006cbd	0.5016592
102	0x3f003f03	0.5009615
103	0x3d383c8c	0.044979617
104	0x3ed70540	0.41996193
105	0xbf142904	-0.57875085
106	0x3e017e75	0.12645896
107	0xbdf728f8	-0.12068361
108	0xbdbb8433	-0.091560744
109	0xbe8a4e99	-0.2701309
110	0xbef7be9e	-0.48387617
111	0x3ead64f5	0.33866087
112	0x3e11d58d	0.1424162
113	0xbeda2262	-0.42604357
114	0x3e31a4b4	0.17347986
115	0x3d47187f	0.048607346
116	0xbf03c045	-0.51465255
117	0x3ec14bbb	0.3775309
118	0xbed899ad	-0.42304745
119	0xbdabbbab	-0.08385404
120	0xbea3a98d	-0.31965294
121	0xbe1a2734	-0.15054017
122	0xbf04f673	-0.5193855
123	0xbe847d63	-0.25876912
124	0xbee26c8f	-0.4422345
125	0x3e6a1ee8	0.22863352
126	0x3ee5939a	0.44839174
127	0xbe9c54f1	-0.30533555
128	0xbb4e2434	-0.0031454684
129	0xbe7966f3	-0.24355678
130	0x3d7c6a35	0.061624724
131	0xbed52947	-0.41633055
132	0xbe005bfb	-0.12535088
133	0x3e18bb88	0.14915287
134	0x3db84d44	0.08999112
135	0x3d9abc72	0.07555474
136	0xbde29268	-0.11063081
137	0xbd393080	-0.04521227
138	0x3e037ba8	0.1284014
139	0xbe96710e	-0.2938313
140	0xbecc3e45	-0.39891258
141	0xbec88f83	-0.3917199
142	0xbebf17c8	-0.3732283
143	0x3ede1d8f	0.43381926
144	0x3c30a95c	0.010782566
145	0x3d171785	0.036887664
146	0x3b67a6ec	0.0035347296
147	0xbd79abf4	-0.060955003
148	0xbecf0a8d	-0.40437737
149	0x3e4e10b8	0.20123565
150	0x3f0b3dc1	0.54391104
151	0x3ed695c1	0.41911128
152	0x3f0d851c	0.55281234
153	0x3f0ac5e5	0.54208213
154	0x3f013a07	0.5047917
155	0x3dab1da4	0.08355263
156	0x3e92fb82	0.2870751
157	0xbe8429ff	-0.2581329
158	0x3e8ca07e	0.27466196
159	0xbe6a6428	-0.22889769
160	0x3e60b477	0.21943842
161	0xbf064449	-0.52447945
162	0xbf155ba2	-0.58342946
163	0xbf196674	-0.59921956
164	0xbe95e693	-0.29277477
165	0x3ee7d288	0.4527781
166	0xbd0f9a70	-0.035059392
167	0xbee16b28	-0.44027066
168	0x3e8e4918	0.2779014
169	0xbdb2edda	-0.08736773
170	0xbe0c3ac0	-0.13694286
171	0x3ef36076	0.4753453
172	0x3f02a438	0.5103183
173	0xbf0fe900	-0.56214905
174	0x3c48a102	0.0122454185
175	0x3c863f2e	0.016387548
176	0xbe7fc760	-0.249784
177	0xbeb8f9a1	-0.36127952
178	0x3ec70519	0.38871077
179	0xbe771cdd	-0.24132104
180	0x3df99e55	0.121884026
181	0x3e4f5226	0.20246181
182	0x3e548ae8	0.20756114
183	0xbde249a2	-0.110492006
184	0x3dd7b5d1	0.105327256
185	0xbeca14df	-0.39469048
186	0xbcbb5295	-0.022866527
187	0xbed7121e	-0.4200601
188	0xbbbd004d	-0.005767858
189	0x3eb5d45f	0.3551359
190	0x3d92b94e	0.0716425
191	0xbb4daabe	-0.0031382288

base_pointnet.conv_1_a.bias f4 [64]
0	0x3eaa6f23	0.33287916
1	0x3e24026d	0.1601655
2	0x3d9d9cf3	0.07695951
3	0x3e9c774b	0.30559763
4	0xbf10d46c	-0.5657413
5	0xbee16e0e	-0.44029278
6	0x3d06b0c2	0.032883413
7	0xbee344a5	-0.4438831
8	0xbc09debb	-0.0084149195
9	0x3e83a019	0.25708082
10	0x3e244d6a	0.16045156
11	0x3f0fdcfd	0.56196576
12	0x3ebca497	0.36844322
13	0x3e35382d	0.1769721
14	0xbeaa7404	-0.33291638
15	0x3f07c2a4	0.53031373
16	0x3ed46f59	0.41491202
17	0x3e84dffa	0.2595213
18	0x3eebbe2e	0.46043533
19	0xbebb3af8	-0.36568427
20	0x3e91ae83	0.28453454
21	0xbed7a1af	-0.42115542
22	0x3e636d45	0.22209652
23	0xbf087695	-0.5330594
24	0x3d746a72	0.059671827
25	0x3caf9a03	0.021435743
26	0xbe80b585	-0.25138488
27	0x3ebae464	0.36502373
28	0x3ee43eac	0.44579065
29	0xbe42b8d0	-0.19015813
30	0x3eb18c7d	0.34677497
31	0x3e7728af	0.24136613
32	0xbec2c05c	-0.38037384
33	0xbee7d54d	-0.45279923
34	0xbecd2a63	-0.400714
35	0xbeadcd4f	-0.339457
36	0xbe5a6382	-0.21327022
37	0xbea2dd64	-0.31809533
38	0x3afa3c80	0.0019091517
39	0x3efeb646	0.4974844
40	0xbe12a52f	-0.14320825
41	0x3e006455	0.12538274
42	0x3d8e028f	0.06934082
43	0xbecebe59	-0.403796
44	0xbf073bd2	-0.52825654
45	0x3ea99141	0.33118632
46	0x3ee96177	0.45582172
47	0x3eb193e7	0.34683153
48	0x3f041592	0.51595414
49	0x3eb2cd91	0.3492246
50	0xbe27c2bb	-0.16382878
51	0xbed72df9	-0.42027262
52	0x3ef7b445	0.48379722
53	0x3f02dc66	0.5111755
54	0x3df321cb	0.1187168
55	0xbeaa5fed	-0.3327631
56	0xbe305c23	-0.17222647
57	0x3e1e12c6	0.15436849
58	0x3ef59b22	0.4796992
59	0xbedcc95c	-0.43122375
60	0xbe363c82	-0.1779652
61	0xbe4471f1	-0.1918409
62	0xbe69e162	-0.22839883
63	0x3d9be1c5	0.076114215

base_pointnet.conv_1_b.weight f4 [64, 1, 3]
0	0x3ec6627d	0.38747016
1	0x3f25fe86	0.64841497
2	0x3f5bb639	0.85824925
3	0x3e771fa0	0.24133158
4	0x3eae89bf	0.34089467
5	0x3f68213c	0.9067571
6	0x3e683e02	0.22679904
7	0x3e9326dc	0.28740585
8	0x3cb6194c	0.02222886
9	0xbf1cb305	-0.6121066
10	0x3d9f2be8	0.07772046
11	0x3e4c3bb9	0.19944657
12	0xbe8f618d	-0.28004113
13	0x3efebbe4	0.49752724
14	0xbeb4cd08	-0.35312676
15	0x3e010f62	0.12603524
16	0x3e03c44a	0.12867847
17	0xbe4e7991	-0.20163561
18	0xbe6ddea9	-0.2322947
19	0x3f162de7	0.5866379
20	0xbe756b54	-0.23966724
21	0xbdfab80f	-0.12242138
22	0x3e77368f	0.24141906
23	0xbec1022d	-0.37696972
24	0xbd43cb92	-0.04780156
25	0x3e0ea43d	0.1392984
26	0x3e6659f7	0.22495256
27	0x3e00faa9	0.1259562
28	0xbeb351af	-0.35023257
29	0xbed54bcc	-0.4165939
30	0xbd877dc9	-0.066157885
31	0x3cc14c57	0.023595972
32	0x3e39f9f4	0.18161756
33	0x3e594715	0.21218522
34	0xbf338809	-0.7012945
35	0x3f0e3674	0.5555184
36	0x37115a75	8.663735e-06
37	0x3ef432ff	0.47695157
38	0x3f4f289f	0.8092136
39	0xbf821fd3	-1.0165962
40	0x3dbfac33	0.09359016
41	0xbd88a63c	-0.06672332
42	0x3f0bdb0f	0.5463113
43	0x3f2c2327	0.6724114
44	0xbeab42ba	-0.33449346
45	0x3e85934a	0.26088935
46	0xbef00005	-0.46875015
47	0x3eb846c0	0.35991478
48	0xbe9d0e80	-0.30675125
49	0xbe6b89ca	-0.23001781
50	0xbecaf41e	-0.39639372
51	0xbee73368	-0.45156407
52	0x3f183857	0.5946097
53	0xbf32fe8b	-0.6991965
54	0xbde401f2	-0.111331835
55	0x3ee7f827	0.45306513
56	0x3dbce1e3	0.09222772
57	0x3ebb56af	0.36589572
58	0x3d5a4b12	0.05329425
59	0xbe222334	-0.15833741
60	0xbdbdfd9c	-0.09276888
61	0x3e2fbfb1	0.17162968
62	0xbf1005e2	-0.56258976
63	0xbf4a6429	-0.7905908
64	0x3df2448a	0.11829479
65	0xbf03b899	-0.5145355
66	0xbf19e8a8	-0.6012063
67	0xbeaece37	-0.34141704
68	0xbe71570b	-0.2356836
69	0xbe4d0d20	-0.20024538
70	0xbf26b7d6	-0.6512426
71	0x3f18bf46	0.5966686
72	0xbe7453db	-0.23860113
73	0xbf068404	-0.5254519
74	0x3eded2ac	0.43520105
75	0xbf2e9475	-0.6819528
76	0xbcc9c146	-0.024628293
77	0x3e9a3f07	0.3012621
78	0x3ec574d7	0.38565704
79	0xbf25f228	-0.64822626
80	0x3ebf0bec	0.37313783
81	0xbf254717	-0.645616
82	0x3f06ca2e	0.5265225
83	0xbea684a2	-0.32523066
84	0xba094292	-0.0005236055
85	0x3e883870	0.26605558
86	0x3ef06110	0.46949053
87	0x3f3d66c4	0.7398493
88	0x3e53ac39	0.20671166
89	0xbeaff1aa	-0.34364063
90	0xbe2a4cc6	-0.16630849
91	0xbe3ffc83	-0.1874867
92	0x3ed13736	0.40862435
93	0xbe5d86a3	-0.21633391
94	0x3d5fe984	0.054666057
95	0x3f3eb1f2	0.74490273
96	0xbf234ed5	-0.63792163
97	0xbee71c87	-0.45138952
98	0xbf5a54ae	-0.8528546
99	0xbf39edae	-0.72628295
100	0xbe2017c2	-0.15634063
101	0x3ebc6c72	0.36801487
102	0xbebc62d9	-0.36794165
103	0xbdf5c857	-0.120011024
104	0x3f702247	0.93802303
105	0x3f0a6e3d	0.5407446
106	0xbed2c060	-0.41162395
107	0x3e15f984	0.14645964
108	0x3e99cbd8	0.30038333
109	0x3e8fde43	0.2809926
110	0x3f10f364	0.56621385
111	0x3f85930d	1.0435501
112	0x3e01643c	0.12635893
113	0x3f041ace	0.516034
114	0x3c4f332a	0.012646476
115	0x3f207495	0.6267789
116	0xbecdffbd	-0.40234175
117	0xbe2f3dce	-0.1711342
118	0xbe9159a1	-0.28388694
119	0xbf886f71	-1.0659009
120	0x3eb6a45e	0.35672277
121	0x3ee75f1f	0.4518976
122	0x3ed1f086	0.41003817
123	0xbf0966a6	-0.53672254
124	0xbf295941	-0.66151816
125	0x3f54c570	0.83113766
126	0xbf0532c9	-0.52030617
127	0xbd6fd9ce	-0.058557324
128	0x3dff9b87	0.12480836
129	0xbfa020f0	-1.2510052
130	0x3e1e5350	0.15461469
131	0x3ee4b57e	0.44669718
132	0x3e64f530	0.22359157
133	0x3ef2d0f3	0.4742504
134	0xbe1c97a9	-0.15292229
135	0xbef96992	-0.48713356
136	0x3eed4bd3	0.46346912
137	0x3f63bf66	0.88963926
138	0x3dd7ab73	0.10530748
139	0x3db0a3e5	0.086250104
140	0x3d28b671	0.041189615
141	0x3e9a7d15	0.30173555
142	0xbd700613	-0.058599543
143	0x3e5f557e	0.21809956
144	0xbf068ed0	-0.52561665
145	0x3dbf9043	0.093536876
146	0x3f2dbb5b	0.67864007
147	0x3c80f03e	0.015739556
148	0xbf068881	-0.5255204
149	0x3f3f52d4	0.7473576
150	0xbe6ebd16	-0.23314318
151	0xbc8ee026	-0.017440867
152	0x3ea61119	0.3243492
153	0xbc982296	-0.01857118
154	0x3f119b04	0.5687716
155	0x3f2ad8a4	0.6673682
156	0x3f052b30	0.52019024
157	0x3f1f7b79	0.6229778
158	0x3ee3f7ab	0.44524893
159	0x3d4f78c3	0.050652277
160	0x3f001fef	0.50048727
161	0xbdeb42e4	-0.11487368
162	0x3e3e1033	0.18560867
163	0xbe715c50	-0.2357037
164	0xbdca9240	-0.09891176
165	0xbe63fda2	-0.22264722
166	0xbe91edf5	-0.2850186
167	0xbf72a8ba	-0.94788706
168	0xbe9a94b9	-0.3019159
169	0xbbedd493	-0.007258007
170	0x3d356c61	0.04429281
171	0x3f054337	0.52055687
172	0x3c4984c6	0.012299722
173	0xbef00d8c	-0.46885335
174	0xbf1265cd	-0.57186586
175	0x3f1d2aa1	0.6139317
176	0xbdc59271	-0.09647072
177	0xbecd7bbc	-0.40133464
178	0x3f597d87	0.84957165
179	0x3ed33047	0.4124777
180	0xbe7917ef	-0.24325536
181	0xbf08458d	-0.53231126
182	0xbec1943e	-0.37808412
183	0x3f0b7e8d	0.54489976
184	0x3f23cb1b	0.6398179
185	0x3e90fd7a	0.28318387
186	0xbdd5501f	-0.104156725
187	0xbeb2f718	-0.34954143
188	0x3f13de11	0.5776072
189	0xbdef1190	-0.11673272
190	0xbe766d55	-0.24065144
191	0xbd68686e	-0.056740217

base_pointnet.conv_1_b.bias f4 [64]
0	0x3daf92fa	0.085729554
1	0xbdcda337	-0.100408964
2	0x3ecd4ebd	0.40099135
3	0x3def3be2	0.116813436
4	0x3cb5af2b	0.022178253
5	0xbc015361	-0.007893414
6	0xbf07baeb	-0.5301959
7	0xbd21640e	-0.03940206
8	0xbc8523f8	-0.016252503
9	0xbe248ccc	-0.16069335
10	0x3d9e08d6	0.07716529
11	0x3e1d767b	0.15377228
12	0xbf1191bb	-0.5686299
13	0x3e5f6673	0.21816425
14	0xbf106405	-0.5640262
15	0x3eaa315d	0.33240786
16	0x3e1d6ad0	0.15372777
17	0xbed34250	-0.4126153
18	0x3d9d7d66	0.076899335
19	0xbe971306	-0.295067
20	0xbb496e01	-0.0030735733
21	0x3eac5ae8	0.33663106
22	0xbe14568f	-0.14486144
23	0xbe318c86	-0.17338762
24	0xbdea78c6	-0.11448817
25	0x3eb1edab	0.3475164
26	0x3eaa9d46	0.33323115
27	0xbda2cb93	-0.07948985
28	0xbd465cd9	-0.04842839
29	0x3e0d2cac	0.13786572
30	0xbf0b2502	-0.54353344
31	0x3c8d6080	0.017257929
32	0xbf12ad7b	-0.5729596
33	0xbf016660	-0.50546837
34	0xbde5d3cd	-0.112220384
35	0x3f05ec53	0.5231373
36	0x3e7a4d76	0.24443612
37	0x3e9feb24	0.31234086
38	0xbec7f6c9	-0.3905547
39	0x3e97eef8	0.29674506
40	0xbe37ad26	-0.17937145
41	0xbdb558b6	-0.08854811
42	0x3d8a036c	0.06738934
43	0xbe8336aa	-0.25627643
44	0x3de59c5b	0.11211463
45	0xbef8a2bd	-0.4856166
46	0xbde1b392	-0.110205784
47	0xbe111147	-0.14166747
48	0x3e7925e0	0.24330854
49	0xbd99941c	-0.07498953
50	0x3ecd744e	0.40127796
51	0x3ecc0769	0.39849404
52	0xbeaa5683	-0.33269128
53	0x3e160ea8	0.14654028
54	0x3e9b41fe	0.30323786
55	0x3e799ef7	0.24377047
56	0x3e56dc66	0.20982513
57	0xbd81837f	-0.06323909
58	0xbecb46a7	-0.3970234
59	0xbeeef33d	-0.4666995
60	0x3e4ff8b5	0.20309718
61	0xbdf97659	-0.12180776
62	0xbe872bf5	-0.26400724
63	0x3ee8d2bc	0.45473278

base_pointnet.conv_2.weight f4 [64, 64, 3]
0	0xbd18fc60	-0.03735006
1	0xbcf32ca8	-0.02968438
2	0x3e22be2d	0.15892859
3	0xbd6fe478	-0.058567494
4	0x3bb8d47e	0.0056405654
5	0x3d98e0a8	0.07464725
6	0xbd66feb0	-0.056395233
7	0xbd44fa44	-0.048090234
8	0xbd7ca486	-0.06168034
9	0xbce35657	-0.027751131
10	0x3d5e2ac1	0.054239992
11	0x3d6dd5e6	0.058065318
12	0x3d281109	0.04103187
13	0x3d6bc8e1	0.05756462
14	0xbb7fd6a8	-0.0039037857
15	0x3cf63dd7	0.030058784
16	0x3c3ddc17	0.011588118
17	0x3d166178	0.036714047
18	0x3def297b	0.11677834
19	0xbdb7fba3	-0.08983543
20	0x3d84e3d1	0.06488765
21	0xbbe5927d	-0.007005988
22	0x3d412b6a	0.047160544
23	0xbc67bdc1	-0.014144362
24	0x3e80de18	0.25169444
25	0xbdb5e733	-0.088819884
26	0x3dff4454	0.124642044
27	0xbd77da01	-0.06051064
28	0x3d995c6e	0.07488333
29	0xbd1b78d1	-0.037957016
30	0xbcdc5933	-0.026898002
31	0x3ce2bebe	0.027678844
32	0xbc964563	-0.018343633
33	0x3c79a551	0.015237168
34	0xbcf9d65e	-0.030497726
35	0xbd856fbf	-0.065154545
36	0x3cd73304	0.026269443
37	0x3dbe64d5	0.09296576
38	0xbd2a760f	-0.041616496
39	0xbade65df	-0.0016967616
40	0x3cdc0fc4	0.026862986
41	0xbd3697e5	-0.04457845
42	0x3e1caa7d	0.15299411
43	0xbdc9ef44	-0.098600894
44	0xbd9d766b	-0.07688602
45	0x3d582b28	0.052775532
46	0xbdcfefa5	-0.101531304
47	0x3d11d5e8	0.035604388
48	0xbd2b73b3	-0.041858386
49	0xbcbc71ca	-0.023003478
50	0x3c134a21	0.008989842
51	0x3bbf3970	0.0058357045
52	0x3c063052	0.008190231
53	0x3cc60fe7	0.024177505
54	0xbd028669	-0.031866465
55	0x3c6df846	0.014524525
56	0x3d593c40	0.053035975
57	0xbad1c1f0	-0.0016003232
58	0x3cc65d15	0.024214307
59	0xbd6b60fd	-0.057465542
60	0x3db4583c	0.08805892
61	0x3bc70b05	0.0060743117
62	0xbe1709f9	-0.14749898
63	0xbd7bff84	-0.061522976
64	0x3cb55cb7	0.022138936
65	0xbcf03a55	-0.02932469
66	0x3d0fe4d8	0.03513035
67	0x3c713960	0.014723152
68	0xbd9b1843	-0.07572987
69	0xbc8cb6ca	-0.017177004
70	0x3d598ee0	0.05311477
71	0xbd43b5c0	-0.047780752
72	0x3d422207	0.047395732
73	0x3db4a0b2	0.08819713
74	0x3d02bcbc	0.031918272
75	0x3dc919d5	0.0981938
76	0xbd89dfcf	-0.06732141
77	0x3db36695	0.087598
78	0x3cf1f789	0.02953698
79	0xbd5eda95	-0.054407675
80	0x3cf551b9	0.029946195
81	0xbc12a856	-0.008951267
82	0xbc114a98	-0.008867882
83	0x3c2e1ae6	0.01062653
84	0xbde07ac5	-0.109609164
85	0xbd228d4e	-0.03968554
86	0xbc2be6c6	-0.010492032
87	0xbd6542bb	-0.055971842
88	0xbd7c1c44	-0.061550394
89	0xbc3dd4ed	-0.01158641
90	0x3d63ed24	0.055646077
91	0x3d679c09	0.05654529
92	0x3d1a2b5a	0.037639
93	0xbe06ee0b	-0.13176744
94	0x3c8f57f1	0.017497988
95	0x3d630da9	0.05543295
96	0x3d7879a3	0.060662877
97	0xbd443987	-0.047906425
98	0xbd93160b	-0.07181939
99	0x3c3e6dbc	0.011622842
100	0x3d83a8e8	0.06428701
101	0xbd2fb613	-0.04289825
102	0x3b21d3e2	0.0024692942
103	0x3c12196e	0.008917196
104	0x3c9c04bd	0.019045228
105	0x3d69fbaa	0.05712477
106	0x3d87fd51	0.06640113
107	0xbca66e1a	-0.020316172
108	0xbabb1e9d	-0.0014276091
109	0x3d3b7a0a	0.045770682
110	0x3d3f50a7	0.046707775
111	0x3cca10cd	0.024666214
112	0xbd1c6a53	-0.038187336
113	0x3db78412	0.08960737
114	0xbd09940a	-0.033588447
115	0xbc6f9341	-0.01462251
116	0x3d081b2d	0.03322904
117	0xbd15ad1a	-0.036542036
118	0x3d7edf20	0.062224507
119	0xbcb5e2ff	-0.022202967
120	0xbd7b31c8	-0.061326772
121	0x3d8b1e48	0.06792885
122	0x3d5c754d	0.053822804
123	0xbc1d61de	-0.009605853
124	0x3d1da3ee	0.038486414
125	0x3d77886b	0.060432833
126	0x3c336a4d	0.010950637
127	0xbd782901	-0.06058598
128	0x3d84f6f7	0.06492417
129	0xbce6561d	-0.028117234
130	0xbd42fa83	-0.047602188
131	0x3c378fca	0.011203716
132	0xbdb00dd8	-0.085963905
133	0x3de1db20	0.11028123
134	0xbd163ed2	-0.036681004
135	0xbcfec451	-0.03109947
136	0xbd225d2f	-0.039639648
137	0x3d457b52	0.04821331
138	0x3ac2c4ff	0.0014859735
139	0xbd84b37f	-0.06479549
140	0xbd81d84f	-0.06340086
141	0x3cd43440	0.025903821
142	0x3d162019	0.036651704
143	0xbb10d946	-0.0022102161
144	0xbdafdbc2	-0.08586837
145	0xbd1f27f1	-0.03885645
146	0xbcdd8d77	-0.027044995
147	0xbd54bd93	-0.051938605
148	0x3d9b5e04	0.075862914
149	0x3cb3bb47	0.021939887
150	0x3c3bc538	0.011460595
151	0xbd80b072	-0.06283654
152	0xbdaa4b79	-0.083151765
153	0x3ac93148	0.001534977
154	0x3c81e7c8	0.015857592
155	0x3cdf0d75	0.027228097
156	0x3c66459e	0.014054684
157	0xbd13b0f3	-0.036057424
158	0x3d27075a	0.040778495
159	0x3d3abd7d	0.045590866
160	0x3c5150e9	0.012775638
161	0x3b0be6d7	0.0021347308
162	0x3d4d2e33	0.050092887
163	0xbda37e8e	-0.07983123
164	0xbd9ed653	-0.07755723
165	0xbb838ed3	-0.0040148287
166	0xbcb4df0c	-0.022079013
167	0x3de28c6e	0.11061941
168	0x3c050e97	0.008121154
169	0x3c79692e	0.015222831
170	0xbd472bb5	-0.048625667
171	0x3d26812d	0.040650535
172	0xbd1f56e0	-0.03890121
173	0xbcd2acb4	-0.025717117
174	0xbca797b8	-0.020458087
175	0xbb87c0cf	-0.0041428576
176	0x3c87f8e3	0.01659817
177	0x3db6441c	0.088997096
178	0x3cd66b5f	0.026174245
179	0x3dc75cd6	0.09734504
180	0xbc9b5a45	-0.018963942
181	0x3d647227	0.055772927
182	0x3d4a6fa3	0.04942287
183	0xbddae179	-0.10687537
184	0xbd2291a5	-0.03968968
185	0x3cbbb5d4	0.02291385
186	0x3d49a483	0.049229156
187	0xbd5424b7	-0.051792827
188	0x3d9ba5ab	0.07599958
189	0x3dd181e9	0.102298565
190	0xbbf1cd83	-0.0073792352
191	0x3cd8bb41	0.026456477
192	0xbddbc72a	-0.10731347
193	0x3c66c1be	0.014084278
194	0xbbc4c573	-0.006004983
195	0xbb80a082	-0.003925384
196	0x3b89203e	0.004184752
197	0x3d57bcaf	0.052670177
198	0xbd211c83	-0.03933383
199	0xbd3362ca	-0.043795384
200	0x3d07e349	0.03317574
201	0xbc1d75d8	-0.009610616
202	0x3d006fc2	0.03135658
203	0xbd54c298	-0.05194339
204	0x3da8dfa2	0.082457796
205	0x3d6ca19b	0.057771306
206	0xbd0478ce	-0.03234177
207	0xbd8b326a	-0.06796725
208	0x3cb54f9a	0.022132684
209	0x3d26920d	0.04066663
210	0xbc9d7c22	-0.01922423
211	0x3d6ca57c	0.057775006
212	0xbdb7f980	-0.08983135
213	0xbd5f57e0	-0.054527164
214	0xbc360000	-0.011108398
215	0xbc1d2a0c	-0.009592544
216	0xbe04c166	-0.129644
217	0xbd80d136	-0.06289904
218	0xbdcf2751	-0.10114921
219	0x3c2388ac	0.009981316
220	0x3b9af0d8	0.004728418
221	0xbd829b7d	-0.06377313
222	0x3d95c241	0.073124416
223	0x3b1fd1d0	0.0024386533
224	0x3d173e5e	0.036924712
225	0xbc7c5949	-0.015402147
226	0xbad89496	-0.0016523774
227	0xbd481e49	-0.048857007
228	0xbd79d5d0	-0.060994923
229	0x3dcd410b	0.100221716
230	0x3d62a8dc	0.055336818
231	0x3cca12f4	0.02466724
232	0x3bb11665	0.005404281
233	0xbaae1330	-0.0013280865
234	0xbccd715f	-0.025078474
235	0x3b0906a2	0.0020908494
236	0xbd8f439e	-0.06995319
237	0xbbcd9a72	-0.006274515
238	0x3b8c6bf5	0.0042853304
239	0xbda27e43	-0.07934239
240	0xbdd7741e	-0.105201945
241	0xbd88fa85	-0.06688408
242	0x3c5ab8e5	0.013349746
243	0xbcf77dab	-0.03021129
244	0xbc4331be	-0.011913715
245	0xbd253258	-0.040331215
246	0xbcf7ab43	-0.030233031
247	0x3d0f5a5d	0.034998287
248	0x3bdaecf0	0.006681077
249	0xbd1f65d4	-0.03891547
250	0x3cd9ce52	0.026587639
251	0xbd764574	-0.06012483
252	0xbd372d39	-0.044720862
253	0xbc675cb0	-0.0141212195
254	0x3cbcaba5	0.023031065
255	0xbd3d3c90	-0.046200335

base_pointnet.conv_2.bias f4 [64]
0	0xbd177e49	-0.03698567
1	0xbbae42b4	-0.00531801
2	0x3bc0718b	0.0058729104
3	0xbd0938a3	-0.03350128
4	0xbd202902	-0.039101608
5	0xbcbdc177	-0.02316354
6	0xbc146aac	-0.009058636
7	0xbcd154fc	-0.025553219
8	0x3d424fef	0.047439512
9	0xbd820d1b	-0.06350156
10	0x3d02f600	0.031972885
11	0xbd583142	-0.05278135
12	0xbd1eda42	-0.038782366
13	0x3cb76383	0.022386318
14	0xbd62a42e	-0.055332355
15	0xbd86b44c	-0.06577358
16	0xbd67d7eb	-0.0566024
17	0x3d3c1f61	0.045928363
18	0x3d3a30be	0.04545664
19	0xbce67a70	-0.028134555
20	0x3dc16e9a	0.09444924
21	0xbc068af4	-0.00821184
22	0x3b5d6bdc	0.0033786213
23	0xb91349de	-0.0001404653
24	0xbcecae3f	-0.02889168
25	0x3d66b8fb	0.056328755
26	0x3d443624	0.047903195
27	0x3d85570c	0.065107435
28	0xbc08ce79	-0.008350008
29	0x3d3d6649	0.046240125
30	0x3d376c3a	0.044780947
31	0x3d1d143f	0.038349386
32	0xbd40d656	-0.047079407
33	0xbd684248	-0.056703836
34	0xbd353c47	-0.044246938
35	0x3c18fcd2	0.009337621
36	0x3c89a632	0.01680288
37	0x3d937891	0.072007306
38	0xbce8df37	-0.02842675
39	0xbd7426a4	-0.059607163
40	0x3d7c7346	0.06163337
41	0xbd06c5a4	-0.03290333
42	0x3c260d44	0.010134999
43	0x3d1fefd4	0.039047077
44	0x3d460fec	0.048355028
45	0xbd1aade3	-0.037763488
46	0xbd193b04	-0.037409797
47	0x3d02a284	0.03189327
48	0x3c363d52	0.011123018
49	0x3d10cc9c	0.03535138
50	0x3cbb0954	0.022831596
51	0x3d11cbdf	0.035594817
52	0xbd797846	-0.060905717
53	0xbd30c659	-0.04315791
54	0xbd849769	-0.06474192
55	0x3cf19077	0.029487832
56	0xbc832e45	-0.016013274
57	0x3cb97900	0.022640705
58	0x3cedb52b	0.029017052
59	0x3b9fae9d	0.0048731104
60	0xbd318047	-0.043335225
61	0xbcadb890	-0.02120617
62	0xb98dff34	-0.00027083757
63	0xbc962b70	-0.01833126

base_pointnet.bn_1.weight f4 [64]
0	0x3f90a1f0	1.1299419
1	0x3f8f0132	1.117224
2	0x3f793eed	0.9736164
3	0x3f60060e	0.8750924
4	0x3f5f96c7	0.8733944
5	0x3f833588	1.0250711
6	0x3f830b5f	1.0237845
7	0x3f66b818	0.90124655
8	0x3facabc9	1.3489925
9	0x3f7721d8	0.96536016
10	0x3f73d059	0.9523979
11	0x3f76ff87	0.96483654
12	0x3f88bfb0	1.0683498
13	0x3f850627	1.0392503
14	0x3f942e3b	1.1576608
15	0x3f7bcdb6	0.98360765
16	0x3f8a5949	1.0808498
17	0x3f81a650	1.012888
18	0x3f68acd5	0.9088872
19	0x3f6bd747	0.9212536
20	0x3f77a7df	0.96740526
21	0x3f7869ae	0.97036254
22	0x3f8b6844	1.0891194
23	0x3f6f2d21	0.93428236
24	0x3f64de39	0.89401585
25	0x3f7b81bc	0.98244834
26	0x3f835efd	1.0263363
27	0x3f6f6f76	0.9352945
28	0x3f827900	1.0193176
29	0x3f80110d	1.0005203
30	0x3f6a1dc3	0.9145166
31	0x3f9b4768	1.2131166
32	0x3f71aa9c	0.94400954
33	0x3f6fdc1e	0.9369525
34	0x3f6ba2c3	0.9204523
35	0x3f72ea48	0.94888735
36	0x3f698f28	0.91234064
37	0x3f83bae1	1.0291406
38	0x3f750e16	0.9572462
39	0x3f79ae14	0.9753125
40	0x3f5daf23	0.8659536
41	0x3f6c38e0	0.92274284
42	0x3f741023	0.9533712
43	0x3f6d44b1	0.9268294
44	0x3f7f2b42	0.9967538
45	0x3f92048f	1.1407641
46	0x3f64af75	0.89330226
47	0x3f703fd2	0.9384738
48	0x3f8d275a	1.1027634
49	0x3f8735c7	1.0563287
50	0x3f5bc24a	0.85843337
51	0x3f70f245	0.94119674
52	0x3f78de32	0.97214043
53	0x3f7292b9	0.9475513
54	0x3f6fe271	0.937049
55	0x3f839a23	1.0281414
56	0x3f81df58	1.0146284
57	0x3f79e44c	0.9761398
58	0x3f7a92e4	0.9788039
59	0x3f79ba82	0.97550213
60	0x3f7203c0	0.9453697
61	0x3f7b9979	0.98281056
62	0x3f75b2f6	0.959762
63	0x3f75fc9e	0.9608859

base_pointnet.bn_1.bias f4 [64]
0	0x3d1c31b4	0.038133338
1	0xbe563a61	-0.20920707
2	0xbb052452	-0.0020315838
3	0xbe0c65e3	-0.13710742
4	0x3cc83beb	0.024442634
5	0x3d67c285	0.056581993
6	0xbd51313f	-0.051072355
7	0xbd2fffc5	-0.04296853
8	0x3e88d2fa	0.26723462
9	0x3dbc065f	0.09180903
10	0x3d9694c8	0.073525965
11	0xbdb21e7d	-0.086972214
12	0x3c98e55f	0.01866406
13	0xbdf252b5	-0.11832181
14	0xbe9eb0ab	-0.30994162
15	0xbc431210	-0.011906162
16	0x3e4c12fc	0.19929117
17	0x3d3a2a3f	0.045450445
18	0xbd8e95c7	-0.069621615
19	0x3dfcfd7b	0.12353035
20	0xbd888adf	-0.066671126
21	0xbe32a098	-0.17444074
22	0x3dceb66c	0.10093388
23	0xbda1bac5	-0.078969516
24	0xbd39cb7d	-0.045360077
25	0xbd7564f7	-0.05991074
26	0x3e48b7c2	0.19601348
27	0x3dafb55c	0.085795134
28	0x3d8a10e5	0.067415036
29	0xbe18287d	-0.14859195
30	0xbe3230b3	-0.1740139
31	0xbd66b765	-0.056327242
32	0xbdac3cbc	-0.08410022
33	0x3db29373	0.0871953
34	0xbe1e5a32	-0.15464094
35	0xbe264672	-0.1623781
36	0xbe466516	-0.19374499
37	0xbe1e1c91	-0.15440585
38	0xbe3a2a6b	-0.18180244
39	0x3d1b78fa	0.03795717
40	0xbe1dbfb0	-0.15405154
41	0xbd353bcf	-0.04424649
42	0x3e1b9963	0.15195231
43	0xbe38ad6d	-0.18034907
44	0xbdaf380a	-0.085556105
45	0xbe552751	-0.2081578
46	0xbe797888	-0.24362385
47	0xbdf71661	-0.12064815
48	0x3de805b9	0.113292165
49	0xbe5fda4e	-0.2186062
50	0xbe063dc8	-0.13109505
51	0xbcf4be77	-0.029875977
52	0x3dabebfc	0.0839462
53	0xbd006dfe	-0.031354897
54	0xbca51504	-0.020151623
55	0xbde84912	-0.11342062
56	0x3e0fe89f	0.14053582
57	0xbd913f8a	-0.07092197
58	0xbc0422a8	-0.008064903
59	0xbe8724f9	-0.26395395
60	0xbcfabe0e	-0.030608203
61	0xbe0a5db0	-0.13512301
62	0xbc25fb47	-0.01013071
63	0x3d487988	0.048944026

base_pointnet.bn_1.running_mean f4 [64]
0	0x3f3fa3b6	0.7485918
1	0xc08e32f6	-4.443721
2	0xc1294dcf	-10.581496
3	0xc2275ba8	-41.839508
4	0x422980eb	42.375896
5	0xc1370845	-11.439519
6	0xbf071571	-0.5276709
7	0x41f3a1d2	30.454014
8	0x3fa950c5	1.3227774
9	0xc0baa0b3	-5.8321166
10	0xc0c306b5	-6.0945687
11	0xc1504a8d	-13.018201
12	0x4053b7a2	3.308083
13	0xbab53e40	-0.0013827756
14	0xc081eb67	-4.0599856
15	0x414f95b8	12.974052
16	0x3fcf69b3	1.6204132
17	0x3fb87c8a	1.4413006
18	0xc1c7bbf3	-24.966772
19	0x411a078a	9.626841
20	0xc167a317	-14.477317
21	0x40de8d82	6.954774
22	0xc0bdf20c	-5.9357967
23	0xc217fc8f	-37.99664
24	0xc205d257	-33.45541
25	0xc0bd7014	-5.9199314
26	0x3fe63b59	1.7986861
27	0xc1b7c06c	-22.968956
28	0x411be866	9.744238
29	0xc1400874	-12.002064
30	0xc1f02770	-30.019257
31	0x3ed82cfa	0.42221814
32	0xc204e699	-33.225193
33	0x41a29baf	20.326017
34	0x4206af05	33.670918
35	0xc1985c72	-19.04514
36	0xc1d6f5fd	-26.870111
37	0x40ada45a	5.4263124
38	0xc11e89c5	-9.908635
39	0xc0d3e827	-6.622089
40	0xc20009e7	-32.00967
41	0xc1896961	-17.176455
42	0x40834a8f	4.1028514
43	0xc1b38e0e	-22.444363
44	0x40926156	4.574382
45	0xbf9de77a	-1.2336266
46	0xc1956db7	-18.678572
47	0xc127f14c	-10.49641
48	0x40407f18	3.0077572
49	0xc107e746	-8.493963
50	0x4252b43e	52.676018
51	0x42260063	41.500378
52	0x4159ee16	13.620626
53	0xc186150a	-16.760273
54	0xc24b6a1e	-50.85363
55	0xc06344c8	-3.551073
56	0x3fb05f8c	1.3779159
57	0x4171cde2	15.112764
58	0xc0f1e92b	-7.559713
59	0xc0cedf53	-6.4647613
60	0x4180df7d	16.109125
61	0xc132dfef	-11.179671
62	0xc17d59f6	-15.834463
63	0x4165f55d	14.372403

base_pointnet.bn_1.running_var f4 [64]
0	0x40f0e082	7.5274057
1	0x41c750e1	24.914492
2	0x430a1546	138.0831
3	0x43f170c6	482.88104
4	0x43f5c0aa	491.5052
5	0x4303c14a	131.75504
6	0x41e51f17	28.64018
7	0x43861701	268.17972
8	0x42b0910b	88.28329
9	0x42f24171	121.127815
10	0x423e18ca	47.524208
11	0x42bca1e3	94.316185
12	0x414b1cfb	12.694575
13	0x413dff2e	11.8748
14	0x41f9d27a	31.227772
15	0x423a830f	46.627987
16	0x402bfb44	2.687211
17	0x4102c812	8.173845
18	0x4340292a	192.1608
19	0x42ab6302	85.693375
20	0x42ae8bba	87.2729
21	0x42229724	40.6476
22	0x42e5db80	114.92871
23	0x43bac2b0	373.521
24	0x43a20852	324.065
25	0x41c9affa	25.210926
26	0x42349973	45.149853
27	0x43142539	148.1454
28	0x42cc4f55	102.154945
29	0x4321d721	161.84035
30	0x437d5ebd	253.37007
31	0x42596e54	54.357742
32	0x43a7bddc	335.48328
33	0x431406a9	148.02602
34	0x439c2ce4	312.3507
35	0x43085bd1	136.35866
36	0x43622125	226.12947
37	0x429fbaf5	79.86515
38	0x42b12943	88.58059
39	0x4299a1c8	76.81598
40	0x43911a68	290.2063
41	0x4301a112	129.62918
42	0x4255175d	53.272816
43	0x430e398a	142.22476
44	0x417bdf95	15.742085
45	0x40c2ce2d	6.087668
46	0x430b1cd5	139.11263
47	0x42ffef29	127.96711
48	0x400a5671	2.161526
49	0x425ec390	55.69098
50	0x4435a336	726.5502
51	0x43e9599c	466.70007
52	0x428c7a0b	70.238365
53	0x42f87bbd	124.24168
54	0x4430de16	707.4701
55	0x42d430f5	106.09562
56	0x41b6c284	22.844978
57	0x435c9c05	220.60945
58	0x41d317bc	26.38659
59	0x426a1d7d	58.528797
60	0x429d9b64	78.8035
61	0x426deada	59.479347
62	0x42a96325	84.69364
63	0x428557d0	66.67151

base_pointnet.bn_2.weight f4 [64]
0	0x3f959e13	1.1688865
1	0x3f8571a4	1.0425305
2	0x3f842778	1.0324545
3	0x3f916632	1.1359313
4	0x3f8b84f6	1.0899951
5	0x3f843fb6	1.0331943
6	0x3f888a16	1.066714
7	0x3f802497	1.0011166
8	0x3f920fc9	1.1411067
9	0x3f843704	1.032929
10	0x3f811de2	1.0087245
11	0x3f7eca71	0.9952765
12	0x3f85018a	1.0391095
13	0x3f89a217	1.0752591
14	0x3f855912	1.0417807
15	0x3f7c1d4b	0.984822
16	0x3f999be5	1.20007
17	0x3f8783c2	1.0587084
18	0x3f851f94	1.0400262
19	0x3f81111f	1.008335
20	0x3f9cd127	1.2251328
21	0x3f890476	1.0704486
22	0x3f9663d9	1.1749221
23	0x3f8a02a3	1.0782055
24	0x3f85c1b7	1.0449742
25	0x3f837cac	1.0272422
26	0x3f80d38f	1.0064563
27	0x3f8e9614	1.113955
28	0x3f8ce349	1.1006862
29	0x3f8811dd	1.0630451
30	0x3fa1f868	1.2653933
31	0x3f954f60	1.1664848
32	0x3f875e5a	1.0575669
33	0x3f867917	1.0505704
34	0x3f9291e7	1.1450776
35	0x3f86481c	1.0490756
36	0x3f9e362f	1.2360286
37	0x3f8b1748	1.086648
38	0x3f8bd01d	1.0922886
39	0x3f860574	1.0470414
40	0x3f8466f4	1.0343919
41	0x3f86eafc	1.0540462
42	0x3f8509cf	1.0393618
43	0x3f86e2ce	1.0537965
44	0x3f829c00	1.0203857
45	0x3f89a1c6	1.0752494
46	0x3f838268	1.0274172
47	0x3f821985	1.0164038
48	0x3f82ad56	1.0209148
49	0x3f8c91cf	1.0981997
50	0x3f88bc26	1.0682418
51	0x3f8bc00b	1.0917982
52	0x3f830a1d	1.0237461
53	0x3f835f36	1.0263431
54	0x3f96c4ba	1.1778786
55	0x3f8a58e7	1.0808381
56	0x3f8c05f5	1.0939318
57	0x3f8fbdc9	1.1229793
58	0x3f80463d	1.0021435
59	0x3f86f4b3	1.0543426
60	0x3f8483ea	1.0352757
61	0x3f994cb9	1.1976539
62	0x3f81c57b	1.0138391
63	0x3f85a8a4	1.044209

base_pointnet.bn_2.bias f4 [64]
0	0x3d30644e	0.043064408
1	0x3d552bbb	0.052043658
2	0x3d26a1f7	0.040681805
3	0x3b956cca	0.004560088
4	0x3c8486f8	0.01617764
5	0x3d0e6e8d	0.0347734
6	0x3c638882	0.0138875265
7	0xbbd37bed	-0.006453982
8	0x3d817176	0.06320469
9	0xbc426d88	-0.011866935
10	0x3c992089	0.018692272
11	0xbced8611	-0.028994592
12	0x3cf9635e	0.03044289
13	0x3cd9077b	0.026492825
14	0x3d1f89ca	0.038949765
15	0xbcf5621c	-0.029954009
16	0xbd2f4a0f	-0.042795237
17	0xbc994bb5	-0.018712858
18	0xba487627	-0.00076470006
19	0x3b9a7b98	0.0047144406
20	0xbcd07c3d	-0.025449866
21	0xbd18938e	-0.037250094
22	0x3d9abbac	0.07555327
23	0x3ca540d5	0.020172516
24	0x3ced36d9	0.028956817
25	0xbc70ffa4	-0.014709387
26	0xbc1b2fd6	-0.009471854
27	0xbcc627f9	-0.024188982
28	0x3d8c71a7	0.06857615
29	0xb9dc006d	-0.00041961987
30	0xbba0ab1d	-0.004903211
31	0x3c62786a	0.013822654
32	0x3be9ae9c	0.0071314108
33	0xbcb1d9fc	-0.021710388
34	0xbd4d41e0	-0.05011165
35	0x3d2c3b70	0.04204887
36	0x3d945de1	0.072444685
37	0x3d3692fb	0.044573765
38	0xbcc02868	-0.023456767
39	0xbc4d8c22	-0.012545617
40	0x3c9a2f58	0.018821403
41	0xbbe3a011	-0.0069465716
42	0x3c3b80b8	0.011444263
43	0x3d3ae4f6	0.04562851
44	0x3c45b007	0.012065894
45	0x3c76ea7e	0.015070556
46	0x3c8fc673	0.017550683
47	0x3c147483	0.009060982
48	0xbc90c297	-0.017670913
49	0x3cb2ea9b	0.021840384
50	0x3d243d69	0.040097628
51	0x3b6ec456	0.0036432943
52	0xbc72f5d2	-0.014829116
53	0x3c2e5e9e	0.010642676
54	0x3c61def2	0.013786064
55	0x3d4978eb	0.049187582
56	0x3d830d62	0.06399037
57	0x3d463910	0.048394263
58	0xbc6b5cc9	-0.014365383
59	0x3c43616f	0.011925085
60	0xbd127bba	-0.035762526
61	0x3adaee4c	0.0016703098
62	0x3ca1fca6	0.019773792
63	0xbbd37b2d	-0.0064538927

base_pointnet.bn_2.running_mean f4 [64]
0	0x3e90d95a	0.28290826
1	0xbf498e02	-0.7873231
2	0xbf196b5f	-0.5992946
3	0x3e1f3f8e	0.15551588
4	0x3e502592	0.20326832
5	0x3ef9f597	0.48820183
6	0xbcede84f	-0.029041437
7	0xbf3ea630	-0.7447233
8	0x3dd02cb8	0.101647794
9	0xbe016722	-0.12636998
10	0x3dea9a1f	0.114551775
11	0xbe90240b	-0.281525
12	0xbe81bd1e	-0.25339597
13	0x3d88e3a2	0.066840425
14	0x3dd0856e	0.101817
15	0xbea45d03	-0.32102212
16	0x3e75869d	0.23977132
17	0x3e4ed04a	0.20196643
18	0xbda8946f	-0.082314365
19	0xbe1792c2	-0.14802077
20	0x3e881fc3	0.26586732
21	0x3b8a3526	0.0042177616
22	0x3d94d992	0.07268061
23	0xbed8ca69	-0.42341927
24	0xbe82abea	-0.25521785
25	0x3e4744a1	0.19459774
26	0xbe309665	-0.17244871
27	0x3e375449	0.17903246
28	0x3ec93705	0.3929979
29	0x3ed58e90	0.4171033
30	0x3d2af2df	0.041735526
31	0x3d596dbb	0.053083163
32	0x3e04e6b0	0.12978625
33	0x3df33dc2	0.11877014
34	0xbdf68116	-0.1203634
35	0xbeb86172	-0.36011845
36	0xbd848f6f	-0.0647267
37	0xbe9e1123	-0.3087245
38	0x3e718491	0.23585726
39	0xbd82450d	-0.06360827
40	0xbee3bfdb	-0.44482312
41	0x3ef0b411	0.4701238
42	0xbf100764	-0.5626128
43	0xbf2d1c78	-0.67621565
44	0xbe55d3ac	-0.20881528
45	0xbf26ce3b	-0.6515843
46	0xba8a51f7	-0.0010552992
47	0x3e01fc95	0.12694009
48	0xbd93fb6c	-0.07225689
49	0x3e286ace	0.16446993
50	0xbe0d0b6d	-0.1377389
51	0x3b0d95bb	0.002160414
52	0xbe2f67ef	-0.17129491
53	0xbf5aa943	-0.8541452
54	0x3d1e89ea	0.038705744
55	0x3d007a9b	0.031366926
56	0x3dd39aa4	0.1033223
57	0xbe65d77b	-0.2244548
58	0x3e412d8d	0.18865032
59	0x3e8d064f	0.27543876
60	0x3eadc185	0.33936706
61	0x3da4a8c0	0.08039999
62	0x3f2be064	0.6713927
63	0xbe84ff7a	-0.25976163

base_pointnet.bn_2.running_var f4 [64]
0	0x3d979922	0.07402255
1	0x3e150ac7	0.14554892
2	0x3e94abde	0.29037374
3	0x3cb8d68c	0.022563241
4	0x3d40b2c4	0.047045484
5	0x3ea835a3	0.32853422
6	0x3d350952	0.04419834
7	0x3da4bba2	0.080436006
8	0x3d36555d	0.044515003
9	0x3e6c6c51	0.23088194
10	0x3f10212d	0.5630062
11	0x3d88ba3a	0.06676145
12	0x3e41da6f	0.18930982
13	0x3e1a2c85	0.15056045
14	0x3e6ed8b0	0.23324847
15	0x3e827552	0.25480133
16	0x3d2222f2	0.039584108
17	0x3d4957a3	0.049155843
18	0x3d8b50f7	0.06802552
19	0x3e036ac0	0.1283369
20	0x3c96dcb6	0.01841579
21	0x3ca83bf7	0.020536406
22	0x3d11575b	0.0354837
23	0x3d734f5a	0.059401847
24	0x3d12de77	0.03585669
25	0x3d9e40da	0.07727213
26	0x3d8c66fe	0.06855582
27	0x3d5a39fd	0.05327796
28	0x3d84fc39	0.0649342
29	0x3db8ab81	0.09017087
30	0x3c806838	0.015674695
31	0x3d1322dd	0.03592192
32	0x3d088605	0.033330936
33	0x3dc157d8	0.09440583
34	0x3cacf65e	0.02111357
35	0x3e412f21	0.18865635
36	0x3c8d39c7	0.017239464
37	0x3e54f879	0.2079791
38	0x3d283e32	0.04107494
39	0x3cffc323	0.031220978
40	0x3e291166	0.16510543
41	0x3e6357e3	0.22201495
42	0x3d77325c	0.06035076
43	0x3e4136f1	0.18868615
44	0x3dc15f7e	0.09442042
45	0x3d43eb24	0.04783167
46	0x3e86d96d	0.26337758
47	0x3e8fd347	0.2809088
48	0x3d1a458a	0.037663974
49	0x3dd5fdb1	0.104487784
50	0x3e366c30	0.17814708
51	0x3d81d22f	0.063389175
52	0x3d0e877d	0.03479718
53	0x3de53464	0.11191633
54	0x3c9138da	0.017727304
55	0x3dafee8f	0.08590423
56	0x3d763af0	0.0601148
57	0x3d57fe9e	0.052733056
58	0x3e0fb778	0.14034832
59	0x3e23b776	0.15987954
60	0x3d84f2ab	0.06491598
61	0x3d73fd1f	0.059567567
62	0x3eb664cc	0.35623777
63	0x3d2b241d	0.041782487

fc_1.weight f4 [64, 66]
0	0x3b1cb154	0.0023909407
1	0xbda2360d	-0.079204656
2	0x3dbbf45c	0.09177467
3	0xbdd3cf55	-0.1034228
4	0xbdf241d2	-0.118289605
5	0xbcac2055	-0.02101151
6	0xbba0e628	-0.0049102493
7	0xbd46f1ee	-0.048570566
8	0x3cd930ea	0.026512582
9	0xbe03f4e7	-0.12886392
10	0x3d1f594b	0.038903516
11	0x3d970902	0.07374765
12	0x3ddb47ca	0.10707052
13	0xbca1ef5f	-0.019767461
14	0x3db3ca65	0.08778838
15	0xbde173c0	-0.11008406
16	0x3ceefb19	0.029172467
17	0x3c6f3948	0.014601059
18	0xbd128508	-0.0357714
19	0x3d3eeb2a	0.04661099
20	0x3d83418e	0.06408988
21	0x3da4cd8c	0.080470175
22	0x3d95cca5	0.073144235
23	0x3c887a3b	0.016659847
24	0xbd44d46a	-0.048054136
25	0xbdac1d64	-0.08404043
26	0x3d8ca666	0.068676755
27	0xbc89ad03	-0.016806131
28	0x3daaa4bb	0.08332201
29	0x3d776840	0.060402155
30	0xbe0a54b7	-0.13508879
31	0xbdf22a64	-0.118244916
32	0x3d42e915	0.047585566
33	0xbd2ce84a	-0.042213716
34	0xba954392	-0.0011387935
35	0xbdd43f0a	-0.10363586
36	0x3dce35e9	0.10068876
37	0xbcffa148	-0.031204835
38	0xbc93ce9d	-0.018042857
39	0xbd20a4da	-0.039219715
40	0x3cfc48d1	0.03079644
41	0xbe0179e1	-0.1264415
42	0x3d3301a2	0.04370273
43	0x3dba48d9	0.09095926
44	0x3d6aaa94	0.057291582
45	0xbd3fabcd	-0.0467947
46	0xbd613bb0	-0.054988563
47	0xbe07ac0b	-0.13249223
48	0xbd7871a8	-0.060655266
49	0x3d06f599	0.032949064
50	0x3db3cd01	0.08779336
51	0xba60043f	-0.00085455546
52	0x3d3952f8	0.04524514
53	0xbcabac28	-0.020956114
54	0x3da74560	0.08167529
55	0xbdae94f2	-0.08524503
56	0xbd677f5e	-0.05651795
57	0xbdfeb545	-0.12436918
58	0xbe118f76	-0.14214882
59	0xbdc8440f	-0.09778606
60	0xbd5ab617	-0.05339631
61	0x3cbab22b	0.022790035
62	0xbc6c1f52	-0.014411764
63	0xbd38dd08	-0.045132667
64	0xbda746e8	-0.08167821
65	0x3d07479e	0.033027284
66	0x3de222d0	0.11041796
67	0x3eeb383a	0.45941335
68	0xbca55909	-0.020184057
69	0xbca7a98f	-0.020466594
70	0xbda51597	-0.080607586
71	0xbdaeddf4	-0.08538428
72	0xbd8a5270	-0.06754005
73	0x3da290e4	0.07937792
74	0x3de083a4	0.109626085
75	0xbd54c408	-0.051944762
76	0xbe15c4e8	-0.14625895
77	0xbd26da54	-0.040735558
78	0xbcd99c2c	-0.026563726
79	0xbe0310af	-0.12799333
80	0xbdb0235a	-0.08600493
81	0x3c6356a7	0.01387564
82	0xbdb1c577	-0.086802416
83	0xbc1692bd	-0.009190259
84	0x3b911646	0.004427704
85	0xbd5d1d06	-0.053982757
86	0xbe173ddc	-0.14769691
87	0xbdf8b6fa	-0.12144275
88	0xbd7aae33	-0.061201286
89	0x3d9100ef	0.07080256
90	0x3ad689a8	0.0016367929
91	0xbc9b4a39	-0.01895629
92	0xbdbbb9d5	-0.09166304
93	0x3d8934e5	0.06699542
94	0xbda43e3f	-0.08019685
95	0xbdbac472	-0.091195
96	0xbd7b0e8a	-0.061293162
97	0xbe19f90b	-0.15036409
98	0x3ddf2d88	0.10897356
99	0x3d104fd1	0.03523237
100	0xbdcdb310	-0.10043919
101	0x3d5153e6	0.051105402
102	0x3d4ffd12	0.050778456
103	0xbde88f68	-0.113554776
104	0x3dab4825	0.0836337
105	0xbca691c6	-0.020333182
106	0x3e0270c9	0.12738337
107	0xbc190c32	-0.0093412865
108	0xbd9ae797	-0.075637035
109	0xbaad54ff	-0.0013224183
110	0x3d8aa18c	0.06769094
111	0x3d17fba6	0.037105225
112	0xbcb76934	-0.022389032
113	0xbcc882fe	-0.024476524
114	0x3d50f5b0	0.051015556
115	0xbca11377	-0.019662602
116	0xbb68f880	-0.0035548508
117	0x3c26af9f	0.010173707
118	0xbd643e25	-0.05572333
119	0xbd2ccc0a	-0.042186774
120	0xbb8f2d00	-0.004369378
121	0xbd5da0fe	-0.054108612
122	0x3e0e3f21	0.1389127
123	0x3c5b074e	0.013368441
124	0x3c118e74	0.008884061
125	0xbe035058	-0.12823617
126	0x3e0e5932	0.13901213
127	0x3de3fad9	0.1113183
128	0xbd66d119	-0.056351755
129	0xbd9b1137	-0.07571643
130	0xbd0a63fd	-0.033786763
131	0x3d2f5cdb	0.042813163
132	0xbdcf0051	-0.10107482
133	0xb998a031	-0.0002911105
134	0xbbfc59fc	-0.0077011567
135	0xbbf15a44	-0.007365497
136	0x3d10fd2d	0.035397697
137	0xbc976f63	-0.01848573
138	0x3d58fe87	0.05297711
139	0xbd7f23d6	-0.062290035
140	0x3d661900	0.056176186
141	0xbc4b95ec	-0.012425881
142	0xbdefd605	-0.11710743
143	0xbc94eb09	-0.01817848
144	0x3d0c3028	0.034225613
145	0x3d96469f	0.07337689
146	0x3c1ae52f	0.009454056
147	0x3c505f6c	0.012718063
148	0x3d82705e	0.063690886
149	0x3dec369a	0.11533852
150	0x3d51e319	0.051241968
151	0xbdbfa562	-0.09357716
152	0xbdc07c41	-0.093986996
153	0xbccdb7e5	-0.025112102
154	0xbdc8b2c2	-0.0979972
155	0x3d1db7cb	0.038505357
156	0x3d584b82	0.052806385
157	0x3daf0171	0.08545197
158	0xbcde3c5d	-0.027128393
159	0x3bc7862b	0.006088992
160	0xbdf22919	-0.11824245
161	0x3d8c9f4e	0.068663225
162	0x3caf2e62	0.021384422
163	0x3df8a1ed	0.1214026
164	0x3cee04a0	0.02905494
165	0x3dcf3243	0.101170085
166	0x3d1dacaf	0.038494762
167	0xbdf708ec	-0.120622486
168	0xbdd89337	-0.10574954
169	0x3dc4b61b	0.09605046
170	0xbc89167e	-0.016734358
171	0x3d8ca66c	0.0686768
172	0xbd8495eb	-0.06473907
173	0xbd9ad252	-0.07559647
174	0xbdb36e79	-0.08761305
175	0xbd2a8322	-0.041628964
176	0x3d914a41	0.07094241
177	0xbd360ef6	-0.04444786
178	0xbca9a09e	-0.020706471
179	0x3c90b4b9	0.0176643
180	0x3ddb886d	0.107193805
181	0xbd93a503	-0.07209208
182	0xbd640162	-0.05566538
183	0xbde0aad8	-0.10970086
184	0xbdd05eea	-0.101743534
185	0xbd8cd691	-0.06876863
186	0xbcf8971a	-0.030345488
187	0xbd1bcdd0	-0.038038075
188	0xbbe9084a	-0.007111584
189	0xbd5e7f63	-0.054320704
190	0xbdef7ce7	-0.11693745
191	0xbd2588c9	-0.04041365
192	0x3d208c6b	0.039196413
193	0x3d1a6014	0.037689283
194	0xbde1b4d6	-0.1102082
195	0x3c1f5e3e	0.009727059
196	0x3d6d9ea5	0.058012623
197	0x3dce4be3	0.10073068
198	0xbc4b4cee	-0.012408478
199	0x3f971766	1.1804016
200	0xbd269167	-0.04066601
201	0xbdb0b223	-0.08627727
202	0xbce92b41	-0.028463008
203	0x3c64466c	0.0139328055
204	0xbc1c1df2	-0.009528624
205	0xbd89b2ba	-0.067235425
206	0xbe0e1e53	-0.13878755
207	0x3dae0a4c	0.08498058
208	0xbd86ffad	-0.06591735
209	0x3d84423e	0.06457947
210	0xbda3070c	-0.079603285
211	0xbcd6caa8	-0.02621968
212	0xbe566338	-0.20936286
213	0xbae8c8ff	-0.0017760097
214	0x3c3f2e34	0.0116687305
215	0x3d9ea95b	0.07747146
216	0xbe2429af	-0.16031526
217	0xbd9d18fe	-0.076707825
218	0xbbbbd6ab	-0.0057323775
219	0xbdc796ee	-0.097455844
220	0xbe1e3bb3	-0.15452461
221	0x3e286560	0.16444921
222	0xbd44b7b6	-0.048026763
223	0xbe0744dd	-0.13209863
224	0xbded25ad	-0.11579452
225	0x3d624924	0.055245534
226	0x3cb609bf	0.022221444
227	0xbe1888bc	-0.1489591
228	0x3c1b2626	0.0094695445
229	0x3cacef1c	0.02111011
230	0x3ea7036f	0.32619807
231	0xbd3abcf7	-0.045590367
232	0xbde2cac6	-0.11073832
233	0xbe0f6324	-0.14002663
234	0xbe3691cc	-0.17829055
235	0xbd4c9b09	-0.04995254
236	0x3dc5e343	0.09662487
237	0x3d1870b4	0.037216857
238	0xbabb630f	-0.001429649
239	0x3d98bb8a	0.07457645
240	0xbd98e9b6	-0.07466452
241	0x3d0b9621	0.03407872
242	0xbdf80a40	-0.1211133
243	0x3da7d4a3	0.08194854
244	0xbdba57ce	-0.09098779
245	0x3dfbb1cc	0.122897714
246	0x3ccc25fc	0.024920456
247	0xbd95cf93	-0.07314982
248	0xbe24fb45	-0.16111477
249	0x3d5b8101	0.053589825
250	0xbdbbda03	-0.09172442
251	0x3df347ca	0.11878927
252	0x3dd95474	0.10611811
253	0xbdb3e07b	-0.087830506
254	0x3d9ce701	0.07661248
255	0xba5e1057	-0.0008471063

fc_1.bias f4 [64]
0	0xbd69a502	-0.05704213
1	0xbd9953eb	-0.07486709
2	0x3d2a11dc	0.04152094
3	0x3d88b905	0.06675915
4	0xbda64d62	-0.08120228
5	0x3e12f21b	0.14350168
6	0x3d30fc76	0.043209516
7	0x3d3cdea5	0.046110768
8	0x3a644b03	0.00087086874
9	0xbd9c46ae	-0.076306686
10	0x3d338f0a	0.043837585
11	0xbbf0b27f	-0.007345497
12	0x3dc31199	0.09524841
13	0x3deb0bc4	0.114768535
14	0xbd2b925e	-0.041887634
15	0x3df332bb	0.118749104
16	0xbd43900e	-0.047744803
17	0xbe020b81	-0.12699701
18	0xbd9b69cd	-0.07588539
19	0x3db4490e	0.088029966
20	0x3d088d4d	0.03333788
21	0xbe021061	-0.1270156
22	0x3dc68dd9	0.09695024
23	0xbbcc853f	-0.00624147
24	0xbd9fd7d2	-0.07804836
25	0xbe01951f	-0.12654541
26	0xbd9c56ad	-0.076337196
27	0x3d497b71	0.04918999
28	0xbdb05e85	-0.08611778
29	0x3a8b9b27	0.0010651097
30	0xbd2374f4	-0.039906457
31	0xbcafd698	-0.021464631
32	0x3a9c8776	0.0011942226
33	0xbc0e4afc	-0.00868487
34	0x3dfff681	0.12498189
35	0x3d69884d	0.057014752
36	0x3dffcb1c	0.12489912
37	0xbcd24df4	-0.025671937
38	0x3d2d945e	0.042377822
39	0xbd937dbd	-0.07201717
40	0x3d178b0d	0.036997844
41	0x3e2517e6	0.16122398
42	0x3cdf6fb8	0.027274951
43	0x3d0da2ea	0.034579195
44	0x3db4ceae	0.088284835
45	0x3dc8c82b	0.09803804
46	0xbd2232ba	-0.039599158
47	0xbd969758	-0.07353085
48	0xbd1c105f	-0.03810155
49	0x3dd8dd49	0.10589082
50	0x3d152836	0.0364153
51	0xbbbfc6dd	-0.005852564
52	0x3de90cbb	0.11379381
53	0xbdc1441a	-0.094368175
54	0x3dd398d3	0.10331883
55	0xbde64bcd	-0.112449266
56	0x3d26723b	0.040636282
57	0xbd210f12	-0.039321013
58	0xbce99d45	-0.028517375
59	0x3dbbcea4	0.09170273
60	0xbd7651db	-0.060136657
61	0x3e19dc1d	0.15025373
62	0x3c0de4b0	0.00866048
63	0x3d8086b5	0.06275693

fc_2.weight f4 [4, 64]
0	0x3c9c7eb8	0.019103393
1	0x3e7477a3	0.23873763
2	0x3d9d4e48	0.076809466
3	0xbfb9aa26	-1.450505
4	0x3ec120bb	0.37720284
5	0xbf38dcd1	-0.7221194
6	0xbcd83c85	-0.026396045
7	0xbde01fbe	-0.10943554
8	0x3f8ab27b	1.0835718
9	0x3ee9863c	0.45610225
10	0xbdff3a92	-0.12462343
11	0x3f8d285c	1.1027942
12	0xbd48c7f4	-0.049018815
13	0xbcc6a951	-0.024250658
14	0xbbc676a2	-0.0060566226
15	0x3f9f3ea6	1.2440994
16	0xbca2d84b	-0.019878527
17	0x3e05fad2	0.13083962
18	0x3d299d3b	0.041409712
19	0x3f93c83e	1.1545484
20	0x3d82a1d8	0.063785255
21	0xbf41e5c3	-0.75741214
22	0xbd8cf5c1	-0.06882811
23	0x3f46b3e8	0.77618265
24	0xbd046f22	-0.032332547
25	0xbeab1991	-0.33417943
26	0xbe22f86a	-0.15915075
27	0xbe274d22	-0.16338018
28	0xbddd6e2a	-0.10812028
29	0xb767f868	-1.38265095e-05
30	0x3daa73ee	0.08322893
31	0xbf53d063	-0.8273985
32	0xbe0cc7c5	-0.13748081
33	0x3f8cba83	1.0994419
34	0xbef2366c	-0.47307146
35	0x3da4aff9	0.080413766
36	0xbdf7c7ef	-0.12098681
37	0xbb482501	-0.0030539634
38	0x3e8f5735	0.2799622
39	0x3f2a8846	0.66614187
40	0xbe5185b9	-0.20461167
41	0x3f5cc583	0.8623888
42	0x3da65d36	0.08123247
43	0x3db281fc	0.08716199
44	0x3ddb3c55	0.10704867
45	0x3cf39cd8	0.029737875
46	0xbcafd4b2	-0.021463726
47	0xbf5b9f0d	-0.8578957
48	0xbe2d6980	-0.16934776
49	0xbde2003a	-0.110351995
50	0x3e3b6f31	0.18304135
51	0x3efcdc92	0.49387032
52	0x3d88abb6	0.06673376
53	0x3d80f086	0.06295876
54	0x3f27f64d	0.656102
55	0x3d55d99c	0.05220948
56	0x3f33e5f7	0.70272774
57	0xbf82f8a5	-1.023213
58	0x3d8d44bc	0.06897876
59	0xbdcf2fa3	-0.10116508
60	0x3f4a73d1	0.7908297
61	0xbf5cb2e3	-0.8621046
62	0xbda86d4f	-0.08223974
63	0xbdb112b2	-0.08646144
64	0xbdd5f2df	-0.104467146
65	0xbd5d9aae	-0.054102592
66	0xbd3fcba8	-0.04682508
67	0x3fa3575f	1.2761039
68	0x3ef76e99	0.48326567
69	0x3ee126b4	0.4397484
70	0x3e9126db	0.28349957
71	0xbdddd784	-0.10832122
72	0xbf90bfa6	-1.1308486
73	0xbf49574e	-0.7864884
74	0x3e1fdfa3	0.15612654
75	0xbf23e123	-0.64015406
76	0xbd8d209d	-0.06890986
77	0xbdd67a7b	-0.1047258
78	0x3da51875	0.080613054
79	0xbfa2c164	-1.2715268
80	0xbe4029a6	-0.18765888
81	0xbd90d1c0	-0.07071257
82	0x3cb7d85f	0.022442041
83	0xbf528d27	-0.8224663
84	0xbc8e3d2f	-0.017363159
85	0xbf0cc4c4	-0.5498774
86	0x3d45a11e	0.048249356
87	0xbf7dea43	-0.9918558
88	0x3d4a541e	0.049396627
89	0xba74b7ff	-0.0009335279
90	0x3e2d6818	0.1693424
91	0x3dbdb655	0.09263293
92	0x3d8d1b8a	0.06890018
93	0xbdcdd588	-0.100504935
94	0xbd6d0cd8	-0.057873577
95	0x3f00d554	0.5032551
96	0x3d79bae2	0.06096924
97	0xbe821284	-0.2540475
98	0xbf111bbb	-0.5668294
99	0xbdb440db	-0.08801433
100	0x3da5b8c5	0.080918826
101	0x3da8ab5b	0.082358085
102	0xbe8848dc	-0.26618087
103	0xbe6460d1	-0.22302558
104	0xbda7e225	-0.081974305
105	0x3ede4610	0.43412828
106	0xbddfb2d1	-0.109227784
107	0x3d2d01ee	0.04223817
108	0xbe2aac81	-0.16667368
109	0x3de4075c	0.11134216
110	0x3d9b4163	0.07580831
111	0xbe3e7eb4	-0.18603021
112	0x3dbd51ee	0.092441425
113	0x3d28026c	0.041017935
114	0xbe89875b	-0.2686108
115	0xbf54f52c	-0.831866
116	0xbcb96a20	-0.022633612
117	0x3ddd388e	0.108018026
118	0xbdc76112	-0.097353116
119	0xbcd37ef8	-0.02581738
120	0xbf7f4069	-0.9970766
121	0x3f19d047	0.6008343
122	0x3e520ee8	0.20513499
123	0x3a989264	0.0011640307
124	0xbf37bb4e	-0.7177018
125	0x3ed425cc	0.41435087
126	0x3c72a72d	0.014810366
127	0xbc55c69d	-0.013047841
128	0x3c9769f1	0.018483134
129	0xbd95f32f	-0.07321774
130	0x3ddac8ea	0.106828526
131	0x3c29356b	0.010327677
132	0x3ee91ed3	0.4553133
133	0xbfa4834a	-1.2852566
134	0x3d80de05	0.06292347
135	0xbdbe280a	-0.092849806
136	0x3f281ee6	0.6567215
137	0x3e93220a	0.28736907
138	0xbe1a1bf0	-0.1504972
139	0xbde90103	-0.11377146
140	0xbe45dd98	-0.19322813
141	0xbb4cd1e1	-0.0031253027
142	0xbdfd5768	-0.12370187
143	0x3e94b288	0.2904246
144	0xbe4b82fc	-0.19874185
145	0x3d39c077	0.045349564
146	0x3cfd7c49	0.030943053
147	0xbee1fde5	-0.4413902
148	0x3c5064b5	0.012719323
149	0x3de7b9ca	0.11314733
150	0x3dd86648	0.105663836
151	0x3ec2d8b1	0.38055947
152	0x3cabd5e9	0.020976024
153	0x3ed363d2	0.41287094
154	0x3e622b6b	0.22086875
155	0xbdbab7e0	-0.091171026
156	0xbdc2f352	-0.09519066
157	0x3de3f747	0.11131149
158	0x3db3b26e	0.08774267
159	0xbd311f47	-0.04324272
160	0xbd507c2f	-0.05089968
161	0xbf5f2407	-0.8716435
162	0xbee16dca	-0.44029075
163	0xbcf1fae2	-0.029538576
164	0xbd03f044	-0.032211557
165	0x3d2bc1bd	0.04193281
166	0x3ddf33c4	0.108985454
167	0xbea51c18	-0.32247996
168	0xbe5c605e	-0.21521136
169	0xbfb65dc6	-1.4247367
170	0x3d9ac9e6	0.0755804
171	0x3da64814	0.081192166
172	0xbc443483	-0.01197541
173	0xbd374d10	-0.044751227
174	0x3d867f2a	0.06567223
175	0x3ec1723a	0.3778246
176	0x3d9ab0d2	0.07553257
177	0xbd35bf08	-0.044371635
178	0xbcbbaa13	-0.022908246
179	0x3ee9c892	0.45660836
180	0x3dcf5cd0	0.101251245
181	0x3d9c6046	0.0763555
182	0xbfc41dba	-1.5321572
183	0x3d37ca40	0.044870615
184	0x3ec319d2	0.38105637
185	0x3e284c0c	0.1643526
186	0xbccc636f	-0.024949757
187	0xbdec0041	-0.11523486
188	0x3ec29ab0	0.38008642
189	0xbdc52dbf	-0.09627866
190	0xbcf08258	-0.029359028
191	0xbd2eae5a	-0.042646743
192	0x3c14f8e7	0.009092546
193	0xbd609c2f	-0.05483645
194	0xbd4d8510	-0.050175726
195	0xbe123ba1	-0.14280559
196	0xbf79907d	-0.97486097
197	0x3f862ef8	1.0483084
198	0x3d986ab9	0.07442231
199	0x3d9309ae	0.07179581
200	0x3ea83306	0.32851428
201	0xbe8132a1	-0.2523394
202	0x3da445d7	0.080211334
203	0xbf860829	-1.047124
204	0x3e8ac306	0.27101916
205	0xbd635999	-0.05550537
206	0xbd3ab98b	-0.045587104
207	0xbe6a5a44	-0.22885996
208	0x3d2bf392	0.041980334
209	0xbe0bd068	-0.1365372
210	0xbce2fc5c	-0.027708225
211	0xbe80241b	-0.25027546
212	0xbd48a201	-0.048982624
213	0x3f5ff5f8	0.87484694
214	0xbd89c80d	-0.0672761
215	0x3d83bdd5	0.06432692
216	0x3dc01b77	0.093802385
217	0x3e31c3c4	0.17359835
218	0xbc8796d5	-0.016551415
219	0xbe086ef0	-0.1332357
220	0xbcd11877	-0.025524361
221	0xbe1ce6bf	-0.15322398
222	0x3dccdb9a	0.10002823
223	0x3e95b7ba	0.29241735
224	0xbd51594e	-0.05111056
225	0xbf80d88b	-1.0066084
226	0x3f54493c	0.82924247
227	0x3da2ffc7	0.07958942
228	0x3c9c1a11	0.019055398
229	0x3e2056f8	0.15658176
230	0x3d2caede	0.042158954
231	0x3cdeb166	0.0271842
232	0x3eed01da	0.46290475
233	0xbc977f44	-0.018493302
234	0x3df507ef	0.11964404
235	0x3b03095e	0.0019994597
236	0x3cfa895e	0.03058308
237	0xbd44e27f	-0.048067566
238	0x3da8913b	0.082308255
239	0x3ee3dfec	0.44506776
240	0x3d1594a3	0.036518704
241	0x3b3725c0	0.0027946085
242	0x3d919385	0.07108215
243	0xbdcc9d72	-0.09990968
244	0x3cfc5908	0.030804172
245	0xbd43e928	-0.047829777
246	0x3edb79e6	0.4286644
247	0xbbb95080	-0.0056553483
248	0x3db8a23f	0.09015321
249	0x3f1114a6	0.5667213
250	0xbe2d6980	-0.16934776
251	0x3dd6abc4	0.104819804
252	0xbf62844b	-0.88483113
253	0x3f30ebd2	0.69109833
254	0xbd970ad7	-0.073751144
255	0xbdad8923	-0.084734224

fc_2.bias f4 [4]
0	0xbdb9a576	-0.09064762
1	0x3d8a33d0	0.06748164
2	0xbd913788	-0.0709067
3	0xbdaf640e	-0.08564006
