Additional stuff/segmentation_pointnet_dsfmeanpstorefake3.pth (torch, 79218 bytes, 18 tensors)

base_pointnet.conv_1_a.weight f4 [64, 1, 3]
-0.36395046 0.16166238 0.39942402 0.02770368 -0.34256637 0.35095873 0.047984924 0.20040676
0.58340156 0.046987794 -0.1705895 0.26965752 0.075670995 -0.2902654 0.19214444 -0.116328
0.14115049 -0.010788546 0.16708434 -0.009117168 -0.4625316 -0.52152777 0.512745 -0.0700491
0.2867965 0.08247409 -0.33690754 0.2673354 0.40447196 0.367241 0.26836792 0.14559625
0.36358523 0.18889992 -0.03283074 -0.12088948 -0.024345769 0.022415612 -0.012439789 0.19176176
-0.23551069 -0.43775192 -0.29437718 -0.5971923 -0.39283508 0.45502797 -0.49109203 -0.14179273
-0.16354993 0.088618256 0.0714783 0.20394565 -0.36991447 0.27058455 0.5247496 0.0018762386
0.19984126 0.34234402 -0.09290582 -0.07815881 -0.4937458 0.26129818 -0.0741312 -0.037688486
0.08531273 -0.12432407 -0.46740904 -0.04198799 0.46404344 -0.20897146 -0.041279472 -0.4536761
0.11034175 0.14349912 -0.28950968 -0.04471194 -0.40305695 -0.7145587 0.2610936 0.4934497
-0.48412794 -0.46928257 0.5245857 0.17873682 -0.44225538 0.56594837 -0.4342377 -0.4594678
0.4937679 -0.01437009 0.20287816 0.34605718 -0.48985103 0.18186842 -0.13058995 -0.08726813
0.012822067 -0.42891586 0.4090731 -0.38061637 0.2619484 -0.529525 0.017787682 -0.29019284
0.23092435 0.08398724 -0.18043953 0.068708405 -0.17892016 0.2796865 0.098451346 -0.17174794
0.22167197 -0.112488754 0.22038208 -0.4490435 0.12486292 -0.21710593 0.34109306 -0.14133804
0.25098708 -0.267752 -0.15871859 -0.47120503 0.47085017 0.042164512 -0.24428971 -0.2834965
0.4471724 -0.44657415 0.09320677 0.31799036 0.042908218 -0.37502366 0.38439953 -0.20959073
0.31127536 -0.31681958 0.4737318 -0.22993927 -0.45036823 -0.39855415 -0.051334072 -0.1726985
0.34636712 -0.48199293 -0.21182919 -0.12639412 -0.30602688 0.33449525 -0.31690603 0.36245134
0.061910477 -0.3963909 0.44902733 -0.19041343 0.20322092 -0.42775613 0.26929942 0.2238917
-0.28054935 0.06195653 0.3089561 -0.27033293 0.45446917 -0.049673647 0.22830543 -0.45389205
0.784591 -0.21887237 0.038183708 0.24484308 0.09909972 -0.503656 0.11808428 0.31318524
0.15237877 -0.4379836 0.41035947 0.033263646 -0.14058955 -0.041061264 -0.015285067 -0.294831
0.25982136 -0.033150304 0.2148718 0.3714067 -0.12937371 -0.17556132 0.41301227 -0.257235
00000000: b757 babe d38a 253e 4e81 cc3e d4f2 e23c
00000010: dc64 afbe ddb0 b33e d78b 443d 6e37 4d3e
00000020: ce59 153f 4676 403d 04af 2ebe 8d10 8a3e
00000030: 65f9 9a3d ab9d 94be 83c1 443e 603d eebd
00000040: c189 103e 71c2 30bc 2818 2b3e 2d60 15bc
00000050: f1d0 ecbe d882 05bf 4243 033f e775 8fbd
00000060: fed6 923e 2de8 a83d 257f acbe 30e0 883e
00000070: f316 cf3e 0307 bc3e 8567 893e 2f17 153e
00000080: d827 ba3e fb6e 413e 8779 06bd e794 f7bd
00000090: c770 c7bc f2a0 b73c 42d0 4bbc 325d 443e
000000a0: b729 71be 0521 e0be 9bb8 96be 98e1 18bf
000000b0: ae21 c9be 6df9 e83e 6a70 fbbe 1d32 11be
000000c0: a279 27be 7d7d b53d 3763 923d 21d7 503e
000000d0: 6e65 bdbe 0f8a 8a3e fd55 063f 1fec f53a
000000e0: 30a3 4c3e b747 af3e 6845 bebd ba11 a0bd
000000f0: 40cc fcbe e0c8 853e 19d2 97bd 3e5f 1abd
00000100: 71b8 ae3d 9e9d febd 3d50 efbe 99fb 2bbd
00000110: 1a97 ed3e 9dfc 55be aa14 29bd 3c48 e8be
00000120: dbfa e13d 6ff1 123e 9d3a 94be de23 37bd
00000130: 7b5d cebe 52ed 36bf 0fae 853e 70a5 fc3e
00000140: 9edf f7be ce45 f0be 404b 063f c906 373e
00000150: 4c6f e2be fee1 103f 6754 debe 5d3f ebbe
00000160: 25cf fc3e 8770 6bbc 4bbf 4f3e 682e b13e
00000170: c1cd fabe b73b 3a3e 5fb9 05be a2b9 b2bd
00000180: a613 523c dc9a dbbe 0872 d13e 26e0 c2be
00000190: 1a1e 863e f38e 07bf 79b7 913c 2894 94be
000001a0: 6f77 6c3e 8101 ac3d 24c5 38be feb6 8c3d
000001b0: d936 37be 1233 8f3e dca0 c93d b1de 2fbe
000001c0: fafd 623e 8160 e6bd d7ab 613e 08e9 e5be
000001d0: 21b8 ff3d 0451 5ebe c0a3 ae3e ebba 10be
000001e0: 6181 803e ca16 89be 2087 22be c941 f1be
000001f0: 4613 f13e b2b4 2c3d 1527 7abe 7426 91be
00000200: c8f3 e43e 5ea5 e4be 31e3 be3d a2cf a23e
00000210: 87c0 2f3d 1a03 c0be 04d0 c43e f49e 56be
00000220: 7c5f 9f3e 2d36 a2be f98c f23e 3375 6bbe
00000230: aa96 e6be 4a0f ccbe ad43 52bd e0d7 30be
00000240: 0857 b13e c7c7 f6be c0e9 58be 766d 01be
00000250: 8eaf 9cbe f642 ab3e 8241 a2be 3993 b93e
00000260: d795 7d3d bff3 cabe e9e6 e53e bdfb 42be
00000270: 2519 503e da02 dbbe 9de1 893e de43 653e
00000280: 2aa4 8fbe 21c6 7d3d 7e2f 9e3e 1469 8abe
00000290: 2fb0 e83e 9876 4bbd e6c8 693e 8a64 e8be
000002a0: f5da 483f 1420 60be 8566 1c3d 25b8 7a3e
000002b0: cbf4 ca3d 9aef 00bf 2cd6 f13d d159 a03e
000002c0: 2e09 1c3e 633f e0be a31a d23e 763f 083d
000002d0: b5f6 0fbe db2f 28bd 386e 7abc 17f4 96be
000002e0: 4e07 853e 9dc8 07bd 5a07 5c3e 0529 be3e
000002f0: 8b7a 04be 59c6 33be 5876 d33e 4eb4 83be

base_pointnet.conv_1_a.bias f4 [64]
0.0036385222 -0.49664986 0.5363969 -0.07434007 -0.044835936 0.26600298 0.19051692 -0.49423596
-0.118942544 0.08466977 -0.42477182 -0.4135841 0.37745667 -0.13360612 -0.14483137 0.5483004
-0.50132257 0.3608357 0.06535711 0.55810374 -0.02807217 0.4348935 -0.37540078 0.5594639
-0.4714802 -0.5664176 -0.23372428 0.51855034 -0.5026753 -0.49965462 0.16896778 -0.16882095
-0.40125817 -0.56656003 0.39113778 0.5048359 0.40103614 -0.24018651 -0.413091 -0.2850527
-0.26932582 -0.10379977 -0.4236466 0.2310872 0.21432856 -0.4051191 0.3147622 -0.008127286
-0.090336554 -0.572253 0.18334898 -0.4229436 0.38030314 0.4462535 0.35764068 -0.3850177
-0.5371099 0.49966598 0.24673253 -0.0028551386 0.3646865 -0.22643863 0.13291726 -0.5837458
00000000: 4674 6e3b e448 febe 4f51 093f 9b3f 98bd
00000010: e3a5 37bd 8b31 883e de16 433e 7f0c fdbe
00000020: 2698 f3bd 5867 ad3d b17b d9be 4cc1 d3be
00000030: 0042 c13e 0bd0 08be ad4e 14be 6a5d 0c3f
00000040: ad56 00bf 75bf b83e f3d9 853d e3df 0e3f
00000050: 9cf7 e5bc 5caa de3e 8834 c0be 0739 0f3f
00000060: da65 f1be be00 11bf 6b55 6fbe b7bf 043f
00000070: 54af 00bf bbd2 ffbe e405 2d3e 66df 2cbe
00000080: b671 cdbe 140a 11bf 3643 c83e ed3c 013f
00000090: 9c54 cd3e 74f3 75be aa80 d3be 6df2 91be
000000a0: 13e5 89be f994 d4bd 35e8 d8be 1fa2 6c3e
000000b0: f278 5b3e c56b cfbe 8328 a13e 4f28 05bc
000000c0: 5f02 b9bd 2c7f 12bf d6bf 3b3e 108c d8be
000000d0: 18b7 c23e 577b e43e ae1c b73e 0a21 c5be
000000e0: 0980 09bf 38d4 ff3e 74a7 7c3e 471d 3bbb
000000f0: 30b8 ba3e 87df 67be 761b 083e 5d70 15bf

base_pointnet.conv_1_b.weight f4 [64, 1, 3]
-0.83791775 -0.55234396 -0.6025199 -0.6545033 0.13968998 -0.5860928 0.26046875 -0.58250594
-0.3692651 -0.75011444 -0.5711518 -0.69069016 0.41166714 0.3972084 -0.8597708 -0.25790212
-0.8689393 -0.3033402 0.42598435 -0.026146997 0.31585118 -0.33569455 0.1425612 0.37005517
0.24579911 0.1084631 -0.0025259082 0.099753544 0.3467183 0.5121586 0.75100774 0.44810957
-0.6157676 -0.064579435 -0.073333174 -0.70568985 0.09968873 0.85891986 -0.060326375 0.70276767
0.30911505 0.7032114 0.023846213 -0.44127983 -0.36221835 -0.16004519 0.5422595 0.7747305
0.32366708 0.5100826 -0.9890036 0.37225276 -0.077212356 0.7827392 0.45703238 -0.90944964
0.43290314 -0.5651415 -0.29565802 -1.0717517 0.14028303 -0.023705032 0.62303823 -0.38135037
-0.23766685 -1.4703177 0.3426149 -0.27971268 0.2565828 0.5116262 0.7030551 0.09803457
0.658361 0.05853429 -0.7203186 0.089566335 0.3844193 -0.19208981 0.2634014 0.42973244
-0.6568906 0.819804 0.26469657 -0.51893675 0.6054191 0.36050838 0.84236246 -0.41013074
0.48569384 0.57593596 0.43068063 0.8181638 0.5226339 0.698606 0.43565455 -0.11063353
-0.07534044 0.37131572 0.14465888 0.122750625 0.32460508 -0.28527358 -0.2884727 -0.04839746
-0.71419334 -0.3955346 -0.061724596 0.93538535 0.08625625 -0.11472141 0.45310557 0.53820956
0.048622128 -0.7653387 -0.32434586 0.008755696 0.6061979 0.16909604 0.73974997 -0.7278758
-0.5735345 0.6292445 0.87801164 0.13452679 -0.6039432 -0.55737007 -0.26012745 -0.018499155
0.46280333 -0.58663094 -0.090525664 -0.7262438 -0.572894 -0.32219562 0.1474035 -0.16490911
0.56854355 0.12430479 0.17270969 0.4824237 0.0041230195 0.04429182 -0.24046308 -0.21740569
0.72466105 0.2442182 -0.22652173 0.6533501 -0.18432365 -0.84373355 -0.5655078 -0.6210872
-0.63697916 0.67061174 0.5069008 0.39193738 0.009704181 -0.33939147 0.6953296 0.42656702
0.59643906 -0.33521175 -0.4879536 0.6405285 -0.0118853785 0.4228954 0.08835626 0.33350238
0.64427847 0.03737615 -0.15022355 0.69027174 0.5259295 0.52636045 -0.62363523 0.5160592
0.18990956 -0.048887804 -0.39669272 -0.574028 0.20633458 0.21072195 -0.40596324 0.16910654
0.40081754 -0.5345104 -0.7685436 -0.22267072 0.92895555 -0.51879233 -0.4914546 0.06762356
00000000: c781 56bf 6a66 0dbf bf3e 1abf 878d 27bf
00000010: e40a 0f3e 2e0a 16bf 295c 853e 1c1f 15bf
00000020: 5110 bdbe 8007 40bf 0137 12bf 12d1 30bf
00000030: 09c6 d23e e65e cb3e f019 5cbf bf0b 84be
00000040: ce72 5ebf 684f 9bbe 9f1a da3e 3a32 d6bc
00000050: 3fb7 a13e 28e0 abbe 90fb 113e df77 bd3e
00000060: c3b2 7b3e e721 de3d b589 25bb 964b cc3d
00000070: 1085 b13e d31c 033f 0b42 403f 9e6e e53e
00000080: f2a2 1dbf 3942 84bd b42f 96bd 17a8 34bf
00000090: 9b29 cc3d 2ce2 5b3f ca18 77bd 95e8 333f
000000a0: 5444 9e3e aa05 343f 2259 c33c 6eef e1be
000000b0: af74 b9be e3e2 23be 85d1 0a3f bd54 463f
000000c0: b1b7 a53e c694 023f 572f 7dbf ea97 be3e
000000d0: 8321 9ebd 9961 483f 2600 ea3e b1d1 68bf
000000e0: 7ba5 dd3e 1dad 10bf 7d60 97be 292f 89bf
000000f0: 5ba6 0f3e 0e31 c2bc 6f7f 1f3f 5b40 c3be
00000100: f05e 73be 5f33 bcbf 386b af3e 8036 8fbe
00000110: d25e 833e eff9 023f 6bfb 333f 59c6 c83d
00000120: 598a 283f a7c1 6f3d cd66 38bf 8e6e b73d
00000130: 9bd2 c43e 31b3 44be 8cdc 863e e405 dc3e
00000140: fb29 28bf adde 513f 4f86 873e 0ad9 04bf
00000150: bffc 1a3f 8e94 b83e 11a5 573f a8fc d1be
00000160: ddac f83e 8a70 133f 2c82 dc3e 2f73 513f
00000170: 56cb 053f d8d7 323f 1d0e df3e d593 e2bd
00000180: 174c 9abd 181d be3e 7521 143e ae64 fb3d
00000190: a332 a63e 610f 92be b2b2 93be 6a3c 46bd
000001a0: 60d5 36bf 8383 cabe eed2 7cbd 6a75 6f3f
000001b0: 1ea7 b03d 0ff3 eabd 74fd e73e 1ac8 093f
000001c0: ff27 473d 3ded 43bf a910 a6be 0d74 0f3c
000001d0: c92f 1b3f 8327 2d3e 4160 3d3f 1256 3abf
000001e0: 28d3 12bf 2b16 213f 5fc5 603f 64c1 093e
000001f0: 069c 1abf ceaf 0ebf 6d2f 85be 8a8b 97bc
00000200: 8ff4 ec3e 722d 16bf 8565 b9bd 1deb 39bf
00000210: 2ea9 12bf d3f6 a4be f1f0 163e efdd 28be
00000220: 128c 113f 8293 fe3d cfda 303e 3d00 f73e
00000230: 651a 873b 576b 353d f43b 76be 999f 5ebe
00000240: 6383 393f 5614 7a3e 50f5 67be f441 273f
00000250: 57bf 3cbe ecfe 57bf 1fc5 10bf 92ff 1ebf
00000260: 1111 23bf 36ad 2b3f 40c4 013f 04ac c83e
00000270: 49fe 1e3c b8c4 adbe 1f01 323f fe66 da3e
00000280: 3bb0 183f e0a0 abbe 0ed5 f9be adf9 233f
00000290: e4ba 42bc bf85 d83e 20f4 b43d d3c0 aa3e
000002a0: 6fef 243f bc17 193d 34d4 19be a6b5 303f
000002b0: 51a3 063f 8fbf 063f 8fa6 1fbf 751c 043f
000002c0: a777 423e 943e 48bd 4f1b cbbe 80f3 12bf
000002d0: 5f49 533e 7fc7 573e 6ada cfbe 442a 2d3e
000002e0: f537 cd3e acd5 08bf 46bf 44bf cb03 64be
000002f0: 08d0 6d3f 93cf 04bf f09f fbbe 397e 8a3d

base_pointnet.conv_1_b.bias f4 [64]
-0.34809467 -0.20850353 0.5626536 0.26208788 -0.50448334 -0.14285879 0.038981013 -0.36155492
-0.2163995 -0.4533614 0.57542944 -0.20371737 0.36951554 -0.30498046 0.022325085 0.0018957375
-0.107835785 0.12847939 0.06888366 0.37063113 0.20416842 -0.05796997 -0.5451323 0.0816346
-0.16201362 0.5540256 -0.4840257 0.2318083 -0.24892318 -0.011291279 0.19585489 0.09877898
-0.06457751 0.25344533 0.3130284 -0.0823525 -0.39450076 -0.11970673 0.034971748 -0.13599361
0.01987776 -0.15821739 -0.16784158 0.32793358 -0.48209444 -0.47433388 0.4177588 0.039342333
0.02015279 -0.09148595 0.19348574 0.01289518 -0.39507532 -0.5197469 -0.5429891 0.14877254
0.42417338 -0.3366354 -0.1293126 0.5849948 0.27264386 -0.52879804 0.5459727 0.52091
00000000: 7739 b2be f381 55be 110a 103f 6230 863e
00000010: d225 01bf 9349 12be 8eaa 1f3d ba1d b9be
00000020: d597 5dbe fc1e e8be 584f 133f 499b 50be
00000030: 2431 bd3e 6626 9cbe 19e3 b63c 657a f83a
00000040: 02d9 dcbd 1a90 033e e012 8d3d 5dc3 bd3e
00000050: 8711 513e eb71 6dbd ca8d 0bbf 0b30 a73d
00000060: e6e6 25be 9fd4 0d3f 37d2 f7be 285f 6d3e
00000070: b8e5 7ebe 0fff 38bc 2f8e 483e a24c ca3d
00000080: 3741 84bd 96c3 813e 4245 a03e 6da8 a8bd
00000090: 01fc c9be cd28 f5bd 893e 0f3d e941 0bbe
000000a0: afd6 a23c bd03 22be aade 2bbe e9e6 a73e
000000b0: 15d5 f6be e4db f2be 7be4 d53e 6d25 213d
000000c0: 7717 a53c fc5c bbbd 2021 463e 4e46 533c
000000d0: 5047 cabe 220e 05bf 5501 0bbf d457 183e
000000e0: 412d d93e 7a5b acbe 866a 04be 38c2 153f
000000f0: fa97 8b3e 4f5f 07bf dec4 0b3f 5c5a 053f

base_pointnet.conv_2.weight f4 [64, 64, 3]
-0.071817 0.07305993 -0.0070243687 0.0144624235 0.042659186 0.086663894 0.07029587 0.06295367
-0.066568874 -0.03199428 -0.034800038 0.054784037 -0.0026968296 -0.013564718 0.03283859 0.14333259
0.046159916 -0.056624703 -0.089924246 0.02373437 0.062087193 -0.026860896 -0.015209679 0.030353105
0.17189164 0.0943027 0.01184954 0.008811456 0.047834307 -0.02897338 0.06273722 0.034363993
-0.014723747 -0.0038733948 -0.027056405 -0.016798485 -0.05559787 -0.041465007 0.030773735 -0.070921324
0.02041081 -0.014588043 0.028912334 0.028901313 0.052484047 0.038232435 0.07970672 0.08105146
-0.04092939 -0.043864917 0.025134286 0.0038917698 -0.0789177 -0.021097982 -0.030128509 0.01150865
-0.05265568 0.11040891 0.03671066 0.04528669 0.049362697 -0.025617866 -0.011537453 -0.083566554
-0.09037247 -0.009246162 -0.09971394 0.11288029 0.010817778 0.064522386 0.0007536071 -0.0061958046
0.04641066 -0.08551834 -0.02143675 0.013883161 0.006023048 0.01742517 -0.039578803 -0.063642405
-0.01905277 -0.09216566 0.024003346 0.06140818 0.16194881 0.021948257 -0.027701762 0.017469518
-0.08527729 0.04204339 -0.0042341743 0.019575233 0.084685 0.030966591 -0.0038812621 -0.021849137
-0.13382581 0.007447836 0.01585394 -0.033800967 -0.025015382 -0.008166635 -0.080844164 -0.068879165
0.05546144 0.0071587884 -0.204419 -0.038211998 -0.09564392 -0.076219335 0.019823296 0.046445195
0.013884358 0.0020540818 -0.04993285 0.075469434 0.019050406 0.012803646 0.044923756 -0.054154016
-0.017097294 0.026197653 0.16264717 -0.021453315 -0.005812418 -0.0037898922 0.023779256 0.053879727
0.061378792 -0.019086491 -0.081268325 -0.09678669 0.02503099 -0.033715107 -0.09598846 0.034401294
0.019647574 -0.0681924 -0.085934564 0.047353942 -0.064932644 -0.06756073 0.051046975 -0.03256228
-0.10704665 -0.0815218 -0.0350888 -0.044241928 -0.053423885 -0.07027708 0.041715227 0.065990865
-0.062808074 -0.10961503 -0.08497785 -0.0029557531 -0.010366918 -0.019986507 -0.01757546 -0.03980965
0.020030472 -0.025321657 -0.03547211 -0.016826008 0.038264446 0.0068160566 0.05686693 0.057713542
-0.0010146636 0.0036298793 0.030978447 -0.10444904 -0.0938802 -0.08799388 0.046076678 0.036957793
-0.07048814 0.04549742 0.090737164 0.12475524 0.011107846 0.0116539225 -0.08439796 0.37321794
0.1796989 0.10319205 0.0738973 -0.028807085 0.04468542 -0.25542256 -0.054343853 0.05105792
-0.11404756 -0.006606545 -0.009544003 0.08326335 0.059132133 0.060770642 0.038344156 -0.027731374
-0.0057259174 0.0061741597 -0.042820197 -0.026996788 0.14482138 0.11097979 0.062343966 0.034408763
-0.00082833227 -0.024047187 0.071666315 -0.028543795 0.049355842 -0.12265312 0.007729983 0.10275844
-0.13928838 -0.033761438 -0.042008348 0.0022417055 -0.016055038 0.015969027 0.025209008 -0.015320711
0.024219299 -0.05446974 -0.03580126 0.052184243 0.100733176 0.04750117 0.040587004 0.04203609
-0.030963369 -0.00057349546 -0.07861757 0.023176387 0.03815006 -0.07235283 0.0052315113 -0.101792485
-0.004543332 -0.0023274315 0.027101897 -0.01224679 -0.040454533 0.028222037 0.03979245 0.051357996
-0.06873423 0.11176306 0.059548534 0.015184281 0.022268042 -0.026250286 0.020611348 0.029831251
00000000: cb14 93bd 72a0 953d ad2c e6bb cdf3 6c3c
00000010: 66bb 2e3d d77c b13d 48f7 8f3d dbed 803d
00000020: 4355 88bd 6f0c 03bd 7c8a 0ebd 3a65 603d
00000030: 4bbd 30bb 8d3e 5ebc c281 063d c7c5 123e
00000040: 2e12 3d3d 4eef 67bd 342a b8bd 956e c23c
00000050: 244f 7e3d 620b dcbc 0432 79bc 13a7 f83c
00000060: 5d04 303e c621 c13d 9324 423c ed5d 103c
00000070: e8ed 433d 9559 edbc 5f7c 803d 42c1 0c3d
00000080: df3b 71bc c8d8 7dbb 65a5 ddbc fa9c 89bc
00000090: 98ba 63bd 36d7 29bd 3319 fc3c 333f 91bd
000000a0: 9234 a73c b002 6fbc 8fd9 ec3c 72c2 ec3c
000000b0: 83f9 563d 9d99 1c3d 473d a33d 4ffe a53d
000000c0: 93a5 27bd b3ab 33bd 6be6 cd3c 100d 7f3b
000000d0: 9a9f a1bd add5 acbc 10d0 f6bc c78e 3c3c
000000e0: 7bad 57bd 111e e23d eb5d 163d 897e 393d
000000f0: 8a30 4a3d 8fdc d1bc 9607 3dbc f124 abbd
00000100: 3415 b9bd 377d 17bc d236 ccbd c82d e73d
00000110: 0d3d 313c 5024 843d b78d 453a 2d06 cbbb
00000120: 1b19 3e3d 3d24 afbd 209c afbc 3376 633c
00000130: fd5c c53b 3bbf 8e3c 621d 22bd f356 82bd
00000140: 8e14 9cbc 59c1 bcbd aaa2 c43c 2587 7b3d
00000150: e9d5 253e d5cc b33c ceee e2bc 3c1c 8f3c
00000160: dca5 aebd b135 2c3d d4be 8abb 3d5c a03c
00000170: 546f ad3d a6ad fd3c c65c 7ebb f6fc b2bc
00000180: a209 09be fa0c f43b 1fe0 813c e272 0abd
00000190: 0fed ccbc 5acd 05bc a091 a5bd 8510 8dbd
000001a0: 892b 633d 4594 ea3b 3753 51be 2f84 1cbd
000001b0: f6e0 c3bd e218 9cbd 7764 a23c 513d 3e3d
000001c0: 387b 633c c69d 063b 6386 4cbd b88f 9a3d
000001d0: 990f 9c3c 62c6 513c f901 383d 9ad0 5dbd
000001e0: a00f 8cbc 769c d63c fb8c 263e ddbe afbc
000001f0: 1976 bebb d75f 78bb b7cc c23c fdb0 5c3d
00000200: 5468 7b3d 465b 9cbc 0270 a6bd 1a38 c6bd
00000210: ca0d cd3c da18 0abd 9995 c4bd 5fe8 0c3d
00000220: f3f3 a03c 75a8 8bbd 76fe afbd 35f6 413d
00000230: 68fb 84bd 485d 8abd a216 513d 0660 05bd
00000240: 463b dbbd e7f4 a6bd 46b9 0fbd 0637 35bd
00000250: 01d3 5abd 6eed 8fbd 96dd 2a3d 3826 873d
00000260: 85a1 80bd d87d e0bd de08 aebd 4fb5 41bb
00000270: 01da 29bc beba a3bc 69fa 8fbc 720f 23bd
00000280: f216 a43c 5d6f cfbc 344b 11bd b2d6 89bc
00000290: 2ebb 1c3d 3a59 df3b 4ced 683d 0965 6c3d
000002a0: 76fe 84ba 45e3 6d3b 83c6 fd3c 61e9 d5bd
000002b0: 4344 c0bd 2336 b4bd e6ba 3c3d 0e61 173d
000002c0: 165c 90bd 815b 3a3d 68d4 b93d ad7f ff3d
000002d0: affd 353c 18f0 3e3c d6d8 acbd 6c16 bf3e
000002e0: fd02 383e 5a56 d33d 7857 973d d6fc ebbc
000002f0: 0f08 373d bfc6 82be a997 5ebd 1c22 513d
00000300: c491 e9bd b77b d8bb 735e 1cbc fa85 aa3d
00000310: 8934 723d a3ea 783d c30e 1d3d e82c e3bc
00000320: 7aa0 bbbb 9b50 ca3b 3b64 2fbd 5e28 ddbc
00000330: 0e4c 143e 5f49 e33d 635c 7f3d 34f0 0c3d
00000340: 7024 59ba 9bfe c4bc cac5 923d add4 e9bc
00000350: 5a29 4a3d 8f31 fbbd cc4b fd3b 0473 d23d
00000360: 9da1 0ebe 6f49 0abd f210 2cbd 94e9 123b
00000370: db85 83bc 7ad1 823c 1f83 ce3c b803 7bbc
00000380: 8d67 c63c a91b 5fbd 58a4 12bd 25bf 553d
00000390: 324d ce3d 9690 423d 8f3e 263d 092e 2c3d
000003a0: e4a6 fdbc a156 16ba 4002 a1bd 68dc bd3c
000003b0: 3d43 1c3d b82d 94bd 196d ab3b 9478 d0bd
000003c0: 3be0 94bb d287 18bb cc04 de3c c3a6 48bc
000003d0: a7b3 25bd e731 e73c 68fd 223d c35c 523d
000003e0: 88c4 8cbd 08e4 e43d 2ae9 733d 7ec7 783c
000003f0: 786b b63c d70a d7bc 21d9 a83c ab60 f43c

base_pointnet.conv_2.bias f4 [64]
0.032940276 0.043684777 -0.06264683 0.0063455035 0.008238455 0.1012652 0.02934131 -0.106102325
-0.089120276 0.032216523 -0.122147895 0.020889072 -0.050533533 0.0047535766 0.013596622 0.07995239
0.013467297 0.04977612 -0.024517912 0.050784096 0.038937464 0.07240037 -0.050271835 -0.06693635
-0.0107923 0.07031579 0.079353794 0.023414958 0.0036951243 -0.0061788005 0.049663857 -0.050847642
0.022839407 0.009466826 -0.017566562 0.020284645 -0.010626345 -0.049760003 0.06284342 0.061855838
-0.051888265 0.004165109 -0.08326332 0.10213353 -0.045930106 -0.070841186 0.04613687 0.023414059
-0.004562993 -0.016063489 0.09065044 0.08753415 -0.066212185 0.023178492 0.06006493 0.010111944
0.0023180011 -0.07805193 0.070442826 0.015105082 0.12539127 0.01618114 0.047253054 0.002021973
00000000: 62ec 063d cfee 323d fb4c 80bd f1ed cf3b
00000010: 96fa 063c 2164 cf3d 305d f03c 2d4c d9bd
00000020: b184 b6bd 79f5 033d ad28 fabd 8f1f ab3c
00000030: 40fc 4ebd e4c3 9b3b 5ec4 5e3c 14be a33d
00000040: f0a5 5c3c 0be2 4b3d cad9 c8bc fc02 503d
00000050: e47c 1f3d a546 943d d7e9 4dbd ed15 89bd
00000060: 30d2 30bc ba01 903d 3e84 a23d bad0 bf3c
00000070: e629 723b 8977 cabb 546c 4b3d 9e45 50bd
00000080: b519 bb3c bf1a 1b3c c0e7 8fbc fc2b a63c
00000090: 1f1a 2ebc 25d1 4bbd 0db4 803d 8c5c 7d3d
000000a0: ca88 54bd 777b 883b f685 aabd 622b d13d
000000b0: 3521 3cbd 2f15 91bd 04fa 3c3d d7ce bf3c
000000c0: 2985 95bb 9497 83bc f0a6 b93d 1b45 b33d
000000d0: 419a 87bd d2e0 bd3c a506 763d 91ac 253c
000000e0: 9be9 173b b1d9 9fbd 5444 903d 4e7b 773c
000000f0: 9266 003e 4f8e 843c 6b8c 413d 1483 043b

base_pointnet.bn_1.weight f4 [64]
0.9581697 1.1444926 0.90353435 0.98899436 1.1194904 1.2014215 0.9090665 1.1013293
1.0849184 0.75384957 0.8503059 1.053928 0.9470538 0.9248426 0.9251506 0.99402124
1.0733303 0.86787504 0.87760454 0.92226416 0.84972376 0.9746644 1.2345531 0.9169404
1.066369 0.89158046 0.89869404 0.89383954 0.9431692 0.99671364 0.9884197 1.0684646
1.0349274 0.841042 1.0667698 1.1099042 0.8400652 1.0059686 1.07936 1.3425833
0.9903564 1.038641 1.1830841 1.1810321 1.0730923 0.8637298 0.9169178 0.8372833
0.8634398 1.0506295 1.036796 1.1343954 0.9901691 1.0222107 0.87998086 0.93703747
0.775437 1.0456821 0.9165359 1.2278534 0.8998199 1.0778482 0.85317296 1.2062945
00000000: 9c4a 753f bc7e 923f 074e 673f bc2e 7d3f
00000010: 764b 8f3f 2ec8 993f 95b8 683f 5cf8 8c3f
00000020: 9bde 8a3f 49fc 403f a6ad 593f 1de7 863f
00000030: 1e72 723f 7cc2 6c3f abd6 6c3f 2d78 7e3f
00000040: e362 893f 0f2d 5e3f b1aa 603f 8119 6c3f
00000050: 7f87 593f 9b83 793f d605 9e3f 9bbc 6a3f
00000060: c87e 883f 9e3e 643f d010 663f abd2 643f
00000070: 8973 713f a028 7f3f 1309 7d3f 73c3 883f
00000080: 8078 843f 874e 573f ea8b 883f 5711 8e3f
00000090: 830e 573f 94c3 803f 7828 8a3f c5d9 ab3f
000000a0: ff87 7d3f 30f2 843f 4d6f 973f 0f2c 973f
000000b0: 175b 893f 651d 5d3f 20bb 6a3f 3358 563f
000000c0: 640a 5d3f 077b 863f bbb5 843f de33 913f
000000d0: b97b 7d3f cdd7 823f 6d46 613f b0e1 6f3f
000000e0: 0a83 463f e9d8 853f 19a2 6a3f 4d2a 9d3f
000000f0: 995a 663f eef6 893f 8b69 5a3f dc67 9a3f

base_pointnet.bn_1.bias f4 [64]
-0.09255221 -0.19292937 -0.056719087 0.012804878 -0.15372466 0.12797454 -0.28537393 -0.18480657
0.3428657 0.00030975838 -0.0077676224 -0.028968079 0.44215006 -0.16371855 -0.021131929 0.004684959
-0.20185022 -0.15829824 0.020179996 0.12982376 -0.085936055 -0.18551914 0.093378 -0.05698086
-0.01664749 -0.050377373 -0.013616115 -0.027558412 -0.3488409 0.014089909 -0.116477706 0.13538776
-0.1958884 -0.048564352 -0.13245606 0.09838129 -0.055285383 0.010235799 -0.048367906 -0.11884764
0.07458397 -0.16222186 -0.3389001 -0.5785866 -0.06180835 0.0076190946 0.12530261 0.12457069
-0.03137876 -0.02630275 -0.06439968 -0.067052305 0.10152103 0.17396045 -0.009382903 -0.16470343
0.06214851 0.26993623 -0.1763107 -0.0065083466 -0.10053635 -0.2926599 -0.016196925 -0.010150782
00000000: 038c bdbd 478f 45be 4652 68bd 8dcb 513c
00000010: ff69 1dbe c20b 033e 881c 92be ef3d 3dbe
00000020: 188c af3e 1167 a239 8a87 febb 774e edbc
00000030: 7e61 e23e d6a5 27be de1c adbc 4984 993b
00000040: d3b1 4ebe ef18 22be 8550 a53c 85f0 043e
00000050: 3eff afbd bbf8 3dbe f73c bf3d c364 69bd
00000060: 5160 88bc 8158 4ebd 2016 5fbc 2ec2 e1bc
00000070: 469b b2be 5dd9 663c dd8b eebd 17a3 0a3e
00000080: f896 48be 6aeb 46bd 90a2 07be 217c c93d
00000090: ed72 62bd 0db4 273c 6d1d 46bd 6466 f3bd
000000a0: 7bbf 983d 7d1d 26be 5084 adbe 401e 14bf
000000b0: c12a 7dbd 99a9 f93b 544f 003e eb1e ff3d
000000c0: 0487 00bd dd78 d7bc fbe3 83bd b852 89bd
000000d0: 42ea cf3d b022 323e bfba 19bc 04a8 28be
000000e0: 708f 7e3d 1535 8a3e cb8a 34be f843 d5bb
000000f0: 00e6 cdbd 85d7 95be 6aaf 84bc 774f 26bc

base_pointnet.bn_1.running_mean f4 [64]
2.5764136 -1.838737 29.526197 1.107728 -1.5547132 -2.3566992 -9.192145 -3.0900786
1.5974269 39.041954 29.33031 -1.149251 2.1709516 -14.160851 -48.037724 -3.565775
-1.0001146 6.3715725 26.10735 2.9506655 -9.149361 -6.7410283 -1.8886304 -21.826744
-1.8651168 -41.22352 9.240665 10.535246 -7.851246 1.7667265 6.348735 0.745073
0.06131529 -23.105587 -3.1004817 0.36986673 8.162161 -2.900717 -3.6611564 -0.5136732
-4.6705256 -0.751138 -3.1900957 -3.6093478 -0.12212577 -7.345371 -5.3701224 -23.173807
-11.133028 -5.0425143 0.51724154 -1.8698297 2.209185 1.481009 17.701511 -8.24602
22.58068 -1.8430694 21.339317 -1.2203213 -6.4026623 -3.0162168 17.04507 -2.624587
00000000: f6e3 2440 bc5b ebbf a735 ec41 08ca 8d3f
00000010: d800 c7bf 29d4 16c0 0713 13c1 d9c3 45c0
00000020: 7c78 cc3f f62a 1c42 7aa4 ea41 a81a 93bf
00000030: dff0 0a40 d892 62c1 a126 40c2 a835 64c0
00000040: c103 80bf ece3 cb40 dadb d041 b4d7 3c40
00000050: c863 12c1 81b6 d7c0 a4be f1bf 2c9d aec1
00000060: 26bc eebf e2e4 24c2 c4d9 1341 5e90 2841
00000070: 683d fbc0 1824 e23f d628 cb40 1bbd 3e3f
00000080: be25 7b3d 3ed8 b8c1 4b6e 46c0 2c5f bd3e
00000090: 3698 0241 59a5 39c0 6350 6ac0 1680 03bf
000000a0: f274 95c0 944a 40bf 872a 4cc0 8eff 66c0
000000b0: 131d fabd 470d ebc0 0bd8 abc0 f563 b9c1
000000c0: e220 32c1 475c a1c0 f169 043f 9456 efbf
000000d0: 4963 0d40 b491 bd3f b29c 8d41 b3ef 03c1
000000e0: 3ca5 b441 b3e9 ebbf ecb6 aa41 7d33 9cbf
000000f0: 9ce2 ccc0 b209 41c0 4e5c 8841 3cf9 27c0

base_pointnet.bn_1.running_var f4 [64]
66.30356 29.741257 224.57698 17.565361 14.263256 7.1953735 62.67437 61.265583
38.999855 354.69778 196.4255 11.272008 1.9615471 95.7768 535.728 67.97256
7.308148 31.706987 172.76656 28.083305 56.03545 17.110273 83.23167 139.5831
22.092606 447.24597 106.36417 90.50892 79.85672 55.586094 70.833015 11.12132
43.025883 151.17914 19.130573 6.1375403 29.743345 10.795887 30.107788 19.12463
30.331795 54.872124 60.044846 60.419456 35.23533 32.32172 95.992256 127.8265
85.319046 36.018703 33.973274 41.747505 30.59143 15.378521 98.56831 47.178112
187.5542 62.70429 109.232086 45.00821 13.076573 18.521446 83.9222 28.427816
00000000: 6c9b 8442 18ee ed41 b593 6043 dc85 8c41
00000010: 4c36 6441 8040 e640 8eb2 7a42 f50f 7542
00000020: daff 1b42 5159 b143 ee6c 4443 255a 3441
00000030: fa13 fb3f b98d bf42 98ee 0544 f3f1 8742
00000040: 59dc e940 e9a7 fd41 3dc4 2c43 9caa e041
00000050: 4d24 6042 d7e1 8841 9d76 a642 4695 0b43
00000060: a8bd b041 7c9f df43 74ba d442 9104 b542
00000070: a4b6 9f42 2958 5e42 81aa 8d42 edf0 3141
00000080: 811a 2c42 dc2d 1743 6a0b 9941 bb66 c440
00000090: 5ff2 ed41 f4bb 2c41 c0dc f041 3eff 9841
000000a0: 84a7 f241 0e7d 5b42 ec2d 7042 86ad 7142
000000b0: faf0 0c42 7149 0142 09fc bf42 2ba7 ff42
000000c0: 5aa3 aa42 2713 1042 a2e4 0742 72fd 2642
000000d0: 40bb f441 6c0e 7641 fa22 c542 63b6 3c42
000000e0: e08d 3b43 31d1 7a42 d476 da42 6808 3442
000000f0: a539 5141 ec2b 9441 2bd8 a742 2b6c e341

base_pointnet.bn_2.weight f4 [64]
1.755391 1.9115022 1.5259082 1.7348466 1.926703 1.6752756 1.7736669 1.7042382
1.7979599 1.668631 1.8777139 1.51881 1.6117401 1.6659552 1.5062038 1.9905957
1.6883904 2.0505774 1.7076395 1.4097575 1.3849736 1.4711148 1.4506813 1.4887718
1.4568206 1.5657456 1.4978988 2.5574934 1.7566144 1.6274298 1.5336192 1.7861944
1.6754118 1.8182147 1.5581867 1.4418982 2.3254743 1.686446 1.580954 1.6696475
1.7473106 1.69918 1.3324168 1.5796797 1.8259026 1.3654191 1.6178294 1.4311314
1.5922374 1.4589467 1.7783041 1.907724 1.7893225 1.380952 1.7693231 1.4641585
1.7595114 1.6340901 1.5608985 1.5243878 1.5351129 1.5504875 1.6142654 1.3292986
00000000: a7b0 e03f 1bac f43f f650 c33f 740f de3f
00000010: 349e f63f 6e6f d63f 8407 e33f 7a24 da3f
00000020: 8d23 e63f b395 d53f ee58 f03f 5e68 c23f
00000030: 804d ce3f 053e d53f 49cb c03f d7cb fe3f
00000040: 2d1d d83f a93c 0340 ee93 da3f ef72 b43f
00000050: d146 b13f 7d4d bc3f edaf b93f 1390 be3f
00000060: 1979 ba3f 5a6a c83f 26bb bf3f f9ad 2340
00000070: bed8 e03f 9f4f d03f a24d c43f 05a2 e43f
00000080: e573 d63f 42bb e83f a972 c73f 1f90 b83f
00000090: 92d4 1440 76dd d73f b35c ca3f 02b7 d53f
000000a0: e0a7 df3f bb7e d93f a28c aa3f f232 ca3f
000000b0: 2db7 e93f 0ec6 ae3f 0915 cf3f 502f b73f
000000c0: 6fce cb3f c4be ba3f 789f e33f 4d30 f43f
000000d0: 8508 e53f 09c3 b03f 2e79 e23f 8c69 bb3f
000000e0: ab37 e13f dd29 d13f 86cb c73f 241f c33f
000000f0: 947e c43f 6076 c63f 40a0 ce3f 7526 aa3f

base_pointnet.bn_2.bias f4 [64]
0.18864894 -0.27794537 0.067730874 0.0012110125 -0.43886217 -0.04116445 -0.26486242 -0.033283684
0.4718365 0.14318539 0.37135673 0.2053381 0.11439153 0.20360635 0.13889442 0.018092722
0.089110605 -0.016009225 0.07491399 0.27068043 0.0012344364 0.16552608 0.17642172 0.31678796
-0.014869865 0.1366501 0.017997792 -0.420118 0.038098305 0.11734504 0.25021416 -0.3164596
-0.09070087 -0.14285327 0.08827099 0.23661436 -0.4373781 0.08484512 0.003611609 -0.25205
-0.18487114 0.049272213 0.15826462 0.15321055 -0.38578987 0.16715954 0.056769956 0.29541716
0.045029107 0.29535985 0.2501627 0.09558019 -0.14535671 0.05768817 0.04469589 0.028537957
-0.011034719 0.21764208 0.008991608 0.22961333 0.27453387 0.16374564 0.16848516 0.2633307
00000000: 302d 413e db4e 8ebe 7cb6 8a3d d6ba 9e3a
00000010: 8bb2 e0be 0e9c 28bd 0c9c 87be 7954 08bd
00000020: 8e94 f13e 319f 123e 7822 be3e 2744 523e
00000030: 1b46 ea3d 2f7e 503e 573a 0e3e 3037 943c
00000040: 9f7f b63d c725 83bc 826c 993d a096 8a3e
00000050: d0cc a13a ab7f 293e e5a7 343e 0832 a23e
00000060: bca0 73bc 01ee 0b3e 1b70 933c b519 d7be
00000070: f80c 1c3d 9952 f03d 121c 803e fe06 a2be
00000080: 61c1 b9bd 2148 12be 6cc7 b43d 094b 723e
00000090: 06f0 dfbe 47c3 ad3d bfb0 6c3b b30c 81be
000000a0: dc4e 3dbe a9d1 493d 1f10 223e 3ae3 1c3e
000000b0: 4086 c5be df2b 2b3e 9d87 683d eb40 973e
000000c0: 7170 383d 6839 973e 5315 803e 8cbf c33d
000000d0: 64d8 14be 6e4a 6c3d 0a13 373d 6fc8 e93c
000000e0: f7ca 34bc 91dd 5e3e 8a51 133c c21f 6b3e
000000f0: b48f 8c3e f0ac 273e 6087 2c3e 48d3 863e

base_pointnet.bn_2.running_mean f4 [64]
-0.03953339 0.08746401 0.050746415 0.19420445 0.040554162 0.17821285 0.32729813 -0.40417755
-0.59427536 -0.07559869 0.24431929 -0.32296115 -0.08355819 -0.12511818 -0.16484715 0.23745945
0.177655 0.27447993 -0.115028106 -0.20975198 -0.15107805 -0.08628079 -0.2953165 -0.3009316
0.16221847 -0.04601469 0.119062 0.18199258 -0.11473377 -0.13189486 -0.49080646 0.12834114
0.23736727 0.21129319 0.06851963 -0.09737622 0.05468908 0.0016026852 0.112125345 0.06394525
0.11751701 -0.005266494 -0.07871404 0.01826505 0.18381515 -0.29596487 -0.049701113 -0.45009485
-0.110999614 -0.95290154 0.05493726 0.17475307 -0.19106653 0.004327757 0.09089735 -0.05188819
0.034735113 -0.24433064 0.021941556 -0.21909001 -0.08652968 -0.043614615 0.00048481303 -0.051151507
00000000: c4ed 21bd 5520 b33d 79db 4f3d 88dd 463e
00000010: 1f1c 263d 6e7d 363e 9f93 a73e 5cf0 cebe
00000020: 6e22 18bf 7cd3 9abd d62e 7a3e 2a5b a5be
00000030: 8e20 abbd fb1e 00be b1cd 28be 9228 733e
00000040: 31eb 353e a288 8c3e db93 ebbd 39c9 56be
00000050: 34b4 1abe fcb3 b0bd b933 97be b513 9abe
00000060: 991c 263e e679 3cbd c7d6 f33d 435c 3a3e
00000070: 8af9 eabd 720f 07be fc4a fbbe dc6b 033e
00000080: 6810 733e 3e5d 583e 0554 8c3d 2f6d c7bd
00000090: a801 603d 3111 d23a f9a1 e53d baf5 823d
000000a0: c2ac f03d 8e92 acbb d434 a1bd 96a0 953c
000000b0: 0a3a 3c3e b588 97be 6593 4bbd d572 e6be
000000c0: c453 e3bd 5bf1 73bf e405 613d 78f2 323e
000000d0: f2a6 43be dbcf 8d3b 6428 ba3d b688 54bd
000000e0: 6846 0e3d d031 7abe c7be b33c 2259 60be
000000f0: 7936 b1bd 3da5 32bd 812e fe39 3e84 51bd

base_pointnet.bn_2.running_var f4 [64]
0.0689472 0.017260995 0.032513373 0.028500523 0.010567161 0.025825243 0.032252118 0.05248767
0.03429057 0.031249076 0.07581161 0.04732739 0.030937808 0.032902252 0.031833496 0.018982913
0.024069766 0.009521143 0.025077326 0.05505917 0.044970512 0.046949144 0.059549004 0.0611045
0.03048445 0.019125659 0.030169781 0.011754576 0.017824696 0.017441506 0.08577118 0.023056341
0.012012698 0.02586924 0.024269616 0.03743557 0.0074247476 0.05031331 0.030134223 0.025769034
0.011443225 0.016251205 0.020549143 0.041986816 0.010707039 0.021029612 0.023314023 0.08189628
0.084403485 0.10587183 0.01103646 0.016340425 0.01814433 0.034285292 0.041259747 0.030486256
0.03582093 0.052421056 0.04054848 0.10723907 0.025012722 0.030701712 0.02377443 0.07714235
00000000: 3134 8d3d ee66 8d3c be2c 053d ee79 e93c
00000010: e321 2d3c 768f d33c cc1a 043d 50fd 563d
00000020: 4574 0c3d 10fe ff3c 1e43 9b3d 5eda 413d
00000030: 4971 fd3c 83c4 063d d763 023d 0e82 9b3c
00000040: f52d c53c 91fe 1b3c f76e cd3c b985 613d
00000050: 0033 383d bf4d 403d a8e9 733d b648 7a3d
00000060: 86ba f93c 6aad 9c3c 9e26 f73c 4496 403c
00000070: 1905 923c 7de1 8e3c cda8 af3d a7e0 bc3c
00000080: e8d0 443c baeb d33c 13d1 c63c 0a56 193d
00000090: 4c4b f33b 5415 4e3d 0cdc f63c 9519 d33c
000000a0: 5d7c 3b3c 3f21 853c ad56 a83c 5efa 2b3d
000000b0: 946c 2f3c 4b46 ac3c 0dfd be3c 3db9 a73d
000000c0: bcdb ac3d 54d3 d83d 45d2 343c 5bdc 853c
000000d0: 6ba3 943c bc6e 0c3d fbff 283d 50be f93c
000000e0: f8b8 123d 76b7 563d 2a16 263d 28a0 db3d
000000f0: 7be7 cc3c 2882 fb3c 98c2 c23c cffc 9d3d

fc_1.weight f4 [64, 66]
0.008760475 1.4122511 -0.079206064 -0.58842325 0.16887958 -0.32159567 -0.13352147 0.028514035
-0.12449298 -0.1081329 -0.08481004 -0.39824417 -0.27279028 -0.11465962 -0.144349 -0.26167157
-0.11950674 0.02137225 -0.114626065 0.053503823 0.0563234 -0.27940285 -0.18275051 -0.0974736
-0.23774213 -0.38020512 0.07938044 -0.32761005 0.015416428 0.1396611 -0.30542728 -0.122345544
-0.24680942 -0.28370705 0.062069625 0.089644775 -0.33448708 -0.26090157 0.5370881 0.06377572
-0.22156356 0.4335185 -0.27235726 -0.18476717 0.06308758 -0.4835368 0.27305755 0.04589563
0.073655345 -0.13727115 0.062143154 0.109296314 0.08448496 -0.12743606 -0.13091286 -0.15196584
-0.09205769 -0.30230924 -0.011963271 -0.14640923 -0.283648 -0.18103218 -0.15102692 -0.115958795
-0.23791732 -0.17135786 -0.044737343 -0.007341065 -0.013344613 0.025577756 0.040349044 -0.10811465
-0.056976356 0.11952311 -0.0064051505 -0.06624862 0.032093853 -0.08536818 -0.09796495 -0.06403673
0.09864604 -0.037994448 -0.0774808 -0.007903345 0.083990276 0.122513115 0.11520134 -0.053634726
0.024175864 0.099625744 -0.1160229 0.07049262 0.035878334 0.071563765 0.11501593 -0.08693434
-0.1089742 -0.08106624 -0.0033011748 -0.11008222 0.106989495 -0.07868615 0.0036679134 -0.03674788
-0.1228681 0.0152070215 -0.035518095 -0.091397084 0.03757961 -0.12148547 0.0022311576 0.104505435
-0.1022854 -0.049165264 -0.074514695 -0.0419286 -0.10826969 0.10814208 -0.047661055 0.068076454
-0.042928126 0.065652646 0.04200988 -0.119368844 -0.02386603 0.10126128 0.061769783 0.025790699
-0.101965584 -0.07115329 -0.013901022 -0.08062206 -0.05150907 0.015646614 0.06319661 -0.03321121
-0.020810066 -0.052229166 0.118647866 0.000737028 -0.06786414 0.067166865 0.069214635 -0.084438264
-0.034227606 0.055233818 0.116525866 -0.10320743 -0.013910414 0.093040146 -0.08591991 0.026782198
-0.049648527 0.07540429 -0.0838424 -0.037510544 -0.076975934 -0.107984744 0.10124964 0.009456462
-0.007971063 0.005298097 -0.048150245 0.008617746 0.10621406 -0.028669478 -0.025139306 -0.10461665
-0.08403447 -0.043959185 0.05682174 -0.08632528 -0.037859716 -0.10270551 0.04291746 -0.0106226215
0.060637034 0.031509284 -0.07821533 -0.011941519 0.101383045 -0.012460041 0.0036040535 -0.02395658
-0.12304166 -0.087778166 0.040432945 -0.0223773 -0.069431484 -0.055326346 -0.072447486 -0.023157543
-0.06624074 -0.120088115 -0.04909703 0.003675749 0.06260339 0.014272383 0.10953046 0.49328393
-0.03192525 -0.22312787 0.00917353 -0.033064216 0.14561096 0.12836197 0.16750479 0.33057356
-0.17089613 -0.116627045 0.013678996 0.045414906 -0.12783219 -0.11256684 0.14944178 -0.10040871
-0.23660128 -0.25357342 0.021627087 -0.22458959 -0.11040794 -0.11511045 0.022156488 -0.0026307018
0.019127214 -0.1508257 -0.08400055 0.07678813 -0.20562404 0.004157912 -0.23107873 0.1908245
0.3224318 0.19628331 -0.09394342 -0.10423057 -0.016840944 -0.09091047 -0.18350947 0.0125940535
0.007451162 -0.25253853 -0.2036129 -0.087639384 0.16544639 -0.05464133 -0.19389516 -0.25845465
0.13605198 0.18239515 -0.1733147 -0.26800558 -0.1614676 -0.1488138 -0.1001918 -0.089712076
00000000: 1888 0f3c a5c4 b43f ca36 a2bd e8a2 16bf
00000010: c5ee 2c3e 30a8 a4be dab9 08be 4496 e93c
00000020: 2df6 febd c874 ddbd e3b0 adbd a9e6 cbbe
00000030: 2bab 8bbe aad2 eabd 39d0 13be d1f9 85be
00000040: f3bf f4bd db14 af3c 12c1 eabd d326 5b3d
00000050: 5eb3 663d e40d 8fbe f322 3bbe 3da0 c7bd
00000060: ac72 73be 3faa c2be 3692 a23d 81bc a7be
00000070: 3095 7c3c 5203 0f3e f760 9cbe 4d90 fabd
00000080: 9cbb 7cbe 0d42 91be b83c 7e3d ae97 b73d
00000090: e441 abbe e494 85be 9b7e 093f d89c 823d
000000a0: 8fe1 62be 23f6 dd3e 6972 8bbe 9b33 3dbe
000000b0: 1034 813d 2392 f7be 33ce 8b3e 0efd 3b3d
000000c0: 9dd8 963d cf90 0cbe d289 7e3d bfd6 df3d
000000d0: 7306 ad3d 997e 02be 050e 06be ef9c 1bbe
000000e0: be88 bcbd 47c8 9abe 9801 44bc 4dec 15be
000000f0: 503a 91be 8060 39be cda6 1abe ce7b edbd
00000100: 99a0 73be 6f78 2fbe 813e 37bd 518d f0bb
00000110: 5da3 5abc 7188 d13c 0a45 253d 376b ddbd
00000120: 0a60 69bd 88c8 f43d 4ce2 d1bb 5bad 87bd
00000130: d874 033d 83d5 aebd d9a1 c8bd b025 83bd
00000140: ef06 ca3d 11a0 1bbd 41ae 9ebd 087d 01bc
00000150: 1803 ac3d 28e8 fa3d aeee eb3d 16b0 5bbd
00000160: 760c c63c 9508 cc3d 6a9d edbd 6f5e 903d
00000170: 29f5 123d 0690 923d 798d eb3d a20a b2bd
00000180: de2d dfbd 0f06 a6bd 8658 58bb c972 e1bd
00000190: 4f1d db3d 3426 a1bd 6061 703b f284 16bd
000001a0: 45a2 fbbd df26 793c 6c7b 11bd 652e bbbd
000001b0: 14ed 193d 60cd f8bd 9d38 123b f206 d63d
000001c0: 027b d1bd 8461 49bd 299b 98bd 53bd 2bbd
000001d0: 80bc ddbd 9879 dd3d 3d38 43bd ab6b 8b3d
000001e0: 67d5 2fbd e574 863d 8d12 2c3d a777 f4bd
000001f0: b182 c3bc 1362 cf3d 5002 7d3d 0447 d33c
00000200: 55d3 d0bd d1b8 91bd 1dc1 63bc 2e1d a5bd
00000210: 2dfb 52bd 542d 803c 396d 813d 7a08 08bd
00000220: df79 aabc 40ee 55bd a7fd f23d 1d35 413a
00000230: 5bfc 8abd c88e 893d 67c0 8d3d f8ed acbd
00000240: 3f32 0cbd db3c 623d 1da5 ee3d 6b5e d3bd
00000250: 81e8 63bc d58b be3d c7f6 afbd 5766 db3c
00000260: 415c 4bbd 906d 9a3d 90b5 abbd a8a4 19bd
00000270: 8fa5 9dbd 1b27 ddbd f95b cf3d 47ef 1a3c
00000280: 1099 02bc a99b ad3b 3139 45bd 7231 0d3c
00000290: c286 d93d 41dc eabc f2f0 cdbc 4141 d6bd
000002a0: 441a acbd 8c0e 34bd eabd 683d 4fcb b0bd
000002b0: ca12 1bbd 4457 d2bd 38ca 2f3d 810a 2ebc
000002c0: 8a5e 783d e10f 013d 5c2f a0bd 5ca6 43bc
000002d0: eaa1 cf3d 3325 4cbc fc31 6c3b 9740 c4bc
000002e0: 44fd fbbd 0ac5 b3bd 049d 253d 9950 b7bc
000002f0: 1832 8ebd e19d 62bd 595f 94bd e3b4 bdbc
00000300: 3aa9 87bd c2f0 f5bd f819 49bd d6e4 703b
00000310: 3536 803d b7d6 693c 8151 e03d b68f fc3e
00000320: 0dc4 02bd a27b 64be 934c 163c 586e 07bd
00000330: 0a1b 153e 5271 033e 6086 2b3e f040 a93e
00000340: 65ff 2ebe 29da eebd de1d 603c fb04 3a3d
00000350: 71e6 02be 7289 e6bd 4407 193e 15a3 cdbd
00000360: 9b47 72be 60d4 81be 4a2b b13c d0fa 65be
00000370: 8f1d e2bd 07bf ebbd 8681 b53c da67 2cbb
00000380: adb0 9c3c 0d72 1abe 7b08 acbd 1843 9d3d
00000390: 1c8f 52be 183f 883b e79f 6cbe 7f67 433e
000003a0: c815 a53e 7efe 483e 6865 c0bd d676 d5bd
000003b0: 05f6 89bc 452f babd e8e9 3bbe 4a57 4e3c
000003c0: e128 f43b bb4c 81be e67f 50be 477c b3bd
000003d0: c76a 293e 96cf 5fbd 748c 46be 2b54 84be
000003e0: 3651 0b3e cbc5 3a3e 6979 31be 0738 89be
000003f0: c357 25be a562 18be 5c31 cdbd f7ba b7bd

fc_1.bias f4 [64]
-0.24878156 0.03830704 0.07988292 0.007165134 0.03734101 -0.024736615 -0.111552775 0.091410965
-0.011116337 -0.105666414 -0.012070793 -0.038134784 0.2538507 0.031951517 -0.001076723 -0.044277456
0.087288715 -0.18741402 -0.12787683 0.07954092 0.12908135 0.062592015 -0.10579035 -0.042291693
0.035675894 -0.05458747 0.15414444 0.08796124 -0.1720764 -0.054159522 0.10237466 -0.069910444
0.15873381 0.35908046 -0.013621028 0.062029168 -0.13565685 0.042102177 0.10349302 -0.1684761
0.16829757 -0.20558572 0.1416273 0.02007057 0.06669377 0.11019279 0.023272555 0.012703957
-0.10330198 -0.12503815 0.12676977 0.14213748 0.04935434 -0.026509246 -0.05617884 -0.08203334
0.033412177 -0.0925281 -0.019326681 -0.11479117 -0.116476506 0.4504788 0.01858202 0.07660932
00000000: 98c0 7ebe d8e7 1c3d a899 a33d 80c9 ea3b
00000010: e3f2 183d 71a4 cabc c875 e4bd ac35 bb3d
00000020: 4c21 36bc a267 d8bd 93c4 45bc 3833 1cbd
00000030: b8f8 813e 98df 023d d420 8dba 475c 35bd
00000040: 6dc4 b23d 76e9 3fbe 25f2 02be 5ae6 a23d
00000050: e72d 043e 3e30 803d 9ca8 d8bd 0e3a 2dbd
00000060: e320 123d 1c97 5fbd 0ad8 1d3e 0625 b43d
00000070: cc34 30be 60d6 5dbd cea9 d13d 352d 8fbd
00000080: 1e8b 223e 65d9 b73e bb2a 5fbc 4c12 7e3d
00000090: a1e9 0abe 5573 2c3d 26f4 d33d 0085 2cbe
000000a0: 3356 2c3e 1085 52be bf06 113e 096b a43c
000000b0: be96 883d c2ac e13d 16a6 be3c 4224 503c
000000c0: fd8f d3bd 000a 00be efcf 013e 7d8c 113e
000000d0: c727 4a3d eb29 d9bc c91b 66bd 1901 a8bd
000000e0: 35db 083d 5f7f bdbd fd52 9ebc a217 ebbd
000000f0: 3c8b eebd 28a5 e63e 5239 983c 59e5 9c3d

fc_2.weight f4 [4, 64]
-3.4061508 -0.011517316 0.005967036 0.2801113 0.38478994 0.059959304 -0.021365743 0.08482148
-0.3503558 0.38952467 0.04276985 -0.14328943 -0.8203839 -0.0060897917 0.01085861 -0.123817354
0.31902516 0.32740945 0.08332656 0.065133914 0.88484645 0.013417038 0.18014933 -0.17164528
0.06450966 -0.07974552 0.112529 -0.16738126 1.0068759 1.561753 0.10795684 -0.1145252
-0.059924953 1.9402642 -0.11242503 -0.099712186 -0.011382984 -0.010823622 0.033530783 0.14525622
0.06803262 -0.83657634 -0.14207585 -0.12717694 2.1260388 -0.037296124 -0.38173687 0.5239648
-0.03088172 0.33480334 -0.23763663 1.7364846 0.79283124 -1.986288 -0.060371876 -0.0035828352
-0.39235628 -0.04684247 -3.6739476 0.33388934 -0.176817 2.2386186 0.05846703 1.2804992
2.3423378 0.003241241 0.077304676 0.1902204 0.2505488 0.28740406 -0.26773417 0.008033797
0.13411981 -3.5437825 0.059414327 -0.029794227 1.966911 -0.11268601 -0.082927465 0.11195566
0.021000272 -0.53785324 0.10357705 0.09992535 0.17980388 0.08083646 0.6442989 0.08347148
-0.05992289 0.029399924 0.18582495 -0.059566814 -2.122241 2.105422 0.008097261 0.019640222
0.80373424 -2.6379645 -0.22090758 -0.030571518 -0.20298004 0.0075765997 0.413461 -1.2327836
-0.25607055 0.44599342 -0.03043278 -0.22344089 -1.132916 0.04443019 0.065523624 1.1611124
0.07974673 -0.72644347 0.06828742 0.76862705 -1.8291682 0.53948694 -0.059177518 0.089762226
-0.08813436 0.10582654 1.3475963 -0.3476599 0.2720635 0.08698742 -0.077543825 -1.7973324
1.8977219 0.09285997 -0.10765155 -0.12998836 -0.1947011 -0.28890952 -0.32321903 0.07713333
0.12744482 2.8367355 -0.050670043 -0.21694185 -2.6038394 -0.010485366 0.06492017 -0.0072230548
-0.08243156 0.66399354 0.030443769 0.10171316 0.61252874 0.11178088 -0.54040843 -0.004235741
-0.014993921 0.030020116 0.00856859 -0.0025895187 0.21643499 -2.8951895 -0.06502254 0.12406789
-3.0443816 2.0650814 0.14115767 -0.009873602 -0.35961697 -0.0027229488 -0.24547592 -0.6117125
1.2751333 1.2365621 0.2665329 0.1429439 0.53510267 -0.05312148 0.11205244 -2.4234505
-0.0020707888 -0.20933987 -0.05246224 -5.3686876 0.32383713 0.51505643 0.007163301 -0.0929054
0.22936775 0.055095047 1.7290894 -0.11663487 -0.3963532 -5.0533566 0.121414736 1.595411
1.0351989 -0.016360387 -0.07589801 -0.29426032 -0.18747757 0.11090225 0.44428098 0.03275381
0.13335487 1.1330932 0.05845499 0.19631323 2.017343 0.11984117 0.08849053 0.014931336
0.020130234 -0.65445447 -0.10017247 -0.001975921 -1.4455795 0.011852581 -0.014282237 -0.011296623
0.02286014 0.015338151 -0.092033215 0.26159272 -0.08283653 0.18053544 0.0031034946 0.088339075
1.7659105 -1.6010112 0.20793998 -0.091975704 0.45497745 0.035191774 -0.05416033 1.1122108
-0.4220278 -0.57973635 -0.05499274 -0.054225467 -2.4581857 0.027839206 -0.31704667 1.4688835
0.06454133 0.28486556 0.23616569 -1.4821852 0.95714396 0.5412666 -0.054958656 -0.073997915
0.079272866 -0.066116214 0.4696396 0.054047696 0.43746302 -1.7246852 0.022463366 -0.6730106
00000000: 60fe 59c0 20b3 3cbc 2087 c33b c06a 8f3e
00000010: 3003 c53e e397 753d 3607 afbc e2b6 ad3d
00000020: d661 b3be c76f c73e 702f 2f3d 77ba 12be
00000030: ae04 52bf e08c c7bb 50e8 313c f493 fdbd
00000040: 4457 a33e 36a2 a73e 1ea7 aa3d ee64 853d
00000050: 4c85 623f 23d3 5b3c 1179 383e c8c3 2fbe
00000060: a41d 843d 9f51 a3bd 9b75 e63d fe65 2bbe
00000070: 4fe1 803f 86e7 c73f 7a18 dd3d 308c eabd
00000080: de73 75bd 945a f83f 183f e6bd e735 ccbd
00000090: b27f 3abc 9055 31bc 9357 093d 0cbe 143e
000000a0: b054 8b3d de29 56bf 557c 11be ac3a 02be
000000b0: 0511 0840 d2c3 18bd 0473 c3be 8f22 063f
000000c0: a9fb fcbc 586b ab3e 0457 73be 2145 de3f
000000d0: fdf6 4a3f af3e febf 8048 77bd 00ce 6abb
000000e0: ece2 c8be e4dd 3fbd f521 6bc0 8bf3 aa3e
000000f0: 840f 35be 8745 0f40 207b 6f3d 66e7 a33f
00000100: dde8 1540 006b 543b ea51 9e3d 23c9 423e
00000110: ef47 803e a026 933e 7414 89be 30a0 033c
00000120: b456 093e 55cd 62c0 705c 733d 0613 f4bc
00000130: bdc3 fb3f ecc7 e6bd e0d5 a9bd 0249 e53d
00000140: c308 ac3c c0b0 09bf 3420 d43d a9a5 cc3d
00000150: 821e 383e 968d a53d c6f0 243f 18f3 aa3d
00000160: b471 75bd 1cd8 f03c e548 3e3e 55fc 73bd
00000170: ccd2 07c0 3cbf 0640 60aa 043c 88e4 a03c
00000180: 87c1 4d3f 69d4 28c0 9935 62be 1f71 fabc
00000190: 00da 4fbe 2045 f83b 29b1 d33e dacb 9dbf
000001a0: ae1b 83be 4059 e43e 2a4e f9bc b0cd 64be
000001b0: 6403 91bf 6efc 353d 4031 863d 559f 943f
000001c0: 4152 a33d 33f8 39bf 46da 8b3d bec4 443f
000001d0: 2f22 eabf d11b 0a3f 2064 72bd 42d5 b73d
000001e0: ca7f b4bd 96bb d83d 097e ac3f 7a00 b2be
000001f0: e84b 8b3e 7626 b23d 4ccf 9ebd fd0e e6bf
00000200: 8de8 f23f 5e2d be3d 6a78 dcbd ab1b 05be
00000210: ba5f 47be f3eb 93be f77c a5be 14f8 9d3d
00000220: e580 023e 138d 3540 648b 4fbd 0126 5ebe
00000230: 4ea5 26c0 d0ca 2bbc def4 843d 60af ecbb
00000240: e1d1 a8bd 7bfb 293f 3665 f93c fd4e d03d
00000250: afce 1c3f 60ed e43d 3558 0abf f9cb 8abb
00000260: 10a9 75bc bfec f53c 4563 0c3c eab4 29bb
00000270: 22a1 5d3e c94a 39c0 8a2a 85bd 4e17 fe3d
00000280: 26d7 42c0 4b2a 0440 a38b 103e e3c4 21bc
00000290: b71f b8be 8073 32bb 0a5e 7bbe 3199 1cbf
000002a0: 9137 a33f ab47 9e3f 0077 883e e35f 123e
000002b0: 7dfc 083f e995 59bd c07b e53d d019 1bc0
000002c0: 12b6 07bb 315d 56be a5e2 56bd 4acc abc0
000002d0: fbcd a53e bdda 033f 20ba ea3b 3045 bebd
000002e0: 61df 6a3e 58ab 613d cd52 dd3f 43de eebd
000002f0: ceee cabe 19b5 a1c0 4aa8 f83d 6d36 cc3f
00000300: 6681 843f 3806 86bc 6a70 9bbd 4aa9 96be
00000310: 1ffa 3fbe b820 e33d cc78 e33e dc28 063d
00000320: 2e8e 083e 3309 913f 806e 6f3d 5606 493e
00000330: 261c 0140 4a6f f53d 863a b53d 90a2 743c
00000340: 29e8 a43c 548a 27bf 3927 cdbd 747e 01bb
00000350: c008 b9bf 5431 423c 0b00 6abc 7915 39bc
00000360: 3045 bb3c de4c 7b3c e97b bcbd 7bef 853e
00000370: 33a6 a9bd 48de 383e 0064 4b3b 1eeb b43d
00000380: 5b09 e23f efed ccbf 38ee 543e c25d bcbd
00000390: cef2 e83e 4025 103d 39d7 5dbd ec5c 8e3f
000003a0: 0714 d8be 9a69 14bf 1140 61bd 861b 5ebd
000003b0: ea52 1dc0 0c0f e43c f153 a2be 6004 bc3f
000003c0: 3f2e 843d e6d9 913e 6bd5 713e 3fb8 bdbf
000003d0: 6307 753f 7390 0a3f 541c 61bd 388c 97bd
000003e0: d059 a23d f067 87bd 9a74 f03e 1e61 5d3d
000003f0: 27fb df3e 7cc2 dcbf 1805 b83c 6c4a 2cbf

fc_2.bias f4 [4]
-0.051329136 0.07251324 0.07738942 -0.049159627
00000000: 803e 52bd d281 943d 587e 9e3d 9b5b 49bd
