Additional stuff/segmentation_pointnet_fmeanp05.pth (torch, 78978 bytes, 18 tensors)

base_pointnet.conv_1_a.weight f4 [64, 1, 3]
-0.16938506 0.6023099 -0.43284786 0.109292276 -0.17650312 -0.29022786 0.3798923 0.2159384
-0.26492968 0.051830124 0.25908557 -0.012200088 -0.0041761133 -0.049464352 0.07585479 0.3337407
0.34014672 0.0049844743 -0.3901003 0.56180006 -0.29621017 -0.3581021 -0.18752556 -0.1726796
0.014973995 0.032778203 -0.0514751 -0.13756184 0.24036495 0.4651605 -0.48762667 0.12926933
-0.041409526 -0.046866782 -0.061610363 0.48203576 0.0814818 0.20205875 -0.29992545 0.12414904
-0.49353388 -0.33844563 -0.023405718 0.00072950014 -0.10572593 -0.21149975 -0.03881063 -0.55147356
0.17470606 -0.53143954 0.4659155 0.27688786 -0.40679 -0.09675912 0.054332808 0.014272894
-0.061773784 0.19862951 0.059382975 0.49948794 -0.41436872 -0.28456786 0.43190178 0.13189314
-0.34392726 0.22081734 -0.36514726 0.27047056 -0.030971877 -0.48395193 0.25435147 -0.37524092
-0.22450891 -0.17756869 0.47349855 0.14190595 -0.44551995 0.5307756 -0.06985856 0.20952506
-0.0111166295 -0.1599341 0.039789647 0.03765811 0.44636917 0.45156872 0.22600408 0.32522738
0.19418806 -0.56249624 0.15363379 -0.49509665 -0.088001646 0.19718732 -0.33047014 0.27447292
-0.15972646 0.25323898 0.25886932 0.26467916 0.46655092 -0.50606203 0.35764596 -1.3811074e-05
-0.07093297 0.45782617 -0.44890267 -0.19854563 -0.19308096 0.29868868 0.243963 -0.037856065
0.52187276 -0.39868215 -0.18977872 -0.25340852 0.441188 0.42558748 -0.31392488 -0.15121444
0.2399785 0.33536857 0.28214976 0.060639985 0.12625414 -0.21584505 -0.358101 -0.25464222
0.51891375 0.13160652 -0.23982301 -0.11865192 -0.33740476 -0.19569267 0.45334476 0.10477287
-0.4901746 0.482284 0.43895233 -0.4507229 0.24904115 0.5012291 0.14583756 -0.3961713
-0.41897872 0.24411903 0.15360615 -0.024099663 -0.17572151 0.17442222 0.51884586 -0.58112556
0.42024872 0.52382946 0.2094611 0.111464866 0.09895092 -0.15984729 -0.08485845 0.004586752
0.24256189 -0.32369682 -0.33691725 -0.005286027 -0.30260196 0.12632555 -0.4729003 0.063569434
0.34108183 0.2831654 -0.123706475 -0.26520842 0.4367218 0.24579373 0.15566194 -0.23066981
0.19922274 0.44162613 -0.033649165 0.5143398 0.5582657 -0.52200425 -0.42922407 0.45936617
0.1387525 0.094634406 -0.4561112 0.29201618 0.45515615 -0.010318572 0.003970449 -0.007564895
00000000: 4773 2dbe fb30 1a3f 3c9e ddbe a1d4 df3d
00000010: 3cbd 34be bf98 94be 3e81 c23e f51e 5d3e
00000020: dda4 87be d34b 543d dda6 843e e1e2 47bc
00000030: c7d7 88bb 229b 4abd c259 9b3d 10e0 aa3e
00000040: b627 ae3e cd54 a33b 3abb c7be 21d2 0f3f
00000050: dca8 97be 2959 b7be b306 40be ecd2 30be
00000060: 7d55 753c 7042 063d 8ed7 52bd 03dd 0cbe
00000070: 3b22 763e 8429 ee3e 34aa f9be 2e5f 043e
00000080: 099d 29bd 62f7 3fbd 265b 7cbd 64cd f63e
00000090: eedf a63d 7de8 4e3e d48f 99be da41 fe3d
000000a0: 79b0 fcbe bf48 adbe 59bd bfbc ed3b 3f3a
000000b0: d686 d8bd 6493 58be e5f7 1ebd 5f2d 0dbf
000000c0: 25e6 323e 6c0c 08bf 7a8c ee3e 3fc4 8d3e
000000d0: c746 d0be a529 c6bd 148c 5e3d dbd8 693c
000000e0: 8206 7dbd 8965 4b3e 903b 733d e2bc ff3e
000000f0: 2328 d4be e1b2 91be 3b22 dd3e ff0e 073e
00000100: 3c17 b0be f11d 623e 95f4 babe 1e7b 8a3e
00000110: bcb8 fdbc 8cc8 f7be 5b3a 823e 941f c0be
00000120: aae5 65be 91d4 35be 676e f23e cb4f 113e
00000130: 311b e4be e9e0 073f 0112 8fbd bd8d 563e
00000140: 8622 36bc c4c5 23be 78fa 223d 643f 1a3d
00000150: 808a e43e 0434 e73e 9d6d 673e 3484 a63e
00000160: 3cd9 463e c1ff 0fbf 2d52 1d3e 4f7d fdbe
00000170: 353a b4bd 79eb 493e 6233 a9be b787 8c3e
00000180: 558f 23be 8aa8 813e 858a 843e 0784 873e
00000190: c3df ee3e 488d 01bf 5f1d b73e 1cb6 67b7
000001a0: 4e45 91bd 3168 ea3e 92d6 e5be 8c4f 4bbe
000001b0: 04b7 45be b9ed 983e 70d1 793e f60e 1bbd
000001c0: 7499 053f 1120 ccbe 5a55 42be c3be 81be
000001d0: 65e3 e13e 9ae6 d93e c3ba a0be f5d7 1abe
000001e0: edbc 753e 6eb5 ab3e ef75 903e a261 783d
000001f0: c448 013e 7c06 5dbe 0459 b7be 7760 82be
00000200: 88d7 043f dcc3 063e 2a94 75be c7ff f2bd
00000210: 51c0 acbe a963 48be ce1c e83e 2993 d63d
00000220: 2af8 fabe eeed f63e 5cbe e03e 27c5 e6be
00000230: a504 7f3e 8d50 003f 7156 153e f7d6 cabe
00000240: 6184 d6be 57fa 793e ee4a 1d3e a86c c5bc
00000250: 57f0 33be bd9b 323e 15d3 043f a5c4 14bf
00000260: d72a d73e b019 063f f87c 563e b147 e43d
00000270: c8a6 ca3d 02af 23be 44ca adbd 774c 963b
00000280: 2562 783e 97bb a5be 6b80 acbe 6936 adbb
00000290: a5ee 9abe 7c5b 013e fd1f f2be b130 823d
000002a0: 47a2 ae3e 0efb 903e d259 fdbd 66c9 87be
000002b0: 009a df3e 5ab1 7b3e d865 1f3e b534 6cbe
000002c0: 0c01 4c3e d21c e23e b5d3 09bd c6ab 033f
000002d0: 80ea 0e3f 12a2 05bf 42c3 dbbe 0b32 eb3e
000002e0: 2315 0e3e afcf c13d 6887 e9be 2583 953e
000002f0: 3a0a e93e 3a0f 29bc 8a1a 823b f0e2 f7bb

base_pointnet.conv_1_a.bias f4 [64]
-0.056360908 0.13346761 -0.21212392 0.081236966 0.48033693 0.36758938 -0.15386851 0.44871473
-0.46788007 -0.14267969 -0.08406261 0.21062708 0.24086909 -0.21830171 -0.23866121 0.5213449
0.2877537 -0.5452707 -0.31530783 0.5472791 0.27816552 -0.32759735 0.41220245 0.06844159
-0.0040081386 -0.0941961 -0.18180524 0.5393796 -0.26256594 -0.47150028 -0.25800243 0.40372378
-0.52512693 0.52187526 -0.21938328 -0.5499986 0.30484208 -0.38664076 0.16516617 -0.17351195
0.43077546 0.29459015 0.09888079 -0.12830321 -0.5201004 0.46467316 -0.48872846 0.50058573
-0.2657478 -0.061436906 0.21023439 -0.51720387 0.4834227 0.06817732 -0.13768065 0.49484554
-0.08410609 0.44768786 0.4031889 -0.51009476 0.47241867 -0.46010655 0.11344917 -0.21962026
00000000: b2da 66bd bcab 083e 0337 59be 915f a63d
00000010: b9ee f53e ad34 bc3e b58f 1dbe f0bd e53e
00000020: fa8d efbe a01a 12be 0529 acbd a0ae 573e
00000030: 63a6 763e 7c8a 5fbe 9b63 74be dc76 053f
00000040: 7454 933e dc96 0bbf 0770 a1be 7c1a 0c3f
00000050: b66b 8e3e d7ba a7be 330c d33e 1b2b 8c3d
00000060: b456 83bb e3e9 c0bd 272b 3abe c814 0a3f
00000070: 0b6f 86be 7c68 f1be e518 84be e2b4 ce3e
00000080: b86e 06bf 9e99 053f 03a6 60be b5cc 0cbf
00000090: 4314 9c3e c7f5 c5be 5221 293e 1ead 31be
000000a0: 9a8e dc3e 85d4 963e 0382 ca3d eb61 03be
000000b0: 4d25 05bf a4e9 ed3e 9e3a fabe 6326 003f
000000c0: 1810 88be 44a5 7bbd af47 573e 7967 04bf
000000d0: 2e83 f73e 8da0 8b3d 28fc 0cbe 655c fd3e
000000e0: d03f acbd 5837 e53e c76e ce3e 9295 02bf
000000f0: dce0 f13e 1693 ebbe 0a58 e83d 22e4 60be

base_pointnet.conv_1_b.weight f4 [64, 1, 3]
-0.11330093 -0.31595138 -0.8820298 -0.70250505 0.30587497 0.23774661 -0.5672788 0.1172044
-0.45953006 0.5793459 0.25366446 0.10490144 -0.31650165 -0.2349776 -0.41034228 0.2759065
0.08658847 0.38623324 0.7779894 0.11634053 0.35291505 0.6770473 -0.35611126 -0.0789309
-0.49353692 -0.3403153 0.8096709 0.63182825 0.38184375 -0.44638196 0.42053553 -0.124618426
-0.8147946 -0.51101685 -0.119337045 -0.44804862 0.69224805 0.7382669 0.37191072 0.50390005
0.2016215 0.062973894 -0.7385659 -0.30594566 -0.8912561 0.53890735 -0.043658525 0.50761527
0.35036764 -0.059636787 0.39794135 -0.17602848 -0.619588 0.6760915 -0.3697652 -0.7256569
0.055317953 0.18449605 -0.41248462 0.03490457 -0.2069158 0.056215428 0.35310015 0.9616954
0.1268397 0.24744457 -0.24402656 0.8540088 0.29479653 -0.6161675 -0.24141365 0.9940279
0.34794918 0.34327447 0.47658676 -0.20561965 0.27311006 0.18633857 0.510122 -0.31593257
-0.015195365 -1.2585747 -0.15879652 -0.25222358 0.08592481 -0.27579418 0.68064326 -0.49444005
-0.2452737 -0.7800364 0.4782654 -0.51349336 0.15422152 -0.6010959 -0.22559845 0.5360078
0.16735314 0.35718593 0.33085397 0.11449171 -0.37731817 0.16734165 -0.89625496 -1.0116388
-0.7094011 0.7256718 0.7110732 0.40905723 0.08746333 0.04355472 -0.5346524 -0.36934096
0.70136815 0.3768507 -0.01873667 -0.5527107 -0.0049946005 0.24439588 0.11599101 0.6106352
0.054139223 0.52358186 0.92964333 -0.12695214 0.7659997 0.6761716 -0.21070012 -0.25767672
0.71700114 0.3435624 0.11627724 -0.4064144 0.5420285 0.65877163 0.26522395 0.07695943
0.16365863 0.9628552 0.21280633 0.5852391 0.7758041 -0.21429344 0.041586623 0.13461627
0.38508645 -0.060145672 -0.8763806 -0.052633896 0.17246069 -0.85332435 -0.30746728 0.1711025
0.44814658 0.55132 0.52656704 -0.66086644 -0.24209748 0.75957614 1.1074533 0.3697913
0.2138742 0.8221689 0.03161069 0.570046 -0.39653283 0.22980733 0.7137362 0.55014664
0.0469843 0.2848414 -0.353597 -0.30671358 -0.3557938 -0.057896506 -0.5216575 -0.644918
0.4080491 -0.08296658 0.060325973 -0.3021087 0.30925336 0.038186666 0.9335326 -0.67150694
-0.45603287 0.3734619 0.39435428 0.26157612 0.37578267 0.5246632 -0.010448816 -0.7081719
00000000: 510a e8bd 61c4 a1be b4cc 61bf 5fd7 33bf
00000010: a59b 9c3e d973 733e 2f39 11bf dc08 f03d
00000020: 8647 ebbe 0350 143f 4fe0 813e 91d6 d63d
00000030: 810c a2be f89d 70be 6218 d2be 9e43 8d3e
00000040: 4c55 b13d 5dc0 c53e 502a 473f f243 ee3d
00000050: 48b1 b43e f952 2d3f 3754 b6be 86a6 a1bd
00000060: dfb0 fcbe cf3d aebe 9846 4f3f 7fbf 213f
00000070: 0681 c33e 2d8c e4be 6f50 d73e f237 ffbd
00000080: 6196 50bf 00d2 02bf fb66 f4bd a166 e5be
00000090: 2b37 313f 0fff 3c3f 156b be3e 98ff 003f
000000a0: de75 4e3e 75f8 803d a812 3dbf e9a4 9cbe
000000b0: 5c29 64bf d5f5 093f 48d3 32bd 13f3 013f
000000c0: 6363 b33e b445 74bd f8be cb3e cf40 34be
000000d0: 529d 1ebf 5514 2d3f dd51 bdbe a7c4 39bf
000000e0: 1495 623d 88ec 3c3e 2f31 d3be 18f8 0e3d
000000f0: bce1 53be 2642 663d 8bc9 b43e ab31 763f
00000100: 44e2 013e 1c62 7d3e 19e2 79be 52a0 5a3f
00000110: 92ef 963e 27bd 1dbf 2435 77be 9d78 7e3f
00000120: 6526 b23e acc1 af3e 2e03 f43e f58d 52be
00000130: 15d5 8b3e 8acf 3e3e 5b97 023f eac1 a1be
00000140: fbf5 78bc fa18 a1bf 8e9b 22be 7323 81be
00000150: 59f9 af3d e534 8dbe a33e 2e3f 3f27 fdbe
00000160: 0729 7bbe 77b0 47bf 34df f43e 4d74 03bf
00000170: 3fec 1d3e 6ce1 19bf 4803 67be cf37 093f
00000180: 9f5e 2b3e 13e1 b63e b165 a93e a17a ea3d
00000190: d92f c1be 9c5b 2b3e f770 65bf 617d 81bf
000001a0: 4f9b 35bf a1c5 393f e508 363f f36f d13e
000001b0: f91f b33d 6f66 323d fbde 08bf 421a bdbe
000001c0: dd8c 333f 93f2 c03e a57d 99bc 737e 0dbf
000001d0: bfa9 a3bb ea42 7a3e b28c ed3d 9752 1c3f
000001e0: 17c1 5d3d 7609 063f 1bfd 6d3f beff 01be
000001f0: 8e18 443f 9519 2d3f c6c1 57be 34ee 83be
00000200: 638d 373f 69e7 af3e c322 ee3d 8c15 d0be
00000210: 61c2 0a3f 42a5 283f 6fcb 873e e89c 9d3d
00000220: 2196 273e ae7d 763f e7e9 593e 3bd2 153f
00000230: 199b 463f bd6f 5bbe bc56 2a3d d9d8 093e
00000240: 0d2a c53e 4f5b 76bd 7b5a 60bf a496 57bd
00000250: 8999 303e 7773 5abf 5a6c 9dbe 7e35 2f3e
00000260: 7873 e53e 4f23 0d3f 19cd 063f 8b2e 29bf
00000270: 67e8 77be 9573 423f 08c1 8d3f 4955 bd3e
00000280: d701 5b3e a979 523f 367a 013d 89ee 113f
00000290: 5a06 cbbe 9d52 6b3e 6ab7 363f 69d6 0c3f
000002a0: 9c72 403d bbd6 913e aa0a b5be 9009 9dbe
000002b0: 9b2a b6be e324 6dbd 598b 05bf 5919 25bf
000002c0: d0eb d03e 62ea a9bd 5e18 773d fead 9abe
000002d0: 7556 9e3e 9f69 1c3d fefb 6e3f e1e7 2bbf
000002e0: 247d e9be 6636 bf3e cee8 c93e 4eed 853e
000002f0: 9666 c03e 5450 063f 8331 2bbc c14a 35bf

base_pointnet.conv_1_b.bias f4 [64]
0.13385114 -0.52063227 -0.56520253 0.5518365 -0.44383523 -0.23164967 0.51564777 0.17840944
0.35884207 0.2505416 0.059796985 0.0107230265 -0.05043057 0.0056524263 0.09589935 -0.041979283
0.007063727 0.019682923 -0.26989403 -0.21164393 -0.34033883 0.20159157 0.49550232 0.56404346
0.5851057 -0.037947744 0.21518233 -0.013739605 -0.14440659 -0.16392195 0.07838007 0.31103522
-0.55580205 -0.15266395 0.22114915 0.4224078 -0.14413625 -0.5297476 0.09280178 -0.061847426
0.39674717 0.37604734 0.08862323 -0.21994132 0.022894451 -0.27251035 0.1590592 -0.21976182
-0.32329857 0.23417324 0.17569059 0.12143888 0.03180927 0.17395063 -0.3303796 0.4391343
-0.20254835 0.54576737 -0.29264906 0.05984345 -0.3450405 0.51410514 0.27629402 0.17339718
00000000: 4610 093e 2848 05bf 1db1 10bf 2845 0d3f
00000010: 5f3e e3be 9235 6dbe 7e01 043f f7b0 363e
00000020: 26ba b73e fd46 803e afed 743d a2af 2f3c
00000030: 4990 4ebd fd37 b93b e166 c43d 78f2 2bbd
00000040: d676 e73b 153e a13c 8d2f 8abe 30b9 58be
00000050: e440 aebe 056e 4e3e 7bb2 fd3e 2765 103f
00000060: 7dc9 153f 186f 1bbd c258 5c3e 151c 61bc
00000070: 52df 13be 28db 27be bb85 a03d 0240 9f3e
00000080: 0b49 0ebf f053 1cbe ec74 623e d645 d83e
00000090: 7498 13be 8a9d 07bf dc0e be3d ba53 7dbd
000000a0: 7222 cb3e 4789 c03e 1980 b53d 4c38 61be
000000b0: 258d bb3c 7a86 8bbe 6ae0 223e 3e09 61be
000000c0: 6487 a5be 1ccb 6f3e 3ce8 333e f3b4 f83d
000000d0: 704a 023d 1d20 323e 8427 a9be 36d6 e03e
000000e0: d668 4fbe 69b7 0b3f 19d6 95be 681e 753d
000000f0: 26a9 b0be 659c 033f 6976 8d3e 088f 313e

base_pointnet.conv_2.weight f4 [64, 64, 3]
-0.16491272 0.008764698 -0.035983033 0.017662063 0.056678515 0.0025930137 -0.029987631 0.0048097945
0.03217203 0.024738299 0.045534555 -0.011904804 0.041763887 -0.07196793 -0.09388555 0.013266037
0.04039755 0.019357145 0.033779964 0.04287607 -0.05741837 0.054550767 -0.042423014 0.019434074
-0.05219643 0.08843934 0.017921709 0.029023826 0.06847634 0.03561572 0.0021823747 0.022491174
0.030251725 -0.041345656 -0.009450446 -0.077422604 0.015961643 0.005166601 0.02645419 -0.011596456
-0.02708258 0.0009236463 0.013446848 0.03828862 0.004328451 0.03087427 -0.040331725 -0.043771666
0.041922558 0.04596244 0.0075384215 -0.029937487 0.0042894036 -0.06963186 -0.15185183 -0.013052053
-0.08056268 -0.006559378 0.07714461 -0.00053013064 -0.0054659983 0.044366315 -0.0017880995 -0.15255536
-0.1035408 -0.0140613085 0.006626597 -0.0016914033 -0.17076617 -0.024849283 -0.051185913 0.029508615
-0.010196966 -0.010953955 0.0033939395 -0.014839868 0.07025445 -0.06396276 0.028219597 -0.04129237
-0.0541883 -0.025394043 0.015429482 -0.06979997 -0.018058635 0.0012504008 -0.032640804 0.074701004
0.037343044 -0.03710296 0.009477477 0.034540214 -0.0072002765 0.07278379 0.0042749755 0.0394336
0.03636263 -0.01269037 0.03126759 -0.06750999 -0.04734958 -0.033077504 0.007988462 -0.06826675
-0.08535333 -0.08999233 0.024927665 0.014154752 0.0031285195 -0.01027097 -0.008222205 -0.003323423
-0.012494177 -0.0031899202 0.048499316 0.04514362 -0.0019679405 0.04817136 -0.101174645 0.034001216
-0.05357746 0.008454275 0.004312636 0.0067376 0.08290792 -0.020044364 -0.17296307 -0.028902063
-0.07100267 -0.005827348 0.09021702 -0.03728835 0.00071219297 -0.021731412 0.0965892 -0.08027202
-0.10081945 -0.07013965 0.052954074 0.031940114 0.08380637 -0.095495015 -0.08966499 0.07862576
0.076935515 0.12057773 0.0845206 -0.021609632 0.008734475 0.072616376 0.12200045 0.06099308
-0.022804672 0.020812696 -0.0055289133 -0.04098535 0.02805824 0.025700951 -0.09715048 0.1907278
0.016371492 -0.00081017846 -0.00874632 0.051379167 0.0005706869 -0.0007755536 -0.004166131 -0.1057174
-0.03642768 -0.009691399 0.04941301 -0.041221973 0.009299129 0.0025295077 0.025216052 0.028388811
-0.0316857 -0.016366648 -0.024564072 -0.07210912 0.070573695 0.052109964 0.04617009 0.000845755
0.060839012 -0.07629077 -0.03120495 -0.028670914 -0.05846849 -0.1560839 -0.04971302 -0.016410131
0.0772755 0.052174 0.10043584 0.040417463 0.030363835 -0.039073106 0.057367664 0.05340415
0.0050988025 -0.007986303 0.012970996 0.027051644 0.07701591 0.046490964 -0.051971987 0.021811614
0.012058271 0.027328216 -0.1708772 -0.117266305 -0.07504109 0.071627155 -0.025276612 -0.021626284
0.06487753 0.08733246 0.08622268 -0.029087417 -0.036075983 -0.01524017 0.01278411 0.058342595
-0.028055837 -0.10247841 -0.040964674 -0.06849719 0.06545621 0.008600929 -0.011988779 0.048455846
0.055479206 0.029688496 0.013009134 -0.046765905 -0.08343881 -0.047166996 -0.05316237 0.023998622
-0.009238687 -0.0029587813 -0.041393634 -0.0016385794 -0.008779545 0.05083394 0.07105025 -0.0018415886
-0.098433144 0.05743991 -0.031094879 -0.043047544 -0.05831719 -0.0076830313 -0.014851822 0.06280664
00000000: e1de 28be cf99 0f3c f262 13bd 08b0 903c
00000010: bb27 683d 8def 293b 9fa8 f5bc 7b9b 9d3b
00000020: d2c6 033d f9a7 ca3c 7182 3a3d 5e0c 43bc
00000030: 9c10 2b3d ec63 93bd 1147 c0bd cb59 593c
00000040: e777 253d e092 9e3c dc5c 0a3d d19e 2f3d
00000050: 862f 6bbd a070 5f3d c1c3 2dbd 3534 9f3c
00000060: eccb 55bd af1f b53d 8cd0 923c 60c3 ed3c
00000070: 533d 8c3d cae1 113d 2c06 0f3b 693f b83c
00000080: 77d2 f73c 105a 29bd 0bd6 1abc be8f 9ebd
00000090: fec1 823c 974c a93b 75b6 d83c 10ff 3dbc
000000a0: 49dc ddbc db20 723a 2b50 5c3c 87d4 1c3d
000000b0: aed5 8d3b 09ec fc3c e132 25bd eb49 33bd
000000c0: fdb6 2b3d 1d43 3c3d dd04 f73b 763f f5bc
000000d0: 208e 8c3b 269b 8ebd 0c7f 1bbe 47d8 55bc
000000e0: 0cfe a4bd 0df0 d6bb fefd 9d3d 77f8 0aba
000000f0: 1e1c b3bb 74b9 353d aa5e eaba 7937 1cbe
00000100: 330d d4bd 6761 66bc ed23 d93b 14b2 ddba
00000110: 54dd 2ebe b990 cbbc 52a8 51bd 0dbc f13c
00000120: 2d11 27bc 3878 33bc db6c 5e3b eb22 73bc
00000130: 91e1 8f3d e8fe 82bd c92c e73c 3022 29bd
00000140: 8df4 5dbd 2b07 d0bc f0cb 7c3c 49f3 8ebd
00000150: b4ef 93bc 7de4 a33a 5db2 05bd d7fc 983d
00000160: 05f5 183d 46f9 17bd 6b47 1b3c 0a7a 0d3d
00000170: 4cf0 ebbb ab0f 953d 1815 8c3b 2085 213d
00000180: fbf0 143d 45eb 4fbc 7212 003d ad42 8abd
00000190: a2f1 41bd 477c 07bd 0ae2 023c 70cf 8bbd
000001a0: bacd aebd e64d b8bd 1a35 cc3c 55e9 673c
000001b0: d907 4d3b 9247 28bc 6db6 06bc c9cd 59bb
000001c0: 60b4 4cbc fb0d 51bb 38a7 463d 84e8 383d
000001d0: 90f8 00bb 554f 453d a734 cfbd dc44 0b3d
000001e0: 0a74 5bbd cd83 0a3c 0351 8d3b 16c7 dc3b
000001f0: a1cb a93d 1434 a4bc 3b1d 31be 05c4 ecbc
00000200: d969 91bd 57f3 bebb b3c3 b83d abbb 18bd
00000210: 76b2 3a3a 1306 b2bc 8fd0 c53d a865 a4bd
00000220: 6e7a cebd 60a5 8fbd 5fe6 583d a3d3 023d
00000230: ada2 ab3d e492 c3bd 47a2 b7bd 8b06 a13d
00000240: 5e90 9d3d 75f1 f63d 2319 ad3d af06 b1bc
00000250: 0b1b 0f3c e5b7 943d 5fdb f93d e1d3 793d
00000260: ddd0 babc 637f aa3c e32b b5bb 41e0 27bd
00000270: 65da e53c cd8a d23c d5f6 c6bd 264e 433e
00000280: 821d 863c 2862 54ba ba4c 0fbc f672 523d
00000290: 269a 153a 854e 4bba 0a84 88bb 5d82 d8bd
000002a0: 3135 15bd acc8 1ebc 4c65 4a3d 5fd8 28bd
000002b0: 605b 183c 19c6 253b e591 ce3c a78f e83c
000002c0: ddc8 01bd 5913 86bc 983a c9bc f2ad 93bd
000002d0: f188 903d 4271 553d d91c 3d3d a8b5 5d3a
000002e0: 5432 793d 563e 9cbd 86a1 ffbc 44df eabc
000002f0: a87c 6fbd 75d4 1fbe e19f 4bbd 8a6e 86bc
00000300: 9e42 9e3d 67b4 553d 4eb1 cd3d c88c 253d
00000310: 94bd f83c 1f0b 20bd 5bfa 6a3d 4fbe 5a3d
00000320: db13 a73b fcd8 02bc 4d84 543c 699b dd3c
00000330: 84ba 9d3d 4f6d 3e3d 94e0 54bd 45ae b23c
00000340: 0e90 453c 6cdf df3c 6ffa 2ebe 5129 f0bd
00000350: 25af 99bd 42b1 923d e610 cfbc 9b29 b1bc
00000360: 83de 843d 5cdb b23d 8495 b03d bc48 eebc
00000370: 69c4 13bd e8b1 79bc 7274 513c a5f8 6e3d
00000380: 5bd5 e5bc 33e0 d1bd 93ca 27bd 4148 8cbd
00000390: e80d 863d e9ea 0c3c 956c 44bc a379 463d
000003a0: 2a3e 633d 4a35 f33c 4324 553c 9b8d 3fbd
000003b0: f8e1 aabd 2e32 41bd c9c0 59bd c298 c43c
000003c0: dd5d 17bc 1de8 41bb 5f8c 29bd 9ac5 d6ba
000003d0: 15d8 0fbc 4037 503d cb82 913d 7661 f1ba
000003e0: 5197 c9bd 1c46 6b3d b0ba febc 9f52 30bd
000003f0: 01de 6ebd f0c1 fbbb 0e55 73bc c5a0 803d

base_pointnet.conv_2.bias f4 [64]
0.057795625 -0.07686047 -0.007399885 0.07297612 -0.087853804 -0.005346985 -0.012298952 -0.0751714
0.054101557 0.03232935 -0.08599808 0.0046460084 0.054796036 0.024613438 -0.014130306 0.047328193
0.027806828 -0.00092773465 0.00089128694 -0.021108905 0.028876165 0.020441448 -0.08857849 -0.026566563
-0.09376268 -0.06346504 -0.02049511 -0.03691361 -0.0481771 0.051135235 -0.00967992 -0.03693194
-0.037066028 0.05675663 -0.03336242 0.029218929 -0.12372633 0.044328317 -0.013619414 -0.06932783
-0.04051103 0.07558032 -0.03203906 -0.08130234 0.052625075 -0.06799082 -0.04846699 0.08412156
-0.0018410751 0.09473309 0.017344952 0.020039545 0.020125978 -0.036956485 0.04334514 -0.02211966
0.07488644 0.07155305 -0.009371651 0.10244529 0.090411015 -0.053661224 -0.08048228 0.051035497
00000000: 1bbb 6c3d 0669 9dbd bc7a f2bb 8174 953d
00000010: b2ec b3bd c335 afbb 8b81 49bc 77f3 99bd
00000020: 9899 5d3d c86b 043d c31f b0bd 8b3d 983b
00000030: cf71 603d 1fa2 c93c cd82 67bc 35db 413d
00000040: 25cb e33c 3833 73ba 41a5 693a 95ec acbc
00000050: b58d ec3c d374 a73c a468 b5bd 1fa2 d9bc
00000060: a606 c0bd f5f9 81bd 5ce5 a7bc ba32 17bd
00000070: 5a55 45bd 2e73 513d 8798 1ebc f245 17bd
00000080: 8cd2 17bd a479 683d 08a7 08bd 895c ef3c
00000090: 3b64 fdbd 9c91 353d f623 5fbc c0fb 8dbd
000000a0: e5ee 25bd dbc9 9a3d 643b 03bd d781 a6bd
000000b0: 648d 573d c53e 8bbd 5385 46bd ed47 ac3d
000000c0: 3b50 f1ba 6c03 c23d 0017 8e3c f929 a43c
000000d0: 3cdf a43c af5f 17bd ac8a 313d 4a34 b5bc
000000e0: 105e 993d 688a 923d 8e8b 19bc d6ce d13d
000000f0: 6929 b93d dfcb 5bbd e5d3 a4bd 990a 513d

base_pointnet.bn_1.weight f4 [64]
1.1021446 0.9014762 0.8936467 0.94682837 1.1337411 0.8576144 1.1763012 0.8783691
1.0351114 0.9875646 0.872423 0.9166414 1.0285537 0.8828884 1.0168115 0.8930895
0.9425193 0.89627117 1.1637751 0.89579606 0.9731183 1.1127446 1.1813309 0.9136053
0.9848429 0.86333865 0.9051882 1.0015297 0.8625625 1.0630782 0.8456913 0.94904757
0.9279422 0.9330436 0.97881216 1.060275 0.83173376 1.0074764 1.1550455 1.0046022
0.9142544 1.1028714 1.3006215 0.9090169 1.0743041 1.02974 0.9880166 0.9586723
1.4094341 1.1114979 0.96663564 0.91018087 1.1641505 1.1231934 0.8670009 0.9671106
0.93053395 0.9523384 1.0176587 0.9594845 0.9862823 0.9032499 0.9137292 1.0724691
00000000: 1313 8d3f 25c7 663f 08c6 643f 5863 723f
00000010: 6e1e 913f 9e8c 5b3f 0a91 963f ccdc 603f
00000020: 887e 843f 09d1 7c3f 1d57 5f3f 03a9 6a3f
00000030: a6a7 833f f904 623f e126 823f 83a1 643f
00000040: f248 713f 0772 653f 95f6 943f e452 653f
00000050: 481e 793f 6a6e 8e3f da35 973f 09e2 693f
00000060: aa1e 7c3f c303 5d3f 6aba 673f 2032 803f
00000070: e5d0 5c3f f212 883f 3a7f 583f c8f4 723f
00000080: 9f8d 6d3f f2db 6e3f 6f93 7a3f 17b7 873f
00000090: 81ec 543f fdf4 803f 88d8 933f ce96 803f
000000a0: 940c 6a3f e42a 8d3f c47a a63f 55b5 683f
000000b0: cc82 893f 85ce 833f a8ee 7c3f 8c6b 753f
000000c0: 5668 b43f 9045 8e3f 6f75 773f 9d01 693f
000000d0: e202 953f cdc4 8f3f c5f3 5d3f 8f94 773f
000000e0: 7937 6e3f 73cc 733f a442 823f c7a0 753f
000000f0: ff7c 7c3f 633b 673f 28ea 693f ab46 893f

base_pointnet.bn_1.bias f4 [64]
-0.22259986 -0.06916767 -0.10261401 -0.07652203 -0.07254375 -0.043765016 -0.21685098 -0.065831415
0.15622692 -0.027489463 0.046841305 -0.05022953 0.19935858 -0.054716762 0.12594728 -0.108676955
-0.010335017 -0.027553633 -0.19987175 -0.13694389 -0.019241521 -0.10060429 -0.15534635 0.02620162
-0.08644366 -0.12617162 0.026045963 -0.045690514 -0.20507836 0.09968808 -0.027889572 -0.22301495
0.009922669 -0.07993188 0.21352471 -0.056459155 -0.18262461 -0.082138926 -0.18071905 -0.09222855
-0.03074687 -0.107093066 0.18850759 0.010906699 -0.08610945 -0.07649945 -0.11891938 -0.021153793
-0.036753498 0.097645454 -0.027842375 0.015318915 -0.5619878 -0.3008266 -0.031237535 -0.25638932
0.06996731 -0.020034568 0.02224018 0.005075866 -0.056417692 -0.17763169 -0.12620845 0.041716363
00000000: 38f1 63be c8a7 8dbd 4b27 d2bd 95b7 9cbd
00000010: d191 94bd f242 33bd 2f0e 5ebe 9fd2 86bd
00000020: f3f9 1f3e 9531 e1bc abdc 3f3d 7bbd 4dbd
00000030: a824 4c3e af1e 60bd 53f8 003e 0692 debd
00000040: 3454 29bc 28b8 e1bc 2eab 4cbe 053b 0cbe
00000050: 65a0 9dbc 9f09 cebd 1d13 1fbe c8a4 d63c
00000060: 6009 b1bd 2233 01be 585e d53c fa25 3bbd
00000070: 1000 52be 4429 cc3d ac78 e4bc 085e 64be
00000080: b192 223c 53b3 a3bd 39a6 5a3e b741 67bd
00000090: f201 3bbe 7438 a8bd 6a0e 39be 52e2 bcbd
000000a0: dce0 fbbc 9c53 dbbd 2208 413e 03b2 323c
000000b0: 275a b0bd beab 9cbd 018c f3bd b84a adbc
000000c0: d68a 16bd 57fa c73d b115 e4bc 30fc 7a3c
000000d0: 6fde 0fbf f205 9abe dce5 ffbc 7645 83be
000000e0: 054b 8f3d 891f a4bc 0a31 b63c 7353 a63b
000000f0: 3d16 67bd 15e5 35be ca3c 01be c7de 2a3d

base_pointnet.bn_1.running_mean f4 [64]
-2.033866 -13.739378 9.886622 13.096367 -0.70191646 26.210403 -2.1744323 -25.289413
-0.28232083 21.821846 -15.501587 12.161919 2.5029435 -24.888445 -7.9781938 -27.269394
5.4077907 -9.017211 -2.006822 27.761328 -9.514645 2.3493516 -2.2280977 -21.291136
5.074617 8.615652 5.044569 -5.1818995 41.550964 -4.668265 -15.712914 5.4158306
13.202949 8.466641 6.2836 -4.0914245 12.309601 3.3488138 -0.74709237 -0.11937878
34.673073 1.7426974 -2.8440576 -8.581318 -1.0538504 5.691694 10.90239 9.4074335
-2.2712665 -1.9476056 14.000762 31.214514 -2.206111 -0.29727435 -23.757679 -7.011851
18.010883 15.119094 3.4344616 32.7944 -12.187966 24.211918 12.724592 -0.8671882
00000000: dc2a 02c0 7ed4 5bc1 9b2f 1e41 b88a 5141
00000010: ccb0 33bf e8ae d141 e629 0bc0 b850 cac1
00000020: 5b8c 90be 2493 ae41 8006 78c1 3897 4241
00000030: 3a30 2040 891b c7c1 5d4d ffc0 b827 dac1
00000040: 9f0c ad40 7f46 10c1 c66f 00c0 3317 de41
00000050: fc3b 18c1 c75b 1640 2799 0ec0 3f54 aac1
00000060: 4363 a240 b6d9 0941 1c6d a140 1fd2 a5c0
00000070: 3034 2642 6d62 95c0 1968 7bc1 7c4e ad40
00000080: 473f 5341 5d77 0741 4013 c940 f3ec 82c0
00000090: 20f4 4441 f752 5640 7241 3fbf dd7c f4bd
000000a0: 3ab1 0a42 b510 df3f 0a05 36c0 144d 09c1
000000b0: 92e4 86bf 5b22 b640 3070 2e41 d984 1641
000000c0: 6e5c 11c0 244b f9bf 1f03 6041 53b7 f941
000000d0: ec30 0dc0 5834 98be ba0f bec1 1561 e0c0
000000e0: 4a16 9041 cfe7 7141 38ce 5b40 772d 0342
000000f0: e901 43c1 02b2 c141 ee97 4b41 0c00 5ebf

base_pointnet.bn_1.running_var f4 [64]
56.515675 61.323883 84.37395 41.3485 2.3161817 172.53433 46.068325 161.51161
1.2663687 151.66284 74.20193 70.12417 26.20621 196.43343 16.130924 199.54686
51.191963 52.162415 3.7056367 183.99742 113.975235 19.090828 29.536406 126.25774
66.34984 59.477245 11.057768 13.993056 417.9403 103.566734 91.484215 20.868654
71.62483 107.67097 49.937218 81.488396 66.63136 52.12417 53.46218 49.00819
257.79474 12.711708 101.7082 29.744139 81.10064 55.232037 54.58164 111.47214
42.522137 8.947285 84.4338 251.86368 14.002476 22.045834 125.26732 48.02333
111.15578 100.19999 12.286966 257.86392 180.1798 155.08615 138.25119 0.86897355
00000000: 0d10 6242 a84b 7542 76bf a842 dd64 2542
00000010: 523c 1440 ca88 2c43 f745 3842 f982 2143
00000020: 5f18 a23f b0a9 1743 6367 9442 933f 8c42
00000030: 51a6 d141 f56e 4443 220c 8141 ff8b 4743
00000040: 92c4 4c42 50a6 5042 2729 6d40 57ff 3743
00000050: 52f3 e342 04ba 9841 8f4a ec41 f683 fc42
00000060: 1eb3 8442 b3e8 6d42 9eec 3041 8fe3 5f41
00000070: 5cf8 d043 2b22 cf42 ebf7 b642 01f3 a641
00000080: ea3f 8f42 8957 d742 b6bf 4742 0ffa a242
00000090: 4243 8542 267f 5042 46d9 5542 6308 4442
000000a0: bae5 8043 2863 4b41 996a cb42 fff3 ed41
000000b0: 8733 a242 9bed 5c42 9953 5a42 bcf1 de42
000000c0: ab16 2a42 1428 0f41 1bde a842 1add 7b43
000000d0: 240a 6041 de5d b041 de88 fa42 e417 4042
000000e0: c24f de42 6566 c842 6a97 4441 95ee 8043
000000f0: 072e 3443 0e16 1b43 4e40 0a43 0d75 5e3f

base_pointnet.bn_2.weight f4 [64]
1.4537448 1.58421 1.4268875 1.5062047 1.3990047 1.3814212 1.5659381 1.4401361
1.6690555 1.5811538 1.5943877 1.6782597 1.5048087 1.6013384 1.626074 1.5539622
1.4947926 1.7601142 1.3940402 1.593872 1.6756796 1.6949512 1.6596657 1.7047142
1.4259441 1.5932504 1.421829 1.8633039 1.639033 1.977437 1.8714622 1.6760272
1.9951534 1.674834 1.6690664 1.5898825 1.764444 2.0191271 1.5323043 1.6125754
1.6794823 1.5456922 1.6784203 1.8163049 1.5352476 1.6149914 1.4889152 2.1190252
1.5723959 1.6827312 1.6041324 1.5974282 1.4772993 2.1924024 1.4994154 1.650552
1.4906102 1.522406 1.465061 1.5121262 1.789228 1.7825342 2.4010513 1.5879505
00000000: 4f14 ba3f 65c7 ca3f 40a4 b63f 51cb c03f
00000010: 9612 b33f 69d2 b03f a970 c83f 6156 b83f
00000020: 9ca3 d53f 3f63 ca3f e514 cc3f 37d1 d63f
00000030: 929d c03f a8f8 cc3f 3123 d03f 3ce8 c63f
00000040: 5d55 bf3f 6c4b e13f e96f b23f ff03 cc3f
00000050: ab7c d63f 29f4 d83f ed6f d43f 1334 da3f
00000060: 5685 b63f a1ef cb3f 7efe b53f be80 ee3f
00000070: d5cb d13f a81c fd3f 138c ef3f 0f88 d63f
00000080: 3061 ff3f f660 d63f f8a3 d53f 4581 cb3f
00000090: 4dd9 e13f 6139 0140 8c22 c43f df68 ce3f
000000a0: 47f9 d63f 3ed9 c53f 7ad6 d63f ae7c e83f
000000b0: fe82 c43f 0ab8 ce3f c694 be3f 1c9e 0740
000000c0: 4544 c93f bc63 d73f 3654 cd3f 8778 cc3f
000000d0: 2518 bd3f 5250 0c40 d8ec bf3f 4a45 d33f
000000e0: 51cc be3f 33de c23f 1e87 bb3f 5a8d c13f
000000f0: 6c05 e53f 152a e43f d3aa 1940 f641 cb3f

base_pointnet.bn_2.bias f4 [64]
0.12378852 0.1590477 -0.0024977082 0.1528798 0.15679887 0.06735951 0.24598728 0.1797653
0.10199915 -0.020144572 -0.018662993 0.2899466 0.13841914 0.24339747 0.08533989 -0.08561999
0.16901265 -0.035465725 0.12027921 0.16467755 0.27820572 0.24011987 0.113540314 0.35907757
-0.07382896 0.19980907 0.18232508 0.40134636 0.26127324 0.17272419 0.21054387 0.19121832
0.013700065 0.086471304 0.26000512 0.20860246 -0.19810541 0.2831083 0.23327701 0.09760242
0.07026777 0.068929985 0.1828157 -0.14156727 0.1793546 0.29426622 0.040671133 -0.09792747
0.28110635 0.13690977 0.2075802 0.08754682 0.16596879 0.07670142 0.04399404 0.29850635
0.17912689 0.16420475 0.21057472 -0.056859013 0.03811826 0.18550408 -0.40388322 0.14901556
00000000: d684 fd3d 66dd 223e 97b0 23bb 868c 1c3e
00000010: e28f 203e c8f3 893d 17e4 7b3e 6514 383e
00000020: eee4 d03d 3b06 a5bc 22e3 98bc e173 943e
00000030: bfbd 0d3e 303d 793e aec6 ae3d 8959 afbd
00000040: a711 2d3e 8244 11bd f254 f63d 3ba1 283e
00000050: fb70 8e3e fce1 753e d387 e83d 04d9 b73e
00000060: a333 97bd c09a 4c3e 6db3 3a3e 457d cd3e
00000070: 9bc5 853e 9cde 303e d098 573e bcce 433e
00000080: 3d76 603c de17 b13d 641f 853e e29b 553e
00000090: 25dc 4abe 92f3 903e 2be0 6e3e c7e3 c73d
000000a0: 8ce8 8f3d 2a2b 8d3d 0a34 3b3e 03f7 10be
000000b0: bba8 373e 10aa 963e c696 263d 338e c8bd
000000c0: 2ced 8f3e 1332 0c3e e78f 543e bf4b b33d
000000d0: b9f3 293e a215 9d3d 1833 343d d3d5 983e
000000e0: 0a6d 373e 4a25 283e e6a0 573e ffe4 68bd
000000f0: e521 1c3d c8f4 3d3e c8c9 cebe 8997 183e

base_pointnet.bn_2.running_mean f4 [64]
-0.23023699 -0.4686434 -0.49491808 0.54854685 -0.6376157 -0.015450413 -0.33943158 -0.053095058
0.0925157 0.17879176 -0.097374976 -0.4116538 0.11185502 -0.10602328 -0.23844694 -0.037944563
0.056577545 0.19095713 -0.090923324 0.40904862 -0.061619617 -0.12692842 -0.1680246 -0.24110842
-0.055182062 -0.35396725 -0.7065016 -0.056988366 -0.012538138 0.259442 -0.11152124 -0.28066492
-0.024419753 0.3224309 -0.08293929 0.02654191 -0.06290853 0.6089884 -0.0016873484 -0.070490636
0.6123714 -0.023280054 -0.51297116 0.0062181363 0.14151138 0.490095 -0.10648964 0.23240575
-0.108199574 0.18536928 -0.032853547 0.07181774 0.2524038 -0.048606798 -0.15732317 0.2528295
0.22918846 0.09230287 -0.65021354 0.3955982 0.2907033 -0.15475829 -0.172387 -0.093703255
00000000: 3fc3 6bbe 07f2 efbe e765 fdbe 916d 0c3f
00000010: c83a 23bf bb23 7dbc fac9 adbe 347a 59bd
00000020: df78 bd3d 3015 373e 886c c7bd 49c4 d2be
00000030: 3f14 e53d bc22 d9bd 6f2b 74be c26b 1bbd
00000040: dbbd 673d 448a 433e 0236 babd d26e d13e
00000050: da64 7cbd 86f9 01be a40e 2cbe 20e5 76be
00000060: 9606 62bd 323b b5be 4add 34bf a26c 69bd
00000070: c36c 4dbc 95d5 843e 3f65 e4bd 50b3 8fbe
00000080: ef0b c8bc aa15 a53e 13dc a9bd 6b6e d93c
00000090: 30d6 80bd aae6 1b3f 042a ddba 655d 90bd
000000a0: 5fc4 1c3f d0b5 bebc 1452 03bf 82c1 cb3b
000000b0: 5ce8 103e bbed fa3e 3e17 dabd c6fb 6d3e
000000c0: bd97 ddbd 72d1 3d3e 7191 06bd 2e15 933d
000000d0: 123b 813e ec17 47bd 5319 21be de72 813e
000000e0: 61b0 6a3e 4909 bd3d 6574 26bf d98b ca3e
000000f0: 10d7 943e f578 1ebe 3886 30be 7ee7 bfbd

base_pointnet.bn_2.running_var f4 [64]
0.031283055 0.0393861 0.06181747 0.044378996 0.074025415 0.05102493 0.04167959 0.03376765
0.12916358 0.026079386 0.011501239 0.03305133 0.019574834 0.039497335 0.031313762 0.018247232
0.022493929 0.02991917 0.047275983 0.07259154 0.052320573 0.10058841 0.022092566 0.023207419
0.011532742 0.040865313 0.08322375 0.014937067 0.028640544 0.030004784 0.015950054 0.043383747
0.011444338 0.017165449 0.026415996 0.045159515 0.009791798 0.03424322 0.047283877 0.007971245
0.037554067 0.008887445 0.035584755 0.014340239 0.051605918 0.06362867 0.016522508 0.0074611553
0.034457467 0.02512375 0.029815812 0.01306579 0.029010855 0.014345453 0.017360156 0.03314472
0.04911844 0.051531505 0.059870716 0.021953082 0.021372952 0.007947659 0.0029560034 0.038243417
00000000: a922 003d 5253 213d 5134 7d3d c0c6 353d
00000010: a39a 973d 84ff 503d 38b8 2a3d f34f 0a3d
00000020: 7543 043e 70a4 d53c b16f 3c3c d560 073d
00000030: 675b a03c f5c7 213d dc42 003d 387b 953c
00000040: 3045 b83c 0c19 f53c 76a4 413d e0aa 943d
00000050: 194e 563d 4c01 ce3d 78fb b43c 7c1d be3c
00000060: d3f3 3c3c 6362 273d 3771 aa3d 9aba 743c
00000070: 939f ea3c 98cc f53c b0a9 823c 28b3 313d
00000080: 0881 3b3c 8e9e 8c3c 5c66 d83c 2ff9 383d
00000090: c76d 203c 9e42 0c3d bdac 413d d399 023c
000000a0: 4bd2 193d a59c 113c 52c1 113d 52f3 6a3c
000000b0: ba60 533d c04f 823d 365a 873c b57c f43b
000000c0: 4623 0d3d 53d0 cd3c 4a40 f43c e511 563c
000000d0: 2ca8 ed3c 3109 6b3c e336 8e3c c2c2 073d
000000e0: 6b30 493d b312 533d ff3a 753d f3d6 b33c
000000f0: 5416 af3c e636 023c 82b9 413b 21a5 1c3d

fc_1.weight f4 [64, 66]
0.07159634 -0.27347794 -0.027715068 0.34513783 -0.098106965 -0.0019288496 0.11982326 -0.06307585
0.3529627 -0.025604637 0.21420728 0.027820539 0.073158026 0.013479299 0.120762624 0.13801219
0.24016003 -0.21773015 -0.14974636 -0.2996797 -0.053560007 0.11263785 0.19999027 0.27082434
0.19673443 0.031549014 -0.17950842 0.2395252 0.2499826 0.16200037 0.11772676 0.05492754
0.012332106 0.21566218 0.041650534 0.009374613 0.3396448 0.0920656 -0.14194556 -0.23181932
0.20272821 0.014414995 -0.10377724 0.03505418 0.11782268 0.024427233 0.17017671 -0.057913445
-0.087014005 -0.070286825 0.20678484 0.2629257 0.1668717 0.27511233 -0.018670727 -0.13797022
-0.16075087 0.21177097 -0.21278079 0.115842655 -0.036774352 0.028023353 -0.10132931 0.24158466
-0.34889847 0.13629994 0.05478252 -1.7155762 0.2214963 -0.14318101 0.41581422 0.25249124
-0.15937671 0.2817485 -0.05496527 0.35431066 -0.12941702 0.25404865 -0.20647766 0.35662892
-0.35005155 0.38000104 -0.26142243 0.34469542 0.39925689 0.2710964 0.08457496 -0.039876014
0.12304369 0.0006813641 -0.23773107 -0.054516397 -0.05212297 -0.040247485 0.12523493 0.18018116
-0.26559713 0.21990463 0.046899967 -0.075698085 -0.4596049 0.56587726 -0.1010766 0.2683947
0.3847247 0.30872247 -0.16725534 0.35368 0.025051916 0.36589402 -0.08435989 -0.31865886
0.024479248 0.3673479 0.0045642233 -0.038336333 0.08765876 -0.11111149 -0.069887094 -0.0955993
0.3229317 -0.35373378 0.2290667 -0.015858598 0.20303956 -0.014250972 0.14138032 0.29506835
-0.11904371 0.04054259 -0.4077874 0.35739663 -0.10298 0.04316449 -0.114918336 0.015398836
-0.11085387 -0.080582134 0.079680465 -0.064628646 -0.04927567 0.028830566 0.105287716 -0.10656965
-0.10319361 -0.10626015 0.06352315 0.10317468 -0.0929722 0.034167636 -0.0078826845 -0.06246251
0.0383654 -0.0640918 0.06187021 -0.026882287 -0.028783977 -0.1097532 0.06012968 -0.055369195
0.012001622 0.007714568 0.10517804 0.049711447 0.031161739 -0.115695454 0.027545242 -0.004681848
-0.0740222 0.015415153 0.06658089 0.08608588 -0.08156992 0.056790676 0.02062016 -0.10187118
0.04338477 -0.026657369 -0.1032682 0.05852551 0.11050106 -0.092128284 -0.023802992 0.012671371
-0.021439757 -0.065751284 0.034078494 0.066006444 0.06447233 0.04993374 -0.10657122 0.020910185
0.06556914 -0.012865063 -0.08808222 0.049611725 -0.06927751 0.08113824 0.0054608025 1.6402087
-0.09344043 -0.12985432 0.08506674 -0.08941136 -0.2219267 -0.07311296 -0.0065633547 -0.12971193
-0.10302155 -0.02598693 -0.13899206 -0.21439865 -0.1134942 -0.077409044 -0.024062365 -0.056925565
-0.14203663 0.012419402 -0.053193785 0.087363936 -0.076020986 -0.037597265 0.013366634 -0.17181629
0.2317476 -0.13680921 -0.08802642 -0.09976253 -0.14146668 -0.198495 -0.05571796 -0.21267727
-0.021147344 -0.19657555 -0.23392737 -0.26001167 0.1094545 -0.2067546 -0.055376414 0.17344438
-0.054436404 -0.03615234 -0.16758949 -0.0036223656 0.09335889 -0.1317769 0.24084482 0.018688085
0.023718916 -0.12127769 -0.14733586 -0.07795924 0.16790006 0.04930293 0.12442159 -0.19996244
00000000: 1aa1 923d 4d05 8cbe b60a e3bc e8b5 b03e
00000010: 4eec c8bd 74d1 fcba e665 f53d e92d 81bd
00000020: 87b7 b43e d1c0 d1bc 2759 5b3e e6e7 e33c
00000030: e0d3 953d 47d8 5c3c 6552 f73d 1153 0d3e
00000040: 83ec 753e a7f4 5ebe 1c57 19be 9e6f 99be
00000050: bd61 5bbd acae e63d 40ca 4c3e 7da9 8a3e
00000060: c074 493e 8a39 013d 0ed1 37be 1846 753e
00000070: 70fb 7f3e 6de3 253e ba1a f13d b3fb 603d
00000080: 9a0c 4a3c 8cd6 5c3e c099 2a3d fa97 193c
00000090: ece5 ad3e e48c bc3d 2d5a 11be 0b62 6dbe
000000a0: fc97 4f3e df2c 6c3c 2989 d4bd f994 0f3d
000000b0: 044d f13d 9f1b c83c ce42 2e3e a636 6dbd
000000c0: 6634 b2bd 8af2 8fbd 68bf 533e 339e 863e
000000d0: 6ae0 2a3e 86db 8c3e 5af3 98bc 1148 0dbe
000000e0: e09b 24be 7dda 583e 35e3 59be ea3e ed3d
000000f0: b4a0 16bd 3b91 e53c be85 cfbd f861 773e
00000100: d2a2 b2be 3692 0b3e a363 603d 0098 dbbf
00000110: edcf 623e 0b9e 12be 9ae5 d43e 8846 813e
00000120: a633 23be 5741 903e 4323 61bd 3568 b53e
00000130: e585 04be aa12 823e e16e 53be 1198 b63e
00000140: f539 b3be 7f8f c23e 29d9 85be eb7b b03e
00000150: 666b cc3e 26cd 8a3e a335 ad3d 0855 23bd
00000160: 55fe fb3d 929d 323a c66f 73be 964c 5fbd
00000170: e57e 55bd 8cda 24bd 963d 003e 6981 383e
00000180: 59fc 87be ae2e 613e 2e1a 403d 9907 9bbd
00000190: 5551 ebbe 55dd 103f 4001 cfbd 086b 893e
000001a0: a3fa c43e df10 9e3e fc44 2bbe 8c15 b53e
000001b0: ad39 cd3c 7656 bb3e e1c4 acbd 4127 a3be
000001c0: b488 c83c 0615 bc3e 7b8f 953b 8f06 1dbd
000001d0: 7086 b33d 6c8e e3bd f720 8fbd 91c9 c3bd
000001e0: 4e57 a53e 981c b5be 7690 6a3e e4e9 81bc
000001f0: 9ae9 4f3e e97c 69bc 01c6 103e 3313 973e
00000200: 30cd f3bd fd0f 263d 83c9 d0be b1fc b63e
00000210: 2ee7 d2bd 40cd 303d 4e5a ebbd 664b 7c3c
00000220: 5b07 e3bd 3f08 a5bd 832f a33d 065c 84bd
00000230: 49d5 49bd 142e ec3c 16a1 d73d 3041 dabd
00000240: 2c57 d3bd ec9e d9bd 6d18 823d 3f4d d33d
00000250: 3568 bebd 5df3 0b3d 6026 01bc b0d8 7fbd
00000260: 0a25 1d3d 9042 83bd 9e6b 7d3d 3e38 dcbc
00000270: 60cc ebbc 49c6 e0bd 8a4a 763d cfca 62bd
00000280: 73a2 443c 7dca fc3b 9667 d73d 3b9e 4b3d
00000290: e746 ff3c bdf1 ecbd 8fa6 e13c 306a 99bb
000002a0: f498 97bd d68f 7c3c 905b 883d cb4d b03d
000002b0: 210e a7bd 579d 683d 9ceb a83c d6a1 d0bd
000002c0: 3bb4 313d 8e60 dabc 477e d3bd 72b8 6f3d
000002d0: 614e e23d c1ad bcbd 7efe c2bc 959b 4f3c
000002e0: 6ea2 afbc 9ca8 86bd e495 0b3d 632e 873d
000002f0: 120a 843d 5287 4c3d 0342 dabd d64b ab3c
00000300: 1d49 863d fcc7 52bc 7364 b4bd aa35 4b3d
00000310: 5ee1 8dbd ce2b a63d 88f0 b23b 5cf2 d13f
00000320: b25d bfbd 88f8 04be 7937 ae3d 4e1d b7bd
00000330: c140 63be 3fbc 95bd 6911 d7bb 34d3 04be
00000340: f6fc d2bd 8be2 d4bc ef53 0ebe 528b 5bbe
00000350: a66f e8bd a288 9ebd 701e c5bc c82a 69bd
00000360: 0d72 11be bf7a 4b3c bae1 59bd ddeb b23d
00000370: e4b0 9bbd 97ff 19bd baff 5a3c 9cf0 2fbe
00000380: 3e4f 6d3e b717 0cbe 3247 b4bd 4c50 ccbd
00000390: a4dc 10be 4642 4bbe 8438 64bd 12c8 59be
000003a0: 323d adbc 1a4b 49be a88a 6fbe 4020 85be
000003b0: ae29 e03d 7ab7 53be 61d2 62bd 679b 313e
000003c0: b5f8 5ebd 7a14 14bd 949c 2bbe 3665 6dbb
000003d0: f232 bf3d 86f0 06be 06a0 763e c117 993c
000003e0: 2c4e c23c 7060 f8bd 36df 16be 18a9 9fbd
000003f0: feed 2b3e def1 493d bfd0 fe3d f4c2 4cbe

fc_1.bias f4 [64]
0.051159892 -0.07551203 -0.013254575 -0.113250084 -0.03451838 0.0681041 -0.064038865 0.11132882
-0.12667423 -0.08389789 -0.0358905 -0.10680326 -0.11223839 0.51861787 0.16431299 -0.14829396
0.12817098 0.095926374 0.021264385 0.16729905 -0.059662018 0.015367936 -0.14607778 -0.12867342
-0.08103348 -0.29081967 0.02087492 -0.10226529 -0.060549483 0.08754101 0.075342536 0.22759198
0.2393394 0.062376287 -0.0129058985 -0.15834847 -0.09756544 -0.1593353 -0.09222859 0.057111587
-0.01574067 -0.09939352 -0.0031995624 0.07305728 0.11106971 -0.1164648 0.14861548 -0.021242114
-0.00046432216 0.03938671 -0.13779156 0.05192095 0.052567966 0.05271173 0.018009802 0.030497456
0.24556322 -0.048731804 -0.035966907 0.0097856885 0.14479932 -0.051739775 0.07412285 -0.021095717
00000000: 098d 513d 0da6 9abd b829 59bc a9ef e7bd
00000010: 2563 0dbd 2a7a 8b3d cf26 83bd 5d00 e43d
00000020: e4b6 01be a8d2 abbd eb01 13bd abbb dabd
00000030: 3edd e5bd 24c4 043f aa41 283e 5fda 17be
00000040: 413f 033e 0c75 c43d a632 ae3c 7150 2b3e
00000050: 2960 74bd ccc9 7b3c 6a95 15be f7c2 03be
00000060: e2f4 a5bd 51e6 94be e101 ab3c 7770 d1bd
00000070: bc02 78bd b348 b33d 304d 9a3d df0d 693e
00000080: 6315 753e 477e 7f3d 4373 53bc 1a26 22be
00000090: 64d0 c7bd cb28 23be 58e2 bcbd d7ed 693d
000000a0: 94f2 80bc d48e cbbd c0af 51bb 0e9f 953d
000000b0: 8478 e33d 1985 eebd a82e 183e f103 aebc
000000c0: 4470 f3b9 f553 213d 3b19 0dbe 10ab 543d
000000d0: 8251 573d 41e8 573d 4b89 933c cdd5 f93c
000000e0: ed74 7b3e 009b 47bd 0952 13bd 2754 203c
000000f0: 4646 143e 16ed 53bd b9cd 973d edd0 acbc

fc_2.weight f4 [4, 64]
-0.14667499 1.4633654 -0.10126363 1.0697657 0.11027908 0.08144968 0.15064967 0.007570048
-3.5029302 0.21183626 -0.10631641 0.35582265 -0.06400488 1.600977 -0.15984389 0.115243115
-0.39329925 0.49378923 0.6810896 -0.17437893 1.1307642 0.5966802 0.08897296 -0.008937524
-0.033676043 -0.8481648 0.45227566 -0.007820087 -0.107156016 1.8062536 -0.04120829 -0.3295892
-1.5707879 0.82318187 1.7462804 1.104905 0.09758283 0.67479837 0.07878487 -0.08317487
-5.828744 0.003930703 -0.21668136 0.09445934 0.17356081 -0.037278764 -0.10967711 -0.024447802
-1.2733964 -0.19467297 0.13023412 1.1940237 -0.09506072 0.08903239 0.48147783 1.7272505
-0.29236636 0.43328163 -1.0438906 0.10269739 -0.22653326 0.29753485 -0.071719654 -0.01545994
0.13069348 0.9712329 0.04538533 1.302097 -0.095649526 -0.07040082 -0.12769914 0.038601104
2.3408089 -0.012268757 -0.0646035 0.8502548 0.11988625 -0.27627197 0.03545238 0.24406652
-0.05581971 -0.6118812 -0.53404856 -0.090602905 -2.811522 1.4307127 0.23336422 0.07482969
0.03746681 0.07936833 -0.13491514 0.044670686 0.12993017 -4.4285455 -0.23472236 0.08475459
0.5709296 -2.155211 -3.0273762 -1.9887213 0.00921604 0.57799983 -0.10416734 0.092690125
3.829674 -0.07817213 0.08484329 0.02103901 -0.3183265 -0.060828615 -0.089352675 -0.37831223
0.38246426 0.18654364 0.020663613 1.6361213 0.080345765 0.022169465 -0.6082489 1.0609753
0.04433299 -0.2630073 0.63789123 -0.09685297 0.05693976 -0.5450997 0.050931886 -0.043035164
0.018400405 -1.8334769 -0.024381816 -0.5602768 0.0060697794 -0.031043952 -0.15128805 -0.093989655
2.0068069 0.4854178 0.06717607 -0.91359216 -0.07607049 -3.8386126 0.094393924 -0.37661156
0.09546298 0.46550968 -0.2621941 0.20285666 0.14223842 -0.3486244 -0.43097654 0.056198407
-0.0751704 1.3849313 -0.089011334 0.074862264 -0.054249257 2.1040936 -0.18606165 -0.08607007
-4.2023225 0.66540027 2.7527573 -0.38795474 0.014527932 -0.3828839 -0.021633 -0.12065169
-0.57258856 -0.0478521 0.24973325 0.108371116 0.06726696 -0.09784387 -0.048241634 -0.15533482
0.96298397 0.04795597 -0.22279967 0.25280687 0.06713322 0.09218625 -0.20063055 -1.9326566
0.23120242 -0.17513925 0.23740569 -0.07031185 0.20317027 -0.052898426 -0.01189994 0.11045089
-0.090427734 -0.27699924 0.11553122 -3.9473007 -0.08551495 -0.10454643 0.29993972 0.23572126
-1.6817155 -0.32184824 0.036724694 -0.40886304 0.02437514 -0.23442334 0.07599022 0.15501529
0.040531896 -0.4185356 -0.33596307 -0.06483209 -1.8585782 -1.5066558 0.059278022 0.022084111
-0.05928275 -0.18485004 -0.5271858 -0.054678164 0.09630688 0.27678394 0.32087085 0.38201776
2.197701 2.2288036 0.81629694 -0.14089678 0.08790934 -1.0217687 -0.0009664446 0.015390575
2.6033447 0.05970736 -0.090285614 -0.06708576 0.08922858 -0.080776274 0.18515234 0.32448372
0.1809081 -0.12945451 0.33167824 -5.1800566 0.03132625 0.04215554 0.15094255 -0.5739316
0.013026173 -0.22798105 0.15312573 0.120918356 -0.0007981823 0.4836025 -0.049647674 0.08060177
00000000: f831 16be 8f4f bb3f 4e63 cfbd 15ee 883f
00000010: 00da e13d 17cf a63d e843 1a3e 2a0e f83b
00000020: 0230 60c0 9beb 583e 6bbc d9bd 632e b63e
00000030: fe14 83bd d0ec cc3f 1eae 23be 9504 ec3d
00000040: 855e c9be f1d1 fc3e e35b 2e3f 6490 32be
00000050: e2bc 903f 09c0 183f 7537 b63d b16e 12bc
00000060: e4ef 09bd 5421 59bf ad90 e73e d21f 00bc
00000070: 9d74 dbbd 5133 e73f 06ca 28bd eabf a8be
00000080: 940f c9bf 0cbc 523f 1e86 df3f 876d 8d3f
00000090: 82d9 c73d 96bf 2c3f f659 a13d 9657 aabd
000000a0: 1285 bac0 20cd 803b b8e1 5dbe e673 c13d
000000b0: edb9 313e 9eb1 18bd 659e e0bd c246 c8bc
000000c0: a7fe a2bf 5a58 47be 185c 053e c5d5 983f
000000d0: 32af c2bd 9d56 b63d 4384 f63e 8b16 dd3f
000000e0: 0bb1 95be 17d7 dd3e 359e 85bf 0253 d23d
000000f0: 56f8 67be 7d56 983e c1e1 92bd b04b 7dbc
00000100: 83d4 053e b8a2 783f f8e5 393d 1dab a63f
00000110: e6e3 c3bd 4e2e 90bd 90c3 02be 311c 1e3d
00000120: d0cf 1540 e602 49bc d74e 84bd 4caa 593f
00000130: ec86 f53d 8573 8dbe 8436 113d 93ec 793e
00000140: 35a3 64bd 3fa4 1cbf 68b7 08bf 048e b9bd
00000150: faef 33c0 9821 b73f 08f7 6e3e 4f40 993d
00000160: cc76 193d dd8b a23d 3227 0abe 9cf8 363d
00000170: 6a0c 053e a5b6 8dc0 0f5b 70be d193 ad3d
00000180: 7128 123f faee 09c0 88c0 41c0 6b8e febf
00000190: e0fe 163c ccf7 133f b055 d5bd 52d4 bd3d
000001a0: 6119 7540 b618 a0bd 52c2 ad3d 005a ac3c
000001b0: b1fb a2be 6d27 79bd 89fe b6bd 24b2 c1be
000001c0: 5bd2 c33e 4c05 3f3e bd46 a93c 6c6c d13f
000001d0: 528c a43d bd9c b53c 33b6 1bbf 0ace 873f
000001e0: 8296 353d e5a8 86be d74c 233f da5a c6bd
000001f0: aa39 693d a78b 0bbf f49d 503d a445 30bd
00000200: 72bc 963c 5faf eabf 60bc c7bc 4d6e 0fbf
00000210: 00e5 c63b e34f febc 41eb 1abe a67d c0bd
00000220: 866f 0040 af88 f83e 9b93 893d 2de1 69bf
00000230: d8ca 9bbd d4ab 75c0 9a51 c13d 3bd3 c0be
00000240: 1882 c33d 4957 ee3e 4e3e 86be a8b9 4f3e
00000250: f3a6 113e e67e b2be f5a8 dcbe 4d30 663d
00000260: f0f2 99bd 6e45 b13f 934b b6bd 6351 993d
00000270: 7834 5ebd 78a9 0640 f286 3ebe 8145 b0bd
00000280: 6d79 86c0 ac57 2a3f 2d2d 3040 01a2 c6be
00000290: 9006 6e3c 5c09 c4be b037 b1bc 3c18 f7bd
000002a0: 2a95 12bf 9000 44bd 13ba 7f3e adf1 dd3d
000002b0: 43c3 893d 5e62 c8bd 0599 45bd 1710 1fbe
000002c0: 1e86 763f 7b6d 443d 9925 64be e76f 813e
000002d0: 247d 893d 25cc bc3d 1872 4dbe 4b61 f7bf
000002e0: 54c0 6c3e b457 33be 7a1a 733e a9ff 8fbd
000002f0: de0b 503e 05ac 58bd f7f7 42bc 1434 e23d
00000300: 2d32 b9bd d8d2 8dbe a29b ec3d 93a0 7cc0
00000310: 7622 afbd 701c d6bd b391 993e ea60 713e
00000320: 7442 d7bf 4bc9 a4be a26c 163d 7f56 d1be
00000330: 60ae c73c ac0c 70be c3a0 9b3d 54bc 1e3e
00000340: c604 263d 4c4a d6be 5a03 acbe b0c6 84bd
00000350: e4e5 edbf 19da c0bf 83cd 723d bde9 b43c
00000360: 78d2 72bd 5449 3dbe a6f5 06bf 36f6 5fbd
00000370: 8b3c c53d a0b6 8d3e 2f49 a43e d597 c33e
00000380: 22a7 0c40 b8a4 0e40 d6f8 503f 3f47 10be
00000390: d009 b43d 51c9 82bf 0059 7dba c028 7c3c
000003a0: 339d 2640 b48f 743d aae7 b8bd 4264 89bd
000003b0: 79bd b63d 086e a5bd 9398 3d3e bb22 a63e
000003c0: f93f 393e b98f 04be bbd1 a93e 06c3 a5c0
000003d0: f44f 003d 4aab 2c3d af90 1a3e 2eed 12bf
000003e0: bb6b 553c dd73 69be fecc 1c3e 0ba4 f73d
000003f0: 1b3d 51ba bf9a f73e 5c5b 4bbd 8a12 a53d

fc_2.bias f4 [4]
-0.21485856 0.02506588 0.09077518 0.17602605
00000000: e203 5cbe f656 cd3c 56e8 b93d 2c40 343e
