Additional stuff/segmentation_pointnet_dsfmeanp.pth (torch, 78978 bytes, 18 tensors)

base_pointnet.conv_1_a.weight f4 [64, 1, 3]
000000 34 cb 0c be 8a 6d ab 3e ab b1 15 bd d8 50 94 3d
       -0.13749391 0.3348201 -0.03654639 0.07241982
000010 63 d7 36 bc 4b 05 aa bd 50 07 8d 3e dd e1 6d 3e
       -0.011159751 -0.08301791 0.27544641 0.23230691
000020 92 90 4a 3e b3 02 c8 3e 7f 80 28 bf aa ab f8 3e
       0.19781712 0.3906456 -0.6582107 0.4856847
000030 9f 59 e4 3d 14 3e c2 3e 78 f4 b7 be 79 2d e8 be
       0.11149906 0.37937987 -0.35928702 -0.45347193
000040 29 58 bd 3e 15 3b ee bc 20 12 20 bc ef 02 f6 bb
       0.36981323 -0.029080907 -0.009769946 -0.007507674
000050 d0 93 0d bd dd c5 63 3e 12 24 03 bf dc b8 fc 3c
       -0.034564793 0.22243448 -0.51226914 0.030849867
000060 b9 21 28 3e 71 25 0d 3f 80 07 fe be 53 7c 87 3d
       0.16419114 0.55135256 -0.49615097 0.0661551
000070 55 b0 7f 3d 0c f0 e5 3d b9 06 07 bf fe 5f ae 3e
       0.062424023 0.11227426 -0.5274463 0.3405761
000080 93 0c ba 3e e7 ca d5 3e 76 65 66 3e a7 88 c0 3e
       0.36337718 0.41756365 0.22499642 0.37604257
000090 bf b4 7d be 9d 44 bd 3d c9 b9 e7 3d c8 b2 41 3d
       -0.2477598 0.092416026 0.113147326 0.04728964
0000a0 ca 39 cb be 33 43 cf 3e b5 f0 a5 3e 49 80 03 3f
       -0.39692527 0.40480956 0.32410207 0.5136762
0000b0 3c 77 9e 3e 56 9b 9d 3e 69 f0 50 be ed 5a 87 be
       0.30950344 0.30782574 -0.20404209 -0.26436558
0000c0 ed 00 8f 3e 59 f9 38 be ca c5 23 be c4 64 ac 3e
       0.27930394 -0.18063869 -0.1599342 0.33670628
0000d0 95 ac 20 be 95 56 05 be 84 70 09 bf 24 9d c1 3e
       -0.15690835 -0.1302131 -0.5368731 0.378152
0000e0 e6 64 85 be d0 f4 a5 be ac 6f a4 3e 23 53 d8 3c
       -0.26053542 -0.3241334 0.3211645 0.02640683
0000f0 5e 8f 19 be 06 ab ea 3e bc 78 bd bd 18 78 99 bc
       -0.14996096 0.45833606 -0.09251544 -0.018734023
000100 4a de a2 3e ea d9 3d be 90 e7 49 be 90 5e 3b 3e
       0.31810218 -0.18540159 -0.1971724 0.18297791
000110 1a ed 7c bd d7 1c 98 bd f7 34 01 bf 7f 5d e2 3e
       -0.061749555 -0.07427376 -0.5047144 0.44211957
000120 55 23 87 3e b8 22 cb 3e b9 d4 ad be f6 e5 eb be
       0.26394144 0.39674926 -0.33951357 -0.46073884
000130 91 cd ef 3e 8f e2 bd be a1 ba f1 3e 6b eb f3 be
       0.46836522 -0.37086913 0.472127 -0.47640547
000140 8e 1f 30 3e 34 fa 34 3e ab a0 53 bd 13 8f da 3c
       0.17199537 0.1767357 -0.051666897 0.026679551
000150 61 45 84 3e b2 84 2f bb 4f 0a ae 3d f8 36 80 3d
       0.25834182 -0.0026781973 0.0849806 0.062604845
000160 d5 88 83 be 60 af 30 bd cf 8f a5 3e a7 de 0d 3e
       -0.25690332 -0.043136 0.3233628 0.13854466
000170 2d 28 19 bf aa 4c 90 be 07 a2 2e bd c0 26 16 bf
       -0.5982693 -0.2818349 -0.04263499 -0.5865288
000180 c3 f7 24 3f 6e f7 4c 3e 76 20 12 3f ab 19 ef bd
       0.64440554 0.20016262 0.5708078 -0.11674818
000190 b4 71 00 bc 5b db 10 3e 46 67 62 be c1 46 e2 3d
       -0.007839609 0.14146177 -0.22109708 0.110486515
0001a0 14 cd ce 3d 03 51 c5 be 00 cb c8 3e 38 31 2b 3d
       0.10097709 -0.3853837 0.39217377 0.041794986
0001b0 a7 fb 49 be 49 e2 ef be 28 76 fe be 0b ae 52 3e
       -0.19724904 -0.4685233 -0.4969952 0.20574205
0001c0 a2 50 53 3e 61 fb ce bd 03 ff cb be dd fa 8a be
       0.20636228 -0.101065405 -0.39842996 -0.27144518
0001d0 d3 20 ce 3e 78 f4 37 3e 9d a7 e2 bd c2 0a ed be
       0.40259418 0.17964351 -0.11067126 -0.4629727
0001e0 64 d9 84 be 56 c9 97 3e 5e 90 60 be 53 ea bf be
       -0.25947106 0.29645795 -0.21930072 -0.37483463
0001f0 77 03 fd 3e 7f 1d 06 be 0d 3c 30 3e 52 53 4b be
       0.49416706 -0.1309719 0.17210408 -0.19856003
000200 cf e1 85 be 36 23 63 3e cc 6f 9a 3e 45 06 c9 be
       -0.2614884 0.221814 0.3016342 -0.39262596
000210 2f 1d be be e5 43 48 3e 21 39 18 3e 28 8d 50 be
       -0.3713164 0.1955715 0.14865543 -0.20366347
000220 3c f1 4e 3e 87 23 5a 39 39 87 bb 3e 7b a6 80 be
       0.20209211 0.00020803335 0.36626604 -0.25127015
000230 f9 86 09 3d 8a 29 d6 be 00 0b 34 3e ae ee 6e be
       0.033575986 -0.41828567 0.17582321 -0.23333237
000240 1b 56 96 be 80 35 af 3e 4a 63 c4 3d c0 06 cf 3e
       -0.29362568 0.34220505 0.095892504 0.40434837
000250 71 17 d9 be 51 f3 3b 3e 18 f7 a8 3d 00 b2 19 be
       -0.42400697 0.18354537 0.082502544 -0.15009308
000260 34 8f 0e be 22 b3 09 bf 08 c8 f4 be 6c c6 e4 bb
       -0.13921815 -0.5378896 -0.47808862 -0.0069816615
000270 57 e7 5b be 14 fa d0 bd 87 28 a0 3e 96 03 9c 3e
       -0.21474968 -0.102039486 0.3128092 0.30471486
000280 65 60 03 3f 3c d5 15 3f ce 7d 11 bf 6e 3e bd 3e
       0.5131896 0.58528495 -0.5683259 0.36961693
000290 37 15 9e be 29 13 b7 3e d2 8d c9 3e ed 89 0f bf
       -0.3087556 0.35756806 0.39366013 -0.56069833
0002a0 68 52 2c 3e d6 9e c1 be 9a b9 8b 3e b7 f8 b6 3e
       0.1682831 -0.37816495 0.2729004 0.3573663
0002b0 7f 06 d2 3e 1b 79 17 bf 3e d6 c8 3d 27 bf 35 bc
       0.4102058 -0.5916917 0.098064885 -0.011092938
0002c0 72 1b d6 bd 32 6a a3 bc e3 73 25 3e ed 40 9b 3d
       -0.104544535 -0.019948099 0.16157489 0.07580743
0002d0 73 c2 00 3f e6 aa 04 bf 36 7e 46 be 13 2f 11 bf
       0.50296706 -0.5182327 -0.19384083 -0.56712455
0002e0 9d a2 10 3f ac b2 73 bb b7 95 b9 3d 3c 4e 98 be
       0.5649813 -0.0037185354 0.09061759 -0.29747188
0002f0 ee 3d 4d 3e 02 5d b1 3e ed ad 83 3e 9e 9e e9 3e
       0.20043156 0.34641272 0.25718632 0.45628828

base_pointnet.conv_1_a.bias f4 [64]
000000 1e 92 88 3e fe ac 63 3d ea 76 13 bf 59 c1 2a 3d
       0.2667398 0.0555849 -0.57603323 0.041688297
000010 53 45 be 3d ad 84 d1 be 71 29 bc be 7c 43 a4 be
       0.09290566 -0.40921536 -0.36750367 -0.32082736
000020 b6 65 28 be 6c 10 35 be 52 a0 a3 be 65 2b a6 be
       -0.1644505 -0.17682046 -0.31958252 -0.32454982
000030 2f 5a 9d 3e d6 4b 60 be 41 d4 d2 be e4 fd b3 be
       0.30732867 -0.21903929 -0.41177562 -0.3515464
000040 81 6f fb 3e 2c 59 f0 3c 19 3d 9f bd de 5b e3 be
       0.49108508 0.029339395 -0.07775325 -0.44406027
000050 20 5d cd 3e 8f 47 a1 3e ca 2f 04 3f 4b 9a d0 3e
       0.4011011 0.31499907 0.5163542 0.40742716
000060 10 de b3 3e 32 b2 e3 3e dd be 96 be 48 be 95 bd
       0.35130358 0.4447189 -0.29442492 -0.07311684
000070 72 86 ce bd 18 02 50 3e 66 ae 55 be c7 13 b0 3e
       -0.10084237 0.20313299 -0.20867309 0.3439009
000080 be 97 0f 3f d7 a3 9f 3d 5e 86 88 3e 10 b8 a9 bc
       0.56090915 0.07794922 0.26665014 -0.02071765
000090 af ab cb 3e 58 96 30 3e ec 00 fd 3e d8 82 3b 3e
       0.39779422 0.17244852 0.49414766 0.18311632
0000a0 e4 b8 a0 be a3 20 e3 3e fc 1f 05 3f 03 37 1e be
       -0.3139106 0.44360837 0.5200193 -0.15450673
0000b0 30 e8 eb be 01 93 bc be b4 43 d5 3e 5a 56 e1 3d
       -0.46075583 -0.36830905 0.41653216 0.110027984
0000c0 80 40 e8 3e e8 32 d7 3e ff 11 04 bf 5d 2d 94 bc
       0.4536171 0.42031026 -0.5158996 -0.018088037
0000d0 c4 6f 39 3e 6e b4 9e be ab a3 00 bf 61 fd 73 be
       0.18109041 -0.30997032 -0.5024974 -0.23827125
0000e0 f7 92 0d bf ed 01 d9 bd 3a ae e1 3e f3 7a f5 3e
       -0.55302376 -0.105960704 0.44078237 0.47945365
0000f0 b4 d9 95 3e 0e 0c e6 3e ca 7e b8 3e 47 04 51 be
       0.29267657 0.44931072 0.36034232 -0.20411788

base_pointnet.conv_1_b.weight f4 [64, 1, 3]
000000 36 f8 d1 be 27 5b e5 3e 95 83 c0 3e f7 64 89 bf
       -0.41009682 0.44796106 0.3760039 -1.0733937
000010 b2 ce 60 bd 25 0f 0c be 3c ba 85 3e af db 4f 3e
       -0.05488462 -0.13677652 0.26118648 0.20298646
000020 35 ab 7c 3f a1 a8 39 bf 70 9f 1e 3e 64 f2 12 3f
       0.9869874 -0.7252293 0.15490508 0.5740111
000030 c1 47 a3 be 63 fe 43 be 51 2e 9e 3d b6 1d a1 3d
       -0.3189068 -0.1914001 0.07723678 0.07866995
000040 58 64 a6 bd 9f 21 27 3e 54 54 d1 be b3 eb 31 be
       -0.08124608 0.16321419 -0.4088465 -0.17375068
000050 ff 1a f6 be ac 66 bd 3e fb a2 06 be 89 31 c5 be
       -0.4806747 0.36992395 -0.1314811 -0.38514355
000060 df 5e 41 bc e5 0b 06 3f 75 94 44 3f f9 61 3d 3f
       -0.011802404 0.523619 0.7678903 0.7397762
000070 e3 9c 3f 3c 24 94 99 3d 21 cf a9 3e aa eb 12 3e
       0.01169512 0.07498959 0.3316584 0.14347711
000080 0d 02 90 bd b0 80 9f 3e 78 25 ad 3e bf 4c 3f bf
       -0.07031641 0.31152868 0.3381765 -0.7472648
000090 6f f9 d3 be f4 7a cf 3e 5e 8f 3b 3f 25 30 18 3c
       -0.4140124 0.40523493 0.73265636 0.009288822
0000a0 66 19 f2 3c b4 49 0f be d6 ce 39 3e 84 ab 58 3f
       0.029553127 -0.1399296 0.18145308 0.8463671
0000b0 c2 d0 46 be 17 ee b9 3e a1 93 31 3f f2 bc 8a 3e
       -0.19415572 0.3631446 0.6936589 0.2709728
0000c0 9e 3f 72 bf 59 39 a0 3a 55 4a a4 3f fe 98 25 3f
       -0.9462832 0.0012224122 1.2835184 0.6468657
0000d0 9a ad c9 3e fc ed 39 bf 07 35 26 bf 7a f8 94 be
       0.3939026 -0.7262876 -0.64924663 -0.29095823
0000e0 68 89 98 3f 0e d5 50 3e b5 84 7d 3e db a3 49 bf
       1.1916933 0.20393774 0.24757655 -0.7876565
0000f0 7b 0a 22 3f 85 65 e6 3e c2 1d af 3e 63 3a f0 3d
       0.6329724 0.44999328 0.3420239 0.117298864
000100 9e ed 89 bf 34 a8 06 bf ba 54 01 3f 27 26 37 3e
       -1.077564 -0.5260041 0.5051991 0.17885648
000110 45 61 20 bf 0e fa 49 bf 77 dc 27 3f 9f fd ca 3e
       -0.6264842 -0.7889718 0.6557078 0.39646623
000120 75 cd 07 bf af c5 74 3e a8 11 5e bf 7f cf 00 3f
       -0.5304788 0.23903535 -0.8674569 0.50316614
000130 15 47 cd 3e 0f 03 18 3f 5d 78 f5 be 0d b3 d1 3e
       0.40093294 0.5937967 -0.47943392 0.40956917
000140 e8 d6 ea bd fd d2 92 3f b7 ef 07 3f d5 38 bb be
       -0.11466771 1.1470639 0.5310015 -0.36566797
000150 8a 0c 6f be dc 3e 00 3e bf ad 80 3f a8 08 96 be
       -0.23344627 0.12523979 1.0053023 -0.2930348
000160 9d 80 18 3f e7 cb 06 3f ea ca c2 3d 45 02 0b bf
       0.5957125 0.5265488 0.09511359 -0.5430034
000170 84 90 94 3d f7 88 5c bf 7d 00 60 bf 76 06 33 bf
       0.07254127 -0.8614649 -0.87500745 -0.69931734
000180 7f 53 96 3d dc 74 16 3f 6c e6 14 3f a6 c9 27 bf
       0.07340144 0.58772063 0.58164096 -0.65542066
000190 86 43 8b bf 71 6e bd be fd b4 aa 3e ad 17 a7 3d
       -1.0879982 -0.36998323 0.33341208 0.08158813
0001a0 9b 92 be 3e 80 07 24 bf 73 f2 bb 3d 66 fc eb 3e
       0.37221226 -0.64073944 0.09177103 0.46091002
0001b0 fa 5e 12 bf 6b 2b 9f be 21 62 c5 be 83 6e 3b 3d
       -0.5717617 -0.31087813 -0.3855143 0.04575969
0001c0 51 c9 9f be da f4 ff be dc 48 2e 3e 05 ca bc be
       -0.3120828 -0.49991494 0.17019981 -0.3687288
0001d0 10 fb f6 3e 80 01 20 be 65 d1 86 3d 00 c1 5d be
       0.4823842 -0.15625572 0.065829076 -0.21655655
0001e0 23 aa 60 bd 28 31 ba 3d 8d 58 1f bf a6 7f b6 bd
       -0.054849755 0.09091407 -0.6224449 -0.08911066
0001f0 43 ef 19 bf ee 30 31 3f 5e c0 53 3f 23 ae 45 3f
       -0.6013071 0.69215286 0.82715404 0.77218837
000200 01 dc 30 3f f0 ac 21 3e fb 4e 9d 3e 96 b5 1e bf
       0.690857 0.15788627 0.3072432 -0.6199583
000210 7c 0e ae 3e b5 f4 03 bf ba 85 de be f2 ce c6 3e
       0.33995426 -0.5154527 -0.434614 0.38829762
000220 84 fc ba be 62 9a 15 3f b9 ff 78 3e 6b ec 25 3d
       -0.3652078 0.58438694 0.243163 0.04050867
000230 9b 79 aa be c1 cd 9d 3f 69 92 49 3f 3c c7 2a 3f
       -0.33295903 1.2328416 0.7873903 0.6671026
000240 16 fc a6 3e 26 5b 3d 3f f8 89 45 3f 73 0d 14 bf
       0.326142 0.73967206 0.7716365 -0.5783302
000250 36 de e8 3c fd d3 4d bf 96 e8 6d 3f 06 3b aa be
       0.028426271 -0.80401593 0.9293302 -0.33248156
000260 3c 84 26 3e 44 9d 2c be 10 ef 80 3e 61 62 fb 3c
       0.16261381 -0.16856867 0.2518239 0.03068656
000270 3c 61 d4 be 0d 9f 39 bf a2 a4 1d 3e 90 cf 0e 3f
       -0.41480434 -0.7250832 0.15394834 0.55785465
000280 16 32 11 3e f4 f9 20 bf 86 e9 9f 3b 35 8f 0b bf
       0.14179263 -0.628814 0.004880133 -0.5451539
000290 fd b6 01 3f 85 90 3b bf 18 7b 83 bf ad 99 a8 bf
       0.5066984 -0.73267394 -1.027194 -1.3171898
0002a0 f4 40 aa be 60 90 77 be 60 d9 17 bf 1b a9 55 3f
       -0.3325268 -0.24176168 -0.5931606 0.8346116
0002b0 99 2c 29 3f 91 05 53 3f 93 44 2f 3f 01 06 68 3e
       0.66083676 0.8243037 0.6846401 0.2265854
0002c0 05 34 c9 3e d9 03 5b 3f 10 3b a4 be 8a 90 3b 3f
       0.392975 0.85552746 -0.3207631 0.73267424
0002d0 99 7c 9a 3e fc ef 42 3f f4 fc 14 bf 5d 3f bc 3d
       0.30173185 0.7614744 -0.58198476 0.09191773
0002e0 e1 2e a9 be 5c df 02 be 30 d4 55 bf 19 d5 82 be
       -0.33043578 -0.12780517 -0.835269 -0.25553206
0002f0 5f e8 43 3f b2 d8 c8 bd 86 af 49 be 72 6b d6 be
       0.76526445 -0.09806956 -0.19695863 -0.4187885

base_pointnet.conv_1_b.bias f4 [64]
000000 c8 2e da 3e 1d 33 c3 3d e7 11 9b bd 93 83 c6 be
       0.42613816 0.095312335 -0.07571774 -0.38772258
000010 68 fe 80 be ad 40 cf 3e 5f cb 93 3e 29 82 f6 3e
       -0.25194097 0.4047903 0.28866097 0.4814618
000020 73 87 8f 3e ae f6 cf be ff 6c a6 3e 78 05 cd be
       0.28033027 -0.4061789 0.32505032 -0.40043235
000030 ad 03 ed be 21 9c 80 be 55 6b 90 be e6 9e 04 3e
       -0.46291867 -0.25119117 -0.28206888 0.1295124
000040 1f da 03 3f 75 d0 12 3f 13 1f c2 be 5a 6e 05 bf
       0.515047 0.5734933 -0.37914333 -0.5212151
000050 45 e8 e8 be 9c 09 04 3f 3d 4b a5 3e 3e 32 64 be
       -0.45489708 0.5157716 0.32283965 -0.22284791
000060 4e ca 3f bd 12 f4 0d bf 4b d9 3f 3e e4 92 b0 3e
       -0.046823792 -0.55450547 0.18735234 0.3448707
000070 8a 4b fe 3d 7c 04 48 3e f1 38 6c be 4d 69 e8 be
       0.12416752 0.1953296 -0.23068596 -0.45392838
000080 57 50 eb 3e 75 c9 8b 3e 9b f8 cd be f9 f6 f8 bd
       0.45959732 0.27302137 -0.40228733 -0.12156481
000090 42 82 fb be 5b 74 9f 3e 2c 62 7f be 3c 92 f5 be
       -0.49122816 0.3114346 -0.24939793 -0.4796313
0000a0 ad 3b 71 3c e1 d1 c5 be b1 dc a9 3e 7d 55 d7 3e
       0.0147237005 -0.38636687 0.33176187 0.4205741
0000b0 26 b4 8b bd 2d 52 f1 be db 51 eb 3e 10 cf d5 be
       -0.0682147 -0.47133008 0.45960888 -0.4175954
0000c0 be 0d 68 bd 52 da e9 3d d7 8e a7 3e 61 fa 54 3d
       -0.05665373 0.114185944 0.32726166 0.051996592
0000d0 4b 5c 0d bf c3 21 8b 3e 92 27 cd 3e b9 9e ab be
       -0.5521895 0.27174196 0.40069252 -0.33519533
0000e0 af ae 00 be 18 60 a9 be 9c ec 58 be 3e 8a ed be
       -0.12566637 -0.33081126 -0.2118401 -0.46394533
0000f0 f0 e8 31 be df 28 de bd 64 87 10 be 22 f0 ae be
       -0.17374015 -0.10847639 -0.14114147 -0.34167582

base_pointnet.conv_2.weight f4 [64, 64, 3]
000000 88 fb ac bc ec 4c f9 3d e6 2c b0 bc 54 eb 3a bd
       -0.021116033 0.12172875 -0.021505784 -0.045634583
000010 c6 d4 53 bd 9a 6e 9f bd 21 19 65 3d 98 95 6a 3d
       -0.05171659 -0.077847674 0.055932168 0.05727157
000020 c3 6e 8e bd 3e dd 8d bc 13 81 df 3d b1 e9 81 3c
       -0.0695472 -0.01731741 0.10913291 0.015858503
000030 31 85 ae bc 8d 25 50 bd 9a 9d a0 3c 3a b3 ac 3c
       -0.021303745 -0.05081706 0.0196064 0.021081556
000040 ed 93 ed 3d c3 a8 2f bc 7d 1e d8 bd 4c 03 11 bd
       0.1160048 -0.010721388 -0.1055269 -0.035403535
000050 4b 2a 94 bd 13 dd 61 bd 4c 90 0a bc eb 9f e6 3d
       -0.07234629 -0.055142473 -0.008457255 0.11260971
000060 a4 95 18 bd 22 05 8b bd 2f 55 32 bc be 66 3a bd
       -0.037252083 -0.067880884 -0.010884567 -0.04550814
000070 16 b3 98 3d db 2a 9d bd b5 81 83 bc b5 53 f0 3c
       0.07456033 -0.0767419 -0.01605306 0.02933679
000080 9a 82 3f 3d 2a 7a 0e bc 82 2a 23 bc c6 1a e7 bc
       0.04675541 -0.008696118 -0.009958865 -0.028211009
000090 78 43 3e be 46 fd 61 3c 69 08 55 3d 2f 5c 58 3d
       -0.18580425 0.013793295 0.052009974 0.052822288
0000a0 2c 9e 6b 3d fe aa f9 3d 06 20 a7 bc 40 a1 3f 3d
       0.05752389 0.12190817 -0.020401012 0.04678464
0000b0 3a 9e e3 3c ef 3c 36 bd 89 7a 60 bd 8d ea 55 3d
       0.02778541 -0.044491705 -0.05480436 0.05222564
0000c0 7c 8c aa 3d 5a a6 d1 3c 4b 51 89 3d 62 ff 02 3e
       0.083275765 0.025592018 0.067049585 0.12792733
0000d0 39 76 53 3d ab f7 14 bd 8a 19 28 3e ba 80 bb 3d
       0.051626418 -0.036369007 0.16415992 0.09155412
0000e0 2f 73 13 3c 9c 3b 40 3d 52 4a d0 3d 9c c5 10 3e
       0.00899963 0.046931848 0.101704255 0.14137882
0000f0 90 df fc bc 5a 68 80 bd 00 f8 bb bc 59 5a 23 3d
       -0.030868322 -0.062699035 -0.022945404 0.039881084
000100 8d b6 2f bc 82 fc 5e bd 80 b7 e5 bd 34 fe d3 ba
       -0.010724676 -0.05444003 -0.112166405 -0.0016173781
000110 a3 e7 11 be 2d 29 58 be 35 7b 85 bd 3f 42 83 be
       -0.14248519 -0.21109457 -0.065176405 -0.2563648
000120 eb e3 ac 3d 98 53 89 3d a8 af c8 3c ae d1 93 3c
       0.084419094 0.06705397 0.024497822 0.018044319
000130 5d db a5 bd f6 76 64 bb 1a b6 37 3d b8 67 e5 bc
       -0.08098481 -0.0034860945 0.0448514 -0.028003559
000140 65 3d ed 3c e4 1f 72 3d b8 a8 27 bd e6 de 14 3d
       0.02895994 0.059112445 -0.040932387 0.036345385
000150 83 61 15 bd f0 38 83 3d 2c 57 20 bd 1d 81 97 3b
       -0.036469948 0.06407344 -0.039145634 0.004623546
000160 ad 81 dc 3c 4a d9 f4 3d f1 85 fb 3d 4d 6e 80 3d
       0.026917303 0.11955507 0.12281407 0.06271038
000170 0b 00 01 3e b6 f0 1a 3d b9 55 f2 3d 71 19 79 3d
       0.12597673 0.037827216 0.118327565 0.06081528
000180 2f 2e 6a bc 50 aa f6 ba 93 cd 34 3d df 79 c5 3d
       -0.014293238 -0.0018819068 0.044141363 0.09642386
000190 a8 53 f7 bb 1b 0e e7 3d 08 4b 65 3d cf 90 bd 3c
       -0.0075478144 0.11281987 0.05597976 0.02314034
0001a0 7d 83 48 bc 95 eb e6 3d 6b 6c ff 3d 3c 57 2c 3d
       -0.0122383805 0.112754025 0.12471851 0.04207538
0001b0 e6 3e 6e 3d c8 6b ac bb c8 ba 02 bd c7 4c 99 3d
       0.058165453 -0.005261872 -0.03191641 0.07485347
0001c0 17 87 ce bc c5 15 e1 bc 3c 00 b9 3c 2b 89 ce bb
       -0.0252109 -0.0274762 0.02258312 -0.006302973
0001d0 fb c8 2d 3e cc 95 ec 3c d7 a2 4a 3c e0 ca dc bd
       0.16971199 0.028880022 0.012367926 -0.10780883
0001e0 e8 6d 75 3d f9 32 38 3d 72 39 5e 3d 60 97 44 bb
       0.059919268 0.044970486 0.054254003 -0.0029997453
0001f0 4a 9b 30 be a8 fc 89 bd 32 1f e7 bd 6e 23 00 be
       -0.17246738 -0.067376435 -0.11285247 -0.12513515
000200 6e 92 c1 bc c7 37 1a 3b 79 19 42 bd 87 c0 66 bd
       -0.023629393 0.002353178 -0.047387574 -0.056335952
000210 71 c6 7c bd dd 61 0d bb 4b c8 4a be a3 14 01 3d
       -0.061712686 -0.0021573224 -0.19802968 0.03151382
000220 f7 38 89 bd 3c 58 b6 3d 63 8d 4f bd 1c 3d 5e 3d
       -0.06700318 0.08903548 -0.050671946 0.054257497
000230 cb cb 54 3d 0b 8e f6 bd 68 38 73 bd e8 7f 80 3d
       0.051952165 -0.12038811 -0.059379965 0.06274396
000240 31 6a 9a bc 21 73 d5 ba 75 e4 f1 bc 36 a0 cd bb
       -0.018849464 -0.0016284921 -0.029527882 -0.006275202
000250 98 4d 78 bd b4 7a 7f bc 59 3a c5 bd e5 7e e8 bc
       -0.060620874 -0.01559322 -0.096302696 -0.02838082
000260 12 e8 04 bc 05 cc 09 3c ea 94 e5 3c 92 67 a2 bc
       -0.0081119705 0.008410458 0.02802511 -0.019824777
000270 d0 30 e6 bd 7d 65 e2 bd 54 80 8d bd 56 8b 25 bd
       -0.11239779 -0.110545136 -0.06909242 -0.040416084
000280 1b 88 44 bd 6c d3 90 bd e8 fa cd bb d0 94 03 bd
       -0.047981363 -0.070715755 -0.006286014 -0.03212434
000290 86 7b 86 bc 2d a2 79 bd 1a 5c c5 bd 74 35 7d bd
       -0.016416322 -0.06094568 -0.096367076 -0.061818555
0002a0 6d bb b5 3d 94 16 99 3c 29 ee 00 3e c4 81 33 bc
       0.08873639 0.018687524 0.12590851 -0.0109562315
0002b0 30 a3 94 bd fd ba 0c 3d ce 80 13 be c3 67 f9 3c
       -0.07257688 0.034358013 -0.14404604 0.030444985
0002c0 a6 14 e1 3d b2 df e5 3c e6 01 3f bd a2 56 2f bc
       0.109902665 0.028060768 -0.04663267 -0.010701807
0002d0 e7 67 93 3c c1 2e 60 bd 66 d8 a5 bd cd 76 b7 3d
       0.01799388 -0.054732088 -0.08097915 0.08958206
0002e0 95 ad ae 3d 99 7e 7e 3d 63 74 39 be 16 ef 11 be
       0.08529202 0.06213245 -0.18110804 -0.1425136
0002f0 1e d0 16 be ed 51 08 3b 44 10 b4 ba f6 5b 12 3c
       -0.14727828 0.0020800785 -0.0013737758 0.008933058
000300 84 f7 ff ba ca f4 b0 bc 72 6e 2d 3d 25 91 47 3d
       -0.0019528721 -0.0216011 0.042341657 0.048722405
000310 36 80 66 3c 5a e2 95 bc 0e 13 88 3d a9 1f 92 bd
       0.014068654 -0.01829641 0.066442594 -0.07134945
000320 e8 62 4c 3d cc cb a5 3c 13 1f ab 3c 11 bc d3 39
       0.04989901 0.02023878 0.02088884 0.00040385177
000330 4f cd 4c bd 86 b2 3a be 14 ac 19 be ed 7d 99 bd
       -0.050000485 -0.18232164 -0.15007049 -0.074947216
000340 00 5e 33 be 78 d3 bc bd ab 79 99 bd 9c 61 0a bc
       -0.17516327 -0.09220022 -0.074939094 -0.008446123
000350 48 fa 58 bd fe a6 c9 3d fd b5 ab 39 74 e6 d9 3b
       -0.05297306 0.09846304 0.00032751253 0.0066497866
000360 3a ca 92 bd 40 20 fb bd c3 a9 db bd d1 5d b1 3a
       -0.07167478 -0.122620106 -0.10725739 0.0013531988
000370 3b a8 f2 bc f3 a4 05 bd 12 fd 8a 3d 72 fa e4 bc
       -0.029621234 -0.03262801 0.067865506 -0.027951453
000380 21 1f 0d 3d 94 fd f8 bc 85 b9 1a bc 0b aa e2 3a
       0.034453515 -0.030394353 -0.009443645 0.0017293108
000390 d8 a1 97 bd c4 6e 1c ba bc d1 44 bd 5b 7b d2 ba
       -0.07403916 -0.0005967433 -0.04805158 -0.0016058491
0003a0 00 d5 cf 3d 8c 1a 2c bd 0f 18 a7 3c 24 6d 26 bd
       0.101480484 -0.042017505 0.020397214 -0.04063143
0003b0 f8 f6 b9 bc c6 d8 72 bb e5 30 e1 bd 53 2a 44 3d
       -0.022700772 -0.0037055477 -0.10995654 0.047891926
0003c0 86 9c 66 3d 2f 6b 9c 3c 32 d4 c1 39 0a 6b 53 bd
       0.056301616 0.019094078 0.00036969926 -0.051615752
0003d0 91 27 ac bd 6d 63 c5 3a 35 a4 6f 3d d1 84 a4 3d
       -0.08405984 0.0015059538 0.05850621 0.08033145
0003e0 a8 c7 38 bc c6 1f 50 bd 41 8a 98 bd 1d 5e 40 bd
       -0.0112780705 -0.05081155 -0.07448245 -0.046964753
0003f0 e0 4a 9a bd cd dc 90 bd f7 c0 b1 bc 7f 80 15 bd
       -0.075338125 -0.070733644 -0.021698458 -0.036499497

base_pointnet.conv_2.bias f4 [64]
000000 11 5b 49 3c 9d 7a 15 bd 96 63 13 3d 96 18 20 3c
       0.012289778 -0.036493886 0.035983644 0.009771487
000010 2d ab 99 3c 7f 4d 97 3d d0 2f 05 bd 3b 35 a9 3b
       0.01875838 0.07387828 -0.0325163 0.0051638163
000020 74 25 27 3b d3 c3 b8 bc a8 12 2d bd 1d 47 bf 3b
       0.0025504502 -0.022554314 -0.04225412 0.005837335
000030 ef 0e 84 3d 4c 13 52 3d 58 5b b0 bb 7b d8 8e 3c
       0.06448161 0.051287934 -0.005381983 0.01743721
000040 48 4e 15 be 50 74 94 3d 8d 26 18 3d d2 74 92 3d
       -0.14580643 0.07248747 0.03714614 0.07151188
000050 92 09 83 3d 86 a4 96 3d 28 b8 05 3e 2d 03 67 3c
       0.0639831 0.07355599 0.13058531 0.014099878
000060 ed 5f c3 3d cd 0f 36 bd fe b3 ba bd 2e 5d 16 bd
       0.09539781 -0.044448663 -0.09116362 -0.036709957
000070 db eb 9d 3d b0 6c 9e 3c bb 6a b2 3d c1 3d 8b bb
       0.077110015 0.019338936 0.087117635 -0.004249305
000080 dd bf 6c 3c 61 16 88 3d c6 c6 86 3d c2 d8 77 bb
       0.014450041 0.066448934 0.06580882 -0.0037818407
000090 60 e7 0c 3d 97 ff c1 bc d1 8c 75 3c fb bf 87 bd
       0.034400344 -0.023681445 0.0149871865 -0.06628414
0000a0 4d 19 21 bc 3c 13 68 bd a0 95 85 3c 7e 5e 7e bd
       -0.009832692 -0.05665897 0.016306698 -0.062101834
0000b0 4a 54 94 3d 7b 31 91 3d c4 2b aa 3d d5 9b 1e 3d
       0.07242639 0.07089516 0.08309129 0.03872283
0000c0 d6 f0 19 bd 9b 81 2f 3d 02 2b c3 bd f5 6c c2 3d
       -0.037583195 0.04284821 -0.095296875 0.09493438
0000d0 d8 55 49 bd 2a 89 81 bc 34 ce 44 3b 19 44 8d 3d
       -0.049154133 -0.015812475 0.0030030133 0.06897754
0000e0 fe 17 a8 3c 03 26 36 3d 85 f1 86 3d fe 33 0a 3d
       0.020519253 0.044469845 0.06589035 0.03374099
0000f0 f1 9c f9 3b ac 09 2a bd ea ed 70 3d 56 15 cb bc
       0.007617586 -0.04151313 0.058820643 -0.024790447

base_pointnet.bn_1.weight f4 [64]
000000 bb 69 6e 3f 15 d7 87 3f 46 ca 5b 3f 6c 2c 6e 3f
       0.9313008 1.0612513 0.8585552 0.9303653
000010 ab 84 6d 3f f5 9c 8f 3f dc 6f 73 3f 84 cc 51 3f
       0.9278056 1.1219774 0.9509256 0.8195269
000020 59 d5 6e 3f dd 5d 69 3f 46 b3 6e 3f 2f 56 60 3f
       0.9329429 0.9115885 0.932423 0.87631506
000030 96 c8 92 3f b2 0e 73 3f de 22 54 3f 33 45 82 3f
       1.1467464 0.949443 0.82865703 1.0177368
000040 5c 3c 8f 3f 37 c2 80 3f 51 a9 7b 3f cb e4 9e 3f
       1.1190295 1.005927 0.9830523 1.2413572
000050 4c d9 66 3f 35 bd 84 3f 91 c0 84 3f 67 ab 97 3f
       0.9017532 1.0370241 1.0371267 1.1849183
000060 88 8f 69 3f 80 f3 67 3f 70 62 78 3f d3 d2 55 3f
       0.91234636 0.90605927 0.97025204 0.8352482
000070 8d 57 59 3f 3a 6b 6f 3f 39 ef 82 3f 15 7e 5c 3f
       0.84899217 0.9352299 1.0229255 0.86129886
000080 72 28 69 3f 95 25 88 3f 20 12 82 3f a8 a5 86 3f
       0.9107734 1.0636469 1.0161781 1.0519304
000090 68 f5 5f 3f 33 67 56 3f 2f 0a 82 3f af f9 68 3f
       0.87483835 0.8375122 1.0159358 0.91005987
0000a0 af a8 68 3f 26 bd 93 3f 19 02 81 3f 08 b5 65 3f
       0.9088239 1.1542099 1.0078765 0.89729357
0000b0 bd b1 a6 3f 4b 0c 80 3f d6 41 5e 3f 51 a5 64 3f
       1.3022991 1.0003752 0.8681921 0.8931475
0000c0 1e 87 71 3f 48 4a 73 3f 81 d0 65 3f c4 97 6c 3f
       0.943468 0.9503522 0.89771277 0.92419076
0000d0 44 92 a5 3f f5 3c 5f 3f 80 a6 71 3f b9 6f 84 3f
       1.2935262 0.8720239 0.94394684 1.0346595
0000e0 cd 3f 8e 3f 44 12 7a 3f 8c 3c 89 3f 13 9b 44 3f
       1.111322 0.9768412 1.0721602 0.76799124
0000f0 63 50 6d 3f 4f 96 87 3f e0 b2 9a 3f 3f c1 5e 3f
       0.92700785 1.0592746 1.2085838 0.8701362

base_pointnet.bn_1.bias f4 [64]
000000 2b 46 f1 3c 0a 1d 39 3d b8 95 96 bd 87 9c c7 bd
       0.029452404 0.04519371 -0.07352775 -0.09746652
000010 43 3f 7c be 12 fd 2f bc d7 66 37 3d 99 8b 31 bc
       -0.24633507 -0.010741489 0.04477581 -0.010836505
000020 e1 07 3e 3d 4e b8 80 bd 2e 73 a8 bc 53 00 76 be
       0.046394233 -0.06285153 -0.020562734 -0.24023561
000030 d5 a7 7e bd b0 73 52 bd 69 be 6c bc 3a a6 6f 3d
       -0.062171776 -0.05137986 -0.014449694 0.058508135
000040 3f 06 b0 3d 73 95 ae 3e de bc f6 bd 86 bd 24 be
       0.08594941 0.34098396 -0.12047742 -0.16087922
000050 78 b7 8a bb 7f a5 61 3d d0 a8 0c be 08 0b 3f be
       -0.004233297 0.05508947 -0.13736272 -0.18656552
000060 3b b8 1e bd bb 7c e7 be b9 bb 58 3c 1c 18 81 be
       -0.038749915 -0.4521235 0.01322835 -0.25213706
000070 29 4c 86 be 4c 1b 6e 3b fe 6c b4 3b ca 6b 2d bd
       -0.2622998 0.0036332188 0.005506157 -0.042339124
000080 cd 6a de 3d 7a 09 fa be 10 4e c0 bd 71 74 24 be
       0.108602144 -0.48835355 -0.09389889 -0.16060044
000090 40 57 86 bc 7e 77 98 be 8c 53 c4 bd 5d d2 e1 bd
       -0.016399026 -0.29778665 -0.09586248 -0.11026452
0000a0 41 ac 2b 3d a6 b3 22 be f9 e9 24 be 2c 57 0c 3e
       0.04191232 -0.15888843 -0.16104878 0.13705128
0000b0 25 cd 90 be 7e ed 5a bd 87 68 24 be 3c 96 b8 bd
       -0.28281513 -0.053449146 -0.16055499 -0.0901303
0000c0 0a 4d 21 bd 13 ec e9 3d ef 95 bc bd 61 a8 76 bd
       -0.03938011 0.11421981 -0.09208285 -0.060219172
0000d0 3b 38 d1 bc 70 bd 03 be 72 47 42 3d 08 c8 e7 3d
       -0.025539508 -0.12865233 0.047431417 0.1131745
0000e0 32 b8 a7 3e a2 a2 31 3d fb a8 fb 3d 78 9a 5c be
       0.32757717 0.04336799 0.1228809 -0.215433
0000f0 82 28 be 3d d2 03 fc bd ca 87 9c 3d f0 a6 91 be
       0.0928507 -0.12305416 0.07643087 -0.28447676

base_pointnet.bn_1.running_mean f4 [64]
000000 8e 9a d7 40 58 0f 34 c0 97 24 ca 41 ce 1f dc 40
       6.7376165 -2.8134365 25.267866 6.8788824
000010 7d cc 5b 40 09 22 5d c0 4f f9 6b c0 12 7a 0a c1
       3.434356 -3.4552023 -3.6870916 -8.654802
000020 c6 5b 1a 41 9a 9a 0d 41 d4 da d1 40 06 26 03 42
       9.647406 8.8502445 6.5579624 32.787132
000030 57 37 8a be 33 e9 96 3f 1e e3 1a 42 08 c2 4a c0
       -0.26995346 1.1789917 38.721794 -3.1680927
000040 8b 3b d2 be f8 63 33 40 82 33 5e c1 64 96 48 bf
       -0.41061053 2.8029766 -13.887575 -0.7835448
000050 6b e8 19 41 5b 92 fa 3f ab b4 c8 bf 3c 2b 77 c0
       9.619243 1.9575914 -1.5680135 -3.8620138
000060 32 ea 0d 41 1c 6c 17 c1 12 8b a3 40 66 63 f4 40
       8.869677 -9.463894 5.1107264 7.6371336
000070 ac 2d 4e 41 9c 38 bf c0 6c 54 b3 c0 e0 47 0a c2
       12.88615 -5.9756603 -5.6040554 -34.57019
000080 a5 26 48 42 e3 fb 36 c0 0f 55 73 3f aa 84 a7 3f
       50.03774 -2.859124 0.95051664 1.3087361
000090 ca 2f 23 c2 69 95 16 41 f5 94 01 c1 3d 22 5e c1
       -40.79667 9.411477 -8.098866 -13.883359
0000a0 8b 4a ec c0 8f 4b a5 be 2d 89 92 c0 2c 5f 8a 40
       -7.3840995 -0.3228421 -4.579245 4.3241177
0000b0 32 3e 20 c0 54 3d 4b 3e 4f 92 b7 40 e8 ec 33 c1
       -2.503796 0.19847614 5.73661 -11.245338
0000c0 21 26 07 41 85 59 64 40 7a 89 b5 c0 f5 55 06 c2
       8.446809 3.5679638 -5.673032 -33.583942
0000d0 0c 54 10 c0 e8 ec 39 42 95 75 87 c1 12 d8 82 3e
       -2.2551298 46.481354 -16.932413 0.25555474
0000e0 b5 26 2b bf a3 03 18 41 82 a7 fb 3f 39 70 17 41
       -0.6685594 9.500888 1.9660494 9.464898
0000f0 ca ad be c0 7b e0 00 bf e3 9b 13 bf 6a e2 04 42
       -5.9587145 -0.5034253 -0.5765974 33.221107

base_pointnet.bn_1.running_var f4 [64]
000000 15 21 f3 41 da db f4 40 69 08 4b 43 7a 66 c3 42
       30.391153 7.6518373 203.03285 97.70015
000010 e4 23 5e 42 3e 43 52 42 bb c4 97 40 0e 9b 89 42
       55.53505 52.565666 4.742765 68.80284
000020 28 1e 00 43 84 8f da 41 69 01 05 43 54 5b b0 43
       128.1178 27.320076 133.00551 352.7135
000030 5d 12 b5 41 fd 1d 34 42 df f3 f8 43 6e 95 53 42
       22.633966 45.029285 497.90524 52.895927
000040 4d f3 f2 41 f8 8e 16 42 45 35 cf 42 db a2 03 42
       30.3688 37.639618 103.60404 32.90904
000050 52 b2 75 42 ac 94 c1 41 e1 f3 2a 41 c8 27 a7 42
       61.42414 24.197594 10.684541 83.5777
000060 19 a0 c7 42 a2 54 a2 42 94 46 76 42 a1 27 b5 41
       99.81269 81.1653 61.568924 22.64435
000070 62 ff 4f 42 e1 5e ca 41 91 da f5 42 34 0b b7 43
       51.999397 25.296328 122.92689 366.08752
000080 2f 57 35 44 b3 74 81 41 ee 2a 8a 41 f4 db 51 42
       725.36224 16.181982 17.270962 52.464798
000090 e1 91 04 44 4d be 37 42 b3 3a eb 42 ab 5e dd 42
       530.27936 45.93584 117.61465 110.6849
0000a0 ae 44 01 42 c6 50 48 42 4b 5c 3b 42 3d c5 8e 42
       32.31707 50.07888 46.84013 71.38523
0000b0 d1 7d 24 42 e3 17 57 41 8c e7 0c 42 94 af 8c 42
       41.122868 13.443332 35.22612 70.342926
0000c0 23 6f 77 42 30 3b 3e 42 75 54 a8 41 dc 12 cc 43
       61.858532 47.5578 21.041239 408.14734
0000d0 db d0 22 42 f9 07 2f 44 d6 4a 00 43 27 34 1b 43
       40.70396 700.1246 128.29233 155.20372
0000e0 25 28 e7 41 52 ea 2a 43 e6 c7 f9 40 de 7e f9 41
       28.894602 170.91531 7.8056517 31.186947
0000f0 00 ad eb 42 34 59 bd 42 63 fb 9a 41 dc d7 b5 43
       117.83789 94.674225 19.372747 363.6864

base_pointnet.bn_2.weight f4 [64]
000000 28 e5 d4 3f a9 1d e1 3f 75 7f d4 3f 96 ac cd 3f
       1.6632433 1.7587177 1.6601397 1.6068294
000010 df 14 c6 3f b2 23 bc 3f 46 94 c0 3f df bc c3 3f
       1.5475119 1.4698393 1.504525 1.5292014
000020 9a 12 ea 3f 3e a8 cb 3f 2f be bb 3f 41 1b e8 3f
       1.8286927 1.5910718 1.4667414 1.8133317
000030 e5 ef c5 3f b3 09 b3 3f b7 6a e2 3f d2 c2 cd 3f
       1.5463835 1.3987335 1.7688817 1.607508
000040 b0 f7 cb 3f 4a ed f6 3f 59 2f 03 40 d4 d1 c6 3f
       1.5934963 1.9291165 2.0497649 1.5532784
000050 85 c9 b8 3f 41 d1 dc 3f 6c 4b db 3f ad 26 f3 3f
       1.4436499 1.7251359 1.7132392 1.8996178
000060 a4 f2 09 40 88 cc fe 3f f6 4a b8 3f bf db fe 3f
       2.1554346 1.9906168 1.4397876 1.9910811
000070 c1 7b c3 3f 6e d5 cd 3f f4 8a da 3f 63 d6 a6 3f
       1.5272142 1.6080759 1.7073655 1.3034176
000080 2f 7e c6 3f 3f 6a c8 3f f8 86 e9 3f 76 cd e0 3f
       1.5507258 1.5657424 1.8244314 1.7562702
000090 ca 2b af 3f d4 c1 d2 3f 3e e6 b7 3f 35 cb cd 3f
       1.3685238 1.6465402 1.4367139 1.6077639
0000a0 3f c2 b8 3f ce 8a ad 3f 5d d5 b1 3f e3 89 a7 3f
       1.4434279 1.3557985 1.3893238 1.3088955
0000b0 1d f6 9b 3f 8f ca bc 3f 42 29 b9 3f f6 90 e4 3f
       1.2184483 1.4749316 1.4465716 1.7856739
0000c0 79 c2 04 40 41 7e b8 3f 72 fc a9 3f ad bd d5 3f
       2.0743697 1.441353 1.3280165 1.669851
0000d0 3e 63 c4 3f ba 2e d6 3f 3f cc e5 3f 92 ec e7 3f
       1.5342786 1.673301 1.7952956 1.811907
0000e0 a1 b7 15 40 46 21 ae 3f ca 29 a2 3f ff 53 ab 3f
       2.3393328 1.3603904 1.2669003 1.3385009
0000f0 70 8d d3 3f ed 5e e5 3f ba c2 03 40 f0 21 2b 40
       1.6527538 1.7919594 2.0587602 2.6739464

base_pointnet.bn_2.bias f4 [64]
000000 82 28 99 3e 6e 88 fe 3d be d0 05 3e ac 39 06 3e
       0.29913718 0.12428366 0.1306791 0.13107938
000010 e9 23 3c 3d f4 a8 2f 3e b6 93 9f 3e f2 25 9f 3e
       0.045932684 0.17154294 0.31167382 0.31083637
000020 89 4f 77 3e f6 10 10 3e 7f 09 31 3e fb 40 0e 3e
       0.24151434 0.1406897 0.17288779 0.13891976
000030 ca 1c ab 3d a5 e1 33 3e fd 8c 27 3e 31 38 66 3e
       0.083551005 0.17566545 0.16362377 0.22482373
000040 b1 c1 b9 3d 91 30 79 bc 4c ca 03 be ef 5d 3d 3e
       0.09070147 -0.015209333 -0.12870139 0.18492864
000050 dd 5b 01 3e 6d eb 9f 3e 22 d6 4b 3e bc a5 4a be
       0.126327 0.31234303 0.19905904 -0.19789785
000060 aa 3b b5 3d cb 22 d7 3d 0a 49 b2 3d 7a 20 84 3d
       0.08849271 0.10504683 0.08705337 0.06451507
000070 ab 98 b8 3d 5e 0e cb 3d d4 2a 1f 3e 9a b3 51 3e
       0.09013494 0.0991485 0.15543681 0.20478669
000080 92 0c 03 3e bb c9 7c 3e e7 cb 05 3e 5b bf dd 3d
       0.12797764 0.24686329 0.13066064 0.10827514
000090 9c 82 3c 3e 9c d4 2e 3d a0 5e 17 3e 28 a1 79 3e
       0.18409199 0.04268323 0.1478219 0.24377882
0000a0 17 73 ee 3d 33 69 47 3e d4 a6 02 3e 76 f4 3f 3e
       0.116430454 0.19473724 0.12758952 0.18745598
0000b0 ee d7 24 3e 86 46 3c 3e ad 2a e7 3d 90 ca 24 3e
       0.16097996 0.18386278 0.11287437 0.16092896
0000c0 dd 17 0e 3e 14 e9 30 3e 5b e3 43 3e c9 d6 5b 3d
       0.1387629 0.17276412 0.19129698 0.053671632
0000d0 0f ba dc 3d a5 80 0b 3e ce c1 98 3e d7 88 af 3e
       0.10777675 0.13623293 0.2983536 0.34284088
0000e0 d4 74 a7 bd fa a1 3f 3e 36 2f 4b 3e 7d ef 51 3e
       -0.0817658 0.18714133 0.19842228 0.20501514
0000f0 f8 05 8a 3d ee 92 0f 3e 56 41 d0 3b c7 c2 e9 bd
       0.0673942 0.14020893 0.006355445 -0.11414104

base_pointnet.bn_2.running_mean f4 [64]
000000 55 49 d4 bd d6 37 2a 3d e0 9b ce 3c 89 55 c1 3d
       -0.103655495 0.041557156 0.025220811 0.09440143
000010 cc cc d3 bd 1f 1c 59 be 5a 01 89 be bc a6 31 bd
       -0.10341796 -0.21202134 -0.26758844 -0.0433719
000020 44 37 46 bd 38 1c 90 be fb ca de bd e6 b6 25 be
       -0.04839255 -0.2814653 -0.10878559 -0.16183051
000030 50 0d b6 3c 3e 98 b1 bd bb 90 69 3e ab ac 0d bd
       0.022223145 -0.08671616 0.22809117 -0.034588497
000040 5b 3a 2c be b2 ca 2e 3e 3b ca 90 3d 75 19 7a be
       -0.16819136 0.1706951 0.070698224 -0.24423774
000050 7e a5 98 bd 4a 34 a2 bd 6d 47 7b 3e 38 db 69 be
       -0.0745344 -0.079201296 0.24538966 -0.22837532
000060 80 71 a5 bd d8 86 ad 3c 0e d2 8e 3d 6b 0c aa bc
       -0.08078289 0.021182463 0.069736585 -0.020757874
000070 6f 5e 71 bc 98 df a4 bd 7e 1e 3f bc 8b ac 97 be
       -0.014731987 -0.080504596 -0.011664985 -0.29623827
000080 57 09 6c be 33 47 93 be 11 0c 67 be e3 c7 88 be
       -0.23050438 -0.28765258 -0.22563197 -0.26715
000090 42 15 fc bd 7b 4e 69 be 26 cc 3b bc aa 99 97 be
       -0.12308742 -0.22783844 -0.011462247 -0.29609424
0000a0 fb 74 b6 be 44 c2 c2 be c6 e9 51 be 5f 59 c1 be
       -0.35636124 -0.38038838 -0.20499334 -0.37763497
0000b0 7e 6a e0 bd 87 0c a9 bd 9c 1f 06 be 8b b7 94 be
       -0.10957812 -0.082543425 -0.13097996 -0.29046282
0000c0 73 86 47 3e 6d ca 04 3d 59 94 76 bc 7f 08 f2 bc
       0.19484882 0.03241961 -0.015050017 -0.029545067
0000d0 0f d2 78 be ee 96 b5 3d ac 5a a9 3d d0 62 91 be
       -0.24298881 0.08866678 0.082692474 -0.283957
0000e0 67 b4 91 bc 20 bd c8 bd 97 bf 67 3e d1 aa e4 bd
       -0.017786218 -0.09801698 0.2263168 -0.11165393
0000f0 06 62 5b bd f5 67 8d be cd 36 86 3d c6 66 d2 bd
       -0.05356028 -0.27618375 0.06553421 -0.10273509

base_pointnet.bn_2.running_var f4 [64]
000000 26 4b d9 3c c3 f7 1d 3c 24 87 6e 3c a9 b1 d1 3c
       0.026525091 0.0096415905 0.014558587 0.02559741
000010 ed 42 5e 3c c6 b2 11 3d bf 6b 38 3d 66 7d bf 3d
       0.013565761 0.035570882 0.04502463 0.0935009
000020 24 27 5e 3c 53 97 4b 3d ab a9 3b 3c 00 1f 6e 3c
       0.013559137 0.04970486 0.011454026 0.014533758
000030 8a cf 30 3d 07 ce 8d 3d 55 de 20 3d 69 da 8f 3c
       0.043166675 0.06924062 0.039274532 0.0175602
000040 a9 62 67 3c 43 1f 57 3c f8 d4 a2 3b a7 a7 04 3d
       0.0141226435 0.013130012 0.0049692355 0.03238645
000050 bf 58 bc 3c 85 4a 75 3d 2e 78 c1 3c ad 26 2c 3c
       0.022991536 0.05988552 0.023616876 0.010507268
000060 60 b0 44 3c 8b b5 06 3c ea 87 88 3c 38 6c 11 3c
       0.012004942 0.008221994 0.016666371 0.008875899
000070 66 3e 37 3c 70 42 5d 3c 8b 2b 8a 3c 08 fa 73 3d
       0.011184311 0.013504609 0.016866466 0.05956462
000080 b7 1c 8a 3c b8 ae ef 3c 12 be 3b 3c 66 24 1a 3d
       0.016859395 0.029258117 0.0114588905 0.03763237
000090 59 0f a0 3c 72 1e 82 3d cf 74 0a 3d 41 ec 06 3d
       0.019538568 0.06353463 0.033802804 0.032940153
0000a0 2c 84 aa 3d 55 4c 1c 3d 70 a1 2c 3d 7e da 1e 3d
       0.08325991 0.038158733 0.042146146 0.03878259
0000b0 d8 bb 0c 3d d4 be 25 3d f4 57 fc 3c b3 bc 3a 3c
       0.03435883 0.04046519 0.030803658 0.011397528
0000c0 10 9a ef 3c 74 99 a1 3c 80 4a 45 3d 79 bc 80 3c
       0.029248267 0.019726492 0.04816675 0.01571487
0000d0 b5 03 b4 3c 2f 34 5a 3c 25 ad 46 3d 92 d4 8f 3d
       0.021974424 0.013318106 0.048504967 0.070229664
0000e0 a0 06 bc 3b 51 8b 96 3d 47 3c 8e 3d c6 2a a0 3d
       0.0057380944 0.07350791 0.06945091 0.078206584
0000f0 c1 b9 14 3d 12 10 1b 3d a4 0b 93 3c 87 fa 86 3b
       0.03630996 0.037857123 0.017949887 0.0041192207

fc_1.weight f4 [64, 66]
000000 a9 7a 39 3e f6 9f 80 bf 7e fc 16 bf d1 6e 48 be
       0.18113197 -1.0048816 -0.5897902 -0.19573523
000010 71 0e a7 3e d5 1f 54 3e 62 bf 85 3d 3b ad 77 3c
       0.32628205 0.20715268 0.06530644 0.015116985
000020 e2 c0 94 3e 57 e8 ea be 2b 3d 44 be 5b 70 17 bf
       0.29053408 -0.45880386 -0.19163959 -0.59155816
000030 4a 4d 78 be fa 2b 25 bf c6 4a 06 bf d9 73 b1 be
       -0.24248233 -0.6452023 -0.52457845 -0.34658697
000040 dc 09 c8 be 70 4c 83 3d ea fc 99 3d d2 1a 0c 3f
       -0.39070022 0.06411064 0.07518943 0.54728425
000050 7c 27 ae bd 7c 8e 0b 3e ce 44 cf bc 90 17 76 be
       -0.08503625 0.13628572 -0.025301363 -0.24032426
000060 ce b8 90 3e 01 ff 0e 3f 25 33 9d 3e ea 45 be bd
       0.28265995 0.55857855 0.30703083 -0.09290679
000070 82 be 81 bc f6 9d 41 3f d3 26 f0 3d 21 e3 cf 3e
       -0.015837912 0.75631654 0.11726155 0.40602973
000080 d6 69 00 bf a1 e2 08 bd 28 92 a1 be 1f c4 0c bb
       -0.5016149 -0.033419255 -0.3155682 -0.0021479202
000090 ef df 02 bf 9b 47 17 bf 5f 2a 00 3d 0b 0c f0 be
       -0.51122946 -0.59093636 0.03129041 -0.46884188
0000a0 87 99 18 3e 12 2d aa 3e bc 95 43 be d2 fa fd bd
       0.14902316 0.3323751 -0.19100088 -0.12401356
0000b0 71 3d a5 be 9d 9d 85 be 49 d9 58 bd c1 8d 81 be
       -0.3227344 -0.26096812 -0.052941594 -0.25303462
0000c0 b8 2b 88 3d e7 31 03 be 7b e4 b6 3e 12 03 d4 3c
       0.06648964 -0.12812005 0.35721192 0.02588037
0000d0 8f b7 10 3c c8 9f d0 3e ef 52 e4 be 19 5f 1d 3e
       0.008832826 0.40746903 -0.44594523 0.15368308
0000e0 db c7 58 be ee 40 b7 be f6 31 2b bf 95 47 6a bd
       -0.21169989 -0.35791725 -0.6687311 -0.057197172
0000f0 f4 1b 4c be a8 ca 6a 3c c1 f3 d8 bc 05 b0 ad 3e
       -0.19932538 0.014330544 -0.026483418 0.33923355
000100 aa de 84 3e bd 50 29 bf b1 b7 b2 bc 50 2d a3 ba
       0.2595113 -0.6613882 -0.021816107 -0.0012449417
000110 49 00 a0 bd 0a 68 4d 3d 39 32 ad bd d9 8e bf bd
       -0.078125544 0.050148048 -0.08456845 -0.09353418
000120 c3 04 b2 3d 66 53 3b 3c 6b c7 b1 3c 7d d0 c0 3c
       0.086923145 0.011433458 0.021701535 0.023536915
000130 a2 d9 75 3d c5 b6 9a bd e3 9d c6 3d f3 fd 6a bc
       0.060022004 -0.07554392 0.09698083 -0.014342773
000140 5b 4f 95 3c ea 10 7b bd 27 d1 9a bc 5f 90 60 3d
       0.018226316 -0.061295427 -0.01889856 0.054825183
000150 5d 48 a3 bd f2 ce a8 bd fd d4 cf bd b6 f7 9b bc
       -0.079727866 -0.08242597 -0.10148046 -0.019039016
000160 f5 b8 f7 3d 5e 82 27 bb a4 ff 2f 3d b6 6a 79 bd
       0.12095825 -0.0025559883 0.042968407 -0.060892783
000170 b8 b1 c5 bd 96 9c 88 bd 7a e2 7b bd d1 45 d2 3d
       -0.09653038 -0.066704914 -0.06149528 0.10267223
000180 92 96 e9 bd d7 3c 00 bd 77 e2 bf 3d a9 6c c2 3d
       -0.11405672 -0.03130802 0.093693666 0.094933815
000190 b1 8b 93 3d 64 3f f7 bd 9f a6 1d 3c 5e 1e ce bc
       0.072043784 -0.12072638 0.009622245 -0.025160965
0001a0 50 3a ca bc c2 36 24 bc 02 a5 bd bd ab ee ac bd
       -0.024686009 -0.010022821 -0.09259988 -0.0844396
0001b0 a6 cb 12 3d de cc 8b bd 3a 1d bf 3d 34 70 77 3d
       0.035838746 -0.06826185 0.093317464 0.06040974
0001c0 fe ee 29 bd 57 af 86 3d 8d 9d dc bd 63 30 d6 bd
       -0.041487686 0.06576412 -0.10772238 -0.10458448
0001d0 97 8c de bc 53 08 d1 3d 51 d3 65 bd 53 18 65 bd
       -0.027166648 0.10206666 -0.05610973 -0.0559314
0001e0 50 4c a8 bd 5b 69 36 bd 39 4a 86 bb a8 51 9e bd
       -0.082176805 -0.04453407 -0.0040982035 -0.077304184
0001f0 53 44 b1 3d 65 ce 7f bd aa b8 cc bc 5a 6b 1e 3d
       0.0865561 -0.062452693 -0.024990398 0.038676597
000200 59 53 a3 3c 1f 94 bb 3d 69 a2 d5 3c 63 f3 b8 bb
       0.019937204 0.09159111 0.02607842 -0.0056442483
000210 59 45 9e bd 79 d2 5f bc 1d 9b e1 bd 5d bc ff 3c
       -0.07728071 -0.01366102 -0.11015914 0.031217748
000220 e9 17 85 3d fe 33 9f bc dd 82 7c bd c3 b8 bd 3d
       0.06498701 -0.019433971 -0.06164824 0.09263756
000230 78 21 88 bd 7f 0b 9b 3c 32 96 f0 3d ad c5 b6 3d
       -0.06647009 0.01892638 0.117473975 0.089244224
000240 f2 f1 af 3c 17 41 35 3d 4b ec 5e bd a5 da bb 3d
       0.021477673 0.044251528 -0.054424565 0.091725625
000250 34 b9 a7 bc e2 39 c1 bc 88 71 4e bd 6a 8f e8 ba
       -0.020474054 -0.023587171 -0.05040124 -0.0017742936
000260 2c 05 5f bd ea 8d b9 3d a2 f8 f8 3d c2 2d 84 3c
       -0.05444829 0.09060271 0.12156798 0.0161351
000270 b5 f7 e4 3d 29 dd cd 3c bd 0a 07 bc f6 53 66 bd
       0.11180059 0.025129871 -0.008242306 -0.056232415
000280 76 41 b2 bd 13 fb 66 bd b1 3a b5 bc a1 4b eb 3d
       -0.08703892 -0.056391787 -0.022122713 0.114890344
000290 ee 0d 9b bd 20 49 ef bc fe fe f5 3d 90 4f 91 3d
       -0.07571016 -0.029209673 0.120115265 0.070952535
0002a0 05 d8 72 3d 3e e1 b2 3d 26 87 2e 3d 75 c0 f8 bd
       0.059288044 0.08734368 0.042609356 -0.12146083
0002b0 12 62 04 bd f8 7c 03 3c 5e aa f4 ba 05 5b 90 ba
       -0.03232009 0.0080254 -0.0018666496 -0.0011013454
0002c0 7c 3b 62 bd 17 e5 5e 3d 2d 93 a9 bd 41 68 07 bd
       -0.05523251 0.054417696 -0.08280025 -0.03305841
0002d0 9c 58 a1 bc 61 07 6f bd 12 e8 69 bd af f0 dc bd
       -0.019695573 -0.058356646 -0.057106085 -0.10788094
0002e0 db cb 5e 3c 27 55 89 3d d7 ab ca 3d fb a8 f7 b9
       0.013598408 0.06705695 0.09896057 -0.00047237411
0002f0 c2 c0 09 3d ae 86 61 bd 45 81 c2 3d 22 e4 46 3d
       0.033631094 -0.05506008 0.094973125 0.04855741
000300 e0 2f d6 bc 6d 41 7c bd 0f 1e 52 bc 86 b0 71 3d
       -0.026145875 -0.061585832 -0.012824549 0.059006236
000310 82 cb f6 3c 76 7f b2 bd bc 00 1e 3e c9 e6 26 3d
       0.030126337 -0.087157175 0.15429968 0.040747438
000320 04 dc 0c be a5 1f 1d bd b1 41 0d bd 69 e7 99 3c
       -0.13755804 -0.038360257 -0.034486476 0.018787103
000330 aa 92 f1 bd 65 c2 55 bd 7f d5 a8 bc 76 56 76 be
       -0.11795552 -0.052187342 -0.020609615 -0.2405642
000340 24 7c 2a 3d a7 9c 1d 3c b6 cc 4c be 37 4a c1 bd
       0.041622296 0.009619868 -0.19999966 -0.094379835
000350 90 f0 87 3d 64 40 d7 3d b2 b9 1f 3e 70 b7 92 3c
       0.066376805 0.105103284 0.15598181 0.017909735
000360 e4 f2 60 be cb 45 23 3e 20 bb 97 3d 7a e0 0a be
       -0.21967655 0.15944593 0.07408738 -0.13562194
000370 fc ed 36 be 5a 37 81 bd df 72 b2 bd 43 fc 9a 3e
       -0.17864221 -0.063093856 -0.08713316 0.30270585
000380 a5 05 87 3e c1 16 d9 3d 9d e5 17 bd 78 ac 23 bd
       0.26371494 0.10600043 -0.03708421 -0.0399594
000390 51 75 b3 3c 51 a8 50 be 9e 43 56 be 99 45 17 be
       0.021906527 -0.20376708 -0.20924231 -0.14772643
0003a0 3c 47 e3 bd 39 da 20 3e 28 8a 41 be 08 ba 03 be
       -0.11097571 0.15708245 -0.18900359 -0.12863934
0003b0 69 41 22 be 05 cf ab bd 5d ca fa bd 17 b0 96 bd
       -0.15845264 -0.08389095 -0.12245629 -0.07357805
0003c0 19 49 04 bd b9 32 86 bc 2e ea d0 bd 35 a4 dc bd
       -0.032296274 -0.016381608 -0.10200916 -0.107735075
0003d0 37 d9 af bd 5f 12 c8 bd 81 53 92 bd c3 49 d4 bb
       -0.08586352 -0.09769129 -0.07144833 -0.0064785196
0003e0 01 ba 83 be 39 d6 91 bc 57 0f f3 bc a8 7c 2a 3e
       -0.25727847 -0.017802345 -0.0296704 0.16649115
0003f0 79 d8 bc 3d c4 ea bd bd db 7c 23 be 6d 55 aa bd
       0.092209764 -0.092732936 -0.15965597 -0.08317075

fc_1.bias f4 [64]
000000 e7 57 4c 3c 56 e6 c2 bd 58 d1 dc bd b1 67 22 bd
       0.012472129 -0.09516589 -0.10782117 -0.03964967
000010 b7 3c 48 3d 39 a3 a6 bd 7c 2b 25 3e c1 a1 87 3d
       0.048886027 -0.08136601 0.16129869 0.06622649
000020 0c 39 b1 bc b2 bb 39 3e c6 7a ec bd 06 d8 6c be
       -0.021633647 0.18138006 -0.11546855 -0.23129281
000030 c7 f0 ce 3d 17 f3 ff bc b9 fb 04 bd 9b 1b 1d 3e
       0.101045184 -0.031243844 -0.032466624 0.15342562
000040 8b df f4 bb 8f fc 7d bd 0e 49 f5 bd d5 72 ba bd
       -0.0074729375 -0.062008437 -0.11976825 -0.09103934
000050 f5 90 44 be a9 ab 4d bd 44 3e 2b bd 50 c0 f8 bd
       -0.19195922 -0.050212536 -0.041807428 -0.12146056
000060 f5 f5 2d 3e 7c 00 31 bd bb 48 a1 bc 1e d2 61 3d
       0.16988356 -0.043213353 -0.019688 0.055132024
000070 fb 11 b4 3d 7c bc a4 3e 77 34 50 3e 02 7e f3 3d
       0.08792492 0.32175052 0.20332514 0.118892685
000080 01 63 18 3e d1 c3 69 bd 61 2e 0f bb fc b2 69 bc
       0.14881517 -0.05707151 -0.0021847712 -0.014263865
000090 20 c7 66 3e ef ad 06 be fd dc cf 3c e8 01 92 bd
       0.22536898 -0.13152288 0.02537393 -0.0712927
0000a0 a9 a2 17 bd b5 ba 8e 3d 8a 99 2d 3d 48 a4 63 3d
       -0.03702036 0.06969205 0.042382754 0.055576593
0000b0 d2 c9 b2 3d fa d2 d9 bd 79 75 c6 bd 17 e3 d0 bd
       0.087299004 -0.10635944 -0.09690375 -0.10199564
0000c0 d5 77 e9 bd 18 e2 95 3d e4 b1 4e 3c ed 1e cb 3c
       -0.11399809 0.073185146 0.012615655 0.02479502
0000d0 f1 74 ca 3d 99 55 26 3d 90 fc fb bd 6f e3 2b bc
       0.09885586 0.040608976 -0.12304032 -0.010491236
0000e0 bf ea c0 3e 19 61 70 bd 14 dc d3 bd 91 54 11 bd
       0.37679097 -0.05868635 -0.10344711 -0.03548104
0000f0 0e 89 27 be b5 61 39 3d 23 59 b7 bd c9 99 5c 3d
       -0.16360876 0.045259196 -0.08952548 0.0538576
