Additional stuff/segmentation_pointnet_P7dropout05shake05fake.pth (torch, 79058 bytes, 18 tensors)

base_pointnet.conv_1_a.weight f4 [64, 1, 3]
-0.14045161 -0.43198565 -0.07975136 0.06686235 -0.34994504 0.14985353 0.44645053 -0.21518235
0.063004315 0.3324456 -0.1631947 0.15639414 0.05967005 -0.13445474 -0.23092604 -0.39995262
-0.24269365 0.46517932 -0.10129649 0.089123264 0.31664228 -0.439714 0.46698794 -0.42101046
0.07509081 0.102184385 -0.087133035 -0.41947898 0.3111993 0.24006581 -0.48570627 0.21694446
0.2288352 0.3200715 0.43023363 -0.35156554 0.099863626 -0.056728058 0.105051346 0.5672904
0.15280607 0.1967161 -0.026281077 0.5326868 0.38017055 0.48725563 0.23615421 -0.06476486
0.17589661 -0.088711694 0.15092988 0.09048591 -0.113202326 0.12651518 -0.2061667 -0.0398605
0.33054224 0.053565282 -0.034270223 0.07522825 -0.57781607 0.535548 0.22880939 -0.02097878
-0.29469234 0.28943655 0.28745815 -0.4433368 0.28703904 -0.50577873 -0.10974501 0.5099644
-0.20020856 -0.09678723 0.05488238 0.08787518 -0.2765055 0.093528576 0.51882064 0.3907354
-0.07010516 0.12308546 0.18717022 -0.122995816 0.38724315 -0.31818983 -0.081233695 0.21278821
0.33847478 0.034843702 0.044221744 -0.08030625 8.6217166e-05 0.36682424 -0.33953962 -0.31195763
-0.016264535 0.41641355 0.5179494 -0.17618944 -0.32833192 0.14909235 0.32106957 -0.051722735
-0.57770354 -0.056148484 -0.3810929 -0.44427574 0.013237711 0.48572198 -0.5125845 -0.36507058
-0.3024885 0.20691232 0.3168788 -0.016471267 0.21746223 0.059435427 -0.07666642 0.19008559
0.40935954 0.1540113 0.2887111 -0.35503942 -0.14860833 0.26506415 -0.4859871 0.30102122
0.1756672 0.102094494 0.12180188 -0.14901158 0.056769203 0.010194609 -0.41251275 -0.13944624
0.1917943 0.09038104 -0.11891589 -0.2870932 -0.02611692 -0.15460652 -0.19204532 0.2607799
-0.064965725 0.1174576 0.08238045 -0.24117139 0.20961066 0.07535684 0.3130596 0.352072
0.5186229 -0.2150561 0.026573757 0.22544275 0.3835564 -0.08437768 -0.48198044 -0.45382762
-0.23087248 -0.53742605 0.074531615 0.31822726 0.2589238 -0.14221475 -0.23561484 0.39398298
0.07773336 0.464701 0.5696768 0.23403032 0.05790711 -0.3667825 0.01615917 0.16905794
-0.15346256 -0.37641847 0.5126615 -0.06312954 0.045029312 -0.40559706 0.50826424 -0.013541207
0.5353088 0.32392982 -0.17208396 -0.2836236 0.541268 0.5023912 0.49023962 -0.011554855
00000000: 8cd2 0fbe 392d ddbe ae54 a3bd 21ef 883d
00000010: ff2b b3be 3473 193e 2a95 e43e c358 5cbe
00000020: 6808 813d 4f36 aa3e 831c 27be c925 203e
00000030: 9568 743d 81ae 09be e077 6cbe 97c6 ccbe
00000040: af84 78be fc2b ee3e 8974 cfbd 4286 b63d
00000050: f01e a23e 3222 e1be 0b19 ef3e af8e d7be
00000060: 36c9 993d 0c46 d13d ce72 b2bd f3c5 d6be
00000070: 8455 9f3e d0d3 753e 7eae f8be b026 5e3e
00000080: c653 6a3e 69e0 a33e 9547 dc3e 6600 b4be
00000090: 4d85 cc3d ae5b 68bd 2925 d73d f239 113f
000000a0: 3279 1c3e f26f 493e 6a4b d7bc 2a5e 083f
000000b0: b7a5 c23e 9279 f93e 69d2 713e 70a3 84bd
000000c0: 3e1e 343e 7aae b5bd 5d8d 1a3e ad50 b93d
000000d0: 9fd6 e7bd 328d 013e 5d1d 53be c344 23bd
000000e0: d53c a93e 4567 5b3d ef5e 0cbd 4511 9a3d
000000f0: c1eb 13bf ac19 093f 024d 6a3e b1db abbc
00000100: eae1 96be 0731 943e b72d 933e 0bfd e2be
00000110: c8f6 923e b77a 01bf fec1 e0bd 078d 023f
00000120: 7903 4dbe 6238 c6bd 59cc 603d e7f7 b33d
00000130: 2192 8dbe e98b bf3d 6ed1 043f 780e c83e
00000140: 4b93 8fbd 3b14 fc3d 8da9 3f3e 3be5 fbbd
00000150: bc44 c63e c7e9 a2be da5d a6bd 27e5 593e
00000160: 914c ad3e 45b8 0e3d dc21 353d 9a77 a4bd
00000170: 7dcf b438 63d0 bb3e 23d8 adbe e9b8 9fbe
00000180: 343d 85bc 2834 d53e 5598 043f 016b 34be
00000190: 1f1b a8be aaab 183e 3b63 a43e 38db 53bd
000001a0: 61e4 13bf f4fb 65bd 9c1e c3be 1c78 e3be
000001b0: fce2 583c 8db0 f83e bd38 03bf 88ea babe
000001c0: c6df 9abe d3e0 533e f03d a23e c0ee 86bc
000001d0: 6bae 5e3e 9072 733d 4903 9dbd cca5 423e
000001e0: 9397 d13e 23b5 1d3e f1d1 933e bac7 b5be
000001f0: c82c 18be 7db6 873e 4dd3 f8be 741f 9a3e
00000200: 1ae2 333e eb16 d13d 4473 f93d 7e96 18be
00000210: d386 683d 4a07 273c df34 d3be ffca 0ebe
00000220: ba65 443e b219 b93d 2d8a f3bd e1fd 92be
00000230: 27f3 d5bc 2c51 1ebe 87a7 44be f184 853e
00000240: c00c 85bd 9c8d f03d 15b7 a83d a2f5 76be
00000250: 2da4 563e b054 9a3d 5949 a03e c842 b43e
00000260: 78c4 043f ab37 5cbe 35b1 d93c 77da 663e
00000270: 8161 c43e 35ce acbd 24c6 f6be 185c e8be
00000280: d669 6cbe c194 09bf 08a4 983d afee a23e
00000290: a991 843e bea0 11be 0445 71be 23b8 c93e
000002a0: ab32 9f3d 4aed ed3e 57d6 113f a5a5 6f3e
000002b0: 0130 6d3d eaca bbbe 3c60 843c 861d 2d3e
000002c0: 4a25 1dbe ecb9 c0be c93d 033f 0f4a 81bd
000002d0: a870 383d 6baa cfbe 9b1d 023f f0db 5dbc
000002e0: ff09 093f 21da a53e c736 30be 1d37 91be
000002f0: 8a90 0a3f b69c 003f b000 fb3e 9350 3dbc

base_pointnet.conv_1_a.bias f4 [64]
0.48456892 0.09656694 -0.03391811 -0.09240559 -0.1674386 0.49231103 0.028954407 0.1166653
0.14796631 0.45578563 -0.14361218 -0.1812582 -0.500424 -0.21611959 0.006786212 -0.46410963
0.21156222 -0.03762539 -0.34040776 0.4985061 -0.43829885 -0.088688135 -0.032311328 0.29855978
0.40732196 0.053743143 0.3744409 -0.3894388 -0.307898 0.21421021 -0.32392105 -0.04367518
0.2505938 -0.07796073 -0.3208292 0.07341231 0.13325089 0.303617 -0.5367926 0.10835713
-0.2779279 -0.171931 0.41596273 0.21121338 -0.57038295 -0.22261856 0.23641813 0.19950897
0.14886308 0.114164144 0.39661965 -0.18964924 0.05176678 -0.014666146 0.11702328 -0.26240003
0.12755051 0.39652333 0.34891918 0.1901905 0.4288819 -0.3395121 0.3110155 0.44429532
00000000: 6b19 f83e e3c4 c53d b7ed 0abd 243f bdbd
00000010: 0675 2bbe 3110 fc3e cb31 ed3c 38ee ee3d
00000020: 7b84 173e bc5c e93e 120f 13be c09b 39be
00000030: ca1b 00bf 744e 5dbe df5e de3b c79f edbe
00000040: c4a3 583e 151d 1abd ed49 aebe 313c ff3e
00000050: b568 e0be 20a2 b5bd e258 04bd d4dc 983e
00000060: 818c d03e c521 5c3d b8b6 bf3e 8664 c7be
00000070: cfa4 9dbe ec59 5b3e fbd8 a5be bfe4 32bd
00000080: d54d 803e e0a9 9fbd ba43 a4be 3159 963d
00000090: ec72 083e b073 9b3e 3d6b 09bf 58ea dd3d
000000a0: 914c 8ebe ae0e 30be 11f9 d43e 5248 583e
000000b0: 9e04 12bf 1ff6 63be 9817 723e 144c 4c3e
000000c0: 906f 183e e4ce e93d bb11 cb3e 6933 42be
000000d0: 6709 543d 464a 70bc e7a9 ef3d 4c59 86be
000000e0: 9a9c 023e 1b05 cb3e 89a5 b23e 4cc1 423e
000000f0: 6996 db3e 88d4 adbe 6c3d 9f3e ad7a e33e

base_pointnet.conv_1_b.weight f4 [64, 1, 3]
0.78628886 -0.3528663 -0.14616576 -0.58122754 -0.6682898 0.12309476 0.26509085 0.025590857
-0.7376593 -0.06801929 0.56170803 0.037128784 0.31579655 -0.46763647 -0.751188 0.27749884
0.18374455 -0.24343619 -0.35399377 -0.7108867 -0.41422787 0.32761 -0.13678077 -0.13585994
-0.0040330025 -0.66031355 0.312862 0.16818656 -1.1280341 0.030931376 -0.66317844 -0.03495998
0.11895982 0.24317764 -0.1928004 0.35518238 -0.7560613 0.3825264 -0.13363717 0.60499036
0.49308103 -0.3682257 0.20595951 -0.42172262 -0.07532326 0.5531531 0.26617187 0.64122725
0.7207631 0.39761865 -0.26107576 -0.018573323 -1.260814 0.08824486 -0.31845307 0.0021457726
-0.81862545 -0.8558028 -0.22364692 0.009197834 0.41580522 -0.035209797 -0.35928503 -0.0010760617
0.07367561 -0.69745326 -0.12646636 0.5773959 0.6421926 0.06374336 0.3248064 -0.16464953
-0.014914338 0.43623555 0.7144729 0.16142209 -0.4466813 -0.6234198 0.33131266 0.052001514
0.4829719 -0.5944609 -0.46156037 -0.1826503 -0.12119332 -0.8314691 0.0069431434 0.720501
0.28400537 0.31037518 -0.64903736 0.4898065 0.4159706 -0.2520264 0.14046672 0.21679994
-0.81427056 0.68041027 -0.3778136 0.11959754 0.5862527 -0.32840678 0.023089705 0.00049227854
0.1576416 0.2183849 0.28485584 0.40633053 0.54699177 -0.023972949 0.24806026 0.026899934
-0.60146433 -0.81765115 -0.4175626 -0.029866125 -0.032358296 -0.8013327 0.09575568 -0.64493304
-0.05173669 0.103498265 0.29088566 -0.1694405 0.15155889 -0.33684036 -0.79510283 -0.40314287
-0.45031542 0.0012770051 0.4430347 0.3754497 0.5274592 0.71926147 -0.22672717 0.004966231
-0.65050995 0.09770039 -0.57156056 0.5970764 0.33135986 -1.1932006 -0.059918806 -0.13496408
-0.5664953 0.4739247 0.54565436 -0.107361734 -0.05592606 -0.9810205 -0.47649693 0.27857548
0.41828066 0.6799923 0.018730389 -0.09229391 -0.42939493 0.013834371 -1.426718 0.2237617
-0.02718774 0.1065232 -0.08322398 -1.3831049 0.084021986 -0.09404304 -0.62863874 -0.5825159
-0.09659896 0.42251316 0.44372615 0.372076 -0.1167707 0.1365613 -0.020706149 -0.16423562
-0.95229906 -1.0701922 -0.09642382 -0.06745283 0.3395468 -0.19306616 -0.64393795 -0.07674809
-0.053565405 -0.20377004 0.0014725028 -0.6457585 -0.42760724 0.23069519 -0.1862938 -0.3112096
00000000: 3a4a 493f e4aa b4be 7aac 15be 54cb 14bf
00000010: 0a15 2bbf 1b19 fc3d fdb9 873e eba3 d13c
00000020: 3dd7 3cbf b34d 8bbd 19cc 0f3f 5a14 183d
00000030: 16b0 a13e 0c6e efbe db4d 40bf 5414 8e3e
00000040: 8827 3c3e 5647 79be ac3e b5be acfc 35bf
00000050: ad15 d4be 7fbc a73e 4210 0cbe de1e 0bbe
00000060: 4727 84bb 4f0a 29bf 732f a03e 1939 2c3e
00000070: 6c63 90bf cc63 fd3c 10c6 29bf 3232 0fbd
00000080: 35a1 f33d 8f03 793e 786d 45be 77da b53e
00000090: 3c8d 41bf 80da c33e 2fd8 08be a6e0 1a3f
000000a0: 1e75 fc3e 1488 bcbe 0de7 523e 07ec d7be
000000b0: 1543 9abd 719b 0d3f ae47 883e 7827 243f
000000c0: ee83 383f ac94 cb3e b9ab 85be 1527 98bc
000000d0: 5a62 a1bf b9b9 b43d 480c a3be 17a0 0c3b
000000e0: 7091 51bf e415 5bbf b303 65be 83b2 163c
000000f0: 6ce4 d43e 2638 10bd 35f4 b7be a40a 8dba
00000100: 3de3 963d 4c8c 32bf 6680 01be 38d0 133f
00000110: bc66 243f e18b 823d 064d a63e e399 28be
00000120: 445b 74bc 445a df3e b2e7 363f d54b 253e
00000130: 69b3 e4be 7198 1fbf d0a1 a93e 8aff 543d
00000140: 1848 f73e 972e 18bf a451 ecbe ae08 3bbe
00000150: 3434 f8bd 29db 54bf 4f83 e33b c172 383f
00000160: 2769 913e 7fe9 9e3e 5027 26bf ebc7 fa3e
00000170: 19fa d43e 9b09 81be 82d6 0f3e ce00 5e3e
00000180: 0974 50bf 5e2f 2e3f c970 c1be 8eef f43d
00000190: a814 163f ef24 a8be 9f26 bd3c 410c 013a
000001a0: cd6c 213e 4ba0 5f3e a0d8 913e 8e0a d03e
000001b0: a707 0c3f eb62 c4bc 8203 7e3e 405d dc3c
000001c0: 91f9 19bf 9651 51bf c4ca d5be cea9 f4bc
000001d0: 228a 04bd 2424 4dbf 8e1b c43d 551a 25bf
000001e0: dae9 53bd e6f6 d33d f7ee 943e cf81 2dbe
000001f0: 4132 1b3e 5776 acbe dc8b 4bbf be68 cebe
00000200: be8f e6be 2e61 a73a 72d5 e23e f13a c03e
00000210: 9107 073f 8521 383f 2b2b 68be c4bb a23b
00000220: d287 26bf 2417 c83d cb51 12bf 00da 183f
00000230: 00a8 a93e ccba 98bf 6c6d 75bd 0634 0abe
00000240: d605 11bf 42a6 f23e 01b0 0b3f 78e0 dbbd
00000250: b912 65bd 2924 7bbf 68f7 f3be 72a1 8e3e
00000260: e228 d63e fa13 2e3f 7970 993c 9704 bdbd
00000270: a7d9 dbbe 8fa9 623c b29e b6bf c921 653e
00000280: d3b8 debc d628 da3d 5671 aabd 9509 b1bf
00000290: b813 ac3d a399 c0bd 78ee 20bf c31f 15bf
000002a0: add5 c5bd a553 d83e 1330 e33e bf80 be3e
000002b0: 7a25 efbd bad6 0b3e f19f a9bc 622d 28be
000002c0: dfc9 73bf 0ffc 88bf da79 c5bd b624 8abd
000002d0: 14d9 ad3e 23b3 45be 1ed9 24bf 1a2e 9dbd
000002e0: 6667 5bbd 18a9 50be ff00 c13a 6e50 25bf
000002f0: 56ef dabe 5c3b 6c3e cdc3 3ebe dd56 9fbe

base_pointnet.conv_1_b.bias f4 [64]
-0.11587416 -0.4035259 0.37866434 -0.25678167 0.56564915 0.4880021 0.15864743 -0.14201026
-0.5548612 0.41964388 -0.435837 -0.45948908 0.35248387 -0.4975852 -0.334488 0.4991635
0.51251465 -0.32111382 -0.34629855 -0.0511977 -0.19829357 0.43897003 -0.048797574 -0.104873136
-0.31826565 -0.35342026 -0.3849092 -0.40917912 -0.07038271 -0.06956865 -0.28584543 0.5573397
0.13332687 0.54427016 0.15088505 -0.27463832 -0.05009983 -0.08458042 -0.2991154 0.23543717
0.26534876 0.13396639 0.03731801 0.23048005 -0.31538364 -0.31633705 -0.52274776 0.3469751
0.05986655 0.42459023 -0.018576026 0.0267578 -0.26736274 -0.33037814 -0.06938106 0.14439273
-0.0014604421 -0.0063266475 0.3634688 -0.3554868 0.45890144 0.27374333 -0.12121632 -0.28935045
00000000: 6e4f edbd f29a cebe 4be0 c13e e378 83be
00000010: 62ce 103f 69db f93e 7974 223e 236b 11be
00000020: 620b 0ebf 90db d63e 0726 dfbe 2742 ebbe
00000030: c478 b43e 7dc3 febe 0342 abbe 5c92 ff3e
00000040: 2934 033f 0869 a4be 0b4e b1be aeb4 51bd
00000050: 780d 4bbe aec0 e03e f7df 47bd bac7 d6bd
00000060: b7f3 a2be 80f3 b4be d212 c5be ed7f d1be
00000070: cf24 90bd 027a 8ebd 555a 92be d1ad 0e3f
00000080: d786 083e 4a55 0b3f 9c81 1a3e 659d 8cbe
00000090: 7b35 4dbd 8038 adbd a725 99be 7116 713e
000000a0: cbdb 873e 7c2e 093e c5da 183d f602 6c3e
000000b0: f779 a1be eef6 a1be ccd2 05bf b8a6 b13e
000000c0: a136 753d e463 d93e c02c 98bc 2c33 db3c
000000d0: c5e3 88be 5327 a9be a817 8ebd b0db 133e
000000e0: 4e6c bfba c44f cfbb 9518 ba3e 5e02 b6be
000000f0: 21f5 ea3e 1628 8c3e 4340 f8bd be25 94be

base_pointnet.conv_2.weight f4 [64, 64, 3]
0.040875047 0.016315443 -0.041799616 -0.060882952 0.1210042 0.036546875 0.07323359 0.027477158
0.088270545 0.0041518263 -0.008331748 -0.09044669 -1.6041377e-05 0.19220781 -0.0007597781 -0.015239322
0.011197828 -0.014089417 0.010562131 0.12960759 0.1790993 0.11327074 0.00467566 -0.053469427
0.10321645 0.029566007 0.0011825631 -0.02757922 -0.0013689589 -0.10852546 0.0369591 0.24526094
0.29165378 0.0037668354 -0.004667346 0.045874268 -0.0713305 0.05083894 0.049524162 -0.03678208
-0.025413794 -0.075969815 0.011092126 0.1285197 0.037359443 0.042959306 -0.02319374 -0.04491788
-0.055074837 -0.030948581 -0.05336758 -0.13998163 -0.0073813503 0.047434837 0.23608373 -0.053091124
-0.20251681 -0.26813096 -0.053801276 -0.21228687 -0.13659842 -0.08340041 -0.12320995 -0.16365692
0.0010337871 -0.07675574 0.048436213 -0.041525077 0.17035234 0.058263242 0.041062474 0.20783693
0.11146591 0.013123609 0.026999941 -0.01951273 0.007945757 -0.029769193 0.04206615 0.067456305
-0.008315777 -0.008967153 0.037663937 -0.115640916 -0.06986508 -0.09288644 -0.06645946 0.025647486
-0.014246517 -0.05843475 -0.03587269 -0.0033664333 -0.054317486 0.028140336 0.093331635 0.0044441167
-0.028008552 -0.009635518 0.14414144 -0.0165611 -0.1142526 -0.01630663 0.038846623 0.01936578
-0.0047494145 0.03599581 -0.09654474 -0.062488645 -0.06717835 0.020949597 0.07878399 0.06427864
0.032114804 0.09329094 0.018750913 -0.061174847 0.004565726 0.043448195 0.023366751 0.15229394
-0.07602827 -0.040629756 -0.06485368 0.057288826 -0.030039445 0.038976993 0.011662927 -0.016400293
0.025135515 0.0081473375 0.017800303 -0.14554058 -0.046021614 -0.001618322 0.07694547 -0.07500398
-0.20673743 -0.10067412 0.015708685 -0.07386812 -0.1567995 -0.022024466 -0.028594889 0.24384291
0.060240373 -0.012944682 0.048228655 0.20589824 -0.058725253 -0.0886117 -0.05049956 0.0550407
0.014235708 0.0025661278 -0.0562807 -0.106275804 0.021783225 0.037182827 -0.12439091 -0.0014722103
0.044858053 0.081511036 -0.04936741 0.118849024 -0.14903298 0.036643088 0.04121192 -0.22184406
0.028605102 0.011350491 -0.023063678 0.029843735 0.028584057 0.06103564 -0.22015546 -0.10881855
-0.18996055 0.096902795 0.012211629 0.1286684 0.028405486 0.029949417 -0.13975987 0.05267899
-0.010637631 -0.03874691 -0.01986317 0.12243973 -0.15931386 -0.08661479 -0.06766617 -0.11249427
0.06851322 0.024005163 -0.027832067 0.09664241 -0.054008257 0.15106504 -0.021399999 -0.12801304
-0.028616603 -0.15044157 0.15079948 0.08962526 -0.011212626 0.036620222 0.074719995 -0.13293579
-0.013440025 -0.13531734 -0.042957995 -0.05004606 0.017123282 -0.1336628 0.26260677 -0.04357144
-0.04055568 0.040742308 -0.113142155 -0.02750195 0.070106976 -0.025333084 0.14874081 -0.07569774
-0.06344802 -0.08687898 -0.033312388 -0.10085441 -0.025592124 0.0080184555 -0.06310003 -0.027040187
0.011611876 0.0048198393 -0.009593877 -0.0091500385 0.08820052 0.007463613 -0.028858474 0.08148344
-0.07662933 0.23675667 -0.043176353 -0.033747196 -0.05012012 0.022596959 0.30515325 0.026155528
0.0437456 -0.010071137 -0.26093292 -0.14296728 0.01178151 0.013899994 -0.1802279 0.024928385
00000000: 986c 273d f7a7 853c 1336 2bbd 6760 79bd
00000010: 0dd1 f73d 2db2 153d 7efb 953d c717 e13c
00000020: 30c7 b43d 0b0c 883b e281 08bc 1d3c b9bd
00000030: 9890 86b7 20d2 443e d82b 47ba 59ae 79bc
00000040: 1877 373c 4cd7 66bc ca0c 2d3c dab7 043e
00000050: cf65 373e 7dfa e73d 4736 993b c202 5bbd
00000060: 2563 d33d 6934 f23c 3c00 9b3a d1ed e1bc
00000070: a36e b3ba 9942 debd 6d62 173d af25 7b3e
00000080: a553 953e 03dd 763b 89f0 98bb a8e6 3b3d
00000090: ba15 92bd 7e3c 503d d9d9 4a3d cea8 16bd
000000a0: 9730 d0bc 1096 9bbd c0bb 353c ab9a 033e
000000b0: 3706 193d 19f6 2f3d cc00 bebc d0fb 37bd
000000c0: 2796 61bd e187 fdbc f797 5abd 5857 0fbe
000000d0: 41df f1bb 084b 423d efbf 713e 1476 59bd
000000e0: 9160 4fbe 7648 89be ba5e 5cbd bb61 59be
000000f0: 75e0 0bbe d6cd aabd 8055 fcbd ae95 27be
00000100: 2480 873a 1d32 9dbd 0d65 463d 3316 2abd
00000110: d870 2e3e 70a5 6e3d 2031 283d 34d3 543e
00000120: 3d48 e43d 6804 573c fb2e dd3c 29d9 9fbc
00000130: ec2e 023c 86de f3bc 8e4d 2c3d 8826 8a3d
00000140: e63e 08bc f7ea 12bc 8045 1a3d 25d5 ecbd
00000150: 6c15 8fbd 3f3b bebd e61b 88bd ad1a d23c
00000160: 396a 69bc 4759 6fbd 3eef 12bd 619f 5cbb
00000170: 037c 5ebd 9086 e63c a824 bf3d f49f 913b
00000180: 3172 e5bc 4bde 1dbc d099 133e 25ab 87bc
00000190: 44fd e9bd 7b95 85bc a31d 1f3d fca4 9e3c
000001a0: faa0 9bbb 5870 133d 40b9 c5bd 18f4 7fbd
000001b0: ce94 89bd 7d9e ab3c 8059 a13d 85a4 833d
000001c0: d08a 033d 520f bf3d 849b 993c 7a92 7abd
000001d0: 169c 953b bcf6 313d a16b bf3c f1f2 1b3e
000001e0: b6b4 9bbd 636b 26bd 02d2 84bd b0a7 6a3d
000001f0: 4815 f6bc 57a6 1f3d dd15 3f3c e859 86bc
00000200: ffe8 cd3c 697c 053c f1d1 913c 9708 15be
00000210: 2981 3cbd e01d d4ba 9695 9d3d b09b 99bd
00000220: fab2 53be 3c2e cebd 80af 803c 2b48 97bd
00000230: 0c90 20be a76c b4bc d43f eabc f5b1 793e
00000240: 9cbe 763d ee15 54bc 698b 453d fdd6 523e
00000250: e489 70bd 0d7a b5bd a0d8 4ebd 5b72 613d
00000260: e33c 693c 7b2c 283b 9786 66bd 21a7 d9bd
00000270: bc72 b23c 054d 183d a9c0 febd 2ef7 c0ba
00000280: 14bd 373d 42ef a63d 7b35 4abd 1e67 f33d
00000290: 1a9c 18be 1017 163d d5cd 283d 172b 63be
000002a0: 3f55 ea3c 69f7 393c 0af0 bcbc d97a f43c
000002b0: 1d29 ea3c 8200 7a3d 6f70 61be 43dc debd
000002c0: 0585 42be f974 c63d 4913 483c a6c1 033e
000002d0: 9fb2 e83c 7b58 f53c 361d 0fbe edc5 573d
000002e0: 7549 2ebc 14b5 1ebd 16b8 a2bc aec1 fa3d
000002f0: 2c23 23be 1863 b1bd 9094 8abd 6563 e6bd
00000300: a950 8c3d 7aa6 c43c 1300 e4bc 75ec c53d
00000310: c337 5dbd cbb0 1a3e 0d4f afbc da15 03be
00000320: 5e6d eabc 5b0d 1abe 2e6b 1a3e 738d b73d
00000330: 29b5 37bc 16ff 153d cc06 993d 5220 08be
00000340: 8d33 5cbc a190 0abe b9f4 2fbd 19fd 4cbd
00000350: 2046 8c3c e7de 08be 6574 863e f777 32bd
00000360: b61d 26bd 68e1 263d 13b7 e7bd c54b e1bc
00000370: 3f94 8f3d 5487 cfbc 834f 183e 6b07 9bbd
00000380: 09f1 81bd 9bed b1bd 9272 08bd c28c cebd
00000390: 93a6 d1bc d75f 033c 973a 81bd 6283 ddbc
000003a0: bd3f 3e3c beef 9d3b a32f 1dbc 0bea 15bc
000003b0: 79a2 b43d 5391 f43b 9b68 ecbc cae0 a63d
000003c0: d7ef 9cbd 5770 723e b0d9 30bd 803a 0abd
000003d0: c14a 4dbd 421d b93c 0c3d 9c3e 1e44 d63c
000003e0: 962e 333d 6901 25bc 0099 85be 0466 12be
000003f0: 3c07 413c cdbc 633c aa8d 38be 9d36 cc3c

base_pointnet.conv_2.bias f4 [64]
-0.067776 -0.05210195 -0.041428376 0.090435565 -0.06643258 0.025951067 -0.063745156 -0.042355847
0.07788797 0.008544622 -0.07099881 -0.07999624 -0.011763074 0.009857981 -0.017852884 0.10641244
0.00455705 -0.022150923 0.07184003 -0.030075273 -0.06746643 0.03145994 0.13328885 -0.027087301
-0.014840813 -0.073114425 -0.0522079 0.049892947 0.05322312 0.11433256 0.08896477 0.09941993
-0.04980976 0.0041068126 0.029427309 -0.0011777896 0.09581218 0.03132425 -0.037224155 -0.05310325
0.057704236 0.01957742 0.034032457 -0.013808444 -0.0013846697 -0.07325253 0.028866686 -0.040304586
-0.07174519 -0.035499543 0.08798133 -0.07700763 -0.09024692 0.049351618 0.10205243 0.07964902
0.02473347 0.023851763 0.060430266 0.09031248 0.10790811 -0.056515694 0.0029214341 -0.097379155
00000000: 25ce 8abd db68 55bd cdb0 29bd 4836 b93d
00000010: ce0d 88bd 5597 d43c d28c 82bd 537d 2dbd
00000020: ba83 9f3d befe 0b3c d367 91bd 12d5 a3bd
00000030: e9b9 40bc 5e83 213c 3640 92bc c4ee d93d
00000040: 4e53 953b da75 b5bc de20 933d 6b60 f6bc
00000050: d72b 8abd 23dc 003d df7c 083e 30e6 ddbc
00000060: e226 73bc 04bd 95bd f3d7 55bd 8c5c 4c3d
00000070: 7c00 5a3d 3027 ea3d 2933 b63d ad9c cb3d
00000080: 5205 4cbd 7192 863b 8a11 f13c 1060 9aba
00000090: 2d39 c43d db4d 003d 5b78 18bd cb82 59bd
000000a0: 475b 6c3d d360 a03c 9e65 0b3d d03c 62bc
000000b0: ce7d b5ba 6c05 96bd d479 ec3c 6c16 25bd
000000c0: 24ef 92bd f867 11bd 8e2f b43d 2db6 9dbd
000000d0: 61d3 b8bd ec24 4a3d dd00 d13d 071f a33d
000000e0: d99d ca3c c664 c33c ba85 773d c0f5 b83d
000000f0: edfe dc3d 007d 67bd 8875 3f3b b96e c7bd

base_pointnet.bn_1.weight f4 [64]
0.719235 0.89453804 0.5861579 0.735672 0.75616956 0.8992805 0.9702602 0.83423424
0.7141158 1.0426785 1.6245273 0.6884579 0.67534304 0.5565209 0.51462924 0.5220948
0.5959434 1.3990777 1.72364 1.644247 0.81461775 1.4881979 0.7064848 1.1071067
0.9332593 0.8238303 0.6770579 0.9020257 0.8099433 0.5062263 0.98227245 0.74002224
0.60706896 0.60857326 0.70876235 0.5627305 0.8928859 0.8051485 0.537773 1.0353987
0.5887216 0.84599686 1.2895046 0.7808983 0.6751856 0.81642085 0.6473821 1.3105806
0.7495834 1.4692321 0.5615718 0.8662041 0.9152847 0.5313193 0.53556436 1.3744311
0.40806103 0.9194479 1.4176102 1.3651966 1.0548747 0.5650479 1.3173522 0.6520074
00000000: c91f 383f 7200 653f 720e 163f 0055 3c3f
00000010: 5494 413f 3f37 663f f962 783f 6090 553f
00000020: 4bd0 363f 7d76 853f 83f0 cf3f c73e 303f
00000030: 48e3 2c3f 2778 0e3f bebe 033f 01a8 053f
00000040: bf8f 183f fa14 b33f 3ca0 dc3f b076 d23f
00000050: ca8a 503f 457d be3f 30dc 343f acb5 8d3f
00000060: 15ea 6e3f 8be6 523f ab53 2d3f 28eb 663f
00000070: 7258 4f3f 0c98 013f 3576 7b3f 1972 3d3f
00000080: df68 1b3f 75cb 1b3f 7371 353f 1b0f 103f
00000090: 2c94 643f 361e 4e3f 7eab 093f f287 843f
000000a0: 75b6 163f 4093 583f 7d0e a53f f3e8 473f
000000b0: f7d8 2c3f f500 513f d5ba 253f 1bc1 a73f
000000c0: b3e4 3f3f cc0f bc3f 2bc3 0f3f 8dbf 5d3f
000000d0: 1950 6a3f 8b04 083f bf1a 093f 5ced af3f
000000e0: 60ed d03e f060 6b3f 4074 b53f c3be ae3f
000000f0: 2206 873f fba6 103f ff9e a83f f5e9 263f

base_pointnet.bn_1.bias f4 [64]
-0.33597562 -0.17929119 0.066695124 -0.14682539 -0.23653214 -0.31361485 0.008793136 -0.6072539
-0.14766285 -0.024818927 -0.45973673 -0.052797213 -0.27336738 -0.41422912 0.09605633 -0.23478957
0.019167213 -0.2692039 -0.43139315 -0.31439385 -0.43608797 -0.32724255 0.08886936 -0.29829678
-0.06895226 -0.054147262 -0.63547206 -0.3366422 -0.0030821874 -0.089139275 0.058043238 -0.08582205
0.026357519 0.09683224 -0.18931164 0.022644026 0.2129265 -0.20153454 -0.054357853 -0.15840724
-0.35210025 -0.22439216 -0.23740728 0.018578893 -0.027032362 -0.47284794 -0.1612932 -0.3111162
-0.06459889 -0.25198063 -0.0024754854 0.0106347 -0.33986932 -0.17140539 -0.07510263 -0.10254487
-0.18867528 -0.19538344 -0.32494274 -0.3475042 0.17680152 -0.14744245 -0.0026735172 -0.37863064
00000000: ff04 acbe 1c98 37be 7497 883d 6559 16be
00000010: 7b35 72be 2092 a0be 1611 103c fe74 1bbf
00000020: ee34 17be 1051 cbbc 9d62 ebbe e441 58bd
00000030: cff6 8bbe d715 d4be 2eb9 c43d ad6c 70be
00000040: 8f04 9d3c 18d5 89be 90df dcbe 3bf8 a0be
00000050: ec46 dfbe 568c a7be 2401 b63d 5bba 98be
00000060: d836 8dbd 85c9 5dbd 4cae 22bf 5e5c acbe
00000070: 86fe 49bb a78e b6bd bfbe 6d3d 79c3 afbd
00000080: b9eb d73c fb4f c63d e9da 41be f77f b93c
00000090: 6809 5a3e 125f 4ebe 57a6 5ebd 8235 22be
000000a0: 7c46 b4be 0fc7 65be e51a 73be c332 983c
000000b0: f972 ddbc 2019 f2be 0b2a 25be 9f4a 9fbe
000000c0: 6c4c 84bd 9b03 81be c13b 22bb 2a3d 2e3c
000000d0: 5a03 aebe e584 2fbe 68cf 99bd 0b03 d2bd
000000e0: 1834 41be 9912 48be e55e a6be 12ec b1be
000000f0: 750b 353e 27fb 16be 2d36 2fbb e0db c1be

base_pointnet.bn_1.running_mean f4 [64]
-20.840225 -9.914333 8.515634 13.107076 -13.973548 -4.2784576 4.1932883 -13.069643
1.1268332 1.3401501 -4.466793 14.956675 2.731931 34.008556 28.915176 29.03593
12.659244 -2.0582876 -2.6983678 -1.002444 5.976272 -3.2955356 8.984061 -2.5261798
-3.3747265 -7.5524006 32.663174 0.31661728 -4.9841275 26.067513 -0.76424646 -8.820771
29.731962 -10.144459 -9.887905 -26.556484 3.1368032 -21.698763 14.828938 0.41259134
30.71156 -9.813384 -6.9773517 6.597111 -8.22055 1.9672801 -13.656805 -8.511693
6.7932534 -2.8222637 41.953285 3.7166934 -14.243842 -40.983707 16.409178 -5.3212523
41.642395 -0.41160694 -2.9826481 -2.906621 3.6552339 27.616682 -1.6522777 32.820797
00000000: c8b8 a6c1 1ca1 1ec1 0940 0841 95b6 5141
00000010: a793 5fc1 20e9 88c0 6b2f 8640 421d 51c1
00000020: 123c 903f 0a8a ab3f f8ef 8ec0 8a4e 6f41
00000030: f5d7 2e40 c308 0842 4852 e741 9649 e841
00000040: 438c 4a41 fcba 03c0 0fb2 2cc0 1650 80bf
00000050: 9f3d bf40 0eea 52c0 b7be 0f41 eeac 21c0
00000060: 85fb 57c0 44ad f1c0 17a7 0242 a91b a23e
00000070: f97d 9fc0 448a d041 a8a5 43bf e121 0dc1
00000080: 0fdb ed41 b44f 22c1 dc34 1ec1 ae73 d4c1
00000090: 62c1 4840 1197 adc1 5443 6d41 2c3f d33e
000000a0: 46b1 f541 9f03 1dc1 7746 dfc0 891b d340
000000b0: 5f87 03c1 d6cf fb3f 4682 5ac1 e52f 08c1
000000c0: 5562 d940 f89f 34c0 2ad0 2742 4ede 6d40
000000d0: c7e6 63c1 51ef 23c2 ff45 8341 b347 aac0
000000e0: d091 2642 25be d2be b5e3 3ec0 1406 3ac0
000000f0: 5aef 6940 f7ee dc41 d67d d3bf 7f48 0342

base_pointnet.bn_1.running_var f4 [64]
204.96246 108.45195 67.57627 81.97194 131.3596 89.55793 153.98326 101.39267
29.928835 155.94994 102.64685 143.7237 45.73697 365.49954 298.854 351.86688
86.78448 117.525085 112.52923 76.78872 112.87169 61.106014 119.36147 100.59378
72.39139 76.17595 371.43573 78.433685 79.68042 251.41608 43.82132 84.36384
378.60672 81.407745 113.10826 291.93707 105.41178 289.38934 101.97126 104.96451
282.61868 78.097176 216.7807 57.553455 147.0479 45.304657 90.67326 173.40665
66.571045 102.11538 563.3318 43.332706 250.18463 503.76382 270.0719 145.09084
550.0416 56.08966 79.220955 151.25552 85.502594 266.0805 144.99571 338.85583
00000000: 64f6 4c43 66e7 d842 0d27 8742 a2f1 a342
00000010: 0f5c 0343 a91d b342 b7fb 1943 0cc9 ca42
00000020: 416e ef41 2ff3 1b43 304b cd42 44b9 0f43
00000030: a8f2 3642 f1bf b643 506d 9543 f6ee af43
00000040: a791 ad42 d80c eb42 f70e e142 d393 9942
00000050: 4ebe e142 8f6c 7442 13b9 ee42 0430 c942
00000060: 64c8 9042 165a 9842 c6b7 b943 0cde 9c42
00000070: 605c 9f42 846a 7b43 0849 2f42 49ba a842
00000080: a94d bd43 c4d0 a242 6e37 e242 f2f7 9143
00000090: d5d2 d242 d6b1 9043 49f1 cb42 d4ed d142
000000a0: 314f 8d43 c131 9c42 dcc7 5843 bd36 6642
000000b0: 430c 1343 f837 3542 b658 b542 1a68 2d43
000000c0: 6024 8542 133b cc42 3cd5 0c44 b154 2d42
000000d0: 442f 7a43 c5e1 fb43 3409 8743 4117 1143
000000e0: aa82 0944 d05b 6042 2171 9e42 6a41 1743
000000f0: 5401 ab42 4e0a 8543 e7fe 1043 8c6d a943

base_pointnet.bn_2.weight f4 [64]
1.1160648 1.1152039 1.198817 1.0122654 1.0738944 1.0527782 1.0477341 1.1905332
1.1533455 1.1451479 1.079885 1.0297351 1.3362019 1.2549664 1.048852 1.1298461
1.1292685 1.3942803 1.2251546 1.2777005 1.476322 0.96524704 1.2222722 1.2619821
1.2811818 1.0789261 1.1938525 1.1090139 1.0425541 1.3401127 1.2012252 1.206314
1.258423 1.2547203 1.0541207 1.2165754 1.3597587 0.9940711 1.3508254 1.1883277
1.3148926 1.1448957 1.0268651 1.1143537 1.2452921 1.0543125 1.1139004 1.1601374
1.3173976 1.7563872 1.2982508 1.4847631 1.1733353 1.0799598 1.2468374 1.0809295
1.4344549 1.2783937 1.0917808 1.1807705 1.5052342 1.7193173 1.1157913 1.2040111
00000000: 36db 8e3f 00bf 8e3f d672 993f ea91 813f
00000010: 5f75 893f 70c1 863f 271c 863f 6463 983f
00000020: d3a0 933f 3594 923f ac39 8a3f 5cce 833f
00000030: aa08 ab3f bda2 a03f c840 863f cc9e 903f
00000040: df8b 903f c777 b23f ded1 9c3f b18b a33f
00000050: 1ff8 bc3f 6e1a 773f 6a73 9c3f a188 a13f
00000060: c4fd a33f 401a 8a3f 29d0 983f 2bf4 8d3f
00000070: 6a72 853f d088 ab3f bfc1 993f 7f68 9a3f
00000080: 0114 a13f ad9a a03f 6ded 863f beb8 9b3f
00000090: 930c ae3f 727b 7e3f d9e7 ac3f 1f1b 983f
000000a0: 674e a83f f18b 923f 5170 833f 24a3 8e3f
000000b0: bb65 9f3f b6f3 863f 4a94 8e3f 627f 943f
000000c0: 7ca0 a83f 4cd1 e03f 152d a63f b80c be3f
000000d0: da2f 963f 1f3c 8a3f 5e98 9f3f e65b 8a3f
000000e0: 389c b73f 68a2 a33f 79bf 8b3f 7d23 973f
000000f0: 84ab c03f 9712 dc3f 40d2 8e3f 091d 9a3f

base_pointnet.bn_2.bias f4 [64]
-0.08123536 -0.08211183 0.027511949 -0.04470982 -0.009293639 -0.037295874 -0.0031685836 -0.014168064
-0.04093033 -0.10255172 0.008440832 -0.03198526 -0.084043585 0.00607475 -0.016227257 -0.09861227
-0.015584552 -0.025606526 -0.13632096 -0.049389917 -0.11873327 0.003068129 0.0013496306 -0.08679348
-0.092394955 -0.09531854 -0.012945935 -0.10246523 -0.00092870597 -0.08668652 -0.08201215 -0.15438741
-0.038112257 -0.0342933 -0.018328033 -0.009563184 -0.12706918 0.025977096 -0.10229336 -0.06062847
0.014161688 0.009511594 -0.028420078 -0.038018566 -0.01434062 -0.031764004 -0.108272515 -0.03758481
-0.0478477 -0.15492444 0.014832654 -0.16921718 -0.008113338 -0.041923013 -0.02189167 -0.041480187
-0.010241773 -0.090034686 -0.10860537 -0.18088572 -0.05060063 -0.12773375 -0.0033658815 -0.05396691
00000000: b95e a6bd 3f2a a8bd bd60 e13c a521 37bd
00000010: 5944 18bc 8fc3 18bd 03a8 4fbb 2b21 68bc
00000020: 90a6 27bd a306 d2bd 6a4b 0a3c fa02 03bd
00000030: 0b1f acbd b20e c73b 06ef 84bc 3bf5 c9bd
00000040: 5956 7fbc c7c4 d1bc b997 0bbe 154d 4abd
00000050: 6e2a f3bd aa12 493b 17e6 b03a c8c0 b1bd
00000060: 9139 bdbd 5e36 c3bd 301b 54bc 4ad9 d1bd
00000070: 6774 73ba b488 b1bd fcf5 a7bd bc17 1ebe
00000080: 991b 1cbd 2277 0cbd ac24 96bc e7ae 1cbc
00000090: 6c1e 02be ebcd d43c 2e7f d1bd 8f55 78bd
000000a0: 6d06 683c 84d6 1b3c 39d1 e8bc 5bb9 1bbd
000000b0: ebf4 6abc f91a 02bd fbbd ddbd 88f2 19bd
000000c0: f3fb 43bd 83a4 1ebe a904 733c 4547 2dbe
000000d0: ceed 04bc 77b7 2bbd 2956 b3bc 21e7 29bd
000000e0: 1ccd 27bc 1b64 b8bd 7e6c debd 1b3a 39be
000000f0: 9b42 4fbd a3cc 02be 1f96 5cbb 680c 5dbd

base_pointnet.bn_2.running_mean f4 [64]
-0.09244696 0.36050093 -0.18534099 -0.31128824 -0.3515333 -0.29595545 -0.60945326 -0.21652003
-0.33634663 0.8952188 -1.099478 -0.24694048 0.11590507 -0.059514306 -0.12986296 0.3250421
0.12268349 -0.049834333 0.30143914 -0.6535816 0.06363081 0.20717414 -0.049161583 -0.083276734
0.1789358 -0.22798719 -0.38568988 0.073318556 0.019293299 0.25902128 0.09907318 0.15402412
-0.1502443 -0.61384726 -0.39220008 -0.091712095 0.36358178 -0.20172814 -0.22209516 0.19495584
-0.4205074 0.14025469 -0.4862897 -0.08242466 0.5669991 -0.6285759 0.85096514 0.5642761
-0.0671498 -0.071745776 -0.45452297 -0.11567761 -0.16348585 -0.12712142 -0.36799988 -0.61159325
0.09555219 0.4796664 0.089139186 0.01426103 0.19659781 -0.04356543 0.05344673 -0.24020132
00000000: d554 bdbd 9493 b83e 07ca 3dbe 2c61 9fbe
00000010: 2cfc b3be 7987 97be 2105 1cbf 6db7 5dbe
00000020: a035 acbe 0f2d 653f b2bb 8cbf f7dd 7cbe
00000030: a35f ed3d 46c5 73bd ccfa 04be eb6b a63e
00000040: 7b41 fb3d 161f 4cbd 3b56 9a3e 2051 27bf
00000050: df50 823d 7525 543e a85d 49bd fe8c aabd
00000060: f23a 373e 7975 69be 2579 c5be 0a28 963d
00000070: fb0c 9e3c 709e 843e e1e6 ca3d 80b8 1d3e
00000080: a4d9 19be 1825 1dbf 73ce c8be 8dd3 bbbd
00000090: 6427 ba3e d291 4ebe ea6c 63be 81a2 473e
000000a0: bf4c d7be ed9e 0f3e f7fa f8be 43ce a8bd
000000b0: da26 113f 5aea 20bf dad8 593f 6674 103f
000000c0: d685 89bd 73ef 92bd 3cb7 e8be 62e8 ecbd
000000d0: d668 27be 1e2c 02be 7b6a bcbe 6091 1cbf
000000e0: deb0 c33d d696 f53e 9b8e b63d 18a7 693c
000000f0: f050 493e aa71 32bd f5ea 5a3d 56f7 75be

base_pointnet.bn_2.running_var f4 [64]
0.05326479 0.08374578 0.090055384 0.19989274 0.06514468 0.038456205 0.10747648 0.020493805
0.040723976 0.26640454 0.4813883 0.09193217 0.07704708 0.058495972 0.05420785 0.03559534
0.06155214 0.27509704 0.14879987 0.11731613 0.029112214 1.4546084 0.049970686 0.038435727
0.06156146 0.052244112 0.036147848 0.03716829 0.25496206 0.04160736 0.10131961 0.054059956
0.10098931 0.28906527 0.1496228 0.048704665 0.10896057 0.32959253 0.04859899 0.068436526
0.049292658 0.23009959 0.14386106 0.04427813 0.18853478 0.12726836 0.2591265 0.21410425
0.064472854 0.04707597 0.03854385 0.03493431 0.20613061 0.113372095 0.056355584 0.18392569
0.058432404 0.10074551 0.084661245 0.03988419 0.024940299 0.026758961 0.036334526 0.040745504
00000000: 2e2c 5a3d e882 ab3d f56e b83d afb0 4c3e
00000010: 936a 853d 4184 1d3d a11c dc3d a0e2 a73c
00000020: 2fce 263d 2d66 883e 8778 f63e ef46 bc3d
00000030: dcca 9d3d 7999 6f3d 0d09 5e3d 6bcc 113d
00000040: 191e 7c3d 85d9 8c3e fe5e 183e 7043 f03d
00000050: bd7c ee3c 9c30 ba3f 10ae 4c3d c86e 1d3d
00000060: df27 7c3d ecfd 553d c40f 143d c73d 183d
00000070: 638a 823e 7b6c 2a3d a880 cf3d f96d 5d3d
00000080: 7cd3 ce3d 5d00 943e b836 193e 8b7e 473d
00000090: b826 df3d 5ac0 a83e bc0f 473d 7328 8c3d
000000a0: 19e7 493d 3a9f 6b3e 5050 133e fc5c 353d
000000b0: 430f 413e a352 023e 3bac 843e 253e 5b3e
000000c0: 580a 843d bbd2 403d 28e0 1d3d 4717 0f3d
000000d0: e713 533e a12f e83d 1dd5 663d 0457 3c3e
000000e0: d156 6f3d a953 ce3d e062 ad3d 9b5d 233d
000000f0: 994f cc3c 9c35 db3c 83d3 143d c2e4 263d

fc_1.weight f4 [64, 66]
0.1361894 -1.3119853 0.00906241 0.03842878 -0.12342873 0.10987142 -0.0680977 -0.07295946
-0.0061005033 0.2802833 0.02610325 -0.051007725 -0.079709075 0.10062905 0.01008524 -0.10463393
0.023968369 -0.11566141 -0.049801607 0.08607102 0.026131468 0.034430437 0.14118189 0.07115099
0.07392893 0.0005993754 0.09548771 -0.0784504 0.01665798 -0.10430902 0.07825446 -0.087879725
0.08969852 0.065168925 -0.051235642 -0.017074982 0.061429556 0.09304549 0.019163007 0.056708645
-0.19297479 0.049651984 -0.00426343 0.13188861 0.036746856 0.02664449 0.0019687747 0.03412502
0.011269643 -0.04133233 0.12270915 -0.25711644 -0.043341096 -0.098938234 -0.056754526 0.022395128
0.053886775 0.07522136 -0.13177246 0.04019445 -0.04454284 0.050699584 -0.023589183 -0.11842731
0.11587445 0.087979466 -0.03207626 0.120411746 -0.039636947 0.040378924 -0.04458466 -0.003763122
0.1690113 0.025435744 0.0070342515 0.064832024 0.09133738 0.12019174 0.14256024 0.0751577
0.081197515 0.20527917 0.1676851 0.034091882 -0.15704972 0.12660323 0.003890357 -0.04631021
0.2179473 -0.07844232 -0.09533236 -0.07885683 0.10101944 0.04765942 -0.0045659463 -0.03819592
-0.06300742 -0.057238586 0.07991911 -0.030516068 -0.0057484508 0.015344654 0.09090021 -0.10127984
0.08919035 0.052487463 0.019141534 -0.11800944 0.23372251 0.07686395 0.15548651 0.10415253
-0.06138322 0.088556156 -0.08700963 -0.077015154 0.06893724 0.2141521 0.19784862 -0.041018743
0.039524075 0.04000926 0.051561724 0.14200225 -0.11134665 0.16754182 -0.033387892 -0.12121731
-0.01650943 -0.021405635 0.112896524 -0.083767764 0.18864508 -0.10915169 0.11848644 0.054093454
-0.055356737 -0.029717725 -0.017784448 0.04488777 0.0905797 0.11586372 0.037274778 -0.11349307
0.02774067 -0.047561776 -0.070439406 -0.163468 0.040867686 -0.0037174518 -0.01758829 0.0641311
-0.05256889 -0.10645838 -0.15388402 -0.11099963 -0.06565713 0.0039008206 -0.06743692 -0.065491535
0.035883047 0.054076027 0.029676804 -0.013633758 0.020501487 0.06652946 0.015780153 -0.14120798
0.030885842 0.027032502 -0.017239254 -0.1523365 -0.046514448 0.06281166 -0.09323283 0.14763041
-0.003211553 -0.00954194 -0.03133359 -0.08403363 -0.08801708 -0.10890436 0.037391834 -0.103300184
-0.058586285 0.073371686 -0.0658214 0.027718013 -0.039030246 -0.012049285 0.1524848 -0.040452998
0.08083983 -0.005389406 -0.031750094 0.01820668 -0.17214577 -0.067993395 0.013227729 -0.050837856
-0.032079253 -0.09593144 0.0811421 0.086631745 -0.0061649145 0.072733395 -0.039064012 -0.03864939
-0.028156951 0.025649931 -0.051724423 -0.1285527 -0.039826382 -0.09078934 0.0566106 0.10772742
0.01718392 0.011201135 -0.094964765 -0.045470424 0.047781575 -0.044104107 0.08366684 0.06269956
-0.001366386 -0.10652394 -0.12771356 -0.058971938 -0.0742667 0.067918256 0.0308683 -0.05744602
-0.028732482 0.09728794 -0.0765407 0.094537534 0.011760089 0.026237613 0.0035138365 -0.113405235
-0.04182337 -0.13293138 -0.12955311 -0.05388711 -0.06450578 -0.110294245 -0.037351515 0.0052648927
-0.015105749 0.05637233 -0.01662316 0.08240019 0.021293486 -0.08348203 0.082962535 0.007917888
00000000: 3c75 0b3e 22ef a7bf 817a 143c 7f67 1d3d
00000010: 34c8 fcbd 4404 e13d cf76 8bbd c56b 95bd
00000020: bbe6 c7bb 4b81 8f3e 7cd6 d53c 7aed 50bd
00000030: 833e a3bd 9a16 ce3d 903c 253c 504a d6bd
00000040: 5059 c43c e4df ecbd c5fc 4bbd 0146 b03d
00000050: a911 d63c ee06 0d3d fc91 103e 9cb7 913d
00000060: 0d68 973d 671f 1d3a 0f8f c33d 9aaa a0bd
00000070: 5176 883c f89f d5bd e043 a03d 49fa b3bd
00000080: dcb3 b73d 4977 853d 77dc 51bd d5e0 8bbc
00000090: 8f9d 7b3d a28e be3d bdfb 9c3c 5347 683d
000000a0: 2f9b 45be e15f 4b3d 3eb4 8bbb cf0d 073e
000000b0: df83 163d 8c45 da3c 8f06 013b adc6 0b3d
000000c0: 4fa4 383c 174c 29bd ef4e fb3d c4a4 83be
000000d0: 6f86 31bd 21a0 cabd 6f77 68bd fd75 b73c
000000e0: 61b8 5c3d a80d 9a3d 5cef 06be f0a2 243d
000000f0: 8e72 36bd 5eaa 4f3d 1a3e c1bc 048a f2bd
00000100: 954f ed3d 942e b43d 6562 03bd 6f9a f63d
00000110: 5a5a 22bd 5f64 253d 689e 36bd b69e 76bb
00000120: 4c11 2d3e 9f5e d03c 947f e63b a7c6 843d
00000130: 180f bb3d 1627 f63d 50fb 113e 48ec 993d
00000140: e24a a63d b434 523e a5b5 2b3e eea3 0b3d
00000150: a4d1 20be 47a4 013e 5cf5 7e3b c6af 3dbd
00000160: 942d 5f3e 5ea6 a0bd 9d3d c3bd b17f a1bd
00000170: 48e3 ce3d 8636 433d ef9d 95bb 5373 1cbd
00000180: 090a 81bd 0273 6abd a1ac a33d d5fc f9bc
00000190: 805d bcbb 2568 7b3c e429 ba3d ce6b cfbd
000001a0: 6ea9 b63d 18fd 563d b5ce 9c3c efae f1bd
000001b0: f454 6f3e d96a 9d3d db37 1f3e ec4d d53d
000001c0: f96c 7bbd ee5c b53d 1b32 b2bd 1fba 9dbd
000001d0: f82e 8d3d b04a 5b3e d498 4a3e 4503 28bd
000001e0: ffe3 213d c0e0 233d 6332 533d 0a69 113e
000001f0: b609 e4bd 1590 2b3e bec1 08bd c840 f8bd
00000200: c93e 87bc df5a afbc 4b36 e73d 6f8e abbd
00000210: 2d2c 413e ec8a dfbd 05a9 f23d 1991 5d3d
00000220: bfbd 62bd 9672 f3bc b1b0 91bc 3ddc 373d
00000230: da81 b93d f549 ed3d 70ad 183d 0e6f e8bd
00000240: 6740 e33c 23d0 42bd 8942 90bd 2864 27be
00000250: e064 273d 7ea0 73bb 5115 90bc 2b57 833d
00000260: 7a52 57bd da06 dabd c693 1dbe c653 e3bd
00000270: 3f77 86bd e9a4 7f3b 5e1c 8abd 6d20 86bd
00000280: 1afa 123d d37e 5d3d c51c f33c 2060 5fbc
00000290: bcf2 a73c 9940 883d 6145 813c d398 10be
000002a0: 4e04 fd3c 4473 dd3c 5639 8dbc 19fe 1bbe
000002b0: ef85 3ebd 66a3 803d dbf0 bebd 6d2c 173e
000002c0: eb78 52bb cc55 1cbc a757 00bd d319 acbd
000002d0: 4d42 b4bd 4009 dfbd 2e28 193d 0c8f d3bd
000002e0: 2cf8 6fbd e543 963d 5fcd 86bd e310 e33c
000002f0: 2ede 1fbd 5d6a 45bc fa24 1c3e 0bb2 25bd
00000300: 5a8f a53d 9d99 b0bb 630c 02bd 2d26 953c
00000310: fb46 30be 1f40 8bbd 1eb9 583c 5b3b 50bd
00000320: 8965 03bd b477 c4bd d42d a63d fc6b b13d
00000330: 0d03 cabb 3ff5 943d 9601 20bd d34e 1ebd
00000340: 68a9 e6bc ce1f d23c fddc 53bd 52a3 03be
00000350: fd20 23bd c3ef b9bd 84e0 673d 32a0 dc3d
00000360: 4bc5 8c3c f784 373c e37c c2bd 323f 3abd
00000370: 9db6 433d 82a6 34bd 8559 ab3d a068 803d
00000380: 4e18 b3ba 3929 dabd 58c7 02be 8f8c 71bd
00000390: 2419 98bd ba18 8b3d 84df fc3c 854c 6bbd
000003a0: 6260 ebbc e63e c73d 5fc1 9cbd e59c c13d
000003b0: 63ad 403c 43f0 d63c 6548 663b 0141 e8bd
000003c0: fb4e 2bbd 2a1f 08be 92a9 04be bbb8 5cbd
000003d0: 9b1b 84bd f3e1 e1bd e7fd 18bd 1f85 ac3b
000003e0: 1a7e 77bc ace6 663d 4b2d 88bc 6ec1 a83d
000003f0: ad6f ae3c a0f8 aabd 43e8 a93d 08ba 013c

fc_1.bias f4 [64]
-0.054315828 0.0012555164 0.043578275 -0.08451256 -0.02189749 0.029518982 -0.017936481 0.07407253
0.12665392 -0.043572243 0.016714368 -0.016117027 -0.043660738 0.06519957 -0.043612838 -0.007861391
0.09189359 0.12759131 0.06985855 0.104915 -0.007262734 -0.023763075 0.08513644 -0.14250392
-0.041567568 -0.09587551 0.076315954 -0.009855625 0.13385254 0.1526239 0.03390631 0.050498553
-0.065848395 0.08503082 0.05600144 0.25923625 0.1014406 0.013278026 0.051375646 -0.12622315
0.030823125 -0.046661317 0.0075092413 0.09327798 -0.07352619 -0.042881045 0.07348244 0.11357397
0.024075514 0.12282259 -0.014160519 0.09883684 -0.07551224 0.13863125 -0.13107629 0.20458874
0.09972132 -0.06015351 -0.024860296 -0.08790289 0.12027843 0.093233004 -0.0074332124 0.09908209
00000000: 467a 5ebd 2490 a43a 227f 323d ec14 adbd
00000010: 5d62 b3bc cbd1 f13c 87ef 92bc 57b3 973d
00000020: 91b1 013e cf78 32bd 92ec 883c db07 84bc
00000030: 9ad5 32bd 5a87 853d 60a3 32bd 10cd 00bc
00000040: b532 bc3d 4ca7 023e 0012 8f3d addd d63d
00000050: 3bfc edbb c8aa c2bc 045c ae3d 8cec 11be
00000060: c142 2abd 615a c4bd 8a4b 9c3d 7d79 21bc
00000070: a410 093e 7149 1c3e 58e1 0a3d 92d7 4e3d
00000080: 86db 86bd a324 ae3d c461 653d 9dba 843e
00000090: 17c0 cf3d 148c 593c 456f 523d a440 01be
000000a0: c780 fc3c f01f 3fbd 1510 f63b 8708 bf3d
000000b0: e694 96bd 09a4 2fbd f67d 963d 7899 e83d
000000c0: 033a c53c 698a fb3d 8501 68bc f86a ca3d
000000d0: 29a6 9abd 5af5 0d3e dd38 06be b67f 513e
000000e0: b13a cc3d 8763 76bd d2a7 cbbc 6e06 b4bd
000000f0: 8a54 f63d f2f0 be3d 4e92 f3bb 8deb ca3d

fc_2.weight f4 [3, 64]
0.70013267 -0.15527889 0.1903714 0.10492945 -0.019576935 -2.1764317 -0.0016831309 0.13963753
-0.12955976 -0.04095251 -0.03489927 0.33720016 -0.025336742 -0.09642957 0.7695511 -0.4460743
0.29139698 -3.7906518 0.30676767 -2.2707329 2.2402291 -0.11233964 -0.20781377 -0.09505983
0.32474154 0.108575776 1.2834476 -0.061358284 2.926181 -0.08184246 -0.15119226 0.06472166
-0.095070936 0.46857154 -0.8609224 0.5248785 0.10932292 0.100409314 -0.012985689 0.065049335
-0.019267177 -1.9255301 1.0209383 0.6966376 -0.10373438 0.3101955 -0.0048482106 1.9577279
-3.158084 -0.05050481 1.4268113 -0.043411866 -3.5344987 1.392394 0.16675618 1.6208513
2.1801236 -0.09158155 -1.2117345 2.4754052 0.3223586 0.16157289 1.3559713 0.0132543985
0.17289491 -0.0013628028 -0.23485224 -0.037682455 0.09084468 0.4088875 -0.0605046 0.33720493
-0.030248992 0.06491281 0.08256046 -0.23930128 0.068256944 -0.1059656 1.709718 -0.3404406
-0.26879224 2.2556446 -0.49905697 1.4483589 3.5564685 -0.10375207 0.21761787 -0.08598064
-0.5022289 -0.058030546 -1.1588149 -0.055029612 -4.999864 0.1259503 0.2360162 -0.108496994
-2.3266616 -2.375295 1.6087292 1.4699209 0.055843115 0.0486971 0.083073 0.3564518
0.32013232 2.5186858 -2.4410772 0.73365384 -0.07158692 -0.22569498 0.038066566 -5.015649
5.589516 -0.06193322 -0.4027268 -0.08637958 2.1152067 -0.5683745 0.273499 -0.098654225
-1.8982056 0.0192108 -0.4261211 1.493165 -0.849333 0.3135546 -5.4702086 0.03041452
-0.74102575 0.1336063 -0.08154371 -0.08557298 -0.053461704 1.8733953 -0.12183629 -0.113734126
0.11677881 -0.015878845 0.07725051 -0.28404856 -0.08689818 -0.12056841 -6.8117585 0.6153766
-0.30353618 3.165117 -0.18477434 1.703761 -1.6146581 -0.016358495 -0.03695632 -0.068556145
-0.17433073 0.013288021 -0.63264835 -0.07761609 1.097462 0.11506523 -0.14088206 0.15147513
0.88379884 0.8827341 0.56740505 -3.158978 -0.006365705 0.10183574 0.07495003 -0.21303417
-0.05141 1.4483217 0.412857 -0.9731632 -0.015265338 -0.2624067 -0.08347803 0.45077157
-0.10514966 0.038246557 -0.7836852 0.059084587 3.236847 -1.2096907 -0.21225284 -3.2255185
-0.5516385 0.048265263 1.3247107 -3.347548 -0.019646147 -0.22340177 -0.19245014 0.03215839
00000000: e53b 333f 6e01 1fbe b8f0 423e 40e5 d63d
00000010: cf5f a0bc a84a 0bc0 809c dcba 24fd 0e3e
00000020: 50ab 04be d2bd 27bd 89f2 0ebd 80a5 ac3e
00000030: 008f cfbc de7c c5bd 4d01 453f da63 e4be
00000040: fc31 953e 0a9a 72c0 a710 9d3e b053 11c0
00000050: ea5f 0f40 5312 e6bd 22cd 54be baae c2bd
00000060: 8644 a63e fa5c de3d 0348 a43f d352 7bbd
00000070: 8d46 3b40 059d a7bd 25d2 1abe ca8c 843d
00000080: 8db4 c2bd 9ce8 ef3e 6965 5cbf 705e 063f
00000090: b2e4 df3d 66a3 cd3d edc1 54bc 9638 853d
000000a0: 33d6 9dbc c577 f6bf 1bae 823f d756 323f
000000b0: b172 d4bd f2d1 9e3e bddd 9ebb d496 fa3f
000000c0: 0c1e 4ac0 22de 4ebd c1a1 b63f a4d0 31bd
000000d0: 3a35 62c0 f739 b23f 22c2 2a3e 0e78 cf3f
000000e0: 2587 0b40 1c8f bbbd 1e1a 9bbf 0a6d 1e40
000000f0: 300c a53e 5d73 253e 7890 ad3f fa28 593c
00000100: 5d0b 313e 13a0 b2ba 1b7d 70be eb58 1abd
00000110: c70c ba3d b459 d13e acd3 77bd 20a6 ac3e
00000120: bccc f7bc 02f1 843d 7515 a93d 650b 75be
00000130: 4cca 8b3d 7e04 d9bd 0ad8 da3f 3b4e aebe
00000140: 239f 89be 7b5c 1040 6584 ffbe d363 b93f
00000150: 2e9d 6340 f77b d4bd 38d7 5e3e 9e16 b0bd
00000160: 1392 00bf 70b1 6dbd 0c54 94bf bb66 61bd
00000170: e3fe 9fc0 1ef9 003e 3bae 713e ac33 debd
00000180: 06e8 14c0 d504 18c0 d7ea cd3f 5e26 bc3f
00000190: c0bb 643d 9c76 473d 2d22 aa3d da80 b63e
000001a0: 62e8 a33e 2632 2140 9c3a 1cc0 bdd0 3b3f
000001b0: 2a9c 92bd 961c 67be b0eb 1b3d 3280 a0c0
000001c0: 51dd b240 b0ad 7dbd 3532 cebe c7e7 b0bd
000001d0: 8c5f 0740 fe80 11bf 1008 8c3e 3a0b cabd
000001e0: 67f8 f2bf f85f 9d3c 8b2c dabe 0820 bf3f
000001f0: e36d 59bf 3b8a a03e f30b afc0 df27 f93c
00000200: ddb3 3dbf 17d0 083e 6300 a7bd e340 afbd
00000210: a9fa 5abd 6bcb ef3f 4e85 f9bd 70ed e8bd
00000220: bb29 ef3d 5a14 82bc 8435 9e3d d06e 91be
00000230: acf7 b1bd 92ec f6bd edf9 d9c0 5289 1d3f
00000240: 1869 9bbe 4791 4a40 7c35 3dbe d714 da3f
00000250: 1ead cebf 4002 86bc 835f 17bd 2a67 8cbd
00000260: c183 32be 00b6 593c 3ef5 21bf 2ff5 9ebd
00000270: a379 8c3f 52a7 eb3d 6343 10be 4c1c 1b3e
00000280: a440 623f ddfa 613f 7541 113f b22c 4ac0
00000290: 6797 d0bb 428f d03d 677f 993d a125 5abe
000002a0: 4b93 52bd 9b62 b93f fe61 d33e 3921 79bf
000002b0: 781b 7abc 2c5a 86be 88f6 aabd 88cb e63e
000002c0: b458 d7bd 6ca8 1c3d 989f 48bf ae02 723d
000002d0: 8028 4f40 25d7 9abf cf58 59be e56e 4ec0
000002e0: 2e38 0dbf ccb1 453d 1f90 a93f 3a3e 56c0
000002f0: f5f0 a0bc 6fc3 64be a611 45be 84b8 033d

fc_2.bias f4 [3]
-0.08492679 0.11451585 0.016482532
00000000: 19ee adbd 4987 ea3d 6006 873c
