Additional stuff/segmentation_pointnet_fmeanpstorefake2.pth (torch, 79170 bytes, 18 tensors)

base_pointnet.conv_1_a.weight f4 [64, 1, 3]
00000000: ce0c dbbe 52bc a2be d3ab 1f3f 4d2f f93d
00000010: fcc4 d1be 4496 c1be a16f 3cbe d781 653e
00000020: b98a a53d b975 2d3e 07e9 78bd 6bcb 09be
00000030: 4f3e 04bf 2d7a 5ebe 2cdd 8fbe 1b6a 883e
00000040: 01ef 4dbe d0c6 373d ed00 f33d 5170 99be
00000050: aad3 68be 53da 673e 4359 05bf b5be 903e
00000060: 54ed 0ebd 897b f7be 77b5 ea3e d28d d0be
00000070: 5156 e63e ca63 14bd d39e 0abe 1ae5 963d
00000080: 0946 843e 00ce 34be cee9 c1be d77a ac3e
00000090: 2f2b bc3e 7b0b 59be 9161 48be 1dd7 54be
000000a0: 869f e5be 6318 93be 69b7 53be 1aad c7bb
000000b0: 3e10 e0be e7f3 75be 8e00 5e3a 2f24 6fbd
000000c0: f41e 3abe 8214 ed3e bb53 20be e3a6 5bbe
000000d0: 426b e9ba 3ee5 6f3e 1e72 863d 5e82 223d
000000e0: f573 8bbe a89e 693e c17c dcbd 16e8 b6bd
000000f0: 4ba4 98bb b611 a1be 9a7f 883e c0f7 0ebf
00000100: 0005 9e3e f8d1 7a3d 1062 cc3e bc77 a9be
00000110: 126a 393e 75d2 cc3e 358d e8be 8c64 b2be
00000120: 60cd eabd 4979 40be 35ba 353e c39d 3dbe
00000130: def4 93be 9f1d 643e 9701 d53e 7809 dcbe
00000140: bef4 963d 8bf8 12bd d5a4 5e3e d970 5fbe
00000150: 9ef1 55be 434b 55be eb10 e93e 8647 b73e
00000160: 2831 c23e 511f 00bf f008 78bc c871 fa3d
00000170: 16ae a2bc 2d34 17be 3a29 8b3c a7f2 093e
00000180: 7950 d6be 7984 6e3e 2f85 ca3e 200f 8bbe
00000190: 83a0 66be 1619 a53e a415 f63d fbc7 b93d
000001a0: 9cb6 50be 50a4 fbbd 1767 143e 8c08 eb3c
000001b0: 11d3 d43e 4339 f4be 7be3 5e3e 1c77 6abe
000001c0: 7138 543e 6dd4 e43c d096 a03e c52f 0c3e
000001d0: 3431 383f ab37 b13c 7592 a23e e337 b3be
000001e0: b6c3 07bf e679 083f 0d51 173c 2f5f a8be
000001f0: 5c6f 9c3e e6ca 303e 1f8e 52bc 8ca1 f0be
00000200: daeb 973e 6223 d33e 92ef e8be fbec 5abe
00000210: b31c b23e 18b8 9cbe 96ed 83be 4fb3 dd3d
00000220: 0ef7 123e a501 00be 9099 e73e 894e b6be
00000230: 8a29 b8be 32d0 c7be 9abd e23e 8511 413d
00000240: aed4 ed3e e485 a83e bd25 ddbe 9634 1cbe
00000250: edb4 06bf 5b6a e43e 8ae7 3fbe 5d07 8abd
00000260: 3782 18bd e30c 61be e93e 613e 6ac9 aebe
00000270: 18fb 4ebd aa95 3f3b 7f45 093c 7498 e0be
00000280: fb26 e0bd a1ee 133f 7560 a5be d451 673e
00000290: 5cb0 0f3d 3be7 9ebe ab0f 06bd 362e 843d
000002a0: 8e83 7abe 8add d03e 4abc 7abe 9250 043e
000002b0: f322 aabd 4018 843c f29f a23e 6666 b9be
000002c0: 26a8 96be 784f 553c 5ce8 c83e 3d64 8dbe
000002d0: 44c2 ee3d 136f 0d3f c50d 01bf ff78 40be
000002e0: c710 aebe e1f9 fc3e 254f 0f3e 884b 89bd
000002f0: cb3f 51be 209f 0c3f 69f6 cdbe 15de 98be
-0.42783207 -0.31784302 0.6237156 0.12167225 -0.409706 -0.37809956 -0.18401958 0.22412811
0.080831 0.16939439 -0.060769107 -0.13456504 -0.51657575 -0.21726294 -0.28098428 0.26643452
-0.20110704 0.044867337 0.11865411 -0.29968503 -0.22736993 0.22641878 -0.5208933 0.28270498
-0.034894302 -0.48336437 0.45841572 -0.407332 0.4498773 -0.03622798 -0.13537149 0.073679164
0.25834683 -0.17656708 -0.3787369 0.3368747 0.36751696 -0.21195786 -0.19568469 -0.20785184
-0.4484827 -0.28729543 -0.20675434 -0.0060936334 -0.43762392 -0.24018823 0.00084687106 -0.058384117
-0.1817587 0.4630471 -0.1565694 -0.21450381 -0.0017808455 0.23427293 0.06564735 0.03967511
-0.27236906 0.22814429 -0.107659824 -0.08930986 -0.004658257 -0.31458825 0.26659852 -0.55846786
0.3086319 0.061235398 0.39918566 -0.33099163 0.18106869 0.40004316 -0.45420232 -0.34842336
-0.114649534 -0.18796267 0.17746814 -0.18517213 -0.28897756 0.22276925 0.41602775 -0.42975974
0.073708996 -0.03588156 0.21742566 -0.21820392 -0.20892951 -0.20829491 0.4552072 0.35796756
0.37928128 -0.50047785 -0.01513885 0.12228733 -0.019858401 -0.14765997 0.016987432 0.13471471
-0.4185827 0.23292722 0.39554736 -0.27159977 -0.22522168 0.32245702 0.12015846 0.09071346
-0.2038216 -0.122871995 0.1449245 0.028690599 0.4156728 -0.47699937 0.21766464 -0.22896999
0.20724656 0.027933324 0.3136506 0.13690098 0.7195008 0.02163299 0.31752363 -0.35003576
-0.53033006 0.53311 0.009235633 -0.3288512 0.3055371 0.172649 -0.012851267 -0.4699825
0.29672128 0.41237932 -0.45495278 -0.21379463 0.3478752 -0.30609202 -0.257672 0.10825216
0.14352056 -0.12500627 0.45234346 -0.35606793 -0.35969192 -0.39026028 0.4428528 0.04713585
0.46451324 0.3291465 -0.43192855 -0.15254435 -0.5261982 0.44612393 -0.18740669 -0.06739686
-0.037233558 -0.21977572 0.21996655 -0.34138042 -0.05053243 0.0029233494 0.008378386 -0.43866313
-0.10944935 0.57785994 -0.32300153 0.22589809 0.0350803 -0.3103579 -0.032729786 0.064541265
-0.24464247 0.4079402 -0.24485889 0.1292136 -0.08307447 0.016124845 0.31762654 -0.36210936
-0.29425162 0.013019435 0.39239776 -0.27615538 0.11658147 0.5524761 -0.50411636 -0.18796156
-0.33997175 0.49409392 0.13995035 -0.067038596 -0.20434491 0.54930305 -0.4022706 -0.29856935

base_pointnet.conv_1_a.bias f4 [64]
00000000: dee4 033e 0071 94be 9759 adbe d1c8 9bbe
00000010: 79cb c23e 1226 fa3d 7a94 10bf fe92 f43e
00000020: d1be c93c a7ae 9abd 2400 023f 8994 9cbe
00000030: d2e9 cf3d 0fa6 873e 8d2b 8d3d d7ab 0ebf
00000040: 6cb2 aa3e 9287 52bc 9e30 933d cf68 e6be
00000050: 39ee 1e3d 9f18 45be 1589 bdbe 09ec a5bd
00000060: 70d2 a2bd 6ebb 023f 965b ddbe bd7c 8dbd
00000070: 658c a1bd 465e 0bbf 6675 93be debe 5dbe
00000080: 45b4 38be a7ae 79be 2ea4 b63e db5c f03e
00000090: 7a1d 283e fdca 7ebe 7a4d 093f 646c a1be
000000a0: d350 8f3e 47aa afbe 782e 5e3e bade ef3e
000000b0: d927 393d 4a98 06bf 12d2 f2be 50cd 80be
000000c0: 6ac9 c83e 18ba a83e b43a e43d 9345 2fbe
000000d0: 7098 02bf d8c1 2e3e 546c 923e 8ce8 81be
000000e0: b65c c13a afbe d4bd 2a6d a3be 6207 80be
000000f0: 4c26 d2bd d4c3 8fbe 0b20 9b3d 744e c4be
0.12880275 -0.28992462 -0.33857414 -0.30426648 0.38045862 0.122142926 -0.5647656 0.47768396
0.024627121 -0.075528435 0.50781465 -0.30582073 0.101520196 0.2649388 0.06893072 -0.55730957
0.3333925 -0.012849705 0.07187007 -0.45001838 0.038801406 -0.19247673 -0.37018648 -0.08101661
-0.07950294 0.51067245 -0.43233937 -0.069085576 -0.07888106 -0.54440725 -0.28800505 -0.21654841
-0.18037517 -0.24383031 0.35672134 0.46945843 0.16417494 -0.24882121 0.53633845 -0.31528008
0.2799135 -0.343096 0.21697414 0.46849614 0.045204017 -0.52576125 -0.47425896 -0.2515664
0.39216167 0.32954478 0.11144009 -0.17116384 -0.5101385 0.17066133 0.28598273 -0.25372732
0.0014752361 -0.103879325 -0.31919223 -0.25005633 -0.10261211 -0.28079093 0.07574471 -0.38341105

base_pointnet.conv_1_b.weight f4 [64, 1, 3]
00000000: 6ba8 0dbf 59e4 443d 42d0 2e3f c44c 203f
00000010: ff85 b33e fb12 c03e 4c6b 0fbe b7e2 61be
00000020: 12dc cb3e 93df 173f 125b fdbe 5d04 c43e
00000030: 60fb 0abf ac56 c33e 3509 b4be ef66 86be
00000040: e9ba 9fbe 1c12 1a3f ab7d 1e3e eafe 0fbe
00000050: 3da9 ca3d 9a96 333e 5f0c 663f 86fb 253f
00000060: 65c6 e3bd 6b56 ae3e c7f7 2abe f9ee c63d
00000070: d95f 0c3e c53b 073f 8eea 07bf bd90 1dbf
00000080: d9f8 33bf e172 75be 7c1e 973e c9f3 51be
00000090: f1f4 9a3e 675d c93e 924d 683e 66b8 cd3e
000000a0: 918d 693e 726e 0c3e acf2 093f 413d aa3e
000000b0: 2f45 98be 5fa5 f8be e4a1 193f 56d0 a93e
000000c0: 6372 e43e c342 13be 1e09 1fbe 2a60 84be
000000d0: f514 ed3c a988 a33e 2f16 c93e 2674 94be
000000e0: 038e 503f fc71 5f3f d8ce 98be 662a 25bf
000000f0: 9185 44be 7f82 223f 94a9 6e3e 30b7 ed3e
00000100: 5c76 c9be 241f 8b3e fd1f 233e f709 f63e
00000110: 1de2 f8be 820e d7bd fc50 69be 1cdc b7be
00000120: 6bcc 8d3e 5b5f 0cbf 2fa6 09bf d2b3 f33e
00000130: 6cf7 23bf ac76 343f dc9b 9bbe 9851 43bf
00000140: f17e 79bf 64d3 ebbd f604 a23e a121 c1be
00000150: f81a 0b3e 68ee 643e fa44 8abc 80ea 983e
00000160: 2a8b aabe 9459 15bf 4a47 d5be 7ff1 e3bc
00000170: 4e88 523f 19b1 6a3f 0908 15bf 5948 15bf
00000180: 5654 fabe 9b85 b3be cf85 b2be d26b 933e
00000190: 5d63 04bf 18ab 1e3f 10c3 f13e 8f49 9e3e
000001a0: 0a62 983d ccf8 22bc 9270 d1be e1ac 03bf
000001b0: 7e30 5c3f 61a2 4d3f 26a4 053f 7d1e abbb
000001c0: 2fd6 38bf 5380 2ebf b838 333e 3c8c a73e
000001d0: 3e1a 843e eeb6 ecbe eaea c3be c766 2cbf
000001e0: 849b 8ebe ccb5 923e 871a 9cbe a51b 3cbf
000001f0: a667 ecbe e323 9abe a75e 3a3f 143a 423f
00000200: 1c14 f83e 936b 9f3e 3603 a7be b342 f2bc
00000210: 5e03 61be db8d 963e b2a0 b93e 10c2 51bf
00000220: f771 9bbe f6ad b43e 09c2 12be b837 b6be
00000230: ea46 50bf 32bc e6be 46f6 da3e 196a f03e
00000240: 416a 44bf 73ef 95bd 12e7 dd3e 9001 e6be
00000250: 5c57 c83d 3b93 833e cd10 64bd f662 96be
00000260: a494 323f bba5 de3e 4272 f63e ddca a73d
00000270: 432f 3bbe 9e5c 2e3f 92d6 88be d8fc 013f
00000280: 37a1 bfbe 2051 10bf 49cb c0be 53b2 08bf
00000290: a221 c2be df0f 573f ff73 093f fff9 44be
000002a0: a1d6 eb3e 45c8 69be f7aa eb3e c7f5 e3be
000002b0: 7d7d 163e 465b 2cbe cad1 223f 6eab 153d
000002c0: f847 143f 2c07 b13d a046 033f a9aa 2bbf
000002d0: 0b90 50be d21b 163e da92 123f 76c6 5bbe
000002e0: e9ed bfbe f4c1 c4be bf24 6bbe e51f 2dbf
000002f0: 8b0e b93e eee9 72bf 6fae 46bf ea82 913e
-0.5533511 0.04806933 0.68286526 0.62617135 0.35063168 0.3751448 -0.14005774 -0.22059141
0.39816338 0.5932552 -0.49483544 0.3828458 -0.5428982 0.38152063 -0.35163274 -0.26250407
-0.3119729 0.6018388 0.15477626 -0.14062086 0.09895561 0.17537919 0.89862627 0.6483692
-0.11121825 0.34050307 -0.16696082 0.09713549 0.13708438 0.52825576 -0.5309228 -0.6154898
-0.70301586 -0.23969604 0.29515445 -0.20503153 0.30265 0.39329073 0.2268584 0.40179747
0.2280791 0.13714007 0.5388591 0.33249858 -0.29740283 -0.48563668 0.6001265 0.3316676
0.4461852 -0.14380936 -0.15530822 -0.25854617 0.028940657 0.319402 0.39274737 -0.28994864
0.8146669 0.872833 -0.2984531 -0.6451782 -0.19191577 0.6348037 0.23306876 0.46428823
-0.39348114 0.27172196 0.15930171 0.48054478 -0.4861001 -0.10500814 -0.227848 -0.35910118
0.2769502 -0.54833 -0.537692 0.4759813 -0.6404941 0.7049358 -0.3039235 -0.7629638
-0.9745932 -0.11514929 0.3164441 -0.3772097 0.13584507 0.2235657 -0.016878594 0.2986641
-0.333093 -0.5833981 -0.41655952 -0.027825115 0.82239234 0.9167648 -0.58215386 -0.5831352
-0.48892468 -0.3506287 -0.34867713 0.28793198 -0.51714116 0.6197982 0.47219133 0.30915496
0.074405745 -0.009947013 -0.40906197 -0.5143567 0.86011493 0.80325896 0.52203596 -0.0052221403
-0.7220182 -0.6816456 0.17502105 0.32724178 0.2580127 -0.46233314 -0.38265163 -0.67344326
-0.27853024 0.28654325 -0.3048899 -0.7347968 -0.46172827 -0.30105504 0.7280068 0.7586987
0.48452842 0.3113676 -0.32619637 -0.02957282 -0.2197394 0.29405102 0.36255413 -0.8193674
-0.30360386 0.35288972 -0.14331831 -0.35589385 -0.81358206 -0.45065457 0.42766017 0.46955946
-0.7672463 -0.07321062 0.43340355 -0.44923067 0.097822875 0.25698265 -0.055680085 -0.29372376
0.6975806 0.43485817 0.48134047 0.0819299 -0.18279748 0.6811007 -0.26726204 0.50776434
-0.37427685 -0.56373787 -0.37655094 -0.533971 -0.37916285 0.8400859 0.5369262 -0.19235991
0.46062186 -0.22830303 0.46028873 -0.4452345 0.14696307 -0.16831693 0.6360136 0.03654044
0.57922316 0.08643946 0.5127964 -0.6705728 -0.20367448 0.1465905 0.5725533 -0.21462426
-0.374862 -0.38429224 -0.22963236 -0.6762679 0.36143908 -0.948882 -0.77609915 0.28420192

base_pointnet.conv_1_b.bias f4 [64]
00000000: 6445 b2bd d31c 03be 314f 293e 4f7d b3be
00000010: 1b08 83be 85c9 fcbe 4a4d e0bd 7637 e03e
00000020: bbd7 593e 5fdd 0a3f 5a97 8f3e 25e9 2fbe
00000030: eaaa 5bbe 1280 ee3e f7c2 6cbe 91e8 26be
00000040: 6e84 cfbe 3000 eebe d180 fbbe 64c6 9f3e
00000050: a56d 4bbd 9c42 d63e 2d4a f4be dfa7 2b3e
00000060: 2d57 b3be 257b 1bbe 5f11 2c3e 44f8 44be
00000070: f1a7 94be 8197 a4be 34d1 4dbe 905c c8be
00000080: 2f20 ec3e 8bf9 6ebd fd52 f33e 700e 05bf
00000090: a305 c4be 8308 273f 358c 9bbe ecb7 d0be
000000a0: 3146 dabe 3104 b5be e9be 04bf 6a51 17bd
000000b0: b667 803e 9942 6a3e 1070 bfbe a752 09bf
000000c0: 5d92 913e d36e e83e 6c1f 853e e477 8abe
000000d0: d960 053f 90bb 593e e6e2 303d 6bf2 59be
000000e0: d974 913e 218f 2abe a9b3 01bf 9209 0dbf
000000f0: 5502 0b3e 3054 c6be 3796 f93d 165d d5be
-0.087046415 -0.12803964 0.16534115 -0.3505654 -0.2559212 -0.49372497 -0.10952242 0.43792313
0.21273701 0.54244035 0.2804516 -0.17178781 -0.21451917 0.46582085 -0.23121248 -0.16299655
-0.40530723 -0.46484518 -0.49121717 0.31206048 -0.049665112 0.41847694 -0.47712842 0.16763256
-0.35027447 -0.15183695 0.16803502 -0.19235331 -0.2903438 -0.32146838 -0.20099336 -0.3913312
0.46118304 -0.05834345 0.47524253 -0.51975155 -0.3828555 0.6524736 -0.30380407 -0.4076532
-0.42631677 -0.3535476 -0.51853806 -0.036942877 0.25079125 0.22876967 -0.37390184 -0.5364174
0.2843198 0.45397052 0.26000535 -0.27044594 0.521009 0.21262956 0.043185137 -0.21283881
0.2840946 -0.16656162 -0.50664765 -0.5509273 0.13575108 -0.38736105 0.12186854 -0.4167258

base_pointnet.conv_2.weight f4 [64, 64, 3]
00000000: 4014 123e e56a 4bbd 93d3 47bd 466d 89bd
00000010: ab7a 3e3d bf09 2abb b6f2 b7bc 5c29 2d3c
00000020: f85b 3b3d 5d67 71bd 4ab0 8dbd 4a74 dcbc
00000030: 9288 e3bb efe3 b33c f368 1cbd 406f 57bc
00000040: 85a7 00ba b2c3 87bc 2be4 063d dbaf 333c
00000050: b20c 1bbd ece1 ec3d 69d9 823d 6ced b3bc
00000060: c1a4 bc3d 5fff 46bd 4e3a 0f3e 8b32 f23d
00000070: 21e8 b3bd 9464 2ebd d1f4 873c 0090 793c
00000080: 7890 81bd 8d99 e63b e87a d63c 3335 f5bc
00000090: 905b 003e fc3f ea3d 34dc a2bd b849 333d
000000a0: 06a9 90bd 8db6 2abd a87a 1a3d a25a a23b
000000b0: 8949 fabc fcf0 1abd 6f21 093d 9afd 503d
000000c0: 6509 76bc 6b2a e73b 7b3c 51bc 6251 9c3d
000000d0: eeb7 8dbd bf40 22bd 7093 81bc c6bc 1cbc
000000e0: 881c 913b 4226 7bbd 7a57 58be 887a 08be
000000f0: 79d5 5fbe bf1c 87be b9f4 79be ff03 bd3d
00000100: 2d1c 803d 3677 e83d 3153 e33c 10e2 fabb
00000110: 55de 5b3d 028f 9abd 06c2 d3bd b4a0 ab3c
00000120: 910f 83bd d1ea 7ebd adbf 55bc a486 6d3d
00000130: c7a7 283d 7007 443c ec23 103e 9884 1b3e
00000140: 4ed7 9bbc 1845 4abd e74d 6d3c be46 01be
00000150: 1c84 0a3d 4edb 263c 487d 22bc 2400 04bd
00000160: b6a6 a8b8 3576 94bc cf36 94bd 415d 7b3d
00000170: e48d 8a3c a907 073c bc0f b63c 6690 0e3c
00000180: 1dcd 0d3d 29eb 61bd 6c4a 20bd 3874 be3c
00000190: bdc9 733d 924e 5d3d 0b9f 17ba 86e1 1a3d
000001a0: 698d 8b3c 36f7 6a3d e48d ec3d ddf2 9d3d
000001b0: c3ab 943c e64f b53c c3e4 6fbc 9b7c 79be
000001c0: 823c eebd 011e 0c3e 5702 1bbb 6ffa 30bd
000001d0: d356 e6bb 879d 353e 04db 003d f246 fe3d
000001e0: d8aa bcbc 895e c9bc 575b 6a3c ce37 7c3c
000001f0: 110e 3a3d 89a2 60bd 844a 18be 72b9 15bd
00000200: a23a 263d ae85 71bd 1051 fdbd 80e5 923c
00000210: a9ea 0ebd a525 42bc efbb dfbd fa41 84bb
00000220: 2c09 87bd 4a85 d2bc a649 bebd 6fad 92bc
00000230: 1515 a43d 2bc5 0abd 4b3a 98bd e795 4cbd
00000240: 2d3a 80bc a1e4 0abc 9096 86bc a8fa 423d
00000250: b986 573b 27b4 7b3c 5ab0 1abd 1831 2e3d
00000260: 4a70 32bd 2dbe 3fbb 2efe 873d de62 f63b
00000270: 1d77 043d 0ffd 7a3d 47cd a13c 6d48 e23d
00000280: 3aa8 df3d 73c3 ab3d 3c38 afbd 033d e5bd
00000290: ddba d3bd a65f b5bd 5e34 103d 3446 283c
000002a0: 0302 33bc 5ef1 bcbd d6c8 483d d081 8dbc
000002b0: b185 ba3c 9846 3f3d 4bfe 1a3b 2050 e13d
000002c0: 6992 2c3d b4bf 093d facb 433a 9dbf 2a3d
000002d0: 4ca2 aaba fdb3 ee3d de10 cbbc d6dc a7bd
000002e0: 92c2 b3bd a745 53bc b2e3 8cbd f2a0 4a3d
000002f0: e016 cbbb 1e9f 8e3d f643 353d f399 5e3e
00000300: 235a ad3d 2846 17bd 182c 053d c108 a4bb
00000310: 416c 7bbc f113 8ebd 1abf d03c 6fe6 82bc
00000320: 1a1b adbc 9cdd 3bbd 7f56 ae3c 4881 a2bc
00000330: f97d 8fbc 065d 1e3d 2987 1dbd 2f3c 8abd
00000340: 1626 973c c2a7 7abd 46a8 77bc 429f 363c
00000350: cf8a e73c bfa9 913c 2de6 e0bb b0d7 773c
00000360: 1c0a 41be ad12 bb3c bf69 ee3d b40b a53c
00000370: 81da 1ebb 56ee 473d f619 28bc 2f9f 27bd
00000380: d813 bd3c 1d0b c6bc 9cb8 f5bc ce42 c53c
00000390: 9846 183e 8145 493e bb4d 5e3c b328 68bc
000003a0: 1f11 29bc 15b1 363d 76b5 cbbc baf5 27bd
000003b0: e6a7 60bd d890 1e3d c833 2f3d f710 74bc
000003c0: cdb7 2dbb e8fa 4dbb b2f7 7bbc e202 7d3d
000003d0: 2296 36bd 61fd a7bd 2348 a33d 05d6 973b
000003e0: 4712 a03a da34 97bd fac3 4ebe c052 dcbd
000003f0: 2e38 01bd f111 ccbd f4b2 18ba e68b 1b3c
0.14265537 -0.04966249 -0.048785757 -0.067102954 0.046503704 -0.002594575 -0.0224546 0.010568943
0.045742005 -0.058936466 -0.0691839 -0.02691092 -0.0069437707 0.021959273 -0.038186025 -0.013149083
-0.0004907775 -0.016572807 0.03293244 0.01096722 -0.037853904 0.11566529 0.06389124 -0.021963798
0.09211112 -0.048583385 0.13987085 0.118260466 -0.087845095 -0.042576388 0.01659623 0.015232086
-0.06326383 0.0070373476 0.026181653 -0.029932594 0.12534928 0.11437985 -0.07952157 0.043771476
-0.07063489 -0.041678 0.03771463 0.004954652 -0.030552642 -0.037827477 0.03347915 0.051023103
-0.015016888 0.007054617 -0.012770767 0.0763271 -0.069198474 -0.039612528 -0.015817374 -0.0095664915
0.00442845 -0.061315782 -0.2112712 -0.13327992 -0.21858777 -0.2638912 -0.2440976 0.09229278
0.06255374 0.11350863 0.02774963 -0.0076563433 0.05367883 -0.07546808 -0.103397414 0.020950653
-0.063994534 -0.062235657 -0.013046187 0.05798973 0.04117563 0.011964664 0.14076203 0.15187299
-0.019023564 -0.0493823 0.014483905 -0.12624642 0.033817396 0.010184122 -0.009917565 -0.032226697
-8.0419166e-05 -0.018122772 -0.072370164 0.06136823 0.016913362 0.008241572 0.0222243 0.008701419
0.03461944 -0.055155907 -0.039133474 0.023248777 0.059518564 0.05403001 -0.0005783892 0.037812732
0.017035203 0.057364665 0.11550501 0.07712338 0.018148309 0.022132825 -0.014641943 -0.2436394
-0.11632635 0.1368332 -0.0023652518 -0.043207582 -0.007029393 0.17735873 0.03145887 0.124158755
-0.023030683 -0.02458121 0.014304004 0.015394164 0.04542357 -0.054842506 -0.14872175 -0.036553808
0.04058326 -0.058965378 -0.12368977 0.0179317 -0.034891758 -0.0118497955 -0.10924517 -0.0040361853
-0.06593546 -0.025698323 -0.09291391 -0.017904965 0.080118336 -0.03387944 -0.074329935 -0.049947646
-0.01565274 -0.008477361 -0.016429216 0.047602326 0.0032886697 0.015362776 -0.03776584 0.04252729
-0.04356412 -0.002925764 0.06640278 0.00751911 0.032340158 0.06127649 0.019751204 0.1104897
0.109207585 0.08386888 -0.08555648 -0.11193278 -0.10338376 -0.08856134 0.03520619 0.010270644
-0.010925773 -0.09225725 0.049019657 -0.017273813 0.022768827 0.046698183 0.0023650106 0.11001611
0.042131815 0.033630088 0.00074690545 0.041686643 -0.0013018339 0.11655424 -0.024788316 -0.08196418
-0.08777346 -0.012895024 -0.06879367 0.049469896 -0.0061977953 0.06963943 0.044254266 0.21738414
0.08464458 -0.03693214 0.032512754 -0.0050059264 -0.015345634 -0.06937397 0.02548175 -0.01597902
-0.021131087 -0.04586564 0.021281479 -0.019837037 -0.017516123 0.038662933 -0.038458977 -0.0674976
0.018450778 -0.061195143 -0.015115803 0.011146368 0.028264431 0.017781137 -0.0068633766 0.0151271075
-0.18851513 0.022836054 0.11641263 0.020147182 -0.0024239125 0.04881128 -0.010260096 -0.040923294
0.023080751 -0.024175221 -0.029995255 0.024079707 0.1487068 0.1965542 0.013568337 -0.01416986
-0.010319023 0.044602472 -0.0248668 -0.041005827 -0.05484762 0.038712353 0.04277399 -0.014896623
-0.002650726 -0.003143007 -0.015378879 0.061770327 -0.04457677 -0.08202625 0.07972743 0.0046336674
0.0012212478 -0.073831275 -0.20191947 -0.10757971 -0.031547718 -0.099643596 -0.0005825006 0.009493804

base_pointnet.conv_2.bias f4 [64]
00000000: 4c0c 863c ae9f 643d 5ac9 303d f945 17ba
00000010: 76ef 423d 18e2 043c ac68 aa3c 85d8 babc
00000020: eb9b 233d 16c9 4a3d 6c0e b3bd e324 f5bc
00000030: 0f47 a73c b4e9 bebd 9729 93bd 5ce7 89bd
00000040: 9bce cd3b da47 b53d 31b3 c93d baf1 0abd
00000050: 97a6 bebb 57c5 a13d d389 aabd fad3 bb3c
00000060: 8145 cb3c e447 3d3c c5bb cdbc ddc5 cabd
00000070: 50cc bd3c 9327 843d bc76 b5bd c421 58bd
00000080: 3244 07bd acbd 82bb b3a8 a8bd 91f0 17be
00000090: ad5d 323d 4903 403a 9c04 e7bc 19b5 873c
000000a0: 7d21 de3c f42e 233d 448b 723c 4f62 773d
000000b0: e4c8 17bd 8174 5cbd 53a3 25bd 991c 8d3c
000000c0: 94df b43d 0f55 d73d b06f 8ebd 1cc0 3b3d
000000d0: 5be2 4d3b 5d2f 18bd abc1 333d 40d2 30bc
000000e0: 6ef2 e33c 1f6b 1f3c 8b95 a9bd c456 46bc
000000f0: 7840 8cbc b628 843b 4ac1 0c3d 4427 9abc
0.016363285 0.055816345 0.043160774 -0.00057706196 0.04759165 0.008110546 0.020801865 -0.022808323
0.039943617 0.049508177 -0.08742985 -0.029924816 0.020419626 -0.09321919 -0.07185667 -0.067335814
0.006280733 0.08851595 0.09848631 -0.033921935 -0.005818199 0.07898968 -0.08327069 0.022928227
0.024813415 0.011552785 -0.02511395 -0.09901021 0.023168713 0.06452861 -0.088605374 -0.052766576
-0.03302402 -0.003989896 -0.08235302 -0.14837863 0.043546367 0.0007324708 -0.02820044 0.016565846
0.027115578 0.0398397 0.014803711 0.06039649 -0.03705682 -0.053822044 -0.04043896 0.01722555
0.08831707 0.105142705 -0.069548965 0.045837507 0.0031415436 -0.037154544 0.043885868 -0.010792315
0.02782556 0.0097301295 -0.08280476 -0.0121056475 -0.017120585 0.0040331734 0.034364022 -0.018817551

base_pointnet.bn_1.weight f4 [64]
00000000: 1084 993f 615d 633f d3ea 573f a0a4 8d3f
00000010: 5965 6d3f 350b 7f3f 97e6 6a3f fcae 843f
00000020: af9a 913f d5d2 873f 9667 723f a3d1 633f
00000030: 32f3 903f aa5a 563f c59d 693f 59ce 593f
00000040: c63f 733f 89a2 6e3f 8c36 813f 7317 913f
00000050: d91b 983f 7089 863f 5dd3 603f b394 6f3f
00000060: 7a9a 683f 37ba 6b3f a576 8d3f ef99 813f
00000070: 45cd 703f 32b5 783f c3cf 6d3f 8d36 873f
00000080: 08d7 633f 5f2b 753f 59fc 833f 5697 8e3f
00000090: c58e 633f 8981 9f3f e994 4d3f 2476 863f
000000a0: 0b62 843f bd12 7f3f 17f3 8c3f f888 603f
000000b0: 2e64 733f a4f5 713f 0102 6e3f bdaa 7d3f
000000c0: d86c 5d3f e60d 743f 5a11 5a3f a8a9 613f
000000d0: 9b87 723f e425 a03f f763 823f 4531 533f
000000e0: bf86 8d3f 159f 693f 6225 6b3f af57 6a3f
000000f0: 00e0 6f3f 47ff 963f 4e3c 593f bb4f 7b3f
1.1993427 0.8881436 0.8434269 1.1065865 0.9273277 0.99626476 0.917581 1.0365901
1.1375331 1.0611216 0.9468931 0.88991755 1.1324217 0.8373209 0.9125636 0.85080487
0.95019186 0.9321676 1.0094771 1.1335281 1.1883498 1.0510693 0.87822515 0.9358627
0.9086071 0.92081016 1.1051832 1.0125102 0.94063216 0.9715148 0.92895144 1.0563523
0.88999987 0.95769304 1.0311385 1.1139934 0.88889724 1.2461406 0.80305344 1.0504804
1.034242 0.9963797 1.1011685 0.87709 0.9507474 0.9451544 0.9297181 0.9908865
0.8649421 0.9533371 0.85182726 0.881495 0.9473817 1.2511563 1.0186757 0.82497054
1.1056746 0.91258365 0.91853917 0.91540045 0.9370117 1.1796654 0.8485764 0.98168534

base_pointnet.bn_1.bias f4 [64]
00000000: 8fb6 90be 4053 f9bd 277b 7dbc 443c 1b3e
00000010: a162 ac3c a3f6 823b 1c57 55bd 6347 6c3e
00000020: 3b59 9dbe f4f3 d53d d0b7 583e 1928 22bd
00000030: 78c8 89bc ba70 b2bd 33bf 04be 2376 91bd
00000040: 7603 2cbb 2fe5 113e 074a 6abe 8848 813e
00000050: 3531 50be 8086 b4bd 09a7 8abd 68a5 50bd
00000060: 1e0d 143e 2929 21be 9c07 90be 5747 823d
00000070: 8de2 783d 5f37 b23d 8b71 62bd 11ba 45be
00000080: dc18 23be ad9d 453d 1e5b e4bd 4e54 19bd
00000090: 9adc 553e 7ae9 37bd 2d67 833b 9441 fcbd
000000a0: bfaf 3bbe 1444 e6bd 6c89 2fbe 981c b8bd
000000b0: 8344 6f3d 3238 e7bd 58c4 89bd c77b a8bd
000000c0: 6f6a a7bd 02a8 bf3d f44d 63be b6e4 67be
000000d0: 7512 7ebd f5d3 3b3e 934f 32be 140a 2fbe
000000e0: 7ac4 0ebe 2963 75bc 028a cf3d c667 173e
000000f0: f347 513d 1141 f3be 302d cbbd 980d c83c
-0.2826428 -0.12174082 -0.015471256 0.15159708 0.021043124 0.0039966865 -0.052085027 0.23074107
-0.3073214 0.10446921 0.21163869 -0.03958902 -0.016819224 -0.08712907 -0.12963562 -0.07102611
-0.002624718 0.14247583 -0.22879802 0.2525065 -0.20331271 -0.08814716 -0.06770141 -0.050938994
0.14458129 -0.15738358 -0.28130805 0.06361263 0.06076293 0.087019674 -0.055284064 -0.1930926
-0.15927452 0.048246074 -0.11150192 -0.037433915 0.20884934 -0.044900395 0.0040101022 -0.123171955
-0.1832876 -0.112434536 -0.17142266 -0.08989829 0.058414947 -0.11290015 -0.06726903 -0.08226734
-0.081745975 0.09358217 -0.22197706 -0.2264584 -0.06202932 0.18342574 -0.17413168 -0.17093688
-0.13942137 -0.014977255 0.10133745 0.1478568 0.051094007 -0.4751058 -0.09920728 0.024420545

base_pointnet.bn_1.running_mean f4 [64]
00000000: 6d0a 80c0 c2a4 b3c1 c6f8 9140 67e8 33bf
00000010: cf19 1ac2 0e6e 6240 a2d4 7cc1 385d 7c40
00000020: f232 ffbf 2e2c 3040 9c07 8540 dd5b 0fc1
00000030: 6eff 0b3e 97ed 02c2 a7c1 b7c1 5ab6 2ac1
00000040: 371c a540 d905 fd3e 791b 96c0 2495 383f
00000050: 362e 16bf 9d1b b4c0 cb40 0741 305b 86c1
00000060: 57bb dbc0 e6e0 fac0 5b90 39c0 9beb f1bf
00000070: 508d ed3f 774c d140 6202 6540 46ba 66bf
00000080: 443a b940 c51b bcc0 d06b 3c40 0df8 9ebd
00000090: 5205 2041 052d 10c0 362d 3542 025b 8bc0
000000a0: 90db 223e 548c ee3f 8057 43c0 b0e7 19c1
000000b0: bafc e2c0 3e3d 2c40 c372 5ec1 58c9 8840
000000c0: 0e67 5141 7dfe 02c1 217c 1ac1 12aa 2bc1
000000d0: 29bd 64bf 9ac1 443f 7fa8 91c0 3ed6 00c1
000000e0: c8a5 74bf 7435 6e3f c92d 30c1 bc03 8140
000000f0: 36d3 ed40 b468 82c0 542b c1c0 9956 21c1
-4.0012727 -22.455448 4.561618 -0.7027649 -38.525204 3.5379672 -15.801912 3.9431896
-1.9937422 2.7526965 4.157179 -8.959928 0.13671657 -32.73202 -22.969557 -10.669519
5.159694 0.49418524 -4.6908536 0.7210257 -0.5866426 -5.628371 8.453319 -16.794525
-6.8666186 -7.8399534 -2.8994358 -1.8900026 1.855875 6.540584 3.5782704 -0.9012798
5.7883625 -5.87839 2.9440804 -0.07762156 10.001299 -2.2527478 45.29415 -4.3548594
0.15904069 1.8636575 -3.0522156 -9.619064 -7.0933504 2.691238 -13.903018 4.274578
13.08766 -8.187131 -9.655305 -10.729021 -0.89351135 0.7685791 -4.5518184 -8.052305
-0.9556546 0.93050313 -11.011178 4.031706 7.4320326 -4.075281 -6.036539 -10.083642

base_pointnet.bn_1.running_var f4 [64]
00000000: 1f2e 0143 9a1c 0743 12ad 7341 b68f 1d41
00000010: a0a7 9743 f66a 7341 2d56 6e42 1f08 3842
00000020: 8d62 7042 5253 1f42 b908 b641 97b6 6642
00000030: b101 0842 4cde 6e43 ea23 ee42 7b7a de41
00000040: 02f2 fd41 99fb 9c41 8aa4 9041 a1be 5a41
00000050: 1580 bd41 c4cc 6c42 51df 3042 dc4b e442
00000060: 9178 9d41 1a1d 2742 86ac 2b42 be53 4441
00000070: 1cfe 4d42 8999 d442 d53b ab40 5be9 0941
00000080: 2634 8f42 e1b9 4242 8ef4 4e41 f707 b540
00000090: ac7f 7c42 634e 6b41 5bf0 ce43 bd0c 0e42
000000a0: 142d 7a42 1714 1242 d847 4042 8304 8f42
000000b0: 4d5d 4942 3e20 3a41 5096 c342 b171 3142
000000c0: 6c14 f342 28eb af42 53de c741 094d 2a42
000000d0: 2d2d af3f b75a c542 e71b c241 d7c3 fb41
000000e0: ff12 e041 876b 5940 8393 8642 d135 0a42
000000f0: 042b b142 452d 8242 7821 8f41 f8b6 ba42
129.18016 135.11172 15.2297535 9.847586 303.30957 15.2136135 59.584156 46.00793
60.09624 39.831367 22.75426 57.67831 34.00165 238.86835 119.070145 27.809805
31.743168 19.62285 18.080341 13.67154 23.68754 59.199966 44.218082 114.14816
19.68387 41.77842 42.91848 12.270445 51.498154 106.29987 5.3510537 8.619472
71.60185 48.681522 12.934706 5.6572223 63.12468 14.706637 413.87778 35.51244
62.54402 36.51962 48.07016 71.50881 50.341114 11.632872 97.79358 44.361027
121.53989 87.95929 24.983557 42.57523 1.3685662 98.67718 24.263624 31.470625
28.009275 3.397188 67.28811 34.552555 88.584015 65.08842 17.891342 93.35736

base_pointnet.bn_2.weight f4 [64]
00000000: 7854 d23f e20e d63f 15f5 c73f 9344 b93f
00000010: 13c5 c83f 3763 c73f d786 c93f 2aa9 c53f
00000020: bba5 b43f 9556 aa3f ed53 e03f 74ea c23f
00000030: be40 bd3f 0587 e03f 8828 be3f f639 d03f
00000040: 08ee f93f 1d83 d33f 8070 dc3f 488b d13f
00000050: 59cf 2540 6001 0a40 ba08 0140 dbf9 1240
00000060: 7a6a ef3f 72d5 cd3f a1db f93f 5fb1 b63f
00000070: 8f02 fb3f 96ea b63f 80a9 b83f d5ca d73f
00000080: e235 e93f e737 d03f 432d c73f ba8c eb3f
00000090: 8235 b03f 4e2f b63f 0ce5 fb3f 7d74 c63f
000000a0: ece9 d63f b0f5 e93f 716d c63f 1b23 cb3f
000000b0: 9a30 c13f d1bd b03f 359b 0740 cacb d53f
000000c0: 8b48 b63f 5832 f93f c95e ea3f 5f82 f43f
000000d0: 6f6c dd3f c654 ca3f fd54 c13f 563d f93f
000000e0: 4f50 c13f 8e2b e33f 267c dd3f 629d c23f
000000f0: ce70 cc3f cf19 c23f 13d0 b13f 3ecc c43f
1.6432028 1.6723292 1.5621668 1.4474052 1.5685142 1.5577153 1.5744275 1.544225
1.4113077 1.3307673 1.7525612 1.52278 1.4785383 1.7541205 1.4856119 1.6267688
1.9525766 1.6524388 1.7221832 1.637063 2.5907805 2.156334 2.0161576 2.2965
1.8704369 1.6080763 1.952015 1.4272879 1.9610156 1.429034 1.4426727 1.6858774
1.8219569 1.626706 1.5560688 1.8402321 1.3766329 1.4233186 1.9679275 1.5504299
1.6790137 1.8278103 1.5502149 1.5870088 1.5092957 1.3807927 2.118848 1.6702816
1.4240888 1.9468489 1.8310176 1.9102286 1.7298716 1.5807121 1.5104061 1.9471843
1.5102633 1.7747667 1.7303512 1.520428 1.5971925 1.5164126 1.3891624 1.537483

base_pointnet.bn_2.bias f4 [64]
00000000: aceb 58bd d427 db3d f14e 033e f356 89bd
00000010: 5306 60bd f72c 9b3e c595 333e 7254 4dba
00000020: e36a 853e 320b 823e 697d 3dbd 053a 9f3e
00000030: cc89 3c3e f724 2b3e dc9d b83e 8ee7 0a3c
00000040: 0887 59be 1b3e 773b 8b3f 9ebe 2e86 6a3e
00000050: fafa 33bf a1b5 a5bd 294c 9ebd 6bd1 01be
00000060: 213c 82be 8e3f 01be 793a 06be d081 8e3e
00000070: 0229 1dbe 5926 8c3d 38d1 563e a5ff 7a3b
00000080: 0bf0 98be 775d 7c3d 33cd 4b3e c4f2 b13d
00000090: 165d 2c3e be49 503e 0cd6 62bc f944 893e
000000a0: 26f0 173d 5823 a03e 6595 debd b328 5b3e
000000b0: 0a8b 133d a063 843e 970f efbd 8e10 ee3d
000000c0: 25ae 633e 59c3 c8bc eefe 8dbd c95e e3be
000000d0: c72b d43e 26c9 2d3e 352b 603e 889a 19be
000000e0: 3db4 f4bc f791 3abd 3641 833c 17e5 3f3e
000000f0: 2352 a63e b352 823d 5380 153d 35ca 053e
-0.05295913 0.10700956 0.12823083 -0.06706037 -0.05469353 0.30307743 0.17537601 -0.0007832713
0.2605811 0.25399166 -0.04626218 0.31098953 0.1841194 0.1671332 0.36057937 0.0084780585
-0.21242917 0.0037726227 -0.30907854 0.22902748 -0.70304835 -0.080912836 -0.0772937 -0.12677543
-0.254365 -0.126219 -0.13108243 0.27833414 -0.15347674 0.06843252 0.20978248 0.0038299349
-0.29870638 0.061612573 0.19902496 0.08688882 0.16832384 0.2034063 -0.013844978 0.26810434
0.037094258 0.31276965 -0.108683385 0.21402244 0.03602127 0.25857258 -0.116728954 0.11624251
0.222344 -0.024507212 -0.069333896 -0.44408253 0.4143965 0.16971263 0.21891482 -0.15000355
-0.0298711 -0.04554936 0.016022306 0.18739735 0.3248454 0.0636343 0.036499333 0.13065417

base_pointnet.bn_2.running_mean f4 [64]
00000000: 3499 5b3c 10fd 05bc c03f b23d b257 953c
00000010: 92c4 e23d b375 b0be a8f1 173c fbbe 863a
00000020: 0414 e3bc 129b 413d c3ce 73bc 80c3 bdbd
00000030: 28b1 96bd d604 42bc 8cfd febe 464d 00bd
00000040: 8b31 1a3c 7d69 593e 1b8e 9f3e 3215 02be
00000050: f89e fc3d 3b9f 0c3e 917b 313e 3459 ff3d
00000060: 6a2d f43e 91bf 2b3d 4338 25be 5a56 60be
00000070: a84e f53d 9529 9fbb 65f6 47be e9c6 82bd
00000080: e262 0c3d cd0b ab3d 4685 e5be a2af c03c
00000090: c014 1cbe a94d cfbd 5e68 84bd b0b2 17be
000000a0: 166a 88bc edb6 c33d 7a47 503e eef5 5cbd
000000b0: f9e9 ddbd 0f26 40be 6f5c 8b3e 90fc 9fbd
000000c0: 4bb7 da3c 553f 0a3e f404 403e d6f3 133e
000000d0: 06f2 b3be c4b2 8cbe 4fec bfbe 2f00 453e
000000e0: 7475 2ebd 3c2c be3d b31d dfbd e0d9 683c
000000f0: 1cec 2cbe 2183 693d 3850 583e 274a 063e
0.013403226 -0.008178011 0.087035656 0.018230293 0.11072649 -0.34464797 0.009273924 0.0010280305
-0.027719505 0.047267027 -0.014880839 -0.09265804 -0.073580086 -0.011841973 -0.49802816 -0.031323694
0.009411226 0.21231647 0.31163105 -0.12703398 0.123350084 0.13732617 0.17332293 0.12468186
0.47690898 0.04193074 -0.16134743 -0.2190794 0.11977893 -0.004857252 -0.19527586 -0.06385595
0.03427399 0.0835186 -0.44828242 0.023521248 -0.1524229 -0.101222344 -0.06465219 -0.14814258
-0.016652148 0.09556375 0.20339766 -0.053945474 -0.10835642 -0.18764518 0.2721896 -0.07811844
0.026698729 0.13500722 0.1875189 0.14448485 -0.35145587 -0.27480137 -0.37484977 0.19238351
-0.04259248 0.09285781 -0.108943366 0.014212102 -0.16886944 0.05700982 0.21124351 0.13114224

base_pointnet.bn_2.running_var f4 [64]
00000000: 19a9 c23c 508c ef3c 60d4 6e3c 1fb0 033d
00000010: 8686 ee3c ac35 603d 7cf9 723d 0ca3 2c3d
00000020: 355c a83d a47d 7c3d 060c da3c 9df8 e13c
00000030: 58f6 403d 0019 243c 662e 0c3d e25d 9f3c
00000040: f2b4 163d 4a32 5a3c 3a24 0b3d 3079 d53c
00000050: 3824 0c3c 3e82 3c3c 0cb6 9e3c 7f83 173c
00000060: ddec d23c 6738 343d 7bb9 8a3c 7006 f03c
00000070: 4d3a 403c a6fb 6a3d 343b fc3c 1c85 2b3d
00000080: 8f29 6a3c b087 ac3c 3834 233d e32b 263c
00000090: 801c 1c3d 14de e73c fb88 043d 79cc 153d
000000a0: 6edd 8e3d 329b 0a3d 0eb4 753d b5f1 023d
000000b0: 0b94 9b3d e730 ec3c 7c36 853c dd3d 383d
000000c0: 731a 623d b6ee cc3c 84ad f73c 26c5 0b3c
000000d0: d7c7 c43c bfec a03d 864f 673d 7a73 d23c
000000e0: 374c 1b3d 098e 6a3c 2852 673d b8a3 5a3d
000000f0: 8228 203d c594 a33c 7d44 033d 7213 553d
0.023762273 0.02924171 0.014577001 0.032150384 0.02911688 0.054738685 0.059319958 0.04214768
0.08220712 0.061643258 0.026617061 0.027584368 0.04710993 0.010015726 0.034223936 0.019453947
0.036793657 0.013317654 0.033970095 0.026058763 0.008553557 0.0115056615 0.019373916 0.00924766
0.02574771 0.043999102 0.016934147 0.029299945 0.01173265 0.057368897 0.030789949 0.04187499
0.014292135 0.021060795 0.03984472 0.010142299 0.038113117 0.028304137 0.032357197 0.036571953
0.06975828 0.033839412 0.059986167 0.03196879 0.07596596 0.028831912 0.016261332 0.044980872
0.055201005 0.02501617 0.030234106 0.008530891 0.024021072 0.07857656 0.056472324 0.02568983
0.03791448 0.01431609 0.056474835 0.05337879 0.03910113 0.0199684 0.032047737 0.052020498

fc_1.weight f4 [64, 66]
00000000: f69f 623e b49a 04c0 c1cc 1dbf df7d ebbb
00000010: c363 b93e e3a0 cebe 17c3 02bf 3773 ac3d
00000020: 3cef c03c 3fb1 a63d 732a 033d ab09 6fbe
00000030: d14f 5abf 8124 313d fa43 1e3e 559a 2e3e
00000040: 4fa9 61be b772 72be 8206 76bf 6991 8e3e
00000050: 315f 9a3e 75ad 803d 667f d1be c6ae 81bf
00000060: e905 8b3c c43c c03d 0fa6 e2bc d092 cfbe
00000070: 41b8 56be 823e 6e3d 4490 9abf b074 8abc
00000080: f183 533e 9dd7 b7be eff9 923e 6341 05bd
00000090: 23f1 f8be c25a db3e a78e f3bc 469d f13d
000000a0: e9ed 2dbf 55e0 ecbd 05e0 5dbd fb0a 05bf
000000b0: 49db c83e 8dde 373e 22d3 ce3c 11d5 4e3e
000000c0: cb83 e13e d00e ebbd 551e 143e 6531 82bf
000000d0: 3775 e8bc 8bae 28be e533 35bf bb24 0ebe
000000e0: 0a4d 76be a6ab 46bf 5bfd 403e 4b5a de3e
000000f0: e642 983e e639 37bd 5d8e 8c3e f9c2 2cbb
00000100: 11ff 593e 3254 813e 1927 a8bd 40c9 bc3d
00000110: a1f3 c23d 2ea5 913c 5834 03bd a458 f5bb
00000120: 7f8d cebd 2ad7 5cbd ad69 8ebd 27d2 5bbd
00000130: 908b 8d3d 27f9 00bd 35ca d2bd 5a29 f1bd
00000140: bc8a ac3d 9da5 e03d 9dce d2bd f205 e43d
00000150: 79bc 58bd 3593 8abd 4050 eeba 3174 06be
00000160: cab2 e83d 0cbe 74bb c23b 9fbd 7460 3e3d
00000170: a687 6e3d 47bc 94bc 54dd 1e3d 715d 8f3d
00000180: cc2b dabd 9103 b73c d138 d33d d442 84bd
00000190: 17a0 71bd 7a31 84bc edc9 ebbd b5db 0cbb
000001a0: df94 e03d b9de a8bd 224b 81bd 93e4 92bd
000001b0: 7419 1abd 0b88 483d 1bd4 86bc 5a0e 06bd
000001c0: 3ee5 91bc b133 8f3c 9ce9 04be cf71 2cbd
000001d0: 7f51 c63d 3543 c2bd 6db8 ac3c 446d bcbd
000001e0: 5896 fabd 8cd4 a43d 52cd 89bd 6c9a e7bd
000001f0: 3f88 92bd 3552 d93d d113 42bd db14 6b3d
00000200: 477c 29bc 40e8 e1bd 2602 923d 800c 593d
00000210: 3b4a 95bd 86ea 843f dfec 0a3e f1b3 653e
00000220: f98c 41be 7bce d03e e35b 433e 84cb 813d
00000230: 7186 a93e f72e 7f3e 811d c13b 6eda 1c3e
00000240: 210e ed3e a74f 9ebc 214f 9c3d 1e5f 5a3e
00000250: c837 f43d 77f6 0e3f 5ebf 863e 978a 9fbe
00000260: 579d e43d 545c df3d da39 29bf 5a9d d2be
00000270: 3b27 4abe 350b 7d3d cc60 463e 1a76 ae3e
00000280: b7a3 34bf 92f9 aebe f2ad f23e 732a cd3d
00000290: 2816 24be c211 11bb 708b e0be f914 f33d
000002a0: 046c 69bd df83 14be 70ed 293e 07a6 943d
000002b0: f61c 8bbd 5e4b 3b3e 8251 013f fbef 27be
000002c0: 4b94 dcbb a1d3 74bd 3c44 41bd 0dc6 7bbe
000002d0: 1c94 1e3e b1d4 a9be 431b 233d d276 703e
000002e0: 874e f03d dc33 5bbe 41fe 77be 565a 813c
000002f0: ccd2 81be 7626 213d 8327 bb3e 4497 e7be
00000300: c792 db3e f26b de3d 3439 583e 116a 67bd
00000310: e1ce 6c3d 0eb1 103d d9f0 7bbd f3b1 353d
00000320: daa4 f03d 9c99 54bd 8369 d8bd c51f 2bbd
00000330: ee9b 7dbc e970 383a 9229 4c3d 09ac 953d
00000340: d6e1 80bd 3ed0 bb3d 6763 f53c 6edb 973d
00000350: 48e1 e33d 2ac7 1cbd 42b6 dabb fb6b c73d
00000360: 46bd ecbd 51bf dc3d 5d92 f33c 1d45 d5bd
00000370: c499 52bd 3f9e ec3d 78e4 cb3d fb62 643c
00000380: 80a1 fbbd d27f bbbd 4631 753c 0597 e13c
00000390: 41d1 c8bc 4858 bf3d cb03 713c cb02 ce3a
000003a0: 48ee f83d 8d32 95bd bdba 813d 3091 dfbd
000003b0: 8ff0 c13d 9fb2 b3bd c82c 14bd fc7c a0bc
000003c0: ee0c a73d 6cff 76bd c665 d1bd 88b4 5e3c
000003d0: 9086 543c 9c0b 32bd a3b8 c3bb b992 f4bd
000003e0: dbe2 973d 36d0 bdbc 6eed afbd cfcb 023d
000003f0: c66e 94bd eb15 b3bd 0a84 92bc 823d bebd
0.22131333 -2.0719423 -0.61640555 -0.007186636 0.36208925 -0.40357122 -0.51078933 0.08420413
0.023551576 0.08139276 0.032022905 -0.23343532 -0.8527804 0.043247703 0.15455619 0.1705106
-0.22037242 -0.23676573 -0.9610368 0.27845314 0.3015075 0.06283084 -0.4091751 -1.0131462
0.016970592 0.0938659 -0.027667074 -0.40541697 -0.20968725 0.05816508 -1.2075276 -0.016901344
0.206558 -0.35906687 0.2870631 -0.03253306 -0.48621473 0.4284268 -0.029731108 0.11797576
-0.6794115 -0.115662254 -0.05416872 -0.5196988 0.392298 0.1795599 0.02524716 0.20198466
0.44045863 -0.11477435 0.14464696 -1.0171324 -0.028376205 -0.16472833 -0.7078231 -0.13881199
-0.24052826 -0.77605665 0.18846647 0.43428263 0.2973854 -0.04473295 0.27452365 -0.002636133
0.21288706 0.25259548 -0.08210582 0.09218073 0.09519125 0.01777896 -0.03203234 -0.0074873734
-0.10085582 -0.053916134 -0.0695375 -0.053667214 0.06911385 -0.03148761 -0.10292474 -0.11775465
0.08424899 0.10969088 -0.102933146 0.111339465 -0.052914117 -0.06766359 -0.0018181875 -0.13130261
0.11362226 -0.0037344722 -0.0777507 0.046478704 0.058234833 -0.018156184 0.038785294 0.070002444
-0.10652885 0.022340568 0.10313571 -0.06458059 -0.058990564 -0.016136874 -0.11513124 -0.002149326
0.10965895 -0.08245606 -0.063131586 -0.07172503 -0.03762193 0.048957866 -0.016458562 -0.03272853
-0.017809507 0.017480703 -0.1297974 -0.042100724 0.09683513 -0.09485475 0.021084035 -0.09200528
-0.12235707 0.080483526 -0.06728615 -0.113087505 -0.07154893 0.10611383 -0.04738218 0.057392936
-0.010344571 -0.11030626 0.07129316 0.052990437 -0.07289549 1.0384071 0.13566922 0.22431923
-0.18901433 0.40782532 0.19078021 0.06337646 0.33110383 0.2492026 0.0058934097 0.153177
0.46299842 -0.01932509 0.0763228 0.21325347 0.11924702 0.55844826 0.26317877 -0.31160423
0.11162823 0.10906282 -0.661039 -0.41135675 -0.19741528 0.061778266 0.19372863 0.3407448
-0.7056231 -0.34174782 0.47398335 0.10017862 -0.16024077 -0.0022135829 -0.43856382 0.118692346
-0.056987777 -0.1450343 0.16594481 0.0725823 -0.06792633 0.18290469 0.50514996 -0.16400139
-0.006731545 -0.059772138 -0.047184214 -0.24587269 0.15486187 -0.33170083 0.03982092 0.23482826
0.11733728 -0.21406502 -0.24218084 0.015790146 -0.25356138 0.03934332 0.36553583 -0.45232594
0.4288542 0.10860433 0.21115571 -0.056497637 0.057814483 0.035325103 -0.061508987 0.04435916
0.11750193 -0.051904306 -0.10567 -0.041778345 -0.015479071 0.0007035868 0.049844332 0.07308204
-0.06293075 0.091705784 0.029954625 0.074149 0.11126953 -0.038275875 -0.006674559 0.097373925
-0.115595385 0.10778678 0.029732877 -0.10413573 -0.051416174 0.115536205 0.09955686 0.013939614
-0.12286663 -0.09155239 0.014965361 0.027537832 -0.024513843 0.0934301 0.014710377 0.0015717385
0.121548235 -0.072850324 0.063344456 -0.10916364 0.09469711 -0.08774304 -0.03617552 -0.019590847
0.08156763 -0.060302183 -0.1022449 0.013592847 0.012971535 -0.043468103 -0.005972938 -0.119420476
0.07416316 -0.023170572 -0.08590208 0.03193265 -0.07247691 -0.08744415 -0.017885227 -0.092890754

fc_1.bias f4 [64]
00000000: 939a 1abe 8d29 d93d 1e2f 92bd e6c0 e8bb
00000010: c953 bdbc 66a5 d2ba d1d3 713d aa30 b73e
00000020: 98e9 82bd 6e48 c8bd ad2b 08bd d8a8 913d
00000030: 4c3e 643d 424e 953d 7610 dc3d 0122 813d
00000040: 7f41 b83e edf2 723d 9ace 92bc b112 293d
00000050: 6359 2bbc b4fc 7abd a42b 26bd 83cd b3bd
00000060: 011e 253d 6a9e 963e a96c c33d 32bf cdbd
00000070: dd9b e5bd 9b79 d13d 396a ec3d 4702 2f3c
00000080: 56aa da3d 127d f0bd 850a 6e3b 902b 70be
00000090: aec0 703d e5e9 54bc 3012 8d3e 8cd7 75bc
000000a0: c638 64bd 5af0 e2bd 4c68 b93e e7cb 90bd
000000b0: 4073 2cbc 2728 75bc 9675 623e 1940 d3bd
000000c0: fb5b fcbc dafa a23e 1bda 363e ab0c b4bd
000000d0: 5bc6 0abd 8948 4a3c bfcc 4f3d 1644 dfbd
000000e0: bee8 debd ef21 463d 8f5d d7bd 6ca4 893c
000000f0: f25e 993d 63cc c13d 1405 8e3d 80e2 18be
-0.15098028 0.10603628 -0.07137893 -0.0071030734 -0.023111241 -0.0016071021 0.059039894 0.35779315
-0.06392211 -0.0977944 -0.033244777 0.071122825 0.055723473 0.07290317 0.10745327 0.06305314
0.3598747 0.059313703 -0.01792078 0.04127759 -0.010458323 -0.061276153 -0.040568963 -0.087794326
0.040311817 0.29417735 0.0954221 -0.10046233 -0.11211369 0.102282725 0.11543698 0.010681695
0.1067702 -0.11742605 0.0036322188 -0.23454118 0.058777504 -0.012995218 0.27552938 -0.015005004
-0.055718206 -0.11081 0.36212385 -0.07070141 -0.010525525 -0.014963186 0.22115168 -0.1031496
-0.030805578 0.3183201 0.17856638 -0.08791479 -0.033880573 0.012346395 0.05073237 -0.10901658
-0.10884236 0.048372205 -0.10515892 0.016802035 0.074888125 0.09462812 0.06934562 -0.14930153

fc_2.weight f4 [4, 64]
00000000: cbe7 52be 4ec8 dfbc 216e 283f 027a c4bd
00000010: ca07 813d d805 3dbd a040 6d3d 7ae5 2040
00000020: afd3 80c0 50d1 41bc 0c08 64bd 222a f2bd
00000030: 32d2 29be a70a 2e3c bbfe b9bd 791b b5bd
00000040: 29e7 dfbc f4ef cebf 7fd1 1e3f bff2 833e
00000050: f0ea 1240 a795 c13d cbde 1ebe e679 3a3f
00000060: 284b f5bd 5747 cf3f 4006 2b3c 31fe 923e
00000070: e4e9 433d aa9a 2b3d 8c5c b73d 276f c7bd
00000080: a279 3b3f c437 19bd dd60 60bd 90f1 bbbf
00000090: 771e 9d3c bc6f 2dbd bf00 a43f f34e c63d
000000a0: 3251 d3be 30e7 3dbc 4830 a23f 00c9 bcbd
000000b0: 078d e23d 9b36 8e3f c861 ebbf 00a8 c8bc
000000c0: c30c 15be 1146 c63f ead8 9cbe 335a 40be
000000d0: 49cd b33d 9f8a 5e3f 7ede 543f 4229 cc3d
000000e0: c079 5ebd 10bd 6cbe ee54 2dbe 1a02 b9be
000000f0: fed6 d0bd 2ad9 7c3e 7d6b e5bd 8b06 303f
00000100: feff d83f dd2e c43d f605 acbf f695 bc3d
00000110: 6863 0abe da68 f3bd b004 fdbc a70a 14c0
00000120: e69a 0040 709f 533c 1ba8 ecbb a2c6 1cbd
00000130: 6202 973d 8c09 ae3d 0763 a6bc 02c5 44bd
00000140: 9580 b23f a286 c53e 21cd 973e 2400 58be
00000150: 71d1 833f f1ce 58bd 46a7 9f3e 5c75 03bf
00000160: d03f be3c 822b 77bf 2eb3 a03d c75f 57bf
00000170: 5a19 e43d fffa 5e3d b0ac 1bbc b2fa 603d
00000180: 47dc 93c0 e72b 923d 6812 a73d 9e50 073f
00000190: a706 63bd da1b f63d 89e2 06c0 51b3 47bf
000001a0: 44a5 5ebb 687d e3bc 87f6 6f3f 4c23 f93d
000001b0: 072a 1d3f d7ea 67bf 76d8 e93f e061 57bd
000001c0: d9d5 243d 5d9d e63d 7fc5 8c3e 0bcb 25be
000001d0: 17a9 bbbd 1016 81c0 0f1d 853f f484 ae3d
000001e0: f33b 4abb 2870 f03d b3ff 053e 2741 193e
000001f0: b0ba 26be 150e 84bf 8474 a53d 77c8 673f
00000200: 161f bcbf da28 6dbd cbb0 613e 081d c2bd
00000210: 7cd4 593e 003a d9b9 80ac babb c0dd 0240
00000220: 4aaf 3b40 3c8b 6d3d 661b 0bbc 8041 da3d
00000230: 6be2 bd3d 62ad af3d ae17 b73d b109 e1bc
00000240: af97 59c0 1d5e 853f 2fb3 36bf 2c63 ebbc
00000250: 574d 1ac0 b4d4 753e 56dc 81bc a173 1d3e
00000260: c025 abbb e532 843f 80bd f53c 57d3 843f
00000270: 006b 73bc a5dd a53d 0078 dcbb b632 6abc
00000280: 5b88 1640 1b46 5abd 203b 4b3c b495 d43f
00000290: 95f7 54be 1826 f9bd 2b22 af3f 131c a23f
000002a0: 71c3 3cbe 1b8d 123e f2a1 08c0 3823 b5bc
000002b0: 1e44 9dbe 0f06 96be 2568 1cc0 24c5 943d
000002c0: e7fa 7a3c 1a38 273f 943a 723d 6ee3 873d
000002d0: 13bf 4dbe 05d1 2340 40d6 25c0 4ae7 c6bd
000002e0: 232d 583e a179 ed3d 9333 eebc fce8 acbe
000002f0: 8aec f13d 599a 753c 00a9 f0bb fb23 41bf
00000300: 906b 593f 463f 413d 00a8 903f de11 93bd
00000310: 8e38 dbbd 54da 753d f869 f63c 8f50 8dbf
00000320: 62ba ee3f 5097 fabc 82bc b13d 2384 1b3d
00000330: 21f1 7cbd 6567 1ebd f266 bfbd 1a01 6eb9
00000340: 54a8 1140 64b8 963f d11a 1b3f 7766 a0bd
00000350: a8d0 80bf a72c debd 5035 64be 1332 28bf
00000360: 7880 b1bc 046e 36c0 6873 fbbd 9580 a4bd
00000370: 94a2 643d 4a97 ccbd 146e 15bd 982b db3d
00000380: e6ec 8e3f 5ac2 413d f915 b9bd 037f bebf
00000390: 05e2 8b3e 641b 5b3d 1957 23be 14ad b3bf
000003a0: d9c8 e53e 03dc abbd 59b1 b3bf be93 fbbd
000003b0: 3a75 a3bc 6440 dcbd 2248 bc3f f0b0 5abc
000003c0: bd83 b3bd 194f 1dc0 552c b4bd c5f7 cc3e
000003d0: 2d4b 9e3e 070d f4be 35b2 e43f 18d4 99bc
000003e0: 581f ae3d 6a33 693d 5847 e4bd f871 093f
000003f0: fd88 1dbe 9cc3 673e 1c33 e33d 68a8 493f
-0.20596235 -0.027317192 0.65793043 -0.09593584 0.06300314 -0.04614815 0.05792296 2.5140061
-4.0258403 -0.011829689 -0.055671737 -0.118244424 -0.1658409 0.010622657 -0.09081789 -0.088431306
-0.027331905 -1.6166978 0.62038416 0.25771138 2.2955894 0.09452372 -0.15514676 0.7284225
-0.119772255 1.6193646 0.010438502 0.28709558 0.047830477 0.041895546 0.08953199 -0.097379975
0.7323247 -0.037406698 -0.054779876 -1.4683094 0.019179566 -0.042342886 1.2812728 0.09683027
-0.41272885 -0.011590764 1.2670984 -0.09218025 0.11062055 1.1110414 -1.8389215 -0.024494171
-0.1455565 1.5490133 -0.30634242 -0.18784408 0.087793894 0.8693027 0.83151996 0.09968807
-0.05431533 -0.23118997 -0.1692693 -0.36134416 -0.101972565 0.24692217 -0.112021424 0.68759984
1.6953123 0.09579251 -1.3439319 0.0920829 -0.13514483 -0.11885233 -0.030886024 -2.3131502
2.0094543 0.012916431 -0.007222188 -0.03827537 0.07373501 0.08497915 -0.020310892 -0.048039444
1.394549 0.3857928 0.29648688 -0.21093804 1.0298291 -0.05293173 0.31182307 -0.5135095
0.023223788 -0.9655076 0.07846676 -0.8413052 0.11137648 0.054438587 -0.009501621 0.05492658
-4.6206393 0.0713728 0.081578076 0.5285739 -0.055426266 0.12017031 -2.1075766 -0.7800799
-0.0033973018 -0.02776976 0.93735546 0.121649355 0.61392254 -0.9059271 1.8269184 -0.052583575
0.040243004 0.112604834 0.27494428 -0.16190736 -0.09163111 -4.033943 1.0399493 0.085214525
-0.0030858486 0.11740142 0.13085823 0.1496626 -0.16282153 -1.0316797 0.08078864 0.9054026
-1.4696987 -0.057900287 0.22040097 -0.094781935 0.21272463 -0.0004143268 -0.005696833 2.0447845
2.9325738 0.057994112 -0.008490419 0.106570244 0.092717014 0.08577992 0.089400634 -0.027470442
-3.399883 1.0419346 -0.7136716 -0.028733812 -2.4109704 0.24006921 -0.015852135 0.1537614
-0.005223006 1.0328032 0.029997587 1.0376996 -0.014857054 0.08098916 -0.0067281723 -0.014294317
2.3520725 -0.053289514 0.012404233 1.6608186 -0.2079757 -0.12165469 1.3682302 1.2664818
-0.1843393 0.1431164 -2.1348844 -0.02211152 -0.30716032 -0.29301497 -2.4438565 0.07264164
0.015318609 0.6531998 0.059137896 0.06635176 -0.2009242 2.5596325 -2.5912018 -0.09712084
0.21110968 0.115954645 -0.029077327 -0.33771503 0.11812694 0.014990413 -0.007344365 -0.75445527
0.8492975 0.047179483 1.130127 -0.07181142 -0.10704146 0.060022667 0.030079827 -1.104021
1.865063 -0.03058973 0.08678533 0.037967812 -0.061753396 -0.038672823 -0.09345807 -0.00022697859
2.275899 1.1775022 0.60587794 -0.078320436 -1.0063677 -0.108483605 -0.22285962 -0.6570141
-0.021667704 -2.8504648 -0.12277871 -0.080323376 0.05581911 -0.099897936 -0.03648193 0.10701674
1.1166046 0.04730449 -0.09037394 -1.4882511 0.27320877 0.05349292 -0.15951194 -1.4037194
0.44879797 -0.08391573 -1.4038497 -0.12284039 -0.019953359 -0.10754469 1.4709513 -0.013347849
-0.087653615 -2.4579527 -0.08797518 0.40032783 0.3091673 -0.4766619 1.7866884 -0.018777892
0.08502072 0.056933798 -0.1114642 0.5368953 -0.15384288 0.22633213 0.11093733 0.7877259

fc_2.bias f4 [4]
00000000: a321 bd3c 246b ffbd e938 b8bc 07e2 f9bd
0.023087328 -0.12471607 -0.022488074 -0.122013144
