Additional stuff/segmentation_pointnet_dmeanp.pth (torch, 78930 bytes, 18 tensors)

base_pointnet.conv_1_a.weight f4 [64, 1, 3]
00000000: af43 2dbf 3e57 cebe 450c cabd c6a6 db3d
00000010: 74f0 91be 7388 b5bd aff3 dbbe 6414 e9be
00000020: 0c18 1d3f ec69 fd3d faa7 7f3c a6ac 5ebd
00000030: 7319 b2be 346b dfbd 8714 013f 3ea0 e23d
00000040: 9d34 a5be 29e0 8f3e f4bf de3e a19f fd3d
00000050: faf5 3a3e 666e 163f 73b9 d6bd c984 b63e
00000060: b7f0 863e 3664 2b3e c62e 0dbf cd41 c7bd
00000070: 86ca b9be 71b6 ab3e f819 80be b97e c3bd
00000080: 161e de3e d67d d3be 1f31 003f cadb a83e
00000090: 7be3 0ebd 3f59 13bf 9ec8 11bb c5b9 ce3e
000000a0: f231 b03b 3d97 61be 67e7 0fbf 458a ef3e
000000b0: 7a20 a73c 4fe6 f3be 1c51 dc3e 3966 e33b
000000c0: e5cb 4cbe 1fb1 513d 3c77 b8be b4ed 4c3e
000000d0: f5f1 853e b19b cbbe 0b91 703e f7c8 f5be
000000e0: c4b6 983e 7de7 e23e 7bc9 7fbe 73ae f1bd
000000f0: 898d 08be 19f3 533e b4a4 bdbd f102 9cbe
00000100: a989 923e f123 153c 5c46 36bf 4755 b8bd
00000110: 9af6 66be f878 663e cbac bdbe 64a7 5c3e
00000120: 8c71 05bf 2db1 c8be e818 07be e25e 3d3d
00000130: bcd8 8c3e 333b cdbe 6e4a c3be 8964 c73e
00000140: 8796 19be 240f 50be 042c bf3e 493e 00be
00000150: 9eae 013d cd4b 7f3e 1347 683e e01f 103e
00000160: 03c6 7d3c ff30 683b 39b5 75be edea d7be
00000170: b0cb c13e e67a 183f 1b2f 34be 9c4e e83e
00000180: eebf d3be 60b9 bd3e 61b4 803d 9bca 42bd
00000190: 9c7b d1bc 1448 743d ace2 7fbe 14ef 8ebe
000001a0: 1e16 a13e 2764 323f 21ff 0b3f 6216 ba3d
000001b0: 8eb9 09bf 18a4 743e 2f04 fd3e e173 e33e
000001c0: 08c0 18bf 8ac8 d13e 0c33 23be b3d8 95be
000001d0: 3f80 e23e b34a 3ebd 214c b2be c924 6f3e
000001e0: ce15 81be fe0f 02bd 1c87 d03e 8175 f83d
000001f0: 8ace bdbe 4de4 fabe 6789 a6be fc24 013f
00000200: de0a 3ebe f5cd 3d3e d369 823e 7bcc 7cbd
00000210: ed5e 1dbe b45b b33d 65c6 9e3e 5a4c b3be
00000220: e42b 36be 158d e83e 9dcb ba3e 171f e7be
00000230: 6030 803d 45cd 3ebf 2763 9ebc 684f 6fbe
00000240: 6986 a23d fa49 2ebe ba90 883d d293 c9be
00000250: e278 9d3e 0632 6b3c fffb e83e 377e e6bd
00000260: 60d0 cb3e 7416 0f3f ffbc a23d 2b67 163e
00000270: a0ea f4bc e43e 6cbd 7f6e 043e e59b c0be
00000280: 7ee6 d23e 5d3d 1d3c 26a0 b0bd 8e08 943e
00000290: fc97 acbe a8c0 e03e 15b1 aa3e 19ce 9abe
000002a0: b4a9 9dbe 1b27 db3d 521e bfbe 6d1d 3ebe
000002b0: 0669 87be 11c1 d23e b997 f33e 9b4f 35be
000002c0: 0373 e83e 3849 933e 8f8b 04bf 08be b33e
000002d0: ec12 c53e 9aed afbc 1d01 9bbe 9bdb b63e
000002e0: ad93 e6be 76c3 e13d bb4b de3b d4f7 e93e
000002f0: 27b2 98be dde9 9f3e 087b 2e3e e2e4 1abf
-0.676814 -0.40300936 -0.098656215 0.10725169 -0.28503764 -0.08863916 -0.42959353 -0.4552337
0.6136482 0.123737186 0.015604014 -0.05436387 -0.3478504 -0.10909119 0.5042195 0.1106572
-0.32266703 0.28100708 0.43505824 0.123839624 0.18257895 0.58762205 -0.104845904 0.35648182
0.26355526 0.16737446 -0.55149496 -0.097293474 -0.36287326 0.3353763 -0.25019813 -0.09545655
0.4338233 -0.41306943 0.5007495 0.32980186 -0.03488491 -0.57558054 -0.0022244821 0.40376106
0.0053770477 -0.22030349 -0.56212467 0.4678518 0.020401228 -0.4763665 0.43030632 0.006939676
-0.19999655 0.051194306 -0.3602847 0.20012552 0.2616116 -0.3976722 0.2349283 -0.48004887
0.2982694 0.44317237 -0.24979202 -0.11800852 -0.13335241 0.20698203 -0.0925993 -0.30470994
0.2862065 0.009102807 -0.7120111 -0.0900064 -0.22555009 0.22507083 -0.37045893 0.2154823
-0.52126384 -0.39197674 -0.13193095 0.046233065 0.27509105 -0.40084228 -0.38142723 0.3894389
-0.14998828 -0.20318276 0.3733827 -0.1252376 0.03166067 0.2493126 0.22683363 0.1407466
0.015489104 0.0035429595 -0.23994912 -0.42171422 0.37850714 0.5956253 -0.17596094 0.45372474
-0.41357368 0.37055492 0.062844045 -0.0475565 -0.025571637 0.05963905 -0.24988812 -0.27916777
0.31462187 0.6968407 0.5468617 0.090863004 -0.5379876 0.23890722 0.49417254 0.44424346
-0.59668016 0.40973312 -0.15937442 -0.2926689 0.4423847 -0.046457957 -0.34823707 0.23353876
-0.25211948 -0.031753533 0.4072808 0.12131787 -0.3707164 -0.49002305 -0.32526705 0.5044706
-0.18558833 0.18535598 0.25471362 -0.061718445 -0.15368243 0.08757725 0.31010738 -0.3501919
-0.1779018 0.45420137 0.3648347 -0.45140907 0.06259227 -0.74531966 -0.019334389 -0.23370135
0.07935793 -0.17020407 0.066682294 -0.3937059 0.3075629 0.014355188 0.45504758 -0.11254542
0.39807415 0.55893636 0.079462044 0.14687793 -0.029897034 -0.057677165 0.12932776 -0.37618938
0.41191477 0.00959715 -0.08624296 0.28912777 -0.33709705 0.43896985 0.33338228 -0.30235365
-0.30793536 0.10700818 -0.3732782 -0.18565913 -0.26447314 0.41162923 0.47576693 -0.17706148
0.45400247 0.287668 -0.5177545 0.3510592 0.38491 -0.021475602 -0.30274287 0.3571442
-0.45034543 0.11023609 0.00678393 0.4569689 -0.2982342 0.3123311 0.1703912 -0.605055

base_pointnet.conv_1_a.bias f4 [64]
00000000: 655a 003f 509c 0ebf 8ccf b9bd 7c89 59be
00000010: 9c75 c73e 6cd1 f73e 6adc d2be 2422 e43e
00000020: cbfb ea3e 9c9f 273e 8c3e ba3d c018 413e
00000030: 09c3 3e3e 620b d4be 43a1 58be a8d0 f93d
00000040: 87d0 f23d 3e6e 72bc f7d4 933d 7c35 02bf
00000050: 167c 863d f914 193f 4714 edbe a4ab 92bc
00000060: 06ce af3e c58e a3be a27d 783e 722f bcbe
00000070: cd5a 05bf 1b93 d73e 984a 57be bce2 893e
00000080: d579 d83b 1417 6ebe 29b8 a43e d084 73bd
00000090: 8be2 053c 604a 5f3e 7d72 6bbe 2da8 b33e
000000a0: ad1e 2a3e cad0 efbd ef16 26bc 60f1 bd3c
000000b0: 9e56 f8be cf29 18bf 845a 003e a915 ef3e
000000c0: 51c7 cf3e 776d 043f e3fb ccbe 7322 b5be
000000d0: 09b1 2d3c 58eb bbbe e8ac 9e3d 73c8 9dbe
000000e0: 5efd 313e eb60 0ebd 6f9c 133e bac8 02bf
000000f0: 51d0 a2bd 9448 ea3e 395f 70be 0a20 183e
0.5013793 -0.55707264 -0.090727895 -0.21243852 0.38956916 0.48401964 -0.41183788 0.44557297
0.45895228 0.1636948 0.09093961 0.18857098 0.18629088 -0.41414934 -0.21155266 0.12198001
0.1185618 -0.014796792 0.07218354 -0.5086286 0.06566636 0.59797627 -0.46304533 -0.01790411
0.3433687 -0.31944862 0.24266675 -0.36754948 -0.52091676 0.4210442 -0.21024549 0.26930797
0.0066063204 -0.23250991 0.32171753 -0.05945283 0.008171688 0.21805716 -0.22992893 0.35089245
0.16613264 -0.11709745 -0.010137304 0.023186386 -0.48503584 -0.59438795 0.12534529 0.46696213
0.40581754 0.5172953 -0.40035924 -0.35377845 0.0106012905 -0.3670299 0.07747823 -0.30816993
0.17381808 -0.034760397 0.14415143 -0.51087534 -0.079498895 0.45758498 -0.23473825 0.14855972

base_pointnet.conv_1_b.weight f4 [64, 1, 3]
00000000: 7a38 5f3d af9b 0c3f 7eb9 49be 4278 e2be
00000010: 20c8 dcbe 4991 453f be3d 163e e548 abbe
00000020: cd67 0c3e 9483 57be c05f 06bf a2e0 0ebf
00000030: 1428 103f a057 89bd e44a 3ebf 72f1 b5be
00000040: 7bca 4c3e a7ca 04bf 1e06 60be 882d 1b3f
00000050: 1bb0 e83e 912f 083e 576d 113f 5b9c 10be
00000060: 0c92 9c3e f0d8 3fbf c16c 2e3f b4e7 243f
00000070: 5ecf 51bf 7e65 58be b259 2a3f 9e67 a6be
00000080: 1362 613e 6283 55be e70e 9cbc aaf3 de3e
00000090: 8358 c4be 1bb6 d43d 5334 81be a3b5 d1be
000000a0: 84b2 443e 9e94 3e3d 3dfc 97bd 7ffb af3e
000000b0: bdc8 d03e 6587 bd3d c02b f4be 48ec 5b3d
000000c0: 3234 eb3e 670b de3e ebd6 24bf de4a 49be
000000d0: bf78 3dbf 4a39 6fbf 8fb3 a63d 25ba 3fbf
000000e0: 541f 33bd 1676 ca3e c52c 3bbf 4a00 e63d
000000f0: d390 f03e eb00 b03e e528 13bf 6d7c c63e
00000100: 5c86 3e3e 5144 4fbf ca74 e53e f506 20be
00000110: 26f3 0ebe 6de3 8b3e bc6c 2f3f 7a20 5cbf
00000120: dd7b 1f3f 1bb2 c03c 47b0 ee3e 8dd0 423f
00000130: 4c61 823e c9a8 a8be ddc6 1c3f feb8 aa3e
00000140: ee01 a4be 9757 e3bd 8245 0f3f bf2d 19bd
00000150: 1635 d33c dd1d fabe 7999 2dbf c01f 6cbe
00000160: ffea 563e dde7 a63d 3ce1 3ebe b86e 97be
00000170: 00e3 253f 9d81 e4be 84a4 febe 69b6 b5be
00000180: 21d1 b5be 91ec 3f3e 49ec 083f 6853 e53e
00000190: 896a ffbe f29c f73d 85b9 85be 45e1 f5bd
000001a0: f9a6 d2be b7af 03be a9d0 7c3d 8c5c a53e
000001b0: 5f00 4cbe e64a 043f 7de1 233e cfa0 90be
000001c0: 7d65 a1be 68c9 72bf 3120 f6be 3427 13be
000001d0: bf92 15bf 6233 a9be c5ae 99be ba92 183f
000001e0: 5b68 28bf 553d c8be 5776 f6be 3c24 c7be
000001f0: 655e 563e c80d 01bd c0f2 b53d 79ed 2fbf
00000200: 13d0 75bf 5dfd 23bf 9188 32bf c052 9e3e
00000210: 9bc0 183f 0506 2b3f 1f6c f53e 3e04 c93e
00000220: 4b4f e2be 09fa 83be 6cbe 40bf e2ba fcbe
00000230: cdd4 5cbd efa0 1cbf 6de7 c3bc 8638 173f
00000240: cfbe ef3e afc5 d63e 8193 1abf 0369 febe
00000250: 2ad1 23bd 399d 2e3f 0752 113e c613 9abe
00000260: f9d3 f0be 8eba e33c 026b 17bf 937c 3abf
00000270: 44fd 06be 2e13 aabe eead f3be 8044 20bf
00000280: 2f82 45be bbe9 2cbd 4712 833e f3e4 2c3f
00000290: 276e b83e 78ca 023f 7a00 debd c706 ec3e
000002a0: d783 863e 3719 5c3f ba70 483e 39e0 a4be
000002b0: 5860 9dbd 10cf b43e d5ee d73e bc99 03be
000002c0: a732 09be 4d80 45bf 9cb0 fa3d f4b7 ebbd
000002d0: 8fcd c2be 044e 093f e63d 1fbf 8f63 1d3f
000002e0: 8fea 343f aeb6 9f3e 4be2 8bbe 9350 d8be
000002f0: 0714 823f 1d45 fa3e e4e7 2b3f 75a7 4b3f
0.05449722 0.54925054 -0.19699666 -0.44232374 -0.43121433 0.7717481 0.1467199 -0.33454052
0.13711472 -0.21046287 -0.5248985 -0.5581151 0.56311154 -0.06706166 -0.74333024 -0.3553577
0.19999115 -0.5187172 -0.21877334 0.6061635 0.45446858 0.13299395 0.56807464 -0.14122145
0.30580175 -0.74940395 0.68134695 0.6441605 -0.8195704 -0.21132466 0.66543114 -0.3250093
0.22010069 -0.208509 -0.019050075 0.43545276 -0.3834878 0.10386296 -0.25235233 -0.4095889
0.19208723 0.04652845 -0.074211575 0.34371564 0.4077815 0.0925434 -0.4768963 0.053692132
0.4593826 0.43368074 -0.6439044 -0.19657466 -0.7401237 -0.9344679 0.08139717 -0.7489341
-0.04373105 0.39543217 -0.7311519 0.11230524 0.46985492 0.343757 -0.57484275 0.38766804
0.18605942 -0.8096362 0.44815665 -0.15627654 -0.13959941 0.2732195 0.6852529 -0.85987055
0.62298375 0.023522427 0.46618864 0.76099473 0.25464857 -0.32941273 0.6124094 0.33344263
-0.32032722 -0.11100691 0.55965436 -0.037397142 0.02578215 -0.4885091 -0.67812306 -0.23058987
0.20988081 0.08149693 -0.18640608 -0.2957666 0.647995 -0.44630137 -0.4973489 -0.3549073
-0.35511115 0.18742587 0.5348554 0.44790196 -0.49885967 0.12090482 -0.26118103 -0.120058574
-0.41143015 -0.12859999 0.06172243 0.3229717 -0.19922017 0.51676786 0.16003986 -0.28247687
-0.31522742 -0.9483857 -0.48071435 -0.14370424 -0.5842704 -0.33047014 -0.3001615 0.59598887
-0.65784234 -0.39109293 -0.4813716 -0.38894832 0.20934446 -0.031507283 0.088841915 -0.6872173
-0.9602062 -0.64058477 -0.69739634 0.30922508 0.5966889 0.6680606 0.47934052 0.3926105
-0.4420112 -0.257767 -0.7529056 -0.4936133 -0.05391388 -0.61183065 -0.023914063 0.5907062
0.46825263 0.41947696 -0.60381323 -0.49689493 -0.039994396 0.6820865 0.14191447 -0.3009321
-0.47036722 0.027798917 -0.59147656 -0.72846335 -0.1318255 -0.33217758 -0.47593635 -0.6260452
-0.19287942 -0.04221509 0.25599882 0.6753685 0.3602154 0.5109019 -0.10839935 0.4609892
0.2627246 0.85975975 0.19574252 -0.32202318 -0.07684392 0.35314226 0.42174402 -0.12851614
-0.13398229 -0.77148896 0.12240717 -0.11509696 -0.38047454 0.5363467 -0.62203825 0.6148004
0.7067041 0.3119406 -0.27321085 -0.42248973 1.0162362 0.48880854 0.6715071 0.79552394

base_pointnet.conv_1_b.bias f4 [64]
00000000: 9bf8 9cbe 7e35 24be c9b6 083f 301f e6be
00000010: b84f 023f 64a3 7d3e 96fc c9be 4f22 f0be
00000020: 15a7 bebe 080d 4bbd ed0a cbbe b298 823e
00000030: 9192 90be 121a ee3e cd69 393e 8a44 15bf
00000040: 47aa 09bf 6a63 fdbe 9fc7 83be 1c36 0ebf
00000050: e88c cabe 953f 3ebe 73a8 a53e 1c44 393d
00000060: 60c1 2f3e ecba ec3e bbf0 19bf 22e4 9c3e
00000070: d6a2 90be 3cd8 90bc dad6 8d3e d83e 9d3e
00000080: 09ae 04bf 4a43 1e3e 5cf6 d13c 7f68 cf3e
00000090: 9e6f 08bf 6209 0bbe 0e39 b43e e604 ee3e
000000a0: 3008 d53e 207e 873e 2fdf 093e 1613 8ebe
000000b0: 0468 cebe 0afa bebe 9364 013f 6b43 c7bd
000000c0: 21e8 cb3e c66e 423e 4ed8 533e b589 fd3d
000000d0: f949 4bbe 744d d13e 2f2f c93e b00e d63e
000000e0: 97eb 5cbe e71c 003e 8473 923e 79db ecbe
000000f0: 6b83 0c3e d61c 0dbf 1c96 edbc f798 3b3e
-0.3065842 -0.1603603 0.5340391 -0.4494567 0.5090289 0.2476936 -0.3945052 -0.46901175
-0.37236848 -0.049572974 -0.39656773 0.25507122 -0.2823682 0.46504265 0.18106766 -0.5830771
-0.5377545 -0.4948991 -0.25738236 -0.55551314 -0.39560628 -0.18578942 0.3235508 0.04523097
0.1716361 0.4623636 -0.6013295 0.30642802 -0.28249234 -0.017681234 0.2770298 0.30712008
-0.51828057 0.15455356 0.025630169 0.40509412 -0.53295314 -0.13577798 0.3519978 0.46488112
0.4160781 0.26463413 0.13464044 -0.27748936 -0.40313733 -0.3730014 0.5054409 -0.09729656
0.39825538 0.18987569 0.20687982 0.12379781 -0.19852437 0.40879405 0.3929381 0.4180808
-0.21574245 0.12511025 0.28603756 -0.46261194 0.13722007 -0.55122125 -0.029002242 0.1832007

base_pointnet.conv_2.weight f4 [64, 64, 3]
00000000: 7768 873d 4195 02bd 0b77 a7bd e680 28bd
00000010: 7afe c4bd e5cf d3bc d9e2 78bd e0e0 0e39
00000020: c248 143d 9c6f 55bd f23e a7bd c590 52bd
00000030: be1d 25bc 3a43 f13c a699 48bc 98eb 6e3d
00000040: 8743 5a3d 3292 773d ecc6 2a3d 66e6 71bc
00000050: 4679 073d 772a c5bb 1407 823d 4481 0bbd
00000060: 15dd 163d f45d 8dbc 8057 e33d bf89 68bd
00000070: d1e5 87bc a6b5 6fbd ae63 71bd a8d6 133d
00000080: 5a11 bdbd de8e 04bd 2bdd 94bd 1001 06bd
00000090: f026 76bd e776 303c eb1d 97bd 02ce 3d3c
000000a0: db24 843d 41da 47bd 633f 94bd b3a3 633c
000000b0: e0d0 d4bd d566 e63d d871 48be c496 c9bd
000000c0: 9668 81bd 68be 27bd 75aa 9abd f7c7 033e
000000d0: 9140 493d 9ddc afbc 2974 ce3d b281 023d
000000e0: e298 03bd d3dc dbbc 448f 3f3d d6b8 0dbd
000000f0: 06ef acbe c29b edbd 3ad3 51be b3d2 2d3e
00000100: 89e0 973d b539 2dbe 5430 27bd 739b 363d
00000110: afb9 50bc d43a c53b 1252 0e3d 5d86 2b3c
00000120: d06d 40bb 910f c73c d745 443d ea57 0fbe
00000130: 669a bcbc de9b 673d b4b5 703d 9739 be3d
00000140: 6248 9bbc 4ead 4d3d bcd5 323d f4aa abbd
00000150: e02c 85bd d0a0 5d3d 46c3 c7bc 25c2 983d
00000160: 5416 353d 7448 183d f298 fabc e021 453d
00000170: a538 f83c 4ba7 67bb f800 7f3d 0922 bbbb
00000180: 3c4c 663d 6b76 7a3d 667a cebd d4fc d93d
00000190: 569f 90bd 5cf9 17be 0a33 5f3d 9aad 813d
000001a0: 3db8 05bb 3825 c4bc 6e72 adbc 17bf 1bbd
000001b0: 4179 203d 7f7b 1cbb 1b6e 1cbc a5e1 c73c
000001c0: 125e 16bd 8a61 6cbc 570f 27be 56df 59bd
000001d0: 17b0 e8ba 4b17 71bc f0d3 cb3c b444 afbd
000001e0: 3059 713c 7296 e23c a254 fa3c 17dd 0ebd
000001f0: e7b5 dd3b b6e6 e43c 7fe7 cb3d e7a9 d9bc
00000200: 4598 b93b 08e9 54bd 25df e8bc fae8 6abd
00000210: b874 d4bc 453d 85bd cd1b 71bd d536 bfbc
00000220: 06e6 53be b1ba a4bd 921a 01bd 541d 073e
00000230: 7933 4f3c a3d1 86bb 7503 853c d2ef 87bc
00000240: 41cf 0abe 2d79 25bd 7c62 6dbd 87b5 fa3c
00000250: ea96 b2bd be1a dcbd 2d1a b73d a5e7 a33c
00000260: 6d2d 7bbc efae 763c 8b50 78bd 7f97 2e3d
00000270: ac09 453d 855b 68bc 2a5b a7bc c830 06be
00000280: 9ce4 113d 4825 15be f656 00bd 0e40 aebd
00000290: 173e b2bd 0ba7 cb3d 265f 67bd 402a 0b3d
000002a0: 3664 5c3d 68be 79bd 7572 85bd 810b 1fbd
000002b0: d491 87bc 0606 68bd 1cb0 a6bb 205e 8ebd
000002c0: 0408 fd3c 5a52 f9bc 67d0 5bbd 142a a4bc
000002d0: f2eb fb3c a029 373b 896f a13c 0be8 173d
000002e0: f94d 85bd cdda 3abc 703c 7e3d cec2 42bd
000002f0: cf3a 06bc 8203 56bd dd58 70bd e191 54bd
00000300: 61d5 2d3c 011a 663d fd00 a3bc d0ad 91bd
00000310: dc1e 9bbc b9ad 803d b840 a5bd a6aa 493c
00000320: 613b 76bd 05c6 0abe 5c51 16bd bcf2 8ebb
00000330: 680d 963a 5080 34bd 245f f73c b0ae 5d3a
00000340: 7d87 553d e238 ff3d 7ad5 9b3c a536 6abd
00000350: 9c42 513c 33b6 06ba bb08 9f3d 1a05 db3c
00000360: de20 6f3c 8c0d 7fbd 6995 a43d 9d65 c1bc
00000370: 9733 863d fb80 11bb 1f6a 713d 616f 51bc
00000380: e1bb 7ebd fce1 7f3d 4ade ecbc d3d8 96bd
00000390: bf0d 69bd 1986 603c a7c6 c8bd 117c d93c
000003a0: 1426 6f3d d189 743c 78c3 8c3d 6d18 a0bc
000003b0: b97e 4cbe f3f6 fd3d 1f7b 473c b9dd 27be
000003c0: c2a1 abbd 0d43 99bd 75ba 743c 0e50 8c3d
000003d0: c51c 18bd 4487 8b3c 028d 053b 6e00 863d
000003e0: 4b81 d9bd 4be5 76bb c11c 0f3d 5fd6 6abd
000003f0: d943 e3bd a429 30be 777d 8dbe 362b 283e
0.06611722 -0.03188062 -0.081770025 -0.041138552 -0.0961885 -0.025855968 -0.060763214 0.00013625948
0.0362022 -0.052108392 -0.08166303 -0.051407594 -0.010077892 0.029451001 -0.012243664 0.05833015
0.053287055 0.060442157 0.041693613 -0.014764404 0.03307464 -0.006017025 0.06349006 -0.034058824
0.036831934 -0.017256714 0.11100674 -0.05677199 -0.016589077 -0.058522843 -0.058932953 0.036093384
-0.09231825 -0.03236281 -0.07268747 -0.032715857 -0.060095727 0.010770536 -0.07378753 0.011584761
0.06452342 -0.048792128 -0.072386526 0.013894009 -0.10391402 0.112500824 -0.19574678 -0.098432094
-0.06318776 -0.04095307 -0.07552043 0.1286925 0.04913384 -0.021467501 0.100807495 0.03186197
-0.032128222 -0.026838696 0.046767488 -0.0346001 -0.3377611 -0.11601974 -0.20490733 0.16974907
0.074158736 -0.16916545 -0.040817574 0.04458184 -0.012739583 0.0060189757 0.034746237 0.010469046
-0.0029362328 0.024299415 0.047918167 -0.1399838 -0.023022842 0.05654513 0.058767036 0.09288328
-0.018955413 0.050214104 0.043660864 -0.08382216 -0.065027 0.05410844 -0.024385106 0.07458905
0.044210747 0.03717847 -0.030590508 0.04812801 0.030300448 -0.0035347517 0.062256783 -0.0057108444
0.056225047 0.06114809 -0.100819394 0.10643926 -0.07061641 -0.14841217 0.054492034 0.0633194
-0.0020404004 -0.023943529 -0.021172728 -0.038024034 0.039178137 -0.002387732 -0.009547736 0.024399588
-0.036710806 -0.014427552 -0.16314445 -0.053191505 -0.0017752674 -0.014715026 0.024881333 -0.08558026
0.014730737 0.027659629 0.030557934 -0.034878816 0.006766069 0.027942043 0.09956264 -0.026570274
0.005663904 -0.05198005 -0.028426716 -0.05735109 -0.025934562 -0.06505827 -0.058864404 -0.023341576
-0.20693216 -0.08043421 -0.03151948 0.13194782 0.012646549 -0.004114346 0.016237 -0.016593847
-0.13555624 -0.040398765 -0.05795525 0.030604137 -0.08720191 -0.10747288 0.089405395 0.020007918
-0.015330655 0.015056356 -0.060623687 0.042624947 0.048104927 -0.014181976 -0.020429213 -0.13104546
0.03561841 -0.14565003 -0.031332932 -0.08508311 -0.08703249 0.0994397 -0.056487225 0.03397584
0.053806506 -0.0609726 -0.065159716 -0.03882933 -0.016549028 -0.05664637 -0.005086912 -0.06951547
0.030887611 -0.030434776 -0.053665545 -0.020039596 0.030752156 0.0027948394 0.019706504 0.037086528
-0.06509013 -0.011404705 0.062069356 -0.04754906 -0.008192732 -0.05224944 -0.058678497 -0.051896933
0.0106099555 0.056177143 -0.019897932 -0.0711323 -0.018935613 0.06283135 -0.08068985 0.012308752
-0.060115222 -0.13552101 -0.036698684 -0.0043624323 0.0011448087 -0.04406768 0.030196734 0.00084565114
0.052131165 0.124620214 0.019022692 -0.05718102 0.012772229 -0.0005138844 0.07765337 0.026735831
0.0145952385 -0.06226878 0.0803631 -0.023608023 0.06552809 -0.0022202122 0.058939096 -0.012782902
-0.062190894 0.062471375 -0.02891459 -0.07365575 -0.056897875 0.013703846 -0.09803515 0.026548417
0.058385924 0.014925436 0.0687322 -0.019542897 -0.19970216 0.124006175 0.01217535 -0.16393174
-0.08380462 -0.07483492 0.014937033 0.06851207 -0.03713681 0.017032273 0.0020378237 0.06543051
-0.10620364 -0.003767329 0.03493953 -0.057333346 -0.11096925 -0.17203385 -0.27634785 0.16422734

base_pointnet.conv_2.bias f4 [64]
00000000: 5449 d83c 0ad5 9cbd b8d8 893a 22b5 a6bc
00000010: 9b9a 883d 559b 4d3d 9aa0 c7bc ebaa 9f3d
00000020: 9a24 47bd af88 abbd 2a86 113e 1552 983d
00000030: e67a 243d 234e 3fbd 99fa f5bc 6bbc fcba
00000040: ab02 d0bd 437a 8e3d f9cb 8fbd ac88 a43d
00000050: 23f6 d63d 7e5f 883c 7135 16bc cda2 3ebc
00000060: 36b1 f13c 1315 92bd ff9a 15bc 2a75 8cbd
00000070: 998b e33c 756a b1bd 9b6b ac3c 2410 f53c
00000080: 6353 9bbc 03d8 e03b 1fc6 2fbc 49f2 003e
00000090: c54e c43d 7e1f 7fbd 718c 7abd 1cd4 7f3d
000000a0: 9d4b 88bd b48f 313d e14c 473b 8c27 553c
000000b0: ccd2 d63b 2068 f93d 4df9 5d3c ff48 103d
000000c0: 5af0 14bd 9776 0b3e 5241 b3bb 7377 d1bc
000000d0: 7a15 6e3d 95ae 8cbd 0762 a53c d6ad 0abd
000000e0: b9ea 8a3c d297 babc b09e e3ba dadc 063d
000000f0: 0c1f 64bd fb85 4abd 12be b53d 0c8c 3abd
0.026402153 -0.076578215 0.0010516858 -0.020350043 0.06670114 0.050196964 -0.024368573 0.07796272
-0.04861889 -0.0837568 0.14211336 0.07437531 0.040156268 -0.046705376 -0.03002672 -0.0019282227
-0.10156759 0.06956913 -0.070213266 0.080338806 0.104961656 0.016647097 -0.009168015 -0.011635494
0.029503446 -0.07132926 -0.009131192 -0.06858285 0.027776526 -0.08662883 0.021047404 0.029914923
-0.01896066 0.006861688 -0.010728388 0.12592424 0.095853366 -0.062285893 -0.06116909 0.062458143
-0.06655047 0.043349937 0.0030410814 0.013009917 0.0065558907 0.121780634 0.0135482075 0.035225864
-0.03636203 0.13619457 -0.0054704333 -0.025569653 0.05812595 -0.068692364 0.020188345 -0.03385719
0.016957628 -0.022777472 -0.0017366018 0.032925464 -0.05569367 -0.04944418 0.08874144 -0.045543715

base_pointnet.bn_1.weight f4 [64]
00000000: 641a 5f3f f6b7 613f 1091 753f dcd7 883f
00000010: 5bdf 763f b7c1 843f b10d 6f3f d11a 4d3f
00000020: c71a 913f a6af 7f3f e65c 763f 68d9 523f
00000030: ccd8 633f e0e5 753f a36c 853f 3dc9 ad3f
00000040: 145b 5a3f 0711 8e3f 63a6 8b3f d4df 7b3f
00000050: 6b28 983f 2939 bf3f 145e 643f a405 743f
00000060: 8338 5f3f f90d 893f 2982 863f 6e42 603f
00000070: 88ff 643f 5bdc 4a3f 7959 643f 3d28 623f
00000080: e936 763f bc0c 8e3f 4e33 6a3f 4556 413f
00000090: 05c1 523f 7370 763f 5f46 a33f 5a0f 6c3f
000000a0: 56f8 803f e8a9 653f 23ea 923f c534 4f3f
000000b0: 9a1f 663f 9996 a83f d59e 813f 7a9a 5d3f
000000c0: 01a2 923f 7ad1 9b3f 24f8 633f c6f5 3e3f
000000d0: dadb 8e3f ad53 8f3f de54 8d3f e6bf 613f
000000e0: 860c 743f d183 803f da0d 573f a71b 6b3f
000000f0: f82b 783f 2bd0 853f c801 7b3f 35c7 7c3f
0.87149644 0.8817133 0.9592447 1.0690875 0.96434563 1.0371617 0.93380266 0.80119044
1.1336297 0.99877393 0.962355 0.82362986 0.8900268 0.96053886 1.0423778 1.3577038
0.85295224 1.1098946 1.0910152 0.9838841 1.1887335 1.4939319 0.8920605 0.95321107
0.87195605 1.0707389 1.0508472 0.87601364 0.8945241 0.79242486 0.89199024 0.8834265
0.96177536 1.1097636 0.91484535 0.7552226 0.82325774 0.96265334 1.275585 0.92210925
1.0075786 0.8971238 1.1477703 0.80939895 0.8989197 1.3170959 1.0126597 0.8656384
1.145569 1.2173302 0.8905051 0.7459377 1.1160843 1.1197411 1.1041524 0.8818344
0.9533161 1.0040227 0.8400551 0.9183907 0.9694209 1.0454153 0.9804959 0.98741466

base_pointnet.bn_1.bias f4 [64]
00000000: 50ad 0ebe 7c01 963d 6abb d5bd 8862 d1bd
00000010: a7cc 95bd 6a53 a9bc 508d bbbd d479 60be
00000020: 9952 ea3d 7da9 473d fb41 bfbd 6658 00be
00000030: 919c 69bc c5cc a23c b3c7 1f3e 4db5 82be
00000040: 76c1 cc3b 771f 17bd e820 0f3e ce84 053e
00000050: 49ef c2bc 519d b7bb 8cf3 b13c d638 0fbd
00000060: 41c0 b6bc baec f83d ffdd 5bbe bfe6 0ebe
00000070: defc 363d c6a6 11be 855c 64bd 28a0 08bd
00000080: cd7a 5abd 236a 68be d3c4 26be ce89 c9bd
00000090: 5089 fb3b 0e65 32be 9ae1 1f3a 794e dcbd
000000a0: dd30 04be 75fc eeba 38b6 b6be f254 80be
000000b0: 8a34 ec3c 97d5 92be b565 c8bd 76b7 3ebe
000000c0: 725e 31bd b37f 0fbe 72ff 663c a068 febd
000000d0: a8e1 993d 0e33 ccbc 8e7b f5bd 372f 2abb
000000e0: 4580 44be f99b 5d3e ec1d 9fbe 7c14 d6bd
000000f0: df2a ba3d 0a05 79bd 383b 86bd 594a cabd
-0.13933301 0.07324502 -0.10436137 -0.102238715 -0.07314425 -0.020669658 -0.091578126 -0.21921474
0.114415355 0.04874562 -0.09338757 -0.12533721 -0.01425852 0.019873032 0.15603523 -0.25528947
0.0062486483 -0.03689524 0.13977396 0.13038942 -0.02379574 -0.0056034704 0.021722578 -0.034966312
-0.02230847 0.12154527 -0.21471404 -0.1395521 0.044674747 -0.14223775 -0.055752296 -0.033355862
-0.05333977 -0.22696738 -0.1628602 -0.09840737 0.007676281 -0.17421362 0.0006098986 -0.10757155
-0.12909265 -0.0018233197 -0.35685897 -0.25064808 0.028833646 -0.2867858 -0.09785024 -0.18624672
-0.04330296 -0.14013557 0.014098989 -0.124222994 0.07513744 -0.024926689 -0.11986457 -0.0025968084
-0.19189556 0.2164153 -0.31077516 -0.10453126 0.09090208 -0.06079582 -0.06554264 -0.09877462

base_pointnet.bn_1.running_mean f4 [64]
00000000: d8ef 28c2 2c38 34c1 e08e 16c1 8295 c9be
00000010: 8657 2a40 1142 cf3f 1248 e141 8859 fd41
00000020: 7931 89c0 302e adc0 cab8 8f40 16b8 8a41
00000030: 220d c3c1 3608 c640 1a97 9dbe 921c dfbf
00000040: 23c1 94c1 b1aa 0fc0 4252 9ebe ebf3 013f
00000050: 9c39 44be 9349 463e 6222 15c2 88a1 1b40
00000060: 21ca 0ec2 42ed a3bf 9780 64c0 dbb2 3f40
00000070: 500a 7e41 5b2f ca40 0510 21c1 53b6 ec41
00000080: aace e33f 8045 c5be d6d1 11c1 f754 4842
00000090: 7aa0 0b41 034e b140 f58f 2cc0 3718 aec0
000000a0: 9dc5 1340 70b6 e2c1 95d7 2ac0 d670 3841
000000b0: bf05 4441 a6fe 7cc0 c58e 72c0 233a 10c2
000000c0: c016 b23e cf0e 78bf 5ad9 cb41 054b cd41
000000d0: 70b0 18bf 727d 273f 35e9 c4bf 7059 9841
000000e0: 64d1 91c1 bf3d a8bf f949 e141 ca0a a43f
000000f0: eaa7 503f 93d8 5240 5f4a d840 ba7f ecbe
-42.234222 -11.263714 -9.409882 -0.39371878 2.661592 1.6192037 28.16019 31.668716
-4.287289 -5.411888 4.4913073 17.339886 -24.381413 6.1885023 -0.30779344 -1.7430594
-18.594305 -2.2447932 -0.30922133 0.50762814 -0.19162601 0.19364004 -37.283577 2.431734
-35.69739 -1.280678 -3.5703485 2.9952915 15.877518 6.3182807 -10.066411 29.589025
1.7797444 -0.38529587 -9.1137295 50.082973 8.726679 5.540773 -2.6962864 -5.440456
2.3089364 -28.33908 -2.669408 11.527548 12.251403 -3.9530425 -3.789964 -36.056774
0.34782982 -0.96897596 25.481129 25.66163 -0.5964422 0.6542579 -1.5383669 19.04367
-18.227242 -1.3143843 28.16112 1.2815793 0.81506217 3.2944686 6.7590785 -0.46191198

base_pointnet.bn_1.running_var f4 [64]
00000000: 95ee e143 9542 f841 b943 3243 1c06 f540
00000010: e762 9c42 cced 9841 dcc6 3243 222d 5f43
00000020: fe05 a942 31c0 3342 a853 6342 a336 db42
00000030: 7542 1143 4439 3e42 256b 2d42 ac03 f641
00000040: 829d 9e42 fd9c 8142 cbef e041 a6f9 0342
00000050: e3ec ab40 f275 5841 862d a443 b455 8c41
00000060: 48db a643 1976 2142 fa99 b041 1da0 6741
00000070: 0e78 9542 6dd6 1441 a70b c142 3674 5743
00000080: 0a7f e041 d31f d53f 3420 8042 2dd3 1444
00000090: 5ccb e442 137c 5f42 1460 6542 8235 0e42
000000a0: 2256 4542 8e07 4843 d198 fd41 5eac 4c42
000000b0: 48c4 5442 1ca0 9842 9c69 cf41 426f a243
000000c0: 8cc0 6940 6873 b441 bd4b 1f43 c26a 3c43
000000d0: 8cd2 8f40 acda c041 cf1a c741 6461 1543
000000e0: 2d5d b642 a361 5e42 3e98 3143 50a7 1242
000000f0: 78bd 4242 c2e8 d541 80d2 3642 292c c942
451.86392 31.03251 178.26454 7.656996 78.19317 19.116112 178.7768 223.1763
84.5117 44.937687 56.831696 109.60671 145.2596 47.555923 43.354633 30.751793
79.30763 64.80662 28.117086 32.993797 5.372667 13.528795 328.35565 17.541847
333.71313 40.36533 22.075184 14.47659 74.73448 9.30235 96.52276 215.45395
28.06203 1.6650337 64.0629 595.2996 114.39719 55.871166 57.343826 35.552254
49.334114 200.02951 31.699617 51.168327 53.19168 76.31271 25.926567 324.8692
3.6523771 22.55635 159.29585 188.41702 4.4944515 24.106773 24.88809 149.38043
91.181984 55.59535 177.5947 36.66339 48.685028 26.738651 45.705566 100.58625

base_pointnet.bn_2.weight f4 [64]
00000000: 71ed af3f c4d9 b33f 0ad7 b93f 742f 2040
00000010: 691e b23f 8826 c63f b53e bb3f af56 a93f
00000020: 905e bd3f d50f 0040 c861 f63f 7dda ab3f
00000030: 1629 0740 e51e b83f 9c94 aa3f b9d9 b53f
00000040: 3002 c23f 8991 b43f 3d9f c53f f3c4 be3f
00000050: 3a41 d13f 837e bc3f 56de 0140 7160 d43f
00000060: 3bb1 fc3f d2d1 0040 9295 cb3f 1423 e83f
00000070: ede1 c23f 5000 d03f a4c6 d43f 7ba5 c23f
00000080: 7632 c23f 0e56 cb3f fbf8 b93f cb4b 0640
00000090: 0007 bc3f b194 e13f f41e c73f c5c0 b33f
000000a0: 4ecc c23f a193 e13f d168 b13f d17f ba3f
000000b0: f82f c83f 21a1 cc3f 3ca9 d63f 518d d53f
000000c0: 6217 f43f 183b d13f bb6c b83f 6658 e23f
000000d0: bd90 aa3f 872c ff3f b03b a73f 03ba d23f
000000e0: 7f3d fa3f f551 a03f 8f15 fa3f 6c48 cd3f
000000f0: cf5f ba3f 4b59 b23f 7db8 b73f 760c d53f
1.3744336 1.4050832 1.451875 2.5028963 1.391553 1.5480509 1.4628512 1.3229579
1.4794483 2.0009663 1.924859 1.3426052 2.1118827 1.4384428 1.3326602 1.4207069
1.5156918 1.4106914 1.5439221 1.4903854 1.634803 1.4726108 2.0291953 1.6591932
1.9741586 2.0128064 1.590502 1.8135705 1.5225197 1.6250095 1.662312 1.5206751
1.517165 1.5885637 1.4529108 2.098376 1.4689636 1.7623502 1.5556321 1.4043204
1.5218599 1.7623178 1.3860112 1.4570256 1.5639639 1.5986673 1.6770396 1.6683751
1.9069636 1.6346159 1.4408182 1.7683227 1.3325421 1.9935464 1.306509 1.6463016
1.9550017 1.2525011 1.9537829 1.6037726 1.4560488 1.39335 1.4353176 1.6644428

base_pointnet.bn_2.bias f4 [64]
00000000: 99cb 553e 0ccd 603e 209a 063e b84f 963e
00000010: 4876 443e b6ae 8e3e 16d7 fa3d ac33 1e3e
00000020: ad54 e93d d658 92bd 8d75 8dbe 04e9 b33d
00000030: 82c9 933e 0bd9 283e 60dd 453e 5672 223e
00000040: de96 b3bc 0524 f73d 99d9 6b3e 94df 5f3e
00000050: 9ba4 123e 65d7 6f3e 61a0 67be 28b1 c6bd
00000060: 62aa 793e 6d73 d8ba eb06 523e 2e22 34be
00000070: 159f 0a3e 9cbc 443d 76f8 0a3e 1a22 983e
00000080: f9f8 013e c7a1 653e eb8d 193e 7196 9a3e
00000090: d52b 543e 2191 9c3e bf3b 333e e509 653e
000000a0: 6bea 433e 5c9e 9c3e d788 bb3d f3a7 573e
000000b0: 2bbc 953e de2f 88bd a0e3 1d3e af94 f23d
000000c0: 6f72 873e 8f5d 8f3b 504b a13d f666 b93e
000000d0: 0ebb 003e 842a 3e3d 59f5 c03d 9bfa a93e
000000e0: 3ad7 8e3d fd5e 943d 580c 5c3e 9ebf 0b3e
000000f0: 64c0 313e 54d1 693e 3514 073e cb40 1e3e
0.20878448 0.21953219 0.13144732 0.29357696 0.19185746 0.2786767 0.12248056 0.15449399
0.11393104 -0.0714585 -0.27628747 0.087846786 0.28864676 0.16489045 0.19322729 0.15863928
-0.021922525 0.12067417 0.23032226 0.21862632 0.14320605 0.2342201 -0.22619773 -0.097017586
0.24381402 -0.0016513892 0.20510451 -0.17591164 0.13537247 0.048031434 0.13571343 0.29713517
0.12692632 0.22424994 0.14995544 0.30192903 0.20719846 0.30579475 0.1750326 0.22367056
0.19132392 0.3058957 0.091569595 0.21060161 0.29245123 -0.06649755 0.15418863 0.118447654
0.26454493 0.0043751667 0.07875693 0.36211365 0.12571356 0.046427265 0.09421796 0.3319901
0.06974645 0.0724468 0.21489084 0.13647315 0.17358547 0.22833759 0.13191302 0.15454404

base_pointnet.bn_2.running_mean f4 [64]
00000000: b1ae 40bf 2416 38bf 764c 05bd 3ea2 203e
00000010: c476 93be 77d5 1dbd 60fc f1be 96f7 cb3d
00000020: 5151 03bf acf4 253e a2e3 7d3e 712d ba3b
00000030: aed0 1ebe 1518 41bf 225c 7e3d 4fce f9bc
00000040: 9385 c5be 8d84 373d 082c 11be 6da4 123e
00000050: e9aa 90bd f955 fbbe 130c 113d 159b 3e3e
00000060: dcf4 e53b 0be0 92bc 1121 41be 7efa c23d
00000070: 8b27 32be 9359 c13c 393b dc3e c9c3 d2bd
00000080: 1c3b 37be e4ff 17be 7633 9ebe eaf4 5cbb
00000090: acd5 93bd 347a 08bf 5283 76be 2ccb fdbe
000000a0: d391 ecbc a759 553d 9c9e d3be 71c4 01be
000000b0: ba9a 93bd 032f 9e3e 886f d93e 5553 06be
000000c0: a3ba 45be 8dd5 babe 7bba 693e 9e68 a2be
000000d0: 011b c5bd 6094 e0bd 536f cfbe 77b2 5ebe
000000e0: ba9e 533e 4c9d 7b3c d805 5dbe 118f 3ebf
000000f0: de63 7cbd 4e59 f6be 09ad 333e 0549 8abe
-0.7526656 -0.71908784 -0.032543622 0.1568689 -0.28801548 -0.038533654 -0.4726286 0.09959333
-0.51295954 0.16206616 0.24793866 0.0056816866 -0.15509292 -0.7542737 0.062099583 -0.030493883
-0.38578472 0.044804145 -0.14176953 0.14320536 -0.070638485 -0.4908903 0.035411905 0.18613847
0.007017715 -0.017929098 -0.1886027 0.09520434 -0.17397897 0.023602283 0.43013933 -0.10291249
-0.17893642 -0.14843708 -0.30898637 -0.0033715316 -0.07218489 -0.5331147 -0.24073532 -0.4956907
-0.028878128 0.052087452 -0.41331947 -0.12672593 -0.07207246 0.30895242 0.42467904 -0.13117726
-0.19309478 -0.3649105 0.22825043 -0.31720442 -0.09624291 -0.109658 -0.4051462 -0.21747766
0.20666018 0.015357327 -0.2158426 -0.7443705 -0.06161868 -0.4811501 0.17546476 -0.27008834

base_pointnet.bn_2.running_var f4 [64]
00000000: 7bda 873d 8642 6e3d a670 683c e023 8e3c
00000010: ada7 823d fd07 f23d 1df7 783d 8490 c13c
00000020: 0318 0e3d 8f51 2b3c 138b d23b 4cee aa3c
00000030: a30f ff3b 4f39 583d d6ae b63d b704 3c3c
00000040: 1b1e 5b3c 270e 5e3c f816 903c 7cf6 3a3c
00000050: 149f 0a3c 862c 2e3d 27fa 0c3c 6f8f 9b3c
00000060: ee52 7d3c 7039 4c3c 92b6 4f3c ade7 323c
00000070: d8d2 863c 88e6 cb3c 3c95 b93c b0e5 173d
00000080: 7f5d 2f3d 5ab6 dc3c 0df9 f43c 6b1d 573c
00000090: a722 433c 3f32 7f3d 5777 653c 95ac 6c3d
000000a0: cac6 e63c 236e 373d 9523 b13c 9e56 ae3c
000000b0: 160f a83d 600d 473c e5ed b13c 2f9f b73c
000000c0: e702 7c3c fee3 523c baf1 6f3d 7ee9 743d
000000d0: cabe 033d e7b2 ce3b a692 4f3d e3da e63c
000000e0: df20 0f3d b7ec 053d 03e9 063c cfd4 d23c
000000f0: 871c 233d a38c 6d3d 1195 b33d ee32 8d3c
0.06633469 0.05816891 0.014187014 0.01735109 0.06379638 0.1181793 0.06078254 0.02362848
0.034690868 0.010456457 0.0064252703 0.020865582 0.0077838465 0.05278903 0.08920066 0.0114757335
0.013373877 0.013553179 0.017589077 0.0114113055 0.008460779 0.04252293 0.008604563 0.018989293
0.0154616665 0.012464866 0.0126778055 0.010919494 0.01645796 0.0248902 0.022654168 0.03708428
0.042813774 0.02694242 0.029903913 0.013129572 0.011910117 0.062303778 0.014005504 0.057781775
0.028170962 0.04478277 0.021623412 0.021281537 0.082060024 0.012149185 0.021719882 0.022414772
0.015381551 0.01287174 0.058580138 0.059792988 0.032164373 0.006307948 0.050676964 0.028180545
0.034943458 0.032696452 0.008234265 0.02573624 0.039822128 0.05799545 0.087686665 0.0172362

fc_1.weight f4 [64, 66]
00000000: ec68 91bd bf79 54bd 8a7e c3bc 21c8 da3d
00000010: 2ebb 5abc f142 8c3d e193 a23c 82d4 98bd
00000020: 8116 80bd f4ca 92bd 226f 283c e9d8 d4bd
00000030: 6636 d73b 0152 d2bc fbfe 08bb 7bc7 883d
00000040: 3b2a 4d3d 50e9 0fbd 8367 c3bd 9ace b33d
00000050: d544 d43b 4f8b 93bd 1c2d dabd f4dd 89bd
00000060: d4ce eebd 2b91 883d 2402 be3d 14cc f6bd
00000070: f38f d3bc 2422 e43c 1742 963d c171 b1bd
00000080: b4f9 c6bd 7a9f abbd 637e be3a 44de c33d
00000090: 4461 71bd 5769 fb3b c605 ab3d c8ca 973d
000000a0: 7b91 9cbd aa63 35bd 8532 d4bd d9b0 dbbd
000000b0: 17c1 e73d b868 023d 611b 80bd 3060 903c
000000c0: 2d63 8dbc 3cd5 713c 44de 8e3c 0f31 a7bd
000000d0: ea59 273d a158 f9bc cb7a ec3c 6bdf b3bb
000000e0: edb3 26bd aa7b aebd d26e d23d 204c 523d
000000f0: 1ae4 e83b 1ec5 bf3d e1b0 f7bd e278 f83c
00000100: 8b48 8cbd 0214 b4bd eb6a a1bd 9fbd 223e
00000110: bade 943c f79a 983e e417 d03e 5098 4b3e
00000120: a30f ea3d fa10 483e aaf3 2b3d 3ac2 8f3e
00000130: a133 143e 276a 313e 6221 83bc a43d 4a3e
00000140: 7cfc 3bbc 9423 203e e327 693e bacf ba3d
00000150: 1ef2 b13e c891 8c3e 24f7 5a3e 24dd 613e
00000160: f118 9bbd 2a94 a13e 3ba2 bdbd b43b d4bd
00000170: 931e 353e 0079 95bd e294 4c3e 7641 1d3c
00000180: 97a9 9c3d 067e f73d eebc 983e e8ea 893e
00000190: 5ae3 a13e 9abf f23d 19a0 ab3e b0a5 143e
000001a0: e3d2 413e 9224 043d 7b67 bc3e c7f1 e53d
000001b0: 412d 983d 4159 673e 91a5 b63d 3f0e f33d
000001c0: 8956 543d bd94 243e 317c 483d 7a06 603e
000001d0: 34d1 0e3e 147c a23e ed29 813e 2e7c 223e
000001e0: 6a04 b03e fca9 eabd 9f37 8d3e 0f25 203e
000001f0: ffe1 803e 52b2 983e c40f 3b3d 55a3 bd3e
00000200: ea6f 903e 012d 333e 8ad7 463d df3a 183b
00000210: ad03 023e dd4d 01bf 9de2 f43d f130 503e
00000220: 8dee 403b 7cbd 7bbe 0252 da3b 2083 ab3e
00000230: 3f73 2dbd 64e8 5e3e ede6 033e 1ca3 24be
00000240: 3459 6dbe 2901 813d 5a9c 7c3e 634f 4dbe
00000250: 2268 283d e982 1e3e ea7e d03d 11f6 43bc
00000260: 966c 123e 99e1 0a3e f87a 3ebe 9f77 363e
00000270: a117 2cbf b8c0 cfbd 4cbb 5e3e 063d 96be
00000280: 38ec 8bbd 748e 5cbe ceb9 dbbd 8afd 58be
00000290: 11db 3fbe 3924 ed3e 2b7a dabd d5b6 b13e
000002a0: 8ac3 543e bf2c 4c3e 02ed e03c 4c45 833d
000002b0: 32fe 133e 88ab 0f3d 2618 c43d a228 933e
000002c0: 566a 1c3e d75a e2bc 0fb8 dcbd cda4 a23c
000002d0: 07c9 e8be e21e 10be de33 193e 70ca fcbd
000002e0: 04ad b93d 8b34 a73d 8a07 f13d 2825 39be
000002f0: a183 ff3d dccb e4bd 80cc 5cbe 7deb fc3d
00000300: ba01 213e 4b27 13be 2bce 19be 3118 30bd
00000310: bb57 2bbd 1f9f cf3d 7b09 d0bd 94cf a2bd
00000320: 2315 cdbc f8d0 c73d 727c 66bd b7ce 97bd
00000330: 8470 8e3d 9b14 38bd 5c30 40bd 37dc 973d
00000340: c7f0 de3d 9b48 653d 591c b2bd f7ab d2bd
00000350: 5aa0 8cbd 0d65 d03d 1165 f0bb 1895 863d
00000360: 5161 05bd 6f3c ed3d c55c 973d 6028 eebd
00000370: e262 db3d 6296 8dbd ba97 bfbd fd50 0aba
00000380: e249 48bc 2073 f83d 0a67 2bbc c231 b8bd
00000390: 129e 96bc e9e2 51bd 24db f33c dbbf 60bc
000003a0: a690 613d bf68 2a3d 2c16 23bd afac 9dbc
000003b0: 9182 94bd e7b0 da3d 6d8d 81bd 74e7 303c
000003c0: 21a8 a0bc f8a2 cc3c b065 e83b 73e0 943b
000003d0: a64b 8c3d e356 a53d d2a8 d3bd a040 b13d
000003e0: b4fb 2abd 4852 bdbd 0622 3d3d 0b87 cc3d
000003f0: 13ed a43d 4899 63bd 113d 69bd 30cb 52bd
-0.071000904 -0.05187392 -0.02386405 0.10682703 -0.013350291 0.068487056 0.019845905 -0.07462408
-0.06254292 -0.071676165 0.010280402 -0.10392935 0.006567764 -0.025673868 -0.0020903933 0.06678673
0.050089102 -0.035134614 -0.09541228 0.087796405 0.006477932 -0.072043054 -0.10653135 -0.06731787
-0.11660543 0.066683136 0.09277752 -0.120506436 -0.025825476 0.02784831 0.073368244 -0.08664275
-0.09715596 -0.08380027 0.0014533516 0.09563878 -0.05893065 0.0076724696 0.083507106 0.07411724
-0.07644936 -0.0442845 -0.10361198 -0.107270904 0.11316126 0.03183815 -0.06255222 0.01762399
-0.017259205 0.014760312 0.017439969 -0.08163654 0.040857233 -0.03043777 0.028867146 -0.00548928
-0.040698934 -0.08519681 0.102750435 0.05134213 0.00710727 0.09363769 -0.12094284 0.030331079
-0.06849774 -0.08792879 -0.07881721 0.15892647 0.01817261 0.2980573 0.40643227 0.19882321
0.11428764 0.19537726 0.041980423 0.2807787 0.1447282 0.1732565 -0.01600713 0.19750077
-0.011473771 0.15638572 0.22769122 0.09121652 0.34755033 0.27454972 0.21383339 0.22057015
-0.075731166 0.31558353 -0.09259459 -0.1036295 0.17687444 -0.072984695 0.1997867 0.009598127
0.07649534 0.12084584 0.29831642 0.26937032 0.31618768 0.11852951 0.33520582 0.1451633
0.18928103 0.03226144 0.367977 0.11227756 0.074305065 0.22592641 0.08918298 0.118679516
0.05184034 0.16072364 0.048946563 0.2187747 0.13946992 0.3173529 0.252273 0.15867683
0.34378368 -0.11458203 0.27581498 0.15639137 0.2517242 0.29823548 0.045669332 0.37038675
0.28210384 0.17497636 0.048545398 0.002322845 0.12696715 -0.50509435 0.119572856 0.2033117
0.0029439062 -0.24584001 0.006662608 0.33498478 -0.042346235 0.21768337 0.1288106 -0.16077846
-0.2317856 0.062990494 0.24669018 -0.20049815 0.041114934 0.15479626 0.10180457 -0.011960522
0.14299235 0.13562621 -0.18601596 0.1781907 -0.67223555 -0.1014418 0.21751136 -0.29343432
-0.068321645 -0.21538717 -0.10728799 -0.21190467 -0.18735911 0.46316698 -0.10667833 0.34709802
0.20777717 0.19938944 0.027456764 0.06409702 0.14452437 0.035075694 0.095749184 0.28741938
0.15274939 -0.027631206 -0.10777294 0.019853974 -0.45465872 -0.14074281 0.14961192 -0.123432994
0.09066203 0.08164319 0.11769016 -0.1808058 0.12476278 -0.111716956 -0.21562386 0.12349603
0.15723315 -0.14370458 -0.15020053 -0.04299182 -0.041831713 0.10137772 -0.10158058 -0.07949749
-0.025034493 0.097566545 -0.056271024 -0.074124746 0.069550544 -0.044941526 -0.04692112 0.074150495
0.108857684 0.055977445 -0.08696813 -0.10286706 -0.06866522 0.10175524 -0.007336267 0.06571406
-0.03256351 0.115837924 0.07390741 -0.11628795 0.1071222 -0.06913449 -0.093551114 -0.00052763504
-0.012224646 0.12131333 -0.010461578 -0.089938655 -0.01838592 -0.05124179 0.02976758 -0.013717617
0.055069588 0.0416038 -0.039816067 -0.019247381 -0.07251466 0.10678273 -0.06325803 0.01079737
-0.01961142 0.024980053 0.0070922 0.004543358 0.06850366 0.08073213 -0.10334934 0.08654904
-0.04174395 -0.092442095 0.046175025 0.09986695 0.08053031 -0.055566102 -0.056943003 -0.051463306

fc_1.bias f4 [64]
00000000: c1d3 56bd 0776 323e 866e e23d b83b 8abd
00000010: 5013 08bc 6520 25be d2d4 e23d 9d34 2c3e
00000020: 3f56 393e b708 573d 6cda 3f3e 141c 063d
00000030: cd06 113e 29c7 273d 91cd 37bd 374a d23e
00000040: cb3e 6c3c 6da7 3e3d 5e09 87bd 1e26 c93d
00000050: e3ad c73b 9f5d bf3d 3d40 6cbd ec65 ae3b
00000060: c291 cfbd 9160 173d 203c a63e 0f26 7fbd
00000070: dd57 b5bd e960 2c3e b784 0f3e ab1b 0e3c
00000080: a1cd 96be e255 a2bd 7fbe 70be 2109 7f3d
00000090: e6a4 11bd 732f 033e 3a5f 2c3d ff83 7c3c
000000a0: d626 fe3c 5b50 f0bd f600 683d 8787 223e
000000b0: 9231 0e3e 23c2 843e c105 41bd 85f7 a9bc
000000c0: a671 883d 715d 8f3d c3f5 743e 86dd 9bbd
000000d0: 0a20 37be 42ec 3cbe d021 b8bd b4ac 5d3e
000000e0: 3bf7 8c3d 63cf e93b 454b c53d 5544 823e
000000f0: cc78 09bd 2de1 34be 2367 bb3c 0451 263e
-0.052448038 0.17427836 0.11056237 -0.06749672 -0.008305386 -0.16125639 0.110757485 0.16816945
0.18099307 0.052498545 0.18735665 0.03274162 0.1416275 0.04096142 -0.044873778 0.41072246
0.014419268 0.04654639 -0.065935835 0.098217234 0.006093727 0.09344029 -0.05767845 0.0053222086
-0.10135223 0.036957327 0.32467747 -0.062292155 -0.08854649 0.16833843 0.1401547 0.008673589
-0.29453757 -0.07926537 -0.23510168 0.062264565 -0.03555765 0.12811069 0.042083003 0.01541233
0.031024378 -0.117340766 0.05664154 0.15872012 0.13886097 0.25929365 -0.047124628 -0.02074791
0.06662302 0.070002444 0.23921876 -0.076106116 -0.17883316 -0.184495 -0.08990824 0.21647912
0.06883093 0.007135318 0.09633497 0.25442758 -0.033562467 -0.17664023 0.022876328 0.16241843

fc_2.weight f4 [4, 64]
00000000: e296 953d b09d 07be 39eb c03d 5443 b5bd
00000010: 036e 3b3d c1d6 e63d e89b cdbf 90de d0be
00000020: 4ce6 5c3e 2416 32bd 8f32 cdbe 6ada 6e3e
00000030: 8cc8 893d 3b06 6abd 5ad5 edbd 39cb 2340
00000040: 036a 85bd 4875 c5bd 56e8 633e d7ed 72bd
00000050: 8fce ac3f e5e0 aa3d 5a93 97be a0ad 033f
00000060: f468 fbbd e8a2 1e3d 509a 0540 a40d b63d
00000070: cac9 b2bd ad25 ccbc e45d 87c0 ac16 643d
00000080: b06c b5bf 9a48 cfb9 58f3 87bf 60af 893c
00000090: 5000 663e 38a5 b53f 3c0c c4bd 51dd 32be
000000a0: 9e11 4b3e 8472 50bd 8ade 893f 8a28 f0ba
000000b0: 3f74 03be c6f5 06be acda b43f 5474 a3bc
000000c0: 9c38 383e f129 18bc cd54 35be 2d4a 77bd
000000d0: 413f 313f 867b 2ebd c3e6 3f3e 4173 a83f
000000e0: 4402 8bbd f9f7 87bd 604e ddbd d927 3440
000000f0: 5805 8a3e 0218 963e 94d6 f43d 7bea 0040
00000100: e4f4 79bd 4655 90bd b2f5 0bbf 34f5 93bd
00000110: ca42 913b 6a2b 30bf 9a48 1abf 6045 1240
00000120: d106 0440 3935 f33d cd2d 383e 423c 903d
00000130: ac70 08be 6bc5 323e 1a67 b5bd ff58 d7bf
00000140: 7e0f 7c3e 29a8 27bd d9ff 993e 3ec7 823b
00000150: adf1 6f3f 8828 493e d05c d9bf f8ef 21c0
00000160: 2066 b73b cb1a 9cbe 30b6 7cc0 c568 f73d
00000170: 1c14 8a3d 26b9 913e 3032 9740 c0c5 ca3e
00000180: 1afd 7d3f 60c6 b0bc 9c4b a43e 7d43 6b3d
00000190: d539 c33e a37d 2cc0 8f44 8a3c e676 6b40
000001a0: e991 b3be 220d 8ebd 5859 35c0 d533 c13e
000001b0: 1000 abbe c533 c63e be48 3d3f 17e8 4d3e
000001c0: 150d 023f 8239 e9bc 0a01 833d da13 e83c
000001d0: 3ce6 ecbf 585c 4bbf 730d 763d 50c3 853f
000001e0: 105f f5bc 7dbf dd3d ca39 183d 1fcc ffbf
000001f0: 69e3 38bc 28b9 9bbf 06a1 fabe 63b8 9ebf
00000200: 24ab 0b3d 5809 a53e a4e0 743d f8ac ccbc
00000210: ad34 f539 92d2 243e 8c5b dc3f 0c5b 91be
00000220: 46dd 65c0 b180 b2bd 95cf 703e 7e32 34be
00000230: e840 973e cbcb 18be c423 ecbd 8123 2ac0
00000240: 4497 3ebe 8768 c2bd f801 75be c931 633e
00000250: 47c5 6abf c128 74be 0c4b f43f d567 823f
00000260: e01f d8bd 8e69 0f3e e20a 5d40 df06 49be
00000270: 4839 ebbd 0605 42bd f8e6 1340 f628 96be
00000280: 31a2 9e3f 2e0d 9b3d 6a43 993f 23c1 b13c
00000290: 558e 6abe 3e50 28bf dd32 1f3e f558 48c0
000002a0: 1bec b03d e814 42bd f327 f43e a176 4dbe
000002b0: e047 693e 46aa e13d 4b1b 25bf 397f 26bc
000002c0: 73f1 afbe aac1 ab3d 9dea 6b3d e95b 9c3c
000002d0: f923 9bbe 0a9e d03d 3f60 65be 43e7 9fc0
000002e0: e84b d63c 2fe4 0bbe 6379 703d 1013 3fc0
000002f0: aa9b 26be 1f5f c93d 8568 4fbe 9658 19bf
00000300: 1e89 dfbd b68e 9ebe e40b b0bd 1c9f 473d
00000310: eca9 5dbd 468e c03d 487d cf3d 67cd 803c
00000320: c854 39bf d3f0 3cbd 639f 34be 86cd 8ebd
00000330: 536a 8dbe 88d9 acbd ecb2 73bd 28cc 1ebe
00000340: 9ac4 a93c 3aff 47bc 6812 0cbc b35d 993c
00000350: 2683 82bc 22ab c5bd 4489 453d 6880 9abc
00000360: 8847 de3d 7d75 c8bc 2f95 e3be e8f8 dbbd
00000370: a0cf b4bc 6179 31bd fe0c 463d 26f5 da3d
00000380: abef 02bd 567b ba3d f875 553d 4fa4 8dbd
00000390: ff49 f13c 9625 d4be a0c9 acbc 5746 21c0
000003a0: 2f48 15be 2ee0 a6bd 71da 86be 9d3d 9cbe
000003b0: 64e0 15be f556 6abf d994 a03d 8114 19be
000003c0: f9af b73d 5e60 5d3c 3a77 f4bd 5fe0 b53d
000003d0: e219 2e3d b56a 20bd 0505 9b3d e1eb 28bd
000003e0: d0a2 acbc 2ccb 08be 3b36 0c3d eab4 89bf
000003f0: c447 1f3d d050 9f3d 3249 363d 3be3 14bf
0.07304169 -0.13243747 0.09419865 -0.088507324 0.045759212 0.1127143 -1.6063204 -0.40794802
0.21572226 -0.043478146 -0.40077636 0.23325506 0.067277044 -0.057134848 -0.11612959 2.5592787
-0.06514361 -0.0964151 0.22256598 -0.059308853 1.3500537 0.083436765 -0.29604608 0.51436806
-0.122758776 0.03872958 2.0875435 0.088893205 -0.087298945 -0.024920309 -4.2302113 0.055685684
-1.4173794 -0.0003953621 -1.0621138 0.016807258 0.22461057 1.4191046 -0.09572646 -0.17467238
0.19830939 -0.05089046 1.0771039 -0.0018322628 -0.12837313 -0.13179693 1.4129233 -0.01995293
0.17990345 -0.009287343 -0.1770813 -0.060373474 0.6923714 -0.04259827 0.18740372 1.3160173
-0.067875415 -0.06639094 -0.108059645 2.814932 0.26957202 0.29315192 0.1195499 2.0143116
-0.06102456 -0.070475146 -0.54671776 -0.07224503 0.0044330107 -0.68816245 -0.6026703 2.2854843
2.062916 0.11875386 0.17986222 0.07042743 -0.13324231 0.17458121 -0.08857556 -1.6824034
0.24615285 -0.040931854 0.3007801 0.0039910367 0.9372814 0.19644368 -1.6981449 -2.5302715
0.005596891 -0.3048919 -3.9486198 0.1208053 0.06742117 0.2846157 4.7248764 0.39603996
0.9921433 -0.021578968 0.32088935 0.05743741 0.3813006 -2.6951683 0.016878394 3.679132
-0.35072258 -0.06936099 -2.833578 0.37734857 -0.33398485 0.38711372 0.7393912 0.20108066
0.5080121 -0.028469805 0.063966826 0.028329778 -1.8507762 -0.7943778 0.06007142 1.045023
-0.029952556 0.10827539 0.037164487 -1.9984168 -0.011284688 -1.216588 -0.48950976 -1.240002
0.03409876 0.3223369 0.059784546 -0.024984822 0.00046769288 0.16095951 1.7215438 -0.28389776
-3.5916305 -0.08715952 0.23516686 -0.17597386 0.29541707 -0.14921491 -0.11530259 -2.658417
-0.18612391 -0.09492593 -0.23926532 0.2218696 -0.9170727 -0.23843671 1.9085402 1.0187937
-0.10552955 0.1400511 3.4537892 -0.19631527 -0.11485535 -0.047368072 2.3109722 -0.29328126
1.2393247 0.07570873 1.1973698 0.02169854 -0.22905858 -0.6574744 0.15546747 -3.1304295
0.086387835 -0.04738322 0.4768673 -0.20064785 0.22781324 0.11018805 -0.6449477 -0.010162168
-0.343639 0.08386548 0.05759679 0.019086795 -0.30300882 0.101863936 -0.22399996 -4.99698
0.026159242 -0.13661264 0.058709513 -2.9855385 -0.16270319 0.09832596 -0.20254715 -0.59900796
-0.10914825 -0.30968255 -0.08596018 0.048735723 -0.05411713 0.094021365 0.101313174 0.015722943
-0.7239499 -0.046128105 -0.17638926 -0.06972794 -0.2762018 -0.08439928 -0.059496805 -0.15507567
0.02072363 -0.012206847 -0.00854931 0.018721437 -0.015931677 -0.096517816 0.04822661 -0.018860057
0.10853487 -0.024470085 -0.44449756 -0.107408345 -0.02207166 -0.043328647 0.048352234 0.106912896
-0.031966846 0.09105556 0.052114457 -0.06916105 0.02945423 -0.41434926 -0.021092236 -2.5199182
-0.14578317 -0.08148228 -0.26338533 -0.30515757 -0.1463638 -0.91538936 0.078408904 -0.14949228
0.08969111 0.013511745 -0.11936803 0.08880686 0.042505153 -0.039164264 0.07569317 -0.041240577
-0.021073729 -0.13358754 0.034231406 -1.0758336 0.0388868 0.07779086 0.0445034 -0.58159226

fc_2.bias f4 [4]
00000000: 73cb 58bd ff61 283e 416a 44bb 7640 cd3c
-0.0529284 0.16443633 -0.0029970559 0.025055151
