Additional stuff/segmentation_pointnet_fake02.pth (torch, 78930 bytes, 18 tensors)

base_pointnet.conv_1_a.weight f4 [64, 1, 3]
0	0xbea1e9f9	-0.3162382
1	0x3d368430	0.044559658
2	0x3e97be32	0.29637295
3	0xbeca85ec	-0.395553
4	0x3d184755	0.037177403
5	0x3e9d47db	0.30718884
6	0xbe4a4260	-0.19751883
7	0xbef85d0f	-0.48508498
8	0x3ee8a6b2	0.45439678
9	0x3ec8aff6	0.39196748
10	0xbedd1b25	-0.43184772
11	0xbf1779aa	-0.5917002
12	0xbd7528c2	-0.059853323
13	0xbdd59d0d	-0.10430346
14	0x3df60704	0.12013057
15	0xbe800d18	-0.2500999
16	0xbdd8629b	-0.105656825
17	0x3ec97216	0.39344853
18	0x3e238e18	0.15972173
19	0x3e862da1	0.26206687
20	0x3eecbf1d	0.46239558
21	0x3c1e1aae	0.009649916
22	0xbc72e35e	-0.014824716
23	0x3c553faf	0.013015672
24	0xbecf447c	-0.40481937
25	0x3ed4dcb2	0.41574627
26	0x3cc1b3ad	0.023645246
27	0xbdfe7234	-0.12424126
28	0x3ec0bb79	0.3764303
29	0xbdb507b9	-0.088393636
30	0xbed2c61a	-0.41166764
31	0x3dfce8fe	0.12349127
32	0xbe6e8b39	-0.23295297
33	0x3eb90c58	0.3614223
34	0xbe13396a	-0.1437737
35	0x3e0c02a8	0.13672888
36	0xbe33f163	-0.1757255
37	0xbe6e49d1	-0.23270346
38	0x3ea76ad7	0.326987
39	0xbe947552	-0.28995758
40	0x3e22e6fb	0.15908425
41	0x3d5b8646	0.05359485
42	0xbf0bb750	-0.5457659
43	0x3f0bd587	0.5462269
44	0xbe7357a7	-0.23763905
45	0xbe1dfe0d	-0.15428944
46	0x3b0efaa8	0.0021816883
47	0xbdc1872f	-0.09449612
48	0x3e1dec0e	0.15422079
49	0x3f11a63a	0.56894267
50	0x3ea2b02e	0.3177504
51	0xbecf0759	-0.40435293
52	0x3eed2ac9	0.46321705
53	0x3c98ed01	0.0186677
54	0xbe3744b8	-0.17897308
55	0xbe8de393	-0.27712688
56	0xbebae7f6	-0.36505097
57	0xbdd6d252	-0.10489334
58	0xbdb1fb33	-0.086904906
59	0x3e362c70	0.17790389
60	0xbe8d8bc8	-0.27645707
61	0x3e481601	0.19539644
62	0xbdd5c8b0	-0.10438669
63	0x3e406cac	0.18791455
64	0x3e2b06dd	0.16701837
65	0x3d81985a	0.06327887
66	0x3e073982	0.13205531
67	0xbee76ee8	-0.45201802
68	0xbeeeef80	-0.466671
69	0xbe7a8456	-0.24464545
70	0x3e65f4a3	0.22456603
71	0xbed53283	-0.416401
72	0xbcd7061f	-0.026248036
73	0xbebd3480	-0.36954117
74	0xbd71d515	-0.0590411
75	0x3e9d962a	0.3077863
76	0x3d54eedd	0.05198561
77	0x3f0195d4	0.50619245
78	0x3d509eda	0.050932743
79	0x3ea95fd1	0.33080915
80	0x3e4d0cda	0.20024434
81	0x3e8fc667	0.28081056
82	0xbce8417a	-0.028351534
83	0x3e0e8a06	0.1391984
84	0x3e2b1950	0.16708875
85	0xbeba13dd	-0.3634328
86	0x3e27ab17	0.1637386
87	0x3d28c2cd	0.0412014
88	0xbb9ab9ee	-0.0047218716
89	0xbdf33a3a	-0.1187634
90	0x3d94dc5e	0.07268594
91	0x3e3c8337	0.1840943
92	0xbf008b9d	-0.5021303
93	0xbcb483ec	-0.022035562
94	0x3e93dddf	0.28880212
95	0x3ea411bb	0.32044777
96	0x3dac96fe	0.08427237
97	0xbea85918	-0.32880473
98	0x3eb7deb0	0.35912085
99	0x3f121e66	0.57077634
100	0xbde7fb48	-0.11327225
101	0x3e85d990	0.2614255
102	0x3db9b300	0.09067345
103	0x3d905a29	0.07048447
104	0x3d930309	0.07178313
105	0xbde0197c	-0.10942361
106	0x3acf6a10	0.0015824456
107	0x3d56b495	0.05241831
108	0xbf023cf3	-0.5087425
109	0x3ebf9867	0.3742096
110	0x3e927138	0.28602004
111	0xbeead189	-0.45862988
112	0x3e7910b0	0.24322772
113	0x3e25cd57	0.16191612
114	0x3e13b6de	0.14425227
115	0xbe9fb5b3	-0.31193313
116	0xbe98c7c9	-0.29839924
117	0x3c8efffd	0.01745605
118	0x3e1d57d6	0.15365538
119	0xbd81316d	-0.06308255
120	0xbe8399a4	-0.25703156
121	0x3ef01ddf	0.4689779
122	0xbe846279	-0.2585638
123	0xbcc57cbf	-0.024107335
124	0xbef0f0b9	-0.47058657
125	0x3ede944b	0.43472514
126	0x3d80f990	0.062976
127	0xbf15d0f6	-0.58521974
128	0xbeae5ae8	-0.3405373
129	0x3ed9408a	0.42432052
130	0x3c76a604	0.01505423
131	0x3edce933	0.43146667
132	0x3e1f8d22	0.15581182
133	0xbe8654f3	-0.26236686
134	0xbdaa9e14	-0.08330932
135	0x3eb06b92	0.3445707
136	0x3e8b349f	0.27188584
137	0xbd1df0c8	-0.038559705
138	0x3e6a542c	0.22883672
139	0x3e8e3a77	0.2777898
140	0xbe98a992	-0.29816872
141	0xbe390613	-0.18068723
142	0x3e10d926	0.14145336
143	0x3c06c94a	0.008226702
144	0x3e27589d	0.16342397
145	0xbd8c1b30	-0.06841123
146	0xbdf71f40	-0.12066507
147	0xbb8976be	-0.0041950634
148	0xbe996e78	-0.29967093
149	0x3e933477	0.28750965
150	0x3e99c12e	0.30030197
151	0xbe467e6e	-0.19384167
152	0xbe838d24	-0.2569362
153	0xbee64601	-0.44975284
154	0xbe27a928	-0.16373122
155	0xbe8b1e06	-0.27171344
156	0x3ec8863e	0.3916492
157	0x3ea6c11c	0.32569206
158	0xbec95c8f	-0.3932843
159	0x3ded5bcd	0.11589775
160	0xbd380321	-0.04492486
161	0xbe8cb849	-0.27484348
162	0xbd8f39f6	-0.06993477
163	0x3e671cdf	0.22569607
164	0x3e059e7d	0.1304874
165	0xbec9915d	-0.39368716
166	0x3ecf3bb8	0.4047525
167	0xbec0cd7d	-0.37656775
168	0x3e49b8e1	0.19699432
169	0xbe052361	-0.13001777
170	0xbe9315d3	-0.28727588
171	0xbe93c66e	-0.28862327
172	0x3ea52a6f	0.32258937
173	0x3d3554f7	0.044270482
174	0xbefd3524	-0.49454606
175	0x3ef322d2	0.47487503
176	0xbdb86f37	-0.090055875
177	0x3ded8666	0.115979
178	0xbdd5d5e8	-0.1044119
179	0x3da76806	0.08174138
180	0x3e906426	0.28201407
181	0xbe4e9f76	-0.20178017
182	0xbee4a263	-0.4465514
183	0xbe7d68a1	-0.24746944
184	0x3d2cb36f	0.04216331
185	0xbf0d38f5	-0.55165035
186	0xbee2901c	-0.44250572
187	0x3ea11a74	0.31465495
188	0x3e89e004	0.26928723
189	0x3e995b41	0.29952434
190	0xbe9dc759	-0.30816153
191	0xbeb0c6d2	-0.34526688

base_pointnet.conv_1_a.bias f4 [64]
0	0xbef4afe5	-0.47790447
1	0x3da8f42a	0.082496956
2	0xbe3f731e	-0.18696257
3	0xbe207213	-0.15668516
4	0x3f017d70	0.5058203
5	0x3eea5938	0.45771194
6	0x3e66164f	0.22469448
7	0x3ed799b6	0.4210946
8	0x3dce0049	0.10058648
9	0xbedc0490	-0.4297223
10	0xbec9ca14	-0.39411986
11	0x3e7263b3	0.23670845
12	0xbebf0232	-0.37306362
13	0x3de63d1e	0.11242126
14	0xbe2f5fe0	-0.17126417
15	0x3e5c8fe8	0.21539271
16	0x3e9ee6d7	0.31035492
17	0x3ebbbf94	0.366696
18	0x3d919451	0.07108367
19	0x3efe7baa	0.49703723
20	0x3e0667b4	0.13125497
21	0x3e62d467	0.22151338
22	0x3e08282f	0.13296579
23	0xbe93a3c0	-0.2883587
24	0x3e3a6e86	0.18206224
25	0xbe7a1acd	-0.24424286
26	0x3d9ba6b3	0.07600155
27	0xbc2f5b57	-0.010702929
28	0xbe2db326	-0.16962871
29	0x3f07c22a	0.53030646
30	0xbd0f0b89	-0.03492311
31	0x3db8a4cc	0.090158075
32	0x3ecb5888	0.3971598
33	0x3eaef254	0.34169257
34	0xbecf7d4d	-0.40525284
35	0xbef40d74	-0.47666514
36	0xbd2da355	-0.042392094
37	0x3e7d793e	0.24753281
38	0xbe87dffe	-0.2653808
39	0xbec3bf2d	-0.38231793
40	0xbeb5df0d	-0.35521737
41	0xbc4126a2	-0.011788996
42	0xbebec979	-0.37263086
43	0x3cc216dd	0.023692543
44	0x3ea67ecb	0.3251861
45	0x3e107e68	0.1411072
46	0xbeb72360	-0.35769176
47	0x3ed0c843	0.40777788
48	0xbee9ee82	-0.4568978
49	0xbf00f747	-0.50377315
50	0xbdbdbad6	-0.09264152
51	0xbe6b320e	-0.22968313
52	0xbe72748c	-0.23677272
53	0xbf08642e	-0.5327786
54	0xbeedd8c2	-0.46454436
55	0x3ef026bd	0.46904555
56	0xbefe577e	-0.49676126
57	0xbefd10c3	-0.4942685
58	0x3d7d5302	0.06184674
59	0xbe3e3364	-0.18574291
60	0x3e3ad038	0.18243492
61	0x3d95839d	0.07300494
62	0xbe96b6ac	-0.29436243
63	0xbec03bc8	-0.3754561

base_pointnet.conv_1_b.weight f4 [64, 1, 3]
0	0xbf018e1d	-0.5060747
1	0xbef9f1a2	-0.48817164
2	0xbcd76bf3	-0.026296591
3	0xbdea2966	-0.114336774
4	0x3eb16422	0.34646708
5	0xbd893db0	-0.06701219
6	0x3e103776	0.14083657
7	0x3eb6b0e6	0.35681838
8	0xbe534931	-0.20633389
9	0xbf70f455	-0.9412282
10	0x3e863494	0.2621199
11	0xbea4f213	-0.32215938
12	0x3eced2c2	0.4039517
13	0xbf21b12a	-0.63160956
14	0xbf611755	-0.87926227
15	0x3ebfb455	0.3744227
16	0x3ec0cfb3	0.37658462
17	0xbf2a30e1	-0.66480833
18	0x3f223ce7	0.6337418
19	0x3ef9fcd4	0.48825705
20	0xbf20e607	-0.62850994
21	0x3a7fc72b	0.00097571564
22	0xbf2ef0d4	-0.68336225
23	0x3f504f85	0.8137134
24	0x3f262539	0.6490055
25	0x3e61ceba	0.22051516
26	0xbeefaa6f	-0.46809718
27	0xbe4fbba0	-0.20286417
28	0xbf798132	-0.9746276
29	0xbe58d4ad	-0.2117488
30	0xbec8eb95	-0.39242235
31	0x3f15657f	0.58357996
32	0x3e8d14a4	0.2755481
33	0xbe912b68	-0.2835343
34	0xbec8facd	-0.39253846
35	0xbf70c04d	-0.9404343
36	0x3e31d50a	0.17366424
37	0x3f6071a3	0.87673396
38	0x3e3da4e0	0.18519926
39	0xbe165246	-0.14679822
40	0x3f56163d	0.8362768
41	0x3e845450	0.25845575
42	0x3d7f226e	0.062288694
43	0x3e2ff31d	0.17182584
44	0xbf13c3d8	-0.5772071
45	0xbf2c133f	-0.6721687
46	0xbe931a4b	-0.28730997
47	0x3f25a1e3	0.64700145
48	0x3e9ad9f6	0.30244416
49	0xbf3c80e2	-0.7363416
50	0x3ebf92ab	0.37416586
51	0x3f4a320d	0.7898262
52	0x3ee7a748	0.45244813
53	0xbe532f1b	-0.20623438
54	0x3f80329b	1.0015444
55	0x3efed04f	0.49768302
56	0x3dfe8166	0.124270245
57	0xbf7518f8	-0.95741224
58	0x3e54f651	0.20797087
59	0x3f3bfc56	0.7343191
60	0x3f0062b9	0.5015064
61	0x3f7583fa	0.95904505
62	0x3deaee69	0.114712544
63	0xbf7aec02	-0.9801637
64	0xbebcb79c	-0.36858833
65	0x3f645814	0.89196897
66	0xbebbdaf8	-0.36690497
67	0xbe283894	-0.16427833
68	0xbed1f703	-0.41008767
69	0x3f8021a9	1.0010272
70	0xbf19fbbb	-0.60149735
71	0xbead1905	-0.3380815
72	0x3f243179	0.6413799
73	0x3b830caa	0.0039993124
74	0x3f259b59	0.64690167
75	0x3eae44cc	0.34036863
76	0x3b4f6c9a	0.0031650425
77	0x3ef52e58	0.4788692
78	0xbd331020	-0.04371655
79	0xbe6ade3a	-0.22936335
80	0xbe901871	-0.28143647
81	0x3f5d331c	0.8640611
82	0xbf668e54	-0.90060925
83	0xbf167442	-0.58771145
84	0xbf8294d3	-1.0201668
85	0xbf41c62b	-0.75693005
86	0xbee692dc	-0.4503392
87	0x3e214a33	0.15750961
88	0xbf4de4e0	-0.8042736
89	0x3f60808b	0.8769614
90	0x3d124233	0.035707664
91	0x3f232004	0.63720727
92	0x3f758162	0.9590055
93	0xbf40b896	-0.75281656
94	0x3eafb91f	0.34320924
95	0xbef7d9dc	-0.484084
96	0x3ee726bf	0.45146748
97	0xbd56095d	-0.052255023
98	0xbfa91f5f	-1.3212699
99	0xbe99beef	-0.30028483
100	0x3f2f90b0	0.6858015
101	0xbf90829f	-1.1289862
102	0x3eef11cb	0.46693262
103	0xbf103762	-0.5633451
104	0x3f8c8b12	1.0979941
105	0x3f15d935	0.58534557
106	0xbf02681c	-0.5094011
107	0x3f0c600f	0.54834074
108	0xbf0e5892	-0.556039
109	0xbe53ca1d	-0.20682569
110	0x3f17423d	0.59085447
111	0x3e6d54bf	0.2317686
112	0xbe54b075	-0.20770438
113	0x3f47ead2	0.7809268
114	0xbdb709f2	-0.08937444
115	0x3f2f6a8e	0.68521965
116	0x3f1249b4	0.5714371
117	0x3eb45e0c	0.35228002
118	0x3f3248d6	0.6964239
119	0x3ef72c22	0.48275858
120	0xbe972a12	-0.29524285
121	0x3f4672db	0.77519006
122	0xbec19106	-0.37805957
123	0x3cb6e3aa	0.022325356
124	0xbe0fdba8	-0.14048636
125	0xbf26e14d	-0.6518753
126	0x3ec6e6bf	0.3884792
127	0xbe1518b4	-0.14560205
128	0x3e256a7c	0.16153902
129	0x3f733ce5	0.9501479
130	0x3f61fbd5	0.8827489
131	0xbf11f62f	-0.5701627
132	0x3e5de9a7	0.21671163
133	0xbf1f8dad	-0.62325555
134	0xbec53bc7	-0.3852217
135	0x3d4a68b4	0.04941626
136	0xbef18781	-0.47173694
137	0x3efecfb8	0.49767852
138	0x3ee87fff	0.45410153
139	0x3f6b16ff	0.91831964
140	0x3eb31a5b	0.34981045
141	0xbf8bb66f	-1.0915049
142	0x3e61ae5c	0.22039169
143	0xbf13e638	-0.5777316
144	0x3f2bd200	0.6711731
145	0x3ed7ced0	0.42149973
146	0x3f609d9e	0.87740505
147	0xbe96a02e	-0.29419082
148	0x3f28432d	0.657275
149	0x3f05d08c	0.5227134
150	0x3f3b48a1	0.731577
151	0xbc24d312	-0.010060089
152	0xbe977e53	-0.29588565
153	0xbe81943b	-0.25308403
154	0x3f213707	0.6297459
155	0xbe18484c	-0.14871329
156	0xbfd269cb	-1.6438535
157	0x3ee5b772	0.4486652
158	0xbf81e610	-1.0148335
159	0x3f87ea02	1.0618289
160	0x3f3e7b31	0.74406725
161	0xbe4de3dd	-0.20106454
162	0x3edaed50	0.4275918
163	0x3ebc9079	0.36828974
164	0x3f5a7839	0.85339695
165	0xbe1fb276	-0.15595421
166	0xbf39c848	-0.7257123
167	0xbebc5586	-0.36784
168	0x3ec62eeb	0.3870767
169	0xbf911886	-1.1335609
170	0xbf8af5ce	-1.0856264
171	0x3ef8d28d	0.48598137
172	0x3f4b11de	0.7932414
173	0xbe938a4f	-0.2881646
174	0x3ef3a6c2	0.47588164
175	0xbd29a80d	-0.04142003
176	0xbe8f5596	-0.27994984
177	0xbf381834	-0.7191193
178	0xbf48c92b	-0.7843196
179	0xbf30a920	-0.69008064
180	0x3ec67dc8	0.38767838
181	0xbdde1ea9	-0.10845692
182	0x3f871b46	1.0555198
183	0xbf3ba066	-0.73291624
184	0xbdeaeb9e	-0.11470722
185	0x3f0fdbd4	0.56194806
186	0xbef585ca	-0.47953635
187	0xbf323ef9	-0.6962734
188	0x3f160799	0.58605343
189	0xbf8ec35f	-1.1153373
190	0x3e96f752	0.29485565
191	0x3f4e9460	0.8069515

base_pointnet.conv_1_b.bias f4 [64]
0	0xbe9be6e1	-0.30449584
1	0x3d64d065	0.055862803
2	0x3de2e1d2	0.11078228
3	0x3cbda250	0.023148686
4	0xbe4e7fe4	-0.20165974
5	0xbe6f0d0e	-0.23344824
6	0xbd2406f0	-0.04004568
7	0x3dbde3c6	0.0927196
8	0x3e485742	0.19564536
9	0x3e554c0a	0.20829788
10	0xbf0a49f5	-0.540191
11	0xbd89a6a3	-0.067212366
12	0xbebbccb3	-0.3667961
13	0x3d8b68f7	0.0680713
14	0x3ef41a00	0.47676086
15	0x3e9a0bc0	0.3008709
16	0x3ef8de9d	0.4860734
17	0x3e439c54	0.19102603
18	0xbe489a51	-0.19590117
19	0x3e966cdc	0.29379928
20	0xbe13478d	-0.14382763
21	0x3ebdac35	0.37045446
22	0x3e934bb6	0.287687
23	0xbe8d2b3c	-0.27572048
24	0xbf12f1ee	-0.57400405
25	0x3e58e0c0	0.21179485
26	0x3ea10e1a	0.3145607
27	0x3d4fd099	0.050736044
28	0xbdfc6e58	-0.12325734
29	0xbf006670	-0.5015631
30	0x3e8d2341	0.2756596
31	0xbefaba31	-0.48970178
32	0xbea81a64	-0.32832634
33	0xbe80b46b	-0.25137648
34	0x3e0edf40	0.1395235
35	0x3e896f7c	0.26842868
36	0xbe54ed87	-0.20793734
37	0xbf0a79b2	-0.5409194
38	0x3e322f26	0.17400798
39	0xbeeb5d0d	-0.4596943
40	0x3f0ceed3	0.55051917
41	0x3cbe0d98	0.023199841
42	0x3d004823	0.031318795
43	0x3e4128c0	0.18863201
44	0x3ea120c3	0.31470308
45	0x3f119ca8	0.56879663
46	0xbca747ea	-0.020420033
47	0x3eaf3d19	0.342263
48	0xbe635893	-0.22201757
49	0x3e3a0cdf	0.18168972
50	0x3f1214d2	0.5706302
51	0x3e0de198	0.13855588
52	0x3d0c3064	0.034225836
53	0x3d97c1b7	0.07409995
54	0x3da1aef8	0.07894701
55	0xbe1ced37	-0.15324865
56	0xbe69591a	-0.22787896
57	0xbf1003ee	-0.56255996
58	0xbe7c4534	-0.24635774
59	0xbe6d6d3a	-0.23186198
60	0x3e8a213e	0.26978487
61	0xbee1df04	-0.4411546
62	0xbda59e14	-0.08086792
63	0xbe872768	-0.26397252

base_pointnet.conv_2.weight f4 [64, 64, 3]
0	0x3d0cedc2	0.03440643
1	0x3d057490	0.032581866
2	0xbe344d61	-0.17607643
3	0x3de9847b	0.11402222
4	0xbd59a465	-0.053135294
5	0x3b8a36de	0.0042179665
6	0xbd2c608e	-0.04208427
7	0x3daeac27	0.08528929
8	0xbdbc8aa7	-0.09206133
9	0xbd06c867	-0.032905962
10	0xbd85b230	-0.06528127
11	0x3d82d08a	0.06387432
12	0xbda6d58f	-0.08146202
13	0x3de7f1bc	0.11325404
14	0xbd6925d2	-0.056920834
15	0x3ca9ea59	0.020741628
16	0x3e2fe60e	0.17177603
17	0x3eac0d9b	0.3360413
18	0xbd86b747	-0.06577926
19	0x3d9940a7	0.074830346
20	0x3da5eca4	0.08101776
21	0x3e57a344	0.21058375
22	0x3e5dc67b	0.21657746
23	0x3c103089	0.008800634
24	0x3d2f5be4	0.042812243
25	0x3c6abd50	0.014327362
26	0x3e04ee8b	0.12981622
27	0xbcca7e1b	-0.024718335
28	0xbdce9d93	-0.10088649
29	0xbe1f0a74	-0.15531331
30	0x3d9bac52	0.07601227
31	0x3d6059fd	0.05477332
32	0x3c893dc0	0.016753078
33	0x3d95caab	0.073140465
34	0xbe0e1bf7	-0.13877855
35	0xbe154bc0	-0.14579678
36	0x3bfad1f2	0.007654422
37	0x3d1f2dba	0.038861968
38	0xbbf7237a	-0.007542071
39	0x3e1078be	0.1410856
40	0x3c320d8d	0.010867489
41	0xbd9a3cc4	-0.075311214
42	0x3dbc99b4	0.09209004
43	0xbc066e3f	-0.008204996
44	0xbafe5095	-0.0019402677
45	0x3c5752eb	0.013142328
46	0xbaace6e3	-0.0013191368
47	0xbd2f09f2	-0.042734094
48	0xbd549b72	-0.051906057
49	0xbc04c146	-0.008102721
50	0x3df30eb9	0.118680425
51	0x3e4e3b0a	0.20139709
52	0x3cfc523b	0.03080093
53	0x3e3883d7	0.18019043
54	0xbd105cd1	-0.035244767
55	0x3d9621e0	0.0733068
56	0xbd55b026	-0.05216994
57	0xbcff362e	-0.031153765
58	0xbe6a0911	-0.22855021
59	0xbe87e9b0	-0.26545477
60	0x3d6f27a1	0.058387402
61	0xbd29c6ad	-0.041449238
62	0xbe114976	-0.1418818
63	0xbc7d62bf	-0.015465437
64	0x3c1ea7ba	0.009683544
65	0x3d94d93f	0.07267999
66	0x3d16e9b6	0.036843978
67	0xbc830bf7	-0.015996916
68	0xbd12418e	-0.03570705
69	0x3bef4024	0.0073013473
70	0x3c989120	0.018623888
71	0x3da4168e	0.080121145
72	0xbcf0ac2f	-0.029378979
73	0x3cb163d9	0.021654056
74	0x3c1678a3	0.0091840355
75	0x3d8077b6	0.06272833
76	0x3d880329	0.06641228
77	0x3d360c1d	0.044445146
78	0x3d0e2d89	0.034711394
79	0xbd787483	-0.06065799
80	0x3d74e61a	0.059789754
81	0xbd066999	-0.03281555
82	0xbdc59da8	-0.09649211
83	0xbde5e11e	-0.11224578
84	0xbc4f9572	-0.012669908
85	0x3d98bab4	0.07457486
86	0x3e787995	0.2426513
87	0x3d28c4cf	0.041203316
88	0xbe13e4ae	-0.14442703
89	0xbdb0d13f	-0.086336605
90	0x3e451a45	0.19248302
91	0x3e239d2c	0.15977925
92	0x3dc50fd7	0.09622162
93	0xbd27aefc	-0.040938362
94	0xbcd34ac6	-0.02579249
95	0xbca28545	-0.019838938
96	0x3d3d669a	0.046240427
97	0xbd81d15a	-0.06338759
98	0x3c63a076	0.013893237
99	0x3e80762d	0.2509016
100	0x3c87c61c	0.016573958
101	0xbd59beb4	-0.053160384
102	0x3d27216a	0.04080335
103	0xbb3017d1	-0.0026869664
104	0xbc755413	-0.014973658
105	0xb9b8349a	-0.00035134406
106	0x3ca8023a	0.020508874
107	0xbda76be0	-0.081748724
108	0xbd4ef72a	-0.050528683
109	0xbe2777af	-0.1635425
110	0xbe4e2147	-0.20129882
111	0x3d89ca58	0.06728047
112	0xbe448b44	-0.1919375
113	0xbe38d954	-0.18051654
114	0x3d5bc572	0.053655095
115	0xbd141cef	-0.036160406
116	0xbd0cfc67	-0.034420397
117	0xbe44ba3a	-0.19211665
118	0xbd37d90c	-0.044884726
119	0xbd7ad98c	-0.061242625
120	0x3de6f268	0.11276704
121	0xbe553361	-0.20820381
122	0xbd43abee	-0.047771387
123	0xbe5e27fe	-0.21694943
124	0xbc361ad5	-0.011114796
125	0xbaf2637d	-0.0018492785
126	0xbc67cb14	-0.014147539
127	0x3c858751	0.016299875
128	0x3d8e0279	0.06934065
129	0x3dd1e1fb	0.102481805
130	0xbd142b75	-0.036174256
131	0xbb10ba29	-0.0022083616
132	0x3d9ba36b	0.07599529
133	0x3c101ab2	0.008795427
134	0x3d7cad63	0.061688792
135	0xbd66ccc3	-0.05634762
136	0xbcaf82a2	-0.021424595
137	0xbd2fd5be	-0.04292845
138	0xbe15214a	-0.1456348
139	0xbdf8f989	-0.1215697
140	0xbba52224	-0.0050394703
141	0x3c3ec3ba	0.011643345
142	0x3dbaca96	0.091206715
143	0x3e6cf2fe	0.23139569
144	0xbd5de821	-0.054176454
145	0x3e0db16f	0.13837217
146	0xbe225e52	-0.15856293
147	0xbd318080	-0.043335438
148	0xbd2d7fbe	-0.042358153
149	0xbd64ae48	-0.05583027
150	0xbc641fc2	-0.013923587
151	0xbdf167ed	-0.117874004
152	0xbe59a50c	-0.21254367
153	0x3d9461a9	0.0724519
154	0x3c1a2c54	0.009409983
155	0xbd596ee3	-0.053084265
156	0x3dc4ac26	0.09603147
157	0x3bb2e506	0.0054594306
158	0x3df20534	0.11817399
159	0xbdbf95a4	-0.093547136
160	0xbc8b692f	-0.017017929
161	0xbc35a8ac	-0.011087578
162	0x3caa7305	0.020806799
163	0x3d8414e6	0.064492986
164	0xba8971a5	-0.0010486139
165	0x3b964ef5	0.004587049
166	0xbdcc7218	-0.09982699
167	0x3b03c6a4	0.0020107413
168	0x3d2de328	0.04245296
169	0x3dbd716c	0.09250149
170	0x3db058c6	0.08610682
171	0xbd8ef5ce	-0.06980477
172	0x3b43afc2	0.0029859398
173	0x3d16165b	0.036642414
174	0x3d853efa	0.065061525
175	0x3c3d999a	0.011572266
176	0xbd1e7bfa	-0.038692452
177	0xbd721605	-0.05910303
178	0x3e072a01	0.13199617
179	0x3e426400	0.1898346
180	0x3b13b3f3	0.0022537678
181	0xbd8c1e8f	-0.06841766
182	0x3d0f76ec	0.035025522
183	0x3d971391	0.07376779
184	0xbd1445e5	-0.03619947
185	0xbb4f6804	-0.0031647692
186	0x3dcf6139	0.101259656
187	0xbc2daefe	-0.010600803
188	0xbea9ed6d	-0.33188954
189	0xbdacbee6	-0.084348485
190	0xbd8686c9	-0.06568677
191	0x3e0b00c2	0.13574508
192	0x3d5f0a5a	0.05445323
193	0xbdb5c9df	-0.088763945
194	0x3c8c6fcd	0.017143155
195	0xbd898b78	-0.06716055
196	0x3ba862d8	0.005138736
197	0x3d8749d9	0.06605882
198	0x3d5f5c9f	0.05453169
199	0x3e311b21	0.17295505
200	0xba298ae0	-0.00064675324
201	0xbddaaa32	-0.106769934
202	0xbb8a2094	-0.0042153094
203	0x3c5701a5	0.013122951
204	0xbd951813	-0.072799824
205	0x3b04709b	0.002020872
206	0xbde2eb8d	-0.11080084
207	0xbc7602ca	-0.015015313
208	0x3cbf5de4	0.0233602
209	0xbe10ea31	-0.14151837
210	0x3d10ac23	0.035320412
211	0x3c18cace	0.009325696
212	0xbcfd5438	-0.030923948
213	0xbce1b833	-0.027553653
214	0xbe905918	-0.28192973
215	0xbd996808	-0.074905455
216	0xbda0712d	-0.078340866
217	0xbd43d8d7	-0.047814216
218	0xbc7996b8	-0.015233688
219	0x3d3f4d89	0.046704803
220	0xbc1606f3	-0.00915693
221	0x3d357fc6	0.044311307
222	0xbda65f3a	-0.08123632
223	0x3d8a9eda	0.0676858
224	0xbc630ae3	-0.013857576
225	0xb9322659	-0.00016989688
226	0x3cd8571b	0.026408723
227	0x3d45b64e	0.048269562
228	0xbe44afa7	-0.19207631
229	0x3bc6b186	0.006063643
230	0x3d34312b	0.043992203
231	0xbe5d7943	-0.21628289
232	0x3e1d16c4	0.15340716
233	0x3dd4df3d	0.10394142
234	0x3d5071cc	0.050889775
235	0x3c3a7040	0.011379302
236	0xbc3abbf5	-0.0113973515
237	0xbd3d87e1	-0.046272162
238	0x3ddbed9a	0.10738678
239	0x3d6e6f14	0.0582114
240	0x3d112a86	0.035440944
241	0xbca4b2b7	-0.02010475
242	0xbdbc7d70	-0.09203613
243	0x3d151bc4	0.036403432
244	0x3c7b9355	0.015354951
245	0xbaceaf92	-0.0015768877
246	0x3d968979	0.073504396
247	0x3dccd753	0.10002007
248	0x3d640545	0.055669088
249	0xbdb06b7c	-0.08614251
250	0x3cb0215c	0.021500282
251	0x3d6ecfe5	0.058303732
252	0x3d6495de	0.055806987
253	0xbef5ccfb	-0.4800795
254	0x3e6a1617	0.22859989
255	0x3c5c7f9a	0.013458157

base_pointnet.conv_2.bias f4 [64]
0	0xbcdb1900	-0.02674532
1	0xbd333984	-0.043756023
2	0xbb2bbd27	-0.0026205273
3	0x3c01f38c	0.007931601
4	0x3cdbd2b2	0.026833866
5	0xbd844f31	-0.06460417
6	0xbc192140	-0.009346306
7	0xbd5a14d4	-0.05324252
8	0xbda8db27	-0.08244925
9	0xbda1678f	-0.0788108
10	0x3d457761	0.04820955
11	0xbc93fb6d	-0.018064225
12	0xbd8eb628	-0.06968337
13	0xbda3425b	-0.07971641
14	0x3c3e3a07	0.0116105145
15	0x3c332ff7	0.010936729
16	0x3dbb950b	0.09159287
17	0xbe071f9f	-0.13195656
18	0x3cb1f929	0.021725254
19	0x3d8059b0	0.062671065
20	0xbd0baea4	-0.034102097
21	0xbc0a82df	-0.008454054
22	0x3b3b3a15	0.0028568555
23	0x3d67c864	0.05658759
24	0xbdc60c66	-0.096703336
25	0xbdac53a4	-0.08414391
26	0x3d6cce00	0.057813644
27	0xbbb49b72	-0.0055116946
28	0xbd667759	-0.056266163
29	0x3d8040db	0.0626237
30	0xbd2c5694	-0.042074755
31	0xbd7de234	-0.061983302
32	0x3b9a2149	0.004703675
33	0x3dd0fd2e	0.1020454
34	0x3c8b509e	0.017006215
35	0x3d9c09a7	0.076190285
36	0x3d903ec9	0.07043225
37	0x3d835de3	0.06414392
38	0xbd84ea88	-0.06490046
39	0x3d378946	0.04480865
40	0x3c0c0233	0.008545446
41	0xbd444bdd	-0.04792391
42	0xbd8316a1	-0.064008005
43	0xbd5d998b	-0.054101508
44	0x3d130d7b	0.035901528
45	0x3d43ad26	0.04777255
46	0x3d5158eb	0.05111019
47	0x3d1b174e	0.037864022
48	0xbe117891	-0.14206149
49	0x3cb470a4	0.022026367
50	0x3d3e2346	0.046420358
51	0x3dbfbd8b	0.09362324
52	0x3dc4bccb	0.09606322
53	0x3d3c2b49	0.045939717
54	0xbd4780e9	-0.048706923
55	0xbd0f1271	-0.034929696
56	0xbd98743b	-0.07444044
57	0xbd455c17	-0.048183527
58	0x3ccbbee1	0.024871292
59	0x3d17c364	0.037051573
60	0xbd93ba5e	-0.07213281
61	0x3ca921f6	0.020646077
62	0x3deabe4c	0.114620775
63	0xbd651b5e	-0.055934303

base_pointnet.bn_1.weight f4 [64]
0	0x3f8f9d6b	1.1219915
1	0x3f93a6e9	1.1535312
2	0x3f5e5dcd	0.8686188
3	0x3f3ee11f	0.7456226
4	0x3f909c8b	1.1297773
5	0x3f8d3085	1.1030432
6	0x3f0e647a	0.55622065
7	0x3f91be50	1.1386204
8	0x3f80201f	1.0009803
9	0x3f811298	1.0083799
10	0x3f25a21a	0.6470047
11	0x3f53bfd7	0.827146
12	0x3f99c9b7	1.2014683
13	0x3fa0af01	1.2553407
14	0x3f5fa2ba	0.87357676
15	0x3f652c24	0.8952048
16	0x3f289068	0.65845346
17	0x3f7dc7c0	0.9913292
18	0x3f23a842	0.63928616
19	0x3fa63562	1.2985041
20	0x3f908245	1.1289755
21	0x3f2bd23e	0.6711768
22	0x3f178141	0.591816
23	0x3f6926cb	0.9107482
24	0x3f3adf95	0.7299741
25	0x3f37d7cd	0.7181366
26	0x3f19e32b	0.60112256
27	0x3f36e851	0.71448237
28	0x3f8c5838	1.0964422
29	0x3f810d54	1.0082192
30	0x3f89b2e8	1.0757723
31	0x3f3a0b47	0.7267346
32	0x3fbf11d4	1.4927316
33	0x3f3f3c94	0.7470181
34	0x3f390148	0.7226758
35	0x3fa2bd0d	1.2713944
36	0x3f5165be	0.8179587
37	0x3fca6d8c	1.5814681
38	0x3f474422	0.7783834
39	0x3f6871fc	0.90798926
40	0x3f794459	0.97369915
41	0x3fa7e449	1.3116542
42	0x3f2960cf	0.66163343
43	0x3f293fa6	0.66112745
44	0x3f4a23ca	0.7896086
45	0x3f0e98f5	0.55702144
46	0x3f49e052	0.7885791
47	0x3f90bb6d	1.1307198
48	0x3f8695b5	1.0514437
49	0x3fc1aad9	1.5130264
50	0x3f578e19	0.842012
51	0x3f06e8c3	0.52698916
52	0x3f719f3a	0.94383585
53	0x3f796e97	0.9743437
54	0x3f56a93f	0.83852
55	0x3f689f95	0.908685
56	0x3f6fc373	0.93657607
57	0x3f6b524e	0.9192246
58	0x3f90ad76	1.1302936
59	0x3fb0722e	1.3784845
60	0x3f285dc9	0.65768105
61	0x3f507de9	0.81442124
62	0x3f668754	0.90050244
63	0x3f6a0b9b	0.9142396

base_pointnet.bn_1.bias f4 [64]
0	0xbd298105	-0.04138281
1	0xbe42464f	-0.18972133
2	0xbe4cafbf	-0.19988917
3	0xbec89a83	-0.39180383
4	0x3e119209	0.14215864
5	0xbbfb480c	-0.0076685008
6	0xbdca9450	-0.098915696
7	0x3ddcd3ea	0.10782607
8	0xbd3e7514	-0.046498373
9	0xbd3a8dea	-0.045545496
10	0xbe8da330	-0.27663565
11	0x3d3a84b8	0.045536727
12	0x3d9a6425	0.07538632
13	0xbcb82bf3	-0.022481894
14	0xbd86f5c4	-0.06589845
15	0xbe6bed70	-0.23039794
16	0xbdbb64eb	-0.09150108
17	0xbe4cd57f	-0.20003317
18	0xbd719a66	-0.058985136
19	0x3c96ee11	0.018424066
20	0xbe629778	-0.22128093
21	0xbd9440cb	-0.07238921
22	0xbe749ef1	-0.23888756
23	0x3d38ca8a	0.04511503
24	0xbe5f39a4	-0.21799332
25	0xbe4a8318	-0.19776571
26	0xbea21340	-0.31655312
27	0xbe26ff1b	-0.16308253
28	0xbe5d33ff	-0.21601866
29	0xbd324522	-0.04352296
30	0xbf11b035	-0.56909496
31	0xbdb655dd	-0.08903096
32	0x3f14b033	0.5808136
33	0xbed4a351	-0.4153085
34	0xbcf82c60	-0.030294597
35	0xbbda60c4	-0.0066643674
36	0x3c02cce8	0.007983424
37	0xbe1d46e5	-0.15359075
38	0xbe82b312	-0.25527245
39	0xbe48cd58	-0.19609582
40	0xbd9d5449	-0.07682092
41	0xbe17e7ec	-0.14834565
42	0xbde8bc09	-0.1136399
43	0xbdefcfd5	-0.11709563
44	0xbdc7aaa6	-0.097493455
45	0xbdecb42f	-0.11557805
46	0xbe8b512d	-0.2721037
47	0xbecd224f	-0.40065238
48	0xbd2dff04	-0.04247953
49	0x3dd765e7	0.10517483
50	0xbf11be76	-0.56931245
51	0xbdfad60d	-0.12247858
52	0xbece61fe	-0.40309137
53	0xbeb72233	-0.3576828
54	0xbee4e844	-0.44708455
55	0xbea00c82	-0.31259543
56	0xbebad306	-0.36489123
57	0xbeb5d91d	-0.35517207
58	0xbe26290b	-0.16226594
59	0xbe642dd3	-0.22283106
60	0xbe602df5	-0.21892531
61	0xbed7d234	-0.4215256
62	0xbec13a93	-0.3774
63	0xbf0112df	-0.5041942

base_pointnet.bn_1.running_mean f4 [64]
0	0xbfae5855	-1.3620707
1	0xbf75a070	-0.95947933
2	0xc1014bb3	-8.080981
3	0xc1d3c183	-26.469488
4	0xc059a9f3	-3.4009979
5	0x4006976e	2.1029925
6	0x42093af9	34.30759
7	0x3f86e98c	1.0540023
8	0x404355e0	3.0521164
9	0x406b6cfd	3.678527
10	0xc198c501	-19.096193
11	0x411f8544	9.970036
12	0xbfa884ce	-1.3165529
13	0xbf012e72	-0.50461495
14	0xc105fa4a	-8.373606
15	0xc112c0e0	-9.172089
16	0x421f977c	39.897934
17	0x40c476da	6.1395082
18	0xc1df09f4	-27.87986
19	0x3eaca64c	0.33720624
20	0xc066f726	-3.6088347
21	0x4174e5f9	15.306146
22	0xc1fa8b0a	-31.31789
23	0xc1842780	-16.519287
24	0xc1736a09	-15.2133875
25	0x4206f81f	33.742306
26	0x41aabe64	21.342964
27	0x415360ac	13.211102
28	0xc0c2a8b1	-6.083092
29	0xc02e08c3	-2.7192848
30	0xc0c030d8	-6.0059624
31	0x41a167b7	20.175642
32	0x401b62e3	2.4279106
33	0x41c81cf7	25.014143
34	0x41248f8d	10.285047
35	0xbf81e918	-1.014926
36	0x40bc7e98	5.8904533
37	0xbe12a892	-0.14322117
38	0xc17c01a7	-15.750403
39	0x40c429bc	6.1300945
40	0xbf617ed9	-0.8808418
41	0xc076290e	-3.8462558
42	0xc201853f	-32.380123
43	0x420b620a	34.84574
44	0xc104ead1	-8.307328
45	0x41b239af	22.278166
46	0x4128de98	10.554344
47	0xc0339286	-2.805818
48	0x3feeaa2c	1.8645682
49	0x3f25ed04	0.6481478
50	0xc09a9029	-4.8300977
51	0xc201ed5d	-32.4818
52	0x40f187d0	7.5478287
53	0xc0a8ca6d	-5.27471
54	0x415a5a93	13.647113
55	0xc1728a8d	-15.158826
56	0xc14c01ae	-12.75041
57	0x408817d4	4.2529087
58	0xc04ff55b	-3.2493503
59	0xbf993a36	-1.197089
60	0xc134a651	-11.290605
61	0xc1e8bdac	-29.092613
62	0x40917277	4.5452228
63	0xc1681cf6	-14.507071

base_pointnet.bn_1.running_var f4 [64]
0	0x423717c6	45.773216
1	0x42685f3a	58.092995
2	0x42d70a78	107.52045
3	0x436dfd37	237.98912
4	0x4118aadf	9.541717
5	0x42553679	53.303196
6	0x4372e76b	242.90398
7	0x3f8531a3	1.0405773
8	0x420b263b	34.787334
9	0x41c6b65a	24.839039
10	0x42a3f65a	81.981155
11	0x4224bc15	41.183674
12	0x423b8e19	46.888767
13	0x4191f270	18.243378
14	0x427a92df	62.64343
15	0x41ac40e3	21.531683
16	0x43a50450	330.0337
17	0x4229dfc5	42.468525
18	0x4333ed9d	179.92818
19	0x417524ef	15.321517
20	0x418c36a0	17.526672
21	0x4248a1f1	50.158146
22	0x436c60ab	236.37761
23	0x428a1450	69.03967
24	0x4284d1d7	66.40984
25	0x436585cc	229.52264
26	0x42cae34e	101.443954
27	0x423d10d0	47.26642
28	0x41d5718a	26.680439
29	0x40aa6084	5.3242817
30	0x428307a2	65.51491
31	0x42d63b78	107.11615
32	0x420428cb	33.039837
33	0x431b5905	155.34773
34	0x41a91220	21.13385
35	0x409738e9	4.725697
36	0x42ad174c	86.5455
37	0x4244658a	49.09916
38	0x42a30406	81.50786
39	0x415ccd87	13.800178
40	0x420162d2	32.346504
41	0x42837fc1	65.74952
42	0x437538de	245.22214
43	0x43711709	241.08998
44	0x41cea54b	25.83071
45	0x42f0872f	120.26403
46	0x428e8f6c	71.28012
47	0x4135e3b0	11.368088
48	0x416eb08b	14.918101
49	0x41ed87db	29.691336
50	0x422e52fd	43.581043
51	0x435f3f05	223.24617
52	0x4300bd24	128.73883
53	0x41f50fb4	30.632668
54	0x422b90fb	42.891582
55	0x4294d2a5	74.411415
56	0x4263b1c1	56.923588
57	0x41cbf102	25.49268
58	0x42299784	42.397964
59	0x4119cbeb	9.612285
60	0x42b81490	92.04016
61	0x4337ddae	183.86594
62	0x4289c6b6	68.88811
63	0x42aa5473	85.16494

base_pointnet.bn_2.weight f4 [64]
0	0x3f97d6b4	1.1862397
1	0x3f861ee2	1.0478175
2	0x3f9d78b3	1.230246
3	0x3f862155	1.0478922
4	0x3f98952d	1.1920525
5	0x3f913416	1.134402
6	0x3f9e983d	1.239021
7	0x3fc2588a	1.518327
8	0x3f8d915b	1.1059984
9	0x3fa22395	1.2667109
10	0x3fae517b	1.3618616
11	0x3f8eba02	1.1150515
12	0x3f85062f	1.0392512
13	0x3f8d7a7e	1.1053007
14	0x3f9490d8	1.1606703
15	0x3f8bd6f3	1.0924972
16	0x3f929241	1.1450883
17	0x3fa82fb4	1.3139558
18	0x3f95c598	1.1700926
19	0x3f897c53	1.0741066
20	0x3f832031	1.0244199
21	0x3f99d99b	1.2019533
22	0x3f8b9b46	1.0906761
23	0x3fa2307e	1.2671049
24	0x3f9bb086	1.2163246
25	0x3f8536d8	1.0407362
26	0x3f81afa9	1.0131732
27	0x3f87f4ca	1.0621579
28	0x3f8a1ec1	1.0790635
29	0x3f91fba1	1.1404916
30	0x3f881ad7	1.0633191
31	0x3f907a49	1.1287318
32	0x3fb76a0f	1.4329242
33	0x3f9c51cc	1.2212462
34	0x3f86a8d3	1.0520271
35	0x3fb60c17	1.422244
36	0x3f913577	1.1344441
37	0x3fb89401	1.4420167
38	0x3f8b034c	1.0860381
39	0x3fa77691	1.3083059
40	0x3fb26bbf	1.3939131
41	0x3f8c8a7e	1.0979764
42	0x3fac0f94	1.3442254
43	0x3f8d3d2a	1.1034291
44	0x3f8d1598	1.1022215
45	0x3f8f162c	1.1178641
46	0x3f8e640b	1.1124281
47	0x3f9f125a	1.2427475
48	0x3fb0b787	1.3806008
49	0x3f9e1bfd	1.2352291
50	0x3f965080	1.1743317
51	0x3f9466dc	1.159389
52	0x3fa73f64	1.306622
53	0x3f8c332e	1.0953119
54	0x3fbcf361	1.4761773
55	0x3f907c90	1.1288013
56	0x3fa1385e	1.2595327
57	0x3f89ece9	1.0775424
58	0x3f8ce5c7	1.1007622
59	0x3fa26081	1.2685701
60	0x3f8eae22	1.1146891
61	0x3f9d0a41	1.2268754
62	0x3f85b1b2	1.0444853
63	0x3f8c54b8	1.0963354

base_pointnet.bn_2.bias f4 [64]
0	0xbe1db99b	-0.15402834
1	0xbcc661e2	-0.024216596
2	0xbddd2c11	-0.107994206
3	0x3c4a4617	0.012345812
4	0x3c89a128	0.016800478
5	0x3c457b72	0.012053357
6	0xbda01106	-0.07815747
7	0xbdc52181	-0.09625531
8	0xbcd044df	-0.025423465
9	0x3c121ffc	0.0089187585
10	0xbd0b9a52	-0.03408272
11	0xbc5fdd2a	-0.013663569
12	0x3c41fc1f	0.0118398955
13	0xbd4f40dc	-0.050598964
14	0xbd3378ff	-0.043816563
15	0x3caa567d	0.020793194
16	0x3cc990de	0.02460521
17	0xbdb17226	-0.0866435
18	0x3c8a48e4	0.01688046
19	0xbcaa244c	-0.02076926
20	0xbdf6e7e2	-0.12055947
21	0x3cdc27e4	0.02687449
22	0xbda8bf2f	-0.082395904
23	0x3c80d6b6	0.015727382
24	0xbdbf4d4c	-0.09340915
25	0xbd393842	-0.045219667
26	0x3c307bad	0.010771674
27	0xbdd05897	-0.10173147
28	0xbc8d70af	-0.017265646
29	0x3c0cb9bc	0.008589204
30	0xbd3b0bd6	-0.045665585
31	0xbdc84013	-0.09777846
32	0xbda2fe6e	-0.07958685
33	0xbdc9d53d	-0.09855125
34	0xbe6758c4	-0.22592455
35	0xbd7dd89e	-0.06197416
36	0x3d30970c	0.0431128
37	0xbd4c8f59	-0.049941394
38	0x3ccff0f5	0.025383452
39	0x3ca5c95b	0.020237615
40	0xbe4d9c71	-0.20079209
41	0x3d89f0f6	0.06735413
42	0xbdc8d9ab	-0.09807142
43	0x3d29a2f9	0.04141519
44	0x3c77b8a3	0.015119704
45	0xbc953890	-0.018215448
46	0xbd6a4eb9	-0.057203982
47	0x3b151520	0.0022748187
48	0xbd2fcd55	-0.04292043
49	0xbe3b1aff	-0.18272017
50	0x3c299d93	0.01035251
51	0x3a12487f	0.0005580261
52	0x3ced3d7d	0.028959984
53	0xbc3d200b	-0.011543284
54	0xbd9e422c	-0.07727465
55	0xbdc6ba41	-0.09703494
56	0xbc38bd53	-0.011275607
57	0xbe2ea2e1	-0.17054321
58	0x3d902122	0.070375696
59	0xbe1c7ee0	-0.15282774
60	0xbd3d9de0	-0.04629314
61	0x3c47072b	0.012147705
62	0xbb29417b	-0.0025826383
63	0xbdc9ad5a	-0.09847517

base_pointnet.bn_2.running_mean f4 [64]
0	0xbd9c8b34	-0.076437384
1	0xbea1b372	-0.31582218
2	0x3d8c1011	0.06839002
3	0xbf7f2ec0	-0.9968071
4	0xbe849291	-0.2589307
5	0x3da2b89d	0.079453684
6	0xbdfcaadc	-0.12337276
7	0xbeb5f93c	-0.35541713
8	0x3e7d0195	0.24707635
9	0xbfa6612e	-1.2998407
10	0x3f34a9ca	0.7057158
11	0xbf4d5600	-0.8020935
12	0x3f26cb11	0.65153605
13	0xbd8694b7	-0.06571334
14	0x3e33ca90	0.1755774
15	0x3ebb45a6	0.36576575
16	0xbf729162	-0.94753087
17	0xbd9f2b61	-0.07771946
18	0xbf0eb80f	-0.557496
19	0x3e666be2	0.22502092
20	0x3fb1e12a	1.389684
21	0xbe2f67ac	-0.17129391
22	0xbe1ef9e7	-0.15525018
23	0xbedc15c8	-0.42985368
24	0xbebdfe85	-0.37108245
25	0x3e163ec4	0.1467238
26	0x3ede8622	0.4346171
27	0x3e86b706	0.2631151
28	0xbe457aac	-0.19285077
29	0x3e3c7811	0.18405177
30	0x3eed9d2c	0.46408975
31	0xbe4c83b6	-0.19972119
32	0x3f0e4d08	0.5558629
33	0x3f036172	0.51320565
34	0x3f2baf32	0.670642
35	0xbb06b446	-0.0020554229
36	0x3c485dff	0.012229442
37	0xbee057d6	-0.43817014
38	0xbf258ca7	-0.64667743
39	0x3ed9b741	0.42522624
40	0x3e91e022	0.28491312
41	0x3e96d966	0.29462737
42	0xbbce05f7	-0.006287332
43	0x3bd6730b	0.006544476
44	0x3d5e2cb7	0.054241862
45	0x3e51b7b6	0.20480236
46	0x3cb73c4b	0.022367617
47	0xbe2a326b	-0.16620795
48	0xbbdfb998	-0.0068275444
49	0x3cd80046	0.026367318
50	0xbf8270cf	-1.0190676
51	0xbf6897c4	-0.90856576
52	0xbf175561	-0.5911465
53	0xbd943889	-0.07237346
54	0xbd3cc69f	-0.046087857
55	0x3f9c94f0	1.2232952
56	0x3ca9086e	0.020633902
57	0x3e689f67	0.22717057
58	0x3e9efca1	0.31052116
59	0xbe907181	-0.28211597
60	0xbe938ff1	-0.28820756
61	0xbf9604b9	-1.1720191
62	0x3c7252b6	0.014790228
63	0x3e7aa950	0.2447865

base_pointnet.bn_2.running_var f4 [64]
0	0x3dc2d1b2	0.095126525
1	0x3d9b9610	0.075969815
2	0x3d8302ea	0.0639704
3	0x3e80d4ac	0.25162256
4	0x3d542d08	0.051800758
5	0x3e73fff7	0.23828112
6	0x3daa9704	0.08329585
7	0x3d9eb587	0.07749467
8	0x3d9aabc2	0.075522915
9	0x3d9cff32	0.07665862
10	0x3d780549	0.060551915
11	0x3e1dbeba	0.15404788
12	0x3eecfe75	0.46287885
13	0x3daf0d90	0.08547509
14	0x3de2d6a2	0.11076094
15	0x3e05a27e	0.13050267
16	0x3d731099	0.059342
17	0x3d1cdb53	0.0382951
18	0x3dbc4618	0.09193057
19	0x3ddbcc20	0.10732293
20	0x3f29f9fd	0.66397077
21	0x3e014f48	0.126279
22	0x3e11b230	0.1422813
23	0x3e327d09	0.1743051
24	0x3d73158d	0.059346724
25	0x3e45d242	0.19318488
26	0x3e8f9069	0.28039864
27	0x3d855b44	0.06511548
28	0x3dbbe6fc	0.09174916
29	0x3d8d7558	0.06907147
30	0x3e2bbc2a	0.16770998
31	0x3da76bf9	0.08174891
32	0x3d25bb7f	0.040462013
33	0x3d67b850	0.05657226
34	0x3db0cb54	0.08632532
35	0x3db0c549	0.08631379
36	0x3d78d65f	0.060751315
37	0x3d82c968	0.063860714
38	0x3e1d9fca	0.15392986
39	0x3d32d131	0.04365653
40	0x3d32f4c9	0.043690477
41	0x3e66a8ad	0.22525282
42	0x3d74a645	0.05972888
43	0x3dfef4a3	0.124490045
44	0x3d9bf519	0.07615108
45	0x3de9e4b3	0.11420574
46	0x3d603f62	0.054747947
47	0x3e3035f4	0.17208081
48	0x3cd109d2	0.025517378
49	0x3dadc778	0.08485311
50	0x3dbbfb7d	0.09178827
51	0x3e379881	0.1792927
52	0x3d74ddee	0.05978196
53	0x3da11e73	0.07867136
54	0x3d203b43	0.039119016
55	0x3e67381d	0.2258
56	0x3dc133ad	0.094336845
57	0x3d103ac6	0.0352123
58	0x3e69c051	0.22827269
59	0x3d37daea	0.044886507
60	0x3ee2d4e0	0.44303036
61	0x3e2c1dd9	0.16808261
62	0x3e2ae6f9	0.16689672
63	0x3e12c970	0.14334655

fc_1.weight f4 [64, 66]
0	0xbd1759c0	-0.036950827
1	0x3db9461a	0.09046574
2	0x3d1d14a0	0.038349748
3	0xbe063505	-0.13106163
4	0x3d7a9952	0.061181374
5	0xbd11d1d2	-0.03560049
6	0xbb053a86	-0.0020329072
7	0xbdb68443	-0.08911946
8	0xbdb2e7ce	-0.087356195
9	0xbdc8a686	-0.09797387
10	0xbcccd09e	-0.02500182
11	0xbda9f9db	-0.08299609
12	0x3d321177	0.043473687
13	0x3cc1f8a4	0.023678131
14	0xbd07c3c2	-0.033145674
15	0xbdbe2009	-0.09283454
16	0x3db2ba81	0.08726979
17	0xbd9744cd	-0.073861696
18	0xbcc4da55	-0.02402989
19	0xbdbe9c45	-0.0930715
20	0xbdf671b3	-0.12033405
21	0xbde73ea2	-0.11291243
22	0xbcb4687d	-0.02202248
23	0x3d0cb3bc	0.034351096
24	0xbcb7d307	-0.022439493
25	0x3d692550	0.05692035
26	0x3d6b02a2	0.057375558
27	0xbdc8ff6b	-0.09814342
28	0xbcc1bc0b	-0.023649236
29	0xbc8a3c39	-0.01687442
30	0x3db43adb	0.08800288
31	0x3dc45c5b	0.09587928
32	0xbdfe4c70	-0.12416923
33	0xbcc88b99	-0.024480628
34	0x3dd28951	0.10280097
35	0xbdd54c13	-0.10414901
36	0x3ca56c44	0.020193227
37	0xbd0eedcf	-0.03489476
38	0xbdb2059e	-0.08692478
39	0x3d8437a1	0.06455923
40	0xbdae6e00	-0.085170746
41	0x3dc43ca2	0.09581877
42	0xbcc2c5e3	-0.023776
43	0x3d81c040	0.06335497
44	0x3c88beab	0.01669248
45	0x3c8822be	0.016618129
46	0x3c6ee005	0.014579778
47	0xbdd41d9b	-0.10357209
48	0xbdf9a969	-0.121905155
49	0xbd6ed76e	-0.05831092
50	0xbd722e55	-0.059126217
51	0xbb5ba568	-0.0033515338
52	0x3dd406c1	0.10352851
53	0xbd3c5607	-0.04598048
54	0xbdc1ed60	-0.09469104
55	0x3da38b16	0.07985513
56	0xbd9634fe	-0.07334326
57	0xbd35cf11	-0.044386927
58	0xbde92d97	-0.11385649
59	0xbdde6228	-0.108585656
60	0x3cfc1bc6	0.030774962
61	0xbd6d82e8	-0.05798617
62	0x3ddc17b8	0.107467115
63	0x3d227dfa	0.03967092
64	0x3d5292dd	0.05140959
65	0x3db93fe8	0.09045392
66	0x3df36342	0.11884166
67	0xbcac46c8	-0.021029845
68	0x3d8a7412	0.0676042
69	0xbc7ae963	-0.015314433
70	0xbe07dca3	-0.1326776
71	0x3e0f9fe6	0.1402584
72	0x3cdec714	0.027194537
73	0x3d57ddcb	0.052701753
74	0x3dae8a3a	0.085224584
75	0x3c3947b8	0.011308603
76	0x3d955b04	0.072927505
77	0x3db95971	0.09050263
78	0xbda327b8	-0.0796656
79	0x3cf43beb	0.029813727
80	0xbcee2f81	-0.029075386
81	0x3ccaaaeb	0.024739703
82	0xbd8128e9	-0.06306631
83	0xbdd3b8af	-0.1033796
84	0xbb8a5dc1	-0.004222602
85	0x3dd97ca3	0.10619476
86	0xbcefddf3	-0.029280638
87	0xbd425b4f	-0.04745036
88	0x3dd136ce	0.10215531
89	0xbdd08f72	-0.1018361
90	0xbdca538b	-0.09879216
91	0x3e81b5db	0.25334057
92	0x3d219613	0.039449763
93	0x3c94b8a1	0.018154444
94	0xbcd340bb	-0.025787702
95	0xbd8e2a77	-0.06941693
96	0x3d7a2d9d	0.061078656
97	0xbde1d4c4	-0.1102691
98	0x3ca9673c	0.020679109
99	0x3d2e6683	0.04257823
100	0xbcc3be5b	-0.02389448
101	0x3daf8722	0.085706964
102	0xbbde0efe	-0.0067766896
103	0x3d661909	0.05617622
104	0x3cbd8dc0	0.02313888
105	0xbd97c2ef	-0.074102275
106	0x3c099a92	0.008398669
107	0x3d2b7884	0.04186298
108	0x3cbf1c56	0.023328941
109	0xbdf4b19c	-0.11947939
110	0xbd7177df	-0.05895221
111	0xbe1566ea	-0.1459004
112	0x3caa68a8	0.020801857
113	0x3d953123	0.07284763
114	0x3d1c29b7	0.03812572
115	0xbd61575f	-0.055014964
116	0xbe6035cd	-0.21895523
117	0xbce6ee10	-0.028189689
118	0x3d01ecd9	0.031720016
119	0xbc45b14b	-0.012066196
120	0x3daaf775	0.0834798
121	0x3dd6675b	0.10468932
122	0xbd59eae5	-0.05320253
123	0x3d8ccd59	0.068751045
124	0x3d6d1076	0.057877026
125	0x3cef72a8	0.029229477
126	0xbd9056a0	-0.070477724
127	0xbcde61c0	-0.02714622
128	0xbb2e5b73	-0.00266048
129	0xbdb5bdd3	-0.08874097
130	0xbe887678	-0.26652884
131	0xbdcee10d	-0.10101519
132	0xbc99d208	-0.018776909
133	0xbf1b0332	-0.6055175
134	0x3dc97574	0.098368555
135	0x3d8f1df3	0.06988134
136	0x3d87439e	0.06604694
137	0x3c8f512a	0.017494757
138	0x3db6eefe	0.08932303
139	0x3d48dbdd	0.049037803
140	0x3de9d33b	0.11417242
141	0x3e102a89	0.14078726
142	0x3d69b875	0.057060678
143	0xbc83a3be	-0.01606929
144	0x3d7fbed3	0.062437844
145	0xbd8bc8bb	-0.06825396
146	0x3c2a4f3a	0.010394866
147	0x3daa7645	0.083233394
148	0x3e2762f1	0.16346337
149	0x3c65ca6a	0.01402531
150	0x3e1de650	0.15419888
151	0x3d722850	0.059120476
152	0x3d9ecba5	0.07753686
153	0x3d8cf247	0.06882148
154	0x3dbde27f	0.09271716
155	0x3e836496	0.25662678
156	0x3e2c950c	0.16853732
157	0x3dfa87a3	0.12232902
158	0xbb265fa2	-0.0025386591
159	0x3beaaa25	0.007161396
160	0x3bf7bb5a	0.007560176
161	0xbdd70acf	-0.105001085
162	0x3dc8fc71	0.098137744
163	0x3d9db5a9	0.077006646
164	0xbe059717	-0.13045917
165	0x3e26023b	0.16211788
166	0xbd5719d4	-0.052514866
167	0x3e3337c8	0.17501748
168	0xbd090051	-0.033447567
169	0x3dcac065	0.098999776
170	0x3dd960f5	0.10614196
171	0x3e0e1ec7	0.13878928
172	0xbe030067	-0.12793122
173	0x3d8861a3	0.06659248
174	0x3bacc3aa	0.0052723484
175	0xbc0a33f8	-0.008435242
176	0x3d0301dd	0.0319842
177	0x3da842ad	0.082158424
178	0x3cfd2d08	0.030905262
179	0x3dc8f635	0.09812585
180	0xbdd7a6e6	-0.1052988
181	0x3dc67fbb	0.096923314
182	0xbde00601	-0.10938645
183	0x3c905da2	0.017622773
184	0xbc59320d	-0.013256562
185	0x3df966df	0.12177824
186	0xbd97876b	-0.07398876
187	0x3c30871a	0.010774398
188	0xbdb40add	-0.087911345
189	0x3d2599c4	0.040429845
190	0xbdf885e3	-0.12134912
191	0x3e01133d	0.12604995
192	0x3da6bdf2	0.08141698
193	0xbd95f83d	-0.07322738
194	0x3c0c756d	0.008572918
195	0x3d72b2f0	0.05925268
196	0x3dbcca30	0.09218252
197	0x3d5b5c2a	0.05355469
198	0x3e12d8ae	0.14340469
199	0x3f0a31dd	0.53982335
200	0xbd809dcb	-0.062800966
201	0xbe0ab27b	-0.13544647
202	0xbc2aa957	-0.01041635
203	0xbc9e1816	-0.019298594
204	0xbda13fe6	-0.07873516
205	0x3c0a3560	0.008435577
206	0xbd345a80	-0.04403162
207	0x3c8dd61a	0.017314006
208	0xbd20a25a	-0.03921733
209	0xbe57eeee	-0.21087238
210	0x3d538eb8	0.05164978
211	0x3d51960b	0.051168483
212	0x3d36c869	0.04462472
213	0x3c1e68a9	0.009668508
214	0xbe22eb81	-0.1591015
215	0xbd08d2f4	-0.033404306
216	0xbe4416be	-0.191493
217	0xbe355ac0	-0.177104
218	0xbdda453b	-0.10657736
219	0xbc535fef	-0.01290129
220	0x3b440edf	0.002991609
221	0x3dc42a27	0.095783524
222	0x3e273e03	0.1633225
223	0x3d2df198	0.04246673
224	0x3c5ef6a9	0.013608613
225	0x3d9e9cb5	0.07744733
226	0x3c103075	0.008800616
227	0xbbeb81c7	-0.0071871015
228	0x3cef993a	0.029247869
229	0xbdbfb7fc	-0.09361264
230	0xbda5f8ae	-0.081040725
231	0xbdbb746b	-0.09153064
232	0x3de0f633	0.10984459
233	0x3c97ed1d	0.018545682
234	0xbd05a2ba	-0.03262589
235	0xbc29b21f	-0.010357409
236	0x3da823cd	0.082099535
237	0xbdf632eb	-0.120214306
238	0xbd9d9d70	-0.076960444
239	0x3d08dfa0	0.03341639
240	0xbdef5f55	-0.11688105
241	0xbd9a0dfa	-0.07522197
242	0x3c98cda1	0.018652739
243	0x3d5c9564	0.053853408
244	0xba4850f4	-0.00076414575
245	0xbc5e14b7	-0.0135547435
246	0x3e019591	0.12654711
247	0xbdcb26ac	-0.099194854
248	0x3e205327	0.1565672
249	0x3d49a3ad	0.04922836
250	0xbd206576	-0.03915926
251	0xbda40247	-0.08008247
252	0xbda2d91a	-0.07951565
253	0xbdbd178e	-0.09233008
254	0x3dca1d83	0.0986891
255	0x3d961a7c	0.0732927

fc_1.bias f4 [64]
0	0xbc28dac9	-0.010306069
1	0xbe26164f	-0.16219448
2	0x3d6f71aa	0.058458008
3	0xbbbd2b93	-0.0057730167
4	0x3cde0299	0.027100848
5	0xbdc4137d	-0.095740296
6	0x3dd1fe4b	0.10253581
7	0xbdfa2f89	-0.12216098
8	0x3d8a903d	0.067657925
9	0xbc94b6ea	-0.018153626
10	0xbd808fd0	-0.0627743
11	0xbe024edc	-0.12725395
12	0x3e181365	0.14851148
13	0xbcb78756	-0.0224034
14	0xbc10803d	-0.008819637
15	0x3c16d3b6	0.009205749
16	0xbd578cad	-0.052624393
17	0x3df76975	0.12080661
18	0xbe0cba9a	-0.13743058
19	0x3d9136fc	0.070905656
20	0xbe0eee86	-0.13958177
21	0xbc0071b1	-0.007839606
22	0x3dd60898	0.10450858
23	0x3dbca28f	0.09210693
24	0x3ddf7ea5	0.109128274
25	0x3cc5ebee	0.024160352
26	0x3e06af79	0.13152875
27	0xbdb2d8e4	-0.08732775
28	0x3d125935	0.035729606
29	0x3d409aef	0.047022756
30	0xbb9aa6fc	-0.004719613
31	0x3dc07d5c	0.093989104
32	0x3da9bdbd	0.08288143
33	0xbdcdc541	-0.10047389
34	0x3d8895dc	0.066692084
35	0x3d1004d9	0.035160873
36	0x3d3931c9	0.045213494
37	0xbb499552	-0.0030759168
38	0xbd966fa8	-0.073455155
39	0x3d95f774	0.073225886
40	0xbc70b8fb	-0.01469254
41	0x3d0bce00	0.034132004
42	0xbb9c0c59	-0.004762214
43	0x3d96d81f	0.073654406
44	0x3dfd5e47	0.123714976
45	0x3ce0a0e6	0.027420472
46	0x3def3f93	0.11682048
47	0x3e05d57b	0.13069718
48	0x3d01f947	0.03173187
49	0xbe1541d3	-0.14575891
50	0xbd4b9a73	-0.04970784
51	0xbcb49f2d	-0.022048557
52	0x3da6479d	0.08119128
53	0x3ddf06f7	0.1089
54	0x3d26fbb2	0.04076738
55	0xbd249c56	-0.040188156
56	0x3d9ce778	0.07661337
57	0xbd59aa35	-0.053140838
58	0x3d03ea45	0.03220584
59	0x3d908a81	0.070576675
60	0x3b822555	0.0039717355
61	0xbe097c93	-0.13426428
62	0x3cf2d315	0.029641667
63	0x3dcd31ed	0.10019288

fc_2.weight f4 [4, 64]
0	0xbd801bbd	-0.06255291
1	0x3dbba3e0	0.09162116
2	0xbecc37ac	-0.39886224
3	0x3e7d8839	0.24758996
4	0xbf804bfd	-1.002319
5	0xbf25ccb0	-0.64765453
6	0xbd0bdf38	-0.034148425
7	0xbef1019a	-0.47071534
8	0xbe502d7c	-0.20329851
9	0x402c2712	2.6898847
10	0x3ec3f4f9	0.38272837
11	0x3db3a61d	0.08771918
12	0xc0942c75	-4.630427
13	0x3daac6ea	0.08338721
14	0x3d91d8ae	0.071214065
15	0xbda291fb	-0.07938
16	0xc09371a2	-4.607621
17	0x3ddad7fc	0.10685727
18	0xc016ab8c	-2.3542204
19	0x3d3a8b49	0.04554299
20	0xbfe77b0b	-1.8084425
21	0xbdac1f11	-0.08404363
22	0xbe765df6	-0.24059281
23	0xbbb1ff28	-0.0054320283
24	0x3cb76567	0.02238722
25	0xc1058a05	-8.346196
26	0xbfc09a65	-1.5047117
27	0x3fa43822	1.282963
28	0x3e258e51	0.1616757
29	0x3ca837b7	0.02053438
30	0x3fc581cd	1.5430237
31	0x3eb99806	0.36248797
32	0x40298aa6	2.6490874
33	0xbcdb42ee	-0.026765313
34	0xbf20e443	-0.628483
35	0xbfbb646a	-1.4640019
36	0x3873680b	5.8032612e-05
37	0x3ea22a85	0.31673065
38	0xbc91b02e	-0.017784204
39	0x3ee9a138	0.45630813
40	0x3c936256	0.017991226
41	0x3da52246	0.08063178
42	0xbd3f77cf	-0.046745118
43	0xbf06c6bd	-0.52647
44	0xbff79110	-1.9341145
45	0xbc945e98	-0.018111512
46	0x3f4d2b3e	0.8014411
47	0x3f1812d0	0.59403706
48	0xbe9b14b7	-0.30289242
49	0xbf028571	-0.50984865
50	0x4024f2a2	2.5773091
51	0x3f8822c3	1.0635608
52	0x3f9d6364	1.2295957
53	0x3e965973	0.2936512
54	0xbdaed81e	-0.08537315
55	0xc0b73ef6	-5.7264357
56	0xbf087c1d	-0.5331438
57	0xbe15efc2	-0.14642242
58	0xbfa1ea86	-1.2649696
59	0x3fe89958	1.8171797
60	0xbbe22568	-0.006901432
61	0xbf7bf585	-0.9842151
62	0xbf2cc6a1	-0.67490584
63	0xbd499f4a	-0.049224176
64	0x3daf05b8	0.08546013
65	0x3e2f45cd	0.1711647
66	0x3e492f42	0.19646934
67	0xbe819a99	-0.2531326
68	0x3e4d491f	0.20047425
69	0xbe941ed0	-0.28929758
70	0xbdb8e3f4	-0.090278536
71	0x403d2ea7	2.9559724
72	0x3d2c984d	0.042137433
73	0xc05f78aa	-3.4917397
74	0xbe445085	-0.19171341
75	0xbdda3665	-0.10654906
76	0x40910e2b	4.5329795
77	0x3dfc294f	0.123125665
78	0x3d895d7f	0.06707286
79	0xbd796620	-0.06088841
80	0x3fb589a4	1.418263
81	0xbd9b8312	-0.07593359
82	0xc06cc5d7	-3.6995752
83	0x3ddfa3ad	0.109198906
84	0x3e05ae63	0.13054805
85	0xbd6e28a7	-0.058144238
86	0xbe027050	-0.12738156
87	0xbe96a24b	-0.29420695
88	0xbdb386ec	-0.08765969
89	0x40214cad	2.520305
90	0x3f96798b	1.1755842
91	0x3fc52a97	1.5403622
92	0xbda7a933	-0.08186569
93	0x3d8a8768	0.06764108
94	0xbfb498fd	-1.4109188
95	0xbc4f2593	-0.012643236
96	0xc073eba7	-3.811258
97	0x3dfb2d52	0.122645035
98	0x3ec9ba87	0.39400122
99	0xbf0cdd19	-0.5502487
100	0x3d1d2e8b	0.038374465
101	0xbf0e1612	-0.55502427
102	0x3d8bd0e5	0.06826953
103	0xbe766a7e	-0.24064061
104	0xbd348c61	-0.04407919
105	0x3de511b8	0.1118502
106	0xbea0520f	-0.31312606
107	0x3e84012a	0.25782138
108	0x3f8d4a8d	1.1038376
109	0x3d77d498	0.06050548
110	0x3f72772d	0.947131
111	0xc05ba482	-3.4319158
112	0x3e267ad9	0.162578
113	0xbab4a011	-0.0013780614
114	0xc03684f4	-2.8518648
115	0xc010ddda	-2.2635407
116	0xbe3b0511	-0.18263651
117	0x3eedc34c	0.46438062
118	0xbe8259ba	-0.2545908
119	0x3f9f6fcb	1.2455992
120	0x3f42058f	0.7578973
121	0x3dca1e1d	0.09869025
122	0x3edc6236	0.4304368
123	0x3eb47400	0.3524475
124	0xbdba0b53	-0.09084191
125	0x3fd811e7	1.6880463
126	0x3fc6d5c2	1.5533984
127	0x3de55f76	0.11199848
128	0xbda00dd0	-0.078151345
129	0xbe2c7fea	-0.1684567
130	0x3e19f83b	0.15036099
131	0xbd1bf26a	-0.03807298
132	0x3e228604	0.15871435
133	0xbd70542b	-0.05867402
134	0xbd84e480	-0.064888954
135	0x3fe033bb	1.7515787
136	0x3dada258	0.0847823
137	0x3f934026	1.1503952
138	0x3e195f55	0.14977773
139	0xbdd69ab6	-0.104787275
140	0xbfa7e841	-1.3117753
141	0xbda07bfe	-0.0783615
142	0x3e0032d3	0.12519388
143	0xbd9eccc4	-0.077539
144	0x3f76e643	0.964451
145	0x3df4db30	0.11955869
146	0xbf48e691	-0.78476816
147	0x3d97f424	0.07419613
148	0x3f31c640	0.6944313
149	0x3db98dc8	0.09060246
150	0x3c6812d0	0.0141646415
151	0x3de34064	0.11096266
152	0xbd72ef6f	-0.059310373
153	0x3f8b37e2	1.0876429
154	0xbe0c1eef	-0.13683675
155	0xbf197e5f	-0.5995845
156	0x3d8ae7f7	0.06782525
157	0x3db5208b	0.08844098
158	0xbe91b433	-0.28457794
159	0x3d20a89c	0.0392233
160	0x3f966e63	1.1752437
161	0x3e572a27	0.21012174
162	0x3e849b44	0.25899708
163	0x4012d241	2.2940829
164	0x3d5e596a	0.05428449
165	0x3d76f2a8	0.06029001
166	0x3c638977	0.013887755
167	0xbe80b810	-0.2514043
168	0xbea222c2	-0.31667143
169	0x3da83f64	0.08215216
170	0x3ec6655c	0.38749206
171	0x3ede5459	0.43423727
172	0xbfee8b3e	-1.8636243
173	0xbc0b4280	-0.008499742
174	0xbfa35d2a	-1.2762806
175	0xc0e87ba1	-7.2650914
176	0xbcb48628	-0.022036627
177	0xbe7c65d0	-0.24648213
178	0xbf0c7565	-0.5486663
179	0x3e500ddb	0.20317785
180	0x3e9d9703	0.30779275
181	0xbf7349b0	-0.95034313
182	0xbdca2e36	-0.09872095
183	0x40152017	2.3300836
184	0xbe892395	-0.2678496
185	0x3d8920e9	0.0669573
186	0x3f242077	0.6411204
187	0xbe49749d	-0.1967339
188	0x3de1d2f7	0.110265665
189	0x3fcb425a	1.5879624
190	0xc0f39549	-7.6119733
191	0x3cfc75d3	0.030817902
192	0x3d157a31	0.036493484
193	0x3cd81666	0.026377868
194	0x3e3fa643	0.18715768
195	0xbe2e92b2	-0.17048147
196	0x3ed18e7a	0.40929013
197	0x3faccfa4	1.3500867
198	0x3debf0bc	0.11520526
199	0xc032cc81	-2.793732
200	0xbd86e770	-0.06587112
201	0x3d9e524a	0.07730539
202	0xbe9d70ef	-0.30750224
203	0x3ea835f2	0.32853657
204	0x3fb416ed	1.4069496
205	0xbe404b0f	-0.18778633
206	0xbe2c2638	-0.16811454
207	0x3d120333	0.035647582
208	0xbeb2dcb1	-0.34934
209	0x3c8877d8	0.016658708
210	0x40a52a98	5.1614494
211	0xbcccf631	-0.025019737
212	0x3f4bf82f	0.79675573
213	0xbda43dcb	-0.080195986
214	0x3e055321	0.13019992
215	0x3e94eb4b	0.29085764
216	0x3c8d7862	0.017269317
217	0x40149bc0	2.3220062
218	0x3de80274	0.11328593
219	0xc092daaf	-4.589195
220	0x3ce6e253	0.028184092
221	0x3d6e6c0c	0.05820851
222	0xbf9e37ca	-1.2360775
223	0xbe9608f3	-0.29303703
224	0xbdf98d8b	-0.121852
225	0xbc5024bb	-0.01270407
226	0xbbfab9e9	-0.0076515567
227	0xbfd15192	-1.6353018
228	0x3c0a2a3f	0.008432924
229	0x3e2550d1	0.1614411
230	0xbd11fdfb	-0.035642605
231	0x3e9b95d5	0.3038775
232	0x3ef096a0	0.46989918
233	0x3dea472b	0.114393555
234	0xbe62dea4	-0.22155243
235	0x3cbd9fff	0.023147581
236	0x3f473953	0.77821845
237	0xbd17b804	-0.037040725
238	0xbe1b1d15	-0.15147813
239	0x40656634	3.584363
240	0x3daed7e5	0.08537272
241	0x3f29500a	0.66137755
242	0xbe5eff59	-0.21777095
243	0x3f71d12c	0.94459796
244	0xbf2b22eb	-0.66850156
245	0x3f1b6f40	0.6071663
246	0x3e8bcad0	0.2730317
247	0x409346c2	4.6023874
248	0xbe08f0ca	-0.13373104
249	0xbe2ac762	-0.16677621
250	0x3f0064b0	0.50153637
251	0xbfdc352c	-1.7203727
252	0xbd84697c	-0.06465432
253	0xc0a583c1	-5.1723332
254	0x3febf816	1.8435085
255	0xbc213326	-0.009838855

fc_2.bias f4 [4]
0	0xbd6fd32a	-0.05855099
1	0xbcf17897	-0.029476447
2	0x3c96723f	0.018365024
3	0xbdb2c41c	-0.08728811
